model_checkpoints/experiments/stage_3/fastscnn_a0.125t6r2pp0_noinit.onnx (onnx, 70404 bytes, 63 tensors)

feature_fusion.conv_high_res.weight f4 [16, 8, 1, 1]
0.7174238 0.4744154 -0.4765402 0.30253252 -1.1166984 -1.1438576 -0.8306972 -0.37811327
-1.3811502 0.50129396 0.0054078335 -0.10354139 0.5982402 0.17474593 0.35136446 0.3598113
0.2840867 1.2659934 1.08723 0.9400336 -0.063983865 0.15114032 -0.4643716 0.58217174
-0.15028013 1.0563656 0.2510491 -0.3817325 -0.27890962 0.45888147 0.458595 0.57407737
-0.67965555 -1.6453527 0.33263925 0.8182781 0.934457 0.32878095 1.1165448 -0.20878427
1.0423611 0.041182853 -0.64647967 -1.2606246 -1.5561551 -0.38232103 -0.15592597 -0.5281597
1.1452849 -0.089087956 0.4522646 0.6560356 -0.4111591 0.42197657 0.7649812 -1.2042632
-0.18385886 -0.015290788 -0.6944552 -0.106609 -0.5266147 -1.1447424 -1.305394 -0.65361226
-0.2966335 -1.526997 -0.27194062 -0.5315636 1.6628634 0.7346199 0.43312493 -0.7665301
-0.4430718 0.13732003 -1.3740408 -0.06040224 0.44300696 0.9662101 1.4276633 0.016212476
0.23784915 0.6365667 -0.34558296 0.27198896 0.38454866 -0.7790875 -0.7154267 0.45286873
0.23056021 -0.34177557 0.23730092 -0.21402001 -0.39733088 -0.15071861 -0.07611244 0.48112303
0.78400314 -0.7162426 -0.82398015 0.37235153 -0.98559475 -0.58219296 -0.042519055 -0.6113021
0.89174855 0.19019358 0.05797706 -0.21459047 -1.1788895 -0.1369879 -0.17457193 -0.06493083
0.4157656 -0.60942155 -0.8131871 0.6272349 -0.5099423 -1.8096579 -1.4679774 -0.63966006
1.4388154 0.19087139 0.81925786 0.44588795 -0.5947365 0.24608697 0.39264068 0.61191475
00000000: 16a9 373f 93e6 f23e 14fd f3be 8be5 9a3e
00000010: f9ef 8ebf ed69 92bf 92a8 54bf 1098 c1be
00000020: 88c9 b0bf cd54 003f 3234 b13b 820d d4bd
00000030: 4526 193f 99f0 323e 0be6 b33e 3039 b83e
00000040: d073 913e 120c a23f 5a2a 8b3f 0ba6 703f
00000050: f909 83bd 87c4 1a3e 1dc2 edbe 3509 153f
00000060: 09e3 19be fd36 873f 8289 803e 7172 c3be
00000070: 3ecd 8ebe 83f2 ea3e f7cc ea3e bcf6 123f
00000080: e8fd 2dbf eb9a d2bf b14f aa3e ac7a 513f
00000090: 9338 6f3f fa55 a83e f1ea 8e3f 8bcb 55be
000000a0: 176c 853f 5aaf 283d b17f 25bf 265c a1bf
000000b0: 1730 c7bf 95bf c3be 0fab 1fbe 7935 07bf
000000c0: b298 923f bf73 b6bd 3a8f e73e f3f1 273f
000000d0: 7283 d2be 500d d83e cfd5 433f 4c25 9abf
000000e0: 7f45 3cbe 3786 7abc d1c7 31bf d255 dabd
000000f0: 39d0 06bf eb86 92bf 2717 a7bf 2253 27bf
00000100: 59e0 97be a374 c3bf cd3b 8bbe 8d14 08bf
00000110: b5d8 d43f 0d10 3c3f 8dc2 dd3e 513b 44bf
00000120: 4fda e2be 9f9d 0c3e 92e0 afbf 5768 77bd
00000130: cfd1 e23e 8c59 773f acbd b63f 07d0 843c
00000140: ba8e 733e 09f6 223f 40f0 b0be 2342 8b3e
00000150: 90e3 c43e 4772 47bf 3426 37bf 69de e73e
00000160: fa17 6c3e 35fd aebe 03ff 723e 1028 5bbe
00000170: f46e cbbe fb55 1abe d7e0 9bbd c255 f63e
00000180: 6eb4 483f ad5b 37bf 5df0 52bf dca4 be3e
00000190: f04f 7cbf 990a 15bf 7628 2ebd 4b7e 1cbf
000001a0: a249 643f 1bc2 423e 5b79 6d3d 9bbd 5bbe
000001b0: dae5 96bf 8e46 0cbe fcc2 32be 74fa 84bd
000001c0: 3bdf d43e 0d03 1cbf 082d 50bf 7792 203f
000001d0: 948b 02bf dfa2 e7bf afe6 bbbf c3c0 23bf
000001e0: 1a2b b83f ca73 433e e2ba 513f 6d4b e43e
000001f0: a740 18bf 39fe 7b3e 3308 c93e 72a6 1c3f

feature_fusion.conv_high_res.bias f4 [16]
-0.15808684 1.1980181 -0.67337966 1.3262447 0.72807574 0.33317247 -0.23263682 -0.048238877
0.6412076 0.029797709 0.0584947 1.4203846 0.87355936 0.2551614 0.028171642 -0.36108693
00000000: 84e1 21be a858 993f 9c62 2cbf 63c2 a93f
00000010: 2c63 3a3f 9595 aa3e 5938 6ebe 2196 45bd
00000020: 2e26 243f 531a f43c 2398 6f3d 2acf b53f
00000030: 96a1 5f3f 84a4 823e 37c8 e63c 63e0 b8be

feature_fusion.conv_low_res.weight f4 [16, 16, 1, 1]
-0.4264829 -0.38801584 0.21869409 0.20986456 -1.091153 0.5249322 -0.6663345 -0.9954872
-0.48969147 0.5187654 -0.4577019 -0.23799837 0.7505625 0.8541802 0.26959923 0.27531838
-0.01244064 0.61373174 -0.5690673 -0.92379344 -0.20696932 0.63790226 0.1387786 0.32324883
0.90748614 -0.8182273 0.38084927 1.4888201 -0.0547393 -0.8343013 -0.66639316 0.6490953
-0.2259417 0.08919415 -0.4115157 0.75517875 -0.84208125 -0.28723124 0.14396968 -1.2473539
-0.48836923 0.49775678 -2.0177572 -0.6069342 -0.28151575 0.037245378 0.414595 0.6210392
0.21123937 0.48710072 -1.0881184 0.6924342 0.22879413 -0.8805675 -1.062636 0.21999723
-0.21957254 -0.8313535 0.6149116 -0.6441208 0.21351135 -1.3430405 0.3075606 -0.8083977
1.0459411 0.49858576 -0.17883912 0.50106955 0.62938106 -0.13145268 0.30861387 1.2238113
0.5247197 0.33638752 0.20999709 0.38141587 -0.0037075512 -0.41771936 -0.2721507 0.032067057
0.34024155 -0.29187092 0.25927386 0.9147244 -0.049437713 -0.83415055 -0.263469 -1.1062268
-0.49346757 0.8475619 0.065292776 -0.8144044 1.1601341 -0.053820115 0.80614465 0.8673077
-0.08316663 0.0628194 -0.34098908 -1.6064118 -0.6289116 0.5645445 0.1955255 -0.51160216
-1.1103711 -0.11334952 -0.41195926 -0.4666318 0.3469372 0.29695255 0.4036742 -0.3496093
-0.35876265 -0.99666363 0.6459792 -0.10364616 0.41340277 0.8537217 -0.78742236 -0.46878722
0.2797538 0.4115056 -0.35679027 -0.4514094 0.22416069 0.32887533 -0.15338045 0.8636005
0.8402111 -0.74221027 -0.036808997 0.08333703 1.0363057 0.3418209 -0.46211126 -0.097025864
-0.4246293 -1.0428478 -0.099749304 0.28758082 -0.6049196 -1.0833061 -0.36959785 -0.31638265
-0.9402212 -0.32427856 -0.27466857 0.026899619 -0.04012482 -0.4296483 -0.34186795 -0.4379552
0.043949865 -0.04863344 -2.379084 0.49437973 0.09446526 -0.06560422 0.008578193 0.17961782
1.1546888 0.44526842 -0.19884503 -0.039314967 -0.6694274 0.8198587 0.23971115 0.22667208
-0.25807142 0.9745834 -0.75636375 0.20143081 0.46608666 0.713605 0.6220992 0.86269605
-0.6472516 0.6290991 -0.46091554 0.43006214 0.038649976 -0.95762306 0.7008078 0.28272712
0.24547184 -0.15332201 0.9170723 -0.3709652 0.39224875 -0.57552856 0.5817439 -0.7996297
0.26929554 0.35242236 -0.41309828 -1.4706175 0.15496682 0.5686788 0.097095 -0.387585
-1.1122222 0.07108261 -0.32152873 0.051021557 0.38854885 -0.53749424 0.46656823 -0.75877494
-0.9971555 -0.26259845 0.22066875 0.44429484 0.020783385 0.17739446 -0.5070406 0.13744001
-0.29248908 0.0072378553 -0.22776322 -0.53722703 0.38048613 0.4140333 0.90402156 0.8287552
-0.041347574 -1.6719209 0.6159448 0.36507764 -0.09618312 -0.0887434 -0.1695892 -0.57017857
-0.12439979 0.17260064 -0.5920022 -0.24485324 0.5227517 0.33498886 0.4798107 0.4372173
-0.10128207 -0.18196726 0.19302124 -1.0459793 0.21279891 0.2971196 -0.28436187 -0.35193214
-1.2345676 -2.378379 -0.16251992 -0.8187769 0.42839685 -1.3475165 0.34433106 0.41014203
00000000: f75b dabe 03aa c6be 58f1 5f3e bce6 563e
00000010: e7aa 8bbf f561 063f e694 2abf 40d8 7ebf
00000020: d7b8 fabe cfcd 043f e757 eabe d8b5 73be
00000030: dd24 403f 8eab 5a3f e908 8a3e 88f6 8c3e
00000040: d3d3 4bbc 861d 1d3f 65ae 11bf ba7d 6cbf
00000050: c4ef 53be 904d 233f fa1b 0e3e df80 a53e
00000060: 0351 683f 5877 51bf adfe c23e a891 be3f
00000070: 5136 60bd c594 55bf be98 2abf 1c2b 263f
00000080: 435d 67be 6cab b63d 30b2 d2be 6553 413f
00000090: a392 57bf f90f 93be ca6c 133e 4ba9 9fbf
000000a0: 880b fabe fad9 fe3e ef22 01c0 0a60 1bbf
000000b0: d522 90be 9c8e 183d cc45 d43e 6dfc 1e3f
000000c0: 224f 583e 4465 f93e 7747 8bbf 5e43 313f
000000d0: 0249 6a3e df6c 61bf 7504 88bf f446 613e
000000e0: a0d7 60be 95d3 54bf d96a 1d3f 1ae5 24bf
000000f0: b8a2 5a3e c0e8 abbf 9578 9d3e 27f3 4ebf
00000100: 66e1 853f a246 ff3e 9a21 37be 1846 003f
00000110: 1e1f 213f 889b 06be a302 9e3e d9a5 9c3f
00000120: 0854 063f fc3a ac3e 7a09 573e f148 c33e
00000130: 63fa 72bb 50df d5be 5657 8bbe bf58 033d
00000140: 2434 ae3e 1b70 95be 8bbf 843e 612b 6a3f
00000150: 337f 4abd e48a 55bf 69e5 86be d798 8dbf
00000160: c8a7 fcbe d1f9 583f 38b8 853d cf7c 50bf
00000170: 467f 943f 7b72 5cbd 7f5f 4e3f e107 5e3f
00000180: 4453 aabd 75a7 803d 1f96 aebe e79e cdbf
00000190: 5a00 21bf fd85 103f d637 483e 5cf8 02bf
000001a0: a420 8ebf cb23 e8bd 53ec d2be 5dea eebe
000001b0: c1a1 b13e 2a0a 983e 62ae ce3e fdff b2be
000001c0: bdaf b7be 5925 7fbf e55e 253f 7044 d4bd
000001d0: 87a9 d33e 818d 5a3f 8394 49bf e104 f0be
000001e0: e43b 8f3e ddb0 d23e 37ad b6be 221f e7be
000001f0: 618a 653e 5962 a83e c40f 1dbe ec14 5d3f
00000200: 1318 573f 7e01 3ebf 08c5 16bd 9bac aa3d
00000210: aaa5 843f 2603 af3e d999 ecbe 7fb5 c6bd
00000220: 0369 d9be 097c 85bf 5d49 ccbd cb3d 933e
00000230: 03dc 1abf c6a9 8abf ee3b bdbe e8fc a1be
00000240: 56b2 70bf d707 a6be 5ca1 8cbe 975c dc3c
00000250: ec59 24bd ddfa dbbe 5109 afbe aa3b e0be
00000260: c604 343d dc33 47bd ea42 18c0 571f fd3e
00000270: 0177 c13d 815b 86bd 8d8b 0c3c bced 373e
00000280: d8cc 933f 39fa e33e 089e 4bbe bb08 21bd
00000290: 985f 2bbf 42e2 513f d776 753e ba1c 683e
000002a0: f021 84be 4c7e 793f 0ea1 41bf e143 4e3e
000002b0: e9a2 ee3e d1ae 363f e541 1f3f a6d9 5c3f
000002c0: 48b2 25bf a30c 213f 1ffd ebbe 1b31 dc3e
000002d0: 704f 1e3d c926 75bf 2468 333f 9cc1 903e
000002e0: f85c 7b3e 7200 1dbe 40c5 6a3f 27ef bdbe
000002f0: d4d4 c83e d755 13bf 2bed 143f 88b4 4cbf
00000300: 1be1 893e b470 b43e 9e81 d3be 323d bcbf
00000310: 9faf 1e3e ef94 113f bed9 c63d 8b71 c6be
00000320: 4c5d 8ebf c293 913d 6a9f a4be fbfb 503d
00000330: e0ef c63e 3999 09bf 08e2 ee3e 133f 42bf
00000340: 9545 7fbf 4e73 86be fdf6 613e 9d7a e33e
00000350: eb41 aa3c e5a6 353e 6acd 01bf 13bd 0c3e
00000360: 21c1 95be 882b ed3b c33a 69be b687 09bf
00000370: 14cf c23e 2cfc d33e f56d 673f 4d29 543f
00000380: 135c 29bd 8101 d6bf 8fae 1d3f 75eb ba3e
00000390: a8fb c4bd 1abf b5bd cba8 2dbe 39f7 11bf
000003a0: 51c5 febd 39be 303e 758d 17bf cfba 7abe
000003b0: 0ed3 053f a983 ab3e c0a9 f53e f2da df3e
000003c0: f96c cfbd a055 3abe 5ca7 453e a6e2 85bf
000003d0: f5e7 593e 0f20 983e e197 91be 7330 b4be
000003e0: 5006 9ebf 5d37 18c0 9f6b 26be 5d9b 51bf
000003f0: d556 db3e 6c7b acbf 294c b03e 23fe d13e

feature_fusion.conv_low_res.bias f4 [16]
0.24488449 1.3593773 -0.8538894 1.1276219 0.8539992 0.28137794 -0.39984003 -0.066260055
0.44464287 0.3268094 0.13771138 1.2175032 0.60016745 0.18975504 0.0036742724 -0.27606562
00000000: 00c3 7a3e 1300 ae3f 7f98 5abf ea55 903f
00000010: b19f 5a3f c510 903e d5b7 ccbe 5ab3 87bd
00000020: 3ba8 e33e 9053 a73e 3604 0d3e 25d7 9b3f
00000030: 93a4 193f 254f 423e 10cc 703b 7958 8dbe

classifier.conv.weight f4 [1, 16, 1, 1]
0.6979526 1.4789283 -0.48958194 -0.7032059 -0.8464701 -1.0139596 0.8688434 -0.8380393
-0.61987466 0.6167918 -1.1709278 -0.9018434 0.5901195 -0.47577822 -0.62488073 -1.0241936
00000000: 06ad 323f 864d bd3f 7caa fabe 4d05 34bf
00000010: 44b2 58bf 6ec9 81bf 856c 5e3f be89 56bf
00000020: 1bb0 1ebf 11e6 1d3f f6e0 95bf 36df 66bf
00000030: 1212 173f 3499 f3be 2ff8 1fbf c718 83bf

onnx::Conv_275 f4 [4, 3, 3, 3]
-0.55466896 -0.4863364 -0.52342004 -0.1879344 0.055772968 -0.14035721 -0.1642988 0.08280989
-0.08864373 -0.4688523 -0.22807372 -0.05472227 -0.47569337 -0.34687707 -0.32628995 -0.48191532
-0.42930514 -0.42191222 -0.07683618 -0.032360032 0.11945093 0.47885185 0.49026656 0.28991568
0.35227346 0.5176903 0.08898569 -0.0025567645 -0.06459418 -0.041888364 0.008899111 0.0025730152
-0.014861338 -0.006824963 -0.0047228104 -0.033321135 -0.0773717 -0.13753493 -0.08588421 -0.036135457
-0.06997925 -0.034150805 -0.008999167 -0.0022075125 -0.0033241818 0.005439264 -0.00959945 -0.032974277
0.029925622 0.030108772 0.050443314 0.050176434 0.06527059 0.0607776 0.79513764 0.041962784
-0.15578818 -0.52853835 -0.034944545 0.8113857 -0.68590516 0.2406766 1.0676087 0.15740806
-0.06470532 -0.6910867 -0.37114567 0.37715128 1.7097105 -0.71292627 0.06809727 1.9583379
0.1096965 -0.606497 -0.74691665 -0.79713976 -0.23650363 0.721506 -0.8907499 -0.2687559
1.07855 -0.0793317 -0.15476204 -0.45069268 -0.039998505 -0.35532913 -0.47492784 -0.15578574
-0.3789568 -0.20800523 0.33228415 0.27289933 0.10068407 0.43573728 0.41110247 0.20555814
0.22673379 0.2659309 0.3159915 0.059086516 -0.08428208 -0.26317772 -0.057316292 0.04516423
0.0069344295 -0.066765755 0.056368593 0.11584191
00000000: c9fe 0dbf 1601 f9be dbfe 05bf e071 40be
00000010: 3272 643d cdb9 0fbe f23d 28be 3b98 a93d
00000020: d88a b5bd 690d f0be 288c 69be 7624 60bd
00000030: 158e f3be df99 b1be 7a0f a7be 9bbd f6be
00000040: e2cd dbbe e104 d8be 4a5c 9dbd f48b 04bd
00000050: b0a2 f43d 122c f53e 3804 fb3e d46f 943e
00000060: 305d b43e 5a87 043f 213e b63d 648f 27bb
00000070: f449 84bd 2293 2bbd 94cd 113c 08a0 283b
00000080: f87c 73bc f0a3 dfbb cec1 9abb be7b 08bd
00000090: 0e75 9ebd f5d5 0cbe 10e4 afbd c602 14bd
000000a0: 4851 8fbd b7e1 0bbd 3e71 13bc eaab 10bb
000000b0: 84da 59bb da3b b23b 0347 1dbc 0910 07bd
000000c0: 9426 f53c aca6 f63c a69d 4e3d ce85 4d3d
000000d0: 96ac 853d eff1 783d 248e 4b3f 2be1 2b3d
000000e0: f086 1fbe 4a4e 07bf 0322 0fbd f9b6 4f3f
000000f0: 7b97 2fbf ed73 763e 67a7 883f 942f 213e
00000100: 3984 84bd 0feb 30bf ce06 bebe f919 c13e
00000110: cbd7 da3f 5682 36bf 9576 8b3d d1aa fa3f
00000120: 8fa8 e03d 6343 1bbf ee35 3fbf 5a11 4cbf
00000130: 022e 72be 9eb4 383f 2f08 64bf 609a 89be
00000140: ed0d 8a3f a978 a2bd f179 1ebe 31c1 e6be
00000150: 79d5 23bd b3ed b5be be29 f3be 4c86 1fbe
00000160: a006 c2be 53ff 54be 2621 aa3e 76b9 8b3e
00000170: 7333 ce3d f518 df3e 067c d23e d57d 523e
00000180: e72c 683e 1828 883e a3c9 a13e b404 723d
00000190: 159c acbd 3bbf 86be 7dc4 6abd 21fe 383d
000001a0: 363a e33b 7cbc 88bd c1e2 663d 863e ed3d

onnx::Conv_276 f4 [4]
-0.31981552 0.8796811 0.31417638 -1.207334
00000000: dcbe a3be c832 613f badb a03e ec89 9abf

onnx::Conv_278 f4 [4, 1, 3, 3]
0.067096874 0.044519402 -0.08003129 -0.09610131 0.01879905 0.17607974 0.095271856 0.29511234
0.2651141 -0.01043229 0.14963712 0.20098217 1.2092094 1.8744986 0.46748397 0.35594556
0.053882904 -0.090115316 0.032671355 0.08872232 0.05327162 0.191222 0.32026288 0.16374993
0.1654432 0.28715616 0.15445592 0.049644597 0.0038941263 0.11689614 0.010316264 0.30635732
0.50922495 -0.18500279 0.28578964 0.5824849
00000000: 166a 893d fa59 363d 72e7 a3bd c3d0 c4bd
00000010: 7700 9a3c 3f4e 343e e41d c33d f718 973e
00000020: 09bd 873e 32ec 2abc 793a 193e 45ce 4d3e
00000030: 60c7 9a3f 92ef ef3f 0f5a ef3e 7f3e b63e
00000040: 52b4 5c3d 618e b8bd 66d2 053d 0cb4 b53d
00000050: 5833 5a3d b3cf 433e 7ff9 a33e 10ae 273e
00000060: f169 293e 2206 933e b129 1e3e 2258 4b3d
00000070: 9934 7f3b 3e67 ef3d 8c05 293c deda 9c3e
00000080: 915c 023f 5f71 3dbe 0553 923e bb1d 153f

onnx::Conv_279 f4 [4]
-0.5323381 -3.6748486 -1.2471001 -0.15415248
00000000: 4f47 08bf b830 6bc0 faa0 9fbf 26da 1dbe

onnx::Conv_281 f4 [6, 4, 1, 1]
0.92601544 -2.0463278 -1.3790351 -0.73067045 -0.33791286 0.093104795 0.40009543 -0.041862667
0.2569312 -0.28314167 0.088481836 1.3104616 -0.16037649 -0.1259015 0.21100228 0.1092927
0.1301769 0.7851174 -0.15409853 -0.13372119 -0.18649608 -0.09148914 0.22651275 0.05934787
00000000: 590f 6d3f 09f7 02c0 3984 b0bf 380d 3bbf
00000010: ea02 adbe baad be3d 4fd9 cc3e 3078 2bbd
00000020: 7c8c 833e f2f7 90be f735 b53d 35bd a73f
00000030: bc39 24be 53ec 00be fb10 583e dad4 df3d
00000040: 184d 053e 74fd 483f 01cc 1dbe 35ee 08be
00000050: d4f8 3ebe a95e bbbd f5f2 673e c116 733d

onnx::Conv_282 f4 [6]
0.23593181 0.83141506 0.2207841 0.98949194 0.520005 0.98273486
00000000: 1c98 713e 9ed7 543f 3a15 623e 584f 7d3f
00000010: 0c1f 053f 8394 7b3f

onnx::Conv_284 f4 [6, 1, 3, 3]
-0.008027343 -0.2179409 -0.2513538 0.11802248 0.6643892 0.69268787 -0.07105947 -0.47917578
-0.43424097 0.4249365 0.68938446 0.8717518 0.038201254 -0.07906834 0.1601616 -0.6898022
-1.4391081 -0.5671488 -0.0711395 -0.17538598 -0.062546976 -0.039890572 -0.16734879 -0.20652099
0.04186755 0.05135569 0.024970414 0.99892235 1.746829 0.73515755 -0.0017121981 -0.22890227
-0.7073663 -0.29783276 -1.269411 -2.8248277 -0.08129273 0.11288848 -0.309116 -0.27392253
0.55856436 0.6675346 -0.2566036 -0.05646126 -0.0006253027 -0.48206094 -1.0909961 -0.36995885
-0.5860849 -1.1132257 -0.62125343 0.5099073 0.47763482 0.8795909
00000000: 1e85 03bc e62b 5fbe 72b1 80be c5b5 f13d
00000010: 6915 2a3f fe53 313f a187 91bd 8756 f5be
00000020: d554 debe 4791 d93e 807b 303f 202b 5f3f
00000030: eb78 1c3d 95ee a1bd 6701 243e e196 30bf
00000040: b234 b8bf aa30 11bf 96b1 91bd 6298 33be
00000050: a118 80bd 4c64 23bd 7b5d 2bbe 3d7a 53be
00000060: 4f7d 2b3d 585a 523d c18e cc3c 60b9 7f3f
00000070: 1898 df3f 4933 3c3f d66b e0ba 5b65 6abe
00000080: f515 35bf 897d 98be 0f7c a2bf fac9 34c0
00000090: ce7c a6bd 1332 e73d 7444 9ebe 933f 8cbe
000000a0: 13fe 0e3f 8ce3 2a3f 8c61 83be ec43 67bd
000000b0: 5beb 23ba b1d0 f6be c3a5 8bbf 3f6b bdbe
000000c0: a909 16bf 2e7e 8ebf 770a 1fbf 4989 023f
000000d0: 8d8c f43e df2c 613f

onnx::Conv_285 f4 [6]
-0.030721193 0.5208786 0.18693024 1.7993594 -0.28674978 2.2412338
00000000: 03ab fbbc 4d58 053f a46a 3f3e 6951 e63f
00000010: ded0 92be 6070 0f40

onnx::Conv_287 f4 [8, 6, 1, 1]
-0.04404511 -0.039067604 -0.42105347 -0.54204947 0.092988625 -0.8149099 0.030460194 -0.5473577
-0.91637826 0.3875946 -0.054478075 0.05103907 0.3977341 0.61387473 -0.28319559 0.4655978
-0.39943153 -0.49809444 -0.28740823 -0.4322536 0.42847827 0.4967522 -0.030358667 -0.42398316
0.3270716 0.12704465 0.4268443 0.5798028 0.81890947 0.46435466 -1.028734 0.21219777
0.09057861 -0.33723527 0.062071413 0.15397085 0.56216395 -0.5238803 0.097502865 -0.7025104
-0.060941 0.7259165 -0.2031047 0.52549213 -0.2092871 0.36291543 -0.10217751 -0.014346857
00000000: a568 34bd 5a05 20bd 5294 d7be c1c3 0abf
00000010: d270 be3d ef9d 50bf a887 f93c a21f 0cbf
00000020: c497 6abf cd72 c63e 6724 5fbd 580e 513d
00000030: cea3 cb3e e526 1d3f 03ff 90be d662 ee3e
00000040: 4a82 ccbe 3c06 ffbe 2c27 93be 5850 ddbe
00000050: 8161 db3e 4e56 fe3e bdb2 f8bc 5214 d9be
00000060: ee75 a73e fe17 023e 568b da3e f56d 143f
00000070: 0da4 513f e5bf ed3e 8ead 83bf 5f4a 593e
00000080: 4781 b93d 1aaa acbe 983e 7e3d 89aa 1d3e
00000090: fae9 0f3f 051d 06bf 95af c73d b9d7 33bf
000000a0: 459d 79bd aad5 393f aefa 4fbe a786 063f
000000b0: 5c4f 56be 0dd0 b93e 7142 d1bd 140f 6bbc

onnx::Conv_288 f4 [8]
0.46113902 0.04782717 0.37362173 0.9572051 -0.1665037 -0.056644425 0.10749256 -0.027657602
00000000: 6a1a ec3e 6ce6 433d 594b bf3e 650b 753f
00000010: f27f 2abe fc03 68bd 0f25 dc3d 3292 e2bc

onnx::Conv_290 f4 [48, 8, 1, 1]
-0.09340001 0.12491722 -1.4442562 -0.8052217 0.37081584 -0.16958052 -0.08685153 0.36176708
0.31473383 0.097499646 -0.65284574 0.44866744 1.3531445 1.48227 0.42802608 -0.010457553
1.6984776 -0.35842437 0.08422625 1.026045 -0.09440459 -0.22794755 0.57011265 -0.12658577
-0.08122404 0.04575065 0.4399869 0.18091202 -0.09812604 -0.34955245 -0.20499665 0.0032864227
0.080005765 -0.12213379 -0.06403953 -0.33626434 -0.2526481 0.036812894 0.021840487 -0.2868628
-0.37317067 -0.19639009 -0.72363365 -0.68579495 1.0549401 0.34036317 0.055260044 -0.41363487
-0.644993 0.83054733 -0.9282227 0.026505413 1.2487949 -0.7161132 0.20619294 -0.43681532
7.099654e-05 0.0005879986 0.0010564021 -0.0003847222 0.0009858249 0.0012698466 0.00069645833 0.00022134723
-0.33822477 0.14814076 -0.7297544 -0.27280578 0.023181044 0.8071814 1.0422124 -0.16153772
0.1336302 -0.6655492 -0.82319 -0.8367122 0.3265187 -0.4703504 -0.51141864 -0.37067282
-0.095716916 -0.047350563 -0.26428366 -0.11800413 0.16529855 -0.29280832 0.57105696 -0.3516713
-0.9467187 0.046929605 -0.40643933 0.6740937 1.2053548 -0.63853115 -0.50490075 0.9800347
0.14504862 0.4542185 0.112525366 0.7344236 -0.031967543 -0.20452064 -0.33684242 0.5726271
-0.3308745 -0.13564746 -0.7758264 -0.31878552 0.25412133 -0.39778084 0.27713606 0.18089479
-0.058076926 -0.028335523 -0.10684325 0.04382366 -0.026833676 -0.062097475 -0.025077377 -0.040994875
-0.23966797 0.4830637 -1.453101 0.18271756 -0.1363844 0.20113347 0.33803636 0.2951855
0.27718666 0.27844527 -0.84543437 0.27459422 -0.4615883 0.56567156 0.9403759 -0.3590623
0.2437575 0.16386044 -0.02105836 0.27484104 0.3098924 -0.17933664 -0.7138222 0.017631812
-1.1425657 1.0717752 -0.5407852 -0.47067243 1.725864 0.37684947 -0.2598327 0.40732828
0.23934962 0.05023634 -0.18068977 -0.46494752 -0.14209962 0.21336707 0.2290903 0.0026319132
-0.32491443 0.15707739 -0.3140343 -0.28994262 -0.4438644 -0.04558744 0.28004146 -0.109149285
1.2502751 -0.64103115 1.2390388 -0.25505435 0.8412844 -0.7152852 0.57527804 -1.3945638
-0.7735495 -0.027312974 -1.0379118 0.69757676 0.7159752 -0.04221309 -0.89100915 0.8654119
0.16713162 -0.43572357 1.0637969 0.90492284 0.43320817 0.2142215 -0.6101878 0.33004028
-0.04727069 -0.33667493 1.2763157 0.63777596 -0.28251758 -0.6168906 -0.4720297 0.40635005
-0.53662246 0.6449942 0.10437871 -0.53337586 -0.2763012 0.37291375 -0.5361533 0.84179574
0.15802355 -0.65234244 -0.37384763 0.17324504 -0.2591504 -0.083002806 0.0884015 -0.3196496
0.1823317 1.2159858 -0.15167645 0.11501169 0.9710911 -0.19109273 0.1893465 -0.3632303
0.009769092 0.3881069 0.53619236 0.012394388 0.19534726 -0.8206437 -0.08636935 0.45226678
-0.33679572 -0.09369205 0.2945094 -0.6627225 0.49216715 0.2680435 0.52401435 -0.21310905
-0.21978372 0.16471183 -0.46935183 -0.3846211 0.41479272 0.038836163 0.14230123 -0.15395206
-0.19864444 0.36871818 0.35312298 0.5533617 1.129075 0.5389058 0.25973013 -0.92535853
00000000: 8148 bfbd 99d4 ff3d 63dd b8bf 0223 4ebf
00000010: 93db bd3e 84a6 2dbe 37df b1bd 8939 b93e
00000020: cb24 a13e e5ad c73d e620 27bf bdb7 e53e
00000030: d733 ad3f 06bb bd3f 3c26 db3e 2856 2bbc
00000040: b767 d93f 6683 b7be d07e ac3d 7155 833f
00000050: 3257 c1bd 156b 69be e7f2 113f b39f 01be
00000060: ca58 a6bd 0965 3b3d f745 e13e 0041 393e
00000070: 4ef6 c8bd 8af8 b2be a4ea 51be 0661 573b
00000080: 10da a33d 4821 fabd 2827 83bd d72a acbe
00000090: 175b 81be 1ec9 163d d2ea b23c aedf 92be
000000a0: 3a10 bfbe 7c1a 49be 0e40 39bf 4290 2fbf
000000b0: 4708 873f 1544 ae3e 5b58 623d f3c7 d3be
000000c0: 431e 25bf c09e 543f 01a0 6dbf e121 d93c
000000d0: 83d8 9f3f 3253 37bf 3e24 533e 42a6 dfbe
000000e0: fae3 9438 eb23 1a3a f976 8a3a 8ab4 c9b9
000000f0: cb36 813a fb70 a63a 8792 363a 7219 6839
00000100: cc2b adbe 36b2 173e 2fd1 3abf 33ad 8bbe
00000110: 2ce6 bd3c 71a3 4e3f 3767 853f 256a 25be
00000120: 5bd6 083e 6f61 2abf 94bc 52bf c532 56bf
00000130: 762d a73e c5d1 f0be 55ec 02bf d4c8 bdbe
00000140: 3b07 c4bd aaf2 41bd 3050 87be 26ac f1bd
00000150: 0644 293e f9ea 95be ca30 123f 430e b4be
00000160: 285c 72bf 4239 403d d118 d0be 6891 2c3f
00000170: 1149 9a3f c776 23bf 2d41 01bf 8ee3 7a3f
00000180: a087 143e 548f e83e b373 e63d 2f03 3c3f
00000190: 66f0 02bd dc6d 51be 9c76 acbe b197 123f
000001a0: 6268 a9be 2be7 0abe 8f9c 46bf db37 a3be
000001b0: 311c 823e eea9 cbbe c7e4 8d3e 7c3c 393e
000001c0: 12e2 6dbd e61f e8bc a2d0 dabd 7080 333d
000001d0: 4cd2 dbbc ec59 7ebd 126f cdbc 3eea 27bd
000001e0: 856b 75be 2054 f73e 37ff b9bf 501a 3b3e
000001f0: 5aa8 0bbe eff5 4d3e 1a13 ad3e 8e22 973e
00000200: 69eb 8d3e 6190 8e3e 636e 58bf 9d97 8c3e
00000210: 4d55 ecbe dacf 103f 7abc 703f 04d7 b7be
00000220: 919b 793e 08cb 273e 9582 acbc f7b7 8c3e
00000230: 37aa 9e3e 06a4 37be 0dbd 36bf 9770 903c
00000240: 983f 92bf ee2f 893f e670 0abf fafb f0be
00000250: 1de9 dc3f 6af2 c03e cb08 85be 558d d03e
00000260: 1118 753e 9fc4 4d3d bd06 39be 9a0d eebe
00000270: 9082 11be e67c 5a3e a696 6a3e 2d7c 2c3b
00000280: 2f5b a6be e5d8 203e 1bc9 a0be 5c73 94be
00000290: 3242 e3be e5b9 3abd 9861 8f3e a989 dfbd
000002a0: 0409 a03f 9e1a 24bf d398 9e3f 7c96 82be
000002b0: 6a5e 573f ee1c 37bf 6c45 133f 1181 b2bf
000002c0: 5707 46bf 75bf dfbc 4bda 84bf 6494 323f
000002d0: 274a 373f a2e7 2cbd 2d19 64bf a28b 5d3f
000002e0: 8d24 2b3e 2917 dfbe 7f2a 883f 06a9 673f
000002f0: 76cd dd3e e25c 5b3e 4535 1cbf 0afb a83e
00000300: e99e 41bd a860 acbe 505e a33f 4945 233f
00000310: 25a6 90be 8bec 1dbf e0ad f1be 1d0d d03e
00000320: 1760 09bf 571e 253f 81c4 d53d 528b 08bf
00000330: 5a77 8dbe 8dee be3e 5841 09bf ed7f 573f
00000340: edd0 213e eaff 26bf f568 bfbe 2667 313e
00000350: 5caf 84be 60fd a9bd d80b b53d 1da9 a3be
00000360: 29b5 3a3e 6ca5 9b3f 1251 1bbe 408b eb3d
00000370: 6d99 783f d0ad 43be 0de4 413e 52f9 b9be
00000380: 8b0e 203c f3b5 c63e e743 093f d511 4b3c
00000390: 1d09 483e b515 52bf 6ae2 b0bd 838f e73e
000003a0: 7d70 acbe 9ee1 bfbd f0c9 963e 2fa8 29bf
000003b0: 55fd fb3e ff3c 893e ce25 063f 4239 5abe
000003c0: fc0e 61be 38aa 283e e24e f0be 0fed c4be
000003d0: b65f d43e ab12 1f3d 6ab7 113e 9ca5 1dbe
000003e0: 7369 4bbe a1c8 bc3e 89cc b43e 1da9 0d3f
000003f0: 8885 903f bbf5 093f 59fb 843e 4ce4 6cbf

onnx::Conv_291 f4 [48]
2.1356068 -1.674014 -2.2843356 0.47173136 1.3837968 0.8400352 0.795501 1.0643114
0.5266428 1.9628971 0.62993133 0.026726289 -0.5341036 1.6157589 -0.88539606 0.99174774
-0.5730459 0.14112902 0.6379837 0.90043354 0.5555221 -1.5962204 0.7206444 -1.812804
-0.86444324 0.8740467 0.6905134 -1.4340377 -0.35529202 0.47582376 1.4404948 -2.0486896
0.94767493 -1.0688671 -1.1592797 -1.2180208 0.19638003 0.37312326 -0.122151464 -1.3143779
0.7501082 1.405583 1.4311728 -1.9380896 2.4451077 -1.0668621 -0.08555938 1.217161
00000000: c8ad 0840 1746 d6bf 8e32 12c0 c686 f13e
00000010: 4120 b13f 8c0c 573f f4a5 4b3f 5b3b 883f
00000020: 10d2 063f 3640 fb3f 2e43 213f 17f1 da3c
00000030: 03bb 08bf 30d1 ce3f 51a9 62bf 2ee3 7d3f
00000040: 23b3 12bf 2084 103e e652 233f d082 663f
00000050: b236 0e3f f350 ccbf 277c 383f f609 e8bf
00000060: 274c 5dbf 86c1 5f3f 7cc5 303f 8c8e b7bf
00000070: d6e8 b5be 2c9f f33e 2262 b83f bb1d 03c0
00000080: d39a 723f a3d0 88bf 4763 94bf 1be8 9bbf
00000090: d917 493e 030a bf3e 8c2a fabd 893d a8bf
000000a0: 1707 403f 25ea b33f ac30 b73f 5213 f8bf
000000b0: a57c 1c40 f08e 88bf c239 afbd efcb 9b3f

onnx::Conv_293 f4 [48, 1, 3, 3]
0.50990313 0.17825645 -0.35834843 1.1619195 0.23454592 -0.67693704 0.35608327 -0.05167767
-1.4186617 -0.09318254 0.04710924 0.09231644 -0.21776834 -0.0907505 -0.16157676 -0.3120227
-0.23998883 -0.17366613 -0.6107425 -0.586751 0.20598203 -0.5205833 -0.5122637 0.5387595
0.0063645914 0.14308684 1.2423507 0.4023376 -0.23219264 0.03279012 -0.065573834 -0.78663594
-0.47183093 0.23527142 -0.32661894 0.19883294 0.394767 0.28403795 0.35484135 -0.0017756044
-0.060285736 -0.39380413 -0.4148398 -0.5618699 -0.2766642 -0.07684725 -0.34776127 0.01198684
0.2471944 0.47164115 0.43059736 0.028441882 0.42316833 0.6111955 -0.3241073 -0.33984032
0.038417585 -0.21655953 0.260477 0.6687288 -0.14118351 -0.14340578 0.1830121 0.037656367
-3.921181 -4.478277 -0.07595558 0.7081794 -0.106848456 -0.055507448 -0.0033385537 0.22627899
-0.00204563 -0.3708598 -0.36216047 -0.19363225 -0.2655438 -0.5067973 -0.24341145 -0.19742596
-0.27116418 1.1910198 0.55599743 0.21117501 -0.3226138 -1.1686517 -1.1688594 0.07108249
0.00080163666 0.326161 0.4095057 0.25778672 0.13447419 -0.18799356 -0.24428089 -0.30579117
0.08290503 0.11075434 -0.09172824 -0.022052947 -0.20217583 -0.040321562 -0.22843279 -0.19518676
-0.22714669 -0.19194965 -0.055879023 -0.112091005 -0.20601432 -0.16099004 0.2695348 0.16515599
0.60657394 0.14066407 -0.12661074 0.124742486 0.13593137 -0.6259118 -0.6740524 -0.2783998
-0.091342926 -0.3375417 -0.05415722 0.02065178 0.019075498 -0.014296878 79.009964 -46.323875
-119.33499 191.01784 243.6379 67.39504 14.771448 84.3114 76.19387 0.020304449
-0.07579115 0.025253925 -0.061069347 0.6248298 0.28211898 -0.19448303 -0.12383167 -0.16491263
0.10143578 0.123776436 0.16664587 0.18187334 0.42843813 0.19343628 0.020017397 0.24985522
0.29498696 1.0956949 0.0156565 -0.64996946 0.84473205 -0.98865104 -1.7961484 0.8293893
0.1120747 0.3178923 0.08896676 0.22236302 -0.16560897 -0.19449197 0.16327292 0.29778028
-0.14075191 0.122035965 0.013771972 -0.41038007 0.09627505 -0.8079637 -0.34631145 0.73054034
0.15670784 0.32280627 0.38204375 -0.32505563 0.18403888 -0.26797828 -0.19651273 -0.26120386
0.24938002 0.5794792 0.2733929 0.10430729 0.036758095 -0.1345214 -0.21177328 -0.11923006
-0.1369515 -0.082376644 -0.069876984 -0.0899088 -0.13711399 -0.11603357 0.31744227 0.124441564
0.11218815 0.24759948 0.14595175 -0.3049816 -0.13907193 -0.06722758 -0.3873146 0.23832946
0.38339484 0.22098733 0.043390613 0.18674876 0.00782575 -0.21687424 -0.052284725 -0.15232918
0.0088992985 -0.29610434 -0.021815488 -0.2337448 0.4461165 0.54977584 -0.036048073 -0.089861915
0.1625387 -0.08419715 -0.22753066 -0.3061762 0.12089831 0.104773104 -0.058024094 -0.2668049
-0.1495588 -0.117454104 1.0913379 0.8259077 0.5938992 0.11409486 0.071749926 -1.0063277
-0.5733496 -0.9556382 -1.9748521 -0.24018921 0.35157692 -0.21105795 -0.21496245 0.71974283
0.027312744 -0.34637067 0.658114 -0.035420664 0.20775688 0.086838394 0.00706933 -0.040876314
00000000: 0389 023f dc88 363e 7279 b7be c7b9 943f
00000010: ce2c 703e bf4b 2dbf 8c50 b63e f7ab 53bd
00000020: b596 b5bf 7dd6 bebd 9ef5 403d 6710 bd3d
00000030: aafe 5ebe 66db b9bd 6174 25be 70c1 9fbe
00000040: a2bf 75be 89d5 31be 9f59 1cbf 5035 16bf
00000050: f4ec 523e f244 05bf b723 03bf 25ec 093f
00000060: 108e d03b 5b85 123e 5905 9f3f 32ff cd3e
00000070: e8c3 6dbe ef4e 063d 934b 86bd f960 49bf
00000080: d393 f1be feea 703e 993a a7be dd9a 4b3e
00000090: e61e ca3e 6c6d 913e c4ad b53e 66bb e8ba
000000a0: 2dee 76bd b2a0 c9be e265 d4be b5d6 0fbf
000000b0: eea6 8dbe 1762 9dbd c40d b2be 7364 443c
000000c0: 8720 7d3e f37a f13e 4277 dc3e f3fe e83c
000000d0: 85a9 d83e 4f77 1c3f 64f1 a5be 8dff adbe
000000e0: c25b 1d3d c8c1 5dbe 3e5d 853e d031 2b3f
000000f0: 6992 10be f7d8 12be 8667 3b3e 903d 1a3d
00000100: a1f4 7ac0 0c4e 8fc0 998e 9bbd 3f4b 353f
00000110: 5dd3 dabd c75b 63bd a3cb 5abb aeb5 673e
00000120: fa0f 06bb 56e1 bdbe 196d b9be 8847 46be
00000130: 5bf5 87be 78bd 01bf da40 79be 082a 4abe
00000140: 08d6 8abe 5673 983f d955 0e3f 433e 583e
00000150: a32d a5be 6196 95bf 2f9d 95bf b293 913d
00000160: ed24 523a 93fe a63e bbaa d13e 9ffc 833e
00000170: 9ab3 093e 6281 40be c524 7abe a990 9cbe
00000180: 1dca a93d 2cd3 e23d 04dc bbbd 62a8 b4bc
00000190: 2e07 4fbe 3928 25bd 49ea 69be 0adf 47be
000001a0: 2499 68be 738e 44be 67e1 64bd f88f e5bd
000001b0: 6bf5 52be 93da 24be 7700 8a3e a71e 293e
000001c0: 6e48 1b3f 3e0a 103e 3fa6 01be fd78 ff3d
000001d0: 9831 0b3e c13b 20bf b38e 2cbf 6b8a 8ebe
000001e0: 0012 bbbd 44d2 acbe f6d3 5dbd ec2d a93c
000001f0: 3844 9c3c 743d 6abc 1a05 9e42 a64b 39c2
00000200: 84ab eec2 9104 3f43 4da3 7343 43ca 8642
00000210: da57 6c41 709f a842 4363 9842 8455 a63c
00000220: 6438 9bbd 52e1 ce3c da23 7abd d9f4 1f3f
00000230: e671 903e 8f26 47be 759b fdbd dbde 28be
00000240: 90bd cf3d 807e fd3d 37a5 2a3e 013d 3a3e
00000250: 3e5c db3e 2914 463e 86fb a33c 0cda 7f3e
00000260: 8808 973e bb3f 8c3f 0f42 803c 6664 26bf
00000270: 5c40 583f 3c18 7dbf 31e8 e5bf db52 543f
00000280: 6c87 e53d c8c2 a23e 3434 b63d 22b3 633e
00000290: 6695 29be e728 47be 0431 273e a876 983e
000002a0: 4521 10be feed f93d d6a3 613c 561d d2be
000002b0: da2b c53d b6d6 4ebf bc4f b1be b104 3b3f
000002c0: 0578 203e dd46 a53e 3d9b c33e b16d a6be
000002d0: b074 3c3e 7334 89be a23a 49be 83bc 85be
000002e0: 7a5d 7f3e c058 143f 27fa 8b3e 0f9f d53d
000002f0: a88f 163d fabf 09be 18db 58be e42e f4bd
00000300: 043d 0cbe 16b5 a8bd aa1b 8fbd 1b22 b8bd
00000310: 9c67 0cbe 02a3 edbd cb87 a23e 38db fe3d
00000320: e7c2 e53d b88a 7d3e 6074 153e 8c26 9cbe
00000330: df68 0ebe 9dae 89bd 194e c6be a30c 743e
00000340: 544c c43e 814a 623e 5bba 313d 113b 3f3e
00000350: 9337 003c 4814 5ebe 8228 56bd 2efc 1bbe
00000360: 5dce 113c fd9a 97be 65b6 b2bc cc5a 6fbe
00000370: 6269 e43e 1cbe 0c3f 25a7 13bd 8609 b8bd
00000380: 8c70 263e 8e6f acbd ccfd 68be 20c3 9cbe
00000390: 8899 f73d 4893 d63d acaa 6dbd a79a 88be
000003a0: f125 19be c78b f0bd f6b0 8b3f b06e 533f
000003b0: c709 183f 91aa e93d a0f1 923d 59cf 80bf
000003c0: 0ac7 12bf b4a4 74bf f4c7 fcbf 29f4 75be
000003d0: e401 b43e 931f 58be 1e1f 5cbe 1141 383f
000003e0: fabe df3c 7f57 b1be 297a 283f 4215 11bd
000003f0: 38be 543e 54d8 b13d d7a5 e73b ec6d 27bd

onnx::Conv_294 f4 [48]
0.035957262 0.8429272 -0.232115 0.77344847 0.103381455 -0.6461653 -0.02821785 7.929945
2.6800995 0.1878697 -0.33684653 1.0823007 -0.4936152 1.3058509 -0.50322574 -0.1744782
-0.6980957 -0.050629422 -0.1696683 0.090477094 -0.87255704 0.30348873 0.05338795 -0.40345347
-0.6953182 0.62159663 1.050526 -0.5772592 1.4285223 0.61193347 -0.19532704 -0.28194252
-1.8138847 0.017437398 -0.47108638 -0.22277227 -0.2945873 -0.40910655 -0.015983136 -0.52668536
0.6907014 0.8427675 0.102945566 1.7847011 -0.29874367 0.8638846 -0.8566676 0.32068747
00000000: ec47 133d 14ca 573f 8eaf 6dbe b800 463f
00000010: a8b9 d33d 176b 25bf 1f29 e7bc 1cc2 fd40
00000020: c086 2b40 ea60 403e 2677 acbe d488 8a3f
00000030: 22bb fcbe 1f26 a73f 67d3 00bf 6aaa 32be
00000040: 66b6 32bf cc60 4fbd 87bd 2dbe 0e4c b93d
00000050: e65f 5fbf e062 9b3e 53ad 5a3d 7491 cebe
00000060: 6000 32bf f520 1f3f a377 863f 42c7 13bf
00000070: d2d9 b63f aca7 1c3f d003 48be c55a 90be
00000080: 602d e8bf e0d8 8e3c 3c32 f1be 6a1e 64be
00000090: 26d4 96be 6a76 d1be 11ef 82bc dad4 06bf
000000a0: cfd1 303f 9cbf 573f 20d5 d23d 1671 e43f
000000b0: eef4 98be 8b27 5d3f 914e 5bbf 2631 a43e

onnx::Conv_296 f4 [8, 48, 1, 1]
0.05299772 0.16359834 -0.070766665 -0.109641574 0.04072205 0.044174038 -0.0010147252 0.27839127
0.27414522 -0.037489865 0.0013289459 0.06385363 0.12315097 0.11792472 0.027138937 -0.16666986
-0.26032707 -0.070171446 0.004757929 -0.11013717 -0.017841937 0.07603716 -0.08408969 0.046033118
0.08198625 -0.057135038 0.19696072 -0.04119399 -0.005692959 0.09481052 -0.10457699 0.004971164
-0.020490624 0.11140014 0.018064275 -0.01804863 -0.22690518 0.0063854684 0.09346012 0.05333581
-0.0669796 -0.033664886 -0.11504008 -0.17424873 0.17813314 -0.13425529 0.048677932 0.0035156938
-0.15672612 0.0068759597 -0.13307019 -0.18056469 -0.04519764 -0.07765066 -0.121196955 0.116938636
0.06523846 -0.11461884 -0.0020097455 -0.024374679 -0.15608294 0.0022625928 0.010699795 -0.051745553
0.040840123 -0.16272564 -0.19177242 -0.03072491 0.005840106 0.2340086 0.018644448 -0.11026681
-0.21240668 0.0338483 -0.2544937 -0.07359506 0.32441393 -0.004718157 -0.016000763 0.019342607
0.14687048 -0.11387841 0.101684846 0.21604243 -0.038335886 -0.22945933 -0.22542098 -0.034644324
0.1373393 0.079611115 -0.23463024 0.3000709 -0.06099024 0.23012719 0.028220939 -0.16005124
0.039156508 0.06652652 0.028248904 -0.065547846 0.027129265 -0.008727196 -0.03359879 -0.18879843
0.020196917 0.19536434 0.10155096 0.11483711 -0.009847961 0.020069782 0.029568153 0.028669784
0.08870987 -0.03606497 -0.08624018 -0.007603354 0.031658433 -0.06309993 -0.019321987 -0.04668777
0.08213276 0.0376856 -0.050764456 -0.14830276 0.12873705 0.094842106 0.06061937 -0.054098457
0.26873764 -0.040022895 0.17078152 0.08414506 -0.12251953 -0.27028537 0.09705291 0.0914409
0.18665922 0.16685177 -0.13858925 0.11845339 -0.14982247 0.1763934 -0.071752444 0.11550823
-0.17539193 0.11413166 -0.023104273 -0.0362218 -0.007380862 -0.1298723 0.15054148 0.082140595
0.0654643 -0.04491828 0.10726633 0.18290019 0.081818305 0.2200492 0.07649367 -0.0904659
0.0052336827 -0.029295303 -0.08603333 -0.024242625 0.07249196 0.07778388 -0.022727381 0.12155663
-0.020323701 -0.04121357 0.030769201 -0.02544184 -0.0136211505 0.10184516 -0.023431685 -0.110410064
0.07015128 0.08220022 0.098459974 -0.05823387 0.0692642 0.08024049 0.12303031 0.17644654
0.046866402 0.014288941 0.0692332 0.14492504 0.13774997 0.028797032 -0.13794927 0.02431252
0.15804492 0.0621349 0.1968691 -0.010587865 -0.055275097 0.111723736 -0.05070664 -0.21314481
0.08810526 -0.055797283 -0.12280961 -0.16389982 -0.04734485 -0.094478875 -0.08440337 -0.014925473
0.015330772 0.02332677 0.18517256 -0.051227834 -0.07123262 0.12174583 0.035640042 -0.15415797
-0.040632106 0.021054495 -0.17147061 0.13154818 -0.0031650588 -0.022343308 0.11472854 0.06769292
-0.083781786 -0.18367173 -0.37203717 -0.1973291 0.19439176 -0.017121747 0.05524719 -0.26068828
-0.17030619 -0.04585321 0.18324517 0.21263836 -0.117981434 0.15404898 0.14354576 -0.14923821
0.21795623 -0.19520721 0.32098126 -0.008166942 -0.08677412 -0.2848043 -0.021645412 -0.24465157
-0.12417798 -0.033263847 0.012613806 0.16583423 0.045307033 -0.15151832 -0.120491475 0.054661598
00000000: 2314 593d 5386 273e 1dee 90bd c38b e0bd
00000010: 2acc 263d d6ef 343d 8700 85ba 4d89 8e3e
00000020: c35c 8c3e f98e 19bd 0630 ae3a b1c5 823d
00000030: 9336 fc3d 8482 f13d 7a52 de3c 81ab 2abe
00000040: 9749 85be 0cb6 8fbd 67e8 9b3b 998f e1bd
00000050: 4129 92bc 5fb9 9b3d 3737 acbd 398d 3c3d
00000060: 68e8 a73d 6e06 6abd 12b0 493e 07bb 28bd
00000070: 008c babb 052c c23d 762c d6bd 25e5 a23b
00000080: f4db a7bc c225 e43d 88fb 933c b8da 93bc
00000090: d559 68be 313d d13b 0568 bf3d a676 5a3d
000000a0: 9a2c 89bd 31e4 09bd 229a ebbd 426e 32be
000000b0: 8968 363e 387a 09be 8362 473d 8e67 663b
000000c0: d07c 20be bb4f e13b 8d43 08be f3e5 38be
000000d0: 2921 39bd 4f07 9fbd 1c36 f8bd 867d ef3d
000000e0: be9b 853d 48bd eabd efb5 03bb 68ad c7bc
000000f0: 35d4 1fbe 0248 143b 314e 2f3c 25f3 53bd
00000100: f947 273d 8da1 26be fd5f 44be ceb2 fbbc
00000110: 5c5e bf3b f39f 6f3e 3ebc 983c 91d3 e1bd
00000120: 2381 59be 84a4 0a3d 004d 82be 02b9 96bd
00000130: 9519 a63e c59a 9abb 0814 83bc 6374 9e3c
00000140: 3765 163e 1539 e9bd 2540 d03d 3a3a 5d3e
00000150: 1706 1dbd 63f7 6abe c2d4 66be 35e7 0dbd
00000160: aca2 0c3e 270b a33d e942 70be e5a2 993e
00000170: e7d0 79bd 76a6 6b3e 992f e73c 79e4 23be
00000180: 9362 203d 0e3f 883d 3f6a e73c f33d 86bd
00000190: 313e de3c 83fc 0ebc e39e 09bd 6054 41be
000001a0: 0174 a53c 970d 483e f3f9 cf3d b82f eb3d
000001b0: 5859 21bc 6269 a43c e938 f23c e5dc ea3c
000001c0: 85ad b53d ddb8 13bd b19e b0bd 8e25 f9bb
000001d0: 46ac 013d 893a 81bd 2549 9ebc ad3b 3fbd
000001e0: 3835 a83d 375c 1a3d 64ee 4fbd aedc 17be
000001f0: a5d3 033e 943c c23d 044c 783d 5896 5dbd
00000200: fb97 893e 0cef 23bd 5ae1 2e3e 3f54 ac3d
00000210: 85eb fabd d862 8abe adc3 c63d 5e45 bb3d
00000220: 9823 3f3e 31db 2a3e 57ea 0dbe b197 f23d
00000230: 106b 19be 79a0 343e f2f2 92bd 948f ec3d
00000240: f199 33be dcbd e93d 2c45 bdbc 4f5d 14bd
00000250: 28db f1bb 3ffd 04be 8c27 1a3e 5439 a83d
00000260: 2612 863d 3bfc 37bd 73ae db3d 304a 3b3e
00000270: 5b90 a73d 9454 613e b7a8 9c3d 3046 b9bd
00000280: 507f ab3b b4fc efbc 3e32 b0bd 7898 c6bc
00000290: aa76 943d 284d 9f3d c62e babc aff2 f83d
000002a0: e47d a6bc 8fcf 28bd b10f fc3c 686b d0bc
000002b0: 3f2b 5fbc 3294 d03d cef3 bfbc ac1e e2bd
000002c0: 79ab 8f3d 9758 a83d 62a5 c93d a386 6ebd
000002d0: 64da 8d3d 2055 a43d 51f7 fb3d 67ae 343e
000002e0: fcf6 3f3d 2a1c 6a3c 23ca 8d3d 3b67 143e
000002f0: 540e 0d3e c1e7 eb3c 9342 0dbe 0d2b c73c
00000300: 87d6 213e 2a81 7e3d 0e98 493e b978 2dbc
00000310: 2468 62bd 6acf e43d c4b1 4fbd a242 5abe
00000320: 8870 b43d b18b 64bd 9b83 fbbd 5bd5 27be
00000330: acec 41bd 247e c1bd addb acbd f989 74bc
00000340: eb2d 7b3c c817 bf3c e09d 3d3e 47d4 51bd
00000350: 68e2 91bd e155 f93d 4bfb 113d 96db 1dbe
00000360: da6d 26bd 7a7a ac3c fe95 2fbe 91b4 063e
00000370: e06c 4fbb 5009 b7bc ccf6 ea3d 96a2 8a3d
00000380: c995 abbd 7114 3cbe a87b bebe a410 4abe
00000390: a20e 473e e842 8cbc e14a 623d ef78 85be
000003a0: bf64 2ebe 93d0 3bbd 9fa4 3b3e dfbd 593e
000003b0: 40a0 f1bd 04bf 1d3e a9fd 123e e7d1 18be
000003c0: eb2f 5f3e 66e4 47be a857 a43e a3ce 05bc
000003d0: a1b6 b1bd dfd1 91be b851 b1bc f185 7abe
000003e0: 0651 febd ac3f 08bd 23aa 4e3c 73d0 293e
000003f0: de93 393d 9e27 1bbe 3cc4 f6bd d7e4 5f3d

onnx::Conv_297 f4 [8]
-0.11943839 -0.021450138 -0.6894769 -0.76756865 -0.027121386 -1.0775228 1.0693648 -0.09721219
00000000: 1d9c f4bd 33b8 afbc 8f81 30bf 617f 44bf
00000010: ab2d debc 44ec 89bf f2e0 883f 2f17 c7bd

onnx::Conv_299 f4 [48, 8, 1, 1]
0.019974101 0.23827825 0.119572975 -0.08921264 -0.5766251 -0.1547111 0.120010406 -0.026766807
0.51531917 0.16892396 0.52866066 0.1077229 -0.5316496 -0.13203007 0.8252487 -0.19994165
0.06756872 -0.29423064 -0.16233923 -0.19565246 0.10744608 -0.3306153 0.12182948 -0.5686364
0.32073072 0.2206621 0.48721173 -0.34696776 -0.55396605 0.34682727 0.5186623 0.092962675
-0.57121634 -0.071919665 0.2473545 -0.15674694 1.0889722 0.9899392 -0.08907192 0.3425586
-0.04553875 -0.09713722 0.5513187 -0.83648294 -0.120383896 0.9897664 0.11766408 -0.28467986
0.066852175 -0.14504915 0.040683407 0.2145225 -0.24461041 0.079557426 -0.031058354 0.15118125
0.194149 -0.12102654 -0.26585624 0.20542873 -0.17322925 0.09267602 0.19880441 0.082856715
-0.30419573 0.00391872 0.03472749 0.010966724 0.053190533 0.47931546 -0.037782375 -0.19672139
0.073357485 0.06301332 0.030434681 0.01985053 0.08998904 -0.12278877 0.16713607 0.42260447
0.17734651 -0.24444352 0.066317074 -0.5349972 -0.17889011 -0.6248586 0.6301027 -0.27981004
-0.057186466 0.21529882 0.012774572 0.06800085 0.010494347 0.32338506 0.14436296 0.053127706
-0.014957915 0.28363904 0.07711947 0.089173384 0.0074298815 0.074725084 0.06827123 0.11403681
0.22454119 -0.30574027 -0.4019984 -0.15452948 -0.24573478 -0.0019459913 0.0990038 -0.1489335
-0.039291106 0.0822219 -0.008379098 0.031338483 0.028234111 0.024419028 0.038283393 0.019851806
0.25647637 0.28292313 0.06738943 -0.14914401 -0.1364857 0.2594869 0.18693832 0.34116003
-0.5330399 -0.102394454 0.1289703 -0.61100984 -0.1010141 0.47299388 -0.30469525 0.1649032
0.116532646 0.03567219 -0.12410046 0.13184658 -0.4704983 0.15877023 -0.06936707 0.09999226
-0.070284024 -0.22508502 -0.07936806 -5.278763e-05 -0.13400075 0.41817996 -0.17616574 -0.0038993424
0.13815872 -0.12829913 0.27645022 -0.26113993 -0.3932182 0.17635863 0.26173946 -0.075980805
0.2109883 -0.06384058 -0.31043884 0.35714307 -0.16739354 -0.011314834 0.002347775 0.019708298
0.04155785 -0.10765117 0.042492546 0.050642006 -0.40586293 0.21635178 -0.16407491 -0.118113525
-0.037242226 -0.38037294 -0.48504198 0.17863213 0.085918285 0.31852788 0.19571705 0.049666468
-0.42450982 0.26103517 0.13650611 -0.738669 0.20482333 0.55014205 0.12948391 -0.8322654
0.015873974 -0.0031914997 -0.010077241 0.008191919 -0.012324609 0.0053050322 -0.0007782494 0.0052872812
-0.1362581 0.30573466 0.37805265 -0.1440126 -0.012865904 0.06655229 -0.20728666 0.105867215
0.045466036 -0.22404875 0.2617123 -0.14225826 -0.8641849 0.48206282 -0.42344546 -0.18894857
0.01194294 -0.36225587 0.05102217 -0.33051306 -0.07545127 -0.3219251 -0.19190438 -0.536782
-0.93503004 0.03382799 -0.9907299 0.37161914 0.27562228 0.8748554 0.44595504 0.3779113
0.36369815 -0.31195134 -0.17460501 0.23487449 -0.17010956 -0.43027282 -0.035369832 0.004191061
0.09472451 -0.4005726 -0.2818563 0.026732301 -0.33037022 -0.29541042 -0.18820147 -0.11621155
0.12373743 0.5904963 0.20797259 -0.056279317 0.23064247 -0.075027764 0.27530032 0.098644756
00000000: baa0 a33c 37ff 733e ade2 f43d 1eb5 b6bd
00000010: b49d 13bf 966c 1ebe 04c8 f53d 1046 dbbc
00000020: f5eb 033f 67fa 2c3e 4e56 073f d39d dc3d
00000030: 301a 08bf e432 07be 8043 533f 81bd 4cbe
00000040: 7861 8a3d 66a5 96be 413c 26be 1e59 48be
00000050: b10c dc3d 6946 a9be bc81 f93d 2892 11bf
00000060: d136 a43e 3ff5 613e d173 f93e c2a5 b1be
00000070: b8d0 0dbf 5893 b13e 0dc7 043f 3763 be3d
00000080: 3c3b 12bf 9e4a 93bd 804a 7d3e 4582 20be
00000090: 7163 8b3f a86c 7d3f 576b b6bd d763 af3e
000000a0: d786 3abd e1ef c6bd 3923 0d3f bf23 56bf
000000b0: d58b f6bd 5561 7d3f ddf9 f03d 8fc1 91be
000000c0: cbe9 883d c487 14be a5a3 263d c9ab 5b3e
000000d0: 277b 7abe 01ef a23d 176e febc 42cf 1a3e
000000e0: ffce 463e c3dc f7bd 4f1e 88be e95b 523e
000000f0: 0263 31be edcc bd3d 6293 4b3e c8b0 a93d
00000100: 8bbf 9bbe 9b68 803b 6a3e 0e3d c6ad 333c
00000110: 51de 593d d668 f53e b1c1 1abd 5571 49be
00000120: 733c 963d 210d 813d 2752 f93c 949d a23c
00000130: 2c4c b83d ae78 fbbd b825 2b3e 9d5f d83e
00000140: 539a 353e 674f 7abe 3fd1 873d 94f5 08bf
00000150: f82e 37be bcf6 1fbf 694e 213f 4343 8fbe
00000160: 5b3c 6abd 4b77 5c3e 704c 513c 0844 8b3d
00000170: 7bf0 2b3c ba92 a53e e2d3 133e 709c 593d
00000180: 0b12 75bc 2339 913e d0f0 9d3d 89a0 b63d
00000190: 5d76 f33b 7709 993d c9d1 8b3d 228c e93d
000001a0: 20ee 653e fd89 9cbe bcd2 cdbe fa3c 1ebe
000001b0: e6a1 7bbe a210 ffba 81c2 ca3d 0682 18be
000001c0: b6ef 20bd f563 a83d 7c48 09bc c85c 003d
000001d0: 394b e73c 6a0a c83c 0ccf 1c3d 41a0 a23c
000001e0: df50 833e 4ddb 903e 7803 8a3d 35b9 18be
000001f0: e8c2 0bbe 78db 843e c26c 3f3e 87ac ae3e
00000200: 4e75 08bf 2fb4 d1bd ca10 043e 246b 1cbf
00000210: 7be0 cebd 412c f23e 0401 9cbe 62dc 283e
00000220: aba8 ee3d 011d 123d 6228 febd ca02 073e
00000230: 27e5 f0be aa94 223e 5310 8ebd bec8 cc3d
00000240: 12f1 8fbd b07c 66be b98b a2bd 4968 5db8
00000250: 7e37 09be af1b d63e cb64 34be 1c8c 7fbb
00000260: 7b79 0d3e d960 03be e28a 8d3e 22b4 85be
00000270: e553 c9be 5b97 343e b702 863e d39b 9bbd
00000280: 510d 583e dabe 82bd d7f1 9ebe 75db b63e
00000290: 3669 2bbe da61 39bc 21dd 193b 4c73 a13c
000002a0: 9038 2a3d 3778 dcbd aa0c 2e3d fe6d 4f3d
000002b0: 44cd cfbe 528b 5d3e 4103 28be 81e5 f1bd
000002c0: 4e8b 18bd 3ec0 c2be 6c57 f8be 57eb 363e
000002d0: edf5 af3d 1616 a33e 0d6a 483e 116f 4b3d
000002e0: 5a59 d9be 67a6 853e 42c8 0b3e 6919 3dbf
000002f0: 35bd 513e 1cd6 0c3f 6e97 043e 580f 55bf
00000300: 230a 823c 7b28 51bb 031b 25bc 6637 063c
00000310: 28ed 49bc d6d5 ad3b 6f03 4cba ee40 ad3b
00000320: 3e87 0bbe 4189 9c3e 1e90 c13e 0a78 13be
00000330: 83cb 52bc 914c 883d f442 54be e9d0 d83d
00000340: 983a 3a3d 096d 65be 28ff 853e 26ac 11be
00000350: 393b 5dbf f0d0 f63e d8cd d8be bc7b 41be
00000360: 52ac 433c 9a79 b9be 9ffc 503d 0239 a9be
00000370: 3286 9abd 5ed3 a4be 9582 44be 8c6a 09bf
00000380: 215e 6fbf 388f 0a3d 7aa0 7dbf dd44 be3e
00000390: 5d1e 8d3e 86f6 5f3f 3854 e43e 977d c13e
000003a0: a536 ba3e 16b8 9fbe a8cb 32be f082 703e
000003b0: 3331 2ebe b84c dcbe f5df 10bd 2b55 893b
000003c0: edfe c13d da17 cdbe 784f 90be b3fd da3c
000003d0: 4926 a9be 0940 97be e3b7 40be 5200 eebd
000003e0: 0d6a fd3d c42a 173f c4f6 543e 2485 66bd
000003f0: 8a2d 6c3e 28a8 99bd 2af4 8c3e 4306 ca3d

onnx::Conv_300 f4 [48]
0.52963454 0.0008929968 -0.16986817 0.055473622 0.042332586 -0.345412 0.7038315 -0.76286507
0.39680526 0.36140135 -0.08062631 -0.48496905 0.91861 -0.4991109 -1.0504941 0.58169335
0.3116819 -0.56194115 0.6840474 0.566274 -0.66971713 0.46172246 -0.41239735 0.2155577
-0.8391245 0.5321199 0.07155636 0.0104625 -0.22994481 0.1752979 0.23733795 0.04526615
0.44566134 -0.033096 -0.6865928 -0.05107927 0.8212057 -0.45897627 0.98094356 0.108033106
0.014541876 0.6661805 -0.821039 1.1391944 0.19460417 0.5383871 0.30556798 0.76518863
00000000: 2196 073f 0018 6a3a ecf1 2dbe 4f38 633d
00000010: ef64 2d3d d7d9 b0be 4d2e 343f 204b 43bf
00000020: 0f2a cb3e 9909 b93e 681f a5bd dd4d f8be
00000030: 062a 6b3f 778b ffbe 9776 86bf dbe9 143f
00000040: c594 9f3e 60db 0fbf bb1d 2f3f 55f7 103f
00000050: 9572 2bbf e366 ec3e bf25 d3be 28bb 5c3e
00000060: ddd0 56bf 0339 083f 248c 923d e86a 2b3c
00000070: a776 6bbe 4b81 333e b808 733e 0069 393d
00000080: b92d e43e ac8f 07bd 8cc4 2fbf 7f38 51bd
00000090: 893a 523f f0fe eabe 1e1f 7b3f 7640 dd3d
000000a0: 0c41 6e3c ce8a 2a3f 9d2f 52bf 1fd1 913f
000000b0: 5146 473e bdd3 093f 6873 9c3e 67e3 433f
