model_checkpoints/experiments/fastscnn_a0.25t6r2pp0.pt (torch, 303703 bytes, 151 tensors)

learning_to_down_sample.conv.conv.weight f4 [8, 3, 3, 3]
00000000: 0290 3d3e 18e1 373d e40c 243e 4141 293c
00000010: 1e6e 13bd 7750 0cbe 859c 11be 5067 9dbe
00000020: ddca 63be 9392 0abf b853 28bf 2d51 b8be
00000030: c572 d1be 7ba6 fdbe d6fe f5be 87ed 28bf
00000040: 97a4 7ebf bfde 6fbf 1bb1 783e 1fc9 133e
00000050: 68ce 973e d28f 3c3e 4253 a43c 72e0 163e
00000060: 5d19 7c3e 8678 06bd fc0a 35bd 4f43 1cbf
00000070: 213e 9ebe fe13 08bf 2ec7 9c3b 78a3 ce3d
00000080: b110 27be 337e f93e eeea ce3e 6be3 953e
00000090: 68d9 e2be bad2 1bbf 0216 2dbf 0fae f5be
000000a0: 25ad c5be 7c3b e2be 766e d6be 7384 fcbe
000000b0: fc81 73bf d5c8 9ebe d351 63be fdd7 3ebf
000000c0: 92a8 fbbd 4e7e 163e cfa6 24bd 022a f93e
000000d0: 1ef2 9a3e 9734 203e 3fdf 963d 75d4 24be
000000e0: ad1d 9fbe 66f5 ad3e a155 8b3e ee42 08be
000000f0: 6f91 c83e d691 3b3c cef1 d7be 0302 35bf
00000100: 2fc7 10bf 245d 8bbd 04df 0cbf dff7 15bf
00000110: f752 b7be 551a 61bf 5b86 27bf 732f 4bbf
00000120: 1ab1 b33d 4e37 f4bd c569 1bbe 3986 c63e
00000130: 394a 073e 2fae 893e e643 ab3e 8d19 823d
00000140: f8f0 4c3d 181a 8abc 9980 8abe c9e3 0ebe
00000150: 0dcb 323e 97c6 6bbd 745d b7be b08a 093d
00000160: 994a d5bd 7bfb b7be 5de8 5bbf ee38 5fbf
00000170: 8738 99be feca 75bf 2b4f 70bf 2994 50bf
00000180: 1ee3 ddbe 7049 65bf 5950 6abf bbb1 1a3e
00000190: c56c b53d 2b25 fcbc 2ff1 d23e f156 9d3e
000001a0: cb50 683e 73e5 1a3f 6ec2 ef3e 9cd0 233c
000001b0: 448e 1c3d 023e 083e 2926 b73c 3ee3 dc3d
000001c0: df45 9a3e a652 2f3d c2be 6c3e b6f7 4b3e
000001d0: a432 8c3d 910b 8e3e 4cb5 8c3f 572e 023f
000001e0: 968c ee3e 5567 f63f ae7a 2c3e 5069 ab3e
000001f0: 876e 0740 4da7 1a3e 03af acbe 1d01 5c3e
00000200: 4ec6 97be 9d55 08bf 15aa 7cbb 9413 bcbe
00000210: e76e 0ebf 93fc 2e3e 187e 12bf 59bc 94be
00000220: ea17 2bbf d9c5 b7be 3a75 babe ac98 23bf
00000230: b044 14bf 5951 b1be a043 52bf fbc1 30bf
00000240: 6e87 f73e a648 8e3e d4d2 9d3e ef65 de3e
00000250: c66f cd3e 31d9 8d3e 7713 c53d a965 ee3d
00000260: dede 0a3e bdb8 de3c 9c9e e33d 6c10 b03d
00000270: ea3b b5bd 39e1 cfbb 59df 003e 8eed bfbd
00000280: 5bc7 6ebe d0c6 01be 2855 093d 8a7e 6e3e
00000290: d2b2 223e f380 e63d b2a8 973e 633f 59bd
000002a0: 5973 97be 693d c03d fd11 19be cff8 0d3f
000002b0: db16 783f 6466 25be 6796 293f 8f51 1040
000002c0: 2312 e7be 98ac 543f 9c77 ff3f a40b 733e
000002d0: d0b6 b2be 2470 8fbd d032 00bf 7e0f 20bf
000002e0: a12c 9e3e 9756 19bf 334c 06be f871 a03e
000002f0: df9e 05be 417e 6e3e 25c9 cabb 7e9d 6a3e
00000300: d0a4 223f a134 d8be 3c5b 22be 2fb9 3f3f
00000310: d01e f2be 8b60 8fbe bab7 a13e 6a5e 07bf
00000320: 1895 acbe 6fe9 853f fa75 0dbf 2471 33bf
00000330: e176 a83f 2976 86be f03e 0bbf 572c 993e
00000340: 2ba4 35be 5eb6 e3bd 45fb 2d3f 06d1 0abf
00000350: 2d47 abbe c0cc 503f e964 87be 1fe7 09bf
0.18511966 0.0448924 0.16020542 0.010330499 -0.035993688 -0.1370257 -0.14219864 -0.30742884
-0.22245355 -0.54129905 -0.65752745 -0.35999432 -0.40907875 -0.49541077 -0.48045987 -0.6598744
-0.99469894 -0.9369926 0.2428631 0.1443219 0.29649663 0.18414238 0.020059232 0.14734057
0.2461905 -0.032829784 -0.04419993 -0.61040205 -0.30906776 -0.53155506 0.0047844863 0.10089773
-0.16314961 0.48729095 0.40413612 0.2927507 -0.44306493 -0.6086842 -0.67611706 -0.4798436
-0.3860866 -0.44186008 -0.4188115 -0.493198 -0.95120215 -0.31012598 -0.22199182 -0.7454832
-0.122880116 0.14696619 -0.040198144 0.48664862 0.30262846 0.15645061 0.073667996 -0.16096671
-0.31077328 0.33976287 0.27213767 -0.13306782 0.39173457 0.011448344 -0.4217667 -0.70706195
-0.5655393 -0.068048745 -0.55027795 -0.58581346 -0.35805485 -0.87930804 -0.65439385 -0.79369277
0.08774014 -0.11924611 -0.15177067 0.3877428 0.13211907 0.26890704 0.3345024 0.0635253
0.050034493 -0.016858146 -0.27051237 -0.1395408 0.1746027 -0.057562437 -0.35813487 0.03357953
-0.10414619 -0.35934052 -0.85901433 -0.8719624 -0.2992594 -0.96012866 -0.938708 -0.81476074
-0.4333734 -0.8956518 -0.9152885 0.15106861 0.08858637 -0.030779442 0.41199633 0.30730394
0.2268707 0.6050636 0.46828026 0.009998467 0.038221613 0.13304904 0.022357063 0.107855305
0.30131432 0.04280343 0.23119643 0.19918713 0.068455964 0.277432 1.0992827 0.5085196
0.46591634 1.9250284 0.16843674 0.33478785 2.116121 0.15102883 -0.33727273 0.214848
-0.29643482 -0.53255635 -0.0038553525 -0.36733687 -0.55637974 0.17088537 -0.57223654 -0.29049948
-0.66833365 -0.35893133 -0.36417562 -0.63904834 -0.5791731 -0.34632376 -0.8213444 -0.6904599
0.48345512 0.277898 0.30824912 0.43437144 0.4012434 0.27704766 0.09622853 0.11640484
0.1356158 0.0271877 0.11114237 0.08596882 -0.08849318 -0.0063439873 0.125852 -0.09371482
-0.23318236 -0.12673497 0.033528477 0.23290458 0.15888527 0.11255064 0.29620892 -0.053038966
-0.2958019 0.09386713 -0.14948268 0.55457777 0.96909875 -0.1615234 0.6624512 2.254978
-0.45131025 0.8307586 1.9958377 0.2373491 -0.349051 -0.07003811 -0.50077534 -0.6252364
0.30893424 -0.5989775 -0.13115005 0.3133695 -0.13048886 0.2329035 -0.006188529 0.22911641
0.63532734 -0.42227653 -0.15855116 0.7489194 -0.47289133 -0.28003344 0.31585485 -0.5287844
-0.337075 1.0461863 -0.5525814 -0.70094514 1.3161279 -0.26262024 -0.5439291 0.2991664
-0.17738406 -0.11118768 0.6796153 -0.54225194 -0.3345274 0.81562424 -0.26444176 -0.5386829

learning_to_down_sample.conv.bn.weight f4 [8]
00000000: f21e a63f 1c43 cb3f a781 d73f dcfe 1140
00000010: 12b0 0340 d9a7 8d3f 8452 ce3f 4153 d53f
1.2978194 1.5879855 1.6836442 2.2811804 2.0576215 1.1066848 1.6118932 1.6666032

learning_to_down_sample.conv.bn.bias f4 [8]
00000000: 8854 e1bd 464f 8cbe 578b 65be b6e9 0fbe
00000010: 0de6 353e 9ac2 c63e d7cb 923e 660e 36be
-0.11002451 -0.2740423 -0.22416435 -0.14053997 0.17763539 0.38820344 0.28671142 -0.1777893

learning_to_down_sample.conv.bn.running_mean f4 [8]
00000000: c5d6 8abf f87f 00c0 8230 82bf 0eb2 5fbf
00000010: 456e 5e3f 6ca6 9f3e a44b 903f 8364 34be
-1.0846792 -2.0078106 -1.0171053 -0.87381065 0.8688701 0.31181657 1.1273084 -0.17616467

learning_to_down_sample.conv.bn.running_var f4 [8]
00000000: 02a5 3241 f6de 6f41 e453 0341 d526 8241
00000010: 104f 8941 0e62 8140 d406 7f41 ae84 0a40
11.165285 14.991934 8.207981 16.26896 17.163605 4.0432196 15.939167 2.1643481

learning_to_down_sample.dsconv1.0.weight f4 [8, 1, 3, 3]
00000000: 2ec4 303e a020 07be ad6c aabe 3f09 fabe
00000010: 30ae 00bd 7d06 83be ddfa 06be 1703 bc3f
00000020: 127d 0b3f 2d34 2cbe 0586 dfbe ffd5 92bf
00000030: 6e05 553e 1209 8c3d bca6 01bf e2b7 f03e
00000040: dac8 c93d 1b97 8c3c 1da6 0cbf 4915 6dbf
00000050: a06f 2ebf 220c 69be ba53 91be 04d0 f03b
00000060: c19d e63e 10e9 073f c39d da3e f2ea 4bbd
00000070: caf3 e7be f9dd 49bf d22c e43e 0613 193f
00000080: c7b4 2c3f cd91 31be f0f9 003f 1387 9e3f
00000090: 548c 10bd 3b10 84be a4c8 23bf 3004 193e
000000a0: 953e b43e bc3f f53e c56f 00be 3efe 393f
000000b0: bbe2 763f 27f7 b13e 4335 7a3b 1367 613e
000000c0: b97b 47be 7d53 f9be 4a98 19bf 0fc6 583e
000000d0: 7199 5fbf fe8a 12bf fd5c 06bf 2ba0 20bf
000000e0: 9d4a bdbe f01e b0be d6b2 d7be 4f93 30bd
000000f0: 5d66 c63d 5c68 053f 4d99 3b3f 0d2c 9b3e
00000100: 00e3 853e 3335 763d 4133 003f 16b6 663f
00000110: 7fa7 c33e ae7d b93e 835f 4a3f ec08 2f3f
0.17262337 -0.13196039 -0.33286038 -0.4883518 -0.03141612 -0.25590888 -0.13181634 1.4688443
0.5448772 -0.16816778 -0.43656936 -1.1471556 0.20802853 0.068376675 -0.5064504 0.4701529
0.098527625 0.017161896 -0.5494097 -0.92610604 -0.68139076 -0.22758535 -0.2838419 0.007349016
0.45042232 0.5309 0.42698488 -0.04978461 -0.45303184 -0.7885433 0.44565445 0.5979465
0.67463344 -0.17340775 0.50381374 1.2384971 -0.035290077 -0.25793633 -0.6397803 0.14943004
0.35203996 0.47900188 -0.12542637 0.7265357 0.96439713 0.34758875 0.003817872 0.22011976
-0.1948079 -0.4869651 -0.59998 0.21169303 -0.8734351 -0.57243335 -0.5248564 -0.62744397
-0.36970988 -0.34398603 -0.42128628 -0.043109234 0.09687493 0.52112365 0.73280793 0.30307046
0.2614975 0.06010933 0.5007821 0.9012159 0.38213727 0.36228698 0.7905199 0.6837299

learning_to_down_sample.dsconv1.1.weight f4 [8]
00000000: 960f 223f 9e95 103f eb6d 833f c128 963f
00000010: daac 9c3f 0f74 6f3f 3172 a83f 284a a83f
0.6330503 0.564783 1.0267919 1.1731187 1.224025 0.93536466 1.3159848 1.3147631

learning_to_down_sample.dsconv1.1.bias f4 [8]
00000000: 986c d2bc 6cab 1dbc a29f 863d 4c0d 05bc
00000010: f9ba 6e3d 63d4 1cbd 6430 413c 319f 94bd
-0.025686547 -0.00962339 0.06573416 -0.008120846 0.05828378 -0.038288485 0.011791322 -0.07256926

learning_to_down_sample.dsconv1.1.running_mean f4 [8]
00000000: bb7b b83e 55fb 2cbf d2ea 28bf 10cd ca3f
00000010: ca04 b43f f5ae 91bf b605 3fbf 2342 823f
0.360319 -0.67571 -0.6598331 1.584383 1.4063962 -1.1381518 -0.7461809 1.0176433

learning_to_down_sample.dsconv1.1.running_var f4 [8]
00000000: ba87 6e3f 56f6 3b40 d8ad 3a40 fa7b 2841
00000010: c301 4340 fd4f 5940 843e 823f cc1c 1141
0.9317585 2.9369102 2.9168606 10.530268 3.0469825 3.395507 1.0175328 9.0695305

learning_to_down_sample.dsconv1.2.weight f4 [12, 8, 1, 1]
00000000: bb13 1b3e f08a 64be 58bd 40be ab95 37bd
00000010: ccaa c73d a8fb 16be 7ea8 193e a56b d5bf
00000020: e434 d7bc fcc9 b23e 0190 183c 2de7 06be
00000030: bf72 7e3d fa55 bb3b 6186 9b3e 2ccd 03c0
00000040: 9f88 ebbd c92d 123f f4b9 e3be 67e4 b3be
00000050: 9f4c f63e 3b01 10bf 3a8b a93e de2e d7bc
00000060: e31b 1fbf 004e b43d f2b2 e43d dcfd 1fbe
00000070: 93b8 003f 614c 5fbf 022f 173e 05c4 503c
00000080: 25ea 0cbd f50e 43be 8c88 08bf 4768 a33f
00000090: e44a 5bbf 6d6e b4be 48e9 623e e950 c7bd
000000a0: 78dc a43e a110 003f 3683 5c3f 00cc 113f
000000b0: 034b ebbe 2ffa a7be 339f 2abf c140 25be
000000c0: dd7b d6be afd0 9c3f 2213 e73e c223 53bf
000000d0: 3e28 063e 3bff 6d3e 6aba 04bf d175 653f
000000e0: 8c5f fabe c281 c0bb 6a36 f9be e133 6cbe
000000f0: 3d5d 293f 0fb7 c8bc b873 143f 171b a73c
00000100: b141 c8bd 11b9 993e 385f 183e 48b5 10bf
00000110: 640c 5f3f 597b 0c3d 1fc0 02bf ee23 dd3e
00000120: 030c 37bd 89b7 bf3c 6adc 363f fbad 4a3f
00000130: e298 fbbe e7dd aa3d 700c 19bf beb0 debe
00000140: 2769 f03e 72e8 7dbe 3aed 8ebf eb4d ca3e
00000150: ae38 a7bd 10a7 35be 4c6b 3c3f 157f 26be
00000160: f069 d4bd d5f5 56be 9d87 423f d153 b3be
00000170: cd65 363f b20b f3bd 2c2c 58bf 662b 803e
0.15144245 -0.22318625 -0.18822229 -0.04482047 0.09749374 -0.14744437 0.15005681 -1.6673476
-0.026270337 0.34919727 0.009311677 -0.13174124 0.06212115 0.0057170363 0.3037596 -2.0593977
-0.11500668 0.5710111 -0.44477808 -0.35135195 0.48105332 -0.5625188 0.33114034 -0.026267465
-0.62151927 0.0880394 0.111669436 -0.15624183 0.5028164 -0.8722592 0.14764026 0.012742047
-0.034402985 -0.19048674 -0.53333354 1.2766198 -0.8566115 -0.35240498 0.22159302 -0.09732229
0.32199454 0.50025374 0.8613771 0.56951904 -0.45955667 -0.32808062 -0.6664917 -0.16137983
-0.41891375 1.2251185 0.45131785 -0.8247644 0.13101289 0.23241894 -0.51846945 0.896329
-0.4890102 -0.0058748433 -0.48674327 -0.23066665 0.66157895 -0.024501352 0.5798907 0.02039866
-0.09778155 0.30024007 0.14880073 -0.56526613 0.8712828 0.03429732 -0.51074404 0.43191475
-0.04468919 0.023402946 0.71430075 0.79171723 -0.49140078 0.08343106 -0.59784603 -0.4349422
0.46955225 -0.24795702 -1.1166146 0.39512572 -0.08165108 -0.1773951 0.7360122 -0.16259415
-0.103717685 -0.20992215 0.7598818 -0.35024884 0.71249086 -0.11867465 -0.844424 0.2503311

learning_to_down_sample.dsconv1.3.weight f4 [12]
00000000: 8b01 443f 9f2f 883f 9363 9d3f 2e17 8b3f
00000010: 5aa5 f93e 8ba7 de3f 843c 2540 343d 9f3f
00000020: db2c 093f 13d7 903f b28b c13f ad85 093f
0.76564854 1.0639533 1.2296013 1.0866449 0.48758966 1.739488 2.5818186 1.2440553
0.5358407 1.1315635 1.5120757 0.537196

learning_to_down_sample.dsconv1.3.bias f4 [12]
00000000: 9dfb 1b3f 1583 e73e 4612 893e 222b f4be
00000010: c1da 753f 9784 e13d cba7 32be edb0 393e
00000020: 4d18 3d3f ffe4 643e 8df6 603e bc7f 3e3f
0.60930806 0.45217195 0.26771754 -0.47689158 0.96036917 0.11011618 -0.1744682 0.18133898
0.73865205 0.2235298 0.21969052 0.7441366

learning_to_down_sample.dsconv1.3.running_mean f4 [12]
00000000: 8c48 f63d 6635 1f3e 7293 d93c b7a2 b23d
00000010: 1856 8ebd 406f e93c a4b8 17bd 1cd8 df3c
00000020: 4c0d d63c 7dd7 0b3d 6ebe 82bd ed96 9a3d
0.12025556 0.15547714 0.026559565 0.08722442 -0.06950015 0.028495431 -0.03704132 0.027324729
0.026129387 0.034141053 -0.06383978 0.07548318

learning_to_down_sample.dsconv1.3.running_var f4 [12]
00000000: 37aa 8a40 076d 0741 5c9d 0d3f 8634 483f
00000010: ac8b f140 a9a0 2a40 9804 9e40 f3e2 9f3f
00000020: 891b 8340 9c28 d53f c524 a140 1b18 a540
4.333278 8.464118 0.55318236 0.78205144 7.5483 2.666056 4.9380608 1.2491134
4.097111 1.6653018 5.0357385 5.1591926

learning_to_down_sample.dsconv2.0.weight f4 [12, 1, 3, 3]
00000000: 62cc 9d3e 162d 4b3f bf28 333f 0668 1c3d
00000010: daa1 ec3e b9ee 033f 9386 bbbc 9d3f 0bbf
00000020: 4a01 14bf 2fba 6cbe cdfa 9a3e e347 683e
00000030: 2c5f 5ebf a423 f13e a484 063f 584a 55bf
00000040: 54e2 af3e 5951 873e 0790 bc3e b036 9b3e
00000050: ee5c 73be 3a24 a73e 4109 21bf 0676 93bf
00000060: 142d 103f ca79 e4bb fd25 2dbf e6c9 8b3e
00000070: 2509 963f 6e80 df3e d6a1 f0be 8182 7e3f
00000080: 509d 1c3f bb3e bdbd 737e 14be 7f35 e9bc
00000090: 34b8 a3be db72 113f dcce 663f 9454 00bf
000000a0: 364f 3dbe 1a2c 243f 54bc 1cbf 25ca 0ebf
000000b0: 5d58 063e d484 703e 79d6 79bf 50dc 98bf
000000c0: e68a 003e 59d2 e1be 35f7 43bf d3cc 823e
000000d0: d049 c33e 9d1c 213e ea6e f3bd 91b0 8ebf
000000e0: 0eed 49bf 00d2 bcbd 68b0 53bf 4269 c9be
000000f0: d5c2 01be 248c 2ebe 66ca ad3e c632 be3d
00000100: 9dc5 fb3e fc74 243e 5c43 853e bff3 80bd
00000110: 5e51 09bf fd56 5bbe 82c1 41bf 9e98 ccbf
00000120: c02c b0be 1174 f4be 2155 9dbe c283 d3bd
00000130: caed 213e 954a 453f b27c 4cbe d570 6bbc
00000140: 9bf8 5e3f adb4 fbbd 95f1 e7be bd76 11bf
00000150: 00c6 c5be 9cdf 523e f332 2e3f 45e2 ce3c
00000160: b5a0 fd3e dbd3 623f 2e0c d4be ceab 90bf
00000170: 0907 543e 35d2 f9bd 815d b2be 5140 1e3f
00000180: cc88 283e 4397 f4bc 0a12 5b3e 1e7b db3e
00000190: 54b0 1ebf 29a7 ccbe e9de 043f d463 06bf
000001a0: eb92 4abf bd82 553f 47fd ff3e 6587 cf3d
0.30819994 0.7936567 0.6998405 0.038185142 0.46217233 0.51536137 -0.022891318 -0.5439394
-0.57814467 -0.23117898 0.3026947 0.22683673 -0.8686397 0.47097504 0.52546144 -0.83316565
0.34352362 0.2642925 0.36828634 0.3031516 -0.23765919 0.32644826 -0.62904745 -1.1520393
0.56318784 -0.006972526 -0.6763609 0.27302474 1.1721541 0.43652672 -0.4699847 0.99417883
0.6117754 -0.092404805 -0.14501362 -0.028467892 -0.31976473 0.5681588 0.9015939 -0.50129056
-0.18487248 0.64129794 -0.61224866 -0.557772 0.13119645 0.2348817 -0.97592884 -1.1942234
0.12552986 -0.44105795 -0.76549083 0.25546893 0.38142252 0.15733571 -0.118863896 -1.1147634
-0.7887734 -0.09219742 -0.8269105 -0.39338118 -0.12671979 -0.17045647 0.3394348 0.09287028
0.49174204 0.16060251 0.26027954 -0.06296491 -0.5363978 -0.21419902 -0.75685894 -1.5984075
-0.34409142 -0.47744802 -0.3072901 -0.10327865 0.15813366 0.7706693 -0.19969442 -0.014370163
0.8709809 -0.122903205 -0.453015 -0.56821805 -0.38627625 0.20593113 0.6804649 0.025254378
0.49536672 0.88604516 -0.41415542 -1.1302431 0.20705809 -0.12198297 -0.34836963 0.6181689
0.16458434 -0.029857283 0.213936 0.42867368 -0.61987805 -0.39971283 0.51902634 -0.52496076
-0.7913043 0.83402616 0.49997923 0.10133246

learning_to_down_sample.dsconv2.1.weight f4 [12]
00000000: bb0d 6e3f f663 283f 5e82 413f 6ccd 863f
00000010: a606 b33f 2b16 ae3f 7e3f 8c3f f0ae a83f
00000020: b277 b03f 4713 b33f 0de1 4f3f f525 923f
0.929897 0.6577753 0.7558955 1.053144 1.3986404 1.3600515 1.0956876 1.3178387
1.3786528 1.3990258 0.81202775 1.1417834

learning_to_down_sample.dsconv2.1.bias f4 [12]
00000000: 2f80 873c da17 2cba 4d61 263c e6ff 1fbc
00000010: 7f23 dbbc c8bc 99bb 2382 1bbc 483e 81bc
00000020: eb47 743c 4f3c 0b3c 0054 ba3b 9f4b 3dbc
0.016540615 -0.00065648335 0.010155034 -0.009765601 -0.026750324 -0.004691694 -0.009491476 -0.015776768
0.014909725 0.008498265 0.005686283 -0.011553674

learning_to_down_sample.dsconv2.1.running_mean f4 [12]
00000000: 83b2 993f b28c 1a3e 566b 1fbf 6415 173f
00000010: 2282 8f3d 9630 98bf 8733 29c0 9391 81bf
00000020: b9d1 903e f84a c03e 7717 07bf d6cd c93c
1.2007602 0.15092734 -0.62273157 0.59017015 0.07007243 -1.1889827 -2.64377 -1.0122551
0.28285006 0.37557197 -0.5277018 0.024634283

learning_to_down_sample.dsconv2.1.running_var f4 [12]
00000000: 6334 7c3e 2089 813e 5c06 0040 5b43 9340
00000010: 7be3 163f c13a ea40 5c64 0a41 0e18 9640
00000020: 0c2a 433e 098f f33f 4a94 1c40 6922 ab3e
0.24629359 0.2529993 2.0003881 4.601972 0.5894086 7.319672 8.649502 4.6904364
0.19059008 1.9028026 2.4465508 0.3342469

learning_to_down_sample.dsconv2.2.weight f4 [16, 12, 1, 1]
00000000: a3f6 3dbf b123 c1be a195 153f 55cf babd
00000010: 1642 98be 7b17 78bf 23e3 5dbe 67e3 743f
00000020: fb4c 23be 3384 943e 28ea 913e 160a 17bf
00000030: 540f 4d3c 84d1 843e 3e8f 033d 82b3 72bf
00000040: 1ae0 b6bd 9d19 06bf 0ba0 b83e a11f 03bf
00000050: 04a4 17bf 9483 433f 4b38 49bf 26c2 e3bd
00000060: 8252 6f3f dca5 c03e ebe0 ab3e eea8 2a3f
00000070: 13d7 a9be 5e9e 8b3c c554 4dbf b82c 643e
00000080: dba8 203e f99b ec3d 1f84 433e 0437 1dbf
00000090: 19a7 84be bea7 99be 0051 283d 09d8 7b3e
000000a0: 8448 6f3e 0af2 b13f a4d5 593e 2b29 f13e
000000b0: a40a eb3e 0f02 2abe c533 343f d458 813c
000000c0: 50cc 90be 4b2f e6bb 4e8f cabe cd03 5bbf
000000d0: 1a5e 18bf bfe8 363e 878f bdbe a318 1c3f
000000e0: 14df 07bf 167a 4a3f be7a 873d 0e75 2fbf
000000f0: 38de 0ebe 6b31 49be 3f6e 5abd 067d f93d
00000100: 4329 8dbf 1050 b13e 5a32 603e 1f02 e23e
00000110: d439 5f3f 48ef f93e e1ad ccbe 9b2c 40bf
00000120: 20a2 263f 62fe 0e3d bd90 9ebe e1bd 5dbe
00000130: 86fc 353f dd04 de3e 62c1 063f b8ee 52bf
00000140: 4fcf e53e dfcc 4bbe 1edb 11be 2444 f13e
00000150: 1ac1 5bbe 31af d3bf 0a89 223f 982e 623e
00000160: c1a3 0f3f 96cd b93d 70fd 64bc 6852 10bf
00000170: 8a11 56be c655 a23e 5ac8 83bc 4716 3f3f
00000180: ae9e 6f3b 323b 603d 103d ecbe d58b c43c
00000190: d100 82bf 9a5c dc3e 7d44 083f 0041 42bf
000001a0: 83c0 f73e 7413 d9bd e890 6abe 5449 173c
000001b0: 3187 9dbd 96eb 12be ce09 0ebd f953 3d3f
000001c0: d275 52be 7047 6cbf 20d8 003e 7925 69bc
000001d0: 3a4c 30bf 0afa 343f 70ba e03e c1d9 1cbe
000001e0: aa79 d53d 771c 07bf 0ffe 61bb 8db6 7f3f
000001f0: 17fe d33e f5ac 68be 115a 1c3f 7665 343a
00000200: e24a 3e3f 144b 4dbe a9e2 02bf edb6 a63e
00000210: fcec ebbe d35d 4dbd 540f 75bf 3ae2 1f3f
00000220: 7c6f 123b 200c 58be 10c8 3ebf f533 99be
00000230: 5cba 223e 2be2 373d 0b77 ba3d d65b 073d
00000240: ea0d fd3e 9525 dfbd f897 ae3a 3363 b6be
00000250: 1b91 2d3f 13c5 b3bd c8f8 103c 02ad c73d
00000260: e5ff 0ebf 0c2d 3dbf 376d 943e 4dab 843f
00000270: a971 f6be ef6a 6a3f b13f 453e 37df dabe
00000280: 8281 483d 1a2d b6bb ae53 65be 9cea 743d
00000290: 439a 6abf 5936 1fbe f4d6 cb3e 8d26 1f3f
000002a0: e595 1b3d c528 50be 631e cbbe 917a 6abd
000002b0: 722b d73e 8a8a 5b3e 68d3 e7ba 54c3 643f
000002c0: 928d e73e 5771 8a3f 7c4d 93be 5547 4b3f
000002d0: 04e8 31be 3b6f c13e 0841 a9be 55c3 b2be
000002e0: becb b73c db44 4ebf da4a d23c 9857 f4be
000002f0: 4192 82be 9481 a2bf e178 c4be a458 013f
-0.7420446 -0.37722543 0.5843144 -0.09121577 -0.2973792 -0.9691083 -0.21668677 0.9565949
-0.15947334 0.2900711 0.2849896 -0.58999765 0.012515862 0.25941098 0.03211903 -0.9480516
-0.08929463 -0.5238283 0.36059603 -0.51220137 -0.59234643 0.7637265 -0.7860152 -0.11121015
0.9348527 0.3762654 0.33570036 0.66664016 -0.331719 0.017043289 -0.80207473 0.22282684
0.15689413 0.11553187 0.19093369 -0.6141207 -0.25908735 -0.3001079 0.041092873 0.2459413
0.23367506 1.390199 0.21272904 0.4710172 0.45906556 -0.16602348 0.70391494 0.015789427
-0.28280878 -0.0070246807 -0.39562458 -0.85552675 -0.5951859 0.17862223 -0.37023565 0.6097509
-0.53074765 0.7909254 0.06615208 -0.68537986 -0.13951957 -0.19647758 -0.053327795 0.121820495
-1.1028217 0.34631395 0.21894208 0.44142243 0.87197614 0.4881537 -0.3997641 -0.7506806
0.65091133 0.034910567 -0.30969802 -0.21654464 0.71088445 0.43363085 0.5263883 -0.82395506
0.44884726 -0.19902371 -0.14243743 0.471223 -0.21460381 -1.6537839 0.63490355 0.22088087
0.56109244 0.090724155 -0.01397644 -0.5637574 -0.20905128 0.31706065 -0.016086746 0.7464337
0.0036563086 0.054743953 -0.46140337 0.023992458 -1.0156499 0.430394 0.53229505 -0.7588043
0.48389062 -0.105994135 -0.2290684 0.009233791 -0.07691801 -0.14347681 -0.03467732 0.7395626
-0.20552757 -0.92296505 0.12582445 -0.014230126 -0.6886631 0.7069403 0.4389224 -0.15317442
0.10423596 -0.5277781 -0.0034483706 0.99887925 0.41404793 -0.22722228 0.6107493 0.0006881574
0.7433301 -0.20048171 -0.51127106 0.32561436 -0.46079242 -0.050138306 -0.95726514 0.6245457
0.0022344282 -0.21098375 -0.7452402 -0.29922453 0.15891403 0.044893425 0.09104737 0.033046566
0.49424678 -0.1089584 0.0013320437 -0.35622558 0.6779954 -0.08777823 0.008848377 0.097497955
-0.55859214 -0.7389686 0.28989574 1.0364777 -0.4813359 0.9156942 0.19262578 -0.42748424
0.048951633 -0.0055595757 -0.22395203 0.059794053 -0.91641635 -0.15548076 0.39812434 0.621682
0.037984747 -0.20328052 -0.3967162 -0.057245795 0.42025334 0.21439567 -0.0017686905 0.8936055
0.45225197 1.0815839 -0.28770053 0.7940572 -0.17373663 0.37780175 -0.33057427 -0.34914652
0.022436019 -0.80573815 0.025670458 -0.4772308 -0.25502208 -1.2695794 -0.38373473 0.5052588

learning_to_down_sample.dsconv2.3.weight f4 [16]
00000000: b58d c23f 9ef1 af3f 8a9b 973f 888f 793f
00000010: 31d9 b43f b910 0040 86c2 0f40 ac7f b93f
00000020: 4cb6 f43f 207d b53f b0aa a03f 6169 953f
00000030: 5065 cd3f 1e53 ab3f b13b b13f c7f2 c93f
1.5199496 1.3745611 1.1844342 0.97484636 1.4128782 2.0010207 2.2462478 1.4492087
1.9118133 1.417881 1.255209 1.1672784 1.6046543 1.338474 1.3846341 1.5777215

learning_to_down_sample.dsconv2.3.bias f4 [16]
00000000: db24 273e 78ac 463e c0e1 913b fb8f 8d3e
00000010: 90aa e43e d4cc d7bd 9c5e be3d 527a 063e
00000020: 501c 4c3e fb19 ff3e 07f8 583d 9168 4f3e
00000030: 6aad 2abd 8d96 203e dba5 dabd aae3 bb3e
0.16322653 0.19401729 0.0044519603 0.2764891 0.4466138 -0.10537115 0.09295389 0.13132599
0.19932675 0.4982451 0.052970912 0.20254733 -0.041669287 0.1568243 -0.10676166 0.3669713

learning_to_down_sample.dsconv2.3.running_mean f4 [16]
00000000: 7f90 353b 6a69 5e3c 7c85 153d 68c6 9bbc
00000010: 10fd 803c 2868 1d3d ed67 96bb 5b41 60bc
00000020: 007b 033d ca60 e038 13b2 aabc c530 ffbb
00000030: 0c5d 05bd f7eb b7bc 0ce2 c3bc c25b 79bc
0.0027704535 0.013574937 0.036504254 -0.019015506 0.01574567 0.03842941 -0.0045900256 -0.013687457
0.032099724 0.00010699181 -0.020836866 -0.007787796 -0.03255944 -0.022451384 -0.023911498 -0.015219631

learning_to_down_sample.dsconv2.3.running_var f4 [16]
00000000: 7bdf f540 7908 8640 529e 8140 9219 a140
00000010: 7351 dd40 d97e 0b41 8fb6 e140 bca6 9940
00000020: 2df0 8c40 25b6 aa40 59bd 8340 8260 6740
00000030: 6c75 c540 052e 4740 004c d940 7c26 0841
7.6835303 4.1885343 4.050576 5.0343714 6.9161925 8.718469 7.053535 4.8016033
4.4043183 5.3347344 4.1168637 3.6152654 6.1705837 3.1121838 6.7905273 8.509396

global_feature_extractor.first_block.0.conv.0.weight f4 [96, 16, 1, 1]
00000000: 9b44 2cbf 4349 8bbe d67b 1dbf 4b66 46bc
00000010: d1a3 9c3e 1fd4 743c 7b52 c3be af7a 52bf
00000020: 0174 48be 2738 27be bcf5 15bf 3d6f 24bf
00000030: a437 babd 4ccd 843e fb3b 1ebe a2b0 09bc
00000040: 5adf ddbe 6e21 4dbe a48e 1ebe 30e2 abbd
00000050: da12 593e f5ba ddbe d2bc 91bf 45a0 1abf
00000060: d311 f9be 122e 8fbe 0354 36bf 4026 983b
00000070: 708d 3cbf 0496 533e 4394 d2be 078e 9abc
00000080: 928d eebe 513a 88be d0a8 1dbe 8ef0 ba3e
00000090: 3b66 ab3e da6d 033f cffa e9be 6a68 3a3f
000000a0: 1555 113f f679 8cbe 6267 80be db30 3f3f
000000b0: 8564 abbe 5922 403f 5fe1 b73d b7bc 703e
000000c0: 2a48 6d3d 5e85 d8be becb d43e ee54 66be
000000d0: 2e64 8fbe 0e08 5b3d 3ea6 22be d817 0b3f
000000e0: a415 1fbd 93e6 503f b853 003f e2c3 343f
000000f0: 92ba 18be 55a2 c13d 60c5 bb3d 6d89 4e3f
00000100: a5c3 8fbe f6cf aebe a1f2 00bf 9359 53be
00000110: 1c6e 02be 1257 94be d8fa abbf db28 0cbf
00000120: 1d7f 30bf 39e7 8dbd 90ac 18bf 050f d8be
00000130: 0903 ac3e 3b74 2b3e 2e42 3dbe bf2e e23e
00000140: c11e 063f d22f f83e 9610 ecbc ea77 72be
00000150: 10f7 783f 21db 19bf 94ac e63e b1c9 92bd
00000160: 660c 913e b25a 573f 80e6 6a3f 1115 363d
00000170: 4b7a 103e 9963 b03e 89f9 583f e8e4 923e
00000180: cef6 c5be 2b6c d93d cd49 ef3e d241 273f
00000190: 5328 dd3e 6fd2 cc3d 9ade b7be 19e4 ab3d
000001a0: 6c88 0fbf d408 953c 805e 23bf f1e6 6fbd
000001b0: a893 99be 2953 a9be 9057 9b3d 4ec5 4bbf
000001c0: 18f3 61bf 61d4 f4be 7bc0 87be 5044 aabd
000001d0: 25a8 b5be 40fb 76bf 7168 86be 49a3 3bbf
000001e0: bb59 2b3d e623 463e c0ad 9c3e 9083 c13c
000001f0: d078 62be f6e5 2ebf 135b 493e 87b8 56bf
00000200: ec16 03bf 0391 5b3f 390a 20bf b402 e6be
00000210: 980b dbbe cb0a 153f b670 2cbe 8332 7ebf
00000220: d9ef 54be 8d82 bc3d 695f c7be fafc 85bf
00000230: c8d5 473c 6866 7fbe d3ab 5b3e bc1e 9fbe
00000240: ee16 183e ea2b 443f bb9e 1a3e ba12 d1bc
00000250: 373d c23e d196 543f 0b77 5fbf 7cc1 5d3e
00000260: ee0d f5be 3774 a9be 1a61 a5be 8ef5 9a3e
00000270: 7c94 8fbf 0314 2ebf 9004 15be c24b 20be
00000280: a7f4 213f d240 493f 4959 11bf f364 443e
00000290: ea65 8f3f 1f1d 143f 856e b13e 3d2a 56bf
000002a0: fbfb dd3e f0bc 653e b166 713e c2aa 1bbe
000002b0: 43fd 78bf c8a0 2dbe 5bca 483d faf1 bfbe
000002c0: a98a a4be 1670 9abe 0fb2 b8bc 010c 133f
000002d0: a66d 86be 1d03 523f 1b85 8c3e 0b67 323e
000002e0: a148 1a3f 364d 20bd 0c65 8a3f 5b72 883e
000002f0: a8e0 6a3e fff0 18bf 0bba ad3e dc9c 1dbe
00000300: 175a cbbe f4d1 19be 3d25 8b3a 8cf9 403f
00000310: a103 3fbe 1fae 2cbf 8810 95be 34d6 233f
00000320: db81 b4be 5e3f 8ebe 9955 79bf 8026 393f
00000330: 8dcb 3e3e 6b2a 1b3f 2859 59be f346 0fbd
00000340: 0769 45be 96e2 64be 6c6e b73e 0d46 453d
00000350: baac 82be 6063 77bf 728f 923e 6a1d 29bd
00000360: d323 d9be 0162 e3bd ff1d a33e e36e 173d
00000370: 7d21 643f 01ad 5f3f 2515 e43e bf40 023f
00000380: 1997 c4be 0487 eebe f2af bd3e eeaf 58bf
00000390: d59a 83be 7ba0 b0bf 4409 dfbe 07c1 fcbe
000003a0: 8165 f8be 5486 f6be 3dc5 12bf 0653 413e
000003b0: b8e5 a33e 0884 4d3e 7910 6fbf ce4d 843e
000003c0: 0a1c 0ebf 00b3 8ebe e1d5 1bbf bb50 52bf
000003d0: 1da1 17bf fcc6 2dbe 5c88 193f afd9 88be
000003e0: 5bd4 3c3e 40b3 54be 3afe 32bd afaf 30be
000003f0: 0864 ab3e 8d9b 02be 0d09 9abe 6f53 003f
-0.67292184 -0.27204332 -0.61517084 -0.0121093495 0.30593732 0.014943152 -0.38148865 -0.8221845
-0.19575502 -0.16330014 -0.58578086 -0.64232236 -0.09092644 0.2593788 -0.15452568 -0.008403929
-0.43334466 -0.20032284 -0.154841 -0.08392751 0.21198598 -0.433067 -1.1385748 -0.604008
-0.4864641 -0.27964836 -0.7122194 0.0046432316 -0.73653316 0.20662695 -0.4112874 -0.018866552
-0.46592385 -0.26606992 -0.15396428 0.36511654 0.33476433 0.51339495 -0.45699164 0.72815573
0.5677045 -0.274368 -0.25078875 0.7468392 -0.33475128 0.7505241 0.08978533 0.23509489
0.05793015 -0.4228925 0.41561693 -0.22493336 -0.2800612 0.05347448 -0.15883729 0.5433326
-0.038838997 0.8160183 0.50127745 0.70611393 -0.14914921 0.094547905 0.09168506 0.80678445
-0.28078952 -0.34143037 -0.5037022 -0.20639639 -0.12737316 -0.2897268 -1.3435926 -0.5474984
-0.6894396 -0.06928868 -0.5963831 -0.4219896 0.33596066 0.16743557 -0.18482277 0.4417629
0.52390677 0.48473984 -0.028816503 -0.23678556 0.9725199 -0.6009999 0.45053542 -0.07167376
0.28329772 0.84122765 0.91757965 0.044453684 0.14109151 0.34450987 0.8475576 0.28690267
-0.3866486 0.106163345 0.46735993 0.6533481 0.43194827 0.100010745 -0.3591202 0.083931156
-0.5606754 0.018192686 -0.6381607 -0.058569852 -0.29995465 -0.3307126 0.075850606 -0.7959794
-0.88261557 -0.47818282 -0.26514038 -0.08313811 -0.35479847 -0.9647713 -0.26251557 -0.7329603
0.04183362 0.19349632 0.3060131 0.023622304 -0.22116399 -0.6831964 0.19663648 -0.83875316
-0.5120685 0.85768145 -0.625156 -0.44923937 -0.42782283 0.58219594 -0.16839871 -0.99295825
-0.2079462 0.09204588 -0.3893998 -1.0467827 0.0121969655 -0.24941409 0.21452264 -0.31078136
0.14852497 0.7662951 0.15099613 -0.025521625 0.37937328 0.8304263 -0.8729102 0.2165584
-0.4786219 -0.33096477 -0.32300645 0.30265468 -1.1217189 -0.67999285 -0.14552522 -0.156539
0.63263935 0.7861453 -0.56776863 0.19179134 1.1202977 0.57856935 0.34654632 -0.836582
0.43356308 0.22435355 0.2357433 -0.15201858 -0.97261447 -0.16955864 0.049021106 -0.374893
-0.3213704 -0.3016364 -0.022545842 0.5744019 -0.2625553 0.82036 0.274453 0.1742212
0.6026707 -0.039136134 1.0812087 0.26649746 0.22937262 -0.5974273 0.33931002 -0.15391868
-0.3971717 -0.15021497 0.0010615956 0.7538078 -0.18653728 -0.6745319 -0.29114175 0.63998723
-0.35255322 -0.2778272 -0.97396237 0.7232437 0.18632336 0.606116 -0.21225417 -0.03497977
-0.19278346 -0.2235206 0.35826433 0.04816251 -0.25522405 -0.9663601 0.28625065 -0.041287817
-0.42410144 -0.11102677 0.31858823 0.036970984 0.891136 0.8737336 0.44547382 0.50880045
-0.38396528 -0.46587384 0.37048298 -0.8464345 -0.25704065 -1.3798975 -0.43561757 -0.49366018
-0.4851494 -0.4814936 -0.5733221 0.18879327 0.320112 0.20069897 -0.9338451 0.2584061
-0.55511534 -0.2787094 -0.6087323 -0.82154435 -0.59230214 -0.16970438 0.5997369 -0.2672858
0.18440382 -0.20771503 -0.04369948 -0.17254518 0.33474755 -0.1275465 -0.3008503 0.5012731

global_feature_extractor.first_block.0.conv.1.weight f4 [96]
00000000: 754e 8a3f 5f93 773f 76d1 ce3f ee9f 9b3f
00000010: c6af 583f 22c9 953f b391 c53f b2c8 bc3f
00000020: d846 cf3f b9e1 0940 ed5e b93f 7147 d23f
00000030: 26b8 3e40 006e e73f a98c 6b3f 8b32 af3f
00000040: e6d6 ac3f c82d 0c40 e680 09bd 0e0f 0340
00000050: 06f1 ac3f 4a31 b73f e6bc db3f 3856 633f
00000060: 3de8 ac3f b7d0 bb3e 1f03 d63f 3ea8 0940
00000070: bedc 973f 97bf 5c3f 42c1 de3f 1aad 5e3f
00000080: 0b5e e53f 1d18 973f 9cbc f93f e2f5 2840
00000090: b52a 873f 0d87 da3f 2084 d73f 438a c93f
000000a0: 0bfe c33f 992b a83f 81da ef3f 00bb cf3f
000000b0: 464f bf3f 4b8e 823f 88c6 a83f 0cb7 ee3f
000000c0: cf75 a73f c7e4 b03f 2fe8 cd3f 5cb0 3a3f
000000d0: 9a07 b53f a4eb b03f 9fc7 2540 8026 5c3f
000000e0: 1828 bb3f cb9e 873f 0467 ba3f c9ed aa3f
000000f0: a479 e13f ca5e 3c3f da54 763f 2c2e 643f
00000100: 8147 c33f 7b0f 0740 1e7c ce3f 4ddf c63e
00000110: 54bc d83f cc24 713f 3559 f53f 70f1 f23f
00000120: 8d55 d33f 5a5c ed3f d76c 0f40 5aca de3f
00000130: 776d ef3f 9af3 3e3f 4f4b db3f bd5a a93f
00000140: 7efb 4d3f f917 fa3f bd13 e13e d8a8 7e3f
00000150: 0980 713f c749 443f 68bc c63f b92d e73f
00000160: 93bb 0a40 7a0f d13f 935a 0140 e7e6 e83f
00000170: 6d87 a63f 2866 7a3f 0723 b93f b1e7 c03f
1.0805193 0.96709245 1.6157672 1.2158182 0.8464321 1.1702006 1.5435089 1.4748747
1.6193495 2.154402 1.4482094 1.6428052 2.9799895 1.8080444 0.92011505 1.36873
1.3503082 2.1902943 -0.033570193 2.0477939 1.3511055 1.4311917 1.7167022 0.88803434
1.3508373 0.36682674 1.6719702 2.1508937 1.186424 0.8622984 1.7402728 0.8698288
1.7919325 1.1804234 1.9510684 2.6400075 1.0559908 1.7072464 1.6837196 1.5745319
1.5311903 1.3138305 1.8738557 1.6228943 1.4946067 1.0199674 1.3185587 1.8649611
1.3082827 1.3819817 1.6086482 0.72925353 1.4142945 1.3821912 2.590309 0.85996246
1.4621611 1.0595335 1.4562688 1.3353816 1.7615247 0.73582137 0.96223223 0.8913295
1.5256196 2.1103199 1.6131628 0.3884224 1.6932473 0.9419677 1.9167849 1.8979931
1.6510483 1.8543808 2.241018 1.7405503 1.8705281 0.74590456 1.7132357 1.3230816
0.8046187 1.9538566 0.43960372 0.99476385 0.9433599 0.76675075 1.5526247 1.8060828
2.1676986 1.6332848 2.0211532 1.8195466 1.3010079 0.9781213 1.4463814 1.5070707

global_feature_extractor.first_block.0.conv.1.bias f4 [96]
00000000: dcdc a13e 4b4c 223f 4598 93be 3ae2 8f3e
00000010: f0d8 683f 1cc0 1bbd d3e6 9639 c626 dbbe
00000020: 16e5 703e 4e51 863e 6212 913e ebbb 203e
00000030: 2bb9 e6bc b46b 4d3d 910e 113f 84fe 03bf
00000040: dd55 d73d a53c 513e 6568 01bf ab08 8bbd
00000050: f8aa d43e 8b0b 193e 9c6d 13bc e93c 3f3f
00000060: f8b9 85be 0784 12bf f1b5 4e3e 916b 23be
00000070: 908b 25bd 593c f33e 4334 ed3d 40ae 0d3f
00000080: 5399 913d d3c3 113f 2289 d5bd 9154 4c3e
00000090: 5ab4 b0be efe3 2fbd 20da 89bd d4c0 e0bd
000000a0: 8d0f 8cbe bff6 833e e0bd 4d3d a425 5bbe
000000b0: 5075 1d3e df25 ff3e 68a2 82be 5f35 c23d
000000c0: a6af 32be 9d31 e23c 3df5 343e 00a3 c23e
000000d0: d35a 13be f6a3 78be ac75 5dbd b97a 3f3f
000000e0: ec16 c8be 0f1d f73d 7a59 963e e851 623e
000000f0: a156 3cbe 279f e0be ad47 443f f8d6 063f
00000100: f6b6 a1be 6986 ccbc 460d 33bd d2b2 323f
00000110: 3955 ab3e ab47 0c3f 18e6 343e 9433 343e
00000120: 5cfa 083e a49e e63d 9287 23bd 37d5 3d3e
00000130: 38ce 90be 0104 463f ca6d d7bb 0e49 993e
00000140: 87d2 06bf 00ea d0bd 5b88 5a3f d3a3 22bf
00000150: 91bf bebe 0ec4 c93e 7058 ed3d aa51 ca3d
00000160: 629e de3c d4d6 e0bd a5a0 643d 5fe9 51be
00000170: 3337 1a3e a2b9 d53e da98 783e 0e35 c5be
0.31613815 0.63397664 -0.2882711 0.28102285 0.9095602 -0.038025007 0.00028782207 -0.4280302
0.2352489 0.26233906 0.28334337 0.15696685 -0.028164467 0.05015154 0.5666285 -0.51560235
0.10514424 0.2043329 -0.5054992 -0.06788763 0.4153669 0.1494581 -0.008998301 0.74702317
-0.26118445 -0.5723271 0.20186593 -0.15959002 -0.0404163 0.4750698 0.11582234 0.5534401
0.071093224 0.5693943 -0.10426547 0.19954135 -0.34512597 -0.042941984 -0.06731057 -0.10974279
-0.27355614 0.2577419 0.050229907 -0.21401078 0.15376782 0.4983358 -0.2551453 0.09482836
-0.17449817 0.027611548 0.17671676 0.38014984 -0.14390115 -0.24281296 -0.0540673 0.74796635
-0.39079988 0.12066089 0.2936514 0.22101557 -0.18392421 -0.43871424 0.7667187 0.52671766
-0.315849 -0.024966436 -0.04371383 0.6980411 0.33463457 0.54796857 0.17665899 0.175978
0.13376755 0.11260727 -0.03992421 0.18538366 -0.28282332 0.7734986 -0.006574367 0.2993855
-0.5266499 -0.10200882 0.8536431 -0.63531226 -0.3725553 0.3940739 0.11589134 0.098788574
0.027175132 -0.10978475 0.055817265 -0.2049918 0.1506012 0.4174319 0.24277058 -0.3851704

global_feature_extractor.first_block.0.conv.1.running_mean f4 [96]
00000000: 33b8 02c0 8a6a 3ec0 5b84 993f 3a75 be3f
00000010: b873 2cc0 5ec5 4440 61a5 75bf 987d 3fc0
00000020: 4e46 f6bf 3194 55bf 0698 a83f cbcf a93f
00000030: 74c2 00bf 58c2 1c3f ab5d 45c0 fcb0 98bf
00000040: 3cbf 7cbf 2bd2 8bbe a48f 953f 2b09 923f
00000050: 0d5d 26bf 9498 603f 9f6c acbf f301 18c0
00000060: 6900 b13e 736e bb3f bc6a 203e 8c17 2f3e
00000070: 504d a33e b02a 55bf 1a6c ebbf 2ddf 99bd
00000080: b49a 7cc0 025c 6c3f 1eef 09c0 a338 1340
00000090: b0f6 9cbe 84f1 24c0 f3fd 3740 6ebb 1bc0
000000a0: 348f 893f 0d63 dd3e 915d 77c0 6cac d63f
000000b0: 9770 03be a855 56c0 6ced 963f b1d6 6b3f
000000c0: b48a 1ebf 7080 b93f 5c3e 38be e8eb 453f
000000d0: 4ada dd3f 4633 643f 64a1 ce3f c590 87bf
000000e0: 3f4a 51c0 9dd7 dabf 9588 1ac0 f7f1 143f
000000f0: 19cf 773e d11d 993f e866 71bf cdb8 adbd
00000100: ff5e 3ac0 2de7 20c0 372a 42bf 1759 0bc0
00000110: 1f99 abbf bac2 ebbf badd 9f3f b4fd 043d
00000120: 9624 20bf 0239 35be 684e 8dbe 9814 d5bf
00000130: 74e8 8e3e a11b a0bf 8552 0b3f a5fa a23f
00000140: 5cc6 0fbf 7c2a 23c0 5b26 34be a228 0ec0
00000150: 0282 b9bc 51e1 f03f 43be 54c0 3249 613f
00000160: 32cb 3a40 0f86 1240 56e3 9b3f 2dd8 0ac0
00000170: dd1f d5be db6e 803f 4268 3cc0 eab8 66c0
-2.0424926 -2.9752526 1.1993517 1.4879525 -2.694563 3.0745463 -0.95955473 -2.9920406
-1.9240205 -0.8342925 1.3171394 1.3266538 -0.5029671 0.61234045 -3.083842 -1.1929011
-0.987293 -0.27308783 1.1684461 1.1409048 -0.64985734 0.87732816 -1.3470649 -2.375119
0.34570625 1.4643081 0.15665716 0.17098826 0.31894922 -0.8326826 -1.8392365 -0.075132705
-3.9469423 0.9232789 -2.1552196 2.3003318 -0.30656958 -2.577241 2.8748748 -2.4333148
1.0746827 0.43239632 -3.8650858 1.6771369 -0.12835918 -3.348978 1.1791205 0.9212447
-0.61930394 1.4492321 -0.17992538 0.7731309 1.7332242 0.8914074 1.6143003 -1.0591055
-3.2701566 -1.709705 -2.4145863 0.5818171 0.24200095 1.1962224 -0.9429765 -0.084825136
-2.912048 -2.5141098 -0.75845665 -2.1773126 -1.3406104 -1.8418801 1.248954 0.032468513
-0.62555826 -0.17697528 -0.27598882 -1.664691 0.27911723 -1.2508432 0.5442279 1.2732741
-0.5616205 -2.549468 -0.17592756 -2.22123 -0.022645 1.8818761 -3.3241127 0.8800231
2.918652 2.2894323 1.2178752 -2.1694443 -0.41625872 1.003383 -2.9438634 -3.6050363

global_feature_extractor.first_block.0.conv.1.running_var f4 [96]
00000000: a20c 9240 1960 2d41 e92c 2f40 6b00 9840
00000010: 035d 1e41 843e 0d41 930e bc40 4608 e340
00000020: 67dd 9340 8a6a 1341 f8f7 2b41 ff81 e540
00000030: 6fcf a540 7782 fc40 8d2f 1d41 da0f c440
00000040: 29e2 1641 c7b6 2341 082d e23f 37ee 3740
00000050: f28f 5140 2575 a740 0707 1b41 f148 3941
00000060: bedd 8440 0fdb e53f 27a4 a440 ceb6 0641
00000070: 9889 b63f 34fb fc3f d9b5 d740 f400 1641
00000080: 0acf 5841 88e7 0741 885b 8041 5f5a 0941
00000090: ec51 2440 0810 5441 0371 e940 ae23 e440
000000a0: c216 0d41 f3e9 1041 58a2 6641 d01e b040
000000b0: f281 ba40 b1a7 0241 3503 9b40 6b00 a540
000000c0: a610 b340 1613 2640 5035 e040 0d92 9a40
000000d0: 0939 7140 3956 d240 6ecf cd40 a64e 3140
000000e0: 93f5 6c41 94a5 1840 5da3 b940 5be8 4340
000000f0: 7f4b f83f 5e4f 1441 9f92 3541 2c2e 6e40
00000100: d274 1841 50ad e740 e4bf c840 3703 6540
00000110: 43f6 8240 0e11 1a41 bdbd 9140 664d 9d40
00000120: e873 7140 4d02 1241 4254 0a41 2240 1141
00000130: 3695 ee40 cac9 cf40 1faf 1d3f 70c4 9540
00000140: df78 4640 cb58 e240 6967 7940 3219 bf40
00000150: 3e1f d33f 2cc8 7240 5b5a 8a41 2549 0a41
00000160: 9c61 4d41 beb0 2241 564a 0741 7dba 0a41
00000170: 5c90 c440 3232 9740 01e6 c440 214b 4b41
4.564042 10.835961 2.737116 4.750051 9.897708 8.827763 5.876779 7.09476
4.6207767 9.2135105 10.748039 7.1721187 5.1815715 7.890926 9.824109 6.126935
9.430215 10.232123 1.7669992 2.8739145 3.2744107 5.23305 9.689216 11.580308
4.152068 1.7957476 5.145038 8.41963 1.426074 1.9764161 6.740948 9.375233
13.550547 8.494026 16.044693 8.584563 2.5675 13.253914 7.2950454 7.1293554
8.818056 9.0571165 14.414635 5.5037613 5.8283625 8.16594 4.8441415 5.156301
5.5957823 2.594915 7.006508 4.8303285 3.7691061 6.573025 6.431571 2.7704253
14.809955 2.385106 5.801192 3.0610569 1.939804 9.269377 11.348296 3.721568
9.528521 7.2399063 6.273424 3.5783212 4.0925612 9.629164 4.5544114 4.915698
3.7726994 9.125562 8.645571 9.078157 7.455714 6.4933825 0.6159534 4.680229
3.1011274 7.073339 3.8969367 5.9718256 1.6493909 3.7934675 17.294119 8.642858
12.83633 10.16815 8.455648 8.670529 6.142622 4.7248774 6.1530766 12.705842

global_feature_extractor.first_block.0.conv.3.weight f4 [96, 1, 3, 3]
00000000: 7e61 b43e fa3e 95bf 5028 8dbe b1ae ce3e
00000010: 632b c1bc 5296 613e 3ea2 1f3e c46e 0f3e
00000020: 1e09 c23e 085a ed3e a3e4 01bf 742e e23e
00000030: 6de3 253f 5a46 22bf bcaa 53bf e2f5 0b3f
00000040: 4f17 bcbd 00a3 56be 4e4f 8cbe 7fc2 2bbf
00000050: 5cf3 8cbe b2fe a1be 57f9 8a3e ee33 4cbe
00000060: c06c 393f cf8b 4f3f 0fe7 f63d 2768 a8be
00000070: 3235 503f 7a7b 353e 0697 15be d262 1abe
00000080: 4444 69be 96dd 14bf 4f12 65be 7efd febe
00000090: 6668 763f e76f 5f3f 0356 353e 9ac4 a3bd
000000a0: b339 3ebd 1d9d 75bf 35e6 483d 2952 613e
000000b0: f02f b5bd 633a 07be 499f 7fbf b09c 0fbf
000000c0: 3360 a4bc 6e00 8fbe d3a6 96bf 7511 d9be
000000d0: 0f1b 0bbf 7683 013e 4eac 08bf 0b49 99bd
000000e0: ff43 83bd 5ba3 f8be b3f4 4cbf a9a6 ad3e
000000f0: c33e 543e 2eec 1a3f e084 a8be 1273 28be
00000100: e8e3 fbbd 8ce2 fc3d eb3f 123e 81f3 ec3d
00000110: c835 f63d 370d 2a3f 3de8 833f d875 a23f
00000120: 52db 0dbf 7f9d 8bbf b118 c23c f03d 9e3e
00000130: 51b3 ccbe 0540 94be 8e48 2f3d 3b67 33bf
00000140: 90fa c9be 8eae 9a3e 1953 7b3e 8b80 e33e
00000150: e705 b6be 0aaf 87bd 67f4 833f ebcd 18bf
00000160: 9066 5bbf aa4e 69be ce6d 083e 5385 763e
00000170: 9b29 01bf 7c7b c1bc 2f5e 11bf 7e80 97bf
00000180: 230e 1fbd fb29 52bf 8b3c 99bf 3586 d1be
00000190: eb4e ad3e a2b5 1fbf bf11 1f3e 9fff 893f
000001a0: db27 b43e 7560 0bbf 45fa 6dbe db74 f9be
000001b0: 8b4b 28bf ded9 93be 0ae3 f83e 2a46 28bf
000001c0: bd95 ffbd c9b9 2f3f b7f1 68bf 90dc dcbe
000001d0: 0baf adbe e64d ed3e 5478 60be 15e3 a8be
000001e0: 498a 033f 855a 10bd d1b8 41bf f61f e03e
000001f0: 299d 3d3f 50b3 d13d 22a3 f93e f83e 773e
00000200: 8ee9 b3bd 3af4 e53e 219f 6c3f a427 8a3e
00000210: 8521 9dbd 6ad9 06bf 6107 ccbe a4b2 003d
00000220: c0f2 49bf 09d7 413d 0143 19bf b9a2 76be
00000230: 121f a2be e3ff aabe 72db 1cbf 34e8 a8be
00000240: 3206 8dbe edc6 f9bd 4655 afbe a21e d93e
00000250: ef2e 81be ebc2 eabe 338e 543e 527b 8d3f
00000260: 806a 043f 1ab7 34bf 7fb7 47bf 591e 193e
00000270: 1e59 20bf c4e2 16bd de44 eb3e 50c7 093d
00000280: 5ab1 133f 8510 323f a967 923e 1516 1ebf
00000290: f200 a6bd 259d ce3e d040 393c 482c c4be
000002a0: 5772 e43e 15fd 193e f5ed 973e 5347 d5bc
000002b0: 187e 283e 14b3 1d3e 944c 35bf b9f1 26be
000002c0: ace0 65bf 6907 ed3d 200f 24bf d8e9 37bf
000002d0: 8387 a0bd 5630 023e da14 863e ad73 a0be
000002e0: 0547 5b3f dc05 8f3f a172 ecbe b3af 6a3e
000002f0: 337b 303f 24ed 913e 3ea1 603f aae3 b43e
00000300: 5ec7 47be dafb 103f 7dff 253e 1784 9fbe
00000310: ff0f d1be 3b6b 90be d3c7 913e 982f 2a3f
00000320: 92d6 c43d 3eef ae3e 70c3 333f ae26 253e
00000330: d80b e6be a950 4bbf ef84 19bf 0a22 c53e
00000340: 7601 28bf b6aa ebbe dcea 5d3f 85c9 b0be
00000350: 0551 9bbe 73ce 5c3f 3350 1ebf bd1f 88be
00000360: ab9b fe3e 9763 33be 5ae2 f1be 51a3 133f
00000370: 547c 77be b837 4bbf a224 0a3f 5d90 073f
00000380: 1bbe a4be 3c4b c13e 131a 99be fde1 a2be
00000390: b944 05bf c12f fa3e 6a38 563e 199b 0a3d
000003a0: 4cf4 89be 7a4e bebe 9567 e23e 31ab 0d3f
000003b0: 6013 c4be 9f30 23bf 1069 10bd 2bf5 c33e
000003c0: 3765 f23e 07b0 2cbf c7e4 9dbe 3d34 533d
000003d0: 5d82 36bf e9b6 c73c 1ce5 d2be 0e3e 90bd
000003e0: b713 54bf dbd8 6ebe a004 103d c0a8 8bbf
000003f0: c675 533e 0a13 98be 062f 5ebe b5b8 90be
0.3523063 -1.1659844 -0.27569818 0.40367654 -0.023580259 0.22029999 0.15589234 0.14007097
0.3789758 0.4635775 -0.50739497 0.44176066 0.6480015 -0.633886 -0.82682395 0.5467206
-0.09184133 -0.20960617 -0.27404255 -0.6709365 -0.27529418 -0.3163963 0.27143356 -0.19941685
0.72431564 0.81072706 0.1205579 -0.32891962 0.8133117 0.17722884 -0.14608392 -0.1507676
-0.22779948 -0.58150613 -0.22370265 -0.49802774 0.9625305 0.87280124 0.17708592 -0.07996483
-0.046441745 -0.9594286 0.049047668 0.22003998 -0.08847034 -0.13205867 -0.99852425 -0.5609846
-0.020065403 -0.27930015 -1.1769661 -0.4239613 -0.54338163 0.12647805 -0.53387916 -0.07484635
-0.064094536 -0.4856213 -0.8006088 0.33916214 0.20727067 0.6051663 -0.32913876 -0.16450146
-0.12299329 0.12347898 0.14282195 0.11569882 0.12021977 0.66426414 1.0305248 1.2692213
-0.5541278 -1.0907439 0.023693414 0.3090663 -0.39980558 -0.28955093 0.042793803 -0.7007939
-0.39448977 0.302113 0.24543418 0.44434008 -0.35551378 -0.06625183 1.0308961 -0.59689206
-0.8570337 -0.22783914 0.13323137 0.24074297 -0.5045411 -0.023618452 -0.5678434 -1.1836088
-0.03883184 -0.8209531 -1.1971601 -0.40922704 0.33849272 -0.62386525 0.15534113 1.0781134
0.35186657 -0.54444057 -0.23240001 -0.48721966 -0.6574027 -0.28877157 0.48610717 -0.6573206
-0.12479732 0.6864286 -0.9099383 -0.43137026 -0.3392261 0.46348494 -0.21920902 -0.3298575
0.5138288 -0.035242576 -0.7567263 0.43774384 0.7406793 0.10239279 0.48757273 0.24145114
-0.087847814 0.44912893 0.9243031 0.26983368 -0.07672409 -0.526755 -0.3984938 0.031420365
-0.7888603 0.047324214 -0.59867865 -0.24085511 -0.3166433 -0.3339835 -0.61272347 -0.32989657
-0.2754379 -0.12196145 -0.34244746 0.42406183 -0.2523112 -0.45851836 0.2075737 1.1053259
0.51725006 -0.7059189 -0.7801437 0.14952983 -0.6263598 -0.036837354 0.4595098 0.033637345
0.5769249 0.69556457 0.2859471 -0.61752445 -0.08105649 0.40354267 0.011306956 -0.38315034
0.44618484 0.1503795 0.29673734 -0.026034987 0.16454351 0.15400344 -0.70819974 -0.16303147
-0.8979595 0.11573679 -0.6408558 -0.7184119 -0.07838347 0.12713751 0.26187783 -0.31338254
0.8565524 1.1173663 -0.46181205 0.22918586 0.6893799 0.28501236 0.87746036 0.35329944
-0.19509646 0.56634295 0.16210742 -0.31155464 -0.40832517 -0.2820681 0.28472766 0.6647887
0.096112385 0.34166902 0.7022009 0.16128036 -0.4493091 -0.7941995 -0.59968466 0.38502532
-0.6562723 -0.4602868 0.8668649 -0.34528747 -0.3033525 0.86252517 -0.61841124 -0.26586714
0.4972814 -0.1751846 -0.47243005 0.57671076 -0.24168521 -0.79381895 0.5396215 0.52954656
-0.3217629 0.37752712 -0.29902706 -0.3181304 -0.5205799 0.48864558 0.20919958 0.03383932
-0.26944196 -0.37169248 0.44219652 0.5533934 -0.38296032 -0.63746065 -0.035256445 0.38272986
0.47342846 -0.67456096 -0.30838606 0.05156349 -0.7129267 0.02437921 -0.41190422 -0.07043086
-0.8284258 -0.23324911 0.03516066 -1.0910873 0.20650396 -0.29702026 -0.21697626 -0.2826592

global_feature_extractor.first_block.0.conv.4.weight f4 [96]
00000000: edbb 373f ad75 5c3f ff8e 613f 8505 513f
00000010: 111b aa3f 936c 933f ee3f 743e 40d7 c13f
00000020: 3ec4 813f 3892 d23f be39 ef3f d976 783f
00000030: 45bd 963f af00 543f 7e04 9e3f f8bc 9e3f
00000040: 9ca7 fe3f a24e ec3f d67d 2e3f e1a8 823f
00000050: 65b1 823f 09e8 3d3f 08de d23f 7dee ae3f
00000060: b252 7a3f dadc 6f3f e8f5 4b3f 4baa 7c3f
00000070: 804e 033f ec08 d13e c158 913f dcb9 923f
00000080: 7a0c c73f 1c6f 953f 8abb ab3f 8f14 df3f
00000090: 4add 7c3f 31bb ea3f 01b2 a03f 3008 523f
000000a0: 6b22 483f 79e3 6d3f 67fd be3f 21d2 683f
000000b0: 0058 843f 7e31 dd3f 2260 d03f 436c 5d3f
000000c0: 9790 9c3f 8079 8f3f 97a9 8f3f 710b 0f3f
000000d0: 7cc5 693f fac2 6d3f 6613 683f 057a 083f
000000e0: 8475 483f f9d7 0c3f 837d 943f ea1a 903f
000000f0: dc34 9b3f a529 c33f 5af2 c03f 56de 863f
00000100: bf98 8c3f 3a56 353f 8136 933f d763 163f
00000110: b88a 5a3f 0573 423f 34cf 643f eefe 923f
00000120: f8dc 8b3f 552e 843f b184 493f 60ea a83f
00000130: 2cd6 d03f b9b4 5a3f 2fb7 8b3e dfd7 a13f
00000140: 0a54 493f 98e3 9c3f bfdd 403f 9524 873f
00000150: 6dd7 283f 556a 3e3f a085 d43f 14f7 e53f
00000160: ce0a 1c40 dc7b cd3f b4ce 323f 12eb cd3f
00000170: 1663 963f 07ae 903f ff30 623f 0394 cb3f
0.71771127 0.8611706 0.8810882 0.8164905 1.328951 1.1517509 0.23852512 1.5143814
1.0138013 1.6450872 1.8689497 0.9705635 1.177651 0.82813543 1.2345121 1.2401419
1.98949 1.8461497 0.6816076 1.0207788 1.0210387 0.7418218 1.6474009 1.3666531
0.97782433 0.9369637 0.796721 0.98697346 0.51291656 0.4082712 1.135521 1.146297
1.5550683 1.1674533 1.3416607 1.7428149 0.9877516 1.8338376 1.2554322 0.82043743
0.7817752 0.9292522 1.4921082 0.9094563 1.0339355 1.7280729 1.6279337 0.8649332
1.2231625 1.1208954 1.122363 0.55876833 0.9131696 0.92875636 0.906546 0.5331119
0.78304315 0.5501705 1.1600803 1.1258214 1.2125506 1.5247084 1.507396 1.0536602
1.0984114 0.70834696 1.1501008 0.58746094 0.8536792 0.75956756 0.89378667 1.1484048
1.0926809 1.032664 0.78718096 1.3196526 1.631536 0.8543201 0.27288195 1.2644004
0.7864386 1.2256956 0.7533836 1.0558039 0.65953714 0.74381 1.6603279 1.7966027
2.4381595 1.6053424 0.69846654 1.6087363 1.1748989 1.1303109 0.8835601 1.5904545

global_feature_extractor.first_block.0.conv.4.bias f4 [96]
00000000: 567a 25bd fbcf cab7 6d5a 22be ad40 abbe
00000010: 674d c8bd 3bec 2b3e 18c3 1bbf fb14 c33d
00000020: d088 fb3d 445e 20be b608 613f cb8d 1dbe
00000030: f9bd fa3e 28e1 2fbe 7782 213e d46e bfbd
00000040: 3e3d 103e ff8b c23d c36e d6be 4cc4 61be
00000050: 8053 723f f662 0c3f c76d 9b3d 1c52 8fbd
00000060: be39 8cbe 5ba9 acbe 491e 9cbd 1ce0 bcbd
00000070: bc30 49bf 6eba 4ebf 9e2a 10bd 5e8d 9bbe
00000080: ff79 303f ce7d f93e 3e0c 03be 9d80 383e
00000090: 7ecf a83d def2 0fbe 398c 333e 848e 63be
000000a0: 3d45 50be b38b 133f 0e67 f7bb 3e3f 8b3e
000000b0: ee4a 0c3f 02d9 a23e 909b 793f f713 cdbe
000000c0: 073b aebe 4ec3 67be c55f 893e 38d8 25bf
000000d0: 0061 fabb f301 003f 5c5f 243f 29d1 a4bd
000000e0: f82e b53a 92ec bdbe 6faa 543d 204d 5bbe
000000f0: 7d4a 823b 68fa 173f 9af1 74bc ff46 cf3d
00000100: 02e7 143e d75e c8be 6485 2e3e a7bf 61bf
00000110: 5caf 12bf 29fb 0bbf 2f37 8b3e 0020 90be
00000120: 1346 1fbf 738f 7abe 3c53 63be f6cc d33e
00000130: 108b 4d3e 383d c3be 26a8 06bf 976a 32be
00000140: e149 6cbe 7356 893e a410 dabe f158 4ebe
00000150: 1dfb 8abe d9ff 8cbc 2e75 d6be fcc2 37be
00000160: ba51 ff3d ad9f 133f 1ab9 f3bd ff21 d4be
00000170: 18fd aabb d2a7 92bb 3383 353f a542 9bbd
-0.04039987 -2.4177125e-05 -0.15854807 -0.3344778 -0.09780388 0.16789334 -0.60844564 0.09525486
0.12281954 -0.1566096 0.87903917 -0.15386121 0.48973063 -0.17175734 0.15772425 -0.09347311
0.14085862 0.094993584 -0.4188138 -0.22047538 0.9465866 0.548385 0.07589298 -0.06998083
-0.27387804 -0.33722958 -0.07622964 -0.09222433 -0.7858999 -0.8075322 -0.035196893 -0.30381292
0.6893615 0.48728794 -0.12797639 0.18017812 0.08242701 -0.1405749 0.1753396 -0.22222334
-0.20338912 0.5763504 -0.007550127 0.27196687 0.54801834 0.3180619 0.97502995 -0.40054294
-0.3402941 -0.22633097 0.2683088 -0.6478305 -0.007640958 0.50002974 0.64208007 -0.08047707
0.0013823202 -0.3709455 0.05192035 -0.2141614 0.003976165 0.59366465 -0.01495018 0.10120963
0.14541247 -0.39134857 0.17043072 -0.88183063 -0.5729883 -0.54680115 0.2719054 -0.28149414
-0.622163 -0.24468784 -0.2219972 0.4136731 0.2007258 -0.38132644 -0.52600324 -0.17423473
-0.23075058 0.26823768 -0.4259082 -0.20151116 -0.2714471 -0.017211841 -0.41886276 -0.17945474
0.1246676 0.5766552 -0.1190054 -0.41432187 -0.0052181594 -0.004475572 0.7090332 -0.07581071

global_feature_extractor.first_block.0.conv.4.running_mean f4 [96]
00000000: bb70 f83d 2982 2abe fa72 9d3d f9f0 1fbf
00000010: 309c 883f 84b6 dabf 4417 20bf b41e 863f
00000020: c38b 13c0 e5f5 aabd 62cd 19c0 a8dc 70bd
00000030: 5a33 16c0 e8dc 0e3f 1c3f 6b3f 3c4f 58bf
00000040: 207d c93e 7de2 0cbe 0400 0000 0b01 f2bf
00000050: bb88 db3f 4afb 133f 5bb6 503e 549b 05bf
00000060: 68b1 233d 1f4c 9fbc b57d 15be 74e9 0ac0
00000070: c21c 2cbf cf50 b0bf 0467 17bc e85b 983c
00000080: 46c9 3240 0c3a fa3f ff5e c13e 3d68 80c0
00000090: 8906 993e cd39 89be 707f e8bf 68c7 b23e
000000a0: 1c35 b23f afa3 debe edd5 f3be bf39 6a3f
000000b0: 1220 bc3f e159 0abf 4998 a43f c661 1d40
000000c0: f075 7dbe 6215 fc3d d9ac 4f3f ade3 8c3e
000000d0: 802d 6a3f a347 7f3f 9a32 2ac0 a02e a7bf
000000e0: 9b11 1cbe f059 a0bf 2ada aebf 37bd a4bd
000000f0: 8246 bcbe 8e46 19bf 2b51 8bbf fb44 48bf
00000100: 8965 b13f 58a1 c33d ca0a 03c0 d7b2 09c0
00000110: 0328 94be a242 10bf f815 e83e 8c25 2bc0
00000120: a04d 92bf 3238 603f 74a3 b3be 1fe1 8bbf
00000130: c11c 973f 147a 11bf 5af6 3abf 4c6b 873e
00000140: 73c0 033e c167 2940 43f5 01bf f2f3 793e
00000150: 4200 d9bd d650 a2be 4564 eebe 50e6 1cc0
00000160: cb4d 5bc0 61a1 2ac0 0b50 2bbf 30cd 2e3e
00000170: 6802 2ebf 8b3a 4abd 1e62 8bbf 8fb4 23bd
0.12130877 -0.16651215 0.07687946 -0.6247707 1.0672665 -1.7086949 -0.625355 1.047812
-2.3054054 -0.08347682 -2.4031606 -0.058804184 -2.3468843 0.55805826 0.9189317 -0.844959
0.39353275 -0.13758273 6e-45 -1.8906568 1.7151102 0.5780531 0.20382063 -0.52190137
0.03996411 -0.019445477 -0.14598735 -2.1704988 -0.6723138 -1.3774661 -0.009240869 0.018598512
2.7935348 1.9548965 0.3776779 -4.0127244 0.29887798 -0.2680191 -1.8163891 0.3491776
1.3922458 -0.43484256 -0.4762415 0.91494364 1.4697287 -0.54043394 1.2858974 2.4590926
-0.24752021 0.12308766 0.8112312 0.27517453 0.9147568 0.99718684 -2.6593385 -1.3061104
-0.15241091 -1.2527447 -1.3660328 -0.08043902 -0.36772543 -0.5987328 -1.0884145 -0.78230256
1.3859111 0.09552258 -2.0475335 -2.1515405 -0.28936777 -0.56351674 0.4532926 -2.6741667
-1.1429939 0.8758575 -0.35085642 -1.0928077 1.180565 -0.568269 -0.7303215 0.2644905
0.12866382 2.6469576 -0.50764865 0.24409464 -0.10595752 -0.31702298 -0.46560875 -2.4515572
-3.426623 -2.6660998 -0.6691901 0.1707046 -0.6797242 -0.049372237 -1.0889318 -0.039967116
