model_checkpoints/experiments/fastscnn_a0.25t2r1pp0.pt (torch, 108355 bytes, 106 tensors)

learning_to_down_sample.conv.conv.weight f4 [8, 3, 3, 3]
00000000: 4bd4 b3be 1123 a7be 21b6 6f3f 27f0 40bf
00000010: 29ba 04bc cd61 523f 4221 64bf 68e3 24bd
00000020: e0ad 713f 655a 0c3d c5fb 09bf cc5b 0a3e
00000030: a59c 133e 28b9 d6bd b3f8 5b3d 3df9 a33c
00000040: 5751 02bc 3f03 3b3e 8ef9 f03e efbf 1abf
00000050: 2ca7 3d3e c403 663e 65d2 91be 77c2 923c
00000060: 4cb5 11bd 2020 353e b4a3 e0bd 01e5 07bf
00000070: 2eb1 bebe 809f 92be 4948 bebe 5846 5dbe
00000080: c8a7 1f3e 13b6 b8be 906d e8be d052 24be
00000090: a4ce 6bbd a1b9 cd3e 4878 333f a398 b7bd
000000a0: 6beb 9a3e 1b7a 513f 0634 2bbe f6ae 9d3e
000000b0: a2dc 093f cb7d 8bbe 16c5 0e3d 6596 a93e
000000c0: da41 bbbe 9041 c13d 8f81 bd3e b88b 05bf
000000d0: 0066 edbc ec14 28bb 13d2 203e 7d89 c4bd
000000e0: 9087 f53d fe72 4fbe b2fc a5be bd32 d7be
000000f0: 7dff 32be 4252 c4be 68e0 d7be 6a6c 3abe
00000100: 9969 31be f996 f1be 5b62 2fbe d6f7 12bf
00000110: aa05 6cbf 834c 5abd 0f7b 26bf f65b 89bf
00000120: f3cb 153f 689a 573e baf4 dc3d 29fc c53e
00000130: c679 853d de8d b2be 53e7 2b3e 8370 463e
00000140: 7106 19bf b712 a63c e3b5 47bd be3d bc3c
00000150: eda2 593e 3811 083f 5177 d23e f13c c23d
00000160: 7fb8 283f 8c29 c03e 2115 1ebf 8166 d3be
00000170: 4f7a c7bd 9f7f 58bf 36eb 1dbf 7dd0 59bf
00000180: e09b 51bf f619 0cbf 682a 5fbf a10e 59bf
00000190: c3de 3abf 7cf3 1fbf ac67 febe 9111 88be
000001a0: 5d9e b2be 90ca c8be 5f2e 0ebe 6069 5fbe
000001b0: 04f4 173f 0e9c 523e ac7d 95bd 8fe1 f03e
000001c0: 6e56 813e d873 073e 4560 1a3f f173 9c3e
000001d0: 00ab ba3e d18a 573f b7e1 213f b3d0 7c3e
000001e0: 21f2 fe3e 7b76 573f 61c0 b43e 2e00 ac3e
000001f0: 0db2 883f 4cd3 843f 71d0 a4be 9b3c ffbe
00000200: af3a 24bf 3587 85be eb0b 97be 19ad 25bf
00000210: 3c22 f5be abef 9dbe 1b46 97be 89ea 1dbf
00000220: 4a30 27bf a016 28bf 2bd4 8d3d 2da9 863e
00000230: cd17 3abd 5c21 6c3e 5e36 373f fa34 5d3f
00000240: 3765 2abf 1a34 08bf a86d 4bbf 67de f2be
00000250: e88a e5be bfd3 23be 0f9b f1bc da15 a83e
00000260: f1d5 1d3f 5ec5 95be a505 f3be 1dfd 0ebf
00000270: 9488 72bc 0577 0e3e 3bd3 a1bd c469 e83e
00000280: 77b5 1a3f 40ac 263f 01c3 323e b148 49be
00000290: 3003 a3be 59dd 3ebe 38e2 bcbd ce41 04be
000002a0: a0eb 903e 7ee8 9d3e 68ec c03e 5acc eebe
000002b0: 89ae 80bf 1949 96bf 1536 8bbe c938 cfbe
000002c0: 65c3 87be 2fb9 5a3f 8e8c 7d3f 9f9c 7d3f
000002d0: 96e9 f0bb eea3 bfbe d2f0 febe 8e0f 003e
000002e0: 7e24 0dbc dbcd 13be 2efd 403e 73fe b23e
000002f0: 2299 1c3f d142 d73d 0924 a43e b44e 573e
00000300: e625 dfbe 3ebd b33e 12ac 0a3f eb61 d1be
00000310: 7de9 f83d add7 e13d f33e 37be 6368 da3e
00000320: e769 313e c8c2 c2be 326a 1f3d 9e7a 22bd
00000330: 4fcb 4dbf 493c 24be d304 333d 01b8 97be
00000340: d1be 603d d922 1dbe 622e c2be aeeb a9bc
00000350: ff38 4bbe af3e 4dbf 48a8 81be e979 51be
-0.35122904 -0.3264394 0.9363728 -0.75366443 -0.008101025 0.8218048 -0.8911325 -0.040255934
0.9440594 0.034265894 -0.53899795 0.1351158 0.14415224 -0.104845345 0.053703975 0.020016307
-0.007953963 0.18262957 0.47065395 -0.6044912 0.18520802 0.22462374 -0.2848083 0.017914994
-0.03557329 0.17688036 -0.10968724 -0.5308381 -0.37244552 -0.28637314 -0.37164524 -0.21608865
0.15591347 -0.36076412 -0.4539609 -0.16047215 -0.057570115 0.40180686 0.7010541 -0.0896466
0.30257735 0.81826943 -0.16719064 0.30797547 0.53852284 -0.2724441 0.034855925 0.33122554
-0.36573678 0.09436333 0.37012908 -0.5216632 -0.028979301 -0.0025647236 0.15705137 -0.09596536
0.11988747 -0.2025871 -0.32419354 -0.42030898 -0.17480274 -0.38344008 -0.42163396 -0.18205419
-0.17325439 -0.47185495 -0.17127363 -0.5740942 -0.9219614 -0.053295624 -0.6503152 -1.0731189
0.58514327 0.21054995 0.107888654 0.38668945 0.06517367 -0.3487386 0.16787462 0.19378857
-0.59775454 0.020272596 -0.048757445 0.02297866 0.21253558 0.53151274 0.41106656 0.0948428
0.6590652 0.37531698 -0.6175099 -0.41289142 -0.097401254 -0.84569734 -0.6168703 -0.8508375
-0.8187847 -0.54727113 -0.8717408 -0.84787947 -0.7299616 -0.624809 -0.4968847 -0.26575902
-0.34886447 -0.39217043 -0.13884877 -0.21817541 0.59356713 0.20567343 -0.07299361 0.47047088
0.25261253 0.13227785 0.60303146 0.30557206 0.36458588 0.8419619 0.6323504 0.24688987
0.49794105 0.8416516 0.35303023 0.33593887 1.0679337 1.0376983 -0.32190278 -0.49850926
-0.64152044 -0.26079717 -0.2950128 -0.6471725 -0.4787768 -0.30846915 -0.29545674 -0.61686
-0.6530806 -0.65659523 0.069252335 0.26300946 -0.045432854 0.230596 0.7156733 0.8640896
-0.6656069 -0.532045 -0.794642 -0.47435305 -0.4483254 -0.15998743 -0.029492883 0.3282917
0.61654574 -0.29252142 -0.47465244 -0.5585497 -0.014803071 0.1391259 -0.07901617 0.45393193
0.60433143 0.6510658 0.174572 -0.19656636 -0.3183837 -0.18639125 -0.09222835 -0.12915727
0.28304768 0.3084144 0.37680364 -0.46640283 -1.0053264 -1.1741058 -0.271897 -0.4047301
-0.26516262 0.8543882 0.99042594 0.9906711 -0.0073520644 -0.37429756 -0.49793106 0.12505934
-0.008614657 -0.14433996 0.1884658 0.34959754 0.6117116 0.10510791 0.32058743 0.21026117
-0.43583602 0.35105318 0.5416881 -0.40895018 0.12153909 0.11027465 -0.17895107 0.42657766
0.17325555 -0.3803923 0.038919635 -0.039667718 -0.8038835 -0.16038622 0.043705773 -0.2963257
0.054869477 -0.15345325 -0.37926012 -0.020742264 -0.19845961 -0.8017377 -0.253237 -0.20456661

learning_to_down_sample.conv.bn.weight f4 [8]
00000000: 5c41 e13e 0de1 793f 45f4 4e3f f398 a53e
00000010: 66f2 463f d473 503f 9cbc 863f 3b39 913f
0.43995178 0.97609025 0.80841476 0.32343253 0.7771362 0.8142674 1.0526309 1.134559

learning_to_down_sample.conv.bn.bias f4 [8]
00000000: 2dde 613f 91c3 c0be 5952 1cbf 9407 5c3f
00000010: 0b73 353f 0719 f23e 27f8 a5be 11f9 b73e
0.8822964 -0.37649205 -0.6106315 0.85949063 0.70878667 0.4728472 -0.32415888 0.3593221

learning_to_down_sample.conv.bn.running_mean f4 [8]
00000000: f4cb be3c 0de3 d33e 4580 66bf 2d7f 8ec0
00000010: 9e41 23bf 5226 adbe 0aef 22bd 44a5 e6bf
0.023290612 0.41384163 -0.90039474 -4.4530244 -0.63772 -0.338183 -0.039778747 -1.8019185

learning_to_down_sample.conv.bn.running_var f4 [8]
00000000: d4a6 e33e b94f b93f e7a6 4e41 557a e041
00000010: 494b 2e41 e325 3940 0ebc be3f bacf 4040
0.44463217 1.4477454 12.915748 28.059732 10.89338 2.8929374 1.490114 3.0126786

learning_to_down_sample.dsconv1.0.weight f4 [8, 1, 3, 3]
00000000: f829 f6be f5aa 113f 782a 86bd a45b 80bd
00000010: cfb2 f33e 6f29 1fbf 9f61 503e a787 81be
00000020: 9b9d 583e 5eda c33e cd1d b83e cb66 323e
00000030: 2f25 34bd 2333 aabe a9f1 26bf 372c 713e
00000040: 60fc 54bf f2f0 5abf 5058 ccbc 4870 b9be
00000050: 9b05 50bf ccc7 a53e db4d 843e 8efd d7be
00000060: ec2d ad3e 5f95 8e3f b775 353f 89d0 36bf
00000070: d9ee 24bf 300e 1bbe 4a12 debe c1ad 14be
00000080: bccd 1f3f 2846 02bf 6d5a 063f 867e ac3f
00000090: 5885 c3be 49ed c9bd 8cda 3cbd 8d9c 31be
000000a0: d6fd b53e 3b53 283f e566 b0be 3e4b 383f
000000b0: 09f1 783f 8b7e 533f c178 003f b3f7 983f
000000c0: f475 9cbd aeba eabe 0e1e a3be 972a 48be
000000d0: 7470 e5be ceb5 39bf ad75 123f 5032 f73e
000000e0: a718 c93e 9d53 ac3e 298e e2bc 8861 efbe
000000f0: 3ac3 dc3e 775a 20bf 555f 76bf 42e2 93be
00000100: f52c 10be e25b 48be 9efb 293f d370 a03d
00000110: e498 47be 90c1 893f 0e2d 1b3a adb7 9cbd
-0.48078895 0.56901485 -0.06551069 -0.06267479 0.47597358 -0.621726 0.2034974 -0.25298807
0.21153872 0.38252538 0.35960236 0.17422025 -0.043980774 -0.3324214 -0.65212494 0.23552023
-0.83197594 -0.85523903 -0.024944454 -0.36218476 -0.81258553 0.32378995 0.2584065 -0.42185634
0.33824098 1.1139334 0.70882744 -0.7141195 -0.6442695 -0.15142131 -0.43373328 -0.14519407
0.624233 -0.508883 0.5248173 1.3476112 -0.3818767 -0.09859712 -0.04610686 -0.17344876
0.35545224 0.65752 -0.34453502 0.7198981 0.9724279 0.82614964 0.50184256 1.1950592
-0.07639685 -0.4584555 -0.31858867 -0.19547497 -0.44812357 -0.72543037 0.5721081 0.48280573
0.3927662 0.33657542 -0.027655678 -0.46754098 0.43117696 -0.6263804 -0.96239215 -0.2888356
-0.1407965 -0.195663 0.6639956 0.078340195 -0.19491917 1.0762196 0.00059194944 -0.07652221

learning_to_down_sample.dsconv1.1.weight f4 [8]
00000000: 11aa de3f 503b ab3f b86a 403f e1ad 9f3f
00000010: 4714 663f 1fa1 8c3f 84cd 3f3f d0e1 a4be
1.739565 1.3377476 0.7516284 1.2474939 0.8987469 1.098667 0.74922967 -0.3220353

learning_to_down_sample.dsconv1.1.bias f4 [8]
00000000: cfbc d9bd 2077 7d3d 2548 75bd 8453 a5bd
00000010: e20f b9bc 1017 4f3c 9a29 4abc 8243 873a
-0.106317155 0.061881185 -0.059883256 -0.0807257 -0.022590581 0.012639776 -0.01233902 0.0010319802

learning_to_down_sample.dsconv1.1.running_mean f4 [8]
00000000: c73c a5bc 71e8 91be 7088 163e 7185 82bd
00000010: 9518 ad3f 1c61 163e b6f4 993c 2d37 093f
-0.020170582 -0.2849765 0.14700484 -0.06373108 1.3523127 0.14685482 0.018793445 0.53599817

learning_to_down_sample.dsconv1.1.running_var f4 [8]
00000000: f1e1 c53d 517f a83f 824a ba3e 2998 483e
00000010: 4c16 893f 9fd0 0a40 838b b33f b2d8 a73f
0.096622355 1.3163854 0.3638497 0.19589294 1.070993 2.1689832 1.4026951 1.3113005

learning_to_down_sample.dsconv1.2.weight f4 [12, 8, 1, 1]
00000000: a291 cabd 6c88 823f 5101 14bf 7441 ff3d
00000010: e635 cbbe 31c8 3b3c 5518 753f 40d9 233f
00000020: 9f1e 59bc 0ac0 96be 11bc fcbe 107a b43d
00000030: a977 bd3f 665b efbc 42b8 103e 6ac4 85be
00000040: 91d0 773d eddb 743e bfe0 2b3e 4f09 c73c
00000050: 9867 e3bf 0871 063d 5cbf c03c 0e1c 873e
00000060: 57ac 76bd 52a0 0dbe 1ec5 a13e 0cd8 d9bf
00000070: 23b5 183e fec7 e23e 14a0 a4bf 76ec ddbd
00000080: db60 fcbc 9ca0 4b3e 14bf ba3e ea56 023f
00000090: a2fa 2ebe 80d9 b0bf 0bbc 453e 4cab 2e3d
000000a0: 6980 413f 8275 153e a64a 17bf 5e23 543f
000000b0: 03a7 2e3e 4adc f03d ed0e d93e 9a2b 403e
000000c0: 0c73 80bb 0fbf 5d3f 368c 02bf 2363 29bf
000000d0: 7471 0bbf d792 ea3b aede 1bbd 4f65 0d3f
000000e0: 5c81 d43d 7f7a d7bf 3fb3 f4be 3f5e a2bd
000000f0: 5048 9cbd bd50 c0bc 0688 a93a 6c51 b6be
00000100: 1465 a63f c001 643f 2b18 39bd 934f 69be
00000110: c690 cebc 18bc d3bd 61f5 583d 6c1d 7e3d
00000120: 507d 86bf 1c7a 783f 5846 a5be e62f 023c
00000130: 5b6b 6fbc 882f 563e 7259 c1bd 905f 9fbe
00000140: c511 43bd 91f9 ecbc ce3d 8d3f e54a 6bbf
00000150: 3140 083f 2983 b13d 6db3 ccbe 1372 53be
00000160: 946b 93bf bd34 4bbf baa9 ae3d 09a7 86be
00000170: fb6d dabc 627c abbd 6c3c 9bbe 7d23 15bc
-0.098910585 1.0197883 -0.5781451 0.12463656 -0.3968956 0.011461304 0.9574025 0.6400337
-0.01325193 -0.2944339 -0.49362233 0.08812344 1.4802142 -0.029218387 0.14132789 -0.26126415
0.06050164 0.2391202 0.16784953 0.02429643 -1.7765989 0.03282264 0.023528747 0.26388592
-0.06022295 -0.13830689 0.315957 -1.7019057 0.14912848 0.44293207 -1.2861352 -0.10836117
-0.030807903 0.19885486 0.36473906 0.5091387 -0.17087796 -1.3816376 0.19310014 0.04264383
0.75586563 0.14595607 -0.5909828 0.82866466 0.17055897 0.11760767 0.423942 0.18766633
-0.0039199647 0.8661966 -0.50995195 -0.66166896 -0.5446999 0.007158618 -0.03805416 0.5523271
0.10376236 -1.6834258 -0.47793004 -0.07928132 -0.0763098 -0.023475999 0.0012934215 -0.35608995
1.2999597 0.8906517 -0.045189064 -0.22784261 -0.025215518 -0.103386104 0.052968387 0.062039778
-1.0506992 0.97061324 -0.3228023 0.00794599 -0.014612998 0.20916569 -0.094408885 -0.31127596
-0.04762437 -0.028927596 1.1034486 -0.91911155 0.5322295 0.08667595 -0.3998064 -0.20648985
-1.1517205 -0.7937735 0.085284665 -0.26299313 -0.02666377 -0.083733335 -0.30319536 -0.009102699

learning_to_down_sample.dsconv1.3.weight f4 [12]
00000000: bbdd 093f b4e8 083f 6b8e 9e3e a44f 7b3f
00000010: 04d5 f43f ba3a d13f d7aa 903f a43b 0840
00000020: 8cfb c23f 2011 fc3f 4de9 a13f 2b4d f83f
0.5385396 0.53480077 0.3096803 0.98168397 1.9127507 1.6346047 1.1302136 2.1286402
1.5233016 1.9692726 1.2649323 1.939855

learning_to_down_sample.dsconv1.3.bias f4 [12]
00000000: b0d9 4d3f abac 593f 7bbb 843f 6ff1 1cbf
00000010: 409d 9ebd 2473 8dbe 8e11 053f c283 c43d
00000020: a475 68be e78e 9bbe 80ed 50bc 3fe3 113e
0.8041029 0.85029095 1.0369714 -0.613059 -0.07744837 -0.27626908 0.5197991 0.09595443
-0.22701126 -0.30382463 -0.012751937 0.14246844

learning_to_down_sample.dsconv1.3.running_mean f4 [12]
00000000: aab5 c43d 7902 f7bc 31e6 163d 746a 093e
00000010: 90b6 81bd 6495 e1bd 99ea 1a3e 940b a2bd
00000020: 1285 81bd b2ee 463e d5c9 ab3b 6514 be3d
0.09604962 -0.030152546 0.03684062 0.13419515 -0.06333649 -0.11014822 0.15128554 -0.079123646
-0.06324209 0.19426993 0.005242566 0.09281234

learning_to_down_sample.dsconv1.3.running_var f4 [12]
00000000: b10d 3540 d99a 0d40 4bc5 2d40 b20f 9840
00000010: 51e6 5140 283e 1840 9709 0c40 3703 9f40
00000020: 85d8 d740 82a6 a940 dfe5 e73f 6d00 a040
2.8289607 2.2125762 2.7151668 4.751916 3.2796824 2.3787937 2.1880853 4.9691424
6.7451806 5.3015757 1.8117026 5.000052

learning_to_down_sample.dsconv2.0.weight f4 [12, 1, 3, 3]
00000000: d71c b73e 17d1 e9be 7253 09bf 6bfa 453f
00000010: dc4f 2c3f 0d63 503d b246 123f 3bed 393f
00000020: ff69 853e 1a52 173e c842 ca3e 71e4 cd3d
00000030: d8c6 183f 6b69 cc3f 1beb 583f c349 003f
00000040: 2264 163f fbe9 8c3e 46f5 be3e ba45 603f
00000050: db95 243f 7af8 76be 0bc8 4f3e e7cc fe3e
00000060: db0f 0ebf a8b3 9dbf 9c12 f5be c735 62be
00000070: 9f88 85be 00dc 2ebe 19c5 5abf 3dc7 8cbf
00000080: 10b3 29bf ac6a dbbe 9fcf 7cbf b254 edbe
00000090: 91bc fd3e e6fd 153f fea5 003f e50f f83e
000000a0: 05f2 8c3f 09cc 793f f107 8d3e b15b 133f
000000b0: d6b0 043f 66e8 cf3e 5122 303f 349f 033f
000000c0: 1a04 c13d 8582 113f 0ae1 c83e c0f1 0bbe
000000d0: b0fa 60be 5e9f a3bd c328 80be f83f 38bf
000000e0: 6d0e febe 9737 3c3e 17d1 afbe 0f7e 1dbf
000000f0: 972a 803e 9604 423f 8059 943e b32c 3d3f
00000100: e85d 773f 4cb2 233f e6e9 ebbc 6f00 643f
00000110: 830b 2e3f c075 e8bd 214f 1f3e 4da3 ea3e
00000120: 63b0 363e 0d60 263e 9e18 293d b49d e93e
00000130: bae2 303f 1995 ca3e 8673 a93e 3504 133f
00000140: 3c86 d03e 03fe 1abd d5c3 893d 0a8b a63d
00000150: 770a 1bbf 4e90 2ebf 2556 0abf c67d e1be
00000160: 3d03 28bf 03ce 1ebf 75cc 8d3d 93ed 0e3f
00000170: e952 873f 7a5b dabd a98a a03e 5413 523f
00000180: f219 e4be e32f 3f3e 71b7 263f 5ff8 973e
00000190: 1905 323f acd8 813e 308f eb3e c606 933f
000001a0: 3bbd ba3e 3c80 923e bb29 1f3f ed21 553e
0.3576419 -0.45667335 -0.5364295 0.7733523 0.67309356 0.050875712 0.5713912 0.7262761
0.2605743 0.14777413 0.39504075 0.10053337 0.5967841 1.5969671 0.8473374 0.5011255
0.5874654 0.27522263 0.37296504 0.87606394 0.6429116 -0.24118224 0.20291154 0.49765703
-0.55492944 -1.2320452 -0.4786576 -0.22090827 -0.26080796 -0.17076111 -0.85457 -1.0998303
-0.6628885 -0.42854822 -0.98754305 -0.4635368 0.49557927 0.58590543 0.50253284 0.48449627
1.1011358 0.9757696 0.2754512 0.57561785 0.5183233 0.40606993 0.6880236 0.514148
0.094246104 0.5683978 0.3923419 -0.13666439 -0.2197063 -0.07989381 -0.250311 -0.7197261
-0.4962038 0.18380581 -0.3433921 -0.61520475 0.25032493 0.7578825 0.28974533 0.7389633
0.96627665 0.63943934 -0.028798055 0.8906316 0.67986315 -0.11350584 0.15557529 0.45827714
0.17840724 0.16247578 0.041283242 0.4562813 0.6909596 0.39566877 0.3309595 0.57428294
0.40727413 -0.0378399 0.06726805 0.08131988 -0.60562843 -0.6818894 -0.54037696 -0.4404127
-0.6562994 -0.620331 0.06923763 0.5583126 1.0572177 -0.10661979 0.3135579 0.8206074
-0.44551045 0.18670611 0.6512366 0.2968168 0.6953903 0.2536062 0.4600768 1.1486442
0.36472496 0.2861346 0.6217305 0.20813723

learning_to_down_sample.dsconv2.1.weight f4 [12]
00000000: 5b43 3c3f ba7f a53f 925c b13f 760f ec3f
00000010: e632 b53f acbd 083f 3b37 6d3f 80ea a03f
00000020: b3ea 913f debb 6f3f 5f83 643f 03b0 8f3f
0.73540276 1.2929604 1.3856375 1.8442218 1.4156158 0.53414416 0.926624 1.2571564
1.139975 0.9364604 0.89262956 1.122559

learning_to_down_sample.dsconv2.1.bias f4 [12]
00000000: a3d7 dabb a920 0f3b b32b 2d3c 8103 b1bc
00000010: ad26 3abb ff74 81bb 7449 e33b 3a51 8cbc
00000020: d341 b1bc 8ae6 6abc 12db b63c 4aab 7ebb
-0.006678538 0.0021839535 0.010569501 -0.021608116 -0.00284044 -0.0039507146 0.0069362465 -0.017128576
-0.021637833 -0.014337191 0.022321258 -0.003885942

learning_to_down_sample.dsconv2.1.running_mean f4 [12]
00000000: 1cc1 0440 5474 8a40 3a86 7e3d bdd7 26bf
00000010: eba3 2d40 c0c0 2d3f ac9c 31bf 4883 1440
00000020: c82d 3d3f a642 7abf ea91 933f 533e 0e40
2.0742865 4.3267 0.062139727 -0.6517294 2.7131298 0.6787224 -0.6937969 2.3205128
0.7389798 -0.9775795 1.1528904 2.222554

learning_to_down_sample.dsconv2.1.running_var f4 [12]
00000000: 3d69 133f 200e ae40 7074 8f3e ee9b 1540
00000010: 91f0 5341 801d d63f e70a 7f3f fbe0 6042
00000020: 47df 1540 1a08 4240 e27f af40 3a36 b241
0.57582456 5.4392242 0.28018522 2.3376422 13.246232 1.6727753 0.9962601 56.219707
2.3417528 3.0317445 5.4843607 22.276478

learning_to_down_sample.dsconv2.2.weight f4 [16, 12, 1, 1]
00000000: 3b8e e63e 570c 92bc 5bc8 c5be eb91 7a3f
00000010: 492a 0d3f de92 48bd 7870 fd3e fe2e 7d3f
00000020: 4d7a f33e de84 43be 147d 5dbe 762b 103f
00000030: 0922 cdbd 785b f13f 9094 f53d 9578 13be
00000040: 4cbd 193f 488d 003d 10aa ba3e 9afc 7dbe
00000050: 3c99 1ebb 5579 5fbd 2a98 013f a85e 173c
00000060: 8500 663e 2707 04c0 cc5b 463e f960 4c3e
00000070: c998 a13e 58f3 d7be a88f 91be f510 4c3c
00000080: a2f1 273e 461f b23d 20a7 0d3d b883 f63d
00000090: 8c09 83bf 0c6c 063e c119 cebe ba66 9e3e
000000a0: d522 993e 0785 ea3e f3cd 20be 8bd0 f83e
000000b0: ecfc 2cbf 3234 1a3f d8ce cebe f9b9 cd3d
000000c0: 743d f5bc 0994 823e bee2 0e40 1ae8 a7bd
000000d0: 92a5 5e3d feda 8dbf c393 0cbf e0b1 963c
000000e0: cf08 173d 0776 b43e 1946 bc3e e2eb 423d
000000f0: fb38 05bf 212d da3d 57f5 4b3f c539 2d3f
00000100: 97fc b9be 728c 02bf a67d 993e 9216 5cbf
00000110: 8b01 183f 556e dfbe 9ace 57bf c41f 9a3e
00000120: 82e7 0cbf 8b06 fa3c 3047 c8be f0d4 943f
00000130: e557 72bd b2cf e73c 3700 53be 2e82 50bf
00000140: 9f20 513f 9349 12bf 8610 bc3d 9825 193f
00000150: ef6d d63c c06e fc3d 6615 b43e 7e29 433e
00000160: f0c4 b9be e265 f6be b81d 1dbf 7de3 183f
00000170: c5e9 83bf 4196 823f 8131 fd3e e9bb 40bf
00000180: cba5 37bf c364 093f 3805 243f 92d7 f83e
00000190: 4194 75be c782 2e3d b0de 433e f840 923f
000001a0: e65a bd3b 1bd7 8d3e b6a1 e0be 4a4a ce3e
000001b0: b1ab bd3e 68fa cdbe 25e6 633e f877 99bf
000001c0: ca72 393f 808e 653e 7e42 a1bc 45e7 763e
000001d0: 8438 74bb 2884 d43c c92c aa3f 4b02 a03e
000001e0: 4a2b 6e3e aabc 973e 996b 6dbe e991 e3be
000001f0: fd2d f9bf 9f9e cbbd 8787 67be 2926 66be
00000200: fa77 b9bd 2086 4ebe 3622 3dbf e13a 24bf
00000210: b07d 3b3f 302f a73f 9d86 d1be d0bd 75be
00000220: 3924 b7be 15b7 cb3d 58fc 6dbe b3c2 9d3e
00000230: 1ee9 10bd fa33 653e 5250 313f 2d03 5a3d
00000240: 5ae4 9cbd 14c5 14be 420e 56b8 5f01 bf3f
00000250: b910 99bf 736d 02bf 2cc7 653f a6c2 73be
00000260: 2169 db3d 222b 4c3d 9052 99be 9db7 b33d
00000270: 4fb6 edbe 69f1 f6bd 0f30 e43e 7a3e a23e
00000280: fe83 5cbe 42e1 a2be 2811 e53e 3bd5 c3be
00000290: 8488 92bf 3dab 1e3f fa6f 5f3c f0a5 c2bf
000002a0: 5a5d 0cbe 3b6e 35ba 5108 973f ebe9 923f
000002b0: 212e 18bf f6ec 533d f06d d3be cab6 b03d
000002c0: d219 533e 6752 053d 0e60 58be e118 1a3f
000002d0: 203a 113f 34f2 96be 907c 71bf 7f26 6bbe
000002e0: d269 223f f973 083f f907 8a3f ad28 4bbe
000002f0: fc94 23bf 7683 113f 214b d6bd 0bc3 a73c
0.45030388 -0.01782815 -0.38629422 0.97878903 0.5514265 -0.04896819 0.4949987 0.9889983
0.47554246 -0.19093654 -0.21629745 0.56316316 -0.10016257 1.8856039 0.11991227 -0.14401467
0.6005447 0.031384736 0.36457872 -0.24803391 -0.0024200222 -0.05455907 0.5062281 0.009238876
0.22461136 -2.0629365 0.19370955 0.19958867 0.31561878 -0.42177844 -0.28429914 0.012455215
0.1640077 0.08697371 0.03458321 0.12036842 -1.0237288 0.13127154 -0.40254024 0.3093775
0.29909387 0.45804617 -0.15703563 0.48596606 -0.6757343 0.60235894 -0.40392184 0.10045237
-0.02993653 0.25503567 2.2325892 -0.08198567 0.05435712 -1.1082456 -0.54912966 0.018395364
0.036873635 0.35246298 0.3677223 0.047588237 -0.5204007 0.10653139 0.79671234 0.67666274
-0.36325523 -0.5099555 0.29978675 -0.8597194 0.59377354 -0.43638864 -0.84299624 0.3010236
-0.5504075 0.030520698 -0.39116812 1.1627483 -0.059165854 0.028297279 -0.2060555 -0.8144864
0.816904 -0.57143515 0.09182839 0.5982299 0.026175467 0.123258114 0.35172576 0.19058797
-0.36283064 -0.48124605 -0.6137347 0.5972212 -1.0305716 1.0202104 0.4945183 -0.7528673
-0.71737355 0.53669375 0.64070463 0.48601967 -0.23982336 0.042605188 0.19127917 1.1426077
0.005778658 0.27703175 -0.43873376 0.40291053 0.37045053 -0.40230107 0.22255762 -1.1989737
0.7244078 0.2241764 -0.019685026 0.2411166 -0.0037265131 0.025941923 1.3294917 0.3125175
0.23258701 0.29636127 -0.23185576 -0.44447258 -1.946716 -0.09942364 -0.22610293 -0.22475494
-0.09056087 -0.20168352 -0.73880327 -0.6415234 0.7323866 1.3061275 -0.40923014 -0.23998189
-0.35769823 0.099470295 -0.23240793 0.30812606 -0.035378568 0.22383109 0.69263184 0.053225685
-0.07660742 -0.14528304 -5.1034855e-05 1.4922293 -1.1958228 -0.50948256 0.8975704 -0.23804721
0.10713411 0.049845822 -0.29945803 0.08775256 -0.46428153 -0.12057764 0.44567916 0.3168829
-0.21534726 -0.31812483 0.44739652 -0.3824862 -1.1447911 0.6198004 0.013637537 -1.520689
-0.13707486 -0.00069210277 1.1799413 1.1477636 -0.5944539 0.051739655 -0.41294813 0.08628614
0.20615318 0.032549288 -0.21130392 0.6019421 0.56729317 -0.2948166 -0.9433069 -0.22963904
0.6344272 0.5330196 1.0783683 -0.19839735 -0.6389921 0.5684122 -0.104635485 0.020478746

learning_to_down_sample.dsconv2.3.weight f4 [16]
00000000: 49e7 a63f 852b c23f 07b9 9e3f 87ae 863f
00000010: 2dfc 0240 ce72 973f 1af0 ed3f b340 c83f
00000020: b8b1 7c3f 207a 9b3f 6b4a 0c40 e453 8d3f
00000030: 9400 cb3f 6dd6 2640 90fd ae3f 9fa0 cb3f
1.3039333 1.5169531 1.2400216 1.0522012 2.0466416 1.1831911 1.8588898 1.5644745
0.9870868 1.2146645 2.192042 1.1041226 1.5859551 2.6068375 1.3671131 1.5908393

learning_to_down_sample.dsconv2.3.bias f4 [16]
00000000: 19dc 003f f656 8abe b721 283e b661 ffbd
00000010: 6ab5 18be 3009 ebbd 19d0 bb3d 0d28 f5be
00000020: 0566 5b3f ac8a 683f 8d46 99be 9afd eb3e
00000030: 4e67 bb3d e46f 8b3d 9df8 03be 4ea5 d83e
0.5033584 -0.2701947 0.16419111 -0.12469809 -0.14912954 -0.11476362 0.09170551 -0.4788212
0.85702544 0.90836596 -0.29936638 0.4609192 0.09150563 0.06808451 -0.12887807 0.42313617

learning_to_down_sample.dsconv2.3.running_mean f4 [16]
00000000: 287e 6cbd 91e1 d63c 5595 68bc 5945 9ebc
00000010: 84b6 e83c 1aae 16bc 06f6 b9bc b08f 203c
00000020: 0d8b fdbc edca 3b3d 7438 ae3b 5ae6 af3b
00000030: 2544 d8bc 3a91 0c3d 6f1a d7bc a41e 513a
-0.0577375 0.026230605 -0.01419576 -0.019320177 0.028407343 -0.0091967825 -0.02270032 0.009799883
-0.030950094 0.045847822 0.0053167883 0.005368036 -0.026399681 0.034318186 -0.026257722 0.0007977283

learning_to_down_sample.dsconv2.3.running_var f4 [16]
00000000: 0759 b240 e58c 9940 ac1d 0941 6117 8140
00000010: ca10 2641 a517 8f40 8ee4 6740 5e2b ba40
00000020: 9389 ea40 11f5 6241 ad67 2641 a08e 9a40
00000030: f068 4041 5254 3141 3d6c ea40 0d47 b440
5.5733676 4.798449 8.569744 4.034104 10.379099 4.4716363 3.6233249 5.817794
7.3292937 14.184831 10.400311 4.8299103 12.0256195 11.083086 7.3257127 5.633673

global_feature_extractor.first_block.0.conv.0.weight f4 [32, 16, 1, 1]
00000000: 1b43 94be 4d46 b5be 2e76 1abf 718b 183f
00000010: c5b5 5abf 5f49 cebd 08d6 4d3d aaa5 1ebf
00000020: ce48 b63e a125 2bbf 4155 f23d d86a 063f
00000030: 38a7 653e d23d 06be 8150 f6be 00bf a2be
00000040: 2944 a2be 32fb 493e 2787 023e 3455 1abe
00000050: 06aa d5bf 0858 febd 4aa3 a0bb c689 4d3f
00000060: f8b3 cc3e 857f 87bf 655e cf3e d847 c8bd
00000070: 0353 103f 4971 aa3e 9b62 9abc ea27 6abf
00000080: e34b 403f e297 f3bc 2fbf f83e c2e6 403e
00000090: d2f0 ffbd 9b37 45be 59e0 00bf 95e0 41be
000000a0: a843 853e d465 563d c1db 8bbf 55d3 c2bc
000000b0: 06fe cb3e ec38 8bbf 4d95 783e 72bb fbbe
000000c0: 7cbf dcbd 0a6c ca3d 40e8 48be 7158 4d3f
000000d0: 2722 9fbc 22e8 20bf da54 2e3d eaff 06bf
000000e0: 629b 8ebe 56e9 333d b9fe 413e 4f91 7e3f
000000f0: 77a2 9ebe c313 fa3e 04a5 59bf 33b2 883f
00000100: 3a2c 3a3f 4ca5 fdbd 38a9 d5bc fd48 393e
00000110: c9ef 803f 9b9f 463f 8da7 483f 7d24 10bd
00000120: 80a4 113f f376 9fbd 1f7b bebe 1494 ac3d
00000130: 145b 363e b515 14bf 2228 033f 0b4b e4be
00000140: 9bb0 fabe d12e bb3e 4eb5 51bf 9420 853e
00000150: 7627 1a3e 17b0 693e 99a2 653e a31f 643e
00000160: b03e 413d ec7a 16bf ec1a 3d3f be4b 38bd
00000170: 679d 323f c48e f53e 85c7 c93e b7fc 97bf
00000180: b69a 613e 9dfb 843f de14 8bbf 566a 093e
00000190: 8e02 b4bd 36c9 f63e 7577 b33e bd96 5fbe
000001a0: 2ef3 8e3e 4e64 0fbf 7c78 95bd 6b85 8b3f
000001b0: b25f d23d 0d2f 773e dc8c 9ebe 5a83 1dbf
000001c0: a6f4 0a3f 067b 01be 57e3 b83d d9ea 6a3e
000001d0: 8033 0ebf 66b4 4dbf 2cb3 2abf 6599 0dbe
000001e0: 54b8 d43d 2071 563e 6bd0 58bf 094e 6b3e
000001f0: f82c 9b3e 4642 1e3e 3d7e cbbf ae13 453f
00000200: c814 96bd e334 513e 09fe 0a3d 748b 4abe
00000210: 30f7 573f 4b96 2f3c 8012 a4bd 8835 423f
00000220: b2db 24be d80a a3bd a05c 1e3e d596 3fbe
00000230: 2bbb 26bf 541a 8f3f e4bf 0f3f fd3d 66bf
00000240: 828e 03bf 112c 373f 3177 23bf 5534 0bbf
00000250: 225a 2a3f 47f0 0a3e 3f9a ecbe 13f3 b23e
00000260: 5700 99be c055 213f 0657 323f 0c2e 8a3e
00000270: 520d 44bf 5dd6 88be 886d bcbd 817b 5fbe
00000280: cdc2 4d3f 2e6b 5bbd 6c15 b03e 5c08 923d
00000290: e0b6 83be e450 78bd 7f09 7dbf 77b5 b1be
000002a0: 3950 0e3f 0265 eb3e ce27 c3be e9a7 913b
000002b0: acf5 233e 50f0 19bf 7cca 44be 1867 d33e
000002c0: c7ff e53e 372d b23e bd7c 963d 6465 293c
000002d0: f967 133f faa7 e43e ca6e cabe 9bd4 b93e
000002e0: 7270 d63e bdeb ddbc 0608 1dbf 7069 89bd
000002f0: c77b e03d 23cc 093f 0277 ff3e af66 babe
00000300: 10df 60bf 7eb5 f63d dd6c 943e b8e7 85be
00000310: f422 a5be a41a 863e 243c 31bf e3cd 2c3e
00000320: 0260 d33d d098 53bf 612a d83e c333 653e
00000330: faf8 813f e4da 1f3f af62 023e 645c f4be
00000340: 7666 f9be 434b a93e 962b b73d d79b a1be
00000350: bfaa 2a3f 1f48 80be 8ffe 88be 581d ee3e
00000360: 68d4 a43e ba8b efbe 567a 833e 83b0 b6be
00000370: 46ef e3be 2db8 2b3f af38 2a3f 0856 98bf
00000380: 351a 323f 5129 eb3e 52b6 e9be 1ece f63e
00000390: b169 e13e 328b b5be 7127 4c3d 151e 883b
000003a0: d868 c73e d61e 0bbf 053d b8bf 4d47 4c3d
000003b0: 3f36 a0be ed5c 9bbf 09c5 2ebe 99f3 d43d
000003c0: 5270 0e3e e16e 67be be05 783e aed4 97be
000003d0: ae83 73bd c95f d73c 56c3 53be 740e dcbe
000003e0: d654 933e dca8 4cbe 4f28 b7bf b119 22bf
000003f0: a700 b4bc a41c 3d3f 4e09 85be 89d9 c03e
-0.28957447 -0.35405198 -0.6033658 0.5958777 -0.8543361 -0.10072588 0.050252944 -0.61971533
0.3560242 -0.6685429 0.11832667 0.5250678 0.2242707 -0.1310952 -0.48108295 -0.31786346
-0.31692627 0.1972473 0.12746869 -0.15071565 -1.6692512 -0.124191344 -0.004902278 0.8028835
0.39981055 -1.0585791 0.40501705 -0.09779328 0.56376666 0.33289555 -0.018845847 -0.91467154
0.75115794 -0.02973551 0.48583362 0.18838027 -0.12497105 -0.19259493 -0.5034233 -0.18933327
0.2602818 0.052343205 -1.0926439 -0.023782412 0.39842242 -1.0876746 0.24275704 -0.49166447
-0.1077871 0.09883888 -0.19619846 0.80213076 -0.019425465 -0.62854207 0.04256139 -0.52734244
-0.27852923 0.0439237 0.18944825 0.99440473 -0.30983326 0.48843202 -0.8501742 1.0679382
0.72723734 -0.123850435 -0.026081666 0.18094249 1.0073177 0.7758729 0.7838066 -0.035191048
0.5689163 -0.0778636 -0.3720331 0.08426681 0.17808181 -0.5784562 0.5123311 -0.44588503
-0.48962864 0.36559156 -0.81917274 0.26001418 0.15054116 0.22821079 0.22425307 0.22277693
0.047178924 -0.58781314 0.73869205 -0.04499411 0.69771427 0.47960484 0.39410034 -1.1873997
0.22031674 1.0389286 -1.0865743 0.1341947 -0.0878955 0.48200387 0.35052076 -0.21834846
0.27919906 -0.5601243 -0.07298371 1.0900091 0.10272159 0.24139042 -0.30966842 -0.6152855
0.54279554 -0.12644586 0.09027737 0.2294115 -0.5554733 -0.8035339 -0.66679645 -0.13828047
0.1038672 0.20941591 -0.8469302 0.22978987 0.30307746 0.15454969 -1.58979 0.76983154
-0.073281825 0.20430331 0.033933673 -0.1977976 0.84361553 0.010716985 -0.08011341 0.7586293
-0.16099432 -0.07961053 0.15465021 -0.18709882 -0.65129346 1.117991 0.56152177 -0.89938337
-0.51389325 0.71551615 -0.63853747 -0.5437673 0.6654378 0.13568221 -0.4621143 0.34951076
-0.29883072 0.6302147 0.6966404 0.26988256 -0.76582825 -0.26726046 -0.09200579 -0.21824457
0.8037537 -0.05356901 0.34391344 0.07130501 -0.2572546 -0.06062402 -0.98842615 -0.3470876
0.5559116 0.459755 -0.38116306 0.0044450653 0.16011685 -0.6013231 -0.19217867 0.41289592
0.44921705 0.3480012 0.07348011 0.010339115 0.57580525 0.44659406 -0.3953765 0.36295018
0.41882664 -0.027089948 -0.6134037 -0.06709564 0.10961109 0.5382711 0.49895483 -0.36406466
-0.87840366 0.12046336 0.28989306 -0.2615335 -0.3225323 0.261922 -0.6923239 0.16875415
0.103210464 -0.8265505 0.42219833 0.22383027 1.0154107 0.62443376 0.12732957 -0.47726738
-0.48710984 0.33065233 0.0894386 -0.3156421 0.6666679 -0.25055024 -0.26756713 0.46506763
0.32193303 -0.4678629 0.25679272 -0.35681543 -0.4451849 0.67077905 0.6649274 -1.1901255
0.6957124 0.4592996 -0.45646912 0.4820413 0.4402595 -0.3545776 0.0498423 0.0041539767
0.38947177 -0.54343927 -1.4393622 0.049872685 -0.31291386 -1.2137734 -0.1706735 0.10398025
0.13910034 -0.2260089 0.2422094 -0.2965445 -0.05945175 0.026290791 -0.20679983 -0.42979777
0.28775662 -0.1998629 -1.4309176 -0.6332045 -0.021972967 0.7387183 -0.2598366 0.37665966

global_feature_extractor.first_block.0.conv.1.weight f4 [32]
00000000: 80a8 593f d992 bc3f d97d 1040 41e7 ab3f
00000010: 6360 0040 8ea7 5e3f e882 aa3f 5145 e73f
00000020: d6ba b13f 21d8 b93f cef9 a53f c0ad d43f
00000030: d9ef 683f 29b8 a53f 5871 7b3f ef08 0640
00000040: 440e 733f 5b03 d53f 0738 873f a1ab 953f
00000050: ab3e 963f 2d0c fa3f a6ef 983f a385 283f
00000060: 5bc5 f13f 7a6a ec3f 7b77 b23f 517b eb3f
00000070: 90d1 863f 46f0 ae3f 17fe 0940 307b 833f
0.85022736 1.4732314 2.2576811 1.3429948 2.005883 0.8697442 1.33212 1.8068029
1.3885143 1.4519082 1.2966859 1.6615524 0.9099098 1.2946826 0.98219824 2.0942953
0.9494364 1.6641649 1.0563973 1.1693002 1.1737875 1.9534966 1.1948135 0.65828913
1.8888353 1.8469994 1.3942713 1.8397008 1.0532703 1.3667076 2.1561334 1.0271969

global_feature_extractor.first_block.0.conv.1.bias f4 [32]
00000000: 3d65 af3e 23dd 35bc 17d7 893d 7463 89be
00000010: dbfa fe3d 92e1 223f f5bc 073f 0f7c 4d3e
00000020: 1832 a8be a99d 5d3e 5b7e 20bf d5bd 1abe
00000030: 62fd 003f 4e88 dcbe 9f4a 0f3f 0aed 4dbe
00000040: d21b f23e 3556 8a3e ff2f 0d3f cd48 363e
00000050: dcb2 acbe 2c90 3b3c ea64 eebd f015 363f
00000060: 4ec2 2bbe e64a ef3e 4ce3 a03e 5a43 983e
00000070: 5512 8b3e 8f4e d13e 35d0 46bc 7965 de3e
0.34256926 -0.011100086 0.06730478 -0.2683369 0.12450191 0.63625443 0.530227 0.20066856
-0.32850718 0.21642174 -0.62692803 -0.15111478 0.5038663 -0.43072742 0.5597324 -0.20109954
0.4728685 0.27018896 0.5515136 0.17801209 -0.3373021 0.0114479475 -0.116403416 0.71127224
-0.1677334 0.4673683 0.31423414 0.29738885 0.27162424 0.40880248 -0.012134601 0.43436792

global_feature_extractor.first_block.0.conv.1.running_mean f4 [32]
00000000: 4631 b7bf 16ae 96bf 3dc2 91bf 2f44 803f
00000010: 70d2 bd3f 74a7 6cbd 9d13 fe3e bc6c f3be
00000020: a85f 113f 322c abbe 9307 9d3e 0e44 9f3f
00000030: 2aa9 51be 3783 f3be 2df2 d8bf 4762 2fbf
00000040: 19ff 77bf eb01 8abe d6e9 d4bf 4eda 4fc0
00000050: 4ff9 01bf 15ad 3d3f 42e0 5c3f 420c f33e
00000060: c01c f5bf 00fa febf 7da9 09bf c40a 82bf
00000070: c126 a53d bfd4 19bf 149b 8d3d eca0 b73f
-1.4311912 -1.1771877 -1.1387402 1.0020808 1.4829845 -0.057776883 0.4962434 -0.47543895
0.56786585 -0.33432156 0.3066984 1.2442644 -0.20474687 -0.47561046 -1.6948906 -0.68509334
-0.96873623 -0.26954588 -1.6633861 -3.2476993 -0.5077104 0.7409223 0.8627969 0.4747029
-1.9149399 -1.9920044 -0.53774244 -1.0159535 0.08064032 -0.6009025 0.069143444 1.4345984

global_feature_extractor.first_block.0.conv.1.running_var f4 [32]
00000000: 437f 6f40 757e 3d41 d8e1 4a40 bb5d 8240
00000010: 022a a140 e744 2c41 f6eb 0741 d650 bb40
00000020: c470 9f40 fad9 9f40 5ec2 8140 58ab 2f40
00000030: d9c9 0241 bc05 fa40 db2a c540 89c5 3540
00000040: 5064 a540 ac31 a23f 0318 2c40 34a8 cd40
00000050: e519 a13f 520e 3940 4732 a340 81ec f740
00000060: 210d 5140 638c da40 1f6b b140 feac f340
00000070: 6527 6140 d6ab 5a40 1bf2 8040 52e1 9a40
3.7421424 11.843373 3.1700344 4.0739417 5.036378 10.766822 8.495108 5.8536177
4.9825153 4.9953585 4.0549765 2.744833 8.174279 7.8132 6.1614814 2.8401816
5.168495 1.2671409 2.6889656 6.4267826 1.2586027 2.891499 5.0998874 7.74762
3.2664263 6.829637 5.5443263 7.614867 3.5180295 3.416738 4.029554 4.840005

global_feature_extractor.first_block.0.conv.3.weight f4 [32, 1, 3, 3]
00000000: cc48 9fbe c3cd 09bd 0ccd 90be 89c1 883d
00000010: 6d4c 04bf e40b 31bf 0646 e13e ad4a 423f
00000020: d6bb 9d3e 752f d6bc e99e 803e 3868 313f
00000030: 1e25 ba3e bdf0 413f d4d1 8a3f e20d cf3d
00000040: 9bb2 973e bb52 493f 5149 043f 52fb 7d3f
00000050: 88ea 503f ae28 efbe cd4d 9e3b 87d8 de3e
00000060: 0d00 cdbe 26ed 58be 0def 36bd 1dc7 143f
00000070: 0b99 ac3e 961f fb3e 52b2 b03e 1f9a 993e
00000080: f01c 813e 6fe3 39bf f29e 5ebf 4222 44bf
00000090: 3126 77bf 9ae2 f8bd f2ce 99be 48c2 3abe
000000a0: 522f 61be 3a7c f6be 63d5 78be e633 c1bd
000000b0: 6758 1abf 5a83 883d f4c1 4cbf c8ad dfbe
000000c0: adf7 4b3d fc65 44bf 1e2e 47bf edf1 513e
000000d0: 7458 00bf 66e7 e0be 8da8 7c3f cb6c 873f
000000e0: a11f 4abe 1e7b 8d3e dcd5 033f a275 1abe
000000f0: aece 963e f233 c23e e403 15be 1bbb f63d
00000100: 75db cb3c 2027 7bbe c35f 47be c0fe 52bf
00000110: b10c 14bf 3fcb a3be bf39 a1bf 447d 4ebe
00000120: ed9d 733e 31a4 443f 1544 ba3e 818d d8be
00000130: f7b2 6fbf ac56 c3bd 33e0 913e 1835 8f3b
00000140: d36f 60bf 84f7 4dbf f358 b0be ebcb 29bf
00000150: 86b6 80be c52c f23e e81e 123f ad98 21be
00000160: c574 043f a5bd 323f 6b75 d8be d21c 0abe
00000170: 5e7f 8a3e 1e76 2bbd 5f4a 263f 63d0 bc3d
00000180: ddfe d43e fca3 623f 3000 203f 4a91 fa3e
00000190: 0136 fa3e 8b05 34be d9c1 193d 9ae5 74be
000001a0: a3c1 313f 5204 02be 3e81 813e 1410 d3be
000001b0: 8d84 80bf 46fd 80bf 2a51 0abf f1a9 f9be
000001c0: dd6c 053e 40b9 fdbe c1ff 553c 539e 4a3d
000001d0: 8a7f 773e 1ae5 d5be 8f4e 20bf ba35 99be
000001e0: 3367 003f 456b 7a3f e8de f63e 3712 51bc
000001f0: 1206 8a3d 7031 c7be ae57 ae3e 3275 b33f
00000200: f6ee de3e 9d7a 093d c18a 423f 183d 2e3f
00000210: 2518 32bd 7213 95be b645 1e3e a606 3d3f
00000220: ebe5 19bb de40 ebbd ba22 6c3e 7125 9c3e
00000230: 50b3 223f 0e0a 883d face 74bf 76e2 f5be
00000240: 0de8 5fbe 56df b23f 95e1 923e 6183 5cbf
00000250: 24ac a93e db91 74bd 4296 f5bd 7c42 663e
00000260: ca4e bebe b53f 38bf 8534 2cbf 3348 66be
00000270: 738f 1a3d 570b aa3e 0ab1 1f3f 1ffc ab3e
00000280: 6165 a43e 69de 153f a531 943d c523 e83d
00000290: 455c 333e fbc7 053e 7cc2 563f 10f7 3e3f
000002a0: a304 ac3e 2f06 483f c6b0 483f e00b f43e
000002b0: 6b5f 343e 723a c9be 2d6e 9c3f ff5e 1f3f
000002c0: bff3 25bf 4239 023d df68 b33e 6ede adbd
000002d0: 89e3 d43c 9697 7dbb 6057 02bb d161 213f
000002e0: f3c4 413e db52 c8be 41d7 d0be 1ace 1e3f
000002f0: 472f 3f3f ef42 9cbc efc8 c7be 7e7b 64bf
00000300: 36af 983e 91a5 323d 0087 58be ed41 013f
00000310: c503 163f 1a28 b33e 6823 f8bd 63fd 94bd
00000320: 7c5f 423e 0c01 37bf ff5c 6abf 1579 52be
00000330: ccca c23d 89b6 233f 3378 993f 8bf4 abbe
00000340: 2647 12be 42c1 54bf 3b4a f53e 0b71 893e
00000350: ae77 3cbf d99d fb3e 0d94 503f 5bc6 05be
00000360: 7b8d c6be fbbc 2b3f df95 013f 2c80 513e
00000370: 9efa 56bf 929a b6be 6987 6c3d 9c11 8d3d
00000380: 768c 00be bcfc 66be 6841 91be ce30 0dbf
00000390: aa2b 49bf 177a 7ebf a26d 39bf ed85 24bf
000003a0: 1fcd 9ebe 2560 0abe 6db0 c0be a57f cfbe
000003b0: c4c2 82bc ef8f 323f 96c5 8c3f fe03 013f
000003c0: 2d79 153f dab4 2a3f d6d4 a83e 83f4 eabd
000003d0: 7f51 8ebe d318 1bbf 1929 46bf 9526 cfbe
000003e0: 882d 44bf 77bb f3be 60e9 6a3e edb7 f13d
000003f0: 58ac d3bc 5f78 f63e 980a 363f 4f69 853e
-0.31110227 -0.033643495 -0.28281438 0.06677539 -0.51679116 -0.6915877 0.43998736 0.75895196
0.3080737 -0.026145676 0.2512124 0.6929965 0.36356443 0.7575796 1.0845284 0.1011007
0.29628453 0.7864186 0.5167437 0.9921161 0.81607866 -0.46710724 0.004831052 0.43524572
-0.400391 -0.21184215 -0.04466157 0.5811632 0.33710513 0.49047536 0.34511048 0.30000398
0.2521739 -0.7261266 -0.8696128 -0.76614773 -0.9654265 -0.12152596 -0.300407 -0.18238175
-0.21990708 -0.48141652 -0.2430015 -0.09433727 -0.6029114 0.06665678 -0.7998345 -0.43687272
0.04979675 -0.76718116 -0.77804744 0.20502444 -0.5013497 -0.43926543 0.9869469 1.0580076
-0.19738628 0.27632993 0.514982 -0.15083936 0.2945456 0.37930256 -0.14552265 0.12047406
0.024884919 -0.24526644 -0.19470124 -0.8241997 -0.57831866 -0.31991002 -1.2595748 -0.20164973
0.23790713 0.76813036 0.36380067 -0.4229546 -0.93632454 -0.09538016 0.28491363 0.004370343
-0.8767063 -0.80455804 -0.34442863 -0.6632678 -0.25139254 0.4729978 0.5707841 -0.15780897
0.51740676 0.69820625 -0.42277083 -0.13487557 0.27050298 -0.041860692 0.6495723 0.09219434
0.41600695 0.8853147 0.62500286 0.48938972 0.48869327 -0.1758024 0.037538383 -0.23915711
0.6943609 -0.1269696 0.25293916 -0.41223204 -1.0040451 -1.0077293 -0.54030097 -0.48762468
0.1302981 -0.49555397 0.013061465 0.049467396 0.24169746 -0.41776353 -0.6261987 -0.29923803
0.5015747 0.9781993 0.4821694 -0.01276069 0.06739439 -0.38904905 0.3405127 1.402014
0.43541688 0.0335642 0.7599297 0.6806197 -0.043480057 -0.29116398 0.1545628 0.7383827
-0.002348299 -0.11486982 0.23060122 0.30497316 0.6355486 0.06642543 -0.9562832 -0.48024338
-0.21865864 1.3974407 0.2868773 -0.8613797 0.33139145 -0.05970941 -0.1199155 0.224863
-0.37169486 -0.7197221 -0.6726764 -0.2248848 0.03773446 0.33211777 0.62379515 0.3359079
0.32108596 0.58542496 0.072360314 0.113349475 0.17515667 0.13064568 0.8389051 0.7459574
0.33597288 0.78134435 0.78394735 0.4766531 0.17614524 -0.39302403 1.2221123 0.6225433
-0.6482505 0.031792887 0.35040948 -0.08489691 0.025987403 -0.0038695089 -0.0019888505 0.6303988
0.18922786 -0.39125714 -0.40789226 0.62033236 0.74681515 -0.019074885 -0.39020488 -0.89250934
0.29821175 0.043614928 -0.21145248 0.5049122 0.585995 0.34991533 -0.12116128 -0.07274892
0.18981737 -0.7148597 -0.9154815 -0.20554002 0.09511337 0.639504 1.1989807 -0.3358501
-0.14284953 -0.8310739 0.47908196 0.26844057 -0.73620117 0.49143866 0.8147591 -0.13063948
-0.38779816 0.67085236 0.5061931 0.2045905 -0.8397616 -0.35664803 0.057746325 0.06888124
-0.12553582 -0.22557348 -0.28370214 -0.55152595 -0.7858225 -0.99405044 -0.7243291 -0.64266855
-0.3101587 -0.13513239 -0.37634602 -0.40527073 -0.015962012 0.69750875 1.0997798 0.50396717
0.58388025 0.6668221 0.3297488 -0.11472418 -0.27796552 -0.60584754 -0.7740646 -0.40459123
-0.76631975 -0.47603962 0.22940588 0.11802659 -0.025839016 0.4813871 0.71109915 0.26056907

global_feature_extractor.first_block.0.conv.4.weight f4 [32]
00000000: 9887 7b3f 5328 973f e7e9 5d3f a4c9 b43f
00000010: cceb 923f a832 6a3f e029 8c3f 17e1 c73f
00000020: 5feb ca3f 7357 0e40 81a1 323f 6684 703f
00000030: ece0 823f 60eb bb3f b777 a53f d94d a53f
00000040: 43ef 9d3f 43fa 853f 4074 b53f 1b16 863f
00000050: dffd 1f3f afdc 5a3f 83f3 d33f ed31 a63f
00000060: ee8d 843f 9520 d13f 23a2 8d3f 9e59 813f
00000070: 9646 963f 3e76 6d3f 7051 9a3f c812 4c3f
0.98253775 1.1809181 0.8668503 1.4124036 1.147821 0.91483545 1.0950279 1.5615567
1.585308 2.2240875 0.69777685 0.93952024 1.0224891 1.4681206 1.2927159 1.2914382
1.2338642 1.0466999 1.4176102 1.0475496 0.6249675 0.85492986 1.6558689 1.2983986
1.0355814 1.6338068 1.1065105 1.0105474 1.1740291 0.9275855 1.2056103 0.7971616

global_feature_extractor.first_block.0.conv.4.bias f4 [32]
00000000: 381f b6be 7ebf 1f3f f123 f33d 9e98 8bbd
00000010: b3ff 4d3d f082 963d 93aa 383f 9c18 d33d
00000020: 042c 213d e9c4 e5bc c603 4fbf b930 b6be
00000030: fead 333e e46b 91be e391 6b3f 8820 fabd
00000040: c652 773d ad12 f73d 1be2 c93f 1b90 823e
00000050: 2af3 353d 7b28 82be 0898 2dbd 7c70 abbe
00000060: ed03 b2bc f053 a83e f7dd 433f 3fdc c63a
00000070: 3e1a f33d 2b3c c53d 711e 433f 38bd d5be
-0.35570693 0.6240157 0.1187209 -0.06816219 0.050292682 0.07349193 0.72135276 0.10307428
0.039348617 -0.028047996 -0.8086513 -0.35584047 0.17546842 -0.28402627 0.9201948 -0.12213236
0.060381673 0.12064109 1.5772127 0.2550057 0.044421352 -0.2542151 -0.042381316 -0.33484256
-0.021730388 0.3287654 0.76510566 0.001517184 0.1187024 0.09630617 0.76218325 -0.41745925

global_feature_extractor.first_block.0.conv.4.running_mean f4 [32]
00000000: e593 01be 08e8 1d40 a892 ad3f a93b cb3d
00000010: d8fc 15c0 63fc 2bc0 7f0d 1740 81c8 2cc0
00000020: 0c8f 75be f07d 7c3d 7e1b 333f e0dc 003f
00000030: 6e04 06c0 827b 8d3d 692b 1140 4866 943e
00000040: 9276 aa3e 00b2 003f b18e 3c40 ebee 513f
00000050: 4bac df3e 69ee 413e 2c0a 7b3d dc2f 98bd
00000060: b0d7 0cbe 13e8 7dc0 cb53 0940 5839 2ac0
00000070: caf4 c33e 262d 14c0 55ed 17c0 d841 2d3f
-0.12654074 2.467287 1.3560381 0.09923489 -2.3435574 -2.6872795 2.3601987 -2.6997378
-0.2398035 0.06164354 0.69963825 0.5033703 -2.0940204 0.06908323 2.2682745 0.28984284
0.33293587 0.50271606 2.9462092 0.82005185 0.43686137 0.18938603 0.061288998 -0.074310035
-0.13754153 -3.9672897 2.1457393 -2.65975 0.38272697 -2.3152556 -2.3738606 0.67678595

global_feature_extractor.first_block.0.conv.4.running_var f4 [32]
00000000: af93 d93e dfe5 7a40 5222 1f41 d1df 5240
00000010: c5dc 7741 124b 2240 7e3d 0741 1ea3 0d41
00000020: c778 ff3f 80a3 9a40 b19d 1f40 a064 bb3f
00000030: e618 2d40 b058 453f d1fb de40 836f 5940
00000040: c967 be3f 5bc1 3540 0a6d 9a40 43d3 b13f
00000050: 2cc3 1f3f 871b ae40 7c84 a73f 2d6a 463f
00000060: ae4f 363f e8f6 5141 f29f 2341 a331 d140
00000070: 3245 bc3f 772a 1c41 9c36 8f41 c82f 463f
0.42495486 3.9202802 9.945879 3.2949107 15.491399 2.535832 8.452513 8.852324
1.9958733 4.8324585 2.4939997 1.4640083 2.7046447 0.7708845 6.9682393 3.3974311
1.4875423 2.8399265 4.8258104 1.3892597 0.62407184 5.4408603 1.3087306 0.7750576
0.7121533 13.12278 10.226549 6.537309 1.4708617 9.760367 17.901665 0.7741666

global_feature_extractor.first_block.0.conv.6.weight f4 [16, 32, 1, 1]
00000000: 964c 523f 1e20 92be 71e5 e4bd a009 803e
00000010: 2db0 c1be b554 0e3e cee7 93be e5a3 053d
00000020: 82ed 443f 2c4c 913f b65c 03be 8937 983e
00000030: f1dd 01bd c2df 3a3f d4ff d6bd eb86 0d3f
00000040: 55fe 583f 4e93 93be d0a7 4a3f a160 0e3f
00000050: 0da5 803e ac37 aa3d 145a 273f 8944 183f
00000060: ce90 0d3f f5b3 26bf a3c9 223e 5838 c9be
00000070: 0eed 7ebe b9c7 59be 19df 10be 11b0 913e
00000080: b8d1 b73e 42a5 703f 83ba 22be 4558 513f
00000090: 6bf2 0bbf 2c7c 10bf 0f80 623f a40a 223f
000000a0: 00b2 b2bd 1910 403f 9ef7 8bbe 0c75 2abf
000000b0: 89bb ef3e 1764 f3be 4757 853e 0e20 313d
000000c0: 6d72 c8be 3d78 0c3f 0b71 7b3e b6df ffbe
000000d0: 6dab 463e c04f 3c3e b836 80be bd37 bfbc
000000e0: 6443 f1bd 54fb c5be 47e7 1a3f 64cf 58bf
000000f0: 42c2 0c3f 1f4d a93f cf56 11be c7ea 213e
00000100: 3c1f ca3e 9b94 59be 3b3b 8cbe 5f25 313f
00000110: 7e0d 15be 1fc9 3a3e 1310 733e 1796 27bf
00000120: 1f95 1c3f a620 703f 8cc0 a5be 1a25 153d
00000130: 1f20 5e3d c916 c73e e535 793e 23ca b93e
00000140: 1686 e93c 3c43 24bf 435e 1ebf 6aab 63be
00000150: 9eff 90be 57e3 0cbf 5bc8 1c3d 4cd1 333e
00000160: 11b2 a8bb 00fc 81be ecfe 5f3f 8331 9bbd
00000170: fb83 6fbd e3b6 edbc 3e64 cb3c 9d6e 41be
00000180: 6ebe 1b3e c82d 463e fcec 883e 6fe6 de3e
00000190: b15a 8cbe 11b3 99be 1d9b 073f 1bbf 32be
000001a0: c669 4a3e 5989 123f bf60 cc3e 534b ac3d
000001b0: 7c8d e0bc 62f5 773e 40e5 983f ce33 0e3c
000001c0: 9b15 b1bd 5b73 f73d e86d 9dbe a9eb 46be
000001d0: c22b 3ebd 85da 6ebe 0629 be3e 4fa9 4d3e
000001e0: 8eb6 74bd 88f5 35bd 7e50 863e 2c39 3fbf
000001f0: 5a69 aa3e 7a37 4f3e 8a52 533d d85b fe3c
00000200: c7eb 803e 574e f73e 27c7 903e 2c48 483f
00000210: fbcc fcbe 7df6 49be 44ff ae3d d405 27be
00000220: fc91 a63e 187c 6d3f 361f dc3e 2091 c73d
00000230: 786e 2a3f b8e4 e7bc 3c75 413f 07a0 433d
00000240: 8e21 0f3f 6b00 a5bd 097a 53bf 7a4f b33e
00000250: 8375 b6bd 0e99 803d 0008 b4bd bf66 573f
00000260: 3368 b5be 52cc 73bf 7ee5 b03e 1b07 f1be
00000270: 7a9e 10be 2dc8 913d f27d 12be 6c6d 043c
00000280: 805a 83be d1d1 a53e f592 2d3f 0761 073f
00000290: 1c23 d0be bbff 3ebd 4343 073e d102 edbe
000002a0: 4183 80be 4728 41be 1049 493f 8254 b2be
000002b0: 86a1 193f e723 89bd 13de 643f 9d48 95be
000002c0: 0d54 a7be 2f87 1c3f 8871 a9be bec5 dfbe
000002d0: 7771 9b3d 7234 ffbe 06e8 aebe ead6 2b3e
000002e0: 549f 6cbe cb81 653e f13c 2ebe f5ce 473d
000002f0: 3711 d23e 3fb8 96bc a4ed 2abf 503d 37be
00000300: 4542 aabe ae49 123f 2934 7e3e e4de 84be
00000310: c180 53bf 476a 1ebf 8839 9d3e 49a6 723f
00000320: 9faa dcbe 2852 e8be b949 26bf 7fcf 6abb
00000330: ee21 093f 3da7 ddbe 0c01 283f 07c8 3dbf
00000340: 3e6e 3bbe aaa4 5b3e 8054 10bf 9a49 a23e
00000350: cd5b ad3e 8fe7 1fbe f282 57be 4878 7dbe
00000360: 7d10 d5bc 68a2 483f d31c b63e b7e9 dabc
00000370: b0a3 a93e 1728 f93e 43ba 1bbf a406 103f
00000380: 9667 443f 3586 dabe 42dd 89be 5246 dd3e
00000390: bd1b aa3e add9 283f d61f febd 2eda 82bf
000003a0: 2f47 373e cb1e ed3e 2ef8 48bd 9ce5 3cbe
000003b0: 836d 053e 3120 303e 31f4 eabe 6869 083f
000003c0: b0b9 c23e e427 473e b69a 4f3e 42ba 933f
000003d0: 4568 2fbe 9572 933e 4a1a 1ebe 6591 043f
000003e0: a1ae c43c f02f 90bf dd5a c0bd 1dc5 1d3e
000003f0: 0970 e1bd 3174 cbbe bee4 bebd 6e67 81bd
0.8214811 -0.28540128 -0.11176575 0.25007343 -0.37829724 0.138995 -0.2888779 0.032627005
0.7692491 1.1351371 -0.12828335 0.2972987 -0.0317058 0.7299768 -0.10498014 0.55283993
0.8476308 -0.28823322 0.7916231 0.55616194 0.25125924 0.083114 0.65371823 0.59479576
0.5529908 -0.6511834 0.15897231 -0.393008 -0.24895117 -0.21267594 -0.14147605 0.2845464
0.3590219 0.94002163 -0.15891461 0.81775314 -0.54666775 -0.5643947 0.8847665 0.63297486
-0.08725357 0.75024563 -0.27337354 -0.6658485 0.46822765 -0.475373 0.2604315 0.04324346
-0.391498 0.5487097 0.24554841 -0.49975365 0.19401331 0.18389797 -0.25041747 -0.023342008
-0.11780432 -0.3866831 0.6050915 -0.8469145 0.54983914 1.322666 -0.14193271 0.15812217
0.39476955 -0.21248095 -0.2738894 0.6919765 -0.14555928 0.18240784 0.237366 -0.65463394
0.6116504 0.9379982 -0.32373464 0.036412336 0.05422985 0.3888457 0.24336965 0.3628703
0.02850632 -0.6416509 -0.6186258 -0.22233358 -0.2832002 -0.55034393 0.03827701 0.17560309
-0.0051481803 -0.25387573 0.87498355 -0.07577803 -0.058475476 -0.029017871 0.024828073 -0.18889852
0.15209362 0.19353402 0.26743305 0.43535182 -0.27412942 -0.3001943 0.5297106 -0.17455713
0.19766912 0.57240826 0.3991756 0.084128045 -0.027411215 0.242147 1.1944962 0.008679343
-0.08646699 0.12082549 -0.30747914 -0.19425835 -0.04642845 -0.23325546 0.37140673 0.20084117
-0.05974441 -0.04442361 0.26233286 -0.7469661 0.33283502 0.20236006 0.051592387 0.031049654
0.25179884 0.48301956 0.2827694 0.78235126 -0.49375138 -0.19722934 0.08544782 -0.16310817
0.32533252 0.9276748 0.42992562 0.09744477 0.6657481 -0.028307304 0.7556951 0.047760036
0.55910575 -0.0805672 -0.82608086 0.35021573 -0.08909132 0.06279193 -0.087905884 0.84141153
-0.3543106 -0.95233643 0.3455009 -0.47075734 -0.14122954 0.071182586 -0.14305857 0.008082729
-0.25654984 0.3238664 0.67802364 0.52882427 -0.40651786 -0.046630602 0.13209252 -0.4629121
-0.2510014 -0.18863021 0.7862711 -0.348301 0.6001209 -0.06696301 0.8940136 -0.29156962
-0.32681313 0.61143774 -0.3309443 -0.43705553 0.07590001 -0.498447 -0.34161395 0.16781202
-0.23107654 0.22412793 -0.17015435 0.048781354 0.4102876 -0.018398402 -0.6676886 -0.17894483
-0.33253685 0.57143676 0.24824585 -0.25951302 -0.8261834 -0.61880916 0.30707955 0.9478498
-0.43098924 -0.4537518 -0.6495624 -0.0035829244 0.535674 -0.43291655 0.656266 -0.7413334
-0.18303773 0.21449533 -0.56378937 0.3169678 0.338591 -0.15615676 -0.21046045 -0.24752915
-0.026008839 0.7837281 0.35568866 -0.026722772 0.33132696 0.486634 -0.6083109 0.5626013
0.7672056 -0.42680517 -0.2692662 0.43217713 0.33224288 0.65957147 -0.12408416 -1.0222833
0.17898248 0.46312556 -0.049064808 -0.18446964 0.13030057 0.1719978 -0.45889428 0.5328584
0.38032293 0.19448811 0.20273861 1.1541216 -0.1712962 0.28798357 -0.15439716 0.51784354
0.02400905 -1.1264629 -0.09392331 0.15407224 -0.11007697 -0.39737085 -0.09320973 -0.06318556

global_feature_extractor.first_block.0.conv.7.weight f4 [16]
00000000: 0e3a 893f e79c 843f 90d6 a73f b872 243f
00000010: 6ee9 af3f ff94 843f 5814 ad3f 4055 6d3f
00000020: ad1c 9c3f 3004 8b3f 3aad 563f ce09 e53f
00000030: 43db 8d3f 1c91 0d3f 88cc 933f faad 813f
1.0720842 1.0360383 1.3112354 0.64237547 1.3743112 1.035797 1.3521833 0.92708206
1.2196251 1.0860653 0.8385807 1.7893617 1.1082538 0.55299544 1.1546793 1.0131218

global_feature_extractor.first_block.0.conv.7.bias f4 [16]
00000000: b302 5a3b 5a85 f6ba 0d8b bbbb 9b8f 073c
00000010: 96ee 89bb afd6 ebb8 c410 9abb b686 73bc
00000020: 8b45 44bb 6e95 c639 ba6c bc3b cd10 2bbc
00000030: c530 0c3b 8d6b 34bc e691 04bc dfa7 1abc
0.003326577 -0.0018808052 -0.0057233633 0.008273984 -0.00420935 -0.00011245661 -0.0047017056 -0.014863661
-0.0029948677 0.00037876837 0.005750266 -0.010441017 0.0021391374 -0.01101197 -0.0080914255 -0.009439438

global_feature_extractor.first_block.0.conv.7.running_mean f4 [16]
00000000: b94b 4640 7023 3540 f3c5 8c3e fbe5 fa3f
00000010: 665e 483f a32c c9be f501 cf3e 6809 15be
00000020: f8a0 29c0 a220 5bbd 5c07 ac3f 6bd6 1bc0
00000030: 5a15 53be a442 f4bf 3a9c a13e 91ea ee3f
3.0983717 2.830288 0.27494773 1.9601434 0.7826904 -0.39291868 0.4043118 -0.1455437
-2.6504498 -0.053497918 1.3439746 -2.434962 -0.20613614 -1.9082837 0.31564504 1.8665334

global_feature_extractor.first_block.0.conv.7.running_var f4 [16]
00000000: 0540 4d41 4408 1a41 cd1a fe40 12ec 0a41
00000010: 9fe8 3c41 a85b 0241 b94b 1c41 bdfa 5b41
00000020: dbc2 8041 4231 4541 6867 3f41 e668 9441
00000030: 69f3 f040 2822 0241 e6cc 2e41 17aa 3741
12.82813 9.627018 7.9407716 8.682634 11.806792 8.147377 9.768487 13.748715
16.095144 12.324526 11.962746 18.55122 7.529713 8.133339 10.925024 11.479026
