model_checkpoints/experiments/fastscnn_a0.5t2r3pp1.pt (torch, 583467 bytes, 196 tensors)

learning_to_down_sample.conv.conv.weight f4 [16, 3, 3, 3]
0.3530965 -0.08244698 0.12479646 0.040399555 -0.21426424 -0.027525587 -0.12051007 -0.108725004
0.06656493 -0.062007677 -0.24609755 -0.27433237 -0.42451173 -0.7047569 -0.53075594 -0.35112858
-0.6701856 -0.43458766 0.32011747 0.21297777 0.36020476 -0.1108975 -0.1766569 -0.04643708
-0.16318567 0.030665763 0.037877038 -0.23992254 0.1081169 0.017043035 -0.31719726 -0.21275051
-0.238306 -0.4327641 -0.044190884 -0.14886412 0.14672834 0.15926924 0.14135318 0.010044225
0.12620741 0.38632146 -0.12638608 0.24630703 0.44476447 -0.21720642 -0.20792702 0.14727688
-0.3278459 -0.01848636 0.15704852 -0.55082756 -0.06440493 -0.063051075 -0.39025933 -0.5559595
-0.47273815 -0.2800772 -0.27494484 -0.42741412 -0.22798382 -0.28651702 -0.25699377 0.32685074
0.48643538 0.26937774 0.3098108 0.4108484 0.5090366 0.30128077 0.5524578 0.30595058
-0.033696722 -0.07998913 -0.074015796 -0.131974 0.055866662 -0.12588727 0.13887712 -0.13473178
-0.16130814 -0.23103431 -0.57228255 -0.48513758 0.2488791 0.11576695 -0.1473665 0.3323723
0.35222322 0.01882796 -0.16905041 0.063632935 -0.09713443 -0.454914 -0.6035829 -0.49644187
-0.7983719 -1.0607412 -0.79539746 0.29765353 0.049935635 0.20665894 0.19326475 0.57841015
0.22587079 0.20783179 0.14383121 0.13455877 0.6947435 -0.6058427 -0.18094836 0.39845663
-0.9072199 0.24827977 0.22036394 -0.62809193 0.49798074 0.67073876 -0.5188456 -0.026422344
0.29197764 -0.7853319 0.3425853 0.05966278 -0.59794074 0.56287813 0.39444187 -0.34320596
0.12647156 0.3830565 -0.5140711 0.39534327 0.2453108 -0.23396923 0.21940205 0.52417237
0.16948867 -0.14809573 0.68590766 0.42637238 -0.24090298 0.6497571 0.29409385 -0.20445587
-0.14246331 -0.09969357 -0.47200033 0.29135364 -0.062040772 -0.48446876 0.20845358 -0.11488602
-0.60206306 -0.05360234 -0.0030086315 -0.51683855 0.31606767 0.00075946294 -0.60801333 -0.019573405
-0.22563748 -0.62157387 0.23413646 0.078058764 0.096845 -0.026053475 -0.09123416 0.097887225
-0.26672447 0.12352111 0.07398058 -0.6476691 -0.89727485 -0.59968376 -0.061215512 0.1701075
0.21308285 0.101297624 0.733905 1.0469203 -0.011197954 -0.23318142 -0.3813392 -0.06010777
0.22297698 -0.06480824 -0.2133928 0.2888481 0.20515248 0.14905234 -0.13297938 -0.15349929
-0.13110009 0.1489488 -0.25872833 -0.19385113 0.08750957 -0.041093044 0.2671801 0.5235959
1.055129 0.15464945 0.8379485 1.7751079 0.2930965 0.5927102 0.9135696 -0.4135047
-0.40595537 -0.110213116 -0.60708773 0.075179346 -0.04506638 -0.30751103 -0.07569238 0.30181855
-0.3243351 -0.21521044 -0.043024383 -0.34543103 -0.02576195 -0.19323832 -0.77094704 -0.23786205
-0.41992864 0.16445695 0.28458357 -0.08955127 0.018222159 0.2954987 -0.31532547 -0.070444226
0.05750421 -0.325619 0.048895426 0.35251552 -0.18485215 -0.050352834 0.1948542 -0.7001277
-0.12359741 0.18317136 -0.734035 -0.04005273 -0.041259926 -0.08642831 0.09119888 0.17182535
0.023977019 -0.037433345 0.12763828 0.023839654 -0.5701953 -0.23971514 -0.32305357 -0.64070535
00000000: 10c9 b43e f6d9 a8bd 4995 ff3d 017a 253d
00000010: 1668 5bbe 577d e1bc fccd f6bd 37ab debd
00000020: 3253 883d c3fb 7dbd ff00 7cbe 4b75 8cbe
00000030: 9a59 d9be f36a 34bf 9fdf 07bf 20c7 b3be
00000040: 4991 2bbf 4682 debe 70e6 a33e d816 5a3e
00000050: c26c b83e 3a1e e3bd 8ce5 34be cf34 3ebd
00000060: 251a 27be c436 fb3c f424 1b3d 41ae 75be
00000070: 656c dd3d d69d 8b3c ae67 a2be 45db 59be
00000080: 7d06 74be 4293 ddbe 8001 35bd d66f 18be
00000090: f43f 163e 7a17 233e e3be 103e 8890 243c
000000a0: 843c 013e edcb c53e 5a6b 01be e937 7c3e
000000b0: 2bb8 e33e 5c6b 5ebe d2ea 54be c0cf 163e
000000c0: 6bdb a7be b570 97bc 54d1 203e 0903 0dbf
000000d0: bbe6 83bd ec20 81bd 12d0 c7be 5d53 0ebf
000000e0: bc0a f2be 4766 8fbe 92c5 8cbe 06d6 dabe
000000f0: 9774 69be 5cb2 92be b094 83be fb58 a73e
00000100: 0f0e f93e e1eb 893e 859f 9e3e b95a d23e
00000110: 3950 023f 7941 9a3e e06d 0d3f 8ea5 9c3e
00000120: 9305 0abd 57d1 a3bd 9895 97bd 3124 07be
00000130: 71d4 643d 98e8 00be ce35 0e3e 21f7 09be
00000140: f62d 25be 4294 6cbe 1c81 12bf f463 f8be
00000150: 2ada 7e3e 3917 ed3d 3ee7 16be b42c aa3e
00000160: 9a56 b43e 183d 9a3c 8d1b 2dbe fc51 823d
00000170: 6bee c6bd 7dea e8be 6984 1abf a12d febe
00000180: 1a62 4cbf 5ec6 87bf 2b9f 4bbf 0b66 983e
00000190: 4f89 4c3d 679e 533e 32e7 453e b012 143f
000001a0: ac4a 673e dbd1 543e 7d48 133e c6c9 093e
000001b0: b6da 313f 8218 1bbf 874a 39be 8202 cc3e
000001c0: 903f 68bf 0d3d 7e3e 16a7 613e a2ca 20bf
000001d0: 55f7 fe3e 89b5 2b3f 11d3 04bf ac73 d8bc
000001e0: 187e 953e 830b 49bf 5767 af3e f660 743d
000001f0: a512 19bf c818 103f 49f4 c93e b1b8 afbe
00000200: c381 013e fb1f c43e 2a9a 03bf 6f6a ca3e
00000210: c132 7b3e a195 6fbe eeaa 603e 2930 063f
00000220: 708e 2d3e 68a6 17be a597 2f3f 7b4d da3e
00000230: 45af 76be 7b56 263f 7893 963e e15c 51be
00000240: e7e1 11be 242c ccbd 07aa f1be 4e2c 953e
00000250: 771e 7ebd 4a0c f8be db74 553e 5d49 ebbd
00000260: ce20 1abf 218e 5bbd 762c 45bb 884f 04bf
00000270: 9fd3 a13e b216 473a c3a6 1bbf 6858 a0bc
00000280: 830d 67be 771f 1fbf 78c1 6f3e 46dd 9f3d
00000290: ac56 c63d 196e d5bc fad8 babd 1979 c83d
000002a0: 1c90 88be a3f8 fc3d 2183 973d a4cd 25bf
000002b0: ceb3 65bf e084 19bf 1ebd 7abd a930 2e3e
000002c0: 6432 5a3e 2175 cf3d 33e1 3b3f 7c01 863f
000002d0: a077 37bc 1cc7 6ebe e43e c3be 9133 76bd
000002e0: 1454 643e 2fba 84bd a483 5abe e6e3 933e
000002f0: 7e13 523e 2da1 183e bf2b 08be eb2e 1dbe
00000300: 1a3f 06be 0986 183e 0a78 84be e980 46be
00000310: 3838 b33d 2e51 28bd d4cb 883e 620a 063f
00000320: 780e 873f 6d5c 1e3e cb83 563f bc36 e33f
00000330: bf10 963e dbbb 173f b3df 693f e3b6 d3be
00000340: 62d9 cfbe 6ab7 e1bd 1a6a 1bbf a1f7 993d
00000350: 8697 38bd 1672 9dbe 9b04 9bbd f687 9a3e
00000360: 400f a6be 2060 5cbe 563a 30bd 56dc b0be
00000370: ba0a d3bc 44e0 45be c95c 45bf 1c92 73be
00000380: e300 d7be 6767 283e f0b4 913e a866 b7bd
00000390: a346 953c 9b4b 973e 5772 a1be 1045 90bd
000003a0: 8989 6b3d 89b7 a6be 9246 483d ea7c b43e
000003b0: e249 3dbe c63e 4ebd dc87 473e 923b 33bf
000003c0: a420 fdbd 4691 3b3e b8e9 3bbf 550e 24bd
000003d0: 2b00 29bd 5301 b1bd 7ac6 ba3d fcf2 2f3e
000003e0: 746b c43c b553 19bd 9cb3 023e 614b c33c
000003f0: 52f8 11bf e377 75be 4767 a5be 4405 24bf

learning_to_down_sample.conv.bn.weight f4 [16]
1.3716164 0.9313417 0.940608 2.2851927 0.30365053 1.0722636 0.64002526 1.8724858
1.136253 1.3002447 0.76246685 1.2419188 0.52404004 1.7449292 0.94435555 2.081514
00000000: 2091 af3f 696c 6e3f b0cb 703f 9940 1240
00000010: 1578 9b3e ef3f 893f b2d8 233f 9dad ef3f
00000020: bd70 913f 6b6e a63f 0731 433f 32f7 9e3f
00000030: 7d27 063f d759 df3f 49c1 713f 8637 0540

learning_to_down_sample.conv.bn.bias f4 [16]
0.04392981 -0.26478216 -0.5818555 0.03600924 1.0986917 -0.32296008 0.6134145 0.06778845
0.5224904 0.33039463 0.5118915 0.39549822 0.79029924 -0.16666335 -0.4904308 0.017144993
00000000: bfef 333d 8791 87be 7bf4 14bf 6d7e 133d
00000010: eea1 8c3f 065b a5be bc08 1d3f acd4 8a3d
00000020: eec1 053f 7c29 a93e 520b 033f be7e ca3e
00000030: 0d51 4a3f cca9 2abe bf19 fbbe a873 8c3c

learning_to_down_sample.conv.bn.running_mean f4 [16]
-0.9259979 -0.42911822 0.5608584 -0.025690924 0.47725004 -1.652967 -0.13684829 0.98889524
-0.92719156 -1.3360054 -0.88588434 1.0188742 -0.02260959 -0.4407028 -1.1737219 -1.1562526
00000000: 330e 6dbf 62b5 dbbe 6b94 0f3f c675 d2bc
00000010: 1e5a f43e 6c94 d3bf f521 0cbe 3d28 7d3f
00000020: 6d5c 6dbf 3a02 abbf 51c9 62bf 786a 823f
00000030: bf37 b9bc cca3 e1be 853c 96bf 1600 94bf

learning_to_down_sample.conv.bn.running_var f4 [16]
5.5219665 1.0544395 1.458996 3.935343 0.3412669 2.0904503 0.44809327 10.710426
6.0600905 5.2613893 1.4058547 17.621058 5.5004263 2.5486898 13.503983 2.2062867
00000000: f3b3 b040 e0f7 863f 62c0 ba3f a9dc 7b40
00000010: 89ba ae3e f0c9 0540 7b6c e53e e85d 2b41
00000020: 43ec c140 4d5d a840 0cf3 b33f edf7 8c41
00000030: 7e03 b040 bc1d 2340 5010 5841 cd33 0d40

learning_to_down_sample.dsconv1.0.weight f4 [16, 1, 3, 3]
0.024072506 0.21867754 0.4610544 -0.055405732 -1.4467497 -0.64155495 -0.2471757 -0.60173994
0.095724195 -0.1207978 0.44385824 0.47924554 -0.66464674 -0.33291072 0.18079393 -0.36691839
-0.69852656 -0.23766005 -0.047200155 0.8574808 0.39267388 -0.07510844 0.3642938 0.9533279
-0.291009 0.23365733 -0.08278089 -0.52410257 -0.5423319 -0.7659014 0.09093685 0.03249662
0.26527548 0.14541705 0.9337106 1.0468094 -0.25879508 0.050118722 0.35031825 -0.38025275
0.76840454 -0.56556267 0.67916226 -0.3330761 -0.19004834 -0.5911903 -0.15637773 -0.24714065
-0.3091465 -0.12337967 -0.54207057 -0.37125406 0.09782377 0.100133866 0.017668251 -0.34463826
-0.2301133 -0.17844307 -0.4928804 -0.4293484 0.25277174 1.0134404 0.6484444 -0.71305084
-0.5395833 -0.21924092 -0.28327417 0.26833332 0.57238996 -0.013475002 0.7644143 1.0196093
0.38070023 0.10059012 -0.5732548 0.16919318 -0.28528568 -0.91044474 0.44743428 -0.23823927
-0.50895727 -0.012100958 0.7183556 0.56336105 -0.6216511 -0.20365222 0.3768637 -0.97439677
0.00016748483 0.23571347 0.17205606 -0.18144913 -0.11520041 -0.0008043274 -0.07193316 0.29322165
0.45081642 0.7779922 0.6075528 -0.07297032 0.6736756 0.49170005 -0.12287207 0.1479092
0.5962876 -0.70686287 -0.3661256 0.11979615 0.28197616 0.44779664 0.49605078 0.33725232
0.43340597 0.06880034 -0.13568373 -0.38415098 -0.6061333 -0.055009097 0.21913432 0.14657527
0.21765627 0.48435947 0.20090258 -0.1568453 0.5836623 0.75313133 0.28037563 0.4591185
1.2542657 0.042920686 0.4659851 1.070716 -0.0116071915 -0.48765343 0.116821274 0.010734724
-0.4294541 -0.41312385 -0.051168203 -0.6878418 -0.841396 0.39363444 0.018233435 -0.433277
00000000: b433 c53c 01ed 5f3e 530f ec3e 1ff1 62bd
00000010: 182f b9bf f23c 24bf a01b 7dbe a10b 1abf
00000020: 0c0b c43d d664 f7bd 6341 e33e ac5f f53e
00000030: 4a26 2abf 4673 aabe 0b22 393e badc bbbe
00000040: a3d2 32bf 285d 73be f354 41bd dd83 5b3f
00000050: 8d0c c93e 74d2 99bd b884 ba3e 4c0d 743f
00000060: 22ff 94be de43 6f3e 0789 a9bd 962b 06bf
00000070: 43d6 0abf 1d12 44bf 193d ba3d 2d1b 053d
00000080: 30d2 873e 35e8 143e a807 6f3f dafd 853f
00000090: ca80 84be 4a49 4d3d ea5c b33e 7db0 c2be
000000a0: 29b6 443f b7c8 10bf 94dd 2d3f f388 aabe
000000b0: 089c 42be 3f58 17bf 7c21 20be 7012 7dbe
000000c0: 7348 9ebe 7bae fcbd 23c5 0abf 0315 bebe
000000d0: d457 c83d fc12 cd3d 02bd 903c 6d74 b0be
000000e0: d2a2 6bbe c8b9 36be d25a fcbe 8ed3 dbbe
000000f0: 4c6b 813e 6ab8 813f 7400 263f 808a 36bf
00000100: 2222 0abf b180 60be 5009 91be fc62 893e
00000110: 2688 123f 41c6 5cbc a8b0 433f 8f82 823f
00000120: 24eb c23e 3102 ce3d d4c0 12bf fa40 2d3e
00000130: f710 92be e812 69bf 1b16 e53e fff4 73be
00000140: 064b 02bf 1943 46bc 27e6 373f 6e38 103f
00000150: 8724 1fbf 358a 50be 47f4 c03e 1172 79bf
00000160: de9e 2f39 df5e 713e 772f 303e cdcd 39be
00000170: 31ee ebbd 80d9 52ba b151 93bd 2621 963e
00000180: 69d1 e63e 7f2a 473f 9588 1b3f 7771 95bd
00000190: 0176 2c3f 1cc0 fb3e 5aa4 fbbd 8275 173e
000001a0: 4ea6 183f f7f4 34bf d174 bbbe af57 f53d
000001b0: 2e5f 903e 9a45 e53e 5efa fd3e 56ac ac3e
000001c0: 63e7 dd3e 31e7 8c3d adf0 0abe 70af c4be
000001d0: 8d2b 1bbf 3851 61bd bf64 603e d417 163e
000001e0: 49e1 5e3e f7fd f73e 68b9 4d3e 0e9c 20be
000001f0: e46a 153f 37cd 403f 658d 8f3e 9411 eb3e
00000200: c78b a03f 9acd 2f3d 9995 ee3e 390d 893f
00000210: 172c 3ebc b6ad f9be fe3f ef3d b2e0 2f3c
00000220: 68e1 dbbe f884 d3be c095 51bd 6616 30bf
00000230: ba65 57bf 748a c93e 495e 953c 7cd6 ddbe

learning_to_down_sample.dsconv1.1.weight f4 [16]
1.0401078 0.5238793 1.4668056 1.0422713 1.8990036 0.50299853 1.7690504 1.2803415
0.6481952 0.53657806 0.5947083 1.1260594 1.2019184 0.8151774 0.9547178 0.7592415
00000000: 4122 853f f41c 063f 49c0 bb3f 2569 853f
00000010: 8d12 f33f 83c4 003f 3e70 e23f 3be2 a33f
00000020: 1ff0 253f 2e5d 093f ce3e 183f b722 903f
00000030: 76d8 993f 77af 503f 6368 743f a75d 423f

learning_to_down_sample.dsconv1.1.bias f4 [16]
0.041638467 0.030942032 0.028920375 -0.01390046 0.025645278 0.013419729 -0.002619973 0.030880703
0.06308284 -0.036761347 0.013847647 -0.019041931 -0.02899494 0.049129713 0.023997622 -0.0034874836
00000000: 198d 2a3d 257a fd3c 6cea ec3c c1be 63bc
00000010: 0c16 d23c 6cde 5b3c dab3 2bbb 87f9 fc3c
00000020: 9331 813d 1193 16bd 3ee1 623c d3fd 9bbc
00000030: cc86 edbc 3d3c 493d a996 c43c 448e 64bb

learning_to_down_sample.dsconv1.1.running_mean f4 [16]
-1.1668707 -0.3317783 0.35182035 0.61064714 0.12882333 -0.46996042 0.16086695 0.637242
-0.9952951 0.053050958 1.144648 0.5449425 0.76026225 1.1396401 0.6200062 -1.6550654
00000000: 055c 95bf d8de a9be cc21 b43e 5f53 1c3f
00000010: 43ea 033e a79e f0be 4eba 243e 4b22 233f
00000020: a9cb 7ebf f64b 593d d383 923f 5a81 0b3f
00000030: 8ca0 423f badf 913f bab8 1e3f 2fd9 d3bf

learning_to_down_sample.dsconv1.1.running_var f4 [16]
4.41291 0.7499434 2.8030515 4.2624664 0.0490349 1.1219466 0.90695786 1.3406304
2.4110906 1.2721499 0.5296201 0.5285646 0.25148043 2.9490404 2.2320533 11.061826
00000000: 8f36 8d40 4afc 3f3f 3265 3340 2066 8840
00000010: d2d8 483d f29b 8f3f 642e 683f c799 ab3f
00000020: 4f4f 1a40 cfd5 a23f 2f95 073f 0250 073f
00000030: 0bc2 803e 14bd 3c40 f6d9 0e40 3dfd 3041

learning_to_down_sample.dsconv1.2.weight f4 [24, 16, 1, 1]
-0.27462453 0.30131382 -0.016574902 -0.47086743 -0.02026703 0.3665119 0.011122211 0.84219694
0.24429841 -0.67279994 0.52947277 0.23109475 -1.1536965 0.07078171 -0.4340531 0.00017379771
-0.6285632 0.0026182486 -0.52784944 0.3180565 -0.06675152 0.17917138 0.23163085 -0.3478064
-0.47163317 0.025199408 -0.48370877 0.12790701 0.28531176 0.08347083 0.6061398 -0.5215651
0.18182392 -0.21211411 -0.1853952 -0.6880365 0.015866846 -0.004145699 0.424132 0.8294285
-0.011702303 0.11335903 0.1608833 -0.66559726 -0.749745 0.16258581 0.043231737 0.64636856
0.42504144 -0.024549898 0.9318981 0.14725445 -0.016151765 0.11174047 -0.06957626 -0.1543017
-0.5431568 0.20391715 -0.3544584 -0.068260714 0.22503373 -0.3467249 -0.17666021 -0.011967254
0.5352826 0.46553987 0.24918759 -0.16351618 -0.07862416 -0.34520715 0.063132316 0.38764492
0.26819924 0.22760844 -0.11756645 0.8078151 0.8821787 1.0079494 -0.43804207 -0.7227632
0.6152342 0.0075364797 0.1598867 -0.91943717 -0.07603401 -0.5149173 0.089290306 0.6145938
0.23215519 0.32539335 0.14688508 0.24522436 0.27870917 1.217142 -0.4896487 -0.13589744
-0.43221262 -0.34998465 -0.20628361 -0.30785137 -0.11101976 0.13744678 -0.6458964 -0.16307953
-0.15964395 0.38556927 -0.11786679 -0.8047499 -0.124937125 0.23051538 0.54486585 0.21184337
-0.43544176 0.36551052 -0.116259 0.23676226 0.040989403 0.12037625 -0.008453215 -0.42033416
-0.39249882 1.0769819 -0.8643171 -0.50418675 1.1813039 -0.090759024 -0.14140053 0.11941473
-0.020585936 -0.18827587 -0.39243403 -0.6845209 -0.0012513932 0.37106478 -0.18670076 0.56917804
-0.8807752 0.47852507 -0.56692004 -0.6307398 -0.32161745 -0.08329919 0.6698815 0.3921002
-0.17456876 0.063975096 -1.3621465 -0.16686478 -0.01099507 0.04644971 0.16026196 0.051291946
0.17074959 -0.20674911 0.24287716 -0.5702027 -0.3545982 -0.17682455 0.4411297 1.0434868
-0.14154851 0.18593761 0.239409 -0.35883015 -0.0035012418 -0.46777582 0.04729111 -0.08374315
0.8907863 -0.1478641 0.39394948 0.8039099 1.2413343 0.9945812 -0.079898894 0.05602935
0.10578486 0.1854884 0.6801553 0.6841493 0.08152272 0.19477743 0.017338023 0.7860155
-0.24767263 -0.28230572 0.35499513 0.35978472 -0.12348013 -0.33748266 -0.9363729 -0.4910725
0.4950372 -0.9377058 0.26143882 0.506609 -0.020104159 -0.08150154 -1.1630092 0.06663046
-0.026545664 0.20164344 -0.02484691 0.19771267 0.6964851 -0.26014912 -0.722041 0.14791343
0.3004093 0.3119415 -0.2884151 0.18150924 1.3273586 0.49770686 -0.0012378952 -0.2700577
-0.3262628 0.018605351 -0.10082695 -0.21951891 -0.0012087121 0.41312987 -0.5182986 0.13047323
-0.5342912 0.57754725 0.31789884 0.6009731 -0.02056025 0.2403373 0.1991503 -0.4629565
0.123359926 -0.5403579 -0.038822237 0.8811836 0.48316 -0.059285436 -0.042977527 -0.81965375
-0.9744883 0.4036024 -0.06287096 0.8921106 -0.025418472 -0.52147853 0.049097143 -0.7860084
-0.6606414 0.16446018 0.016888246 0.093674794 -0.05519518 0.35943255 0.69435626 -0.13838254
00000000: 969b 8cbe ce45 9a3e 17c8 87bc 8915 f1be
00000010: 0b07 a6bc 73a7 bb3e ef39 363c 389a 573f
00000020: 5d29 7a3e 9e3c 2cbf 878b 073f 1aa4 6c3e
00000030: 54ac 93bf 00f6 903d 353c debe 783d 3639
00000040: 85e9 20bf ec96 2b3b 2421 07bf 4dd8 a23e
00000050: 05b5 88bd b478 373e a330 6d3e ae13 b2be
00000060: e779 f1be fd6e ce3c ada8 f7be 0efa 023e
00000070: 6214 923e c1f2 aa3d fa2b 1b3f 4a85 05bf
00000080: 0d30 3a3e 7134 59be 3dd8 3dbe 2923 30bf
00000090: 30fb 813c a5d8 87bb d427 d93e 6d55 543f
000000a0: 04bb 3fbc c728 e83d 97be 243e 9564 2abf
000000b0: 4aef 3fbf e57c 263e c313 313d 6978 253f
000000c0: 089f d93e de1c c9bc e090 6e3f dfc9 163e
000000d0: b550 84bc 30d8 e43d 007e 8ebd 4401 1ebe
000000e0: 530c 0bbf a8cf 503e 927b b5be 46cc 8bbd
000000f0: 3e6f 663e ed85 b1be 6ae6 34be 4d12 44bc
00000100: 4808 093f 3e5b ee3e 082b 7f3e c970 27be
00000110: b405 a1bd febe b0be 844b 813d 6579 c63e
00000120: 6951 893e 3012 693e aec6 f0bd f8cc 4e3f
00000130: 77d6 613f 7c04 813f 0d47 e0be 0207 39bf
00000140: fd7f 1d3f 93f4 f63b 57b9 233e 3c60 6bbf
00000150: b8b7 9bbd 9fd1 03bf d6dd b63d 0556 1d3f
00000160: 17ba 6d3e f599 a63e 0b69 163e 181c 7b3e
00000170: f8b2 8e3e 4fcb 9b3f 3cb3 fabe b328 0bbe
00000180: f94a ddbe 3031 b3be 033c 53be b29e 9dbe
00000190: 545e e3bd d9be 0c3e 7759 25bf 52fe 26be
000001a0: b479 23be 5669 c53e 2564 f1bd 1704 4ebf
000001b0: 09df ffbd 390c 6c3e 547c 0b3f 78ed 583e
000001c0: 39f2 debe 3224 bb3e 3319 eebd ce71 723e
000001d0: 81e4 273d d387 f63d 5a7f 0abc 0a36 d7be
000001e0: 9bf5 c8be 8bda 893f e343 5dbf 6212 01bf
000001f0: f734 973f dedf b9bd 4dcb 10be b68f f43d
00000200: d6a3 a8bc 64cb 40be 1ded c8be c33c 2fbf
00000210: ca05 a4ba 34fc bd3e 7c2e 3fbe a7b5 113f
00000220: 7c7a 61bf 3d01 f53e ac21 11bf 2a78 21bf
00000230: 0bab a4be c498 aabd 5b7d 2b3f 5bc1 c83e
00000240: 27c2 32be 6005 833d d15a aebf 9ade 2abe
00000250: ab24 34bc 0d42 3e3d b61b 243e 8117 523d
00000260: fbd8 2e3e 0ab6 53be cab4 783e cef8 11bf
00000270: e58d b5be 7f11 35be c1db e13e fa90 853f
00000280: 18f2 10be 6e66 3e3e a227 753e 96b8 b7be
00000290: 1775 65bb 5080 efbe 53b4 413d 8781 abbd
000002a0: 920a 643f b069 17be bfb3 c93e 0acd 4d3f
000002b0: 0be4 9e3f e09c 7e3f 08a2 a3bd 087f 653d
000002c0: bca5 d83d acf0 3d3e a81e 2e3f 6924 2f3f
000002d0: 62f5 a63d bc73 473e 7808 8e3c 5038 493f
000002e0: e59d 7dbe 608a 90be ecc1 b53e b435 b83e
000002f0: 27e3 fcbd 87ca acbe 22b6 6fbf db6d fbbe
00000300: 8475 fd3e 7d0d 70bf 4fdb 853e 21b1 013f
00000310: 7ab1 a4bc 48ea a6bd 7cdd 94bf 8d75 883d
00000320: 4b76 d9bc 9e7b 4e3e bf8b cbbc 3175 4a3e
00000330: d94c 323f 4432 85be aed7 38bf 9e76 173e
00000340: 3fcf 993e ccb6 9f3e 25ab 93be 8fdd 393e
00000350: e3e6 a93f 6fd3 fe3e df40 a2ba 0145 8abe
00000360: eb0b a7be 406a 983c 5c7e cebd 91c9 60be
00000370: a66d 9eba c285 d33e 38af 04bf c69a 053e
00000380: 4fc7 08bf 23da 133f a3c3 a23e 60d9 193f
00000390: f86d a8bc fb1a 763e 0eee 4b3e a208 edbe
000003a0: 21a4 fc3d e554 0abf 1104 1fbd 4095 613f
000003b0: bf60 f73e 49d5 72bd 3409 30bd d4d4 51bf
000003c0: 1178 79bf f9a4 ce3e 7dc2 80bd 5c61 643f
000003d0: 663a d0bc 9e7f 05bf 161a 493d d937 49bf
000003e0: cb1f 29bf 4068 283e 3859 8a3c 92d8 bf3d
000003f0: 5714 62bd 8b07 b83e 55c1 313f 27b4 0dbe

learning_to_down_sample.dsconv1.3.weight f4 [24]
1.9415848 1.848894 1.0812681 1.399676 0.57701313 0.7436043 2.1229382 1.5677971
0.46195495 0.35226122 0.5910951 1.4994982 1.1929238 1.1974887 1.0788268 1.77027
0.65907407 1.4657066 1.9552771 0.99199986 1.9372554 1.4084486 0.7469522 0.7737348
00000000: da85 f83f 8fa8 ec3f fe66 8a3f 9528 b33f
00000010: 22b7 133f da5c 3e3f 38de 0740 93ad c83f
00000020: 5c85 ec3e 955b b43e 0252 173f 8fef bf3f
00000030: bab1 983f 4f47 993f ff16 8a3f 3598 e23f
00000040: 14b9 283f 469c bb3f 8546 fa3f b4f3 7d3f
00000050: fcf7 f73f 0b48 b43f 4238 3f3f 7c13 463f

learning_to_down_sample.dsconv1.3.bias f4 [24]
0.17109828 -0.17727871 0.3879759 -0.0636878 0.8869908 0.7476172 -0.08614874 0.27616435
0.831246 0.7579349 0.7929507 0.17174082 0.19032595 -0.36225235 0.46030074 0.46678928
0.78866434 0.12936464 -0.04976037 0.35462052 -0.064503685 -0.0911536 -0.56068015 -0.5333756
00000000: 6334 2f3e 8d88 35be c7a4 c63e c06e 82bd
00000010: d411 633f d763 3f3f c06e b0bd 6a65 8d3e
00000020: 8acc 543f 0608 423f d1fe 4a3f d3dc 2f3e
00000030: cee4 423e 2479 b9be 8aac eb3e 01ff ee3e
00000040: e8e5 493f 2a78 043e 88d1 4bbd d290 b53e
00000050: 821a 84bd bdae babd bc88 0fbf 4e8b 08bf

learning_to_down_sample.dsconv1.3.running_mean f4 [24]
0.103934 -0.08403448 0.068539836 -0.0348279 0.058785077 0.09364417 -0.018117255 -0.13299137
-0.034482114 0.00024347656 0.06522152 0.008276096 -0.068414845 0.032632817 -0.020449204 -0.087227374
0.0712312 0.030534897 -0.06482671 0.08254294 -0.033158906 -0.033259194 0.018129243 -0.057942227
00000000: 59db d43d 451a acbd 9d5e 8c3d b3a7 0ebd
00000010: 9fc8 703d 84c8 bf3d a36a 94bc e42e 08be
00000020: 1e3d 0dbd be4d 7f39 dc92 853d 7698 073c
00000030: 151d 8cbd fda9 053d 1785 a7bc 44a4 b2bd
00000040: aae1 913d 5224 fa3c dec3 84bd 460c a93d
00000050: a2d1 07bd cb3a 08bd c783 943c d454 6dbd

learning_to_down_sample.dsconv1.3.running_var f4 [24]
3.2032928 4.4916997 4.362062 2.940468 8.590565 7.5932198 4.0317483 2.9741054
3.948967 6.6588693 8.494965 4.3649654 9.64799 7.442055 4.2621555 10.563458
7.3883295 4.8968415 7.231202 6.57102 11.581285 17.265926 3.362503 5.6655893
00000000: c002 4d40 01bc 8f40 0396 8b40 a130 3c40
00000010: f472 0941 a8fb f240 1504 8140 be57 3e40
00000020: e0bb 7c40 7515 d540 60eb 0741 ccad 8b40
00000030: 2b5e 1a41 5125 ee40 9463 8840 ed03 2941
00000040: 326d ec40 edb2 9c40 0266 e740 cc45 d240
00000050: f24c 3941 9e20 8a41 4033 5740 824c b540

learning_to_down_sample.dsconv2.0.weight f4 [24, 1, 3, 3]
-0.40573776 -0.38504958 0.22264023 -0.56485957 -0.5975871 0.33026105 0.0530483 0.37226304
1.0619011 -0.15608972 -0.29137266 0.090760335 -0.24104016 -0.30788794 0.23915847 0.34981352
-0.09647733 -0.8409414 0.02481249 0.55576926 0.5425199 -0.2248957 -0.7773556 -0.16905272
-0.14848468 -0.6388855 -0.4750824 -0.6085541 -0.7247534 -1.0168809 0.16664359 -0.26683116
-0.45217714 0.3786564 0.23123728 0.26372373 0.6002666 1.0126903 0.39471963 0.25868124
0.07780142 -0.30798703 -0.23714884 -0.3463663 -0.65843 0.38174087 0.32844442 0.16758169
0.025442848 -0.5011592 -0.22183876 -0.38041067 -1.3888073 -0.4721141 0.12406754 0.09923528
0.25050575 -0.40315992 -0.961132 -0.28300884 -0.43050784 -0.092965126 -0.2712516 0.24621685
0.5724251 -0.09281398 0.27595812 0.18020321 -0.96643627 0.17360891 0.31718782 -0.44115406
-0.1264258 0.2883565 0.47633126 -0.3165384 0.23280866 1.117039 0.012063583 -0.79132354
-0.7476029 -0.30312598 0.7573466 0.50893694 -0.566185 0.4380064 1.0418087 -0.17339545
-0.3090079 0.19237451 -0.1991054 0.33106744 0.67004687 -0.646053 -0.05025685 0.8027406
-0.78545487 -0.41005364 0.4699361 0.009518081 -0.4426784 -0.36577982 0.4456303 -0.3331636
-0.6349773 0.7558618 0.27733853 -0.23374061 0.057192326 0.27961093 0.0336761 -0.12608512
-0.9773989 -0.5682442 0.13613817 0.7846032 0.70290667 0.426654 0.39573467 0.1339734
0.5760289 0.74259496 0.54190046 0.282939 0.46121874 0.39195114 0.20557141 -0.50941044
-0.867368 0.13536261 0.4772896 -0.3212919 0.18088602 0.9884735 0.42624438 -0.6222943
-0.19389166 0.68008757 -0.5931307 0.12524058 0.74008405 -0.35407946 0.45330125 0.68442965
0.069812715 -0.21768107 -0.7868249 0.38402858 0.15774377 -1.0045278 0.19347459 0.21866393
-0.36872572 0.27228248 0.017415574 0.16696 0.28179044 -1.0455778 -0.5276441 0.12414355
-0.9260952 -0.25065774 0.13910893 0.59771115 0.5006269 0.05860266 0.86320925 0.88690495
-0.063017815 0.21033755 0.5631096 0.27138337 0.24660148 0.30371773 -0.08303618 -0.581458
-0.13234985 -0.38780275 -0.9191251 -0.5787598 0.18154019 0.6730237 0.55975664 0.058629602
0.6226128 0.47388312 -0.12122178 0.2771156 0.26452133 -0.21650247 -0.35648054 -0.10864764
-0.5559883 -0.8853659 -0.5258469 -0.3421188 -0.62755156 -0.45078766 -0.4994615 -0.37282875
0.07242069 -0.0075733904 0.8227049 0.24576853 0.057261474 0.5818939 0.08373358 0.20165966
0.5030928 0.3115922 0.57365507 0.72636974 0.3274676 0.3659172 0.31589252 -0.11121123
00000000: dcbc cfbe 3825 c5be cdfb 633e a39a 10bf
00000010: 78fb 18bf fa17 a93e 2d49 593d 4399 be3e
00000020: 60ec 873f fcd5 1fbe cc2e 95be 8ee0 b93d
00000030: 3bd3 76be 7da3 9dbe f5e5 743e c21a b33e
00000040: e895 c5bd f047 57bf 9043 cb3c e546 0e3f
00000050: 96e2 0a3f 0f4b 66be c700 47bf 281c 2dbe
00000060: 5e0c 18be 008e 23bf 003e f3be 34ca 1bbf
00000070: 7089 39bf 2729 82bf 9ea4 2a3e 189e 88be
00000080: c383 e7be 40df c13e 77c9 6c3e cc06 873e
00000090: 12ab 193f d69f 813f b118 ca3e de71 843e
000000a0: 5a56 9f3d 7ab0 9dbe 25d7 72be ec56 b1be
000000b0: de8e 28bf 8a73 c33e de29 a83e 899a 2b3e
000000c0: 856d d03c f84b 00bf b329 63be 30c5 c2be
000000d0: 70c4 b1bf f0b8 f1be 1f17 fe3d de3b cb3d
000000e0: 4a42 803e fa6a cebe bf0c 76bf 89e6 90be
000000f0: 866b dcbe 8064 bebd 7de1 8abe 4520 7c3e
00000100: 748a 123f 4215 bebd 624a 8d3e 3187 383e
00000110: 5e68 77bf 89c6 313e 7166 a23e f2de e1be
00000120: c475 01be 77a3 933e b1e1 f33e 5211 a2be
00000130: 6565 6e3e 22fb 8e3f 56a6 453c 2e94 4abf
00000140: e762 3fbf 5433 9bbe 77e1 413f b149 023f
00000150: 80f1 10bf 6042 e03e fd59 853f 948e 31be
00000160: 4936 9ebe d3fd 443e 49e2 4bbe ac81 a93e
00000170: 3188 2b3f bb63 25bf 20da 4dbd 6880 4d3f
00000180: 9213 49bf 8df2 d1be 779b f03e baf1 1b3c
00000190: bea6 e2be 7e47 bbbe a829 e43e 6b94 aabe
000001a0: df8d 22bf 2980 413f 51ff 8d3e b359 6fbe
000001b0: 8042 6a3d 2a29 8f3e f3ef 093d 751c 01be
000001c0: d036 7abf 7478 11bf ce67 0b3e c1db 483f
000001d0: b1f1 333f 6572 da3e bc9d ca3e 5330 093e
000001e0: a176 133f b41a 3e3f fdb9 0a3f 61dd 903e
000001f0: dd24 ec3e d2ad c83e 5081 523e b968 02bf
00000200: d40b 5ebf 7f9c 0a3e 4d5f f43e 5f80 a4be
00000210: 2f3a 393e 990c 7d3f b43c da3e ae4e 1fbf
00000220: 898b 46be 381a 2e3f 6ad7 17bf 113f 003e
00000230: 2676 3d3f e749 b5be 1a17 e83e c836 2f3f
00000240: f8f9 8e3d c9e7 5ebe 5b6d 49bf 659f c43e
00000250: 9587 213e 5e94 80bf 341e 463e 70e9 5f3e
00000260: 9ec9 bcbe 9c68 8b3e 1bab 8e3c 90f7 2a3e
00000270: d646 903e 7ed5 85bf af13 07bf f93e fe3d
00000280: 9314 6dbf 3656 80be 9272 0e3e 9903 193f
00000290: 1629 003f 5809 703d 48fb 5c3f 340c 633f
000002a0: 7c0f 81bd ba62 573e f327 103f c3f2 8a3e
000002b0: 1985 7c3e e480 9b3e df0e aabd 6eda 14bf
000002c0: b886 07be 158e c6be c84b 6bbf 9a29 14bf
000002d0: ace5 393e 484b 2c3f 364c 0f3f 9825 703d
000002e0: 8d63 1f3f cfa0 f23e 2043 f8bd 19e2 8d3e
000002f0: 576f 873e d3b2 5dbe 9e84 b6be a782 debd
00000300: 4055 0ebf 57a7 62bf e79d 06bf 322a afbe
00000310: 38a7 20bf a4cd e6be 6bb9 ffbe 69e3 bebe
00000320: 4c51 943d 342a f8bb ca9c 523f bfaa 7b3e
00000330: 028b 6a3d 00f7 143f 837c ab3d df7f 4e3e
00000340: b1ca 003f 0389 9f3e 0fdb 123f 5ef3 393f
00000350: d5a9 a73e 8059 bb3e aabc a13e b7c2 e3bd

learning_to_down_sample.dsconv2.1.weight f4 [24]
1.6823983 0.51281536 1.7534374 1.0616181 1.6691049 1.3265985 0.59217536 1.3345388
1.3829683 0.6893643 1.3415271 0.87766933 1.3938284 1.1535277 1.2163825 1.6284552
0.9352908 0.94511217 1.0486585 0.78262174 0.93794566 1.1504123 0.2796195 1.1633108
00000000: d458 d73f de47 033f a370 e03f 1ae3 873f
00000010: 3ba5 d53f fbcd a93f ce98 173f 2bd2 aa3f
00000020: 1b05 b13f 2e7a 303f 29b7 ab3f f0ae 603f
00000030: f868 b23f cca6 933f 6cb2 9b3f 3871 d03f
00000040: 386f 6f3f dff2 713f 713a 863f e659 483f
00000050: 351d 703f b640 933f 492a 8f3e 5ee7 943f

learning_to_down_sample.dsconv2.1.bias f4 [24]
0.013547973 0.014950025 -0.0049663484 -0.00543243 0.020106643 -0.00020108793 0.0028903927 -0.0019779322
-0.003106726 -0.01667148 -0.0059806737 -0.02138696 0.0056513967 0.0024443376 0.0038330746 -0.0014942321
-0.003900347 -0.0038963219 0.010162219 0.009925963 -0.0042637507 -0.0067191855 0.005045072 0.016645769
00000000: 51f8 5d3c f3f0 743c c0bc a2bb 8702 b2bb
00000010: b0b6 a43c 21db 52b9 be6c 3d3b 32a0 01bb
00000020: 379a 4bbb a192 88bc 87f9 c3bb b533 afbc
00000030: 5a2f b93b 2e31 203b 5234 7b3b 1cda c3ba
00000040: f79c 7fbb 6f59 7fbb 707f 263c 82a0 223c
00000050: efb6 8bbb 9d2c dcbb 2251 a53b b55c 883c

learning_to_down_sample.dsconv2.1.running_mean f4 [24]
0.011488867 -0.7201983 -0.77889293 -0.60154605 0.68455875 -1.7089176 -1.4625642 0.1619244
0.12223404 1.248529 0.15895917 -0.29023343 0.14526303 0.65338415 0.46034145 0.78260624
-1.1456393 -0.7611787 1.7903628 -1.0117007 1.3638642 -1.1902734 0.09801589 0.43488622
00000000: cd3b 3c3c ea5e 38bf 8765 47bf ecfe 19bf
00000010: 3e3f 2f3f d0bd dabf 4e35 bbbf 83cf 253e
00000020: d755 fa3d cccf 9f3f 31c6 223e 7a99 94be
00000030: d5bf 143e 2f44 273f e0b1 eb3e e258 483f
00000040: 4fa4 92bf 9bdc 42bf 9c2a e53f 697f 81bf
00000050: 1a93 ae3f e15a 98bf 8ebc c83d 68a9 de3e

learning_to_down_sample.dsconv2.1.running_var f4 [24]
5.6585736 1.8911532 2.2553082 6.300598 0.581991 1.7131722 5.973821 1.831784
0.58289593 0.15344597 0.46154225 1.2510726 1.2033339 1.9790514 2.2617443 8.232294
0.8288499 6.421622 7.3622665 1.848107 3.076575 4.404234 0.14887157 0.87638205
00000000: 0913 b540 4f11 f23f f856 1040 809e c940
00000010: 5dfd 143f 3a49 db3f 8b29 bf40 e677 ea3f
00000020: ab38 153f f120 1d3e 444f ec3e 2623 a03f
00000030: d806 9a3f 8e51 fd3f 6bc0 1040 7ab7 0341
00000040: 822f 543f ed7d cd40 b097 eb40 c58e ec3f
00000050: 9be6 4440 7cef 8c40 ca71 183e 935a 603f

learning_to_down_sample.dsconv2.2.weight f4 [32, 24, 1, 1]
0.427955 -0.1924504 0.21158911 0.3346832 -0.51826096 0.31835762 0.11707542 1.0384434
0.053705968 -0.1003717 0.38891172 -0.66551733 0.0010382115 -0.15659373 -0.19160089 0.30386084
-1.0819232 0.2530083 0.018453911 -0.27957016 0.13361543 0.41434065 -0.067540556 -0.6703395
0.019195218 0.3207413 0.09929739 -0.15027505 0.5114222 -0.3063262 0.22066589 -0.25624445
-0.19291879 0.43709964 -1.3615508 0.30791968 0.11957022 -0.29789364 -0.12603007 0.4406869
1.4275446 -0.47785163 -0.003906208 -0.24150838 0.1398282 0.03601793 -0.049848583 -0.35247496
-0.15893158 -0.09400586 -0.22762384 0.75206256 0.049860027 -0.89980614 0.007627361 -0.069557965
-0.427898 0.6937408 -0.5653199 0.9079581 -0.20782404 0.33206296 -0.047011353 0.07418719
0.34544715 0.24935588 -0.2002072 -0.016387584 -0.659165 -0.41599587 -0.123538114 -0.5563171
0.09769395 0.4195924 -0.17903878 0.4220404 0.48082724 0.45990413 -0.021898666 0.48590276
-0.31319335 -0.7018832 -0.45215496 -0.06822357 -0.06320233 0.8835108 -0.42207462 -0.016309187
-0.0045564948 -0.10812051 0.7125372 0.24351545 0.61600024 -0.80751216 -0.4657483 -0.6992268
-1.1970936 0.12835105 0.052233048 -0.3349134 -0.29445893 -0.18930924 -0.2897591 0.21130899
-0.1887562 0.09753593 0.71414304 0.560479 -0.27390546 -0.17900524 -0.004395349 -0.8376377
0.3444461 0.044781268 -0.88781595 -0.30299202 -1.2938446 0.32235983 0.23849145 -0.06330325
0.3106099 0.27811646 0.16263029 -0.6016714 -0.13084571 -0.3592974 0.112789705 -0.1171828
0.17213854 -1.2316326 -0.30445543 -1.2792143 -0.06583198 -0.043733556 -0.46339378 0.05297658
-0.110554434 0.039459493 0.14105663 -0.19456886 -0.08092934 0.20543942 0.28463632 0.055331532
-0.2124638 -0.4576007 -1.038796 -0.25046483 0.20676588 -0.020662088 -0.25642926 -0.1181406
0.098031975 -0.08387717 0.11739255 0.10888013 1.1641914 -0.6721117 -0.45095098 0.36828166
-0.07218857 0.40762344 0.082418844 0.46622846 0.3100637 0.72025305 -0.4198952 -0.16356397
-0.18372585 0.16770019 0.88733536 0.78316 0.19633572 0.2445556 -0.089920565 0.093172364
-0.3619767 -0.1945559 0.41339186 -0.11080089 -1.5427194 -0.17429863 0.63802624 -0.07244465
-0.05946178 0.1520256 0.42010465 0.2802434 0.29091206 0.17254204 0.013830641 0.08979756
-0.015778847 -0.021629915 0.15296857 0.06751363 0.24923837 -0.00091748964 -0.8331293 0.49953863
-0.5804924 0.7008367 -1.0455498 0.2736886 -0.21596906 0.20303553 0.3921419 -0.46103007
0.08786584 -0.19227126 -0.047259808 -0.17221141 -0.023710495 -0.32135722 0.12110317 0.42364937
1.1275421 0.36487785 0.33730152 0.5575462 0.42703718 0.19355705 0.015309416 -0.88268644
-0.7295 -0.19231239 -0.20464236 0.48987433 -0.41831636 -0.5101252 -0.015410993 0.33033442
0.42893374 -0.08650913 0.16152671 0.29474846 0.08988446 0.74167114 0.025968788 -0.09809398
-0.16580822 0.3384928 0.35973868 -0.05629304 0.2287239 0.2588239 0.06681159 0.638475
-0.024507642 0.13194202 -0.13493554 0.14026222 0.25158235 0.040549368 0.38169122 -0.078556806
00000000: eb1c db3e b811 45be d1aa 583e 995b ab3e
00000010: c0ac 04bf c5ff a23e 3dc5 ef3d b7eb 843f
00000020: cafa 5b3d ae8f cdbd 701f c73e 585f 2abf
00000030: 9914 883a 1b5a 20be 0633 44be a693 9b3e
00000040: 767c 8abf 4e8a 813e a82c 973c d223 8fbe
00000050: 7cd2 083e 7524 d43e b452 8abd 5f9b 2bbf
00000060: 4a3f 9d3c 3438 a43e 6e5c cb3d b4e1 19be
00000070: 91ec 023f cad6 9cbe 3df6 613e 7932 83be
00000080: 818c 45be 86cb df3e 4c47 aebf a6a7 9d3e
00000090: 3be1 f43d 8485 98be 070e 01be b7a1 e13e
000000a0: c8b9 b63f f8a8 f4be 4cff 7fbb f94d 77be
000000b0: 202f 0f3e 8987 133d 072e 4cbd 9977 b4be
000000c0: f6be 22be 2586 c0bd 3916 69be 2c87 403f
000000d0: 073a 4c3d b259 66bf f1ee f93b 6874 8ebd
000000e0: 7215 dbbe ff98 313f ceb8 10bf f16f 683f
000000f0: d3cf 54be 2804 aa3e fa8e 40bd 74ef 973d
00000100: 73de b03e 2657 7f3e 1e03 4dbe 413f 86bc
00000110: 0abf 28bf 69fd d4be 8d01 fdbd cc6a 0ebf
00000120: c413 c83d d1d4 d63e f155 37be ae15 d83e
00000130: fd2e f63e 8e78 eb3e d564 b3bc 3fc8 f83e
00000140: e15a a0be 9eae 33bf db80 e7be cdb8 8bbd
00000150: 3970 81bd c42d 623f 2a1a d8be d89a 85bc
00000160: a64e 95bb 496e ddbd d768 363f 1d5c 793e
00000170: 31b2 1d3f 1eb9 4ebf 9076 eebe 8700 33bf
00000180: 5d3a 99bf 756e 033e 52f2 553d c579 abbe
00000190: 52c3 96be 48da 41be 4e5b 94be 6261 583e
000001a0: 4e49 41be ebc0 c73d 14d2 363f 8d7b 0f3f
000001b0: 563d 8cbe 264d 37be dc06 90bb 6d6f 56bf
000001c0: 3d5b b03e 906c 373d e847 63bf c521 9bbe
000001d0: b39c a5bf 590c a53e 1a37 743e 22a5 81bd
000001e0: 4308 9f3e 4865 8e3e 8e88 263e 2307 1abf
000001f0: 6bfc 05be d4f5 b7be 4afe e63d 89fd efbd
00000200: 1645 303e 23a6 9dbf 95e1 9bbe 4bbd a3bf
00000210: ebd2 86bd f521 33bd f341 edbe f8fd 583d
00000220: 5d6a e2bd 47a0 213d 2671 103e 0f3d 47be
00000230: 48be a5bd b65e 523e dabb 913e 51a3 623d
00000240: 1c90 59be a44a eabe 44f7 84bf ed3c 80be
00000250: 6fba 533e 8a43 a9bc b24a 83be b3f3 f1bd
00000260: fdc4 c83d cbc7 abbd 816b f03d 8cfc de3d
00000270: 3904 953f 830f 2cbf 0ce3 e6be 6a8f bc3e
00000280: 9ad7 93bd 05b4 d03e 36cb a83d 7fb5 ee3e
00000290: abc0 9e3e 8162 383f 81fc d6be 507d 27be
000002a0: a122 3cbe 99b9 2b3e 6928 633f 2c7d 483f
000002b0: 3b0c 493e c96c 7a3e 4628 b8bd 27d1 be3d
000002c0: 0355 b9be a939 47be 19a8 d33e 94eb e2bd
000002d0: d477 c5bf 577b 32be b055 233f dc5d 94bd
000002e0: 328e 73bd 99ac 1b3e f517 d73e 107c 8f3e
000002f0: 6df2 943e dcae 303e ea99 623c c8e7 b73d
00000300: a442 81bc 3831 b1bc cba3 1c3e 9644 8a3d
00000310: 5838 7f3e b083 70ba f647 55bf 87c3 ff3e
00000320: 269b 14bf 096a 333f 93d4 85bf ea20 8c3e
00000330: fe26 5dbe 8ce8 4f3e d3c6 c83e 220c ecbe
00000340: 01f3 b33d c2e2 44be 8093 41bd 3058 30be
00000350: 833c c2bc ef88 a4be f004 f83d 92e8 d83e
00000360: 4d53 903f 45d1 ba3e c9b2 ac3e 59bb 0e3f
00000370: 9ea4 da3e d233 463e 58d4 7a3c bdf7 61bf
00000380: 83c0 3abf 8aed 44be c48d 51be cfd0 fa3e
00000390: 902d d6be 9197 02bf 647e 7cbc 9821 a93e
000003a0: 349d db3e b32b b1bd 4267 253e 45e9 963e
000003b0: 5815 b83d 29de 3d3f 7fbc d43c 7fe5 c8bd
000003c0: a1c9 29be ee4e ad3e ab2f b83e 8893 66bd
000003d0: 9936 6a3e 9184 843e 84d4 883d 1973 233f
000003e0: 40c4 c8bc cf1b 073e 8b2c 0abe e6a0 0f3e
000003f0: 67cf 803e 1817 263d 086d c33e 64e2 a0bd

learning_to_down_sample.dsconv2.3.weight f4 [32]
1.3566372 1.7773473 1.3624165 1.5615525 1.7756368 0.9892843 1.5631502 1.8625697
1.0046947 1.4566396 1.7573704 1.9506031 1.8792037 1.6573763 1.7241966 1.368152
1.2988787 1.7249992 1.5186417 1.5308708 1.1823984 1.0507101 1.4163018 1.3207525
1.787738 1.0109783 1.6762788 1.7013417 1.3390019 1.3796784 1.79695 1.8668839
00000000: 4aa6 ad3f 1e80 e33f aa63 ae3f f4e0 c73f
00000010: 1148 e33f bc41 7d3f 4e15 c83f af68 ee3f
00000020: d699 803f 2b73 ba3f 83f1 e03f 5dad f93f
00000030: bf89 f03f e824 d43f 79b2 dc3f 9b1f af3f
00000040: a841 a63f c6cc dc3f da62 c23f 93f3 c33f
00000050: d558 973f ab7d 863f 6149 b53f 6b0e a93f
00000060: 99d4 e43f bd67 813f 4e90 d63f 91c5 d93f
00000070: 6a64 ab3f 4d99 b03f 7502 e63f 0df6 ee3f

learning_to_down_sample.dsconv2.3.bias f4 [32]
-0.28756824 -0.020690082 0.27050722 0.735843 -0.21208978 0.007170357 -0.26990375 -0.027859975
0.23691723 -0.14472155 0.004032859 0.009196306 0.07542256 0.20353705 0.3672038 -0.18717313
0.18145154 -0.15743467 0.36377236 0.25694776 0.8052528 -0.47342345 0.19405787 0.22166374
-0.38397875 0.6235416 -0.33145642 -0.064419486 -0.0683349 0.061231803 -0.082215674 -0.036453556
00000000: 253c 93be 3f7e a9bc ec7f 8a3e 3560 3c3f
00000010: 102e 59be 50f5 ea3b d330 8abe 9a3a e4bc
00000020: 6e9a 723e e331 14be 1326 843b 1aac 163c
00000030: 2577 9a3d 046c 503e 2302 bc3e 50aa 3fbe
00000040: 6fce 393e 8e36 21be 5f40 ba3e a88e 833e
00000050: 0c25 4e3f 8f64 f2be 1bb7 463e d2fb 623e
00000060: dd98 c4be 6ca0 1f3f a8b4 a9be 5dee 83bd
00000070: 2bf3 8bbd 33ce 7a3d b160 a8bd 5350 15bd

learning_to_down_sample.dsconv2.3.running_mean f4 [32]
-0.014518948 -0.002568417 -0.04091315 0.03070678 -0.047996435 0.056761548 -0.005656414 -0.0016511069
8.0871956e-05 0.014794202 -0.007755422 -0.015758729 -0.03308682 -0.01750351 -0.034322087 0.028961362
0.017063979 -0.008429477 -0.015514469 0.01919128 0.0112295 0.033931885 0.010489299 -0.0108302925
-0.004239652 0.042505324 0.0069270954 0.013932631 0.009857069 0.008097158 0.026673837 -0.012939418
00000000: e2e0 6dbc e352 28bb 8c94 27bd c98c fb3c
00000010: e997 44bd cc7e 683d 7159 b9bb f469 d8ba
00000020: cd99 a938 6163 723c 3221 febb 7318 81bc
00000030: 0c86 07bd 8563 8fbc 5195 0cbd 6140 ed3c
00000040: c2c9 8b3c ca1b 0abc 6630 7ebc 0837 9d3c
00000050: f0fb 373c 29fc 0a3d 4fdb 2b3c 8a71 31bc
00000060: c7ec 8abb 101a 2e3d b0fc e23b b145 643c
00000070: 8b7f 213c f1a9 043c 1783 da3c daff 53bc

learning_to_down_sample.dsconv2.3.running_var f4 [32]
6.607982 12.187307 8.625083 6.645928 13.551226 6.108537 10.720383 14.667774
3.2150934 10.520408 12.187612 12.209627 10.701681 13.552201 15.62114 8.203266
15.231103 13.519356 10.286999 9.09101 8.011916 9.662164 7.818188 11.603097
13.117505 8.180771 12.29244 8.853475 6.089165 9.6848955 9.092032 10.561312
00000000: 9774 d340 36ff 4241 5700 0a41 71ab d440
00000010: d2d1 5841 2379 c340 b086 2b41 34af 6a41
00000020: 17c4 4d40 9753 2841 7500 4341 a25a 4341
00000030: 163a 2b41 d1d5 5841 30f0 7941 9440 0341
00000040: 99b2 7341 484f 5841 8c97 2441 c774 1141
00000050: cf30 0041 3998 1a41 992e fa40 49a6 3941
00000060: 4de1 5141 70e4 0241 d6ad 4441 d5a7 0d41
00000070: 71da c240 55f5 1a41 f778 1141 22fb 2841

global_feature_extractor.first_block.0.conv.0.weight f4 [64, 32, 1, 1]
-0.18900125 -0.6868733 -0.025229286 0.49524862 -0.22291817 0.18760587 -0.404456 0.11014335
0.20467013 -0.6583889 -0.2322519 -0.4156325 -0.08263825 -0.23110361 0.033510603 0.036154848
-0.09752643 0.00989096 0.030340005 0.31056863 0.19792388 0.108302586 0.883338 -0.12515968
-0.6867964 0.17232408 -0.31143633 0.24456127 -0.21485327 -0.13868584 0.02901588 -0.598991
0.75479186 -0.22747236 -0.86226135 -0.42090955 0.2513352 0.41822052 0.05174158 0.79112786
-0.09328931 -0.06649621 0.12691788 -0.29580888 0.028104292 -0.17811394 0.35416186 0.057146277
-0.5096932 0.35937974 0.10544762 0.40879774 0.22386685 -0.4316395 0.37506974 -0.6409409
0.43452182 0.18266794 -0.37554437 0.36290914 -0.23093109 -0.05844679 -0.3483382 0.012965809
0.45587277 0.4733018 0.12099806 0.16754492 -0.1548905 -0.72714335 0.44796675 -0.299877
0.19068025 0.4046994 -0.3484634 0.10557626 0.07680947 1.06636 -0.4122996 -0.04455654
0.8449804 -0.15820241 0.21059914 0.07719978 -0.094771214 0.1383335 -0.39651176 0.21571657
0.48356292 -0.5951173 0.34810296 0.56056064 -0.4941928 0.24085511 0.8660764 0.4230029
0.1063905 -0.09952397 0.0069098123 -0.03749323 0.47216573 -0.018325802 0.8418002 -0.3830261
0.15256135 -0.3915116 0.05495407 0.12682676 0.11441346 0.16262712 -0.2146739 -0.24656563
-0.49987793 -0.5920605 0.11982976 0.073664755 -0.3804009 0.00845946 -0.17158554 -0.019748377
-0.14801867 -0.1920546 0.4493253 0.121319816 -0.103677854 -0.24952292 0.20128405 -0.18806596
-0.21297611 0.5470243 0.2807813 -0.24040458 0.7583049 -0.26594085 -0.25767314 0.20059988
0.19799556 0.5359413 -0.18308125 0.8323252 1.1204652 0.95893645 0.2221287 0.18070659
0.46543273 0.2863472 0.55279905 -0.09097374 0.01325974 0.21504503 -0.032548677 0.17015767
0.41486043 -0.028202739 -0.015334373 0.21695225 0.068430915 0.3593682 0.605587 -0.20374624
-0.17452472 -0.10200803 -0.1163469 -0.04959034 -0.15304855 0.14657684 -0.1541387 0.33055076
-0.10608983 0.07075484 0.050034434 0.02231652 -0.16675 -0.15465684 -0.058869354 0.13337727
-0.23361416 -0.09098641 -0.13093564 0.4124866 -0.07676699 -0.2328546 0.054739475 -0.1640099
-0.082712345 0.10517994 0.016030049 -0.08585938 0.3170353 0.24174081 0.001439629 -0.16440156
-0.24140102 0.11560609 -0.013840794 0.14528164 0.10260295 -0.031261533 -0.35785654 -0.57549447
0.16291323 -0.5611098 -0.38357103 -0.52511656 -0.48764533 -0.16240081 -0.07793633 -0.15716897
-0.15872668 -0.67885333 -0.3198789 -0.08605555 0.37093 -0.20432605 0.46578994 -0.33191067
-0.2824587 0.10007431 -0.3073067 -0.029902166 -0.24500914 -0.25052905 -0.20865454 -0.5569554
0.051393382 0.16913825 -0.29868746 0.08625107 -0.024874395 -0.38431725 0.08242574 0.40078214
0.18706697 0.06279811 -0.1302909 0.044806696 -0.11554769 0.37599203 -0.20736095 -0.14271279
0.7438715 -0.22625852 -0.06254986 0.46450156 0.16126676 0.62063205 0.19781262 0.055290654
-0.08890841 -0.31002003 0.94498026 0.586354 0.0071916617 0.5514121 0.7028004 -0.30740905
00000000: 8b89 41be eed6 2fbf a6ad cebc 3a91 fd3e
00000010: a944 64be c11b 403e db14 cfbe d692 e13d
00000020: 0c95 513e 2d8c 28bf 71d3 6dbe c8cd d4be
00000030: 3e3e a9bd 6da6 6cbe 6a42 093d 1b17 143d
00000040: f0bb c7bd b10d 223c 9a8b f83c da02 9f3e
00000050: 8fac 4a3e bfcd dd3d 7022 623f dc29 00be
00000060: e4d1 2fbf b975 303e 9574 9fbe 456e 7a3e
00000070: 7f02 5cbe a903 0ebe b6b2 ed3c 7957 19bf
00000080: 0a3a 413f 84ee 68be 29bd 5cbf 7581 d7be
00000090: 02af 803e 0021 d63e fbee 533d 5b87 4a3f
000000a0: 770e bfbd 2a2f 88bd c3f6 013e 4374 97be
000000b0: f93a e63c 8063 36be b454 b53e 3712 6a3d
000000c0: 417b 02bf 9f00 b83e ecf4 d73d f04d d13e
000000d0: 5a3d 653e daff dcbe 2409 c03e b414 24bf
000000e0: a579 de3e 4e0d 3b3e 5a47 c0be 3acf b93e
000000f0: 3379 6cbe e765 6fbd 6259 b2be 8b6e 543c
00000100: 2868 e93e 9d54 f23e d5cd f73d e590 2b3e
00000110: 9d9b 1ebe 1126 3abf e65b e53e 7a89 99be
00000120: af41 433e c234 cf3e cb69 b2be 5e38 d83d
00000130: 494e 9d3d 7c7e 883f ef18 d3be eb80 36bd
00000140: a350 583f d0ff 21be 4da7 573e eb1a 9e3d
00000150: 6917 c2bd 4ca7 0d3e 9703 cbbe cee4 5c3e
00000160: 8f95 f73e 9b59 18bf 8d3a b23e e780 0f3f
00000170: d706 fdbe b9a2 763e 2fb7 5d3f d693 d83e
00000180: 43e3 d93d 39d3 cbbd b56b e23b 8092 19bd
00000190: b5bf f13e fe1f 96bc 3880 573f ff1b c4be
000001a0: 0b39 1c3e 3574 c8be 8517 613d e0de 013e
000001b0: 9b51 ea3d b987 263e 7ad3 5bbe b37b 7cbe
000001c0: 00f0 ffbe 4791 17bf 4e69 f53d 8cdd 963d
000001d0: e8c3 c2be 8c99 0a3c 1fb4 2fbe 59c7 a1bc
000001e0: 3592 17be f6a9 44be f70d e63e 8676 f83d
000001f0: 0e55 d4bd f082 7fbe 681d 4e3e 5d94 40be
00000200: 6916 5abe c909 0c3f 91c2 8f3e 9e2c 76be
00000210: 4520 423f 6629 88be bced 83be 0e6a 4d3e
00000220: 59bf 4a3e 7333 093f a779 3bbe 4413 553f
00000230: 676b 8f3f dc7c 753f b575 633e 260b 393e
00000240: 334d ee3e 1a9c 923e 3d84 0d3f 7150 babd
00000250: 613f 593c c434 5c3e c351 05bd d03d 2e3e
00000260: 9668 d43e 6e09 e7bc 063d 7bbc bb28 5e3e
00000270: 8225 8c3d 1cff b73e c007 1b3f dba2 50be
00000280: 9cb6 32be 96e9 d0bd 4947 eebd 3e1f 4bbd
00000290: c2b8 1cbe 3d18 163e 89d6 1dbe f33d a93e
000002a0: a045 d9bd eae7 903d e8f0 4c3d 22d1 b63c
000002b0: 83c0 2abe 5d5e 1ebe fe20 71bd 0d94 083e
000002c0: 8d38 6fbe 1557 babd fe13 06be 7231 d33e
000002d0: 0338 9dbd 7071 6ebe 8036 603d 36f2 27be
000002e0: 1765 a9bd 9568 d73d 7351 833c 0bd7 afbd
000002f0: 7352 a23e e78a 773e efb1 bc3a e258 28be
00000300: d431 77be e3c2 ec3d 7fc4 62bc b6c4 143e
00000310: 7f21 d23d 180c 00bd f938 b7be 9b53 13bf
00000320: bad2 263e e4a4 0fbf 6c63 c4be 0a6e 06bf
00000330: a6ac f9be 664c 26be 159d 9fbd e7f0 20be
00000340: 3f89 22be 55c9 2dbf 2bc7 a3be e43d b0bd
00000350: 89ea bd3e d93a 51be 057c ee3e 32f0 a9be
00000360: 6d9e 90be c3f3 cc3d 4e57 9dbe 63f5 f4bc
00000370: ade3 7abe 5845 80be 89a9 55be a194 0ebf
00000380: de81 523d 9432 2d3e 90ed 98be 67a4 b03d
00000390: 63c5 cbbc 3bc5 c4be d4ce a83d 5133 cd3e
000003a0: 7c8e 3f3e 4c9c 803d fa6a 05be 3a87 373d
000003b0: 44a4 ecbd 0782 c03e 6e56 54be 4d23 12be
000003c0: 5d6e 3e3f 50b0 67be 241a 80bd 26d3 ed3e
000003d0: 1d23 253e bee1 1e3f 648f 4a3e 7478 623d
000003e0: 9d15 b6bd f2ba 9ebe 3aea 713f 4c1b 163f
000003f0: 08a8 eb3b 5829 0d3f baea 333f b864 9dbe

global_feature_extractor.first_block.0.conv.1.weight f4 [64]
0.7905999 1.0930383 1.4123918 1.5837076 1.5425174 0.059126377 1.5625352 1.4673618
0.556477 1.4263896 1.1375246 1.1262107 1.0107933 2.2610323 1.0795927 1.2172782
0.9515072 1.5985621 1.2670643 1.6271763 0.91737324 2.2161586 1.684708 2.017756
1.0583481 0.85448176 0.82885003 0.8282713 1.2789975 1.065608 1.274939 0.8326798
-0.19129519 0.75392675 0.81681484 1.3760914 1.8029335 1.6198702 0.39811903 0.7424374
1.4122697 0.6950772 2.808498 0.69448996 1.0278696 1.6394086 0.4677094 1.9101344
0.8371551 2.1522076 1.9428062 1.3790748 1.448325 1.2305586 1.4644216 2.1586516
0.34186497 1.4378415 1.7322842 2.2011461 0.56312376 1.8045912 1.2570804 0.97839475
00000000: c164 4a3f aee8 8b3f 41c9 b43f eeb6 ca3f
00000010: 3671 c53f 802e 723d 2701 c83f 83d2 bb3f
00000020: 4775 0e3f ef93 b63f 689a 913f ac27 903f
00000030: ad61 813f c1b4 1040 1830 8a3f c6cf 9b3f
00000040: fa95 733f af9d cc3f 2a2f a23f 5047 d03f
00000050: f9d8 6a3f 8bd5 0d40 83a4 d73f ea22 0140
00000060: f377 873f 51bf 5a3f 842f 543f 9709 543f
00000070: 31b6 a33f d865 883f 3331 a33f 812a 553f
00000080: e3e2 43be 5801 413f c71a 513f c323 b03f
00000090: 86c6 e63f e857 cf3f 42d6 cb3e 6110 3e3f
000000a0: 41c5 b43f 94f0 313f 6ebe 3340 18ca 313f
000000b0: 3b91 833f 24d8 d13f 9b77 ef3e 497f f43f
000000c0: cc4f 563f c5bd 0940 e0ad f83f 8685 b03f
000000d0: b762 b93f f282 9d3f 2b72 bb3f 5927 0a40
000000e0: ed08 af3e 310b b83f 7dbb dd3f 94df 0c40
000000f0: e128 103f d8fc e63f 03e8 a03f 1478 7a3f

global_feature_extractor.first_block.0.conv.1.bias f4 [64]
0.2998984 -0.3705128 0.2646616 -0.10772979 0.16322917 -0.60920626 0.20246723 -0.19785261
0.7873045 0.29446054 -0.482526 0.4005937 0.29478616 -0.1290023 0.056874532 -0.020347686
0.11055334 -0.4026208 -0.082048565 -0.09823388 0.13030766 -0.0087579535 0.11609861 0.05759485
0.16757683 -0.6562573 -0.52042323 0.6631834 0.11416054 -0.16467011 0.31694588 0.4234976
0.7498038 0.5001884 -0.27352005 -0.3027368 0.27695143 -0.06622177 0.645398 0.4777042
-0.048992738 0.40053955 0.0925301 0.4722906 -0.121541634 -0.0486989 0.71629125 -0.08947343
0.34611914 -0.013428178 0.17911337 0.03336263 0.154153 0.027630838 -0.23891738 0.12258917
0.81181276 -0.16795614 0.34944248 0.09701859 0.6085967 -0.09320518 0.33433738 -0.16379791
00000000: 488c 993e dbb3 bdbe ba81 873e 70a1 dcbd
00000010: 8c25 273e f1f4 1bbf 9253 4f3e e099 4abe
00000020: ca8c 493f 88c3 963e a60d f7be 9e1a cd3e
00000030: 36ee 963e 2e19 04be 45f5 683d 31b0 a6bc
00000040: ca69 e23d 5024 cebe 1409 a8bd d82e c9bd
00000050: 5f6f 053e 857d 0fbc 1cc5 ed3d 94e8 6b3d
00000060: 4399 2b3e 7a00 28bf 753a 05bf 63c6 293f
00000070: 00cd e93d 489f 28be bb46 a23e add4 d83e
00000080: 24f3 3f3f 590c 003f d20a 8cbe 5100 9bbe
00000090: 94cc 8d3e 489f 87bd ce38 253f a595 f43e
000000a0: 9cac 48bd 8513 cd3e 6c80 bd3d 13d0 f13e
000000b0: d2ea f8bd 7f78 47bd dd5e 373f d83d b7bd
000000c0: 8736 b13e dc01 5cbc 7f69 373e 41a7 083d
000000d0: 49da 1d3e 115a e23c c2a6 74be 0810 fb3d
000000e0: f6d2 4f3f b2fc 2bbe 20ea b23e afb1 c63d
000000f0: fecc 1b3f 5be2 bebd 452e ab3e a4ba 27be

global_feature_extractor.first_block.0.conv.1.running_mean f4 [64]
-0.7236378 0.10253922 2.09023 -0.74784946 4.3820915 -0.35482016 -2.8272033 2.0650673
-2.226029 1.5313908 1.953316 -2.8134048 1.1970834 0.9808534 1.6725197 0.72113645
-0.6266403 -1.6032372 0.9722674 2.5951374 0.5464472 0.8346569 -0.13434343 0.43789613
3.8130846 0.70184517 -0.6628254 -0.752303 0.26511458 1.5168691 -0.35135034 0.83313745
-2.01033 -2.0679152 -0.34637013 1.245203 -4.2290735 1.0338216 -0.62857115 -3.1407092
1.7489952 1.1400739 3.2519991 -4.621978 0.91269 0.7217939 -2.4614198 1.7200452
-1.4172274 3.2986348 -0.20199114 1.1935606 -1.4127253 0.95277476 -2.0767126 -1.4366142
-2.0478728 -1.3855294 1.4026577 -1.5172641 -2.3435876 1.4636211 -1.1644937 -1.5228091
00000000: 5440 39bf 1500 d23d 54c6 0540 1073 3fbf
00000010: 183a 8c40 fdaa b5be e6f0 34c0 102a 0440
00000020: 4277 0ec0 9d04 c43f 4206 fa3f d30e 34c0
00000030: 073a 993f 3519 7b3f 2015 d63f 669c 383f
00000040: 806b 20bf e036 cdbf 84e6 783f bb16 2640
00000050: f7e3 0b3f 13ac 553f 5391 09be ec33 e03e
00000060: 9409 7440 20ac 333f edae 29bf ee96 40bf
00000070: 19bd 873e c428 c23f 31e4 b3be 7f48 553f
00000080: 3fa9 00c0 b958 04c0 6d57 b1be d062 9f3f
00000090: 9254 87c0 4454 843f 0aea 20bf 6101 49c0
000000a0: 13df df3f f1ed 913f c120 5040 3ee7 93c0
000000b0: 0da6 693f 7cc7 383f e787 1dc0 712a dc3f
000000c0: b567 b5bf d51c 5340 c4d6 4ebe 98c6 983f
000000d0: 2fd4 b4bf 0ce9 733f dce8 04c0 f9e2 b7bf
000000e0: 5910 03c0 0759 b1bf 4a8a b33f b635 c2bf
000000f0: 57fd 15c0 f057 bb3f 210e 95bf 69eb c2bf

global_feature_extractor.first_block.0.conv.1.running_var f4 [64]
5.834906 9.015637 20.669348 3.8278303 13.544042 1.819631 6.910528 17.608843
15.478012 9.734039 15.317148 5.2857785 8.40744 7.7731037 6.5825486 4.17622
8.463164 5.7400823 4.9979086 6.9833198 3.0721662 15.726898 7.123501 6.1501966
10.396486 14.123634 2.7467074 8.674635 6.162729 2.2745128 14.528023 2.6654956
5.6544924 7.492827 2.0394757 10.993997 15.268801 11.635908 4.7117043 8.85057
5.661865 7.055425 15.0088215 18.377169 1.8868043 9.034536 7.1799436 4.444243
5.6001215 12.7194 5.9958086 2.7409432 7.6926923 1.0445062 7.1155047 3.6676855
12.476595 5.430485 12.925673 8.981904 9.152111 7.9435716 9.257403 4.7489057
00000000: 8db7 ba40 0d40 1041 d35a a541 2cfb 7440
00000010: 65b4 5841 abe9 e83f 0c23 dd40 e9de 8c41
00000020: f0a5 7741 a0be 1b41 0a13 7541 1925 a940
00000030: e084 0641 44bd f840 3da4 d240 98a3 8540
00000040: 1f69 0741 c1ae b740 deee 9f40 5b77 df40
00000050: 5f9e 4440 60a1 7b41 b8f3 e340 69ce c440
00000060: 0258 2641 68fa 6141 0eca 2f40 4ecb 0a41
00000070: 1335 c540 9e91 1140 c872 6841 7b97 2a40
00000080: 9af1 b440 3dc5 ef40 c586 0240 69e7 2f41
00000090: 024d 7441 ae2c 3a41 48c6 9640 ef9b 0d41
000000a0: 002e b540 0bc6 e140 2224 7041 7104 9341
000000b0: ce82 f13f 768d 1041 19c2 e540 3d37 8e40
000000c0: 3234 b340 aa82 4b41 aadd bf40 9d6b 2f40
000000d0: 892a f640 61b2 853f 37b2 e340 5cbb 6a40
000000e0: 22a0 4741 88c6 ad40 8ecf 4e41 e1b5 0f41
000000f0: 0c6f 1241 bd31 fe40 531e 1441 09f7 9740
