model_checkpoints/experiments/fastscnn_a0.25t2r2pp0.onnx (onnx, 92258 bytes, 63 tensors)

feature_fusion.conv_high_res.weight f4 [32, 16, 1, 1]
-0.7744149 0.04498716 0.66200686 -1.1507293 -0.5456303 0.44375652 0.41380402 -0.8754466
-0.5427461 0.26682723 -0.57548344 0.5148646 -0.34942576 -0.022603132 -0.41400188 -0.14049976
-0.43477777 0.6124081 0.2555226 0.3509702 0.19521843 0.58697146 0.4222051 0.64974934
-0.96935 -0.45634997 -0.10271129 0.2986423 -0.46967742 0.86454934 -0.602519 0.77911925
-2.335434 0.012656708 -0.90492624 0.12750196 -1.2937815 -0.7787874 1.5513074 -1.5373391
0.09889697 -0.503186 0.07817014 -0.37683347 0.12585998 -1.0853184 0.6395074 -1.0402313
-0.34702843 -0.11901645 -1.2014934 -0.2594838 -0.31917173 -0.8038775 0.19891398 0.1912714
-0.3098935 0.3993777 0.66068363 0.88471603 -0.8177147 0.6158055 1.1581038 -1.5131037
-0.65923625 0.8064883 -0.7940384 0.056582738 -0.2677469 0.34983626 -0.35678348 -0.38798925
0.40199846 -1.4031326 0.5079973 -0.5433175 0.45363778 -0.62757313 0.60406345 -0.8665486
-0.47441596 -0.03942938 0.2254385 -0.598355 -0.10224485 0.086967714 0.36156964 0.42638853
0.7631139 -0.13976099 -0.4953829 -0.92093235 0.28321463 0.17136143 0.80508095 -0.15709542
-1.2861141 -1.2730808 -2.2754989 -0.33073795 -0.9226789 -0.32059798 0.31715816 -1.2968098
0.15151632 -0.8234373 -0.21186031 0.9254566 0.50155205 -0.9483158 -0.3888179 0.6259789
0.5758545 0.79454863 0.685053 -0.3013103 0.33879453 -0.80274385 -0.2947846 -0.72276044
-0.9933694 0.4339121 -0.19555001 -0.6185036 -0.66348934 -0.6745114 -0.7294137 -0.37387574
-0.5294507 0.52083755 -0.2882092 0.40400413 -0.12496614 0.46840805 -2.3931224 0.19140112
-1.7117888 -0.015146585 -0.11508372 0.22930019 -0.26907212 -0.052534413 0.83207315 -0.24415076
-1.5255343 -0.3118475 -1.293151 0.15030596 0.08628772 -0.23747525 -0.35739622 -0.8416029
0.30149108 -1.6842831 0.45583066 -0.05771852 0.4397418 -0.88199615 0.73503184 0.3694762
-0.77233094 -0.706349 -0.75212306 -0.38079917 -0.14370787 -0.97668684 -0.34620136 0.034338653
0.26455882 -0.8833988 -0.31919685 -0.32786188 0.7837543 -1.185366 0.4795194 -0.060957547
-0.60892045 0.19661847 -0.06464292 1.2959615 0.28905335 0.07081282 -0.43731427 -0.16605748
0.35151914 -0.5412632 -0.0894125 0.661734 0.95589954 -0.14885879 1.8133117 -0.07040334
-0.7808854 0.22780327 -0.5596487 -0.53233594 -0.45358092 -0.61201763 0.020957064 -0.8520995
0.6235867 -0.52590436 -0.24544103 0.6766581 0.45512298 -1.0631698 0.6578513 0.08589245
-0.54545736 -0.24049 0.5842814 -2.0529091 0.07227724 -0.40397805 0.6481638 0.39234996
-0.6794222 0.26640454 -1.2329687 1.1038408 -0.91307944 0.48047733 -0.34474465 -0.040662978
-0.8494426 -0.6211593 -0.41266033 -0.86599636 -0.06548416 -0.8507377 0.31609416 -1.4142044
-0.2983444 -0.040168297 -0.56519383 -0.107233874 -0.19695981 -0.537467 -0.60853124 -0.42237878
-0.010135606 0.77770716 0.40091065 -0.25999177 -0.14504589 0.51786536 0.5181419 0.59335965
0.18990226 0.1818384 -0.58968097 -1.4214433 0.46776688 0.41602167 -0.011303095 -0.19205695
00000000: 0e40 46bf 7544 383d 4879 293f 194b 93bf
00000010: 6dae 0bbf 0e34 e33e 1fde d33e 451d 60bf
00000020: 69f1 0abf 949d 883e e252 13bf 2bce 033f
00000030: efe7 b2be 342a b9bc 0ef8 d3be 2bdf 0fbe
00000040: 319b debe c7c6 1c3f dcd3 823e 5eb2 b33e
00000050: 57e7 473e c343 163f 442b d83e f955 263f
00000060: 5227 78bf b4a6 e9be 4c5a d2bd a5e7 983e
00000070: 8f79 f0be 1b53 5d3f af3e 1abf 5c74 473f
00000080: c077 15c0 155e 4f3c 3fa9 67bf e08f 023e
00000090: a29a a5bf 9c5e 47bf 3e91 c63f 87c7 c4bf
000000a0: 7f8a ca3d ccd0 00bf ab17 a03d 51f0 c0be
000000b0: 70e1 003e b7eb 8abf c2b6 233f 4d26 85bf
000000c0: b6ad b1be e6be f3bd 89ca 99bf 10db 84be
000000d0: 7a6a a3be eaca 4dbf 1bb0 4b3e a6dc 433e
000000e0: 5caa 9ebe 3c7b cc3e 9022 293f c07c 623f
000000f0: c055 51bf 6ea5 1d3f bf3c 943f 62ad c1bf
00000100: b5c3 28bf 0476 4e3f 1a46 4bbf 4dc3 673d
00000110: 1f16 89be bd1d b33e 53ac b6be 87a6 c6be
00000120: bed2 cd3e d999 b3bf 1c0c 023f db16 0bbf
00000130: 3643 e83e a2a8 20bf e7a3 1a3f 21d6 5dbf
00000140: a6e6 f2be b480 21bd 5ad9 663e cb2d 19bf
00000150: bf65 d1bd 211c b23d a81f b93e 994f da3e
00000160: 6f5b 433f 811d 0fbe d4a2 fdbe 39c2 6bbf
00000170: 8201 913e 5f79 2f3e c919 4e3f 9fdd 20be
00000180: 639f a4bf 50f4 a2bf c6a1 11c0 7c56 a9be
00000190: af34 6cbf 6b25 a4be 8e62 a23e ddfd a5bf
000001a0: 1827 1b3e c9cc 52bf e9f1 58be b9ea 6c3f
000001b0: b765 003f d3c4 72bf 2413 c7be 2740 203f
000001c0: 336b 133f 8a67 4b3f a25f 2f3f 5845 9abe
000001d0: 7a76 ad3e 9f80 4dbf 02ee 96be d406 39bf
000001e0: 754d 7ebf ba29 de3e 433e 48be 4056 1ebf
000001f0: 70da 29bf c7ac 2cbf dbba 3abf a46c bfbe
00000200: 158a 07bf 9c55 053f 2890 93be a1d9 ce3e
00000210: 3fee ffbd 2ed3 ef3e eb28 19c0 a8fe 433e
00000220: e51b dbbf 6229 78bc 03b1 ebbd abcd 6a3e
00000230: d2c3 89be 532e 57bd bf02 553f a802 7abe
00000240: b544 c3bf 7aaa 9fbe f985 a5bf cee9 193e
00000250: 9eb7 b03d b62c 73be a3fc b6be 4a73 57bf
00000260: 0a5d 9a3e 9796 d7bf a362 e93e 416a 6cbd
00000270: d625 e13e 80ca 61bf 0c2b 3c3f fc2b bd3e
00000280: 7bb7 45bf 4ad3 34bf 238b 40bf 1cf8 c2be
00000290: 2828 13be 2608 7abf 4e41 b1be b0a6 0c3d
000002a0: 4174 873e 6c26 62bf c56d a3be 83dd a7be
000002b0: 1fa4 483f 13ba 97bf 9183 f53e 9fae 79bd
000002c0: 36e2 1bbf 5a56 493e 8263 84bd 11e2 a53f
000002d0: cdfe 933e 5006 913d a8e7 dfbe f90a 2abe
000002e0: 51fa b33e 3a90 0abf e71d b7bd 6667 293f
000002f0: d5b5 743f 706e 18be 991a e83f a02f 90bd
00000300: 1be8 47bf 4345 693e 2345 0fbf 2b47 08bf
00000310: c23b e8be 30ad 1cbf 26ae ab3c 3123 5abf
00000320: 61a3 1f3f aba1 06bf e554 7bbe 7739 2d3f
00000330: e105 e93e f315 88bf f168 283f 61e8 af3d
00000340: 18a3 0bbf 0343 76be 7793 153f dd62 03c0
00000350: 1706 943d 36d6 cebe 10ee 253f 18e2 c83e
00000360: 9dee 2dbf 2d66 883e ebd1 9dbf a84a 8d3f
00000370: 93bf 69bf 2001 f63e 5f82 b0be 398e 26bd
00000380: 1275 59bf 4c04 1fbf 3748 d3be f0b1 5dbf
00000390: 8f1c 86bd f2c9 59bf 18d7 a13e a604 b5bf
000003a0: 99c0 98be 8387 24bd 8bb0 10bf 6f9d dbbd
000003b0: d5af 49be 7097 09bf b4c8 1bbf 0842 d8be
000003c0: d00f 26bc d117 473f 2944 cd3e a41d 85be
000003d0: e986 14be d392 043f f3a4 043f 6be6 173f
000003e0: bd75 423e d833 3a3e 55f5 16bf dbf1 b5bf
000003f0: 247f ef3e cb00 d53e 9e30 39bc 94aa 44be

feature_fusion.conv_high_res.bias f4 [32]
0.2105248 -0.10504596 -0.16486928 0.6197826 -0.19734377 0.47736678 -0.27755255 0.8648958
-1.0882326 0.13455716 0.099768244 0.1428935 2.660467 0.49828026 -0.31138277 0.07379911
-0.32057685 0.9133262 -0.2556717 0.578983 0.58146906 -0.2000307 -0.3273209 -0.63802755
-0.4357014 0.25312945 0.9087543 0.35977945 1.1626807 0.121949404 -0.19585708 0.52867806
00000000: d093 573e 5622 d7bd 7ed3 28be 13aa 1e3f
00000010: 7c14 4abe 6b69 f43e 5e1b 8ebe d069 5d3f
00000020: 354b 8bbf 5ac9 093e 4b53 cc3d ac52 123e
00000030: 1745 2a40 971e ff3e 906d 9fbe fd23 973d
00000040: a622 a4be bfcf 693f 67e7 82be 3b38 143f
00000050: 28db 143f d9d4 4cbe 9b96 a7be c655 23bf
00000060: 4114 dfbe 2f9a 813e 1fa4 683f 0335 b83e
00000070: b9d2 943f 9cc0 f93d c28e 48be 7257 073f

feature_fusion.conv_low_res.weight f4 [32, 32, 1, 1]
-0.093916945 0.043638013 -1.047336 -0.015983976 0.7530126 -0.5213255 -0.22626194 0.20665169
-0.15642741 -0.2210755 0.5185034 -0.3974184 -0.380301 0.42574498 0.61510205 0.3691542
0.18210068 -0.27033013 0.83359337 0.7518132 -0.49926063 -0.4750247 -0.061986204 -0.11977291
-0.51496327 0.039317828 -0.12382033 -0.20990135 -0.27078927 1.6578581 0.5901498 -0.47965115
-0.6476202 0.7943372 0.38547355 0.18349396 -0.31115997 0.37909573 -0.6183807 -0.07889529
-0.07762763 0.40464512 0.23467018 0.13465777 0.8187214 0.91944146 -0.08600508 0.47743046
-0.05056285 -1.8338048 -0.20078151 -0.7478384 -0.51180476 -0.7795425 -0.24769354 0.34990233
0.45260116 0.062222864 -0.0204997 -0.514585 -0.5209119 -0.0178356 0.66632754 0.31998017
-0.020005848 0.030989751 0.40577105 0.018649101 0.3595305 -0.7194927 0.043450672 0.6536948
0.07198922 0.06782794 0.11817801 -0.91884464 0.29091927 -0.26081824 -0.23650694 -0.11605417
0.039145622 0.10865614 -0.2839418 0.532726 -0.0637133 -0.29802385 0.2219454 0.1496527
-0.27913702 -0.49069172 0.52237415 -0.4313308 0.04456687 -0.045550775 0.44116864 -0.15201382
0.61945957 1.3013264 -0.7842728 0.3306792 0.48124027 -0.12099937 -0.31459382 0.5844137
-0.23104216 0.24032123 0.15341103 0.6734843 -0.13952653 0.12524451 0.34511417 0.28877386
-0.35163257 0.041392107 0.829856 0.44674337 0.641259 0.08823701 0.94961786 0.27269092
0.40090045 -0.31247863 -0.5004116 0.57608575 -0.1668484 0.9805127 -1.0266725 0.49363148
-0.61351395 0.13335685 0.13018683 -0.2646219 -0.16924547 0.3204593 -0.63605803 -1.0141178
0.2361034 0.33814555 0.5654214 0.42750332 0.3887738 -0.13839674 0.35612446 -0.06373862
0.62646437 -0.27085295 -0.13737151 -0.05783106 0.37289655 -0.58906156 -0.08936489 0.6425262
0.26300865 -0.8937318 0.24686183 0.1400587 -0.6503557 0.30051187 0.38095462 0.18594985
0.08519347 -0.28468353 0.036578573 -0.59378153 0.1391634 0.14887634 -0.55396396 -1.2186923
0.271404 0.18649055 0.81061924 0.96802586 0.6130876 -0.25239107 0.48334077 -0.54982764
0.57095486 0.7410205 -0.08812669 -0.0033363483 0.09435203 -0.34184766 -0.3493503 -0.057508454
-0.56312865 -0.79984725 0.98855966 -0.11533487 -0.63643706 0.45186266 0.68468696 0.017242182
0.10646726 -0.00885389 0.19477993 -0.55980754 0.5321175 0.098220676 -0.83949107 -0.190204
0.5789359 -0.70101064 0.54328513 0.69411445 -0.33957493 -0.31972316 0.32710627 -0.988309
0.3393684 -1.1445643 0.05617963 -0.32800215 -0.6748997 -0.687959 -0.17674473 0.4515174
-0.30247536 -0.46430182 0.5223559 0.44982243 0.078578964 0.7858014 0.6337635 0.54703444
0.09857379 1.7283978 -0.080818474 0.4226581 -0.5382289 -0.58723086 0.13056618 0.032334983
-0.08284332 -0.1938323 0.13764714 0.6601694 -0.9082716 0.46307248 0.22286536 0.5039813
-0.51623774 1.5114166 1.1362158 -0.76650953 -0.9614867 -0.34842137 -0.37750173 0.27222255
0.36658403 -0.1671042 -0.052272175 0.06872706 -0.1907522 0.2943806 1.3350016 -0.11090205
00000000: 8757 c0bd c6bd 323d 1b0f 86bf d4f0 82bc
00000010: 6fc5 403f 9775 05bf 36b1 67be 809c 533e
00000020: 822e 20be 9e61 62be a4bc 043f 6d7a cbbe
00000030: d0b6 c2be 3ffb d93e 5477 1d3f c801 bd3e
00000040: 9a78 3a3e b668 8abe 6066 553f d476 403f
00000050: 179f ffbe 7036 f3be 3fe5 7dbd 804b f5bd
00000060: a2d4 03bf bb0b 213d 8395 fdbd 61f0 56be
00000070: e4a4 8abe b234 d43f 0f14 173f d694 f5be
00000080: 70ca 25bf af59 4b3f ca5c c53e d7e5 3b3e
00000090: 5c50 9fbe d618 c23e 334e 1ebf db93 a1bd
000000a0: 3cfb 9ebd a52d cf3e 614d 703e bae3 093e
000000b0: ba97 513f 8460 6b3f 6e23 b0bd c471 f43e
000000c0: fe1a 4fbd 1eba eabf ab99 4dbe 5672 3fbf
000000d0: a305 03bf 1990 47bf 60a3 7dbe 6626 b33e
000000e0: 57bb e73e 67dd 7e3d fdee a7bc d8bb 03bf
000000f0: 7b5a 05bf f71b 92bc 7194 2a3f 71d4 a33e
00000100: 4ee3 a3bc 38de fd3c 39c1 cf3e 00c6 983c
00000110: 6214 b83e ac30 38bf 55f9 313d 8b58 273f
00000120: 166f 933d 60e9 8a3d 5007 f23d 6739 6bbf
00000130: 5ff3 943e f889 85be e02e 72be cfad edbd
00000140: 2957 203d 1c87 de3d d260 91be bb60 083f
00000150: 1e7c 82bd 9596 98be a845 633e 8f3e 193e
00000160: 0ceb 8ebe f23b fbbe 50ba 053f 64d7 dcbe
00000170: c08b 363d 7393 3abd dbe0 e13e 83a9 1bbe
00000180: e794 1e3f dd91 a63f 1ac6 48bf c94e a93e
00000190: 2065 f63e 85ce f7bd 7112 a1be 239c 153f
000001a0: 5196 6cbe c516 763e c817 1d3e 7869 2c3f
000001b0: 0be0 0ebe 1940 003e ceb2 b03e 2bda 933e
000001c0: 2f09 b4be c58a 293d 7171 543f 8cbb e43e
000001d0: 8d29 243f 9bb5 b43d 281a 733f 259e 8b3e
000001e0: d342 cd3e 33fd 9fbe fa1a 00bf 5b7a 133f
000001f0: 4fda 2abe e102 7b3f 016a 83bf 44bd fc3e
00000200: 400f 1dbf b38e 083e b24f 053e 867c 87be
00000210: af4e 2dbe 3e13 a43e b3d4 22bf 9dce 81bf
00000220: 17c5 713e 6a21 ad3e 75bf 103f b7e1 da3e
00000230: 5c0d c73e e0b7 0dbe f255 b63e 6589 82bd
00000240: f85f 203f 3dad 8abe 1eab 0cbe 43e0 6cbd
00000250: 4cec be3e bdcc 16bf f004 b7bd 997c 243f
00000260: 12a9 863e 9bcb 64bf 59c9 7c3e 8c6b 0f3e
00000270: b67d 26bf b1dc 993e 7c0c c33e a369 3e3e
00000280: ea79 ae3d 0ac2 91be 6ad3 153d 1102 18bf
00000290: da80 0e3e 0a73 183e 95d0 0dbf 1cfe 9bbf
000002a0: 77f5 8a3e 61f7 3e3e be84 4f3f 8bd0 773f
000002b0: 4ff3 1c3f 6739 81be 7178 f73e 81c1 0cbf
000002c0: 192a 123f 85b3 3d3f c47b b4bd a3a6 5abb
000002d0: a33b c13d a806 afbe 0bde b2be fc8d 6bbd
000002e0: 3329 10bf cac2 4cbf 3f12 7d3f b034 ecbd
000002f0: 8aed 22bf 8b5a e73e a547 2f3f 7a3f 8d3c
00000300: 820b da3d e80f 11bc 6474 473e 8c4f 0fbf
00000310: da38 083f ec27 c93d e3e8 56bf d6c4 42be
00000320: 2535 143f 6f75 33bf bc14 0b3f 7cb1 313f
00000330: c4dc adbe c1b2 a3be 797a a73e d201 7dbf
00000340: b2c1 ad3e 1581 92bf 9d1c 663d e6ef a7be
00000350: 3ac6 2cbf 151e 30bf 92fc 34be 4a2d e73e
00000360: 0dde 9abe f8b8 edbe 1eb9 053f 204f e63e
00000370: 02ee a03d 482a 493f 533e 223f 730a 0c3f
00000380: 0ee1 c93d 243c dd3f 2884 a5bd a466 d83e
00000390: 5fc9 09bf c354 16bf 24b3 053e b071 043d
000003a0: c2a9 a9bd f97b 46be 5ff3 0c3e dd00 293f
000003b0: 7d84 68bf d617 ed3e d136 643e eb04 013f
000003c0: 2828 04bf 1976 c13f 856f 913f f839 44bf
000003d0: fe23 76bf 4964 b2be e847 c1be c160 8b3e
000003e0: e7b0 bb3e 5d1d 2bbe 591b 56bd c6c0 8c3d
000003f0: 8b54 43be 0eb9 963e 55e1 aa3f 9d20 e3bd

feature_fusion.conv_low_res.bias f4 [32]
0.3339344 0.20004053 -0.29028443 0.4104907 -0.010261606 0.44238108 -0.025906112 0.85885155
-1.0295826 0.0817135 0.089342706 0.00014026574 2.2705212 0.25667775 0.042524107 0.036833573
-0.21721539 0.7053302 -0.32668284 0.3970594 0.60911584 -0.0019162112 -0.30024642 -0.5602304
-0.40444964 0.20508744 0.6820436 0.124910176 1.0648412 -0.07669838 -0.1597442 0.5588315
00000000: 73f9 aa3e 6dd7 4c3e 29a0 94be d62b d23e
00000010: 4c20 28bc c67f e23e 0e39 d4bc b2dd 5b3f
00000020: 5dc9 83bf 6859 a73d 4ff9 b63d 4c14 1339
00000030: 3850 1140 446b 833e c22d 2e3d cdde 163d
00000040: b66d 5ebe 8590 343f f942 a7be 5f4b cb3e
00000050: 04ef 1b3f 6129 fbba e6b9 99be 426b 0fbf
00000060: 0614 cfbe 7102 523e 699a 2e3f e8d0 ff3d
00000070: b74c 883f 0a14 9dbd fc93 23be 950f 0f3f

classifier.conv.weight f4 [1, 32, 1, 1]
0.69817066 -0.62487346 -0.6507311 0.68428135 -0.31253535 -0.33078465 -0.46190587 -0.914263
0.8647776 1.069476 -0.76779205 -0.33103195 -0.6339686 -0.44175345 -0.34972262 -0.51711947
-0.63704544 -0.5722663 -0.7965893 -0.64817244 -0.36125526 -0.41724256 -0.60410494 -0.32181388
-0.4893321 -0.42576113 -0.31818935 -0.4343382 -0.63379264 -1.0869265 -0.4064071 -0.4885778
00000000: 50bb 323f b5f7 1fbf 5096 26bf 102d 2f3f
00000010: a204 a0be 9b5c a9be ed7e ecbe 240d 6abf
00000020: 1162 5d3f 97e4 883f 058e 44bf 057d a9be
00000030: c44b 22bf 822d e2be d80e b3be f161 04bf
00000040: 6915 23bf 0b80 12bf 47ed 4bbf a1ee 25bf
00000050: 73f6 b8be d1a0 d5be 9fa6 1abf cac4 a4be
00000060: bd89 fabe 5dfd d9be b7e9 a2be 9461 debe
00000070: 3c40 22bf 6820 8bbf 9714 d0be df26 fabe

onnx::Conv_275 f4 [8, 3, 3, 3]
0.07594059 0.06064562 0.036500752 -0.22121178 -0.030852927 -0.030577093 -0.21892191 -0.22488274
0.100287616 -0.11686239 -0.17745337 -0.18175033 -0.1022301 0.1513106 0.27227345 0.1366467
0.73688364 1.5258881 0.035897404 -0.1385129 -0.075867854 -0.3526894 -0.08825451 -0.012332031
-0.2469377 0.09383899 0.55784756 0.06339615 0.0378059 0.02387568 0.09211821 0.024537317
-0.0056227273 0.020146977 0.038822394 -0.016994618 0.0005049541 -0.14667428 -0.25832424 0.026789028
-0.057471406 -0.18983677 -0.008302076 -0.13562956 -0.27174094 0.010922643 -0.045864545 -0.07601758
-0.008834762 -0.05863676 -0.11551651 0.023378367 -0.036521386 -0.07024405 -0.11985602 -0.024733556
-0.26844323 0.029454773 0.14567676 -0.106543265 0.01932337 0.29837683 0.05860255 -0.17857772
-0.0867736 -0.3683144 -0.52568495 -0.38817546 -0.54636014 -0.35156235 -0.2544436 -0.27380663
-0.003397117 0.08583757 -0.08954815 -0.052541994 0.22337021 -0.13871343 -0.08866982 0.25003973
0.05388784 -0.011122286 -0.009478819 0.19201435 -0.017792046 0.07083856 0.4227568 0.054878432
-0.033112835 0.5118697 -0.10878977 -0.12744924 0.073447086 -0.11281004 -0.054759596 0.39340368
-0.1282832 -0.022194821 0.4592137 -0.07845903 -0.15856561 0.009700083 -0.05058089 -0.08694122
0.32706457 -0.11125678 -0.12327913 0.39261776 0.3053452 0.050009884 -0.29373208 0.2539433
-0.0077754366 -0.27064225 0.34397784 -0.08669003 -0.32019305 0.8027176 0.7359274 0.25302142
0.69995457 0.7023591 0.15380064 0.48654473 0.0342225 -0.08131512 -0.057897855 0.12590156
-0.17310588 0.0151728615 0.12569942 -0.3533955 0.14053206 -0.32758993 -0.5475341 0.11884768
-0.012981743 0.0149124265 0.110609315 -0.049624898 0.034289684 0.08748945 -0.018228836 0.010311562
0.06671673 0.015685951 0.10968381 0.08440186 0.011431095 0.14359999 0.02684289 0.0086901225
0.070576146 -0.021872032 -0.062314328 0.024956206 0.009596799 -0.0991824 -0.002042026 -0.016816856
-0.057480164 -0.0003954146 -0.92687285 0.39775246 -0.2959636 -1.0037056 0.12282186 0.18800385
-0.30415344 0.10525766 0.12159995 -1.2195925 1.7300297 0.92751455 -1.733654 1.1940777
1.0485857 -0.73061174 0.42907536 -0.0039436296 -0.91270286 0.9968319 0.4166302 -1.2434324
0.63398904 0.06821767 -0.31700847 0.37133455 0.005354744 -0.41339925 -0.11378324 -0.27658576
-0.36729735 0.053157877 0.116628036 -0.15621006 0.06097321 0.1629345 -0.046531875 -0.13603379
-0.42420778 -0.10099299 0.07174195 -0.15054913 0.17742452 0.2423418 0.23015167 -0.21284023
-0.11514465 -0.36472118 -0.28169727 0.103769176 -0.13492598 0.08760284 0.21268062 0.14064613
00000000: bd86 9b3d 8b67 783d d081 153d 5785 62be
00000010: 47bf fcbc d07c fabc 112d 60be a947 66be
00000020: 9863 cd3d 8c55 efbd 56b6 35be c21c 3abe
00000030: 045e d1bd 2af1 1a3e 6d67 8b3e 1ded 0b3e
00000040: 68a4 3c3f 4d50 c33f 2809 133d 53d6 0dbe
00000050: 9b60 9bbd b493 b4be c8be b4bd 490c 4abc
00000060: 3ddd 7cbe a82e c03d 19cf 0e3f d7d5 813d
00000070: 5cda 1a3d ee96 c33c 79a8 bc3d 7c02 c93c
00000080: db3e b8bb 460b a53c 3b04 1f3d 4c38 8bbc
00000090: e55e 043a c831 16be 1343 84be aa74 db3c
000000a0: 2367 6bbd 9264 42be 6e05 08bc 7ae2 0abe
000000b0: a121 8bbe e3f4 323c 76dc 3bbd 1baf 9bbd
000000c0: adbf 10bc 192d 70bd ec93 ecbd fd83 bf3c
000000d0: 7397 15bd 1ddc 8fbd 1377 f5bd 079e cabc
000000e0: 6471 89be 234b f13c 4a2c 153e 5b33 dabd
000000f0: 0b4c 9e3c d9c4 983e 3a09 703d 14dd 36be
00000100: 5bb6 b1bd b493 bcbe 4a93 06bf efbe c6be
00000110: 42de 0bbf fbff b3be 6e46 82be 6230 8cbe
00000120: 2aa2 5ebb 9ccb af3d 0565 b7bd 4636 57bd
00000130: 29bb 643e e50a 0ebe 8698 b5bd 3505 803e
00000140: 7fb9 5c3d 403a 36bc 0c4d 1bbc 699f 443e
00000150: a0c0 91bc cf13 913d 9473 d83e 35c8 603d
00000160: 53a1 07bd e509 033f 2ccd debd 0e82 02be
00000170: 6d6b 963d f308 e7bd 994b 60bd 356c c93e
00000180: ac5c 03be ead1 b5bc 0f1e eb3e 21af a0bd
00000190: 065f 22be 19ed 1e3c e82d 4fbd 3d0e b2bd
000001a0: 0275 a73e 98da e3bd c579 fcbd 3205 c93e
000001b0: 3556 9c3e 2ad7 4c3d 0d64 96be db04 823e
000001c0: 17c9 febb 9f91 8abe dd1d b03e 8b8a b1bd
000001d0: 58f0 a3be e77e 4d3f bd65 3c3f 068c 813e
000001e0: 3930 333f cecd 333f ea7d 1d3e 641c f93e
000001f0: e42c 0c3d 8b88 a6bd 4d26 6dbd 57ec 003e
00000200: ab42 31be 9897 783c 59b7 003e 41f0 b4be
00000210: a3e7 0f3e deb9 a7be 322b 0cbf 6a66 f33d
00000220: 60b1 54bc 4053 743c 2387 e23d 7a43 4bbd
00000230: 5773 0c3d ab2d b33d a454 95bc d3f1 283c
00000240: c8a2 883d d37f 803c e8a1 e03d e2da ac3d
00000250: 7d49 3b3c e00b 133e 9fe5 db3c 0461 0e3c
00000260: 3a8a 903d fa2c b3bc 4f3d 7fbd f570 cc3c
00000270: e43b 1d3c 2420 cbbd 83d3 05bb 81c3 89bc
00000280: 5270 6bbd a64f cfb9 8a47 6dbf 36a6 cb3e
00000290: 8a88 97be 6d79 80bf 078a fb3d 1584 403e
000002a0: 00ba 9bbe 5491 d73d 6509 f93d 9b1b 9cbf
000002b0: 9d71 dd3f 9871 6d3f 60e8 ddbf 8ad7 983f
000002c0: 0e38 863f 5f09 3bbf c4af db3e 9039 81bb
000002d0: e5a6 69bf 6030 7f3f 8e50 d53e cb28 9fbf
000002e0: 1b4d 223f b5b5 8b3d ef4e a2be 901f be3e
000002f0: d976 af3b 11a9 d3be 3007 e9bd a69c 8dbe
00000300: 660e bcbe 13bc 593d aeda ee3d 88f5 1fbe
00000310: 0bbf 793d 4dd8 263e 3598 3ebd 714c 0bbe
00000320: c331 d9be 6ad5 cebd 72ed 923d 8d29 1abe
00000330: c6ae 353e 7328 783e e1ac 6b3e caf2 59be
00000340: f5d0 ebbd bcbc babe a03a 90be ef84 d43d
00000350: 092a 0abe 1e69 b33d f3c8 593e 8a05 103e

onnx::Conv_276 f4 [8]
-0.30799633 0.05226302 1.1835493 -0.9473732 -0.40268165 0.83774567 -0.6421032 1.0764642
00000000: b2b1 9dbe c011 563d 8b7e 973f 0d87 72bf
00000010: 4a2c cebe 8076 563f e060 24bf 94c9 893f

onnx::Conv_278 f4 [8, 1, 3, 3]
-0.56097984 -0.5931912 0.10341127 -0.33253914 0.22749048 0.41438714 0.3143988 0.8658108
1.2358214 -0.030058293 0.15860505 0.06899955 0.23969913 0.49037233 0.2768965 0.13243209
0.15414229 -0.07898567 -0.21203884 -0.5482703 -0.014219828 -0.2826552 -0.1569925 0.11379532
0.020761447 0.16330041 0.38857824 0.33318898 0.38870952 0.15741181 0.49459204 0.49363253
0.06437752 -0.05764658 0.05647076 0.0054514483 -0.45324013 -0.44336703 -0.18667223 -0.23080799
-0.066227786 0.12180966 -0.11265275 0.14122172 0.32093245 0.7033822 1.1192327 1.6217179
-0.81407 -1.1000563 -0.40965456 -1.7395353 -1.6583328 -0.9845494 0.03354165 0.22559513
0.2764763 -0.30910748 -0.36107844 -0.14128847 -0.3361789 -0.62740594 -0.31193143 -0.17947416
0.49925122 0.8556257 -0.4042407 -0.026656007 -0.06856056 -0.4291593 -0.013783074 0.17219776
00000000: 609c 0fbf 61db 17bf 4ac9 d33d 9242 aabe
00000010: 44f3 683e 8d2a d43e e1f8 a03e c7a5 5d3f
00000020: 652f 9e3f cf3c f6bc 5d69 223e a34f 8d3d
00000030: b073 753e 1512 fb3e 61c5 8d3e 479c 073e
00000040: 7ad7 1d3e 3dc3 a1bd b620 59be 715b 0cbf
00000050: 48fa 68bc 2fb8 90be a4c2 20be 850d e93d
00000060: e913 aa3c 3938 273e baf3 c63e bf97 aa3e
00000070: ef04 c73e 9030 213e 2b3b fd3e 67bd fc3e
00000080: 5cd8 833d d21e 6cbd e24d 673d 10a2 b23b
00000090: 170f e8be 0101 e3be 0127 3fbe ee58 6cbe
000000a0: 6fa2 87bd 5877 f93d 7cb6 e6bd 6d9c 103e
000000b0: 4251 a43e db10 343f 0443 8f3f 7494 cf3f
000000c0: e466 50bf a5ce 8cbf 3ebe d1be 18a9 debf
000000d0: 4044 d4bf 6e0b 7cbf f862 093d 6902 673e
000000e0: 4d8e 8d3e 5643 9ebe 46df b8be edad 10be
000000f0: a41f acbe ad9d 20bf 7ab5 9fbe 13c8 37be
00000100: db9d ff3e 490a 5b3f a3f8 cebe b35d dabc
00000110: 7b69 8cbd c5ba dbbe 67d2 61bc 9c54 303e

onnx::Conv_279 f4 [8]
-1.0979389 -0.296639 0.55303633 -0.19246799 0.6906911 2.6770015 0.32921237 -0.24955104
00000000: 4389 8cbf 11e1 97be ca93 0d3f 5416 45be
00000010: 22d1 303f fe53 2b40 868e a83e 4f8a 7fbe

onnx::Conv_281 f4 [12, 8, 1, 1]
0.31307846 0.32017666 -0.4999369 0.23514508 0.23785457 0.3043769 0.2016341 -0.6335523
-0.32467943 -0.16217974 -0.04930122 0.11149351 -0.03208873 0.038955554 -0.18365754 0.13707489
0.13843788 -0.09744078 0.0101468675 0.09927577 -0.013494797 -0.26668313 -0.093722455 -0.04968891
0.25019926 0.92504805 -0.5680706 -0.9762836 -0.17752442 0.26971284 1.0142041 0.3110567
0.6613933 0.26332206 -0.49358517 0.045696132 1.0127531 -0.39281732 -0.13545051 -0.28295463
0.3509527 -0.16591692 0.29118863 0.08088129 -0.27838966 1.1447084 1.1274328 -0.66325027
0.027141083 -0.22162937 0.37104666 -0.44668418 -0.8759836 0.8982038 1.0849419 -0.73962134
-0.10821822 -0.10486603 0.2845038 0.15180863 -0.46459478 -0.1662648 -0.16436318 0.13971235
-0.07740694 -0.16126686 0.27210933 -0.11054944 -0.0072871903 0.2879532 -0.75189257 -0.19381815
0.0076887524 0.050081827 0.012279814 -0.023713961 -0.0359963 -0.026220359 0.027946476 0.044897486
0.356302 0.09159076 -0.3535151 0.3757077 0.040622227 0.057630282 -0.13282217 -0.23166923
-0.58331543 0.066031545 0.53397346 0.024133904 -0.30453116 0.24297519 -0.03334245 0.09497763
00000000: d24b a03e 32ee a33e bbf7 ffbe dfc9 703e
00000010: 2690 733e 4ad7 9b3e 2b79 4e3e 7c30 22bf
00000020: 623c a6be 7212 26be 13f0 49bd b656 e43d
00000030: 796f 03bd dc8f 1f3d b910 3cbe 5c5d 0c3e
00000040: a9c2 0d3e 088f c7bd 0c3f 263c 1851 cb3d
00000050: 4819 5dbc b18a 88be 8ff1 bfbd 9986 4bbd
00000060: 1e1a 803e f3cf 6c3f 136d 11bf b9ed 79bf
00000070: f6c8 35be cd17 8a3e 71d1 813f d342 9f3e
00000080: 1251 293f 26d2 863e 32b7 fcbe de2b 3b3d
00000090: e5a1 813f 5a1f c9be 8ab3 0abe 6edf 90be
000000a0: 13b0 b33e 20e6 29be ad16 953e 17a5 a53d
000000b0: 1789 8ebe ce85 923f b84f 903f c5ca 29bf
000000c0: fa56 de3c cff2 62be d4f9 bd3e cab3 e4be
000000d0: 7640 60bf aff0 653f 60df 8a3f d357 3dbf
000000e0: 84a1 ddbd 00c4 d6bd 7baa 913e b973 1b3e
000000f0: 5edf edbe 5241 2abe d24e 28be c110 0f3e
00000100: 8887 9ebd 2423 25be ea51 8b3e bf67 e2bd
00000110: 62c9 eebb 9a6e 933e 087c 40bf 4478 46be
00000120: eef1 fb3b 9a22 4d3d 4631 493c c843 c2bc
00000130: db70 13bd 14cc d6bc 02f0 e43c 6de6 373d
00000140: 376d b63e f093 bb3d eeff b4be c25c c03e
00000150: 7e63 263d bb0d 6c3d 8902 08be b33a 6dbe
00000160: 2954 15bf 8c3b 873d 7cb2 083f 77b4 c53c
00000170: 82eb 9bbe 7dce 783e 1892 08bd a283 c23d

onnx::Conv_282 f4 [12]
-0.32788497 0.6822498 0.8399321 0.8676419 0.28270945 0.43965167 0.40492785 0.53394634
0.37569955 -0.7428451 0.5056888 -0.4324816
00000000: 8ae0 a7be eca7 2e3f ca05 573f c81d 5e3f
00000010: 4bbf 903e 061a e13e b452 cf3e b5b0 083f
00000020: b15b c03e 192b 3ebf d274 013f 3a6e ddbe

onnx::Conv_284 f4 [12, 1, 3, 3]
-0.15930957 -0.20492642 -0.050337296 -0.33619222 -0.55165154 -0.20412445 -0.14620188 -0.14648141
-0.10636537 -0.0069257803 -0.7524829 -0.313898 0.1989797 -0.31753504 -0.08184419 0.40910727
0.3898829 0.48387495 0.7045033 0.90603805 0.37459818 0.7420878 -0.42024854 -0.92794704
-0.084592946 -0.8702619 -2.1375158 0.15940377 0.3375887 0.117929816 0.08325488 0.23108082
0.04627361 -0.1540966 -0.12819633 -0.15270343 0.2639649 0.50102687 0.11310569 0.097063735
0.16217163 -0.0057974313 -0.10263944 -0.12895912 -0.35107824 -0.07346029 0.4973182 0.3288881
-0.37154824 -0.6121048 0.06730292 -0.22601101 -0.20193629 0.029252058 -0.05017854 0.099075116
0.049394805 -0.12383481 0.58545285 0.4813043 -0.26969442 -0.3968438 -0.20673467 -0.16442564
-0.7783419 -0.561756 0.059388995 -0.45358077 -0.46134454 0.19484785 0.24539378 0.24644594
0.023464916 0.19611971 0.122175515 0.010240017 0.15768158 0.20818917 -0.022036532 0.14738382
0.19818099 54.655632 203.4422 48.10209 28.850061 254.72679 78.8904 34.758396
7.0978665 3.7210593 0.02633933 -0.2708667 -0.64900124 0.5246192 0.12655258 -0.35639957
0.4237314 0.27378854 -0.18737027 0.29132897 0.64281654 0.46295306 0.3639663 0.21001762
0.08321135 0.14048606 -0.20878138 -0.38430884
00000000: 0c22 23be 3bd8 51be 7b2e 4ebd 6321 acbe
00000010: 0939 0dbf 0006 51be f2b5 15be 39ff 15be
00000020: 16d6 d9bd a8f1 e2bb b8a2 40bf 3db7 a0be
00000030: 56c1 4b3e f493 a2be ed9d a7bd 8276 d13e
00000040: bb9e c73e 75be f73e 545a 343f 1cf2 673f
00000050: 55cb bf3e 77f9 3d3f d12a d7be f08d 6dbf
00000060: 113f adbd 7cc9 5ebf 0fcd 08c0 be3a 233e
00000070: 6dd8 ac3e 3085 f13d 8981 aa3d 73a0 6c3e
00000080: 6689 3d3d 80cb 1dbe e645 03be 4a5e 1cbe
00000090: 6826 873e 4c43 003f f5a3 e73d 5ac9 c63d
000000a0: 5210 263e 61f8 bdbb a034 d2bd dc0d 04be
000000b0: 87c0 b3be 5972 96bd 7ea0 fe3e 0564 a83e
000000c0: 923b bebe e6b2 1cbf 1dd6 893d 6e6f 67be
000000d0: 63c8 4ebe 03a2 ef3c 0388 4dbd e5e7 ca3d
000000e0: 3552 4a3d 1b9d fdbd 3de0 153f 846d f63e
000000f0: 6315 8abe 1c2f cbbe 41b2 53be 325f 28be
00000100: 6a41 47bf 3ecf 0fbf e041 733d bd3b e8be
00000110: 5a35 ecbe 3286 473e 8248 7b3e 535c 7c3e
00000120: 7f39 c03c 9bd3 483e 2837 fa3d bfc5 273c
00000130: 4877 213e 8b2f 553e f585 b4bc c9eb 163e
00000140: f5ef 4a3e 5e9f 5a42 3471 4b43 8a68 4042
00000150: edcc e641 0fba 7e43 e3c7 9d42 9908 0b42
00000160: b921 e340 d625 6e40 94c5 d73c 0aaf 8abe
00000170: f224 26bf 724d 063f 0097 013e 017a b6be
00000180: 52f3 d83e 032e 8c3e fedd 3fbe 1229 953e
00000190: a08f 243f 2f08 ed3e ca59 ba3e dc0e 573e
000001a0: b66a aa3d 94db 0f3e c9ca 55be 21c4 c4be

onnx::Conv_285 f4 [12]
0.3681004 0.023607567 1.6746546 -0.45417815 -0.30286965 0.2960666 -0.10298473 1.2649479
-0.62290174 -0.041427772 0.058273457 -0.29908636
00000000: a877 bc3e a864 c13c 155b d63f 0a8a e8be
00000010: bb11 9bbe 0b96 973e a8e9 d2bd d0e9 a13f
00000020: 7d76 1fbf 2bb0 29bd 26b0 6e3d d921 99be

onnx::Conv_287 f4 [16, 12, 1, 1]
0.20420876 0.011798363 0.106855586 -0.0512115 0.040615678 0.41508603 -1.1234558 0.110990584
-0.33384722 -0.06510505 0.091964 -0.004772174 -0.4090239 -0.022853876 0.29406255 -0.2678538
-0.18945058 0.016436186 0.28067052 -0.32421726 0.61135626 0.16873077 0.1661892 0.38044956
-0.34133807 -0.157742 -0.09508215 0.4015854 -0.00071100454 0.87022686 0.26090312 0.23560603
0.013806588 0.14751604 -0.1721468 0.31854063 0.1457838 0.042275406 0.50396174 -0.34753254
0.1493329 -0.18595904 0.064449206 -0.48880285 0.07200412 -0.31991813 -0.046962917 -0.24959293
-0.21912327 0.119642735 0.032341234 0.23593481 0.39959493 -0.38362253 -0.19107102 -0.113043174
0.09483943 0.25425017 -0.37607604 -0.2613299 0.3793398 -0.28723347 0.5355093 0.06540426
0.24204448 0.26605445 0.14239754 -0.31209543 0.162053 -0.044832338 -0.7693245 0.29090065
0.21997453 0.14410795 -0.8017645 0.19784157 -0.5162491 -0.15927513 -0.36304948 0.9807229
-0.70325786 -0.13082431 0.06365054 -0.92084897 -0.02804373 0.71824527 -1.0111716 -0.12459598
0.34501538 -0.7242629 -0.45962802 0.89972436 0.113986745 -0.055853125 0.026062485 0.22925766
0.3408323 0.10264242 -0.5028485 -0.28890723 0.5137302 0.2659209 -0.18448149 -0.10544881
0.20200674 -0.1559725 -0.07961152 -0.28213692 0.031284027 -0.0102513125 0.41868484 -0.21587
0.06402201 -0.7868658 0.30332753 -0.08284146 -0.6994472 0.21269965 -0.16762322 0.42147037
0.40043706 0.32912758 0.30229205 -0.4487815 -0.3967695 0.1498006 -0.123619 -0.097460106
0.10713759 -0.29673666 0.083401754 -0.12164544 0.15259081 0.3048408 0.078245275 -0.25888047
-0.23830017 0.105189815 -0.17926668 -0.10601654 -1.1397712 -0.14888425 0.16115743 -0.0065406687
-0.11117678 -0.30510738 -0.099044904 0.36198664 0.45194644 0.22253668 0.32208097 -0.47699124
-0.074278444 0.023513395 0.06509445 0.37098768 -0.21549901 -0.30114624 -0.54167664 0.32170016
-0.8870902 0.055675164 0.28800452 0.63450664 -0.1906811 0.06623625 0.012932258 0.1023293
0.1423938 0.37867528 -0.26313138 -0.14497629 0.06935884 -0.19924432 -0.15321818 -0.5414572
0.092013344 -0.30753377 0.110958666 -0.07316918 -0.58474153 -0.40058628 -0.31333363 0.53635806
0.4300129 0.19338195 -0.017009187 0.08977035 0.1420034 0.35213605 0.7878712 -0.11481546
00000000: 1a1c 513e ec4d 413c 1ad7 da3d 26c3 51bd
00000010: a05c 263d 2886 d43e 66cd 8fbf 084f e33d
00000020: 06ee aabe cc55 85bd 9f57 bc3d e65f 9cbb
00000030: 956b d1be 0d38 bbbc 5e8f 963e 2224 89be
00000040: 55ff 41be 2ea5 863c 0cb4 8f3e ceff a5be
00000050: d881 1c3f c2c7 2c3e 802d 2a3e 49ca c23e
00000060: ddc3 aebe 1e87 21be 6eba c2bd 9a9c cd3e
00000070: b562 3aba 30c7 5e3f 1895 853e b542 713e
00000080: 0735 623c 720e 173e 4047 30be c217 a33e
00000090: 5948 153e fa28 2d3d a303 013f c9ef b1be
000000a0: b9ea 183e 0c6c 3ebe f2fd 833d 5e44 fabe
000000b0: e576 933d 4fcc a3be 305c 40bd 4a95 7fbe
000000c0: da61 60be 4007 f53d 3e78 043d e598 713e
000000d0: b597 cc3e 2c6a c4be 1fa8 43be 2e83 e7bd
000000e0: 2d3b c23d 142d 823e 0a8d c0be 08cd 85be
000000f0: d438 c23e 4410 93be 2317 093f abf2 853d
00000100: 82da 773e 4a38 883e a9d0 113e f9ca 9fbe
00000110: 39f1 253e 1da2 37bd 73f2 44bf eef0 943e
00000120: 0141 613e 0991 133e 7040 4dbf fb96 4a3e
00000130: e728 04bf 0519 23be 9fe1 b9be a810 7b3f
00000140: b508 34bf cff6 05be 375b 823d c2bc 6bbf
00000150: f7bb e5bc ecde 373f 126e 81bf 2d2c ffbd
00000160: dba5 b03e 4b69 39bf 5d54 ebbe 5654 663f
00000170: e271 e93d 3fc6 64bd fe80 d53c 85c2 6a3e
00000180: 9281 ae3e 3036 d23d aeba 00bf a6eb 93be
00000190: d383 033f c926 883e b7e8 3cbe 8cf5 d7bd
000001a0: dbda 4e3e 41b7 1fbe 5d0b a3bd 4074 90be
000001b0: ae23 003d 1ff5 27bc dc5d d63e 060d 5dbe
000001c0: f91d 833d 0970 49bf bf4d 9b3e c9a8 a9bd
000001d0: f90e 33bf f0cd 593e 6ca5 2bbe f7ca d73e
000001e0: 1606 cd3e 6983 a83e 06c6 9a3e b0c6 e5be
000001f0: 5f25 cbbe 5465 193e f52b fdbd 2a99 c7bd
00000200: f46a db3d deed 97be 8ace aa3d 3f21 f9bd
00000210: c440 1c3e 1814 9c3e 0f3f a03d fb8b 84be
00000220: f604 74be c26d d73d af91 37be 331f d9bd
00000230: 06e4 91bf 1d75 18be 7406 253e 1b53 d6bb
00000240: a7b0 e3bd 0937 9cbe 0ed8 cabd 5056 b93e
00000250: 8665 e73e a8e0 633e cce7 a43e 3238 f4be
00000260: 4c1f 98bd 2a9f c03c 3d50 853d 19f2 bd3e
00000270: c6ab 5cbe d72f 9abe 52ab 0abf e2b5 a43e
00000280: 5818 63bf a40b 643d 5475 933e 076f 223f
00000290: e841 43be dfa6 873d d2e1 533c 0692 d13d
000002a0: aecf 113e bae1 c13e 28b9 86be aa74 14be
000002b0: 020c 8e3d b406 4cbe 3ae5 1cbe f09c 0abf
000002c0: 7e71 bc3d 1175 9dbe 4c3e e33d b9d9 95bd
000002d0: 9fb1 15bf a519 cdbe 446d a0be c34e 093f
000002e0: a72a dc3e eb05 463e da56 8bbc 84d9 b73d
000002f0: 5769 113e 2d4b b43e edb1 493f 5e24 ebbd

onnx::Conv_288 f4 [16]
-0.3337772 0.4381638 0.074757755 0.44734234 0.1897223 0.13873404 0.21533711 0.13239828
0.6806031 0.039600838 0.29192823 0.3110743 -0.6891972 -0.27801463 0.88485074 0.08471842
00000000: d8e4 aabe 0157 e03e 981a 993d 0e0a e53e
00000010: 9046 423e 4c10 0e3e 5581 5c3e 6a93 073e
00000020: 013c 2e3f 7d34 223d 9e77 953e 2145 9f3e
00000030: 3a6f 30bf ef57 8ebe 9485 623f da80 ad3d

onnx::Conv_290 f4 [32, 16, 1, 1]
-0.37026444 0.106783606 -0.019140065 -0.03440964 -0.04303783 -0.11909578 -0.014048939 0.17684262
0.09731107 -0.033273295 -0.11375593 -0.08885782 0.013807649 0.124682955 0.06579925 0.23954892
0.036211565 -0.006543787 0.02339567 -0.054174375 -0.051570702 0.031216403 -0.20207502 -0.14872725
0.09319322 -0.09454854 -0.090398036 0.01290017 0.16217458 -0.2776342 0.030580962 -0.06929238
0.22417563 -0.22250578 -0.029947013 -0.51853174 -0.24829912 -0.3448679 0.32696348 -0.12461612
-0.02642634 -0.6488054 -0.12707381 -0.0072540957 -0.5556222 0.17539933 0.08494801 -0.038958628
0.017762907 -0.4144152 0.037232734 -0.0726679 -0.042842116 0.028606735 0.49476853 0.71462667
0.4351994 0.06974675 -0.612524 -0.22829789 0.11429859 0.15717818 -0.2301915 0.30510968
0.4411243 0.09868967 0.4843336 -0.56463885 0.33385456 -0.040544737 -0.3535846 -0.36055344
-0.9410604 0.31645223 -0.11019495 0.020614987 -0.5382337 0.041225605 -0.7859421 0.3845101
0.112567335 0.12859467 -0.019728966 -0.20806137 0.025976667 0.14121416 0.18454213 0.06565511
-0.043240517 -0.13567556 -0.09454271 -0.08543758 -0.06405647 0.07222907 -0.08667662 0.051219415
-0.3904086 -0.0518245 0.19583894 -0.4938887 0.1743791 -0.38679639 0.1309193 -0.08293323
0.002901581 -0.33011457 -0.5090196 0.30170795 -0.21126808 0.039661124 -0.09583439 0.3142533
-0.176999 -0.072505414 -0.39163315 0.20416082 0.15649061 0.048478283 -0.29246458 -0.3578658
-0.15803409 0.12130367 -0.28330323 -0.0043219314 0.037196644 -0.21380244 -0.113752976 -0.22938496
0.20235799 -0.83244413 -0.008933944 -0.45785978 0.03384237 -0.03137574 0.59625465 0.011098284
-0.30457342 0.54204434 0.09578971 0.36886027 -0.095329136 0.8893041 -0.5118178 0.09764905
0.055493478 -0.1882363 0.11162539 -0.020821374 0.1377829 0.3444383 -0.028555758 0.17505765
0.78255945 0.0056745424 -0.5385069 -0.045122188 0.6811523 0.080288924 0.17624038 0.13214539
0.020300552 -0.3058246 -0.15172067 -0.038603835 -0.15535367 -0.024821693 0.035798512 0.025107533
0.12656285 -0.21212 0.03631721 0.077301756 -0.0030637172 -0.044126708 -0.011991647 -0.08304774
-0.08604491 -0.519182 -0.42076385 -0.20541199 0.47487184 0.8854353 0.27200046 0.236683
-0.10949863 0.21578759 -0.04292182 0.011544076 -0.3139436 1.1214757 -0.13353689 -0.18322195
0.19167694 -0.17131886 -0.022607924 -0.28072676 0.07923328 -0.3381214 0.42919993 0.11646163
0.012106932 -0.30102634 0.042827055 0.04919573 -0.09832725 0.16567425 0.11529966 -0.1496506
0.15187536 0.030210223 0.29623199 -0.09868731 0.22512853 -0.025373606 -0.053736363 0.028106146
-0.14238611 0.08004875 0.04638201 0.12901497 -0.083379515 0.2180879 0.080521114 0.17222498
0.27488485 0.11008449 0.051433668 0.2641326 0.11013084 0.9188368 -0.17009655 -0.08509287
-0.6397754 0.2834414 0.3444023 0.3198369 0.10463562 0.23268552 -0.04023308 -0.33045587
0.74799055 -0.022211311 -0.2650168 -0.58860874 -0.010797181 -0.6131465 0.30863908 0.81102204
0.19573803 -0.49864656 -0.5486692 0.29634157 0.15291324 -0.5164325 0.13509968 0.65162563
00000000: 4d93 bdbe 5db1 da3d a0cb 9cbc 1ff1 0cbd
00000010: 7048 30bd 7de8 f3bd 852d 66bc 3b16 353e
00000020: 074b c73d 9449 08bd def8 e8bd 17fb b5bd
00000030: 7a39 623c c759 ff3d c2c1 863d 504c 753e
00000040: 9452 143d 446d d6bb 47a8 bf3c f3e5 5dbd
00000050: cd3b 53bd 8bb9 ff3c c1ec 4ebe f54b 18be
00000060: 16dc be3d aaa2 c1bd 9b22 b9bd 3c5b 533c
00000070: 1811 263e 1226 8ebe ed84 fa3c 2ae9 8dbd
00000080: 4c8e 653e 8ed8 63be 7053 f5bc 7fbe 04bf
00000090: 2042 7ebe 8692 b0be c267 a73e bc36 ffbd
000000a0: 0d7c d8bc 1c18 26bf a31f 02be c4b3 edbb
000000b0: 423d 0ebf e29b 333e 39f9 ad3d 1593 1fbd
000000c0: 8483 913c 3b2e d4be 5a81 183d e8d2 94bd
000000d0: 377b 2fbd ac58 ea3c 4d52 fd3e c6f1 363f
000000e0: 75d2 de3e 62d7 8e3d 5fce 1cbf ecc6 69be
000000f0: 6115 ea3d 51f3 203e 52b7 6bbe 5637 9c3e
00000100: 0bdb e13e cf1d ca3d 93fa f73e 2c8c 10bf
00000110: fcee aa3e 3d12 26bd 0a09 b5be 769a b8be
00000120: 56e9 70bf 0706 a23e e4ad e1bd c3e0 a83c
00000130: afc9 09bf 2edc 283d 8033 49bf 82de c43e
00000140: b489 e63d 52ae 033e a49e a1bc 0a0e 55be
00000150: 05cd d43c 729a 103e 9df8 3c3e 3076 863d
00000160: f81c 31bd 89ee 0abe 9c9f c1bd e6f9 aebd
00000170: 0a30 83bd d6ec 933d 8383 b1bd 73cb 513d
00000180: a3e3 c7be ed45 54bd 018a 483e fbde fcbe
00000190: 6f90 323e 2d0a c6be b50f 063e e6d8 a9bd
000001a0: 7428 3e3b c704 a9be 1c4f 02bf 7779 9a3e
000001b0: a956 58be b473 223d d244 c4bd cfe5 a03e
000001c0: 3a3f 35be b87d 94bd 2484 c8be 890f 513e
000001d0: 133f 203e 2a91 463d ebbd 95be 303a b7be
000001e0: b0d3 21be 0f6e f83d 1f0d 91be fd9e 8dbb
000001f0: 825b 183d 07ef 5abe 52f7 e8bd e4e3 6abe
00000200: ef36 4f3e 0f1b 55bf ad5f 12bc 996c eabe
00000210: 4c9e 0a3d d983 00bd 25a4 183f 94d5 353c
00000220: 0cf1 9bbe 6bc3 0a3f 652d c43d 41db bc3e
00000230: ec3b c3bd 6fa9 633f 7e06 03bf 3afc c73d
00000240: 214d 633d 04c1 40be da9b e43d 9691 aabc
00000250: f616 0d3e 385a b03e c4ed e9bc 5042 333e
00000260: d155 483f 83f1 b93b 97db 09bf 0bd2 38bd
00000270: ff5f 2e3f 856e a43d 5c78 343e 1f51 073e
00000280: 584d a63c 0b95 9cbe aa5c 1bbe 0e1f 1ebd
00000290: 0815 1fbe dd56 cbbc 76a1 123d 50ae cd3c
000002a0: b199 013e fc35 59be 5bc1 143d 6250 9e3d
000002b0: a5c8 48bb 35be 34bd 9d78 44bc ef14 aabd
000002c0: 5038 b0bd 1de9 04bf 5c6e d7be 8557 52be
000002d0: 6722 f33e e3ab 623f a543 8b3e 075d 723e
000002e0: d140 e0bd 6cf7 5c3e cace 2fbd 5d23 3d3c
000002f0: 37bd a0be 848c 8f3f e5bd 08be 899e 3bbe
00000300: f646 443e 366e 2fbe 4134 b9bc 6bbb 8fbe
00000310: 0f45 a23d 401e adbe 18c0 db3e 6f83 ee3d
00000320: 275c 463c 2020 9abe 6c6b 2f3d 7681 493d
00000330: cc5f c9bd 83a6 293e 3a22 ec3d 023e 19be
00000340: 3785 1b3e 6e7b f73c b8ab 973e 931c cabd
00000350: 1888 663e 4fdc cfbc a91a 5cbd dc3e e63c
00000360: aacd 11be 99f0 a33d 10fb 3d3d 801c 043e
00000370: e1c2 aabd 6f52 5f3e 41e8 a43d bf5b 303e
00000380: b5bd 8c3e fa73 e13d 1cac 523d 633c 873e
00000390: 478c e13d e338 6b3f ca2d 2ebe 2c45 aebd
000003a0: 52c8 23bf 3b1f 913e 8055 b03e aac1 a33e
000003b0: 334b d63d 1d45 6e3e 71cb 24bd 8331 a9be
000003c0: 4f7c 3f3f 7ff4 b5bc 48b0 87be 10af 16bf
000003d0: a9e6 30bc 2bf7 1cbf f105 9e3e 249f 4f3f
000003e0: 8d6f 483e 9a4e ffbe 9675 0cbf 15ba 973e
000003f0: 4a95 1c3e ec34 04bf 9257 0a3e f0d0 263f

onnx::Conv_291 f4 [32]
0.51119643 1.1340876 1.0726914 -0.6712413 1.880043 0.81988513 0.86511225 1.2318497
0.21910745 -0.8048893 0.8497862 -0.5024445 0.2567983 -1.1480459 -0.24427104 -0.015382528
-0.56359094 -1.3924161 1.0556347 1.2730525 -0.29071176 -0.045592934 0.8768548 0.11969343
-0.9497941 -0.5859602 -1.0888137 -0.7420181 -0.6726785 -0.5027865 0.5178146 1.2773256
00000000: c5dd 023f c829 913f f44d 893f 78d6 2bbf
00000010: 40a5 f03f fee3 513f ff77 5d3f 40ad 9d3f
00000020: b45d 603e 3a0d 4ebf 978b 593f 34a0 00bf
00000030: 117b 833e 2bf3 92bf 3022 7abe 0007 7cbc
00000040: 7f47 10bf b13a b2bf 0a1f 873f 62f3 a23f
00000050: 2cd8 94be a8bf 3abd 8e79 603f d421 f53d
00000060: b525 73bf 7d01 16bf 3f5e 8bbf e6f4 3dbf
00000070: a834 2cbf 9eb6 00bf 7f8f 043f 687f a33f

onnx::Conv_293 f4 [32, 1, 3, 3]
0.0077542467 -0.10289193 -1.515931 0.5053742 1.0831488 -0.4183831 0.35879108 0.79374075
-0.7231518 -0.94116724 -0.49002334 0.29664695 -0.5568589 -2.4235308 -1.1446753 0.6192715
1.5971498 0.3281005 0.49055454 -0.4693416 -0.71710825 0.6424771 0.5863324 0.10833246
0.11381341 -0.04610064 -0.3383802 0.31620875 0.3187121 0.10866163 0.10983967 0.23982768
0.15861595 0.33601552 -0.06465598 -0.16339616 0.09051301 -0.11875042 -0.05797714 0.2547624
-0.08300721 -0.28875294 0.55766225 0.5040984 -0.10551609 1.4846755 -0.8242911 -1.4756439
1.9700786 1.5536479 -1.7606518 -0.29957655 0.43014845 -0.3787466 0.21641028 -0.123303
-0.37407845 0.41773215 -0.7317013 -0.92303854 0.3752789 -0.45173225 -0.51647705 0.1817361
0.20110448 -0.59249884 -0.05901051 -0.47011414 -1.5305762 0.8740221 1.4347697 -0.15522894
-0.11890024 -0.18894807 0.11152585 -0.18841901 -0.17550015 -0.03576281 -0.061782278 -0.26345745
-0.2777996 -0.18300213 -0.34347135 -0.4221692 0.34680852 0.56434083 -0.24083966 0.4180454
0.50679284 0.27411833 -0.59293026 -0.44147718 -0.41074234 0.43683708 0.2614406 0.1385342
0.15092514 0.22041962 -0.12050048 -0.41866 -0.13057022 0.15053932 -0.14510025 -0.2484344
0.5013514 0.40264937 -0.082674384 0.1983938 -0.87972045 -0.5525596 -0.24491644 -0.018256513
0.90252656 1.1200825 -0.34550652 0.083634004 0.31524876 0.21152231 0.09679759 0.2998799
-0.029430315 1.019372 0.43910453 -1.6653713 -0.9436046 -1.2564807 -0.51591647 -0.32680935
-0.34787998 0.10382307 0.30599985 0.018706122 0.29119998 0.29207513 0.035890095 0.16800933
0.45092952 0.36643285 -0.39209455 -0.22883998 0.33723745 -0.091681495 -0.32928824 0.18823977
-0.5311657 0.1228211 -0.20977862 -0.33798504 0.1628996 0.073606804 0.044357274 0.31949645
0.13819127 -0.33128 -0.59307265 -0.10581081 0.29305407 0.2925075 -0.37721878 -0.5847322
1.0009868 0.25818053 0.447249 -0.40666458 -0.025255816 1.6314355 0.54407066 0.1556859
-0.05981631 -1.074738 -1.1664746 0.09251171 -0.0010127781 0.44567105 -0.7345264 -1.2985754
-0.45848116 0.28083426 0.3684493 0.05759226 -0.06884549 -0.6500959 -1.2294948 0.29841778
-0.14964281 -0.940799 1.1087021 1.5996178 0.023555903 0.28891778 0.49525145 0.051091302
-0.16753606 0.20861681 -0.49826846 -0.47166896 -0.016370103 -0.3286221 -0.54920727 0.053159732
-0.07412542 0.10011611 0.59108245 -0.15290084 -0.67506576 0.3400091 -0.20752206 -0.24718238
-0.4007177 0.07402266 -0.21178462 -0.5751733 -0.36763516 0.3694378 0.6786208 0.74625385
0.03127291 0.18317597 0.43625104 0.05974782 0.2697705 0.33684835 -0.16903968 -0.05051067
0.0043148086 -0.2820754 1.0383668 0.06482487 0.19050305 0.73957604 0.04113474 -0.2681801
0.030746607 -0.18484533 0.31295717 -0.1947474 -0.11942316 0.4763567 0.17265221 -0.097394064
-0.15040937 -0.4416233 0.17384131 -0.6570495 1.2609917 -1.3735187 -0.24055655 0.25799552
0.006890681 -0.44217774 -0.8207021 0.275113 0.051427417 -0.0819568 -0.11231887 -0.0031470591
00000000: 5617 fe3b 01b9 d2bd 070a c2bf 3460 013f
00000010: 9fa4 8a3f 4f36 d6be 77b3 b73e 9832 4b3f
00000020: 7a20 39bf 56f0 70bf 57e4 fabe 1ce2 973e
00000030: 4e8e 0ebf 211b 1bc0 b884 92bf 9488 1e3f
00000040: 686f cc3f cafc a73e f729 fb3e 8b4d f0be
00000050: 6894 37bf 6179 243f e119 163f 69dd dd3d
00000060: 0117 e93d 06d4 3cbd 2b40 adbe 1de6 a13e
00000070: 3b2e a33e fd89 de3d 9ff3 e03d 6395 753e
00000080: 386c 223e 3a0a ac3e 5b6a 84bd 5351 27be
00000090: e35e b93d 6c33 f3bd 7079 6dbd 3870 823e
000000a0: afff a9bd 6dd7 93be f4c2 0e3f 980c 013f
000000b0: d218 d8bd d909 be3f be04 53bf e6e1 bcbf
000000c0: 892b fc3f efdd c63f 0a5d e1bf 1962 99be
000000d0: 6b3c dc3e 13eb c1be a89a 5d3e 4986 fcbd
000000e0: 3687 bfbe fde0 d53e c750 3bbf 414c 6cbf
000000f0: 8e24 c03e 7349 e7be d737 04bf 0719 3a3e
00000100: 55ee 4d3e 01ae 17bf 01b5 71bd cdb2 f0be
00000110: ece9 c3bf eabf 5f3f 89a6 b73f 56f4 1ebe
00000120: f881 f3bd 9a7b 41be aa67 e43d eaf0 40be
00000130: 50b6 33be 067c 12bd 6a0f 7dbd e5e3 86be
00000140: c03b 8ebe e964 3bbe 7adb afbe 9026 d8be
00000150: e390 b13e a478 103f ac9e 76be 0c0a d63e
00000160: 2dbd 013f 3d59 8c3e 47ca 17bf 4c09 e2be
00000170: d24c d2be 1ca9 df3e 8bdb 853e e9db 0d3e
00000180: 1f8c 1a3e aeb5 613e f5c8 f6bd 9b5a d6be
00000190: 33b4 05be fb26 1a3e 2995 14be 9665 7ebe
000001a0: 9158 003f 0f28 ce3e 3051 a9bd bf27 4b3e
000001b0: 5c35 61bf 8c74 0dbf 60cb 7abe af8e 95bc
000001c0: fb0b 673f dd5e 8f3f 3be6 b0be 4e48 ab3d
000001d0: 4968 a13e 4e99 583e d13d c63d dc89 993e
000001e0: d817 f1bc c87a 823f 4fd2 e03e e32a d5bf
000001f0: 1290 71bf 5cd4 a0bf 1a13 04bf 8e53 a7be
00000200: 531d b2be 31a1 d43d 03ac 9c3e 953d 993c
00000210: 2a18 953e df8a 953e 7e01 133d a30a 2c3e
00000220: 3ce0 e63e 169d bb3e 9ec0 c8be 0755 6abe
00000230: 63aa ac3e 82c3 bbbd 7898 a8be edc1 403e
00000240: 7afa 07bf a189 fb3d 35d0 56be 600c adbe
00000250: 27cf 263e 2abf 963d f9af 353d 0a95 a33e
00000260: 0382 0d3e 889d a9be 9cd3 17bf 57b3 d8bd
00000270: 2f0b 963e 8bc3 953e d222 c1be 02b1 15bf
00000280: 5620 803f 3d30 843e d2fd e43e 5736 d0be
00000290: 49e5 cebc e1d2 d03f 3748 0b3f 206c 1f3e
000002a0: f201 75bd 0491 89bf 0a4f 95bf c876 bd3d
000002b0: 32bf 84ba ff2e e43e ec09 3cbf b837 a6bf
000002c0: 0bbe eabe 82c9 8f3e 63a5 bc3e dde5 6b3d
000002d0: ddfe 8cbd af6c 26bf 1660 9dbf 37ca 983e
000002e0: f73b 19be 34d8 70bf f3e9 8d3f 47c0 cc3f
000002f0: 4ff8 c03c 08ed 933e 9991 fd3e 1d45 513d
00000300: 938e 2bbe a59f 553e 0b1d ffbe 987e f1be
00000310: 981a 86bc 2841 a8be d998 0cbf 05be 593d
00000320: 11cf 97bd ad09 cd3d 2e51 173f 0a92 1cbe
00000330: 1cd1 2cbf ac15 ae3e aa80 54be 611d 7dbe
00000340: df2a cdbe 3199 973d 11de 58be 8f3e 13bf
00000350: ad3a bcbe f426 bd3e 18ba 2d3f 7e0a 3f3f
00000360: 0618 003d 7b92 3b3e 4c5c df3e 21ba 743d
00000370: 5c1f 8a3e 6377 ac3e bd18 2dbe 47e4 4ebd
00000380: 3d63 8d3b 306c 90be 34e9 843f e7c2 843d
00000390: 3b13 433e db54 3d3f e77c 283d e74e 89be
000003a0: 4fe0 fb3c 1848 3dbe ec3b a03e dd6b 47be
000003b0: 2194 f4bd 06e5 f33e becb 303e 8a76 c7bd
000003c0: ea04 1abe 731c e2be 7503 323e 6534 28bf
000003d0: 2d68 a13f 76cf afbf 7554 76be fd17 843e
000003e0: 39cb e13b 1f65 e2be 8819 52bf 9cdb 8c3e
000003f0: 8ea5 523d f7d8 a7bd 7007 e6bd e43e 4ebb

onnx::Conv_294 f4 [32]
0.023543626 1.8154631 -0.5112019 -0.50434405 0.022702038 -0.6111214 0.9710214 -0.1822533
1.3378168 -0.5702658 -0.27263647 -0.30366516 -0.29957402 -0.13128379 -0.01502113 -0.34556353
-0.12684613 -0.04829931 -0.0529167 0.693404 -0.040796723 0.15807244 -0.18279529 -0.10556473
0.06722814 -0.5276369 -0.44830936 -0.082356125 -0.19485182 1.946918 -0.30767938 0.96390927
00000000: 90de c03c 1861 e83f 21de 02bf b11c 01bf
00000010: a0f9 b93c 7472 1cbf dc94 783f 9ca0 3abe
00000020: 953d ab3f f1fc 11bf 0297 8bbe 007a 9bbe
00000030: c461 99be 426f 06be 301b 76bc b4ed b0be
00000040: f4e3 01be 7fd5 45bd 2ebf 58bd ed82 313f
00000050: 771a 27bd bedd 213e b02e 3bbe 5232 d8bd
00000060: e8ae 893d 3613 07bf ce88 e5be 54aa a8bd
00000070: 3c87 47be 9c34 f93f 2788 9dbe c2c2 763f
