model_checkpoints/experiments/fastscnn_a0.125t2r1pp0.pt (torch, 65539 bytes, 106 tensors)

learning_to_down_sample.conv.conv.weight f4 [4, 3, 3, 3]
-0.12867923 -0.49774158 -0.8920166 0.09438772 -0.16408007 -0.34995455 0.01355221 -0.13925308
-0.5083971 -0.4511284 -0.6967505 -0.1635329 -0.40686396 -0.75434494 -0.3711685 -0.84505916
-1.0000172 -1.0609847 -0.0146598555 0.09744997 -0.15298003 0.21210429 0.33368433 0.26321074
0.14832513 0.21416588 -0.04211938 0.20084162 -0.1248217 0.033663623 -0.34451064 0.1001044
0.6168495 -0.6481214 -0.12702207 0.9769499 -0.37345138 -0.37266257 0.06698006 -0.5905937
-0.20422359 1.3541924 -0.8378705 -0.22290564 1.6554974 0.045686625 -0.2651697 -0.10797257
-0.22313651 -0.18792832 0.64922255 -0.8670393 -0.41639683 0.9987925 0.20448698 -0.64093167
-0.3216554 -0.003613709 -0.7905379 -0.40972131 -0.09659436 -0.28942248 -0.10028628 -0.057021577
-0.41975996 -0.16173385 0.64429575 0.28039998 0.2665694 0.8002131 1.167026 1.1083428
0.04479193 -0.43525788 0.03192535 -0.014018021 -0.3366059 -0.029367862 -0.12572426 0.044665385
0.28449765 -0.4801953 -0.6305179 -0.41708156 0.07519418 -0.037995875 -0.19081162 -0.22261797
-0.1501607 -0.119681135 -0.42737645 -0.55988204 -0.21607472 -0.6502234 -0.4397911 0.09698506
-1.1523584 -0.8859764 -0.3807147 -0.0013096937 0.03896414 0.050506413 0.5321035 0.5526654
0.45567662 0.18216766 0.28306726 0.26691425
00000000: 7dc4 03be fcd7 febe 335b 64bf 594e c13d
00000010: 9b04 28be 3e2d b3be 170a 5e3c 5c98 0ebe
00000020: 5026 02bf 4dfa e6be 3e5e 32bf 2b75 27be
00000030: 7950 d0be c01c 41bf cc09 bebe cc55 58bf
00000040: 9000 80bf 59ce 87bf e42f 70bc da93 c73d
00000050: cca6 1cbe de31 593e acd8 aa3e 8fc3 863e
00000060: 8be2 173e 4d4e 5b3e 5f85 2cbd 6da9 4d3e
00000070: 85a2 ffbd dee2 093d b363 b0be 8903 cd3d
00000080: d9e9 1d3f 49eb 25bf 1312 02be 6319 7a3f
00000090: 0535 bfbe a1cd bebe d72c 893d 2631 17bf
000000a0: fd1f 51be 2d56 ad3f ae7e 56bf 6041 64be
000000b0: 57e7 d33f e621 3b3d 53c4 87be b920 ddbd
000000c0: e67d 64be 4870 40be 7333 263f 4af6 5dbf
000000d0: f731 d5be deb0 7f3f 0965 513e 1914 24bf
000000e0: 04b0 a4be fad3 6cbb b160 4abf fec6 d1be
000000f0: 44d3 c5bd 2f2f 94be e562 cdbd 758f 69bd
00000100: c7ea d6be 8f9d 25be 91f0 243f 9690 8f3e
00000110: c97b 883e c4da 4c3f 1c61 953f 2dde 8d3f
00000120: be77 373d 1fda debe 28c4 023d d7ab 65bc
00000130: 9c57 acbe df94 f0bc dcbd 00be 0df3 363d
00000140: ada9 913e 29dc f5be 9f69 21bf b78b d5be
00000150: 68ff 993d 90a1 1bbd 1f64 43be f7f5 63be
00000160: bac3 19be 621b f5bd 16d1 dabe 6e54 0fbf
00000170: b142 5dbe 0a75 26bf 4d2c e1be 1aa0 c63d
00000180: 7b80 93bf 59cf 62bf 0aed c2be 07aa abba
00000190: dd98 1f3d d0df 4e3d ef37 083f 7b7b 0d3f
000001a0: 724e e93e 298a 3a3e 31ee 903e fca8 883e

learning_to_down_sample.conv.bn.weight f4 [4]
1.8895141 1.8490435 0.891823 0.22665331
00000000: 99db f13f 75ad ec3f 834e 643f ce17 683e

learning_to_down_sample.conv.bn.bias f4 [4]
0.045155406 0.17564036 -0.6839271 1.1495812
00000000: e0f4 383d 11db 333e d915 2fbf 7a25 933f

learning_to_down_sample.conv.bn.running_mean f4 [4]
-1.6213957 -0.026428346 0.6019164 -0.11289677
00000000: e589 cfbf 4280 d8bc 3117 1a3f 6c36 e7bd

learning_to_down_sample.conv.bn.running_var f4 [4]
25.551561 2.5778913 1.6936803 9.39178
00000000: 9969 cc41 2cfc 2440 84ca d83f bb44 1641

learning_to_down_sample.dsconv1.0.weight f4 [4, 1, 3, 3]
-0.35782722 -0.1783836 -0.26039726 -0.030730283 1.3318161 0.45611516 0.38860628 1.06333
0.047730695 0.3342138 0.5562809 0.39581496 0.31945625 0.6781548 0.43266904 0.5127581
0.7629449 0.37172785 0.0124330195 0.18921542 -0.063483864 -0.6374725 0.43484226 1.0944624
-0.77870995 0.33076787 1.271353 0.681854 0.58774424 0.361534 0.2428055 0.10250555
-0.0629091 0.71612364 0.5256189 0.35089144
00000000: 2135 b7be 31aa 36be ca52 85be 13be fbbc
00000010: f378 aa3f ed87 e93e 67f7 c63e 331b 883f
00000020: 4381 433d 121e ab3e 6d68 0e3f 42a8 ca3e
00000030: c58f a33e 8e9b 2d3f cc86 dd3e 1d44 033f
00000040: 5b50 433f 1d53 be3e ddb3 4b3c b0c1 413e
00000050: d403 82bd 6631 23bf a5a3 de3e 5817 8c3f
00000060: 8959 47bf 685a a93e b2bb a23f fc8d 2e3f
00000070: 6876 163f fc1a b93e 01a2 783e 6eee d13d
00000080: 7cd6 80bd e153 373f f68e 063f 0ba8 b33e

learning_to_down_sample.dsconv1.1.weight f4 [4]
1.0326614 1.396982 0.9338522 1.2927194
00000000: 402e 843f 4ed0 b23f f010 6f3f d477 a53f

learning_to_down_sample.dsconv1.1.bias f4 [4]
-0.0011370084 0.07390545 0.021414382 0.036329366
00000000: ac07 95ba be5b 973d 376d af3c 1ace 143d

learning_to_down_sample.dsconv1.1.running_mean f4 [4]
1.7731177 2.495461 0.22948505 4.0012617
00000000: 85f5 e23f a2b5 1f40 21fe 6a3e 560a 8040

learning_to_down_sample.dsconv1.1.running_var f4 [4]
10.722043 11.939165 1.0588205 0.6036969
00000000: 7d8d 2b41 d206 3f41 6e87 873f e18b 1a3f

learning_to_down_sample.dsconv1.2.weight f4 [6, 4, 1, 1]
-0.19498715 0.04439055 0.19633062 2.1000407 0.43926433 -1.1903291 -1.1603719 0.1797656
-0.68861574 0.7482315 0.2573687 -0.9602954 0.04861425 -0.9342425 0.8606447 0.17949109
0.42675442 -0.8343992 -0.4703165 0.81248623 1.5254613 0.3589767 0.07690631 0.15595347
00000000: b6aa 47be ded2 353d e50a 493e 1167 0640
00000010: 41e7 e03e b45c 98bf 1187 94bf 7914 383e
00000020: 1f49 30bf 198c 3f3f d5c5 833e ebd5 75bf
00000030: bc1f 473d 842a 6fbf 3653 5c3f 83cc 373e
00000040: 8e7f da3e 309b 55bf 53cd f0be 19ff 4f3f
00000050: 5142 c33f cbcb b73e 0e81 9d3d 44b2 1f3e

learning_to_down_sample.dsconv1.3.weight f4 [6]
0.40442577 0.57290506 2.294505 1.2755088 1.1419799 1.4255791
00000000: e510 cf3e e8a9 123f 2bd9 1240 df43 a33f
00000010: 662c 923f 6079 b63f

learning_to_down_sample.dsconv1.3.bias f4 [6]
1.0820587 0.8742337 0.024261814 0.576107 0.72451067 -0.31668326
00000000: e680 8a3f c8cd 5f3f b6c0 c63c c07b 133f
00000010: 8879 393f 4f24 a2be

learning_to_down_sample.dsconv1.3.running_mean f4 [6]
0.08357951 -0.10663695 0.026866931 -0.044196013 -0.042868078 0.031998884
00000000: bc2b ab3d 7964 dabd 0a18 dc3c e106 35bd
00000010: 7096 2fbd 4311 033d

learning_to_down_sample.dsconv1.3.running_var f4 [6]
6.452861 4.3848863 4.954721 2.6205456 3.9213512 3.1026027
00000000: d67d ce40 fd50 8c40 138d 9e40 05b7 2740
00000010: 6bf7 7a40 0b91 4640

learning_to_down_sample.dsconv2.0.weight f4 [6, 1, 3, 3]
-0.47487333 -0.13756852 -0.96315527 -0.38359454 0.58261746 1.0258327 -0.37737393 0.65570503
1.1438246 -0.51680917 -1.3215362 -0.727247 8.040711e-05 -0.6915936 -0.80797476 0.32418108
0.31184426 -0.21919131 0.1831635 0.48986325 0.42739114 0.089472845 -0.17787577 -0.40664372
-0.28473485 -0.94994986 -1.1972811 0.06889862 0.08980039 0.27302697 0.6179782 1.1980968
0.87641615 -0.29055062 0.10181578 0.6487098 -0.2026331 -0.8985176 -1.0785743 0.04354482
0.30193406 0.21721132 0.36137527 0.78239244 0.9871282 0.6326861 1.2781472 0.7049436
0.42021903 0.1737433 -0.13592699 0.008524154 -0.20640187 -0.59708774
00000000: 9922 f3be c3de 0cbe 5891 76bf 8166 c4be
00000010: 6b26 153f 7c4e 833f 2837 c1be 49dc 273f
00000020: d868 923f 9b4d 04bf 1928 a9bf dc2c 3abf
00000030: 3da0 a838 470c 31bf 6fd7 4ebf 10fb a53e
00000040: 0daa 9f3e b073 60be 368f 3b3e 5bcf fa3e
00000050: 03d3 da3e 8a3d b73d 1125 36be 9b33 d0be
00000060: c4c8 91be ea2f 73bf 8240 99bf b81a 8d3d
00000070: 44e9 b73d 31ca 8b3e d233 1e3f 3c5b 993f
00000080: cf5c 603f 0dc3 94be cb84 d03d d811 263f
00000090: 0d7f 4fbe 4005 66bf b90e 8abf 0e5c 323d
000000a0: 1a97 9a3e a56c 5e3e 2e06 b93e df4a 483f
000000b0: 6fb4 7c3f b7f7 213f 549a a33f 2f77 343f
000000c0: f326 d73e c3e9 313e 7230 0bbe e5a8 0b3c
000000d0: 035b 53be beda 18bf

learning_to_down_sample.dsconv2.1.weight f4 [6]
1.1797125 1.0121835 1.2333889 0.9540641 1.4673266 0.8218933
00000000: d200 973f 3b8f 813f b0df 9d3f 8b3d 743f
00000010: 5cd1 bb3f 9967 523f

learning_to_down_sample.dsconv2.1.bias f4 [6]
-0.035007756 -0.018791897 -0.01964107 -0.0051428634 0.020713277 0.043129615
00000000: 4b64 0fbd 77f1 99bc 4fe6 a0bc 7785 a8bb
00000010: e4ae a93c aea8 303d

learning_to_down_sample.dsconv2.1.running_mean f4 [6]
1.1956295 -3.3162804 -1.5366892 2.8678672 0.49378332 0.9300691
00000000: 630a 993f f03d 54c0 3bb2 c4bf 238b 3740
00000010: 2bd1 fc3e 0219 6e3f

learning_to_down_sample.dsconv2.1.running_var f4 [6]
0.43817362 2.222456 5.0661135 7.78966 2.51037 6.2666645
00000000: 4b58 e03e b83c 0e40 9a1d a240 e544 f940
00000010: e7a9 2040 8488 c840

learning_to_down_sample.dsconv2.2.weight f4 [8, 6, 1, 1]
0.5247934 1.0013036 0.17505877 -0.7578136 -0.25883657 -1.0465579 -1.1282908 -0.12892
-0.6735501 0.17711148 0.27468425 -0.46018308 -0.6991455 -0.14512205 -0.8418542 -0.12459083
-0.5069754 -0.46629813 0.21375786 -0.35233226 0.43272623 0.61485386 1.4500337 -0.2118567
0.016370218 0.17096972 -1.0046592 -0.26885948 0.38779497 0.6832853 -0.3769799 -0.8746407
-0.19292231 0.25855756 -1.0235324 0.20996554 1.1949245 -0.08042569 -0.68241507 -0.083855405
-0.11466721 0.064424016 -0.015308283 0.49913839 -0.40155372 1.2127268 -0.030980898 0.008714144
00000000: dc58 063f b72a 803f 9b42 333e 1200 42bf
00000010: 3a86 84be 9cf5 85bf d56b 90bf 9b03 04be
00000020: c86d 2cbf b65c 353e 6aa3 8c3e 1e9d ebbe
00000030: 33fb 32bf e09a 14be c283 57bf 7a29 ffbd
00000040: 24c9 01bf a1be eebe 57e3 5a3e e564 b4be
00000050: 4b8e dd3e 1067 1d3f b49a b93f f6f0 58be
00000060: d61a 863c b012 2f3e ac98 80bf f3a7 89be
00000070: 108d c63e c9eb 2e3f 8203 c1be 74e8 5fbf
00000080: 6d8d 45be a861 843e 1c03 83bf 3501 573e
00000090: 49f3 983f 39b6 a4bd c1b2 2ebf 62bc abbd
000000a0: a4d6 eabd bdf0 833d 98cf 7abc 118f ff3e
000000b0: 7398 cdbe a23a 9b3f a7cb fdbc c5c5 0e3c

learning_to_down_sample.dsconv2.3.weight f4 [8]
1.0506703 0.98808175 0.73911667 1.5200737 1.1059883 1.9068578 0.9513848 1.2356033
00000000: 5d7c 863f edf2 7c3f c036 3d3f c691 c23f
00000010: 0691 8d3f eb13 f43f f48d 733f 4028 9e3f

learning_to_down_sample.dsconv2.3.bias f4 [8]
0.38641143 0.7340815 1.2452624 -0.009508086 0.16185221 -0.2489077 0.53439444 0.028350284
00000000: b8d7 c53e c4ec 3b3f c264 9f3f cec7 1bbc
00000010: 96bc 253e a9e1 7ebe 13ce 083f db3e e83c

learning_to_down_sample.dsconv2.3.running_mean f4 [8]
-0.08734414 0.03997897 0.013581307 0.008425936 0.054791406 0.020025793 -0.025966786 -0.007496277
00000000: 7ce1 b2bd fdc0 233d 2184 5e3c f00c 0a3c
00000010: f46c 603d 220d a43c 4cb8 d4bc 54a3 f5bb

learning_to_down_sample.dsconv2.3.running_var f4 [8]
1.9040575 2.8626616 4.4723687 7.9245625 1.8940547 4.066505 1.3362566 1.6594332
00000000: 28b8 f33f d935 3740 a51d 8f40 0496 fd40
00000010: 6270 f23f cf20 8240 750a ab3f 4f68 d43f

global_feature_extractor.first_block.0.conv.0.weight f4 [16, 8, 1, 1]
-0.053227708 0.81811106 0.37266368 -0.07920635 0.6247506 0.6636263 0.68845856 0.5341812
-0.68703 0.52552545 0.89660335 -0.28471515 0.28449753 0.31896824 0.2528733 0.7329595
0.7760525 0.3553919 1.756366 0.15800855 0.52803224 -0.08920975 -0.28443113 0.15925726
0.7310186 -0.4153632 -0.2921266 0.57625324 -0.61691344 -1.1497345 0.07733624 -0.036819644
0.33992472 -0.08181093 -0.42043832 0.81780654 -0.38878196 -0.4083541 0.28536078 -0.821525
-0.6788338 -0.74125946 -0.33437654 -0.28113884 -0.52439344 0.4812298 -0.22035979 -1.2234755
-0.076319285 1.2798177 0.059035193 -0.57091516 0.742804 0.07634386 0.19246654 0.36285606
0.6454884 -0.48530415 -0.7759467 0.006564291 0.38703126 0.41759524 0.72950023 -0.05660268
-0.10707779 0.33415225 -0.062036056 -0.20702726 -0.25515437 0.4965968 -1.5104902 -0.11928846
-0.7060456 -0.36811024 0.114446454 0.24499159 -0.4595621 0.29179794 -0.013599429 1.2609504
-0.7742515 0.5881054 0.7612189 -0.4113049 0.91333336 0.2418263 -0.633719 0.12644942
-0.035529904 0.31851465 0.065490074 0.71208096 -0.19729705 -1.6985009 -0.344706 -0.17804632
-1.124931 0.435656 0.32303432 -0.9425844 1.1486573 0.2402888 -0.18548669 0.09064077
-0.5847396 -0.051745016 -0.41833943 -0.17555392 0.34642005 1.1949867 0.5767844 -0.26484233
-0.19301417 -0.55924755 -0.7251034 -1.0074471 0.6560021 0.55757755 -0.13218111 -0.14854415
0.032737374 -0.34538522 -0.55128235 0.66176087 -0.8433731 -0.23712969 0.016924629 0.6303857
00000000: 4c05 5abd ba6f 513f c6cd be3e f036 a2bd
00000010: a8ef 1f3f 6ae3 293f d23e 303f 19c0 083f
00000020: 33e1 2fbf d688 063f cc87 653f 2fc6 91be
00000030: a9a9 913e ce4f a33e 9c78 813e 3ca3 3b3f
00000040: 60ab 463f edf5 b53e 9ad0 e03f fecc 213e
00000050: 1f2d 073f 9ab3 b6bd f5a0 91be 5614 233e
00000060: 0924 3b3f 7caa d4be 9e91 95be 5585 133f
00000070: 0aee 1dbf 802a 93bf 7662 9e3d 32d0 16bd
00000080: 9d0a ae3e 7d8c a7bd b143 d7be c55b 513f
00000090: 6e0e c7be ca13 d1be cf1a 923e 764f 52bf
000000a0: 0dc8 2dbf 2ec3 3dbf 6733 abbe 6ef1 8fbe
000000b0: a63e 06bf c163 f63e ffa5 61be d89a 9cbf
000000c0: 494d 9cbd 11d1 a33f e3ce 713d 7f27 12bf
000000d0: 6728 3e3f 2b5a 9c3d f315 453e 45c8 b93e
000000e0: ba3e 253f c979 f8be 71a4 46bf 4419 d73b
000000f0: f628 c63e 0bcf d53e 87c0 3a3f 36d8 67bd
00000100: 9a4b dbbd 0116 ab3e 8519 7ebd f4fe 53be
00000110: 98a3 82be f041 fe3e be57 c1bf 824d f4bd
00000120: 68bf 34bf f278 bcbe e762 ea3d 13df 7a3e
00000130: b94b ebbe 8a66 953e 24d0 5ebc d366 a13f
00000140: 5935 46bf 138e 163f 3edf 423f 8e96 d2be
00000150: 37d0 693f 50a1 773e 693b 22bf f57b 013e
00000160: ce87 11bd 5a14 a33e a91f 863d f04a 363f
00000170: 3d08 4abe 7a68 d9bf 4e7d b0be c651 36be
00000180: bdfd 8fbf 4e0e df3e c164 a53e 364d 71bf
00000190: 3407 933f 440e 763e 39f0 3dbe dea1 b93d
000001a0: 7fb1 15bf 95f2 53bd 9630 d6be 68c4 33be
000001b0: f85d b13e 53f5 983f 24a8 133f 6a99 87be
000001c0: 82a5 45be d92a 0fbf 60a0 39bf 07f4 80bf
000001d0: c1ef 273f 67bd 0e3f 7c5a 07be f51b 18be
000001e0: a017 063d 55d6 b0be d720 0dbf 2969 293f
000001f0: 4de7 57bf 20d2 72be 85a5 8a3c f560 213f

global_feature_extractor.first_block.0.conv.1.weight f4 [16]
1.3752658 2.681243 0.5042368 1.1686085 1.3309067 0.696976 0.8302758 1.462069
0.89607286 1.410825 1.3987237 2.5719264 1.2267925 1.5333787 1.7635626 1.1780466
00000000: b608 b03f 7c99 2b40 aa15 013f f794 953f
00000010: 275b aa3f 056d 323f f48c 543f 1425 bb3f
00000020: 0865 653f ea95 b43f 6109 b33f 719a 2440
00000030: 8907 9d3f c145 c43f 6bbc e13f 3bca 963f

global_feature_extractor.first_block.0.conv.1.bias f4 [16]
-0.2619869 -0.18973161 0.86522824 0.4922911 0.21529025 0.72475505 0.6008771 -0.34787124
0.27055892 0.4709274 0.2482664 0.22890224 0.3643829 0.7417897 -0.022365741 0.5181963
00000000: 2623 86be 0149 42be 997f 5d3f 940d fc3e
00000010: 0c75 5c3e 8c89 393f 15d3 193f 2e1c b2be
00000020: b386 8a3e 651d f13e 8c39 7e3e 5965 6a3e
00000030: 6590 ba3e eee5 3d3f 5c38 b7bc 83a8 043f

global_feature_extractor.first_block.0.conv.1.running_mean f4 [16]
2.2908814 1.6737404 3.1954284 -0.7408152 -0.40508652 -2.1963735 1.4462615 -0.18159069
-0.85165864 -0.18662515 0.97056884 -0.40995345 0.1537273 -0.057883073 -1.6231339 -0.9279354
00000000: cd9d 1240 203d d63f e681 4c40 11a6 3dbf
00000010: 8067 cfbe 6291 0cc0 191f b93f e9f2 39be
00000020: 4d06 5abf aa1a 3fbe 3377 783f 6be5 d1be
00000030: b06a 1d3e cd16 6dbd dac2 cfbf 2d8d 6dbf

global_feature_extractor.first_block.0.conv.1.running_var f4 [16]
3.3117814 3.0652702 3.887966 3.9560363 3.2760952 4.840645 3.8021672 1.5555068
2.7511485 2.733837 3.7750869 4.8148336 3.7980127 2.6785114 1.2749814 2.8541808
00000000: 3af4 5340 632d 4440 6fd4 7840 b32f 7d40
00000010: 8bab 5140 90e6 9a40 b556 7340 d91a c73f
00000020: d112 3040 2ff7 2e40 069b 7140 1e13 9a40
00000030: a412 7340 bb6c 2b40 9732 a33f e6aa 3640

global_feature_extractor.first_block.0.conv.3.weight f4 [16, 1, 3, 3]
0.19921723 0.31842932 -0.13320348 0.2955978 0.84910613 0.843292 0.17599864 0.5033592
0.77527285 -0.24526727 -0.5712193 -0.20485301 0.13062814 -0.21304955 -0.3235111 0.3573124
0.7363778 0.4707532 0.21598202 0.8669089 0.7036639 0.026360247 -0.3896342 -0.4399463
-0.20386635 -1.0701425 -0.82584 -0.5845742 -0.09607083 0.34572047 0.12357955 0.7092904
0.91287905 -0.10960836 -0.44214556 -0.5633101 0.8796864 0.64506495 0.6152654 0.032258596
-0.7583837 0.055096686 0.21014363 -0.24424636 -0.023517866 -0.57733977 -0.6873225 -0.123436786
-0.5138892 -0.93761903 -0.525337 -0.25077465 -0.26617628 -0.35563588 0.05927308 -0.19334356
-0.6167719 0.24095443 0.1638184 -0.7293074 0.43756783 0.8136621 -0.17082286 -0.25509933
0.6811173 0.768419 -0.6117319 0.47233647 0.8168212 -0.6892199 -0.008369398 0.3639814
0.07059537 -0.10973936 0.22590306 -0.82762647 -0.35747725 -1.2829661 -0.309074 -0.7121122
-0.6600687 0.50171316 0.53923273 -0.061872635 0.17551039 -0.04530699 -0.4642963 -0.8278776
-0.85386235 -0.2905282 -0.49732327 -0.10225117 -0.5029574 0.031231636 1.100025 0.43150705
-0.55095553 0.13230331 -0.19830614 -0.2710371 0.347714 0.83982337 -0.9934076 -0.54261035
-0.36329946 -0.024535526 0.7234936 0.73571926 -0.23598582 -0.4546808 0.2493796 -0.5981969
-0.6397889 0.4553657 0.094886005 0.118175976 1.0547938 -0.30081972 -0.9207811 -0.33374232
-0.6122323 -1.165648 -1.091632 0.1270407 -0.12161008 0.069522396 -0.32746467 0.51147443
-0.08055449 -0.78744537 0.25086647 -0.36740312 -0.14551051 0.9465412 -0.442018 0.31912792
0.35793498 0.12111682 -0.5214553 -0.10604286 -0.37624645 0.037149183 1.0759922 1.2519934
00000000: 9aff 4b3e 2b09 a33e 7e66 08be 9858 973e
00000010: 055f 593f fce1 573f fd38 343e 26dc 003f
00000020: 4878 463f 5827 7bbe 6e3b 12bf fdc4 51be
00000030: 62c3 053e a929 5abe 3fa3 a5be a7f1 b63e
00000040: 4183 3c3f 9006 f13e 642a 5d3e beed 5d3f
00000050: 5123 343f 72f1 d73c 227e c7be a440 e1be
00000060: 57c2 50be 6efa 88bf 406a 53bf a8a6 15bf
00000070: c9c0 c4bd 4602 b13e 4617 fd3d 0e94 353f
00000080: 71b2 693f 597a e0bd e760 e2be 1735 10bf
00000090: 2133 613f fa22 253f 0982 1d3f 9721 043d
000000a0: 6f25 42bf 10ad 613d e42f 573e b81b 7abe
000000b0: 8aa8 c0bc 8acc 13bf 5ef4 2fbf 6dcc fcbd
000000c0: 3e8e 03bf cd07 70bf 7c7c 06bf 8965 80be
000000d0: 4248 88be e815 b6be 54c8 723d dbfb 45be
000000e0: c3e4 1dbf c2bc 763e 03c0 273e e4b3 3abf
000000f0: e408 e03e 294c 503f 30ec 2ebe 619c 82be
00000100: b45d 2e3f 1cb7 443f 769a 1cbf 16d6 f13e
00000110: 321b 513f b770 30bf cd1f 09bc c55b ba3e
00000120: 4e94 903d 08bf e0bd 2253 673e 54df 53bf
00000130: 4207 b7be 3c38 a4bf f33e 9ebe fc4c 36bf
00000140: 43fa 28bf 4670 003f 280b 0a3f 296e 7dbd
00000150: ffb8 333e d393 39bd 3fb8 edbe c9ef 53bf
00000160: b996 5abf 1dc0 94be 28a1 febe 1069 d1bd
00000170: d1c1 00bf 7dd9 ff3c 9fcd 8c3f 7eee dc3e
00000180: 6c0b 0dbf 857a 073e c410 4bbe 60c5 8abe
00000190: 9207 b23e aafe 563f f64f 7ebf 83e8 0abf
000001a0: 6302 babe bafe c8bc e036 393f 1958 3c3f
000001b0: 44a6 71be eccb e8be 5e5d 7f3e 6f23 19bf
000001c0: 35c9 23bf b125 e93e 9853 c23d 3f06 f23d
000001d0: 7c03 873f 0b05 9abe 4fb8 6bbf 46e0 aabe
000001e0: 42bb 1cbf f433 95bf 99ba 8bbf f516 023e
000001f0: b50e f9bd c261 8e3d 73a9 a7be fdef 023f
00000200: c1f9 a4bd 0596 49bf 9271 803e 431c bcbe
00000210: b500 15be 8650 723f 2f50 e2be bc64 a33e
00000220: 4143 b73e 180c f83d 187e 05bf 002d d9bd
00000230: 60a3 c0be be29 183d 1dba 893f 5241 a03f

global_feature_extractor.first_block.0.conv.4.weight f4 [16]
1.0867552 0.9925921 1.3471541 1.5312029 1.1033232 0.87270224 1.3608505 1.2212095
0.90913016 0.9458707 1.5084347 1.1434566 1.6979184 1.3061458 1.0769516 0.99954283
00000000: cb1a 8b3f 841a 7e3f 8c6f ac3f 75fe c33f
00000010: b239 8d3f 6a69 5f3f 5930 ae3f 9850 9c3f
00000020: c1bc 683f 9524 723f 6314 c13f c95c 923f
00000030: 6455 d93f c92f a73f 8dd9 893f 0ae2 7f3f

global_feature_extractor.first_block.0.conv.4.bias f4 [16]
-0.1116253 -0.29499114 0.42655373 0.027529826 -0.12408217 0.37658155 -0.038985644 0.40172735
-0.45284832 0.39945537 -0.027823066 -0.5202172 0.01925743 0.94963974 -0.37296984 0.38826245
00000000: ce9b e4bd 1409 97be 4065 da3e 3b86 e13c
00000010: cb1e febd 4ccf c03e 69af 1fbd 35af cd3e
00000020: bcdb e7be 6a85 cc3e 33ed e3bc f42c 05bf
00000030: c2c1 9d3c 971b 733f e7f5 bebe 56ca c63e

global_feature_extractor.first_block.0.conv.4.running_mean f4 [16]
1.7061163 0.12299413 -1.0097036 0.2695663 0.7306612 -3.4133236 0.0038954 0.6877751
-1.9852898 -0.90601957 -0.06135241 0.44544953 0.037940394 -3.5971687 -0.19790548 1.6189704
00000000: 0562 da3f 59e4 fb3d f83d 81bf 9804 8a3e
00000010: 9d0c 3b3f e573 5ac0 f849 7f3b 0712 303f
00000020: fa1d febf e6f0 67bf aa4c 7bbd f611 e43e
00000030: 6367 1b3d 0338 66c0 bca7 4abe 6c3a cf3f

global_feature_extractor.first_block.0.conv.4.running_var f4 [16]
8.408886 5.1747727 1.0321878 1.5779295 2.6791725 2.60348 0.5594464 4.928984
1.4388374 4.18121 1.5003359 4.02167 1.4223903 21.080748 2.2290916 3.8606048
00000000: cc8a 0641 bd97 a540 bb1e 843f 98f9 c93f
00000010: 9077 2b40 6b9f 2640 e137 0f3f 3dba 9d40
00000020: d32b b83f 79cc 8540 020b c03f 85b1 8040
00000030: e310 b63f 5fa5 a841 70a9 0e40 2614 7740

global_feature_extractor.first_block.0.conv.6.weight f4 [8, 16, 1, 1]
-0.18001485 0.25797355 -0.28091913 -0.10439823 0.6472706 -0.5250212 0.16640545 -0.31268933
-0.59855455 -0.012281622 1.02697 0.88020676 0.470246 -0.26810712 0.43669525 -0.30160362
0.28925183 0.06883151 -1.1195561 -1.0131356 0.28745684 -0.105887115 -0.04122435 -0.11442604
-0.58272725 0.52601653 -0.49011612 0.44208166 0.75348324 0.48674145 0.83939445 0.15059382
-0.032200225 0.32395932 -0.6537183 -0.27892637 -0.279705 -0.24159907 0.58523387 0.22280557
-0.16468622 0.13265724 -0.5710179 -1.0190325 1.0191568 -0.92179775 -0.30831242 -0.4038055
-1.1965045 -0.14793459 0.433858 -0.24583021 0.36519828 -1.0148066 0.4020685 0.6653026
-0.045955155 0.031190291 -0.004900996 -0.20600621 0.6089042 -0.7578767 0.5672884 0.38418338
0.46461177 0.69846505 -0.28115335 -0.62687165 -0.19977176 0.06250801 1.3156435 0.35618964
-0.14950566 0.7195477 0.47588518 -0.041383985 0.5129345 -0.15200935 0.25196764 0.63052714
-0.121127784 0.21074022 -0.40540478 0.98996603 0.36702514 -0.15341075 0.34170854 0.5520989
-0.39450455 -0.06311971 -0.6037289 -0.3447431 0.7543164 -0.17563152 -0.2616095 -0.84909177
-0.02274873 -0.55051184 -0.7688794 -0.46051195 -0.16579983 -0.18651113 0.5760585 1.2986389
-0.27484494 0.7370586 0.36007035 0.08038229 -0.028262513 -0.77043176 0.7254968 -0.23772188
-0.22873135 0.06101757 -0.27673262 0.67536247 0.5521402 -0.515538 0.463937 -0.47508934
-0.14475574 -0.86420035 -0.10022372 0.25856873 -0.13662636 -1.1284652 -0.2788442 -0.32355824
00000000: d055 38be 1c15 843e a2d4 8fbe bdce d5bd
00000010: 87b3 253f ca67 06bf 3166 2a3e d118 a0be
00000020: df3a 19bf db38 49bc c173 833f 3b55 613f
00000030: 15c4 f03e 5645 89be 8596 df3e ca6b 9abe
00000040: d118 943e 89f7 8c3d 9d4d 8fbf 6dae 81bf
00000050: 8b2d 933e 58db d8bd ddda 28bd 3358 eabd
00000060: 9d2d 15bf 05a9 063f 80f0 fabe 8758 e23e
00000070: 47e4 403f 2d36 f93e 8ee2 563f 4435 1a3e
00000080: 62e4 03bd ffdd a53e 155a 27bf 70cf 8ebe
00000090: 7e35 8fbe bf65 77be e3d1 153f 2527 643e
000000a0: 81a3 28be 4dd7 073e 3b2e 12bf a86f 82bf
000000b0: bb73 823f f0fa 6bbf 20db 9dbe 98bf cebe
000000c0: 0f27 99bf 2a7c 17be a322 de3e eaba 7bbe
000000d0: 45fb ba3e 2fe5 81bf ecdb cd3e 4551 2a3f
000000e0: 793b 3cbd c882 ff3c 8998 a0bb 4bf3 52be
000000f0: 25e1 1b3f 3504 42bf d039 113f afb3 c43e
00000100: 98e1 ed3e 9bce 323f 55f3 8fbe a97a 20bf
00000110: f890 4cbe 3304 803d 0267 a83f 7d5e b63e
00000120: 0318 19be 4734 383f 39a7 f33e 4182 29bd
00000130: ad4f 033f 57a8 1bbe e701 813e 3a6a 213f
00000140: d811 f8bd 49cc 573e 3791 cfbe 6a6e 7d3f
00000150: b8ea bb3e b517 1dbe 6cf4 ae3e 5a56 0d3f
00000160: 80fc c9be e844 81bd fa8d 1abf 2b82 b0be
00000170: e11a 413f c0d8 33be aef1 85be 145e 59bf
00000180: 8b5b babc 58ee 0cbf 48d5 44bf 39c8 ebbe
00000190: 6ec7 29be c6fc 3ebe 9278 133f cd39 a63f
000001a0: 7ab8 8cbe dfaf 3c3f 245b b83e 789f a43d
000001b0: c986 e7bc 043b 45bf 29ba 393f 5d6d 73be
000001c0: 8d38 6abe 8fed 793d e6af 8dbe 8ee4 2c3f
000001d0: 0f59 0d3f 4cfa 03bf 2789 ed3e e93e f3be
000001e0: d93a 14be 3c3c 5dbf 1842 cdbd 1f63 843e
000001f0: c8e7 0bbe 8c71 90bf abc4 8ebe 6da9 a5be

global_feature_extractor.first_block.0.conv.7.weight f4 [8]
1.277082 1.1423006 1.0556792 1.457119 0.97201216 1.1412274 1.1684877 0.792975
00000000: 6c77 a33f e836 923f 7f20 873f e082 ba3f
00000010: cad5 783f bd13 923f 0191 953f 6900 4b3f

global_feature_extractor.first_block.0.conv.7.bias f4 [8]
0.006329617 -0.0036739775 0.022954462 0.0011186039 -0.026553426 0.03774508 0.032785393 0.011681343
00000000: ad68 cf3b 1dc7 70bb ff0a bc3c 1e9e 923a
00000010: 9286 d9bc 969a 1a3d fa49 063d 1b63 3f3c

global_feature_extractor.first_block.0.conv.7.running_mean f4 [8]
-0.038472444 -0.009857215 -1.666863 -0.39445755 1.5713949 -0.03953707 -0.5032377 -2.2291653
00000000: 4895 1dbd 2880 21bc c45b d5bf 57f6 c9be
00000010: 7823 c93f 9ff1 21bd 30d4 00bf a5aa 0ec0

global_feature_extractor.first_block.0.conv.7.running_var f4 [8]
3.8230984 4.1239886 5.297873 5.964825 5.282868 6.352637 5.169307 2.5133173
00000000: a5ad 7440 b7f7 8340 2d88 a940 d9df be40
00000010: 410d a940 cd48 cb40 f76a a540 31da 2040

global_feature_extractor.second_block.0.conv.0.weight f4 [16, 8, 1, 1]
0.42611614 0.20866162 0.34644184 0.5579386 0.2762238 0.4676622 0.8630495 0.05397554
0.07646075 -0.38448527 -0.3618433 1.4034154 -0.19486517 0.45485142 1.1419274 -0.7414577
0.3995454 -0.3118142 0.82984734 -0.9066337 0.47174954 -0.22046933 0.42821935 0.35060677
0.029525243 -0.62941283 -0.42439455 0.17219372 0.34603044 -0.865082 -1.1624058 -0.66220605
0.32310155 0.020313583 -0.39651302 -0.8030273 -0.99515396 -0.013300264 -0.60042995 0.024509028
0.00016763597 -0.4479936 0.13449949 -0.40651336 -0.83212495 1.071062 -0.8025865 0.7120521
-0.31560504 0.33256432 0.73027265 0.50354123 0.30825782 0.3806384 -0.11529363 -0.7254197
0.13473657 0.56720865 1.364744 0.4236144 0.49496356 0.7092544 0.35150856 0.2724599
-0.32017574 0.607906 -0.02288522 -1.1907566 0.025625462 -0.0058012796 0.20039883 -0.87552255
1.4837778 0.13337816 -0.6886258 -0.15776306 -0.24113457 -0.5879436 0.22202167 0.08712528
0.09751632 -0.70781374 0.11342057 -0.32614693 -0.48785463 0.8050561 -0.6067137 0.5049419
0.008156028 0.7547489 -0.31162375 -0.86324006 -0.09865814 -0.2828653 -0.9135356 -0.56586903
0.8712869 -0.8194737 0.48919815 1.1635302 -0.36311534 0.033864222 0.5801652 0.4183146
0.1675149 -0.49459478 0.07840973 -0.7098752 1.0627528 0.43678996 0.44504836 0.092774205
0.26386565 0.8754582 0.52004683 0.4239865 0.2935756 0.67036265 -0.5569961 0.21069187
1.6818308 0.6020192 -0.3744867 0.26861113 0.55258286 -0.45073614 0.22716919 0.06569102
00000000: e52b da3e 64ab 553e d360 b13e 10d5 0e3f
00000010: 356d 8d3e 6b71 ef3e d0f0 5c3f 7515 5d3d
00000020: 7497 9c3d 41db c4be 8643 b9be 1ea3 b33f
00000030: bc8a 47be 49e2 e83e ad2a 923f 2cd0 3dbf
00000040: 3791 cc3e 1ca6 9fbe e070 543f 2519 68bf
00000050: 2889 f13e b6c2 61be 913f db3e bb82 b33e
00000060: ecde f13c 3321 21bf 3e4a d9be 8d53 303e
00000070: e72a b13e 0476 5dbf b7c9 94bf 5686 29bf
00000080: 916d a53e ac68 a63c c103 cbbe 3293 4dbf
00000090: 69c2 7ebf 5ae9 59bc c7b5 19bf 28c7 c83c
000000a0: 70c7 2f39 6b5f e5be 3cba 093e 8522 d0be
000000b0: 2406 55bf 8f18 893f 4f76 4dbf 0c49 363f
000000c0: fc96 a1be df45 aa3e 26f3 3a3f 14e8 003f
000000d0: f8d3 9d3e 09e3 c23e 111f ecbd 1bb5 39bf
000000e0: 62f8 093e 9634 113f eeaf ae3f fde3 d83e
000000f0: dd6b fd3e b291 353f eef8 b33e dd7f 8b3e
00000100: 13ee a3be ba9f 1b3f c979 bbbc b66a 98bf
00000110: 7dec d13c a918 bebb 5a35 4d3e 3f22 60bf
00000120: 6eec bd3f 4994 083e c849 30bf a48c 21be
00000130: fbeb 76be 7983 16bf a659 633e bd6e b23d
00000140: a3b6 c73d 4833 35bf 0b49 e83d bbfc a6be
00000150: 15c8 f9be 2818 4e3f 9751 1bbf df43 013f
00000160: dca0 053c 3937 413f 268d 9fbe 4dfd 5cbf
00000170: 470d cabd b8d3 90be 78dd 69bf cbdc 10bf
00000180: a90c 5f3f 07c9 51bf 2e78 fa3e 8fee 943f
00000190: 41ea b9be 36b5 0a3d b585 143f 552d d63e
000001a0: 0789 2b3e 873b fdbe 4895 a03d 62ba 35bf
000001b0: 4908 883f efa2 df3e 61dd e33e 6700 be3d
000001c0: 6619 873e 071e 603f ca21 053f c214 d93e
000001d0: 8b4f 963e e39c 2b3f 4c97 0ebf 9cbf 573e
000001e0: 3b46 d73f ee1d 1a3f b9bc bfbe 6687 893e
000001f0: 1276 0d3f e3c6 e6be 0a9f 683e 0389 863d

global_feature_extractor.second_block.0.conv.1.weight f4 [16]
0.21505122 2.526673 1.0574006 1.2361655 0.9691963 1.8734084 1.086842 1.6825867
0.7521431 2.1798668 1.118505 0.97738576 0.8371647 0.42633533 1.7960451 1.5048139
00000000: 6336 5c3e 03b5 2140 e758 873f ac3a 9e3f
00000010: 401d 783f d9cb ef3f a31d 8b3f 005f d73f
00000020: 738c 403f f082 0b40 2c2b 8f3f f435 7a3f
00000030: 6d50 563f a048 da3e cee4 e53f be9d c03f

global_feature_extractor.second_block.0.conv.1.bias f4 [16]
1.2489177 -0.26234248 0.61052185 -0.5750235 0.5864663 -0.31996414 0.68338156 0.4165852
0.71835953 0.3042073 0.34474027 0.69208854 0.9293185 1.0441839 0.36269075 0.57211435
00000000: 89dc 9f3f c151 86be 294b 1c3f bd34 13bf
00000010: a822 163f 57d2 a3be 18f2 2e3f a84a d53e
00000020: 69e6 373f 0fc1 9b3e cc81 b03e b72c 313f
00000030: d1e7 6d3f d1a7 853f 9ab2 b93e 1676 123f

global_feature_extractor.second_block.0.conv.1.running_mean f4 [16]
0.049689353 0.04623377 0.019158458 -0.09469602 -0.0013971203 0.048871804 0.007985737 0.05889524
-0.010682106 -0.014560397 0.034810837 -0.055476137 0.055748235 0.00779626 0.012612814 -0.02331047
00000000: 1087 4b3d 9f5f 3d3d 33f2 9c3c fdef c1bd
00000010: 941f b7ba cd2d 483d 9cd6 023c 233c 713d
00000020: 0004 2fbc bb8e 6ebc cf95 0e3d f23a 63bd
00000030: 4358 643d c577 ff3b faa5 4e3c 99f5 bebc

global_feature_extractor.second_block.0.conv.1.running_var f4 [16]
6.9229293 6.957513 2.2851574 5.656303 4.436459 4.987563 2.5705616 11.357735
6.1206946 4.4178357 3.328293 6.281916 9.524958 2.1698923 4.565662 9.0632305
00000000: a388 dd40 f2a3 de40 0540 1240 6f00 b540
00000010: 79f7 8d40 1e9a 9f40 1584 2440 48b9 3541
00000020: bbdc c340 e95e 8d40 c102 5540 7505 c940
00000030: 3a66 1841 84df 0a40 e719 9240 fe02 1141

global_feature_extractor.second_block.0.conv.3.weight f4 [16, 1, 3, 3]
0.09722549 -1.3471226 -0.5754292 0.3719348 -0.20097832 0.5267753 -0.011117041 -0.54248285
0.32368165 0.39986065 0.56756246 0.24901558 0.1413318 1.3092355 0.865982 0.27293196
0.72634274 0.2819564 -0.08102197 -0.5733575 -0.44402662 0.06001445 -0.48793367 -0.640409
0.09285564 0.8907548 1.0796164 0.09914094 0.3945907 -0.031137029 0.21989214 1.1200142
0.7220961 0.19549924 0.8326192 1.0079534 0.6131361 0.0470359 -0.20163661 1.0232006
0.23738573 -0.22376105 0.28177902 -0.4441559 -0.8522405 0.39133072 1.0419972 0.5362046
-0.587419 -0.28752747 0.37103513 0.34128484 0.78418964 0.7127306 -0.41400614 -0.19184387
0.07700242 -0.17903994 0.55039155 0.9421556 0.034251086 -1.0121726 0.007254579 -0.40065503
-0.8886946 -0.45405668 -0.68379 -1.0275091 -0.52822053 -0.52617896 -0.54685193 -0.15495494
0.0017735051 0.58153874 0.6857841 0.30744535 1.3218455 1.0352057 0.23852654 0.41296315
0.24823575 0.06788262 0.5431478 0.64394975 -0.74647456 0.21460657 0.98961526 0.08355841
-0.71318656 0.70109296 -0.25578424 -0.61655635 -0.0062257727 0.5581349 1.2213773 0.7128382
-0.30061597 -0.17087576 0.07831864 0.087550685 0.9271415 0.6562897 -0.587938 0.05203929
0.46543726 -0.82340795 -0.7800488 -0.40510428 0.13720323 -0.8778195 -1.2624984 0.15195048
0.5917042 -0.0023496468 0.26628873 0.6879538 0.586249 -0.31523782 0.3375606 0.37686455
-0.47844484 1.1163557 1.07316 -0.39801612 0.38447556 0.4049463 -0.05216932 1.0021539
0.7344219 -0.14359172 0.9440589 0.37405396 -0.5715704 -0.01529043 0.1417022 0.040562343
-0.1872332 -0.12991726 0.49740502 1.15746 0.66764873 0.2469665 1.1589063 0.3765724
00000000: 281e c73d 836e acbf 544f 13bf 3d6e be3e
00000010: 43cd 4dbe bfda 063f 4024 36bc 28e0 0abf
00000020: 9ab9 a53e 89ba cc3e c64b 113f f1fd 7e3e
00000030: 49b9 103e 0795 a73f ffb0 5d3f bdbd 8b3e
00000040: 99f1 393f 975c 903e d9ee a5bd 8fc7 12bf
00000050: 7557 e3be b6d1 753d 71d2 f9be d8f1 23bf
00000060: 192b be3d 8208 643f df30 8a3f 680a cb3d
00000070: cb07 ca3e 1513 ffbc 682b 613e a05c 8f3f
00000080: 4adb 383f f430 483e 8826 553f 9e04 813f
00000090: 7df6 1c3f b7a8 403d d479 4ebe 3df8 823f
000000a0: 3f15 733e 9e21 65be 5745 903e 6768 e3be
000000b0: 6f2c 5abf 805c c83e 2a60 853f b444 093f
000000c0: 1761 16bf cd36 93be 51f8 bd3e e3bc ae3e
000000d0: a7c0 483f 8375 363f 9df8 d3be b872 44be
000000e0: 72b3 9d3d 3f56 37be 76e6 0c3f 1c31 713f
000000f0: de4a 0c3d df8e 81bf d2b7 ed3b a822 cdbe
00000100: 7d81 63bf 1e7a e8be dd0c 2fbf 6b85 83bf
00000110: 7639 07bf aab3 06bf 7dfe 0bbf 82ac 1ebe
00000120: f574 e83a b9df 143f 8c8f 2f3f 7a69 9d3e
00000130: 3c32 a93f 9f81 843f 4d40 743e e86f d33e
00000140: 8331 7e3e 0b06 8b3d bc0b 0b3f e4d9 243f
00000150: f518 3fbf d3c1 5b3e 6d57 7d3f ac20 ab3d
00000160: 6593 36bf d47a 333f 27f6 82be a3d6 1dbf
00000170: 9101 ccbb eee1 0e3f 1756 9c3f 907c 363f
00000180: 56ea 99be 0efa 2ebe 8665 a03d c64d b33d
00000190: 2559 6d3f 9a02 283f 1b83 16bf 2727 553d
000001a0: cb4d ee3e ddca 52bf 47b1 47bf d469 cfbe
000001b0: 017f 0c3e c7b8 60bf 8c99 a1bf e898 1b3e
000001c0: ed79 173f 88fc 19bb ff56 883e be1d 303f
000001d0: 6a14 163f da66 a1be bed4 ac3e 64f4 c03e
000001e0: b9f6 f4be bee4 8e3f 4f5d 893f c5c8 cbbe
000001f0: fbd9 c43e 1f55 cf3e 7faf 55bd 9446 803f
00000200: 1303 3c3f b509 13be d8ad 713f 0084 bf3e
00000210: 7052 12bf b684 7abc 621a 113e b324 263d
00000220: 0fba 3fbe 0809 05be dfab fe3e a627 943f
00000230: 07eb 2a3f c9e4 7c3e 0b57 943f 19ce c03e

global_feature_extractor.second_block.0.conv.4.weight f4 [16]
1.1728202 0.8201941 1.1501404 0.85304236 1.3443279 0.9697301 0.7317248 1.5091674
1.1921574 1.0868304 1.284069 0.97136813 1.2053298 0.67557174 0.8448499 0.9720187
00000000: f91e 963f 3ef8 513f cd37 933f fc60 5a3f
00000010: f012 ac3f 3b40 783f 5152 3b3f 662c c13f
00000020: 9d98 983f 421d 8b3f 5f5c a43f 95ab 783f
00000030: 3f48 9a3f 45f2 2c3f 1548 583f 38d6 783f

global_feature_extractor.second_block.0.conv.4.bias f4 [16]
0.22536598 1.1171541 -0.08376365 0.76778835 0.0036954272 0.37433687 -0.0638741 0.23760347
1.6346701 0.43615517 0.0031907768 0.7236217 -0.16303429 1.289722 0.5544443 1.232898
00000000: 57c6 663e e8fe 8e3f 478c abbd c78d 443f
00000010: fb2e 723b 15a9 bf3e 6dd0 82bd 534e 733e
00000020: df3c d13f bb4f df3e 5a1c 513b 463f 393f
00000030: 76f2 26be 9c15 a53f 10f0 0d3f 9acf 9d3f

global_feature_extractor.second_block.0.conv.4.running_mean f4 [16]
-1.5874999 3.6623344 -0.10644675 0.9911269 0.2671149 1.6060891 -0.111041285 -3.9159
3.6241016 1.4999484 0.7049908 -0.3311337 0.35264784 2.6856291 1.7479591 3.1658368
00000000: 3233 cbbf b063 6a40 c100 dabd 7eba 7d3f
00000010: 49c3 883e 5494 cd3f 9d69 e3bd 1b9e 7ac0
00000020: 48f1 6740 4ffe bf3f 477a 343f 5b8a a9be
00000030: 428e b43e 59e1 2b40 20bd df3f 129d 4a40

global_feature_extractor.second_block.0.conv.4.running_var f4 [16]
0.47766957 17.214102 3.1082573 2.1300719 1.2193538 9.379872 2.242372 12.272478
8.115483 10.102908 4.744115 2.0102112 1.8029499 0.94804966 8.770003 8.919567
00000000: 1b91 f43e 7bb6 8941 b0ed 4640 1953 0840
00000010: c913 9c3f f513 1641 0683 0f40 125c 4441
00000020: 05d9 0141 83a5 2141 cacf 9740 4da7 0040
00000030: 10c7 e63f 62b3 723f ef51 0c41 8cb6 0e41

global_feature_extractor.second_block.0.conv.6.weight f4 [12, 16, 1, 1]
0.445908 0.52765 -0.37190497 0.5279806 -0.019965956 0.22873668 0.23849288 0.43588945
1.9708738 0.082386956 0.42232794 0.58433706 0.72076356 0.39454758 -0.09905381 0.0031847458
-0.21275686 -0.72829163 0.36739612 0.104169525 -0.14031039 -0.14991382 -0.43580657 0.7858114
0.6239591 -0.33530554 -0.85637814 -0.32333553 -0.651534 0.0688599 -0.4110533 -0.5435427
-0.41949236 -0.30502722 -0.6848349 -0.32712862 -0.48686412 -1.0715365 -0.6095877 0.72336435
0.025300879 -0.46694776 -1.116458 -0.07236429 0.17178282 0.10203414 -0.44705036 -1.3677216
-0.16135253 1.2447144 0.28976128 -0.21199295 0.4939148 0.04511678 0.61737084 0.5144366
-1.3683004 0.019880079 -0.087638795 0.23332882 -0.41895536 -0.18140352 -0.16174188 -0.473946
0.1421589 0.2845338 -0.4716981 -0.048659246 -0.23732519 0.5631337 -0.40267926 -0.062016647
-1.0842476 0.2117433 0.24366389 -0.075106144 0.44378936 -1.9686928 -0.30396467 -0.008137552
-1.0117984 -0.18959306 -0.109289005 -0.80293524 -0.47992972 0.117115356 -0.24990727 -0.5275149
1.1235675 0.24738404 -0.10213469 -0.35356563 -0.8202569 0.46556002 0.12847237 0.09447172
-0.37509692 1.2647825 -0.31664243 -0.168166 0.59862983 0.02945753 -0.029590283 0.17099354
0.7515243 -0.08346711 -0.015097288 0.96011955 0.7131096 -0.8248934 -0.2683259 -0.53631663
0.001982189 -0.0053980555 -1.2046313 0.07047288 0.3037404 -0.08775603 -0.55156773 1.4390025
0.23740606 -0.12301345 -0.37648588 -0.19193156 0.10361981 -0.13263364 -0.45411587 -0.614566
-0.7696428 -0.08310738 -0.13892995 -0.25976664 -1.0943321 -0.3872298 -0.8859681 0.75493425
0.25154555 -1.5778112 -0.66676205 -0.08380135 0.2011634 0.15329975 -0.5564944 -0.9017462
0.7102838 0.5608028 -0.08099409 -0.14493884 1.0175983 0.7451725 0.1442676 -0.41353282
0.14133593 0.47930843 0.6665342 -1.0108048 -0.76406026 -0.0094189495 0.83595836 0.7182112
-0.040017027 -0.47324625 0.58589596 0.91789424 0.15365069 0.36434975 -0.05607611 0.114271365
-0.34965312 0.10353033 0.424799 1.2125081 -0.2621784 0.7435372 0.68984485 0.38791975
-0.12718672 -0.4602957 -0.214558 1.1898655 0.15148152 -0.058725655 0.044897333 0.37698612
0.5719677 -0.09545041 -0.38214108 0.2848678 0.63223624 -0.27622423 0.088576466 -0.93841124
00000000: 0e4e e43e 1214 073f 546a bebe bd29 073f
00000010: a58f a3bc f339 6a3e 7a37 743e e72c df3e
00000020: 9845 fc3f 7eba a83d 5e3b d83e 1d97 153f
00000030: f683 383f 2402 ca3e b9dc cabd 2bb7 503b
00000040: efdc 59be 5271 3abf 581b bc3e d556 d53d
00000050: 87ad 0fbe 0283 19be 0a22 dfbe f02a 493f
00000060: c9bb 1f3f 2bad abbe 993b 5bbf 3c8c a5be
00000070: efca 26bf 6b06 8d3d 9475 d2be 9d25 0bbf
00000080: b4c7 d6be 872c 9cbe 5751 2fbf 677d a7be
00000090: 4146 f9be 1c28 89bf f10d 1cbf 682e 393f
000000a0: ca43 cf3c c713 efbe 19e8 8ebf bb33 94bd
000000b0: d6e7 2f3e 46f7 d03d c9e3 e4be 8011 afbf
000000c0: 9939 25be cd52 9f3f 975b 943e ae14 59be
000000d0: 67e2 fc3e 5fcc 383d 040c 1e3f 1eb2 033f
000000e0: 7824 afbf 8cdb a23c f87b b3bd c0ed 6e3e
000000f0: 5181 d6be d8c1 39be aa9f 25be 0da9 f2be
00000100: 1a92 113e 6aae 913e 6a82 f1be eb4e 47bd
00000110: 6005 73be 8829 103f fa2b cebe 2b05 7ebd
00000120: a0c8 8abf 3cd3 583e 0783 793e 40d1 99bd
00000130: 5c38 e33e 20fe fbbf 42a1 9bbe 5e53 05bc
00000140: 9c82 81bf af24 42be ead2 dfbd 2a8d 4dbf
00000150: 59b9 f5be 2dda ef3d b1e7 7fbe 370b 07bf
00000160: 0fd1 8f3f 3e52 7d3e fe2b d1bd 8e06 b5be
00000170: 5bfc 51bf e25d ee3e 438e 033e 647a c13d
00000180: b40c c0be 65e4 a13f f51e a2be b533 2cbe
00000190: ce3f 193f eb50 f13c 5267 f2bc ee18 2f3e
000001a0: e663 403f cef0 aabd 9e5a 77bc 65ca 753f
000001b0: 5a8e 363f 372c 53bf 0362 89be 0c4c 09bf
000001c0: 9de7 013b 2ce2 b0bb 5c31 9abf 1654 903d
000001d0: dd83 9b3e 6fb9 b3bd 8b33 0dbf 3c31 b83f
000001e0: 931a 733e 7aee fbbd c2c2 c0be b589 44be
000001f0: 9f36 d43d 1dd1 07be e081 e8be 3354 1dbf
00000200: 4f07 45bf 3434 aabd a743 0ebe 2200 85be
00000210: 1313 8cbf fc42 c6be cece 62bf 5f43 413f
00000220: 94ca 803e b8f5 c9bf ebb0 2abf 0ba0 abbd
00000230: c7fd 4d3e 9cfa 1c3e 6b76 0ebf d7d8 66bf
00000240: 29d5 353f c690 0f3f 3be0 a5bd d96a 14be
00000250: a940 823f a0c3 3e3f e3ba 133e 93ba d3be
00000260: 5eba 103e ea67 f53e fca1 2a3f 0d62 81bf
00000270: 7499 43bf f051 1abc 5e01 563f b0dc 373f
00000280: e5e8 23bd 554d f2be 47fd 153f 1efb 6a3f
00000290: 9b56 1d3e 0d8c ba3e 10b0 65bd 1b07 ea3d
000002a0: bc05 b3be b607 d43d 417f d93e 7733 9b3f
000002b0: 3f3c 86be 7458 3e3f ac99 303f 6b9d c63e
000002c0: 3c3d 02be e1ab ebbe 18b5 5bbe 834d 983f
000002d0: f91d 1b3e 508a 70bd 44e6 373d 5304 c13e
000002e0: 7a6c 123f 817b c3bd ffa7 c3be 31da 913e
000002f0: 3cda 213f 436d 8dbe 9467 b53d b83b 70bf

global_feature_extractor.second_block.0.conv.7.weight f4 [12]
1.3576571 1.2683173 1.1579309 0.90866274 1.1334699 0.9678376 1.0658002 0.7560438
1.3401606 1.1923934 0.93280613 1.2068087
00000000: b5c7 ad3f 3958 a23f 1437 943f 1f9e 683f
00000010: 8b15 913f 34c4 773f 246c 883f 168c 413f
00000020: 628a ab3f 59a0 983f 62cc 6e3f b578 9a3f

global_feature_extractor.second_block.0.conv.7.bias f4 [12]
0.037053924 0.03062655 -0.03456102 -0.02039237 -0.018471101 0.0003689556 0.007990801 -0.014849383
0.018362984 0.0018927073 -0.0018333339 -0.011385613
00000000: dbc5 173d 88e4 fa3c db8f 0dbd e60d a7bc
00000010: b550 97bc 6270 c139 d9eb 023c d44a 73bc
00000020: f86d 963c b814 f83a 7a4c f0ba b98a 3abc

global_feature_extractor.second_block.0.conv.7.running_mean f4 [12]
6.239999 -1.2779992 -3.942383 -1.1025234 -3.9524374 0.10434661 1.8128505 -0.45832086
-3.1903296 2.5132396 3.1212487 0.34296402
00000000: 12ae c740 7a95 a3bf 0150 7cc0 7d1f 8dbf
00000010: bcf4 7cc0 adb3 d53d 7c0b e83f 08a9 eabe
00000020: 5c2e 4cc0 ebd8 2040 8ac2 4740 fb98 af3e

global_feature_extractor.second_block.0.conv.7.running_var f4 [12]
6.948697 5.874744 7.1302257 4.430261 6.512796 4.8513126 2.885468 5.3056073
7.11176 4.6934667 3.0938296 4.3267646
00000000: ba5b de40 e7fd bb40 cf2a e440 b3c4 8d40
00000010: d368 d040 f43d 9b40 82ab 3840 89c7 a940
00000020: 8a93 e340 e130 9640 4e01 4640 db74 8a40

global_feature_extractor.third_block.0.conv.0.weight f4 [24, 12, 1, 1]
1.4626925 0.5267753 -0.37528908 -1.2308956 -0.951575 0.88183856 0.30846906 -0.2999562
0.032644168 0.74831796 -0.32220274 -0.018858587 0.70155275 -0.17793977 -0.027311575 -0.6997069
-1.5704203 1.6255358 0.5138467 -0.5292028 0.0018849892 0.061472315 0.04794398 -0.09305654
0.026127864 0.3827871 1.3225194 0.010073225 0.056554858 0.014984774 -0.3434427 0.4892595
1.9439107 -1.015453 -0.032774385 0.040683843 0.016800143 0.21872905 0.47075775 -0.8348344
0.23410851 0.3923472 0.27239007 0.1010665 0.43351817 -1.2600682 -0.22389449 0.10058681
-0.8226296 0.18343273 -0.4378546 0.97908276 -0.6539126 -0.19726789 -0.36323264 -2.0116358
0.04568096 -0.5541866 0.30168736 0.062426746 -2.4229627 -0.35980493 0.060058285 -0.29113218
0.41236895 0.37643725 -1.1189822 -0.45718196 -0.11233738 -0.5323597 0.022950616 -0.6028378
0.35472882 0.23910287 0.24292938 -0.029707003 -2.13363 0.38994431 0.0023668148 0.299389
-0.5407113 0.78805375 0.29691634 0.21105263 0.06968399 1.2723148 0.44527048 -0.4072593
-0.7632279 0.49290332 -1.0951836 0.93704903 0.37504807 0.06649671 -0.15806611 -0.17941292
-0.8041238 -0.18779378 0.72728944 0.54781395 1.2271497 -0.34759322 0.09939383 0.11241476
0.05184431 -0.48259568 -1.0925599 -0.23430775 1.1836506 0.5177522 0.06477079 0.008962558
0.084800996 -0.09435608 0.6325283 0.31836545 -0.12854125 -0.49833035 0.7965006 1.7786713
0.8340225 0.25413918 0.112812236 -0.21499777 -1.1652795 1.0526125 0.042855274 -0.088090196
-0.008188745 0.38991532 -0.39415446 -0.2107017 0.7692749 0.6036087 0.2248325 -0.5579357
-0.0039761118 0.91737765 0.7324413 0.19832677 1.0639652 -0.014362583 -0.49180272 -0.15537949
0.17866796 -0.11514266 -0.1736634 -0.39884555 -1.7334927 0.38850772 -1.0094167 -1.117439
0.20410804 -0.19196862 0.47994998 -0.5075125 -0.23708479 0.94213456 0.9623477 -0.3188777
-0.21792911 0.21906261 -0.26465237 0.65814924 0.99753004 -0.34083158 -0.44216636 0.65706426
-0.4101017 -0.011338132 -0.9603588 0.0032998356 0.082657225 0.14981236 -0.88877684 -0.80830127
-0.36355868 0.54795945 1.0557305 -0.43349916 0.69494677 -1.2384366 -0.66324806 0.8762337
-0.031949095 0.08703176 0.96523225 -0.32479453 -0.15958147 0.47661176 -0.41238752 -0.9041602
0.5467753 -0.0567943 0.07438533 -0.0138906 -0.27479792 -0.50652343 1.3603925 -0.05709768
0.24146456 -0.46659648 0.51818097 1.6545804 -0.33343557 0.9361992 1.0817143 0.09836116
-0.7953122 0.55457574 0.16301972 -0.069409646 0.5748184 -0.9738145 0.540191 -0.19710991
0.68342984 1.0861447 0.17354782 0.14065106 -0.06620033 0.55235666 0.97071576 0.36036825
0.64797187 0.51037157 -0.76879805 0.044373967 0.0674725 0.5731666 -0.25857797 -0.9711953
-1.2412229 -0.067046195 -0.44119987 0.015115491 -0.4510131 0.28914002 1.3166045 0.3482272
1.0537386 1.0712997 -0.33095253 -0.80522496 -0.030495664 0.010861294 0.042937484 0.20475593
-0.37424392 -0.3934473 0.108916625 1.109956 -0.74930197 -0.30069366 0.38369474 0.24466053
00000000: 8239 bb3f bfda 063f e425 c0be fd8d 9dbf
00000010: 6b9a 73bf 2cc0 613f a8ef 9d3e dc93 99be
00000020: e4b5 053d c491 3f3f c2f7 a4be 537d 9abc
00000030: f698 333f d835 36be 86bc dfbc fe1f 33bf
00000040: 8803 c9bf 8f11 d03f 758b 033f d679 07bf
00000050: be11 f73a 65ca 7b3d e860 443d 6d94 bebd
00000060: 1a0a d63c acfc c33e 5148 a93f 2b0a 253c
00000070: 11a6 673d b382 753c b9d7 afbe 3980 fa3e
00000080: 11d2 f83f 5dfa 81bf 6f3e 06bd 1aa4 263d
00000090: 74a0 893c 82fa 5f3e 2907 f13e b5b7 55bf
000000a0: 24ba 6f3e bbe1 c83e b676 8b3e f4fb ce3d
000000b0: 18f6 dd3e ea49 a1bf 9944 65be 7500 ce3d
000000c0: da97 52bf cad5 3b3e 7a2e e0be 2ba5 7a3f
000000d0: d166 27bf 9800 4abe a1f9 b9be a4be 00c0
000000e0: f51b 3b3d 2cdf 0dbf c476 9a3e 30b3 7f3d
000000f0: d211 1bc0 5a38 b8be adff 753d 470f 95be
00000100: 0622 d33e 62bc c03e cf3a 8fbf c113 eabe
00000110: 2411 e6bd ba48 08bf ee02 bc3c 9453 1abf
00000120: 049f b53e 62d7 743e 7bc2 783e 1a5c f3bc
00000130: 658d 08c0 c8a6 c73e 901c 1b3b 8449 993e
00000140: 0e6c 0abf e4bd 493f 6b05 983e 2e1e 583e
00000150: 7bb6 8e3d 36db a23f 7efa e33e 4a84 d0be
00000160: e762 43bf d35d fc3e fa2e 8cbf 72e2 6f3f
00000170: 4d06 c03e 6d2f 883d 15dc 21be 05b8 37be
00000180: 0fdb 4dbf 034d 40be a42f 3a3f 893d 0c3f
00000190: 3e13 9d3f bdf7 b1be fe8e cb3d b639 e63d
000001a0: b35a 543d c816 f7be 01d9 8bbf 5fee 6fbe
000001b0: dd81 973f 688b 043f 8ca6 843d b1d7 123c
000001c0: 25ac ad3d c33d c1bd 60ed 213f cc00 a33e
000001d0: 51a0 03be 2825 ffbe 77e7 4b3f 80ab e33f
000001e0: 8082 553f 881e 823e 1a0a e73d 6028 5cbe
000001f0: e127 95bf 02bc 863f 0389 2f3d a268 b4bd
00000200: 162a 06bc fba2 c73e 9dce c9be 30c2 57be
00000210: 33ef 443f 1a86 1a3f 7e3a 663e e0d4 0ebf
00000220: 0b4a 82bb 43d9 6a3f 4681 3b3f 2c16 4b3e
00000230: 0330 883f 0a51 6bbc 91cd fbbe cd1b 1fbe
00000240: bcf4 363e eacf ebbd d1d4 31be 7c35 ccbe
00000250: 17e3 ddbf 7cea c63e 9134 81bf 3e08 8fbf
00000260: b301 513e 6c93 44be 01bc f53e 57ec 01bf
00000270: 5bc6 72be bb2f 713f 6b5c 763f f043 a3be
00000280: cf28 5fbe f351 603e 8480 87be 787c 283f
00000290: 215e 7f3f 7a81 aebe a163 e2be 5d35 283f
000002a0: daf8 d1be 93c3 39bc 13da 75bf 0e42 583b
000002b0: 3148 a93d 6968 193e e186 63bf d5ec 4ebf
000002c0: 5d24 babe 1247 0c3f 2d22 873f 9af3 ddbe
000002d0: 08e8 313f 1785 9ebf a0ca 29bf da50 603f
000002e0: 0edd 02bd b53d b23d 7619 773f 784b a6be
000002f0: 5369 23be 7506 f43e 7524 d3be 0b77 67bf
00000300: 77f9 0b3f 24a1 68bd 5657 983d 6695 63bc
00000310: 50b2 8cbe 85ab 01bf 5721 ae3f 42df 69bd
00000320: 7c42 773e bce5 eebe 82a7 043f 4ac9 d33f
00000330: 11b8 aabe c0aa 6f3f 9d75 8a3f 9371 c93d
00000340: 9599 4bbf adf8 0d3f a4ee 263e a526 8ebd
00000350: 4c27 133f e84b 79bf f549 0a3f 2ed7 49be
00000360: 42f5 2e3f ca06 8b3f 85b6 313e d506 103e
00000370: 0a94 87bd 3f67 0d3f d480 783f 3082 b83e
00000380: 7ce1 253f b6a7 023f f3cf 44bf 7ac1 353d
00000390: 062f 8a3d 0cbb 123f 5564 84be 41a0 78bf
000003a0: 64e0 9ebf 844f 89bd f3e4 e1be f7a6 773c
000003b0: 30eb e6be 290a 943e 7f86 a83f d64a b23e
000003c0: e8e0 863f 5920 893f 9c72 a9be 3923 4ebf
000003d0: 0bd2 f9bc 92f3 313c 37df 2f3d 8aab 513e
000003e0: e69c bfbe ed71 c9be ae0f df3d 0a13 8e3f
000003f0: 41d2 3fbf 85f4 99be a373 c43e 4a88 7a3e

global_feature_extractor.third_block.0.conv.1.weight f4 [24]
0.720385 0.7436758 2.5221753 1.7640792 0.44122526 1.473392 0.6902412 1.0754589
0.6026956 2.855941 0.57030666 1.5158341 0.91811514 1.5113827 0.8297678 1.2847035
1.1882133 0.7987111 1.8867134 1.5959113 1.0153784 0.6562453 0.9925552 0.7612595
00000000: 276b 383f 8a61 3e3f 526b 2140 59cd e13f
00000010: 47e8 e13e 1c98 bc3f a6b3 303f a3a8 893f
00000020: 424a 1a3f bdc7 3640 9eff 113f da06 c23f
00000030: 9809 6b3f fd74 c13f aa6b 543f 2a71 a43f
00000040: 6017 983f 5578 4c3f d37f f13f d246 cc3f
00000050: ebf7 813f b1ff 273f 1918 7e3f e7e1 423f

global_feature_extractor.third_block.0.conv.1.bias f4 [24]
0.9421537 1.2478267 -0.07282871 0.11611979 1.3984807 0.4233064 0.9904121 0.57455873
1.0101879 0.17795765 0.8432246 -0.19851403 0.7561443 -0.3621149 0.7713714 0.7787657
-0.36471283 0.8267887 -0.26205647 0.8346426 0.7124181 0.887732 0.46803886 0.83061975
00000000: fc30 713f c9b8 9f3f 3827 95bd 36d0 ed3d
00000010: 6a01 b33f 9ebb d83e a68b 7d3f 4816 133f
00000020: d64d 813f 883a 363e 91dd 573f 4347 4bbe
00000030: ac92 413f 2067 b9be 9978 453f 305d 473f
00000040: a4bb babe 6da8 533f 442c 86be 23ab 553f
00000050: 0861 363f 6842 633f caa2 ef3e 7fa3 543f

global_feature_extractor.third_block.0.conv.1.running_mean f4 [24]
0.13603228 0.07839536 -0.010919642 0.009311712 0.007499814 -0.102759436 0.036399484 0.035428017
-0.090688884 0.031007005 0.066484205 0.075964406 0.06617612 -0.0032985413 0.01824087 0.014940189
0.016681382 0.004311024 0.067237236 0.053791136 0.07707828 -0.018308556 -0.053263206 0.059193194
00000000: 0c4c 0b3e bf8d a03d 4ce8 32bc 2790 183c
00000010: 00c1 f53b 8a73 d2bd a017 153d f81c 113d
00000020: 18bb b9bd 6702 fe3c df28 883d 3a93 9b3d
00000030: 5887 873d 572c 58bb e16d 953c b2c7 743c
00000040: 65a7 883c 7e43 8d3b adb3 893d 1854 5c3d
00000050: 38db 9d3d d3fb 95bc 852a 5abd 9074 723d

global_feature_extractor.third_block.0.conv.1.running_var f4 [24]
18.404194 14.5325165 30.96756 11.264715 7.3559694 21.941124 11.033364 16.358793
10.041833 21.010328 10.143534 17.031807 9.000515 25.189152 17.439692 13.94557
16.019028 15.306272 13.716566 8.807706 16.043066 9.692178 8.315897 14.400995
00000000: ca3b 9341 3085 6841 90bd f741 463c 3441
00000010: 1a64 eb40 6c87 af41 a988 3041 cfde 8241
00000020: 59ab 2041 2715 a841 ea4b 2241 2441 8841
00000030: 1c02 1041 6283 c941 7d84 8b41 0e21 5f41
00000040: f826 8041 7de6 7441 0e77 5b41 5dec 0c41
00000050: 3358 8041 2913 1b41 ea0d 0541 7a6a 6641
