model_checkpoints/experiments/overall/fastscnn_256a0.25t6r1pp0.pt (torch, 163523 bytes, 106 tensors)

learning_to_down_sample.conv.conv.weight f4 [8, 3, 3, 3]
0	0x3e9b8c92	0.30380684
1	0x3e914983	0.28376397
2	0xbd712266	-0.058870696
3	0x3e191627	0.14949857
4	0xbde1c492	-0.11023821
5	0x3ef50a60	0.47859478
6	0xbe728024	-0.23681694
7	0xbe955b1b	-0.2917107
8	0x3f56e36a	0.83940756
9	0x3ef2620d	0.47340432
10	0x3f5be0f7	0.85890144
11	0x3f0c9f9a	0.5493103
12	0x3e84e820	0.25958347
13	0x3daadc8d	0.08342848
14	0x3ff187d4	1.8869576
15	0xbec8bf04	-0.39208233
16	0xbf1ae471	-0.60504824
17	0x3fb1325b	1.3843492
18	0xbe45939a	-0.19294587
19	0xbebebb11	-0.37252095
20	0xbf32288a	-0.6959311
21	0xbe9d35b3	-0.30705032
22	0xbef739c1	-0.4828625
23	0x3f138816	0.57629526
24	0xbef401c0	-0.47657585
25	0xbf4dce56	-0.8039297
26	0x3eecde35	0.4626328
27	0xbeafd21b	-0.34339985
28	0xbe0cfee3	-0.13769107
29	0xbda6f2ac	-0.08151755
30	0xbe82804e	-0.25488514
31	0x3e328806	0.17434701
32	0xbd4626e4	-0.048376933
33	0xbdcc691f	-0.09980988
34	0x3dbf4d10	0.093408704
35	0xbe2d11fe	-0.16901395
36	0xbdb89365	-0.09012488
37	0x3efefb09	0.498009
38	0x3dedc55b	0.11609908
39	0xbe374cee	-0.1790044
40	0x3f14bb4c	0.5809829
41	0x3e878959	0.26471975
42	0xbe974e90	-0.29552126
43	0x3daf34a6	0.08554964
44	0xbeb3911d	-0.3507165
45	0xbf050600	-0.5196228
46	0xbeab8e5d	-0.33507052
47	0xbf18c34c	-0.59673
48	0xbf472b42	-0.7780038
49	0xbe5715b2	-0.2100437
50	0xbeb0a457	-0.3450038
51	0xbf26b237	-0.65115684
52	0xbeb6bd4d	-0.356913
53	0xbf6236f5	-0.8836511
54	0x3d863b8a	0.06554325
55	0x3dc6f21f	0.0971415
56	0x3cfe9251	0.031075628
57	0xbeb65212	-0.3560949
58	0x3c5e2ca4	0.013560448
59	0x3afd980c	0.0019347682
60	0x3ebe4faf	0.3717017
61	0x3e8759bf	0.26435658
62	0x3e12f69f	0.14351891
63	0x3ef9ace4	0.48764718
64	0x3f5ad88f	0.8548669
65	0x3f5a19c7	0.85195583
66	0x3f2cf608	0.67562914
67	0x3f80f38d	1.0074326
68	0x3fb4d490	1.4127369
69	0x3f239cd1	0.6391116
70	0x3f20e69e	0.62851894
71	0x3f04eccd	0.5192383
72	0xbf246638	-0.64218473
73	0xbebcb425	-0.3685619
74	0xbe5d2337	-0.21595465
75	0xbf4eb0a2	-0.8073827
76	0xbef64a60	-0.4810362
77	0xbecb27d4	-0.39678824
78	0xbdcca9b9	-0.099933095
79	0xbed1d038	-0.4097917
80	0xbf0c02ab	-0.5469157
81	0xbd8921d5	-0.06695906
82	0x3e07261b	0.1319813
83	0x3c2f7ebb	0.010711367
84	0xbe0e98ae	-0.1392543
85	0x3c4f267e	0.012643455
86	0xbf101eaf	-0.5629682
87	0x3be5ac74	0.0070090834
88	0x3d84fbc8	0.06493336
89	0xbf502a74	-0.8131478
90	0xbf61f267	-0.882605
91	0xbe152d37	-0.1456803
92	0xbe8f139d	-0.2794465
93	0xbed5699f	-0.41682145
94	0xbf1e4152	-0.6181842
95	0xbf5c9998	-0.86171865
96	0xbe750d57	-0.2393087
97	0x3d72c236	0.059267245
98	0xbf14c969	-0.5811983
99	0xbf4cbf0a	-0.79979
100	0x3ec57734	0.38567507
101	0x3db6bb74	0.089224726
102	0xbd72db60	-0.059291244
103	0x3f630814	0.886842
104	0xbc511863	-0.012762162
105	0x3e74f375	0.23920996
106	0x3f8d0922	1.1018412
107	0x3ee43cbb	0.44577584
108	0x3dcd6d98	0.10030669
109	0x3e2b1f65	0.16711195
110	0xbd7b1a3d	-0.06130432
111	0xbe11203e	-0.14172456
112	0x3c0a7d3c	0.00845271
113	0xbd08f7fa	-0.033439614
114	0x3de09088	0.10965067
115	0xbe3c9037	-0.18414389
116	0xbbbfc407	-0.0058522257
117	0x3f28b954	0.6590779
118	0x3d95b5f4	0.073100954
119	0xbed2a51a	-0.41141587
120	0x3f9b869c	1.2150455
121	0x3eaf08eb	0.3418649
122	0xbe67c549	-0.22633852
123	0x4009960f	2.1497838
124	0x3f0c690e	0.548478
125	0xbda59dc6	-0.080867335
126	0x3e2f0e3d	0.17095275
127	0xbe31acc1	-0.17351057
128	0xbefd410f	-0.49463698
129	0x3d345a57	0.044031467
130	0xbe8dea54	-0.2771784
131	0xbec62e00	-0.3870697
132	0x3f02d5eb	0.5110766
133	0xbed87ada	-0.42281228
134	0xbf0aee5d	-0.54269964
135	0xbecb10ce	-0.39661258
136	0xbf0bcbf8	-0.54608107
137	0xbf36f190	-0.71462345
138	0xbddc7a4e	-0.10765515
139	0x3d48759b	0.048940282
140	0x3e4c8abb	0.19974796
141	0x3ef3ea8a	0.47639877
142	0x3f33c60c	0.7022407
143	0x3ecfb63f	0.4056873
144	0xbf1ad013	-0.60473746
145	0xbef754b5	-0.48306814
146	0xbf5e4225	-0.8681968
147	0xbebe3162	-0.3714705
148	0x3e348054	0.17627078
149	0x3ea13ab7	0.31490108
150	0x3f205f11	0.6264506
151	0x3f62cdc4	0.88595223
152	0x3f1146aa	0.5674845
153	0xbf214568	-0.6299653
154	0xbf0b70d4	-0.5446904
155	0xbf489933	-0.78358763
156	0xbeb5e258	-0.3552425
157	0x3c87ce23	0.016577786
158	0x3d208be1	0.0391959
159	0x3f4c3642	0.7977029
160	0x3f48cfc7	0.78442043
161	0x3f0657a4	0.5247748
162	0xbd265197	-0.040605154
163	0xbf0d305d	-0.5515192
164	0xbecdc787	-0.4019129
165	0xbe77db39	-0.2420472
166	0xbf270370	-0.6523962
167	0xbf3ab31f	-0.7292957
168	0xbe6ede89	-0.23327078
169	0xbf166b00	-0.5875702
170	0xbf2cda86	-0.6752094
171	0x3f01bb88	0.50676775
172	0x3ecd1197	0.40052482
173	0x3eadc2bf	0.33937642
174	0x3ebaa33a	0.36452657
175	0x3f588212	0.8457347
176	0x3f1fe14a	0.6245314
177	0x3e7d6399	0.24745025
178	0x3ec142c3	0.37746248
179	0x3eba5e7f	0.3640022
180	0x3dd88b61	0.105734594
181	0xbe0ffc15	-0.14061005
182	0xbe8204a8	-0.25394177
183	0xbce4b69e	-0.02791911
184	0x3e347a2b	0.17624728
185	0x3daba7ee	0.083816394
186	0xbe887a0d	-0.26655617
187	0x3e0734ad	0.13203688
188	0xbd812531	-0.06305922
189	0xbf238cf9	-0.6388698
190	0x3f3c7cd1	0.73627955
191	0x3e11f008	0.14251721
192	0xbf573a3a	-0.8407322
193	0x3f5084f8	0.81452894
194	0xbe981206	-0.2970125
195	0x3db0fca4	0.086419374
196	0x3f4a4deb	0.79025143
197	0xbef6e5e8	-0.4822228
198	0xbf40239d	-0.7505434
199	0x3f36a1ff	0.71340936
200	0xbced4ad6	-0.028966349
201	0xbf516da0	-0.818079
202	0x3f7ec136	0.99513566
203	0xbe01ea1b	-0.1268696
204	0x3df80ea7	0.1211217
205	0x3f248e7b	0.6427991
206	0xbf53b53e	-0.8269843
207	0xbebbeebe	-0.36705583
208	0x3f214d1c	0.63008285
209	0xbdaba3ee	-0.083808765
210	0xbf222866	-0.63342893
211	0x3f66660f	0.8999948
212	0xbec93a55	-0.39302316
213	0x3d6ad812	0.057334967
214	0x3f2b7852	0.6698047
215	0xbf72fd0a	-0.94917357

learning_to_down_sample.conv.bn.weight f4 [8]
0	0x401ea5f4	2.478879
1	0x3f27a915	0.65492374
2	0x3f2d6ed5	0.6774724
3	0x402df669	2.7181647
4	0x3f8a41f9	1.0801383
5	0x407fac63	3.9948967
6	0x3f57a68c	0.84238505
7	0x3ffbd583	1.9674534

learning_to_down_sample.conv.bn.bias f4 [8]
0	0x3e65f0b2	0.22455099
1	0x3f114982	0.5675279
2	0x3f3df231	0.7419768
3	0xbdf14110	-0.11779988
4	0x3f12af14	0.572984
5	0x3db7a38d	0.08966742
6	0xbf1b39ac	-0.60634875
7	0xbe90d12f	-0.28284594

learning_to_down_sample.conv.bn.running_mean f4 [8]
0	0x3df81e49	0.121151514
1	0xc067b4ec	-3.6204176
2	0xbe9d7c9c	-0.30759132
3	0x3dcc70af	0.0998243
4	0x3ecee22f	0.4040694
5	0x3b5d2c57	0.0033748352
6	0x3f5d4bab	0.86443585
7	0xbdf0fef0	-0.117673755

learning_to_down_sample.conv.bn.running_var f4 [8]
0	0x40e61a87	7.190738
1	0x41231937	10.193656
2	0x40e36496	7.1060286
3	0x40824f31	4.072167
4	0x40bbe541	5.871735
5	0x4095ee8d	4.68537
6	0x4001bb9e	2.0270762
7	0x3fa4bed6	1.2870739

learning_to_down_sample.dsconv1.0.weight f4 [8, 1, 3, 3]
0	0x3e85f0bb	0.26160225
1	0x3f0dece5	0.554396
2	0x3f0db3d6	0.5535253
3	0x3f3ae7f8	0.73010206
4	0x3f9f7a50	1.2459202
5	0x3f3d5b45	0.7396739
6	0x3ef4a232	0.47779995
7	0x3f2fe8af	0.6871442
8	0x3e82c25a	0.25538903
9	0x3f49a546	0.7876781
10	0x3eadfecb	0.33983454
11	0x39e0ada7	0.0004285399
12	0x3f2ccdd6	0.6750158
13	0xbefe8f99	-0.4971893
14	0xbf56a12c	-0.8383968
15	0x3dbcc60d	0.09217463
16	0xbe7e2118	-0.24817312
17	0xbf30f877	-0.6912913
18	0x3f1ab291	0.6042872
19	0x3f4ea5de	0.80721843
20	0x3f381fc3	0.71923465
21	0x3ead9514	0.339028
22	0xbd8200ed	-0.06347833
23	0xbf068e51	-0.5256091
24	0x3d9be514	0.076120526
25	0xbf2a1b4c	-0.664479
26	0xbfa5aee3	-1.2943996
27	0xbbe47d6d	-0.0069729597
28	0xbf079af0	-0.5297079
29	0xbedf9bfa	-0.43673688
30	0x3e6a52bc	0.22883123
31	0xbf75e20a	-0.96048033
32	0xbfa2b867	-1.2712525
33	0x3e32cb30	0.17460322
34	0xbeed7099	-0.46374968
35	0xbf0e1cf8	-0.5551295
36	0xbc83bcc4	-0.016081221
37	0xbef59a5b	-0.47969326
38	0xbf06f014	-0.5271008
39	0x3d8e1e40	0.069393635
40	0x3d397a6d	0.04528277
41	0x3deb5ff9	0.11492915
42	0x3f3fe84a	0.7496382
43	0x3f3242b4	0.6963303
44	0x3ef95bbb	0.48702797
45	0x3ebd4181	0.36964038
46	0x3f1b4cd7	0.60664123
47	0x3de7311c	0.11288664
48	0x3ec8e758	0.39239
49	0x3f635054	0.88794446
50	0x3f31a54a	0.69392836
51	0x3d550abd	0.052012194
52	0x3f08278c	0.53185344
53	0x3f50e1b9	0.81594425
54	0xbe5398eb	-0.20663802
55	0xbe9587ee	-0.2920527
56	0x3e2505a9	0.1611544
57	0x3e32f3f4	0.17475873
58	0xbf7a1e33	-0.9770233
59	0xbfa3fe48	-1.2811975
60	0x3f1b0d92	0.6056758
61	0xbea9e433	-0.33181915
62	0xbf724938	-0.9464297
63	0xbe9e797d	-0.30952063
64	0xbf0393a6	-0.5139717
65	0xbe779f12	-0.24181774
66	0xbe8b256f	-0.27176997
67	0xbf6dea50	-0.9293566
68	0xbf4212bf	-0.75809854
69	0xbd0a96c9	-0.033835206
70	0xbf29e58f	-0.66365904
71	0xbf05fbd9	-0.52337414

learning_to_down_sample.dsconv1.1.weight f4 [8]
0	0x3fa712dc	1.305263
1	0x3f61b7bc	0.8817098
2	0x3fab41ec	1.3379493
3	0x3f98dc56	1.1942241
4	0x3f566c9b	0.8375947
5	0x3f8d85cd	1.1056458
6	0x3fa8ea0e	1.3196428
7	0x3f6de5cc	0.9292877

learning_to_down_sample.dsconv1.1.bias f4 [8]
0	0x3d526ad3	0.051371407
1	0xbc743cc0	-0.014907062
2	0x3cfa6ecc	0.03057041
3	0xbcacd9a8	-0.02109988
4	0x3c57f3fc	0.013180729
5	0x3c34d9d6	0.011038264
6	0xbbb4bafd	-0.005515455
7	0xbb3ddea1	-0.0028971808

learning_to_down_sample.dsconv1.1.running_mean f4 [8]
0	0x40b69afd	5.7064195
1	0xbe858d2a	-0.26084262
2	0xbd19f99b	-0.037591558
3	0xc0701803	-3.7514656
4	0x3f62fec4	0.8866999
5	0x4095754a	4.6705675
6	0xbecab886	-0.39593905
7	0xbfa33c4d	-1.2752777

learning_to_down_sample.dsconv1.1.running_var f4 [8]
0	0x421edd68	39.716217
1	0x3f40ef19	0.75364834
2	0x3f11b56c	0.5691745
3	0x421277e3	36.617077
4	0x3f5978e8	0.84950113
5	0x424b2b4e	50.79229
6	0x407b1ca7	3.9236238
7	0x4119902d	9.597699

learning_to_down_sample.dsconv1.2.weight f4 [12, 8, 1, 1]
0	0xbea2d1e1	-0.3180075
1	0xbf47754c	-0.77913356
2	0xbf703316	-0.9382795
3	0x3d802238	0.06256527
4	0x3f546a41	0.8297463
5	0x3f1687b7	0.58800834
6	0xbea19df4	-0.3156582
7	0x3e9269be	0.285963
8	0x3fc5aa6a	1.5442631
9	0xbe2c6aa5	-0.16837557
10	0x3e8d51c0	0.27601433
11	0x3f3f0f2f	0.74632543
12	0xbf0ac922	-0.54213154
13	0x3ef0d5d6	0.47038144
14	0xbef80e0f	-0.48448226
15	0xbee8caa8	-0.45467114
16	0x3fd117f8	1.633544
17	0xbe52b256	-0.20575842
18	0x3cff8f20	0.031196177
19	0x3f5f935c	0.8733423
20	0xbe99f71e	-0.30071348
21	0x3f1a9b53	0.60393256
22	0xbe482ed7	-0.19549118
23	0xbeec5095	-0.4615523
24	0x3e561c72	0.20909289
25	0xbe4e308d	-0.20135708
26	0xbefe77f3	-0.4970089
27	0xbef4dbae	-0.47823852
28	0xbe83e218	-0.25758433
29	0x3f1c2dca	0.6100737
30	0xbf652474	-0.8950875
31	0x3e6fd18d	0.23419781
32	0x3f0e7e6d	0.5566166
33	0xbed74f81	-0.42052844
34	0xbea2451f	-0.3169336
35	0xbd39421c	-0.045229062
36	0x3e1e98e9	0.15488018
37	0x3e99775e	0.29973882
38	0xbf7522bd	-0.9575613
39	0xbc550326	-0.013001239
40	0xbd93609a	-0.0719616
41	0x3f439268	0.76395273
42	0xbfc87894	-1.5661798
43	0x3c8a75ae	0.016901817
44	0xbe419df2	-0.18907908
45	0x3ed10ce4	0.40830147
46	0x3dac2a60	0.0840652
47	0x3e5563f9	0.20838918
48	0x3e8abd42	0.27097517
49	0x3f570913	0.8399822
50	0xbf4d7773	-0.8026039
51	0x3faa85d8	1.3322096
52	0xbc07164a	-0.00824506
53	0xbefe7ed8	-0.4970615
54	0x3f0408fe	0.5157622
55	0xbe3679ac	-0.17819852
56	0xbe81e107	-0.25366995
57	0xbeb57ad9	-0.35445288
58	0x3eed080b	0.462952
59	0x3ed27958	0.41108203
60	0xbd37b9e1	-0.044855002
61	0x3eafb1c3	0.3431531
62	0xbf87b7a4	-1.0602918
63	0xbe0b1c20	-0.13584948
64	0xbeb3bfa3	-0.35107145
65	0x3da36c60	0.07979655
66	0x3d40c96f	0.047067102
67	0xbd4fd08c	-0.050735995
68	0x3f1cb2bd	0.6121023
69	0x3f8b3ff8	1.0878897
70	0x3ecf0298	0.40431666
71	0x3f809d9b	1.0048097
72	0x3fda8f99	1.7075073
73	0x3e4f3417	0.20234714
74	0xbe2ae665	-0.16689451
75	0x3f7d0316	0.98832834
76	0x3e769971	0.24081971
77	0x3d059d25	0.032620568
78	0xbdc0f0b3	-0.0942091
79	0xbf1b3816	-0.60632455
80	0xbe87634f	-0.26442954
81	0xbf368441	-0.71295553
82	0x3eb76991	0.35822728
83	0xbf9656d7	-1.1745251
84	0xbd31923b	-0.043352347
85	0x3eceb8cc	0.40375364
86	0x3f173d6c	0.590781
87	0x3f06b94c	0.5262649
88	0xbef1924a	-0.47181922
89	0xbf1c3312	-0.6101543
90	0x3f1389fc	0.5763242
91	0xbe115ae3	-0.14194827
92	0x3facb274	1.349196
93	0x3c60e707	0.013726956
94	0x3d1f79e6	0.03893461
95	0xbd4cd3bd	-0.050006617

learning_to_down_sample.dsconv1.3.weight f4 [12]
0	0x401b275b	2.424277
1	0x3f14075e	0.5782374
2	0x3f8f2a5f	1.1184806
3	0x3fcb8433	1.5899719
4	0x3fe2c5dc	1.7716632
5	0x4025f02b	2.5927837
6	0x3eb1b67a	0.3470953
7	0x3fa38f78	1.2778158
8	0x3fe7d1bf	1.8110884
9	0x3f131cf2	0.5746604
10	0x3f423366	0.7585968
11	0x400e17dd	2.2202065

learning_to_down_sample.dsconv1.3.bias f4 [12]
0	0x3eb1ff43	0.34765062
1	0x3f678890	0.9044275
2	0x3f52e0d6	0.8237432
3	0xbeddd0e4	-0.43323433
4	0xbe832d59	-0.25620535
5	0x3dd707bd	0.10499523
6	0x3f9054d2	1.1275885
7	0x3eddb48a	0.43301803
8	0x3ecbc919	0.39801863
9	0x3f68a85c	0.90881896
10	0x3f3918f1	0.7230368
11	0x3e44714e	0.19183847

learning_to_down_sample.dsconv1.3.running_mean f4 [12]
0	0xbc863363	-0.016381925
1	0x3d9cccd8	0.07656258
2	0x3d98d904	0.074632674
3	0x3c850979	0.016239868
4	0x3d16ba56	0.036798798
5	0xbd7f7203	-0.06236459
6	0xbd725f02	-0.059172638
7	0x3beb709b	0.0071850545
8	0xbae840c9	-0.0017719503
9	0x3d8436c1	0.06455756
10	0x3d029d3d	0.031888235
11	0x3cbf1d95	0.023329535

learning_to_down_sample.dsconv1.3.running_var f4 [12]
0	0x406d7f1f	3.7108839
1	0x40c02f25	6.005755
2	0x40d16853	6.543985
3	0x40316e46	2.7723556
4	0x403eb375	2.9797032
5	0x40eff9f2	7.499261
6	0x40dd9acc	6.925146
7	0x4016ace9	2.3543036
8	0x40593f56	3.3944907
9	0x4121a68f	10.103164
10	0x40b2e281	5.5901494
11	0x3fe3cbd5	1.779658

learning_to_down_sample.dsconv2.0.weight f4 [12, 1, 3, 3]
0	0xbd984b4b	-0.07436236
1	0xbf2d88b1	-0.677867
2	0xbf6301ed	-0.88674814
3	0xbe219081	-0.1577778
4	0x3ceedfdb	0.029159477
5	0x3dd16f4c	0.10226306
6	0x3eca0d22	0.39463145
7	0x3f95529d	1.1665837
8	0x3f3eb5bf	0.7449607
9	0x3e6cdb9a	0.23130646
10	0x3f27872e	0.6544064
11	0x3f824f0b	1.0180372
12	0xbeba9f34	-0.36449587
13	0xbe166987	-0.14688693
14	0x3ec3d6e2	0.3824988
15	0xbeb0a335	-0.34499517
16	0xbf6b97ec	-0.9202869
17	0xbd4900a3	-0.049072873
18	0xbe3e0538	-0.18556678
19	0x3eb74c01	0.35800174
20	0xbe8f602f	-0.2800307
21	0x3f1fd504	0.6243441
22	0x4010144c	2.2512388
23	0x3f53b43a	0.8269688
24	0xbd420f3c	-0.04737781
25	0x3efcd3a1	0.4938021
26	0xbeae8f63	-0.3409377
27	0xbe3248da	-0.17410603
28	0x3ed7b193	0.42127666
29	0x3ca77326	0.02044065
30	0x3b7e4f8b	0.0038804736
31	0x3f657ab8	0.8964038
32	0x3fa66bad	1.300161
33	0xbbff89a5	-0.007798391
34	0x3e61682f	0.22012399
35	0x3f1a21a7	0.602076
36	0xbe3d79a0	-0.18503428
37	0xbee692c4	-0.45033848
38	0xbf35afa5	-0.7097114
39	0x3e25e890	0.16201997
40	0xbf4d33c1	-0.80157095
41	0xbf84065b	-1.031444
42	0x3db84cc3	0.08999016
43	0xbeeefa6c	-0.46675432
44	0xbf300b7a	-0.6876751
45	0x3d04aa71	0.032389108
46	0xbe1b4bc4	-0.15165621
47	0xbebb4c64	-0.3658172
48	0xbdf331e6	-0.11874752
49	0xbf9b9e09	-1.2157604
50	0xbf8dfe01	-1.1093141
51	0xbe2a8527	-0.16652356
52	0xbf02c038	-0.5107455
53	0xbf3e9ae8	-0.7445512
54	0xbf086eaa	-0.5329386
55	0xbf8d0ca2	-1.101948
56	0xbe732637	-0.23745047
57	0xbe7149de	-0.23563334
58	0xbf2400b6	-0.64063585
59	0xbea191d6	-0.31556576
60	0x3e9764e2	0.29569155
61	0x3f74346e	0.953925
62	0x3eb17207	0.34657308
63	0xbd791d15	-0.06081875
64	0x3d4f5116	0.05061444
65	0xbdb1cecf	-0.08682024
66	0x3f098c2f	0.5372953
67	0x3ff4b6e5	1.9118315
68	0x3e911a8e	0.28340572
69	0xbe0e5bb1	-0.13902165
70	0x3f0ac5d0	0.5420809
71	0xbe0f3337	-0.1398438
72	0x3b171776	0.0023054755
73	0xbf3b82c2	-0.73246396
74	0xbf2065f9	-0.626556
75	0xbdb5003e	-0.08837937
76	0xbf624257	-0.88382477
77	0xbf73bc4b	-0.9520919
78	0xbd040dbd	-0.032239664
79	0xbe8b5fff	-0.27221677
80	0xbef2ffff	-0.47460935
81	0xbe2a6cd8	-0.16643083
82	0xbf03efc7	-0.51537746
83	0x3d5555a9	0.052083645
84	0xbeb36442	-0.35037428
85	0xbf2d33dd	-0.6765726
86	0x3e604d09	0.21904387
87	0x3e768816	0.2407535
88	0x3f27c045	0.65527755
89	0x3f9e767c	1.2379909
90	0x3d2a7e2d	0.041624237
91	0xbdd63cca	-0.10460813
92	0xbd086964	-0.033303633
93	0xbea38b83	-0.31942376
94	0xbfaac7ed	-1.3342263
95	0xbf4e4708	-0.80577135
96	0x3e1b7ee2	0.1518512
97	0xbf63de02	-0.8901063
98	0xbf568d35	-0.83809215
99	0x3eebd24f	0.4605889
100	0xbd8b0ba1	-0.067893274
101	0xbf17c6b5	-0.5928758
102	0x3f468817	0.77551407
103	0xbe9b9a86	-0.3039133
104	0xbf7608db	-0.9610726
105	0x3ef2f133	0.47449645
106	0xbd91afdf	-0.07113623
107	0xbf361df7	-0.7113947

learning_to_down_sample.dsconv2.1.weight f4 [12]
0	0x3f8eac9d	1.1146427
1	0x3fbea1b2	1.4893095
2	0x3fa0b5b8	1.2555456
3	0x3f7ab47c	0.9793165
4	0x3f5ef423	0.87091273
5	0x3f6d90ee	0.9279927
6	0x3f81a9f8	1.0129995
7	0x3f5acf7a	0.85472834
8	0x3f9287da	1.1447709
9	0x3fc3ae41	1.5287553
10	0x3f9146e1	1.1349756
11	0x3fb28e3f	1.394966

learning_to_down_sample.dsconv2.1.bias f4 [12]
0	0x3c7216bf	0.014775931
1	0x3bb0d33d	0.0053962753
2	0xbc9144cd	-0.017733002
3	0xbba61aa6	-0.0050690947
4	0x3ccb784c	0.024837635
5	0xbcaf1615	-0.021372834
6	0xbcae8fec	-0.021308862
7	0xba8b3128	-0.0010619508
8	0xbbb20410	-0.005432613
9	0xbc347a9d	-0.011015561
10	0xbd0a0091	-0.033691946
11	0x3be6cfdd	0.007043822

learning_to_down_sample.dsconv2.1.running_mean f4 [12]
0	0x3f1ba378	0.6079631
1	0x3ec4d171	0.3844104
2	0x405e5754	3.47408
3	0x3fb7ef77	1.4369954
4	0xbfe95757	-1.8229779
5	0xc0791629	-3.8919775
6	0xbfc9e517	-1.5773038
7	0x3fce0315	1.609469
8	0xc0481884	-3.1264963
9	0x3f27e5df	0.6558513
10	0xc04ce331	-3.2013667
11	0xbf542ac1	-0.8287774

learning_to_down_sample.dsconv2.1.running_var f4 [12]
0	0x419a20c1	19.265993
1	0x3f406a30	0.7516203
2	0x414afa18	12.686058
3	0x413136c6	11.075872
4	0x41f86e98	31.054
5	0x41b45f7f	22.546629
6	0x3f17afd8	0.5925269
7	0x41308ae6	11.033911
8	0x413df236	11.871634
9	0x3f064b8c	0.52459025
10	0x40a440cf	5.132911
11	0x4182c7f4	16.347633

learning_to_down_sample.dsconv2.2.weight f4 [16, 12, 1, 1]
0	0xbc89ba11	-0.016812356
1	0x3e228d6b	0.15874259
2	0x3f21f143	0.6325876
3	0x3daa792f	0.08323895
4	0x3e058045	0.13037212
5	0xbe332740	-0.17495441
6	0xbf766165	-0.9624236
7	0x3f0014fa	0.5003201
8	0xbea942ff	-0.33058926
9	0xbf9620e2	-1.1728785
10	0xbe908466	-0.28226012
11	0xbec28063	-0.37988576
12	0x3ecb8f63	0.39757833
13	0xbee0db77	-0.43917438
14	0x3e5dff12	0.21679333
15	0xbf8f686f	-1.1203746
16	0x3f1daf5f	0.6159572
17	0x3de7dbdf	0.11321234
18	0xbeebfbc3	-0.46090516
19	0xbff63951	-1.9236242
20	0x3f2bc592	0.67098343
21	0xbe4d69db	-0.20059912
22	0xbe36eee7	-0.17864572
23	0x3e70d2f5	0.23517974
24	0xbc8a7a9f	-0.016904173
25	0x3f1d6685	0.6148456
26	0x3f055aba	0.5209156
27	0x3f4d4263	0.80179423
28	0xbf6ba7b2	-0.9205276
29	0x3e16c4b9	0.14723481
30	0x3ddce1f0	0.10785282
31	0xbd30ef88	-0.043197185
32	0x3e68e4de	0.22743556
33	0x3eb86a60	0.36018658
34	0x3f377dce	0.7167634
35	0xbe9fbb29	-0.3119748
36	0x3e9dcfc9	0.3082259
37	0x3ecfc5f5	0.40580717
38	0xbf02c5e0	-0.51083183
39	0x3e89476f	0.26812312
40	0x3ee09c43	0.43869218
41	0xbc7fc5e7	-0.015611148
42	0xbeeb5c9c	-0.45969093
43	0xbefd19e8	-0.49433827
44	0xbe0559d2	-0.13022545
45	0x3f600729	0.87510926
46	0xbf25e91d	-0.6480883
47	0xbf8fbaab	-1.1228842
48	0xbda32d34	-0.07967606
49	0xbebbdfc7	-0.36694166
50	0xbec136b5	-0.3773705
51	0x3f5ba010	0.8579111
52	0xbf3f1558	-0.7464194
53	0x3d6ae5b3	0.057347964
54	0xbe59e941	-0.21280386
55	0x3f610d30	0.8791075
56	0x3f6bd73a	0.92125285
57	0x3d9c11ea	0.07620604
58	0x3eca7ca6	0.39548224
59	0x3e6e8e8c	0.23296565
60	0x3b5270e8	0.0032110754
61	0xbe3862d3	-0.18006448
62	0x3b86cb05	0.0041135573
63	0xbf68c6db	-0.9092843
64	0x3f0ad666	0.54233396
65	0x3eb0787f	0.3446693
66	0xbe821f7a	-0.2541464
67	0xbf0418ae	-0.5160016
68	0x3f871884	1.0554357
69	0x3f69e677	0.91367286
70	0x3e5cf97e	0.21579549
71	0xbc37a44a	-0.011208603
72	0x3e590d12	0.21196392
73	0xbf28f816	-0.6600355
74	0xbe0354c6	-0.12825307
75	0x3e39c137	0.18140112
76	0xbe7ec7b7	-0.24880873
77	0x3ffc06f9	1.9689628
78	0x3e31486e	0.17312786
79	0xbf087355	-0.5330098
80	0x3f4e9ad7	0.80705017
81	0xbcb2fef7	-0.021850092
82	0x3f0e055c	0.5547693
83	0xbeae79e2	-0.34077364
84	0xbf0fc8a2	-0.56165516
85	0x3e3a2a9e	0.1818032
86	0xbf1820c7	-0.59425014
87	0x3d459a0e	0.04824262
88	0x3eaa6ad5	0.3328463
89	0x3e264b9b	0.16239779
90	0x3f3e5a5c	0.7435663
91	0xbf7183a2	-0.9434148
92	0x3f73a460	0.9517269
93	0x3e9ea3a0	0.3098421
94	0x3ecfc78d	0.40581933
95	0xbf3722e1	-0.71537596
96	0xbf687126	-0.9079765
97	0xbe334caa	-0.17509714
98	0x3f7b5a05	0.98184234
99	0xbe02830b	-0.12745301
100	0x3d9f606b	0.07782062
101	0xbd3d4d6b	-0.04621641
102	0xbdc22211	-0.09479154
103	0xbd76090a	-0.060067214
104	0x3f30b252	0.69022095
105	0x3eb55069	0.3541291
106	0x3f8803a1	1.0626107
107	0x3ec9a189	0.39381054
108	0x3f1bd88f	0.6087732
109	0x3e0212d8	0.12702501
110	0x3fc58ada	1.5432999
111	0xbe395762	-0.1809974
112	0xbf41aad4	-0.7565129
113	0xbed989ac	-0.42487848
114	0xbf4e4892	-0.80579484
115	0xbda1beab	-0.07897695
116	0xbe9cd031	-0.30627587
117	0x3e29c51f	0.16579102
118	0xbe69ae43	-0.22820382
119	0xbd2c8448	-0.04211834
120	0xbfa1b36c	-1.263288
121	0x3f35172f	0.707385
122	0xbea0762a	-0.31340152
123	0x3eded05d	0.43518344
124	0xbef03e06	-0.4692232
125	0x3ec59c7d	0.38595954
126	0x3e75a42b	0.23988406
127	0xbe25a810	-0.16177392
128	0x3f3d9b62	0.7406522
129	0xbe155e75	-0.14586814
130	0xbda0976e	-0.07841383
131	0xbf0b1779	-0.5433269
132	0xbdcfc785	-0.10145477
133	0x3f19170d	0.598008
134	0x3f204cb9	0.6261707
135	0xbeb25600	-0.34831238
136	0x3d796ddf	0.060895797
137	0x3f82c915	1.0217615
138	0xbf8fadff	-1.1224974
139	0x3db14c0b	0.08657082
140	0x3f3b94f9	0.7327419
141	0xbefa4442	-0.48880202
142	0x3f1c4c6d	0.61054116
143	0xbe78dc46	-0.24302778
144	0xbf0be5f9	-0.54647785
145	0xbf9bf52d	-1.2184197
146	0x3edf0d0a	0.43564636
147	0x3db05db3	0.08611622
148	0x3e8358e4	0.25653756
149	0xbf15c912	-0.58509934
150	0x3df43f35	0.11926118
151	0x3e1e8d51	0.15483595
152	0xbd94fc48	-0.07274681
153	0xbd924fb4	-0.071441084
154	0x3ea78b0b	0.3272327
155	0xbf629501	-0.8850861
156	0x3f3d5ed9	0.7397285
157	0xbeec228f	-0.46120116
158	0xbf2e11a8	-0.6799569
159	0xbda6ebc4	-0.081504375
160	0xbeae17c0	-0.34002495
161	0xbf0d5213	-0.5520336
162	0xbeb788f1	-0.35846666
163	0xbe5565b3	-0.20839576
164	0xbdc0dad8	-0.09416741
165	0x3f8cca83	1.0999302
166	0xbebcde29	-0.36888245
167	0x3e908386	0.28225344
168	0xbf236be9	-0.6383653
169	0x3f5e1013	0.8674328
170	0xbf0d43c8	-0.5518155
171	0x3eef33eb	0.46719298
172	0x3ec97173	0.39344367
173	0xbea271d9	-0.31727484
174	0xbd04bd1a	-0.032406904
175	0x3d83c4be	0.0643401
176	0xbe7062cf	-0.23475192
177	0x3f0cb384	0.5496142
178	0xbec541c9	-0.38526753
179	0x3f3d6f2b	0.73997754
180	0xbe2452ee	-0.1604726
181	0x3f56d174	0.8391335
182	0xbdd49e8e	-0.103818044
183	0x3edb2ee1	0.42809203
184	0x3e28c36f	0.16480802
185	0x3eb4c8ac	0.3530935
186	0x3f22ccdd	0.63593847
187	0x3eb4df8c	0.35326803
188	0xbdba8e93	-0.09109225
189	0xbed8fe0a	-0.42381316
190	0xbf94a2be	-1.1612165
191	0x3ea23d46	0.31687373

learning_to_down_sample.dsconv2.3.weight f4 [16]
0	0x3fc0bfec	1.505857
1	0x3faf338d	1.3687607
2	0x3f804267	1.0020264
3	0x3fd81a46	1.6883018
4	0x3f809cac	1.0047812
5	0x3f8c852c	1.0978141
6	0x3fd52ae0	1.665371
7	0x3f9f7900	1.2458801
8	0x3f88d4a3	1.0689892
9	0x3f954815	1.1662623
10	0x3f94bdad	1.1620384
11	0x3fb0a154	1.3799233
12	0x3fdb7175	1.7143999
13	0x3fccc10d	1.5996414
14	0x3f89e664	1.0773435
15	0x3f9144a2	1.134907

learning_to_down_sample.dsconv2.3.bias f4 [16]
0	0x3ea19cb3	0.31564865
1	0x3eaeb105	0.3411943
2	0x3f93e69c	1.1554751
3	0x3e8f24d5	0.27957788
4	0x3f1269f9	0.5719295
5	0x3e6fda0b	0.2342302
6	0xbf25ef9e	-0.6481875
7	0xbdde6c0f	-0.10860454
8	0x3f689781	0.90856177
9	0x3e5639d6	0.209205
10	0xbde1500c	-0.11001596
11	0x3f8b4c7f	1.088272
12	0x3eef96fe	0.46794885
13	0x3d96f8e7	0.07371693
14	0x3e4abba5	0.19798143
15	0x3ef3d835	0.4762589

learning_to_down_sample.dsconv2.3.running_mean f4 [16]
0	0x3d198416	0.037479483
1	0x3d14cb4d	0.036326695
2	0xbd8f7905	-0.070055045
3	0x3d27e295	0.04098757
4	0xbd0d5f6a	-0.034514822
5	0xbbf4c520	-0.007469788
6	0xbd9b067d	-0.07569597
7	0xbd0cc667	-0.0343689
8	0xbd88d124	-0.066805154
9	0xbb028c7b	-0.0019920159
10	0xbd238d1f	-0.039929505
11	0xbcccae39	-0.02498542
12	0xbcba2559	-0.022722887
13	0x3d0f155c	0.03493248
14	0x3d0838f8	0.033257455
15	0x3cfdcafe	0.030980583

learning_to_down_sample.dsconv2.3.running_var f4 [16]
0	0x40bf3bb1	5.9760365
1	0x412d3eea	10.82786
2	0x40e9bcc4	7.3042927
3	0x40834c69	4.1030774
4	0x409df808	4.9365273
5	0x40bb437c	5.851988
6	0x40b19fc7	5.550754
7	0x403d87b6	2.9614081
8	0x41255682	10.33362
9	0x40b6e37e	5.71527
10	0x4098d3ee	4.7758703
11	0x417b0410	15.688492
12	0x40ffa855	7.9892983
13	0x40cb0f36	6.345607
14	0x4070ea21	3.76429
15	0x40bf1048	5.9707375

global_feature_extractor.first_block.0.conv.0.weight f4 [96, 16, 1, 1]
0	0x3e34ba1f	0.17649125
1	0xbebf7a8d	-0.37398186
2	0x3f24c270	0.6435919
3	0xbee9147a	-0.45523435
4	0x3d1dfc1a	0.0385705
5	0x3e052345	0.13001736
6	0xbda84978	-0.08217138
7	0x3ccb79c8	0.024838343
8	0x3f855168	1.0415468
9	0x3f8d3634	1.1032166
10	0x3eade054	0.3396021
11	0x3e52ed28	0.2059828
12	0xbd1b87b8	-0.03797123
13	0xbe941330	-0.2892089
14	0xbe32eaa5	-0.17472322
15	0xbe4e3cf4	-0.2014044
16	0xbe2271ae	-0.15863678
17	0xbf361ab6	-0.7113451
18	0x3e2b1e8f	0.16710876
19	0xbea0bd64	-0.31394494
20	0xbc927daf	-0.017882196
21	0xbda172f0	-0.07883251
22	0x3eaa417d	0.3325309
23	0xbd53560b	-0.05159573
24	0x3e8e674f	0.27813193
25	0x3ee60bd6	0.44930905
26	0xbf693cd2	-0.9110843
27	0x3e21c02d	0.15795965
28	0x3e42dca4	0.1902948
29	0x3cf5740b	0.02996256
30	0xbe7aa5fe	-0.24477383
31	0xbf58646a	-0.8452822
32	0xbec45d08	-0.38352227
33	0x3e22b6b5	0.1589001
34	0xbdc744c0	-0.0972991
35	0xbe21e0e2	-0.15808442
36	0xbdc1d6ad	-0.09464774
37	0x3e96adda	0.29429513
38	0xbe69221c	-0.22766918
39	0x3ec4e707	0.3845751
40	0x3ebce56a	0.3689378
41	0x3e4b888a	0.19876304
42	0x3e802752	0.2503
43	0xbf79bc58	-0.97553015
44	0x3e17fa41	0.14841558
45	0x3f80874b	1.0041288
46	0x3f0cfbb9	0.550716
47	0xbe02c805	-0.12771614
48	0x3f394223	0.7236654
49	0xbf7c591b	-0.98573464
50	0x3e7836cd	0.24239655
51	0x3f0587f6	0.52160585
52	0xbf22bc99	-0.6356903
53	0xbf546d84	-0.8297961
54	0xbf2b14f2	-0.66828835
55	0xbf2de04a	-0.6792036
56	0xbea6883e	-0.3252582
57	0x3e79a669	0.24379887
58	0x3d388ce4	0.04505624
59	0xbdf7e911	-0.12105001
60	0xbf39891b	-0.7247483
61	0xbf0c6248	-0.54837465
62	0x3e9dc1eb	0.3081201
63	0x3f07b68b	0.53012913
64	0xbddb2cc7	-0.107019
65	0x3eb5e51d	0.35526362
66	0xbef9a2d2	-0.48757035
67	0xbf892953	-1.0715736
68	0x3e3f796e	0.18698665
69	0x3eddb2ec	0.4330057
70	0x3f9eec4a	1.241586
71	0x3e965ccd	0.29367676
72	0x3ea57319	0.32314375
73	0xbe4092c6	-0.1880599
74	0xbf53ed69	-0.82784134
75	0x3e861afc	0.26192462
76	0xbeaaeee8	-0.33385396
77	0xbe01abcf	-0.12663196
78	0xbdb290ee	-0.087190494
79	0xbe8dfd56	-0.27732342
80	0x3ed12eaf	0.4085593
81	0x3d361dac	0.04446189
82	0xbe2b1642	-0.1670771
83	0x3e9145e0	0.28373623
84	0xbed06daa	-0.40708667
85	0xbeb0e0de	-0.3454656
86	0x3dd29569	0.10282404
87	0xbdea89e2	-0.1145208
88	0xbedfdb61	-0.4372206
89	0x3c8aece0	0.016958654
90	0x3e16ffc4	0.14746004
91	0xbd12c2ae	-0.035830192
92	0x3e3d976b	0.18514793
93	0xbec572e8	-0.3856423
94	0x3e85c657	0.26127884
95	0x3e8b0458	0.27151752
96	0xbee1d51b	-0.441079
97	0x3df37703	0.11887934
98	0x3ef5d52c	0.480142
99	0x3e323cb8	0.17405975
100	0xbeb4b8a2	-0.35297114
101	0x3e1e9df3	0.1548994
102	0xbf2549c5	-0.6456569
103	0x3e55e7ad	0.20889159
104	0x3f87fd5e	1.0624197
105	0x3f7ec15d	0.995138
106	0x3e26f5cf	0.16304706
107	0xbeaef809	-0.3417361
108	0x3e9ad3b8	0.30239654
109	0x3f2df14d	0.6794632
110	0xbe496ffd	-0.19671626
111	0xbddde629	-0.10834915
112	0x3f2d3984	0.67665887
113	0xbe438586	-0.19093904
114	0xbeab512a	-0.3346036
115	0x3f833688	1.0251017
116	0xbf6c8776	-0.92394197
117	0xbf143be8	-0.5790391
118	0xbe695d0d	-0.22789402
119	0xbdf893ab	-0.121375404
120	0xbe6da44c	-0.23207206
121	0x3e3f3864	0.18673855
122	0x3e25bd9b	0.1618561
123	0x3e252726	0.16128215
124	0x3f064538	0.5244937
125	0x3f01f29c	0.5076082
126	0x3ea1981d	0.31561366
127	0x3ee7feba	0.45311528
128	0x3c91a4b6	0.017778736
129	0xbf1e1422	-0.6174947
130	0xbeb0d82d	-0.3453993
131	0xbdbca7e0	-0.09211707
132	0xbdb83a07	-0.08995443
133	0xbf26950d	-0.65071183
134	0xbf0628a6	-0.52405775
135	0xbea09cf1	-0.31369737
136	0xbe7ec97a	-0.24881545
137	0xbea01200	-0.31263733
138	0xbeacda22	-0.33760172
139	0xbf0b08a6	-0.5431007
140	0xbe969964	-0.29413903
141	0xbe013ef5	-0.12621672
142	0xbbf7efcc	-0.007566428
143	0x3da4066c	0.080090374
144	0xbc6ca2e3	-0.014443132
145	0xbefc9bf6	-0.4933774
146	0xbeada6d2	-0.33916336
147	0x3eca3c44	0.39499104
148	0xbe035dcd	-0.12828751
149	0xbe63bc75	-0.2223986
150	0x3e960d81	0.29307178
151	0x3e2accc1	0.1667967
152	0xbed6ebfc	-0.41976917
153	0xbf1973a5	-0.59942085
154	0x3e194d74	0.14970952
155	0xbf6a5b85	-0.915459
156	0xbf03a662	-0.51425755
157	0xbe7fad6b	-0.24968497
158	0x3f0a67c3	0.5406458
159	0x3eec4f6d	0.46154347
160	0x3e7aeb79	0.24503888
161	0xbf1c24f0	-0.6099386
162	0xbdd7e93a	-0.10542531
163	0x3d73acb3	0.05949087
164	0xbee8d4d8	-0.45474887
165	0xbf8488d6	-1.0354259
166	0xbf1920a8	-0.59815454
167	0x3e582292	0.21106938
168	0xbf1386ec	-0.5762775
169	0xbcd74be4	-0.026281305
170	0x3f1e039d	0.61724263
171	0xbf02fb8a	-0.5116507
172	0x3d997f1c	0.07494947
173	0xbf08069e	-0.531351
174	0x3e8df858	0.27728534
175	0x3e7fe909	0.2499124
176	0xbe7963d5	-0.24354489
177	0x3e2590a7	0.16168462
178	0x3e9d260b	0.30693087
179	0x3e48c562	0.19606546
180	0x3e9c5c3d	0.30539122
181	0x3e510cab	0.20414989
182	0x3da58420	0.080818415
183	0x3ed1b92e	0.40961593
184	0xbf1a7175	-0.6032937
185	0xbf361c51	-0.7113696
186	0x3d4e3b03	0.050349247
187	0xc0389d19	-2.8845885
188	0x3ebe8c62	0.3721648
189	0x3e0c7375	0.13715918
190	0xbf17b008	-0.5925298
191	0x3e318590	0.17336106
192	0xbddd9275	-0.1081895
193	0xbe1d6424	-0.15370232
194	0x3f36ee2d	0.7145718
195	0xbef47069	-0.47742012
196	0xbb947632	-0.0045306915
197	0xbde0dfa9	-0.1098016
198	0x3e080f08	0.13286984
199	0x3ea857a6	0.3287937
200	0x3efac57d	0.48978797
201	0x3f782d89	0.9694448
202	0xbc7f4593	-0.015580553
203	0x3f7814b2	0.9690658
204	0xbd87edee	-0.06637178
205	0xbecd29a0	-0.4007082
206	0xbefb79ed	-0.4911646
207	0xbccc0cbd	-0.024908418
208	0x3f691c2f	0.9105863
209	0x3ee175d2	0.44035202
210	0xbe7b5f62	-0.24548104
211	0x3dab351f	0.083597414
212	0xbe718680	-0.23586464
213	0x3e84fdcf	0.2597489
214	0x3ecc0672	0.39848667
215	0x3f51f187	0.82009166
216	0xbe0d75c4	-0.13814455
217	0x3e3f2a87	0.18668567
218	0x3f148eee	0.58030593
219	0xbe9b9fc4	-0.3039533
220	0x3ed842fb	0.42238602
221	0xbec90bd4	-0.39266837
222	0x3f6e7440	0.93146133
223	0x3eedba89	0.46431378
224	0x3e9dbafc	0.3080672
225	0x3d30d9f1	0.043176595
226	0xbc340912	-0.010988491
227	0x3f04f1f0	0.5193167
228	0x3d59eaed	0.05320256
229	0x3dac7bcf	0.08422052
230	0x3d56ba90	0.052424014
231	0x3e62afa0	0.22137308
232	0xbdeed663	-0.11661985
233	0x3e7c4426	0.24635372
234	0x3d052cac	0.032513306
235	0x3d2f1cd2	0.042752095
236	0xbe9b1d87	-0.30295965
237	0xbd341300	-0.043963432
238	0x3f4deed4	0.8044255
239	0x3f3bf77c	0.73424506
240	0xbccc614c	-0.024948739
241	0xbfccf5d2	-1.6012518
242	0x3f1cc47a	0.612373
243	0xbf10c906	-0.5655674
244	0x3ec2b7a0	0.3803072
245	0xbf1e608d	-0.61866075
246	0xbeb02eaa	-0.34410602
247	0x3d8ea30b	0.06964692
248	0xbca687f4	-0.0203285
249	0xbee0ca88	-0.4390452
250	0x3d290283	0.04126216
251	0x3e0f6fde	0.14007518
252	0x3e8ae009	0.2712405
253	0xbeae4614	-0.3403784
254	0xbe0a6156	-0.13513693
255	0xbf55d558	-0.8352866

global_feature_extractor.first_block.0.conv.1.weight f4 [96]
0	0x3f5b075d	0.8555811
1	0x3e93a2f0	0.2883525
2	0x40124e7a	2.2860398
3	0x3f6fbaaa	0.936442
4	0x3f92358d	1.1422592
5	0x3fb4eded	1.4135109
6	0x3fc3087f	1.5236968
7	0x3fedb76e	1.8571603
8	0x3fd2bfdc	1.6464801
9	0x3fafdd14	1.3739343
10	0x3fe105a5	1.7579848
11	0x3fe0b094	1.7553887
12	0x3fb9c929	1.4514514
13	0x3faa861d	1.3322178
14	0x3ebd2216	0.36940068
15	0x3f490e7d	0.7853773
16	0x3fa7c838	1.3107977
17	0x3f464913	0.7745525
18	0x3fbb1a0d	1.4617325
19	0x3f683281	0.9070206
20	0x3f93d707	1.1549996
21	0x3fe72943	1.8059467
22	0x3fa76b4b	1.3079618
23	0x4003da23	2.060189
24	0x3fa737ed	1.3063942
25	0x3fce3338	1.6109381
26	0x3fa947f3	1.3225082
27	0x3f5f7471	0.8728705
28	0x3f7d9363	0.9905302
29	0x3f7a20ba	0.97706187
30	0x3feeb62d	1.8649346
31	0x3fcd6730	1.6047115
32	0xbea61aa9	-0.32442215
33	0x3fcbfdc2	1.5936816
34	0x3f25f382	0.6482469
35	0x3f9efd74	1.2421098
36	0x3fde4b3b	1.7366709
37	0x3f32dcf3	0.6986839
38	0x3fc3dc0f	1.5301532
39	0x3fb60ab0	1.4222012
40	0xbd5b0a07	-0.05347636
41	0x3fbee4a7	1.4913529
42	0x3f19b953	0.6004841
43	0x3fc45427	1.5338181
44	0x3fb7c67e	1.435745
45	0x3fb77d46	1.4335105
46	0x401e4b3d	2.4733422
47	0x3f821599	1.0162841
48	0x3f91eff4	1.1401353
49	0x3fc7650d	1.5577713
50	0x3f3177cf	0.6932344
51	0x3f798297	0.9746489
52	0x3f97fc8f	1.187395
53	0x3f65a05d	0.8969782
54	0x3fb5d1af	1.4204615
55	0x3fd44a3a	1.6585152
56	0x3ff5baa8	1.9197588
57	0x3ea55522	0.32291514
58	0x3fccfece	1.601526
59	0x4007b42e	2.1203723
60	0x3f8e1137	1.1099004
61	0x3f2b7539	0.6697574
62	0x3faea9ce	1.364557
63	0x3ff083ae	1.8790185
64	0x401ee17d	2.4825127
65	0x3fe16b45	1.7610861
66	0x40227148	2.5381641
67	0x3fd7982f	1.6843318
68	0x40131453	2.2981155
69	0x3fdc28dc	1.7199969
70	0x3f9e91f9	1.2388297
71	0x3ffbecc7	1.9681634
72	0x3f69ef79	0.9138103
73	0x3e0c2677	0.13686548
74	0x400c3d5a	2.1912446
75	0x3fccbfff	1.5996093
76	0x3f515c14	0.81781125
77	0x3e9fce80	0.31212234
78	0x3fc7e1e0	1.5615807
79	0x3f8b1c8f	1.086809
80	0x3fc65cd7	1.5497082
81	0x4014e5a6	2.3265166
82	0x3f5e0642	0.867283
83	0x3fa72151	1.3057042
84	0x3f305c35	0.68890697
85	0x3ee5df3f	0.44896886
86	0x3f8b5a7a	1.0886986
87	0x3df763f6	0.12079613
88	0x3fb97986	1.4490211
89	0x3f2a846f	0.6660833
90	0x3f62d062	0.88599217
91	0x3f897f12	1.0741904
92	0x3fe83768	1.8141909
93	0x3f84ebc2	1.0384448
94	0x3f935c61	1.1512567
95	0x3fa95b7a	1.3231041

global_feature_extractor.first_block.0.conv.1.bias f4 [96]
0	0xbeb2c580	-0.34916306
1	0x3f7ac343	0.97954196
2	0x3b8c77da	0.0042867484
3	0xbe02724c	-0.12738913
4	0xbdb7758d	-0.08957968
5	0xbdd64c9e	-0.10463832
6	0x3dce9218	0.10086459
7	0x3e99159d	0.29899302
8	0x3e14ff75	0.14550574
9	0xbe0eb7ba	-0.13937274
10	0xbd09df97	-0.033660498
11	0xbe3d5d9b	-0.18492739
12	0x3ec58232	0.38575894
13	0x3ebfce86	0.37462252
14	0xbf4dc7b6	-0.8038286
15	0x3f05fb46	0.5233654
16	0x3eeeb197	0.46619865
17	0x3e4de69e	0.20107505
18	0x3eef955a	0.46793634
19	0xbed60ee0	-0.41808224
20	0x3eb33ae6	0.35005873
21	0xbdc6904b	-0.096954904
22	0x3ea18cd3	0.31552753
23	0xbe1160ef	-0.14197133
24	0x3e804c0d	0.25058022
25	0x3e9aa372	0.30202824
26	0xbd3dcbe3	-0.04633702
27	0x3f0184b4	0.50593114
28	0xbf36c663	-0.71396464
29	0xbee4104a	-0.44543678
30	0xbc9a909b	-0.018867781
31	0x3da717f2	0.08158864
32	0x3ed7d496	0.42154378
33	0x3e785528	0.24251235
34	0xbf2e4ac0	-0.6808281
35	0x3ed8a0cd	0.4231018
36	0x3df3a3f7	0.11896508
37	0x3edea7bc	0.43487346
38	0x3e98d677	0.29851124
39	0xbdd971d7	-0.10617416
40	0xbf40c9c1	-0.7530785
41	0xbe0fcdfd	-0.14043422
42	0x3f2ffc79	0.6874462
43	0x3ec9eb86	0.39437503
44	0xbd98dd0d	-0.07464037
45	0x3d51747f	0.05113649
46	0x3e03e8b8	0.12881744
47	0x3f391f15	0.7231305
48	0x3e0be9f0	0.13663459
49	0x3e8eaf13	0.27867946
50	0x3f43f8a8	0.76551294
51	0x3e64b875	0.2233599
52	0xbe8bda18	-0.2731483
53	0x3e23c35f	0.15992497
54	0x3ee0f1cf	0.43934485
55	0x3c1123e5	0.008858656
56	0x3ea63e70	0.3246951
57	0x3f75446e	0.9580754
58	0x3e298bc3	0.16557221
59	0x3ae0a9dd	0.0017140467
60	0x3ec274dd	0.37979785
61	0xbf0d489b	-0.5518891
62	0x3b01b017	0.0019788796
63	0xbe3afd23	-0.18260626
64	0xbdb1e9c4	-0.086871654
65	0x3d5bc7d9	0.053657386
66	0xbe282ce1	-0.1642337
67	0xbd7a852b	-0.061162155
68	0xbc6a6de6	-0.014308428
69	0xbe09fc6d	-0.13475199
70	0x3e3cc580	0.18434715
71	0x3daf1627	0.08549147
72	0xbf238fd9	-0.6389137
73	0x3faf90c3	1.3716053
74	0xbe13c5f6	-0.14430985
75	0xbe0c87cb	-0.13723676
76	0xbf53899c	-0.8263185
77	0x3f5e1979	0.8675762
78	0xbeaad417	-0.33364937
79	0x3f1c56ed	0.6107014
80	0xbecdf791	-0.4022794
81	0x3e7c8f83	0.2466412
82	0xbe1a0083	-0.15039258
83	0x3ebe87e8	0.37213063
84	0x3f423c8c	0.7587364
85	0x3f243ba5	0.6415351
86	0xbd694bf5	-0.056957204
87	0xbf769690	-0.9632349
88	0x3d0e0261	0.034670237
89	0x3f309173	0.6897194
90	0x3f23715a	0.63844836
91	0x3eff304f	0.49841544
92	0xbdfa195c	-0.12211868
93	0xbf04b7bf	-0.51842874
94	0x3dd1e6c2	0.10249092
95	0xbebdc284	-0.37062466

global_feature_extractor.first_block.0.conv.1.running_mean f4 [96]
0	0x40005cd7	2.0056665
1	0xbf2b9918	-0.6703048
2	0xbcdc5411	-0.026895555
3	0xbfcfadf9	-1.6224967
4	0xbf148a96	-0.58023965
5	0xbeaa05c6	-0.3320753
6	0x3ff4b9ae	1.9119165
7	0x3f808f05	1.0043646
8	0xc047b264	-3.120263
9	0xc018dd86	-2.3885207
10	0xc013dffc	-2.310546
11	0xc0685445	-3.6301434
12	0x400b3fff	2.175781
13	0x3fe8e9e8	1.8196383
14	0x3fbe8b87	1.488633
15	0xbfd13707	-1.6344918
16	0xbec55ce7	-0.3854744
17	0xbfbaa7e4	-1.4582486
18	0xc014618a	-2.3184533
19	0x3f8b33f0	1.0875225
20	0x3ef10e42	0.4708119
21	0xbf599d62	-0.8500577
22	0xc023c24f	-2.5587347
23	0xc0527a74	-3.288724
24	0xbf6e25e5	-0.9302657
25	0x4012ad82	2.29184
26	0xbf9c0255	-1.2188212
27	0x40099100	2.149475
28	0xbf88a4dd	-1.0675312
29	0xbbb96339	-0.00565758
30	0x3f8871e1	1.0659753
31	0xbe848895	-0.25885454
32	0xbf9da860	-1.2317009
33	0x3f4b0533	0.7930481
34	0x3e42e1d4	0.19031459
35	0xbfc13f55	-1.5097452
36	0xbf33f42b	-0.70294446
37	0xc01bf3d3	-2.4367568
38	0xc029d10d	-2.6533844
39	0xbeccfd00	-0.40036774
40	0x3feaea1c	1.8352695
41	0xbf32d6f9	-0.6985927
42	0x3e50718a	0.20355812
43	0xc015c0ee	-2.3399005
44	0x3ffd7cbb	1.980369
45	0x3f09c555	0.5381673
46	0xbf89660b	-1.0734266
47	0xc0022d77	-2.034025
48	0xbfec454d	-1.8458649
49	0x3f0d17af	0.55114263
50	0xc00fc255	-2.246236
51	0xbf2c65b0	-0.6734266
52	0x3f117614	0.568208
53	0xbfa40366	-1.2813537
54	0xbffb3c3a	-1.9627755
55	0xbf03596a	-0.5130831
56	0xbdcdef7f	-0.10055446
57	0xbdecb109	-0.11557204
58	0xbfa2c75f	-1.2717093
59	0xc04e5c08	-3.2243671
60	0xbf467b9f	-0.7753238
61	0xbf111ab6	-0.5668138
62	0x3e8c7f10	0.2744069
63	0xc01a7fe1	-2.414055
64	0xc089bd03	-4.3043227
65	0xbf5c4b5a	-0.8605248
66	0xbe3f7786	-0.18697938
67	0xbf0ae35b	-0.54253167
68	0xc039fcaa	-2.9060464
69	0x3fa287fe	1.2697752
70	0xc03b8d0d	-2.930484
71	0x40233199	2.5499022
72	0x3fd7f401	1.6871339
73	0xc040808f	-3.0078466
74	0x3ed31815	0.4122931
75	0x3f05923f	0.5217628
76	0x3fd5b7ac	1.6696677
77	0xbff057c4	-1.8776784
78	0x3c5f4340	0.0136268735
79	0x3f843db9	1.0331336
80	0x3f6dd13a	0.9289738
81	0x40400065	3.000024
82	0x3fbfeb33	1.4993652
83	0x3f395f8d	0.72411424
84	0xbfa0e953	-1.2571205
85	0xbfc32a55	-1.5247294
86	0x3db8e7de	0.090286
87	0x3f039565	0.5139983
88	0xc01feb50	-2.4987373
89	0x3ebb23e6	0.36550826
90	0x3ec0b95d	0.3764142
91	0xbfc4d397	-1.5377072
92	0x3eed8e28	0.4639752
93	0x3f0b3272	0.5437385
94	0x3f815ade	1.0105855
95	0x3f9ebf0b	1.2402052

global_feature_extractor.first_block.0.conv.1.running_var f4 [96]
0	0x40fedccc	7.9644527
1	0x40325033	2.786145
2	0x40893f3f	4.2889705
3	0x40b3cb02	5.618531
4	0x4099d8dd	4.8077226
5	0x3ff2f7d5	1.8981882
6	0x40a1f922	5.0616617
7	0x410167bc	8.087826
8	0x4026233c	2.5959005
9	0x40ac44bb	5.38339
10	0x4079145a	3.8918672
11	0x412a7ce5	10.655492
12	0x4101a530	8.102829
13	0x404a2bb1	3.1589167
14	0x40127792	2.288548
15	0x40263447	2.5969408
16	0x407c8b64	3.9460077
17	0x405980c8	3.3984852
18	0x414ba5c2	12.727968
19	0x4053dbd8	3.3102932
20	0x404cd336	3.2003913
21	0x409b748d	4.8579774
22	0x40ae4248	5.445591
23	0x406a7b2d	3.663768
24	0x4089e995	4.3097634
25	0x416a50a9	14.644692
26	0x410b91c7	8.72309
27	0x4134c794	11.298725
28	0x40d5c0d5	6.679789
29	0x4048409c	3.1289434
30	0x400e9260	2.227684
31	0x4051d831	3.2788203
32	0x3f8ca412	1.098757
33	0x4082988b	4.081121
34	0x4063d9bc	3.5601645
35	0x4103fae5	8.248754
36	0x403180fd	2.7734978
37	0x40b6a270	5.707329
38	0x4078d24c	3.8878355
39	0x409fc533	4.992822
40	0x3f903147	1.1265038
41	0x40648f90	3.5712624
42	0x40b5c377	5.6801105
43	0x41183196	9.512106
44	0x40c9c5cb	6.3053946
45	0x4016d143	2.3565223
46	0x40c736e1	6.225449
47	0x41136023	9.210971
48	0x40a15f7c	5.042906
49	0x40c1d5fc	6.057371
50	0x40cc7a0d	6.389899
51	0x4088b97e	4.272643
52	0x4096da23	4.714128
53	0x40ce7f4e	6.45304
54	0x408fd311	4.494515
55	0x414d9d67	12.850928
56	0x411ad643	9.67731
57	0x410ca202	8.789553
58	0x4105bc89	8.358529
59	0x40c528f6	6.16125
60	0x4100442b	8.016643
61	0x3fe6c214	1.8027978
62	0x40b087fb	5.516599
63	0x40a2b9d0	5.085182
64	0x415af192	13.683977
65	0x400a9232	2.165173
66	0x4121604b	10.086009
67	0x3fcfe3be	1.6241376
68	0x3fd1723e	1.6362989
69	0x408f62f4	4.4808292
70	0x4097e2a1	4.7464147
71	0x403bc5f4	2.933957
72	0x40e38c0e	7.1108465
73	0x409abcad	4.8355317
74	0x4064e2b7	3.5763376
75	0x40828bba	4.0795565
76	0x40a008d9	5.00108
77	0x411333b2	9.200121
78	0x40ab5717	5.354381
79	0x410cb1b8	8.793388
80	0x40767f43	3.8515174
81	0x41353c1e	11.327177
82	0x40297eeb	2.6483715
83	0x40de3991	6.944527
84	0x407c2048	3.9394703
85	0x4026b343	2.6046913
86	0x3fe3732a	1.776952
87	0x401db7e7	2.4643495
88	0x405a8036	3.4140754
89	0x40e637dd	7.1943192
90	0x40c0a36d	6.0199494
91	0x41363367	11.387549
92	0x4082ca5e	4.087203
93	0x40a04e56	5.0095625
94	0x3fb854e3	1.4400905
95	0x4029440b	2.644778

global_feature_extractor.first_block.0.conv.3.weight f4 [96, 1, 3, 3]
0	0xbf059779	-0.52184254
1	0x3e8595fa	0.26090986
2	0x3d7392db	0.059466224
3	0xbba421cf	-0.005008913
4	0x3f783d3a	0.96968424
5	0x3f035799	0.5130554
6	0xbcae2399	-0.021257209
7	0x3f45cd78	0.77266645
8	0x3eae878f	0.34087798
9	0x3ebcda9b	0.36885533
10	0x3eab82c5	0.33498207
11	0x3f592aaa	0.84830725
12	0xbf19a541	-0.6001778
13	0x3c6aa0cd	0.014320564
14	0xbe384ea4	-0.17998749
15	0xbefa7c5e	-0.4892301
16	0xbe2935bb	-0.16524403
17	0x3e9bf484	0.30459988
18	0xbf06edc3	-0.52706546
19	0xbf20aeb5	-0.6276658
20	0x3e579afb	0.21055214
21	0xbf4a5492	-0.79035294
22	0xbe773d0f	-0.24144386
23	0x3dc45b9a	0.09587784
24	0xbf127c81	-0.5722123
25	0x3dafc641	0.08582736
26	0xbf62a8dd	-0.88538915
27	0x3f5f541a	0.87237704
28	0x3f860d0b	1.047273
29	0x3f2fef19	0.6872421
30	0xbcd966a0	-0.026538193
31	0x3e33d31c	0.17561
32	0x3f0ae34d	0.54253083
33	0xbec06b97	-0.37582085
34	0x3cfb612d	0.030685985
35	0x3ddd91e7	0.10818844
36	0xbe9134dc	-0.2836064
37	0x3e5007cc	0.20315474
38	0x3f1b81c1	0.60744864
39	0x3dd05a52	0.10173477
40	0x3f7bd2f9	0.98368794
41	0x3f89c5cf	1.0763491
42	0xbed55633	-0.41667327
43	0xbe999175	-0.29993787
44	0x3ca48071	0.020080777
45	0xbf24fd6c	-0.6444919
46	0xbe2b70f6	-0.1674231
47	0xbc1d8a49	-0.009615489
48	0x3eabc15c	0.3354596
49	0xbebdbf84	-0.37060177
50	0xbf39bb5b	-0.72551507
51	0x3eb6aa21	0.35676673
52	0x3e27439a	0.16334382
53	0xbb2662b3	-0.002538842
54	0xbd01b754	-0.031668976
55	0xbe135400	-0.14387512
56	0xbeed015a	-0.46290094
57	0xbeb5797a	-0.35444242
58	0xbea14944	-0.3150121
59	0x3d78094c	0.06055574
60	0x3f009e0d	0.50241166
61	0x3f83dde6	1.0302093
62	0x3efa5d66	0.48899382
63	0x3e397d31	0.18114163
64	0xbd29ea33	-0.041483115
65	0xbd92c041	-0.07165576
66	0xbee2934c	-0.44253004
67	0xbefb031d	-0.49025813
68	0x3ce44f03	0.027869707
69	0x3eb38fc7	0.3507063
70	0xbf83627e	-1.0264432
71	0xbf660603	-0.89852923
72	0x3efa173d	0.48845854
73	0x3e34d32c	0.1765868
74	0x3e9f6e12	0.31138664
75	0xbdf21e5e	-0.11822198
76	0xbd3f5b98	-0.04671821
77	0x3eac3a7b	0.33638367
78	0x3f218915	0.63099796
79	0x3e50f026	0.2040411
80	0x3e52c3c8	0.20582497
81	0xbe4618fd	-0.1934547
82	0xbf6baff1	-0.9206534
83	0x3e83b869	0.2572663
84	0xbe2689ee	-0.16263554
85	0xbf12825b	-0.57230157
86	0xbf473b4e	-0.77824867
87	0x3ebe17bf	0.37127492
88	0x3ca66697	0.02031259
89	0x3de922a6	0.11383562
90	0x3e1e2b8f	0.15446304
91	0x3f057f37	0.5214724
92	0x3f8c5345	1.0962912
93	0xbe0af2b0	-0.1356914
94	0xbef576d0	-0.4794221
95	0xbdf75004	-0.12075809
96	0xbe74b43c	-0.23896879
97	0xbe901b40	-0.2814579
98	0xbea9edfc	-0.3318938
99	0x3daa6ae3	0.08321168
100	0x3f5892ad	0.8459881
101	0x3ebba095	0.36645952
102	0x3de24fa3	0.11050346
103	0x3f25d509	0.6477819
104	0x3f90a4f4	1.130034
105	0xbeab240e	-0.33425945
106	0x3eb7b78f	0.35882232
107	0x3f1ffdae	0.6249646
108	0xbe0eca55	-0.13944371
109	0x3f202450	0.6255541
110	0x3d997506	0.074930236
111	0xbc7c40ad	-0.015396279
112	0x3fa8073c	1.3127208
113	0x3f089713	0.5335552
114	0xbebefdc3	-0.3730298
115	0x3eadd0c2	0.33948332
116	0x3e90ef93	0.2830778
117	0xbdb4d234	-0.088291556
118	0xbd42eff1	-0.047592107
119	0xbe9b1ca0	-0.30295277
120	0xbe086f15	-0.13323624
121	0xbfb7855f	-1.4337577
122	0xbf21b21a	-0.63162386
123	0x3ef62eeb	0.4808267
124	0x3e9c1b18	0.3048942
125	0xbdff6b8d	-0.124716856
126	0x3d89f66f	0.067364566
127	0x3eb22c7a	0.34799558
128	0xbe201980	-0.15634727
129	0x3f1fb068	0.6237855
130	0xbe3434c2	-0.1759825
131	0xbe26bed8	-0.16283739
132	0xbec04e35	-0.37559667
133	0x3eccf122	0.4002772
134	0x3f0378eb	0.5135638
135	0x3ee290b3	0.44251022
136	0x3e870159	0.26368216
137	0x3f210fba	0.6291462
138	0xbdb3c9e3	-0.08778741
139	0x3e526a86	0.20548448
140	0x3e40bf50	0.1882298
141	0xbf6ff277	-0.93729347
142	0xbf3e8e86	-0.74436224
143	0xbf20306b	-0.6257388
144	0x3d6a5690	0.05721146
145	0xbed886e1	-0.42290404
146	0xbed81203	-0.42201242
147	0xbf22edab	-0.636439
148	0xbf3e1bae	-0.74260986
149	0xbf11c947	-0.5694775
150	0xbee9c7de	-0.456603
151	0xbcc55f17	-0.024093194
152	0xbdca606b	-0.098816715
153	0xbf4622ed	-0.7739704
154	0xbe2b721e	-0.16742751
155	0xbef35404	-0.47525036
156	0xbdc38efc	-0.095487565
157	0xbeccfb9e	-0.4003572
158	0xbed42ddf	-0.41441247
159	0x3e543275	0.20722373
160	0x3e9f95f9	0.31169108
161	0xbe4de6c7	-0.20107566
162	0xbf450e2a	-0.7697474
163	0xbf55af0b	-0.8347022
164	0xbab0da7e	-0.001349285
165	0xbf49727c	-0.78690314
166	0xbeeec449	-0.4663413
167	0x3f0b40ab	0.5439555
168	0xbf233840	-0.63757706
169	0xbe92b52b	-0.28653845
170	0xbf0eb240	-0.5574074
171	0xbf28ecd3	-0.65986365
172	0xbefe69de	-0.49690145
173	0xbe617404	-0.22016913
174	0xbe41515d	-0.18878694
175	0xbf512994	-0.8170407
176	0xbf82d57e	-1.0221403
177	0x3e53cfb3	0.206847
178	0xbeb94f0b	-0.36193117
179	0xbdb91f5c	-0.090391845
180	0x3ebf19d4	0.37324393
181	0xbe51397c	-0.20432085
182	0xbea3cf7e	-0.3199424
183	0xbdc1d890	-0.09465134
184	0xbf136b31	-0.57585436
185	0xbf734a58	-0.95035315
186	0x3d1bdbee	0.03805154
187	0xbeaa9138	-0.33313918
188	0xbf0f3eec	-0.55955386
189	0x3e9f478e	0.3110928
190	0xbdd7ce4b	-0.10537394
191	0xbe94143f	-0.28921697
192	0xbe47fba6	-0.1952959
193	0x3f2c2d5e	0.67256725
194	0x3ef39f11	0.47582296
195	0x3d7d14e4	0.0617875
196	0x3f915b09	1.1355907
197	0x3ec73a09	0.38911465
198	0xbe504954	-0.20340472
199	0xbf54fc71	-0.83197695
200	0xbf709b09	-0.93986565
201	0x3e40a0e1	0.1881137
202	0x3f00b5fc	0.50277686
203	0xbd75cdf1	-0.060010854
204	0xbc622d5e	-0.013804762
205	0x3f1a8e8a	0.6037375
206	0x3f580145	0.8437694
207	0xbf8068d2	-1.0031989
208	0x3d82b68e	0.06382476
209	0xbf3c26c8	-0.73496675
210	0x3e0210e5	0.12701757
211	0x3f16e8a0	0.5894871
212	0x3eb9322c	0.3617109
213	0xbe3d124d	-0.18464012
214	0x3ea2b6f3	0.31780204
215	0x3f051298	0.51981497
216	0xbd5cc68a	-0.05390028
217	0xbf387129	-0.7204767
218	0xbe8c5e53	-0.27415714
219	0x3e00bd1c	0.1257214
220	0x3f495d2e	0.78657806
221	0x3da1a4fc	0.078927964
222	0x3e93a0d5	0.28833643
223	0x3dee9149	0.11648805
224	0x3f05f843	0.5233194
225	0xbe2353b4	-0.15949899
226	0xbf385907	-0.72010845
227	0xbf86b582	-1.0524142
228	0xbeca4f69	-0.3951371
229	0xbf344412	-0.7041637
230	0xbf012c3d	-0.5045813
231	0xbeed1908	-0.4630816
232	0xbf2c377e	-0.67272174
233	0xbea06d59	-0.31333426
234	0x3e915a7a	0.2838934
235	0x3e5bb0d5	0.21454175
236	0xbd3898c2	-0.045067556
237	0xbe2fc86e	-0.17166302
238	0x3f4d7f12	0.8027202
239	0x3f33255b	0.69978875
240	0xbd0e49fb	-0.034738522
241	0x3ef96f74	0.48717844
242	0x3ee571a5	0.44813266
243	0x3e97f0ca	0.29675895
244	0xbdcda17f	-0.100405686
245	0x3c8d6eca	0.017264742
246	0xbf8a2a63	-1.0794185
247	0xbf9d9ff5	-1.231444
248	0xbf693e9b	-0.91111153
249	0xbe3782a8	-0.17920935
250	0xbef7fcf2	-0.4843517
251	0x3d547487	0.05186894
252	0xbeb81726	-0.3595516
253	0x3e47c96a	0.19510427
254	0x3e5a06b9	0.21291627
255	0x3e5df83d	0.21676727

global_feature_extractor.first_block.0.conv.4.weight f4 [96]
0	0x3f81f94f	1.0154208
1	0x3efc2977	0.49250385
2	0x3f96130c	1.1724563
3	0x3fa797e6	1.3093231
4	0x3fbabdf1	1.4589216
5	0x3f0ea47e	0.55719745
6	0x3f8ff4de	1.1246603
7	0x3f697574	0.91194844
8	0x3edb0edc	0.42784774
9	0x3f3d7a6f	0.74014944
10	0x3f89be70	1.0761242
11	0x3fc1c047	1.5136803
12	0x3f770416	0.9649061
13	0x3f2a3d54	0.6649983
14	0x3f1965b1	0.59920794
15	0x3f43b6b8	0.7645068
16	0x3fb4b156	1.4116619
17	0x3f3ad369	0.72978836
18	0x3fb76754	1.4328408
19	0x40065958	2.099203
20	0x3f7d6351	0.9897967
21	0x3f9a2f9d	1.204578
22	0x3fbff913	1.4997886
23	0x3f5df35a	0.8669945
24	0x3f4553bf	0.7708091
25	0x4024cdce	2.5750613
26	0x3f7c9ea8	0.9867959
27	0x3f63f9e4	0.8905318
28	0x3fc8ce96	1.5688045
29	0x3f766405	0.9624637
30	0x3fa98d8b	1.324632
31	0x3f42d98b	0.76113194
32	0x3e16c4c7	0.14723502
33	0x3f2a7c43	0.6659586
34	0x3f735673	0.95053786
35	0x3f8d772c	1.1051993
36	0x3fb67b7e	1.4256437
37	0x3fd07b97	1.6287717
38	0x3f85bfda	1.0449173
39	0x3f9a72bd	1.2066265
40	0x3f84ff20	1.0390358
41	0x3f25f49f	0.6482639
42	0x3f97ab79	1.1849204
43	0x3f8d3e17	1.1034573
44	0x3fa7144e	1.3053071
45	0x3fabce33	1.3422302
46	0x3f9342bc	1.1504741
47	0x3fad1cfe	1.3524473
48	0x3f84a210	1.0361958
49	0x3f47f197	0.7810301
50	0x3fa4db13	1.2879356
51	0x3f8f6aec	1.1204505
52	0x3f63f0af	0.8903913
53	0x3f6f0b44	0.93376565
54	0x3f8aaa54	1.083323
55	0x3fce9e98	1.6142149
56	0x3f86f254	1.0542703
57	0x3fb171ad	1.3862816
58	0x3f6923d7	0.9107031
59	0x3f6c9ca8	0.9242654
60	0x3fad654c	1.3546538
61	0x3f8391f7	1.027892
62	0x3f69b5e9	0.912932
63	0x3f3fd320	0.74931526
64	0x3fe0dc8e	1.7567308
65	0x3f46a1fa	0.77590907
66	0x3fc48079	1.5351707
67	0x3f3504c5	0.707104
68	0x3f6c677b	0.923454
69	0x3ffd8eff	1.9809264
70	0x3f8d0885	1.1018225
71	0x3f092a5c	0.5358026
72	0x400e27a1	2.2211688
73	0x3f627fe4	0.88476396
74	0x3f6e42dd	0.93070775
75	0x3fb2e99c	1.3977542
76	0x3f8ae78c	1.0851912
77	0x3fc57e5a	1.5429184
78	0x3fdf41b4	1.7441926
79	0x3fbaa511	1.4581624
80	0x3f9e3a6f	1.2361583
81	0x3fd8d8bf	1.6941146
82	0x3f91d2be	1.1392438
83	0x3fb074be	1.3785627
84	0x3fcbd0b8	1.5923071
85	0x3ee2a62b	0.442674
86	0x3ef1533e	0.4713382
87	0x3f8d3162	1.1030695
88	0x3e99e6b9	0.3005884
89	0x3f88691d	1.0657078
90	0x3f83d9d3	1.030085
91	0x3fb689a5	1.4260756
92	0x3f9423a8	1.1573381
93	0x3fbf136a	1.49278
94	0x3f107027	0.5642113
95	0x3f84f67e	1.0387723
