model_checkpoints/experiments/overall/fastscnn_512a0.125t4r2pp0.pt (torch, 120151 bytes, 151 tensors)

learning_to_down_sample.conv.conv.weight f4 [4, 3, 3, 3]
-0.003061414 0.1621447 -0.27763534 -0.049539488 0.53332496 -0.19630672 0.43664205 0.21126942
-0.3522274 -0.3484906 0.66537786 -0.2143227 -0.49166098 1.4996529 0.55632615 -0.19906755
0.5990551 -0.084666535 -0.3476464 0.05477581 -0.6603848 -0.08311381 0.5768049 -0.21215604
-0.031108007 0.26856652 -0.37688434 -0.3120179 0.1852947 -0.24676417 -0.16558054 0.184942
0.12316344 -0.6824312 0.16730283 0.12830813 -0.6946926 -0.3829513 -0.8745326 -0.8701966
0.2677134 -0.6941031 -1.4621124 -0.58968186 -1.0269772 -0.13062014 0.4757899 -0.09893183
-0.28676873 0.6895042 0.3865774 -0.7240552 0.5906197 0.09041226 0.40519214 -0.448789
-0.57200223 0.10478302 -0.36243725 -0.7577094 -0.11263235 -0.37536052 -0.40862677 1.1058518
0.7257387 0.3733311 0.62650853 0.30096325 0.059428453 -0.13394722 -0.19543028 0.0050555966
0.7858767 0.32950377 -0.0019964755 0.021956146 -0.15172616 -0.3088853 -0.45691314 -0.44797158
-0.42506486 -0.092117436 0.20079564 -0.3289406 -0.5479591 0.45237103 0.10221323 -0.46954432
0.31853858 0.18289027 -0.3309244 0.4112541 0.028861335 -0.9185484 0.82611805 0.835137
-1.1502094 0.47256488 0.813863 -0.3338756 0.28972566 -0.05100561 -0.71423244 0.59700644
0.3806957 -1.0904756 0.2242964 0.21627437
00000000: 01a2 48bb 4309 263e 3826 8ebe ebe9 4abd
00000010: fc87 083f a104 49be 8c8f df3e 0357 583e
00000020: 2657 b4be 5c6d b2be 3456 2a3f 6977 5bbe
00000030: fdba fbbe a0f4 bf3f 646b 0e3f 5dd8 4bbe
00000040: ad5b 193f a665 adbd b5fe b1be 9a5c 603d
00000050: fa0e 29bf 9337 aabd 7ca9 133f 6f3f 59be
00000060: 38d6 febc 8d81 893e fcf6 c0be cfc0 9fbe
00000070: e5bd 3d3e bfaf 7cbe f28d 29be 7061 3d3e
00000080: 1d3d fc3d d0b3 2ebf 6f51 2b3e 3563 033e
00000090: 60d7 31bf 3112 c4be 5ee1 5fbf 34c5 5ebf
000000a0: bb11 893e beb0 31bf 8026 bbbf 64f5 16bf
000000b0: fd73 83bf 49c1 05be bc9a f33e c59c cabd
000000c0: 5ad3 92be 5983 303f 79ed c53e ae5b 39bf
000000d0: da32 173f 102a b93d 5875 cf3e acc7 e5be
000000e0: bd6e 12bf 7b98 d63d 6091 b9be 3ef9 41bf
000000f0: caab e6bd 412f c0be 8737 d1be 8d8c 8d3f
00000100: 03ca 393f 4125 bf3e dd62 203f db17 9a3e
00000110: 406b 733d 7629 09be e01e 48be 6ba9 a53b
00000120: 372f 493f b8b4 a83e 4dd7 02bb 60dd b33c
00000130: 1a5e 1bbe 3726 9ebe 85f0 e9be 885c e5be
00000140: 1aa2 d9be 11a8 bcbd 5f9d 4d3e e76a a8be
00000150: 0c47 0cbf 2d9d e73e 2c55 d13d 1d68 f0be
00000160: 7d17 a33e 9647 3b3e ec6e a9be e68f d23e
00000170: 9b6e ec3c fd25 6bbf 797c 533f 8acb 553f
00000180: 103a 93bf 06f4 f13e 5359 503f bef1 aabe
00000190: ec56 943e 42eb 50bd f0d7 36bf 6ad5 183f
000001a0: 8cea c23e b494 8bbf f5ad 653e 0777 5d3e

learning_to_down_sample.conv.bn.weight f4 [4]
0.9121885 0.331186 0.85265476 1.9682752
00000000: 2f85 693f 3691 a93e 9547 5a3f 71f0 fb3f

learning_to_down_sample.conv.bn.bias f4 [4]
-0.47515783 0.92515993 -0.22693606 0.20095564
00000000: e347 f3be 48d7 6c3f ed61 68be 51c7 4d3e

learning_to_down_sample.conv.bn.running_mean f4 [4]
0.11754089 -1.4767047 0.27926955 -0.029016534
00000000: 47b9 f03d a904 bdbf 6bfc 8e3e 15b4 edbc

learning_to_down_sample.conv.bn.running_var f4 [4]
1.7496144 17.6838 1.8676648 1.900543
00000000: 5df3 df3f 6c78 8d41 a40f ef3f fe44 f33f

learning_to_down_sample.dsconv1.0.weight f4 [4, 1, 3, 3]
0.13069454 0.5964928 0.30281508 0.5469104 0.8596953 0.6363704 0.12619972 0.13158205
0.11372168 0.119187765 -0.18970884 0.44697136 -0.0065217987 -0.44924626 -0.35407686 -1.2263291
-1.6993223 -0.6907846 -0.41626382 -0.2514821 -0.5964596 0.12519528 -0.53678954 -0.5926594
-0.021096174 -0.31928095 -0.6272574 -0.19362658 -0.31483182 -0.2811777 0.21504833 0.6017997
0.45898855 0.5059455 1.0050333 0.6244723
00000000: cad4 053e c1b3 183f 940a 9b3e 5202 0c3f
00000010: fe14 5c3f 2ce9 223f 803a 013e 72bd 063e
00000020: eae6 e83d b718 f43d 0943 42be 6ed9 e43e
00000030: d0b4 d5bb 9b03 e6be 9049 b5be 5af8 9cbf
00000040: 6583 d9bf 42d7 30bf 8820 d5be 43c2 80be
00000050: 94b1 18bf 3133 003e 0a6b 09bf 87b8 17bf
00000060: e2d1 acbc cb78 a3be f193 20bf 0c46 46be
00000070: a331 a1be 86f6 8fbe a135 5c3e 8c0f 1a3f
00000080: 8c00 eb3e a585 013f eea4 803f 6bdd 1f3f

learning_to_down_sample.dsconv1.1.weight f4 [4]
1.0208337 1.8405118 0.65099514 0.87869614
00000000: aeaa 823f e495 eb3f 9ea7 263f 3bf2 603f

learning_to_down_sample.dsconv1.1.bias f4 [4]
-0.08510934 0.040514596 0.16150106 -0.049170014
00000000: ce4d aebd a2f2 253d 8960 253e 7f66 49bd

learning_to_down_sample.dsconv1.1.running_mean f4 [4]
0.4170363 -3.7405457 -0.60128975 1.437258
00000000: c885 d53e 1a65 6fc0 20ee 19bf 12f8 b73f

learning_to_down_sample.dsconv1.1.running_var f4 [4]
0.7459925 1.7299372 2.755077 6.0669203
00000000: 5df9 3e3f 956e dd3f 2e53 3040 3624 c240

learning_to_down_sample.dsconv1.2.weight f4 [6, 4, 1, 1]
-0.33568487 -1.0114696 0.23614399 -0.771422 0.062429413 -1.3380268 0.00015905879 -0.56261927
-0.44794524 0.39943695 0.7064563 0.18387446 -0.70043004 -0.5291519 0.4115872 -0.7726228
-0.7126164 -0.5669333 -0.3475283 0.40422198 -0.093467385 -1.3057271 -0.08366535 -0.5585547
00000000: e3de abbe d677 81bf bbcf 713e ea7b 45bf
00000010: fcb5 7f3d 7644 abbf 05c9 2639 d107 10bf
00000020: 1459 e5be 0083 cc3e 52da 343f 9649 3c3e
00000030: 624f 33bf 8076 07bf 8fbb d23e 9cca 45bf
00000040: 076e 36bf 8a22 11bf 3bef b1be 2ff6 ce3e
00000050: d46b bfbd 1122 a7bf bd58 abbd 71fd 0ebf

learning_to_down_sample.dsconv1.3.weight f4 [6]
0.29582205 0.24231315 0.13704108 0.18388279 1.1034997 0.3809216
00000000: fd75 973e f020 783e 7f54 0c3e c54b 3c3e
00000010: 7a3f 8d3f 2808 c33e

learning_to_down_sample.dsconv1.3.bias f4 [6]
1.1457708 1.0698851 1.1269888 1.163952 0.5155419 1.0174681
00000000: 9ea8 923f fff1 883f 2b41 903f 61fc 943f
00000010: 8efa 033f 653c 823f

learning_to_down_sample.dsconv1.3.running_mean f4 [6]
0.063679375 -0.03180797 0.1593314 0.1426511 -0.03836712 -0.031088231
00000000: 556a 823d 1349 02bd c527 233e 2113 123e
00000010: d726 1dbd bfac febc

learning_to_down_sample.dsconv1.3.running_var f4 [6]
4.9442034 6.046395 0.59803206 3.1868298 2.4825041 6.22444
00000000: ea36 9e40 117c c140 a118 193f 05f5 4b40
00000010: 59e1 1e40 9d2e c740

learning_to_down_sample.dsconv2.0.weight f4 [6, 1, 3, 3]
0.5256411 1.1798316 0.12113201 0.14557937 0.376777 -0.24226865 -0.5692448 -0.3596631
-0.6455811 -0.42159805 -0.49120605 -0.08646595 0.45814416 0.2443422 0.92529833 0.08486482
-0.8304343 -0.5771428 0.41945627 0.43758315 0.47046006 0.024104625 -0.45645404 -0.26561764
0.45106173 -0.66573805 -0.44330743 -0.027525045 0.096560895 0.004516643 -0.5311595 -0.6729982
-0.6462351 -0.06865141 -0.9611388 -1.0401146 -0.37186727 -0.6699684 -0.36263755 0.15456767
0.0042924373 0.46575937 0.60126543 0.6598764 0.54243016 -0.4918307 -0.080210514 0.23874901
-0.27195513 0.5378116 1.4222068 -0.22929947 -0.12313403 -0.11314897
00000000: 6a90 063f b904 973f 0f14 f83d c212 153e
00000010: eae8 c03e 4615 78be 07ba 11bf c325 b8be
00000020: ce44 25bf b3db d7be 5c7f fbbe 0f15 b1bd
00000030: df91 ea3e d734 7a3e 5ae0 6c3f 9bcd ad3d
00000040: 5897 54bf a1bf 13bf f9c2 d63e e60a e03e
00000050: 24e0 f03e 1077 c53c 58b4 e9be 09ff 87be
00000060: 90f1 e63e cf6d 2abf 31f9 e2be 347c e1bc
00000070: b8c1 c53d 5900 943b 12fa 07bf 9c49 2cbf
00000080: aa6f 25bf 1c99 8cbd 310d 76bf 7a22 85bf
00000090: 6365 bebe 0d83 2bbf a1ab b9be fd46 1e3e
000000a0: 93a7 8c3b 0378 ee3e 88ec 193f a9ed 283f
000000b0: b4dc 0a3f 3cd1 fbbe 6945 a4bd 9f7a 743e
000000c0: b43d 8bbe 05ae 093f df0a b63f 7bcd 6abe
000000d0: b22d fcbd a6ba e7bd

learning_to_down_sample.dsconv2.1.weight f4 [6]
1.3991753 1.3641046 0.7893913 1.099034 0.42087254 1.3555917
00000000: 2d18 b33f fb9a ae3f 8c15 4a3f 25ad 8c3f
00000010: 9b7c d73e 0784 ad3f

learning_to_down_sample.dsconv2.1.bias f4 [6]
-0.010281179 0.012085104 -0.043987833 0.021112967 0.009997295 -0.033745497
00000000: 6472 28bc 9a00 463c 962c 34bd 1af5 ac3c
00000010: b2cb 233c b838 0abd

learning_to_down_sample.dsconv2.1.running_mean f4 [6]
0.5665453 -0.7222659 -0.070258275 -4.468558 0.759446 0.9273415
00000000: 1d09 113f 6be6 38bf 92e3 8fbd 6dfe 8ec0
00000010: 0e6b 423f 4166 6d3f

learning_to_down_sample.dsconv2.1.running_var f4 [6]
0.22442205 0.06725884 0.06936986 0.45545894 1.2908459 0.25777692
00000000: e5ce 653e 01bf 893d c911 8e3d ea31 e93e
00000010: 703a a53f 56fb 833e

learning_to_down_sample.dsconv2.2.weight f4 [8, 6, 1, 1]
-0.36842376 0.18005854 0.55696857 1.2173709 0.072319575 -0.49907944 0.9632038 0.72840106
-0.045042228 -0.10879537 -0.23812532 0.2543451 0.4103445 -0.5998041 0.37794387 -0.6612358
-0.17735133 1.3303825 0.27962396 -0.73809415 0.23492801 -0.14065409 -0.35849467 -0.8735281
1.3048675 0.036726743 -0.5431995 0.2352518 -0.71809185 -0.1347535 -0.98938996 0.29316348
0.6799606 -0.30050862 0.21445954 0.42222252 0.1854924 -0.34214354 0.57898486 0.8616942
0.60714906 0.5076222 0.64292806 0.42285007 0.25804773 0.22952718 -0.1848216 0.5552997
00000000: 0aa2 bcbe 4461 383e 7e95 0e3f cfd2 9b3f
00000010: 491c 943d 5787 ffbe 8694 763f 7e78 3a3f
00000020: 337e 38bd 1bd0 debd 20d7 73be 8539 823e
00000030: ad18 d23e c38c 19bf dc81 c13e c046 29bf
00000040: 969b 35be f949 aa3f df2a 8f3e bdf3 3cbf
00000050: f890 703e a007 10be 9d8c b7be 8a9f 5fbf
00000060: e605 a73f c86e 163d 1f0f 0bbf d9e5 703e
00000070: ded4 37bf d2fc 09be a948 7dbf 8619 963e
00000080: e611 2e3f 44dc 99be 489b 5b3e 8d2d d83e
00000090: b8f1 3d3e 702d afbe 5a38 143f fe97 5c3f
000000a0: 1f6e 1b3f 87f3 013f ef96 243f ce7f d83e
000000b0: d51e 843e 2c09 6b3e e041 3dbe 1f28 0e3f

learning_to_down_sample.dsconv2.3.weight f4 [8]
1.1493396 1.5888028 1.193123 1.9748044 1.3532995 1.7673299 0.8833351 0.66220933
00000000: 8f1d 933f e45d cb3f 41b8 983f 64c6 fc3f
00000010: eb38 ad3f de37 e23f 4022 623f 8d86 293f

learning_to_down_sample.dsconv2.3.bias f4 [8]
1.3548151 -0.19774774 0.37554532 -0.32009524 -0.12128071 0.10886332 0.05322592 -0.72394747
00000000: 956a ad3f 627e 4abe 7a47 c03e 86e3 a3be
00000010: 0562 f8bd bbf3 de3d 6c03 5a3d 9f54 39bf

learning_to_down_sample.dsconv2.3.running_mean f4 [8]
0.024736786 -0.0123825725 -0.088719785 0.00078884594 0.013253297 -0.0346513 -0.024344346 -0.028596913
00000000: cda4 ca3c 46e0 4abc b8b2 b5bd 8eca 4e3a
00000010: 5b24 593c 86ee 0dbd cb6d c7bc 1344 eabc

learning_to_down_sample.dsconv2.3.running_var f4 [8]
4.2275033 2.0332727 7.688392 3.161121 3.906668 2.8573809 0.8598133 1.2757523
00000000: b547 8740 2421 0240 4f07 f640 ce4f 4a40
00000010: d906 7a40 54df 3640 b91c 5c3f da4b a33f

global_feature_extractor.first_block.0.conv.0.weight f4 [32, 8, 1, 1]
-0.23279527 0.31662017 1.0811462 -0.021771507 0.3393562 0.23487867 -0.039184235 0.49649304
0.9136495 -0.035984494 -0.066067204 0.5265379 -0.00920441 0.1353364 0.7135415 0.39758047
0.7422158 -0.36278415 -0.07080284 0.096882924 0.092807926 -1.013543 -0.70790267 0.043699842
0.15138614 0.45367295 -0.15798664 -0.53415734 0.63663274 -0.5876248 -0.08313762 -0.27695942
0.5930517 0.34082922 -0.7794478 0.35806015 0.37045547 0.571475 0.42340052 0.338293
-0.3515474 0.7783984 0.1399216 0.19694695 0.39774072 0.61674976 -0.18344435 -0.3919543
0.15289977 0.38605598 0.052347485 2.016935 0.68769556 0.70228106 -0.17701104 -0.3020698
0.16856259 0.9564271 -0.52259105 0.8299392 0.20401898 0.64032465 0.050121218 0.47820935
-0.98219 -0.0026192067 0.7114181 -0.045574002 0.3330351 0.1460441 -0.64135337 -0.21329176
0.6852199 -0.08235179 1.0148847 0.28868148 -0.062732875 -0.3975289 0.11031736 0.06582401
-0.3758636 0.33783242 -0.11120688 0.39221752 0.546442 -1.0201315 0.020534217 -0.45907858
0.14228168 -0.39038292 -0.009503047 -0.68212473 -0.50892305 -1.3524727 -0.30873945 0.23254034
-0.23569852 0.08333752 1.6659473 0.11849503 -0.7131936 -0.27357474 0.2108721 -0.06653574
-0.22337997 -0.96356994 -0.15136673 -1.335497 -0.71568906 0.052843317 0.115438215 -0.2142251
-0.15482248 0.8863998 0.5784583 -0.18869953 0.58300465 0.17294505 0.13954736 -0.6093201
1.1052629 0.23974407 0.03894729 -0.0035896928 0.26576978 0.024424598 0.34963936 1.4308347
-0.44150493 -0.4072114 0.74721694 -0.37182742 -0.0076268604 -0.480607 -0.3930999 -0.20579344
-0.5042181 0.12162966 0.4504018 0.12495405 0.36436352 -0.8666766 0.7295803 -0.23658526
0.7695749 -0.27273607 -0.20629531 0.63968754 -0.58345425 -0.523722 -0.2930743 0.26081672
-0.42161518 1.5080296 -0.31064007 0.5706503 1.6093762 -0.21752478 -0.11376548 -0.2591154
-0.3799603 0.41729775 0.6682148 -0.86281204 -0.61131847 0.40678427 -0.24030577 -0.5550674
0.36705902 0.033422515 -0.037249457 -0.8742846 0.03905589 -0.7393828 0.7566644 0.3179783
-0.09389187 -0.057981342 -0.18480653 -0.39083904 -0.029233538 -1.505788 -0.33546057 0.054465137
-0.30359116 -0.0025580311 -0.21201654 -0.85487473 0.36804354 0.41643658 -0.6884188 -0.086922675
0.42656103 0.09347909 -0.38404578 0.47185847 0.082546115 -1.1873622 -0.071881846 0.02414003
0.26318482 -1.4288336 0.041019183 -0.53287554 -1.0131509 0.011585409 0.41985437 0.15875691
1.3072009 0.24858415 -0.71236885 0.1285842 -0.035996515 -0.29747567 0.22616965 0.52492934
0.68269217 -0.36521104 -0.19271818 0.63193 -0.15931332 -0.73960406 0.1276407 0.46501207
0.5795973 -0.9123221 -0.18312448 -0.25850478 -0.7982003 -0.083625704 -0.19362591 0.58570105
0.09416431 0.27812555 1.0804899 0.08728677 0.18311167 0.54028857 0.4928385 0.082715824
-0.57111526 0.4698046 1.0129292 0.30608618 0.3284784 0.3658556 -0.17606963 -0.6841028
0.13496457 0.19451302 -0.19667721 0.6462842 0.05681759 -0.98371184 -0.5930911 0.17870605
00000000: e261 6ebe 0a1c a23e 0063 8a3f 295a b2bc
00000010: 19c0 ad3e 0984 703e a67f 20bd 5634 fe3e
00000020: efe4 693f 7a64 13bd 3e4e 87bd 30cb 063f
00000030: 18ce 16bc a095 0a3e a8aa 363f ab8f cb3e
00000040: db01 3e3f d8be b9be 1401 91bd 8e6a c63d
00000050: 1512 be3d c7bb 81bf 1c39 35bf 9bfe 323d
00000060: f804 1b3e d247 e83e 40c7 21be 89be 08bf
00000070: 5dfa 223f 946e 16bf 0e44 aabd a0cd 8dbe
00000080: 3cd2 173f 2b81 ae3e e489 47bf a953 b73e
00000090: 57ac bd3e 304c 123f f4c7 d83e bd34 ad3e
000000a0: 05fe b3be 1e45 473f 9c47 0f3e 76ac 493e
000000b0: aca4 cb3e 50e3 1d3f d6d8 3bbe 3cae c8be
000000c0: c291 1c3e 21a9 c53e 516a 563d 7715 0140
000000d0: d10c 303f b1c8 333f 6242 35be e5a8 9abe
000000e0: ac9b 2c3e 68d8 743f 87c8 05bf e576 543f
000000f0: 5aea 503e 51ec 233f e84b 4d3d dbd7 f43e
00000100: ce70 7bbf ffa6 2bbb 7f1f 363f ceab 3abd
00000110: 9483 aa3e 968c 153e bc2f 24bf 2869 5abe
00000120: 926a 2f3f 0ea8 a8bd bee7 813f 0fce 933e
00000130: 187a 80bd e888 cbbe 11ee e13d bdce 863d
00000140: 3271 c0be 5ff8 ac3e 6fc0 e3bd bcd0 c83e
00000150: 9fe3 0b3f ab93 82bf 6037 a83c 590c ebbe
00000160: 4ab2 113e 45e0 c7be abb2 1bbc ba9f 2ebf
00000170: c848 02bf d31d adbf 1913 9ebe 0e1f 6e3e
00000180: f45a 71be ddac aa3d c33d d53f 86ad f23d
00000190: db93 36bf fd11 8cbe dbee 573e e443 88bd
000001a0: b8bd 64be 85ac 76bf e1ff 1abe 91f1 aabf
000001b0: 6637 37bf 3c72 583d df6a ec3d d35d 5bbe
000001c0: c989 1ebe 19eb 623f d815 143f 733a 41be
000001d0: cb3f 153f 8218 313e 81e5 0e3e 67fc 1bbf
000001e0: 4179 8d3f 787f 753e 3287 1f3d 0d41 6bbb
000001f0: fa12 883e 1816 c83c ee03 b33e 9725 b73f
00000200: ef0c e2be 037e d0be 9c49 3f3f 2a60 bebe
00000210: beea f9bb 1f12 f6be 6444 c9be 84bb 52be
00000220: 7014 01bf f918 f93d 119b e63e e9e7 ff3d
00000230: db8d ba3e 85de 5dbf c6c5 3a3f 6843 72be
00000240: dc02 453f 10a4 8bbe 143f 53be 90c2 233f
00000250: 425d 15bf a512 06bf d60d 96be c589 853e
00000260: f2dd d7be 1d07 c13f 370c 9fbe 2316 123f
00000270: 0a00 ce3f d1be 5ebe e0fd e8bd c6aa 84be
00000280: 288a c2be 0da8 d53e 2010 2b3f 40e1 5cbf
00000290: 5e7f 1cbf 0746 d03e b712 76be e618 0ebf
000002a0: 29ef bb3e 0ce6 083d e392 18bd 1ed1 5fbf
000002b0: 12f9 1f3d 3148 3dbf c2b4 413f 0dce a23e
000002c0: 614a c0bd d87d 6dbd ec3d 3dbe 0e1c c8be
000002d0: 2c7b efbc a9bd c0bf 7dc1 abbe d616 5f3d
000002e0: 4d70 9bbe a4a4 27bb dd1a 59be 12d9 5abf
000002f0: 3470 bc3e 2d37 d53e 373c 30bf 8404 b2bd
00000300: 3566 da3e f771 bf3d a6a1 c4be 6f97 f13e
00000310: f00d a93d 7cfb 97bf ca36 93bd 50c1 c53c
00000320: 29c0 863e 05e4 b6bf bb03 283d 886a 08bf
00000330: eeae 81bf bad0 3d3c 27f7 d63e 2c91 223e
00000340: 5c52 a73f d88c 7e3e ce5d 36bf 94ab 033e
00000350: 1571 13bd bb4e 98be 0499 673e c561 063f
00000360: eac4 2e3f f1fc babe ea57 45be 2ac6 213f
00000370: 0823 23be b156 3dbf 3eb4 023e 1016 ee3e
00000380: 7d60 143f f18d 69bf fc84 3bbe bd5a 84be
00000390: db56 4cbf f443 abbd df45 46be 81f0 153f
000003a0: 38d9 c03d 7966 8e3e 7e4d 8a3f 68c3 b23d
000003b0: a081 3b3e 5a50 0a3f 5455 fc3e ea66 a93d
000003c0: 9c34 12bf 3b8a f03e aaa7 813f 54b7 9c3e
000003d0: 522e a83e 6d51 bb3e 994b 34be 5c21 2fbf
000003e0: 2734 0a3e 6c2e 473e c065 49be e272 253f
000003f0: 90b9 683d 8ad4 7bbf d1d4 17bf b8fe 363e

global_feature_extractor.first_block.0.conv.1.weight f4 [32]
1.3412381 1.7181745 2.1673424 1.1832647 2.059977 0.8286403 0.7380705 1.432532
2.3152366 1.6274363 1.3550513 1.0913539 2.860127 1.8434662 1.830196 1.7106833
1.8506155 1.9626275 1.5788219 1.4326493 1.2764671 2.054337 0.60323006 1.6849375
1.4197052 1.830656 1.2982244 2.1220856 1.4677168 1.9069191 2.3277054 1.1502513
00000000: b1ad ab3f 24ed db3f bdb5 0a40 3875 973f
00000010: aad6 0340 c521 543f 30f2 3c3f 355d b73f
00000020: d62c 1440 d54f d03f 5272 ad3f 7cb1 8b3f
00000030: 520c 3740 b3f6 eb3f dd43 ea3f acf7 da3f
00000040: f8e0 ec3f 6137 fb3f d616 ca3f 0d61 b73f
00000050: 4663 a33f 427a 0340 496d 1a3f 08ac d73f
00000060: e6b8 b53f f052 ea3f 382c a63f 40d0 0740
00000070: 25de bb3f ed15 f43f 20f9 1440 6f3b 933f

global_feature_extractor.first_block.0.conv.1.bias f4 [32]
-0.40047616 0.11231683 0.20640704 -0.19429137 0.075173415 0.6157818 0.6765937 -0.26085043
0.030448703 0.2825253 0.38389423 0.2722525 0.082270995 0.29165745 -0.25100636 0.016474785
-0.08809952 0.11941411 0.15916848 0.5831111 0.57790107 0.059598625 0.634901 -0.19050041
0.43980107 0.12137723 0.30608216 0.08483898 -0.26954454 -0.01864154 0.11832119 0.45237666
00000000: 360b cdbe 5e06 e63d 5e5c 533e 51f4 46be
00000010: 85f4 993d e0a3 1d3f 3f35 2d3f 308e 85be
00000020: 8f6f f93c 28a7 903e c98d c43e ae64 8b3e
00000030: b27d a83d 2054 953e e883 80be 21f6 863c
00000040: 856d b4bd 638f f43d 10fd 223e c546 153f
00000050: 53f1 133f b01d 743d df88 223f 8a12 43be
00000060: 9b2d e13e a094 f83d cdb6 9c3e 0fc0 ad3d
00000070: be01 8abe 25b6 98bc 6152 f23d ea9d e73e

global_feature_extractor.first_block.0.conv.1.running_mean f4 [32]
0.75312746 1.7398883 0.16327035 -0.10841373 1.1661998 0.3523335 1.7354249 1.0241792
-0.93467957 1.5116727 -0.75196415 -1.222161 0.5164582 -1.4604754 0.69531906 1.948417
-0.8155336 -0.4960331 0.5450701 0.30748072 -0.35656822 -0.011591481 -1.3878295 -0.750718
-0.1027854 -0.5058514 1.4208529 0.54531646 -0.057064705 1.4937353 0.377582 -0.3190544
00000000: f6cc 403f a9b4 de3f 5830 273e 0508 debd
00000010: 0946 953f 0e65 b43e 6722 de3f 4e18 833f
00000020: 2947 6fbf 7e7e c13f b980 40bf c66f 9cbf
00000030: 9b36 043f dcf0 babf 6e00 323f ba65 f93f
00000040: cfc6 50bf 0df8 fdbe b789 0b3f 1d6e 9d3e
00000050: 1c90 b6be 32ea 3dbc 66a4 b1bf 0e2f 40bf
00000060: 2781 d2bd 7a7f 01bf 82de b53f dc99 0b3f
00000070: aebc 69bd b832 bf3f 6e52 c13e 195b a3be

global_feature_extractor.first_block.0.conv.1.running_var f4 [32]
2.2547438 1.4005163 3.164179 1.4202114 1.5241859 1.9523269 4.705617 2.0547888
2.5792038 0.60175586 2.8145185 3.7623293 2.1149247 4.0536737 2.1781766 1.5344254
1.0584908 2.0360734 2.3273957 7.997229 2.179055 1.586564 3.9315681 0.9066447
3.4664836 5.2468853 3.418489 2.3249094 3.0745075 2.1108968 2.9148636 2.6341
00000000: b94d 1040 1e44 b33f e981 4a40 7dc9 b53f
00000010: 8618 c33f d9e5 f93f 6a94 9640 a981 0340
00000020: ad11 2540 ac0c 1a3f 1221 3440 01ca 7040
00000030: ed5a 0740 b2b7 8140 3f67 0b40 0d68 c43f
00000040: a07c 873f 074f 0240 0df4 1440 4de9 ff40
00000050: a375 0b40 8714 cb3f d09e 7b40 de19 683f
00000060: deda 5d40 7ce6 a740 86c8 5a40 51cb 1440
00000070: bbc4 4440 ef18 0740 208d 3a40 1895 2840

global_feature_extractor.first_block.0.conv.3.weight f4 [32, 1, 3, 3]
-0.6449213 -0.015117271 -0.58234566 0.06386894 0.53812 0.2384188 -0.23588829 0.4871711
0.4226568 -0.22542635 -0.16379409 -0.084780864 0.44155848 1.1146221 0.42749697 0.13799787
0.51123947 0.16925061 0.09719651 0.62989175 0.16150963 -1.0334285 0.5491874 0.23216833
-0.8587608 0.0947598 -0.27905765 0.07474502 0.3740276 0.65737534 0.4046685 0.0021923077
-0.43282762 -0.31094098 -0.3882267 0.3705322 0.0038963358 0.012219433 -0.52110004 -0.21402702
-0.3694734 -0.47578067 0.8457613 0.9738978 0.303476 -0.54030836 0.1834597 -0.24130048
0.35988748 0.22531934 0.7610191 0.6301387 -0.085740596 -0.021886243 -0.23489527 -1.3003567
-0.5356914 0.28063166 -0.8369697 -1.1332271 0.04944601 0.06704606 -0.094725706 -0.33811617
-0.2174779 -0.36325303 0.07779327 0.77943766 0.43870506 -0.34774554 0.0859641 0.43099082
-0.18871938 -0.49859822 -0.3610671 0.068771854 -0.9451235 -0.7229703 0.32520416 -0.13972627
-0.39320278 -0.10004097 -0.5271295 0.5690037 0.42716396 -0.23818874 0.9992102 -0.010921154
-0.13924941 0.28286543 -0.814661 -0.93491215 0.015786046 0.15977478 -0.3363442 0.19871382
0.3037988 0.6853203 0.59261143 0.3633016 -0.058100924 -0.005259067 0.86878824 0.016080983
-0.024621114 -0.099701546 -0.96334463 -0.71310884 0.11956219 -0.4338861 -0.28524092 0.9913939
0.41652125 -0.05195993 1.0257419 0.9362828 0.26884466 -0.28637707 0.12658629 -0.29596293
0.42800382 0.78460336 0.19906346 -0.3831493 -0.14919056 -0.58659947 0.12119344 -0.8491724
0.20066099 -0.34140268 -0.53350616 0.22607963 -0.3548732 -0.28701025 -0.67576027 0.7455372
1.3622618 0.9408125 -0.33494467 0.39581323 0.30376497 -0.2666205 -0.4656565 0.030602295
0.16585614 0.3139564 0.6231151 0.37493414 0.118171245 -0.022900991 -0.353797 -0.75977826
-0.6873089 -0.21531437 0.60843295 -0.57659197 -0.14071032 0.89541024 -0.075933486 -0.4309275
0.20176993 0.59234184 -0.12015716 -0.46326503 -0.013398097 0.106163874 -0.8687295 0.5196291
0.7690129 -0.43312398 0.61119837 -0.12951942 -0.5589129 -0.9598233 0.07396249 -0.4063043
-1.0095643 -0.06970599 -0.39488167 -0.8903644 -0.1487986 0.1599048 -0.057749666 -0.31340227
1.0948414 -0.5455545 -0.44476748 0.70519316 -0.43868747 0.0755125 -0.40603995 -0.24460874
-0.48889118 -0.6453238 -0.6841584 0.034606803 -0.41250575 -0.83680534 0.5404457 0.37604845
0.20442724 0.22979188 -0.70531553 -0.9315771 0.052235376 -0.28115177 -0.48276186 -0.44183397
-0.11581124 -0.28540045 0.12931363 -0.42878732 -0.46578678 -0.5873215 -0.62889904 0.2596769
-0.053262018 -0.37486118 -0.44652155 0.6151528 0.2082436 -0.30469957 0.42438555 0.35808387
-0.46936148 -0.24835998 -0.10026145 -0.07547687 -0.44012234 -0.7638098 -0.63285536 -0.12768374
-0.1034588 -0.24284385 -0.07829718 -0.12114526 -0.198389 0.5888028 0.97928643 0.3436628
0.59358203 0.9295023 0.42045012 -0.51027 -0.25978315 -0.04666951 -0.1273194 -0.0038168684
-0.54938567 -0.29194692 0.88008386 0.5291184 0.08461863 -0.07693237 -0.55856955 -0.080337375
00000000: 9019 25bf 6eae 77bc 9b14 15bf b8cd 823d
00000010: 3bc2 093f 0f24 743e b38c 71be 7e6e f93e
00000020: 7966 d83e 2ad6 66be a3b9 27be 97a1 adbd
00000030: f413 e23e f0ab 8e3f e2e0 da3e 504f 0d3e
00000040: 97e0 023f 0850 2d3e f70e c73d 9640 213f
00000050: c862 253e 6347 84bf 8c97 0c3f 89bd 6d3e
00000060: bfd7 5bbf 6d11 c23d a5e0 8ebe eb13 993d
00000070: 8c80 bf3e c049 283f b630 cf3e d2ac 0f3b
00000080: 959b ddbe a833 9fbe a6c5 c6be 66b6 bd3e
00000090: ab59 7f3b 0434 483c d066 05bf e629 5bbe
000000a0: 9e2b bdbe 8699 f3be d083 583f 5e51 793f
000000b0: 3561 9b3e a651 0abf dcdc 3b3e 7917 77be
000000c0: 2c43 b83e 1dba 663e 26d2 423f c550 213f
000000d0: c498 afbd c74a b3bc 6388 70be 1772 a6bf
000000e0: 1223 09bf f4ae 8f3e a543 56bf 960d 91bf
000000f0: e687 4a3d 724f 893d 8dff c1bd 901d adbe
00000100: 87b2 5ebe 4dfc b9be 1452 9f3d 3a89 473f
00000110: f39d e03e b40b b2be f20d b03d d4aa dc3e
00000120: a73f 41be 4448 ffbe c9dd b8be 42d8 8c3d
00000130: 9df3 71bf 9514 39bf 2981 a63e 6714 0fbe
00000140: e051 c9be 48e2 ccbd f5f1 06bf 3aaa 113f
00000150: 3cb5 da3e c0e7 73be 3dcc 7f3f a4ee 32bc
00000160: 6697 0ebe bdd3 903e a08d 50bf 6756 6fbf
00000170: bd51 813c 009c 233e 4f35 acbe a37b 4b3e
00000180: 848b 9b3e 2771 2f3f 62b5 173f ab02 ba3e
00000190: 3cfb 6dbd 4054 acbb e868 5e3f 44bc 833c
000001a0: 38b2 c9bc 5330 ccbd c19d 76bf 4d8e 36bf
000001b0: 05dd f43d 5226 debe 190b 92be fecb 7d3f
000001c0: 4642 d53e f0d3 54bd 834b 833f 3bb0 6f3f
000001d0: 02a6 893e 04a0 92be d69f 013e 7488 97be
000001e0: 5123 db3e c4db 483f 4bd7 4b3e 252c c4be
000001f0: 69c5 18be 622b 16bf 4434 f83d 5d63 59bf
00000200: 137a 4d3e 55cc aebe dc93 08bf 6b81 673e
00000210: f1b1 b5be 02f3 92be a0fe 2cbf 87db 3e3f
00000220: 985e ae3f 17d9 703f de7d abbe 08a8 ca3e
00000230: 1587 9b3e 7b82 88be 876a eebe aab1 fa3c
00000240: 31d6 293e e5be a03e 7984 1f3f 5ef7 bf3e
00000250: c403 f23d dc9a bbbc e124 b5be d480 42bf
00000260: 7af3 2fbf 5f7b 5cbe 43c2 1b3f 889b 13bf
00000270: 5e16 10be 9b39 653f 0483 9bbd 87a2 dcbe
00000280: c79c 4e3e b7a3 173f f514 f6bd 1331 edbe
00000290: b183 5bbc 726c d93d 0e65 5ebf 6a06 053f
000002a0: 08de 443f 6dc2 ddbe 7f77 1c3f bda0 04be
000002b0: ea14 0fbf fbb6 75bf a579 973d 1e07 d0be
000002c0: 6739 81bf 04c2 8ebd ee2d cabe ecee 63bf
000002d0: a95e 18be 15be 233e ea8a 6cbd 4376 a0be
000002e0: c323 8c3f 76a9 0bbf 90b8 e3be 8a87 343f
000002f0: a59b e0be 4ca6 9a3d 78e4 cfbe b77a 7abe
00000300: f24f fabe f133 25bf 0125 2fbf ddbf 0d3d
00000310: f433 d3be e038 56bf a65a 0a3f 6c89 c03e
00000320: 6055 513e 904e 6b3e 8f8f 34bf d67b 6ebf
00000330: c3f4 553d 20f3 8fbe 902c f7be 1038 e2be
00000340: 722e edbd 0220 92be cb6a 043e 038a dbbe
00000350: 9b7b eebe b45a 16bf 87ff 20bf 5ff4 843e
00000360: 4629 5abd ceed bfbe 799e e4be a77a 1d3f
00000370: cf3d 553e 9501 9cbe 1049 d93e c556 b73e
00000380: 2650 f0be 1452 7ebe e055 cdbd 9e93 9abd
00000390: b757 e1be 0a89 43bf cf02 22bf 87bf 02be
000003a0: 35e2 d3bd 0fac 78be 465a a0bd 021b f8bd
000003b0: 7c26 4bbe c8bb 163f 84b2 7a3f 92f4 af3e
000003c0: fef4 173f ddf3 6d3f 3d45 d73e 0ea1 02bf
000003d0: 4c02 85be 8728 3fbd 0460 02be 6d24 7abb
000003e0: 8aa4 0cbf 117a 95be 2d4d 613f 4e74 073f
000003f0: 884c ad3d b88e 9dbd 6afe 0ebf ec87 a4bd

global_feature_extractor.first_block.0.conv.4.weight f4 [32]
0.65028685 1.0226783 1.0989938 0.74111664 1.1971649 0.6122333 1.6345043 1.0528347
1.0695536 0.8454189 1.338991 1.2297522 0.9941961 0.96988815 0.9701043 0.85698277
0.9428931 1.143563 1.1751369 1.7453212 1.1705097 1.0549436 1.3168012 0.7734238
1.1833524 1.325949 1.4379162 1.244695 1.2609146 0.9353621 1.5883262 0.75932634
00000000: 3379 263f 1fe7 823f d4ab 8c3f d2b9 3d3f
00000010: b33c 993f 52bb 1c3f 7037 d13f 4ac3 863f
00000020: 22e7 883f 5f6d 583f 0f64 ab3f 8568 9d3f
00000030: a383 7e3f 974a 783f c158 783f 3963 5b3f
00000040: 7161 713f 4660 923f e36a 963f af66 df3f
00000050: 43d3 953f 6408 873f f18c a83f 1aff 453f
00000060: 1778 973f b2b8 a93f a30d b83f 2a52 9f3f
00000070: a665 a13f e473 6f3f 464e cb3f 3663 423f

global_feature_extractor.first_block.0.conv.4.bias f4 [32]
-0.37522924 0.058279537 -0.07128381 -0.22778873 0.21938348 0.19373299 0.179382 0.2625908
0.07795652 -0.0951212 0.014172905 0.41256702 0.5898473 -0.4444365 0.11067726 -0.3499288
0.64542824 -0.17849801 -0.30454868 0.5142422 -0.25047925 0.34560472 0.5453351 -0.5606668
-0.1276295 0.22693942 0.99035454 -0.34504458 0.46923736 -0.22914144 0.52222747 0.47897393
00000000: 0c1e c0be 86b6 6e3d 3ffd 91bd 7341 69be
00000010: 10a6 603e f161 463e eaaf 373e 4d72 863e
00000020: aba7 9f3d e7ce c2bd 7935 683c fc3b d33e
00000030: 3c00 173f 2e8d e3be c2aa e23d de29 b3be
00000040: c93a 253f 2fc8 36be ceed 9bbe 60a5 033f
00000050: d13e 80be 1af3 b03e 159b 0b3f dc87 0fbf
00000060: 4fb1 02be cf62 683e e087 7d3f afa9 b0be
00000070: e13f f03e 0ea4 6abe b3b0 053f 123c f53e

global_feature_extractor.first_block.0.conv.4.running_mean f4 [32]
0.12919669 1.6209685 -0.34131438 0.1858767 0.26479033 0.88111854 -2.47761 0.330549
-2.4559088 0.84897053 -0.036499582 -0.4117015 3.2578897 -0.08202717 -1.3116918 1.6514418
-0.18830918 0.62763244 0.08836333 -2.8889623 0.05959057 -2.6343381 -0.749693 -1.111467
-0.05033699 -1.7364395 2.2248921 -0.27163365 -0.22352742 0.7671853 1.6479057 -1.4569793
00000000: 234c 043e e57b cf3f c2c0 aebe 7656 3e3e
00000010: 9992 873e fc90 613f 2a91 1ec0 b83d a93e
00000020: 9c2d 1dc0 2256 593f 9680 15bd 8aca d2be
00000030: 4481 5040 dcfd a7bd 84e5 a7bf 7262 d33f
00000040: 1fd4 40be 85ac 203f d5f7 b43d c2e4 38c0
00000050: 3e15 743d ff98 28c0 e1eb 3fbf 8d44 8ebf
00000060: 292e 4ebd a643 debf a264 0e40 9113 8bbe
00000070: 5fe4 64be 4166 443f 93ee d23f 4c7e babf

global_feature_extractor.first_block.0.conv.4.running_var f4 [32]
1.6421702 7.9947734 1.4346749 0.6440769 5.2135878 1.2958106 3.666927 2.5422065
9.288182 2.6713147 3.1213775 0.515495 29.809334 0.70900893 4.8587646 13.284089
2.2066674 2.650709 1.0642207 10.24552 1.3971931 10.412431 0.31982285 1.184737
0.51735073 1.0666997 9.338451 1.5970314 0.30920687 6.382458 11.743144 1.0722339
00000000: a232 d23f 2fd5 ff40 6da3 b73f 39e2 243f
00000010: b6d5 a640 1fdd a53f efae 6a40 83b3 2240
00000020: 659c 1441 d2f6 2a40 a6c4 4740 7bf7 033f
00000030: 8479 ee41 9c81 353f 007b 9b40 a18b 5441
00000040: 0a3a 0d40 37a5 2940 6238 883f a6ed 2341
00000050: 39d7 b23f 5199 2641 d2bf a33e 76a5 973f
00000060: 1971 043f 9e89 883f 4c6a 1541 866b cc3f
00000070: 5d50 9e3e 193d cc40 ebe3 3b41 f63e 893f

global_feature_extractor.first_block.0.conv.6.weight f4 [8, 32, 1, 1]
0.17953406 -0.3975718 0.062347148 -0.2473402 0.46150407 0.4663722 0.1359798 0.16184668
-0.3973113 0.28191763 0.6367214 0.6093576 -0.14822818 0.43442062 0.009894643 -0.0060559846
0.39202186 0.2944231 0.9024723 -0.13171197 0.09445948 -0.3325509 0.05656219 -0.26619738
0.44939372 0.36581233 -0.2938411 0.025897935 0.63712084 0.6685211 0.08496158 0.3526017
0.1953739 0.26825437 0.57480407 0.23211592 -0.24576938 -0.3088054 -1.4454485 0.47739053
-0.20354812 0.34180084 0.09127505 -0.18658677 -0.019348625 -0.08532646 -0.18117176 -0.3663025
0.15339927 0.77205795 0.83504355 -0.7269566 0.5635606 -0.4982917 -0.21943234 -0.4035788
0.5098268 -0.27283916 -0.15517011 0.0771621 -0.09023676 0.09881528 0.16389656 0.07697065
0.082419775 -0.14915188 0.118527815 -0.64251256 0.11149905 -0.3699696 0.3481953 0.03461547
0.23326987 0.08188306 -1.1042929 -0.69915444 0.05003321 -0.445672 0.5077769 0.51739854
0.011433816 0.02108593 0.06322681 1.1765311 0.6289647 -0.20746441 -0.9971071 0.31123137
-0.53576195 -0.56899446 0.3878388 -0.04682024 -0.13891965 -0.21655801 -0.71805817 0.12308332
0.60096544 -0.7133357 0.3524724 -0.4400701 -0.6041714 0.12628622 -0.071656674 -0.6598308
-0.21103136 0.013459204 0.083311155 0.197231 0.95343506 -0.1244474 0.13799788 0.015473476
-0.54902536 0.29025495 -0.11757938 0.5721875 0.38634214 0.32181975 0.13205971 -0.33935234
-0.34187388 -0.032575794 -1.0940071 -0.43087727 -0.36955184 0.21183461 -0.02979318 0.24361627
0.043699242 0.1196161 -0.14834884 -0.33690557 -0.5503225 -0.2950793 -0.74430954 -0.18684001
0.4617927 0.7557838 -0.22059658 0.070277974 0.08219194 -0.2642468 0.31550315 0.8707109
-0.4008893 -0.061991133 -0.087000504 0.400292 0.3537442 -0.29168424 0.8369757 -0.005181867
-0.11172025 -0.81921417 0.3357267 -0.81487787 -0.23660035 0.51111037 0.14103699 -0.2464696
-0.19891967 -0.29657865 0.23762871 0.13649103 0.074624 0.028141141 -1.038174 -0.34282562
-0.49293783 -0.065290324 0.25678092 0.042341392 0.49873173 0.65489084 -0.7781732 -0.12199013
0.12197933 0.65758604 0.24650331 -0.4591515 0.38732374 0.36117375 -0.14975454 -0.30197334
0.2556432 0.44251335 -0.65199465 0.53104 0.28053987 0.035378017 0.80656636 0.59685075
0.29058158 0.60817415 0.72867197 0.34410647 0.15737401 0.4367306 -0.105809964 0.99318373
0.3762968 0.4177556 0.31444326 0.66000575 0.54548395 -0.28512108 0.10575769 -0.26264563
0.43465447 0.5688402 0.5542327 0.5630668 0.45870942 -0.652921 0.07656842 0.07227945
-0.44131353 0.28196114 0.013338914 0.2843098 -0.8181857 -0.19272327 -0.7921841 0.31678492
-0.061943352 -0.35826877 -0.7446248 -0.07784942 -0.46173674 0.52655834 0.49403405 0.31005093
-0.5797556 0.1755675 0.080709614 -0.45096594 0.047114443 -0.11143756 -0.6457507 -0.40578306
-0.0012994348 0.15988475 0.016585613 -0.52743095 0.6060681 -0.0050927866 -0.08762935 -0.03336481
0.15718332 0.45117855 -0.34972394 0.23672207 0.14536943 0.21939546 1.0685738 -0.44114763
00000000: c7d7 373e 888e cbbe b95f 7f3d c046 7dbe
00000010: 434a ec3e 56c8 ee3e 4a3e 0b3e 23bb 253e
00000020: 636c cbbe 8257 903e 2c00 233f dcfe 1b3f
00000030: 21c9 17be 616c de3e 241d 223c 4871 c6bb
00000040: 17b7 c83e a0be 963e 6d08 673f 81df 06be
00000050: f973 c13d 1d44 aabe c1ad 673d 064b 88be
00000060: ef16 e63e c14b bb3e 5772 96be e827 d43c
00000070: 5a1a 233f 3324 2b3f 5600 ae3d 3688 b43e
00000080: 1810 483e a358 893e 5c26 133f ccaf 6d3e
00000090: f8aa 7bbe be1b 9ebe 7504 b9bf 886c f43e
000000a0: eb6e 50be 8500 af3e 6aee ba3d 9a10 3fbe
000000b0: 0281 9ebc a4bf aebd 1785 39be 008c bbbe
000000c0: b314 1d3e 97a5 453f 6ac5 553f d419 3abf
000000d0: 8245 103f 1720 ffbe dfb2 60be e1a1 cebe
000000e0: 0284 023f 93b1 8bbe eae4 1ebe 2a07 9e3d
000000f0: 0dce b8bd aa5f ca3d 80d4 273e caa2 9d3d
00000100: b3cb a83d 45bb 18be b6be f23d b47b 24bf
00000110: 9d59 e43d a86c bdbe a846 b23e f3c8 0d3d
00000120: 4cde 6e3e 4eb2 a73d 7859 8dbf c9fb 32bf
00000130: a0ef 4c3d 1f2f e4be abfd 013f 3b74 043f
00000140: e654 3b3c 66bc ac3c 0f7d 813d 9298 963f
00000150: d503 213f 8d71 54be 6942 7fbf b859 9f3e
00000160: b227 09bf 9fa9 11bf cf92 c63e 94c6 3fbd
00000170: f440 0ebe 62c1 5dbe a9d2 37bf 1c13 fc3d
00000180: dfd8 193f 2b9d 36bf 4377 b43e de50 e1be
00000190: faaa 1abf 2d51 013e bcc0 92bd acea 28bf
000001a0: 9b18 58be fe83 5c3c 0a9f aa3d ecf6 493e
000001b0: 5214 743f 47de febd 514f 0d3e 7684 7d3c
000001c0: ed8c 0cbf 4c9c 943e 75cd f0bd e17a 123f
000001d0: a3ce c53e 8fc5 a43e a93a 073e 97bf adbe
000001e0: 180a afbe 326e 05bd 6d08 8cbf f29b dcbe
000001f0: e635 bdbe 2ceb 583e d410 f4bc 8b76 793e
00000200: fafd 323d 49f9 f43d c2e8 17be e37e acbe
00000210: efe1 0cbf a214 97be 128b 3ebf fd52 3fbe
00000220: 1870 ec3e 0c7b 413f 12e4 61be e6ed 8f3d
00000230: 3f54 a83d 5b4b 87be a189 a13e e9e6 5e3f
00000240: 5d41 cdbe 6aea 7dbd 522d b2bd 13f3 cc3e
00000250: f61d b53e a357 95be 0a44 563f a7cc a9bb
00000260: 96cd e4bd 05b8 51bf 5fe4 ab3e d69b 50bf
00000270: 5d47 72be 21d8 023f 006c 103e 8762 7cbe
00000280: 99b1 4bbe 28d9 97be f154 733e 4ec4 0b3e
00000290: 78d4 983d 4088 e63c e3e2 84bf d786 afbe
000002a0: 5962 fcbe efb6 85bd ca78 833e 2b6e 2d3d
000002b0: c459 ff3e eda6 273f 5c36 47bf f6d5 f9bd
000002c0: 4dd0 f93d 8f57 283f 5d6b 7c3e e815 ebbe
000002d0: 4c4f c63e c4eb b83e 4159 19be 409c 9abe
000002e0: aae3 823e 1c91 e23e 1fe9 26bf 3df2 073f
000002f0: eca2 8f3e 8ae8 103d 227b 4e3f 36cb 183f
00000300: 1cc7 943e 4db1 1b3f 3f8a 3a3f b92e b03e
00000310: a726 213e 279b df3e e5b2 d8bd 4a41 7e3f
00000320: f9a9 c03e 10e4 d53e b5fe a03e 23f6 283f
00000330: d6a4 0b3f 64fb 91be 7d97 d83d 7d79 86be
00000340: 088b de3e 839f 113f 32e2 0d3f 2525 103f
00000350: f6db ea3e d525 27bf e7cf 9c3d 4007 943d
00000360: d9f3 e1be 365d 903e 768b 5a3c 0e91 913e
00000370: 9e74 51bf 4059 45be 94cc 4abf a231 a23e
00000380: 50b8 7dbd 016f b7be bb9f 3ebf 846f 9fbd
00000390: c268 ecbe 87cc 063f 08f2 fc3e ffbe 9e3e
000003a0: dd6a 14bf f7c7 333e 154b a53d 02e5 e6be
000003b0: 13fb 403d 6039 e4bd eb4f 25bf ccc2 cfbe
000003c0: cc51 aaba d4b8 233e 8dde 873c b705 07bf
000003d0: 4727 1b3f 64e1 a6bb 0477 b3bd 8aa9 08bd
000003e0: aaf4 203e e000 e73e 040f b3be 4567 723e
000003f0: b9db 143e 34a9 603e 07c7 883f 1ade e1be

global_feature_extractor.first_block.0.conv.7.weight f4 [8]
0.9670572 1.1562515 1.5948668 1.354177 1.0753839 1.2563689 0.95020676 1.0341334
00000000: 1091 773f 0d00 943f 9824 cc3f ac55 ad3f
00000010: 2ea6 893f b2d0 a03f c040 733f 7c5e 843f

global_feature_extractor.first_block.0.conv.7.bias f4 [8]
0.017818388 0.016015455 0.0025004232 0.011832222 0.0076813917 0.035576705 -0.0050282017 -0.025874741
00000000: def7 913c d832 833c 24de 233b f0db 413c
00000010: 2fb4 fb3b e1b8 113d 9dc3 a4bb 44f7 d3bc

global_feature_extractor.first_block.0.conv.7.running_mean f4 [8]
2.3625152 -1.504648 -0.738552 -0.8894992 -0.24167894 0.20218201 2.3377028 -0.5068442
00000000: 7333 1740 4e98 c0bf be11 3dbf 38b6 63bf
00000010: af7a 77be cd08 4f3e ec9c 1540 8bc0 01bf

global_feature_extractor.first_block.0.conv.7.running_var f4 [8]
6.699677 6.2945695 14.966147 11.172167 6.659393 15.1106 6.5581207 10.201149
00000000: c163 d640 1d6d c940 5775 6f41 32c1 3241
00000010: bf19 d540 05c5 7141 20dc d140 e837 2341

global_feature_extractor.first_block.1.conv.0.weight f4 [32, 8, 1, 1]
0.81411695 0.0068046497 -0.113629885 -0.47342277 -0.7756219 0.45273286 -0.2870376 -0.095643155
-1.3361949 -0.57037634 0.13228375 0.20204356 0.16320111 -0.25072852 -0.6072999 0.48675048
0.14193149 -0.03792694 -1.0142554 -0.2736403 -0.13892084 0.72510064 -0.6361938 0.8732379
0.40759173 -0.34285468 -0.55992997 -0.49736115 -0.6856351 0.18235144 -0.0759954 0.80253893
0.3308119 0.55139333 -0.4817292 -0.3204099 0.5670508 -0.14857085 0.13021071 0.6219508
0.5114537 0.8739296 -0.104046166 0.20351535 0.8700021 0.27577904 0.2587471 -0.47241557
-0.26065245 -0.5851245 0.9664804 -0.23613569 0.21645737 -0.6882815 -0.06442018 0.5700191
0.6739756 -0.0377582 -0.27945375 -0.36374334 0.83118814 0.017790167 -0.53165907 0.5200525
-0.0064825993 0.61276245 -0.1893748 0.35599375 -0.57303035 0.7034389 -0.40919042 0.3377054
0.08167211 -0.15408526 -0.3003596 0.7161646 0.72133404 -0.15884227 1.0199201 -0.40109402
-0.07596722 0.5808405 -0.14578411 -0.1382164 -0.043715358 0.09382802 1.007571 -0.28097376
0.18491499 0.61317265 -0.07457858 -0.58323115 -0.6449937 0.19759695 0.62945044 0.49508277
0.4214027 -0.21831572 -0.37045848 -0.9970556 0.36568734 -0.58703405 0.053092152 -0.13013278
-1.2838464 0.783972 -0.23817345 -0.38859963 0.4944244 -0.40435323 -0.074312255 0.27662778
-0.6477528 0.50331765 0.038446948 -0.21941796 0.30300862 -0.45262697 0.95063585 -0.14515845
-0.023074893 0.5507826 -1.2622648 -0.06606118 0.066000216 0.14636643 -0.54236066 0.2803273
-0.79775167 0.6181809 0.64487416 0.12364388 -0.49964067 0.43462154 1.0477962 -0.15045005
-0.03378603 0.60181254 0.116007105 -0.8585649 -0.64081395 -0.004351136 0.33139238 0.34532586
0.05606144 0.5110798 -0.9484744 0.3002089 0.29359457 0.7192267 -0.22224762 0.7541685
0.5031489 -0.33562973 -0.11098537 0.37261972 -0.49509382 0.39394826 0.70695597 -0.25895783
0.037956327 -0.59484375 0.70527977 0.28997993 0.03110921 -0.18739487 0.14575906 -1.2409248
-0.3030516 -0.52871734 0.51126444 -0.11393693 -0.008481776 -0.45648053 0.0631146 -0.72423095
-0.36226302 -0.10747584 -0.121690765 0.1578432 -0.2313378 0.41628635 -0.80626667 0.61234593
-0.32495424 0.5090657 0.47807282 0.7830398 -0.050196636 0.45974422 0.7572628 -0.62327886
0.274102 -0.18700452 -1.3406154 0.09290941 -0.18988797 0.09110724 0.023833245 0.18419755
0.0008439678 -0.2324583 0.42856455 0.83558035 0.36014965 0.34880918 -0.37075204 -0.81382525
-0.53604865 0.46009827 0.44253764 1.0768554 0.88549167 -0.06727807 0.07509388 -0.16566719
0.0007886925 0.536136 -0.5730211 0.61084485 0.8026543 -0.22734807 0.50819874 -0.36329362
0.57618904 -0.29404375 0.24609521 -0.42881337 0.46335998 -0.23614126 -0.85804826 -0.7409698
-0.2481771 0.23549628 -0.013813053 -0.93875206 -0.36692512 0.10004746 -0.51769817 0.66529244
-0.109128185 -0.61020184 -0.15344384 -0.17917415 0.62991 -0.6993603 0.63926566 0.21707644
0.26978704 -0.16727257 -0.14764114 -0.19519246 -1.3172855 0.2757719 -0.26720408 0.17548451
00000000: f869 503f 8af9 de3b c9b6 e8bd 7864 f2be
00000010: 288f 46bf 9acc e73e 98f6 92be 8fe0 c3bd
00000020: 6f08 abbf 2f04 12bf 6475 073e 82e4 4e3e
00000030: 311e 273e 7d5f 80be 0278 1bbf 5c37 f93e
00000040: 7d56 113e 4759 1bbd 1fd3 81bf 951a 8cbe
00000050: 4441 0ebe 32a0 393f 99dd 22bf 858c 5f3f
00000060: ddaf d03e a68a afbe 9257 0fbf 1fa6 febe
00000070: c885 2fbf 56ba 3a3e 7aa3 9bbd 3173 4d3f
00000080: 2d60 a93e 1d28 0d3f 36a5 f6be c40c a4be
00000090: 3e2a 113f f522 18be f555 053e 2b38 1f3f
000000a0: a1ee 023f dab9 5f3f 2816 d5bd 5466 503e
000000b0: 75b8 5e3f e932 8d3e 807a 843e 74e0 f1be
000000c0: 3d74 85be b8ca 15bf 426b 773f 8ecd 71be
000000d0: 00a7 5d3e 3733 30bf baee 83bd c6ec 113f
000000e0: aa89 2c3f 58a8 1abd 9014 8fbe 913c babe
000000f0: bfc8 543f afbc 913c cf1a 08bf 2922 053f
00000100: fc6b d4bb 00de 1c3f 78eb 41be d044 b63e
00000110: 1eb2 12bf 9214 343f 6881 d1be b9e7 ac3e
00000120: b543 a73d 87c8 1dbe bcc8 99be 9056 373f
00000130: 59a9 383f 8ca7 22be be8c 823f 325c cdbe
00000140: b494 9bbd f7b1 143f 6e48 15be 9a88 0dbe
00000150: e00e 33bd e828 c03d 16f8 803f cbdb 8fbe
00000160: 5b5a 3d3e e2f8 1c3f a8bc 98bd a34e 15bf
00000170: 4f1e 25bf db56 4a3e aa23 213f 7d7b fd3e
00000180: 18c2 d73e 288e 5fbe bcac bdbe 093f 7fbf
00000190: 5f3b bb3e dd47 16bf 2877 593d 8741 05be
000001a0: 1455 a4bf 64b2 483f bee3 73be 88f6 c6be
000001b0: 3225 fd3e 6307 cfbe 0631 98bd 28a2 8d3e
000001c0: 21d3 25bf 6dd9 003f 8c7a 1d3d 1aaf 60be
000001d0: f223 9b3e b9be e7be df5c 733f 6ba4 14be
000001e0: 8f07 bdbc 1700 0d3f e591 a1bf 154b 87bd
000001f0: 1f2b 873d 15e1 153e 26d8 0abf 0f87 8f3e
00000200: 7439 4cbf 1a41 1e3f 7916 253f 0139 fd3d
00000210: e7d0 ffbe b786 de3e 301e 863f 940f 1abe
00000220: 3863 0abd 6310 1a3f 2295 ed3d e9ca 5bbf
00000230: 620c 24bf f993 8ebb 43ac a93e 8dce b03e
00000240: aea0 653d 20d6 023f 38cf 72bf fbb4 993e
00000250: 0752 963e 3e1f 383f e194 63be 3011 413f
00000260: 5ece 003f a9d7 abbe 4c4c e3bd 03c8 be3e
00000270: f07c fdbe 96b3 c93e 11fb 343f 1f96 84be
00000280: 1878 1b3d ae47 18bf 378d 343f 4078 943e
00000290: bed8 fe3c 71e4 3fbe dd41 153e a0d6 9ebf
000002a0: 9429 9bbe 055a 07bf 3ae2 023f c457 e9bd
000002b0: 26f7 0abc d1b7 e9be 3a42 813d 3367 39bf
000002c0: 8a7a b9be 4b1c dcbd 0239 f9bd a6a1 213e
000002d0: d1e3 6cbe 7c23 d53e 7e67 4ebf b4c2 1c3f
000002e0: 6760 a6be 2152 023f f6c5 f43e 4c75 483f
000002f0: fd9a 4dbd 9863 eb3e fadb 413f 348f 1fbf
00000300: 1957 8c3e 1d7e 3fbe 4999 abbf 4a47 be3d
00000310: fe71 42be 6f96 ba3d f03d c33c 489e 3c3e
00000320: b83d 5d3a 8c09 6ebe d06c db3e 98e8 553f
00000330: 8965 b83e 1e97 b23e 36d3 bdbe da56 50bf
00000340: 7c3a 09bf 0092 eb3e 4b94 e23e 66d6 893f
00000350: 95af 623f 16c9 89bd d2ca 993d a9a4 29be
00000360: 42c0 4e3a 3540 093f 83b1 12bf 5460 1c3f
00000370: c17a 4d3f efcd 68be 5019 023f 9f01 babe
00000380: 2081 133f e78c 96be 6200 7c3e 6d8d dbbe
00000390: 853d ed3e 04cf 71be 0da9 5bbf 32b0 3dbf
000003a0: 2322 7ebe f025 713e 2550 62bc 0e52 70bf
000003b0: 9cdd bbbe afe5 cc3d de87 04bf 9b50 2a3f
000003c0: 997e dfbd 3036 1cbf 6220 1dbe 6e79 37be
000003d0: c841 213f 4709 33bf eaa6 233f 4949 5e3e
000003e0: 8721 8a3e 8049 2bbe 3d2f 17be 88e0 47be
000003f0: d09c a8bf f931 8d3e f9ce 88be 36b2 333e

global_feature_extractor.first_block.1.conv.1.weight f4 [32]
1.1004828 1.197611 0.95770884 2.4991837 1.7709864 1.0038946 2.3475974 1.5333364
0.716059 1.8563559 1.0237883 0.44520774 0.47510225 1.5165578 0.75978214 1.2710284
1.1865844 1.191931 2.6887367 1.5180339 1.885167 0.76778424 0.42650807 2.2757566
0.9745779 0.7050302 1.6148164 0.8364889 0.7951184 1.2525765 1.4014504 2.393005
00000000: 9fdc 8c3f 514b 993f 682c 753f a0f2 1f40
00000010: afaf e23f 9e7f 803f 093f 1640 5e44 c43f
00000020: a54f 373f 129d ed3f 7f0b 833f 45f2 e33e
00000030: 9a40 f33e 911e c23f 1581 423f 0fb1 a23f
00000040: ffe1 973f 3291 983f 4314 2c40 ef4e c23f
00000050: 274d f13f 828d 443f 445f da3e ffa5 1140
00000060: f07d 793f dc7c 343f 4eb2 ce3f 2324 563f
00000070: e18c 4b3f 6d54 a03f ba62 b33f fe26 1940

global_feature_extractor.first_block.1.conv.1.bias f4 [32]
0.41930753 0.25550592 -0.5740786 -0.29537645 -0.21896021 0.38959193 -0.14297597 -0.10651873
0.60679543 0.04649052 -0.5907252 0.6535161 0.9200725 -0.10305606 0.676654 0.30298686
-0.54756224 0.2479598 0.055740017 0.01426345 0.12845068 0.61447227 0.5921178 -0.3481465
0.51072264 0.5317061 0.17553656 0.8254279 0.5995264 0.35849026 0.25745922 0.27045792
00000000: 7aaf d63e acd1 823e d1f6 12bf 953b 97be
00000010: 1b37 60be 9878 c73e 4b68 12be 7e26 dabd
00000020: f256 1b3f d86c 3e3d c439 17bf d54c 273f
00000030: df89 6b3f 0e0f d3bd 3239 2d3f 1821 9b3e
00000040: 0a2d 0cbf 2ce9 7d3e a54f 643d 3fb1 693c
00000050: 9388 033e 0e4e 1d3f 0895 173f 4240 b2be
00000060: b8be 023f e41d 083f dbbf 333e 3e4f 533f
00000070: 907a 193f 098c b73e b2d1 833e 7679 8a3e

global_feature_extractor.first_block.1.conv.1.running_mean f4 [32]
0.02280085 -0.047425218 0.0014723808 -0.024689125 -0.007957585 0.05268603 -0.051656254 0.0026364082
0.027370226 0.011864223 0.011135572 -0.007881756 -0.023676308 -0.032881282 -0.020780372 0.0056490134
0.009013217 -0.01650432 0.019802928 0.021075891 0.02131245 -0.011806006 -0.0053763003 0.041112933
-0.0034708441 0.04535809 0.019969944 0.019342074 0.019741984 -0.025675861 -0.043113977 -0.0040649045
00000000: d9c8 ba3c f240 42bd e7fc c03a d940 cabc
00000010: 8860 02bc 4ecd 573d 8295 53bd 97c7 2c3b
00000020: 8637 e03c 2862 423c f971 363c 7b22 01bc
00000030: d1f4 c1bc 86ae 06bd 993b aabc 5c1b b93b
00000040: 2cac 133c 1134 87bc c039 a23c 59a7 ac3c
00000050: 7297 ae3c fa6d 41bc ad2b b0bb 0966 283d
00000060: 1a77 63bb 68c9 393d 0298 a33c 4573 9e3c
00000070: f1b9 a13c 2f56 d2bc 4898 30bd e432 85bb

global_feature_extractor.first_block.1.conv.1.running_var f4 [32]
3.4428506 4.486663 11.505212 4.8893914 3.0610228 2.6529076 7.7897897 2.2230234
6.732882 2.7880833 1.7633616 3.7648137 3.1737456 2.0195735 2.6901212 8.30473
2.6124163 2.3400455 12.331087 2.0642633 8.423851 7.475935 2.581968 2.8448288
6.573081 2.5378623 4.020995 2.359951 3.044776 2.5908928 3.105184 3.7613657
00000000: aa57 5c40 be92 8f40 5915 3841 e575 9c40
00000010: cce7 4340 3dc9 2940 f545 f940 0446 0e40
00000020: c573 d740 f56f 3240 d5b5 e13f b5f2 7040
00000030: a61e 4b40 b140 0140 f22a 2c40 2de0 0441
00000040: d431 2740 4ec3 1540 224c 4541 e41c 0440
00000050: 18c8 0641 dc3a ef40 f73e 2540 ad11 3640
00000060: ae56 d240 566c 2240 feab 8040 7009 1740
00000070: 9cdd 4240 30d1 2540 56bb 4640 37ba 7040

global_feature_extractor.first_block.1.conv.3.weight f4 [32, 1, 3, 3]
-0.014521272 0.5622393 0.3142075 -0.56791896 -0.5649966 -0.0999035 -0.64032 -0.6042903
-0.59351414 0.34947124 -0.42656836 -0.11452393 0.2744479 -0.06698622 -0.033536427 -0.1592711
-0.78667706 0.82591224 0.20224784 -0.128128 -0.74970716 -0.40354648 -0.42674392 -0.60709757
0.4023641 0.20582336 0.8822733 -0.114775956 -0.99841994 0.16099569 -0.37287104 -0.7121213
-0.25442192 -0.054816257 -1.0049393 -0.37785766 0.046598777 -0.5204143 -0.4664211 0.35883945
-0.40612143 -0.49502942 -0.1499656 0.19877109 -0.06965635 0.005990523 -0.5790457 0.6534465
0.1690236 -0.4206104 0.32147527 0.0627168 -1.0066684 0.27452305 0.2241414 1.025395
0.43683648 -0.32878295 0.6699901 0.38217208 -0.22282235 0.4016718 0.41886574 0.54184604
0.4813671 -0.31780022 -0.25842533 0.27051607 -0.8962362 0.44314924 0.24509802 -0.68365234
0.22530738 -0.55799764 -0.5816918 0.6980653 0.0036955704 -0.035844747 0.8279052 0.32085195
-0.12348203 -0.32865182 -0.40386683 -0.4819905 0.2053477 -0.6328712 -0.44761723 0.27462405
0.7545856 0.40800917 -0.5753664 -0.22194786 -0.4798155 0.20001486 0.66154706 -0.64532673
0.4413648 -0.20031117 0.46932548 0.3497318 -0.21556598 0.09050803 -0.49939224 -0.498108
-0.4609392 0.44007283 0.5855955 0.15070249 0.18888025 -0.30431977 -0.50619227 0.7412048
-0.59842515 -0.4029188 0.7351609 -0.30724105 0.24813761 -0.70128274 -1.0616207 -0.3161209
0.58364296 0.77579534 0.11347924 0.21559027 -0.09893322 0.014481185 -0.13872595 0.50136626
0.86215556 -0.4472985 -1.0570258 -0.114284255 0.12592094 -0.11214567 0.28621852 0.30007246
0.55767804 0.43190533 0.21314402 0.62791264 0.1602 -0.91232073 -0.3414985 -0.25696212
-0.33513105 -0.6779675 0.27207512 -0.36636427 -0.096352905 0.94661766 -0.5092915 0.47229418
0.2608062 0.24003309 0.66998553 0.054909468 0.17417449 -0.53080326 -0.3773261 -0.6939819
-0.847513 0.027122494 0.19611678 1.4241301 0.79145604 0.19521435 -0.2539896 -0.033194013
0.30758923 0.3043876 -0.08155824 -0.091127634 0.033228572 0.06689781 0.16584523 1.002999
0.007483096 -0.90844685 -0.17289454 -0.53991485 -0.6808994 -0.71158236 -1.1722623 0.12452719
0.21125558 0.20134729 0.24170713 0.41936865 -0.1764826 -0.3426441 0.8738224 0.2919221
-0.5130573 0.43878776 -0.32004902 -0.9016333 0.30755535 -0.7253263 0.23915239 -0.020635782
-0.14151451 0.33132118 -0.46820644 -0.075839765 0.57614875 0.051982183 -0.47140533 0.32053718
-0.33134678 0.18421559 -0.72157574 -0.45309874 -0.4490029 -0.3753444 0.4503348 0.9766775
-0.40758908 0.45506483 0.20789868 0.23598199 0.5783754 0.3268766 -1.091857 -0.5280898
-0.5277654 -0.056696683 0.24599044 0.31098676 0.59713715 0.3191533 0.08105539 -0.59264493
-0.98529595 -0.008545842 -0.007547247 -0.041382916 -0.7053327 -0.12119101 0.6819322 0.81111896
0.0062189605 -0.52155 0.5159842 0.021547336 -0.30203262 -0.15847626 0.014435334 0.5698686
1.1803658 -0.36553967 -0.51728183 -0.06502038 -0.8065128 -0.68538773 0.0020300488 -0.79606175
00000000: a1ea 6dbc eaee 0f3f cedf a03e 2363 11bf
00000010: 9ea3 10bf 359a ccbd 03ec 23bf c5b2 1abf
00000020: 8bf0 17bf e5ed b23e 2b67 dabe 868b eabd
00000030: 6f84 8c3e 1230 89bd 7e5d 09bd f717 23be
00000040: ab63 49bf fc6e 533f 0f1a 4f3e fd33 03be
00000050: cfec 3fbf a59d cebe 2e7e dabe bf6a 1bbf
00000060: ab02 ce3e 5cc3 523e aadc 613f a80f ebbd
00000070: 7398 7fbf 0edc 243e f4e8 bebe 954d 36bf
00000080: 9743 82be 0387 60bd daa1 80bf 8f76 c1be
00000090: 5cde 3e3d df39 05bf bfce eebe ceb9 b73e
000000a0: 26ef cfbe 7f74 fdbe 9590 19be a68a 4b3e
000000b0: fda7 8ebd 264c c43b 573c 14bf 4548 273f
000000c0: 8614 2d3e 3f5a d7be 6898 a43e aa71 803d
000000d0: 83da 80bf 498e 8c3e 5385 653e 2540 833f
000000e0: 08a9 df3e 3d56 a8be 7984 2b3f 0fac c33e
000000f0: 8b2b 64be eda7 cd3e 9275 d63e 6cb6 0a3f
00000100: c075 f63e b6b6 a2be 5350 84be 1581 8a3e
00000110: bc6f 65bf 75e4 e23e fafa 7a3e d703 2fbf
00000120: fab6 663e efd8 0ebf c1e9 14bf 68b4 323f
00000130: 6231 723b f1d1 12bd 98f1 533f b546 a43e
00000140: 26e4 fcbd 0d45 a8be a2c7 cebe 75c7 f6be
00000150: ab46 523e d903 22bf 162e e5be 869b 8c3e
00000160: 862c 413f 94e6 d03e 364b 13bf 4d46 63be
00000170: 61aa f5be b2d0 4c3e 265b 293f 2234 25bf
00000180: 91fa e13e 5f1e 4dbe 6e4b f03e 0c10 b33e
00000190: 54bd 5cbe 465c b93d 57b0 ffbe 0308 ffbe
000001a0: 3900 ecbe 3a51 e13e 96e9 153f c151 1a3e
000001b0: d369 413e cdcf 9bbe d195 01bf 99bf 3d3f
000001c0: 6432 19bf 5f4b cebe 8133 3c3f b34e 9dbe
000001d0: c917 7e3e 4487 33bf 30e3 87bf 99da a1be
000001e0: a069 153f 869a 463f ce67 e83d b2c3 5c3e
000001f0: 809d cabd 7e42 6d3c 2d0e 0ebe 8a59 003f
00000200: 3ab6 5c3f 4f04 e5be 9f4c 87bf dd0d eabd
00000210: 6bf1 003e a1ac e5bd 3c8b 923e 19a3 993e
00000220: fdc3 0e3f b222 dd3e 6d42 5a3e e2be 203f
00000230: 780b 243e da8d 69bf e4d8 aebe 8a90 83be
00000240: 4c96 abbe 478f 2dbf 6e4d 8b3e 1994 bbbe
00000250: ac54 c5bd 8955 723f ee60 02bf 8bd0 f13e
00000260: 6488 853e 3ccb 753e 2c84 2b3f c0e8 603d
00000270: cc5a 323e b9e2 07bf e330 c1be cca8 31bf
00000280: 9df6 58bf fe2f de3c d6d2 483e e549 b63f
00000290: dd9c 4a3f 45e6 473e ed0a 82be 72f6 07bd
000002a0: 567c 9d3e b1d8 9b3e 0208 a7bd 20a1 babd
000002b0: af1a 083d b801 893d 55d3 293e 4562 803f
000002c0: c234 f53b f98f 68bf 440b 31be dc37 0abf
000002d0: 6c4f 2ebf 432a 36bf b10c 96bf 1d08 ff3d
000002e0: 6253 583e fc2d 4e3e 1382 773e 7db7 d63e
000002f0: dbb7 34be 0c6f afbe d3b2 5f3f d076 953e
00000300: b957 03bf caa8 e03e 77dd a3be 71d1 66bf
00000310: e577 9d3e fcae 39bf 5de4 743e 5f0c a9bc
00000320: 2ee9 10be eea2 a93e c1b8 efbe e151 9bbd
00000330: 7c7e 133f 45eb 543d 0a5c f1be 731d a43e
00000340: 49a6 a9be 03a3 3c3e 30b9 38bf 8ffc e7be
00000350: b5e3 e5be 242d c0be 4892 e63e 8907 7a3f
00000360: 84af d0be 42fe e83e 64e3 543e 43a5 713e
00000370: 6910 143f 5f5c a73e f8c1 8bbf e530 07bf
00000380: a21b 07bf c83a 68bd ebe4 7b3e a839 9f3e
00000390: fbdd 183f 1068 a33e 5e00 a63d 94b7 17bf
000003a0: 5b3c 7cbf dc03 0cbc e64e f7bb 2281 29bd
000003b0: af90 34bf fe32 f8bd 1c93 2e3f 7ea5 4f3f
000003c0: 6cc8 cb3b 4d84 05bf 8a17 043f 0a84 b03c
000003d0: 05a4 9abe 9a47 22be 2e82 6c3c e9e2 113f
000003e0: 3a16 973f 0428 bbbe 956c 04bf 6829 85bd
000003f0: 9f77 4ebf 9275 2fbf 910a 053b b4ca 4bbf

global_feature_extractor.first_block.1.conv.4.weight f4 [32]
1.1546487 1.4426279 1.1795 1.3506867 0.6602956 1.069631 1.1919627 1.0495683
0.9734246 1.2812988 0.56653786 1.061322 1.2269374 0.9189622 0.9351701 1.5123655
1.4557712 1.1168263 1.3698831 0.8524458 0.86786014 1.5640459 0.8632653 1.115192
1.0905981 1.3075293 1.298084 1.3634762 1.1283848 1.1660204 1.0587333 1.1176823
00000000: 87cb 933f 08a8 b83f dbf9 963f 4de3 ac3f
00000010: 2209 293f abe9 883f 3c92 983f 4158 863f
00000020: 5b32 793f 9901 a43f a008 113f 66d9 873f
00000030: 490c 9d3f 1b41 6b3f 4f67 6f3f 3195 c13f
00000040: b656 ba3f 2af4 8e3f 5458 af3f e339 5a3f
00000050: 152c 5e3f a832 c83f f4fe 5c3f 9dbe 8e3f
00000060: b898 8b3f 1f5d a73f 9e27 a63f 6386 ae3f
00000070: ea6e 903f 2840 953f 9384 873f 3710 8f3f
