model_checkpoints/experiments/overall/fastscnn_96a0.125t2r2pp0_noinit.onnx (onnx, 34284 bytes, 63 tensors)

feature_fusion.conv_high_res.weight f4 [16, 8, 1, 1]
00000000: 06b2 5a3f 79d8 0d3f a1e3 58bf 02a9 183f
00000010: 249e 51be a4bd c03e eb37 c9be 59a2 ac3d
00000020: 936e 13bf db69 a7bf 26b6 733f 43f6 06bf
00000030: 6cb0 25bf 5578 25bf 71ba 993e 6bd1 cbbf
00000040: 6742 273f c28a f63a c824 92bf 4a13 05bf
00000050: a230 153f bae2 5c3f 9388 afbe 75f0 193e
00000060: 279a 96bf 70ad 29be e073 6a3f 0859 d83e
00000070: 44fc 093e 4610 26bf 7a25 0f3e 94aa 86bc
00000080: 728e 773e 7b08 8b3f 1adb 55be 2db7 033f
00000090: 83c7 163f 3cff 513f bdde a3be d7fe 0240
000000a0: 968a 90bf 7da8 1a3e e573 433f 760f ff3d
000000b0: 9011 003f 8f8e e73d e543 44bf 1730 58bf
000000c0: 0bde 073f 3142 c23e 3f95 4abf 5c44 43be
000000d0: abd6 d1be a523 69bf 15ce aa3f 930b 46be
000000e0: 24eb 7b3f 2ca6 383e 67e1 a5bf e0e1 3dbf
000000f0: a427 81be c19c b73e 0292 24bd 2c0b a63e
00000100: da47 99bf 6b49 9fbe 9062 a83f 89b4 34be
00000110: 4bfa 60be 6375 923e 71ec 27bf d98a 8fbe
00000120: 0398 9bbf 194b 1bbd 586f 803f 2c4c 503f
00000130: 95ed 56bd 4134 493f 16ca 01bf 82c9 4ebe
00000140: 6a28 7e3f 7e3a 12be af2f 72bf a3e2 eebe
00000150: ca6f 00bd 65c7 833f 866b 30be 2a20 bfbe
00000160: 91a8 a2bf 84dd 9d3e 2725 763f 00c9 fe3e
00000170: 7533 313e 632e 50be b91c 6cbe e652 e6bd
00000180: b122 9ebe a4c0 07bf 443d d63e c785 aebf
00000190: b82a 08c0 2b7d 023d 763d 513f fc32 c0be
000001a0: 4159 f3be 5d0a 89bf c2f8 303f 9c6d 8ebf
000001b0: c361 b1bf f393 f33e b8c0 643f f556 d6bf
000001c0: a128 65bf 584a b8be bffd 343f e70a b1bd
000001d0: 6221 353f 25e9 3dbe 1696 9bbf 29eb 02bf
000001e0: 4203 e73d 91fa 653f 897f 56bf f356 e13f
000001f0: e069 1e3f 39fa 3cbe 95a6 8ebd 7705 2f3f
0.8542789 0.55408436 -0.84722334 0.59632885 -0.20470482 0.37644684 -0.39300475 0.08429403
-0.575906 -1.307918 0.9519981 -0.52719516 -0.64722323 -0.6463674 0.30025056 -1.5923284
0.65335697 0.0018809664 -1.1417475 -0.5198256 0.5827733 0.8628346 -0.34283885 0.15033133
-1.1765794 -0.16570067 0.9158306 0.42255425 0.13475138 -0.6486858 0.1397914 -0.01643876
0.24175432 1.0861963 -0.20884362 0.5145138 0.5889818 0.8203008 -0.32005873 2.0468042
-1.1292293 0.15103336 0.76348716 0.12454121 0.500268 0.11306488 -0.766661 -0.8444838
0.53073186 0.37941125 -0.7913398 -0.19069046 -0.4098409 -0.91070014 1.3344141 -0.19340353
0.9840567 0.1803214 -1.2959412 -0.7417278 -0.25225556 0.3586178 -0.040178306 0.32430398
-1.1975052 -0.311107 1.3155079 -0.17646994 -0.21970479 0.28605184 -0.65595156 -0.2803562
-1.2155765 -0.037913416 1.003398 0.8136623 -0.05247267 0.7859536 -0.50698984 -0.20194057
0.99280417 -0.14280125 -0.9460401 -0.46657285 -0.03135661 1.0295225 -0.17228517 -0.37329227
-1.2707692 0.30833066 0.9615044 0.49762726 0.17304786 -0.20330195 -0.23057832 -0.1124628
-0.30885842 -0.5302832 0.41843617 -1.3634576 -2.1276073 0.03185765 0.81734407 -0.37538898
-0.47529033 -1.0706288 0.69129574 -1.11272 -1.385796 0.47573814 0.89356565 -1.6745287
-0.8951512 -0.3599422 0.70699686 -0.086446576 0.70754063 -0.18545969 -1.2155178 -0.51140076
0.11279918 0.8983546 -0.83788353 1.760466 0.618803 -0.18454827 -0.06965367 0.68367714

feature_fusion.conv_high_res.bias f4 [16]
00000000: d23a 66bf 4743 d93e f54e b13d 7f13 51bd
00000010: 67cc cdbe 23d5 b43e 41d7 453f 6a78 0a3f
00000020: 5cec ae3e d119 48bf 5209 653f c2e5 f43d
00000030: 923f 083e 35a3 e13e 9c75 c1bc 5232 b3be
-0.899335 0.4243414 0.08657638 -0.051043984 -0.4019501 0.3531886 0.77281576 0.5408999
0.34164703 -0.7816439 0.89467347 0.11957885 0.133055 0.4406983 -0.02361565 -0.3499933

feature_fusion.conv_low_res.weight f4 [16, 16, 1, 1]
00000000: f726 1dbf 9b98 ab3d 7e5d 803e 3a6b da3e
00000010: a594 793e d20f 8fbe d986 9cbf e4a8 183f
00000020: 2979 08bc 8f60 b1be 2926 813f 9d31 0fbf
00000030: 9577 a03e e51f 3b3e 2810 10bf f0a4 0ebe
00000040: 835a ca3e 542c d03d d77a b73e df27 16bf
00000050: 0f88 1cbf de91 593e a317 803e 45ea 5ebf
00000060: 85a1 fcbd ad5c ae3e b13d 42be 6154 bb3e
00000070: ffec 113e 48d4 3dbe 4d55 853e 2324 653d
00000080: 8d2a a3bd 36bd 9b3f 1589 1c3f fcb0 10bf
00000090: 13ec 483e ed69 cdbe ada9 37bf 9189 703f
000000a0: fd01 0abd 7b44 383f 7fa7 563f 1548 12bf
000000b0: 0422 0d3d 5789 a53f 0565 21bf d3d3 223d
000000c0: 4b98 113f 2650 903e 831a 01bf bf01 36bf
000000d0: bd81 703e 4697 2ac0 39f7 ad3e 7d20 78bf
000000e0: 5eb9 53bd add7 c7be d2b2 633e fd64 873f
000000f0: a360 48bf 363f dcbd 2aa1 c23e 8e31 7bbe
00000100: 0611 cfbe 5a03 9e3d 7519 9c3e 467a 433f
00000110: 507b 50bf 5353 c0be f5ac 713e b881 553f
00000120: 41c3 b1bd 96df 95be 1986 5b3e 126b f53e
00000130: 9407 ba3e ffdd 96bd e07c 2fbc 4ae3 b2bd
00000140: d99d 083f 598d bd3e 9278 f23e 4ca6 cdbe
00000150: 9383 f0be ee23 673f b973 b33e 9fb8 aabe
00000160: 292d 0ebd 00c5 343e 3edf 80bf 4ae0 343f
00000170: 8855 f93d c435 f4ba 19e7 6c3f 4de3 293e
00000180: 9bfe c3be 515f ae3e 9ca8 03bf 83a6 07bf
00000190: 1108 ec3e 3f86 463f 2040 61bf 7646 283f
000001a0: 39a9 373d 89c3 703f 77ed 6f3d 61ff b0be
000001b0: 9879 423f 5806 ad3f 4b36 833e 9ce7 ecbe
000001c0: 6b22 0dbf 1422 e33a 315c 99be 6512 0e3e
000001d0: 1919 ce3e d5af ae3e 2370 843e ce06 753f
000001e0: ecea 703e 41a3 9b3f 61af 233f 5c63 0b3f
000001f0: e9bd cb3e 5e7c 1dbd c505 71be 857a 6ebd
00000200: 6718 183f ac3b 3f3f 9543 2e3f 69f5 27bf
00000210: 3f49 87bf c8b8 613d 572e 533f 4d5b 13bf
00000220: 1d1d 383d f4e3 2cbf 9d70 4dbf e79f b0be
00000230: 7be0 70be 7aea 8f3e 23f7 573f 84a9 8bbe
00000240: c1fe 703f 9ac3 5c3f 2a18 c83e 034e b2be
00000250: 448c ffbe 6b98 713e 594c 953e 1fd4 ecbe
00000260: eb8e 453e f425 63bf d2aa 1dbf e0ae f9bd
00000270: d6e5 93be ed70 47be c2dc 1e3f 7753 d73d
00000280: f537 38bf f024 12bf b3dc 31bf ebd1 ba3e
00000290: 774f cabe f610 c03e 1164 433f 7b27 343f
000002a0: 62dc d3bd 29b0 a43f 1b8d 513e 5674 b7bf
000002b0: 5557 96bf b008 533e 90a3 ef3d b56a 0bbb
000002c0: 0d04 3d3f 2236 113f f45f d4be 64e5 34bf
000002d0: 3244 7cbe 2e30 c63e 6ca1 443f dec5 27bf
000002e0: 1489 ba3d 431f 14bf f201 2fbf 92cd 153e
000002f0: 663d a53e d6a7 44be 866c 173f c5ef f73d
00000300: 88f8 e73e a0cf 08bf ed14 9c3e bd3b 313f
00000310: 53e6 723e 4c4e 103e a46f 4f3f b729 4dbe
00000320: 7a3b b93d 21a1 623e 415d 0fbf 8c7a e73e
00000330: a761 96bf 6242 12bf 4e07 b9bd c244 be3d
00000340: 0512 8d3e 71c7 153e 1774 793e bb35 3cbf
00000350: 6e5a 7ebe c8a5 153d d9ff 0b3e b734 1dbf
00000360: db54 4bbe 442f c33e 9714 69be 0b08 273e
00000370: 84bd 7dbe 09fc 83be 5834 a63c 3367 2a3d
00000380: fe12 553f 01bd 85bf 8950 103f cb67 0c3f
00000390: 80c5 17be 8d82 9f3d 33cd 673f 035d 82bf
000003a0: 42d3 5bbc 3c50 8a3d 15c4 e5be a548 a9be
000003b0: 0839 b6bf 404b c2bf bafa 84bb f257 afbd
000003c0: f975 8f3e fbbd 08be e2f6 693e 5604 0d3f
000003d0: a5e5 5d3f 7066 43be 4aed 07be b982 fdbc
000003e0: 954a 94bd bbc4 123f 5e6d 5abf f773 3d3d
000003f0: 1ec2 913e 0d65 3fbf 450b 91be 40af cd3d
-0.6138758 0.083787166 0.2507133 0.42659932 0.2437311 -0.27941757 -1.2228652 0.59632707
-0.008329668 -0.3464398 1.008977 -0.5593508 0.31341234 0.18273886 -0.5627465 -0.13930106
0.3952218 0.10164705 0.35835907 -0.5865459 -0.6114511 0.2124705 0.25018033 -0.87076217
-0.12335495 0.3405508 -0.18968846 0.36587813 0.14250563 -0.1853801 0.26041642 0.055942666
-0.079671 1.2167118 0.6114667 -0.56520057 0.19621305 -0.40119877 -0.7174328 0.9395991
-0.033693302 0.7197949 0.8384933 -0.5714124 0.034456268 1.2932538 -0.6304477 0.039752793
0.56873006 0.28186148 -0.5043108 -0.71096414 0.23486991 -2.665483 0.33977678 -0.96924573
-0.05169045 -0.39031735 0.22236183 1.0577694 -0.78272456 -0.10754244 0.38013583 -0.24530622
-0.40442675 0.07715483 0.30488172 0.7635845 -0.8143816 -0.3756357 0.23601134 0.8340106
-0.0867982 -0.29272145 0.21437873 0.4793325 0.36333907 -0.07366561 -0.010710925 -0.08734758
0.53365856 0.37021902 0.47357613 -0.40165937 -0.46975383 0.902892 0.35049227 -0.3334398
-0.034711037 0.17653275 -1.0068128 0.7065474 0.12174517 -0.0018631746 0.9254013 0.16590615
-0.38280186 0.34057096 -0.5142915 -0.5298845 0.46099904 0.77548593 -0.8798847 0.65732515
0.044839118 0.9404836 0.058576073 -0.3456984 0.7596679 1.3517561 0.2562736 -0.46270454
-0.5513064 0.0017328882 -0.2995315 0.13874204 0.40253523 0.34118524 0.25866804 0.9571351
0.23527116 1.2159196 0.6393948 0.54448485 0.39793327 -0.038448684 -0.23537357 -0.058222312
0.59412235 0.7470043 0.6807187 -0.6560884 -1.0569228 0.05510786 0.82492584 -0.5756119
0.04494964 -0.6753533 -0.8024996 -0.34496996 -0.23523133 0.2810858 0.84361476 -0.27277768
0.94138724 0.86235964 0.39080936 -0.34825143 -0.49911702 0.23593299 0.2915981 -0.46255586
0.192928 -0.88729787 -0.61588776 -0.12191558 -0.28886288 -0.19476672 0.620556 0.105139665
-0.71960384 -0.5708761 -0.69477385 0.3648828 -0.39513752 0.3751294 0.76324564 0.7037274
-0.10344769 1.286626 0.20463984 -1.4332378 -1.1745402 0.20608783 0.11701119 -0.002127332
0.73834306 0.56723225 -0.41479456 -0.7066252 -0.2463539 0.38708633 0.7680881 -0.65536296
0.09108177 -0.578602 -0.68362343 0.146292 0.32273406 -0.1920465 0.5914997 0.12106279
0.45306802 -0.5344181 0.30484715 0.6923178 0.23720674 0.14092368 0.81029725 -0.20035444
0.090445474 0.22131778 -0.5600167 0.45210683 -1.1748551 -0.5713254 -0.090345964 0.09290458
0.2755281 0.14626862 0.24360691 -0.73519486 -0.24839184 0.036535054 0.13671817 -0.6140856
-0.19856589 0.38121998 -0.2276176 0.16311662 -0.24779326 -0.25778225 0.020288631 0.041602325
0.83232105 -1.0448304 0.56372887 0.54845876 -0.14821434 0.077885725 0.90547484 -1.0184635
-0.013417067 0.06753585 -0.4487616 -0.33063236 -1.4236155 -1.5179214 -0.0040582092 -0.08561696
0.28019693 -0.13353722 0.22848085 0.5508474 0.86678535 -0.19082046 -0.13274112 -0.030946122
-0.07240788 0.57331437 -0.8532313 0.04625317 0.28468412 -0.74763566 -0.2832891 0.10043192

feature_fusion.conv_low_res.bias f4 [16]
00000000: c9be 13bf 187d 783e 8e7b 503d 45b7 c53e
00000010: 516a 4cbe 58e2 db3e e312 583f db4f ef3e
00000020: 5ad2 993e 18c6 10bf d43c 733f 8b84 033f
00000030: 187f 5ebd 34ff 323f 4990 60be c09f 45bf
-0.5771299 0.2426647 0.05089908 0.38616386 -0.19962431 0.42946124 0.8440382 0.46740612
0.30043298 -0.5655227 0.9501469 0.5137412 -0.054320425 0.6992066 -0.2193004 -0.77196884

classifier.conv.weight f4 [1, 16, 1, 1]
00000000: dfd4 45bf 87c7 18bf a0fc 1bbf d1cf 68bf
00000010: 0b0f 49bf 5471 87bf 7cf0 33bf 059e 4ebf
00000020: e656 d1bf 826f 88bf 7a8e c2bf a76b 1fbf
00000030: c046 39bf 8b90 5d3f bf2e a43f f060 683f
-0.7727794 -0.59679455 -0.6093235 -0.909421 -0.7853858 -1.058146 -0.70288825 -0.8070987
-1.6354644 -1.065903 -1.519973 -0.6227364 -0.7237358 0.8654868 1.2826766 0.90772915

onnx::Conv_275 f4 [4, 3, 3, 3]
00000000: 1dcf a33e d941 dc3d f50b 54bd e7f8 ea3b
00000010: 481f 0abe 480e 82be 5502 b6bd d0f1 aabd
00000020: 29bf 28be 9122 8bbe 7dc6 08bf 4371 e7be
00000030: 8e7b 41be 6555 22bf 1660 10bf 6a2b 29be
00000040: 1bc0 00bf 2339 8fbe 9514 193e 8d1d a93d
00000050: 7162 7bbd b834 5c3e b120 763e f6c5 823e
00000060: 5069 243e b49d 633e f4e9 883e 507f 9cbd
00000070: 27b4 4fbe 067b 58be c049 d23c 76b4 ccbd
00000080: 6167 0ebe ef34 7b3d dd3d 833d 009d 113b
00000090: 3d02 52bd 4ef4 adbc 6a67 233d acd1 21be
000000a0: 4005 db3d 62da 393e 0c13 f3bd e114 a53e
000000b0: ce9d de3e 62f5 c5bd 13b8 eebd 5454 d1bd
000000c0: c15b a8bd 3b63 343d fc34 3e3d 75f7 50bd
000000d0: 8b32 823e d1e4 2d3e 573a 80bb c57b 453c
000000e0: 18fb b13b ebfc 023c 4fb3 91bb 1fd4 4a3c
000000f0: 1a2c 89bc 396e 57bc fd6b bdbc d1cf febd
00000100: 4f1e 13be 9e49 0bbe 6f8c 95bd 0527 a3bd
00000110: af5a d8bd 53a0 19bd 3be6 e5bc d5a9 923b
00000120: f1e9 853c 132e e13c 2dce 97bb 71ec 153c
00000130: 7f9f 8ebc 0c3a e4bc b98b 4b3d 1b4a 603c
00000140: dc73 1a3d 6896 8abd 47f8 a6bd e2c5 653d
00000150: 8ba6 5039 1d15 fabc 45cd 983b c4af 863e
00000160: a1ec 073e d941 a93d 13b3 b13e 95fc 083f
00000170: bcc8 e23e 98e7 a53e 999c 423f 2fcd c83e
00000180: 0783 d5bd 9ccf b13d d31e e23d aac0 b1be
00000190: 2ecf 1bbe 5afc 14be e580 62be c920 cfbc
000001a0: 74c3 a8bd 1447 49be ada2 3cbd 4543 b23c
0.31993952 0.10754747 -0.051769216 0.0071707848 -0.13488495 -0.2540152 -0.088871635 -0.08346903
-0.16479172 -0.2717481 -0.5342787 -0.452036 -0.18894789 -0.6341155 -0.56396616 -0.16520467
-0.5029313 -0.2797328 0.14949258 0.082575895 -0.061373178 0.21504486 0.24035908 0.25541657
0.16055799 0.22228128 0.26740992 -0.076414704 -0.20283566 -0.2114068 0.025669932 -0.09995358
-0.13906623 0.06132978 0.06408284 0.0022218823 -0.051271666 -0.021234658 0.039893545 -0.1580264
0.10694361 0.18149713 -0.11868867 0.32242492 0.4347977 -0.09665944 -0.11656203 -0.102211624
-0.08220626 0.044039946 0.04643725 -0.051017243 0.25429186 0.16981818 -0.0039132047 0.012053435
0.005431544 0.007994871 -0.004446424 0.012379675 -0.016744662 -0.013148838 -0.023122782 -0.124419816
-0.1436703 -0.13602301 -0.07302176 -0.07966427 -0.105641715 -0.037506413 -0.028063884 0.004475812
0.016346904 0.02748779 -0.0046327324 0.00915061 -0.017410038 -0.02785971 0.049693797 0.013689543
0.03770815 -0.06766969 -0.08152824 0.05609692 0.00019898468 -0.030527646 0.004663142 0.26305974
0.1327386 0.082645126 0.34706935 0.5351041 0.44293773 0.32403255 0.760202 0.39219043
-0.10425382 0.086821765 0.110410355 -0.34717304 -0.15215752 -0.1454939 -0.22119482 -0.025284188
-0.08240405 -0.1965602 -0.046053577 0.021760592

onnx::Conv_276 f4 [4]
00000000: 2dae e63e ce06 b23e c595 883f dc7f bfbe
0.4505476 0.34770817 1.0670706 -0.37402236

onnx::Conv_278 f4 [4, 1, 3, 3]
00000000: f42e a3bd 7a8c 80be a3eb 40be 78c7 e4bd
00000010: 4fc4 80be 4756 2bbe 221a ee3c 2cfe 6c3c
00000020: 14ad c8bc 4df6 23bf 0fa5 d8bf 4c52 22be
00000030: d960 fc3e a0d7 bd3e 3b78 4f3f c340 5d3f
00000040: 465f bf3e 944f 8bbe 0ae5 e93e b4e6 0dbf
00000050: 8338 b6bf 75d9 a63f 6a76 f63d 589c e3be
00000060: b199 7e3f 9619 af3e 4c39 2bbe 0dd1 9f3d
00000070: 6aa5 ed3e cc80 af3e 093f ff3d eee4 003f
00000080: 178c c63e f929 603c 5863 243d 6b9b 923d
-0.0796794 -0.25107175 -0.18839888 -0.11170858 -0.25149772 -0.16732131 0.029065195 0.014464896
-0.024496593 -0.640477 -1.6925372 -0.15851706 0.4929264 0.3707857 0.8104283 0.86426944
0.37377375 -0.2720915 0.45682555 -0.5543015 -1.4235996 1.3035113 0.120343044 -0.44455218
0.99453264 0.34199208 -0.16721076 0.07803545 0.46415263 0.34277952 0.12463195 0.5034932
0.38778755 0.013681882 0.040133804 0.0715855

onnx::Conv_279 f4 [4]
00000000: 126e 6c3f b0fa a5be 9c29 04bf e89d 04bf
0.92355454 -0.32417822 -0.5162599 -0.51803446

onnx::Conv_281 f4 [6, 4, 1, 1]
00000000: 54c7 86bd 62a8 96bf e4e8 be3d 84c0 593d
00000010: 0c14 7c3e 16a9 ae3c ecf5 2abd 16f4 a23e
00000020: 9fa6 17be 997f 1dbc 5c5c 35bd 6003 33be
00000030: d16f 9ebe f187 723f 99e1 1dbf c674 87bd
00000040: ef00 213c 3778 a23a 0c3d df3d 5a4e 0fbe
00000050: a921 a4bd 7c03 4a3d e9be 67bf 1885 043c
-0.065809876 -1.1770136 0.09321764 0.053162113 0.24617022 0.02132086 -0.041738436 0.31826848
-0.14809655 -0.009612941 -0.044277534 -0.17481756 -0.30944684 0.9473868 -0.6167236 -0.0661407
0.009826883 0.0012395446 0.10900316 -0.13994732 -0.08014233 0.04931973 -0.9052568 0.008088373

onnx::Conv_282 f4 [6]
00000000: 8a66 e5be 2869 5b3f c3bb 923f 7450 fb3e
00000010: 925d 943f 9156 393f
-0.44804794 0.8570733 1.146355 0.49084818 1.1591055 0.72397715

onnx::Conv_284 f4 [6, 1, 3, 3]
00000000: 26de 743d f9e6 dd3d e757 cb3d d68a 013e
00000010: 8503 653e ab18 813e 772e 073e d644 7f3e
00000020: f9bc 893e 6d07 91bd 9032 04c0 5905 c3be
00000030: 1cb9 02bf 5b58 b8bf 8630 93be c2e7 ca3e
00000040: f7a8 243f 5279 2040 6cbb 52bd 2110 67bb
00000050: 18cd 53be 1d03 febd 23e8 c1bf db62 13c0
00000060: 3307 d2bc febd 5dbf 2139 d4bf 2af3 e73d
00000070: 2c85 cb3d 69e9 fd3d 13e8 193e 631c 823e
00000080: 6502 533e d780 043e e239 803e 1a62 5f3e
00000090: 49ac 7bbf 7a79 883e 4d75 a8bf e39f 8fbe
000000a0: d9da 8c40 388d 79bf f40a a3be 9b74 cf3f
000000b0: 0f21 1bc0 65d4 62be 5f16 59bd c2c8 783e
000000c0: 7953 efbd 6cd8 b23e 20a7 753f 04f3 debe
000000d0: 3bd1 9cbe 5fcc 733d
0.05978217 0.1083507 0.099288754 0.12650618 0.22364624 0.25214133 0.13201319 0.24928603
0.26901987 -0.070814945 -2.065586 -0.38090017 -0.51063704 -1.4401964 -0.28747958 0.39629942
0.6432032 2.5074048 -0.05144827 -0.0035257416 -0.20683706 -0.124029376 -1.5148968 -2.3029087
-0.025638198 -0.8661803 -1.6579934 0.11325677 0.0993751 0.12398035 0.15029936 0.25412282
0.20606382 0.12939773 0.2504416 0.21814767 -0.9830976 0.2665518 -1.3160797 -0.2805167
4.401715 -0.9748111 -0.31844294 1.620746 -2.4238927 -0.22151335 -0.05299985 0.24295333
-0.11685843 0.34930742 0.9595814 -0.4354478 -0.3062838 0.059521075

onnx::Conv_285 f4 [6]
00000000: 0e8b 59bf 8fc3 893f c0df eb40 49fc 7bbf
00000010: 3111 4bbe da4c a8be
-0.84977806 1.0762805 7.371063 -0.9843183 -0.19830777 -0.32871133

onnx::Conv_287 f4 [8, 6, 1, 1]
00000000: bc85 aa3c 4ae0 923e 8966 97bf 7e95 0f3e
00000010: 107b 983c 0603 fbbd 2d51 c43e e146 923e
00000020: 8342 cd3d 31ab be3e ed0f 81bf bd6f afbd
00000030: 4ee6 26bd c4aa 80be c269 7b3f c9f5 0ebe
00000040: edc7 ad3c be9f 8a3d ad59 c23d e342 2d3f
00000050: 514f 9b3e 766c 243e 10ab 89bd bba2 133f
00000060: 37c2 893e cc83 2cbf 6ea7 2bbe 7075 a53e
00000070: 3fa2 003e ec8d a3bd 6f53 11bf 40bb b3be
00000080: 6a9d afbd 4aa2 08bf d6ca d53e 687d 2abf
00000090: 613e 95be adf8 943e ae91 c63c 0fab 59be
000000a0: b994 0f3e 7753 1c3e 2838 913e e14a 8c3e
000000b0: d9d4 9b3d 8a71 a93e 6566 1c3f 713c 85be
0.020815723 0.28686744 -1.1828166 0.1402187 0.018613368 -0.12256436 0.38343182 0.285697
0.10022452 0.37239984 -1.0082985 -0.08566234 -0.04074698 -0.25130284 0.9820825 -0.13960947
0.021213496 0.0676875 0.094897605 0.67680186 0.3033395 0.16057 -0.06722081 0.5767018
0.26905987 -0.67388606 -0.16763088 0.3231616 0.12561892 -0.07986054 -0.56767935 -0.35103798
-0.08574946 -0.53372633 0.41756314 -0.66597605 -0.29149154 0.29095975 0.024239387 -0.2125666
0.14021577 0.15266214 0.28363156 0.27400878 0.07608957 0.33094436 0.6109374 -0.26022676

onnx::Conv_288 f4 [8]
00000000: 6308 02bf 11cc 8b3e 378e f93e a304 9b3e
00000010: 16e6 3a3f ae01 d7be fe6d 093f 0f9a 203f
-0.5079405 0.27304128 0.48741314 0.30276975 0.73007333 -0.4199347 0.5368346 0.62735075

onnx::Conv_290 f4 [16, 8, 1, 1]
00000000: 138c c0be 54ff 943e 015b 14bf f399 4a3e
00000010: a41f 1cbe cca9 b2be c7f9 35bd 8fcd 3fbe
00000020: dfe6 e4be 57f9 a8be 3518 573b 6fe6 04be
00000030: bf21 98bd 8820 69be 52f7 893a 30b1 3abc
00000040: edeb 8c3e e9f5 71be 1e9d 20bd b74c d13c
00000050: 18f1 133f 317b 273f d3b5 94be f735 5abe
00000060: ff3c b7be 82ef 66be f504 753e 722b 27bd
00000070: 82d1 34be 3d60 51be 02fc 533e 6cff 3abd
00000080: 9db9 8abe 7405 9bbe 6009 7fbf a901 f93e
00000090: da72 1abf 4c3f 80be 1f59 d53e da2f 11bd
000000a0: 6c02 b53d 0974 0dbf cf31 af3e 6019 bd3d
000000b0: 5849 0e3f a65a b33e 62f0 243e d18b 66bf
000000c0: 493c 4dbd dff0 263f 9e85 bd3e c315 513e
000000d0: 8a79 aebe b3a5 babe 7181 8ebe 82e2 44be
000000e0: 97fc 0b3e 6c67 85be 5ee6 213f 1823 6f3e
000000f0: 2570 cc3e 8c6b 803e d8a6 77bd 898e bf3e
00000100: 1fd8 d73f b549 a93f 115a 4abf 47e5 c33f
00000110: 133d 8a3e 7b30 b43f d589 71bf d3ab 153f
00000120: 4063 8bbe d01b 9e3f bc73 84bf 3e4d ae3d
00000130: 3d0f 133f e280 0bbe 2049 a5be de3e dbbe
00000140: d137 2a3e f7d3 24bf c224 d2be aec5 063f
00000150: 404f 843f 1a2f 9c3f 0f7e 58bf fb57 6d3f
00000160: 677a f7bc 2f27 853f 34ee a0bd 68d3 363e
00000170: 6252 673e b7c3 8a3e d257 e8be 1cec 723f
00000180: 9d2e f3be 82cd 8abe 8f44 f03e f4ae f13e
00000190: 8c0f a2be 590b 25bd d3b8 46bb 5fe7 99be
000001a0: 1891 803b 12a4 533e a6d5 ae3e b9fc 86bc
000001b0: 2414 763e 8d0a 933d 5554 2ebf 3e9e 5fbd
000001c0: 15ce a03e f1a0 033d 037e 46be 8283 813d
000001d0: c5dc 3e3c 33f6 84bd 6300 f83d 796b 6a3d
000001e0: 5ed2 4cbe 84e3 0abd 6e5b 113e 36f0 34bd
000001f0: fba3 d4bd 46cc a4bd 49b1 bbbc 7b43 e2b9
-0.37606868 0.2910105 -0.5795136 0.1978529 -0.15246445 -0.3489517 -0.04442766 -0.18730758
-0.4470739 -0.3300273 0.0032820825 -0.12978528 -0.074283116 -0.22766316 0.0010525978 -0.011394784
0.27523747 -0.23628964 -0.03921234 0.025549276 0.57789755 0.6542235 -0.2904497 -0.21309648
-0.35788724 -0.22552302 0.23927672 -0.040812917 -0.17658046 -0.20446868 0.20701602 -0.045653746
-0.27094737 -0.30277598 -0.9962368 0.4863408 -0.603315 -0.25048292 0.41669556 -0.035446025
0.088383526 -0.5525518 0.34217688 0.092333555 0.55580664 0.35030097 0.16107324 -0.9005709
-0.05010632 0.6521129 0.37016004 0.20418458 -0.34077102 -0.36454543 -0.2783313 -0.19227031
0.13670574 -0.26055467 0.6324214 0.23353231 0.3992931 0.25082052 -0.06046185 0.37413433
1.686283 1.3225619 -0.7904368 1.5304345 0.2699972 1.4077295 -0.9435094 0.5846531
-0.2722416 1.2352238 -1.0347819 0.085108265 0.57445127 -0.13623384 -0.32282352 -0.428214
0.16622855 -0.6438593 -0.4104367 0.52645385 1.0336685 1.2201874 -0.8456735 0.9271237
-0.030209733 1.0402583 -0.07857934 0.17854083 0.2259002 0.27102444 -0.45379502 0.94891524
-0.474965 -0.27109915 0.46927306 0.4720379 -0.31652486 -0.040294025 -0.0030322566 -0.30059335
0.0039235465 0.20668057 0.34147376 -0.01647793 0.2403112 0.07179747 -0.6809743 -0.05459427
0.31407228 0.032135908 -0.19384007 0.06323911 0.011649315 -0.06492271 0.12109449 0.0572314
-0.20002124 -0.033908382 0.14195034 -0.044174396 -0.10382839 -0.080467746 -0.022911685 -0.00043156356

onnx::Conv_291 f4 [16]
00000000: 792e a33f d290 cc3f a3ac 5fbf 9488 6c3f
00000010: d6ca 8b3f f1b5 61be 9aff a0be f0a6 28bf
00000020: a13c 0cc0 126b f13e aaaa 1ebf 9070 84bf
00000030: 5383 a23e 304b 043f 04f6 fd3e 9b11 9f3f
1.2748557 1.5981696 -0.873728 0.923959 1.0921276 -0.22042061 -0.3144501 -0.65879726
-2.1912005 0.47152 -0.6197916 -1.0346851 0.31740817 0.5167723 0.49601758 1.2427248

onnx::Conv_293 f4 [16, 1, 3, 3]
00000000: c19d b3be 5964 06bf 2c38 d8be 6c8c 0dbf
00000010: 6aac fbbd aaba 23be 0402 a93e 4cd2 ecbe
00000020: fb6b adbe b538 2abf a138 91bf 057d 63bf
00000030: 66e2 563e c22f f23c 4c8e afbc fe9a 41be
00000040: 9401 bcbe ab5b 4fbe e6c7 eabe daf4 b4bf
00000050: 7e22 35bf 7abb 4e3c d8c3 05bf 33fd 36bf
00000060: d7a1 5fbd 9f31 17bf 093d 07bf 1b20 4b3d
00000070: a16c af3e 5094 1d3f 8791 c8bd 28d1 e43e
00000080: 773e 5b3f 2895 0a3e 604d 053f 49df 3e3f
00000090: bde8 92bd 5959 ff3a d46f 1d3e a1f4 823d
000000a0: 8671 68bd f40f 66bf 5e50 71be 13a4 203e
000000b0: 9c35 8d3e bb99 17bd d862 243e 87ee 403d
000000c0: 030e 783e ea46 f23d 7a04 8e3e 01ed 72bc
000000d0: b9fc 563d 8718 ef3d a09e bd3e 34ab d13e
000000e0: 4840 cb3e 325e dcbd d59e 0b3e 4cc2 f03e
000000f0: e474 18bd 5a1d 4a3e 5828 a03d 8ed4 123d
00000100: 6b3f c73e d092 bc3e 5185 d9bc 87d1 7c3e
00000110: 1f4c 4c3e 793c 28be b975 613e 32ce 493e
00000120: 9859 ddbe d8f3 5dbe 46f9 ca3d b20a 46be
00000130: 0974 88be 2af0 8d3d 0441 3fbe 5259 25be
00000140: cb70 0cbe 2931 923d 5500 1c3e cd77 e33e
00000150: 9bf9 033f 034d 573c adbd c63d 1950 68be
00000160: aa84 c2bd 9cdb 8f3d a186 13be 29a8 26bf
00000170: 3f85 84be 28e2 ff3d f6c9 0bbf 36d5 32be
00000180: 0901 cfbd 0abc 45be d08c 91be c511 873e
00000190: b4d3 4f3d f476 b53e a97c 49be bc5f e7bd
000001a0: 53af 41be 71b1 7cbe b5e8 d7bd 0441 edbd
000001b0: 348f 493d f67b 283f 7127 073f 38ae 16bf
000001c0: 3a4c f13e 6970 9fbd 3aad e5be 126e d33d
000001d0: ce9e 8fbe 5ad6 c8be cb0c 5fbd 44bc 003c
000001e0: 270d 01bf 8e20 0bbf aff9 c7be b4e1 82be
000001f0: d84f 15be a00f 81bd 1880 2abf bfd1 0d3e
00000200: 348f 153f 10bf f1be 271b 90be e85f 39be
00000210: 0478 c1be 6ff5 4abe 6fd5 02bd 772f ca3e
00000220: c3ed 40bf f1c9 98bf 1139 3dbf c647 99bf
00000230: 8e7f 12bf e4e1 d3be 6db2 b8be 521a 323e
-0.35081294 -0.5249687 -0.42230356 -0.5529239 -0.12288745 -0.15989175 0.3300935 -0.46254194
-0.33871445 -0.6649278 -1.1345407 -0.8886264 0.20984802 0.029563788 -0.021430157 -0.18906781
-0.36719954 -0.20249812 -0.45855635 -1.4137223 -0.70755756 0.01261794 -0.5225196 -0.714801
-0.054597702 -0.5906009 -0.5282751 0.049591165 0.34262565 0.6155443 -0.09793382 0.44690824
0.8564219 0.13533461 0.5207119 0.74559456 -0.071732976 0.0019481584 0.1537469 0.063943155
-0.05674889 -0.8986809 -0.23565814 0.1568759 0.27579963 -0.037011843 0.16053331 0.047102477
0.24224095 0.11829932 0.2773779 -0.014827014 0.05248711 0.116746 0.37035084 0.4095093
0.3969748 -0.10760154 0.13634808 0.47023237 -0.03722085 0.19737759 0.07820195 0.03584724
0.38915572 0.3683076 -0.026552828 0.24689303 0.19950913 -0.16429318 0.22017564 0.19707564
-0.43232417 -0.2167505 0.099108264 -0.19340017 -0.26651028 0.06930573 -0.18677145 -0.16147354
-0.13714902 0.07138283 0.15234502 0.44427338 0.5155274 0.01314092 0.097041465 -0.22686805
-0.0949796 0.07024309 -0.14406826 -0.6510034 -0.2588291 0.12494308 -0.5460504 -0.17464146
-0.10107619 -0.19310012 -0.28427744 0.26380745 0.050739005 0.35442317 -0.1967646 -0.11297557
-0.18914537 -0.24677064 -0.10542432 -0.11584666 0.049208835 0.6581415 0.5279456 -0.58859587
0.4712847 -0.077851124 -0.44858724 0.103237286 -0.28050846 -0.39226037 -0.05445556 0.007857386
-0.50410694 -0.5434655 -0.3905768 -0.25562823 -0.14581239 -0.06301808 -0.66601706 0.13849543
0.58421636 -0.47216082 -0.28145716 -0.18102992 -0.37786877 -0.19820188 -0.031941827 0.39489338
-0.75362796 -1.1936628 -0.739152 -1.1975029 -0.57225883 -0.41383278 -0.36073628 0.17392853

onnx::Conv_294 f4 [16]
00000000: 0154 b73f d80f f63f 36a7 623f 0291 15c0
00000010: 414e 9b3e 4c78 213e 2668 61bf e0b9 2f3d
00000020: 633e b43f a2fe 4fbf 3170 a73f 1450 bfbd
00000030: a5ec dfbe b488 0140 5fc4 063f 6ccf ca40
1.4322511 1.9223585 0.88536394 -2.3369756 0.3033314 0.15768546 -0.8804954 0.042901874
1.4081539 -0.81247914 1.3081113 -0.093414456 -0.43735233 2.0239687 0.5264339 6.33782

onnx::Conv_296 f4 [8, 16, 1, 1]
00000000: d8a7 cd3e ac80 413f 0913 3abe 640e d8be
00000010: d541 723e 7b07 ef3d e63a b4bd a320 b3be
00000020: 8d4d c3bd a47d b2bd 474a a03d 0d75 57be
00000030: 91ae 76bd df68 e83e 33e7 66be e6c7 3c3f
00000040: 1c63 a03d a64a 0fbe e392 acbe e617 9ebe
00000050: 2ff6 cf3d 1ace 5d3e ea42 89bd 0cb1 40be
00000060: 5b77 393d f9ed a8be 0c72 16be 4c0d 1fbe
00000070: f3ba 813d 0170 2cbe eca0 bdbd 3237 ed3e
00000080: f43c 2bbf 2d54 fabe ec6d edbe e47e 24bf
00000090: a415 8f3e 8b44 d43e 0fbb 523e 3d9c 263f
000000a0: 3f48 12bf a809 983c 1e9b 4ebf cd50 39bd
000000b0: 8a4d 3d3f fcd0 8abf 93aa 28be 0449 acbd
000000c0: b443 bbbc 0ed3 7cbe 3ab6 7fbd 4f69 ef3d
000000d0: 69e7 b63d 44c7 f53d 73cd 793e cdd8 503e
000000e0: 43bb e23d 09fb 543d 0e82 bcbd ae3a edbd
000000f0: 417b 443e 81a5 66be 6c7d 103e 124d 88be
00000100: 40a6 5abe 81c7 7ebe 77bc c93b 41bd 623e
00000110: 7eec 80bd 4e5e 453c d6f9 5b3c 8155 253e
00000120: 062d ed3e 863e 023b 1251 ddbc a231 e53d
00000130: 1937 9e3e 67d8 d83c b749 8f3e 89a8 e0be
00000140: a419 1dbd 47c3 a4bd 49e0 103e 4a1c 27be
00000150: 592d 013d 9a40 a0bd 91d8 42be 0877 b0be
00000160: fa77 47bd 5075 ee3c f9ed 003e 61f2 91bc
00000170: 9685 eabd 7a16 29bd b346 fd3c bc96 853e
00000180: 04b1 cd3c 4608 753e 8d0d 8ebe e952 13bf
00000190: 6390 503e 22a2 9b3d 5351 61be b68d aabe
000001a0: f860 acbe b6a0 04be 6fa3 a9be 8375 b93c
000001b0: 7c44 c33d 4b3f 81bd 6616 3cbe d8de 293f
000001c0: 0f76 7a3e 24ec 313e 9fb2 723e 2ebb 583e
000001d0: d6eb 7b3d 3401 55be 6195 82be 47ad c0be
000001e0: 752f 6f3e 0819 48be 056b 6e3e eb2c 28be
000001f0: 109a f03d 0c80 103d 4acd 953d 389f 1b3f
0.40167117 0.7558696 -0.18171324 -0.4219848 0.23657925 0.11671349 -0.088002965 -0.34985837
-0.09536276 -0.0871537 0.07826667 -0.21040745 -0.060225073 0.4539251 -0.22549133 0.7374252
0.078314036 -0.1399332 -0.33705816 -0.30877608 0.10154378 0.21660653 -0.06702216 -0.18817538
0.045279842 -0.3299406 -0.14691943 -0.15532416 0.06334486 -0.16839601 -0.09259209 0.46331173
-0.6688988 -0.48892346 -0.46372926 -0.6425612 0.27946198 0.41458544 0.2057917 0.6508215
-0.5714149 0.018559292 -0.8070544 -0.045243073 0.7394644 -1.0845027 -0.16471319 -0.08412364
-0.022859432 -0.24689886 -0.062429644 0.11690008 0.08930857 0.120008975 0.24394779 0.20395203
0.110708736 0.05199722 -0.092044935 -0.11583458 0.19187643 -0.22524072 0.14110345 -0.266213
-0.21352482 -0.24880792 0.0061565 0.22142507 -0.06295107 0.01204641 0.013426265 0.16145898
0.46323413 0.0019873693 -0.027016196 0.11191107 0.3090141 0.026470376 0.27985927 -0.43878582
-0.03835453 -0.08045059 0.14148058 -0.16319385 0.031537388 -0.07824822 -0.19027926 -0.34465814
-0.048698403 0.029108673 0.1259078 -0.01781577 -0.11451261 -0.0412812 0.030917501 0.26091564
0.025108822 0.23928937 -0.27744713 -0.57548386 0.20367579 0.07599284 -0.22003679 -0.33311242
-0.3366773 -0.12951931 -0.33132502 0.022639042 0.09534547 -0.063109 -0.1836792 0.6635566
0.24459098 0.17375237 0.23700951 0.21165153 0.061504208 -0.2080124 -0.25504592 -0.376322
0.23357947 -0.19540799 0.23283012 -0.16423385 0.11748135 0.035278365 0.073145464 0.60789824

onnx::Conv_297 f4 [8]
00000000: e6b6 a0bf 2019 52bd 48bb e53f ed43 963e
00000010: b405 e13d e114 473d 9270 153d 5497 97bf
-1.2555816 -0.051293492 1.7947779 0.29348698 0.10987416 0.048603896 0.03648431 -1.1843057

onnx::Conv_299 f4 [16, 8, 1, 1]
00000000: ad60 7cbe b623 65be 2eed 273e f73d 2f3e
00000010: 0421 6e3e 0921 99be 9830 333c 3935 6e3d
00000020: 1465 28bd 3b0f 0abf e30a 11bf a1b7 8ebe
00000030: 77a0 d7be 38a2 babe 0d94 15bf d3af 283f
00000040: 8726 f1bc f9b8 ca3e e0cd 6e3f de06 31bc
00000050: 319e 12be b44e 90bb de0d 063f 5f4d ddbd
00000060: 1887 0ebc bc5c 59be e792 5dbf 0302 613d
00000070: d426 6d3e e6eb c33d d853 a4bc 203b 003e
00000080: 88a3 0ebd af8e 873b 58ea 56bd 35de c1bd
00000090: b46b fa3c 5036 3b3e 8dda 9e3d 3bef d33c
000000a0: a77d aabd 1796 cd3c 5f98 dc3e 7fec 853e
000000b0: 1c7b 163e 57e1 acbc 9f5b 5f3e fc68 acbd
000000c0: 168f d13d f528 5dbd ce1f 463d 18e5 423d
000000d0: 1906 b9be 3b55 b63e ddf2 6e3e ecc1 9e3b
000000e0: 189d 043f f5bc 633f 3137 5d3e 8d88 8e3e
000000f0: 2372 b23d 2cd5 013c aa6c 133f 8603 e03e
00000100: 43f7 643d 9105 8c3e 84d3 183f 5b38 153d
00000110: 26f4 c9be cc99 edbd a563 023f bb41 573e
00000120: b7d2 63bc b8ae 91bc 3932 613e f837 a93d
00000130: 5913 773d 007f abbe 2ce7 6fbd 4f51 1a3e
00000140: 0c4e 2a3d 66c6 62bc 043c c339 5e23 a4bc
00000150: 37a0 abbd cba7 533d c054 933c 078a 123c
00000160: b710 1f3d d0fc 6cbd 1137 3abe b8bf 0dbe
00000170: 9473 26be b6ba b03d 8b1d 2d3e 27a9 c73e
00000180: 47df 2f3d 78a7 17be 767e 8cbc bf09 313e
00000190: 25c3 d6bd 52e5 83be b442 5bbe 846f 35be
000001a0: 2917 823c 237f 873d dc18 6fbc d504 1ebd
000001b0: 9ba8 53bd 16de da3d d9fd 453c 3b2e f13b
000001c0: d7e7 a83e 268a 1abe 4400 e3be a7b1 82be
000001d0: 7a47 81be 40e1 883d ff5c 243e c699 9c3e
000001e0: 2db6 52be fec6 c13d e046 693d 84dd 713e
000001f0: d547 683e fccb 02be 0bef 2cbe 42c6 b9bc
-0.24646254 -0.22376904 0.1639907 0.17113481 0.23254782 -0.29908016 0.010936879 0.058156226
-0.04111202 -0.5392949 -0.56657237 -0.27874473 -0.42114612 -0.36451888 -0.5842903 0.65893286
-0.029437317 0.39594248 0.9328289 -0.01080486 -0.14318158 -0.0044039134 0.5236491 -0.10805773
-0.008699201 -0.21226782 -0.8655228 0.05493356 0.23159343 0.095664784 -0.020059511 0.12522554
-0.034823924 0.0041368823 -0.05246958 -0.09466211 0.030568935 0.18282437 0.07756529 0.02587091
-0.083247475 0.025095982 0.43085 0.26156995 0.146954 -0.021103544 0.21812294 -0.08418462
0.102323696 -0.053994138 0.048370175 0.047581762 -0.36137465 0.356119 0.23334832 0.0048448946
0.51802206 0.889602 0.21603085 0.27838555 0.08713176 0.007924359 0.57587683 0.43752688
0.05589987 0.27347997 0.5969775 0.036430698 -0.39444083 -0.116016 0.50933295 0.21021168
-0.013905219 -0.017783508 0.21991815 0.08262628 0.060321186 -0.3349533 -0.058570072 0.1507008
0.041578338 -0.013841247 0.00037238013 -0.020036396 -0.08380168 0.05167369 0.017984748 0.008944041
0.0388343 -0.05785829 -0.18185069 -0.13842666 -0.16255027 0.08629362 0.16905801 0.3899624
0.042937543 -0.14809978 -0.017150145 0.17288874 -0.104864396 -0.25760895 -0.21412164 -0.17718321
0.015880184 0.06616046 -0.014593329 -0.038578827 -0.051674467 0.10686891 0.012084448 0.0073602474
0.3298938 -0.15091762 -0.4433614 -0.25526163 -0.25249845 0.06683588 0.160511 0.3058607
-0.20577307 0.09461783 0.056952357 0.23619658 0.22683652 -0.12773126 -0.16888063 -0.022677545

onnx::Conv_300 f4 [16]
00000000: 3a0c 383e c944 af3e de17 b23d 72fd e53e
00000010: fb98 343f 5347 b3be 3c6e 10be 64ff 25be
00000020: 068c 3fbe 66ce 3fbf 3908 4ebf 6940 a2be
00000030: acb6 cabe bf71 47bf eaa2 253d a9c9 553f
0.17973414 0.34232166 0.086959586 0.44919926 0.7054593 -0.35015354 -0.14104551 -0.16210705
-0.18705758 -0.74924314 -0.80481297 -0.31689766 -0.39592493 -0.7790794 0.04043857 0.83510834

onnx::Conv_302 f4 [16, 1, 3, 3]
00000000: c2e1 76bc 3d6e 56bc 4b6e 72be e292 e1bd
00000010: a72b e3bd e444 08be d471 b43b 417f 893d
00000020: 45e4 9bbd 8c6c d33e ff5b 003e eb4c bfbe
00000030: d2fb 4f3e d9f3 1dbe 9b32 25bf f78e 13be
00000040: b8b7 87be 5406 a63b 1398 953d 7ad8 303f
00000050: f605 993e acce 58be 9371 a4be d9cb 95be
00000060: 1864 2abe 96b3 2dbe 423a 14bf 2fa7 97be
00000070: 0b76 293f 6df1 58be 4caa d0be c7fc 8d3f
00000080: 8345 00bf af17 81be 6f7a 25bf 1590 353e
00000090: 4e5e adbe 19b4 21bf a37b 86bf e933 293e
000000a0: 93d0 eb3e d3b7 35bf 6989 273f b77c 973f
000000b0: 0c3a 833e 3d41 29be 1ff8 b4be ec69 2b3e
000000c0: f86f 34be dbc0 0cbf 28b0 d7be 173e d13d
000000d0: 6a02 85be 8773 0d3f 17b6 a43d 0569 53bd
000000e0: 81a8 38be 17cd f43d 74d3 87bd 6d4c 733d
000000f0: fd15 303e 5a2f 273e 5082 bebb e06d bc3d
00000100: 6ef0 75bd 2fe9 04bf 99d5 fcbe a3ab f53d
00000110: 34a9 4fbf 0d7e a33d 8244 bc3f 941d 423e
00000120: 221e 4cbe 03fb 2c3f cc5e 213e d6ad 20be
00000130: 1b91 a4be 88de 25bf 5c04 d4be d856 613d
00000140: 8040 87be 7a34 c0bf 8ddf 023f 70b3 d03f
00000150: 1b26 e8bf b1d3 083f d402 623f 6615 4cbf
00000160: 1a24 8f3f 3e32 0e3f 5527 e7c1 8f40 1b3f
00000170: d8f5 08c2 10a5 5d41 4a24 d9c2 e55e 9942
00000180: a0a7 86c1 b83f 07c1 41a0 1d43 dc6b 343f
00000190: 8ed3 9dbf 569b 29bf 8741 cd3d 7ea6 47bf
000001a0: e372 c2bf 8fa2 6e3e ea71 f53f eb66 b43f
000001b0: ad0d 723e a03a a4bf 2611 40be 77bf 0a3d
000001c0: 88c3 c2bd 19b8 a93f 3953 f8bc dc93 3abf
000001d0: 1fae 833d 6efe b4c2 44a3 bcc2 0898 c940
000001e0: a886 f1c1 6b95 bdc2 d982 e0c2 6223 c742
000001f0: 6335 b8c2 a071 9242 ed20 e5be f762 273d
00000200: d26b f2be 58ac 053c a0df 70be d6d6 fbbc
00000210: 347f 25be 7bb4 cebd 31d7 b3be a617 d63d
00000220: 7d2e 5a3f 4b1e 143f a1ed 0bbe 5634 f73e
00000230: f4c5 683d 14b4 eabe e4a6 2dbf f18d 58bf
-0.015068473 -0.013087806 -0.23674886 -0.11014344 -0.110923104 -0.1330753 0.0055067334 0.06713725
-0.07611898 0.41293752 0.12535094 -0.3736337 0.20310906 -0.15425052 -0.6453034 -0.14410006
-0.26507354 0.0050666723 0.073043965 0.6908032 0.2988736 -0.21172589 -0.321179 -0.29257086
-0.16639745 -0.16963038 -0.57901394 -0.29619738 0.66195744 -0.21185847 -0.40754926 1.1092767
-0.50106066 -0.25213382 -0.64639944 0.17730744 -0.3386101 -0.6316543 -1.0506481 0.16523708
0.46057567 -0.7098362 0.65444046 1.1834935 0.25630224 -0.16528793 -0.3534555 0.16739625
-0.17620838 -0.54981774 -0.42126584 0.10216921 -0.25978404 0.55254406 0.080425434 -0.051613826
-0.18033029 0.1195318 -0.06632128 0.059399057 0.17195888 0.16326657 -0.0058138743 0.092006445
-0.060043745 -0.5191831 -0.49381712 0.11995628 -0.8111756 0.07983027 1.4708407 0.18956596
-0.1993337 0.67570513 0.15758818 -0.15691313 -0.32141957 -0.6479268 -0.41409576 0.05501446
-0.26416397 -1.5016015 0.5112236 1.630476 -1.8136629 0.53448015 0.88285565 -0.7972015
1.1182892 0.55545413 -28.894205 0.60645384 -34.24008 13.852798 -108.57088 76.68534
-16.831848 -8.453056 157.62599 0.7047708 -1.2330186 -0.6625265 0.10022264 -0.7798842
-1.5191311 0.23304199 1.9175389 1.4093908 0.2363803 -1.2830391 -0.18756542 0.033874
-0.09509951 1.3259307 -0.030313121 -0.72881866 0.06429695 -90.49693 -94.31888 6.2998085
-30.19075 -94.79183 -112.25556 99.56911 -92.10427 73.221924 -0.44751683 0.040865865
-0.47347885 0.008158766 -0.23522806 -0.03074209 -0.16161805 -0.10093018 -0.35125116 0.10453729
0.85227185 0.57858723 -0.13664867 0.48282117 0.056829408 -0.45840514 -0.6783278 -0.84591585

onnx::Conv_303 f4 [16]
00000000: 9c88 57be b8c5 fe3e c08b 243f c253 2abd
00000010: 426b cdbe a57f b43e 28c6 5abf e1fb 3e3e
00000020: d1b7 503f f28f 52bd 37d2 8b3d 000d c43b
00000030: bf1f 2ebe e985 a2bd 426a 873f bef9 db3d
-0.21048206 0.49760222 0.6427574 -0.041583784 -0.40120894 0.35253635 -0.8545861 0.18650772
0.8153048 -0.05140681 0.06827205 0.005982995 -0.17004298 -0.079356976 1.0579302 0.10740994

onnx::Conv_305 f4 [8, 16, 1, 1]
00000000: 6921 2fbd 2f51 9f3c 5d6a c0bb 4fa3 a9bc
00000010: 084b ae3c f2b8 cdbc 16a8 9c3c f27b 57bd
00000020: 1e7b 1eba 0e8c 0fbe 6e31 efbc 446f 3f3c
00000030: 8b42 1cbd dfd8 d33c 4be8 463c 2c79 89be
00000040: eae3 213d b677 b53e 60e7 14bf 929c 0f3e
00000050: 27d4 84be 0073 1d3e 3711 c6bd 4f2e be3e
00000060: e2b9 a6be 025d c8bd 5648 c73d 5346 823e
00000070: e24e 82be 1c50 223e e88b a53d 8907 f4bd
00000080: d08b 6cbd cdad 043e 9011 cebd d0fd 893e
00000090: d810 4dbe e91b 253e 3748 4f3d 2815 143e
000000a0: 5608 14be 93c2 df3c 15f5 133e c003 a73e
000000b0: 252b cabd b874 fa3c d9d6 bc3d a1e2 b33e
000000c0: e798 8a3c 49ab 36bc e1e3 d6be 396d 2f3e
000000d0: 2254 f8bd a7a5 e23c a1a7 eb3d 73d6 163e
000000e0: dbdd 17be b772 453e 8acd 563e 6ebc 753e
000000f0: 165f b73d 4603 ff3d 0d36 6fbe e542 8e3e
00000100: 43d4 373d fec4 64bd b045 013e f27e bd3d
00000110: ccec c1bd 62b9 b3bd cc38 7fbd 1644 91bd
00000120: df3d 213e 6842 183e 6748 3dbc 3afb 89bb
00000130: b481 d03d 6252 0fbe 19ba 34bd 9062 333d
00000140: ad83 8c3d eb95 22be 00db 05be c693 b4be
00000150: 34ca 08bf 61d3 cbbd 2cd7 60be d2c4 44bf
00000160: cbf1 73bd 664b b6bd fe3c 6abd 71e8 14bf
00000170: 9af8 41be ff16 483e bc79 b33e f58d 15bd
00000180: 3192 933c de28 20be d5af 633e 59a9 27bd
00000190: 836c 25bd 9a02 703a 461c 3fbd 55a4 46be
000001a0: d43f 363e aba5 21be a5ea 0ebe 6f20 dabd
000001b0: c37f 263d 6e52 e9bd ccf5 803e 08cf debe
000001c0: e080 733c b91c 553d 50bf f2bd bc9c debd
000001d0: 9e03 993d bab5 34bd 01d1 7abc db5b 18bd
000001e0: db42 a2bd 5cc4 a03c 7d2a 913d 1e26 00be
000001f0: e157 13be b6fb 4f3d 1619 993c 312e 54be
-0.04275647 0.019447891 -0.0058720545 -0.020707754 0.021276012 -0.025112603 0.019123118 -0.052608438
-0.00060455676 -0.1401827 -0.029198375 0.011684243 -0.038149398 0.025860248 0.012140344 -0.2685026
0.039523996 0.35442895 -0.5816555 0.1402457 -0.2594311 0.153759 -0.09671252 0.37144706
-0.32563692 -0.09783365 0.09730594 0.25444278 -0.25450808 0.15850872 0.080833256 -0.119155
-0.057750523 0.12956925 -0.100619435 0.26951456 -0.20025957 0.16123928 0.05060598 0.14461195
-0.14456305 0.02731446 0.1444896 0.3262005 -0.098715104 0.030573234 0.092206664 0.35133842
0.016918613 -0.011149236 -0.41970733 0.17131509 -0.12125422 0.02766688 0.11506582 0.14730243
-0.14830725 0.19282041 0.20976844 0.23997661 0.08953683 0.12451796 -0.23360462 0.2778541
0.044880163 -0.05585193 0.1262424 0.092527285 -0.094689935 -0.08775593 -0.062310025 -0.070930645
0.15746258 0.14869082 -0.011552907 -0.0042108567 0.10180989 -0.1399627 -0.04412279 0.04379517
0.06861053 -0.15877502 -0.13071823 -0.35268992 -0.5343354 -0.09952427 -0.21957082 -0.76862824
-0.059556764 -0.089011 -0.057187073 -0.5816718 -0.1894249 0.19540022 0.35053813 -0.036512334
0.018014045 -0.1564059 0.22235043 -0.040932987 -0.040386688 0.0009155661 -0.046657823 -0.19398625
0.17797786 -0.15785854 -0.13956697 -0.106507175 0.040649187 -0.11392675 0.25187528 -0.43517327
0.014862269 0.052029345 -0.11852896 -0.108697385 0.07471393 -0.04411862 -0.0153086195 -0.037196975
-0.07922908 0.019624881 0.07088182 -0.1251454 -0.14388992 0.05077716 0.01868872 -0.20720746

onnx::Conv_306 f4 [8]
00000000: 1682 923e 4ed3 ab3e 7749 ebbe 4a55 253b
00000010: 13f5 3fbe 1b82 443f b665 5e3e 8aa4 b63e
0.28614873 0.3355965 -0.45954487 0.0025227838 -0.18745832 0.76761025 0.21718487 0.35672408

onnx::Conv_308 f4 [16, 8, 1, 1]
00000000: 764c c4bd b844 903a 36f4 173e 7033 a83d
00000010: fc47 503d 699e 253d 03d9 073d 54e8 38bd
00000020: 4474 fc3a 827e 97bd f693 7f3e 199d 4d3e
00000030: 93d1 933e 711b 22be 5098 ae3d 42f0 acbe
00000040: 1f17 373f 5145 3f3e cfb7 8fbe d6aa 9e3c
00000050: adc9 b0bd 1819 1abe 9422 96bd 6513 4e3e
00000060: f1e4 083e 1991 d43d 34b9 a73d 88ef 82be
00000070: 3453 90be 6945 593e 4354 943e b737 c7bd
00000080: c1a3 923e 90ab 06be 5f1b 9fbd 3457 a0be
00000090: cb57 4dbd 8343 9e3d b72a 8c3e d550 2b3d
000000a0: f532 653d efac 623c bb5b 2c3c 0795 86bb
000000b0: d45e c9bb 5e13 223d 36af 813d 2ab6 dc3c
000000c0: 0100 d5bd b636 0bbd 6352 bebd 909e c43c
000000d0: da52 a43d 573d c3ba 30d5 07be 21af 483d
000000e0: e058 a0be 557c c4be dbc7 a33e 868d 6b3e
000000f0: 1d96 e8bc 406e 27bf 83e9 58be c1d8 b5be
00000100: 120b 373d 381f 383b ec69 20bc eecd b1bc
00000110: 873d 4bba 3433 25bc b5e5 533c 89d6 013d
00000120: 25f2 203d 12d2 89be 8a4d d7be c4c2 c8be
00000130: 6b74 483e 55ea 95bc 720f 953e 86bc c2bd
00000140: 5854 613e 80c4 5f3d 98e1 69be 975b 0fbe
00000150: 1ae8 cebd 2865 843d aed5 8bbc 0548 b83e
00000160: 4caa 663d 554a e5bc 1a55 663c 95eb 03bd
00000170: 821d 823d bbcc 5abd 681e cabb 1fde 343d
00000180: 66be 13be 94d4 b83f 8a00 cf3e 56be a33e
00000190: 3438 ef3d a865 0bbf 705f 043f bbde b33e
000001a0: b958 aabc 4c45 65bc 37ed 14be 5a82 0bbc
000001b0: 3a02 b73b 2f80 273d 1cb9 2cba 715e 963d
000001c0: fc28 f23d 3f35 92bd 822c 93bd 2dce 96bd
000001d0: 36e3 b0bc 0412 593d 7e35 753d 6a0e 8c3c
000001e0: 9215 a4bd c66f 77bd 2133 563c ad34 b53d
000001f0: e11e b13e 605d 193b 7238 dbbd e778 24bd
-0.09584896 0.0011006808 0.14839253 0.08212936 0.0508499 0.040434275 0.033165943 -0.04514344
0.0019260724 -0.07397176 0.24958786 0.20079459 0.2887083 -0.1583078 0.08525145 -0.33777052
0.71519655 0.18678786 -0.28069922 0.01936857 -0.086322166 -0.15048635 -0.07330814 0.20124586
0.13368584 0.10379238 0.081896216 -0.25573373 -0.2818848 0.21217884 0.28970537 -0.09727424
0.2864056 -0.13151383 -0.077688925 -0.3131653 -0.050132554 0.077277206 0.2737634 0.041825134
0.0559568 0.013835176 0.010519917 -0.004107121 -0.0061453376 0.03956925 0.06332247 0.026942331
-0.10400391 -0.033987723 -0.09293058 0.02400139 0.08023615 -0.00148956 -0.13264918 0.04899514
-0.31317806 -0.38376108 0.31988415 0.23003206 -0.028391892 -0.65402603 -0.21182828 -0.35516933
0.04468829 0.002809478 -0.009790879 -0.02170464 -0.0007753004 -0.010083009 0.012933184 0.031698737
0.039293427 -0.26918083 -0.42051345 -0.39211094 0.1957566 -0.018300215 0.29113346 -0.09508614
0.22004831 0.054630756 -0.22839963 -0.13999783 -0.101028636 0.064646065 -0.017069664 0.35992447
0.05631475 -0.027989546 0.014058376 -0.03220709 0.063532844 -0.053417902 -0.0061681755 0.044157144
-0.144281 1.4439874 0.404301 0.31981152 0.11680642 -0.5445199 0.51708126 0.35130867
-0.02079426 -0.013993572 -0.14543615 -0.008514965 0.005584982 0.04089373 -0.0006588863 0.07342232
0.118242234 -0.07139062 -0.071862236 -0.07363544 -0.021592718 0.052995697 0.059865467 0.017096717
-0.08011927 -0.06040933 0.0130737135 0.08847938 0.3459387 0.0023401603 -0.107041255 -0.040154364

onnx::Conv_309 f4 [16]
00000000: 6662 463f 0bba b8bd 9ef8 76bd dd6e df3e
00000010: 754f fbbe a5b1 8b3f 1d22 783f 31a4 96bd
00000020: 1949 20bf 300b b33e 788d b63e 1c7e 21bf
00000030: d7d9 30bd cebd 613f 6d80 513f 61fe d53e
0.77493894 -0.0901986 -0.060295694 0.4363927 -0.49084058 1.0913588 0.9692705 -0.07355536
-0.6261154 0.34969473 0.35654807 -0.6308305 -0.0431765 0.88180244 0.8183659 0.41795638

onnx::Conv_311 f4 [16, 1, 3, 3]
00000000: 11ef 2bbf ad5f 09be 5e47 83be ea2c febe
00000010: ceab 38bf d9cb cebe 11e4 983e 1e7c 3fbf
00000020: 9a37 e5be 8c57 99bd dd3f 88be ac1b 10be
00000030: 57e7 27be 0599 5bbd d2c7 f7bd 2e72 de3c
00000040: 0bc6 253c 8fb7 d03c 0a30 b43c f340 6ebd
00000050: c59c 973d 0469 eb3d 1094 f33e 3e54 f53d
00000060: 86a2 403e b01a 043e 77a7 013e 8678 503e
00000070: 91f3 b9bc 7f62 78be fe79 ff3d 7240 6c3e
00000080: 803e 03be b91f d53d 995c e93e e8dd c23e
00000090: 4005 41bf 6b3a 493e f85f de3e 3aa8 623e
000000a0: 2d47 1d3f ad95 fa3e 2832 ea3d 34c0 b3be
000000b0: 2944 edbe bfad 8f3e c7bc 173f 70f5 963e
000000c0: 1fd8 99be 8e27 5abf 60d5 5ebf 78c1 b03d
000000d0: d75e 5fbf 8f50 51bf a342 90be 57c6 f9be
000000e0: dd0a 7abf f443 6d3e c832 5e3d 5257 173f
000000f0: 5ddc 92be cf8a 603f 0643 a23f a5e6 b3bc
00000100: 5ba8 21bc 095e e8bd 658c ba3d e242 dd3d
00000110: a9fa 133d 1498 693d 8120 463e 4669 383e
00000120: 6235 7cc2 8a63 81c2 8e79 dc41 ec0a fe41
00000130: 9577 89c2 3838 0f40 ba82 a4c1 efc2 1443
00000140: f522 8f42 029d 9e3e 4688 cdbd 3bec 0e3d
00000150: e3cf 1fbe a718 ad3e 7978 0e3f 4c9d 78bd
00000160: 7100 0a3d f078 203d b3cf 05be 9619 4f3f
00000170: ba62 133e 1986 f73e ff6f 73be 5258 91be
00000180: e354 d13d 849c 16bf c809 43bf b5cd 8ec2
00000190: 6da7 6942 8cd1 e2c1 ce0f 33c2 ec19 a9c1
000001a0: 17e9 c3c2 0cf3 4842 be15 88c2 9c80 f942
000001b0: 7dde e3bd 5052 5d3e f9c5 04be e33e 50bd
000001c0: 4250 ed3d 64c7 c33d 7de8 4e3e bea6 4a3e
000001d0: ee0c 9a3e f89e 2f3b cf7b 093f 86bb d33e
000001e0: d8fd 9abf 8ca5 89bf 2cf9 323c 9bbd 0abd
000001f0: cc82 c5be a21f 253f a6b6 373d 8231 843e
00000200: 17ed 903e f931 ef3d f11c b1be 7e42 0dbf
00000210: 5fe6 1bbe f621 31bf 6106 81be 79e2 ba3e
00000220: 8d6c 093f 6fa7 8ebc c2f8 3dbe 17f6 8d3e
00000230: 58e7 0fbe 6273 0fbf e1ee 06bb cd1f 08bf
-0.6716166 -0.13415404 -0.25640386 -0.49643642 -0.72137153 -0.40389898 0.298615 -0.7479876
-0.44768983 -0.07487401 -0.26611224 -0.14073056 -0.16396843 -0.053612728 -0.120986596 0.027154054
0.010118018 0.025478153 0.021995563 -0.05816741 0.07402948 0.114946395 0.475739 0.119789585
0.18811998 0.12900805 0.12661539 0.20358476 -0.02269915 -0.24256323 0.1247444 0.23071459
-0.1281681 0.10406441 0.4557846 0.38059926 -0.75398636 0.19651191 0.43432593 0.22134486
0.6143673 0.4894232 0.11435348 -0.35107577 -0.46341065 0.28062245 0.59272426 0.2948413
-0.300477 -0.85216606 -0.87044334 0.08630651 -0.8725409 -0.8176355 -0.2817584 -0.48784134
-0.97672826 0.23170453 0.054247648 0.59117615 -0.2868375 0.87711805 1.2676704 -0.021960566
-0.009866799 -0.11346061 0.091088094 0.108037725 0.03612772 0.0570298 0.19348337 0.18008909
-63.05213 -64.69441 27.559353 31.755333 -68.73356 2.2378063 -20.563831 148.76146
71.568275 0.30979162 -0.10035758 0.034893256 -0.15606646 0.3380787 0.55652577 -0.060696885
0.033691827 0.039177835 -0.13067512 0.80898416 0.1439313 0.48344496 -0.23773192 -0.28387696
0.10221269 -0.58832574 -0.761868 -71.40177 58.4135 -28.352318 -44.765434 -21.137657
-97.95525 50.23735 -68.042465 124.75119 -0.11126421 0.21613431 -0.12966146 -0.050841223
0.115875736 0.09559515 0.20205875 0.1979017 0.3008799 0.0026797634 0.5370454 0.41354007
-1.2108717 -1.0753646 0.010923665 -0.033872228 -0.38576353 0.6450139 0.04485192 0.2581902
0.28305885 0.116794534 -0.34592393 -0.55179584 -0.15224598 -0.69192445 -0.2520018 0.3650091
0.5368126 -0.017413823 -0.18551925 0.27726814 -0.14053094 -0.56035435 -0.002058916 -0.53173524

onnx::Conv_312 f4 [16]
00000000: 84ed 2840 b1f0 8abe d613 a4bf 167e afbf
00000010: 2499 77be 44fc 8340 cf07 4fbf 92b4 c93e
00000020: 9ce1 2a3d d0c6 523d fb48 8f3f c745 f3bd
00000030: 07e3 8dbf 2211 9f3f d902 4c40 b07f f8bd
2.6394968 -0.27136758 -1.2818553 -1.3710353 -0.24179512 4.124544 -0.8087129 0.39395577
0.041719064 0.051459134 1.1194147 -0.11878543 -1.1084908 1.2427104 3.1876738 -0.121337295
