model_checkpoints/experiments/overall/fastscnn_192a0.25t6r1pp0.pt (torch, 163523 bytes, 106 tensors)

learning_to_down_sample.conv.conv.weight f4 [8, 3, 3, 3]
0	0xbe257ea3	-0.1616159
1	0xbec9a6e3	-0.39385137
2	0xbe5f6119	-0.21814384
3	0xbe349463	-0.1763473
4	0xbeaf40f1	-0.34229234
5	0xbd800976	-0.062518045
6	0x3f728489	0.9473348
7	0xbea7d5d7	-0.32780334
8	0xbe2e367d	-0.17012973
9	0xbd7b07d3	-0.06128676
10	0x3f1b26c3	0.6060602
11	0x3f96f3ff	1.1793212
12	0xbebaf413	-0.3651434
13	0x3db0defe	0.086362824
14	0x3f93ffe2	1.1562464
15	0x3ebd7669	0.37004402
16	0xbf36d5db	-0.7142007
17	0xbe6e7efc	-0.23290628
18	0xbeb3ab46	-0.3509161
19	0xbd313af2	-0.043269105
20	0x3ee333a0	0.44375324
21	0xbeef659a	-0.46757203
22	0xbea4c6ee	-0.3218302
23	0x3ee55f32	0.4479919
24	0x3ef0df9a	0.47045594
25	0xbf1102eb	-0.5664508
26	0xbe92add7	-0.28648254
27	0xbcb78250	-0.022401005
28	0xbe85b865	-0.26117244
29	0x3daaec42	0.08345844
30	0x3e2f3fae	0.17114136
31	0xbe59f059	-0.21283092
32	0xbecd5525	-0.40104023
33	0x3f2d5588	0.67708635
34	0x3e98e725	0.2986385
35	0x3deb4f89	0.114897795
36	0xbea71523	-0.32633314
37	0xbf103056	-0.56323755
38	0xbc0a3355	-0.00843509
39	0x3c529b94	0.0128544755
40	0xbed69102	-0.41907507
41	0xbec45951	-0.38349393
42	0x3f38d2c4	0.721966
43	0x3f18dc87	0.597115
44	0x3ed815d3	0.4220415
45	0xbf04f399	-0.519342
46	0xbef532fa	-0.47890455
47	0x3dbe2a89	0.09285457
48	0x3bd8dc3d	0.0066180513
49	0xbf1c990d	-0.61171037
50	0xbf3a94bb	-0.72883195
51	0x3f163a0a	0.5868231
52	0x3f078921	0.5294362
53	0x3e38c010	0.18042016
54	0x3ea16402	0.31521612
55	0xbeaf8163	-0.34278402
56	0x3eac2be7	0.33627245
57	0x3db3f98b	0.08787831
58	0x3e29538c	0.16535777
59	0xbe42c1c2	-0.19019225
60	0x3d997e3f	0.07494783
61	0x3f2e3ab7	0.6805834
62	0xbe5a83f5	-0.213394
63	0x3e9f2e6f	0.31090114
64	0x3dd1863e	0.10230683
65	0x3f6850b4	0.90748143
66	0x3e3ca708	0.18423092
67	0x3fb3d886	1.4050453
68	0x3f434ea1	0.76291853
69	0xbe9a2bdf	-0.30111596
70	0x3fac484f	1.3459567
71	0xbee15b79	-0.440151
72	0xbede9a45	-0.43477073
73	0xbf4a22df	-0.7895946
74	0x3e3ed175	0.18634589
75	0xbef74d63	-0.4830123
76	0x3e906664	0.28203118
77	0x3cc0f03c	0.023552053
78	0xbf177007	-0.59155315
79	0x3f4f0739	0.80870396
80	0xbec90e8e	-0.39268917
81	0xbcb2611a	-0.021774817
82	0xbec3fc0b	-0.3827823
83	0xbceb53cb	-0.028726479
84	0xbca9ee70	-0.020743579
85	0x3e03fb7c	0.12888902
86	0x3f73e233	0.9526703
87	0x3e1fd06f	0.15606855
88	0x3cb3db97	0.021955295
89	0x3eef864e	0.46782154
90	0xbf18ccaa	-0.5968729
91	0xbf139750	-0.5765276
92	0x3e3ee0e3	0.18640475
93	0xbf36ca17	-0.71402115
94	0xbd15cf1d	-0.03657447
95	0x3f4dda20	0.8041096
96	0xbec3597a	-0.38154203
97	0x3d77a24a	0.060457505
98	0x3ee8a0cf	0.45435187
99	0xbf18963b	-0.59604234
100	0xbf263eae	-0.6493939
101	0x3e1e7562	0.15474465
102	0xbf569a24	-0.8382895
103	0xbd2b0d9c	-0.041761026
104	0x3f630c33	0.8869049
105	0xbd114215	-0.03546341
106	0x3d8ee033	0.06976356
107	0x3f2cb442	0.6746255
108	0x3ea8c708	0.3296435
109	0x3e3c4c42	0.18388465
110	0xbdf2b825	-0.11851529
111	0x3ec519da	0.38496286
112	0xbeb78d12	-0.35849816
113	0xbe725554	-0.23665363
114	0x3ef1b28c	0.47206533
115	0xbe952bdf	-0.29135033
116	0xbe8e93da	-0.27847177
117	0x3f19612d	0.59913903
118	0x3cb7fc0b	0.02245905
119	0xbe09647d	-0.1341724
120	0x3f6ef0ac	0.93335986
121	0xbe48ae6d	-0.19597788
122	0xbf173f1b	-0.59080666
123	0x3f5504c3	0.8321039
124	0xbe61bbee	-0.22044346
125	0xbed915e9	-0.4239953
126	0x3e98afe9	0.2982171
127	0xbde3b6d6	-0.111188576
128	0xbe9b9054	-0.3038355
129	0x3f5301d4	0.82424664
130	0xbecd7a13	-0.40132198
131	0xbec30dcb	-0.3809646
132	0x3f175a4d	0.59122163
133	0xbe8144f0	-0.25247908
134	0xbf17da3b	-0.5931737
135	0x3f599442	0.8499185
136	0xbd5c3159	-0.053758
137	0xbf0730e7	-0.52808994
138	0x3ebd9a4b	0.3703178
139	0xbeb20c6a	-0.34775096
140	0xbecfbb4c	-0.40572584
141	0x3eb152a8	0.34633374
142	0x3d1ff027	0.039047386
143	0xbe458711	-0.19289805
144	0x3fb7f620	1.4371986
145	0x3f180d5b	0.5939538
146	0xbe5bdae4	-0.21470219
147	0x3eb56da7	0.3543522
148	0xbed8f011	-0.42370656
149	0xbf24b67d	-0.64340955
150	0xbd43998d	-0.04775386
151	0xbf110a38	-0.5665622
152	0xbefa1c90	-0.48849916
153	0x3fa2f504	1.2731023
154	0x3e9447b9	0.2896097
155	0x3b5adbdd	0.003339521
156	0x3e12cf42	0.14336875
157	0xbec77ac0	-0.38960838
158	0xbf35d831	-0.71033007
159	0x3e400300	0.18751144
160	0xbebaf784	-0.36516964
161	0xbe7b7238	-0.2455529
162	0x3e8e273c	0.27764308
163	0xbcfe5943	-0.031048423
164	0x3e5f7049	0.21820177
165	0x3d7bff14	0.06152256
166	0x3f0ff50d	0.5623329
167	0x3e128e32	0.14312056
168	0xbc83ce3f	-0.016089557
169	0x3de3dcdf	0.11126112
170	0xbdb43d86	-0.08800797
171	0x3ec2890b	0.3799518
172	0xbe3195b0	-0.17342257
173	0x3ec86fdb	0.3914784
174	0x3f1205df	0.5704021
175	0x3f2b564c	0.66928554
176	0x3f287533	0.6580383
177	0x3f7750be	0.9660758
178	0x3fa5c617	1.2951077
179	0x3f9fe6f3	1.2492355
180	0xbe833891	-0.25629094
181	0xbf2b269d	-0.66855794
182	0xbd85fc4f	-0.06542265
183	0xbf05839e	-0.52153957
184	0xbe2be840	-0.16787815
185	0x3e52fd31	0.20604397
186	0xbe91bcd6	-0.28464383
187	0xbe05dc31	-0.13072278
188	0xbdc7e5d9	-0.09760637
189	0x3dfccdbb	0.123439275
190	0xbe10d168	-0.14142382
191	0xbea53559	-0.32267264
192	0xbdfe9f00	-0.124326706
193	0xbec9169d	-0.39275065
194	0xbe7fce5d	-0.24981065
195	0x3eaf22ac	0.3420614
196	0xbe36ac31	-0.17839123
197	0xbe58cd87	-0.21172152
198	0xbd5d030d	-0.053957988
199	0xbeee7f8d	-0.4658169
200	0xbe870d52	-0.2637735
201	0xbbd45a0b	-0.0064804605
202	0xbf8a5f5b	-1.081035
203	0xbf5fe855	-0.87463886
204	0x3ecfa64e	0.40556568
205	0xbfba38f1	-1.4548627
206	0xbf8dec0e	-1.1087663
207	0xbe86bf56	-0.26317853
208	0x3e99209e	0.29907697
209	0x3e58c172	0.21167544
210	0x3d694361	0.056949023
211	0x3e77f2c9	0.24213709
212	0x3eae8ab8	0.3409021
213	0x3efae2d6	0.49001187
214	0x3dbd7c92	0.092522755
215	0x3ea937c4	0.33050358

learning_to_down_sample.conv.bn.weight f4 [8]
0	0x3fb9bd77	1.4510945
1	0x3f41a1d7	0.75637573
2	0x400e54d3	2.2239273
3	0x3f81333a	1.0093758
4	0x3fafa4d3	1.3722175
5	0x3fa553a7	1.2916154
6	0x3e9a1637	0.30095074
7	0x4015c931	2.3404047

learning_to_down_sample.conv.bn.bias f4 [8]
0	0xbe8d7796	-0.276303
1	0xbf0f33b5	-0.55938274
2	0x3dabdeb9	0.0839209
3	0x3eb4a69d	0.35283366
4	0xbdf2d9ba	-0.11857934
5	0x3e94261d	0.28935328
6	0x3f80fede	1.0077779
7	0xbcda5b71	-0.02665493

learning_to_down_sample.conv.bn.running_mean f4 [8]
0	0x3dbeb6d4	0.093122154
1	0xbf2654f4	-0.6497338
2	0x3f03027a	0.51175654
3	0xbecc5c68	-0.3991425
4	0x3c7b266b	0.015328984
5	0x3dd94a15	0.10609833
6	0x3f2db4d7	0.67854065
7	0xbedf159c	-0.43571174

learning_to_down_sample.conv.bn.running_var f4 [8]
0	0x3f7f61e5	0.9975875
1	0x401ccc2e	2.4499621
2	0x40d9a3b9	6.8012357
3	0x40877c5f	4.233932
4	0x4084a81c	4.145521
5	0x40a6b562	5.2096415
6	0x4138f8c3	11.560733
7	0x4103f970	8.248398

learning_to_down_sample.dsconv1.0.weight f4 [8, 1, 3, 3]
0	0x3d7cbf6c	0.06170599
1	0x3d4cee0d	0.05003171
2	0xbc0eafd5	-0.008708914
3	0xbf010b9c	-0.5040834
4	0xbf59b502	-0.8504182
5	0xbf1f83bd	-0.6231039
6	0xbee80124	-0.4531337
7	0xbf631251	-0.88699824
8	0xbf2d9d29	-0.6781793
9	0x3eac9d32	0.3371368
10	0x3df584b6	0.11988203
11	0xbdc6aa66	-0.0970047
12	0x3eae0fe2	0.33996493
13	0x3f65f355	0.8982442
14	0x3f118846	0.5684856
15	0xbdf49b02	-0.11943628
16	0x3f20670d	0.62657243
17	0x3ebd6325	0.36989704
18	0x3ee33053	0.44372806
19	0x3f4cc643	0.79990023
20	0x3f1a44cf	0.60261244
21	0x3ed59af0	0.4171977
22	0x3f66ef0a	0.90208495
23	0x3f2ef1db	0.6833779
24	0x3d81f612	0.06345762
25	0x3eafb210	0.34315538
26	0x3e933114	0.2874838
27	0x3e5e4737	0.21706854
28	0x3f11461a	0.5674759
29	0x3e8a6102	0.27027136
30	0xbf8e8c04	-1.1136479
31	0xbf8a5a44	-1.0808797
32	0xbe0383f4	-0.12843305
33	0xbd835314	-0.0641233
34	0x3dc44297	0.095830135
35	0x3e432ac6	0.19059286
36	0xbe92df89	-0.2868617
37	0xbec9e687	-0.3943369
38	0xbeb76844	-0.35821736
39	0xbedbcb2f	-0.42928454
40	0xbf34c4e1	-0.70612913
41	0xbf108055	-0.5644582
42	0xbe290417	-0.16505466
43	0xbedf70bb	-0.43640694
44	0xbed6af33	-0.4193054
45	0xbd94cc3c	-0.07265517
46	0xbe12966d	-0.14315195
47	0xbe7ac558	-0.24489343
48	0x3e3257d5	0.17416318
49	0x3f821539	1.0162727
50	0x3f6c777b	0.9236981
51	0xbeefcae3	-0.46834478
52	0xbf013262	-0.50467503
53	0xbdec61b8	-0.11542076
54	0xbefa8bdb	-0.48934826
55	0xbeab3d7b	-0.33445343
56	0xbe93f65a	-0.2889889
57	0xbda739f4	-0.081653506
58	0x3f289c76	0.6586374
59	0x3f839250	1.0279026
60	0xbd8bd93f	-0.06828546
61	0x3dc255c3	0.09489014
62	0x3f000772	0.5001136
63	0x3f498095	0.78711826
64	0x3f960921	1.1721536
65	0x3f2e04fc	0.67976356
66	0x3f137e45	0.57614547
67	0x3f4fb9ac	0.8114269
68	0x3f1cd815	0.61267215
69	0xbf08ab1d	-0.533861
70	0xbe4a64cc	-0.19765013
71	0x3d85573c	0.06510779

learning_to_down_sample.dsconv1.1.weight f4 [8]
0	0x3f618d2f	0.88106054
1	0x3f4b834c	0.7949722
2	0x3fbfb413	1.4976829
3	0x3f89e776	1.0773761
4	0x3f54166d	0.8284672
5	0x3f901f2d	1.1259514
6	0x3fadd584	1.3580785
7	0x3f86b722	1.0524638

learning_to_down_sample.dsconv1.1.bias f4 [8]
0	0x3b2c1b9d	0.0026261576
1	0x3cce0118	0.025147006
2	0x3c8983d9	0.016786503
3	0xbc6907dc	-0.014223065
4	0xbbd417c5	-0.00647256
5	0xbc507fac	-0.012725752
6	0xbd814063	-0.06311109
7	0x3cb510ed	0.022102797

learning_to_down_sample.dsconv1.1.running_mean f4 [8]
0	0xbfa729d4	-1.305964
1	0x3e9a2def	0.3011317
2	0x407bb056	3.9326377
3	0xbf153c6a	-0.5829531
4	0xbf815e07	-1.010682
5	0x3e9f4272	0.3110538
6	0x3f88f395	1.0699335
7	0x40571d0f	3.3611486

learning_to_down_sample.dsconv1.1.running_var f4 [8]
0	0x40d5fb73	6.6869445
1	0x3f0c1c7d	0.5473097
2	0x41b33702	22.40186
3	0x3faac91a	1.3342621
4	0x4044abe8	3.0729923
5	0x3fc3a5b4	1.5284944
6	0x3e69ee34	0.22844774
7	0x41eb715e	29.430355

learning_to_down_sample.dsconv1.2.weight f4 [12, 8, 1, 1]
0	0xbe967491	-0.29385808
1	0x3ca946b8	0.020663604
2	0x3f23f5f3	0.64047164
3	0x3e0138d6	0.12619337
4	0xbef0133c	-0.46889675
5	0x3e90fb4e	0.2831673
6	0x3f97ada3	1.1849865
7	0xbeac499b	-0.33649907
8	0xbf9505a3	-1.1642345
9	0x3dbc6b76	0.09200184
10	0xbeb69c70	-0.35666227
11	0x3ed0cb15	0.4077994
12	0x3f20bc89	0.6278768
13	0xbe379bec	-0.17930573
14	0x3e471a08	0.19443524
15	0xbe382700	-0.17983627
16	0xbf2b8b59	-0.670095
17	0x3e3935e4	0.18086964
18	0x3f8ff588	1.1246805
19	0xbbc356e7	-0.0059612873
20	0xbec6c7be	-0.38824266
21	0xba88a2db	-0.0010424511
22	0x3ee83a87	0.45357153
23	0xbf39d3e9	-0.72588974
24	0xbd463df7	-0.048398938
25	0x3f393ec5	0.72361404
26	0x3e5b289c	0.2140221
27	0x3d5dd276	0.05415579
28	0x3e64af6d	0.22332545
29	0xbd523c26	-0.051326893
30	0xbf4f5e82	-0.8100358
31	0xbf097fae	-0.5371045
32	0x3e85450c	0.2602924
33	0x3d94705f	0.072479956
34	0xbf9e4336	-1.2364261
35	0xbded340b	-0.11582192
36	0x3f5f7d83	0.8730089
37	0x3e1d4d69	0.15361561
38	0xbe598faa	-0.2124621
39	0x3f374f08	0.7160497
40	0xbed53f92	-0.41650063
41	0xbe3869b3	-0.18009071
42	0x3f413b9d	0.7548159
43	0x3ca982b9	0.020692216
44	0xbf70258f	-0.9380731
45	0xbe520d42	-0.2051287
46	0xbf0bb900	-0.5457916
47	0xbebee1cc	-0.37281644
48	0x3e8ed2b5	0.27895132
49	0x3f6c16bd	0.92222196
50	0x3e324364	0.1740852
51	0x3fbbb691	1.466509
52	0xbde90271	-0.11377419
53	0x3f01dc18	0.5072646
54	0xbf225381	-0.63408667
55	0xbeb2c51c	-0.34916008
56	0xbe7bcc22	-0.24589589
57	0x3dd547a7	0.10414057
58	0x3f81bb9a	1.0135376
59	0xbbf94843	-0.007607491
60	0xbe1e09f4	-0.15433484
61	0x3e6720be	0.22571084
62	0x3ed57780	0.41692734
63	0xbf9b5703	-1.2135929
64	0xbe72cf43	-0.23711877
65	0x3dabaea7	0.08382922
66	0x3dbd7e92	0.09252657
67	0x3e706c16	0.23478732
68	0xbfab5479	-1.3385154
69	0xbe50e481	-0.20399667
70	0xbf284c84	-0.65741754
71	0xbe5ab5d6	-0.21358427
72	0xbe651e6f	-0.2237489
73	0x3eb49edf	0.3527746
74	0x3fb2fb0a	1.3982861
75	0xbde9bde9	-0.114131756
76	0xbe5db34c	-0.21650428
77	0x3e4f260d	0.20229359
78	0x3eaf8163	0.34278402
79	0xbf899efe	-1.0751646
80	0xbf09bd45	-0.5380443
81	0x3d8a1dda	0.06743975
82	0x3f752b6a	0.9576937
83	0xbd90cc8e	-0.07070266
84	0xbee25723	-0.44207105
85	0xbd8afece	-0.067868814
86	0x3c812112	0.01576284
87	0xbf4a6acb	-0.79069203
88	0xba2e2086	-0.00066424196
89	0x3eeb40f4	0.45947993
90	0xbe4ce464	-0.20008999
91	0xbf13f985	-0.5780261
92	0x3bc3922a	0.005968352
93	0xbfc3fc05	-1.5311285
94	0x3f1e6bcf	0.6188325
95	0x3e8e63f4	0.27810633

learning_to_down_sample.dsconv1.3.weight f4 [12]
0	0x3f1e8a84	0.6193011
1	0x3f947b9f	1.1600226
2	0x3f0d3c3e	0.5517005
3	0x40010e58	2.0165005
4	0x3eace55d	0.3376874
5	0x3f562748	0.8365369
6	0x3fdc35c6	1.720391
7	0x3eee0e1e	0.46495146
8	0x3fb90f2a	1.4457753
9	0x3f11c33b	0.56938523
10	0x3f0aa576	0.54158723
11	0x401a3c53	2.409932

learning_to_down_sample.dsconv1.3.bias f4 [12]
0	0x3f7d7ef8	0.99021864
1	0x3eb89b80	0.36056137
2	0x3f64d599	0.89388424
3	0xbdc2e30f	-0.09515964
4	0x3f975c35	1.1825014
5	0x3f4628fa	0.77406275
6	0xbdfd4a57	-0.12367695
7	0x3f6b8f68	0.92015696
8	0x3eadfa23	0.33979902
9	0x3f701a80	0.93790436
10	0x3f6ef50c	0.9334266
11	0x3e11d0bc	0.14239782

learning_to_down_sample.dsconv1.3.running_mean f4 [12]
0	0xbd97bbd4	-0.07408872
1	0xbcfa5f47	-0.03056301
2	0xbca732e8	-0.020410016
3	0x3d733da0	0.059384942
4	0x3ba4ec4a	0.0050330507
5	0x3d2abbc3	0.04168297
6	0x3d05d396	0.032672487
7	0xbd132c46	-0.035930894
8	0x3d43d0ad	0.04780643
9	0xbc5955f0	-0.013265118
10	0x3b27bdab	0.0025595229
11	0x3b476e67	0.0030430795

learning_to_down_sample.dsconv1.3.running_var f4 [12]
0	0x40b22cfd	5.5679917
1	0x3f9f4e2a	1.2445729
2	0x40ec2231	7.3791738
3	0x3f4598a4	0.77186036
4	0x40dd8539	6.9225125
5	0x4030e0a1	2.7637103
6	0x40b8aef3	5.771356
7	0x40e9f3ba	7.311002
8	0x40208a9e	2.5084605
9	0x410fb802	8.982424
10	0x409624bb	4.6919837
11	0x40e59e0a	7.175542

learning_to_down_sample.dsconv2.0.weight f4 [12, 1, 3, 3]
0	0x3e12f6e0	0.14351988
1	0x3ea62e57	0.3245723
2	0xbddba58c	-0.10724935
3	0x3de1f0ca	0.11032255
4	0x3f7aab61	0.97917753
5	0x3e1c0cdb	0.15239279
6	0xbe6de6b9	-0.23232545
7	0xbf0cbfb9	-0.54980046
8	0xbf7484c7	-0.955151
9	0xbd5daf26	-0.054122113
10	0xbd34e527	-0.04416385
11	0xbd510417	-0.05102929
12	0x3d3e8293	0.046511244
13	0x3f07214f	0.527852
14	0x3f648b50	0.89275074
15	0xbf26ae9b	-0.65110177
16	0x3ea63776	0.32464188
17	0x3f559b9b	0.8344056
18	0xbda7d49a	-0.081948474
19	0xbf6d6c2e	-0.92743194
20	0xbf607d74	-0.87691426
21	0x3eb4066c	0.3516115
22	0x3f2702d3	0.65238684
23	0xbed68eb2	-0.41905743
24	0x3df3f225	0.1191142
25	0x3f320271	0.69534975
26	0x3e8396fa	0.25701123
27	0x3ed25660	0.41081524
28	0x3f0113ab	0.50420636
29	0x3ed8904c	0.4229759
30	0x3dac9713	0.084272526
31	0x3e9737b8	0.29534698
32	0x3f60b73e	0.87779605
33	0xbddcccb7	-0.10781234
34	0xbf39a65e	-0.7251948
35	0xbe9808f3	-0.29694328
36	0x3e6f44e7	0.23366128
37	0x3e99b4c8	0.30020738
38	0x3f2cf962	0.6756803
39	0x3bb1570e	0.005411989
40	0xbfa16341	-1.2608415
41	0xbf610f0f	-0.879136
42	0x3eb66617	0.35624763
43	0x3e366db5	0.17815287
44	0x3ec55f73	0.38549384
45	0xbe922a57	-0.28547928
46	0xbd1021ad	-0.035188366
47	0x3dfe84c8	0.1242767
48	0xbf2e3d35	-0.68062145
49	0xbecaaa8b	-0.3958324
50	0xbdedd6ae	-0.116132125
51	0xbeb03aea	-0.34419948
52	0x3f2b629f	0.6694736
53	0x3f847d1c	1.035068
54	0x3ad6e585	0.0016395306
55	0x3e8ccb0c	0.27498662
56	0x3e34f161	0.17670204
57	0x3e89ac7f	0.26889417
58	0x3f5c9c6b	0.86176175
59	0x3f210e85	0.6291278
60	0x3e276d48	0.16350281
61	0x3f711b17	0.9418196
62	0x3f3172b8	0.6931567
63	0x3d0f5cab	0.035000484
64	0xbe0ed5c6	-0.13948736
65	0xbeb294eb	-0.3487924
66	0xbd9e67c6	-0.07734637
67	0x3f0500a0	0.5195408
68	0xbf389384	-0.7210009
69	0xbcdb623d	-0.026780242
70	0x3fd2595a	1.6433518
71	0x3e4cc129	0.1999556
72	0x3e43a9ad	0.19107695
73	0xbdb6857d	-0.089121796
74	0x3eb08203	0.3447419
75	0xbecbab1b	-0.3977898
76	0xbf82d7e4	-1.0222135
77	0x3e5b5004	0.21417242
78	0xbe1e351e	-0.1544995
79	0xbf6a6e8e	-0.91574943
80	0x3eee631e	0.46559995
81	0x3e7f0d53	0.24907427
82	0x3f0c4614	0.5479443
83	0x3d8b2305	0.06793789
84	0x3e8d6e0f	0.2762303
85	0x3e2778c2	0.16354659
86	0xbf802f3d	-1.0014416
87	0x3ee6c096	0.45068806
88	0x3e0ac3fd	0.13551326
89	0xbf9b1f4e	-1.2118928
90	0xbe38c73e	-0.18044755
91	0x3f07bd6f	0.5302343
92	0x3ea3ab73	0.31966743
93	0xbe3e8998	-0.18607175
94	0x3fabe0a3	1.3427929
95	0x3fb8aedc	1.4428363
96	0xbd3d35b2	-0.046193786
97	0x3e0048dc	0.12527794
98	0x3ddcb1f8	0.10776132
99	0xbd627e01	-0.055295948
100	0xbe973e40	-0.2953968
101	0xbe3f7292	-0.18696049
102	0xbe4ba6f0	-0.198879
103	0xbf522f8f	-0.8210382
104	0xbf63644a	-0.88824904
105	0xbe03e9cf	-0.1288216
106	0xbf1a6685	-0.6031268
107	0xbf2339e4	-0.6376021

learning_to_down_sample.dsconv2.1.weight f4 [12]
0	0x3fa48de0	1.2855797
1	0x3f4a36dc	0.7898996
2	0x3fbdb4dc	1.4820819
3	0x3f493a20	0.78604317
4	0x3f828627	1.019719
5	0x3f630786	0.88683355
6	0x3f8ed663	1.1159176
7	0x3fa2f4ef	1.2730998
8	0x3f704b34	0.9386475
9	0x3fc0d0d8	1.5063734
10	0x3fa95d69	1.3231632
11	0x3f85e95b	1.046184

learning_to_down_sample.dsconv2.1.bias f4 [12]
0	0xbc9d6d20	-0.019217074
1	0xbc8439e0	-0.016140878
2	0xbc6e3e45	-0.014541213
3	0x3bdbe4ef	0.0067106406
4	0x3cba9123	0.022774285
5	0x3c1be401	0.00951481
6	0xbb9c4e3b	-0.004770068
7	0x3b8e0cfc	0.004335044
8	0xbbfbf307	-0.007688883
9	0x3cbf169a	0.023326207
10	0x3d5a3467	0.05327263
11	0xbd06aabe	-0.032877676

learning_to_down_sample.dsconv2.1.running_mean f4 [12]
0	0xbd93023d	-0.07178161
1	0x3f8a223a	1.0791695
2	0xbe0f562c	-0.13997716
3	0x3f54099c	0.8282716
4	0xbdb72d35	-0.089441694
5	0x3d6cd665	0.05782165
6	0x40051d78	2.0799236
7	0x3f83efbd	1.0307537
8	0xbf50601b	-0.81396645
9	0xbeb80601	-0.3594208
10	0x404eb138	3.2295666
11	0xc04f5481	-3.2395327

learning_to_down_sample.dsconv2.1.running_var f4 [12]
0	0x3ecaebfb	0.39633164
1	0x402e38bb	2.7222126
2	0x3f15c254	0.58499646
3	0x40c5fce3	6.18712
4	0x3e44ac8d	0.19206448
5	0x3f7972ad	0.97440606
6	0x409e0b4f	4.9388804
7	0x3f021104	0.50807214
8	0x40bf7ff0	5.9843674
9	0x3ee918cc	0.4552673
10	0x4046cf2d	3.106395
11	0x4124ec4d	10.307691

learning_to_down_sample.dsconv2.2.weight f4 [16, 12, 1, 1]
0	0x3fc65c2f	1.5496882
1	0x3e38066c	0.179712
2	0x3e68f393	0.22749166
3	0xbed231de	-0.4105367
4	0x3f2940d0	0.6611452
5	0x3f185d40	0.5951729
6	0x3e3265fe	0.1742172
7	0xbe7d56f4	-0.24740201
8	0x3c1b0950	0.0094626695
9	0x3f0aedb0	0.5426893
10	0x3f1d48df	0.6143932
11	0xbdb0a57f	-0.08625316
12	0xbf197fc4	-0.5996058
13	0xbe270374	-0.16309911
14	0x3dbc4bc9	0.09194142
15	0xbd8b3698	-0.06797522
16	0x3f584293	0.84476584
17	0x3f257fc1	0.6464806
18	0x3dd31b6c	0.10307965
19	0xbccae680	-0.024768114
20	0x3ef697e8	0.4816277
21	0xbf93c3c9	-1.1544124
22	0xbed447f5	-0.4146115
23	0x3cab8ed2	0.020942125
24	0xbd987498	-0.074441135
25	0xbd5f0595	-0.054448683
26	0xbe189261	-0.14899589
27	0x3e538327	0.206555
28	0x3ddbba52	0.10728897
29	0x3eefa8ac	0.46808374
30	0xbfd4b462	-1.6617548
31	0x3ef21fc5	0.47289863
32	0xbbd9d141	-0.0066472595
33	0x3d331de1	0.043729667
34	0x3de4983f	0.11161851
35	0x3f9839f5	1.1892687
36	0xbd9cd40f	-0.076576345
37	0xbc8e9bc8	-0.017408267
38	0xbf2e42de	-0.6807078
39	0xbe6c19f3	-0.23056774
40	0x3e8c2626	0.27372855
41	0x3e739b57	0.23789726
42	0xbef3e722	-0.47637278
43	0xbe6f0cbf	-0.23344706
44	0x3d927594	0.071513325
45	0x3e32e106	0.17468652
46	0x3f927c7f	1.1444243
47	0x3f6961a7	0.9116463
48	0xbeeec3fe	-0.46633905
49	0xbf05f706	-0.5233005
50	0xbe9be30a	-0.30446655
51	0x3ebbb4b3	0.366613
52	0xbe112b83	-0.14176755
53	0x3fb0494d	1.377237
54	0x3e233451	0.15937926
55	0x3f4d9e9c	0.80320144
56	0x3e307406	0.1723176
57	0x3f3d64e9	0.739821
58	0xbefbd2eb	-0.49184355
59	0xbe3e7c40	-0.18602085
60	0xbe45d742	-0.19320396
61	0x3eaa1fd1	0.332274
62	0x3f2be73c	0.6714971
63	0x3cd42287	0.02589537
64	0x3e19a9c6	0.1500617
65	0x3e210a15	0.15726502
66	0xbf05e1b0	-0.52297497
67	0x3f38df90	0.7221613
68	0x3e91b30c	0.28456914
69	0x3f972588	1.1808329
70	0xbe7fd9d2	-0.24985436
71	0x3ee5acbb	0.44858345
72	0xbb77cbdb	-0.0037810716
73	0x3dfbaf6a	0.12289317
74	0x3d6af6f8	0.057364434
75	0x3eea6ca1	0.45786002
76	0xbe10121e	-0.14069411
77	0x3d926e40	0.07149935
78	0x3ee935ca	0.4554885
79	0x3f16c144	0.5888865
80	0xbe6056b9	-0.21908082
81	0xbd71e8df	-0.059059974
82	0x3ff17779	1.8864585
83	0xbf036d63	-0.51338786
84	0xbe8b64a2	-0.27225214
85	0x3f9ecc3e	1.240608
86	0xbd60fe0a	-0.05492977
87	0xbefbef27	-0.49205896
88	0x3c68f800	0.014219284
89	0x3f26f7e3	0.65221995
90	0xbdf7465f	-0.12073969
91	0xbf145f7d	-0.57958204
92	0x3f11577e	0.5677413
93	0xbe980934	-0.2969452
94	0x3d09e6c2	0.033667333
95	0x3d976a93	0.07393374
96	0x3f8e1972	1.1101515
97	0x3e66b463	0.2252975
98	0x3f6c23f6	0.9224237
99	0x3d856d8b	0.06515034
100	0x3f6ff558	0.9373374
101	0x3e5fe6f2	0.21865442
102	0x3e2ff3d9	0.17182864
103	0x3ef061b3	0.4694954
104	0xbde36578	-0.11103338
105	0xbf222355	-0.6333516
106	0x3dc2d4b5	0.09513227
107	0xbe88611f	-0.26636598
108	0xbd342542	-0.043980844
109	0xbd2675ee	-0.04063981
110	0x3f134e1f	0.5754108
111	0xbe0cc2b7	-0.13746153
112	0xbe6fb42d	-0.23408575
113	0xbf157754	-0.58385205
114	0x3e86eea9	0.26353958
115	0xbd168d48	-0.03675583
116	0xbfdcd441	-1.7252275
117	0x3f34ec4a	0.7067305
118	0xbec4f401	-0.3846741
119	0xbe31ce2d	-0.17363806
120	0x3dc4c5f4	0.09608069
121	0xbeff7c0a	-0.49899322
122	0x3e52d03a	0.20587245
123	0x3d4ad800	0.0495224
124	0x3f4085d5	0.7520421
125	0x3dcfa441	0.10138751
126	0x3ee0032a	0.43752414
127	0xbf0b4ada	-0.5441109
128	0x3e8096a2	0.25114924
129	0x3e90d55a	0.28287774
130	0xbf55967a	-0.83432734
131	0xbefb47ec	-0.4907831
132	0x3f016bd1	0.5055514
133	0xbfa9ed63	-1.327557
134	0xbdb28543	-0.08716824
135	0xbf3bbd67	-0.7333588
136	0xbd0dc538	-0.03461191
137	0x3cbb7d39	0.02288686
138	0xbf0c33b6	-0.54766405
139	0x3d9f2398	0.07770461
140	0x3d29405f	0.041321155
141	0x3e15f1c1	0.14643003
142	0xbe94439d	-0.28957835
143	0x3fa256ab	1.2682699
144	0xbe3fa1a8	-0.1871401
145	0x3da22a26	0.079181954
146	0x3ea216b7	0.31657955
147	0xbec3c09f	-0.38232896
148	0xbf216598	-0.63045645
149	0xbe7f4cb1	-0.24931599
150	0xbed7d186	-0.4215204
151	0xbf6db4ec	-0.9285419
152	0x3f053244	0.52029824
153	0x3e642785	0.222807
154	0xbfa37901	-1.2771302
155	0x3eaa119e	0.33216566
156	0xbf9d47e3	-1.2287563
157	0x3dbc1312	0.09183325
158	0x3ea39344	0.31948292
159	0xbd7cf90e	-0.061760955
160	0xbf46d736	-0.77672136
161	0x3e69aa22	0.22818807
162	0x3e1cc5cd	0.1530983
163	0x3f160038	0.58594084
164	0xbd89e8bf	-0.06733846
165	0xbd9c8d9c	-0.07644197
166	0xbf10d35e	-0.5657252
167	0xbe3cc59c	-0.18434757
168	0xbe2bcc3c	-0.16777128
169	0xbd619f0f	-0.05508333
170	0xbebacf3e	-0.36486238
171	0x3e47a2af	0.19495653
172	0x3e91fef5	0.2851483
173	0xbecb0f7f	-0.3966026
174	0x3c07db41	0.00829202
175	0xbf5661f5	-0.8374322
176	0xbdcf6851	-0.10127319
177	0xbf51c359	-0.819387
178	0x3d84b7f0	0.06480396
179	0xbde289e3	-0.11061456
180	0x3e26fbc8	0.16306984
181	0xbdeb75fe	-0.114971146
182	0xbfb264e5	-1.393704
183	0x3f5eb943	0.87001437
184	0xbf143374	-0.5789101
185	0xbef06735	-0.4695374
186	0x3d5cc350	0.053897202
187	0xbe37fb71	-0.17967011
188	0xbcf2000f	-0.029541044
189	0x3f357fd9	0.70898205
190	0xbd15669f	-0.03647482
191	0xbda39373	-0.07987108

learning_to_down_sample.dsconv2.3.weight f4 [16]
0	0x3fc97a9c	1.5740542
1	0x3fa38fcc	1.2778258
2	0x3fcba582	1.5909884
3	0x3f958919	1.1682464
4	0x3fd4de7a	1.6630394
5	0x3fac57e4	1.3464322
6	0x3fb36332	1.4014647
7	0x3f8f2f67	1.1186341
8	0x3fc2e572	1.5226271
9	0x3fb623fd	1.4229733
10	0x3f91245e	1.1339223
11	0x3faea195	1.3643061
12	0x3fa2c7e6	1.2717254
13	0x3fd3ca97	1.65462
14	0x3fb0b3fe	1.3804929
15	0x400a9a66	2.1656737

learning_to_down_sample.dsconv2.3.bias f4 [16]
0	0x3e08731c	0.1332516
1	0x3d77e81f	0.060524102
2	0x3da6f8bd	0.08152912
3	0x3f792cbb	0.9733388
4	0x3e3c879e	0.18411109
5	0x3ee2c214	0.44288695
6	0x3e96f84e	0.29486316
7	0x3e66bba8	0.22532523
8	0x3f8bdd5b	1.0926927
9	0x3e3fafac	0.18719357
10	0x3e9176ad	0.28410855
11	0xbe80a883	-0.25128564
12	0xbe96c3f0	-0.29446363
13	0x3ca74b27	0.020421578
14	0x3d842d3b	0.064539395
15	0x3e0ad705	0.13558586

learning_to_down_sample.dsconv2.3.running_mean f4 [16]
0	0x3ce72a0a	0.028218288
1	0xbc84fffd	-0.016235346
2	0xbc191f80	-0.009345889
3	0x3d5ea440	0.05435586
4	0x3d063c72	0.03277249
5	0xbb59a19c	-0.00332079
6	0x3ded4ae1	0.11586548
7	0xbcca08a8	-0.02466233
8	0xbc5b3bbc	-0.013380941
9	0xbba8517a	-0.005136666
10	0xbbd6082b	-0.0065317354
11	0xbd3296ea	-0.043600954
12	0xbdcf948c	-0.10135755
13	0xbcb431bb	-0.02199637
14	0xbac49dcf	-0.0015000644
15	0x3cc0f475	0.023554066

learning_to_down_sample.dsconv2.3.running_var f4 [16]
0	0x40fcbb5d	7.8978715
1	0x4095bb0b	4.6790824
2	0x40cca023	6.394548
3	0x40df864e	6.9851446
4	0x40a3bd96	5.116893
5	0x40b8db8d	5.7768006
6	0x40ee84cc	7.4537106
7	0x3ff8c7fd	1.9436032
8	0x40da5818	6.8232536
9	0x40a5bff7	5.179683
10	0x4095f7cf	4.6865
11	0x408bfd8a	4.3746996
12	0x40d13da6	6.5387754
13	0x40de5893	6.9483123
14	0x405bb04e	3.4326358
15	0x411c150f	9.755141

global_feature_extractor.first_block.0.conv.0.weight f4 [96, 16, 1, 1]
0	0x3eb2ca1f	0.3491983
1	0xbe2068f3	-0.15665035
2	0xbdebf313	-0.11520972
3	0x3f179bbe	0.5922202
4	0xbebf5e3d	-0.37376586
5	0xbefad509	-0.48990658
6	0x3e7e3820	0.24826097
7	0x3f2346c0	0.6377983
8	0x3ec99427	0.39370844
9	0xbcdbf2f1	-0.026849242
10	0xbf0e1f4e	-0.5551652
11	0xbe9b8b14	-0.30379546
12	0xbefa508e	-0.48889583
13	0xbf1181bb	-0.5683858
14	0x3ecda3d3	0.4016405
15	0x3e98a8cb	0.2981628
16	0x3dda626c	0.10663304
17	0xbe8ae1c9	-0.27125385
18	0xbdf147c4	-0.11781266
19	0xbd9476f7	-0.07249253
20	0x3f2194ee	0.63117874
21	0xbeaba320	-0.33522892
22	0xbb8cd266	-0.0042975424
23	0xbf836e18	-1.0267973
24	0xbee29c56	-0.442599
25	0xbb88cdd8	-0.004174929
26	0x3f0dc701	0.5538178
27	0x3f0a205d	0.5395563
28	0x3ec382db	0.38185772
29	0xbf42ffba	-0.7617146
30	0xbe68abcf	-0.2272179
31	0x3f268398	0.65044546
32	0x3ee39cce	0.4445557
33	0xbf297487	-0.6619343
34	0xbf0db2e8	-0.55351114
35	0x3c65dc3a	0.014029557
36	0xbe630a9d	-0.22172017
37	0xbf38031e	-0.71879756
38	0x3e905d3d	0.28196135
39	0xbf23c302	-0.63969433
40	0x3db54e69	0.08852846
41	0x3f55a1b1	0.83449847
42	0x3e339381	0.17536737
43	0xbf007716	-0.5018171
44	0x3ef51427	0.47866938
45	0xbdb36eae	-0.08761345
46	0x3f5a915f	0.8537807
47	0xbde59f4f	-0.11212026
48	0x3f3d07fa	0.73840296
49	0xbec59aac	-0.38594568
50	0xbd358f54	-0.04432614
51	0x3f2b7879	0.669807
52	0xbe83946f	-0.25699183
53	0x3e8659fb	0.26240525
54	0x3f2766e3	0.6539137
55	0x3ef926af	0.48662326
56	0xbe35f6c9	-0.17769922
57	0x3ec9b292	0.3939405
58	0xbeeaf1ba	-0.45887548
59	0xbe4eef21	-0.20208408
60	0xbf05494f	-0.52064985
61	0x3dfb7737	0.12278598
62	0xbe823a09	-0.25434902
63	0x3ec076b1	0.37590554
64	0xbe97a925	-0.29621235
65	0xbeff292a	-0.49836093
66	0xbf1fe536	-0.62459123
67	0xbf857a5d	-1.0427967
68	0x3ed115b6	0.40836877
69	0xbcd3afd4	-0.025840677
70	0xbec4b679	-0.38420466
71	0xbe75b577	-0.23995005
72	0xbf6aedee	-0.917693
73	0xbe2aa4a0	-0.16664362
74	0x3f08c01d	0.5341814
75	0xbebf4766	-0.3735916
76	0x3fc376e6	1.527066
77	0x3d9f3ed3	0.07775655
78	0x3e05f0da	0.13080159
79	0x3df990f9	0.121858545
80	0x3eb64d8f	0.35606048
81	0x3e5c38ef	0.21506093
82	0x3e11f38c	0.14253062
83	0x3f3d4d2e	0.7394589
84	0xbf4eae27	-0.80734485
85	0xbe26695c	-0.16251129
86	0xbe30ab0f	-0.17252754
87	0x3e5c8db1	0.21538426
88	0xbd0424a7	-0.032261517
89	0xbe4ed9b3	-0.20200233
90	0xbece1ffe	-0.40258783
91	0xbe6e5e09	-0.23278059
92	0x3cb25fd0	0.021774203
93	0xbdbaa7f7	-0.09114068
94	0x3edf5789	0.43621472
95	0x3de9c4fb	0.11414524
96	0x3eb0cd67	0.3453171
97	0xbec49d44	-0.38401234
98	0xbab73c88	-0.0013979832
99	0x3e6c68df	0.2308688
100	0xbe0a9148	-0.13531983
101	0x3f82a35b	1.0206102
102	0x3ef85392	0.4850126
103	0x3f532dc9	0.8249174
104	0x3f02f716	0.51158273
105	0x3f18c569	0.59676224
106	0xbe363b57	-0.17796074
107	0xbf1c40fb	-0.6103665
108	0x3e5224ba	0.20521823
109	0xbe36663e	-0.1781244
110	0xbe99c35c	-0.3003186
111	0x3ed2f851	0.41205075
112	0x3e93b687	0.28850195
113	0x3ee2a355	0.44265237
114	0x3d21befc	0.039488778
115	0x3e7a99a6	0.24472675
116	0x3efda6fe	0.49541467
117	0x3dc8928d	0.09793577
118	0x3ed16f91	0.4090543
119	0xbe954f8f	-0.2916226
120	0x3f35c77c	0.71007514
121	0xbdadf3f2	-0.084937945
122	0xbddb49fc	-0.10707471
123	0xbd4efc9e	-0.050533883
124	0xbda11488	-0.07865244
125	0xbf1b832c	-0.6074703
126	0x3e974e12	0.2955175
127	0xbe1f9279	-0.15583219
128	0xbe346fb6	-0.1762074
129	0xbf22632c	-0.63432574
130	0x3f9567bc	1.1672282
131	0x3f32a06a	0.6977602
132	0xbeb855ac	-0.36002862
133	0xbf0df119	-0.5544601
134	0x3f027918	0.50966024
135	0xbedd9a9e	-0.43282026
136	0xbd786a3a	-0.06064818
137	0xbef1a9c8	-0.47199845
138	0xbedf3ad0	-0.43599558
139	0x3f3662f6	0.7124475
140	0xbebc3cac	-0.3676504
141	0xbe106bf3	-0.1410368
142	0x3e3af117	0.18256031
143	0x3e9ff411	0.31240895
144	0xbe8af295	-0.271382
145	0x3e39ec1b	0.18156473
146	0xbe4c88cc	-0.19974059
147	0xbef9dc59	-0.48800924
148	0x3ef88fc9	0.485472
149	0x3f303f0c	0.688462
150	0x3db6cd8b	0.08925923
151	0xbc55397f	-0.013014196
152	0xbea4c2a3	-0.32179746
153	0x3ea7659a	0.32694703
154	0xbf1064cb	-0.564038
155	0xbd825a18	-0.0636484
156	0x3ed8472e	0.42241806
157	0x3f571f87	0.8403248
158	0xbecb879f	-0.39751908
159	0xbdce188f	-0.10063278
160	0xbe34cf06	-0.17657098
161	0xbe7c2f08	-0.24627316
162	0xbf189bc0	-0.59612656
163	0xbf01d9e7	-0.5072312
164	0x3ee1aec7	0.44078657
165	0xbcb13cf4	-0.02163551
166	0xbd6c3f6b	-0.057677668
167	0xbe90ffd6	-0.28320187
168	0x3ba51041	0.005037338
169	0x3f028a20	0.5099201
170	0x3eda1fb5	0.42602316
171	0xbeee0f33	-0.4649597
172	0x3e990375	0.2988545
173	0xbc036894	-0.008020539
174	0x3e9bfa67	0.3046448
175	0x3f5653f7	0.8372187
176	0x3e9d3395	0.30703416
177	0xbd7b2d7c	-0.061322674
178	0xbf92540f	-1.1431903
179	0xbe5de99a	-0.21671143
180	0x3e5afeb3	0.21386223
181	0xbf393e17	-0.72360367
182	0xbe739536	-0.23787388
183	0xbef278ed	-0.47357884
184	0x3e85a052	0.26098877
185	0x3f08d459	0.53449017
186	0xbe779f1b	-0.24181788
187	0xbec483aa	-0.38381702
188	0xbea8bb8c	-0.32955587
189	0x3f42db66	0.76116025
190	0xbe59504c	-0.21222037
191	0x3db78ac6	0.08962016
192	0x3e85d65c	0.26140106
193	0xbefedb1b	-0.4977654
194	0xbe9f5bc8	-0.3112471
195	0x3d669b16	0.056300245
196	0x3d1bcb10	0.038035452
197	0xbdaf2f39	-0.08553929
198	0x3e525494	0.20540076
199	0x3dcdeb27	0.100546174
200	0x3e20293f	0.15640734
201	0xbe26468d	-0.1623785
202	0xbf106845	-0.564091
203	0x3e86b3b7	0.26308987
204	0xbf265fe9	-0.649901
205	0xbefc60f9	-0.49292734
206	0xbb9e8ae8	-0.0048383363
207	0x3f11c1a6	0.5693611
208	0x3f107f3c	0.56444144
209	0xbe58883b	-0.21145718
210	0xbdc47430	-0.095924735
211	0x3f209e24	0.62741303
212	0x3e9a5ccb	0.3014892
213	0x3ed71f10	0.42015886
214	0x3ebcea30	0.3689742
215	0x3f115dce	0.5678376
216	0x3ee4f1e7	0.44715807
217	0xbf069eec	-0.52586246
218	0x3dffc860	0.124893904
219	0xbd736799	-0.05942497
220	0xbed92944	-0.42414296
221	0xbed1fd8e	-0.4101376
222	0x3d8d0c97	0.06887167
223	0xbe13b473	-0.14424305
224	0x3f2b69db	0.669584
225	0xbeee8493	-0.4658552
226	0x3df1cf5f	0.11807131
227	0x3f96587f	1.1745757
228	0xbf16fc11	-0.5897837
229	0x3d4d722e	0.05015772
230	0x3f0f6c56	0.5602468
231	0x3f19c288	0.60062456
232	0xbc44228e	-0.011971129
233	0xbf305910	-0.688859
234	0xbec4b23e	-0.38417238
235	0xbe1189b3	-0.14212684
236	0xbed7ccbe	-0.42148393
237	0xbd7e853d	-0.062138785
238	0x3a82632d	0.000994777
239	0x3e906268	0.28200078
240	0x3e57454b	0.21022527
241	0x3ea99854	0.3312403
242	0xbd33be79	-0.04388282
243	0x3c03e58a	0.008050332
244	0x3d77a16f	0.06045669
245	0xbed2edf2	-0.41197163
246	0xbdfc0cc9	-0.12307126
247	0x3ea9c27b	0.3315619
248	0x3f8ca8dc	1.0989032
249	0xbebd1dfb	-0.36936936
250	0x3e8edd18	0.27903056
251	0x3e2cea54	0.16886264
252	0xbe7b707e	-0.24554631
253	0xbe738689	-0.2378179
254	0xbec67ec1	-0.3876858
255	0xbde52b2d	-0.11189876

global_feature_extractor.first_block.0.conv.1.weight f4 [96]
0	0x3f0b6112	0.5444499
1	0x4036caf6	2.8561378
2	0x3fb988f0	1.4494915
3	0x3ef51713	0.47869167
4	0x40028a67	2.0396974
5	0x3e65c9f9	0.22440328
6	0x3f98621f	1.1904944
7	0x3faab8ed	1.3337685
8	0x3fe1c848	1.7639246
9	0x3fbb0f40	1.4614029
10	0x3fd5341b	1.6656526
11	0x3f8a54d7	1.0807141
12	0xbf21c76c	-0.6319492
13	0x3fa46092	1.2841971
14	0x3f12c484	0.5733111
15	0x3f52fd70	0.82417965
16	0x3fe1dd54	1.7645669
17	0x3f65ed1a	0.89814913
18	0x3f8dbe41	1.1073686
19	0x3fdb73fb	1.714477
20	0x3f936bfa	1.1517327
21	0x3f8a1fdd	1.0790974
22	0x3fcd7a61	1.6052972
23	0x3f97ee60	1.1869621
24	0x3fa76a33	1.3079284
25	0x401b13e3	2.4230888
26	0x3f93e394	1.1553826
27	0x40028492	2.0393414
28	0x3fa49cda	1.2860367
29	0x3fe31feb	1.7744116
30	0x3ff56e23	1.9174236
31	0x3fdf7d47	1.7460107
32	0x3fe954ad	1.8228966
33	0x3fcd87cc	1.6057067
34	0x3fa4c3a0	1.28722
35	0x3f4a62e1	0.7905713
36	0x3f519d92	0.8188106
37	0x3fa860fe	1.31546
38	0x3f00209b	0.5004975
39	0x3fc0bc06	1.505738
40	0x3fb15bbb	1.3856119
41	0x3fa7c1e2	1.3106043
42	0x3fa37fc8	1.2773371
43	0x3f55fb6a	0.8358675
44	0x3f4def25	0.8044303
45	0x3fac74c5	1.3473135
46	0x3fbf8e54	1.496531
47	0x3fc991ef	1.574766
48	0x3f589983	0.8460924
49	0x4013ef57	2.3114831
50	0x3f9a17de	1.2038534
51	0x3fe99299	1.8247863
52	0xbee85f0f	-0.45385024
53	0x3fe0949e	1.7545354
54	0x3fad886c	1.3557258
55	0x3fc1e4c4	1.5147939
56	0x3f9cdaf1	1.2254316
57	0x3f8b0dfd	1.0863644
58	0x3f8cae93	1.0990776
59	0x3eea2d38	0.45737624
60	0x3fbd5b89	1.4793559
61	0x3ff159e8	1.8855562
62	0x4026922f	2.6026723
63	0x3fae6680	1.362503
64	0x3ed248ce	0.4107117
65	0x3fa3ac05	1.2786871
66	0x3f8bda26	1.0925949
67	0x40068bca	2.102282
68	0x3f584cb6	0.8449205
69	0x3f86dbaa	1.0535786
70	0x3ff1f5b4	1.8903108
71	0x3ff602e7	1.9219636
72	0x3f9993b9	1.1998206
73	0x3fb91382	1.4459078
74	0x3f4837e0	0.7821026
75	0x3f55ff1e	0.835924
76	0x3f047bda	0.5175148
77	0x3f5d35ab	0.86410016
78	0x3f908383	1.1290134
79	0xbf29329e	-0.6609286
80	0x3fae436b	1.3614324
81	0x3f8da77e	1.106674
82	0x3fa9f4cc	1.3277831
83	0x3ff40504	1.9064031
84	0x3f802d04	1.0013738
85	0x3fbc3de1	1.4706384
86	0x3f98ddae	1.1942651
87	0x3f9f3d12	1.2440512
88	0x3fb940be	1.4472883
89	0x3fa2d06b	1.2719854
90	0x3f8d6a9f	1.1048163
91	0x3f036e86	0.5134052
92	0x3fa14d33	1.2601684
93	0x3fbf0eec	1.4926429
94	0x3fe190f3	1.762236
95	0x3fe1d0fa	1.76419

global_feature_extractor.first_block.0.conv.1.bias f4 [96]
0	0x3f348e36	0.70529497
1	0xbda59471	-0.080849536
2	0xbeb06401	-0.34451297
3	0x3f2d9fd4	0.67822003
4	0xbc87477a	-0.016513575
5	0x3f5dfa52	0.86710083
6	0xbde68e04	-0.11257556
7	0xbe3e57db	-0.18588202
8	0x3cd13f82	0.025542978
9	0xbde36539	-0.11103291
10	0xbe3c47a7	-0.18386708
11	0x3e8374dc	0.25675094
12	0x3ea74345	0.3266851
13	0xbd094ab4	-0.033518508
14	0x3f6da9a3	0.9283697
15	0xbea94869	-0.33063057
16	0xbe4f7a15	-0.20261414
17	0xbf1288ac	-0.57239795
18	0x3e8fed62	0.28110796
19	0xbe38adac	-0.18035
20	0x3ef595b4	0.47965777
21	0x3ec98332	0.39357907
22	0xbe714f4e	-0.23565409
23	0x3e34a06d	0.17639323
24	0xbd3540b4	-0.04425116
25	0x3d30d5b0	0.04317254
26	0xbf1010db	-0.5627572
27	0x3d525477	0.051350083
28	0x3eb610bd	0.35559645
29	0x3e61e2f3	0.2205923
30	0x3da5183e	0.080612645
31	0xbe42d7d8	-0.1902765
32	0xbdc737f3	-0.09727468
33	0xbd10404d	-0.035217572
34	0xbe0fa870	-0.14029098
35	0xbf043361	-0.516409
36	0xbeb4e10b	-0.35327944
37	0x3e68890e	0.22708532
38	0x3f66c866	0.90149534
39	0x3e75cd56	0.2400411
40	0x3e02eda7	0.1278597
41	0x3ddae196	0.10687558
42	0x3e98629b	0.2976273
43	0xbefe7ada	-0.49703103
44	0x3f08465c	0.5323236
45	0x3e42f03b	0.19036953
46	0xbc26a678	-0.010171525
47	0x3f016cf6	0.50556886
48	0x3f13aeb0	0.57688427
49	0xb8e5b084	-0.000109524495
50	0x3f069d4b	0.5258376
51	0x3dbb2d41	0.09139491
52	0x3ef0b7a0	0.47015095
53	0xbd6e73d4	-0.05821593
54	0x3eeaf0ef	0.45886943
55	0xbd73bf41	-0.059508566
56	0xbeae524e	-0.34047168
57	0x3ef5d707	0.48015615
58	0xbed5e641	-0.41777232
59	0x3f7bd462	0.98370945
60	0x3e9e9f54	0.30980933
61	0xbcc45420	-0.023965895
62	0x3e8a3b16	0.26998204
63	0xbec8ce86	-0.39220065
64	0xbf1af3c9	-0.60528237
65	0xbe3eeba9	-0.18644585
66	0xbeff3961	-0.49848464
67	0xbe971f44	-0.2951604
68	0x3f1b850c	0.6074989
69	0x3d182a9d	0.037150014
70	0x3e8ae298	0.27126002
71	0xbc00a6e2	-0.007852288
72	0xbf0948c2	-0.53626645
73	0xbde7f688	-0.11326319
74	0xbef8c1d6	-0.48585385
75	0x3ee83e51	0.45360044
76	0x3f5bbe6d	0.8583744
77	0x3e48f3fc	0.19624323
78	0xbee03aa2	-0.43794733
79	0x3e000eb0	0.12505603
80	0x3e02042a	0.12696901
81	0xbe893b93	-0.26803264
82	0xbe9e63f6	-0.3093564
83	0x3daf292c	0.08552775
84	0x3ef1803c	0.47168148
85	0xbc8f6e7b	-0.017508736
86	0x3eb86961	0.36017898
87	0xbeb3ded0	-0.3513093
88	0xbdec7622	-0.115459695
89	0x3e1deea5	0.15423067
90	0x3ebf9cba	0.3742426
91	0x3f672ced	0.90302926
92	0x3ebd8e7b	0.37022766
93	0x3e19c409	0.15016188
94	0xbdc86ac8	-0.09785992
95	0xbda7f7d1	-0.08201564

global_feature_extractor.first_block.0.conv.1.running_mean f4 [96]
0	0x3f1036a7	0.5633339
1	0xbef9cebb	-0.48790535
2	0xbe96bb30	-0.29439688
3	0x3fb32d13	1.399813
4	0xc020f7fe	-2.5151362
5	0x3ea2f088	0.31824136
6	0x4020c0f2	2.5117764
7	0x3fd4edbf	1.6635054
8	0x3ed0c220	0.40773106
9	0xbda94fe0	-0.08267188
10	0x3e4ea1b1	0.20178868
11	0xbf839ca4	-1.0282178
12	0xbe80ee1c	-0.25181663
13	0x3fe63993	1.798632
14	0x3f9a80a6	1.207051
15	0x3f803daf	1.0018824
16	0x3fbbc325	1.4668928
17	0x402a909c	2.6650763
18	0xbd9a61b1	-0.075381644
19	0xbf19e8e4	-0.6012099
20	0x3e5abbfb	0.21360771
21	0xbfe8b518	-1.8180265
22	0x3f2d005f	0.6757869
23	0x3ec7d9b9	0.39033297
24	0x3ee8bdc8	0.45457292
25	0x3f210f47	0.62913936
26	0x3fe875f2	1.8160994
27	0x3f980d66	1.1879089
28	0x3edfe178	0.43726707
29	0x3f53dd80	0.8275986
30	0x3f9e63ce	1.2374208
31	0xbf509f8a	-0.8149344
32	0xbd79ba44	-0.060968652
33	0xbe5751e9	-0.2102734
34	0x401b000c	2.4218779
35	0x3fbf7fdd	1.4960896
36	0x40096c34	2.1472292
37	0x40228309	2.5392478
38	0xbf75e025	-0.9604514
39	0xbf933a4e	-1.1502168
40	0xbfb5916d	-1.4185005
41	0xbe576192	-0.21033314
42	0xbe5935b6	-0.21211895
43	0x3f3d9ace	0.7406434
44	0xbfc1db70	-1.5145092
45	0xbe903526	-0.2816555
46	0xbea0fd91	-0.31443456
47	0xbf93d35e	-1.1548879
48	0xbe2dedde	-0.1698527
49	0xbf5e7df6	-0.8691095
50	0xc0029849	-2.0405447
51	0x3f1e5423	0.6184713
52	0xbfc59eb3	-1.5439056
53	0x3fec45be	1.8458784
54	0xbf6a76a8	-0.91587305
55	0xbead3823	-0.3383189
56	0x40017c41	2.0232089
57	0x3d7bd775	0.061484773
58	0x3e082bee	0.13298008
59	0x3f947046	1.1596763
60	0xbe83f7eb	-0.25775084
61	0x3ee80ab6	0.45320672
62	0xbf3a48b3	-0.7276718
63	0xbeab26bd	-0.33427992
64	0x3fd53c53	1.6659034
65	0xbf2231f6	-0.63357484
66	0x4059e3f8	3.404539
67	0x40160507	2.3440568
68	0xbe877bf4	-0.26461756
69	0x3ff2596a	1.8933537
70	0x4013651d	2.3030465
71	0x3cbbef20	0.022941172
72	0x3ff1989a	1.8874695
73	0x4012df7e	2.2948909
74	0x40015b41	2.0211947
75	0x3f567965	0.83778983
76	0x3e188e44	0.1489802
77	0x3ff1b6c2	1.8883898
78	0x3cacfee4	0.021117635
79	0xc011a293	-2.2755477
80	0x3f4dd48e	0.8040246
81	0x3f5faa45	0.87369186
82	0x3fbf99d1	1.4968816
83	0x3e822517	0.25418922
84	0x400c3b48	2.1911182
85	0x3f9ccce4	1.2250028
86	0x3ff079c3	1.8787159
87	0xbefc0cd7	-0.49228546
88	0xc04d19a1	-3.2046893
89	0x3d9425a1	0.0723374
90	0x3f65decb	0.8979308
91	0xbf1e9438	-0.61944914
92	0x3f244ebe	0.6418265
93	0x3f2d74da	0.67756426
94	0xbf2ff1fe	-0.68728626
95	0x3d7ff89f	0.062492963

global_feature_extractor.first_block.0.conv.1.running_var f4 [96]
0	0x40a041af	5.008018
1	0x40a5e4ac	5.184164
2	0x4099a808	4.8017616
3	0x406d3880	3.7065735
4	0x411fb0bf	9.980651
5	0x4042b680	3.042389
6	0x402fc2f0	2.746273
7	0x402413e0	2.563713
8	0x40df1624	6.9714527
9	0x40987559	4.7643247
10	0x40c5312f	6.162254
11	0x40976017	4.7304797
12	0x3ffa2768	1.9543276
13	0x4081feb3	4.062341
14	0x40f82115	7.7540383
15	0x4059eecb	3.4051998
16	0x40e02297	7.0042224
17	0x4073e205	3.8106701
18	0x4080d9fb	4.026609
19	0x409cd5a4	4.901079
20	0x40f945d4	7.789774
21	0x3fcd1444	1.602181
22	0x3ff9ee23	1.9525799
23	0x40777566	3.8665404
24	0x3f06d3fe	0.52667224
25	0x40c359e2	6.104722
26	0x4091b6ae	4.55355
27	0x406b2c91	3.674595
28	0x40e17955	7.046061
29	0x40bacc4f	5.83744
30	0x4105b405	8.35645
31	0x40999972	4.799981
32	0x405d48a5	3.4575589
33	0x409032c2	4.506196
34	0x40312c1c	2.7683172
35	0x40838284	4.109682
36	0x4086777a	4.2020845
37	0x40a3cc0a	5.118657
38	0x40c6c2ce	6.21128
39	0x4095700e	4.6699286
40	0x40f5d0d1	7.6817403
41	0x40b15b52	5.5423975
42	0x40053fd0	2.0820198
43	0x404b8fac	3.180644
44	0x4086b06a	4.209035
45	0x40299ec4	2.6503153
46	0x403b60d5	2.9277852
47	0x406359e2	3.552361
48	0x40cb5ef1	6.3553395
49	0x405bc844	3.4340982
50	0x4077320c	3.8624296
51	0x4108e976	8.556997
52	0x3fed9b8b	1.8563093
53	0x408491e6	4.14281
54	0x40ed5481	7.4165654
55	0x4081961a	4.049573
56	0x4061418a	3.5196252
57	0x404a3e96	3.16007
58	0x407c41e7	3.9415224
59	0x40b0f460	5.529831
60	0x401c911a	2.4463563
61	0x404fd7ba	3.247542
62	0x409b0d39	4.845364
63	0x400f8400	2.2424316
64	0x3fc49bd1	1.5360051
65	0x406ed2b1	3.7316096
66	0x40a2f066	5.0918455
67	0x40cb47e1	6.3525243
68	0x40cb1083	6.3457656
69	0x40d0f856	6.5303144
70	0x40b4f88f	5.6553416
71	0x40629aaf	3.5406911
72	0x40f080db	7.5157294
73	0x4092aac8	4.5833473
74	0x409c67e3	4.8876815
75	0x40a3ea6b	5.1223655
76	0x4044baa7	3.0738924
77	0x4073cf91	3.8095438
78	0x402da16a	2.712977
79	0x402230b1	2.534222
80	0x406a585c	3.661643
81	0x3fc41ddf	1.5321616
82	0x40682df6	3.6278052
83	0x408a8a01	4.329346
84	0x40c03e05	6.0075707
85	0x408a49c3	4.321504
86	0x40ca7b22	6.327531
87	0x40c675b6	6.201869
88	0x4070b705	3.7611706
89	0x40806166	4.0118895
90	0x403d95c4	2.962266
91	0x40ed52b9	7.416348
92	0x40c15d15	6.0426126
93	0x405744c1	3.3635714
94	0x40a84460	5.2583466
95	0x40a19411	5.0493245

global_feature_extractor.first_block.0.conv.3.weight f4 [96, 1, 3, 3]
0	0xbece08c6	-0.4024107
1	0xbf5b17ca	-0.85583174
2	0xbed5e119	-0.41773298
3	0x3e45ffdc	0.19335884
4	0xbf0823dc	-0.5317972
5	0xbef6be05	-0.48191848
6	0x3eea4484	0.45755398
7	0x3e65422f	0.22388528
8	0xbf779284	-0.9670794
9	0xbea50937	-0.32233593
10	0x3eaa2c03	0.33236703
11	0x3f0ea582	0.55721295
12	0x3c086096	0.008323809
13	0x3f4330ef	0.7624654
14	0x3f807e37	1.0038518
15	0xbda419d1	-0.080127366
16	0x3f295ad0	0.66154194
17	0x3e6480b7	0.22314726
18	0xbe5af302	-0.21381763
19	0x3f2a4c4e	0.6652268
20	0x3e5f29f2	0.21793345
21	0xbeae1a54	-0.34004462
22	0x3f7d3d26	0.9892143
23	0x3f04bd70	0.5185156
24	0x3e272116	0.16321215
25	0x3eb8fca7	0.36130258
26	0xbecfa812	-0.40557915
27	0x3f162fea	0.5866686
28	0x3f70c8b0	0.94056225
29	0x3eb492ac	0.35268152
30	0x3d4dbf3d	0.050231207
31	0x3ec34840	0.3814106
32	0x3f795331	0.97392565
33	0xbf169ae8	-0.5883012
34	0xbe9144d1	-0.28372815
35	0x3e0fe478	0.14051998
36	0xbefa7d58	-0.48923755
37	0xbecfeb43	-0.40609178
38	0xbf317e7e	-0.69333637
39	0x3f06b860	0.52625084
40	0x3eddfe60	0.43358135
41	0xbccd064a	-0.025027413
42	0x3c9b4da0	0.018957913
43	0x3f40bccd	0.7528809
44	0x3f34cadd	0.70622045
45	0x3cd24b9f	0.025670825
46	0xbedd6418	-0.43240428
47	0xbeb9c0a6	-0.36279792
48	0x3e9b7887	0.30365393
49	0xbf2dca3f	-0.6788673
50	0xbf22207d	-0.63330823
51	0x3f21f020	0.63257027
52	0x3e9407bc	0.2891215
53	0x3da3f62d	0.08005939
54	0xbded1474	-0.11576167
55	0x3f8dcd0f	1.1078204
56	0xbe580bf7	-0.21098314
57	0xbc66eda1	-0.014094741
58	0x3f3691bb	0.7131612
59	0x3e653db4	0.22386819
60	0x3d5f2972	0.054482885
61	0xbf2aa509	-0.66658074
62	0xbf2c1948	-0.67226076
63	0xbec9d976	-0.39423722
64	0x3ddc2eb1	0.10751093
65	0xbf42f55c	-0.7615564
66	0xbe06e21d	-0.13172193
67	0x3f025401	0.5090943
68	0x3d93c81f	0.072159044
69	0xbeefabbf	-0.4681072
70	0x3f216776	0.63048494
71	0x3e874f97	0.2642791
72	0xbec9da86	-0.39424533
73	0xbede6ea1	-0.43443778
74	0xbefbb987	-0.49164984
75	0x3dfbcf4a	0.122953966
76	0x3efaffdb	0.49023327
77	0x3ee3d3ec	0.4449762
78	0x3ec0bf75	0.3764607
79	0x3f8fdb1a	1.123874
80	0x3f1e655a	0.618734
81	0xbdbd42e4	-0.09241274
82	0xbf0da157	-0.5532431
83	0xbde3b8cb	-0.11119231
84	0x3ee9e37f	0.45681378
85	0x3d16b747	0.03679588
86	0x3f25fcee	0.64839065
87	0xbf2067fe	-0.6265868
88	0xbec401c8	-0.3828261
89	0x3ec7da32	0.39033657
90	0xbd85267d	-0.06501482
91	0x3dd99094	0.10623279
92	0x3e14f6fe	0.14547345
93	0xbecaceef	-0.39611003
94	0x3fb0ebe7	1.3821992
95	0x3e9fc53a	0.3120516
96	0x3d594b06	0.053050064
97	0xbc05785a	-0.00814637
98	0x3ccebc7b	0.025236359
99	0xbe5ae8b9	-0.21377839
100	0x3e82ee7e	0.2557258
101	0x3e44a032	0.19201735
102	0xbdbac443	-0.09119465
103	0x3f4b2932	0.79359734
104	0x3f720f42	0.9455453
105	0x3e014d09	0.12627043
106	0xbeaedbc9	-0.34152058
107	0xbea9fc95	-0.33200517
108	0xbd21cf3e	-0.039504282
109	0x3dca3d2f	0.09874951
110	0x3dcabcd7	0.098992996
111	0xbec59afb	-0.38594803
112	0x3e337b58	0.1752752
113	0xbe381269	-0.17975773
114	0x3d81756f	0.06321227
115	0x3ed90f7a	0.4239462
116	0x3f1fec53	0.6246998
117	0x3d429f22	0.047515042
118	0xbea039ea	-0.31294185
119	0xbf2b1c99	-0.6684051
120	0xbf7af7bb	-0.98034257
121	0xbedfffc7	-0.4374983
122	0xbe604923	-0.219029
123	0xbceec20d	-0.029145265
124	0xbed0d4cc	-0.4078735
125	0xbe5b2c2b	-0.21403567
126	0xbc2f9932	-0.010717677
127	0x3f8f4b97	1.1194943
128	0x3f1aed4a	0.60518324
129	0xbeb3f419	-0.3514717
130	0xbdb67206	-0.08908467
131	0xbc933b1e	-0.017972525
132	0xbf2117d2	-0.6292697
133	0xbef9f121	-0.4881678
134	0xbf087c0e	-0.5331429
135	0x3ed0a1df	0.40748498
136	0x3ef4e2eb	0.47829375
137	0x3f23c7d6	0.639768
138	0xbec43357	-0.3832042
139	0xbe19ff36	-0.15038761
140	0xbd2ee1b7	-0.042695727
141	0x3c287f55	0.010284265
142	0xbe51a255	-0.20472081
143	0xbe248e25	-0.16069849
144	0x3d2f4ae4	0.04279603
145	0xbddfe8e7	-0.109330945
146	0xbdb989c7	-0.09059482
147	0xbe945e50	-0.28978205
148	0xbf7bff76	-0.9843668
149	0xbf0d64d9	-0.55232006
150	0xbdc48625	-0.095958985
151	0xbf2164e7	-0.6304459
152	0xbf397b5a	-0.72453845
153	0xbeaa899d	-0.33308116
154	0xbd6cb200	-0.05778694
155	0xbe7e32f4	-0.24824125
156	0xbbf7be18	-0.0075605027
157	0xbd9825fb	-0.07429119
158	0xbebc3f2e	-0.36766952
159	0x3f20f59e	0.6287478
160	0x3f3b5cbd	0.7318838
161	0x3f1889f1	0.5958548
162	0x3f38e738	0.7222781
163	0x3eb26637	0.3484361
164	0x3ece37eb	0.40277037
165	0xbec1d92d	-0.37861004
166	0xbf1e103f	-0.6174354
167	0xbd72adf1	-0.059247915
168	0x3d8874bd	0.06662891
169	0x3c429c18	0.011878036
170	0xbf112178	-0.56691694
171	0xbe776a81	-0.24161722
172	0xbd81f0c1	-0.06344748
173	0xbeaeec2e	-0.34164566
174	0xbe5aac70	-0.21354842
175	0x3f708de7	0.93966526
176	0xbe09b9ea	-0.13449827
177	0xbee36bdb	-0.44418225
178	0x3eec2689	0.4612315
179	0xbf513559	-0.8172203
180	0x3e34927e	0.17634007
181	0xbf003974	-0.50087667
182	0xbe01235d	-0.12611146
183	0x3ecde363	0.40212545
184	0x3f11ed19	0.5700241
185	0x3ec50a0f	0.38484237
186	0xbd34601a	-0.044036962
187	0x3f88d986	1.0691383
188	0x3f233654	0.63754773
189	0xbdd26c5d	-0.10274575
190	0xbee91579	-0.45524195
191	0xbf02d9de	-0.5111369
192	0xbf129bdd	-0.5726908
193	0xbec719ed	-0.38886967
194	0xbd055f7e	-0.03256177
195	0xbee3f586	-0.44523257
196	0xbea75b44	-0.32686818
197	0x3ec2f1f3	0.38075218
198	0xbeeec83b	-0.4663714
199	0xbea53b4b	-0.322718
200	0xbe9ec6c3	-0.31011018
201	0x3e1c27a7	0.15249501
202	0xbea4d503	-0.32193765
203	0xbf299e16	-0.66256845
204	0xbec035ab	-0.37540945
205	0xbe3449f3	-0.17606334
206	0xbefab4a0	-0.4896593
207	0x3d940eb9	0.072293706
208	0xbe7b83a0	-0.2456193
209	0xbf2039a6	-0.62587965
210	0xbe21546d	-0.15754862
211	0x3ededeb5	0.43529287
212	0x3ec00b4f	0.37508628
213	0xbe838e97	-0.25694725
214	0x3f374b48	0.71599245
215	0xbeee8c75	-0.46591535
216	0xbe7da8a8	-0.24771369
217	0xbd254be3	-0.040355574
218	0xbf093a41	-0.53604513
219	0xbf2c080a	-0.67199767
220	0x3d9ad857	0.07560795
221	0xbe8076e1	-0.25090697
222	0x3e6b1ea8	0.22960913
223	0xbdaf9a05	-0.08574299
224	0xbdd64c14	-0.104637295
225	0xbe900b9e	-0.28133863
226	0xbe91da5a	-0.28486902
227	0x3e51d543	0.20491509
228	0xbf0c1ed2	-0.5473453
229	0xbf07268d	-0.527932
230	0xbee83a56	-0.45357007
231	0xbf71deb4	-0.94480443
232	0xbf5b9aba	-0.8578297
233	0xbf1fe0ab	-0.6245219
234	0xbe81ccea	-0.2535165
235	0xbd5415aa	-0.051778473
236	0xbecbbf27	-0.39794275
237	0x3e87cdc5	0.26524177
238	0x3fba41f1	1.4551374
239	0xbd45f7cb	-0.048332017
240	0xbe3ff3b8	-0.18745315
241	0x3e2f4a7e	0.1711826
242	0x3d735474	0.059406713
243	0x3d4f10b3	0.050553035
244	0xbf6b5163	-0.9192106
245	0x3e0dac0e	0.13835165
246	0x3f0b8170	0.5449438
247	0x3f22536c	0.6340854
248	0x3f21448e	0.6299523
249	0x3e499386	0.19685182
250	0x3f66d572	0.9016944
251	0xbe76911a	-0.2407879
252	0xbd89f278	-0.067357
253	0xbe367e57	-0.17821632
254	0xbf0d9a9c	-0.5531404
255	0xbddf190c	-0.10893449

global_feature_extractor.first_block.0.conv.4.weight f4 [96]
0	0x3fac1b97	1.344592
1	0x3f67f1ee	0.9060353
2	0x3f8a3e3c	1.0800242
3	0x3f7c52ed	0.98564035
4	0x3f9a0b73	1.2034744
5	0x3f1a2bc3	0.60223025
6	0x3fa920d3	1.3213142
7	0x3f7490a4	0.95533204
8	0x3fb0ad83	1.3802952
9	0x3f66742c	0.90021014
10	0x3f5c27b8	0.85998106
11	0x3f396e40	0.72433853
12	0x3ee8fe1c	0.4550637
13	0x3f6c168b	0.922219
14	0x3fde1e19	1.7352935
15	0x3f4afa8b	0.7928855
16	0x3faa2e0e	1.3295305
17	0x3f3e9afc	0.7445524
18	0x3f47129c	0.7776277
19	0x3fc4b68a	1.5368207
20	0x3f67ac78	0.9049754
21	0x3f846056	1.0341899
22	0x3f710c1d	0.9415911
23	0x3f217ce5	0.630812
24	0x3eb0b8a1	0.3451586
25	0x3fa06a73	1.2532486
26	0x3f663a5a	0.8993279
27	0x3f8aa001	1.0830079
28	0x3f64ad44	0.8932688
29	0x3f74f6e1	0.9568921
30	0x3fd25ff7	1.6435536
31	0x3f70bd84	0.9403918
32	0x3fcabbad	1.5838524
33	0x3f70291e	0.9381274
34	0x3f695558	0.9114585
35	0x3f683b9d	0.9071596
36	0x3fb05ad0	1.3777714
37	0x3f6e7216	0.9314283
38	0x3fdbb3be	1.7164228
39	0x3faf5856	1.3698833
40	0x3f7f23c8	0.9966397
41	0x3f36607d	0.7124098
42	0x3ee90aba	0.45515996
43	0x3f97c6f8	1.1857595
44	0x3fcabdec	1.583921
45	0x3f9814f8	1.1881399
46	0x3f81e502	1.0148013
47	0x3f9c6583	1.2218479
48	0x3fae334f	1.3609408
49	0x3f5242b3	0.82133025
50	0x3f9e723e	1.2378614
51	0x3fc2f6d6	1.5231578
52	0x3ef4839a	0.47756654
53	0x3f4ea339	0.8071781
54	0x3fb84ff2	1.4399397
55	0x3f11d98e	0.5697259
56	0x3f6b65d3	0.91952246
57	0x3f5f94e4	0.87336564
58	0x3f8b3cbc	1.087791
59	0x3f8ea095	1.1142756
60	0x3f6891c3	0.90847415
61	0x3f298792	0.6622249
62	0x3f4cb4d7	0.7996344
63	0x3f930fd2	1.1489203
64	0x3f4f51c8	0.80984163
65	0x3fb0f114	1.3823571
66	0x3fb01c41	1.3758622
67	0x3fb5d081	1.4204255
68	0x3f5d000d	0.863282
69	0x3f75db51	0.96037775
70	0x3fa9f4e3	1.3277858
71	0x3f8d7669	1.1051761
72	0x3fa6ed48	1.3041162
73	0x3f852ae2	1.0403712
74	0x3fbc44ff	1.4708556
75	0x3fe13dc7	1.7596978
76	0x3f8e5822	1.1120646
77	0x3f83c215	1.0293604
78	0x3fe2cc01	1.7718507
79	0x3f281ed5	0.65672046
80	0x3f5233d7	0.8211035
81	0x3ea29778	0.31756186
82	0x3f8a6e16	1.0814846
83	0x3f2a39b0	0.66494274
84	0x3fd17bc1	1.6365892
85	0x3f966064	1.1748166
86	0x4008bb54	2.1364336
87	0x3fc70742	1.554909
88	0x3f13186a	0.5745913
89	0x3f1b91e0	0.6076946
90	0x3f0dcb2c	0.5538814
91	0x3ff043c9	1.8770686
92	0x3f7598f3	0.95936507
93	0x3f57230a	0.8403784
94	0x3f2148c4	0.63001657
95	0x3f644c37	0.89178795
