model_checkpoints/experiments/overall/fastscnn_192a0.125t2r1pp0.pt (torch, 65539 bytes, 106 tensors)

learning_to_down_sample.conv.conv.weight f4 [4, 3, 3, 3]
000000 ee ff e2 bd 9d 0d 0e 3e 4f 3a 71 3e 46 9f 92 3e
       -0.11083971 0.1387238 0.23557399 0.2863714
000010 4b 8a 04 be 01 b2 4c bd 91 86 48 3f 00 24 f6 be
       -0.1294338 -0.049974445 0.7833033 -0.4807434
000020 06 02 10 bf fb d0 e2 3e 5b 3a e2 3d eb b9 f8 bd
       -0.5625309 0.44300064 0.11046287 -0.12144836
000030 b2 ab 2f 3f 72 aa 01 bf c5 1d c3 be c0 f3 83 3f
       0.6862136 -0.50650704 -0.3810865 1.0308762
000040 d9 3f 12 bf 57 e8 5b bf 37 8b a0 3e 55 05 53 3d
       -0.57128674 -0.859014 0.31356212 0.051518757
000050 2d fd a1 bd 99 2c 02 3f 23 19 c6 be 1e de dc be
       -0.079096176 0.508493 -0.38691053 -0.43138212
000060 98 76 8c 3f 52 9b a1 be 7f bb 2e bf eb 83 85 be
       1.0973692 -0.31563812 -0.68254846 -0.26077208
000070 fb 64 4c 3c 0b 77 03 3d 06 32 ab 3d 2a 63 44 be
       0.0124752475 0.03209595 0.083591506 -0.19178453
000080 82 1e 92 be 68 0f 34 bc 26 88 c3 bc 14 c0 b9 3e
       -0.285389 -0.010990001 -0.023868632 0.36279356
000090 fe f9 72 3e 0c 47 08 3d 8a 38 b0 be ec f0 46 3e
       0.23728177 0.03327088 -0.34418136 0.19427842
0000a0 67 34 53 bf db 30 90 bf 77 74 20 bf 9a d4 89 bf
       -0.82501835 -1.126491 -0.6267771 -1.0768006
0000b0 cd 2e 78 bf 04 81 06 3f 33 c7 d4 3e eb a8 8e 3e
       -0.9694641 0.5254061 0.41558227 0.2786325
0000c0 39 1a f3 3e d7 8e 04 be 5e dc 6b be ae 8c a3 bc
       0.47480944 -0.12945114 -0.23033282 -0.019964542
0000d0 b9 91 8b be 8c ba 98 be 41 ac 9a 3e b7 f9 18 be
       -0.27259615 -0.29829824 0.30209544 -0.14939009
0000e0 dc 8f 77 be fb 9c b3 bd 2d 3f a3 bd 79 b2 a8 3d
       -0.24175972 -0.08770176 -0.07971034 0.08237166
0000f0 f2 1a 07 be cb 42 f5 bd 68 9a 22 be 42 f6 90 bf
       -0.13193873 -0.119756304 -0.15879214 -1.1325152
000100 06 82 de bf 7b b5 a7 bf 35 50 8f bf f7 fa 9b bf
       -1.738343 -1.3102258 -1.1196352 -1.2185963
000110 2e 34 45 bf 24 0d 75 be 7d cd 37 bd a7 0a 64 be
       -0.77032745 -0.23930794 -0.044873703 -0.22269689
000120 c2 6a 39 3f 5b 9e 63 be bb c7 af be c3 7c 3f 3f
       0.72428524 -0.22228377 -0.3433207 0.74799746
000130 de 28 a1 3e d9 ee 25 3e 24 5e 2b 3f ef e5 1f 3f
       0.31476492 0.16204394 0.6694052 0.62460226
000140 43 ff 71 3e fa df a7 be 0c 66 7c 3d 1c 8b db 3e
       0.23632531 -0.32788068 0.061620757 0.4287957
000150 e9 7d 13 bf 3b f2 c2 3d 49 9a 1e 3f 6d bd ec 3e
       -0.57614 0.09518858 0.6195417 0.4623827
000160 b4 89 70 bd db 10 d8 be 72 d6 d2 3e b0 41 30 bd
       -0.058725074 -0.4220036 0.41179234 -0.043031394
000170 6e b8 d1 be 3b ba 62 3d 05 87 c8 be f7 38 d8 be
       -0.4096102 0.055353384 -0.39165512 -0.4223096
000180 96 f3 d9 3f fb 55 3b 3c cf b4 55 bf 43 7f e2 3d
       1.7027462 0.011434074 -0.83479017 0.110594295
000190 19 e1 ab be f5 b3 05 bf c4 87 e5 3c 7c a2 59 be
       -0.33570173 -0.5222772 0.02801884 -0.21253389
0001a0 74 05 91 be a3 e5 b6 3f 4b fb 1b 3e cf af 2e bf
       -0.28324473 1.428883 0.1523258 -0.6823701

learning_to_down_sample.conv.bn.weight f4 [4]
000000 d6 c4 e5 3f 2c 60 d4 3e d0 b1 a8 3e 8a 71 c3 3f
       1.7950695 0.41479623 0.3294816 1.5269024

learning_to_down_sample.conv.bn.bias f4 [4]
000000 5a db 8d be f0 2a 79 3f d4 89 83 3f ab ca 98 3e
       -0.27706414 0.9733114 1.0276437 0.29842123

learning_to_down_sample.conv.bn.running_mean f4 [4]
000000 3b 9c a5 bc c0 9d 7a bf 4d 5f f8 be 4a 29 4d be
       -0.020216098 -0.9789696 -0.4851021 -0.20035282

learning_to_down_sample.conv.bn.running_var f4 [4]
000000 e7 b8 88 40 fa 3d 08 41 79 4d 68 41 6a e1 27 40
       4.272571 8.515131 14.518914 2.6231332

learning_to_down_sample.dsconv1.0.weight f4 [4, 1, 3, 3]
000000 bd 79 71 3f 6b 59 92 3f fa 62 14 3f ad 79 bf 3e
       0.9432638 1.1433538 0.57963526 0.3739752
000010 00 0f bb 3e f8 de 73 3e d1 1b 03 be 8e fb 82 be
       0.36534882 0.23815525 -0.1280358 -0.25582546
000020 a0 c0 1d be 36 cf 23 3f 61 71 33 3f 7f b8 e3 3e
       -0.15405512 0.63988054 0.7009488 0.44476697
000030 73 42 e6 3d 3e 60 20 bf d2 ea 3c bf c4 9c 70 3d
       0.11243143 -0.62646854 -0.7379581 0.058743253
000040 9a 10 ee be d2 54 0e bf 80 5a 80 be 61 1e 80 be
       -0.4649704 -0.55598176 -0.25069046 -0.25023177
000050 60 80 0a be 7e c6 3a bf 41 7d 8e bf 3e 4c 11 bf
       -0.13525534 -0.72959125 -1.1131974 -0.5675696
000060 a8 a4 bb be 4c 5e 19 bf c0 39 aa be d1 80 09 3f
       -0.3664906 -0.5990951 -0.33247185 0.53712183
000070 93 a4 61 3f a0 3f 2e 3f b1 51 af be ef 61 ab be
       0.88141745 0.68065834 -0.34242013 -0.33473155
000080 e1 95 26 3e a9 83 35 bf 82 5c 62 bf 05 3b 9b be
       0.16268112 -0.7090402 -0.88422406 -0.30318466

learning_to_down_sample.dsconv1.1.weight f4 [4]
000000 20 37 7f 3f 45 42 c2 3f 97 6c 68 3f 20 74 ab 3f
       0.9969349 1.5176474 0.90790695 1.3394814

learning_to_down_sample.dsconv1.1.bias f4 [4]
000000 14 31 83 bd ce db 3b 3d b1 b5 a0 bd 93 e5 3e 3d
       -0.06405845 0.04586392 -0.07847155 0.046605658

learning_to_down_sample.dsconv1.1.running_mean f4 [4]
000000 8d 9f 6f 3f 26 15 ee be 62 6f 8d c0 d0 dc 54 be
       0.9360283 -0.4650051 -4.4198465 -0.20787358

learning_to_down_sample.dsconv1.1.running_var f4 [4]
000000 f8 7d 89 40 68 b6 e4 3e 54 e7 c9 3f a9 26 2a 40
       4.296627 0.44670415 1.5773721 2.6586096

learning_to_down_sample.dsconv1.2.weight f4 [6, 4, 1, 1]
000000 33 3b 68 be a2 f9 02 3f c5 d6 83 3f 82 36 04 3d
       -0.22678833 0.5116216 1.0299917 0.032278545
000010 73 a2 e4 3e d2 7a 2d 3c 8d 7d df 3f 6e da ea bd
       0.4465519 0.010588365 1.746019 -0.114674434
000020 11 a0 56 be ca 7f 7d bf 2e 16 94 3e 21 88 af 3f
       -0.20959498 -0.99023116 0.28923172 1.3713418
000030 51 bd bf be 8c b9 29 bd 5f 32 fb bf cd 29 30 3e
       -0.37449124 -0.041436717 -1.9624747 0.17203446
000040 45 9b 54 bf 70 1b 6d 3f 81 57 e7 be b5 56 81 be
       -0.8304942 0.9261999 -0.45183948 -0.25261465
000050 6d bf 7e 3f d3 ac 09 bf 37 37 bc 3d 55 22 6f bf
       0.9951084 -0.53779334 0.09190219 -0.9341176

learning_to_down_sample.dsconv1.3.weight f4 [6]
000000 96 c3 11 3f 97 fd 28 3f e3 de 06 40 d5 5a c0 3e
       0.56939065 0.6601195 2.107354 0.375693
000010 61 80 01 40 24 76 d7 3f
       2.0234606 1.6832929

learning_to_down_sample.dsconv1.3.bias f4 [6]
000000 58 5a 58 3f 88 44 74 3f 5b 84 2b be 90 c9 9b 3f
       0.84512854 0.9541707 -0.16749708 1.2170887
000010 c4 c9 ee be c7 82 e1 3e
       -0.4663831 0.44045088

learning_to_down_sample.dsconv1.3.running_mean f4 [6]
000000 c3 7a 28 bd 3d 3d 2e be bd f4 16 3c 48 3a 3c 3e
       -0.0411327 -0.17015548 0.009213624 0.18381608
000010 ab 3e f4 3d 93 53 0e be
       0.119260155 -0.13899069

learning_to_down_sample.dsconv1.3.running_var f4 [6]
000000 df d2 de 3f 8f a6 04 40 40 75 c6 40 42 bf 28 40
       1.7408103 2.072666 6.2018127 2.6366735
000010 27 8c 33 40 61 30 5e 40
       2.8054292 3.4717028

learning_to_down_sample.dsconv2.0.weight f4 [6, 1, 3, 3]
000000 ef 9b 8b 3d d9 6c 69 3e cc b8 99 3d 1e 42 93 3e
       0.06816851 0.22795428 0.0750595 0.2876138
000010 e7 d2 63 3f 6f e5 ed 3e 9f be cf bd 2c 2c 03 bf
       0.88993686 0.46464106 -0.1014378 -0.51239276
000020 89 14 af bf d4 4b 05 3f c0 c7 bd 3e 06 42 93 be
       -1.3678142 0.5206883 0.3706646 -0.2876131
000030 7a 27 49 3f 06 c7 66 be 85 19 b8 bf fc f7 31 3f
       0.7857586 -0.22536859 -1.4382788 0.6951902
000040 d2 4e 08 3d 89 0e 34 bf ce 6e f9 3d 73 7f 95 3e
       0.033278294 -0.7033468 0.121793374 0.291988
000050 49 32 c2 3e 24 cd b7 3e f4 7f 50 3f ce 28 6c 3f
       0.3792899 0.35898697 0.8144524 0.92249763
000060 28 7a 0d 3e c6 3b e5 3e e6 a8 20 3f 67 94 a5 bc
       0.1381613 0.44772166 0.6275772 -0.020212365
000070 eb a6 41 bf ec 16 8a bf 35 0f fe bb b9 e7 46 3e
       -0.7564532 -1.0788245 -0.0077532777 0.19424333
000080 9e f3 40 be 8d 2c 4e 3e ee df 95 3f 3e ab 2f 3f
       -0.18842933 0.20134182 1.1708963 0.6862067
000090 0a 59 c9 bc 14 a6 be 3e 98 1e 02 3f e4 b5 74 3d
       -0.02457859 0.37236083 0.5082793 0.059743777
0000a0 64 82 87 3f 9b d7 9d 3f b3 cd 98 3d 25 58 01 3f
       1.0586667 1.2331423 0.07461109 0.5052512
0000b0 5c 15 14 3f 1e 31 10 3e 59 64 13 bf 20 d4 1d bf
       0.5784509 0.14081237 -0.57574993 -0.616518
0000c0 9d 56 5e 3e 11 c9 64 bf e7 cf 8d bf 9a af e0 3d
       0.21712728 -0.89369303 -1.1079072 0.10970993
0000d0 65 c1 ff be 0d 5c dd be
       -0.49952236 -0.43234292

learning_to_down_sample.dsconv2.1.weight f4 [6]
000000 57 64 96 3f 66 18 6a 3f 49 81 43 3f d8 d4 e2 3f
       1.1749371 0.9144348 0.7636915 1.7721205
000010 b0 5c 8d 3f 03 77 87 3f
       1.1043911 1.0583194

learning_to_down_sample.dsconv2.1.bias f4 [6]
000000 ce 57 2f bd 55 bc cf 3c 20 9f 97 3c f3 e4 a9 bd
       -0.042808346 0.025358358 0.018508494 -0.08295622
000010 54 c0 bf bd f2 91 10 3d
       -0.093628556 0.035295434

learning_to_down_sample.dsconv2.1.running_mean f4 [6]
000000 bb 34 b3 bc 57 2a ac be e7 2e 1c 40 8d 35 a8 3e
       -0.02187573 -0.33626053 2.4403627 0.32853356
000010 7c 0e ea 3f e5 72 2a c0
       1.828567 -2.6632626

learning_to_down_sample.dsconv2.1.running_var f4 [6]
000000 6f 08 0a 3f 7b ea 2f 3f 6a 18 a7 40 82 a7 1e 3f
       0.5391912 0.68717164 5.22173 0.61974347
000010 d1 ec b8 40 cd 8c 48 41
       5.7789083 12.534375

learning_to_down_sample.dsconv2.2.weight f4 [8, 6, 1, 1]
000000 a5 4b 86 3e 71 69 e1 be c0 ad a7 3e a0 5d a2 bf
       0.26229587 -0.44025758 0.32749748 -1.2684822
000010 9f 98 7d 3e f4 fe 1a bf 10 8c 98 3f 62 38 90 3e
       0.24765252 -0.6054528 1.1917744 0.28168017
000020 99 b9 55 3f ad ff 07 bf 07 c9 29 3d 85 bd c2 bc
       0.83486325 -0.53124505 0.04145148 -0.02377201
000030 46 2a 18 3e 9b 6e 21 bd fd 92 a5 3e 70 b5 82 3f
       0.14859876 -0.039412122 0.32338706 1.021162
000040 29 28 85 3e 6d 8e 92 bf c7 7f a0 bd a8 09 92 3f
       0.26007202 -1.1449715 -0.078368716 1.1409197
000050 60 c3 f2 bd 1b f4 c4 be 2f 9e 13 3d 8d aa 7a bf
       -0.11853671 -0.38467488 0.036039528 -0.9791649
000060 cb d9 0f bf f9 c6 9d 3f 8a 26 5d 3e 8a 52 8c 3d
       -0.561917 1.2326347 0.21596733 0.068516806
000070 ec 4c 20 3f 5a 40 3f 3f 01 8a 77 3e 0c 03 43 bf
       0.62617373 0.7470757 0.24173738 -0.76176524
000080 2a 56 4f bd 5e e6 a7 3f 79 68 1c 3f dd 54 b4 bd
       -0.05061928 1.3117177 0.6109691 -0.08805249
000090 9f 3f dd bf 54 55 41 3d 02 d8 c0 be 4a d0 23 be
       -1.7285041 0.047200516 -0.376648 -0.15997425
0000a0 84 f4 c5 3e 0e f5 0c 3e 2d e6 92 bc 44 b9 82 be
       0.38663113 0.13765356 -0.017932022 -0.2553197
0000b0 d8 40 72 3f 98 b1 7c 3e ce f9 a4 3f 8f 31 ab 3e
       0.94630194 0.24677122 1.2888734 0.33436248

learning_to_down_sample.dsconv2.3.weight f4 [8]
000000 3b 1d bb 3f f2 cd 86 3f 59 25 aa 3f 50 02 a3 3f
       1.4618295 1.05316 1.3292648 1.2735081
000010 2a 09 1f 3f 35 b5 b6 3f 1e 97 be 3f 2a dd 89 3f
       0.6212336 1.427405 1.4889867 1.0770619

learning_to_down_sample.dsconv2.3.bias f4 [8]
000000 1f 73 9b 3e 8d b0 9b 3e a3 fb 81 3f 5f 1d 04 3f
       0.30361268 0.30408135 1.0154918 0.51607317
000010 2c ba d9 3f 31 f9 cf 3e 4b 9f 21 be be a0 87 3f
       1.700994 0.40619805 -0.15783422 1.059593

learning_to_down_sample.dsconv2.3.running_mean f4 [8]
000000 78 82 35 3d cf 55 32 3c 5f 6d 1a be 39 95 c5 3c
       0.044313878 0.010884716 -0.15080784 0.024119006
000010 35 d3 af 3c fa 80 4c be af 08 4d 3d 4a 93 f0 bd
       0.021463016 -0.19971076 0.05005711 -0.11746843

learning_to_down_sample.dsconv2.3.running_var f4 [8]
000000 37 2a ab 40 ee 9d 4f 40 57 c4 b5 40 02 4b 4e 40
       5.348903 3.2440143 5.6802173 3.223328
000010 39 31 24 40 cd fa a9 40 8a e0 9d 40 97 4c 2b 40
       2.5655043 5.3118653 4.9336596 2.6765497

global_feature_extractor.first_block.0.conv.0.weight f4 [16, 8, 1, 1]
000000 23 11 38 3e 4b 7b 72 bf 24 a7 48 bf 5b 8b 83 3c
       0.17975287 -0.9471938 -0.78380036 0.01605766
000010 05 31 a3 be 3c 64 35 bf 6b 72 56 be cd d0 41 3e
       -0.31873336 -0.7085607 -0.20942084 0.18927307
000020 dc 23 db be 2d a6 20 bf c0 03 7a 3f 92 f0 84 be
       -0.42800796 -0.62753564 0.9766197 -0.2596479
000030 41 ff 1e 3e 73 da 1f 3e 6a 76 69 3d ed c3 39 bd
       0.15527059 0.15610676 0.056997694 -0.045352865
000040 57 4b b5 3e 45 f3 cd 3e 16 f3 72 3f d6 60 12 3e
       0.35409042 0.40224662 0.9490217 0.14294752
000050 7e 30 1a bd f8 01 8e be 5d b9 eb bd 89 2a 09 bf
       -0.037643902 -0.27735877 -0.115099646 -0.5358053
000060 d8 b8 86 3f 25 b3 14 bf 4f 82 1d 3e 08 a2 81 3e
       1.052516 -0.5808585 0.1538174 0.25318933
000070 53 e4 14 bd 43 bd 07 bf 9b 6d 1c 3f ee 5b 53 3e
       -0.03635056 -0.53023165 0.61104745 0.20640537
000080 5f 99 55 3f c3 7c 89 3e 84 c1 bf 3c 24 09 f0 3e
       0.8343715 0.26852998 0.023407705 0.46881974
000090 41 bf e3 3e 1b 90 7f bf 20 22 84 3e 06 14 08 be
       0.44481853 -0.9982926 0.25807285 -0.13288888
0000a0 5b 72 2f bf f0 40 17 3e c4 00 73 bf ab be 87 be
       -0.6853387 0.14770865 -0.94923043 -0.26512656
0000b0 40 78 35 3f 96 14 92 bd 10 6f 0e bf 4d cc e3 3e
       0.7088661 -0.07132833 -0.5563822 0.44491807
0000c0 8d 3f 87 3e cc ec 0c bf ae 86 40 3f 03 ca 26 3f
       0.26415673 -0.55048823 0.75205505 0.65151995
0000d0 0d 85 51 be 04 a5 31 be 05 44 b7 be 63 d9 28 be
       -0.20460911 -0.17348105 -0.35794082 -0.16489176
0000e0 3b 71 60 3e 8d 37 f6 3d 14 5d c8 3e 27 12 3b bf
       0.21918194 0.12022314 0.39133513 -0.73074573
0000f0 cb 41 b5 bf ce 8d c2 3e ae 08 55 3f 2d d5 eb bd
       -1.4160703 0.37998813 0.8321637 -0.115152694
000100 65 d5 e0 3b de b7 09 bf bd dc 81 be 58 83 15 be
       0.006861376 -0.53796184 -0.25363722 -0.14600885
000110 ad 9a 01 3f 9b 24 42 be ee 02 9e bf de ce a3 bf
       0.5062664 -0.18959276 -1.2344644 -1.2797506
000120 ff ee 2b bf 31 34 4d be 9a 39 c2 3c cb 41 40 bf
       -0.67161554 -0.2003944 0.023709107 -0.7510039
000130 73 fa 10 3e 10 42 1d be 17 ab 9e be ef 05 4d 3f
       0.14158039 -0.15357232 -0.30989906 0.8008718
000140 90 3f f9 3e c6 9b 4a 3e 4b 7e 6c 3f b3 56 ec 3c
       0.48681307 0.19785985 0.9238021 0.028849935
000150 1d 28 cd be 80 2d dd be 4c 03 17 be 0d 4d 52 bf
       -0.40069667 -0.43198776 -0.14747351 -0.8214882
000160 8c 3d c0 3e 2b e4 c3 3e 8e f7 92 3f 94 17 3a bd
       0.37546957 0.38260016 1.1481798 -0.045432642
000170 96 fb dd 3e bc e7 22 bf fd 11 9c 3c 18 b1 5f 3f
       0.43356007 -0.6363485 0.019051546 0.873796
000180 c2 83 be bd 39 61 7f bb 85 81 15 bf 51 79 72 bf
       -0.093024746 -0.0038967861 -0.58400756 -0.94716364
000190 3b 59 c8 bf 3e 4c 20 3f 20 a4 5d 3e 14 b1 9f be
       -1.5652231 0.62616336 0.2164464 -0.31189787
0001a0 ce ea f8 3d aa 5d 44 be dc 40 9f be ff d7 20 bf
       0.121541604 -0.19176355 -0.3110417 -0.62829584
0001b0 e7 42 8a bf f2 70 05 be 32 52 0f 3f b2 2b 45 bf
       -1.0801667 -0.13031366 0.55984795 -0.770198
0001c0 0c b8 51 bf 2c fe 74 3f 1c 58 13 3f 54 03 33 be
       -0.8192146 0.95700336 0.5755632 -0.17481738
0001d0 9f 5a 3d 3f a7 56 5d 3f 06 87 a5 3e 92 c4 b7 be
       0.739664 0.86460346 0.32329577 -0.3589216
0001e0 bf 8f 1d bd 1c be 2b 3e e9 8f 2f be 3d 68 00 3e
       -0.038467165 0.1677174 -0.17144741 0.12539764
0001f0 42 26 4f 3f 19 95 70 3e 91 d3 d0 3c 47 be 9a 3f
       0.8091775 0.23494376 0.025491508 1.2089318

global_feature_extractor.first_block.0.conv.1.weight f4 [16]
000000 bb 4e e6 3f ad e4 a0 3e e1 18 e5 3f 41 14 c0 3f
       1.7992777 0.31424466 1.7898217 1.5006181
000010 bd 25 78 3f 66 ff 0b 3f 8c ef cb 3f da 44 8a 3f
       0.96932584 0.5468658 1.5932479 1.0802262
000020 1b 1f e0 3f 4c 55 58 3f 6a 59 cb 3f 16 8f 4c 3f
       1.7509493 0.8450515 1.5886662 0.7990583
000030 aa b2 d8 3f c2 70 e6 3f 6c 07 e9 3f 47 6d b0 3f
       1.6929524 1.8003161 1.820539 1.3783349

global_feature_extractor.first_block.0.conv.1.bias f4 [16]
000000 13 e6 f2 3c 10 36 85 3f 58 2d d2 bd 0d 09 6e be
       0.029650724 1.0407124 -0.10262555 -0.2324564
000010 94 72 e9 3e 9b a2 6d 3f da 47 b6 bd f8 e4 2d 3f
       0.4559523 0.9282624 -0.08900423 0.67927504
000020 25 d9 b1 be 46 23 2d 3f f7 a4 3d 3e 8e ef 46 3f
       -0.3473598 0.6763195 0.1851996 0.7770928
000030 30 ce 1c be c3 0f fe 3d 3c bc a1 be ba 18 5f 3e
       -0.1531303 0.1240535 -0.31588924 0.21786776

global_feature_extractor.first_block.0.conv.1.running_mean f4 [16]
000000 26 86 0a c0 4d b3 17 3f 2f 83 36 3f d0 a9 50 3f
       -2.1644378 0.59257966 0.7129392 0.81509113
000010 87 12 8f 3f da 02 61 be 6d 5f bc 3e d5 50 e6 bf
       1.1177529 -0.21973744 0.36791554 -1.7993418
000020 b6 f3 f0 bf 3b fa 60 be 91 08 f1 be 90 22 3c 40
       -1.8824375 -0.21970455 -0.47076848 2.9396095
000030 3b c5 77 c0 c6 a3 55 c0 eb 98 05 40 66 54 35 40
       -3.871413 -3.338121 2.0874584 2.8332763

global_feature_extractor.first_block.0.conv.1.running_var f4 [16]
000000 d3 48 3c 40 d7 9f 32 40 e3 7e a7 3f ec 3a 13 40
       2.9419448 2.7910058 1.3085598 2.3004713
000010 22 d5 7c 40 89 06 06 40 a5 51 b2 3f de 82 ec 3f
       3.9505086 2.0941489 1.3931166 1.8477437
000020 c7 b1 91 40 99 8e e3 3f 38 24 d5 3f 16 18 2b 40
       4.5529513 1.7777892 1.6651678 2.673345
000030 ec 4d 5b 40 a3 1a 0b 40 e8 6e 5b 40 5f 0a 2e 40
       3.426631 2.1735008 3.4286442 2.719383

global_feature_extractor.first_block.0.conv.3.weight f4 [16, 1, 3, 3]
000000 e9 50 49 3f ea 76 f2 3d 1e f3 df bd 52 68 26 3f
       0.78639084 0.11839087 -0.10935043 0.6500293
000010 fa 85 ae be d9 e0 5e 3c 10 72 ca 3d a6 06 90 bf
       -0.3408659 0.013603413 0.09885037 -1.1252029
000020 92 4d 20 be a1 b4 d4 3e bc 66 0f 3f 11 e6 a5 3e
       -0.1565459 0.4154406 0.56016135 0.3240209
000030 13 e7 16 3f 2f f4 3f 3f 42 48 fc 3e 0b 71 2f 3e
       0.5894634 0.7498197 0.49273878 0.17132966
000040 3f 26 e1 3d de a6 a5 be 67 b9 79 3f ae 2a 43 be
       0.10993623 -0.32353872 0.97548527 -0.1905925
000050 57 e2 59 3e f0 50 c4 3e 45 4d b7 be 54 4b e6 3d
       0.21277748 0.38343 -0.3580114 0.112448364
000060 6e 4b c1 3e 5d c3 9d 3d 64 7e c8 be e5 58 27 bf
       0.3775286 0.07703278 -0.39158928 -0.6537002
000070 20 f2 8c 3e 24 56 46 3e e3 31 0b bf 4b a4 88 3f
       0.27528477 0.19368798 -0.54372996 1.0675138
000080 98 ad 8e be da 55 40 3c ea e1 3d 3f 8f 15 1a bf
       -0.27866817 0.011739219 0.7417284 -0.60189146
000090 c5 d0 f8 bd 94 05 80 bc 3f 0e 41 bf 72 72 2c 3f
       -0.12149195 -0.01562766 -0.7541236 0.6736213
0000a0 e5 66 8c be df 27 cd 3e f2 62 94 3f 97 f4 62 3e
       -0.27422252 0.40069482 1.1592696 0.22163616
0000b0 a4 e2 ea 3e a8 3f 06 be 3a 64 43 3f bb 8d 1f bf
       0.45876038 -0.1311022 0.7632481 -0.6232564
0000c0 02 50 83 3e 59 2d 50 3f 1b 00 91 bf 66 79 f7 bd
       0.2564698 0.81319195 -1.1328157 -0.12083702
0000d0 09 96 15 3f 2c 11 aa be 3b cc 06 bf ce 00 6a 3f
       0.5843206 -0.33216226 -0.5265538 0.9140748
0000e0 49 75 7e bd 91 3a 01 bf 6a 75 60 3f 72 67 b6 3d
       -0.06212357 -0.5047999 0.8767916 0.089064494
0000f0 df 1b 50 3e 9a 69 f8 bc d1 eb e7 3d f0 63 88 be
       0.20323132 -0.030323792 0.11324275 -0.26638746
000100 f4 63 03 be 76 c8 62 be 29 c1 ef be 82 6f 94 bf
       -0.12831098 -0.22146782 -0.46827057 -1.159653
000110 db 59 4d bf cf ac 9a 3d c6 16 9b 3c 72 c1 a5 be
       -0.80215234 0.07552492 0.018931758 -0.3237415
000120 8c 8c 6a be fe 0a 9a 3e f5 3a f9 3e be 98 f9 3d
       -0.22905177 0.3008651 0.48677793 0.121873364
000130 4d 1e 40 3f 2d e2 60 3f b3 79 ca 3e 8b ca 61 3f
       0.75046235 0.87845117 0.39545974 0.8819968
000140 bf 60 57 3f de 15 06 3e cd d8 0a 3f d3 36 9d bf
       0.84132 0.13094279 0.5423706 -1.2282356
000150 ed cd f6 bc 7d 49 1c 3e d8 73 c0 3e bd 91 20 3f
       -0.03012749 0.15262409 0.37588382 0.6272238
000160 5a 33 a4 be 06 b3 9b bd 52 28 0b bf 04 b4 12 3f
       -0.32070428 -0.076025054 -0.543584 0.5730593
000170 52 f8 19 bf 37 29 09 bf 7e 03 48 3f e7 44 fb be
       -0.6014453 -0.53578514 0.7813033 -0.49076006
000180 4b af 5b be c5 a5 d4 3e 1e 91 e1 be 6f b5 c8 be
       -0.21453588 0.41532722 -0.44056028 -0.39200923
000190 57 95 c9 be d9 d7 4b be b6 6a 18 bf db 57 29 bf
       -0.3937175 -0.19906558 -0.5953783 -0.6614968
0001a0 7d 0f 31 bf 1e 3f 0b bf 74 8e 44 bf 31 1d 3e be
       -0.6916426 -0.54393184 -0.76779866 -0.18565823
0001b0 94 5e 69 3d ee 4c 8d 3f 4b 55 0b 3f 92 43 1c 3e
       0.056974962 1.1039102 0.5442702 0.15260151
0001c0 ce 0b 8e 3f be 8a 1b 3f 7a d6 91 be 73 03 f3 bc
       1.1097353 0.6075858 -0.28483945 -0.02966473
0001d0 48 ed 72 3d 57 de 4c be cb af 41 bf 6c 1e ef be
       0.05930832 -0.20006691 -0.75658864 -0.46702898
0001e0 93 a2 2d be cf a9 17 bf 36 26 15 bf 91 79 06 bf
       -0.16956548 -0.5924348 -0.5826143 -0.52529246
0001f0 fc 35 ae be 00 a1 5c be 9f 30 2d bd 21 d0 30 bf
       -0.34025562 -0.21545792 -0.042282697 -0.6906758
000200 6c 1d 19 bf ba 72 70 be 63 44 61 bf 40 db 47 bf
       -0.5981052 -0.23481265 -0.87994975 -0.78068924
000210 a4 bb 61 3c 2b be 3e bf af de 42 bf ef f8 4f bf
       0.013777647 -0.74508923 -0.7612104 -0.8123922
000220 53 24 75 be 3f 64 d8 be 8e f3 c4 ba 67 9b 7f bd
       -0.23939638 -0.42263982 -0.0015026198 -0.062404063
000230 2f 2a 47 3f ae e2 c1 3e 6d a9 a0 be ad 94 5e 3d
       0.7779874 0.37868255 -0.31379262 0.054341007

global_feature_extractor.first_block.0.conv.4.weight f4 [16]
000000 18 e9 7b 3f 4a 2b 5e 3f 85 67 6b 3f 16 94 b1 3f
       0.9840255 0.86784804 0.91954833 1.3873317
000010 bc ed 4e 3f 4e 2e c3 3f b5 7f 95 3f da 92 9f 3f
       0.80831504 1.5248506 1.1679598 1.246669
000020 a0 4c c3 3f e9 35 16 3f 40 3d b4 3f 93 a2 cb 3f
       1.5257759 0.5867601 1.4081192 1.5908989
000030 d9 dd 6a 3f 94 e3 a5 3f 57 34 f0 3f 83 80 2c 3f
       0.9174476 1.2960076 1.8765973 0.67383593

global_feature_extractor.first_block.0.conv.4.bias f4 [16]
000000 19 c3 ee be dc c6 8c 3f 27 19 94 be 41 cf 37 3d
       -0.46633223 1.0998187 -0.2892544 0.044875387
000010 dd 27 52 3f b9 8e 72 bd 37 ed ec bd 56 0c 21 3f
       0.82092077 -0.059218142 -0.11568683 0.6290945
000020 f1 55 a0 3e 7b 45 18 bf bb f9 4c be 11 fb 8b 3e
       0.31315568 -0.5948102 -0.2001714 0.27339986
000030 79 01 7a 3f 0f 87 86 3e 22 a3 0d 3f 1b cb 14 bf
       0.976585 0.26274917 0.55327046 -0.58122414

global_feature_extractor.first_block.0.conv.4.running_mean f4 [16]
000000 5f 54 6e be 1a 9f 41 40 f1 aa 18 3f c5 ae 87 3e
       -0.23274373 3.0253358 0.59635836 0.26500526
000010 63 5c 86 3f 49 92 89 3c 7c 6e 1c 3f 04 64 2b c0
       1.0496944 0.016793387 0.61106086 -2.6779795
000020 78 a5 03 40 9b bf 02 3e 0a c3 fa be 12 18 5a c0
       2.0569744 0.12768404 -0.48976928 -3.4077191
000030 17 2b e9 3f c3 b6 2e c0 d3 fe 18 c0 f5 95 96 be
       1.8216275 -2.729905 -2.3905532 -0.29411283

global_feature_extractor.first_block.0.conv.4.running_var f4 [16]
000000 28 b6 bb 3f b5 bd a9 3e 67 84 55 40 34 bb e9 3f
       1.4664965 0.33152547 3.3362062 1.8260255
000010 39 43 c1 3f c6 87 a3 3f 1d 34 84 40 bd f7 a8 40
       1.509864 1.277581 4.1313615 5.2802415
000020 4f d9 52 40 de d6 2d 3f a5 6c 02 41 c9 31 63 40
       3.2945135 0.67905986 8.151525 3.5499136
000030 43 b2 30 40 24 7b 7f 40 8f 53 0f 41 b1 29 08 40
       2.7608802 3.991891 8.9579 2.1275446

global_feature_extractor.first_block.0.conv.6.weight f4 [8, 16, 1, 1]
000000 41 d9 e7 3c 9b 4a 3f bf 23 3c 27 3e ec 5a ef 3e
       0.028301837 -0.74723214 0.16331534 0.46749055
000010 6b 9e 67 3f c4 45 96 3e c8 38 24 be c5 c9 3e 3e
       0.904761 0.29350102 -0.16037285 0.18631656
000020 75 87 1f bf 9f 99 4e 3e 45 86 bf 3e 66 d0 87 3d
       -0.62316066 0.2017579 0.37407127 0.06631546
000030 31 ef d4 be 3c 85 ab be 16 d1 e5 3f 92 06 00 bf
       -0.4158874 -0.33500087 1.7954433 -0.50010026
000040 b4 9a 0a 3f a9 b0 f8 bc 85 2d 9c 3e 29 9f e4 3e
       0.5414231 -0.030357676 0.3050348 0.4465268
000050 ab c3 0a 3e f2 35 2f 3f a9 23 a9 3e 4c 4e 93 bf
       0.13551204 0.6844169 0.3303502 -1.1508269
000060 c1 9e 22 bd 33 23 1c bc 71 75 36 3f d7 f7 06 3c
       -0.03970218 -0.0095298765 0.7127295 0.008237801
000070 4d 08 05 3f e1 80 9f bf ee 04 47 be 3f ce b5 3d
       0.5196579 -1.2461206 -0.19435474 0.08877229
000080 a9 57 f2 be 7a 28 ce bd 44 b8 8a be 1f df 0d 3f
       -0.47332504 -0.10066314 -0.2709371 0.5541858
000090 3a 9d 07 3f e5 0d a6 bc 9d fb d1 3e b4 65 74 3e
       0.52974284 -0.020270297 0.41012278 0.23866922
0000a0 25 81 87 bf 21 77 81 3d c7 4d ce bd 74 4d 18 bf
       -1.0586287 0.0632155 -0.100734286 -0.59493184
0000b0 9c 30 22 bf 2b ca 0f 3f 85 33 36 3f e5 9f a5 3e
       -0.6335542 0.5616786 0.7117236 0.32348552
0000c0 03 2a 0b be 01 74 bf 3e ce a2 49 be f2 cc b7 3e
       -0.13590245 0.3739319 -0.19691011 0.35898548
0000d0 69 8c 5b be 9a 2f 12 3e c2 83 86 3f 40 4b 38 3e
       -0.21440281 0.14275971 1.0508959 0.17997456
0000e0 43 78 f0 bc 9f 94 4f be 9a 16 88 3f 84 07 94 3d
       -0.02935422 -0.20271538 1.0631897 0.07227996
0000f0 08 78 2b 3d f4 1c f6 3d 07 56 04 be 58 a7 aa 3e
       0.041862518 0.12017241 -0.12923442 0.33330798
000100 0a e4 05 3e f7 cf 97 be 70 99 b2 bc 5a 96 cd 3b
       0.13075271 -0.29650852 -0.02180168 0.006274027
000110 b3 c6 4b 3f a9 32 9c be 3f 8b 67 be 36 a2 65 3e
       0.79600066 -0.305074 -0.22611712 0.2242516
000120 b9 75 29 bf 88 af 47 3e b8 31 6c be b6 72 95 be
       -0.66195256 0.19500554 -0.23065841 -0.2918908
000130 f9 fb e6 be 72 3a c6 3e 44 ca 7f 3f e0 9a d0 3c
       -0.45114115 0.38716465 0.9991801 0.025464475
000140 65 5e 0d bf 22 fb 63 bf aa e4 0e bf 1e 60 0b bf
       -0.5522216 -0.89055073 -0.55817664 -0.5444354
000150 d1 d8 a7 3d 23 28 2c bf e5 e9 17 bf b2 8f 0e bf
       0.08195651 -0.67248744 -0.5934127 -0.5568801
000160 60 58 12 3e 2e 64 1e bf 5f a7 2a bf 36 56 b2 3f
       0.14291525 -0.6187161 -0.6666164 1.393256
000170 6f ec 0d 3e 06 b3 7c bd 23 d4 e7 3e bb 8c e5 bd
       0.13859724 -0.061694168 0.45279035 -0.11208483
000180 90 b9 90 be 74 d9 4a bf d1 83 46 bf a4 af 27 bf
       -0.28266573 -0.7923806 -0.77544886 -0.6550238
000190 d5 3f 81 be c0 90 59 bf a2 75 31 bf 7c f1 33 bd
       -0.25244012 -0.84986496 -0.6932012 -0.04393147
0001a0 d4 4b 03 3f 81 60 6e be 05 cf 38 bf 6a 59 61 3f
       0.5128758 -0.23279001 -0.72190887 0.8802706
0001b0 e8 a0 74 3d 10 01 0d 3e 89 70 bb 3c ee 93 83 be
       0.059723765 0.13769937 0.02288081 -0.256988
0001c0 f5 61 64 be cf 59 0a bf fc 1f 1b be bd 64 e3 3e
       -0.22302993 -0.5404329 -0.1514892 0.44412795
0001d0 ec 69 1e 3e b7 3d c4 bd 7e 15 0d 3e 21 52 89 3f
       0.15470093 -0.09582084 0.1377773 1.0728189
0001e0 b3 8a eb 3d a9 a1 a8 3d 80 ac b7 3e e7 e4 87 3e
       0.11501064 0.08233959 0.35873795 0.26541826
0001f0 8b 89 88 bf 95 2f 0b be 5c 01 15 3e e4 c1 eb bd
       -1.0666975 -0.1359237 0.145513 -0.11511591

global_feature_extractor.first_block.0.conv.7.weight f4 [8]
000000 bb 6d 91 3f 49 ac 91 3f 20 ae 9d 3f f7 88 91 3e
       1.1361612 1.1380702 1.2318764 0.28424808
000010 c1 01 75 3e ca a2 e6 3f ce 3c ba 3f 51 17 2f 3f
       0.2392645 1.8018429 1.4549806 0.68394953

global_feature_extractor.first_block.0.conv.7.bias f4 [8]
000000 96 86 73 bc 2e dc 96 bc 37 11 43 bc 2f 09 86 bb
       -0.014863631 -0.018415537 -0.01190596 -0.0040904502
000010 71 0e f9 3b 12 6b 47 bc 79 26 ac 3c 91 f0 8c 3c
       0.0076005985 -0.012171524 0.021014439 0.017204555

global_feature_extractor.first_block.0.conv.7.running_mean f4 [8]
000000 3a ac ba 3f 1b 64 ce be 1d c5 81 3d 52 c9 b2 3f
       1.4583809 -0.4031075 0.063364245 1.3967688
000010 4a 1e df 3e 17 fb 84 bf 04 88 bc bf 2e 23 74 3d
       0.43577796 -1.0389127 -1.4729009 0.059603862

global_feature_extractor.first_block.0.conv.7.running_var f4 [8]
000000 f5 2a 82 40 7a 9c 72 40 07 26 b6 40 b2 cf 55 40
       4.067744 3.7908006 5.692142 3.3408017
000010 55 07 18 40 a7 38 d7 40 a6 61 c9 40 e9 46 30 40
       2.3754475 6.7256656 6.29317 2.754328

global_feature_extractor.second_block.0.conv.0.weight f4 [16, 8, 1, 1]
000000 79 60 47 3e 91 25 b0 be 46 cc 70 be 1f cc 0b bf
       0.19470395 -0.3440366 -0.23515424 -0.5460834
000010 f2 7b b7 3d 18 cc 78 3f df d2 44 3f 8c 68 fb bc
       0.089591876 0.9718642 0.76884264 -0.0306895
000020 77 e1 3d be b9 3f 02 bf 4c 01 41 3e e1 92 09 3e
       -0.1854304 -0.50878483 0.18848151 0.13434936
000030 32 60 93 bd 9e fc d2 3f 6d 23 64 3f 5b 33 6e be
       -0.07196082 1.6483343 0.89116555 -0.23261778
000040 3e 03 f3 3e 0f 2a 60 bf 94 9d 8c 3f 91 61 df 3c
       0.4746341 -0.87564176 1.0985589 0.027268203
000050 d5 69 29 3f 9d 98 51 be c2 c9 00 bd bf e1 f3 3e
       0.6617711 -0.20468374 -0.03144241 0.47633168
000060 96 8a 8c bf 07 b3 04 bf 77 40 9c bf 25 1c e5 bd
       -1.0979793 -0.51835674 -1.2207173 -0.11187009
000070 73 96 af be 78 a4 4c 3e ff f0 3d 3f 5c 89 07 3e
       -0.3429447 0.19984615 0.74195856 0.13235992
000080 30 7a a1 be 16 da 12 3f fb 6e 90 3d d4 28 7c 3f
       -0.31538534 0.5736402 0.07052418 0.984998
000090 f8 f8 36 bf ec 71 be be 5c ff 0d be 47 10 67 3f
       -0.71473646 -0.3719629 -0.13866943 0.9025921
0000a0 e7 8d b3 be d7 2f 69 3d 2a c8 97 3e f2 ca b2 3e
       -0.350692 0.05693039 0.296449 0.3492046
0000b0 d3 71 a4 be 40 27 9d bf 99 1d 40 bf 11 19 26 bf
       -0.3211809 -1.2277603 -0.7504516 -0.64882
0000c0 23 6c 28 bf e2 72 21 3e 87 fd ea 3e 0d 1a 76 3e
       -0.65790004 0.1576648 0.4589655 0.24033375
0000d0 cc 58 1f 3d 92 25 17 bf b0 35 ea be 43 d3 b9 be
       0.038903043 -0.590417 -0.45744085 -0.36293992
0000e0 20 0d 94 be 23 fe 5e 3f cb 3e d2 be 77 c1 c9 3e
       -0.28916264 0.8710653 -0.41063532 0.39405414
0000f0 83 42 6d be 6c e8 c9 3e 8f a5 fa 3d 0d 97 8f bf
       -0.23169903 0.39435136 0.12238609 -1.1217972
000100 97 38 5e 3f 19 1f 3e bd e5 ae 0e 3f d8 44 66 3d
       0.868051 -0.046416376 0.5573562 0.056218
000110 dc 02 2e 3f 33 ef 08 be 75 a4 9d bd 26 92 09 3f
       0.67973113 -0.13372497 -0.07697383 0.5373863
000120 4c e0 52 3f d6 aa f1 3e 4a f1 d2 be 77 34 04 3f
       0.823735 0.4720065 -0.41199714 0.51642555
000130 7e 0a a4 be 35 c3 92 be 0a 01 9b be f7 18 5f 3f
       -0.32039255 -0.28664556 -0.3027423 0.8714747
000140 21 9f 1c 3e 5e cb 3e be 5e f2 67 3e 09 4c 95 bd
       0.15295078 -0.18632266 0.2265105 -0.07289893
000150 a1 3a 89 3e 15 af 84 3f 3a 1f 4e 3f 8a 1b 3f bd
       0.26802543 1.0365931 0.805164 -0.046657123
000160 83 4d 1f be bd 7d 72 bf 64 d7 6a 3f 02 58 8f 3e
       -0.15556912 -0.9472311 0.9173491 0.27996832
000170 a0 10 6c 3e c7 eb 8c be 81 e8 71 be fb e3 a5 3e
       0.23053217 -0.27523634 -0.2362385 0.32400498
000180 34 0a 53 3f a4 e2 bd be 7f 03 1a 3e 22 a5 1d be
       0.82437444 -0.37086976 0.15040396 -0.15395024
000190 d1 2e 83 3e 64 36 21 3f 60 a6 5c 3f c1 b4 ac 3e
       0.25621656 0.6297362 0.8619137 0.33731654
0001a0 bf 94 ae 3c e0 26 cd 3d be e8 1c 3e 0c f4 e1 be
       0.021311162 0.100171804 0.15323159 -0.44131505
0001b0 66 0b 9a 3d bf b2 cd 3f 8b 81 51 3f f1 80 c6 3d
       0.07521705 1.6070174 0.8183829 0.09692562
0001c0 13 28 e7 be 81 af da be 8f ff 84 3d a3 98 41 3e
       -0.45147762 -0.42712024 0.064940564 0.18905883
0001d0 c3 87 4a be 58 da 88 bf b9 5a 47 bf 0f 59 54 be
       -0.19778351 -1.0691633 -0.77872807 -0.20737098
0001e0 71 12 1f bd 2f fe a5 be ec b0 6c 3f 94 7b 3e 3c
       -0.038835946 -0.3242049 0.9245746 0.011626143
0001f0 b3 2e df 3e e3 1d bb 3d 65 53 01 3f dc e9 87 3d
       0.43590316 0.0913656 0.50517875 0.06636402

global_feature_extractor.second_block.0.conv.1.weight f4 [16]
000000 ba 54 68 3f cb 69 77 3f 2d 8f 9f 3e 7b 35 f1 3f
       0.9075428 0.966458 0.31163922 1.8844446
000010 9e 47 ba 3f fe 68 87 3e 66 d9 41 3f fb 7a d6 3f
       1.4553106 0.2644729 0.7572235 1.6756281
000020 77 bd 8a 3f 16 fa db 3f 0f c0 03 3e 79 6f c3 3f
       1.083907 1.7185695 0.12866233 1.5268394
000030 91 3f 29 3f bd 81 76 3f 58 cd 9c 3f 0f 26 a6 3f
       0.6611262 0.96291715 1.2250166 1.2980365

global_feature_extractor.second_block.0.conv.1.bias f4 [16]
000000 a7 b7 12 3f fe aa 28 3f 4b 47 a1 3f 84 37 3c be
       0.5731148 0.65885913 1.2599882 -0.18380553
000010 12 b5 d1 bd 99 a2 a3 3f 33 b5 58 3f c7 bc 19 3e
       -0.102396145 1.2783996 0.8465149 0.15013419
000020 49 e8 ec 3e c9 20 a1 3e f7 2a bb 3f 09 6e 9b 3d
       0.4627097 0.31470326 1.4622487 0.07589347
000030 4c 5a 39 3f 6b 26 08 3f 7e f0 91 3e 11 fb 93 3e
       0.7240341 0.5318362 0.28503793 0.28902486

global_feature_extractor.second_block.0.conv.1.running_mean f4 [16]
000000 2c 3b 54 3c e5 f1 62 3b 38 0a 33 3c d4 e9 5b 3d
       0.012953561 0.0034629044 0.010927729 0.053689793
000010 e5 7b 78 3a 1b 99 79 bc f3 d2 01 bc fb 16 02 bd
       0.0009478911 -0.015234257 -0.007923829 -0.031760197
000020 1f 44 93 bb b5 ea 0a bc 35 ee 8c 3b 4e 59 5b 3c
       -0.0044942047 -0.00847881 0.0043008574 0.013387991
000030 b8 a1 3d 3c aa ca 16 bb d6 35 97 3b fe cd 1a 3c
       0.011574201 -0.002300898 0.004614572 0.009448526

global_feature_extractor.second_block.0.conv.1.running_var f4 [16]
000000 9e d3 29 41 16 72 91 41 3a b3 d1 40 b7 69 38 41
       10.614164 18.180706 6.5531282 11.525809
000010 14 19 13 40 21 52 51 41 3e f5 a8 40 42 d4 8e 40
       2.2984056 13.082551 5.279937 4.4634104
000020 18 33 6e 40 42 20 2c 40 f6 12 06 41 3f f1 9d 40
       3.7218685 2.6894689 8.379629 4.935699
000030 a3 8b e1 40 56 c3 7a 41 7b 67 13 41 57 fa ae 3f
       7.0482955 15.672689 9.212764 1.3670148

global_feature_extractor.second_block.0.conv.3.weight f4 [16, 1, 3, 3]
000000 3c c8 f9 3e 00 fa 7f 3e 77 77 e9 bc 0d 5a 6d 3f
       0.4878558 0.24997711 -0.028499348 0.9271553
000010 6c e6 f5 3e e2 5e c4 be 71 26 09 3f 9e 8d 5e bf
       0.4802736 -0.3835364 0.5357428 -0.8693484
000020 fb 76 84 be 60 97 1d bf bb a4 23 bf 48 e5 07 bf
       -0.25872025 -0.61559105 -0.63923234 -0.5308423
000030 04 58 05 be 0f 9e bb be 9b 9a a1 be f2 43 83 be
       -0.13021857 -0.36644027 -0.31563267 -0.25637776
000040 a6 bc 03 bf 17 c0 95 bf 64 1e 27 3f 05 3f 49 bb
       -0.5145973 -1.1699246 0.6528075 -0.0030707729
000050 e7 e4 8f 3e 5e d2 99 3e e3 2a fe 3e 5d 1a 6a 3f
       0.28104326 0.3004331 0.49642095 0.9144648
000060 7f a7 10 be 22 d2 13 3f 56 a4 8d 3f 19 39 42 3e
       -0.14126395 0.5774251 1.1065776 0.18967094
000070 36 60 76 3e 55 30 8f 3e cd f0 af 3e fa d2 6a 3f
       0.24060139 0.27966562 0.34363404 0.91728175
000080 34 4b 2f 3f f2 5c 10 3f 27 53 92 3f 79 f3 56 3f
       0.68474126 0.56391823 1.1431626 0.8396526
000090 96 11 3b bd b4 87 22 3f 95 ec dd 3e ce 2e 8b bd
       -0.045671068 0.63488317 0.4334456 -0.06796037
0000a0 47 53 65 3f d7 03 1e 3f 92 ee 28 3e 30 2a 1c 3f
       0.89580196 0.6172461 0.16497257 0.61001873
0000b0 87 31 c5 3e 4d 10 5a bf cd aa 8b bf be 88 3e 3e
       0.3851435 -0.85181123 -1.0911499 0.1860685
0000c0 67 84 88 be 4c b1 1e 3c e6 1a 26 3f ac a0 85 3e
       -0.26663515 0.009685826 0.64884794 0.26099145
0000d0 57 40 2c 3f 4f be 19 3f e3 d9 16 be cc 2f 41 bf
       0.67285675 0.6005601 -0.14731555 -0.7546356
0000e0 1d 32 14 be 77 d0 11 3e 52 cc 7f 3f ef 92 23 3f
       -0.14472242 0.1423968 0.99921143 0.6389608
0000f0 13 d7 47 be 8f 2c ba 3d 6b 21 81 be ac 2d 21 3f
       -0.19515638 0.0909053 -0.25220808 0.62960315
000100 ec 02 70 3f b6 fe bf be 35 fe 4e 3f 95 37 46 3f
       0.9375446 -0.37499017 0.8085664 0.7742856
000110 39 1d f6 bc 98 dd aa 3e 11 0a 14 bd 86 2a 48 bd
       -0.030043231 0.33372188 -0.036142413 -0.04886868
000120 75 66 f6 be 92 35 41 bf 8d 7c 07 bf 90 59 b3 be
       -0.48125044 -0.75472367 -0.52924424 -0.35029268
000130 88 b4 bb 3e 6d a4 ec be 37 36 15 bf 40 0a d7 be
       0.36661172 -0.46219197 -0.5828585 -0.42000008
000140 38 18 c5 3d 1e 9d 6f be 2d 85 37 bf db 82 54 bf
       0.0962376 -0.23399779 -0.71687585 -0.8301217
000150 88 c1 92 3e a4 95 4b bf 58 ac 84 3d 89 65 d2 3e
       0.28663278 -0.7952521 0.064781845 0.4109309
000160 f2 dd 99 3e 86 ae de 3d 3a 73 75 3f f4 75 1e 3f
       0.30052143 0.108731315 0.95878947 0.6189873
000170 33 b4 d6 3e 3d 21 82 3e 0b 7e 87 be b5 5a db be
       0.41934356 0.25415984 -0.2646335 -0.4284264
000180 62 eb d4 3e 54 9b b2 be b9 f8 f0 bd e9 c2 17 3f
       0.41585833 -0.3488413 -0.1176619 0.59281784
000190 65 3c 9a 3f 1c 5c 72 3e ce 98 d3 3e b1 84 18 3f
       1.2049681 0.2366795 0.41327518 0.5957747
0001a0 3c f7 d8 3e 5f 31 03 3f e0 d5 24 3d 39 33 97 3d
       0.42376125 0.5124721 0.04024303 0.07382817
0001b0 41 1c 03 3e 9c 61 30 3f e4 96 0d 3f 6b 59 71 3e
       0.12803747 0.6889894 0.55308366 0.23569266
0001c0 ca 11 7d 3f f1 6a 7b 3f ad 6c fb bd ad a7 13 3f
       0.9885527 0.98210055 -0.12276588 0.5767773
0001d0 57 1f 90 3e b7 93 1d bf 66 19 a0 be 6c 97 7c 3f
       0.2814891 -0.6155352 -0.31269377 0.9866855
0001e0 f2 fa 85 3d 53 9d 9f 3e 87 ec 4f 3f b4 27 0d bf
       0.06542005 0.31174716 0.8122029 -0.5513871
0001f0 30 56 a2 be 1a bc ae be 4d 4b c1 3e 6a fc c0 3b
       -0.3170638 -0.34127885 0.37752762 0.005889465
000200 c6 ba cd be 6d 73 c6 be d9 3c 27 bf 74 20 10 bf
       -0.4018156 -0.38759938 -0.6532722 -0.5629952
000210 2e af b8 be af 0f 86 bf 4a e4 87 bf 87 bf 35 3e
       -0.36071151 -1.0473536 -1.0616543 0.17748843
000220 df 17 d1 bd c6 d3 ae be d9 30 5c bc a8 4b 21 bf
       -0.10209631 -0.34145945 -0.013439381 -0.6300607
000230 16 1e 8e bd 2b d3 e9 be 75 de c0 be 0c db f1 be
       -0.06939332 -0.4566892 -0.3766972 -0.47237432

global_feature_extractor.second_block.0.conv.4.weight f4 [16]
000000 06 90 16 3f 81 5a 99 3f c2 7c 9f 3f 97 b9 d6 3f
       0.5881351 1.1980745 1.2459948 1.6775388
000010 bb f8 00 3f 1e ba c5 3f a5 62 74 3f a6 33 65 3f
       0.5037953 1.5447423 0.9546302 0.89531934
000020 14 3a 38 3f ab 09 1b 3f ac a5 9a 3f 01 30 5b 3f
       0.7196362 0.6056163 1.2081809 0.85620123
000030 74 af c0 3f fe cd 47 3f 08 ad 90 3f 6f 9a dd 3e
       1.5053544 0.78048694 1.1302805 0.43281886

global_feature_extractor.second_block.0.conv.4.bias f4 [16]
000000 84 1b 7a be 5d 23 ca 3e 65 76 1f 3f ea 38 9f 3f
       -0.24424559 0.39480105 0.6229003 1.2439244
000010 a7 de 29 3f 1e 16 1e 3f e2 70 f5 bd a2 cb c3 3e
       0.66355366 0.617525 -0.11984421 0.38241297
000020 52 2a 70 3e 29 e5 ee 3e ee 7e c2 3f 11 c5 85 3e
       0.23453644 0.4665921 1.5194986 0.26126912
000030 e3 36 a4 be 70 6d 37 3e 23 18 8d be 46 83 63 bf
       -0.32073125 0.17912841 -0.27557477 -0.8887218

global_feature_extractor.second_block.0.conv.4.running_mean f4 [16]
000000 fa 08 01 3f 85 cc 4f c0 67 06 9e 40 ff e9 49 40
       0.5040432 -3.246858 4.9382815 3.154907
000010 05 f5 da 3f 9e c8 48 3f f7 77 16 3f 56 14 01 40
       1.7106024 0.7843112 0.587768 2.0168662
000020 0b 2c ef bf 90 3b 7a bf a2 87 ae 3f fd 51 0f 40
       -1.8685316 -0.97747135 1.3635142 2.2393792
000030 04 d5 48 40 24 38 f4 3d e0 4b 2a c0 34 9b bd bf
       3.1380014 0.119247705 -2.660881 -1.4812989

global_feature_extractor.second_block.0.conv.4.running_var f4 [16]
000000 ec 17 b0 3f 49 ee ca 40 24 94 94 3f 51 66 b8 41
       1.37573 6.3415875 1.1607709 23.04996
000010 8e e7 c0 40 c7 c4 90 3f 3b 53 8a 3f 38 35 b9 40
       6.028266 1.1310052 1.080665 5.7877464
000020 c3 44 de 3f 3c ad 93 40 cc fe da 3f 32 2c 84 40
       1.7364734 4.614897 1.7109008 4.130395
000030 29 8d 71 40 91 a8 70 3f ae 8b 8b 40 dd 0b 10 40
       3.7742407 0.9400721 4.3608007 2.250724

global_feature_extractor.second_block.0.conv.6.weight f4 [12, 16, 1, 1]
000000 c6 0c 1d be 77 1e 31 3d f5 ce f1 3d 54 7b ea bd
       -0.15336904 0.043241944 0.11807052 -0.11449304
000010 97 d0 66 3d 40 f8 73 3e 19 aa 60 3e 25 76 e9 3d
       0.05635127 0.23825169 0.21939887 0.113994874
000020 c0 f9 8a 3c 2f cd 15 3e 23 0a 00 3e 20 36 28 3f
       0.016964793 0.14629053 0.12503867 0.6570759
000030 cd 6b 81 be 8f 31 ed 3f 94 57 1b 3e 7b 9d ec 3e
       -0.25277558 1.8530749 0.15170127 0.46213898
000040 78 14 8f be bd c6 c7 3e 19 9e 30 bf 1f b6 df be
       -0.27945304 0.39018813 -0.6899124 -0.43693635
000050 ab dd f6 3e 82 9d 56 3e 3e dc eb 3e 75 a7 a7 3d
       0.48215994 0.20958522 0.4606647 0.08186237
000060 12 18 8f 3e 6a 6c 87 bc 34 9e 5c bf 5d 46 fa be
       0.27948052 -0.016531188 -0.861789 -0.48881808
000070 19 82 c7 bf 19 d3 0c bd c7 20 06 bc 19 90 84 be
       -1.5586578 -0.034381006 -0.008186526 -0.25891188
000080 4f 59 40 be 9a 34 85 bf c0 21 2d bf 18 9b 8b 3f
       -0.18784069 -1.0406678 -0.67629623 1.0906706
000090 4f fa 4d be 8e c0 02 bf 82 ed 4b 3e 1d d4 09 bf
       -0.20115016 -0.51075065 0.19914821 -0.53839284
0000a0 8c 33 9e be 73 4a 14 bf f6 7a 04 3d 7b db 78 3e
       -0.30898702 -0.579261 0.032343827 0.24302475
0000b0 d4 05 91 3e 34 69 71 3e bd 95 69 3e 03 c8 fa 3e
       0.2832476 0.23575288 0.22811027 0.48980722
0000c0 46 74 44 bf ec a3 00 3f f2 b5 0f 3f 12 84 f6 be
       -0.7673992 0.50250125 0.56137 -0.48147637
0000d0 56 4d a3 3e 28 15 a5 bf 77 cc 97 be dc 58 98 3d
       0.3189494 -1.2897081 -0.29648182 0.074388236
0000e0 a3 8b 9e be df db c4 be 78 b7 05 3f 61 00 2d 3f
       -0.3096591 -0.38448998 0.52233076 0.67578703
0000f0 5b ef 1b bf 63 83 1a bf 08 18 b5 bc e3 0b 72 bd
       -0.609121 -0.6035673 -0.022106186 -0.059093367
000100 fe 9e 8e bd 48 72 4f bf 01 8b 1d bf e7 ca cc 3f
       -0.06963919 -0.81033754 -0.6154023 1.5999421
000110 55 df 6e be 3e 21 90 3d f1 34 d5 be 7d d8 ed 3e
       -0.23327382 0.070375904 -0.41641954 0.4645423
000120 3a b5 08 3d 94 9a d1 be 00 20 98 be c9 13 da be
       0.033375956 -0.40938246 -0.29711914 -0.4259322
000130 56 59 cf 3c 22 48 57 3e 62 54 47 bb 7d d6 47 3e
       0.025311153 0.2102361 -0.0030415286 0.19515415
000140 29 3d 43 bd be 3e e9 3e bf 00 01 3f 1e d7 cb be
       -0.04766575 0.4555568 0.50391763 -0.3981256
000150 60 db 10 3f a8 8d ff 3d d0 00 14 bd 7a eb 55 3f
       0.5658474 0.12478191 -0.036133587 0.83562434
000160 92 a9 16 bf 59 be 08 be 3b 29 49 3f f8 a7 30 bf
       -0.58852494 -0.13353862 0.7857854 -0.690063
000170 e2 fe cc 3e 68 41 20 bf f0 93 0e bd 61 f8 16 3d
       0.4003821 -0.625998 -0.034809053 0.036857966
000180 c4 ad 9e 3d 40 0c e1 3e 75 f1 07 3f 88 c5 71 be
       0.07747987 0.43954659 0.5310281 -0.23610508
000190 77 ae 6a be a7 97 3b 3f 7c 70 15 3f 71 0c 37 be
       -0.22918116 0.7327828 0.5837476 -0.1787584
0001a0 01 c4 95 3e 53 97 53 3f 7a 3f 50 3f aa ab 8c bd
       0.29251102 0.8265278 0.8134686 -0.0686868
0001b0 a3 ab 06 bf 5a e5 94 3e 66 44 98 bf c6 c5 5f bd
       -0.52605647 0.2908123 -1.1895874 -0.05463197
0001c0 39 60 27 bd 7a 34 8c 3e 6d 4e f3 3e e2 20 8a bf
       -0.04086325 0.27383786 0.47520772 -1.0791285
0001d0 d3 57 f9 3d da 64 50 bf 4f 2f 5d bf b4 41 cd be
       0.12174954 -0.8140389 -0.8640031 -0.4008919
0001e0 3d c8 26 bf bd a6 13 bd cb ae bb be 10 96 84 3e
       -0.6514929 -0.036047686 -0.36656794 0.2589574
0001f0 d9 d3 d8 3e 67 ac 48 be bb c2 45 3f 6f 29 82 3e
       0.42349127 -0.19597016 0.7725026 0.25422236
000200 ce db 9e bd 8d d2 60 3e 2d f7 dd 3e b3 14 8f bf
       -0.07756768 0.21955319 0.43352643 -1.1178192
000210 c6 ba 92 be 56 64 dc 3e 94 58 8b bd 6f 71 9b be
       -0.28658122 0.430453 -0.06804004 -0.3035998
000220 ea 20 be 3d 3c 35 c3 3e ae 96 a3 3f 3c de 88 be
       0.092836216 0.38126552 1.2780359 -0.2673205
000230 d4 5c d0 3e 2d db f7 bd a0 66 0e bf a8 2d 83 be
       0.40695822 -0.12102351 -0.55625343 -0.2562077
000240 d0 bf 33 3e 15 c0 b2 be f2 bb 72 3f 51 75 e5 be
       0.1755364 -0.34912172 0.9481803 -0.44816068
000250 6d 6f 09 be f6 43 eb 3e e0 3e 00 3f ff 2f 8b bf
       -0.13421412 0.45950288 0.5009594 -1.0874022
000260 65 e4 fd 3c c8 b4 21 3f 1f b9 95 be 1a df ca 3e
       0.030992696 0.63166475 -0.292428 0.39623338
000270 94 53 32 3f de 95 c5 bd 4a 00 f8 be cb fd c3 bd
       0.6965878 -0.096477255 -0.4843772 -0.095698915
000280 66 38 8c bf 7c e6 2d 3f 36 f7 10 3f 89 bb 54 bf
       -1.0954711 0.67929816 0.56627214 -0.83098656
000290 cf 75 18 3f e6 5d 2e bf b0 fc 23 3e ab 1b 08 3e
       0.5955476 -0.6811203 0.16014361 0.13291804
0002a0 5f 42 30 3e c8 72 c4 3e e1 53 2b 3e de ba 85 3e
       0.17212819 0.3836882 0.16731216 0.2611913
0002b0 d6 22 a7 be 41 86 e5 3e c8 6f 16 be f0 c8 3d 3e
       -0.32643765 0.4482899 -0.14691079 0.18533683
0002c0 17 e7 29 3d 0e ea e1 be f5 2b 8b be b6 29 3a 3f
       0.04148015 -0.44123882 -0.27181974 0.72719896
0002d0 7f f0 c9 be 63 38 ac be a4 39 13 be cc ee 56 3f
       -0.39441296 -0.3363677 -0.14377457 0.83958125
0002e0 07 33 23 bf 45 b2 b2 be 63 52 96 3f 26 05 c9 bd
       -0.63749737 -0.34901634 1.1743892 -0.09815435
0002f0 92 86 53 3e 1b d9 00 3f eb 0c 04 bd b2 22 3d 3e
       0.20656803 0.50331277 -0.032238882 0.18470266

global_feature_extractor.second_block.0.conv.7.weight f4 [12]
000000 2b d7 96 3e 39 a6 be 3f dc a1 5d 3f df 66 d3 3f
       0.29461035 1.4894477 0.865751 1.6515769
000010 f0 ff aa 3f 39 bf 3a 3f a2 c7 8a 3f 1e 38 a4 3f
       1.3359356 0.7294803 1.0842173 1.2829626
000020 0b 41 8c 3f 3e 56 81 3f f4 dd 4c 3f 2f d8 b0 3f
       1.095735 1.0104444 0.80026174 1.3815974

global_feature_extractor.second_block.0.conv.7.bias f4 [12]
000000 7c 23 95 39 89 dd 21 3b 04 bb d1 3b 22 39 56 bb
       0.00028445933 0.0024698696 0.006400468 -0.0032687862
000010 b4 23 30 bb 99 10 a6 bc d0 c0 e0 3a 14 2b 25 3b
       -0.002687675 -0.020271586 0.0017147306 0.0025202679
000020 d6 44 d5 bb e4 34 2b bc a2 63 4e ba 75 d2 9f bb
       -0.00650845 -0.010449622 -0.0007873123 -0.0048773834

global_feature_extractor.second_block.0.conv.7.running_mean f4 [12]
000000 1e c3 c9 3f 18 74 20 c0 c8 28 55 bf 07 4b 1b bf
       1.576267 -2.5070858 -0.8326535 -0.6066136
000010 9b 3b e5 3c c5 60 e0 3f ff ed 1c 40 4f b7 0f c0
       0.027982524 1.7529532 2.4520261 -2.2455633
000020 d2 8d ab 3f c5 30 7c 3e a4 3c b9 3e 85 b7 e5 3f
       1.3402655 0.24627979 0.36179078 1.7946631

global_feature_extractor.second_block.0.conv.7.running_var f4 [12]
000000 24 eb 8d 3f e5 f9 20 41 9c 1c d4 40 8b 1d 26 41
       1.1087384 10.061009 6.6284924 10.382213
000010 ad f0 5d 41 19 53 e8 3f 6a fb 5c 40 80 50 f8 40
       13.871259 1.8150359 3.452845 7.7598267
000020 02 1d a4 40 9c 32 91 40 9e 9d be 40 6e 07 11 41
       5.128541 4.537428 5.9567404 9.064314

global_feature_extractor.third_block.0.conv.0.weight f4 [24, 12, 1, 1]
000000 c1 63 71 3f a9 58 21 bf ee 5e 8c 3e 76 92 80 3f
       0.9429284 -0.6302591 0.27416176 1.0044696
000010 dd 45 65 be 09 01 3a bf 5a db 9b 3e 7e 64 22 3f
       -0.22389932 -0.7265783 0.3044079 0.6343459
000020 e2 94 91 3e 3d 96 05 3f 7e 28 61 3e b9 61 d0 bc
       0.284339 0.5218237 0.21988103 -0.025437223
000030 ad a5 c5 3d 8e 8d 48 3f 4d 7e c7 3e 2e a9 81 be
       0.09650741 0.78340995 0.38963547 -0.25324386
000040 e4 bb f6 be 35 8d 23 bf 5d 7b 18 be f9 18 1d 3e
       -0.48190224 -0.6388734 -0.1489081 0.15341558
000050 50 eb eb be 50 4b 4c 3f cf 7e 62 be c1 a0 c8 bf
       -0.46077967 0.7980242 -0.22118686 -1.5674058
000060 58 9d 28 3f b3 a9 a4 3b 2e 57 d3 3d 21 43 ad be
       0.6586509 0.0050251125 0.103193626 -0.33840278
000070 b0 e9 58 3f fd 6c 24 bd ba 02 3f 3d b7 15 19 bf
       0.8473158 -0.040143 0.04663346 -0.5979876
000080 55 86 35 bf ca 63 44 bf 71 f3 8e 3e 78 4d a0 3f
       -0.709081 -0.76714766 0.27920106 1.2523642
000090 c8 72 42 3e f0 00 24 3f d1 d6 68 bf 80 20 47 3f
       0.18989098 0.6406393 -0.90952784 0.77783966
0000a0 fd d7 82 bf 42 ea 31 3e b0 d0 11 3f eb d9 c0 3d
       -1.0222164 0.17374519 0.56959057 0.094165646
0000b0 aa 3a c3 bd 7a 40 0b bf ee 02 17 3f fb 38 8f be
       -0.09532674 -0.5439526 0.58988845 -0.2797316
0000c0 e7 51 1f 3c 86 d6 64 bf 7e 2f 7e 3e e8 70 1b 3f
       0.009724117 -0.89389837 0.24822804 0.60719156
0000d0 4f 54 1e bf f7 7e 50 bd 11 b0 90 3e 65 99 9c 3e
       -0.61847395 -0.050902333 0.28259328 0.3058578
0000e0 98 99 91 3e a1 b7 f2 3e 99 d0 93 3e fd 3c e0 3d
       0.28437495 0.47405723 0.28870085 0.109491326
0000f0 30 03 a2 be 84 13 d2 bf 3c 52 d0 3d 79 d2 19 bd
       -0.31643057 -1.6412206 0.10171935 -0.037554238
000100 18 8a d3 3d ac 3e 45 3f 05 79 19 be 37 92 41 3f
       0.10329074 0.77048755 -0.14987572 0.7561373
000110 51 e7 a4 3e 1f fd 84 3f 5b 07 bc 3c d8 71 67 ba
       0.3220773 1.0389746 0.022952726 -0.0008828915
000120 6e fb de be a2 b7 43 3e ca 2b 76 3d 28 6b 6d 3f
       -0.435512 0.19113019 0.060100354 0.9274163
000130 f4 03 ce be 14 9e 17 3f 2c d3 70 be ba 71 fa 3e
       -0.4023739 0.59225583 -0.23518056 0.4891489
000140 cb 89 02 3f f4 70 16 bf bd ee 0a bc 90 12 4f be
       0.50991505 -0.587661 -0.008479771 -0.20221925
000150 01 69 03 3e 0d eb b6 be a4 c3 c6 3e fe 00 60 bf
       0.12833025 -0.35726205 0.38821137 -0.87501514
000160 2f 2d d9 3e 0d 81 86 3e 29 68 04 3f 61 37 87 bf
       0.42417285 0.26270333 0.51721436 -1.0563775
000170 61 25 e6 3e 41 aa ae 3e 76 3a 00 bf 89 17 35 3f
       0.44950393 0.34114268 -0.50089204 0.70739037
000180 85 28 15 3f 1f 55 ec 3c 2e 4d 96 3f 20 f7 aa bc
       0.5826495 0.028849183 1.1742303 -0.020869792
000190 1b 98 06 3f 6c 4c 7a bf 1d ee 84 bf ad 5a eb 3e
       0.52575845 -0.9777286 -1.0385166 0.45967618
0001a0 e9 13 3e bf 18 d9 14 be 18 23 c9 3d ef c7 b0 3e
       -0.7424913 -0.1453594 0.09821147 0.34527537
0001b0 4b 03 aa 3e 06 e9 2e bf bc f5 2c bd f4 ea fb bd
       0.33205637 -0.68324316 -0.042226538 -0.12300673
0001c0 ff 80 fa be 45 b2 5c be e5 43 e4 3d a6 1e 7a 3f
       -0.4892654 -0.2155238 0.11145762 0.97703016
0001d0 9f 5b 7f 3f d8 02 78 3f 8d 9a 80 3c 09 14 89 3c
       0.9974918 0.9687934 0.015698696 0.016733186
0001e0 56 27 8b be 5f 87 0e 3f 4d 4e 18 bf da 00 f8 3e
       -0.27178448 0.5567531 -0.5949448 0.4843815
0001f0 3c ba f4 be bb 28 cd 3e 7e 94 a1 3e fa 15 0a 3e
       -0.47798336 0.40070137 0.31558603 0.13484946
000200 94 61 97 3e 24 ac 49 be 5f ca 2b 3f 05 37 e0 be
       0.29566634 -0.19694573 0.6710567 -0.43791977
000210 11 ef df be 18 9a cc be a7 ca c2 3f 89 c3 d5 bd
       -0.4373708 -0.39961314 1.5218095 -0.10437686
000220 29 f8 61 3f 7f eb b1 be 4e e2 12 bf 40 b4 2f be
       0.8826929 -0.34749982 -0.57376564 -0.17158604
000230 e4 e4 ef be 91 2c 89 3c 35 0b 54 bf e3 dc 33 3f
       -0.46854317 0.016744884 -0.828296 0.7025892
000240 67 e2 5a 3e f9 f8 08 3f 0a 83 56 bf 2f 0c fd 3e
       0.21375428 0.535049 -0.837937 0.49423358
000250 e8 95 46 bf 56 0f 7d 3e 6c 79 dd 3e c3 52 72 3d
       -0.7757249 0.24712881 0.432567 0.05916096
000260 9f e2 e9 3e 25 f3 91 bd 70 1b 48 3f 1d 42 a5 bd
       0.4568071 -0.07126454 0.78166866 -0.08069251
000270 9a 1d 07 bf 40 57 72 bf 47 de 3b bd 3a 6c 54 be
       -0.52779543 -0.9466438 -0.045866277 -0.2074441
000280 23 15 98 bd 78 c0 8d 3f 53 e0 09 bf cf 50 20 3f
       -0.074259065 1.1074362 -0.53857917 0.62623304
000290 87 f4 dc 3e 42 f1 9c 3e 0c b6 4f bf 16 a6 2e 3f
       0.4315531 0.30652815 -0.81137156 0.6822218
0002a0 10 ea 28 be f6 01 cf be 9e 62 94 3e 70 17 a9 3f
       -0.16495538 -0.40431184 0.2898149 1.3210278
0002b0 d8 72 e9 bd 31 09 5c 3f 7e 72 14 bf a4 26 18 3f
       -0.11398858 0.85951525 -0.579872 0.5943396
0002c0 4f 68 17 3f c9 9a e7 be 92 13 8f 3e f5 04 ba 3e
       0.5914354 -0.4523528 0.27944618 0.36331907
0002d0 e6 47 f5 3e e7 35 6d be 11 62 84 3e 11 11 07 bf
       0.47906417 -0.23165093 0.2585607 -0.52760416
0002e0 74 fa 90 3f 64 9f 89 bd 53 43 3a bd f4 5f 3b bf
       1.1326432 -0.067198545 -0.04547436 -0.7319329
0002f0 d1 be 46 bf 09 dd 54 bf f9 ab c4 be e2 e0 75 3f
       -0.7763491 -0.8314977 -0.38412455 0.9604627
000300 ad ac 55 3e 2a 0e e9 be 8b 08 20 be d4 cc ab bd
       0.20866652 -0.4551862 -0.15628259 -0.08388677
000310 83 04 24 bf 7f 8b a6 be 63 78 e1 be fd 51 9a 3f
       -0.64069384 -0.32528302 -0.4403716 1.2056271
000320 63 43 fc 3d 84 ce be 3f 8e d4 73 3e 3f 02 2f bf
       0.123175405 1.4906774 0.23811552 -0.683628
000330 db 79 95 3e eb 48 14 bf 11 1a fe 3e f7 ac 74 bf
       0.2919453 -0.57923764 0.49629262 -0.95576423
000340 d4 51 c0 3e 2c 7a 23 3f 25 ce 4e 3e 8d 4c 25 3f
       0.3756243 0.63858294 0.20195825 0.6456993
000350 5d 82 49 3f 66 60 f6 3d 44 d5 ec be 88 3a a3 3f
       0.78714544 0.12030105 -0.4625646 1.2752237
000360 e5 a1 a3 3d 61 37 15 be 21 2b 56 bc c0 06 5b bf
       0.07989863 -0.14571907 -0.013071806 -0.85557175
000370 b2 49 e9 3d d1 a3 c0 be 2f 44 b1 3f 1d 1d 80 bf
       0.113910094 -0.37624982 1.3848933 -1.0008885
000380 cd e9 e7 3e 25 6e 1b 3f 35 61 5e be 01 bd 2d 3e
       0.45295563 0.6071494 -0.21716769 0.1696663
000390 88 bb c5 3d 26 f2 d3 3d b3 14 bb 3e da b9 f1 3f
       0.09654909 0.103489205 0.3653923 1.8884842
0003a0 ab 8b a6 be e3 84 a7 3e 84 42 d8 3e fd 9d bd be
       -0.32528433 0.32718572 0.42238247 -0.37034598
0003b0 32 34 a9 3c 10 01 88 bd c2 ff 60 3f bd 01 c8 3e
       0.020654771 -0.06640828 0.87890255 0.39063826
0003c0 7a 22 1d be 3e 8f 02 c0 cf 72 f7 3e 2e 34 1d 3e
       -0.15345183 -2.0399928 0.4832978 0.15351936
0003d0 78 e1 49 3d 68 58 4b 3d c4 0e 5f bf d5 0a af 3e
       0.04928729 0.049644858 -0.87131906 0.34187952
0003e0 cc 62 5e 3e ce 1b a0 3e 07 44 0b bf f0 0f f5 3e
       0.21717376 0.31271213 -0.54400676 0.47863722
0003f0 4e ef 81 3e 06 e0 36 bf c8 31 28 3d 4d e8 b0 3e
       0.25377887 -0.7143558 0.0410631 0.3455223

global_feature_extractor.third_block.0.conv.1.weight f4 [24]
000000 0f e8 6a 3f 6f 70 07 3f cb 19 20 40 2c ce 89 3f
       0.91760343 0.52905935 2.5015743 1.0766044
000010 71 60 7a 3f aa d8 ed 3f 9c f9 c2 3f 4a 60 f4 3f
       0.9780341 1.8581746 1.5232425 1.9091885
000020 d6 be a1 3f d2 79 df 3e 45 2b b7 3f 86 63 a3 3f
       1.2636364 0.4364763 1.431008 1.2764747
000030 0c 02 f8 3e c7 11 aa 3f cb cb 1e 3f b8 6f 74 3f
       0.48439062 1.3286675 0.62029713 0.9548297
000040 0a 5a b8 3f 60 a3 47 3f 02 c4 d5 3f 39 d1 b8 3f
       1.4402478 0.77983665 1.6700442 1.443885
000050 a1 c6 fd 3f 14 19 05 3f e9 7b 69 3f 5f eb 07 3f
       1.9826242 0.5199139 0.91204697 0.5309352
