model_checkpoints/experiments/overall/fastscnn_128a0.125t6r2pp0.pt (torch, 140695 bytes, 151 tensors)

learning_to_down_sample.conv.conv.weight f4 [4, 3, 3, 3]
0.3678539 0.3001407 0.31766415 0.14658372 0.12919833 0.23911618 0.028454214 0.27679297
0.5081018 0.4718708 0.76228917 0.2680094 0.7101274 1.2670288 1.3104035 0.12059281
0.8909433 1.0141665 -0.97281224 -0.78869396 -0.35726687 -0.6980457 -0.60956967 -0.2291475
-0.8224938 -0.08032152 0.45223233 0.18040414 -0.18417078 -0.355159 0.02863682 -0.25611848
-0.45167762 0.07065922 -0.21312784 -0.47423646 -0.26851982 -0.22325008 -0.16010977 -0.21924908
-0.77847224 -0.8015883 -0.08747967 -0.8423371 -1.0008348 -0.010037462 0.42335588 0.45733598
0.29122195 0.45256883 0.46176004 0.23999448 0.52856106 0.21660192 0.078552015 -0.7546506
-0.891119 -0.07676649 -0.24082267 -0.35819107 -0.41955116 0.008624194 -0.475648 1.0999593
0.44709894 0.3159329 0.47422767 0.61143816 0.20736367 -0.114266835 0.4362513 0.18881924
0.5280831 -0.18516009 -0.19685248 0.09981978 -0.14032677 -0.06488026 -0.45017493 -0.10038981
-0.067673855 0.16190602 0.540727 0.5361232 -0.017593492 -0.021274056 -0.2303954 -0.058488045
-0.35175753 -0.44793734 0.5856339 0.6653812 0.94945943 -0.002644285 -0.20360436 -0.12953039
-0.5703334 -0.70111287 -0.4305787 0.34031504 0.60075694 0.7790886 -0.103171006 -0.3858046
-0.1433821 -0.38972166 -0.62384045 -0.38779506
00000000: 5957 bc3e 0bac 993e e0a4 a23e 0b1a 163e
00000010: 914c 043e dfda 743e d018 e93c cfb7 8d3e
00000020: f612 023f 0d99 f13e 6225 433f 8738 893e
00000030: e9ca 353f 002e a23f 4dbb a73f 5df9 f63d
00000040: dc14 643f 35d0 813f 390a 79bf d9e7 49bf
00000050: afeb b6be 1fb3 32bf c20c 1cbf a4a5 6abe
00000060: f48e 52bf 9c7f a4bd ff8a e73e ddbb 383e
00000070: 4497 3cbe 67d7 b5be c497 ea3c f621 83be
00000080: 4a42 e7be c8b5 903d 2f3e 5abe 1fcf f2be
00000090: 6e7b 89be ab9b 64be d1f3 23be d582 60be
000000a0: f549 47bf e434 4dbf 8b28 b3bd 67a3 57bf
000000b0: 5b1b 80bf 2b74 24bc 1ac2 d83e f127 ea3e
000000c0: 0b1b 953e 1ab7 e73e d06b ec3e 1dc1 753e
000000d0: c74f 073f e5cc 5d3e e1df a03d c830 41bf
000000e0: 6020 64bf c037 9dbd 389a 76be d264 b7be
000000f0: 69cf d6be 7e4c 0d3c 2288 f3be 77cb 8c3f
00000100: 27ea e43e f5c1 a13e f8cd f23e 3687 1c3f
00000110: 2457 543e bb04 eabd 555c df3e d559 413e
00000120: 7430 073f 9b9a 3dbe b293 49be 506e cc3d
00000130: d2b1 0fbe f1df 84bd 547d e6be 2c99 cdbd
00000140: 9798 8abd b1ca 253e 166d 0a3f 5f3f 093f
00000150: 3a20 90bc ee46 aebc c6ec 6bbe 2991 6fbd
00000160: 9019 b4be 0b58 e5be 1aec 153f 6c56 2a3f
00000170: c60f 733f be4b 2dbb a97d 50be 9da3 04be
00000180: 5f01 12bf 227c 33bf d074 dcbe c63d ae3e
00000190: 35cb 193f 5a72 473f 524b d3bd 2e88 c5be
000001a0: c2d2 12be 9989 c7be 02b4 1fbf 138d c6be

learning_to_down_sample.conv.bn.weight f4 [4]
2.0567422 1.8369113 1.3027252 1.8338975
00000000: aaa1 0340 e91f eb3f b3bf a63f 27bd ea3f

learning_to_down_sample.conv.bn.bias f4 [4]
-0.32252648 0.34436798 -0.28911436 -0.13286194
00000000: 3122 a5be 0051 b03e cc06 94be f60c 08be

learning_to_down_sample.conv.bn.running_mean f4 [4]
-0.75258535 0.7932247 0.5250512 -0.19085865
00000000: 6fa9 40bf c610 4b3f c169 063f 7370 43be

learning_to_down_sample.conv.bn.running_var f4 [4]
10.196464 3.4272053 1.8742186 5.3086815
00000000: b724 2341 5557 5b40 65e6 ef3f b8e0 a940

learning_to_down_sample.dsconv1.0.weight f4 [4, 1, 3, 3]
-0.2300883 -0.50823116 -0.29505444 -0.18275632 -0.7977586 -0.70170516 -0.099526025 -0.56163025
-0.53257805 0.26699916 0.29647386 0.0579389 0.32492885 0.94133514 0.6334815 -0.029607277
0.47084695 0.52726 0.4580266 0.7846446 0.45489258 0.049965724 0.5272729 0.5080499
-0.31976694 0.3059734 0.6539745 -0.11678114 -0.6653765 -0.7299072 -0.049535926 -0.6953108
-1.0094115 -0.009393175 -0.18907653 -0.4047574
00000000: 449c 6bbe 701b 02bf 6011 97be 7924 3bbe
00000010: e839 4cbf f3a2 33bf 4dd4 cbbd 00c7 0fbf
00000020: 0957 08bf 1db4 883e 6ccb 973e 5751 6d3d
00000030: 135d a63e 57fb 703f d82b 223f f68a f2bc
00000040: da12 f13e 83fa 063f 7682 ea3e 78de 483f
00000050: aee7 e83e dca8 4c3d 5bfb 063f 8f0f 023f
00000060: 7eb8 a3be 8ca8 9c3e df6a 273f f32a efbd
00000070: 1d56 2abf 33db 3abf 2fe6 4abd e3ff 31bf
00000080: 6534 81bf d5e5 19bc 479d 41be 5d3c cfbe

learning_to_down_sample.dsconv1.1.weight f4 [4]
1.292778 0.9682333 1.0206504 1.1633625
00000000: c079 a53f 23de 773f aca4 823f 10e9 943f

learning_to_down_sample.dsconv1.1.bias f4 [4]
-0.054220412 -0.081646666 0.00017764035 -0.026409067
00000000: 3916 5ebd 5e36 a7bd f844 3a39 d457 d8bc

learning_to_down_sample.dsconv1.1.running_mean f4 [4]
-2.3591092 2.9829185 1.0189669 -1.7831855
00000000: a5fb 16c0 23e8 3e40 826d 823f 6c3f e4bf

learning_to_down_sample.dsconv1.1.running_var f4 [4]
11.566188 12.623825 8.813051 6.3411803
00000000: 1b0f 3941 30fb 4941 4202 0d41 f3ea ca40

learning_to_down_sample.dsconv1.2.weight f4 [6, 4, 1, 1]
-0.35103923 -0.62817615 0.55597615 0.6907257 -1.1337538 -0.93344367 0.10987735 -0.36598033
-0.56189704 -0.52586377 -0.117585614 0.9680262 0.23193723 0.26663676 0.9854901 -0.4578701
-0.96155596 -0.48956904 0.61388475 -0.42474177 -0.06841742 0.11865025 1.452414 0.09891619
00000000: 6abb b3be 27d0 20bf 7454 0e3f 66d3 303f
00000010: d81e 91bf 2af6 6ebf 6007 e13d c661 bbbe
00000020: 7cd8 0fbf 029f 06bf bad0 f0bd 91d0 773f
00000030: f480 6d3e 9d84 883e 1449 7c3f f36d eabe
00000040: 8828 76bf cba8 fabe 8d27 1d3f c177 d9be
00000050: 6f1e 8cbd e7fe f23d b4e8 b93f 9294 ca3d

learning_to_down_sample.dsconv1.3.weight f4 [6]
0.626268 0.51571643 0.6287996 1.2002044 0.6485532 1.4697301
00000000: 1a53 203f fe05 043f 03f9 203f 4ca0 993f
00000010: 9507 263f 1e20 bc3f

learning_to_down_sample.dsconv1.3.bias f4 [6]
0.7320879 0.8735714 0.7870107 0.4046192 0.9807257 0.107551865
00000000: 1d6a 3b3f 60a2 5f3f 8979 493f 3f2a cf3e
00000010: d710 7b3f 2744 dc3d

learning_to_down_sample.dsconv1.3.running_mean f4 [6]
0.052206054 0.14737244 0.04777912 -0.022037873 0.10345105 -0.008317328
00000000: 04d6 553d cde8 163e 0ab4 433d c588 b4bc
00000010: 25de d33d 6745 08bc

learning_to_down_sample.dsconv1.3.running_var f4 [6]
2.7041414 3.784233 3.3508048 1.527309 2.8583784 2.2687054
00000000: a710 2d40 e030 7240 9673 5640 dc7e c33f
00000010: acef 3640 7832 1140

learning_to_down_sample.dsconv2.0.weight f4 [6, 1, 3, 3]
-0.038623895 -0.5215346 -0.79552895 0.009593602 0.42883494 -0.29955864 0.2689096 0.9463859
0.38919774 0.4223863 0.8263191 0.016146477 0.4620945 0.68268305 -0.022917086 -0.39374372
-0.3844798 -0.86584383 0.020789191 -0.6857356 -0.7532237 -0.1760008 -1.1031225 -1.4132091
-0.123500206 -0.24976718 -0.48452407 -0.3741457 -0.31679338 -0.5900205 -0.07847009 -0.24780455
-0.9103108 -0.15358306 0.6338184 0.45124522 0.18494421 0.25522625 0.7655158 -0.29086396
-0.771304 -0.9065898 0.28583235 -0.6065439 -0.9669887 0.42718506 0.7762223 0.06958391
0.32466367 0.415884 0.3990139 -0.5539107 -0.37455192 0.6798998
00000000: 1734 1ebd 4b83 05bf c9a7 4bbf 7c2e 1d3c
00000010: 4190 db3e c05f 99be 85ae 893e 5946 723f
00000020: ed44 c73e 0443 d83e a689 533f 9e45 843c
00000030: a697 ec3e 51c4 2e3f 9dbc bbbc c798 c9be
00000040: 89da c4be f1a7 5dbf 184e aa3c 5e8c 2fbf
00000050: 45d3 40bf 8e39 34be 1e33 8dbf 09e4 b4bf
00000060: aded fcbd f8c2 7fbe 8a13 f8be 0690 bfbe
00000070: be32 a2be 950b 17bf edb4 a0bd 7ac0 7dbe
00000080: 210a 69bf e144 1dbe ec41 223f 9d09 e73e
00000090: 0462 3d3e 04ad 823e d8f8 433f 1fec 94be
000000a0: 2e74 45bf 4516 68bf 9e58 923e 7646 1bbf
000000b0: 928c 77bf 00b8 da3e 81b6 463f 0282 8e3d
000000c0: 513a a63e bfee d43e 8d4b cc3e 17cd 0dbf
000000d0: 45c5 bfbe ea0d 2e3f

learning_to_down_sample.dsconv2.1.weight f4 [6]
0.902422 1.2925844 1.3517492 0.6662841 1.4679378 0.81168544
00000000: 2105 673f 6873 a53f 1e06 ad3f 9891 2a3f
00000010: 63e5 bb3f 9eca 4f3f

learning_to_down_sample.dsconv2.1.bias f4 [6]
0.038466573 0.05094618 -0.018354667 -0.016743166 -0.0216349 -0.008915146
00000000: 208f 1d3d f1ac 503d 875c 96bc f728 89bc
00000010: ac3b b1bc d510 12bc

learning_to_down_sample.dsconv2.1.running_mean f4 [6]
0.35331747 0.5714228 -4.1121 -0.92331225 -2.0890026 0.79239666
00000000: 07e6 b43e c448 123f 5396 83c0 315e 6cbf
00000010: 38b2 05c0 82da 4a3f

learning_to_down_sample.dsconv2.1.running_var f4 [6]
0.6153512 0.5301476 3.6591113 3.3830547 2.1446388 8.133603
00000000: a887 1d3f c1b7 073f e12e 6a40 f883 5840
00000010: c341 0940 3d23 0241

learning_to_down_sample.dsconv2.2.weight f4 [8, 6, 1, 1]
-0.71583956 0.569743 -0.4777073 -0.13210456 0.7735928 0.42364836 -0.5632555 -1.0756528
0.22192016 -0.002275699 -0.6909616 -0.3592542 0.861048 0.7740054 0.16356467 -0.42598855
-0.52915746 -0.72899383 0.88934886 -0.4476969 0.3379304 -0.1922879 -0.92239636 -0.38461268
-0.32438877 0.2680758 -0.67316085 -0.44692907 -0.5953313 0.48544458 0.1525491 0.8451288
0.9721744 -0.1543816 -0.23384282 0.30173898 -0.1848501 -0.15780422 0.57759786 -1.0956923
0.2911363 -0.37777162 -0.72958785 0.7979592 0.6084649 0.3265046 -0.67965424 -0.5468947
00000000: 4341 37bf adda 113f 0d96 f4be 6b46 07be
00000010: 2e0a 463f 70e8 d83e 8331 10bf feae 89bf
00000020: 0a3f 633e e523 15bb dce2 30bf 2bf0 b7be
00000030: a46d 5c3f 3825 463f 7f7d 273e 2c1b dabe
00000040: dd76 07bf 579f 3abf 5eac 633f 8738 e5be
00000050: 3705 ad3e 1fe7 44be 2b22 6cbf f4eb c4be
00000060: 4916 a6be 3b41 893e 4554 2cbf e3d3 e4be
00000070: a267 18bf 318c f83e d535 1c3e 5c5a 583f
00000080: 6ce0 783f 3616 1ebe 7e74 6fbe 887d 9a3e
00000090: 5849 3dbe 6e97 21be 74dd 133f a53f 8cbf
000000a0: d10f 953e 486b c1be 45c6 3abf 0e47 4c3f
000000b0: 5bc4 1b3f 9c2b a73e d2fd 2dbf 4b01 0cbf

learning_to_down_sample.dsconv2.3.weight f4 [8]
1.4726672 1.1558679 0.8604149 1.1332415 1.2882022 1.0150378 0.9822975 0.87490207
00000000: 5c80 bc3f 7bf3 933f 2744 5c3f 0f0e 913f
00000010: cfe3 a43f c2ec 813f d977 7b3f 95f9 5f3f

learning_to_down_sample.dsconv2.3.bias f4 [8]
-0.22579655 0.51403046 1.1010259 0.6938446 1.5806627 0.90289915 0.19082488 0.7087536
00000000: 3637 67be 8097 033f 6bee 8c3f cd9f 313f
00000010: 2853 ca3f 6624 673f 9967 433e e070 353f

learning_to_down_sample.dsconv2.3.running_mean f4 [8]
-0.008025586 -0.062334318 0.09462989 0.03179 0.029580982 0.03604494 -0.010369376 0.015531909
00000000: bf7d 03bc 4552 7fbd 51cd c13d 3b36 023d
00000010: d153 f23c dca3 133d 51e4 29bc 8c79 7e3c

learning_to_down_sample.dsconv2.3.running_var f4 [8]
2.5338216 2.0294533 1.5383978 2.943308 3.8911946 1.7541506 2.287176 1.8021173
00000000: 222a 2240 90e2 0140 38ea c43f 295f 3c40
00000010: 5509 7940 0288 e03f 1761 1240 c8ab e63f

global_feature_extractor.first_block.0.conv.0.weight f4 [48, 8, 1, 1]
-0.8226066 0.16622543 -0.66784 -0.027070582 0.75342345 -0.8966604 -0.5653582 0.081845835
0.39642623 -0.1601814 -0.15003401 -1.0678464 -0.9437302 0.5686315 0.16433918 0.42756766
0.033414938 -0.735119 -0.30554807 0.26736176 0.99517703 -0.3690891 -0.37887153 -0.39501393
0.8692558 -0.2781693 -0.12301442 0.3967945 -0.5243763 0.33796236 0.4010272 0.4558028
-0.44105464 0.11055732 -1.2344693 -1.1717994 0.032390162 0.30622387 0.28150615 -0.69010943
0.68850434 -0.40227863 -0.21684946 -0.6242238 0.41740143 0.3839882 0.36014804 -0.07768737
-0.06858042 -0.097734645 -1.0436988 -0.41812617 -0.30631343 0.1908236 0.86665237 0.3272697
0.54876417 0.45217577 0.087750964 0.39428726 -0.35576594 -0.057517577 0.5153326 0.45748737
-0.1558186 -0.20108747 0.35688004 0.17564666 0.8308843 -0.058916073 -0.18057504 -0.24726261
-0.08720005 -0.22515984 -0.26944366 -0.19356553 -0.26046968 -0.29122537 -0.36632165 -0.15182187
-0.08767901 -0.628085 0.24477804 -0.19959973 -0.29707158 -0.8228094 0.2208929 -0.122738406
0.32778817 -0.09465916 1.1804366 0.3515292 0.90722525 -0.07879098 0.055873416 0.17458333
-0.3836123 -0.06937857 0.20261213 -0.122978464 0.016656773 1.2439502 0.40280923 -1.1170973
-0.017414005 -0.08818168 -1.1268271 -0.26911363 -0.3989188 -0.78050923 0.10351477 -0.27296352
0.21654019 -0.48875737 -0.32698998 0.1666747 -0.48987392 -0.0840811 0.0099520935 0.5848993
-0.90894836 -0.82358265 -0.22693062 0.07032918 0.42679226 -0.029715288 0.03085654 -0.47341734
-0.26908317 0.41824657 0.4429059 0.27362484 -0.5949951 0.34147188 0.028544366 -0.5637314
0.22699946 0.7018698 0.22495298 -0.023792217 -0.5787097 0.4548645 1.2092632 0.11405931
0.52123356 -0.42526585 -0.3219764 0.23507957 0.5738378 -0.46876332 0.26555336 -0.9300537
-0.30656314 -0.27683902 0.881104 0.53362375 -0.1280748 0.1411721 0.70141995 -0.35327142
0.4172722 0.10493732 -0.52689385 -0.3173406 -0.30751917 -0.7950896 -0.44093516 0.5956084
0.32186395 -0.43414935 -0.12649383 -0.10823592 0.9006002 0.6610991 0.5103018 -1.0586804
0.7134946 0.21451214 -0.22561365 -0.7739806 0.39588055 -0.5827637 0.39025083 -0.7219972
-0.42477345 0.0675227 -0.48028103 -0.7135414 -0.04707116 -0.7711913 -0.4576869 -0.37636858
-0.49532282 -0.6706727 -0.9082583 0.019616632 0.75526124 0.429627 0.20996037 -0.45767888
0.161938 -0.37419364 -0.23500198 -0.484364 -0.21374674 -0.20821907 -0.4886081 0.30057183
-0.9872006 0.15258422 -0.000981512 0.31823057 -0.6526683 -0.2106876 0.2727447 -0.5677781
-1.0071292 -0.2247772 0.48195925 0.42385998 -0.38174006 0.045180656 -1.0731983 0.57412994
0.523339 -0.5334267 0.23121253 -0.72915286 -0.5981252 0.73848593 0.49725637 0.5056114
-0.20840158 0.40535733 -0.016920786 0.84370434 0.42876518 -0.51144254 0.20855345 0.60234874
-0.24704765 0.5062113 -1.1243738 -0.7387794 -0.79393035 0.13099724 0.13803045 -0.1336861
0.9497897 0.055681434 0.38491604 0.35718337 0.6087358 -0.15499085 0.20383641 -0.083398305
00000000: 5996 52bf 0037 2a3e 90f7 2abf 20c3 ddbc
00000010: 5ce0 403f 898b 65bf 51bb 10bf ca9e a73d
00000020: 61f8 ca3e 9806 24be 84a2 19be 31af 88bf
00000030: 4d98 71bf d591 113f 8848 283e 26ea da3e
00000040: 1ade 083d c230 3cbf cc70 9cbe a4e3 883e
00000050: ecc3 7e3f 3ff9 bcbe 73fb c1be 443f cabe
00000060: 8c87 5e3f 356c 8ebe fcee fbbd a628 cb3e
00000070: 863d 06bf 6709 ad3e 7053 cd3e fc5e e93e
00000080: ead1 e1be e06b e23d 1703 9ebf 86fd 95bf
00000090: 8cab 043d 60c9 9c3e 9321 903e 03ab 30bf
000000a0: d241 303f 77f7 cdbe c90d 5ebe 22cd 1fbf
000000b0: a4b5 d53e 1a9a c43e 5365 b83e 8e1a 9fbd
000000c0: e473 8cbd 1a29 c8bd ec97 85bf a214 d6be
000000d0: 1dd5 9cbe 4367 433e eedc 5d3f e58f a73e
000000e0: cf7b 0c3f 9583 e73e c7b6 b33d 05e0 c93e
000000f0: f426 b6be 8d97 6bbd d6ec 033f c93b ea3e
00000100: e98e 1fbe e0e9 4dbe fbb8 b63e b8dc 333e
00000110: d5b4 543f fb51 71bd aae8 38be 6932 7dbe
00000120: f195 b2bd 4d90 66be 85f4 89be 0b36 46be
00000130: 485c 85be 7e1b 95be 838e bbbe 3177 1bbe
00000140: 0e91 b3bd 2eca 20bf 18a7 7a3e df63 4cbe
00000150: c419 98be a3a3 52bf c031 623e 465e fbbd
00000160: dad3 a73e a9dc c1bd 8c18 973f a3fb b33e
00000170: ea3f 683f 2a5d a1bd 86db 643d f9c5 323e
00000180: d568 c4be 5a16 8ebd 8e79 4f3e 22dc fbbd
00000190: c973 883c c339 9f3f 033d ce3e 0bfd 8ebf
000001a0: d1a7 8ebc 9998 b4bd df3b 90bf 43c9 89be
000001b0: 163f ccbe 74cf 47bf 8dff d33d e0c1 8bbe
000001c0: b6bc 5d3e 683e fabe 3b6b a7be c6ac 2a3e
000001d0: c1d0 fabe b632 acbd 1b0e 233c f6bb 153f
000001e0: d7b0 68bf 50d6 52bf 8060 68be bf08 903d
000001f0: 8484 da3e 7a6d f3bc dbc6 fc3c c263 f2be
00000200: 45c5 89be 6a24 d63e 90c4 e23e 8e18 8c3e
00000210: 9951 18bf 67d5 ae3e e0d5 e93c b350 10bf
00000220: 8c72 683e bdad 333f 135a 663e e5e7 c2bc
00000230: 5226 14bf 00e4 e83e 23c9 9a3f ed97 e93d
00000240: 906f 053f 72bc d9be 17da a4be b3b8 703e
00000250: 09e7 123f bf01 f0be 9cf6 873e 0018 6ebf
00000260: d8f5 9cbe d8bd 8dbe 0890 613f 919b 083f
00000270: 0a26 03be 6b8f 103e 4290 333f fedf b4be
00000280: b4a4 d53e 61e9 d63d 84e2 06bf 787a a2be
00000290: 2773 9dbe fe8a 4bbf 41c2 e1be cb79 183f
000002a0: 5acb a43e d348 debe 9987 01be cbaa ddbd
000002b0: bc8d 663f ca3d 293f 24a3 023f d782 87bf
000002c0: 95a7 363f 12a9 5b3e 4407 67be 9823 46bf
000002d0: dbb0 ca3e 0030 15bf f5ce c73e cfd4 38bf
000002e0: e87b d9be 5749 8a3d 65e7 f5be a6aa 36bf
000002f0: b0cd 40bd cb6c 45bf f055 eabe 62b3 c0be
00000300: f49a fdbe 35b1 2bbf 9e83 68bf 0fb3 a03c
00000310: cd58 413f 12f8 db3e daff 563e e354 eabe
00000320: 13d3 253e 4f96 bfbe 5ca4 70be 8ffe f7be
00000330: 6de0 5abe 6137 55be d72a fabe 8de4 993e
00000340: 2eb9 7cbf 0a3f 1c3e 14a6 80ba 1eef a23e
00000350: 4515 27bf 7dbe 57be 31a5 8b3e e859 11bf
00000360: 9ce9 80bf ff2b 66be 5dc3 f63e 2d04 d93e
00000370: 6f73 c3be 5a0f 393d 905e 89bf 2efa 123f
00000380: 8bf9 053f a78e 08bf fac2 6c3e c3a9 3abf
00000390: bc1e 19bf 6a0d 3d3f 6398 fe3e c06f 013f
000003a0: 3967 55be ff8a cf3e 769d 8abc 02fd 573f
000003b0: 1c87 db3e e6ed 02bf 098f 553e 8733 1a3f
000003c0: 0ffa 7cbe 1097 013f 7beb 8fbf a620 3dbf
000003d0: 053f 4bbf 2424 063e db57 0d3e 02e5 08be
000003e0: 6b25 733f 3712 643d b713 c53e bde0 b63e
000003f0: 1cd6 1b3f ecb5 1ebe 7eba 503e bbcc aabd

global_feature_extractor.first_block.0.conv.1.weight f4 [48]
0.9219914 2.466009 0.73229265 1.4251108 1.259337 0.9745796 1.8388644 0.42230022
1.5610704 1.366758 -0.5177143 0.5858275 0.49559885 1.2034031 0.14127818 1.6940901
1.4673078 1.045521 1.1688772 1.0165163 0.6522622 1.3620777 0.6808986 1.2457305
2.1954958 1.2439284 0.62562996 1.3316568 1.4434345 1.6240819 1.5513048 1.8642248
1.123919 1.4813439 1.2456893 1.0802745 0.95936394 0.8613491 2.3530734 2.325568
1.4432386 0.9595527 1.1139103 1.401476 0.38673347 1.6557182 1.3679489 1.6860719
00000000: a107 6c3f 17d3 1d40 8877 3b3f 086a b63f
00000010: f431 a13f 0c7e 793f e95f eb3f bc37 d83e
00000020: 28d1 c73f edf1 ae3f ed88 04bf cbf8 153f
00000030: 22bf fd3e 1d09 9a3f 3aab 103e f2d7 d83f
00000040: bed0 bb3f a2d3 853f c59d 953f 351d 823f
00000050: a8fa 263f 9058 ae3f 5f4f 2e3f 1974 9f3f
00000060: 0183 0c40 0c39 9f3f 4929 203f bb73 aa3f
00000070: 76c2 b83f eae1 cf3f 2891 c63f eb9e ee3f
00000080: 94dc 8f3f ad9c bd3f bf72 9f3f 6f46 8a3f
00000090: e098 753f 6081 5c3f c198 1640 1bd6 1440
000000a0: 0bbc b83f 3fa5 753f 9d94 8e3f 9163 b33f
000000b0: ee01 c63e 93ee d33f f318 af3f 34d1 d73f

global_feature_extractor.first_block.0.conv.1.bias f4 [48]
0.7078451 0.08924541 0.7290682 -0.1358519 0.22672734 0.4491206 0.17749834 0.6338268
0.0021928174 -0.02713017 0.5434718 0.6385779 0.8583036 0.37633616 -1.0987573 -0.08010864
-0.17671412 -0.6336683 -0.44645718 0.28966787 -0.85645974 -0.29769868 -0.7382845 0.048952013
0.07235186 0.2883154 0.641089 0.41749603 -0.74033314 0.17051736 0.15508552 -0.015018127
0.6389157 -0.32350105 -0.3697252 0.43216804 -0.5430787 0.4329468 -0.11028998 0.09481678
-0.07965981 0.76239467 0.43602085 -0.2498418 0.92164195 0.04490327 -0.27478045 0.27473706
00000000: 5635 353f 4cc6 b63d 37a4 3a3f c31c 0bbe
00000010: 362b 683e 23f3 e53e 20c2 353e 7942 223f
00000020: 5fb5 0f3b 1740 debc f820 0b3f d779 233f
00000030: c9b9 5b3f 22af c03e 14a4 8cbf 0010 a4bd
00000040: 8cf4 34be 1638 22bf 0996 e4be 594f 943e
00000050: f240 5bbf f66b 98be 3700 3dbf e881 483d
00000060: 362d 943d 139e 933e 691e 243f 0ac2 d53e
00000070: 7986 3dbf 1a9c 2e3e bdce 1e3e 970e 76bc
00000080: fb8f 233f eea1 a5be 9f4c bdbe 2145 dd3e
00000090: 3507 0bbf 34ab dd3e b7df e1bd 4d2f c23d
000000a0: af24 a3bd 4c2c 433f 203e df3e 87d6 7fbe
000000b0: baf0 6b3f 7eec 373d 06b0 8cbe 56aa 8c3e

global_feature_extractor.first_block.0.conv.1.running_mean f4 [48]
-0.84369695 -1.5223407 0.07201674 0.35585767 -2.4691224 0.36062664 -1.2284055 0.9367351
1.3132473 -1.6474391 -1.6545225 3.1783414 0.49342334 -3.1138947 -0.90001374 -0.8503737
-0.11592612 1.0235983 -0.44597006 1.0881584 -1.6208053 1.0567299 -0.7886552 -2.5689306
-0.31624642 -1.4056108 -1.559334 -0.27002984 -0.11563694 1.6336454 -2.7457657 1.9559844
1.0098722 0.65389234 0.94714075 1.0944413 -1.215998 0.23906982 -1.8444189 2.404974
0.9078776 2.0095918 -1.9343189 0.23919855 -0.055857114 0.3673382 -0.19414924 -0.07828577
00000000: 86fc 57bf 0fdc c2bf 837d 933d fa32 b63e
00000010: 1a06 1ec0 0ea4 b83e 643c 9dbf dfcd 6f3f
00000020: 7d18 a83f 49df d2bf 65c7 d3bf f269 4b40
00000030: fca1 fc3e 0d4a 47c0 4d67 66bf 17b2 59bf
00000040: ac6a edbd 4505 833f 3056 e4be c648 8b3f
00000050: 8c76 cfbf ed42 873f 4fe5 49bf 5c69 24c0
00000060: 0deb a1be 0eeb b3bf 4298 c7bf 5a41 8abe
00000070: 0fd3 ecbd 4b1b d13f a0ba 2fc0 b25d fa3f
00000080: 7e43 813f 7d65 273f d177 723f a716 8c3f
00000090: d3a5 9bbf b8ce 743e eb15 ecbf 18eb 1940
000000a0: ab6a 683f 279d 0040 c397 f7bf 77f0 743e
000000b0: 6eca 64bd c113 bc3e 0fcf 46be 4a54 a0bd

global_feature_extractor.first_block.0.conv.1.running_var f4 [48]
2.60565 4.8090973 2.09269 1.2324497 3.5941918 2.1677384 2.5709894 0.6052746
1.7826582 0.49894983 0.7186063 4.5311127 1.4744196 3.0757782 0.593539 0.79268134
1.3365436 1.9303964 1.0492613 1.3979976 1.313374 1.7747886 1.1995238 1.9639058
0.702892 0.87656194 3.2250297 1.4715083 4.2055783 1.9165373 4.867338 1.8006688
4.3320727 1.5644279 2.2265327 1.2821887 3.5726652 1.3590333 4.608206 3.044339
0.28739807 3.2583747 3.420344 1.2622976 1.1551014 0.94811046 1.5901415 1.7052119
00000000: f8c2 2640 20e4 9940 a2ee 0540 e9c0 9d3f
00000010: 3d07 6640 3abc 0a40 178b 2440 47f3 1a3f
00000020: 252e e43f 5a76 ff3e 95f6 373f e0fe 9040
00000030: c8b9 bc3f 8dd9 4440 2cf2 173f 2aed 4a3f
00000040: dc13 ab3f 3b17 f73f 324e 863f 96f1 b23f
00000050: a41c a83f 462c e33f ff89 993f 4461 fb3f
00000060: bbf0 333f 5d66 603f e366 4e40 625a bc3f
00000070: 1994 8640 1851 f53f 3cc1 9b40 517c e63f
00000080: 57a0 8a40 2c3f c83f 837f 0e40 c21e a43f
00000090: 8ca6 6440 cef4 ad3f 6c76 9340 73d6 4240
000000a0: d725 933e 3689 5040 ebe6 5a40 f892 a13f
000000b0: 5dda 933f 5eb7 723f c289 cb3f 6244 da3f

global_feature_extractor.first_block.0.conv.3.weight f4 [48, 1, 3, 3]
0.65098214 0.17568605 -0.07655161 0.4677136 0.8121009 0.30900854 -0.45678887 -0.46326846
-0.2673848 -0.16938163 0.45835248 0.5687592 0.30159447 1.1743479 0.64032143 -0.075778194
0.18702963 0.42188472 0.30295125 0.23708186 0.10826612 -0.19484068 -0.71074486 -0.17992403
-0.6322395 -1.7909588 -0.14393632 -0.22862053 -0.1573967 -1.0029109 0.22102132 0.31861496
-0.5686574 -0.7256222 -0.07143701 -0.18411586 -0.5563532 -0.3694095 0.40627682 -0.39033633
-0.036683347 1.511531 -0.004533659 0.22878262 0.5215937 -0.15315297 -0.27419168 -0.19736254
0.2963874 0.16784535 -1.4037809 -0.4577571 0.04875869 -0.12597457 0.5491899 0.38274285
0.4515723 0.22523887 0.40227056 0.18683249 -0.5739388 -0.82083434 -0.94312876 0.6702104
0.087910816 -0.2927142 -0.6822625 -0.12920186 0.13771735 -0.47644666 -0.2258516 -0.30804375
-0.038544327 0.21152155 -0.5188668 -0.06978657 -0.12481896 -0.5080798 -0.0130174775 -0.31144735
-0.15789345 -0.4179605 -0.16259012 -0.60081816 0.059101798 -0.39094463 0.03537739 -0.27491075
-0.5031429 -0.07377776 0.074334376 0.25590736 0.53998715 -0.2209919 -0.202995 -0.20497897
-0.35349956 -0.5502804 0.025188671 -0.2977206 -0.60749286 -0.31185967 0.10133454 0.46867818
-0.08501559 0.21908987 0.6508897 0.9376103 0.72716737 0.3863745 0.0052716034 0.7055349
0.4104933 0.282393 0.2776889 0.3867307 0.33471084 -0.15139675 0.30324143 -0.05448738
0.44686988 0.16024989 -0.8108485 0.6778444 -0.14890471 0.5156525 0.11324023 -0.22923377
-0.045735314 0.6667024 0.4771598 -0.015597561 -0.101287164 0.2028027 -0.08688148 0.6752616
0.65555793 0.29124388 0.017167918 0.43780565 0.28685927 -0.21004376 -0.18440913 0.1585909
0.4332505 0.08924079 -0.0016242306 0.42453453 0.23539229 -0.54719007 -0.9170282 0.49412614
-0.5748883 -0.24213591 0.06060833 0.056248125 0.15936388 0.84286284 0.23514493 0.3338992
0.42540312 1.0989077 -0.15552068 -0.9388831 -0.24967852 0.45750633 0.5287925 0.041077122
0.30827788 0.98756135 -0.0158442 -0.934231 -0.88413626 -0.9070165 0.07445326 -0.09045281
-0.036630202 0.032961313 0.10712808 0.43567705 -0.1584153 0.78753036 0.74215925 -0.14818308
-0.49057934 -0.35907048 0.32210037 -0.08490387 -0.1737099 -0.7896112 -0.4432023 -1.2193409
0.4042592 0.3612044 -0.22579509 0.19279313 0.63267916 0.333727 -0.42564243 0.7888505
0.7183201 0.18196297 0.6495893 0.5653616 0.02344791 -0.14081478 -0.058119472 -0.23073107
-0.24005757 -0.54423773 -0.050211538 -0.24920508 -0.21407652 -0.7523391 -0.86721635 -0.53619796
-0.3308036 -0.08803475 0.777446 -0.4703338 -0.2826065 1.0698626 -0.71731204 -0.20317398
0.21226865 0.6460346 0.48279876 0.29761967 0.061996445 0.24181691 -0.115555614 0.12427372
-0.36702988 -0.53975785 0.008482557 0.46851718 0.4432169 -0.4517806 -1.0733176 -0.33315158
0.3896694 -0.05184213 -0.5429999 -0.4176438 0.42546466 0.087282695 -0.8660248 0.7384437
0.58677703 -0.19878606 0.6263843 -0.0038266776 -0.71162766 -0.27813628 0.020817323 0.14237054
00000000: c4a6 263f 0be7 333e 17c7 9cbd 2878 ef3e
00000010: d8e5 4f3f 5e36 9e3e 3be0 e9be 8631 edbe
00000020: a9e6 88be 6172 2dbe 2dad ea3e 349a 113f
00000030: 976a 9a3e 0851 963f 1bec 233f 9931 9bbd
00000040: b284 3f3e 4601 d83e 6d1c 9b3e 96c5 723e
00000050: a1ba dd3d 5184 47be 60f3 35bf 013e 38be
00000060: 73da 21bf 233e e5bf 0b64 13be 801b 6abe
00000070: 9a2c 21be 625f 80bf 6a53 623e 8021 a33e
00000080: 8893 11bf 60c2 39bf 914d 92bd de88 3cbe
00000090: 2a6d 0ebf 3e23 bdbe 8403 d03e 2ada c7be
000000a0: 4741 16bd d979 c13f 178f 94bb fe45 6a3e
000000b0: 2a87 053f 22d4 1cbe da62 8cbe 6819 4abe
000000c0: 17c0 973e a7df 2b3e 18af b3bf 235f eabe
000000d0: 31b7 473d 7aff 00be b697 0c3f dff6 c33e
000000e0: 7c34 e73e 05a5 663e 68f6 cd3e 0451 3f3e
000000f0: a7ed 12bf 3322 52bf e370 71bf e992 2b3f
00000100: 960a b43d a3de 95be c1a8 2ebf 7e4d 04be
00000110: c705 0d3e d1f0 f3be a445 67be e9b7 9dbe
00000120: a8e0 1dbd 1b99 583e 74d4 04bf 43ec 8ebd
00000130: 15a1 ffbd 8511 02bf 4247 55bc 0776 9fbe
00000140: d2ae 21be ebfe d5be 067e 26be 38cf 19bf
00000150: ba14 723d e529 c8be e2e7 103d 1ac1 8cbe
00000160: f9cd 00bf cb18 97bd 9f3c 983d 4a06 833e
00000170: 993c 0a3f b34b 62be ecdd 4fbe 02e6 51be
00000180: e5fd b4be 2ddf 0cbf 7958 ce3c d66e 98be
00000190: a784 1bbf 12ac 9fbe 7c88 cf3d 96f6 ef3e
000001a0: a71c aebd 1859 603e b5a0 263f 3b07 703f
000001b0: a427 3a3f e1d2 c53e 6abd ac3b ef9d 343f
000001c0: 2e2c d23e d195 903e 3d2d 8e3e 9101 c63e
000001d0: 385f ab3e c007 1bbe 7642 9b3e 292e 5fbd
000001e0: 21cc e43e 8c18 243e c493 4fbf 3687 2d3f
000001f0: 7a7a 18be cd01 043f 7eea e73d 42bc 6abe
00000200: f454 3bbd 02ad 2a3f 4a4e f43e ea8c 7fbc
00000210: a56f cfbd 83ab 4f3e ebee b1bd f2dd 2c3f
00000220: a5d2 273f eb1d 953e bca3 8c3c 1028 e03e
00000230: 38df 923e b615 57be bfd5 3cbe a765 223e
00000240: 02d3 dd3e e0c3 b63d 23e4 d4ba 975c d93e
00000250: ad0a 713e a614 0cbf 5cc2 6abf 1afe fc3e
00000260: e12b 13bf 7af2 77be 7140 783d 6f64 663d
00000270: 4930 233e dcc5 573f d5c9 703e d6f4 aa3e
00000280: 70ce d93e 02a9 8c3f d040 1fbe a55a 70bf
00000290: baab 7fbe 453e ea3e f25e 073f 7c40 283d
000002a0: 99d6 9d3e d2d0 7c3f b2cb 81bc c329 6fbf
000002b0: c156 62bf 3c32 68bf f37a 983d 533f b9bd
000002c0: 8d09 16bd 7102 073d f865 db3d 1011 df3e
000002d0: 9f37 22be 979b 493f 26fe 3d3f 4ebd 17be
000002e0: 372d fbbe 16d8 b7be 57ea a43e 15e2 adbd
000002f0: 02e1 31be f623 4abf 69eb e2be 5d13 9cbf
00000300: 10fb ce3e c8ef b83e d436 67be 906b 453e
00000310: 43f7 213f 44de aa3e ceed d9be 1bf2 493f
00000320: d3e3 373f 8054 3a3e 7c4b 263f 8abb 103f
00000330: d515 c03c c031 10be af0e 6ebd c444 6cbe
00000340: a7d1 75be 2a53 0bbf 9daa 4dbd 9e2f 7fbe
00000350: e036 5bbe 4c99 40bf e401 5ebf 4544 09bf
00000360: 175f a9be 904b b4bd b306 473f 98cf f0be
00000370: cdb1 90be 42f1 883f c3a1 37bf d70c 50be
00000380: f45c 593e 8662 253f 6631 f73e 9b61 983e
00000390: fcef 7d3d da9e 773e 6ca8 ecbd 3883 fe3d
000003a0: 57eb bbbe 922d 0abf 6cfa 0a3c 7ce1 ef3e
000003b0: 53ed e23e c94f e7be 7962 89bf d892 aabe
000003c0: bf82 c73e 6a58 54bd 0b02 0bbf 68d5 d5be
000003d0: 81d6 d93e 45c1 b23d cdb3 5dbf a50a 3d3f
000003e0: 0537 163f 938e 4bbe b95a 203f ffc8 7abb
000003f0: 3b2d 36bf e167 8ebe 1789 aa3c 95c9 113e

global_feature_extractor.first_block.0.conv.4.weight f4 [48]
1.0050529 1.3656864 1.3186821 0.9436863 1.3203627 0.8916368 1.2988174 0.61501646
0.49010795 0.34071788 0.6010446 1.2669579 0.95031226 0.71551114 1.1350956 0.7289419
0.66654116 1.1201693 1.0763164 0.71584064 0.58634305 2.2004216 1.4092592 1.1654376
1.246518 0.45746255 1.003052 0.95694107 1.3334334 0.79688174 0.7639835 0.82408065
1.3114315 1.8693701 0.99313635 0.953492 1.2611237 1.0676264 1.3488626 1.6143184
0.6099841 1.4181184 0.5060607 1.5703905 1.1720189 0.996256 1.001342 0.7582437
00000000: 93a5 803f d0ce ae3f 93ca a83f 6d95 713f
00000010: a501 a93f 4f42 643f a63f a63f b871 1d3f
00000020: 6eef fa3e 9372 ae3e 0fde 193f ad2b a23f
00000030: aa47 733f bd2b 373f d04a 913f f09b 3a3f
00000040: 71a2 2a3f b561 8f3f bcc4 893f 5541 373f
00000050: 941a 163f b5d3 0c40 9b62 b43f 0f2d 953f
00000060: e78d 9f3f 8838 ea3e 0264 803f 17fa 743f
00000070: f2ad aa3f 7100 4c3f 6c94 433f f3f6 523f
00000080: fddc a73f 8547 ef3f 2f3e 7e3f 0d18 743f
00000090: 806c a13f fba7 883f 88a7 ac3f fca1 ce3f
000000a0: eb27 1c3f e784 b53f 328d 013f 8e02 c93f
000000b0: b704 963f a20a 7f3f fa2b 803f 421c 423f

global_feature_extractor.first_block.0.conv.4.bias f4 [48]
0.5590523 0.14136554 1.4458406 0.43724185 -0.12167546 0.4023642 0.17579852 0.18390343
-0.49954736 -0.6128006 0.016703488 0.22512935 0.20405857 -0.44039074 -0.32727712 -0.63645136
0.2787575 -0.35754392 -0.33368707 -0.0456187 -0.23567285 -0.15143403 0.086337574 -0.27823222
-0.03510455 0.337356 0.22915964 -0.07804005 -0.053970087 -0.61461633 0.6064937 -0.5090428
1.5059482 0.7827409 0.85476303 0.66389877 0.23731218 0.59610146 -0.05387697 0.4847021
-0.49615145 1.7337743 0.23585941 0.39646423 -0.5565578 0.20064522 0.14434128 -0.10695132
00000000: 0d1e 0f3f 21c2 103e 4e11 b93f 2ade df3e
00000010: fc30 f9bd ae02 ce3e 8704 343e 2e51 3c3e
00000020: acc4 ffbe 80e0 1cbf c1d5 883c 4f88 663e
00000030: bbf4 503e e57a e1be de90 a7be 7aee 22bf
00000040: 4eb9 8e3e ff0f b7be 08d9 aabe adda 3abd
00000050: 3954 71be 8611 1bbe c1d1 b03d 7474 8ebe
00000060: cac9 0fbd edb9 ac3e d3a8 6a3e 76d3 9fbd
00000070: bd0f 5dbd 7f57 1dbf 2c43 1b3f a150 02bf
00000080: e9c2 c03f b561 483f c0d1 5a3f 45f5 293f
00000090: f701 733e 1b9a 183f 19ae 5cbd e02a f83e
000000a0: 9007 febe 51ec dd3f 2185 713e 5cfd ca3e
000000b0: 927a 0ebf f175 4d3e 33ce 133e 4b09 dbbd

global_feature_extractor.first_block.0.conv.4.running_mean f4 [48]
0.8806808 3.2316003 -2.3099616 -1.1825573 0.87552035 -1.2538064 -0.36366403 -0.7696508
-0.84132606 -1.0575899 -0.38160864 0.77181226 2.7461176 0.5489935 6e-45 1.134968
-0.12812737 0.5640372 0.22667931 -0.9229425 0.0036868444 -0.1996164 0.087270394 -1.7634687
0.09005507 0.3704047 -1.0204992 0.75855917 0.6058294 -0.5907 -1.4088235 0.883263
2.9094245 -1.2323818 0.56245685 1.8150916 0.4430215 -2.0170875 -0.39340556 3.3414161
-0.6973062 1.8813552 2.1521015 0.54446465 1.8370191 1.5800453 -0.09980832 0.1846506
00000000: 4c74 613f 8ad2 4e40 69d6 13c0 0a5e 97bf
00000010: 1a22 603f ba7c a0bf 2c32 babe d607 45bf
00000020: 2561 57bf 1b5f 87bf 3562 c3be 7d95 453f
00000030: 64c0 2f40 d78a 0c3f 0400 0000 a246 913f
00000040: d233 03be be64 103f 9f1e 683e f645 6cbf
00000050: fc9e 713b 3e68 4cbe d2ba b23d 58b9 e1bf
00000060: cb6e b83d afa5 bd3e b89f 82bf ef30 423f
00000070: a317 1b3f 1d38 17bf 5454 b4bf 861d 623f
00000080: 0334 3a40 b0be 9dbf 2cfd 0f3f ec54 e83f
00000090: b7d3 e23e f617 01c0 746c c9be c3d9 5540
000000a0: a982 32bf 3fd0 f03f 08bc 0940 0962 0b3f
000000b0: 7123 eb3f ed3e ca3f 4e68 ccbd 0c15 3d3e

global_feature_extractor.first_block.0.conv.4.running_var f4 [48]
1.333137 6.6070285 3.813588 2.1295033 1.0723672 1.2474327 3.7703242 0.3138353
2.3904543 0.67212635 0.40558276 0.9676395 1.1230557 0.55954325 6e-45 2.1119888
0.62640405 0.69021326 1.1506423 2.620913 0.004990629 4.544074 0.18885879 1.3405098
7.9998794 0.8741439 0.7859997 0.9794263 1.7725543 2.3959184 2.1692283 4.257147
5.286346 3.1167827 1.50378 5.254399 0.40038577 1.4359269 2.966157 27.240686
2.6846893 3.3060167 1.708615 6.076492 0.40530878 9.552237 1.257183 3.3119311
00000000: 3ca4 aa3f c76c d340 d311 7440 c849 0840
00000010: 5443 893f e0ab 9f3f fe4c 7140 05af a03e
00000020: 34fd 1840 7910 2c3f 8ba8 cf3e 39b7 773f
00000030: 4ac0 8f3f 3a3e 0f3f 0400 0000 d32a 0740
00000040: 045c 203f d1b1 303f 3f48 933f 0abd 2740
00000050: 6e88 a33b 0e69 9140 3364 413e d395 ab3f
00000060: 03ff ff40 e5c7 5f3f 4737 493f afbb 7a3f
00000070: 0fe3 e23f ba56 1940 a3d4 0a40 8c3a 8840
00000080: bf29 a940 5e79 4740 dd7b c03f 0924 a840
00000090: 5dff cc3e 74cc b73f 84d5 3d40 edec d941
000000a0: f3d1 2b40 c795 5340 e5b3 da3f 9f72 c240
000000b0: a284 cf3e f6d5 1841 5feb a03f aef6 5340

global_feature_extractor.first_block.0.conv.6.weight f4 [8, 48, 1, 1]
0.66793555 -0.5252797 -0.008335259 0.14650984 -0.48795986 0.21464786 0.3892556 0.215778
-0.042638708 -0.09633991 -0.26180613 0.01938189 0.43905517 -0.003677202 0.3710184 -0.077834204
0.61707556 -0.8183384 0.03217713 0.10521605 0.5339271 -0.21741727 0.1767359 -0.0821632
0.5264656 0.16637172 0.87119627 0.1442331 0.32708976 -0.06517211 0.29035392 -0.116937086
-0.11285204 0.44140038 -0.02916091 0.466806 0.11698181 -0.27451453 0.93776697 -0.36639968
-0.012929678 0.29102463 -0.03333607 1.0352705 -0.12800656 0.75838435 0.41289884 0.09120389
-0.27017108 0.21415904 -0.19119613 -0.5763313 0.58021957 -0.6258815 -0.0023862896 0.09126758
0.00320695 0.06983559 0.13015296 -0.059012894 0.792623 0.052926823 0.24207744 0.13407817
-0.33485162 0.31027552 0.2064769 -0.17890523 -0.03929165 0.17494713 0.1727329 0.51913655
0.7903924 -0.30210584 0.33297697 -0.1729123 0.059426043 0.13033642 0.30864137 -0.11967685
0.23160782 0.34714797 -0.36294618 0.6825206 0.3129641 0.30958128 0.44145158 -0.055757537
-0.056809776 -0.45730934 -0.012478304 0.9074074 0.77758026 0.63835806 -0.25693044 0.009700641
0.12223776 0.06721749 1.2185417 -0.4180622 -0.08298984 0.11843112 -0.5307999 0.44234484
0.14276384 -0.05007471 0.38680074 -0.7875217 0.25452235 0.76143956 0.19829611 0.12731257
-0.31217566 -0.23864986 -0.3298105 -0.33321163 0.40494955 -0.6789823 0.3634167 0.24471149
0.10735744 0.18449965 0.034472402 -0.16446401 0.4053025 -0.35785526 0.013347082 -0.13816689
-0.7812553 1.1682198 -0.7259443 -0.38652128 -0.16786528 -0.20258123 -0.099608935 -0.42840195
0.0057382938 0.14469753 0.24056858 -0.2531745 0.11040787 0.040325288 -0.08643856 0.17491546
0.3477368 -0.417136 0.114046246 -0.100893 -0.7657412 0.49214992 -0.015675496 -0.11312881
0.03749134 0.22351909 0.25319466 -0.33631435 -0.25221753 -0.23854816 0.029557424 -0.45029873
-0.03092746 -0.3056765 0.27851206 0.10300818 -0.35342067 0.13865636 0.35170603 0.18092035
-0.3154449 -0.20100966 0.1146155 0.22364913 0.39940715 0.018510558 0.40982616 0.557147
0.22766037 0.45604962 -0.66283065 -0.34096146 0.36861423 0.31129903 -0.09576449 0.24799821
-0.0554479 1.2247285 0.005279505 0.21105103 -0.49872765 0.11769252 0.18252742 0.0097859325
0.29474363 -0.6045774 -0.5618934 -0.27998823 -0.26015198 0.08603283 0.84131193 -0.021311218
-0.11010405 0.25110245 0.07774386 0.6890017 -0.35965157 -0.32524216 0.5018153 0.45307052
0.10468485 -0.1824074 0.011799963 0.46305746 0.15961291 -0.06254972 -0.80356634 0.33365
0.345586 0.57887 0.39782894 -0.2505214 0.36569858 0.46728674 0.24545868 0.22141631
0.8618617 -0.3564382 -0.12520082 0.341858 0.68703187 0.3825987 0.9419434 0.6695846
-0.056056824 0.15570395 -0.30855015 -0.20607376 -0.14462605 -0.21050201 -0.07107368 0.03181098
0.12008831 -0.837529 -0.95702326 0.3719178 0.13262437 0.024031164 -0.035609145 0.5017092
0.022602284 0.029357547 -0.09346075 -0.07042277 -0.09517964 -0.14169672 0.5033457 0.34877124
00000000: d3fd 2a3f bb78 06bf 9c90 08bc ad06 163e
00000010: e0d5 f9be a6cc 5b3e 834c c73e e8f4 5c3e
00000020: eda5 2ebd dc4d c5bd 740b 86be c5c6 9e3c
00000030: d7cb e03e 36fd 70bb 20f6 bd3e 8a67 9fbd
00000040: aaf8 1d3f a07e 51bf 2bcc 033d 837b d73d
00000050: 72af 083f a2a2 5ebe 41fa 343e 2e45 a8bd
00000060: 73c6 063f 595d 2a3e b806 5f3f d7b1 133e
00000070: 4f78 a73e f578 85bd 45a9 943e b67c efbd
00000080: f81e e7bd 3bff e13e dce2 eebc 3201 ef3e
00000090: 2994 ef3d 2b8d 8cbe 7f11 703f bd98 bbbe
000000a0: 00d7 53bc 2e01 953e 678b 08bd be83 843f
000000b0: 2714 03be 7a25 423f 7a67 d33e 1bc9 ba3d
000000c0: dd53 8abe 824c 5b3e ebc8 43be 738a 13bf
000000d0: 4589 143f c539 20bf 4c63 1cbb 7fea ba3d
000000e0: b12b 523b f605 8f3d d146 053e 81b7 71bd
000000f0: 57e9 4a3f ccc9 583d 26e3 773e ca4b 093e
00000100: ac71 abbe 6fdc 9e3e ae6e 533e ef32 37be
00000110: 48f0 20bd 5725 333e e5e0 303e 22e6 043f
00000120: 2857 4a3f 9ead 9abe f57b aa3e ec0f 31be
00000130: b968 733d e976 053e 3e06 9e3e 2319 f5bd
00000140: 9a2a 6d3e 61bd b13e 15d4 b9be acb9 2e3f
00000150: d53c a03e 7081 9e3e f105 e23e 0462 64bd
00000160: 5eb1 68bd 7324 eabe cd71 4cbc da4b 683f
00000170: 800f 473f 6f6b 233f 638c 83be 70ef 1e3c
00000180: ca57 fa3d 53a9 893d 2df9 9b3f 400c d6be
00000190: 94f6 a9bd 048c f23d 81e2 07bf 067b e23e
000001a0: af30 123e 241b 4dbd bf0a c63e 069b 49bf
000001b0: c150 823e b4ed 423f 230e 4b3e 3a5e 023e
000001c0: 7dd5 9fbe a160 74be ecdc a8be b79a aabe
000001d0: 8c55 cf3e c9d1 2dbf c111 ba3e a695 7a3e
000001e0: 38de db3d 7aed 3c3e ef32 0d3d 4169 28be
000001f0: cf83 cf3e ce38 b7be b8ad 5a3c 9f7b 0dbe
00000200: 5900 48bf 3a88 953f 7cd7 39bf 1ee6 c5be
00000210: e0e4 2bbe 7471 4fbe c5ff cbbd 8057 dbbe
00000220: 4c08 bc3b 972b 143e 9c57 763e 17a0 81be
00000230: 851d e23d 212c 253d b306 b1bd 0a1d 333e
00000240: 8f0a b23e da92 d5be 1491 e93d fda0 cebd
00000250: 9e07 44bf 13fb fb3e e669 80bc 14b0 e7bd
00000260: 8590 193d 30e2 643e bba2 813e 6531 acbe
00000270: a822 81be f845 74be 6922 f23c 8e8d e6be
00000280: 965b fdbc a181 9cbe 2299 8e3e f4f5 d23d
00000290: 8ef3 b4be effb 0d3e d012 b43e 2f43 393e
000002a0: fe81 a1be 7ad5 4dbe 88bb ea3d 4704 653e
000002b0: 187f cc3e 74a3 973c bcd4 d13e 30a1 0e3f
000002c0: cd1f 693e 567f e93e 45af 29bf 8092 aebe
000002d0: 01bb bc3e 9662 9f3e 2c20 c4bd 3ef3 7d3e
000002e0: 561d 63bd e7c3 9c3f b3ff ac3b c31d 583e
000002f0: 3b59 ffbe c708 f13d 78e8 3a3e 2d55 203c
00000300: a3e8 963e 96c5 1abf 3fd8 0fbf 9e5a 8fbe
00000310: a432 85be fb31 b03d 3860 573f dd94 aebc
00000320: 3b7e e1bd 8090 803e 2c38 9f3d 6a62 303f
00000330: 4024 b8be 2486 a6be f876 003f dcf8 e73e
00000340: 0365 d63d 01c9 3abe a254 413c de15 ed3e
00000350: 9171 233e 111a 80bd 86b6 4dbf 2cd4 aa3e
00000360: a6f0 b03e d330 143f 3cb0 cb3e 5744 80be
00000370: d83c bb3e 3540 ef3e 8559 7b3e f5ba 623e
00000380: f8a2 5c3f 117f b6be a534 00be 0308 af3e
00000390: 52e1 2f3f fae3 c33e 3423 713f e569 2b3f
000003a0: d79b 65bd db70 1f3e 49fa 9dbe 0005 53be
000003b0: da18 14be d78d 57be 148f 91bd 3b4c 023d
000003c0: dcf0 f53d 4d68 56bf 7aff 74bf 036c be3e
000003d0: afce 073e 01dd c43c e5da 11bd 0470 003f
000003e0: 6d28 b93c 3d7f f03c 5a68 bfbd d039 90bd
000003f0: 8bed c2bd f218 11be 44db 003f 2592 b23e

global_feature_extractor.first_block.0.conv.7.weight f4 [8]
1.1750875 1.369932 1.2323362 1.1058112 1.6857826 1.0013671 1.4888113 1.9931641
00000000: 4469 963f ef59 af3f 31bd 9d3f 398b 8d3f
00000010: b9c7 d73f cc2c 803f 5e91 be3f 0020 ff3f

global_feature_extractor.first_block.0.conv.7.bias f4 [8]
0.0015048827 -0.0023825918 -0.033026658 0.031113703 -0.013918659 0.02113118 0.0036657348 0.015172769
00000000: 7c3f c53a 4225 1cbb f646 07bd 2ae2 fe3c
00000010: 160b 64bc 4c1b ad3c d33c 703b 3597 783c

global_feature_extractor.first_block.0.conv.7.running_mean f4 [8]
3.7144084 1.6929448 0.4534694 3.2190576 2.7232928 -0.84014803 -1.4530954 5.3016934
00000000: deb8 6d40 6ab2 d83f 242d e83e 0a05 4e40
00000010: 6e4a 2e40 f113 57bf 08ff b9bf 79a7 a940

global_feature_extractor.first_block.0.conv.7.running_var f4 [8]
13.715158 16.420263 22.656588 12.995465 21.499557 13.004459 18.138006 41.808773
00000000: 4a71 5b41 b35c 8341 b140 b541 6ded 4f41
00000010: 18ff ab41 4412 5041 a31a 9141 2f3c 2742

global_feature_extractor.first_block.1.conv.0.weight f4 [48, 8, 1, 1]
0.14642327 0.43366846 0.9425179 0.059423707 -0.18281636 -0.8699956 0.021853583 0.15953423
0.6924176 -0.18901324 -0.50800717 0.7886077 -0.035613418 0.31921843 0.012614489 1.2073234
0.1793903 0.101158395 -0.08235231 -0.11396072 -0.785368 0.2884928 0.15184478 -0.39715508
-0.7999023 -0.03750297 -0.09332396 -0.32710814 -0.33533353 -0.28190473 -0.03200627 -0.10123425
-0.060455948 0.7878064 -0.7025682 -0.5236322 0.33094877 -0.07520291 -0.48104092 -0.37547743
0.26973256 0.19948888 -1.1207755 0.42212993 0.6550805 0.09354599 0.113921665 0.29287365
-0.71800286 0.030349145 0.7887878 0.05963132 -0.13153598 -0.2717684 -0.630166 0.05804761
0.38559604 0.0006021708 0.75362945 0.2651881 -0.37069413 0.16257253 1.0183383 0.1696234
0.076368906 -0.6654106 -0.18248245 0.7226881 0.1541817 -0.10074853 -0.39549172 0.2217101
-0.4569174 -0.21970631 -0.6361138 -0.14867157 0.7832207 -0.4477444 0.00266937 -0.2055692
-0.14934044 0.7098312 0.14024341 0.007601667 0.34829554 -0.17663935 -0.88702273 -0.797737
0.2526609 -1.0084574 0.45871437 -0.07835964 -0.01638231 -0.6454445 -0.60727054 0.4418679
0.099453844 -0.5855691 0.029603433 0.8972469 0.035788458 -0.52669424 -0.22359434 0.9100128
0.0019231685 0.8978652 -0.4454597 -0.07333591 0.633439 -0.7100219 -0.82486963 0.10695071
-0.35410112 0.33315024 0.32825288 -0.32930472 -0.21801771 0.55857867 -0.18674591 0.022997567
0.25719845 0.35725707 -0.521821 -0.4840746 1.2536305 -0.25216296 -0.39739397 0.3623596
-0.5116749 -0.008830011 -0.19121273 -0.25728416 0.08901219 -0.41610977 -0.26353377 -0.7445391
-0.19460256 0.98348135 -0.330611 -0.24786305 0.36910352 -0.69037336 0.10675943 -0.45058098
0.39630482 0.70993626 0.0084140105 -0.20973557 0.3545204 0.9772926 -0.20763287 0.117000364
0.5935739 0.6358552 -0.16736224 -0.27622476 -0.31102675 0.8394851 0.9421249 0.25260687
0.06049097 -0.3627721 -0.26601508 0.7968344 0.89149505 0.09959646 -0.49365863 0.435549
-0.604587 0.30503827 0.052851073 -0.6758222 -0.033043504 0.37336394 -0.35785422 -0.897442
-1.3850679 0.14991747 -0.1575622 -0.2899998 -0.20311075 -0.09611749 -0.10472715 -0.5211924
-0.10193078 -0.62597656 0.8629357 0.41291738 0.26302305 0.6839329 -0.62330985 -0.19596052
0.426214 1.4166936 0.3086089 0.20779629 -0.1030618 0.96989375 0.2136991 0.15295246
-0.35716718 0.2611485 0.4132647 -0.29041135 -0.29859325 0.0055331136 0.7523628 -0.2213693
0.057515733 -0.1592223 -0.16091603 -0.046394847 1.2226094 -0.02833535 -0.5645723 0.64620733
0.28663802 0.22732323 0.46432233 0.25328347 -0.44077516 -0.07609284 0.2713248 0.81685346
-0.07436876 0.85428065 -0.2696439 -0.32197294 -0.14992476 0.8218015 1.2190471 -0.19506955
-0.26035392 -1.0318911 0.37817577 -0.009220241 0.5603133 -0.012895819 -0.43338078 0.29900208
-0.3516559 0.5130126 -0.56204903 -0.4761704 -1.0564351 0.12187302 0.4645902 0.0122566335
-0.65695333 0.14575946 -0.13222492 -0.16609888 -0.40742847 0.012584202 0.023009945 0.019336557
00000000: fbef 153e cb09 de3e da48 713f 4666 733d
00000010: 3634 3bbe 08b8 5ebf 4906 b33c f15c 233e
00000020: 4842 313f b08c 41be c20c 02bf 32e2 493f
00000030: 60df 11bd 9970 a33e 00ad 4e3c 9389 9a3f
00000040: 17b2 373e 222c cf3d 54a8 a8bd 3d64 e9bd
00000050: e10d 49bf 54b5 933e 337d 1b3e e957 cbbe
00000060: 66c6 4cbf b79c 19bd a220 bfbd b87a a7be
00000070: d6b0 abbe d155 90be 0219 03bd e753 cfbd
00000080: a8a0 77bd aead 493f 82db 33bf c30c 06bf
00000090: 1e72 a93e fc03 9abd ff4a f6be 943e c0be
000000a0: 631a 8a3e d046 4c3e 9275 8fbf 6a21 d83e
000000b0: 5bb3 273f 0a95 bf3d c34f e93d 89f3 953e
000000c0: 09cf 37bf c59e f83c ffed 493f f93f 743d
000000d0: 5eb1 06be 3a25 8bbe 8f52 21bf 55c3 6d3d
000000e0: d86c c53e 00db 1d3a dced 403f bcc6 873e
000000f0: 9fcb bdbe 6a79 263e e958 823f c2b1 2d3e
00000100: 4d67 9c3d 5958 2abf aedc 3abe 1602 393f
00000110: cfe1 1d3e 3f55 cebd e47d cabe f907 633e
00000120: 14f1 e9be b1fa 60be 5bd8 22bf 5c3d 18be
00000130: 2781 483f c13e e5be 99f0 2e3b bb80 52be
00000140: b3ec 18be 7fb7 353f f89b 0f3e 6817 f93b
00000150: cb53 b23e f2e0 34be ec13 63bf 7e38 4cbf
00000160: c55c 813e 2215 81bf 9cdc ea3e 057b a0bd
00000170: 3234 86bc da3b 25bf 1576 1bbf 823c e23e
00000180: 75ae cb3d dbe7 15bf e682 f23c f9b1 653f
00000190: eb96 123d 6fd5 06bf eaf5 64be 99f6 683f
000001a0: d412 fc3a 7eda 653f 4b13 e4be 2331 96bd
000001b0: 0f29 223f ffc3 35bf a82a 53bf f908 db3d
000001c0: be4c b5be ab92 aa3e c310 a83e a19a a8be
000001d0: 0940 5fbe 03ff 0e3f 523a 3fbe 6565 bc3c
000001e0: 84af 833e 66ea b63e 1096 05bf a0d8 f7be
000001f0: f776 a03f 811b 81be 3977 cbbe 3387 b93e
00000200: 20fd 02bf c0ab 10bc 45cd 43be c0ba 83be
00000210: 064c b63d 570c d5be e6ed 86be 1d9a 3ebf
00000220: e545 47be 6fc5 7b3f d845 a9be d0cf 7dbe
00000230: 23fb bc3e 4fbc 30bf b0a4 da3d 8db2 e6be
00000240: 77e8 ca3e 62be 353f ebda 093c ecc4 56be
00000250: b383 b53e d92f 7a3f b69d 54be e39d ef3d
00000260: 76f4 173f 68c7 223f 0261 2bbe 556d 8dbe
00000270: e63e 9fbe 7fe8 563f 192f 713f b055 813e
00000280: 61c5 773d 44bd b9be 2133 88be 57fd 4b3f
00000290: 0539 643f 3bf9 cb3d d3c0 fcbe 4700 df3e
000002a0: 37c6 1abf fa2d 9c3e 5e7a 583d af02 2dbf
000002b0: a058 07bd 8f29 bf3e ab38 b7be c2be 65bf
000002c0: e849 b1bf f783 193e fc57 21be db7a 94be
000002d0: 44fc 4fbe 3fd9 c4bd 307b d6bd dd6c 05bf
000002e0: 16c1 d0bd 0040 20bf 5be9 5c3f e869 d33e
000002f0: f5aa 863e 3a16 2f3f 3c91 1fbf e0a9 48be
00000300: b938 da3e 3756 b53f fc01 9e3e 8dc8 543e
00000310: 1112 d3bd f54a 783f f0d3 5a3e 929f 1c3e
00000320: 9ede b6be 42b5 853e 6e97 d33e ccb0 94be
00000330: 37e1 98be 1f4f b53b d99a 403f a2ae 62be
00000340: 9e95 6b3d 2c0b 23be 2cc7 24be 8608 3ebd
00000350: 777e 9c3f 891f e8bc cf87 10bf d86d 253f
00000360: 38c2 923e 6cc7 683e a8bb ed3e 5fae 813e
00000370: 48ad e1be 90d6 9bbd 16eb 8a3e 4f1d 513f
00000380: a64e 98bd 23b2 5a3f c40e 8abe a3d9 a4be
00000390: e085 19be 9561 523f bc09 9c3f 50c0 47be
000003a0: 1c4d 85be 0215 84bf 41a0 c13e 7e10 17bc
000003b0: b170 0f3f fc48 53bc 16e4 ddbe cd16 993e
000003c0: 3e0c b4be cb54 033f 72e2 0fbf 9bcc f3be
000003d0: 4439 87bf 9098 f93d c4de ed3e 0cd0 483c
000003e0: 182e 28bf f841 153e f865 07be d315 2abe
000003f0: 779a d0be f82d 4e3c 5a7f bc3c b367 9e3c

global_feature_extractor.first_block.1.conv.1.weight f4 [48]
1.0407356 1.1113571 1.0217189 1.340175 1.0212553 0.9544539 0.93944573 1.8402348
1.1953671 1.3236873 1.5566202 0.78982246 1.097135 1.233769 0.36659557 2.2496116
1.6079388 1.4430891 1.4125758 1.2827991 1.6592203 1.6055809 1.9270084 0.43820325
1.6698622 0.62201494 1.6709626 0.94126296 1.4729522 0.5848376 1.8006958 1.1883901
0.07211217 1.6882949 1.814282 1.2204535 2.0880048 0.78174484 1.1294985 0.6495733
0.7756476 0.99516124 0.82536596 1.8336554 1.4014441 0.9570358 0.7526594 0.9804116
00000000: d336 853f f340 8e3f afc7 823f db8a ab3f
00000010: 7eb8 823f 1757 743f 847f 703f d08c eb3f
00000020: ca01 993f 966e a93f 553f c73f ce31 4a3f
00000030: eb6e 8c3f 25ec 9d3f 6ab2 bb3e a3f9 0f40
00000040: f0d0 cd3f 25b7 b83f 49cf b43f c332 a43f
00000050: 5561 d43f ad83 cd3f 36a8 f63f 2d5c e03e
00000060: 0bbe d53f 5f3c 1f3f 1ae2 d53f 9cf6 703f
00000070: b389 bc3f ebb7 153f 337d e63f 2b1d 983f
00000080: 8caf 933d 0c1a d83f 643a e83f d237 9c3f
00000090: dfa1 0540 6e20 483f 6893 903f 704a 263f
000000a0: d790 463f e3c2 7e3f 2f4b 533f 38b5 ea3f
000000b0: 8562 b33f 4c00 753f 49ae 403f 41fc 7a3f

global_feature_extractor.first_block.1.conv.1.bias f4 [48]
0.42961663 0.6236079 0.29366493 0.09771814 -0.29108232 0.5893092 0.77409256 -0.21525054
0.2996268 0.10296713 0.28095463 0.4944924 0.75338775 -0.20762709 0.96017164 0.23305877
-0.04432261 -0.10259235 -0.061094675 -0.4166921 0.22160245 0.0005530675 -0.24923664 0.7931534
0.20999396 0.5537769 0.20690292 -0.47782168 -0.11636313 0.68781966 -0.43186605 -0.15538324
0.87435734 0.03684201 -0.042334173 -0.3855995 -0.09027173 0.4650228 -0.20263982 -0.41774648
0.54091674 0.40421507 0.8471822 -0.29822895 -0.25532067 -0.34319025 0.6053559 0.33592495
00000000: b6f6 db3e c4a4 1f3f 405b 963e 7320 c83d
00000010: be08 95be f8dc 163f ee2a 463f a36a 5cbe
00000020: af68 993e 6ee0 d23d 49d9 8f3e 1c2e fd3e
00000030: 05de 403f 329c 54be cfcd 753f f5a6 6e3e
00000040: a08b 35bd f01b d2bd 693e 7abd ab58 d5be
00000050: c1eb 623e bbfb 103a e437 7fbe 1a0c 4b3f
00000060: a808 573e 53c4 0d3f 5cde 533e 0ba5 f4be
00000070: cb4f eebd f314 303f 8c1d ddbe c91c 1fbe
00000080: e2d5 5f3f a6e7 163d 9966 2dbd 4c6d c5be
00000090: 63e0 b8bd 7817 ee3e d080 4fbe dee2 d5be
000000a0: 8579 0a3f 47f5 ce3e efe0 583f 77b1 98be
000000b0: 64b9 82be a2b6 afbe 9bf8 1a3f 5bfe ab3e

global_feature_extractor.first_block.1.conv.1.running_mean f4 [48]
-0.04340124 0.06841262 0.010769465 -0.011156395 -0.00871297 0.047818325 -0.030685514 -0.001115761
0.027811302 -0.0072847246 -0.030242834 -0.023714315 0.029883754 -0.014929302 -0.007888341 -0.017022824
-0.024752008 -0.025668196 0.008812395 0.025653755 0.029052166 -0.030998318 -0.013802781 -0.008715112
0.018566443 -0.020153742 -0.0055806194 0.010328745 0.017673537 -0.015843868 0.021138474 0.004176204
0.0066142157 0.0345624 0.025992477 -0.019447545 -0.017342832 -0.004607584 -0.0022684848 0.003829988
-0.0034536968 -0.040885847 0.025229707 -5.7999798e-05 0.020208536 -0.020055182 0.022692436 0.009914943
00000000: 80c5 31bd ea1b 8c3d 6972 303c 50c9 36bc
00000010: d8c0 0ebc 26dd 433d 3060 fbbc ba3e 92ba
00000020: 87d4 e33c b3b4 eebb d2bf f7bc 8644 c2bc
00000030: c6ce f43c 089a 74bc 1a3e 01bc 7373 8bbc
00000040: b9c4 cabc 1c46 d2bc dd61 103c d327 d23c
00000050: cffe ed3c 2ff0 fdbc 0f25 62bc d4c9 0ebc
00000060: a718 983c 7619 a5bc a1dd b6bb e539 293c
00000070: 18c8 903c 00cb 81bc 982a ad3c 8ad8 883b
00000080: 10bc d83b 4e91 0d3d 2dee d43c 7550 9fbc
00000090: 8e12 8ebc 37fb 96bb dcaa 14bb 8900 7b3b
000000a0: 6b57 62bb eb77 27bd 88ae ce3c cf44 73b8
000000b0: 5f8c a53c c44a a4bc 7de5 b93c 4972 223c

global_feature_extractor.first_block.1.conv.1.running_var f4 [48]
2.9066916 17.526037 3.8271499 3.3153157 1.8859081 11.413289 4.579768 4.8578076
3.7099974 3.4938931 5.1395373 4.7251625 7.243463 3.7269268 0.914152 8.709314
5.367099 2.2258055 4.075517 9.96099 11.752467 7.9032154 7.117066 2.6416435
10.202035 3.9651892 12.176203 2.7273066 9.263389 5.756881 4.795169 1.2050794
2.3631992 2.6074727 3.3456428 3.4371943 7.52589 4.8513865 3.6636982 3.6260211
5.935608 9.423093 12.895751 9.975051 13.085903 4.653964 6.4334364 4.0464087
00000000: 3c07 3a40 5335 8c41 06f0 7440 222e 5440
00000010: 7065 f13f d59c 3641 768d 9240 2973 9b40
00000020: 9970 6d40 f29b 5f40 1777 a440 8834 9740
00000030: 73ca e740 f885 6e40 de05 6a3f 5a59 0b41
00000040: 46bf ab40 9973 0e40 a36a 8240 3760 1f41
00000050: 1b0a 3c41 24e7 fc40 01bf e340 b010 2940
00000060: 893b 2341 a9c5 7d40 bad1 4241 318c 2e40
00000070: d736 1441 5f38 b840 0672 9940 0b40 9a3f
00000080: a83e 1740 d5e0 2640 031f 5640 fefa 5b40
00000090: 17d4 f040 8f3e 9b40 087a 6a40 bb10 6840
000000a0: 80f0 bd40 fdc4 1641 ff54 4e41 cf99 1f41
000000b0: dc5f 5141 46ed 9440 b6de cd40 2e7c 8140
