model_checkpoints/experiments/overall/fastscnn_160a0.25t2r3pp0.pt (torch, 230443 bytes, 196 tensors)

learning_to_down_sample.conv.conv.weight f4 [8, 3, 3, 3]
0	0xbc875993	-0.016522205
1	0x3da3b695	0.07993809
2	0x3e330c43	0.17485146
3	0x3e02bcf0	0.12767386
4	0x3d89a465	0.06720809
5	0xbe1c96bc	-0.15291876
6	0x3e757766	0.23971328
7	0xbe2ace8e	-0.16680357
8	0x3e302b3f	0.17203997
9	0x3f77b994	0.96767545
10	0x3fb6dd09	1.4286205
11	0x3f1f4268	0.622107
12	0x3f740ba5	0.9533027
13	0x4009fd84	2.1560984
14	0x3f2e54ff	0.68098444
15	0xbe3b145a	-0.18269482
16	0x3f21f445	0.6326335
17	0x3ed29aa5	0.4113361
18	0xbeb715b7	-0.35758755
19	0x3d36c27d	0.044619072
20	0xbcbfe5c8	-0.023424998
21	0xbf0ec0eb	-0.5576312
22	0xbe031c4e	-0.12803766
23	0xbdce97b1	-0.100875266
24	0xbf398e54	-0.724828
25	0xbf181661	-0.5940915
26	0xbe9867b3	-0.29766616
27	0x3db2a3f5	0.087226786
28	0x3e13bbc4	0.14427096
29	0xbe1f1931	-0.15536954
30	0x3e9e01e5	0.3086082
31	0xbe4b87bb	-0.19875996
32	0xbe28be8f	-0.16478942
33	0x3cfdb29b	0.030968955
34	0x3d806e9d	0.06271098
35	0x3ec1e6b3	0.37871322
36	0x3e950a8e	0.29109615
37	0x3e86b855	0.2631251
38	0x3e7beb87	0.24601565
39	0xbe92bc71	-0.28659394
40	0xbf881212	-1.0630515
41	0xbf8cda8a	-1.1004193
42	0xbee92787	-0.4553797
43	0xbf66527e	-0.89969623
44	0xbf0e3754	-0.55553174
45	0x3e49f062	0.19720605
46	0x3ed441be	0.41456407
47	0x3e891ec2	0.2678128
48	0xbe090eb9	-0.13384522
49	0xbed28862	-0.41119677
50	0xbf53a709	-0.8267675
51	0x3d44fd52	0.048093148
52	0xbead652f	-0.3386626
53	0xbdaabf25	-0.08337239
54	0xbecbd177	-0.39808246
55	0xbf031488	-0.51203203
56	0xbeed9eea	-0.46410304
57	0xbe67c427	-0.2263342
58	0xbeb900f0	-0.36133528
59	0xbeda1c2d	-0.4259962
60	0x3eabdc73	0.33566627
61	0x3effde51	0.499743
62	0x3eae7df7	0.3408048
63	0x3db252b1	0.087071784
64	0x3e129cae	0.14317581
65	0x3dca80d8	0.09887856
66	0xbe9281cc	-0.28614652
67	0xbe072cc7	-0.13200675
68	0xb78bf0b3	-1.6682176e-05
69	0xbf5e4c87	-0.8683552
70	0xbed19aa5	-0.40938297
71	0xbe9aa03e	-0.3020038
72	0x3dd7c8b5	0.10536329
73	0xbb9e05e8	-0.0048224814
74	0xbe323e63	-0.17406611
75	0xbe25cfa6	-0.16192493
76	0xbbbcc316	-0.0057605607
77	0xbe285550	-0.16438794
78	0xbe3be8f9	-0.18350591
79	0xbcf26334	-0.02958832
80	0x3e37267f	0.17885779
81	0x3e53a723	0.20669226
82	0xbdaf1563	-0.08549001
83	0xbe493c14	-0.19651824
84	0x3e894589	0.26810864
85	0xbe2953b3	-0.16535835
86	0xbe679874	-0.2261675
87	0x3d61fa56	0.05517038
88	0x3d67e536	0.056615077
89	0x3ea25ab3	0.31709823
90	0xbd7b69d7	-0.061380234
91	0x3e25f9bf	0.16208552
92	0xbe6e926b	-0.23298042
93	0xbb0d60c5	-0.0021572572
94	0x3d49e092	0.049286433
95	0x3e79aae2	0.24381593
96	0xbee0c023	-0.4389659
97	0x3f514865	0.8175109
98	0x4012645f	2.2873762
99	0xbe245299	-0.16047134
100	0xbec7f2b7	-0.39052364
101	0xbe93ccc8	-0.28867173
102	0xbe9d8cf3	-0.30771598
103	0xbe18c4e8	-0.14918864
104	0xbdebff50	-0.11523306
105	0xbea9c45c	-0.33157623
106	0x3e187871	0.14889695
107	0x3f6a7d66	0.9159759
108	0x3e8766fc	0.26445758
109	0xbe8539f2	-0.2602077
110	0xbee3ae68	-0.44469
111	0x3e3b8e95	0.1831611
112	0xbe840c7f	-0.25790784
113	0xbea32054	-0.31860602
114	0x3f064d51	0.52461725
115	0x3e1d3882	0.15353587
116	0xbe34afbb	-0.17645161
117	0xbf0b14cd	-0.54328614
118	0xbf352a62	-0.70767796
119	0xbe3c2388	-0.18372929
120	0xbf0c8d99	-0.5490356
121	0xbf325091	-0.69654185
122	0xbf1aed99	-0.60518795
123	0xbe84e339	-0.25954607
124	0xbe868fef	-0.26281688
125	0xbf28b94c	-0.6590774
126	0xbed16077	-0.4089391
127	0x3ca7c973	0.0204818
128	0xbd2b7b4d	-0.041865636
129	0xbce47457	-0.027887506
130	0x3ebc0e38	0.36729598
131	0x3e915596	0.2838561
132	0x3d53792b	0.051629227
133	0x3f39b294	0.72538114
134	0x3f21435a	0.62993395
135	0x3e0f642f	0.14003061
136	0x3daff06f	0.08590781
137	0x3e1ac939	0.15115823
138	0x3e63911e	0.22223327
139	0x3e76cc02	0.2410126
140	0xbddd19f7	-0.10795968
141	0x3eaf6007	0.3425295
142	0xbdf538f3	-0.11973753
143	0xbe989193	-0.29798564
144	0xbe14cd88	-0.14531529
145	0x3f67c80e	0.90539634
146	0x3fba7915	1.4568201
147	0xbe54531e	-0.20734832
148	0x3f1de980	0.6168442
149	0x3f8a17f3	1.0788559
150	0xbe3d26bb	-0.18471806
151	0x3eb898d6	0.36054105
152	0x3ea5de99	0.3239639
153	0xbf391c9e	-0.7230929
154	0xbe81f553	-0.2538248
155	0x3ecdb313	0.40175685
156	0xbecd53f8	-0.40103126
157	0xbd75221a	-0.059846975
158	0x3df38b13	0.11891761
159	0xbd3a355a	-0.045461036
160	0xbdfe151d	-0.12406371
161	0xbe68dcc8	-0.22740471
162	0x3ec3e05a	0.38257104
163	0xbe82c202	-0.2553864
164	0xbede007c	-0.43359745
165	0x3e927e38	0.28611922
166	0xbe174beb	-0.14775054
167	0xbd675eb1	-0.05648679
168	0xbdb9af74	-0.09066668
169	0x3e7d927f	0.24762915
170	0x3e87d50e	0.26529735
171	0x3f5a25ec	0.85214114
172	0xbdf436ce	-0.11924516
173	0xbf5a9b95	-0.8539365
174	0x3f2ac044	0.66699624
175	0xbe593471	-0.21211411
176	0xbed04f30	-0.40685415
177	0x3eb21ebe	0.3478908
178	0xbe0053f8	-0.12532032
179	0xbbf326e1	-0.007420406
180	0x3f54576e	0.8294591
181	0xbe9fba52	-0.3119684
182	0xbf5aab35	-0.8541749
183	0x3f310231	0.6914397
184	0xbecf868d	-0.40532342
185	0xbf09545a	-0.53644335
186	0x3e80e2c0	0.25172997
187	0x3b5cdea6	0.0033702045
188	0xbd750d70	-0.059827268
189	0x3ea5201a	0.32251054
190	0x3d9d94bd	0.07694385
191	0x3e3148cd	0.17312928
192	0xbdb17a0b	-0.08665856
193	0x3d74c1f4	0.05975528
194	0x3df99f0d	0.1218854
195	0xbe4d37b6	-0.20040783
196	0xbe4b3878	-0.1984576
197	0xbe237725	-0.15963419
198	0xbf097f15	-0.53709537
199	0xbf31a37d	-0.6939009
200	0xbf8354b2	-1.0260222
201	0x3cc953fe	0.024576183
202	0xbeed70e7	-0.463752
203	0xbed411b7	-0.41419765
204	0xbe9b095a	-0.30280572
205	0xbe859690	-0.26091433
206	0xbed44013	-0.41455135
207	0x3e155d26	0.14586315
208	0x3d2c00f0	0.04199308
209	0xbd8a8d86	-0.06765275
210	0x3d982daa	0.07430585
211	0x3e9ed2fb	0.3102034
212	0x3da02257	0.0781905
213	0xbe89a7d5	-0.26885858
214	0x3d8f4e5e	0.06997369
215	0x3ef5a50c	0.47977483

learning_to_down_sample.conv.bn.weight f4 [8]
0	0x3fb44c10	1.4085712
1	0x3e9056f5	0.28191343
2	0x3fbb6c90	1.4642506
3	0x3f9e0106	1.2344062
4	0x3fb3f22f	1.4058284
5	0x3fb51d9d	1.4149662
6	0x3fb61d75	1.422774
7	0x3f90e2b2	1.1319182

learning_to_down_sample.conv.bn.bias f4 [8]
0	0x3ee730c2	0.45154387
1	0x3f561ebb	0.8364064
2	0xbe880e98	-0.26573634
3	0x3eac5a7e	0.3366279
4	0xbeb3cd26	-0.35117453
5	0x3ee53bc3	0.44772157
6	0xbe34171a	-0.17586938
7	0xbeaf1b81	-0.3420067

learning_to_down_sample.conv.bn.running_mean f4 [8]
0	0x3eab86d3	0.335013
1	0xbfd09b56	-1.6297405
2	0xbf561bde	-0.8363627
3	0x3ebac140	0.36475563
4	0xbe3465b6	-0.17616925
5	0x3eac40cf	0.33643195
6	0xbe79f500	-0.24409866
7	0xbf11fcc0	-0.5702629

learning_to_down_sample.conv.bn.running_var f4 [8]
0	0x4163bd6a	14.233744
1	0x4109ba34	8.60796
2	0x40898029	4.2968946
3	0x4091bfb5	4.5546517
4	0x409d90ec	4.9239407
5	0x40cf0503	6.469362
6	0x4065835c	3.5861425
7	0x4084a5f5	4.1452584

learning_to_down_sample.dsconv1.0.weight f4 [8, 1, 3, 3]
0	0x3e9c2557	0.30497238
1	0x3f0f5c7c	0.56000495
2	0x3ec911b0	0.39271307
3	0x3eb9868a	0.36235458
4	0x3f7d4229	0.9892908
5	0x3f344cd9	0.7042976
6	0x3e0dc58b	0.13844888
7	0x3ecfa099	0.40552214
8	0x3e426a32	0.18985823
9	0x3e2f0f73	0.17095737
10	0x3dfc8709	0.123304434
11	0xbeceb0b5	-0.40369192
12	0x3e9a4c91	0.3013654
13	0x3f843ea2	1.0331614
14	0x3e12eabb	0.14347355
15	0xbebbed25	-0.36704364
16	0xbedc6baf	-0.43050906
17	0xbf2e618d	-0.681176
18	0x3d3357c4	0.04378487
19	0xbea01c5a	-0.3127163
20	0xbf57390e	-0.84071434
21	0x3da86e1b	0.08224126
22	0xbd26c5eb	-0.040716093
23	0x3dafd0a9	0.08584721
24	0x3f279cc0	0.65473557
25	0x3ef997ca	0.48748618
26	0x3e8f1746	0.27947444
27	0xbe00f789	-0.12594427
28	0x3ed924fe	0.42411035
29	0x3f1c8ad4	0.61149335
30	0xbf1713e7	-0.59014744
31	0x3c9bb010	0.019004852
32	0x3f4e5002	0.8059083
33	0xbf153e4e	-0.58298194
34	0xbf2510df	-0.6447887
35	0x3d86e49e	0.06586574
36	0xbdb35053	-0.08755555
37	0xbec5a413	-0.3860174
38	0xbebe0b86	-0.37118167
39	0x3e01b399	0.12666167
40	0xbf370020	-0.71484566
41	0xbf882a9f	-1.0638007
42	0x3dd00d43	0.101587795
43	0xbec04b21	-0.3755732
44	0xbf093d3e	-0.53609073
45	0xbec3493c	-0.3814181
46	0xbf1be0ea	-0.60890067
47	0xbed2e40c	-0.4118961
48	0xbe559500	-0.2085762
49	0x3e099d38	0.1343888
50	0x3e805095	0.2506148
51	0xbd86d704	-0.0658398
52	0x3f520103	0.82032794
53	0x3f4c6fe2	0.7985822
54	0x3e08a072	0.13342455
55	0x3e60e39d	0.21961828
56	0x3e0352c6	0.12824544
57	0x3f1db697	0.61606735
58	0x3f4c13df	0.7971782
59	0x3e27660a	0.16347519
60	0x3ecf1407	0.40444967
61	0x3ec0eda4	0.37681305
62	0x3e2e868f	0.17043518
63	0xbcaff786	-0.021480333
64	0xbebf1b3b	-0.37325463
65	0xbf366a3f	-0.7125587
66	0x3e1ba896	0.15201029
67	0x3e382058	0.17981088
68	0xbef75743	-0.48308763
69	0x3f48a562	0.78377354
70	0x3f6e7a73	0.9315559
71	0x3d478ca7	0.04871812

learning_to_down_sample.dsconv1.1.weight f4 [8]
0	0x3f9a7d11	1.2069417
1	0x3f9cc3eb	1.224729
2	0x3f4f37fc	0.809448
3	0x3fc1a76c	1.5129218
4	0x3f6a8d45	0.9162181
5	0x3fa0b443	1.2555012
6	0x3f6c0252	0.9219104
7	0x3f4f4ba0	0.8097477

learning_to_down_sample.dsconv1.1.bias f4 [8]
0	0x3e2524a0	0.16127253
1	0xbdbfa484	-0.09357551
2	0xbd53b973	-0.05169053
3	0xb9b4e68d	-0.0003450405
4	0x3cb95864	0.022625156
5	0x3c1fe613	0.009759444
6	0x3d366af2	0.044535585
7	0xbcfc24d8	-0.030779287

learning_to_down_sample.dsconv1.1.running_mean f4 [8]
0	0x404ec52c	3.2307844
1	0xbdc5701f	-0.09640526
2	0x3e4e9dd8	0.201774
3	0xbb6e6da4	-0.003638127
4	0xbfa2ed84	-1.2728734
5	0x3e9ba66d	0.3040041
6	0x3f51cfa0	0.81957436
7	0x3e199e75	0.15001853

learning_to_down_sample.dsconv1.1.running_var f4 [8]
0	0x412dd89c	10.865383
1	0x3de6f415	0.11277024
2	0x3fd17908	1.6365061
3	0x3f48bceb	0.78413266
4	0x4092711c	4.5763073
5	0x3f7d1def	0.988738
6	0x401d46fe	2.457458
7	0x3f8b4a11	1.0881978

learning_to_down_sample.dsconv1.2.weight f4 [12, 8, 1, 1]
0	0xbed420ba	-0.41431218
1	0xbd819fea	-0.06329329
2	0x3ebcec18	0.36898875
3	0x3e8bcb42	0.2730351
4	0xbf905ec7	-1.1278924
5	0xbf38fa0f	-0.7225656
6	0x3ca897ab	0.020580133
7	0xbe4f1369	-0.20222248
8	0x3e204cb0	0.15654254
9	0xbf3e65f6	-0.7437433
10	0xbee07624	-0.43840134
11	0xbf74d5e4	-0.9563887
12	0xbea328da	-0.31867105
13	0xbf044147	-0.51662105
14	0x3d93d669	0.0721863
15	0xbf10d4bb	-0.565746
16	0xbe0c7ea0	-0.13720179
17	0x3c8cb9fc	0.017178528
18	0x3f6611d3	0.8987095
19	0x3ec690fb	0.38782486
20	0x3d3c0ca9	0.04591051
21	0xbf2a2f8c	-0.664788
22	0x3e86b220	0.26307774
23	0x3f09f9ec	0.53896976
24	0x3fb8cf37	1.4438237
25	0xbdbf8134	-0.093508154
26	0x3ebf9c95	0.3742415
27	0xbd90b48f	-0.07065689
28	0x3f05530a	0.5207983
29	0x3e01c64a	0.12673298
30	0x3ec0cdf0	0.37657118
31	0xbec23436	-0.3793046
32	0x3fc65924	1.5495954
33	0x3bcb8018	0.0062103383
34	0x3e68be16	0.22728762
35	0xba1e607f	-0.0006041601
36	0x3f81b808	1.0134287
37	0x3dcc1e97	0.09966772
38	0x3e3a7e0f	0.1821215
39	0xbe75d022	-0.24005178
40	0xbe3574b7	-0.17720304
41	0xbf5d6d6e	-0.864951
42	0xbef48aef	-0.47762248
43	0x3d81951b	0.06327268
44	0xbe13b4af	-0.14424394
45	0x3f3ec2fa	0.7451626
46	0xbe25a9d2	-0.16178063
47	0xbe6d94d0	-0.23201299
48	0x3e006c3a	0.12541285
49	0x3dd9465e	0.106091246
50	0xbeb4c0ef	-0.35303447
51	0xbf26d412	-0.65167344
52	0x3d420905	0.047371883
53	0x3f67507e	0.90357196
54	0xbf1c7326	-0.611132
55	0xbf508d21	-0.81465346
56	0x3e843866	0.2582428
57	0x3cae922d	0.021309936
58	0x3dcdcfeb	0.10049423
59	0xbe9483c8	-0.2900679
60	0xbe12e809	-0.14346327
61	0x3de5ca54	0.11220232
62	0x3fb814e2	1.4381373
63	0x3cd60472	0.026125167
64	0x3fc14372	1.5098708
65	0x3ccb685b	0.024830034
66	0x3e40c5d6	0.18825468
67	0xbb373b93	-0.0027959093
68	0x3f5c02b2	0.8594161
69	0xbe031a6d	-0.1280305
70	0x3ec611cb	0.3868545
71	0x3d127443	0.035755407
72	0xbe90c852	-0.28277832
73	0x3efae987	0.49006292
74	0xbe00512d	-0.12530966
75	0xbef8996d	-0.48554555
76	0xbe24dbc1	-0.16099454
77	0x3f1f3020	0.6218281
78	0xbf3ae1e7	-0.7300095
79	0xbf093114	-0.5359051
80	0xbea632ff	-0.32460782
81	0x3f6ddcad	0.9291485
82	0x3e6374e0	0.22212553
83	0x3f889194	1.0669427
84	0xbd95e819	-0.0731966
85	0x3f0ebbaf	0.5575513
86	0xbe26862a	-0.16262117
87	0x3ea7284d	0.32647935
88	0x3db6fcc0	0.08934927
89	0x3ef14b01	0.47127536
90	0x3ebeefec	0.3729242
91	0x3e64e7a1	0.22353984
92	0xbf181769	-0.5941072
93	0xbf4fb200	-0.8113098
94	0x3f084232	0.53226006
95	0x3ded2521	0.115793474

learning_to_down_sample.dsconv1.3.weight f4 [12]
0	0x3f8e03af	1.1094874
1	0x400ffa4e	2.2496524
2	0x3ef8a2c4	0.4856168
3	0x3f164164	0.5869353
4	0x3ef8f66d	0.48625508
5	0x3f90ca3a	1.1311715
6	0x3f2ae481	0.6675492
7	0x3f5fbbab	0.87395734
8	0x3ef59e36	0.47972268
9	0x3fbc8bbe	1.4730146
10	0x3fefae3c	1.8725047
11	0x3fb0251c	1.3761325

learning_to_down_sample.dsconv1.3.bias f4 [12]
0	0x3f0b6cea	0.54463065
1	0x3d27ba70	0.040949285
2	0x3f405d63	0.75142497
3	0x3f768fde	0.96313274
4	0x3f6f783b	0.9354283
5	0x3bc1654e	0.005901969
6	0x3f2f38da	0.68446124
7	0x3f25fce0	0.6483898
8	0x3f6570c1	0.89625174
9	0x3e3b27fc	0.18276972
10	0xbe00233d	-0.12513442
11	0x3f19953f	0.59993356

learning_to_down_sample.dsconv1.3.running_mean f4 [12]
0	0xbdd7e182	-0.10541059
1	0x3e014ea7	0.1262766
2	0xbda57db4	-0.080806166
3	0x3e87097f	0.26374432
4	0x3e8dce68	0.27696538
5	0x3da5e76e	0.08100782
6	0x3d1660fc	0.036713585
7	0x3dc3eac1	0.0956626
8	0x3e880ae8	0.2657082
9	0xbdc9ade7	-0.09847622
10	0xbe28aacb	-0.16471402
11	0xbd4dfc85	-0.05028965

learning_to_down_sample.dsconv1.3.running_var f4 [12]
0	0x403f6c2b	2.990977
1	0x4087a0e3	4.2383895
2	0x4036387b	2.8471973
3	0x4077bd86	3.8709426
4	0x40ba16f8	5.815304
5	0x4015956d	2.3372452
6	0x40774948	3.8638477
7	0x3ff80c46	1.9378746
8	0x409695c9	4.7057843
9	0x401a6b20	2.4127884
10	0x409062fe	4.512084
11	0x401a1be5	2.4079525

learning_to_down_sample.dsconv2.0.weight f4 [12, 1, 3, 3]
0	0x3e5694a4	0.2095514
1	0x3ed01079	0.40637568
2	0xbe25b1d4	-0.16181117
3	0x3ebb9623	0.36637983
4	0x3f016480	0.50543976
5	0xbf3c37db	-0.7352273
6	0xbc81f5d5	-0.015864292
7	0x3e2dde37	0.169793
8	0xbf863360	-1.0484428
9	0x3ea26e75	0.31724897
10	0x3edcc1d7	0.43116638
11	0x3eaec75c	0.34136474
12	0x3ede8689	0.43462017
13	0x3f6b63d6	0.9194921
14	0x3f3e95db	0.7444741
15	0x3da8d260	0.08243251
16	0x3ed9d686	0.4254648
17	0x3ee1d464	0.44107354
18	0x3ef3cc95	0.4761702
19	0x3f2b6a4c	0.6695907
20	0x3c8cb400	0.017175674
21	0x3e1abd5c	0.15111297
22	0xbf336b11	-0.70085245
23	0xbf6ab7d5	-0.91686755
24	0x3d98d2e1	0.07462097
25	0xbeb81da3	-0.3596011
26	0x3e7717fb	0.24130242
27	0x3c5fb08c	0.013652932
28	0x3e17c022	0.14819387
29	0xbf12c8e4	-0.57337785
30	0x3d6b8cb8	0.057507247
31	0xbed6edf1	-0.4197841
32	0xbfa9d9ff	-1.3269652
33	0x3e877df7	0.2646329
34	0xbe94758b	-0.28995928
35	0xbf80e6cb	-1.0070432
36	0xbe5f1b23	-0.21787696
37	0xbf8e7bcf	-1.1131533
38	0xbf08650d	-0.5327919
39	0x3e04e20b	0.12976854
40	0xbf0d3675	-0.5516122
41	0xbe810424	-0.25198472
42	0x3e9a17b1	0.300962
43	0x3f0d80dd	0.55274755
44	0x3f4a4e26	0.79025495
45	0x3b99506c	0.0046787765
46	0x3e281adf	0.164165
47	0x3e62c89e	0.22146842
48	0xbe82bf2b	-0.25536475
49	0xbf5f9493	-0.8733608
50	0xbf2cd4c2	-0.6751214
51	0x3e257f05	0.16161735
52	0x3f311b45	0.69182235
53	0x3f06195c	0.52382445
54	0x3e9c2dd3	0.3050371
55	0x3ec0f3a5	0.37685886
56	0x3efcf9a4	0.4940921
57	0x3de08c3a	0.10964246
58	0xbdcb346c	-0.09922108
59	0xbc82d753	-0.015971815
60	0xbdabbc57	-0.08385532
61	0xbf705fd3	-0.93896216
62	0xbf41cf57	-0.75707
63	0x3eb0fd57	0.34568283
64	0xbeb90d1a	-0.36142808
65	0x3c68b212	0.0142026115
66	0x3d897658	0.067120254
67	0xbf574edc	-0.84104705
68	0xbf1a2f6a	-0.602286
69	0x3f22fd92	0.6366817
70	0xbe318266	-0.173349
71	0xbded6907	-0.11592298
72	0x3f0bcaa7	0.546061
73	0x3f01010c	0.5039222
74	0x3f403cd8	0.7509284
75	0x3ceef9ec	0.029171906
76	0xbf70e170	-0.9409399
77	0xbe9f2076	-0.31079453
78	0xbdd86bb9	-0.105674215
79	0xbf418007	-0.7558598
80	0xbd057ddb	-0.03259073
81	0xbd1062ed	-0.035250593
82	0x3e7ad37c	0.24494737
83	0x3ebe5b31	0.3717895
84	0xbe08b357	-0.13349663
85	0xbf394d11	-0.7238322
86	0xbf4d3a1b	-0.80166787
87	0xbd93f829	-0.07225067
88	0x3f18aa8e	0.59635246
89	0x3f09d585	0.5384143
90	0x3e229383	0.15876584
91	0x3f12a7bf	0.5728721
92	0x3ef97dee	0.4872889
93	0x3e30f1c1	0.17279722
94	0x3f381cc6	0.71918905
95	0x3f576ab0	0.8414717
96	0x3d8f4f77	0.069975786
97	0x3e8ec34f	0.27883384
98	0x3eef39a0	0.46723652
99	0xbe425145	-0.18976314
100	0x3de8e2e4	0.11371401
101	0x3f29736a	0.6619173
102	0xbf0297e4	-0.51013017
103	0xbf8f8ddc	-1.1215167
104	0xbdd1b090	-0.10238755
105	0x3d54840d	0.051883746
106	0x3ee8f3a0	0.4549837
107	0x3ef91e60	0.48655987

learning_to_down_sample.dsconv2.1.weight f4 [12]
0	0x3f457443	0.77130526
1	0x3f3eb777	0.74498695
2	0x3fb07826	1.3786666
3	0x3f7ad671	0.9798346
4	0x3fbd150b	1.4772047
5	0x3fbb5de5	1.4638029
6	0x3fa9f5bd	1.3278118
7	0x3f8000d9	1.0000259
8	0x3f9121d8	1.1338453
9	0x3fd3ab12	1.6536582
10	0x3f54ea14	0.83169675
11	0x3f8db283	1.1070102

learning_to_down_sample.dsconv2.1.bias f4 [12]
0	0x3c3ae9bd	0.011408267
1	0xbd79dc57	-0.061001148
2	0xbc534413	-0.012894648
3	0x3d195b78	0.037440747
4	0xbc98f91a	-0.018673468
5	0xbd78df88	-0.06076005
6	0xbb90cbf4	-0.0044188444
7	0x3ccdc186	0.025116693
8	0xbcdc6fc9	-0.026908772
9	0x3c3e5b2f	0.01161842
10	0x3cde30ea	0.027122933
11	0xbd015a5d	-0.031580318

learning_to_down_sample.dsconv2.1.running_mean f4 [12]
0	0xbe868aba	-0.26277715
1	0x404bee37	3.1864145
2	0xbe9d0695	-0.30669084
3	0xc0416eec	-3.0223951
4	0xbf433afc	-0.7626188
5	0xbdf36435	-0.11884347
6	0xbf024f3f	-0.5090217
7	0xbf33930c	-0.7014625
8	0xbeb8ebb2	-0.3611732
9	0xbde2daea	-0.11076911
10	0x400c5a63	2.1930168
11	0xbd29b978	-0.041436642

learning_to_down_sample.dsconv2.1.running_var f4 [12]
0	0x3fb97359	1.4488326
1	0x40eb76f9	7.358273
2	0x3f24dbd7	0.6439795
3	0x4040b52f	3.0110586
4	0x3f47df14	0.78074765
5	0x40081102	2.126038
6	0x3f5ec173	0.8701393
7	0x400b5804	2.177247
8	0x3ee75c0b	0.4518741
9	0x404b50f4	3.176816
10	0x4083cbd0	4.1186295
11	0x4085e717	4.184459

learning_to_down_sample.dsconv2.2.weight f4 [16, 12, 1, 1]
0	0x3f608bf5	0.8771356
1	0x3e6a36dc	0.2287249
2	0x3e9dce62	0.3082152
3	0xbdee2c1b	-0.11629506
4	0xbc33defd	-0.0109784575
5	0x3c94526c	0.018105708
6	0x3f07d26d	0.5305546
7	0xbe9e4043	-0.30908403
8	0x3edaa42b	0.42703375
9	0x3defa394	0.11701122
10	0x3f800eb1	1.0004483
11	0xbdb330e5	-0.0874956
12	0x3ee3e5b1	0.44511178
13	0x3ef914f9	0.48648813
14	0xbfa08750	-1.2541294
15	0xbd0764b3	-0.03305502
16	0x3e6273ee	0.22114536
17	0x3f2ba217	0.67044204
18	0x3d459990	0.04824215
19	0xbedb7210	-0.4286046
20	0x3dd5a4ab	0.104317985
21	0x3f08c21d	0.53421193
22	0x3e42939a	0.19001618
23	0xbeff5264	-0.49867547
24	0x3e681f92	0.22668293
25	0xbde5073f	-0.11183023
26	0xbd89c4d4	-0.06726995
27	0xc0225377	-2.5363443
28	0xbedd67be	-0.43243212
29	0xbded534d	-0.11588154
30	0xbe78f6f5	-0.24312957
31	0xbda15a19	-0.07878513
32	0xbe754a62	-0.23954156
33	0xbd6ab765	-0.057303805
34	0x3ec7e77a	0.3904379
35	0x3e339d4f	0.17540477
36	0xbdb3392b	-0.08751138
37	0xbdda3145	-0.10653929
38	0x3e85b26e	0.26112694
39	0xbe532948	-0.20621216
40	0xbfd46728	-1.6593981
41	0x3f18733b	0.5955083
42	0x3f11b7d6	0.56921136
43	0x3d2ffe81	0.042967323
44	0xbeb0692e	-0.34455246
45	0x3dd3e832	0.10347022
46	0xbed458fc	-0.4147414
47	0x3ba2d628	0.004969377
48	0xbd240f0c	-0.040053412
49	0xbd22c45c	-0.039738044
50	0x3ede39bb	0.4340342
51	0x3d171ba9	0.036891613
52	0x3ea02de4	0.31285012
53	0x3e99f288	0.3006785
54	0xbf8476d9	-1.034877
55	0x3f3858a6	0.72010267
56	0xbc4e4a8a	-0.012591014
57	0x3f8de160	1.1084404
58	0xbe9b08f9	-0.30280283
59	0x3e0bed0b	0.13664643
60	0x3ef20d63	0.47275838
61	0xbfcb423c	-1.5879588
62	0x3defae8d	0.11703215
63	0xbe045dca	-0.12926403
64	0x3d939460	0.07206035
65	0xbe012dd3	-0.12615137
66	0x3eb5c9f4	0.3550564
67	0x3e850657	0.259814
68	0xbdd3cd17	-0.10341852
69	0x3db0cb3a	0.086325124
70	0xbfa58638	-1.2931585
71	0x3d040780	0.032233715
72	0xbe97ee91	-0.296742
73	0xbecfb50f	-0.40567824
74	0xbf2c20e6	-0.672377
75	0x3ec1f776	0.3788411
76	0xbeb29479	-0.348789
77	0x3ddd2896	0.10798757
78	0x3e9044f5	0.2817761
79	0xbda503d1	-0.080573685
80	0x3f765d30	0.9623594
81	0xbe6a764d	-0.2289669
82	0xbdfd9f6d	-0.12383924
83	0x3f5df00a	0.86694396
84	0x3d8d8fc1	0.069121845
85	0xbdac5cd1	-0.08416141
86	0xbece646d	-0.40310994
87	0xbeb2761f	-0.34855744
88	0x3f1bd136	0.60866106
89	0xbf4ff5ff	-0.81234735
90	0x3edbb48d	0.42911187
91	0xbe5c0716	-0.21487078
92	0xbedfbe45	-0.43699852
93	0xbf6aff40	-0.9179573
94	0x3d21dd16	0.039517485
95	0xbbc35a18	-0.0059616677
96	0xbea156da	-0.31511575
97	0x3e46d911	0.19418742
98	0x3ea8703f	0.32898137
99	0x3e666751	0.2250035
100	0xbed11ea0	-0.40843678
101	0xbe49fd01	-0.1972542
102	0xbe5ea405	-0.21742256
103	0xbee6c1d3	-0.4506975
104	0x3fd35bfb	1.6512445
105	0xbe4cf05e	-0.20013568
106	0x3df1a7e2	0.11799599
107	0xbf06af35	-0.52611095
108	0x3e876697	0.26445457
109	0xbead5191	-0.33851293
110	0x3ef9935c	0.4874524
111	0xbe4daf63	-0.20086436
112	0x3ed72181	0.4201775
113	0xbd889c15	-0.06670395
114	0x3ee3ee70	0.4451785
115	0x3e7f298a	0.2491819
116	0xbf8080b2	-1.0039275
117	0x3f54e8c9	0.831677
118	0x3d921236	0.0713238
119	0xbe04120a	-0.12897506
120	0xbea4f530	-0.32218313
121	0x3e0fec60	0.14055014
122	0x3ec65341	0.38735393
123	0x3eb628ba	0.35577947
124	0xbea25163	-0.31702718
125	0xbf8ec31a	-1.115329
126	0x3f80dbd6	1.0067089
127	0xbf13b9d1	-0.5770541
128	0xbe7cfd17	-0.24705921
129	0x3f105720	0.5638294
130	0x3e02a4fe	0.12758252
131	0x3ef87463	0.48526296
132	0x3db5e0a1	0.08880735
133	0x3ed748d7	0.4204776
134	0x3f381870	0.7191229
135	0xbd4c601a	-0.049896337
136	0x3ee2dd1f	0.44309327
137	0x3eb09c0a	0.34494048
138	0xbec70fd9	-0.38879278
139	0xbdede75e	-0.116163954
140	0xbf2314ef	-0.6370382
141	0xbf5cfc34	-0.8632233
142	0x3e789eb0	0.24279284
143	0xbf4b1b9b	-0.79339
144	0x3dd4050d	0.10352526
145	0x3e7a2efd	0.24431987
146	0xbf61aa03	-0.8815004
147	0x3e9f77d5	0.31146112
148	0xbf1d4c54	-0.6144459
149	0xbf3c4aac	-0.7355144
150	0x3ec4ef53	0.3846384
151	0x3cc0f6d0	0.02355519
152	0x3ed863a8	0.42263532
153	0xbe18f665	-0.14937742
154	0xbc355043	-0.011066499
155	0xbf7d2a05	-0.9889224
156	0xbf35bc1d	-0.70990163
157	0xbd784aac	-0.060618088
158	0xbd265a02	-0.040613182
159	0x3e2eb49c	0.17061085
160	0x3f620c87	0.88300365
161	0x3f39a4c0	0.72517014
162	0xbf0e659a	-0.5562378
163	0xbef45287	-0.47719213
164	0x3d57f6d8	0.052725643
165	0xbe8b3a57	-0.27192947
166	0xbe22dfde	-0.15905711
167	0x3ec98a02	0.39363104
168	0xbf2dcc26	-0.6788963
169	0x3eb46760	0.3523512
170	0xbe115d5a	-0.14195767
171	0x3ef22cdf	0.4729986
172	0xbf2afb50	-0.6678972
173	0xbd0f87af	-0.035041507
174	0xbe84d393	-0.25942668
175	0xbe91c7d7	-0.28472778
176	0xbf5e731f	-0.8689441
177	0xbdf22e3d	-0.118252255
178	0xbeb21c02	-0.34786993
179	0x3ef5f8ad	0.48041287
180	0x3e592889	0.21206869
181	0x3ed088e4	0.4072944
182	0x3f154a1f	0.58316225
183	0x3db10e12	0.08645262
184	0x3dbde591	0.09272302
185	0x3f61aa92	0.88150895
186	0xbe940123	-0.28907117
187	0x3f91c9b9	1.1389686
188	0xbe487972	-0.19577578
189	0xbf428724	-0.7598746
190	0x3e47488f	0.19461273
191	0x3f33297e	0.6998519

learning_to_down_sample.dsconv2.3.weight f4 [16]
0	0x3f5ff826	0.8748802
1	0x3fae628d	1.3623825
2	0x3f9a8d5a	1.2074387
3	0x3faacdcf	1.3344058
4	0x3fd0ba00	1.6306763
5	0x3fb1a473	1.3878311
6	0x3fa0b96d	1.2556587
7	0x3fab60c6	1.3388908
8	0x3fba24cf	1.4542483
9	0x3f8f82c8	1.1211786
10	0x3fcbbeb1	1.5917569
11	0x3f9b067c	1.2111354
12	0x3f984199	1.1895019
13	0x3f59d676	0.85092866
14	0x3f7dcc93	0.9914028
15	0x3faf644f	1.3702487

learning_to_down_sample.dsconv2.3.bias f4 [16]
0	0x3f018979	0.5060039
1	0x3e20e30e	0.15711614
2	0x3ff94e1d	1.9476963
3	0x3fab89c5	1.3401419
4	0xbeb84cdf	-0.35996148
5	0xbe180e7c	-0.14849275
6	0xbf1c47c7	-0.61047024
7	0x3bc77e0e	0.006088025
8	0xbe4997e8	-0.19686854
9	0xbe8c1f6c	-0.27367723
10	0x3c6ab22e	0.014324708
11	0x3dc7ed78	0.097620904
12	0x3b091053	0.002091427
13	0xbcad92d0	-0.02118817
14	0x3e981bfc	0.2970885
15	0xbd5cdab5	-0.053919513

learning_to_down_sample.dsconv2.3.running_mean f4 [16]
0	0xbb65b62e	-0.0035051215
1	0xbd28b6c6	-0.04118993
2	0xbd7488ad	-0.059700657
3	0xbc56fa32	-0.013121175
4	0xbb47ceb8	-0.0030488204
5	0x3d997140	0.07492304
6	0xbc95b718	-0.018275782
7	0x3cfe4f93	0.031043803
8	0xbcec2472	-0.028825972
9	0x3d59182d	0.05300157
10	0x3d55a24f	0.052156743
11	0xbce109d0	-0.0274705
12	0x3da85dc9	0.08221013
13	0xbdb60d22	-0.08889224
14	0xbb733857	-0.0037112439
15	0xbd947ba4	-0.07250145

learning_to_down_sample.dsconv2.3.running_var f4 [16]
0	0x401bed6b	2.4363658
1	0x41116fe6	9.089819
2	0x4102e9e7	8.182105
3	0x41093505	8.575444
4	0x40c38df9	6.1110806
5	0x408371aa	4.107625
6	0x405bf4b1	3.4368098
7	0x40f19757	7.549724
8	0x40cbea90	6.372383
9	0x40623b84	3.5348825
10	0x4104f5dc	8.310024
11	0x40ff433e	7.9769583
12	0x40743a5a	3.8160615
13	0x40879e75	4.238093
14	0x3ff7abdc	1.9349322
15	0x408a4035	4.320338

global_feature_extractor.first_block.0.conv.0.weight f4 [32, 16, 1, 1]
0	0xbe281b5c	-0.16416687
1	0x3e7cda71	0.24692704
2	0xbe0ccd61	-0.13750221
3	0xbe223f0b	-0.15844361
4	0x3d0dc033	0.034607124
5	0xbf336b10	-0.7008524
6	0x3e6ca0ee	0.23108265
7	0xbe816c18	-0.2527778
8	0xbe8e4cda	-0.27793008
9	0x3eabf0f7	0.3358228
10	0xbe731738	-0.23739326
11	0x3d576096	0.052582346
12	0x3f708a10	0.93960667
13	0x3d35ab65	0.044352908
14	0xbe7b3ac0	-0.2453413
15	0xbc2346ef	-0.009965642
16	0xbee4df95	-0.4470183
17	0xbeeeb43f	-0.46621892
18	0x3f29a2f9	0.662643
19	0x3f4df9c5	0.80459243
20	0xbf80d2cc	-1.006433
21	0x3ea02656	0.31279248
22	0x3d5d381a	0.05400858
23	0xbea48a5a	-0.32136804
24	0xbe92bdaf	-0.28660342
25	0xbd521c58	-0.051296562
26	0xbf21d54a	-0.6321608
27	0xbeb67f43	-0.35643968
28	0xbead7b21	-0.33883002
29	0xbe35a39e	-0.17738196
30	0xbee58968	-0.44831395
31	0xbef8aaec	-0.48567903
32	0xbd5f25fd	-0.054479588
33	0x3da000c4	0.07812646
34	0xbf0466b4	-0.5171921
35	0x3c5eaa70	0.01359044
36	0x3e887342	0.26650435
37	0xbec9baec	-0.39400423
38	0x3e5ccc1a	0.21562234
39	0xbec5297d	-0.38508216
40	0x3ebafa4f	0.36519095
41	0xbe6cec08	-0.23136914
42	0xbd104ee2	-0.03523148
43	0x3dd48f10	0.103788495
44	0x3e96ac36	0.29428262
45	0x3ed03eb8	0.4067285
46	0xbeb555ed	-0.3541712
47	0x3e592eca	0.21209255
48	0x3f294a0a	0.661286
49	0x3f4b37db	0.79382104
50	0xbea8d2cd	-0.32973328
51	0xbee4a813	-0.4465948
52	0x3f434763	0.762808
53	0xbf0e0337	-0.55473655
54	0xbc07761b	-0.008267905
55	0xbe4fbc8e	-0.20286772
56	0x3ef10a95	0.47078386
57	0xbefeb958	-0.4975078
58	0x3cb1f04b	0.021721026
59	0xbdde25ef	-0.10847079
60	0x3ed660df	0.41870782
61	0x3cf759dc	0.030194215
62	0xbb8f8b8c	-0.004380649
63	0xbdf4d8ce	-0.11955415
64	0x3c7ed957	0.015554748
65	0xbe82cf0e	-0.25548595
66	0xbc4318ae	-0.01190774
67	0x3e9940d0	0.2993226
68	0x3e199256	0.14997229
69	0x3e672d2d	0.22575827
70	0x3e40af81	0.1881695
71	0xbde598e2	-0.11210801
72	0xbed83082	-0.4222451
73	0x3b969c86	0.0045962958
74	0x3eb6b332	0.3568359
75	0xbdc39aea	-0.09551032
76	0xbdb38fcb	-0.08767661
77	0x3ed8954d	0.42301407
78	0x3f60cf47	0.8781628
79	0x3e3f3a13	0.18674497
80	0x3d291b67	0.0412859
81	0xbd8e4650	-0.06947005
82	0x3f01dda7	0.5072884
83	0x3dcc42a5	0.09973649
84	0xbe8d75df	-0.2762899
85	0x3e6abb78	0.22923076
86	0xbea70a4b	-0.3262504
87	0x3e310a7f	0.1728916
88	0x3bb10f26	0.005403417
89	0x3ead467a	0.33842832
90	0x3d2cbe3f	0.04217362
91	0x3e04967a	0.12948027
92	0xbdd9484c	-0.10609493
93	0xbd81982a	-0.06327851
94	0xbd89f5e8	-0.06736356
95	0xbee4af7f	-0.44665143
96	0xbd1fa6dd	-0.038977493
97	0xbd40faa1	-0.04711402
98	0x3ece3c42	0.40280348
99	0x3ece88aa	0.4033864
100	0xbdfef5b3	-0.12449207
101	0xbdc6075c	-0.096693724
102	0xbf0e407a	-0.55567133
103	0x3e789fcf	0.24279712
104	0xbf2e2c50	-0.68036366
105	0x3f6d4b85	0.9269336
106	0xbc6aabe4	-0.0143232085
107	0x3f09881e	0.53723323
108	0xbe3daaa7	-0.1852213
109	0xbe9c4bd5	-0.30526605
110	0x3ec63a4f	0.3871636
111	0xbde1c350	-0.11023581
112	0x3e4e0fbe	0.20123193
113	0x3e6556d4	0.22396404
114	0x3f9c53c8	1.2213068
115	0x3f2e8521	0.6817189
116	0xbef972f6	-0.4872052
117	0x3e6918ab	0.22763316
118	0x3da1d336	0.079016134
119	0xbf021787	-0.5081715
120	0xbb84838f	-0.0040440033
121	0x3df35375	0.118811525
122	0xbe298ed2	-0.16558388
123	0xbdb5c2f5	-0.08875076
124	0xbd25524f	-0.0403617
125	0xbe9ab80b	-0.3021854
126	0x3ea2e577	0.31815693
127	0x3df72867	0.12068253
128	0xbecd993f	-0.4015598
129	0xbee37b5b	-0.4443005
130	0xbf124543	-0.57136935
131	0xbf77b199	-0.9675537
132	0x3f14f08a	0.58179533
133	0xbc15f0f4	-0.009151686
134	0x3e3b702a	0.18304506
135	0xbdefeecc	-0.11715469
136	0x3dc6546a	0.096840695
137	0x3e212bc2	0.15739349
138	0x3dbef9e7	0.09325009
139	0x3ee9bf1f	0.45653626
140	0x3d669107	0.056290653
141	0x3d57c56c	0.05267851
142	0x3e7881be	0.24268243
143	0x3dddf203	0.10837176
144	0x3e8d0c68	0.27548528
145	0xbed3cf89	-0.41369274
146	0x3ef5a201	0.47975162
147	0x3ecb4396	0.397
148	0xbe4c1688	-0.1993047
149	0x3c5cb083	0.013469818
150	0x3f54bf30	0.8310423
151	0xbecd4afb	-0.40096268
152	0x3da9cd92	0.082911626
153	0xbf400485	-0.75006896
154	0x3e8e560f	0.27800032
155	0xbe530707	-0.2060815
156	0x3edba52d	0.42899457
157	0xbeb6e675	-0.357227
158	0x3eddc5fc	0.43315113
159	0x3e117c9a	0.14207688
160	0xbeafbdf4	-0.3432461
161	0xbe248c25	-0.16069086
162	0x3e014e49	0.1262752
163	0x3f2a451c	0.665117
164	0xbea28f83	-0.31750116
165	0x3f02d65b	0.5110833
166	0x3f382e2e	0.71945465
167	0xbee57f85	-0.44823852
168	0x3efbc12c	0.49170816
169	0x3ed173a4	0.4090854
170	0xbe6022c7	-0.21888267
171	0xbebc083f	-0.3672504
172	0x3e87a822	0.26495463
173	0xbe9b1583	-0.3028985
174	0xbcbf342b	-0.023340305
175	0xbf2ac4fa	-0.6670681
176	0x3eb2d658	0.34929156
177	0xbe0a8ec3	-0.13531022
178	0x3ec0623a	0.3757494
179	0x3efdcf34	0.49572146
180	0x3e4fc159	0.202886
181	0xbe084c33	-0.13310318
182	0xbe6139da	-0.21994725
183	0xbe12e039	-0.14343347
184	0xbea63cc5	-0.32468238
185	0xbd973165	-0.07382468
186	0xbe4d5d79	-0.20055188
187	0x3f8998a9	1.0749713
188	0x3de69130	0.11258161
189	0x3e45f0cd	0.1933014
190	0x3f176dfb	0.5915219
191	0x3eedb4c4	0.46426976
192	0x3e7db133	0.24774627
193	0xbe326603	-0.17421727
194	0xbe6d7b02	-0.23191455
195	0xbeb5c278	-0.3549993
196	0x3c2e6d12	0.010646122
197	0xbeefb767	-0.46819612
198	0x3f3c4eb9	0.7355762
199	0xbe0729d5	-0.13199551
200	0x3ec68ed1	0.38780835
201	0xbd25147f	-0.04030275
202	0x3f304a3b	0.68863267
203	0x3e41bd50	0.18919873
204	0xbe1ffb95	-0.15623315
205	0x3f63e052	0.8901416
206	0x3f232f95	0.6374448
207	0x3ed9281b	0.4241341
208	0xbe74ef84	-0.23919493
209	0xbe81d305	-0.25356308
210	0x3dd04bee	0.101707324
211	0x3db30db3	0.08742847
212	0x3dc0cae5	0.09413699
213	0x3ea716be	0.32634538
214	0x3e9f4f1d	0.31115046
215	0x3e315357	0.17316948
216	0x3f3150a6	0.69263685
217	0x3cf7599b	0.030194094
218	0xbdcc0f91	-0.099639066
219	0x3f1ab6cb	0.6043517
220	0x3c639a3d	0.013891754
221	0xbe9218ae	-0.28534454
222	0xbe42e0bf	-0.19031046
223	0x3ebb8dd6	0.3663165
224	0xbeb42e63	-0.3519164
225	0xbededa87	-0.43526098
226	0x3e908717	0.28228065
227	0x3ce6ff34	0.028197862
228	0xbe90156c	-0.28141344
229	0x3db0394d	0.08604679
230	0xbeec5dc9	-0.46165302
231	0xbda72957	-0.08162182
232	0xbf2ca9a9	-0.6744638
233	0x3ee634fe	0.44962305
234	0xbf0aef16	-0.54271066
235	0x3ea4b38f	0.32168242
236	0xbf36873d	-0.7130011
237	0xbe5f663d	-0.21816345
238	0xbdc615fe	-0.096721634
239	0xbf094baa	-0.5363108
240	0xbe4193c7	-0.18904029
241	0xbf80c954	-1.006144
242	0xbd9b0f12	-0.07571234
243	0xbe1b96d0	-0.15194249
244	0xbe2daaec	-0.16959733
245	0x3d211822	0.039329655
246	0xbf6f2105	-0.9340976
247	0x3b81d649	0.0039623124
248	0xbe14f4a0	-0.14546442
249	0xbe7b27ab	-0.24526851
250	0xbecb2a08	-0.39680505
251	0x3e2273ac	0.15864438
252	0xbeac7442	-0.33682448
253	0xbed2caeb	-0.4117044
254	0xbe134882	-0.14383128
255	0xbd28d863	-0.041221987

global_feature_extractor.first_block.0.conv.1.weight f4 [32]
0	0x3fc0790e	1.5036943
1	0x3f182dab	0.59444684
2	0x3f45ea9c	0.7731111
3	0x3faa120f	1.3286761
4	0x3f93d4d3	1.1549324
5	0x3fc39ea5	1.528279
6	0x3f8e4f0e	1.1117876
7	0x3f6aa585	0.9165881
8	0x3f97cc43	1.1859211
9	0x400c24e6	2.189752
10	0x3f391f5a	0.72313464
11	0x3f87df97	1.0615109
12	0x3fc5c894	1.5451837
13	0x3fcaf6e6	1.5856597
14	0x3fc18567	1.5118836
15	0x3f808d4e	1.0043123
16	0x3f0f8c8e	0.56073844
17	0x3eacab5d	0.3372449
18	0x3f94b7e3	1.1618618
19	0x3f5d0124	0.86329865
20	0x3fbafdd9	1.4608718
21	0x3f26a4a5	0.6509498
22	0x3fd03837	1.6267155
23	0x3f87999e	1.0593755
24	0x3f9c651c	1.2218356
25	0x3ff456e3	1.9089016
26	0x3e68ee3e	0.22747132
27	0x3fe0d897	1.7566098
28	0x3fc876ad	1.5661217
29	0x3f2b3ee0	0.66892815
30	0x3f38a11c	0.72120833
31	0x3f48f1ba	0.78493845

global_feature_extractor.first_block.0.conv.1.bias f4 [32]
0	0xbcddd679	-0.027079808
1	0x3f4f4f0b	0.80979985
2	0x3efb5758	0.49090075
3	0x3da391d0	0.07986796
4	0xbec7a4c9	-0.3899291
5	0xbdde1ee2	-0.10845734
6	0xbe291210	-0.16510797
7	0xbf13523a	-0.5754734
8	0xbd5116d9	-0.05104718
9	0x3e317a56	0.17331824
10	0x3f11267a	0.56699336
11	0xbeb5a556	-0.35477704
12	0x3ec56c74	0.38559306
13	0xbd06a652	-0.03287346
14	0xbce54129	-0.027985172
15	0x3ea4ca91	0.32185796
16	0xbeef5534	-0.46744692
17	0xbf038298	-0.51371145
18	0x3efa3059	0.4886501
19	0xbef02ec6	-0.46910685
20	0x3d5fd03b	0.054641943
21	0x3f109f2d	0.5649288
22	0x3e38369e	0.17989585
23	0x3ec8ba13	0.39204463
24	0x3e9c1ff9	0.30493143
25	0x3ca9e660	0.020739734
26	0xbf1d05a7	-0.6133675
27	0x3e0836f4	0.13302213
28	0xbd38c80b	-0.04511265
29	0x3edb5bc0	0.42843437
30	0x3f063fd6	0.52441156
31	0x3f08f82b	0.53503674

global_feature_extractor.first_block.0.conv.1.running_mean f4 [32]
0	0xbf2f695b	-0.68520135
1	0x3e2033d1	0.15644766
2	0xbf5fd991	-0.87441355
3	0xbe950499	-0.2910507
4	0x3f8abe17	1.0839261
5	0x3f79300d	0.97338945
6	0x3fb26559	1.3937179
7	0x40552420	3.33033
8	0xc00f1e0f	-2.2362096
9	0x3fd32933	1.6496948
10	0x3f35f533	0.7107727
11	0x40189f9c	2.3847418
12	0x3ec2f153	0.3807474
13	0x3f66d306	0.90165746
14	0xbf909ab2	-1.1297209
15	0xc0010126	-2.015695
16	0x3f923d2a	1.1424916
17	0x3daf0c3f	0.08547258
18	0xbfc450d5	-1.5337168
19	0x4046107d	3.0947564
20	0xbfd21539	-1.6412727
21	0xc031dc80	-2.7790833
22	0x3ef90fae	0.48644775
23	0x3f761417	0.96124405
24	0xbffca6a2	-1.9738352
25	0xbf7c3b19	-0.98527676
26	0x3f68e3db	0.9097268
27	0x3da17e8b	0.07885464
28	0xc0526404	-3.2873545
29	0xbf3723a0	-0.71538734
30	0xbfd10c9c	-1.6331973
31	0xbf7dcfdc	-0.99145293

global_feature_extractor.first_block.0.conv.1.running_var f4 [32]
0	0x3fa38e3b	1.277778
1	0x40d52407	6.660648
2	0x3fecdaee	1.8504312
3	0x408f35e0	4.4753265
4	0x3f9d1fff	1.227539
5	0x3f8fc20d	1.1231095
6	0x40067c6d	2.1013443
7	0x40b3534c	5.603918
8	0x4068226d	3.6271012
9	0x404672ae	3.1007495
10	0x40819641	4.0495915
11	0x3fde6b9e	1.7376592
12	0x4042641a	3.0373597
13	0x3f98c875	1.1936175
14	0x402534f4	2.581357
15	0x400ac14a	2.1680474
16	0x3f8a50a6	1.0805862
17	0x3f97b8be	1.1853254
18	0x40369b92	2.8532453
19	0x400104a0	2.0159073
20	0x4022256d	2.5335343
21	0x3fd3d3db	1.6549028
22	0x3f3edc45	0.74554855
23	0x407e381f	3.9721754
24	0x3fd243d1	1.6426946
25	0x409e519c	4.947462
26	0x3f5f4a26	0.87222517
27	0x3f9060d4	1.127955
28	0x40b34fd0	5.6034927
29	0x400248a5	2.0356839
30	0x40545322	3.317574
31	0x40127fa7	2.2890413

global_feature_extractor.first_block.0.conv.3.weight f4 [32, 1, 3, 3]
0	0xbde24d75	-0.1104993
1	0x3e95224a	0.29127723
2	0xbd698358	-0.057010025
3	0xbe8c0af8	-0.27352118
4	0x3ed8f259	0.42372397
5	0x3f2daa84	0.6783831
6	0xbddbd594	-0.10734096
7	0x3ebfc3f7	0.37454197
8	0xbd786ce6	-0.06065073
9	0x3daa1f3e	0.0830674
10	0x36d8ba6f	6.4590054e-06
11	0x3dabe8c4	0.08394006
12	0x3e824781	0.25445178
13	0xbf48139f	-0.7815494
14	0xbf008d91	-0.50216013
15	0x3dbe801b	0.09301778
16	0xbf49d4c6	-0.7884029
17	0xbf1299ad	-0.5726574
18	0x3e8daa91	0.27669194
19	0x3dad70ed	0.084688045
20	0xbe012879	-0.12613095
21	0x3c0454e9	0.008076885
22	0x3ec39e75	0.3820683
23	0x3f1230d8	0.5710578
24	0x3e99921e	0.2999429
25	0x3e8c62ed	0.27419224
26	0x3eb5a950	0.35480738
27	0xbd4addf8	-0.049528092
28	0xbf004c0e	-0.5011605
29	0xbf152b53	-0.5826923
30	0x3ce8445a	0.028352905
31	0xbf3399ac	-0.7015636
32	0xbeff02fd	-0.49806967
33	0xbe6a259e	-0.22865912
34	0xbf33d8d1	-0.7025271
35	0xbe528aae	-0.20560715
36	0x3e4f59df	0.20249127
37	0xbeb7c3d6	-0.35891598
38	0x3ebfa968	0.37433934
39	0xbcf644b2	-0.030062053
40	0xbe1ea0c3	-0.15491013
41	0x3e1403a5	0.14454515
42	0xbf1d44ac	-0.6143291
43	0x3ee846f7	0.45366642
44	0x3e989319	0.29799727
45	0x3ec9bb71	0.3940082
46	0x3e0149af	0.12625764
47	0x3f20e69a	0.6285187
48	0xbde46b37	-0.11153262
49	0xbe874229	-0.26417664
50	0xbd9e614b	-0.07733401
51	0x3e55bed7	0.20873581
52	0x3e7c9a1e	0.24668166
53	0x3e8c7187	0.27430364
54	0xbd8e76db	-0.06956264
55	0x3ef9558d	0.48698083
56	0x3d83970d	0.06425295
57	0x3ec95d91	0.39329198
58	0x3f2b0b4e	0.66814125
59	0x3e9472cb	0.2899383
60	0x3bd7fee8	0.0065916665
61	0x3f08f51f	0.53499025
62	0xbe4d0b79	-0.20023908
63	0xbe825a3b	-0.25459465
64	0x3e6be426	0.2303625
65	0xbe4e39d8	-0.20139253
66	0x3e812b48	0.25228333
67	0x3f31f48d	0.6951378
68	0x3e9917c8	0.29900956
69	0x3e5e799e	0.21726081
70	0x3f35ed3d	0.7106512
71	0x3ea6186c	0.32440507
72	0x3dbd9ea8	0.09258777
73	0xbe579f64	-0.21056896
74	0x3eac56f1	0.3366008
75	0xbd9304f5	-0.0717868
76	0xbd90e71b	-0.0707533
77	0x3f6a5595	0.9153684
78	0x3dbdb3af	0.092627876
79	0x3ed9915b	0.4249371
80	0x3ec17cf9	0.3779066
81	0xbe4751cd	-0.19464798
82	0xbf0fefdd	-0.5622538
83	0xbe161739	-0.14657296
84	0xbea2dda1	-0.31809714
85	0xbf328ff1	-0.6975089
86	0xbf06b417	-0.52618545
87	0x3de62e7f	0.11239337
88	0xbe428ef0	-0.18999839
89	0xbf65c617	-0.89755386
90	0x3e8b3016	0.27185124
91	0x3ef1b911	0.47211507
92	0x3e96e90d	0.2947468
93	0xbe0de44e	-0.13856623
94	0x3f7b44e5	0.98152
95	0x3f3ac2e8	0.72953653
96	0xbe935a4e	-0.28779835
97	0x3d99efed	0.07516465
98	0x3e071a54	0.13193637
99	0x3f0da877	0.5533518
100	0x3f01e0f3	0.5073387
101	0x3f34a7ce	0.7056855
102	0x3e0987f2	0.13430765
103	0x3e2c06c6	0.16799459
104	0x3db95621	0.09049631
105	0x3e93f3d7	0.28896973
106	0x3e260eeb	0.16216628
107	0x3db1bed6	0.08678977
108	0xbf54653b	-0.82966965
109	0xbee685ac	-0.4502386
110	0xbefbca90	-0.4917798
111	0x3c58ea5a	0.0132394675
112	0xbe73041e	-0.2373204
113	0xbee00a03	-0.43757638
114	0xbf0b6c51	-0.5446215
115	0xbf1276fd	-0.5721281
116	0xbea25c7f	-0.31711194
117	0x3ea33195	0.31873766
118	0xbea57e59	-0.32322958
119	0xbdf211ca	-0.11819799
120	0x3f19cdef	0.60079855
121	0x3ec0f4a6	0.37686652
122	0x3ecd1206	0.40052813
123	0xbec83d1d	-0.39109126
124	0xbee23482	-0.44180685
125	0x3e6078be	0.2192106
126	0xbf0d459a	-0.5518433
127	0xbca76639	-0.020434486
128	0xbe5d6e02	-0.21623996
129	0xbeaf876c	-0.34283006
130	0x3c5d5878	0.013509862
131	0xbf189b42	-0.59611905
132	0xbea96133	-0.3308197
133	0x3d6d1740	0.0578835
134	0xbf24b5f4	-0.6434014
135	0xbf1a6a25	-0.60318214
136	0xbf6f9dd4	-0.936002
137	0xbeddcc96	-0.4332015
138	0xbf06acfa	-0.5260769
139	0xbe762c7a	-0.24040404
140	0xbe3a99c9	-0.18222727
141	0xbc967d6e	-0.018370356
142	0x3e7a5b24	0.2444883
143	0x3cd2537b	0.025674572
144	0xbe593d11	-0.21214701
145	0x3efc3c3c	0.49264705
146	0x3ed8a789	0.4231532
147	0xbd5f5ee0	-0.05453384
148	0x3eacf631	0.3378158
149	0x3e16710f	0.14691566
150	0xbe201e50	-0.15636563
151	0xbda949b0	-0.08266008
152	0x3c1cc8cc	0.009569358
153	0xbe698506	-0.2280465
154	0xbe36df9c	-0.17858738
155	0xbeee1c01	-0.4650574
156	0xbbd1902f	-0.006395362
157	0xbe4db2d6	-0.20087752
158	0xbe52a2aa	-0.20569864
159	0xbd049f2f	-0.03237837
160	0xbd956d4d	-0.07296238
161	0xbe5fc0bd	-0.21850868
162	0x3ec2377c	0.37932956
163	0x3ef42ea5	0.47691837
164	0x3f332d07	0.6999058
165	0x3f01f496	0.50763834
166	0x3f38c563	0.7217619
167	0x3e299cc8	0.16563714
168	0x3e1841ad	0.14868803
169	0x3db79a8b	0.089650236
170	0x3e585dbc	0.21129507
171	0x3d958fa4	0.07302788
172	0x3ea353b3	0.31899795
173	0x3efe2730	0.49639273
174	0x3e3218f4	0.17392331
175	0x3f5a456b	0.85262173
176	0x3e8c789d	0.2743577
177	0xbb136739	-0.0022491945
178	0x3e8f8de8	0.28037953
179	0xbf08a4bd	-0.5337637
180	0xbe8778af	-0.26459262
181	0x3e831174	0.25599253
182	0x3e82b44d	0.25528184
183	0xbd44c0c6	-0.048035406
184	0x3f78ba4d	0.9715927
185	0x3e1e6bc0	0.15470791
186	0xbda3be0b	-0.07995232
187	0x3ef3140e	0.47476238
188	0xbe7c99dc	-0.24668068
189	0x3cca80db	0.024719646
190	0xbe6a37f1	-0.22872902
191	0xbef4364e	-0.4769768
192	0xbeb90d89	-0.3614314
193	0xbf140d08	-0.57832384
194	0xbec43b8a	-0.38326675
195	0xbdcdbab8	-0.100453794
196	0xbec60568	-0.38676
197	0xbf2029e4	-0.6256392
198	0xbf220d32	-0.63301384
199	0x3e74ab6a	0.23893514
200	0x3df6b3da	0.12046023
201	0xbee41ac0	-0.4455166
202	0x3f16e6d9	0.58945996
203	0xbea675c8	-0.32511735
204	0x3dea5537	0.11442035
205	0x3e72a82b	0.23696963
206	0x3ceae2f5	0.028672675
207	0x3d847e14	0.0646936
208	0x3dff2a81	0.12459279
209	0xbe204329	-0.1565062
210	0xbeecc315	-0.46242586
211	0xbf0552c0	-0.5207939
212	0xbf1c7bf6	-0.6112665
213	0xbef36b07	-0.47542593
214	0xbf5536a0	-0.83286476
215	0xbe83c19c	-0.2573365
216	0xbee4087b	-0.4453772
217	0xbdf0c563	-0.117563985
218	0x3eafc4f9	0.34329966
219	0xbee4c28d	-0.4467968
220	0xbc68e9c2	-0.014215888
221	0xbeadf9c6	-0.33979625
222	0xbecc33e4	-0.3988334
223	0xbf09e4a0	-0.5386448
224	0x3de009e6	0.10939388
225	0xbd1cc72e	-0.03827589
226	0x3e23d333	0.15998535
227	0x3e90ebbc	0.2830485
228	0x3e9affdf	0.3027334
229	0x3f52b38e	0.8230523
230	0x3f024769	0.50890213
231	0x3eae026a	0.33986217
232	0x3f3015d7	0.68783325
233	0x3f120eec	0.5705402
234	0xbe013350	-0.1261723
235	0xbe406c3f	-0.18791293
236	0x3e01e876	0.12686333
237	0xbef20e40	-0.47276497
238	0x3f1e00db	0.61720055
239	0x3ef45ed9	0.47728613
240	0x3e8d8a26	0.2764446
241	0xbb84d46f	-0.0040536444
242	0x3e488e27	0.19585477
243	0x3c4abf6c	0.01237474
244	0x3f57aac1	0.84244925
245	0x3e2c2e19	0.1681446
246	0xbe242106	-0.16028222
247	0x3e9d07c7	0.30669996
248	0x3ebfab4e	0.37435383
249	0xbd67f86a	-0.05663339
250	0x3ea8adc8	0.32945085
251	0x3cb4a181	0.022049667
252	0x3e1d0b78	0.15336406
253	0x3d20482d	0.039131332
254	0xbefe098d	-0.49616662
255	0x3d817eba	0.06322999

global_feature_extractor.first_block.0.conv.4.weight f4 [32]
0	0x3f64db5c	0.89397216
1	0x3fd59164	1.6684995
2	0x3f2abaff	0.66691583
3	0x3fa0be19	1.2558013
4	0x3f8dc98d	1.1077133
5	0x3f02f2b9	0.51151615
6	0x3f99f1d7	1.2026929
7	0x3f9de3ed	1.2335182
8	0x3f6cf477	0.92560524
9	0x3fbf1e2a	1.493108
10	0x3fc6e202	1.5537722
11	0x3f69086e	0.9102849
12	0x3fbc0005	1.4687506
13	0x3f380d3a	0.7189518
14	0x3f8fe9b5	1.1243197
15	0x3fab77a3	1.3395885
16	0x3f2a03e4	0.66412187
17	0x3f270369	0.6523958
18	0x3f7e6f7f	0.9938888
19	0x3f8457a3	1.0339245
20	0x3f1f9128	0.62330866
21	0x3f9569bd	1.1672894
22	0x3f505a6a	0.8138796
23	0x3fb063fb	1.3780512
24	0x3f8e5d41	1.1122209
25	0x3fe7d362	1.8111384
26	0x3f508fc6	0.8146938
27	0x3f1bde86	0.6088642
28	0x3f7759fc	0.9662168
29	0x3f65fd50	0.8983965
30	0x3f8dfa6a	1.1092045
31	0x3f9e8acb	1.2386106

global_feature_extractor.first_block.0.conv.4.bias f4 [32]
0	0xbe03e7be	-0.12881371
1	0x3f70d356	0.94072473
2	0xbd1be536	-0.03806039
3	0x3e7e9f14	0.24865371
4	0xbe2129c6	-0.15738592
5	0xbede623e	-0.43434328
6	0x3e83e37b	0.2575949
7	0x3eca7a1b	0.39546284
8	0x3e0831f6	0.13300309
9	0x3f1d2d01	0.61396796
10	0x3f150374	0.58208394
11	0xbea1d26b	-0.3160585
12	0x3eab0263	0.33400258
13	0xbeadf41b	-0.339753
14	0x3f01a4d2	0.5064212
15	0xbd959ed4	-0.07305685
16	0xbf07d97a	-0.5306622
17	0xbeb55062	-0.3541289
18	0x3eb705e3	0.3574668
19	0x3e22a322	0.15882543
20	0x3e71d7a6	0.2361742
21	0x3ca417fd	0.02003097
22	0xbdf47a18	-0.1193735
23	0x3f0cf818	0.5506606
24	0xbdaf251e	-0.085520014
25	0x3e6fa76f	0.23403715
26	0xbf0e9f9a	-0.5571228
27	0xbe876286	-0.26442355
28	0x3f2be43a	0.6714512
29	0xbc3e23d0	-0.011605218
30	0xbd39e153	-0.0453809
31	0xbee83dd8	-0.45359683

global_feature_extractor.first_block.0.conv.4.running_mean f4 [32]
0	0x3f24cc12	0.64373887
1	0xbfeabef1	-1.8339521
2	0x3fa11f51	1.2587682
3	0xbfeb52da	-1.8384659
4	0x3db9d33d	0.09073494
5	0x3f229d85	0.63521606
6	0x3f4aa0ad	0.7915142
7	0x3ebdd774	0.3707844
8	0x3f51fd4c	0.82027125
9	0xc0433579	-3.0501387
10	0x3fceb38a	1.6148541
11	0x3f25d267	0.64774173
12	0xc0359f78	-2.8378582
13	0x3ed4b800	0.4154663
14	0xbfaf2f8b	-1.3686384
15	0xbfb608be	-1.4221418
16	0x3d858bd5	0.065208115
17	0xbd0039ad	-0.031305004
18	0x40170851	2.3598826
19	0x3eade165	0.33961025
20	0x3f6c4b79	0.9230266
21	0xbffb49db	-1.9631914
22	0x3d7e7e90	0.06213242
23	0xbfeb0d0e	-1.8363359
24	0xbf91445f	-1.134899
25	0x402a506b	2.6611583
26	0x3b9f8f6a	0.004869391
27	0x3f982a87	1.1887978
28	0x3fa0e1a1	1.2568856
29	0xbf7e090f	-0.9923257
30	0xbfad0ba9	-1.3519183
31	0xbfc4e18d	-1.5381333

global_feature_extractor.first_block.0.conv.4.running_var f4 [32]
0	0x3f8b00b5	1.0859591
1	0x3f7f0dfc	0.99630713
2	0x3f2a6d24	0.66572785
3	0x4018e17c	2.3887625
4	0x3eb2a634	0.34892428
5	0x3fa3f4b9	1.2809058
6	0x3f8c5762	1.0964167
7	0x3f4c8c23	0.7990133
8	0x3f22d3d2	0.6360446
9	0x4118ddc7	9.554145
10	0x3f9f3901	1.2439271
11	0x3f82cac4	1.0218129
12	0x408ff016	4.4980574
13	0x4007b4b6	2.1204047
14	0x3ffc99cd	1.9734436
15	0x3f629130	0.8850279
16	0x3d23e4d9	0.040013168
17	0x3bbe5881	0.0058088903
18	0x40371489	2.8606284
19	0x3ed6cab5	0.41951528
20	0x3fb96fe3	1.448727
21	0x3f63dd6b	0.8900973
22	0x3f5acc99	0.8546844
23	0x40315520	2.7708206
24	0x3f5c5531	0.8606749
25	0x41064edc	8.394253
26	0x3ad192eb	0.001598922
27	0x40161512	2.345036
28	0x3fd30738	1.6486578
29	0x3f119522	0.56868184
30	0x3f90a6e8	1.1300936
31	0x3ef2f775	0.4745442

global_feature_extractor.first_block.0.conv.6.weight f4 [16, 32, 1, 1]
0	0xbb83e8f8	-0.004025575
1	0x3e85d40f	0.2613835
2	0x3d90ac21	0.07064081
3	0xbe1b0b02	-0.15140918
4	0xbe8ec16a	-0.27881938
5	0xbded1d3c	-0.11577842
6	0xbf31740a	-0.69317687
7	0xbec89e33	-0.39183196
8	0x3efaa480	0.4895363
9	0xbee7339a	-0.45156556
10	0x3eb7279c	0.35772407
11	0xbe094a84	-0.13407332
12	0xbed156c9	-0.40886524
13	0xbe73c5ba	-0.23805895
14	0x3ee70fe1	0.45129302
15	0x3f2dca12	0.6788646
16	0xbf05280b	-0.52014226
17	0x3dcbb0ad	0.099458076
18	0x3edbd57a	0.42936307
19	0xbec11762	-0.37713152
20	0x3e88df10	0.26732683
21	0xbf338925	-0.7013114
22	0xbdac385c	-0.08409187
23	0x3edb2bb1	0.4280677
24	0xbf29a8e2	-0.6627332
25	0xbb3e0ada	-0.0028998167
26	0xbebf04ab	-0.3730825
27	0x3e4e206a	0.20129552
28	0x3ecf2edd	0.4046544
29	0x3df2912e	0.11844097
30	0xbea6e43e	-0.3259601
31	0x3f716a83	0.9430315
32	0x3eb11583	0.34586725
33	0x3f11ed4a	0.570027
34	0x3b82ee72	0.00399571
35	0xbf027622	-0.50961506
36	0x3e222930	0.15836024
37	0xbea3f21f	-0.3202066
38	0xbe644980	-0.22293663
39	0xbe897b45	-0.2685186
40	0xbda0ae8b	-0.078457914
41	0x3e900172	0.28126103
42	0xbec0dfde	-0.37670797
43	0xbe6c4210	-0.23072076
44	0xbe842210	-0.25807238
45	0xbd0235c0	-0.03178954
46	0x3f2040bf	0.62598795
47	0xbd5eb285	-0.05436947
48	0xbea871f6	-0.32899445
49	0x3daf5234	0.08560601
50	0x3e49857f	0.19679831
51	0xbe0c6d2c	-0.13713521
52	0x3e5922dd	0.21204706
53	0xbd958d09	-0.07302291
54	0xbe9f2cce	-0.3108887
55	0xbf0718f1	-0.5277243
56	0xbed10d93	-0.4083067
57	0xbf6a1088	-0.91431475
58	0xbd1b8feb	-0.037979048
59	0xbe28b3bc	-0.16474813
60	0x3e6c1a12	0.2305682
61	0x3d891964	0.06694296
62	0xbd3a3b7f	-0.045466896
63	0x3e43415e	0.19067904
64	0x3f048f0e	0.51780784
65	0xbdff3424	-0.12461117
66	0x3e84872b	0.25884375
67	0x3ded1b06	0.1157742
68	0x3eba1d2f	0.3635039
69	0xbd5b252d	-0.05350225
70	0xbe5b2a09	-0.21402754
71	0xbdbea5a6	-0.09308939
72	0x3e12c41d	0.14332624
73	0x3ee7bc89	0.45261028
74	0xbed8e699	-0.42363432
75	0xbdaeeca8	-0.08541232
76	0xbd4efe70	-0.05053562
77	0x3b642c58	0.003481647
78	0x3f0afa33	0.54288024
79	0xbe02bcc4	-0.12767321
80	0xbec2f042	-0.38073927
81	0x3dbb8191	0.09155572
82	0x3e71aca9	0.23601021
83	0xbdc4af7f	-0.09603786
84	0x3da1c7e7	0.078994565
85	0xbd52b631	-0.051443283
86	0xbc98b7ee	-0.018642392
87	0xbdf43932	-0.11924972
88	0xbda09718	-0.07841319
89	0xbf263af9	-0.64933735
90	0xbd848e5c	-0.064724654
91	0x3e491cb5	0.19639857
92	0xbd2e9fe8	-0.042632967
93	0xbd6e7f29	-0.058226738
94	0xbe79f734	-0.24410707
95	0xbb48463e	-0.0030559446
96	0xbe30c345	-0.1726199
97	0x3f1278c7	0.5721554
98	0xbed4106e	-0.41418785
99	0x3a09434a	0.0005236162
100	0x3eef45de	0.46732992
101	0x3e9f7766	0.3114578
102	0xbeb3eebe	-0.35143083
103	0xbe17ade7	-0.14812432
104	0x3ddb3b18	0.107046306
105	0x3e4f16de	0.20223567
106	0xbf3f88d9	-0.7481819
107	0xbdb2e1e4	-0.087344915
108	0x3b8f79ea	0.004378547
109	0xbccdc1aa	-0.02511676
110	0x3ddae389	0.1068793
111	0x3c6a8caa	0.0143157635
112	0xbda46421	-0.080269106
113	0x3c8d3e1b	0.017241528
114	0xbd6f89f0	-0.058481157
115	0xbf08a6b6	-0.5337938
116	0x3d0a7731	0.033805076
117	0x3e530c71	0.20610215
118	0x3bb3a1a1	0.005481914
119	0xbf04b646	-0.5184063
120	0x3d47f0bc	0.048813567
121	0xbf17e2fe	-0.5933074
122	0x3d5fcfb4	0.05464144
123	0xbe48a09d	-0.19592519
124	0xbedcc6e9	-0.43120506
125	0x3ccc1cdd	0.024916107
126	0x3e546f6d	0.2074563
127	0x3e79d642	0.24398139
128	0x3ef8a050	0.4855981
129	0x3e65c619	0.2243885
130	0xbd6c9a80	-0.05776453
131	0xbe35d414	-0.17756683
132	0xbe5275fb	-0.20552818
133	0xbe8025e8	-0.2502892
134	0xbd973b83	-0.07384398
135	0xbec87190	-0.3914914
136	0xbe50a01c	-0.20373577
137	0xbdd5c796	-0.104384586
138	0x3dffdf9d	0.12493823
139	0xbe72cbb8	-0.23710525
140	0xbf20e4f1	-0.62849337
141	0xbdceacae	-0.1009153
142	0x3f1f49d5	0.62222034
143	0x3d31c72d	0.04340284
144	0xbe8acee4	-0.2711097
145	0x3dc65bd1	0.09685481
146	0x3ee21250	0.44154596
147	0xbe22447f	-0.15846442
148	0x3e4fadfd	0.20281215
149	0xbe3a13cf	-0.18171619
150	0xbe4bca5c	-0.19901413
151	0xbd9110e3	-0.07083299
152	0xbeb8db41	-0.36104777
153	0xbf239d00	-0.6391144
154	0x3d33a8da	0.0438622
155	0xbe2815fe	-0.1641464
156	0x3dc404a4	0.09571198
157	0x3ec52c7b	0.38510498
158	0xbf436a95	-0.76334506
159	0x3d614759	0.054999683
160	0xbe7a28e9	-0.24429668
161	0xbea5d383	-0.32387933
162	0x3dbb8012	0.09155287
163	0x3e9f0470	0.31058073
164	0xbd4fa5ac	-0.050695106
165	0x3ebc9ce0	0.36838436
166	0x3e96756d	0.29386464
167	0x3ea9fa4c	0.33198774
168	0x3af586ec	0.0018732226
169	0xbec8e0c1	-0.39233974
170	0x3ec18119	0.37793806
171	0x3ddd416b	0.10803493
172	0x3dcaad6d	0.098963596
173	0x3ee04269	0.43800667
174	0xbf1f08ae	-0.6212262
175	0xbec418a7	-0.38300058
176	0xbe2b66cb	-0.16738431
177	0xbecebb07	-0.40377066
178	0xbe0088fa	-0.12552252
179	0x3ef22912	0.4729696
180	0xbe02c1ec	-0.12769288
181	0x3e31ab7c	0.17350572
182	0x3d783c68	0.060604483
183	0x3def10d9	0.11673135
184	0x3ead27a6	0.33819312
185	0x3f234235	0.637729
186	0x3e932c92	0.28744942
187	0x3e11c688	0.1423589
188	0xbb75e152	-0.0037518335
189	0xbd786802	-0.060646065
190	0x3e7143bf	0.23561
191	0xbead897e	-0.3389396
192	0xbdd3fcc1	-0.10350943
193	0xbf06e0ef	-0.5268697
194	0xbdacc4c4	-0.084359676
195	0x3e05f3d2	0.13081291
196	0xbe145e48	-0.1448909
197	0x3eb6916d	0.35657826
198	0x3ec9f211	0.39442495
199	0x3ebdd4c6	0.37076396
200	0x3cdc380a	0.02688219
201	0xbf4232ec	-0.7585895
202	0x3edf9a67	0.43672487
203	0x3e4d0ca7	0.20024358
204	0x3ecb4619	0.39701918
205	0x3e21c4cc	0.15797728
206	0xbe84eb6b	-0.2596086
207	0xbcd17fec	-0.025573693
208	0x3e988628	0.29789853
209	0x3d311d9c	0.04324113
210	0xbe55315d	-0.20819612
211	0x3eccc2d0	0.3999238
212	0xbdbadd91	-0.09124292
213	0x3c9dc12c	0.01925715
214	0x3e040032	0.128907
215	0x3f0deff8	0.5544429
216	0x3edda5c0	0.4329052
217	0x3f226e81	0.63449866
218	0x3e8e662b	0.27812323
219	0xbd7f5873	-0.06234021
220	0xbe44fba6	-0.19236621
221	0xbd872df5	-0.066005625
222	0x3e69e39d	0.22840734
223	0xbdb3ff62	-0.08788945
224	0x3c0ac5c0	0.008469999
225	0x3da8cd10	0.082422376
226	0xbeb701ef	-0.35743663
227	0xbd3a3716	-0.04546269
228	0x3dbdd68c	0.09269437
229	0xbdc8f8c9	-0.09813077
230	0xbec68e25	-0.38780323
231	0xbec8d018	-0.39221263
232	0xbddbfb8f	-0.1074134
233	0x3edcd975	0.43134657
234	0xbf6e3b47	-0.930592
235	0x3d888e5b	0.06667777
236	0x3cfb5d3c	0.030684106
237	0xbe28a1ae	-0.16467926
238	0x3eb991fe	0.36244196
239	0xbdd1f70d	-0.10252199
240	0x3bddfb27	0.0067743245
241	0x3e1f4b3f	0.15556048
242	0x3da929e0	0.0825994
243	0xbeca5df2	-0.395248
244	0xbddc1e6a	-0.107479885
245	0xbd417dbc	-0.04723905
246	0xbeb205d8	-0.34770083
247	0xbebff1d2	-0.37489182
248	0xbd31a7a9	-0.043372784
249	0xbf32a317	-0.69780105
250	0xbe0b51f9	-0.13605489
251	0x3cb5f7e7	0.022212936
252	0x3d9c14a1	0.07621122
253	0xbdf560a1	-0.11981321
254	0xbdf182f8	-0.117925584
255	0xbe026705	-0.12734611

global_feature_extractor.first_block.0.conv.7.weight f4 [16]
0	0x3fe5815d	1.7930104
1	0x3fe46384	1.784287
2	0x3f3685d7	0.71297973
3	0x3f893af5	1.0721117
4	0x3fc49e75	1.5360857
5	0x3fa9be19	1.3261138
6	0x3fdabbca	1.7088559
7	0x3fbd9ba9	1.4813129
8	0x3feab086	1.8335121
9	0x3fb18a2a	1.3870289
10	0x3fac1025	1.3442427
11	0x40010265	2.0157712
12	0x4009d28e	2.1534762
13	0x3fcf2a6b	1.618482
14	0x3fb55c50	1.4168797
15	0x3f840b57	1.0315961

global_feature_extractor.first_block.0.conv.7.bias f4 [16]
0	0x39e006fa	0.00042729807
1	0x3bb70253	0.005584994
2	0x3bca92dd	0.0061820582
3	0x3c574b7a	0.013140554
4	0x3bcd13f3	0.0062584816
5	0x3b9e6d1b	0.0048347837
6	0xbc9b4a1e	-0.01895624
7	0x3c53d093	0.012928146
8	0x3c7e7a5a	0.015532101
9	0x3b18cfea	0.0023317286
10	0xbade605f	-0.0016965977
11	0x3ae19cf9	0.0017212919
12	0xb9b775db	-0.0003499229
13	0xbc0d229e	-0.00861421
14	0xbb33bab3	-0.0027424514
15	0xbca9e7c5	-0.0207404
