model_checkpoints/experiments/overall/fastscnn_512a0.25t6r3pp0_noinit.onnx (onnx, 325011 bytes, 81 tensors)

feature_fusion.conv_high_res.weight f4 [32, 16, 1, 1]
0.534241 -0.128121 0.78110737 -0.55812913 -0.17021565 -0.5218894 0.77415824 -1.3374459
-0.19261979 0.75008005 0.4329757 0.7230533 0.35929227 0.6386055 0.46746632 -0.70676166
-0.8743201 0.91097474 0.48073506 -0.6775559 0.335829 0.28397995 -0.3928768 1.0504106
0.39005706 0.47992262 -0.6481296 0.49636617 -0.19050953 -1.0512047 -0.4596495 -0.43673792
-0.34962732 -0.49292016 -0.8519553 0.21728112 0.7134176 -1.0688041 0.06891269 -0.15052885
-0.0063436846 -0.26058418 0.5395422 -0.10633381 -0.7581372 0.18957949 -0.3539634 0.9798053
-0.49908096 -0.7937539 -0.44604045 0.4026118 0.61329985 1.1843143 0.50285065 0.52602863
-0.1222278 -0.34451365 0.15233327 0.08410837 0.39381835 0.27341825 0.3279399 0.92159075
0.41336918 -0.1135706 0.43235174 -0.19910042 -0.4030772 -0.20273146 1.0791774 0.5723492
-0.5191082 -0.24517953 0.7008776 0.1294429 -0.62309605 0.6976073 1.5061718 -0.0763091
0.11423602 -0.2798121 -0.0050519807 -0.16537401 -0.079903096 0.0078081163 0.038614318 -0.26323172
-0.25331765 -0.23571521 -0.28231263 -0.17409533 -0.24015965 -0.09275416 -0.13899122 -0.22520313
-0.10968949 -0.14157055 0.013133219 -0.48909536 0.7598244 0.735679 -0.07703456 0.2576381
-0.09571732 0.1876628 -0.11279585 0.20188862 -0.024855914 0.8991014 0.00096881774 0.326154
0.88911736 0.44249943 0.79724425 0.119580485 0.19870588 -0.08140731 -0.119933255 -1.9215441
1.1861461 0.051159117 -0.71504116 -0.036754537 0.2714712 -1.5991683 -0.6841594 -0.2992362
-0.9719632 0.87634075 -0.43992925 0.14595422 -1.3768219 -0.6622454 0.4604408 -1.407047
-0.6142041 -0.229138 -0.09025666 -0.04965646 -1.4959066 0.38857672 0.033053685 -0.011403232
0.6774575 0.20612185 0.42771086 -0.66834486 0.19710146 1.1784009 -0.3509464 0.55438507
0.11086684 0.0035232913 -1.0934045 0.0075979345 0.664525 -0.07882036 -0.37777862 -0.8756731
0.30327368 1.0226718 0.96363276 0.34292403 -0.09334838 0.38774562 -0.08327042 -0.61339825
1.1089547 0.17017382 -1.29174 0.046298523 0.43509686 0.27467576 -0.36328268 -1.2101375
-0.6506834 -1.0909771 -0.3801648 -0.45299068 0.28868997 0.7067234 -0.18106532 0.084248446
-0.13572627 -0.15474412 -0.30168116 0.14625184 -0.081496775 0.36417967 -0.06589358 0.4280167
1.1656272 0.5911864 0.2191699 0.62789077 0.9059927 0.4985416 0.03235437 -0.099865705
0.38473797 0.11841767 -0.2805894 0.18003839 -0.36929932 0.38951856 -0.76885694 -1.3055319
-0.05509816 -0.7539409 -0.29291886 0.4237317 -0.12531754 -0.43448767 0.13683942 -0.30988845
0.28681555 0.43741083 0.38534433 0.23802768 0.019705435 0.4193898 -0.2862661 0.5859835
-0.6309195 -1.7360101 0.4547743 -0.2503793 0.07973801 -0.12964976 -0.73925614 -0.3778966
-0.074862674 0.27222988 -0.094896525 0.04412097 -0.33080307 -1.0759187 -0.66192484 1.0893395
-0.46316025 -0.8325465 0.14388883 0.92699075 0.2374408 0.068406105 0.8417463 -0.27362603
0.13569812 0.08220248 1.2471656 0.26319093 0.6142115 1.2677795 -0.38008505 0.1581632
00000000: 05c4 083f 2732 03be a7f6 473f 8de1 0ebf
00000010: 034d 2ebe 8b9a 05bf 3c2f 463f 6d31 abbf
00000020: 1f3e 45be 3f05 403f feae dd3e 051a 393f
00000030: 28f5 b73e a67b 233f bf57 ef3e 55ee 34bf
00000040: 71d3 5fbf a435 693f e822 f63e 4e74 2dbf
00000050: c7f1 ab3e d265 913e 2627 c9be db73 863f
00000060: 8fb5 c73e 6bb8 f53e d2eb 25bf b523 fe3e
00000070: ee14 43be e08d 86bf 2e57 ebbe 1d9c dfbe
00000080: 5a02 b3be 0860 fcbe be19 5abf f17e 5e3e
00000090: 89a2 363f 93ce 88bf 1922 8d3d 3c24 1abe
000000a0: afde cfbb 4a6b 85be 701f 0a3f 8ac5 d9bd
000000b0: 4815 42bf 2021 423e b13a b5be 85d4 7a3f
000000c0: 8a87 ffbe 7533 4bbf 6a5f e4be 2223 ce3e
000000d0: 3801 1d3f 9c97 973f d2ba 003f d0a9 063f
000000e0: 9252 fabd 1864 b0be 41fd 1b3e 0241 ac3d
000000f0: 8fa2 c93e 7afd 8b3e bde7 a73e 5fed 6b3f
00000100: 20a5 d33e b497 e8bd 355d dd3e fbe0 4bbe
00000110: 2260 cebe d698 4fbe 7c22 8a3f 7a85 123f
00000120: 46e4 04bf 5810 7bbe b76c 333f ae8c 043e
00000130: 3983 1fbf 6496 323f 3dca c03f f247 9cbd
00000140: 93f4 e93d 8843 8fbe 168b a5bb ce57 29be
00000150: 3ca4 a3bd 3adb ff3b 0c2a 1e3d 4fc6 86be
00000160: dab2 81be 545f 71be 488b 90be 0c46 32be
00000170: 69ec 75be e5f5 bdbd b753 0ebe a69b 66be
00000180: e2a4 e0bd dff7 10be b72c 573c b56a fabe
00000190: da83 423f 7555 3c3f 4cc4 9dbd 24e9 833e
000001a0: 7107 c4bd ad2a 403e 8301 e7bd e4bb 4e3e
000001b0: a19e cbbc 822b 663f 42f8 7d3a a8fd a63e
000001c0: 329d 633f 498f e23e 3318 4c3f 9de6 f43d
000001d0: 8e79 4b3e e0b8 a6bd 919f f5bd 28f5 f5bf
000001e0: a3d3 973f 398c 513d f00c 37bf ed8b 16bd
000001f0: 46fe 8a3e 8cb1 ccbf 1225 2fbf 7d35 99be
00000200: 95d2 78bf de57 603f 683e e1be 0675 153e
00000210: b33b b0bf ea88 29bf e6be eb3e 1e1a b4bf
00000220: 7b3c 1dbf 27a3 6abe 7cd8 b8bd 9264 4bbd
00000230: de79 bfbf 87f3 c63e 4d63 073d 9fd4 3abc
00000240: db6d 2d3f 9b11 533e ebfc da3e a618 2bbf
00000250: f7d4 493e d7d5 963f 3faf b3be 2eec 0d3f
00000260: 270e e33d 05e7 663b aef4 8bbf 18f8 f83b
00000270: 4f1e 2a3f 926c a1bd 336c c1be 1d2c 60bf
00000280: b046 9b3e e9e6 823f a3b0 763f bd93 af3e
00000290: 6f2d bfbd 9886 c63e af89 aabd ab07 1dbf
000002a0: 3af2 8d3f 0c42 2e3e bc57 a5bf 85a3 3d3d
000002b0: 04c5 de3e 4da2 8c3e 3000 babe c9e5 9abf
000002c0: 3093 26bf 23a5 8bbf f6a4 c2be 65ee e7be
000002d0: 2ccf 933e d3eb 343f 3069 39be 738a ac3d
000002e0: d4fb 0abe 3e75 1ebe f475 9abe 0bc3 153e
000002f0: c8e7 a6bd c275 ba3e 37f3 86bd 0125 db3e
00000300: 4633 953f fe57 173f 136e 603e 73bd 203f
00000310: 23ef 673f d840 ff3e 0486 043d 6486 ccbd
00000320: 60fc c43e f784 f23d 6aa9 8fbe fc5b 383e
00000330: cd14 bdbe fa6e c73e cfd3 44bf ab1b a7bf
00000340: 9cae 61bd 4502 41bf 76f9 95be 5df3 d83e
00000350: 3e53 00be 2b75 debe a21f 0c3e b3a9 9ebe
00000360: 7dd9 923e 50f4 df3e da4b c53e 87bd 733e
00000370: 4b6d a13c 43ba d63e 7891 92be 0403 163f
00000380: f183 21bf 9435 debf 2dd8 e83e b731 80be
00000390: af4d a33d e8c2 04be e43f 3dbf aa7b c1be
000003a0: 9a51 99bd b761 8b3e 1c59 c2bd 31b8 343d
000003b0: 055f a9be b4b7 89bf e873 29bf 7a6f 8b3f
000003c0: 5723 edbe c421 55bf 9857 133e 444f 6d3f
000003d0: ae23 733e 8018 8c3d af7c 573f b618 8cbe
000003e0: 73f4 0a3e c659 a83d 1fa3 9f3f f6c0 863e
000003f0: f73c 1d3f 9946 a23f 829a c2be 89f5 213e

feature_fusion.conv_high_res.bias f4 [32]
-0.25631112 -0.6188916 -0.52505773 -0.13254987 -0.25292552 -0.21204439 0.8973656 0.12659068
1.2712262 0.7417017 0.60859275 0.7642356 0.5630173 -0.36563194 -0.31761396 -0.38974535
-0.37687394 -0.75661427 0.9320864 -0.55327636 0.02151951 -0.29884458 -0.97557056 -0.2414791
0.70051146 -0.2603403 0.11308274 0.8955867 0.3707124 -0.1503545 -0.19640203 -0.2295748
00000000: 363b 83be ae6f 1ebf 2f6a 06bf 27bb 07be
00000010: 747f 81be 2a22 59be c1b9 653f fda0 013e
00000020: 8ab7 a23f 2ae0 3d3f bccc 1b3f f2a4 433f
00000030: e721 103f 1c34 bbbe 4c9e a2be b48c c7be
00000040: 9ff5 c0be 79b1 41bf 379d 6e3f 85a3 0dbf
00000050: af49 b03c 2802 99be febe 79bf 4c46 77be
00000060: b854 333f 534b 85be ec97 e73d 2c45 653f
00000070: 04ce bd3e 88f6 19be 9d1d 49be a815 6bbe

feature_fusion.conv_low_res.weight f4 [32, 32, 1, 1]
0.26985294 0.3390664 -0.3982983 -0.11336909 -0.24379745 -0.30774567 -0.40813223 -0.9032665
0.103503175 -0.08401143 -0.32498524 0.72586983 0.009340944 -0.04909823 -0.8833632 0.12413843
0.7015318 0.6584509 0.014582098 -0.3190033 0.18369216 -0.524958 -0.024423564 0.17751157
-0.41138205 -0.109335534 0.31339848 0.29961795 -0.16861433 -0.468214 -0.30478764 -0.4976273
0.319007 -0.58115965 0.37562138 0.5633199 -0.84154576 -0.034245346 0.099300735 0.18747075
-0.29378924 -0.65054464 0.12653024 0.46037245 -0.90497094 0.036717683 -0.559431 -0.25954667
0.33753037 0.32823768 0.3357691 -0.6592075 0.4532461 0.13170175 1.1110969 -0.008340547
1.286095 0.10021076 -0.1282115 0.21500054 0.337374 -0.5390637 -0.3880873 -0.062176365
-0.84657997 0.34185463 -0.72010356 0.17262702 0.66305065 0.6242008 0.11116876 0.2267228
0.40748882 -0.073901005 0.49519026 -0.5693847 0.48050505 -1.2187309 0.13973823 0.6460771
-0.26619026 -0.042966165 0.57193357 0.2588237 -0.40794113 -0.006004955 0.41282305 -0.0021911352
-0.298574 0.39442363 0.48050618 -0.7325786 -0.76964223 0.49512014 0.1598915 0.5954521
-0.39856368 -0.07508899 0.9354996 -0.48413998 -0.23563464 0.1266084 -0.6380966 0.6239053
0.6338703 -0.237036 1.2083546 -0.79415786 -0.1178436 0.11493896 0.23360611 0.16842118
-0.3939372 0.016740838 -0.4005224 0.13028291 -0.39692044 -0.21142866 0.101291895 0.37033764
-0.6038453 -0.5837262 -1.256727 -0.27463508 -0.14579067 0.3871675 -0.19311243 -0.11494474
-0.13773702 -0.14819114 -0.4403369 -0.48579422 0.75580055 0.7492608 -0.78624207 0.08854288
-1.6821313 -0.88155824 0.36309326 -0.21491288 0.2135933 -0.88098186 -0.4843746 0.76512355
0.7689199 0.3855883 0.4129201 -0.44366443 -0.8813197 0.47162622 0.15246888 0.49012172
-0.044400193 0.50526613 0.7054477 0.079428025 0.027864069 -0.055800155 -0.15400138 0.36193383
0.041807827 -0.04758381 -0.1522624 -0.06932958 -0.20606486 -0.0020567009 0.121974915 -0.14421965
-0.13963723 0.008013109 0.06524219 -0.2506662 -0.09289712 -0.25954184 0.12169936 -0.19014354
-0.021444693 0.010984332 -0.21694548 0.027887313 0.06207359 -0.22151566 -0.11621293 -0.07243413
0.057734065 -0.18009667 0.042767156 -0.16548496 -0.08572007 0.1128904 -0.25309557 -0.275441
-0.2642593 0.46054298 0.04294016 -1.19073 0.35574892 -0.17632125 -0.35284197 -0.24494585
-0.4219943 0.3423125 -0.69850284 -0.86577123 0.5619188 -0.45412815 0.38216338 0.19125193
-0.117889404 -0.4293256 0.3598076 0.8866342 -0.31484255 -0.86962324 -0.7191842 -0.8669034
-0.5438991 0.32699314 0.31521827 -0.23716235 0.7487037 -0.37215504 0.95284873 0.55659
-0.014906391 -0.5855763 0.07114035 -0.28046894 -1.75166 0.012758004 -0.5012455 0.2566373
-0.16120936 -1.2833238 0.16640931 -0.09990104 -0.08550275 0.25573218 -0.60590285 -0.79976606
-0.25010598 0.13605016 -0.07510253 -0.48714766 0.12857851 -0.154116 0.5455894 0.7724935
-0.20251742 0.3087647 -0.010755918 0.89333963 -0.7670336 -1.2402692 0.6396957 -0.77308375
00000000: 2a2a 8a3e 1c9a ad3e c1ed cbbe 0e2e e8bd
00000010: 0aa6 79be d790 9dbe b5f6 d0be 793c 67bf
00000020: 79f9 d33d 2f0e acbd 7764 a6be 9bd2 393f
00000030: c20a 193c 3a1b 49bd 1724 62bf 4a3c fe3d
00000040: 9797 333f 3d90 283f c1e9 6e3c 6754 a3be
00000050: cc19 3c3e a663 06bf ed13 c8bc 98c5 353e
00000060: aba0 d2be 4feb dfbd c475 a03e 8667 993e
00000070: 3ca9 2cbe bfb9 efbe 200d 9cbe 01c9 febe
00000080: e354 a33e e1c6 14bf 7251 c03e bc35 103f
00000090: 8b6f 57bf d944 0cbd 2f5e cb3d 55f8 3f3e
000000a0: 8b6b 96be 188a 26bf 2591 013e f0b5 eb3e
000000b0: 2dac 67bf 4865 163d df36 0fbf 4de3 84be
000000c0: c8d0 ac3e c50e a83e ede9 ab3e d3c1 28bf
000000d0: df0f e83e d3dc 063e 6c38 8e3f caa6 08bc
000000e0: c39e a43f 4d3b cd3d e049 03be 1a29 5c3e
000000f0: 49bc ac3e 1400 0abf 61b3 c6be a5ac 7ebd
00000100: 77b9 58bf 9207 af3e b558 38bf 23c5 303e
00000110: b0bd 293f a0cb 1f3f 72ac e33d 062a 683e
00000120: 60a2 d03e 6959 97bd 9489 fd3e 32c3 11bf
00000130: c204 f63e 60ff 9bbf 8a17 0f3e 4f65 253f
00000140: 174a 88be 4afd 2fbd 3d6a 123f 8a84 843e
00000150: a9dd d0be 37c5 c4bb 8b5d d33e 2699 0fbb
00000160: b1de 98be e5f1 c93e e804 f63e 458a 3bbf
00000170: 4607 45bf 6380 fd3e 99ba 233e 8c6f 183f
00000180: 8a10 ccbe 42c8 99bd e77c 6f3f 32e1 f7be
00000190: 354a 71be a2a5 013e 4c5a 23bf 42b8 1f3f
000001a0: 5345 223f 91b9 72be 5dab 9a3f ee4d 4bbf
000001b0: fc57 f1bd 1e65 eb3d 7136 6f3e 9a76 2c3e
000001c0: 23b2 c9be 1524 893c 4611 cdbe e268 053e
000001d0: 2839 cbbe c180 58be 2072 cf3d e59c bd3e
000001e0: 9b95 1abf 156f 15bf 6edc a0bf f89c 8cbe
000001f0: 264a 15be d23a c63e 44bf 45be 2668 ebbd
00000200: ef0a 0dbe 6bbf 17be d773 e1be 05ba f8be
00000210: 257c 413f 8ecf 3f3f 2947 49bf f855 b53d
00000220: 1450 d7bf cdad 61bf 5ce7 b93e 1f12 5cbe
00000230: 34b8 5a3e 0788 61bf f3ff f7be 23df 433f
00000240: efd7 443f d46b c53e 436a d33e fc27 e3be
00000250: 2b9e 61bf fe78 f13e cd20 1c3e 3cf1 fa3e
00000260: fadc 35bd 1f59 013f 3898 343f 29ab a23d
00000270: 3043 e43c b48e 64bd 8ab2 1dbe 644f b93e
00000280: af3e 2b3d 3ee7 42bd adea 1bbe abfc 8dbd
00000290: ab02 53be b7c9 06bb fccd f93d 51ae 13be
000002a0: 10fd 0ebe 6a49 033c b39d 853d 5257 80be
000002b0: d840 bebd abe2 84be 843d f93d fdb4 42be
000002c0: c8ac afbc a1f7 333c f526 5ebe ef73 e43c
000002d0: e040 7e3d 00d5 62be 0b01 eebd 5858 94bd
000002e0: 8e7a 6c3d 436b 38be 9d2c 2f3d e474 29be
000002f0: 018e afbd 1533 e73d be95 81be 9a06 8dbe
00000300: ff4c 87be 4acc eb3e 05e2 2f3d d769 98bf
00000310: b924 b63e 8f8d 34be b4a7 b4be 16d3 7abe
00000320: a30f d8be 9643 af3e 15d1 32bf 2fa3 5dbf
00000330: e9d9 0f3f 7c83 e8be ebaa c33e 8cd7 433e
00000340: 0070 f1bd 91d0 dbbe b438 b83e 75fa 623f
00000350: 0b33 a1be a19f 5ebf 751c 38bf 62ed 5dbf
00000360: f93c 0bbf a56b a73e 4a64 a13e b0da 72be
00000370: 0cab 3f3f 1b8b bebe e5ed 733f af7c 0e3f
00000380: ef39 74bc 54e8 15bf 08b2 913d a099 8fbe
00000390: 6536 e0bf f206 513c a051 00bf f765 833e
000003a0: 1114 25be f443 a4bf 3467 2a3e eb98 ccbd
000003b0: 111c afbd 54ef 823e 731c 1bbf 78bd 4cbf
000003c0: e40d 80be bc50 0b3e 5bcf 99bd 6b6b f9be
000003d0: 16aa 033e 96d0 1dbe bfab 0b3f 22c2 453f
000003e0: ba60 4fbe 6816 9e3e 9739 30bc e8b1 643f
000003f0: 505c 44bf 24c1 9ebf 19c3 233f d1e8 45bf

feature_fusion.conv_low_res.bias f4 [32]
-0.2612557 -0.44754884 -0.7725372 -0.12657537 -0.117423676 -0.2517263 1.0611277 0.11141898
1.391922 0.62834686 0.40047064 0.9705399 0.39908606 -0.26606685 -0.28024364 -0.3854597
-0.31552365 -0.53632087 0.79039526 -0.30727893 0.0034909744 -0.35594305 -0.9463577 -0.30280232
0.5828743 -0.10223745 0.10467931 0.628581 0.33754393 -0.011436079 0.012514059 0.0038804256
00000000: 4fc3 85be 1f25 e5be ffc4 45bf f99c 01be
00000010: d37b f0bd 45e2 80be 08d3 873f a22f e43d
00000020: 802a b23f 57db 203f 7d0a cd3e 4e75 783f
00000030: 0255 cc3e ea39 88be 187c 8fbe f95a c5be
00000040: 518c a1be 534c 09bf 5857 4a3f aa53 9dbe
00000050: d5c8 643b 2b3e b6be 8044 72bf e808 9bbe
00000060: 4037 153f de61 d1bd 1b62 d63d afea 203f
00000070: 8fd2 ac3e 645e 3bbc c507 4d3c bd4e 7e3b

classifier.conv.weight f4 [1, 32, 1, 1]
0.43352348 0.3353897 -0.511627 -0.5150368 0.34053484 0.37753192 -0.48690102 -0.53321815
0.39452788 -0.8585975 0.46226382 -0.59941596 0.7521547 -0.45887667 0.84627473 -0.8885154
0.45589066 -0.5638596 0.3495567 -0.8938466 -0.72217953 -0.4825989 0.3556764 -0.65925807
-0.46392563 0.58107394 -0.85469335 -0.5259664 -0.33376876 -0.47333226 -0.3730509 0.43304622
00000000: caf6 dd3e 33b8 ab3e fdf9 02bf 74d9 03bf
00000010: 955a ae3e dd4b c13e 174b f9be fc80 08bf
00000020: 8fff c93e 0ccd 5bbf d8ad ec3e 5373 19bf
00000030: 368d 403f e2f1 eabe 76a5 583f bf75 63bf
00000040: 806a e93e 1a59 10bf 19f9 b23e 21d3 64bf
00000050: c2e0 38bf 3417 f7be 381b b63e 23c5 28bf
00000060: a987 edbe 43c1 143f 2fcd 5abf bca5 06bf
00000070: bde3 aabe 9b58 f2be 8700 bfbe 3cb8 dd3e

onnx::Conv_356 f4 [8, 3, 3, 3]
0.0012182767 0.006088968 0.04851598 0.020966496 -0.015883874 0.039455395 0.02148753 -0.0130712325
0.011528381 0.15237735 0.090186544 0.08642255 0.13864294 0.022500927 0.040615838 0.137405
-0.009236615 -0.043421227 -0.026700124 -0.021357479 0.04301042 -0.0052977875 -0.051209927 -0.033522606
0.025506223 -0.03811948 -0.0030568847 -0.0016981481 0.031045847 0.03754164 0.015362837 -0.0060142577
-0.017392354 0.021540994 0.07451013 -0.008837231 0.011654926 0.21382134 0.3514467 -0.0148672
0.20844623 0.3059171 -0.026750486 0.3103023 0.43014556 -0.13433307 -0.014374841 -0.029481085
-0.22464357 -0.07227629 -0.050672192 -0.16183627 0.042678677 0.096682265 -0.46653354 -0.33124557
-0.44163498 -0.13995029 0.07180938 -0.07000082 0.18887909 0.22726955 -0.12960716 -0.122721456
-0.03523472 -0.0012976016 -0.30097082 0.008672802 -0.366118 -0.38108128 -0.36736313 -0.7658151
0.024730986 0.092733756 -0.1343296 0.2757867 0.304255 -0.03994374 0.25225335 0.3351546
0.014741582 0.17786139 0.26506037 -0.18906872 0.18346782 0.27686578 -0.24194437 0.29353797
0.30979714 -0.22867385 0.22540794 0.15345468 -0.3585891 0.54611534 0.7192852 -0.023998968
0.42991984 0.43373066 -0.14502291 -0.076605916 -0.017909765 -0.29935375 -0.032146607 0.20110185
-0.34143877 0.0013119166 0.14518796 -0.3036206 0.26466322 0.16133834 -0.39994368 -0.055406846
-0.027131038 -0.16982971 -0.22673726 -0.34641996 0.088477656 0.17596807 0.24027434 -0.12214284
0.122852325 0.087855995 -0.07421588 -0.039311234 -0.048931606 0.111284636 0.048194453 0.21428528
-0.1593173 0.013169769 0.07275045 -0.08963803 0.026104068 -0.10007599 0.18219294 -0.076522894
0.17674157 0.15280643 -0.14825512 0.081453815 0.37065464 -0.14344299 -0.035934422 -0.15695365
-0.1079088 -0.10848782 0.32512015 -0.36341706 -0.17675386 -0.09979936 -0.58174074 -0.6230284
-0.46332514 -0.16695401 0.12848271 0.20278455 -0.005532579 -0.0023260526 0.32267714 -0.44707033
-0.21911466 -0.101460755 -0.009743696 0.06523353 -0.016920786 -0.017848402 0.009762343 -0.09351819
-0.051051635 -0.03687159 -0.08073918 -0.2426716 -0.24037765 -0.18452533 -0.22585034 -0.14948034
-0.27922857 -0.11628569 -0.063312 -0.2620037 0.053827967 0.0715468 0.046920784 0.03788889
0.13665502 0.09115834 0.010787526 0.11114693 0.04745037 0.21413223 -0.54528487 -0.3933963
0.056044728 -0.44917879 -0.52164185 0.14645797 -0.53856987 -0.6444515 0.5656892 0.15201844
0.16117196 0.55890733 0.3337384 0.20636706 0.7254395 0.08163182 0.10163952 0.13673636
-0.17708735 0.06424598 0.24598086 -0.12683941 -0.10708144 0.4210101 -0.4076614 -0.27889284
00000000: 95ae 9f3a f785 c73b b1b8 463d eec1 ab3c
00000010: e61e 82bc fb9b 213d 9e06 b03c b928 56bc
00000020: 89e1 3c3c cf08 1c3e b9b3 b83d 4efe b03d
00000030: 6af8 0d3e dd53 b83c cb5c 263d e5b3 0c3e
00000040: 2c55 17bc 75da 31bd 38ba dabc e1f5 aebc
00000050: b22b 303d 1099 adbb 80c1 51bd 004f 09bd
00000060: 6df2 d03c 2c23 1cbd 0456 48bb 6594 deba
00000070: dc53 fe3c 43c5 193d 69b4 7b3c 4013 c5bb
00000080: 697a 8ebc bd76 b03c c498 983d 09ca 10bc
00000090: 4ef4 3e3c fbf3 5a3e d2f0 b33e 8e95 73bc
000000a0: ee72 553e 2ba1 9c3e d623 dbbc f1df 9e3e
000000b0: 0a3c dc3e 9c8e 09be 7484 6bbc 5182 f1bc
000000c0: f708 66be 9705 94bd a58d 4fbd 68b8 25be
000000d0: d6cf 2e3d 5a01 c63d 7cdd eebe 0599 a9be
000000e0: fb1d e2be 214f 0fbe cc10 933d 975c 8fbd
000000f0: 8569 413e 59b9 683e bdb7 04be 6355 fbbd
00000100: 4852 10bd 4914 aaba d918 9abe 5e18 0e3c
00000110: d273 bbbe 161d c3be 0517 bcbe 750c 44bf
00000120: a398 ca3c 32eb bd3d b38d 09be ea33 8d3e
00000130: 50c7 9b3e 0c9c 23bd 5a27 813e 6299 ab3e
00000140: ad86 713c 4c21 363e feb5 873e 3b9b 41be
00000150: fdde 3b3e 5ac1 8d3e 44c0 77be 9c4a 963e
00000160: bb9d 9e3e 7a29 6abe 57d1 663e 3923 1d3e
00000170: fe98 b7be 37ce 0b3f 1323 383f 7c99 c4bc
00000180: 741e dc3e f211 de3e e380 14be 90e3 9cbd
00000190: 80b7 92bc e544 99be 29ac 03bd a5ed 4d3e
000001a0: 10d1 aebe 9ef4 ab3a 27ac 143e 2974 9bbe
000001b0: f081 873e e135 253e 6bc5 ccbe 4af2 62bd
000001c0: e941 debc d7e7 2dbe d02d 68be f55d b1be
000001d0: c633 b53d f930 343e 7a0a 763e 0626 fabd
000001e0: 009a fb3d d8ed b33d 7ffe 97bd d104 21bd
000001f0: 826c 48bd 33e9 e33d 8c67 453d 9a6d 5b3e
00000200: 1324 23be 04c6 573c 30fe 943d 2594 b7bd
00000210: 33d8 d53c a4f4 ccbd c990 3a3e 09b8 9cbd
00000220: befb 343e 4a79 1c3e 31d0 17be 42d1 a63d
00000230: 72c6 bd3e b8e2 12be f92f 13bd 75b8 20be
00000240: 4aff dcbd dd2e debd 2676 a63e cd11 babe
00000250: f7fe 34be 9b63 ccbd f6ec 14bf ca7e 1fbf
00000260: f438 edbe fef5 2abe f990 033e c1a6 4f3e
00000270: a34a b5bb b070 18bb f035 a53e 67e6 e4be
00000280: 985f 60be a8ca cfbd 06a4 1fbc 2899 853d
00000290: 769d 8abc d036 92bc 3cf2 1f3c 7786 bfbd
000002a0: 851b 51bd aa06 17bd 955a a5bd e77e 78be
000002b0: 8f25 76be 35f4 3cbe 5045 67be 6011 19be
000002c0: 0cf7 8ebe 3127 eebd b9a9 81bd 5925 86be
000002d0: b77a 5c3d 2187 923d 0230 403d 6131 1b3d
000002e0: 4bef 0b3e 39b1 ba3d 2abe 303c 00a1 e33d
000002f0: 525b 423d 7b45 5b3e ca97 0bbf 3d6b c9be
00000300: 288f 653d c3fa e5be 528a 05bf 14f9 153e
00000310: b7df 09bf c6fa 24bf 02d1 103f b9aa 1b3e
00000320: 430a 253e 8d14 0f3f c2df aa3e e351 533e
00000330: 67b6 393f 952e a73d 6128 d03d 9e04 0c3e
00000340: 6356 35be 6593 833d 68e2 7b3e 31e2 01be
00000350: 844d dbbd a38e d73e ffb8 d0be 0bcb 8ebe

onnx::Conv_357 f4 [8]
0.7136327 0.27002358 -0.11642767 0.03214833 0.5256046 0.88212025 -0.3019188 -1.1192827
00000000: a2b0 363f 8840 8a3e a171 eebd f8ad 033d
00000010: 068e 063f a2d2 613f 1a95 9abe a844 8fbf

onnx::Conv_359 f4 [8, 1, 3, 3]
-1.141527 -1.281455 -0.6143329 -0.47298667 0.31267613 1.1227038 -1.0178852 -0.14904253
1.3380305 -0.9539179 -1.5807203 -1.1011754 -0.12025251 0.48984793 0.40763435 1.52761
1.6060652 1.3037305 -0.19429503 -0.40885195 -0.43173474 -0.06117465 -0.2037814 -0.13533166
0.20078844 0.2661257 0.014722642 0.20524657 0.5368685 0.43340266 0.3181816 0.43461975
0.38851112 -0.20007193 -0.28736588 -0.21427208 -3.7518225 2.9832737 0.35772127 0.97124547
1.4945922 -3.91331 2.3262703 -3.811332 2.147932 -0.17379934 -0.23863082 -0.0991999
-0.19839847 -0.09204822 -0.13580778 0.5354615 0.18757945 -0.018349756 0.4058582 0.96572727
1.2592549 0.13894515 -0.28247428 -0.273127 -0.8282193 -1.2390375 -1.2851604 -0.27852422
-0.3421552 0.043981235 -0.46822616 -0.41830197 -0.18542589 0.19292542 0.13681301 -0.12948242
00000000: 8f1d 92bf b806 a4bf ec44 1dbf 4f2b f2be
00000010: 1617 a03e c2b4 8f3f 104a 82bf 9b9e 18be
00000020: 9544 ab3f f733 74bf 0b55 cabf 51f3 8cbf
00000030: f346 f6bd 59cd fa3e 73b5 d03e b988 c33f
00000040: 8b93 cd3f a4e0 a63f 47f5 46be 0b55 d1be
00000050: 560c ddbe 4592 7abd 12ac 50be 6294 0abe
00000060: 7c9b 4d3e a141 883e 3c37 713c 282c 523e
00000070: 3770 093f f4e6 dd3e b3e8 a23e 7b86 de3e
00000080: eeea c63e a8df 4cbe 9f21 93be 246a 5bbe
00000090: dc1d 70c0 f5ed 3e40 3e27 b73e 8ba3 783f
000000a0: cc4e bf3f ac73 7ac0 9de1 1440 ddec 73c0
000000b0: b877 0940 74f8 31be a35b 74be 5129 cbbd
000000c0: f828 4bbe c783 bcbd 3211 0bbe 0114 093f
000000d0: d414 403e 3a52 96bc a5cc cf3e e739 773f
000000e0: 442f a13f a347 0e3e 78a0 90be 4dd7 8bbe
000000f0: 2e06 54bf c898 9ebf 2380 a4bf ba9a 8ebe
00000100: f72e afbe ab25 343d 57bb efbe ad2b d6be
00000110: 49e0 3dbe 3e8e 453e b618 0c3e 0a97 04be

onnx::Conv_360 f4 [8]
1.6503505 -1.1016893 0.4441977 -1.1470249 0.9977639 0.22258049 0.2344542 0.22344324
00000000: af3e d33f 2804 8dbf e26d e33e b6d1 92bf
00000010: 746d 7f3f 24ec 633e c314 703e 4ece 643e

onnx::Conv_362 f4 [12, 8, 1, 1]
0.13508356 1.0261828 -0.46972126 -0.70232874 -0.005472373 -0.38085714 0.7285676 0.017155252
0.039305016 0.13837731 0.20654613 0.10566744 -0.005105879 0.11108098 0.096357524 -0.10898572
0.09835203 0.33119547 0.42776978 0.49087027 -0.071798705 -0.1432164 0.31604388 -0.22335574
-0.46167126 -1.1412414 0.7577182 0.5207729 -0.07239257 -0.07941847 -0.8745348 -0.48031175
-0.5071864 -0.016253287 0.012043619 0.21317841 0.01887877 0.0782728 -0.022707941 -0.0656484
-0.24190502 -0.6151352 -0.7621905 0.27925062 0.081786804 -0.45156568 -0.8391163 -0.6177659
0.45075154 0.09961625 0.12891942 0.103307806 -0.73430455 0.31469285 0.3094485 -0.9959884
-0.005021939 0.37096778 -0.16079001 -0.33622488 -0.034738462 -0.24032585 0.3227006 0.19876567
-0.5014383 -0.057693955 0.022877961 -0.037098113 -0.26139444 -0.39801812 -0.13718003 0.48958874
-0.077285975 -0.60855085 0.5915621 0.20711073 0.001252366 0.20838164 -0.5154161 0.1510447
0.12012571 -0.110248975 0.30066547 0.5629778 1.0735292 -0.30407867 0.2584318 0.19460145
0.04841432 0.09489882 0.18624754 0.26059952 0.004228504 0.04384292 0.08147997 -0.09292474
00000000: 5853 0a3e f559 833f 4e7f f0be d1cb 33bf
00000010: 9851 b3bb b5ff c2be 6883 3a3f 2c89 8c3c
00000020: 4cfe 203d c8b2 0d3e d480 533e 2c68 d83d
00000030: 384f a7bb 6d7e e33d 1857 c53d e833 dfbd
00000040: ca6c c93d 7492 a93e a404 db3e 5953 fb3e
00000050: 330b 93bd 52a7 12be 81d0 a13e 5eb7 64be
00000060: 2d60 ecbe 3314 92bf d2f9 413f 5f51 053f
00000070: 8e42 94bd 27a6 a2bd 83e1 5fbf 6ceb f5be
00000080: f8d6 01bf 9d25 85bc 9952 453c 714b 5a3e
00000090: a6a7 9a3c 7d4d a03d 0106 babc ab72 86bd
000000a0: f3b5 77be 8079 1dbf eb1e 43bf f0f9 8e3e
000000b0: d77f a73d 9e33 e7be 53d0 56bf e825 1ebf
000000c0: e8c8 e63e 9b03 cc3d 7403 043e 0b93 d33d
000000d0: 62fb 3bbf 6c1f a13e 0970 9e3e 19f9 7ebf
000000e0: 148f a4bb 7def bd3e 23a6 24be ab25 acbe
000000f0: eb49 0ebd fb17 76be 0339 a53e 3a89 4b3e
00000100: 435e 00bf 7f50 6cbd 906a bb3c 31f4 17bd
00000110: 7ed5 85be 08c9 cbbe ec78 0cbe 60ab fa3e
00000120: 1c48 9ebd fdc9 1bbf 9d70 173f d614 543e
00000130: 6e26 a43a ff61 553e 4ff2 03bf 76ab 1a3e
00000140: 7804 f63d 37ca e1bd d3f0 993e 501f 103f
00000150: 6869 893f 33b0 9bbe 2c51 843e 9a45 473e
00000160: 184e 463d 505a c23d adb7 3e3e 4d6d 853e
00000170: 438f 8a3b a294 333d f8de a63d 534f bebd

onnx::Conv_363 f4 [12]
-0.085023716 0.89963305 0.6022838 0.053786177 0.73228586 0.066931725 -0.14913164 0.46570295
0.7952976 0.65577996 -0.48089698 0.82993835
00000000: ea20 aebd 5a4e 663f 452f 1a3f e54e 5c3d
00000010: 1677 3b3f 8013 893d f7b5 18be 9e70 ee3e
00000020: a098 4b3f 32e1 273f 2138 f6be d776 543f

onnx::Conv_365 f4 [12, 1, 3, 3]
0.045940608 -0.23008078 -0.16676912 0.08159658 -0.19698827 -0.38460144 0.04711137 -0.278457
-0.5334831 -0.18798555 -0.18608764 -0.09409426 0.3895703 -0.10656186 -1.2602471 0.42195228
-0.26970026 -1.4203633 -0.418522 -0.31782493 0.15772878 -0.30417752 0.26125565 0.7515344
-0.24688898 0.14684269 0.6360314 -0.019540366 0.11524153 0.42542166 -0.15395553 0.105873786
0.4717725 -0.09318851 -0.06611697 0.19157903 0.7818626 0.34307802 0.1507983 1.2755474
0.0856255 -1.2345394 0.8340628 -0.35304055 -1.3477927 -0.15999722 0.0023442765 -0.15275595
-0.06330309 0.16606885 0.12811673 0.004084864 0.4478343 0.14255168 -0.07131351 -0.22832094
-0.14170693 -0.04509584 -0.21018021 -0.28240204 0.035724953 -0.0097222505 -0.051638152 -0.063816436
0.13052827 0.44095463 -0.24682797 0.81917506 0.863406 -0.24242249 -0.9368326 -0.34909308
-0.093448885 -0.4773031 0.2977798 -0.98138225 2.9695578 -2.1804512 1.4533647 -3.4477708
2.0621278 -0.062691174 0.04328611 0.13554649 -0.074052945 -0.5673259 -0.13970901 -0.14264843
0.17616974 0.23126636 0.027306966 0.1052083 0.1624624 0.18427786 0.34680137 0.30367443
0.1347042 0.27432865 0.24568844 -0.10971521 -2.2841227 0.7299446 -0.22038285 -2.5637205
-0.7103554 1.0725446 0.27422884 2.2684348
00000000: 382c 3c3d 4c9a 6bbe 86c5 2abe 1c1c a73d
00000010: 4bb7 49be 7bea c4be daf7 403d ea91 8ebe
00000020: 5992 08bf 497f 40be c28d 3ebe 7eb4 c0bd
00000030: c275 c73e 1b3d dabd c74f a1bf 210a d83e
00000040: 2716 8abe 77ce b5bf 8448 d6be f3b9 a2be
00000050: a783 213e 28bd 9bbe 4dc3 853e 8f64 403f
00000060: 77d0 7cbe ee5d 163e f4d2 223f 1e13 a0bc
00000070: c003 ec3d ded0 d93e 85a6 1dbe 5bd4 d83d
00000080: 2a8c f13e 9ed9 bebd 5568 87bd 4b2d 443e
00000090: 2628 483f eca7 af3e df6a 1a3e 2345 a33f
000000a0: 6c5c af3d 6305 9ebf 2485 553f bbc1 b4be
000000b0: 7984 acbf 50d6 23be 6fa2 193b 0e6c 1cbe
000000c0: 0da5 81bd f40d 2a3e 0831 033e 53da 853b
000000d0: 8a4a e53e 11f9 113e d10c 92bd f7cc 69be
000000e0: 9f1b 11be 6ab6 38bd 7b39 57be 0097 90be
000000f0: 5454 123d 134a 1fbc 8782 53bd 31b2 82bd
00000100: 34a9 053e cec4 e13e 79c0 7cbe 75b5 513f
00000110: 2d08 5d3f 9a3d 78be 43d4 6fbf 54bc b2be
00000120: 2162 bfbd 1261 f4be 9876 983e de3b 7bbf
00000130: 3c0d 3e40 838c 0bc0 db07 ba3f 47a8 5cc0
00000140: e7f9 0340 3b64 80bd c74c 313d b3cc 0a3e
00000150: 12a9 97bd 453c 11bf e10f 0fbe 6e12 12be
00000160: d765 343e 17d1 6c3e dcb2 df3c 7377 d73d
00000170: 8b5c 263e 56b3 3c3e f38f b13e 377b 9b3e
00000180: e6ef 093e ce74 8c3e c095 7b3e 5eb2 e0bd
00000190: 112f 12c0 a6dd 3a3f 0bac 61be ff13 24c0
000001a0: dad9 35bf 2449 893f b967 8c3e 092e 1140

onnx::Conv_366 f4 [12]
0.9164581 2.501845 -0.57090145 -0.6936396 -0.32219732 -0.33954984 0.3692288 -0.2788442
0.29956946 0.34839928 -0.40090257 1.3017379
00000000: ff9c 6a3f 3a1e 2040 9926 12bf 5d92 31bf
00000010: 0cf7 a4be 7ad9 adbe 8f0b bd3e abc4 8ebe
00000020: 2b61 993e 6461 b23e 1a43 cdbe 599f a63f

onnx::Conv_368 f4 [16, 12, 1, 1]
-0.03274733 -0.08251899 -0.19431049 -0.020481588 -0.11324627 0.5376427 -0.3889252 0.052919228
0.0035942346 0.0512955 -0.03393406 -0.5338135 0.48406118 -0.54850733 0.22323339 -0.7190704
0.001116727 0.3387007 -0.20354468 -0.16031219 0.0021245782 -0.073750734 -0.3025643 0.34044132
-0.14980797 -0.36284834 0.60875314 0.31770644 0.23084961 0.020400463 -0.07501035 -0.111895025
-0.032568146 -0.11553853 0.7355486 -0.1561763 0.376562 0.21253665 -0.03077842 0.47750145
-0.19995697 0.13176462 0.20451064 -0.05128339 -0.080232196 -0.28464633 -0.013248684 -0.2986329
-0.4093358 0.18569784 -0.017822912 -0.033809394 0.035131432 0.18455085 0.22320023 -1.0055294
0.11169062 -0.9219375 -0.26791775 -0.38540956 -0.71898586 -0.3381525 0.27495432 -0.045628615
-0.06454724 0.06312969 0.345997 0.7287619 0.041482765 0.1656534 -0.06405539 0.4614511
0.13385157 -0.0499325 -0.16114414 0.34456998 0.11231881 -0.09224569 -0.282219 -0.049984265
0.31261566 -0.15656371 0.01980304 -0.015161773 -0.28690705 -0.31979355 -0.05601313 -0.57356447
0.13092951 -0.1463397 0.6418309 -0.47094387 0.0047621583 0.43944645 -0.20752843 0.6675048
0.47557288 0.010367593 0.083547115 -0.044964608 -0.6752412 -0.053683426 0.08886745 0.04374032
-0.036392692 -0.08690075 0.050746232 -0.462075 0.12230002 -0.06852811 0.07499123 0.079189435
-0.20104423 -0.014733792 -0.33907667 -0.2238791 0.6723323 -0.0223641 0.21455069 0.082725994
0.23794025 0.3550457 -0.13218738 0.44885832 0.3536318 0.41038024 -0.08970327 -0.033188898
-0.018619558 -0.048598204 0.2056804 -0.043298893 0.10946821 -0.061190058 -0.03670301 0.15724373
-0.22903578 0.008249279 -0.49159783 -0.09445179 -0.8438529 0.07871826 0.06435262 0.03693979
-0.08965735 -0.10086656 0.39501944 -0.07952984 -0.32066062 -0.085923515 -0.032120325 0.07090444
-0.024349377 -0.011555757 0.08161603 -0.15684427 0.17700619 0.17402047 -0.6204581 -0.0557165
0.97863495 -0.36384004 -0.21776047 0.18103398 -0.026362339 0.06608682 0.02722254 -0.041487858
-0.19457407 -0.006085324 0.14954825 0.2509976 -0.1830317 -0.124082595 -0.50922835 -0.2141772
-0.016459705 0.17406328 -0.06844957 0.25817993 -0.2164864 0.81806517 -0.075510286 0.2363878
0.20751965 0.17610982 0.23232993 0.10479549 0.02131352 0.37201196 -0.24146642 0.23970862
00000000: 1022 06bd b7ff a8bd 54f9 46be 01c9 a7bc
00000010: a9ed e7bd f4a2 093f 3421 c7be d5c1 583d
00000020: 408d 6b3b 3b1b 523d 71fe 0abd 00a8 08bf
00000030: ded6 f73e fa6a 0cbf 4b97 643e ff14 38bf
00000040: 245f 923a 2e6a ad3e 046e 50be e128 24be
00000050: 823c 0b3b a00a 97bd b5e9 9abe 534e ae3e
00000060: 4367 19be 42c7 b9be 3fd7 1b3f 6baa a23e
00000070: d763 6c3e df1e a73c 079f 99bd 3829 e5bd
00000080: 2d66 05bd 779f ecbd ea4c 3c3f aeec 1fbe
00000090: bccc c03e 35a3 593e 0623 fcbc 127b f43e
000000a0: 85c1 4cbe 4eed 063e 3d6b 513e 880e 52bd
000000b0: c750 a4bd 2abd 91be 0211 59bc 69e6 98be
000000c0: 7694 d1be 9327 3e3e 5b01 92bc b87b 0abd
000000d0: fae5 0f3d e6fa 3c3e 9a8e 643e 30b5 80bf
000000e0: 0dbe e43d 1904 6cbf 842c 89be 6754 c5be
000000f0: 750f 38bf 5322 adbe d0c6 8c3e 12e5 3abd
00000100: 5831 84bd 244a 813d 8526 b13e 2490 3a3f
00000110: d5e9 293d 0ba1 293e 792f 83bd 5243 ec3e
00000120: 6310 093e 0586 4cbd f802 25be 7a6b b03e
00000130: 6707 e63d 4feb bcbd 027f 90be 4dbc 4cbd
00000140: 290f a03e 3d52 20be fc39 a23c 1669 78bc
00000150: 7be5 92be fbbb a3be 066e 65bd 1fd5 12bf
00000160: 6312 063e 13da 15be 084f 243f 8e1f f1be
00000170: e10b 9c3b 20ff e03e 5582 54be 98e1 2a3f
00000180: 4a7e f33e d6dc 293c c01a ab3d cf2c 38bd
00000190: 9bdc 2cbf 27e3 5bbd 2300 b63d 0d29 333d
000001a0: 8110 15bd 05f9 b1bd 48db 4f3d 1895 ecbe
000001b0: 6f78 fa3d 7758 8cbd 0195 993d 122e a23d
000001c0: 8ade 4dbe 0166 71bc 759b adbe 9040 65be
000001d0: f81d 2c3f eb34 b7bc 2db3 5b3e 3f6c a93d
000001e0: 9ca6 733e 8dc8 b53e 215c 07be c2d0 e53e
000001f0: 3a0f b53e 5c1d d23e 59b6 b7bd 15f1 07bd
00000200: 0b88 98bc e90e 47bd e29d 523e 2e5a 31bd
00000210: de30 e03d 6da2 7abd e555 16bd 8004 213e
00000220: 5b88 6abe fc27 073c b6b2 fbbe f16f c1bd
00000230: be06 58bf 0a37 a13d 4ecb 833d 2d4e 173d
00000240: 469e b7bd 2193 cebd fd3f ca3e 8ae0 a2bd
00000250: a12d a4be abf8 afbd 9a90 03bd 5936 913d
00000260: 5878 c7bc 5c54 3dbc 4e26 a73d c99b 20be
00000270: 1c41 353e 6c32 323e 58d6 1ebf fc36 64bd
00000280: d287 7a3f 3e49 babe 9afc 5ebe f960 393e
00000290: d5f5 d7bc 8758 873d ce01 df3c 2cef 29bd
000002a0: 6d3e 47be 6667 c7bb 2d23 193e c282 803e
000002b0: a96c 3bbe 041f febd ca5c 02bf 4551 5bbe
000002c0: 81d6 86bc a53d 323e 4a2f 8cbd 2930 843e
000002d0: 9cae 5dbe b86c 513f 23a5 9abd a50f 723e
000002e0: 0880 543e 2256 343e e6e7 6d3e 059f d63d
000002f0: b199 ae3c 5a78 be3e f942 77be 2d76 753e

onnx::Conv_369 f4 [16]
0.32618326 0.2161346 0.13330926 0.14860165 0.22690065 0.6796007 0.20426372 -0.19232333
0.38221335 0.15113102 0.8718251 0.15912148 -0.5883047 -0.29736617 0.53051084 0.4981213
00000000: 7e01 a73e 6352 5d3e 3982 083e 082b 183e
00000010: a558 683e 50fa 2d3f 822a 513e 68f0 44be
00000020: 78b1 c33e 17c2 1a3e ee2f 5f3f bef0 223e
00000030: 239b 16bf 6140 98be 8fcf 073f c109 ff3e

onnx::Conv_371 f4 [96, 16, 1, 1]
-0.46935713 -0.15376802 0.052164435 -0.38211522 0.049576983 0.14858423 -0.2539368 0.19721515
-0.21697432 -0.04304763 -0.35232794 -0.15335508 -0.102704614 -0.06526435 0.1250856 -0.22989996
-0.32188216 -0.40191853 0.06787063 0.39401945 0.31591928 0.026868802 -0.4835954 -0.58979696
-0.0062071136 -0.18188031 -0.15026732 0.8399836 -0.039830234 -0.45357594 0.012187065 -0.063432194
0.20467302 0.29628643 0.18182701 -0.11027034 0.03595419 -0.39167875 -0.20401375 -0.22207959
-0.33213776 -0.16393428 -0.10141399 0.011734325 -0.24860178 0.04048075 0.14217128 -0.3452337
0.5834437 -0.24703191 -0.36425233 0.12154241 -0.11886968 -0.28331646 0.29200557 -0.4232983
0.6135967 -0.17322822 0.2886292 -0.070244044 -0.36988416 0.48608342 0.10716276 0.2582239
0.020105287 0.0050821095 0.34887823 -0.25150418 0.67854136 -0.55658746 -0.3914276 1.026598
0.19491065 -0.33524296 -0.7713844 0.12665008 0.2953574 0.45148954 0.32764387 -0.6825242
-0.2609771 0.18755287 0.5812057 -0.24480484 -0.18399635 -0.4003507 0.33203924 -0.3480131
0.15325093 0.5009859 -0.21323663 0.4607197 -0.17373201 -0.22192284 -0.6395857 -0.3452491
-0.11453851 -0.49447423 0.1393771 0.20266876 0.2032592 -0.17275998 0.08150421 -0.3427281
-0.24063352 0.01944563 0.47834662 0.23831907 0.1202887 0.39890945 -0.113643184 0.15914129
-0.29832911 0.44763815 -0.28516307 0.046343092 -0.2292106 0.3476957 0.090962805 0.49830005
0.15196809 0.095703 0.077140175 -0.009334759 -0.06704113 0.53707576 -0.37983188 -0.08360232
0.019515624 -0.01072388 -0.0041312603 -0.05328962 -0.14311226 -0.039552778 0.033260766 -0.09218009
0.016813323 0.1364054 -0.10986578 0.057275876 0.005734983 -0.06905106 -0.0040115183 -0.07555097
0.6118414 -0.006308556 -0.25415692 -0.05636875 -0.15175718 0.44610548 -0.6446239 -0.4656619
-0.11361128 0.20249955 0.07371549 -0.20134535 0.27746505 -0.111317515 0.83340776 -0.67239374
0.36864495 -0.33562976 0.2159721 0.6297718 0.19197573 0.1520828 0.18191853 -0.14379565
0.47764474 -0.12551898 0.18754324 -0.018482061 0.50076896 0.2841343 -0.19670701 0.4637023
-0.28185138 0.6622252 0.26222256 -0.38379133 -0.1193093 0.02103164 -0.14048176 -0.31859675
-0.18420924 0.43982986 -0.44146845 -0.14382613 -0.0002935483 0.06303377 0.051348127 -0.072344445
0.0901884 0.16690798 0.09626307 0.129057 -0.028391141 0.070973344 0.06405273 0.022325357
-0.08201314 0.14291067 0.6319552 -0.113568254 -0.21899723 0.1629908 -0.14472719 0.358372
-0.33085868 0.0044784155 0.4653104 -0.010207416 0.585814 0.8126519 -0.2806099 0.7123638
0.15397544 0.04068709 -0.19989167 -0.22856279 0.53614074 -0.06732245 0.3601736 -0.13008313
-0.024076931 0.22401828 0.03128063 0.17290969 -0.00089295453 0.041426573 0.32143542 0.14782818
-0.15085796 0.71930283 0.2758355 0.8144383 -0.300731 0.5186284 -0.061069846 0.07958928
-0.08564143 0.027818443 -0.010469696 -0.24343468 -0.71316856 -0.020614149 -0.1895197 -0.7096355
0.35954046 0.07704967 -0.31155717 0.015379811 -0.04527555 -0.016104402 0.11006894 0.16368352
00000000: 944f f0be 5d75 1dbe 60aa 553d 9ba4 c3be
00000010: 3c11 4b3d 7726 183e 0104 82be c5f2 493e
00000020: 842e 5ebe b652 30bd 5464 b4be 1d09 1dbe
00000030: cc56 d2bd 51a9 85bd 7116 003e e56a 6bbe
00000040: bdcd a4be 44c8 cdbe c2ff 8a3d ebbc c93e
00000050: 2cc0 a13e f61b dc3c d199 f7be effc 16bf
00000060: 0b65 cbbb d53e 3abe addf 19be 2a09 573f
00000070: 0725 23bd 1b3b e8be 41ac 473c bde8 81bd
00000080: ce95 513e dbb2 973e dc30 3a3e 6bd5 e1bd
00000090: b344 133d 1e8a c8be fbe8 50be d568 63be
000000a0: f60d aabe 63de 27be 23b2 cfbd 5441 403c
000000b0: 7791 7ebe 25cf 253d 5995 113e 79c2 b0be
000000c0: 915c 153f eff5 7cbe 487f babe 3aeb f83d
000000d0: f271 f3bd db0e 91be c181 953e 8eba d8be
000000e0: ac14 1d3f bd62 31be 35c7 933e 1cdc 8fbd
000000f0: 7561 bdbe eddf f83e 2678 db3d ec35 843e
00000100: d8b3 a43c d387 a63b 2ba0 b23e 28c5 80be
00000110: e3b4 2d3f 847c 0ebf 3369 c8be 9067 833f
00000120: a896 473e f7a4 abbe 7379 45bf 8fb0 013e
00000130: 1639 973e a329 e73e f0c0 a73e e8b9 2ebf
00000140: ca9e 85be dc0d 403e e6c9 143f 1fae 7abe
00000150: 8a69 3cbe c4fa ccbe 0c01 aa3e c62e b2be
00000160: d0ed 1c3e 9d40 003f b45a 5abe 74e3 eb3e
00000170: cee6 31be be3f 63be e3bb 23bf 7dc4 b0be
00000180: 2b93 eabd ba2b fdbe dfb8 0e3e 6688 4f3e
00000190: 2e23 503e fee7 30be aeeb a63d 0f7a afbe
000001a0: a268 76be 714c 9f3c d9e9 f43e ea09 743e
000001b0: ec59 f63d dc3d cc3e c2bd e8bd eff5 223e
000001c0: 98be 98be d430 e53e e500 92be 41d2 3d3d
000001d0: 2fb6 6abe 2c05 b23e b54a ba3d 2f21 ff3e
000001e0: 869d 1b3e efff c33d abfb 9d3d d1f0 18bc
000001f0: dc4c 89bd cc7d 093f 5379 c2be b137 abbd
00000200: 3bdf 9f3c 36b3 2fbc 865f 87bb 3746 5abd
00000210: 058c 12be 1802 22bd 713c 083d eac8 bcbd
00000220: 18bc 893c dbad 0b3e 4f01 e1bd 1c9a 6a3d
00000230: 86ec bb3b a46a 8dbd 0e73 83bb 78ba 9abd
00000240: a3a1 1c3f 01b8 cebb db20 82be ebe2 66bd
00000250: 3c66 1bbe f067 e43e 1206 25bf 3d6b eebe
00000260: 08ad e8bd 0b5c 4f3e 26f8 963d 7a2d 4ebe
00000270: e60f 8e3e 70fa e3bd 365a 553f ff21 2cbf
00000280: 08bf bc3e aad7 abbe ca27 5d3e ba38 213f
00000290: 4995 443e 98bb 1b3e da48 3a3e 2b3f 13be
000002a0: da8d f43e 0c88 00be 560b 403e b167 97bc
000002b0: 6532 003f 0d7a 913e 906d 49be 636a ed3e
000002c0: d34e 90be 9787 293f 0942 863e 4c80 c4be
000002d0: 6f58 f4bd 8c4a ac3c 73da 0fbe 1d1f a3be
000002e0: 59a1 3cbe 6131 e13e 2708 e2be 2847 13be
000002f0: 63e7 99b9 d917 813d 6a52 523d 5329 94bd
00000300: b2b4 b83d ede9 2a3e 9325 c53d 8527 043e
00000310: 8a94 e8bc 795a 913d 142e 833d abe3 b63c
00000320: 81f6 a7bd 2d57 123e d1c7 213f 7996 e8bd
00000330: cf40 60be 0fe7 263e 5d33 14be 897c b73e
00000340: 4f66 a9be acbf 923b 2a3d ee3e 013d 27bc
00000350: e8f7 153f f409 503f 1aac 8fbe 795d 363f
00000360: bdab 1d3e 82a7 263d 67b0 4cbe 5d0c 6abe
00000370: 8540 093f 5ae0 89bd ad68 b83e 8334 05be
00000380: fc3c c5bc 0c65 653e 1e20 003d 3d0f 313e
00000390: 2a15 6aba e9ae 293d 2f93 a43e 4560 173e
000003a0: 827a 1abe 3b24 383f 503a 8d3e 077f 503f
000003b0: 6af9 99be d5c4 043f 6024 7abd b4ff a23d
000003c0: c664 afbd 81e3 e33c 1689 2bbc f146 79be
000003d0: 3792 36bf 01df a8bc 7411 42be acaa 35bf
000003e0: b015 b83e 38cc 9d3d 6c84 9fbe 9afb 7b3c
000003f0: db72 39bd 61ed 83bc d36b e13d a79c 273e

onnx::Conv_372 f4 [96]
1.4403174 -0.10306707 1.1281347 -0.6830673 0.22942656 0.75963837 -0.16693757 -0.27889046
1.1136801 -0.20034108 -1.7962084 0.62812895 -1.756967 -1.5004885 -0.9527089 0.7945943
-0.076523066 0.3954968 1.1177214 2.0522442 0.8201735 -0.31545004 1.3287264 -1.6650581
0.2373406 2.0367653 -0.6988282 -1.4597864 -1.6806109 -0.47254658 2.0363123 1.1792594
-0.09305486 -1.4622638 0.19541347 0.55112255 1.0067899 1.1057923 0.1768497 0.15446411
0.6179552 0.86028147 0.46611875 -0.022468537 -1.7410182 0.7848029 0.099508345 2.078593
-0.6638541 -1.0974371 0.55478984 -1.0360044 -0.2711488 -1.2191683 1.2175881 -0.7356856
1.7096509 -0.8082088 0.395841 0.337172 -0.062949926 -0.44797224 0.9631802 -1.2443453
1.0784904 0.5723455 -0.08482301 -0.27139515 1.3045547 0.9557975 -0.9207294 -0.31182322
0.83132017 -1.1169986 -0.45267892 -1.4381607 0.49298885 0.8400193 0.92923975 0.39875248
0.29469347 -0.7846965 -0.89343834 1.2777402 -1.8156674 -1.6121874 0.65638775 -1.0215976
1.0274628 -0.6898064 -1.0398203 0.86365783 -0.6730672 -0.7517793 0.28529403 1.2246549
00000000: 525c b83f d414 d3bd b866 903f 80dd 2ebf
00000010: ccee 6a3e a977 423f aff1 2abe bbca 8ebe
00000020: 128d 8e3f 3626 4dbe 28ea e5bf 0fcd 203f
00000030: 4be4 e0bf 0210 c0bf bbe4 73bf 886a 4b3f
00000040: 20b8 9cbd 8e7e ca3e 7f11 8f3f f857 0340
00000050: e4f6 513f ab82 a1be b513 aa3f a020 d5bf
00000060: 6a09 733e 5d5a 0240 68e6 32bf 48da babf
00000070: 421e d7bf a0f1 f1be f152 0240 f9f1 963f
00000080: 8c93 bebd 762b bbbf 781a 483e 5e16 0d3f
00000090: 7ede 803f 9a8a 8d3f 1618 353e d72b 1e3e
000000a0: 5032 1e3f 683b 5c3f 1ea7 ee3e f00f b8bc
000000b0: afd9 debf d8e8 483f 08cb cb3d ab07 0540
000000c0: 58f2 29bf d278 8cbf b506 0e3f cb9b 84bf
000000d0: 04d4 8abe b50d 9cbf edd9 9b3f e455 3cbf
000000e0: d7d5 da3f c6e6 4ebf acab ca3e cfa1 ac3e
000000f0: e4eb 80bd 9e5c e5be fa92 763f b546 9fbf
00000100: f90b 8a3f 3c85 123f b0b7 adbd 4ef4 8abe
00000110: a6fb a63f 25af 743f ecb4 6bbf 4ba7 9fbe
00000120: 66d1 543f cff9 8ebf 88c5 e7be a615 b8bf
00000130: 0969 fc3e 810b 573f a8e2 6d3f 4929 cc3e
00000140: 10e2 963e dfe1 48bf 60b8 64bf fe8c a33f
00000150: ca67 e8bf 285c cebf 0709 283f b6c3 82bf
00000160: e783 833f 2797 30bf d518 85bf ae18 5d3f
00000170: 224e 2cbf 9c74 40bf 0f12 923e 7ec1 9c3f

onnx::Conv_374 f4 [96, 1, 3, 3]
-0.17937411 -0.3221772 -0.41710508 0.05450721 -0.046373915 -0.22325289 0.81568563 1.1021367
0.43747842 0.14416453 0.1259274 0.50887555 0.43133298 0.92490685 -0.13175015 -0.0028842164
-0.215083 -0.50950944 0.31563944 -0.23240492 0.045039043 -0.15769377 0.7550028 0.16696864
0.3328053 0.1510801 -0.0018877564 -0.052970815 0.15866846 0.013827707 -0.3431759 -0.27709118
-0.17631945 0.35791454 0.30506855 0.29127896 -0.45938927 -0.23973921 -0.12382721 -0.39656913
0.1795411 0.4185019 0.05288635 0.42084605 0.48960498 0.19521594 0.16292708 -0.03203801
0.37226775 0.08262244 0.20219968 0.15099566 0.09426127 0.13561845 -0.08671035 0.045792554
0.2889608 0.14094943 0.1887012 0.5681573 0.054926928 0.14500742 -0.28239173 -0.21050622
0.412783 -0.19326913 -0.2524502 0.46238583 -0.5080047 -0.3460304 0.25595832 -0.07785378
0.07453128 0.93351805 0.66225 0.27988303 0.58470505 0.28643385 -0.26647255 0.48864967
0.20321575 0.20805818 0.45096165 -0.040552292 0.08135364 0.22168967 0.22843346 0.024588497
0.30874705 0.04812649 -0.41543517 -0.27037793 -0.43122903 -0.28218007 -0.35587546 -0.19458406
-0.036046866 0.1397482 0.032877825 0.3054302 0.5488254 0.5771101 -0.32014844 0.14572783
0.7269467 0.042829785 -0.96245116 -0.8095197 0.46422288 1.2601452 -0.65906125 0.13715915
1.2234708 -0.13921785 -0.417318 0.32168385 0.1347523 -0.09390151 0.13864483 0.2804207
0.22800435 0.13215718 0.08148222 -0.33514008 -0.27792603 0.09400853 -0.14514114 -0.31676018
-0.32685304 -0.12905568 -0.2558596 -0.4905748 -0.040349163 -0.14896877 -0.4194457 -0.29749957
-0.38743582 -1.0098674 1.0899853 0.68941647 -0.18250567 0.23141979 -0.028396765 -1.0736166
0.5761328 -0.26645523 0.6159073 0.7474723 -0.902838 -0.3484908 -0.8302183 0.5565513
0.05614535 0.097177245 0.24959722 0.5358616 0.38979083 0.33457813 0.2907774 0.47119787
0.21826488 0.34190232 -0.43036434 -1.1397094 0.1274218 -0.76322037 -1.1891814 -0.33198708
1.0244471 1.1903435 1.1355798 0.26062402 0.1818477 0.27144217 0.2708098 0.31684056
0.15405615 -0.045431152 0.15680304 0.15206666 0.16842394 0.02287903 0.07236255 -0.005241657
-0.088033155 -0.14369032 -0.046605207 -0.58086044 -0.6511676 0.11287513 0.2431166 0.1709501
-0.024152443 0.19414735 0.12808037 -0.13982633 0.1295571 -0.1232281 0.23673278 0.12259681
0.14845061 0.2588186 0.41891572 0.3791501 0.19328453 0.30925274 0.28126594 -0.19121514
-0.32131782 -0.105676115 -0.11616242 -0.10746804 -0.111188516 0.04198326 -0.21161467 -0.32066214
-0.068431675 0.10258024 0.66918874 0.29553902 -0.18273938 0.1410534 0.05066462 -0.6856544
-0.3724748 0.13233995 0.25585648 0.3493704 0.19816495 0.11604252 0.38603827 -0.8217494
-1.0015107 -0.44381657 0.22397038 -0.36096933 0.12418314 -0.5058997 -0.5841879 0.12998493
-0.32918555 -0.03054982 0.52845705 -0.62699556 -0.39216042 -0.78183895 -0.05112582 -0.6228532
-0.59533 -0.32672682 -0.33039293 -0.989839 -0.06970007 0.29114193 -0.06861492 -0.109842084
00000000: d9ad 37be 69f4 a4be cc8e d5be f442 5f3d
00000010: 93f2 3dbd 689c 64be c6d0 503f d112 8d3f
00000020: 2cfd df3e de9f 133e 1df3 003e ab45 023f
00000030: add7 dc3e b2c6 6c3f 83e9 06be 1f05 3dbb
00000040: b83e 5cbe 366f 02bf 7e9b a13e 8efb 6dbe
00000050: dc7a 383d 7a7a 21be dd47 413f d4f9 2a3e
00000060: 7565 aa3e beb4 1a3e 986e f7ba edf7 58bd
00000070: fc79 223e 9b8d 623c c0b4 afbe e5de 8dbe
00000080: 168d 34be 9340 b73e f231 9c3e 8422 953e
00000090: 1235 ebbe 327e 75be 1f99 fdbd 1c0b cbbe
000000a0: 9fd9 373e e245 d63e 5b9f 583d 2279 d73e
000000b0: 81ad fa3e b0e6 473e 5bd6 263e 4a3a 03bd
000000c0: e199 be3e f435 a93d 6f0d 4f3e 9b9e 1a3e
000000d0: 0d0c c13d 90df 0a3e 3295 b1bd f990 3b3d
000000e0: acf2 933e 0c55 103e e33a 413e c272 113f
000000f0: 0ffb 603d d37c 143e a695 90be f18e 57be
00000100: 4b58 d33e 58e8 45be 2741 81be d6bd ec3e
00000110: 990c 02bf e62a b1be f80c 833e cd71 9fbd
00000120: dba3 983d 0afb 6e3f 3789 293f d44c 8f3e
00000130: 3baf 153f 75a7 923e 176f 88be 4a30 fa3e
00000140: ca17 503e 340d 553e 72e4 e63e 291a 26bd
00000150: bd9c a63d 9e02 633e 76ea 693e d16d c93c
00000160: 1814 9e3e 4820 453d ebb3 d4be fa6e 8abe
00000170: 0dca dcbe e879 90be 4f35 b6be 0b41 47be
00000180: e1a5 13bd 271a 0f3e e6aa 063d 5961 9c3e
00000190: d27f 0c3f 7dbd 133f 7fea a3be ad39 153e
000001a0: 2e19 3a3f 496e 2f3d 3363 76bf af3c 4fbf
000001b0: 9fae ed3e 704c a13f 3db8 28bf 7373 0c3e
000001c0: b19a 9c3f 208f 0ebe b4aa d5be bfb3 a43e
000001d0: 82fc 093e 6f4f c0bd e9f8 0d3e 4d93 8f3e
000001e0: f979 693e 3654 073e 26e0 a63d 7b97 abbe
000001f0: 524c 8ebe 8b87 c03d e19f 14be 642e a2be
00000200: 4859 a7be 2c27 04be 0800 83be 9f2c fbbe
00000210: 2a45 25bd 458b 18be 96c1 d6be dd51 98be
00000220: fd5d c6be 5643 81bf a384 8b3f 997d 303f
00000230: c4e2 3abe 4ff9 6c3e 55a0 e8bc 456c 89bf
00000240: 707d 133f d26c 88be 1aac 1d3f 585a 3f3f
00000250: 6420 67bf 636d b2be 3089 54bf 257a 0e3f
00000260: abf8 653d dd04 c73d 6a96 7f3e 3a2e 093f
00000270: aa92 c73e d34d ab3e c6e0 943e d940 f13e
00000280: d480 5f3e d20d af3e b758 dcbe ffe1 91bf
00000290: dc7a 023e 6962 43bf 1937 98bf 36fa a9be
000002a0: 1521 833f 2d5d 983f ae5a 913f 8370 853e
000002b0: 4936 3a3e 78fa 8a3e 95a7 8a3e ed38 a23e
000002c0: e5c0 1d3e 0416 3abd fa90 203e 5db7 1b3e
000002d0: 5377 2c3e ce6c bb3c d132 943d 35c2 abbb
000002e0: ba4a b4bd 8e23 13be 1ae5 3ebd 45b3 14bf
000002f0: ebb2 26bf 132b e73d 8ff3 783e 8b0d 2f3e
00000300: 58db c5bc 90ce 463e 8027 033e a22e 0fbe
00000310: 9eaa 043e 045f fcbd 146a 723e 0914 fb3d
00000320: 7003 183e df83 843e 1f7c d63e f61f c23e
00000330: 61ec 453e 6056 9e3e 1702 903e e7cd 43be
00000340: c583 a4be b86c d8bd 90e6 edbd 3418 dcbd
00000350: ceb6 e3bd a4f6 2b3d 84b1 58be d42d a4be
00000360: e825 8cbd 9715 d23d f44f 2b3f e450 973e
00000370: 0820 3bbe 4d70 103e b485 4f3d 0c87 2fbf
00000380: 04b5 bebe 2084 073e 9fff 823e ade0 b23e
00000390: c1eb 4a3e b3a7 ed3d cfa6 c53e 2b5e 52bf
000003a0: 8131 80bf ed3b e3be 7e58 653e f9d0 b8be
000003b0: bb53 fe3d a582 01bf 578d 15bf c51a 053e
000003c0: 028b a8be 9e43 fabc f648 073f c882 20bf
000003d0: 40c9 c8be 9926 48bf 4f69 51bd 4f73 1fbf
000003e0: 8c67 18bf bd48 a7be 4329 a9be 1766 7dbf
000003f0: e9be 8ebd 8e10 953e fb85 8cbd e3f4 e0bd

onnx::Conv_375 f4 [96]
-1.0354797 -0.5431302 -1.1601181 -0.7963422 -0.15810564 -0.71518016 -0.38145056 -0.2536862
-2.2479 -0.9087086 1.7254583 -0.4673161 -0.4509432 -0.14603347 2.2033021 0.108652055
-0.23149727 -1.3756908 0.22863172 -1.6248559 0.8052219 -0.801908 -1.9316893 1.4892199
0.0015037544 1.2362528 0.16583349 1.8885255 -0.10621923 -0.52454317 2.3778007 -0.42100528
-0.33430475 0.016376555 0.5260802 1.33371 0.71132433 -0.25516927 0.07737143 0.114542864
-0.14544114 -0.49760914 0.5296293 0.051325828 0.18727744 -0.050560653 0.031101018 -0.6716928
-0.2570766 -0.116034985 -1.0276937 -0.038669303 0.663334 -0.10794081 1.2651355 0.17953664
0.0750148 -0.025830746 -0.8503398 -0.17463568 -0.07507866 1.1176512 -0.68736106 -0.4540639
0.3839648 -0.063764274 -0.56404227 -0.19736506 -2.4063542 0.327089 -0.28790495 -0.060247675
3.0926218 -0.21608442 -0.11134637 -0.64162016 0.70297694 -0.045777787 -0.44060922 0.21729639
-0.3162753 -0.2054221 0.6060354 0.5480027 -0.6825466 -0.38548964 0.041005373 0.40546918
-0.42621985 0.022879854 -0.3585396 0.31941444 -0.053332806 -0.3711289 1.9390173 -0.077938735
00000000: 998a 84bf 950a 0bbf c07e 94bf 15dd 4bbf
00000010: 72e6 21be 0c16 37bf 7d4d c3be 28e3 81be
00000020: 98dd 0fc0 20a1 68bf d1db dc3f 0e44 efbe
00000030: 07e2 e6be cc89 15be e702 0d40 f884 de3d
00000040: 9f0d 6dbe a316 b0bf 6f1e 6a3e 47fb cfbf
00000050: 0623 4e3f d849 4dbf 9841 f7bf c29e be3f
00000060: a019 c53a 883d 9e3f 41d0 293e 34bb f13f
00000070: 7889 d9bd 7648 06bf e32d 1840 018e d7be
00000080: fe29 abbe 2028 863c 31ad 063f 02b7 aa3f
00000090: 5a19 363f 8ca5 82be ea74 9e3d 7395 ea3d
000000a0: 86ee 14be a0c6 febe c995 073f 083b 523d
000000b0: a8c5 3f3e b018 4fbd 90c7 fe3c 0ff4 2bbf
000000c0: 8b9f 83be c0a3 edbd 788b 83bf b463 1ebd
000000d0: 42d0 293f 1210 ddbd f6ef a13f 74d8 373e
000000e0: 5ca1 993d 009b d3bc deaf 59bf b2d3 32be
000000f0: d7c2 99bd 320f 8f3f e5f6 2fbf 107b e8be
00000100: 0997 c43e d896 82bd 1365 10bf 111a 4abe
00000110: b501 1ac0 3678 a73e 4768 93be 44c6 76bd
00000120: 84ed 4540 3c45 5dbe 9109 e4bd 3841 24bf
00000130: 4cf6 333f 7d81 3bbd 8897 e1be f282 5e3e
00000140: d6ee a1be 2c5a 52be 2325 1b3f e849 0c3f
00000150: 60bb 2ebf e65e c5be 40f5 273d a899 cf3e
00000160: 7d39 dabe 886e bb3c 8192 b7be 4a8a a33e
00000170: 8073 5abd 9b04 bebe b831 f83f 589e 9fbd
