model_checkpoints/experiments/overall/fastscnn_128a0.125t2r2pp0.pt (torch, 98455 bytes, 151 tensors)

learning_to_down_sample.conv.conv.weight f4 [4, 3, 3, 3]
0	0xbe14bd8b	-0.1452543
1	0xbe197197	-0.14984737
2	0x3da84963	0.082171224
3	0xbe9eec69	-0.31039742
4	0xbeab145c	-0.3341397
5	0xbe199db3	-0.15001564
6	0xbeced052	-0.4039331
7	0xbd3fa119	-0.046784494
8	0xbd59a73b	-0.053138
9	0xbf61ea44	-0.88248086
10	0xbf3fe895	-0.74964267
11	0xbf242c04	-0.6412966
12	0xbf02e2b9	-0.511272
13	0xbeca21a8	-0.39478803
14	0xbeb3ec9b	-0.35141453
15	0xbf326193	-0.69680136
16	0xbee6b665	-0.4506103
17	0xbee47184	-0.44617856
18	0x3f07fb0c	0.5311744
19	0x3ea934e5	0.33048168
20	0xbd9813d4	-0.07425657
21	0x3f2e36d9	0.6805244
22	0x3f0aa60b	0.5415961
23	0x3e9fedc3	0.31236085
24	0x3f38fdc4	0.72262216
25	0x3ec65b23	0.38741407
26	0x3e846b1d	0.2586297
27	0xbeff6e7a	-0.49888974
28	0xbe40231c	-0.18763393
29	0xbb132ddf	-0.0022457761
30	0xbe9c98b9	-0.30585268
31	0x3d678387	0.05652192
32	0x3d1dd821	0.038536195
33	0x3e636e9a	0.2221016
34	0x3ea6e626	0.32597464
35	0xbeb90a96	-0.3614089
36	0xbf174f5a	-0.59105456
37	0xbf0b785d	-0.54480535
38	0xbf0d58a3	-0.55213374
39	0x3d1f7868	0.038933188
40	0x3dcb818b	0.09936818
41	0xbe450ac4	-0.19242388
42	0x3fa63349	1.2984401
43	0x3f6b58c1	0.919323
44	0x3e437ee6	0.19091377
45	0xbe80d23e	-0.25160402
46	0xbefb7b4b	-0.49117503
47	0xbed6165d	-0.41813937
48	0xbda0fa3a	-0.07860227
49	0xbda3a939	-0.07991261
50	0xbd9b2b3f	-0.07576608
51	0x3f53f8ee	0.8280171
52	0x3f5a9b43	0.8539316
53	0xbe6f554d	-0.23372383
54	0xbe680500	-0.22658157
55	0xbdb8ae41	-0.09017611
56	0x3d65eca1	0.05613387
57	0xbf6cc598	-0.92489004
58	0xbed72e97	-0.42027733
59	0x3eca3dd4	0.39500296
60	0xbe295e7a	-0.16539946
61	0x3e7b41c0	0.245368
62	0x3f6af656	0.9178213
63	0xbef21b2e	-0.4728636
64	0xbf0a59d3	-0.5404331
65	0xbd5df128	-0.054185063
66	0xbefaea87	-0.49007055
67	0xbe6b9110	-0.23004556
68	0x3e4fab3c	0.20280164
69	0x3e222225	0.15833338
70	0x3e984c46	0.29745692
71	0x3fae62d7	1.3623914
72	0xbe226022	-0.15856984
73	0xbec01523	-0.37516126
74	0xbe7c9284	-0.24665266
75	0xbeba907a	-0.36438352
76	0xbedea09d	-0.43481913
77	0x3dc1230f	0.09430515
78	0x3e3a28de	0.18179652
79	0x3e3dbdb5	0.18529399
80	0x3f89c3e4	1.0762906
81	0xbd073cbf	-0.033016916
82	0x3e2941e2	0.16529039
83	0x3d1fada1	0.038983945
84	0xbe9bcf78	-0.30431724
85	0xbd8bffca	-0.06835897
86	0xbdf35ee1	-0.11883331
87	0xbe6502c1	-0.22364332
88	0x3c34d866	0.0110379215
89	0xbf059c7b	-0.52191895
90	0xbf018e20	-0.5060749
91	0x3f01292e	0.5045346
92	0x3f8257b6	1.0183017
93	0xbedc327f	-0.43007275
94	0x3ee58e20	0.44834995
95	0x3f46ad92	0.776086
96	0x3b83a127	0.0040170136
97	0x3e2c95c1	0.16854002
98	0x3e166811	0.14688136
99	0xbf0b0f75	-0.5432046
100	0x3e7b5aa1	0.24546291
101	0x3e88c370	0.26711607
102	0xbec363e0	-0.38162136
103	0xbd644104	-0.055726066
104	0x3e7f2604	0.24916846
105	0xbc89046d	-0.016725743
106	0x3e37b7c9	0.17941202
107	0xbebc0810	-0.367249

learning_to_down_sample.conv.bn.weight f4 [4]
0	0x3ebc7e7a	0.36815244
1	0x3f83979d	1.0280644
2	0x40496b7f	3.147186
3	0x3fe3d10e	1.7798173

learning_to_down_sample.conv.bn.bias f4 [4]
0	0x3f93775e	1.1520803
1	0x3e827094	0.25476515
2	0x3d9ebb54	0.07750574
3	0xbe390cf5	-0.18071349

learning_to_down_sample.conv.bn.running_mean f4 [4]
0	0x3f2069cb	0.6266143
1	0x3e6a5681	0.22884561
2	0x3d643d28	0.055722386
3	0x3ece1cf2	0.4025646

learning_to_down_sample.conv.bn.running_var f4 [4]
0	0x404ad908	3.1694965
1	0x4087d23d	4.244414
2	0x40a899a8	5.268757
3	0x3ffa8d3f	1.9574355

learning_to_down_sample.dsconv1.0.weight f4 [4, 1, 3, 3]
0	0xbe6c6270	-0.23084426
1	0x3f1c11fa	0.6096493
2	0x3f982e36	1.1889102
3	0xbea00dde	-0.3126058
4	0xbcdf7c72	-0.02728102
5	0x3e9b8f9d	0.30383006
6	0xbee30eb0	-0.44347143
7	0xbef26b67	-0.47347566
8	0xbf0b1aec	-0.54337955
9	0x3da70f44	0.081572086
10	0x3f05c769	0.522574
11	0x3f59ca3b	0.85074204
12	0xbe016bdd	-0.12638803
13	0xbdaefb59	-0.085440345
14	0x3f000eea	0.5002276
15	0xbf2388a1	-0.63880354
16	0xbf6aac3b	-0.9166905
17	0xbea08c21	-0.3135691
18	0x3e0aa17c	0.13538164
19	0x3dccfad5	0.1000878
20	0x3e26e47c	0.16298097
21	0xbe6fecad	-0.23430128
22	0xbf7176bd	-0.94321805
23	0xbf466aeb	-0.77506894
24	0x3b95169c	0.0045498144
25	0xbf8cdd78	-1.1005087
26	0xbf9d876c	-1.2306952
27	0xbd98bece	-0.07458268
28	0xbef9d0bb	-0.4879206
29	0xbed66bae	-0.41879028
30	0xbf21e42c	-0.6323879
31	0xbe72aa5e	-0.23697802
32	0x3bd2aeaf	0.0064295153
33	0xbf0ec4f3	-0.5576927
34	0x3e69922b	0.22809665
35	0x3ee6cdba	0.45078832

learning_to_down_sample.dsconv1.1.weight f4 [4]
0	0x3ff082a9	1.8789874
1	0x3f9b71c4	1.2144094
2	0x3f626cca	0.8844725
3	0x3f11e715	0.5699323

learning_to_down_sample.dsconv1.1.bias f4 [4]
0	0xb9c9df5d	-0.00038504126
1	0xbd0faf8c	-0.035079524
2	0x3da0b4b6	0.07846968
3	0xbc767e6a	-0.015044788

learning_to_down_sample.dsconv1.1.running_mean f4 [4]
0	0x3d6fda45	0.058557767
1	0xbd6ccb25	-0.05781092
2	0xc076c9fb	-3.856078
3	0xbf47a207	-0.7798161

learning_to_down_sample.dsconv1.1.running_var f4 [4]
0	0x3ecf4981	0.40485767
1	0x4022a2ca	2.5411859
2	0x41ddb53a	27.71349
3	0x400a6494	2.1623888

learning_to_down_sample.dsconv1.2.weight f4 [6, 4, 1, 1]
0	0x3fbdee92	1.4838431
1	0xbe8edb4a	-0.2790168
2	0xbd18ddff	-0.037321087
3	0x3e35280a	0.17691055
4	0x3fa0e4e1	1.2569848
5	0xbc3fdea1	-0.011710794
6	0xbdd6aab7	-0.1048178
7	0x3ee20aeb	0.44148955
8	0x3fa81b2c	1.3133292
9	0xbeeb9fe0	-0.46020412
10	0x3daaa5cc	0.083324045
11	0x3ee14cae	0.44003814
12	0x3db7b557	0.08970135
13	0x3ddf576d	0.10905347
14	0xbf8b05ba	-1.0861123
15	0x3f47c51f	0.7803516
16	0xbcb43c49	-0.022001402
17	0x3f6c560f	0.92318815
18	0xbf36e821	-0.7144795
19	0x3f166a9b	0.5875642
20	0x3f88bdb3	1.0682892
21	0xbf496ce7	-0.78681797
22	0xbe6368f5	-0.22208007
23	0x3d62e636	0.055395328

learning_to_down_sample.dsconv1.3.weight f4 [6]
0	0x3f10fec1	0.56638724
1	0x3f4ab7ae	0.7918652
2	0x3ead69d2	0.33869797
3	0x3f894e16	1.0726955
4	0x4003a103	2.0567024
5	0x400767f4	2.1157198

learning_to_down_sample.dsconv1.3.bias f4 [6]
0	0x3f78caad	0.9718426
1	0x3f3ccc11	0.7374888
2	0x3f9e1136	1.2349002
3	0x3eead3e8	0.45864797
4	0x3ee9544a	0.4557212
5	0x3e38ffde	0.18066356

learning_to_down_sample.dsconv1.3.running_mean f4 [6]
0	0x3b6f8c56	0.0036552153
1	0xbc743bc2	-0.0149068255
2	0x3c7fc23b	0.015610273
3	0xbdce7003	-0.10079958
4	0xbdc73010	-0.09725964
5	0x3c12a265	0.008949851

learning_to_down_sample.dsconv1.3.running_var f4 [6]
0	0x40e79d31	7.2379384
1	0x40b9b7c4	5.8036823
2	0x40b07d66	5.5153074
3	0x3f8e4a7a	1.1116478
4	0x3f82045f	1.0157584
5	0x40697ab0	3.6481133

learning_to_down_sample.dsconv2.0.weight f4 [6, 1, 3, 3]
0	0xbdad08ba	-0.0844893
1	0xbdc8322c	-0.097751945
2	0xbea61528	-0.32438016
3	0xbec0ca56	-0.3765437
4	0xbf67cf99	-0.90551144
5	0xbf9debb6	-1.2337558
6	0xbecbda71	-0.39815095
7	0xbf06e746	-0.52696645
8	0xbf1d9332	-0.6155273
9	0xbd5f1483	-0.05446292
10	0xbf5b879f	-0.85753816
11	0xbfa88392	-1.3165152
12	0xbd9dd467	-0.07706528
13	0xbe0ef763	-0.13961558
14	0xbf5aecc7	-0.85517544
15	0x3d93a000	0.07208252
16	0x3da4ce9c	0.0804722
17	0x3d0d25df	0.034459945
18	0x3e847e87	0.25877783
19	0x3fadbe70	1.3573742
20	0x3f4ad02e	0.79223907
21	0x3eedd27a	0.46449643
22	0x3f2cff2d	0.6757687
23	0xbe4b5fbc	-0.19860739
24	0x3e07314e	0.13202402
25	0xbe6653fc	-0.22492975
26	0xbf0967f5	-0.5367425
27	0x3d23a1a2	0.039949067
28	0xbf11ea70	-0.5699835
29	0xbf66efb6	-0.9020952
30	0xbe8596f8	-0.26091743
31	0xbf5f7542	-0.87288296
32	0xbf399043	-0.7248575
33	0x3e0c8ac7	0.13724814
34	0x3dd0de98	0.101987064
35	0x3df75e76	0.12078564
36	0xbe3c9ee7	-0.18419991
37	0xbe37f039	-0.17962731
38	0xbdef28fa	-0.116777375
39	0xbedcd341	-0.43129924
40	0xbf568f7f	-0.8381271
41	0xbf4ff7fd	-0.81237775
42	0xbeca9f88	-0.39574838
43	0xbf2e8eab	-0.68186444
44	0xbf0414d2	-0.5159427
45	0x3e59dd72	0.21275881
46	0x3d2ae97e	0.04172658
47	0x3d1795e3	0.037008177
48	0x3f190435	0.59772044
49	0x3f4e27f8	0.8052974
50	0x3f176fe0	0.5915508
51	0x3f25a86e	0.6471013
52	0x3f82946f	1.0201548
53	0x3ed92fb5	0.4241921

learning_to_down_sample.dsconv2.1.weight f4 [6]
0	0x3f9ddd74	1.2333207
1	0x3f88e1a0	1.0693855
2	0x3fc0a356	1.5049846
3	0x3f47877b	0.779411
4	0x3f668a42	0.90054715
5	0x3f9a20cf	1.2041262

learning_to_down_sample.dsconv2.1.bias f4 [6]
0	0xbc2689b3	-0.010164666
1	0xbc5dc1a1	-0.013534934
2	0xbca1c7ba	-0.019748557
3	0xbca578f2	-0.020199273
4	0x3dab04e5	0.08350543
5	0xbd38b5b9	-0.04509518

learning_to_down_sample.dsconv2.1.running_mean f4 [6]
0	0xc08ce239	-4.402615
1	0xc0188be4	-2.3835382
2	0x40493c7a	3.1443162
3	0xbfe20d10	-1.7660236
4	0xc07bac3e	-3.9323878
5	0x4059820d	3.3985627

learning_to_down_sample.dsconv2.1.running_var f4 [6]
0	0x3fb4b14b	1.4116606
1	0x3ff1eefd	1.8901058
2	0x3f9482d2	1.1602423
3	0x403584b8	2.8362255
4	0x4101047f	8.063598
5	0x4111a783	9.103396

learning_to_down_sample.dsconv2.2.weight f4 [8, 6, 1, 1]
0	0xbe4ba213	-0.19886045
1	0xbf853d39	-1.0409309
2	0xbe87937b	-0.26479706
3	0xbf647921	-0.8924733
4	0xbe97bfdf	-0.29638574
5	0xbe1357b2	-0.14388922
6	0xbe841c01	-0.25802615
7	0x3f238afd	0.63883954
8	0x3fb85b41	1.4402848
9	0x3e38b256	0.1803678
10	0xbeb3770e	-0.3505177
11	0x3d84a506	0.06476788
12	0x3d688817	0.05677041
13	0x3f0fa9be	0.5611838
14	0xbf5b1b90	-0.8558893
15	0xbf0842a2	-0.53226674
16	0xbf2e7209	-0.68142754
17	0x3eba3c0e	0.36373943
18	0xbef1ea7a	-0.47249204
19	0x3e28e8a7	0.16495
20	0x3e523f95	0.20532067
21	0xbd9a4455	-0.075325646
22	0x3f79f674	0.9764168
23	0xbf8cd8d9	-1.1003677
24	0x3eb91498	0.36148524
25	0x3ef29332	0.47377926
26	0x3f73fd02	0.95307934
27	0xbf5cc7eb	-0.8624255
28	0xbe3ced65	-0.18449934
29	0x3f16b386	0.5886768
30	0x3f157cbb	0.5839345
31	0x3f8faa2d	1.1223809
32	0xbea661c2	-0.32496458
33	0xbe882659	-0.26591757
34	0xbdee8ee0	-0.11648345
35	0xbf28d80a	-0.6595465
36	0x3fb3ad98	1.4037352
37	0xbe60c7dd	-0.21951242
38	0x3f4b6144	0.7944529
39	0x3eebedf4	0.4607998
40	0xbe857e14	-0.26072752
41	0x3eb76d89	0.35825756
42	0xbf532a0a	-0.8248602
43	0x3e0dc74c	0.13845557
44	0x3e6cac7d	0.23112674
45	0x3e42d9b9	0.19028367
46	0x3ebc47cc	0.36773527
47	0x3f1699ca	0.58828413

learning_to_down_sample.dsconv2.3.weight f4 [8]
0	0x3f17cea1	0.59299666
1	0x3f996b83	1.1985935
2	0x3f40c5ff	0.7530212
3	0x3fe1a6b7	1.7629002
4	0x3f90f238	1.1323919
5	0x3f8a7653	1.081736
6	0x3f8e999f	1.1140631
7	0x3f923833	1.1423401

learning_to_down_sample.dsconv2.3.bias f4 [8]
0	0x3f87d082	1.0610507
1	0x3f9492c2	1.1607287
2	0x3f4c4e7c	0.7980726
3	0xbe8b1363	-0.27163228
4	0x3f0d1d67	0.5512299
5	0x3f4d7f17	0.8027205
6	0x3f1922d9	0.598188
7	0x3e7a54f7	0.24446474

learning_to_down_sample.dsconv2.3.running_mean f4 [8]
0	0x3cacf019	0.021110581
1	0xbd8ff151	-0.07028449
2	0xbd5c84a9	-0.053837452
3	0x3e066584	0.13124663
4	0xbd5afb5d	-0.053462375
5	0x3c2e6b03	0.010645631
6	0xbd981687	-0.07426172
7	0x3b176620	0.0023101643

learning_to_down_sample.dsconv2.3.running_var f4 [8]
0	0x40093e61	2.1444323
1	0x406f771a	3.7416444
2	0x4084d2f8	4.150753
3	0x402e4d94	2.723485
4	0x400cede5	2.20202
5	0x40b1d712	5.5575037
6	0x3fbb01a1	1.4609872
7	0x4010d9b0	2.2632866

global_feature_extractor.first_block.0.conv.0.weight f4 [16, 8, 1, 1]
0	0x3ecdf632	0.40226895
1	0x3f0d94ea	0.5530535
2	0xbd1c0539	-0.03809092
3	0xbf1a9c8d	-0.6039513
4	0x3e5b59bd	0.21420951
5	0xbf2d0838	-0.67590666
6	0x3c344725	0.01100329
7	0x3e3498f2	0.17636469
8	0x3f84b7f4	1.0368638
9	0x3e10b483	0.1413136
10	0x3f082f58	0.5319724
11	0xbef4f6f0	-0.47844648
12	0x3de4b2b6	0.11166899
13	0xbdd26531	-0.10273207
14	0xbeb39a94	-0.3507887
15	0xbddca14d	-0.10772953
16	0x3e9276ab	0.2860616
17	0x3fbb00ba	1.4609597
18	0xbdcbe95c	-0.09956619
19	0xbda82414	-0.08210006
20	0x3ebd5775	0.36980787
21	0xbf09f9c2	-0.53896725
22	0xbf010e48	-0.50412416
23	0x3f2346cc	0.637799
24	0xbeb17287	-0.3465769
25	0xbeaef298	-0.3416946
26	0xbf427f2e	-0.7597531
27	0x3e09f7ee	0.13473484
28	0xbf3f04c3	-0.7461664
29	0xbe8adabb	-0.27120003
30	0xbd01cd4a	-0.03168992
31	0x3eb4e82c	0.35333383
32	0x3f2d52d9	0.6770454
33	0x3f1b25ed	0.60604745
34	0x3e89a442	0.2688313
35	0xbe623bef	-0.22093175
36	0x3e8ef964	0.27924645
37	0xbe9629ed	-0.29328862
38	0xbf0d4044	-0.55176187
39	0x3f0aa8a8	0.541636
40	0xbf62ece7	-0.88642734
41	0x3e4cf0c1	0.20013715
42	0xbedffad1	-0.43746045
43	0x3f0c0bd3	0.5470554
44	0xbe1a94a3	-0.15095763
45	0x3e177c55	0.14793523
46	0x3de159cc	0.110034555
47	0xbed1208e	-0.4084515
48	0x3ecf8ee4	0.40538704
49	0x3e3d7f7b	0.18505661
50	0x3ee468eb	0.44611296
51	0x3d5619a3	0.052270543
52	0x3ebab42d	0.36465588
53	0xbde7c8c9	-0.113175936
54	0x3d96cb04	0.07362941
55	0x3f192704	0.5982516
56	0x3d0f2651	0.03494865
57	0x3d02e371	0.031955186
58	0xbecb1074	-0.3966099
59	0x3e976521	0.29569343
60	0x3f14e0db	0.581556
61	0x3e5682ba	0.20948306
62	0x3f39fb78	0.72649336
63	0x3e325d97	0.17418514
64	0x3e8799db	0.2648457
65	0xbe1c5568	-0.15266955
66	0xbe9bdbf8	-0.3044126
67	0xbb9d5091	-0.004800864
68	0xbeb84677	-0.3599126
69	0x3e881976	0.26581925
70	0x3f3e354c	0.74300075
71	0x3c867efc	0.016417973
72	0xbefee8bd	-0.4978694
73	0x3e36ad81	0.17839624
74	0xbdf8fb62	-0.121573225
75	0x3ebf917b	0.3741568
76	0xbd8c5656	-0.06852405
77	0xbbf07e91	-0.0073393066
78	0xbe5cf025	-0.21575983
79	0xbf20d573	-0.628257
80	0xbeab134d	-0.33413163
81	0xbf8ab132	-1.0835326
82	0x3df60277	0.12012189
83	0xbed2f3d5	-0.41201654
84	0x3df98d71	0.12185181
85	0x3f41455d	0.75496465
86	0x3e9d7f7c	0.30761325
87	0xbcd06e86	-0.025443327
88	0xbf23b0d1	-0.63941675
89	0xbeea525d	-0.45765963
90	0xbec2b032	-0.3802505
91	0x3f3e7ccf	0.7440919
92	0x3ec1ddbb	0.3786448
93	0x3ef63a16	0.4809119
94	0x3e834f50	0.25646448
95	0xbdb9614d	-0.09051762
96	0xbeb6bd57	-0.3569133
97	0xbf9d6ea9	-1.2299396
98	0x3e6628c7	0.22476493
99	0xbdecbbad	-0.11559234
100	0xbe8a497c	-0.2700919
101	0x3f1a77ce	0.6033906
102	0x3c87954c	0.016550682
103	0xbe5b5c3c	-0.21421903
104	0xbe19f3e6	-0.15034446
105	0xbf83f1cb	-1.0308164
106	0xbedd85a9	-0.43266037
107	0x3f9b2189	1.2119609
108	0xbde0408f	-0.109498136
109	0x3d24aa5c	0.04020153
110	0x3ec52888	0.38507485
111	0x3e235cec	0.15953416
112	0xbf25a0f5	-0.64698726
113	0x3eb48c23	0.35263166
114	0xbee2de66	-0.44310302
115	0x3dcaa4e7	0.09894734
116	0xbe31ee6f	-0.17376111
117	0xbf1a9feb	-0.60400265
118	0xbf2822fd	-0.6567839
119	0xbe87b76e	-0.26507133
120	0xbea0a48e	-0.31375545
121	0x3e187cf1	0.14891411
122	0x3e8f126d	0.27943745
123	0xbe38fe79	-0.18065824
124	0xbe48553a	-0.19563761
125	0xbde45fcf	-0.111510865
126	0x3e799760	0.24374151
127	0x3df5adce	0.11996041

global_feature_extractor.first_block.0.conv.1.weight f4 [16]
0	0x3f4c4f2d	0.7980831
1	0x3fe6a38a	1.8018658
2	0x3eca4507	0.3950579
3	0x3f3e5cb3	0.743602
4	0x3fd6346c	1.6734748
5	0x3f11938c	0.56865764
6	0x3f5e6059	0.86865765
7	0x3fdf0979	1.7424766
8	0x3f6ca055	0.9243215
9	0x3f8a2ce3	1.0794948
10	0x3fe395a1	1.7780038
11	0x3f5fb9d6	0.8739294
12	0x3e50a1c5	0.2037421
13	0x3f62fb80	0.8866501
14	0x3f800149	1.0000392
15	0x3f812e39	1.0092231

global_feature_extractor.first_block.0.conv.1.bias f4 [16]
0	0x3efe462e	0.49662918
1	0x3e942476	0.28934067
2	0x3f7d3595	0.98909885
3	0x3e826859	0.25470236
4	0xbbe1fdca	-0.006896709
5	0x3f45b002	0.7722169
6	0x3e91de87	0.28490087
7	0x3cd3a7e2	0.025836889
8	0xbe952eb3	-0.2913719
9	0x3e55b1a5	0.20868547
10	0xbe509fc8	-0.20373452
11	0xbee0a566	-0.4387619
12	0x3f7b5d17	0.9818892
13	0xbf13737e	-0.575981
14	0x3ea260b5	0.31714407
15	0xbdcb4c1d	-0.09926627

global_feature_extractor.first_block.0.conv.1.running_mean f4 [16]
0	0x3ee35482	0.44400412
1	0x3f8def30	1.1088619
2	0x3fef10aa	1.867696
3	0xc001d4ce	-2.0286136
4	0x3fb5aaa5	1.4192702
5	0xbf5374aa	-0.8259989
6	0x3fcf5908	1.6199045
7	0x3f9dc91c	1.2326999
8	0x3ecd16cb	0.40056452
9	0xbf3dade4	-0.7409346
10	0xbf6d5f9e	-0.92724025
11	0xbe996f6b	-0.29967818
12	0xbfd5855a	-1.6681321
13	0xbf614df5	-0.8800958
14	0xbfefb357	-1.8726605
15	0x39af091f	0.00033385397

global_feature_extractor.first_block.0.conv.1.running_var f4 [16]
0	0x3ff5d5c9	1.9205867
1	0x3f9766e1	1.1828271
2	0x406e2ea1	3.721596
3	0x3f89ecae	1.0775354
4	0x40069ee8	2.1034489
5	0x3fa7de51	1.311472
6	0x3f5269be	0.821926
7	0x3f2b5884	0.6693194
8	0x3f0e3c85	0.55561095
9	0x3f1053f7	0.5637812
10	0x3ff4bd0e	1.9120195
11	0x3f8b9914	1.0906091
12	0x402425b8	2.5648022
13	0x3fe8eeea	1.8197911
14	0x3f4103d0	0.7539644
15	0x3db4f650	0.08836043

global_feature_extractor.first_block.0.conv.3.weight f4 [16, 1, 3, 3]
0	0xbf7fbd98	-0.9989867
1	0xbf1f8459	-0.6231132
2	0xbedf61df	-0.43629357
3	0xbea9717a	-0.33094388
4	0xbc8b4da6	-0.0170048
5	0x3ebfc585	0.37455383
6	0x3e83f8a9	0.2577565
7	0x3e989a2e	0.2980513
8	0x3d952e7c	0.07284257
9	0xbf168ac2	-0.5880548
10	0xbf6daabb	-0.9283864
11	0xbf276568	-0.6538911
12	0x3e85f15b	0.26160702
13	0xbe2cb317	-0.16865192
14	0xbf1fa391	-0.6235896
15	0xbd9de42f	-0.07709538
16	0x3dea8b2b	0.114523254
17	0xbddfa1ae	-0.1091951
18	0xbdb2b1e4	-0.08725336
19	0xbec24dcb	-0.37949976
20	0x3d9646ad	0.07337699
21	0xbf6316f8	-0.8870692
22	0xbf5bb9b5	-0.8583024
23	0xbf056d09	-0.521195
24	0xbec512ba	-0.3849085
25	0xbf433f1e	-0.76268184
26	0xbf255bea	-0.64593375
27	0x3e814d79	0.2525442
28	0x3e879ae8	0.26485372
29	0xbf493b93	-0.7860653
30	0xbf628de0	-0.88497734
31	0xbe203aa3	-0.15647368
32	0xbf339c1c	-0.7016008
33	0x3d1e9312	0.038714476
34	0xbe3c64ab	-0.18397777
35	0x3ebcb932	0.36860043
36	0xbd4ece01	-0.05048943
37	0x3edd6dad	0.43247738
38	0x3e87d853	0.2653223
39	0xbd42fcd0	-0.047604382
40	0x3f9bdc8a	1.2176678
41	0x3e4c6d7b	0.19963638
42	0xbcf456d5	-0.029826561
43	0x3f070389	0.5273977
44	0x3ca0eec8	0.01964511
45	0xbe9deee4	-0.30846322
46	0x3ec793f8	0.3898008
47	0x3f50a6d5	0.81504565
48	0xbed12f21	-0.4085627
49	0x3ed2208a	0.4104045
50	0x3f5330fe	0.8249663
51	0xbe8571d3	-0.26063403
52	0x3e717e81	0.23583414
53	0x3f1ca843	0.61194247
54	0x3e492bdc	0.19645637
55	0x3eb0b062	0.3450957
56	0x3f252168	0.645041
57	0x3e00bf0d	0.1257288
58	0x3e648c3d	0.22319122
59	0xbdca702b	-0.098846756
60	0xbea80a30	-0.32820272
61	0xbe38ef27	-0.1805998
62	0xbe1624bb	-0.14662449
63	0xbe9c6be8	-0.30551076
64	0xbf0cec40	-0.5504799
65	0xbecbca52	-0.39802796
66	0xbf1fe2b6	-0.6245531
67	0xbe3658d5	-0.17807324
68	0xbed7468b	-0.42046008
69	0x3d835daf	0.06414353
70	0xbec17cf1	-0.37790635
71	0xbdc4c75d	-0.09608338
72	0xbca08de0	-0.019598901
73	0xbe457bd7	-0.19285522
74	0x3f2cf535	0.67561656
75	0x3eb51402	0.35366827
76	0x3d6383fb	0.05554579
77	0x3ebf8028	0.37402463
78	0xbc7cc4c8	-0.015427776
79	0xbec3672d	-0.38164654
80	0xbed02ff6	-0.4066159
81	0x3ea72598	0.3264587
82	0x3e96a39c	0.294217
83	0xbd25a33f	-0.040438887
84	0xbeab0221	-0.33400062
85	0xbdc0bbaa	-0.09410794
86	0x3d955e33	0.07293358
87	0x3dfd3869	0.12364275
88	0xbf1370c5	-0.5759395
89	0xbf117fef	-0.56835836
90	0x3da78b9a	0.08180924
91	0xbf0bf0e1	-0.5466443
92	0xbf3bb852	-0.73328125
93	0xbd9f13e4	-0.07767466
94	0xbf4433cc	-0.76641536
95	0xbf4f6efa	-0.8102871
96	0xbe3b4b0c	-0.18290347
97	0xbebef8c4	-0.37299168
98	0xbe69873b	-0.22805493
99	0x3e636c09	0.22209181
100	0x3d6ad14d	0.05732851
101	0x3f03741a	0.5134903
102	0x3f371b3c	0.7152593
103	0x3ed3eb43	0.41390428
104	0x3e40421a	0.18775216
105	0x3e9374c9	0.28800038
106	0xbd11a99e	-0.03556215
107	0xbf6bb8d1	-0.9207888
108	0xbf345878	-0.7044749
109	0xbf98fcd4	-1.1952157
110	0xbf093abb	-0.5360524
111	0xbe139a36	-0.14414296
112	0xbee4237f	-0.4455833
113	0x3da898ec	0.082322925
114	0xbdda9220	-0.106724024
115	0xbe9c7681	-0.3055916
116	0xbe92d33e	-0.2867679
117	0xbd583cf0	-0.05279249
118	0x3e1996f9	0.14998998
119	0x3e949a79	0.29024103
120	0xbd2f5550	-0.04280597
121	0x3f1720ff	0.59034723
122	0x3f1cf866	0.61316526
123	0x3f2fae06	0.68624914
124	0x3f768929	0.9630304
125	0x3f40fe5e	0.75388134
126	0x3dc837e8	0.09776288
127	0x3ead7088	0.33874917
128	0x3deb8913	0.11500754
129	0x3edaeff7	0.42761204
130	0x3f4b2d6c	0.79366183
131	0x3f0b89c2	0.54507077
132	0x3e89e1a9	0.26929978
133	0x3ed903b5	0.4238564
134	0x3eef6c4a	0.46762305
135	0x3b088c42	0.0020835553
136	0x3d3a11f9	0.045427296
137	0x3e07eb19	0.13273276
138	0x3e2c728a	0.16840568
139	0xbea95178	-0.33069968
140	0xbdb7421a	-0.08948155
141	0xbe0fc5a6	-0.1404024
142	0xbe8e3fcb	-0.27783045
143	0xbe62f581	-0.22163965

global_feature_extractor.first_block.0.conv.4.weight f4 [16]
0	0x3f787887	0.9705891
1	0x3f7556af	0.95835394
2	0x3f9ed3a5	1.2408339
3	0x3f27bb78	0.6552043
4	0x3f629c4c	0.8851974
5	0x3f8b928a	1.0904095
6	0x3eb8d74f	0.36101767
7	0x3f55b0fe	0.83473194
8	0x3f044d77	0.516807
9	0x3e117828	0.14205992
10	0x3fb83fc9	1.4394466
11	0x3f6c5cda	0.9232918
12	0x3fbfa95e	1.4973562
13	0x3fe3301e	1.7749059
14	0x3f809623	1.0045818
15	0x3e38f273	0.18061237

global_feature_extractor.first_block.0.conv.4.bias f4 [16]
0	0x3d06e99b	0.032937627
1	0x3ee71596	0.45133656
2	0x3fb9b1b2	1.4507353
3	0xbde3736d	-0.11106
4	0x3f8145d6	1.0099437
5	0xbe38bcc0	-0.18040752
6	0xbe87ee1b	-0.26548848
7	0xbe0ca16e	-0.13733456
8	0x3da294d9	0.07938547
9	0xbec843ac	-0.3911413
10	0x3f6dc2ab	0.92875165
11	0xbecbaea2	-0.39781672
12	0xbe25ca1d	-0.16190381
13	0x3e0d6861	0.13809349
14	0xbdfa1285	-0.122105636
15	0xbf20651f	-0.626543

global_feature_extractor.first_block.0.conv.4.running_mean f4 [16]
0	0xbf2f2553	-0.6841633
1	0xc0057787	-2.0854204
2	0xc085afbc	-4.177702
3	0xbf3e8c92	-0.74433243
4	0x3fe11ce1	1.7586938
5	0x3ff10bab	1.8831686
6	0x3e9ec3b2	0.3100868
7	0xbfebca6e	-1.8421152
8	0x3db489db	0.08815356
9	0xbeeb1aa3	-0.4591876
10	0xbff4d577	-1.9127644
11	0x3e730823	0.23733573
12	0xc045c39f	-3.0900648
13	0x3f27f1b2	0.6560317
14	0x3ff875b6	1.9410923
15	0xbe8729c5	-0.26399055

global_feature_extractor.first_block.0.conv.4.running_var f4 [16]
0	0x3f8ea4ed	1.1144081
1	0x408d8c4b	4.4233756
2	0x3fb53ed1	1.4159795
3	0x3f0c3a56	0.54776514
4	0x404fa4fb	3.2444446
5	0x3f57f95e	0.8436488
6	0x3f224884	0.633919
7	0x4009deb4	2.1542177
8	0x3e941ba9	0.28927353
9	0x3f012109	0.5044103
10	0x40f4492b	7.6339316
11	0x3eb21e7b	0.3478888
12	0x3f1a08c5	0.6016963
13	0x3f8fdd32	1.1239378
14	0x3fc409d6	1.5315502
15	0x3dec4c59	0.11538

global_feature_extractor.first_block.0.conv.6.weight f4 [8, 16, 1, 1]
0	0xbeb57687	-0.35441992
1	0xbf019e21	-0.5063191
2	0x3f305758	0.68883276
3	0xbc8ecbf0	-0.01743123
4	0xbe0416c1	-0.12899305
5	0x3e3cc92c	0.18436116
6	0x3e0915f5	0.13387282
7	0xbd9affc0	-0.07568312
8	0x3e49c0d2	0.19702461
9	0xbdd6245b	-0.10456153
10	0xbf8351d1	-1.0259343
11	0x3f07a51c	0.5298631
12	0xbed9b2cf	-0.42519233
13	0x3ec51358	0.3849132
14	0xbe397ddf	-0.18114422
15	0xbcc5123b	-0.024056545
16	0xbf749f7d	-0.9555586
17	0xbe70a949	-0.23502077
18	0xbbedaf72	-0.0072535807
19	0xbed90478	-0.42386222
20	0xbf02068a	-0.5079123
21	0x3ee8fee3	0.45506963
22	0xbeb93427	-0.36172602
23	0x3f16aefa	0.58860743
24	0xbe4cb1b4	-0.19989663
25	0x3e880aab	0.2657064
26	0x3ee0892f	0.43854663
27	0xbf389b23	-0.7211172
28	0x3f07ee7c	0.53098273
29	0xbdea013e	-0.11426018
30	0x3d2f4b12	0.042796202
31	0xbde2abfb	-0.11067959
32	0x3db89dec	0.09014496
33	0xbe98ae63	-0.29820547
34	0xbf756211	-0.9585276
35	0x3eac083b	0.3360003
36	0x3f0e2ab8	0.55533934
37	0xbe491f5f	-0.19640873
38	0xbe0e5fed	-0.1390378
39	0xbd9251fe	-0.07144545
40	0xbe3ef7e6	-0.18649253
41	0xbd033750	-0.032035172
42	0x3f34b15c	0.7058313
43	0xbe86f216	-0.26356572
44	0x3f27e405	0.65582305
45	0xbf493ea0	-0.78611183
46	0x3c155ea1	0.0091168
47	0x3dcb4a02	0.09926225
48	0xbde2dd3a	-0.11077352
49	0xbc95ada4	-0.018271275
50	0xbf1500d6	-0.582044
51	0x3dc53299	0.09628791
52	0x3ccde7da	0.02513497
53	0x3dab654a	0.08368929
54	0x3e3dd700	0.18539047
55	0xbe911901	-0.2833939
56	0x3f150489	0.58210045
57	0xbdfa5b86	-0.12224488
58	0x3dd1ce66	0.102444455
59	0xbe946e22	-0.28990275
60	0x3f3eb8cc	0.7450073
61	0xbf3a7e72	-0.7284919
62	0x3ce596e1	0.028026046
63	0xbdfad2d4	-0.122472435
64	0x3edacf83	0.42736444
65	0xbe59cde9	-0.21269955
66	0xbf0c8330	-0.54887676
67	0x3e833d30	0.2563262
68	0x3e597d6f	0.21239255
69	0xbf5eb7b7	-0.86999077
70	0xbe27568d	-0.1634161
71	0x3e4bf976	0.1991938
72	0xbe878b77	-0.2647359
73	0x3e466ddf	0.1937785
74	0x3e0cd4d9	0.1375307
75	0xbe71172e	-0.23543999
76	0xbf47467f	-0.77841944
77	0xbe935da8	-0.28782392
78	0xbf1804b8	-0.593822
79	0xbb4b561d	-0.003102667
80	0x3e6db337	0.23212896
81	0xbdec41b4	-0.115359694
82	0xbe2cea1c	-0.1688618
83	0x3dffc19f	0.12488102
84	0xbd34d666	-0.04414978
85	0x3e5a3ae5	0.21311529
86	0xbed612f9	-0.4181135
87	0xbf0e65a3	-0.55623835
88	0x3eae4aa6	0.34041327
89	0x3d981a3d	0.074268796
90	0xbf66a8b6	-0.9010118
91	0x3f272863	0.65296
92	0xbf04c37b	-0.5186078
93	0x3f26ad5a	0.65108263
94	0xbeb7f054	-0.35925543
95	0x3d895b13	0.06706824
96	0x3c832631	0.016009422
97	0x3ebf4151	0.3735452
98	0x3f89270d	1.0715042
99	0xbd8b3f50	-0.06799185
100	0xbf168abb	-0.58805436
101	0x3eb56855	0.35431162
102	0xbebe10ce	-0.37122196
103	0x3de6df32	0.1127304
104	0xbe56677e	-0.20937917
105	0x3d8e107f	0.0693674
106	0xbdce8690	-0.100842595
107	0xbec73aaa	-0.38911945
108	0x3e1e97a1	0.1548753
109	0x3e858aa6	0.26082343
110	0x3f2ff024	0.687258
111	0x3dc1d08e	0.09463607
112	0xbe8d5151	-0.27601102
113	0xbf73d64f	-0.95248884
114	0xbe4d9889	-0.20077719
115	0x3eb7b339	0.35878924
116	0x3ebd0723	0.36919507
117	0xbf0c1aa2	-0.5472814
118	0x3e1b894e	0.15189096
119	0xbeb5489c	-0.3540696
120	0xbd090e13	-0.033460688
121	0x3e005808	0.12533581
122	0xbf25d2dd	-0.64774877
123	0x3e81431c	0.25246513
124	0xbdf5df22	-0.1200545
125	0x3e29ee7a	0.16594878
126	0xbf4295ba	-0.76009715
127	0xbd24e700	-0.04025936

global_feature_extractor.first_block.0.conv.7.weight f4 [8]
0	0x3fa0723c	1.2534862
1	0x3f372460	0.7153988
2	0x401d79ca	2.4605584
3	0x3f5108ca	0.81654036
4	0x3faf68ca	1.3703854
5	0x3f89c303	1.0762638
6	0x3fb0bcb5	1.3807589
7	0x3f696ab4	0.9117844

global_feature_extractor.first_block.0.conv.7.bias f4 [8]
0	0xbc22fb7d	-0.009947655
1	0xbd406156	-0.046967827
2	0x3ca61444	0.020273335
3	0xbc7b87ab	-0.01535217
4	0x3c652e10	0.013988033
5	0x3c37e16f	0.011223181
6	0xbc6087b5	-0.01370423
7	0x3c96cadc	0.018407278

global_feature_extractor.first_block.0.conv.7.running_mean f4 [8]
0	0xbf3cb3f5	-0.7371209
1	0xbe92bb90	-0.28658724
2	0xbed52c3b	-0.41635308
3	0xbf46b28a	-0.7761618
4	0xbfc45cda	-1.5340836
5	0xbfa16384	-1.2608495
6	0x3fd00ad3	1.6253303
7	0xbff27560	-1.894207

global_feature_extractor.first_block.0.conv.7.running_var f4 [8]
0	0x40202bdf	2.5026777
1	0x3f77ae4c	0.9675033
2	0x40c51d43	6.159822
3	0x4017ee6b	2.3739269
4	0x406a4694	3.6605577
5	0x401f3470	2.4875755
6	0x4092a5b6	4.5827284
7	0x3fc483f7	1.5352772

global_feature_extractor.first_block.1.conv.0.weight f4 [16, 8, 1, 1]
0	0xbe04c54a	-0.12965885
1	0xbe740dd9	-0.23833407
2	0x3dea52db	0.11441585
3	0xbea0bf48	-0.31395936
4	0x3f9e1f06	1.2353218
5	0x3ea5aaad	0.32356778
6	0xbe8ebc03	-0.27877817
7	0xbd97b58c	-0.07407674
8	0x3e904300	0.28176117
9	0xbf412d00	-0.7545929
10	0x3e91b706	0.28459948
11	0x3eb97036	0.36218423
12	0x3c5eba7e	0.013594268
13	0x3e70a742	0.23501304
14	0xbeab57f8	-0.33465552
15	0x3f1acc7f	0.60468286
16	0xbeefbf81	-0.46825793
17	0x3eae7dd7	0.34080383
18	0x3f501c20	0.81292915
19	0x3f6dfa6b	0.9296023
20	0xbda55565	-0.08072928
21	0xbf17663f	-0.5914039
22	0xbce7d882	-0.028301481
23	0x3e4b519b	0.19855349
24	0x3e83bb77	0.25728962
25	0xbef111af	-0.47083804
26	0xbe43f357	-0.19135796
27	0x3e8eaae8	0.27864766
28	0x3f861ceb	1.0477575
29	0x3d44de48	0.048063546
30	0xbf7d85a2	-0.9903203
31	0x3eecf931	0.46283868
32	0xbe558661	-0.20852043
33	0xbf681f91	-0.90673167
34	0xbd89f3f4	-0.067359835
35	0xbeb43bb9	-0.35201815
36	0x3f4a10b6	0.7893175
37	0x3e85f8e3	0.26166448
38	0xbcb809ef	-0.022465674
39	0xbf0a2b28	-0.539721
40	0xbe7bb6b0	-0.24581409
41	0xbc8f409a	-0.01748686
42	0x3f36ba44	0.7137797
43	0x3f52e7dc	0.8238504
44	0xbcb99be8	-0.02265735
45	0x3e5bbb7b	0.21458237
46	0xbe445dee	-0.19176456
47	0x3e49e45e	0.19716021
48	0x3ca1227a	0.01966976
49	0x3f03695e	0.5133265
50	0x3f01838b	0.50591344
51	0x3f169333	0.5881836
52	0x3f131fdc	0.5747049
53	0xbeaef54c	-0.34171522
54	0xbe987e12	-0.29783684
55	0x3e513b96	0.20432886
56	0x3f2b1ead	0.6684368
57	0xbe7e47b7	-0.24832045
58	0xbf4378b4	-0.76356053
59	0xbef6757d	-0.4813651
60	0xbc924a3b	-0.017857661
61	0x3ed0c6b0	0.40776587
62	0xbef57c3c	-0.47946346
63	0x3e9467c1	0.28985408
64	0x3e38b9cd	0.18039627
65	0x3d0f127a	0.03492973
66	0xbf770861	-0.9649716
67	0xbf22f740	-0.63658524
68	0x3e60edac	0.21965665
69	0x3e0acbb1	0.13554265
70	0xbea59e61	-0.32347396
71	0x3c8ba7db	0.017047813
72	0xbf03f806	-0.5155033
73	0xbe1a4f8a	-0.15069404
74	0xbba58ac6	-0.0050519435
75	0xbdd16eba	-0.102261975
76	0x3e37962f	0.17928384
77	0xbe416938	-0.18887794
78	0x3dfa9fff	0.12237548
79	0xbf9f63cb	-1.2452329
80	0xbf2378e7	-0.6385636
81	0x3c2c021a	0.010498548
82	0x3ef59ec0	0.4797268
83	0x3de91c40	0.113823414
84	0xbeccb206	-0.3997957
85	0xbf7e6335	-0.9937013
86	0x3d7233da	0.05913148
87	0xbf36b156	-0.71364343
88	0x3e8284df	0.25491998
89	0xbbbe271a	-0.005803001
90	0xbf39d4c0	-0.72590256
91	0xbd9c7bad	-0.07640777
92	0xbea9f02f	-0.33191058
93	0x3e26f9d5	0.16306241
94	0xbd486554	-0.04892476
95	0x3e88682b	0.26641974
96	0x3d8a5a33	0.067554854
97	0xbe73013b	-0.23730938
98	0x3cd89c11	0.026441606
99	0xbee500df	-0.44727227
100	0x3f221bb4	0.6332352
101	0x3ef0a28e	0.4699902
102	0xbf1c5fcb	-0.6108367
103	0x3dcffd70	0.10155761
104	0xbe9e9077	-0.30969593
105	0x3f0c6652	0.5484363
106	0x3f1a3696	0.6023954
107	0x3ebb8796	0.3662688
108	0x3ed02319	0.40651777
109	0xbec270b9	-0.37976626
110	0x3e157584	0.1459561
111	0xbd8de878	-0.069291055
112	0xbd82770b	-0.06370362
113	0x3e5a6f47	0.21331511
114	0xbea780cf	-0.3271546
115	0xbe92ea99	-0.2869461
116	0xbe7443ac	-0.2385394
117	0xbdfc8647	-0.12330299
118	0x3f434f5a	0.76292956
119	0xbf0d653b	-0.5523259
120	0x3e3a230f	0.18177436
121	0x3e8f5884	0.2799722
122	0xbd850e40	-0.064968586
123	0x3e6fe36c	0.23426598
124	0xbf2682a2	-0.6504308
125	0xbe3bfa39	-0.18357171
126	0x3f92ad28	1.1459093
127	0xbf24b343	-0.6433603

global_feature_extractor.first_block.1.conv.1.weight f4 [16]
0	0x3f8ccd36	1.1000125
1	0x3fa00284	1.2500768
2	0x40147bb3	2.32005
3	0x3f40fe8c	0.7538841
4	0x40165b2f	2.3493154
5	0x3ff05ea5	1.8778883
6	0x3f405db9	0.7514301
7	0x3efd0c40	0.49423409
8	0x3fa0224d	1.2510468
9	0x3fbe4158	1.4863691
10	0x3ff95318	1.9478483
11	0x3f1f3b1b	0.6219956
12	0x3f3e7290	0.7439356
13	0x3f161c47	0.586369
14	0x3fc1327f	1.5093535
15	0x3fe50fea	1.7895482

global_feature_extractor.first_block.1.conv.1.bias f4 [16]
0	0xbe2ba6a4	-0.16762787
1	0x3e9f7ae5	0.3114845
2	0xbce251c5	-0.027626881
3	0x3f2551c7	0.6457791
4	0xbd82829c	-0.06372568
5	0x3e39da55	0.18149693
6	0xbf089f7e	-0.53368366
7	0xbf428ddf	-0.7599773
8	0xbe3a59f5	-0.18198378
9	0xbe8b421d	-0.27198878
10	0xbe88c6b2	-0.26714092
11	0x3f1a669b	0.60312814
12	0x3f17ff0f	0.59373564
13	0x3f1f4ae0	0.62223625
14	0x3e5f51eb	0.21808593
15	0xbe8fcd72	-0.2808643

global_feature_extractor.first_block.1.conv.1.running_mean f4 [16]
0	0x3d301b8a	0.042995013
1	0x3d5281b3	0.051393222
2	0xbc52a46a	-0.012856582
3	0x3d477098	0.048691362
4	0x3d5937b0	0.053031623
5	0x3c5c4aee	0.013445599
6	0xbc3462c8	-0.011009879
7	0x3c570d6f	0.013125761
8	0xbb7f2f3f	-0.0038938073
9	0xbc2c5438	-0.010518126
10	0xbc89fe0a	-0.016844768
11	0xbc5542a4	-0.013016377
12	0x3d2d0941	0.042245153
13	0xbc92f22c	-0.017937742
14	0xbd1769f6	-0.036966287
15	0xbd6ff97d	-0.05858754

global_feature_extractor.first_block.1.conv.1.running_var f4 [16]
0	0x4090b6b0	4.5223007
1	0x402e7064	2.7256098
2	0x416d667a	14.837519
3	0x40e68362	7.203538
4	0x3fa06898	1.253192
5	0x40f5b2b4	7.6780643
6	0x411e6bdb	9.901332
7	0x41099f4a	8.601389
8	0x40d5f472	6.6860895
9	0x3fc9c924	1.5764508
10	0x40c476a6	6.1394835
11	0x40caa54f	6.3326793
12	0x401d81e9	2.461054
13	0x41023827	8.138709
14	0x40cc5059	6.384808
15	0x41114e35	9.0815935

global_feature_extractor.first_block.1.conv.3.weight f4 [16, 1, 3, 3]
0	0x3e859080	0.26086807
1	0x3f4abdef	0.79196066
2	0x3f6c6ecb	0.92356557
3	0x3e9a87f0	0.30181837
4	0xbf05dbf5	-0.5228875
5	0xbf11de8a	-0.5698019
6	0xbe4e40ab	-0.20141856
7	0x3e0edc81	0.13951303
8	0x3cf3d982	0.029766802
9	0xbe2c30e2	-0.16815522
10	0xbe862469	-0.26199654
11	0x3ee856d5	0.45378748
12	0xbebf772a	-0.37395602
13	0xbf22d3fe	-0.63604724
14	0xbed2bbf4	-0.41159022
15	0x3dca45ef	0.0987662
16	0xbeb20fae	-0.34777588
17	0xbf4f1047	-0.8088421
18	0xbe8ac004	-0.2709962
19	0xbe0ca8c1	-0.1373625
20	0xbee1ba28	-0.44087338
21	0xbf708b60	-0.9396267
22	0x3eb407b9	0.35162142
23	0xbf535439	-0.8255039
24	0xbe823960	-0.254344
25	0xbf0217dd	-0.5081766
26	0x3b76e3d9	0.003767243
27	0xbf04bbd6	-0.51849115
28	0xbf02a5a5	-0.51034003
29	0xbf6047d8	-0.87609625
30	0xbed65e99	-0.41869047
31	0xbf1e5e06	-0.6186222
32	0xbed1c687	-0.40971777
33	0x3e457931	0.19284512
34	0x3e568027	0.20947324
35	0x3f203aa1	0.6258946
36	0x3eb85fd1	0.36010602
37	0x3f477fba	0.7792927
38	0x3f0d232e	0.55131805
39	0x3ef02326	0.46901816
40	0xbe732fb1	-0.23748662
41	0x3c83dd8d	0.016096855
42	0x3e2e4f53	0.17022447
43	0x3f170154	0.589864
44	0x3e5b74f6	0.21431336
45	0x3f00a927	0.50258106
46	0xbf249a65	-0.6429809
47	0xbf3962b0	-0.7241621
48	0x3e506bcb	0.2035362
49	0x3db60913	0.088884495
50	0x3e2076ef	0.1567037
51	0xbcdd88eb	-0.027042827
52	0x3f12a8d6	0.57288873
53	0xbe9b07ce	-0.30279392
54	0xbf0843a5	-0.5322822
55	0xbf23e1c8	-0.6401639
56	0xbf451f0c	-0.770005
57	0x3ec3446f	0.38138148
58	0xbf394620	-0.7237263
59	0xbefc3e25	-0.49266163
60	0xbe8b1000	-0.27160645
61	0x3ed8e7bc	0.423643
62	0x3e44763e	0.19185731
63	0x3f0c8564	0.5489104
64	0x3f9669ac	1.1750998
65	0x3dddb3a3	0.108252786
66	0xbd998fcf	-0.074981324
67	0xbea0d548	-0.3141272
68	0xbe86a865	-0.2630035
69	0x3ec651f5	0.38734403
70	0x3e591675	0.21199973
71	0xbdec5fe9	-0.11541731
72	0xbd3cb029	-0.046066437
73	0x3e9dc9d3	0.30818042
74	0x3f1de51d	0.61677724
75	0xbebbe55a	-0.3669842
76	0xbe19ee96	-0.1503242
77	0xbf736219	-0.9507156
78	0xbdb03008	-0.08602911
79	0x3ef278bc	0.47357738
80	0xbed9ed0c	-0.42563665
81	0x3f064352	0.5244647
82	0x3f0d1764	0.55113816
83	0x3e28bf1d	0.16479154
84	0xbec8e900	-0.39240265
85	0xbef5b585	-0.4799005
86	0x3edd4e9f	0.43224046
87	0xbe57a826	-0.21060237
88	0xbea505d8	-0.3223102
89	0xbf0beca0	-0.54657936
90	0x3d090b35	0.033457953
91	0x3df482f7	0.11939042
92	0xbd1324e9	-0.035923872
93	0x3f2d00f4	0.6757958
94	0x3f48486c	0.78235507
95	0x3f2499c0	0.64297104
96	0xbe7d56fb	-0.24740212
97	0x3e94e753	0.29082736
98	0x3f32f22d	0.6990078
99	0x3eb74c4c	0.35800397
100	0xbf044156	-0.51662195
101	0xbf4121fa	-0.7544247
102	0x3e8735f5	0.26408353
103	0x3e8acc86	0.27109164
104	0x3f61c7af	0.8819532
105	0x3ec92ca6	0.39291877
106	0x3e10e93b	0.1415147
107	0xbe387eb3	-0.18017082
108	0x3d6a6467	0.057224657
109	0xbf3492cc	-0.70536494
110	0xbf653238	-0.8952975
111	0x3e86e802	0.26348883
112	0x3e0da35b	0.13831846
113	0xbf2ee5b9	-0.6831928
114	0x3e3431fd	0.17597194
115	0xbe14aaac	-0.14518231
116	0x3eaa891e	0.33307737
117	0xbf6da1e3	-0.92825145
118	0xbf4e97c8	-0.8070035
119	0xbe50941d	-0.20369
120	0xbf2eaced	-0.68232614
121	0x3d866589	0.06562335
122	0xbec82794	-0.39092696
123	0x3cebbf6b	0.028777799
124	0xbeaca54d	-0.33719864
125	0xbe928197	-0.28614494
126	0xbdab7ff9	-0.08374018
127	0xbdfc1517	-0.1230871
128	0xbf003496	-0.5008024
129	0xbd3132ab	-0.04326121
130	0xbe4a672e	-0.19765922
131	0x3d7f61ee	0.062349252
132	0xbec5c32f	-0.38625476
133	0x3cc8f76f	0.024532048
134	0x3f872c31	1.0560361
135	0xbede7005	-0.4344484
136	0xbf2f8284	-0.68558526
137	0xbf8bfb0d	-1.093599
138	0xbf057c45	-0.52142745
139	0x3de05f77	0.109557085
140	0xbea0757a	-0.31339628
141	0xbede7ae4	-0.43453133
142	0xbe341796	-0.17587122
143	0xbf246d59	-0.6422935

global_feature_extractor.first_block.1.conv.4.weight f4 [16]
0	0x3f3ec94e	0.74525917
1	0x3f5d124e	0.86356056
2	0x3f9f736d	1.24571
3	0x3fc2e7ea	1.5227025
4	0x3f326cab	0.69697064
5	0x3f51672e	0.81798065
6	0x3f3c1a14	0.7347729
7	0x3f9e1165	1.2349058
8	0x3f95920c	1.1685195
9	0x3fa4a7b7	1.2863683
10	0x3f84fc23	1.0389446
11	0x3f5cd074	0.86255574
12	0x3f9089af	1.1292018
13	0x3fa0f744	1.257546
14	0x3fb6ed3f	1.4291152
15	0x4008cb03	2.1373909

global_feature_extractor.first_block.1.conv.4.bias f4 [16]
0	0x3f841336	1.0318363
1	0xbdaf890a	-0.0857106
2	0x3e8df2c3	0.27724275
3	0x3ee58729	0.44829682
4	0x3eaa17e2	0.33221346
5	0xbd21e922	-0.039528973
6	0x3def4150	0.11682379
7	0xbf52357b	-0.82112855
8	0x3ea9332b	0.3304685
9	0xbe958cc6	-0.29208964
10	0xbe9e374a	-0.30901557
11	0xbd34df14	-0.044158056
12	0x3e541b8d	0.20713635
13	0x3ef62b28	0.480798
14	0xbed3dd0d	-0.41379586
15	0x3e934593	0.28764018

global_feature_extractor.first_block.1.conv.4.running_mean f4 [16]
0	0x3e990dfb	0.2989348
1	0xbfc8630d	-1.5655228
2	0xbff49cde	-1.9110372
3	0xbfb83325	-1.4390608
4	0x400b6884	2.1782541
5	0x3cc71eef	0.024306742
6	0xbd7632e4	-0.060107127
7	0x3d90c2ff	0.070684426
8	0xbe5ef641	-0.21773626
9	0xbe2f89f7	-0.17142473
10	0x3fa12bea	1.2591527
11	0x3eeb0ced	0.459083
12	0xbf5ff862	-0.8748838
13	0xc0036fb8	-2.0536938
14	0xbe82c77a	-0.25542814
15	0xc002912d	-2.0401108

global_feature_extractor.first_block.1.conv.4.running_var f4 [16]
0	0x3f3b607f	0.73194116
1	0x3fb75cdd	1.4325215
2	0x3fe410d2	1.7817633
3	0x402989cf	2.6490362
4	0x409a43f8	4.820797
5	0x3f5d3be3	0.86419505
6	0x3ca12a4f	0.019673495
7	0x3dc3b634	0.09556237
8	0x3fa15a97	1.2605771
9	0x3fbb2800	1.4621582
10	0x40083839	2.1284316
11	0x3f671e65	0.90280753
12	0x3f7e2fd8	0.99291754
13	0x3f731131	0.94948107
14	0x3fadc514	1.3575768
15	0x409f5dab	4.980184

global_feature_extractor.first_block.1.conv.6.weight f4 [8, 16, 1, 1]
0	0xbf0bc30e	-0.54594505
1	0xbe9ceff6	-0.30651826
2	0xbf0c8448	-0.54889345
3	0x3e1c8aee	0.15287372
4	0xbdd9365d	-0.10606072
5	0x3f03273c	0.5123174
6	0xbeafc15a	-0.34327203
7	0x3f18d6dd	0.59702855
8	0x3f00b8f6	0.5028223
9	0xbe81dd63	-0.25364217
10	0xbf6d201d	-0.92627126
11	0xbc07e8ca	-0.008295247
12	0xbe51ca11	-0.20487238
13	0xbf621c08	-0.8832402
14	0x3cc861fb	0.024460783
15	0xbf01875c	-0.50597167
16	0x3ea58ebf	0.3233547
17	0x3e08cae8	0.13358653
18	0xbc676832	-0.014123963
19	0xbf22ac1f	-0.63543886
20	0x3d0cebc0	0.034404516
21	0xbefb930c	-0.49135625
22	0x3e7e326e	0.24823925
23	0x3e104bf2	0.14091471
24	0x3f163262	0.5867063
25	0x3df30c6c	0.11867604
26	0xbd3b9b38	-0.045802325
27	0xbdf37fd7	-0.11889618
28	0xbda7207d	-0.081604935
29	0x3c0452da	0.008076394
30	0xbf1b61cf	-0.6069612
31	0x3f79c59c	0.9756715
32	0x3eb55b1f	0.35421082
33	0xbdde6b1e	-0.10860275
34	0x3f10e627	0.56601185
35	0xbf82ff7d	-1.0234219
36	0x3df0af11	0.11752141
37	0xbe711179	-0.23541822
38	0x3d5ae817	0.053443994
39	0xbea80f87	-0.32824346
40	0xbd88c37b	-0.0667791
41	0x3e94025a	0.28908044
42	0x3ebeb132	0.37244564
43	0xbe9e0d27	-0.3086941
44	0xbd2fa9e4	-0.04288663
45	0x3d8907fe	0.066909775
46	0xbdc2cfcc	-0.0951229
47	0x3f972f0a	1.181123
48	0xbe8c7ce9	-0.2743905
49	0x3d89eff7	0.06735223
50	0x3e983149	0.29725102
51	0xbf473910	-0.77821445
52	0xbce71fee	-0.028213467
53	0x3a80e587	0.000983403
54	0xbe31b84a	-0.17355457
55	0xbef15d97	-0.47141716
56	0xbde67298	-0.11252326
57	0xbedf9c46	-0.43673915
58	0x3e987cc6	0.29782695
59	0xbeb30fe8	-0.34973073
60	0xbe749cee	-0.23887989
61	0x3e56798a	0.20944801
62	0xbf2acd06	-0.6671909
63	0x3edbf2d5	0.42958704
64	0x3ded14db	0.115762435
65	0x3ef9eeb3	0.48814926
66	0x3e6b81dd	0.22998758
67	0x3efc1629	0.49235657
68	0x3e33b4ea	0.17549482
69	0x3e40eaad	0.18839522
70	0x3e7d6fb2	0.2474964
71	0xbe3883d2	-0.18019035
72	0xbf816f25	-1.0112044
73	0x3d87c3d7	0.0662915
74	0x3e482a56	0.195474
75	0x3ecb76a0	0.3973894
76	0x3db91f36	0.09039156
77	0xbc08f144	-0.008358303
78	0x3f5818d9	0.84412915
79	0xbf1acee2	-0.6047193
80	0xbd2665ca	-0.040624417
81	0xbea8d27f	-0.32973096
82	0xbd3bafdf	-0.04582202
83	0xbedb6501	-0.42850497
84	0xbc8f063a	-0.017459024
85	0x3e4c0806	0.19924936
86	0xbee6a10e	-0.4504475
87	0x3f6a8393	0.91607016
88	0x3e18ac34	0.1490944
89	0xbf76c8cf	-0.9640016
90	0xbedec05d	-0.43506137
91	0xbd161f6f	-0.03665107
92	0xbf67ce86	-0.90549505
93	0xbe609853	-0.21933107
94	0xbf0cac1e	-0.5495013
95	0x3ebd1703	0.3693162
96	0x3e0940dc	0.13403648
97	0xbe0a2bed	-0.13493319
98	0x3f3a2acc	0.7272155
99	0xbea0a80a	-0.31378204
100	0x3e11e5d3	0.14247827
101	0xbf30375c	-0.6883447
102	0x3d8f936a	0.07010539
103	0x3f2a0253	0.66409796
104	0xbda393db	-0.079871856
105	0xbec2e5e2	-0.38066012
106	0x3ea8f16a	0.32996684
107	0xbe9d5c1b	-0.30734333
108	0x3ea97540	0.33097267
109	0xbe1613c7	-0.14655982
110	0xbe565e8c	-0.20934504
111	0x3e66e628	0.22548735
112	0x3efe2ae7	0.49642107
113	0x3ec0a085	0.37622467
114	0x3f1bae20	0.6081257
115	0xbebfcb8a	-0.37459975
116	0x3f4c2fe6	0.7976059
117	0x3dfe7109	0.124239035
118	0x3e779ab7	0.24180113
119	0xbe877748	-0.26458192
120	0xbe618b47	-0.22025786
121	0xbf16826c	-0.5879276
122	0xbdd0d756	-0.10197322
123	0x3f397a5d	0.72452337
124	0xbf305828	-0.68884516
125	0x3f2a6695	0.6656278
126	0xbeae0aa2	-0.33992487
127	0x3eb042a2	0.34425837

global_feature_extractor.first_block.1.conv.7.weight f4 [8]
0	0x3f492b76	0.7858194
1	0x3f550946	0.83217275
2	0x3ef7e878	0.48419547
3	0x3ea67c9e	0.3251695
4	0x3f3f0189	0.7461172
5	0x3f6dc15f	0.92873186
6	0xbdcea242	-0.10089542
7	0x3f7d91f6	0.99050844

global_feature_extractor.first_block.1.conv.7.bias f4 [8]
0	0x3c8dd896	0.01731519
1	0xbc5f01ac	-0.013611238
2	0x3b327b55	0.0027234156
3	0xbc5e302d	-0.013561291
4	0x3c0b733c	0.008511361
5	0x3af3cd72	0.0018600656
6	0x3bb91b2d	0.0056489916
7	0x3ba6d6f6	0.0050915433

global_feature_extractor.first_block.1.conv.7.running_mean f4 [8]
0	0xc00a4d05	-2.160951
1	0x3f6fef5a	0.93724597
2	0x3f8535ae	1.0407007
3	0xbf580925	-0.84388953
4	0x3e8ff3ad	0.28115597
5	0xbf9feae0	-1.2493553
6	0x3ee2541d	0.44204798
7	0x3fb274ab	1.3941854

global_feature_extractor.first_block.1.conv.7.running_var f4 [8]
0	0x3ff0fa4f	1.8826388
1	0x403a93ef	2.9152792
2	0x40828881	4.079163
3	0x3feacb39	1.8343269
4	0x40447a8e	3.0699801
5	0x4056c782	3.355927
6	0x3f5aaf05	0.8542331
7	0x40182d81	2.3777773

global_feature_extractor.second_block.0.conv.0.weight f4 [16, 8, 1, 1]
0	0xbf0d7ac5	-0.55265456
1	0xbe8e9f07	-0.27855703
2	0xbe978778	-0.29595542
3	0xbd1e2933	-0.03861351
4	0xbc792ca0	-0.015208393
5	0xbf9c4be7	-1.2210664
6	0x3ecc38a0	0.3988695
7	0xbf034892	-0.5128261
8	0x3f8b5fb1	1.0888578
9	0xbe1483e0	-0.14503431
10	0xbeba32e7	-0.3636696
11	0x3ea77c1a	0.3271187
12	0xbeb0f276	-0.34559983
13	0x3ed1600b	0.40893587
14	0xbedd76b5	-0.4325463
15	0xbf14c39a	-0.58110964
16	0xbf6c9f38	-0.9243045
17	0x3f1644c6	0.5869869
18	0x3def2fb4	0.116790205
19	0xbe19ad34	-0.15007478
20	0x3ed4b3f3	0.4154354
21	0xbf430b8e	-0.76189506
22	0xbe2a5e45	-0.16637523
23	0xbf186c82	-0.5954057
24	0x3dfdaa41	0.12385989
25	0xbc675939	-0.014120393
26	0x3e3d67f6	0.18496689
27	0x3e01642f	0.12635873
28	0x3efba2f5	0.49147764
29	0xbf8f90f0	-1.1216106
30	0xbdf5d1a2	-0.12002875
31	0xbf7027d9	-0.938108
32	0x3d427e79	0.047483895
33	0xbe88090a	-0.26569396
34	0x3f503fd0	0.8134737
35	0x3e0d8b8c	0.13822764
36	0x3e3e4405	0.18580635
37	0xbeabfc40	-0.3359089
38	0xbf0197e0	-0.5062237
39	0x3e7e83af	0.24854921
40	0xbe21270f	-0.15737556
41	0x3f33dc66	0.70258176
42	0x3f5c9b7f	0.8617477
43	0x3ee8270b	0.45342287
44	0xbe54ba5c	-0.20774215
45	0x3e03909f	0.12848137
46	0xbb9169eb	-0.0044376752
47	0xbf48614f	-0.7827348
48	0xbe5da56a	-0.21645132
49	0x3f51f8f4	0.820205
50	0x3f9be68f	1.2179736
51	0x3ee4c1c0	0.4467907
52	0xbef96223	-0.48707685
53	0x3e96b668	0.2943604
54	0xbf2b9d10	-0.67036533
55	0x3dd6c6f5	0.10487167
56	0xbced04dd	-0.028932983
57	0xbec35ba5	-0.38155857
58	0x3f890e95	1.0707575
59	0x3e469a32	0.19394758
60	0x3f444e74	0.7668221
61	0xbde38092	-0.11108507
62	0xbf3b3eac	-0.73142505
63	0x3df529ae	0.119708404
64	0x3f81df84	1.0146337
65	0xbde91b1c	-0.11382124
66	0xbf472a0b	-0.7779853
67	0xbecdd341	-0.40200236
68	0x3eb2c985	0.34919372
69	0x3e3d141d	0.18464704
70	0xbbf35a5e	-0.007426544
71	0x3e65ab95	0.22428735
72	0xbdf65d2c	-0.1202949
73	0xbebf1713	-0.37322292
74	0xbe3e993c	-0.18613142
75	0xbed7ea6b	-0.42171034
76	0xbee1a453	-0.44070682
77	0xbd71d462	-0.059040435
78	0x3edfe6fe	0.4373092
79	0xbee71497	-0.45132896
80	0xbe87b81c	-0.26507652
81	0xbdd500bc	-0.10400531
82	0xbe0414d4	-0.1289857
83	0xbd83d39b	-0.06436845
84	0x3e3f77e0	0.18698072
85	0xbee442e9	-0.44582298
86	0x3d695ef3	0.056975316
87	0xbf04233b	-0.5161626
88	0xbe995de1	-0.29954436
89	0x3ec0675e	0.37578863
90	0x3fbe1a5c	1.4851794
91	0x3ebcb812	0.36859185
92	0xbee38a76	-0.44441575
93	0xbd210bf0	-0.039318025
94	0xbe75549a	-0.23958054
95	0xbe386228	-0.18006194
96	0xbcd1c8c3	-0.025608426
97	0xbe879c8f	-0.26486632
98	0x3e0842c0	0.13306713
99	0x3e1c148e	0.15242216
100	0x3eed7a01	0.46382144
101	0x3f0d039e	0.55083644
102	0xbf8b6a3c	-1.0891795
103	0x3f18498a	0.5948721
104	0x3c842620	0.01613146
105	0x3e813693	0.2523695
106	0x3f2b742b	0.66974133
107	0x3f0aaca5	0.54169685
108	0xbe4ec95f	-0.20194004
109	0x3f548105	0.8300937
110	0xbf28f5dc	-0.6600015
111	0x3ed99daa	0.425031
112	0xbf1983f1	-0.5996695
113	0xbd782c04	-0.06058885
114	0x3f9dfc0a	1.2342541
115	0x3ebb433c	0.36574733
116	0x3e8f9cdc	0.28049362
117	0xbebd420e	-0.36964458
118	0xbeb870b0	-0.36023474
119	0x3edae216	0.42750615
120	0xbec8da05	-0.39228836
121	0x3f5d22f8	0.86381483
122	0x3ee3bfe9	0.44482353
123	0xbddf53eb	-0.10904678
124	0x3d91a043	0.071106456
125	0xbf1abefe	-0.6044768
126	0x3db8f6a5	0.09031419
127	0x3e363bb6	0.17796215

global_feature_extractor.second_block.0.conv.1.weight f4 [16]
0	0x3fdd3b55	1.7283732
1	0x3f59ed6c	0.851279
2	0x3fd87926	1.6911972
3	0x3fbcda00	1.4754028
4	0x3f9e1920	1.2351418
5	0x3f418824	0.7559836
6	0x3f3dcb1e	0.7413806
7	0x3f1e03c0	0.6172447
8	0x3ff53ac2	1.9158556
9	0x3f12aa75	0.57291347
10	0x3f4dae49	0.80344063
11	0x3f2e07d8	0.6798072
12	0x3f5b4e4f	0.85666364
13	0x3fab312c	1.3374381
14	0x3e91ab65	0.28451076
15	0x3e6acb90	0.22929215

global_feature_extractor.second_block.0.conv.1.bias f4 [16]
0	0x3eb7bf0a	0.3588794
1	0xbf1bf87a	-0.6092602
2	0xbe551d66	-0.20811996
3	0xbe92155f	-0.2853193
4	0xbf04d8d0	-0.5189333
5	0x3ece8757	0.4033763
6	0x3f3ba829	0.7330347
7	0x3f23275f	0.6373195
8	0x3e057d10	0.13035989
9	0x3ece9fae	0.403562
10	0x3e7c0ca0	0.24614191
11	0x3f1a10d2	0.60181916
12	0x3f3be9dc	0.73403716
13	0x3eec2a1d	0.4612588
14	0x3f8d804d	1.1054779
15	0x3f829b2e	1.0203607

global_feature_extractor.second_block.0.conv.1.running_mean f4 [16]
0	0xbcc880f2	-0.024475548
1	0xbc5ec09d	-0.013595727
2	0xbd470706	-0.048590682
3	0xbcb6d27c	-0.022317164
4	0x3d276730	0.04086989
5	0xbd6f0e7c	-0.058363423
6	0xbd111622	-0.035421498
7	0x3d8805e5	0.06641749
8	0x3cc24522	0.023714606
9	0x3b9de749	0.004818831
10	0xbc33c609	-0.010972508
11	0xbc6a6790	-0.014306918
12	0x3d60f238	0.054918498
13	0x3bca90aa	0.006181796
14	0x3d0106d9	0.03150067
15	0xbd37162b	-0.044698875

global_feature_extractor.second_block.0.conv.1.running_var f4 [16]
0	0x40d827e9	6.754872
1	0x40b89128	5.7677193
2	0x411782f9	9.469476
3	0x40f3b89c	7.6162853
4	0x411f8481	9.96985
5	0x412781aa	10.469156
6	0x41bbb548	23.463516
7	0x41a7cfaf	20.976408
8	0x414c9004	12.78516
9	0x408880f7	4.265743
10	0x3fd401a6	1.6563003
11	0x41bdb3d3	23.712805
12	0x40e8d74f	7.276283
13	0x4129fd55	10.624349
14	0x41d80a64	27.005074
15	0x40e25cea	7.073842

global_feature_extractor.second_block.0.conv.3.weight f4 [16, 1, 3, 3]
0	0xbf940ce5	-1.1566435
1	0xbef17abb	-0.47163948
2	0x3ef4e371	0.47829774
3	0xbf59f994	-0.8514645
4	0xbe15e37c	-0.1463756
5	0x3e9b960e	0.3038792
6	0x3dae44fc	0.085092515
7	0x3d938eb5	0.072049536
8	0xbf445743	-0.7669565
9	0xbec4d821	-0.38446143
10	0xbf01e189	-0.50734764
11	0xbeea4c05	-0.45761123
12	0xbec4c042	-0.3842793
13	0xbe0be485	-0.13661392
14	0xbf3ccd35	-0.7375062
15	0xbeb15ed7	-0.3464267
16	0xbf32926e	-0.69754684
17	0xbf1d0c57	-0.61346954
18	0x3e05674a	0.13027683
19	0xbf0d380f	-0.55163664
20	0xbdf5a93b	-0.11995169
21	0x3e2665f7	0.16249834
22	0xbf8b04d2	-1.0860846
23	0xbf2d3065	-0.6765197
24	0xbf0c51be	-0.5481223
25	0xbdfd737d	-0.12375543
26	0x3edc2cb1	0.43002847
27	0xbf6e08f6	-0.92982423
28	0xbedd38e7	-0.43207476
29	0xbeb65b53	-0.3561655
30	0x3d84e7c3	0.064895175
31	0xbe6b1115	-0.22955735
32	0xbefa38e0	-0.48871517
33	0xbc8435b5	-0.01613889
34	0xbea2ccc1	-0.3179684
35	0xbf2cd26e	-0.6750859
36	0x3ea98b33	0.33114013
37	0x3f475e4f	0.7787828
38	0x3ead20a8	0.33813977
39	0x3ea45acb	0.3210052
40	0x3e39c5ee	0.1814191
41	0x3db9d64c	0.09074077
42	0xbd8d14c4	-0.06888726
43	0xbf699abf	-0.9125175
44	0xbdfdcdbf	-0.123927586
45	0x3d29dd93	0.041471075
46	0x3e819c50	0.2531457
47	0x3ed86606	0.42265338
48	0x3dcf05df	0.10108542
49	0x3f2fbaff	0.6864471
50	0x3f177553	0.591634
51	0x3ec29a86	0.38008517
52	0x3f67b91e	0.9051684
53	0x3f52f938	0.8241153
54	0xbf1e1300	-0.6174774
55	0xbe419949	-0.1890613
56	0x3ed1e156	0.4099223
57	0x3f42af05	0.7604831
58	0x3f5a73c3	0.8533289
59	0x3ea60779	0.32427576
60	0x3f368ba9	0.71306854
61	0x3f633dbc	0.88766074
62	0x3e89bee2	0.26903445
63	0xbf11f98a	-0.5702139
64	0x3f1c46c9	0.6104551
65	0x3f1fbe04	0.62399316
66	0x3e834e34	0.25645602
67	0x3f39ac4e	0.7252854
68	0xbe2fa4c6	-0.171527
69	0x3eb77e6e	0.35838646
70	0xbe2ef902	-0.17087176
71	0xbf50dad4	-0.81583905
72	0xbf2aaa97	-0.6666655
73	0xbefa8df6	-0.48936433
74	0xbebbb790	-0.36663485
75	0x3cc731ac	0.024315678
76	0xbec5b8c2	-0.38617522
77	0xbf232b25	-0.6373771
78	0xbf0871cb	-0.53298634
79	0xbe44439a	-0.19166413
80	0xbf794433	-0.9736969
81	0xbe4b7720	-0.19869661
82	0xbdc1e0e7	-0.09466725
83	0x3f1b72f2	0.6072227
84	0x3bb0d343	0.005396278
85	0xbe40b118	-0.18817556
86	0x3ebd15c8	0.3693068
87	0x3e4ec8ff	0.20193861
88	0xbce301ca	-0.027710814
89	0x3f36eeaf	0.7145795
90	0x3ee3d738	0.44500136
91	0x3e999330	0.29995108
92	0x3e4fd2f8	0.20295322
93	0xbdb1f178	-0.08688635
94	0xbe581ec1	-0.21105482
95	0xbdf404a9	-0.11914951
96	0x3e446bd4	0.19181758
97	0x3e8a602c	0.27026498
98	0xbd3d4ad7	-0.04621395
99	0x3dd7faab	0.10545858
100	0x3f32b15f	0.69801897
101	0x3f52cde3	0.8234541
102	0x3e3349bd	0.17508598
103	0x3e0759fe	0.13217923
104	0x3f1ced1d	0.61299306
105	0xbe360751	-0.17776228
106	0xbf840d63	-1.0316585
107	0xbf187465	-0.59552604
108	0x3ddb9e2a	0.10723527
109	0xbde9b499	-0.114113994
110	0x3f653ab5	0.89542705
111	0x3f211b54	0.62932324
112	0x3f471e55	0.7778066
113	0x3e98c3eb	0.29836974
114	0x3edd71dd	0.43250933
115	0x3f164d98	0.5871215
116	0x3db12674	0.086499125
117	0x3eb1f7e4	0.34759438
118	0x3f562135	0.8364442
119	0x3eb5a5ce	0.3547806
120	0xbd5f3665	-0.054495234
121	0x3f500558	0.81258154
122	0x3f84baca	1.0369503
123	0xbddf02d7	-0.108892135
124	0xbe7371ed	-0.23773928
125	0x3d6cc62f	0.05780619
126	0xbb1f8c99	-0.0024345277
127	0xbf4fd01d	-0.8117693
128	0xbef9fbe8	-0.48825002
129	0xbe830ad1	-0.2559419
130	0xbfa4af2c	-1.2865958
131	0xbf5dc31c	-0.8662584
132	0xbde685fb	-0.112560235
133	0xbf095085	-0.5363849
134	0xbec11008	-0.37707543
135	0x3ed26aa6	0.4109699
136	0x3f276140	0.65382767
137	0xbe2d0754	-0.16897327
138	0x3e20f4ad	0.15718336
139	0xbe10a592	-0.1412566
140	0xbf9c0432	-1.218878
141	0xbdb76ee9	-0.08956701
142	0xbe74a722	-0.23891881
143	0xbf398967	-0.72475284

global_feature_extractor.second_block.0.conv.4.weight f4 [16]
0	0x3f4381bb	0.7636983
1	0x3fcee81c	1.6164584
2	0x3eeb8a51	0.46003965
3	0x3f926991	1.1438466
4	0x3f390192	0.7226802
5	0x3f21f54c	0.6326492
6	0x3f8567f4	1.0422349
7	0x3f85a129	1.0439807
8	0x3fd66e93	1.6752495
9	0x3dd4975f	0.10380434
10	0x3dd85581	0.105631836
11	0x3f9d2abb	1.2278665
12	0x3f568be8	0.8380723
13	0x3f7c19c6	0.9847683
14	0x3fa679dc	1.3005939
15	0x3f929086	1.1450355

global_feature_extractor.second_block.0.conv.4.bias f4 [16]
0	0xbe808932	-0.25104672
1	0x3f06e00f	0.52685636
2	0x3f8ec69f	1.1154364
3	0x3eaefeeb	0.34178862
4	0xbdb31d7b	-0.08745857
5	0x3f51329b	0.8171784
6	0x3f8e6040	1.1123123
7	0xbf3f9ff8	-0.7485347
8	0x3d124cac	0.03571765
9	0xbf04a464	-0.5181334
10	0xbf208339	-0.6270023
11	0xbe9cb90b	-0.30609927
12	0x3ee3bd42	0.4448033
13	0x3fa8c268	1.3184328
14	0x40100b55	2.2506917
15	0xbe741b13	-0.23838453

global_feature_extractor.second_block.0.conv.4.running_mean f4 [16]
0	0xbfb58c86	-1.4183509
1	0xbf25563e	-0.6458472
2	0xbf7d37d9	-0.9891334
3	0xbfa5feb5	-1.2968355
4	0x3d8f3cc1	0.0699401
5	0x400ee4c0	2.2327118
6	0x402c1cab	2.6892498
7	0x3ecbaeef	0.397819
8	0xc03cafd6	-2.9482322
9	0x3f11cfde	0.56957805
10	0x3e8fa5cb	0.28056177
11	0x3d3ecb20	0.046580434
12	0x402dcc57	2.715597
13	0x40014f9e	2.0204844
14	0xc097c738	-4.7430687
15	0xbfdbbe7f	-1.716751

global_feature_extractor.second_block.0.conv.4.running_var f4 [16]
0	0x407e464a	3.97304
1	0x3fac3a53	1.3455299
2	0x402577ec	2.5854445
3	0x402f16fd	2.735778
4	0x3ea330da	0.31873208
5	0x3fefb65b	1.8727525
6	0x4010fdcf	2.2654912
7	0x3f39e452	0.72614014
8	0x4171fd05	15.124272
9	0x3e898d7e	0.26865762
10	0x3e7bedbf	0.24602412
11	0x3f7f497b	0.997215
12	0x4035fbf2	2.8435025
13	0x4097a399	4.7387204
14	0x3fbc6737	1.4718999
15	0x3e91c284	0.28468716
