model_checkpoints/experiments/overall/fastscnn_192a0.25t6r3pp0_noinit.onnx (onnx, 325011 bytes, 81 tensors)

feature_fusion.conv_high_res.weight f4 [32, 16, 1, 1]
-0.687458 -0.10057827 -1.0199946 1.7575326 0.49949327 0.33019084 1.0461502 0.627537
0.3612947 1.274442 0.3277108 0.02797779 -0.15898627 -0.20384037 0.5216687 -0.17707802
-0.88304627 -0.15851006 -0.46288535 0.37903997 -0.41224688 0.37883738 -1.1439056 0.055372782
-0.84693 1.1657298 0.5232074 0.0049572857 -0.4404344 -0.11989478 -0.64358336 -0.028869577
0.22824727 -0.2847179 -0.829181 0.66759515 0.4990149 0.7415185 1.211781 0.9090314
-0.62480813 -0.15032846 0.9435744 -0.25589684 1.4506977 1.3179523 0.90913343 0.50371915
0.12559944 0.5174656 -0.55063075 0.50551766 0.49185434 0.7598813 0.47676557 0.6660894
0.32496056 -0.48035476 -0.11740706 -0.0053580017 -0.5140819 -0.31793085 -0.5687476 -0.757329
0.49458212 0.2964888 -0.3081826 0.9871101 -0.24299334 0.15443781 1.6135492 1.2263551
0.9497133 -0.08963419 -0.13122414 0.5892647 0.34567368 -0.20523925 -0.2729131 0.21646754
-0.98243666 -0.43088645 0.966502 -1.3793712 -1.1459359 -0.050022688 -0.86933225 -0.5931627
0.030337103 0.47332847 -1.0465999 0.3964831 -1.0652822 -0.0068185837 -0.5800824 0.08693258
-0.452945 -1.9799713 0.20443632 -0.14186239 -1.0889844 -0.91991377 0.34999982 -1.2060446
0.13267459 -0.27616394 -0.65329355 0.85420066 -0.7127853 -2.7512367 -0.29453498 -0.117141455
0.04054349 0.18089053 0.45935708 -0.69340384 -0.14783417 0.09460983 0.46825114 -0.5158256
0.74674714 -0.33737263 0.63492244 0.19990903 0.6790923 0.111231744 0.44859555 0.9171478
0.30060905 0.44538635 -0.5050207 0.80660146 1.0074116 0.54613423 0.8942854 -0.2435949
0.0972239 -0.5581573 -0.1537428 -0.015169765 -0.30450487 -0.26921248 1.0863642 -1.2647586
0.12955543 -0.5111363 0.2511874 0.2168738 0.03365129 -0.117444344 -0.23082513 0.18376821
-0.0015179558 -0.24369437 -0.36317486 -0.23727302 -0.33822173 -0.07882094 0.5977598 0.8006547
0.0025052517 -0.039076816 -0.29161295 -0.16072816 0.22066799 0.010724486 -0.24233775 -0.36749697
0.045470793 0.014677438 0.048062988 -0.40586385 -0.05877224 0.03314728 -0.22384311 -0.1319855
0.044926915 -0.9936243 0.35329473 0.5967897 -0.38566434 -0.29970774 0.07495749 1.4585298
0.7329308 0.54780376 -0.57817227 0.75101167 0.034030523 0.07068975 -1.4432627 -1.0556021
0.059189696 0.4275637 1.0611615 -1.0197386 0.5835312 0.4524438 -0.66986567 0.05622262
0.5769952 -0.59286153 0.5197744 -0.8824868 -0.4579723 0.09859356 0.04180487 -0.018820824
0.7160646 0.47122505 -0.23831534 0.3986341 0.184245 -0.03742721 -0.020579517 0.6927438
1.7221816 -0.3611961 0.22980173 -0.33202574 0.2745847 0.53279686 0.0017009482 0.28300664
-0.09826659 -0.45403647 -0.112197466 1.0201669 -0.28305566 -0.109217145 0.19641681 0.15426643
-1.0966415 0.13834634 -0.61175257 -0.71743065 0.096585065 0.06603104 0.14207381 0.17010671
0.2459598 0.041095003 -0.9546685 -0.094819024 -0.0623315 0.17647056 0.74101925 0.76977104
-0.6773274 0.12144089 0.43050796 0.44445246 0.5786183 -0.012295782 -0.6822012 1.1808933
00000000: 3ffd 2fbf fbfb cdbd 2f8f 82bf d4f6 e03f
00000010: 95bd ff3e c60e a93e 40e8 853f 44a6 203f
00000020: 9efb b83e ea20 a33f b6c9 a73e ae31 e53c
00000030: 4ccd 22be 88bb 50be 148c 053f f153 35be
00000040: 520f 62bf 7650 22be 4fff ecbe 8711 c23e
00000050: 0612 d3be f9f6 c13e 806b 92bf 92ce 623d
00000060: 68d0 58bf a236 953f ecf0 053f ba70 a23b
00000070: 9e80 e1be 658b f5bd e1c1 24bf e47f ecbc
00000080: a7b9 693e 8bc6 91be 3545 54bf 84e7 2a3f
00000090: e27e ff3e 28d4 3d3f a41b 9b3f 48b6 683f
000000a0: 6df3 1fbf b4ef 19be 188e 713f e904 83be
000000b0: 76b0 b93f a9b2 a83f f8bc 683f bdf3 003f
000000c0: 249d 003e a078 043f 23f6 0cbf 9b69 013f
000000d0: 55d4 fb3e 9587 423f 9e1a f43e d684 2a3f
000000e0: 3b61 a63e 0ff1 f5be 1d73 f0bd 2d92 afbb
000000f0: df9a 03bf d5c7 a2be 7199 11bf 50e0 41bf
00000100: de39 fd3e 61cd 973e 1cca 9dbe 3fb3 7c3f
00000110: 3fd3 78be f224 1e3e c888 ce3f 34f9 9c3f
00000120: 6920 733f 2192 b7bd 9f5f 06be 0dda 163f
00000130: 24fc b03e 3d2a 52be 44bb 8bbe aba9 5d3e
00000140: f880 7bbf 269d dcbe ad6c 773f 3c8f b0bf
00000150: 07ae 92bf 97e4 4cbd 8f8c 5ebf 83d9 17bf
00000160: 8485 f83c 1c58 f23e fcf6 85bf d5ff ca3e
00000170: 2b5b 88bf 6d6e dfbb 4880 14bf b509 b23d
00000180: 68e8 e7be b36f fdbf c157 513e 6044 11be
00000190: d763 8bbf 787f 6bbf 2d33 b33e ab5f 9abf
000001a0: d9db 073e 5c65 8dbe 3f3e 27bf e5ac 5a3f
000001b0: 1979 36bf 4314 30c0 4acd 96be dce7 efbd
000001c0: ee10 263d 5e3b 393e da30 eb3e ea82 31bf
000001d0: d761 17be ccc2 c13d 9dbe ef3e 260d 04bf
000001e0: d22a 3f3f 1bbc acbe 478a 223f f4b4 4c3e
000001f0: fed8 2d3f 78cd e33d 51ae e53e 33ca 6a3f
00000200: 6ee9 993e ae09 e43e 0949 01bf 6f7d 4e3f
00000210: ddf2 803f 74cf 0b3f e3ef 643f f170 79be
00000220: 531d c73d 66e3 0ebf c16e 1dbe 9b8a 78bc
00000230: 10e8 9bbe 38d6 89be fb0d 8b3f 9ce3 a1bf
00000240: 2eaa 043e d4d9 02bf a39b 803e 2a14 5e3e
00000250: efd5 093d a986 f0bd 6c5d 6cbe bc2d 3c3e
00000260: 25f6 c6ba 048b 79be 0ef2 b9be b3f7 72be
00000270: 662b adbe df6c a1bd c906 193f b5f7 4c3f
00000280: 262f 243b 030f 20bd 4b4e 95be ec95 24be
00000290: caf6 613e c1b5 2f3c 6327 78be 9028 bcbe
000002a0: 953f 3a3d a379 703c b2dd 443d 63cd cfbe
000002b0: 29bb 70bd 71c5 073d 2137 65be 3527 07be
000002c0: 4905 383d 2a5e 7ebf 0ce3 b43e 36c7 183f
000002d0: cc75 c5be 4b73 99be 5083 993d 1bb1 ba3f
000002e0: 5aa1 3b3f de3c 0c3f 1903 14bf 4d42 403f
000002f0: 9763 0b3d cac5 903d d5bc b8bf f81d 87bf
00000300: e570 723d a1e9 da3e 24d4 873f cb86 82bf
00000310: 4d62 153f b7a6 e73e 517c 2bbf b149 663d
00000320: f5b5 133f c6c5 17bf ef0f 053f a8ea 61bf
00000330: 587b eabe 6ceb c93d 953b 2b3d 212e 9abc
00000340: 0250 373f 6944 f13e f008 74be c519 cc3e
00000350: b9aa 3c3e 464d 19bd 6096 a8bc a857 313f
00000360: 7270 dc3f b2ee b8be 2551 6b3e 47ff a9be
00000370: 5e96 8c3e 6065 083f 5af2 de3a 3fe6 903e
00000380: fe3f c9bd 7877 e8be c9c7 e5bd d494 823f
00000390: acec 90be 3dad dfbd 7d21 493e 05f8 1d3e
000003a0: c05e 8cbf aaaa 0d3e d19b 1cbf 89a9 37bf
000003b0: 64ce c53d 483b 873d cc7b 113e 7430 2e3e
000003c0: e3dc 7b3e 3c53 283d 2865 74bf 7a30 c2bd
000003d0: 514f 7fbd b3b4 343e 70b3 3d3f b70f 453f
000003e0: 5465 2dbf 00b6 f83d 8a6b dc3e 468f e33e
000003f0: 5420 143f 3f74 49bc bda4 2ebf 8327 973f

feature_fusion.conv_high_res.bias f4 [32]
0.40933344 0.8045325 -0.052132417 0.77192193 0.7248713 0.034453228 0.6309174 -1.0107092
0.21566865 1.0361495 -0.5353554 -0.7421174 -0.18523839 0.08459107 0.96456915 -1.2232122
0.14585352 0.08065581 1.4558246 -0.7387889 0.08843677 -0.21551272 1.1548204 -0.10179158
0.09492388 0.34406796 -0.65370345 0.7146872 -0.036113687 1.0795296 -0.6827057 -0.48436064
00000000: 2794 d13e d8f5 4d3f cd88 55bd ad9c 453f
00000010: 2a91 393f d41e 0d3d cd83 213f eb5e 81bf
00000020: 3ed8 5c3e 8ca0 843f 0d0d 09bf 68fb 3dbf
00000030: 22af 3dbe 153e ad3d 01ee 763f 3892 9cbf
00000040: a05a 153e e02e a53d 7658 ba3f 4521 3dbf
00000050: 561e b53d 5eaf 5cbe 28d1 933f 1b78 d0bd
00000060: 7467 c23d ad29 b03e 1c59 27bf bef5 363f
00000070: f2eb 13bd 072e 8a3f cdc5 2ebf 1efe f7be

feature_fusion.conv_low_res.weight f4 [32, 32, 1, 1]
0.9700774 -0.08550179 -0.3612539 0.68576 0.15581825 0.12867692 0.49416032 -0.8328404
-0.459392 0.09809332 -0.24515231 0.4859494 -1.1728868 -0.6205687 -0.2789943 -0.1472197
1.2370654 0.47047004 0.4461718 -0.1312656 1.0332903 -0.2873535 0.538902 0.47515726
-0.1608501 0.54925555 -0.35764536 -0.79491276 -0.7079461 0.3378333 -0.44773608 -0.2726415
-0.49778277 0.5561757 -0.18163171 0.52300584 -0.11630067 0.641385 -0.22335233 0.09508772
0.18622525 0.0066718697 -0.4242699 -0.45565566 0.6626943 0.030483725 0.4341203 -0.36723834
0.058625888 -0.18341881 -0.7253103 0.30139503 0.8220538 -0.019331114 0.572393 -1.5064683
0.65961486 0.20894773 0.07227829 -0.69206583 -0.13906664 0.49909756 0.8696635 0.33580458
0.15367155 -0.1388726 -0.6358458 -0.040006515 -0.2739533 -0.002681945 -0.33102438 -0.06912802
-0.029600142 -0.04183322 -0.18712373 -0.09487488 -0.15406679 -0.38584852 -0.15597217 -0.6567017
0.530266 0.028590357 -0.034169123 0.36145237 0.035296798 -0.18304971 0.07451147 0.03341939
0.1258667 0.5085877 -0.66941327 -0.097720705 -0.24817099 0.4586678 -0.20375322 -0.1770881
0.29713732 0.13579336 -0.61025804 -0.5811237 0.43522298 -0.48199436 -0.9300201 -0.48123047
-0.1307713 0.32423538 -0.56977326 -0.52617025 0.15928283 -0.06791226 -0.034355856 -0.38680464
1.0364193 -0.05972249 -0.46697345 0.34122148 0.080924176 -1.1429877 0.91772217 -0.8505246
0.020568531 -0.3625001 -0.06398519 -0.15804695 -0.48739776 0.10410529 0.3927549 0.20532158
-0.4372129 0.17553435 -0.5899533 -0.7909664 0.7580827 -0.07931438 -0.35201177 0.7181362
-1.0141529 -0.1922637 0.2396099 -0.31529924 0.00087492494 0.26587915 0.39901054 -1.0590419
0.80290216 -0.97963154 0.38324082 -0.021838395 -0.14661002 -0.95027983 1.2525228 0.07991839
0.78384894 0.63736475 0.12644938 -0.27431998 0.7868118 0.24067348 -0.9626893 -0.21002723
0.5358773 0.3699295 0.20418407 0.18354163 -0.60586345 -0.55060893 -0.22883385 0.6122793
-0.5610025 0.28295198 0.020280166 0.11176002 -1.0553453 0.6312537 0.011698966 -0.69385684
0.22076553 -0.3022461 0.6878768 0.3166878 -0.520251 0.04588608 -0.7353817 0.51011163
-0.09960131 0.2492537 0.6013981 -0.58647686 0.18027526 0.09216357 0.11374797 -0.29189885
-0.0252516 -0.840611 -0.38025382 -0.8473783 0.5238045 -0.95580655 -0.3088747 -0.015594337
-0.35410112 0.27749133 0.27088356 0.30582717 -0.06734233 0.3628361 -0.45514208 -0.6382812
-1.1092999 0.020848302 0.18416367 -0.34697735 -0.005964565 -0.37063494 0.09809186 0.6823986
-0.15681751 -0.386895 0.2041546 0.030846924 0.39483476 -0.25015184 -0.014910352 0.21262674
-0.20202433 0.35967475 0.15835084 0.16336204 0.2705312 0.8860543 1.2081505 0.7912556
0.007606075 0.42663038 0.5074044 0.10428097 -0.6700241 0.3402977 0.92887896 -1.092496
-0.10540004 -0.6583506 -0.37644616 0.8645034 -0.33285215 0.7532274 -0.98785746 0.90219486
0.5288481 -0.06559417 -0.4494057 0.5362919 -0.18056518 -0.7523758 0.68742716 -3.045673
00000000: fe56 783f 901b afbd 45f6 b8be f88d 2f3f
00000010: d28e 1f3e e2c3 033e 9502 fd3e 0735 55bf
00000020: 6e35 ebbe 27e5 c83d 3509 7bbe 5cce f83e
00000030: 2821 96bf 97dd 1ebf 57d8 8ebe c3c0 16be
00000040: 2958 9e3f 73e1 f03e a170 e43e 7d6a 06be
00000050: db42 843f ff1f 93be 7bf5 093f d047 f33e
00000060: e3b5 24be 039c 0c3f 4b1d b7be 677f 4bbf
00000070: f53b 35bf 7cf8 ac3e aa3d e5be ab97 8bbe
00000080: 62dd febe 8861 0e3f aafd 39be b6e3 053f
00000090: 0c2f eebd cf31 243f 79b6 64be 5abd c23d
000000a0: d5b1 3e3e b39f da3b e839 d9be b34b e9be
000000b0: 55a6 293f 01b9 f93c 0445 de3e aa06 bcbe
000000c0: b321 703d 24d2 3bbe f0ad 39bf 7350 9a3e
000000d0: 1e72 523f 495c 9ebc 5988 123f f4d3 c0bf
000000e0: 85dc 283f 65f6 553e a406 943d 3a2b 31bf
000000f0: 7c67 0ebe b789 ff3e 44a2 5e3f 94ee ab3e
00000100: 135c 1d3e 9e34 0ebe cac6 22bf dfdd 23bd
00000110: 9b43 8cbe 92c3 2fbb 077c a9be fe92 8dbd
00000120: ff7b f2bc 4f59 2bbd 5d9d 3fbe c34d c2bd
00000130: afc3 1dbe f08d c5be 2bb7 1fbe 9a1d 28bf
00000140: 83bf 073f 5336 ea3c ecf4 0bbd 4910 b93e
00000150: 6093 103d 6271 3bbe 7899 983d c5e2 083d
00000160: 33e3 003e ce32 023f ab5e 2bbf cb21 c8bd
00000170: 8920 7ebe 82d6 ea3e afa4 50be 9556 35be
00000180: 6222 983e 6a0d 0b3e df39 1cbf 86c4 14bf
00000190: 8cd5 de3e f7c7 f6be cc15 6ebf d763 f6be
000001a0: e9e8 05be 2e02 a63e a9dc 11bf 18b3 06bf
000001b0: 0a1b 233e 9515 8bbd bab8 0cbd 420b c6be
000001c0: 63a9 843f 929f 74bd 2517 efbe 95b4 ae3e
000001d0: 93bb a53d 6c4d 92bf d7ef 6a3f fbbb 59bf
000001e0: 567f a83c 9d99 b9be ab0a 83bd 0fd7 21be
000001f0: 338c f9be 2735 d53d 2c17 c93e d23f 523e
00000200: 5fda dfbe 47bf 333e 2e07 17bf c67c 4abf
00000210: b511 423f 946f a2bd e33a b4be c6d7 373f
00000220: c3cf 81bf c6e0 44be 4c5c 753e e76e a1be
00000230: 385b 653a 5021 883e 1c4b cc3e af8e 87bf
00000240: ff8a 4d3f 22c9 7abf 2438 c43e 6fe6 b2bc
00000250: f020 16be 8a45 73bf ab52 a03f 41ac a33d
00000260: 53aa 483f 562a 233f f27b 013e ab73 8cbe
00000270: 806c 493f 1c73 763e ce72 76bf 6111 57be
00000280: 412f 093f 6667 bd3e a115 513e 56f2 3b3e
00000290: de19 1bbf b5f4 0cbf 6c53 6abe 56be 1c3f
000002a0: dc9d 0fbf 15df 903e 9722 a63c 70e2 e43d
000002b0: 8e15 87bf d899 213f 05ad 3f3c 9aa0 31bf
000002c0: 5c10 623e 00c0 9abe b218 303f e724 a23e
000002d0: 2b2f 05bf 0bf3 3b3d fa41 3cbf ad96 023f
000002e0: c6fb cbbd 5d3c 7f3e 3af5 193f 5923 16bf
000002f0: 149a 383e 41c0 bc3d b2f4 e83d c473 95be
00000300: 72dc cebc 4832 57bf a1b0 c2be c9ed 58bf
00000310: 0d18 063f bdaf 74bf d324 9ebe 647f 7fbc
00000320: be4c b5be 5813 8e3e 40b1 8a3e 6195 9c3e
00000330: c7ea 89bd a7c5 b93e 6208 e9be 6666 23bf
00000340: 8afd 8dbf 0fca aa3c 6795 3c3e 04a7 b1be
00000350: 6672 c3bb ddc3 bdbe 63e4 c83d adb1 2e3f
00000360: c594 20be 1a17 c6be e70d 513e b0b2 fc3c
00000370: c827 ca3e e713 80be 8d4a 74bc d3ba 593e
00000380: 77df 4ebe 4a27 b83e b926 223e 6148 273e
00000390: 1183 8a3e 74d4 623f ada4 9a3f ba8f 4a3f
000003a0: 623c f93b 4c6f da3e 41e5 013f 4391 d53d
000003b0: b386 2bbf 803b ae3e 03cb 6d3f e9d6 8bbf
000003c0: fadb d7bd aa89 28bf 8dbd c0be 1850 5d3f
000003d0: 996b aabe 83d3 403f 3ae4 7cbf 3ef6 663f
000003e0: 9762 073f 3c56 86bd 8118 e6be 6d4a 093f
000003f0: 14e6 38be b39b 40bf 3afb 2f3f 4eec 42c0

feature_fusion.conv_low_res.bias f4 [32]
0.35317817 0.75283456 -0.18742913 0.7831962 0.57077193 0.2334322 0.5256616 -0.86016047
0.3928446 0.8921334 -0.37476984 -0.6205369 -0.21032594 -0.13225107 1.1270859 -1.1831623
0.021299845 -0.20948501 1.2924894 -0.41690108 0.10169536 -0.32947868 1.0915582 -0.049560245
0.3260452 0.068854116 -1.0343142 0.62269497 0.26450223 0.88651687 -0.5569897 -0.2501304
00000000: c5d3 b43e c4b9 403f 6ced 3fbe 8c7f 483f
00000010: 1c1e 123f da08 6f3e c291 063f 7a33 5cbf
00000020: ed22 c93e db62 643f d5e1 bfbe 82db 1ebf
00000030: af5f 57be d36c 07be 5a44 903f dd71 97bf
00000040: 037d ae3c 3d83 56be 4b70 a53f 0f74 d5be
00000050: a845 d03d 6eb1 a8be 2eb8 8b3f afff 4abd
00000060: 65ef a63e 6303 8d3d 6864 84bf f068 1f3f
00000070: d66c 873e c5f2 623f e196 0ebf 1711 80be

classifier.conv.weight f4 [1, 32, 1, 1]
-0.48383588 -0.91213495 0.47924158 -0.49767217 -0.45041436 -0.5657707 0.5534592 -0.6401379
0.48008034 0.5495029 -0.69360775 0.76215255 -0.876845 -0.3641933 -0.5439055 -0.9833565
-0.4777618 0.48222944 0.9021954 0.69423807 -0.42466852 -0.7547611 -0.5640859 0.4162902
0.44502187 -0.45479792 -0.4827603 -0.75631416 -0.6835561 -0.41985044 0.501478 -0.94095546
00000000: 56b9 f7be ad81 69bf 275f f53e e3ce febe
00000010: b69c e6be 59d6 10bf 81af 0d3f 14e0 23bf
00000020: 17cd f53e 39ac 0c3f 4790 31bf 6e1c 433f
00000030: ea78 60bf 8b77 babe 643d 0bbf 40bd 7bbf
00000040: 329d f4be c7e6 f63e 47f6 663f 96b9 313f
00000050: 276e d9be 0638 41bf ef67 10bf fd23 d53e
00000060: e8d9 e33e 46db e8be 5c2c f7be ce9d 41bf
00000070: 88fd 2ebf a3f6 d6be dd60 003f 75e2 70bf

onnx::Conv_356 f4 [8, 3, 3, 3]
-0.45602602 -0.08916548 0.5567716 -0.5337942 -0.47425574 0.5131825 0.5100626 -0.19985692
-0.26378843 -0.28947613 0.073715374 2.5276687 -0.9013478 -0.48373234 1.2520396 -0.25560844
-0.39981127 0.18581502 -0.44082177 -0.5547177 1.3897138 -0.4426456 -0.62160945 1.011768
0.2340515 -0.47049087 -0.81445545 0.33651224 0.30821508 0.5453252 0.16767573 -0.0761401
-0.30906463 -0.1444667 -0.26737562 -0.37894627 0.8344927 0.36810228 0.31498012 0.47775975
-0.050119076 -0.31171528 -0.18540502 -0.48553738 -0.93389696 0.45750144 0.4592211 0.49003232
0.39382038 -0.07140917 -0.38863942 -0.31827602 -0.49338534 -0.5989851 -0.23066698 -0.33700174
-0.32303765 -0.099616356 -0.21384753 -0.18771033 0.1713064 -0.022450034 0.00086521194 -0.20618697
-0.27233905 -4.881289e-05 -0.45414704 -0.55818725 -0.38987383 -0.37416187 -0.65603465 -0.39063203
-0.17812388 0.06519163 0.09942109 0.10545646 0.23235857 0.32972807 0.3217238 0.49229208
0.35233092 -0.1807386 -0.23295666 -0.36269638 -0.24681357 -0.25741753 -0.43427747 -0.007586903
-0.33786425 -0.40240952 0.14766294 0.26841503 0.19536096 0.37892216 0.33021548 0.33487567
0.3338092 0.33400443 0.27211717 -0.12007049 -0.19935565 0.022440916 0.021758592 -0.028655767
0.07582466 0.05899536 -0.056002144 -0.094201475 0.09608036 0.32705313 0.054209534 0.21103019
0.37795198 0.020101968 0.3453148 0.0025954975 -0.1098125 -0.28906626 1.0287 0.55232936
0.20895213 1.0671717 0.44690007 0.17453381 0.32960808 -0.12753898 -0.53410655 -0.08443454
-0.037034433 -0.37982178 0.32945594 -0.3918965 -0.22222559 -0.15560615 -0.18068735 -0.019541971
0.013797479 0.049127012 0.015099116 0.022712328 -0.036768135 0.11355882 0.05306059 -0.012424796
0.21150085 0.13308579 0.12167468 0.2852254 0.19687454 0.09674196 0.14944512 0.06878863
0.08003658 -0.087955035 -0.1477421 -0.0410674 -0.029584665 -0.10785069 -0.10444122 -0.0689775
-0.035786714 -0.039357763 -0.19745007 -0.5684588 -0.6812163 -0.34430778 -0.26882765 0.124702856
0.3363324 0.61147577 0.36606058 -0.8696351 -0.9929763 -1.1313225 -0.10044008 -0.053755373
-0.13023329 1.5999788 1.4123683 1.0076971 -0.6058083 -0.90165865 -0.43523362 -0.37429535
-0.17563947 -0.03602383 1.292981 0.714792 0.66167307 0.19732526 -0.030995166 0.01136664
-0.326499 0.060219146 0.21120675 -0.23335896 -0.0073198536 0.19930406 0.0830742 0.03763113
0.1198169 -0.14689206 0.57868165 0.94085306 -0.19419251 0.50260055 0.4977369 -0.2508199
-0.28360903 0.08854469 -0.5295274 -0.020276574 0.53516793 -0.640621 -0.09095399 0.17624895
00000000: 3e7c e9be 649c b6bd 9588 0e3f bda6 08bf
00000010: a6d1 f2be ee5f 033f 7693 023f 4ba7 4cbe
00000020: 470f 87be 3736 94be 16f8 963d 53c5 2140
00000030: bbbe 66bf c4ab f7be d542 a03f 1cdf 82be
00000040: 10b4 ccbe 4b46 3e3e 64b3 e1be fb01 0ebf
00000050: 24e2 b13f 72a2 e2be cc21 1fbf 9d81 813f
00000060: 32ab 6f3e 2ee4 f0be 2780 50bf 554b ac3e
00000070: 5ece 9d3e 6f9a 0b3f 30b3 2b3e 57ef 9bbd
00000080: b83d 9ebe 14ef 13be 75e5 88be 3f05 c2be
00000090: 50a1 553f e777 bc3e 1345 a13e ed9c f43e
000000a0: a949 4dbd 2599 9fbe d0da 3dbe 5b98 f8be
000000b0: df13 6fbf a13d ea3e 071f eb3e 84e5 fa3e
000000c0: d3a2 c93e f93e 92bd bffb c6be 13f5 a2be
000000d0: 019d fcbe 1657 19bf f733 6cbe 7e8b acbe
000000e0: 3165 a5be a903 ccbd d9fa 5abe 2337 40be
000000f0: f26a 2f3e 22e9 b7bc 64cf 623a ad22 53be
00000100: 0670 8bbe 71bc 4cb8 f685 e8be 5ce5 0ebf
00000110: 8b9d c7be 2592 bfbe e3f1 27bf ec00 c8be
00000120: 1b66 36be 3083 853d 499d cb3d 8ef9 d73d
00000130: 68ef 6d3e 1ed2 a83e fbb8 a43e b50d fc3e
00000140: b864 b43e 8a13 39be 318c 6ebe 57b3 b9be
00000150: b2bc 7cbe 3bcc 83be 9e59 debe 8e9b f8bb
00000160: 8bfc acbe 9f08 cebe f434 173e b26d 893e
00000170: b40c 483e 1602 c23e 0112 a93e d374 ab3e
00000180: 0ae9 aa3e a102 ab3e f152 8b3e 84e7 f5bd
00000190: e323 4cbe 03d6 b73c 133f b23c 80bf eabc
000001a0: f649 9b3d 1ea5 713d 8162 65bd b4ec c0bd
000001b0: c8c5 c43d 8273 a73e d10a 5e3d 4c18 583e
000001c0: ec82 c13e e2ac a43c 1acd b03e 3919 2a3b
000001d0: 60e5 e0bd 7e00 94be 71ac 833f 7565 0d3f
000001e0: 8cf7 553e 1599 883f 16d0 e43e feb8 323e
000001f0: 64c2 a83e 9499 02be 35bb 08bf 04ec acbd
00000200: 6bb1 17bd 0078 c2be 73ae a83e a8a6 c8be
00000210: 1b8f 63be 3857 1fbe 1b06 39be 7c16 a0bc
00000220: d20e 623c 6839 493d 4862 773c 340f ba3c
00000230: 2f9a 16bd 8791 e83d 1056 593d 5f91 4bbc
00000240: ae93 583e a447 083e 9330 f93d 1009 923e
00000250: 7b99 493e a620 c63d 2408 193e 0ee1 8c3d
00000260: 38ea a33d c521 b4bd b449 17be 4a36 28bd
00000270: 8a5b f2bc d3e0 dcbd 47e5 d5bd 1344 8dbd
00000280: 1795 12bd 9b35 21bd 5a30 4abe 8486 11bf
00000290: 3164 2ebf 1c49 b0be c7a3 89be 3664 ff3d
000002a0: c333 ac3e ad89 1c3f 4b6c bb3e 68a0 5ebf
000002b0: b233 7ebf 2dcf 90bf 87b3 cdbd 982e 5cbd
000002c0: e05b 05be 1bcc cc3f 7cc8 b43f 38fc 803f
000002d0: 4116 1bbf 1ad3 66bf f1d6 debe a4a3 bfbe
000002e0: d5da 33be b98d 13bd 6780 a53f 9cfc 363f
000002f0: 6863 293f a20f 4a3e 93e9 fdbc 253b 3a3c
00000300: e02a a7be 5aa8 763d 9546 583e a7f5 6ebe
00000310: 62db efbb 5d16 4c3e ce22 aa3d 1a23 1a3d
00000320: 9062 f53d df6a 16be 7b24 143f bfdb 703f
00000330: 67da 46be 6eaa 003f 5fd7 fe3e 776b 80be
00000340: 3435 91be eb56 b53d 1c8f 07bf 0f1b a6bc
00000350: c400 093f bdff 23bf 1646 babd 9b7a 343e

onnx::Conv_357 f4 [8]
-0.09927349 -0.010893296 0.23941752 -0.9734005 -0.29139492 0.7661549 -0.2840761 -0.3573811
00000000: e64f cbbd cc79 32bc de29 753e c630 79bf
00000010: b731 95be ba22 443f 6c72 91be a8fa b6be

onnx::Conv_359 f4 [8, 1, 3, 3]
-0.10096922 -0.24625407 -0.22603856 -0.056971755 -0.1826504 -0.19097556 0.011569781 -0.03940703
-0.06623201 -0.19813414 -0.09340526 -0.12942363 -0.21020728 -0.2774112 -0.23884882 -0.12709787
-0.25449276 -0.22494899 -0.09225362 -0.20972492 -0.15993856 -0.00812681 -0.24533659 -0.22797304
0.046691544 -0.14315973 -0.19544421 0.22268716 0.38015786 0.14280263 -0.006257192 0.37731454
0.4598689 -0.35253516 -0.104354925 0.41985163 0.07409264 0.27825382 0.24141134 0.08180693
0.35175297 0.29882684 -0.007991417 0.05683932 0.080958456 0.1955187 -0.48128083 -0.7413147
0.9769627 0.33893028 0.029003609 1.2489161 0.5021617 -0.14426719 -0.035674755 -0.077245206
-0.06987698 -0.077759616 -0.1647527 -0.10434274 -0.103713214 -0.18290763 -0.14492188 -0.03109284
-0.17310283 -0.15496981 0.24218577 0.33352467 0.14574918 0.41369665 0.54359794 0.15451843
00000000: f3c8 cebd 072a 7cbe a776 67be 375b 69bd
00000010: b508 3bbe 198f 43be 2e8f 3d3c 4469 21bd
00000020: a6a4 87bd ade3 4abe 424b bfbd a187 04be
00000030: 9440 57be d708 8ebe c994 74be f225 02be
00000040: e04c 82be 0759 66be 77ef bcbd 21c2 56be
00000050: efc6 23be 5026 05bc 8439 7bbe c471 69be
00000060: a23f 3f3d 7798 12be 8722 48be 1a08 643e
00000070: 0da4 c23e da3a 123e 2209 cdbb 5f2f c13e
00000080: f073 eb3e 7d7f b4be 09b8 d5bd cbf6 d63e
00000090: e2bd 973d 4977 8e3e 8934 773e 648a a73d
000000a0: f718 b43e d5ff 983e 6fee 02bc 59d0 683d
000000b0: 8ccd a53d 0e36 483e 716a f6be cdc6 3dbf
000000c0: 3a1a 7a3f 4588 ad3e fa98 ed3c 7cdc 9f3f
000000d0: ab8d 003f c7ba 13be b11f 12bd bc32 9ebd
000000e0: a91b 8fbd 6f40 9fbd efb4 28be a5b1 d5bd
000000f0: 9867 d4bd 234c 3bbe 6766 14be 69b6 febc
00000100: de41 31be 68b0 1ebe 8cff 773e bfc3 aa3e
00000110: 463f 153e 0cd0 d33e 3c29 0b3f 143a 1e3e

onnx::Conv_360 f4 [8]
0.7592872 0.8502965 0.9622246 -0.2369222 -0.9787103 -1.5212631 0.8089031 -0.4992006
00000000: a560 423f 08ad 593f 5a54 763f bc9b 72be
00000010: c28c 7abf c0b8 c2bf 4614 4f3f 3997 ffbe

onnx::Conv_362 f4 [12, 8, 1, 1]
0.0073297587 0.01437105 -0.22402006 -0.0010495355 -0.12337252 -0.11743599 -0.09233619 -0.15674265
-0.19788493 -0.42415988 -0.33020297 0.113376625 1.0734507 0.16367406 -0.58960116 0.19328529
-0.015098179 0.007847041 -0.19857082 -0.012345207 -0.12150333 -0.025318721 0.0023673826 -0.02398905
-0.052946623 0.5339771 0.011729287 1.6216025 -0.099882714 0.20780264 0.959892 -0.037172608
0.55359226 0.8957733 0.15366566 -0.018418794 0.1727559 0.020833729 0.47824186 0.15079883
0.49935555 -0.25907657 -0.3824835 -0.06988798 -0.32800853 0.63254565 -0.3617942 0.12696816
-0.3546098 -0.4400375 -0.2839334 -0.10489686 0.121475875 0.14152037 -0.2651783 0.18073939
0.54741657 0.37256125 -0.04702963 -0.5218887 -0.6812826 0.44800565 -1.0006287 1.1870655
-0.06618642 0.08002778 -7.1562165e-05 -0.042664964 -0.039257437 -0.14969952 0.08460193 -0.07092128
0.0025588605 -0.13365278 -0.20645393 0.034247227 -0.09963834 0.012306334 -0.056728892 -0.045327656
-0.16877046 -0.03790786 0.097853325 0.08703984 0.24095866 0.05732258 -0.04510207 0.117624775
0.23734963 0.27288905 0.05022785 0.012722297 -0.0110648405 0.13251474 -0.19200405 0.17052817
00000000: 792e f03b 8d74 6b3c 8465 65be 9190 89ba
00000010: bbaa fcbd 4882 f0bd c21a bdbd 2581 20be
00000020: 59a2 4abe 7c2b d9be 5d10 a9be 0132 e83d
00000030: d566 893f 2c9a 273e 1af0 16bf 94ec 453e
00000040: 5a5e 77bc e090 003c 2656 4bbe 8d43 4abc
00000050: bdd6 f8bd 3569 cfbc 1726 1b3b af84 c4bc
00000060: 8fde 58bd b9b2 083f 322c 403c ac90 cf3f
00000070: 4f8f ccbd 37ca 543e 7bbb 753f 4e42 18bd
00000080: 39b8 0d3f 6651 653f 885a 1d3e 03e3 96bc
00000090: ece6 303e 7fab aa3c 1edc f43e 026b 1a3e
000000a0: 88ab ff3e afa5 84be e1d4 c3be 6e21 8fbd
000000b0: bcf0 a7be 83ee 213f 173d b9be f103 023e
000000c0: 6a8f b5be 984c e1be b85f 91be 2ad4 d6bd
000000d0: 58c8 f83d b7ea 103e 73c5 87be bf13 393e
000000e0: 7e23 0c3f 59c0 be3e 24a2 40bd 7f9a 05bf
000000f0: 8968 2ebf ff60 e53e 9a14 80bf c3f1 973f
00000100: bf8c 87bd 9be5 a33d a513 96b8 75c1 2ebd
00000110: 68cc 20bd d54a 19be c743 ad3d 2d3f 91bd
00000120: 8eb2 273b 46dc 08be a968 53be d246 0c3d
00000130: 300f ccbd 82a0 493c 8e5c 68bd 7ea9 39bd
00000140: 2ad2 2cbe 4645 1bbd 5367 c83d f241 b23d
00000150: debd 763e 15cb 6a3d f3bc 38bd 42e5 f03d
00000160: c80b 733e 1db8 8b3e b8bb 4d3d 2e71 503c
00000170: 4e49 35bc f2b1 073e b69c 44be f09e 2e3e

onnx::Conv_363 f4 [12]
0.96733016 0.0026138027 0.98726773 0.24390203 0.06671881 0.23777059 0.3820112 -0.017844446
1.1515374 0.8910704 0.8119372 0.69310856
00000000: f3a2 773f 554c 2b3b 94bd 7c3f 74c1 793e
00000010: dfa3 883d 227a 733e f996 c33e 842e 92bc
00000020: 9465 933f 311d 643f 1edb 4f3f 906f 313f

onnx::Conv_365 f4 [12, 1, 3, 3]
-0.7003462 0.8956842 0.084133945 -1.0626442 0.8212511 1.0946461 -0.9307296 -0.45015678
0.2864325 0.10841081 0.29379267 -0.038203914 0.002992033 0.3000822 0.20865251 -0.19437686
-0.10410769 -0.00067177194 -0.55352 -2.3062723 -1.168277 -0.74894965 -0.4350602 0.91749656
0.41436023 1.6972479 2.1539352 0.05936727 0.16149957 -0.06718165 -0.023222977 0.14219955
0.32015115 -0.087640986 0.02645635 0.24760096 -0.045362704 0.22597268 0.12678975 -0.08095798
0.44944322 0.3963596 -0.21667628 0.07815239 0.13864996 0.09236699 0.11112361 -0.06810897
0.3852096 0.27697933 -0.024725864 0.51335406 0.42389336 0.10114196 0.31190395 -0.34717923
-0.15101081 0.4336519 -0.3826225 -0.30744642 0.46281374 0.038378656 -0.17397037 -0.077454284
-0.5004537 -0.31906813 0.117516406 0.24494462 0.05214916 0.11318983 0.42341575 0.27307677
0.10150526 0.29087362 1.9267133 -2.0870895 -5.4608884 -1.6799254 0.70984936 1.8486493
3.395953 -0.59280676 -0.08860498 1.0776497 -1.4176719 -1.6227113 0.21708089 -0.15526828
0.7444285 1.9783399 -0.3173077 -1.8008205 -0.6507628 -0.52556163 -0.37518594 0.836829
-0.21810207 0.760972 2.1358335 -0.15794554 -0.0682122 -0.92953384 -0.09915396 0.29327303
-0.1882737 0.45738637 1.3037465 0.7826929
00000000: e349 33bf 8f4b 653f 6b4e ac3d ba04 88bf
00000010: 833d 523f 5d1d 8c3f 4c44 6ebf f37a e6be
00000020: 48a7 923e 7d06 de3d fe6b 963e b57b 1cbd
00000030: fc15 443b 60a4 993e 01a9 553e ba0a 47be
00000040: 6a36 d5bd da19 30ba 7db3 0dbf f799 13c0
00000050: 1a8a 95bf 2abb 3fbf 36c0 debe 0ee1 6a3f
00000060: 0627 d43e 6b3f d93f 13da 0940 182b 733d
00000070: 2560 253e 8896 89bd 1d3e bebc c29c 113e
00000080: daea a33e 1e7d b3bd fdba d83c 1b8b 7d3e
00000090: 3ece 39bd 6265 673e 2cd5 013e 4ccd a5bd
000000a0: 6c1d e63e a5ef ca3e 63e0 5dbe 5c0e a03d
000000b0: 41fa 0d3e e82a bd3d c694 e33d b77c 8bbd
000000c0: 313a c53e 3cd0 8d3e e58d cabc 2c6b 033f
000000d0: 8d08 d93e 8423 cf3d e0b1 9f3e 7ac1 b1be
000000e0: 94a2 1abe 9f07 de3e 19e7 c3be 9e69 9dbe
000000f0: ecf5 ec3e f032 1d3d 4a25 32be 5aa0 9ebd
00000100: bc1d 00bf e65c a3be 71ac f03d c3d2 7a3e
00000110: 5c9a 553d 12d0 e73d f3c9 d83e b8d0 8b3e
00000120: fde1 cf3d 63ed 943e 8b9e f63f e092 05c0
00000130: 99bf aec0 cc07 d7bf b0b8 353f 8aa0 ec3f
00000140: 4b57 5940 2fc2 17bf 8776 b5bd 6df0 893f
00000150: 4676 b5bf 01b5 cfbf 744a 5e3e a6fe 1ebe
00000160: de92 3e3f 3e3a fd3f 2876 a2be 4981 e6bf
00000170: 6498 26bf 358b 06bf 5f18 c0be 6d3a 563f
00000180: 2656 5fbe 10cf 423f 7fb1 0840 7abc 21be
00000190: d7b2 8bbd eef5 6dbf 3b11 cbbd e227 963e
000001a0: d2ca 40be 8c2e ea3e 2ae1 a63f 905e 483f

onnx::Conv_366 f4 [12]
-0.1183792 -0.33299893 -0.14426297 -0.5598245 -0.71511763 -0.94421375 0.078827985 -0.24427651
1.1351017 -0.19711421 0.00033197552 -1.066228
00000000: cb70 f2bd d67e aabe acb9 13be a950 0fbf
00000010: f311 37bf feb7 71bf 9170 a13d 9f23 7abe
00000020: 034b 913f 4fd8 49be 000d ae39 297a 88bf

onnx::Conv_368 f4 [16, 12, 1, 1]
-0.56312233 0.3664625 0.18975542 0.4951589 -0.684797 0.03407692 -0.47038305 0.11801321
-0.17195284 -0.24964087 0.40728277 -0.12811345 0.10691049 -0.02433891 0.43351296 0.11554103
-0.32462135 -0.19560021 -0.3305966 -0.3350524 0.39092094 0.36476308 -0.0728329 -0.15048088
-0.15320104 0.6636608 0.0894614 0.6367587 0.47955418 -0.496979 -0.12003828 0.17110042
-0.097021766 0.122015476 -0.2662454 -0.0807285 0.3649431 -0.35715654 -0.23108439 -0.12867415
-0.24070539 0.4609198 -0.23904522 0.31291053 -0.035799004 -0.30366224 0.33242565 -0.16373806
0.46581006 -0.16636112 0.4608123 0.2803491 -0.33319956 0.27257025 -0.19870949 -0.12659754
-0.22360945 -0.6449027 -0.6396369 0.050467316 0.008266959 -0.08866201 0.23599786 0.08530567
-0.11039279 -0.054530922 0.34364524 -0.2898143 -0.52653414 0.15375155 -0.5251928 0.3749125
-0.07109243 -0.23358847 -0.4820423 -0.06530906 -0.13359803 -0.06698528 0.3268553 0.22420627
0.5308787 0.18143633 0.68213123 0.15059695 0.13460568 0.014758117 -0.45673394 -0.033777617
0.14784169 0.019122036 0.20263 0.55949616 -0.64247173 0.059274625 0.3105453 0.33346808
-0.41313285 0.094713695 0.59238887 0.1473987 -0.040726703 0.01717505 0.09956575 0.5019367
0.031241449 0.3338476 -0.35247266 -0.76963073 0.038056795 -0.4703952 -0.2054463 -0.579786
0.14146928 0.6156502 0.3133406 0.057426725 -0.056959547 0.54892224 -0.21713479 -0.14464949
0.00044018537 -0.0072994973 -0.2584106 0.08589112 -0.02851245 0.3892186 -0.13272414 0.47313932
0.4540217 0.074605465 -0.16592526 -0.10202698 0.26782164 -0.1165391 -0.14853384 0.8034991
-0.2060619 -0.3232878 -0.0886453 -0.30432376 -0.08082505 -0.34416774 0.30940035 0.30217856
-0.076942 0.042382013 -0.3716179 0.027117373 -0.02130005 -0.00969371 -0.35850942 -0.33008364
0.14991128 -0.18980426 0.288729 -0.48197308 -0.79102755 0.025029399 -0.31732282 0.011133984
0.40091345 0.2747773 -0.24742387 0.2185099 -0.24182811 -0.5863675 0.19606341 -0.32261705
-0.08738881 0.22457653 0.66138256 -0.8431741 -0.23307313 -0.23363537 -0.08866738 -0.080307804
-0.04100154 -0.38716045 0.024898952 -0.15362605 -0.3878361 0.23383836 -0.08383837 0.059695087
0.38805348 -0.20155211 -0.06223096 -0.09565857 0.17821898 0.19199575 0.31668434 -0.251661
00000000: c928 10bf f9a0 bb3e 3f4f 423e 7885 fd3e
00000010: db4e 2fbf 3e94 0b3d 0cd6 f0be e9b0 f13d
00000020: 6814 30be dba1 7fbe 5e87 d03e 2c30 03be
00000030: e3f3 da3d 6562 c7bc 69f5 dd3e c7a0 ec3d
00000040: c534 a6be 6c4b 48be f543 a9be fd8b abbe
00000050: ca26 c83e 3ac2 ba3e 6a29 95bd a917 1abe
00000060: bce0 1cbe ade5 293f 8a37 b73d 9e02 233f
00000070: 2088 f53e 0874 febe a1d6 f5bd f334 2f3e
00000080: 59b3 c6bd 40e3 f93d 5151 88be fc54 a5bd
00000090: d2d9 ba3e 39dd b6be 63a1 6cbe 28c3 03be
000000a0: 797b 76be aefd eb3e 45c8 74be cf35 a03e
000000b0: faa1 12bd 9e79 9bbe b233 aa3e f3aa 27be
000000c0: a87e ee3e 925a 2abe 97ef eb3e eb89 8f3e
000000d0: 2299 aabe 548e 8b3e 807a 4bbe c9a2 01be
000000e0: e0f9 64be 5818 25bf 3ebf 23bf d1b6 4e3d
000000f0: 2472 073c 6e94 b5bd 6ca9 713e bdb4 ae3d
00000100: 9d15 e2bd d15b 5fbd 45f2 af3e 8a62 94be
00000110: f1ca 06bf 0c71 1d3e 0973 06bf 88f4 bf3e
00000120: e898 91bd d131 6fbe 40ce f6be c2c0 85bd
00000130: eccd 08be 942f 89bd 9459 a73e 5496 653e
00000140: abe7 073f 72ca 393e 27a0 2e3f 1636 1a3e
00000150: 12d6 093e 07cc 713c 08d9 e9be 665a 0abd
00000160: d063 173e d1a5 9c3c 3d7e 4f3e 243b 0f3f
00000170: 0779 24bf f3c9 723d cbff 9e3e 54bc aa3e
00000180: 2686 d3be 41f9 c13d cca6 173f afef 163e
00000190: 0bd1 26bd b1b2 8c3c 21e9 cb3d ec7e 003f
000001a0: 11ee ff3c 13ee aa3e 4c77 b4be 8506 45bf
000001b0: 71e1 1b3d a4d7 f0be 8460 52be db6c 14bf
000001c0: 53dd 103e 409b 1d3f 2e6e a03e 4938 6b3d
000001d0: 6a4e 69bd 2b86 0c3f 9558 5ebe ff1e 14be
000001e0: aec8 e639 9f30 efbb 654e 84be afe7 af3d
000001f0: f192 e9bc a947 c73e d6e8 07be 513f f23e
00000200: 8875 e83e c0ca 983d 50e8 29be 85f3 d0bd
00000210: eb1f 893e 0dac eebd 4119 18be 1eb2 4d3f
00000220: e401 53be fb85 a5be ab8b b5bd 53d0 9bbe
00000230: 9b87 a5bd c136 b0be b969 9e3e 26b7 9a3e
00000240: c493 9dbd c398 2d3d b444 bebe 4125 de3c
00000250: 717d aebc 5ed2 1ebc 8c8e b7be b900 a9be
00000260: 5882 193e 0c5c 42be 4ad4 933e 2dc5 f6be
00000270: c880 4abf 740a cd3c 2378 a2be 506b 363c
00000280: 8744 cd3e 9caf 8c3e af5c 7dbe 0fc1 5f3e
00000290: caa1 77be 2e1c 16bf d9c4 483e 102e a5be
000002a0: e8f8 b2bd 64f7 653e 5e50 293f 42da 57bf
000002b0: b9aa 6ebe 1c3e 6fbe 3e97 b5bd 6b78 a4bd
000002c0: 3bf1 27bd e539 c6be e3f8 cb3c 2650 1dbe
000002d0: 7492 c6be 5373 6f3e 74b3 abbd d682 743d
000002e0: f2ae c63e ad63 4ebe e4e5 7ebd a4e8 c3bd
000002f0: 097f 363e 899a 443e 7324 a23e b6d9 80be

onnx::Conv_369 f4 [16]
0.5509575 0.18201853 0.29900342 0.6967347 0.2860389 -0.14288759 -0.06388559 -0.11502226
0.15489344 0.39850536 0.008260564 0.23137917 -0.28215268 -0.09397065 0.20740002 0.78760934
00000000: 8d0b 0d3f 1163 3a3e fa16 993e 355d 323f
00000010: b173 923e 2051 12be 73d6 82bd ca90 ebbd
00000020: 639c 1e3e e508 cc3e 5157 073c a9ee 6c3e
00000030: 5176 90be af73 c0bd ac60 543e c4a0 493f

onnx::Conv_371 f4 [96, 16, 1, 1]
-0.4100188 -0.093356594 0.21670881 -0.13444899 -0.14430015 -0.020484934 -0.012378622 0.581114
0.058645464 -0.41761047 -0.34840038 0.38602972 0.5103211 0.87056386 0.0225771 0.38838536
-0.119465046 0.2159739 0.3945092 -0.25854263 -0.11540633 -0.32671225 -0.21309589 0.20562889
1.1408744 -0.09422676 -0.20001395 -0.42563894 0.018047223 0.289357 0.14303638 0.7695375
-0.053260237 -0.24910727 -0.3660014 0.5765968 0.07317187 -0.14227699 0.17804319 -0.20286842
-0.07113145 -0.027716761 0.029229473 0.24520856 0.10617212 -0.30447173 -0.15094787 -0.27785942
-0.04153885 -0.03504475 -0.03856311 0.0098500885 -0.0007597821 -0.00018782116 -0.02073045 -0.0051329155
-0.01767277 -0.00096236815 5.6035617e-05 -0.025879573 -0.071048304 0.0022109176 -0.032553125 -0.037692007
0.7184609 0.100297384 -0.15589099 -0.1765667 -0.13027088 -0.08236367 0.25497177 -0.13773625
-0.4224244 -0.31186005 -0.15815344 0.586135 0.55505455 -0.10136767 0.11331403 0.6015069
0.07073769 0.19669217 0.9676642 0.0075710234 0.4378705 0.28279358 -0.2558988 -0.2907712
-0.19300042 -0.63686234 0.4397074 0.03385237 0.17466253 0.9426185 -0.043122202 0.39513153
-0.0025008144 -0.06340564 -0.24560174 0.45199165 0.3669334 -0.02095484 0.09536636 0.101436
0.014926898 0.31456184 0.1374702 -0.11730911 0.096864924 0.03201413 0.00071396993 -0.08335993
0.8793051 0.07893843 0.15970175 -0.16623136 -0.050290074 0.14275232 0.38130206 0.31115156
0.07982859 -0.28314605 -0.25525096 0.7397552 -0.18356942 -0.21902262 -1.0188578 -0.5536255
-0.24255721 -0.09980303 -0.22131039 -0.23394124 -0.3855194 -0.21925546 -0.4880236 -0.32564896
0.1362021 -0.17572272 -0.14536695 0.063421376 -0.33272836 -0.20031835 0.06625878 0.06669062
0.27404585 -0.42147225 0.189509 -0.5715065 -0.1721524 -0.48800364 -0.16871732 -0.15118948
-0.2719037 -0.32336465 -0.20184207 0.11669113 -0.06761269 0.00021477323 0.077391386 0.023679556
0.56527406 0.10663365 0.16882521 -0.4801376 0.23817317 -0.08336315 0.1448663 -0.33556718
0.0154620735 -0.559628 -0.15381472 0.3852809 -0.287139 -0.14017995 -0.74375653 -0.14952959
-0.04936838 0.56356543 -0.46636823 0.24180762 -0.41662106 0.30955228 0.08653066 -0.03532889
-0.21151704 0.55526656 0.098065786 0.12012836 0.50908655 0.27121347 -0.1141443 -0.014566469
-0.1733039 -0.08127541 0.06395587 0.71707845 0.46195033 0.38403508 0.10661716 0.63507444
-0.05483002 0.65957683 0.4320997 -0.5178217 -0.11922933 0.2964724 -0.096784994 -0.317359
-0.06655134 -0.026602145 -0.03870999 0.4485784 0.14433461 0.03178631 0.57510924 0.14108056
-0.54723454 0.00030034306 0.2884594 0.25075212 0.29562736 0.25273797 -0.12480872 0.18938671
0.08568172 0.04380531 -0.2702232 0.11981627 -0.070534766 -0.07130467 0.270244 0.4017036
-0.43180403 -0.034030505 -0.11273991 0.21227987 0.42284173 0.51860034 -0.05478631 0.08628074
0.015222917 -0.7213161 0.31047732 -0.07163584 -0.07729324 -0.8007414 0.21504985 0.08632513
-0.74334556 -0.058679316 -0.15452476 0.28608492 -0.22373831 -0.73475134 -0.47205397 0.111036874
00000000: fced d1be be31 bfbd eae8 5d3e ffac 09be
00000010: 6bc3 13be 05d0 a7bc b4cf 4abc e3c3 143f
00000020: 3a36 703d 0ad1 d5be 8961 b2be b0a5 c53e
00000030: 67a4 023f 46dd 5e3f 9cf3 b83c 72da c63e
00000040: 17aa f4bd 4328 5d3e 1cfd c93e b35f 84be
00000050: 275a ecbd d446 a7be cf35 5abe 6190 523e
00000060: 2c08 923f f6f9 c0bd 75d0 4cbe 59ed d9be
00000070: c5d7 933c 9a26 943e 2178 123e 6900 453f
00000080: 6827 5abd fa15 7fbe 8964 bbbe d99b 133f
00000090: 22db 953d 0fb1 11be f450 363e bdbc 4fbe
000000a0: 5ead 91bd 430e e3bc a672 ef3c f417 7b3e
000000b0: c570 d93d b8e3 9bbe 1492 1abe 9743 8ebe
000000c0: a424 2abd 158b 0fbd 5af4 1dbd 4462 213c
000000d0: 1d2c 47ba dcf1 44b9 e8d2 a9bc 0432 a8bb
000000e0: 7cc6 90bc 6f47 7cba c907 6b38 6601 d4bc
000000f0: c681 91bd 0be5 103b 6d56 05bd ef62 1abd
00000100: 0eed 373f b768 cd3d e3a1 1fbe e7cd 34be
00000110: bb65 05be 49ae a8bd a98b 823e bb0a 0dbe
00000120: 0348 d8be 1fac 9fbe faf2 21be f20c 163f
00000130: 0e18 0e3f da99 cfbd 3011 e83d 5bfc 193f
00000140: ecde 903d ac69 493e d7b8 773f 5916 f83b
00000150: 9030 e03e 52ca 903e 2b05 83be f6df 94be
00000160: e7a1 45be 6909 23bf 5421 e13e c8a8 0a3d
00000170: bcda 323e 724f 713f e8a0 30bd ae4e ca3e
00000180: b4e4 23bb d1da 81bd 067f 7bbe 736b e73e
00000190: b2de bb3e 7ca9 abbc 704f c33d adbd cf3d
000001a0: f38f 743c 400e a13e fdc4 0c3e c23f f0bd
000001b0: 1e61 c63d 4021 033d b629 3b3a 9cb8 aabd
000001c0: 241a 613f 79aa a13d db88 233e 8e38 2abe
000001d0: f7fc 4dbd aa2d 123e 063a c33e 424f 9f3e
000001e0: 2c7d a33d 85f8 90be 41b0 82be 9960 3d3f
000001f0: 9ff9 3bbe 7747 60be ef69 82bf 67ba 0dbf
00000200: eb60 78be 8865 ccbd 319f 62be 4b8e 6fbe
00000210: cc62 c5be 8184 60be 3bde f9be 76bb a6be
00000220: 9078 0b3e a8f0 33be 13db 14be 11e3 813d
00000230: 5f5b aabe 4120 4dbe afb2 873d 1795 883d
00000240: bd4f 8c3e 36cb d7be a60e 423e 404e 12bf
00000250: b848 30be 9ddb f9be 3cc4 2cbe 6ad1 1abe
00000260: f636 8bbe 0d90 a5be b0af 4ebe c2fb ee3d
00000270: 8678 8abd c034 6139 607f 9e3d a1fb c13c
00000280: cdb5 103f be62 da3d 84e0 2c3e 98d4 f5be
00000290: abe3 733e 4dba aabd d557 143e 76cf abbe
000002a0: a354 7d3c c843 0fbf 9b81 1dbe 8a43 c53e
000002b0: e203 93be 558b 0fbe d466 3ebf 491e 19be
000002c0: 8036 4abd d345 103f d1c7 eebe 6b9c 773e
000002d0: 5b4f d5be a37d 9e3e fd36 b13d 07b5 10bd
000002e0: ec97 58be f325 0e3f b7d6 c83d dc05 f63d
000002f0: 7f53 023f 7edc 8a3e 7dc4 e9bd 33a8 6ebc
00000300: 9476 31be b973 a6bd 4cfb 823d 7492 373f
00000310: c184 ec3e 3fa0 c43e 195a da3d 3d94 223f
00000320: 7195 60bd 07da 283f 2c3c dd3e f78f 04bf
00000330: 822e f4bd 3bcb 973e 3637 c6bd e17c a2be
00000340: 124c 88bd beec d9bc 5e8e 1ebd 11ac e53e
00000350: 74cc 133e 5d32 023d 5c3a 133f 6c77 103e
00000360: 9017 0cbf 5d77 9d39 f3b0 933e 9562 803e
00000370: 785c 973e df66 813e b79b ffbd 97ee 413e
00000380: e679 af3d 326d 333d b25a 8abe 3c62 f53d
00000390: 8874 90bd 2f08 92bd 6c5d 8a3e 18ac cd3e
000003a0: 6b15 ddbe 9263 0bbd 2fe4 e6bd e55f 593e
000003b0: b67e d83e fec2 043f 9c67 60bd f5b3 b03d
000003c0: 8b69 793c 2ca8 38bf e2f6 9e3e d0b5 92bd
000003d0: eb4b 9ebd 63fd 4cbf 0736 5c3e 3bcb b03d
000003e0: e54b 3ebf b959 70bd bd3b 1ebe b979 923e
000003f0: a81b 65be aa18 3cbf 0fb1 f1be 4d67 e33d

onnx::Conv_372 f4 [96]
-0.8406117 -1.1581814 0.49618804 1.3671987 -0.8218017 -1.463376 -0.39935744 0.3504544
1.2558924 1.6021304 0.9725403 -0.27583367 -1.1405385 -1.2335517 -0.3622883 1.8372799
-0.6706072 0.057969615 -0.12327653 0.78605807 0.95872897 -1.2476294 0.63709736 1.63782
0.5616827 -1.242463 -1.1610337 0.4184785 -0.60073966 0.7632489 0.7639842 1.0399276
1.0435367 1.18682 -0.109435536 0.090885624 0.18554753 -0.060813338 0.6214229 -1.2504921
1.2485303 -1.4015173 0.971663 0.034963354 -0.5078634 0.82814574 1.0770745 -1.1208448
0.6859832 0.7798148 2.5637252 -0.84726167 -2.2313004 0.9260494 -0.21584454 0.08718282
-0.16580217 2.1478894 -0.8335918 -0.7671476 -0.11395843 1.1163027 0.85274225 0.3322881
-1.2111895 0.943025 -0.8797186 -0.63436097 -0.76308227 -0.36704528 -1.0914586 -0.4141602
1.1928293 0.8947232 -0.57255256 1.0254548 1.2216374 -1.0660872 1.4405302 -1.1868767
1.2059311 -0.40194416 0.15240389 -1.0142989 0.8423469 1.3782965 -1.1433606 -0.3029661
-0.5630586 2.1618505 1.1642183 -0.87564397 -0.7946502 -0.9810328 -0.5945052 0.77714574
00000000: 5432 57bf 4a3f 94bf 5c0c fe3e 5e00 af3f
00000010: 9961 52bf e84f bbbf 9478 ccbe c26e b33e
00000020: 15c1 a03f 9c12 cd3f 67f8 783f 123a 8dbe
00000030: 2afd 91bf 06e5 9dbf da7d b9be fd2b eb3f
00000040: eaac 2bbf 8c71 6d3d 6878 fcbd 1a3b 493f
00000050: 436f 753f 52b2 9fbf d018 233f 16a4 d13f
00000060: 70ca 0f3f 0709 9fbf c19c 94bf d042 d63e
00000070: 13ca 19bf 4864 433f 7894 433f 591c 853f
00000080: 9c92 853f b8e9 973f bd1f e0bd 3e22 ba3d
00000090: 2c00 3e3e 6817 79bd 9215 1f3f 2010 a0bf
000000a0: d7cf 9f3f eb64 b3bf e8be 783f bc35 0f3d
000000b0: 5603 02bf 5c01 543f 94dd 893f d877 8fbf
000000c0: 989c 2f3f f1a1 473f 1314 2440 24e6 58bf
000000d0: a0cd 0ec0 9311 6d3f 5a06 5dbe e88c b23d
000000e0: 0bc8 29be 0577 0940 4666 55bf c963 44bf
000000f0: 0a63 e9bd 02e3 8e3f 514d 5a3f aa21 aa3e
00000100: 4208 9bbf 166a 713f 3d35 61bf 7b65 22bf
00000110: 5c59 43bf 5ced bbbe eab4 8bbf ce0c d4be
00000120: a1ae 983f 940c 653f ce92 12bf 1a42 833f
00000130: 9d5e 9c3f 8c75 88bf 4b63 b83f 93eb 97bf
00000140: f35b 9a3f a0cb cdbe c40f 1c3e 8cd4 81bf
00000150: 0ca4 573f 056c b03f a459 92bf 5f1e 9bbe
00000160: 9c24 10bf c25b 0a40 1b05 953f 342a 60bf
00000170: 326e 4bbf f724 7bbf 7e31 18bf 06f3 463f

onnx::Conv_374 f4 [96, 1, 3, 3]
-0.37269706 -0.003502667 -0.06991941 0.26324844 0.40439343 0.014880952 -0.15208465 0.6239422
0.92237353 -0.0374368 -0.156964 -0.26316354 0.1097232 -0.3707423 -0.27264887 -0.109957576
-0.07177719 0.12421881 -0.025796555 -0.037153378 0.00970881 0.043757886 -0.21217023 -0.0002452666
-0.08601092 -0.26434928 -0.15186532 1.2145448 -1.2889704 -2.335563 1.3269824 0.33794495
-0.2770113 0.4937403 1.099867 -0.5443405 -0.49614164 -0.4155752 0.1397375 0.10672416
0.0857973 -0.033734005 0.15356094 0.17350478 0.21918952 -0.0434262 -0.1022686 -0.22424783
-0.028938359 -0.2548027 -0.20554782 -0.1307497 -0.19249105 -0.012236897 0.24920182 -0.33012936
0.17828943 0.0019566151 -0.5941689 -0.44806206 0.028629491 -0.36784258 -0.45857632 0.1554302
0.49790034 0.060993105 -0.17612468 0.4065983 0.034660533 -0.14611937 0.20366903 -0.12531221
1.0440637 -1.4244534 -0.5577306 0.13522163 -1.4515288 -0.16248506 -0.12323083 0.33580676
0.27065918 0.18370034 -0.12643275 -0.35846758 0.5268954 0.5512202 -0.14613262 -0.010086246
0.28550828 0.7300482 0.22613046 0.3375085 0.3209292 0.10199608 0.3636529 0.54491067
-0.27938473 0.050927892 0.135399 0.1422083 -0.112927325 0.32635805 0.091621116 0.0881766
0.23917726 0.18813115 -0.16420944 -0.14181554 -0.059914712 -0.039071776 0.071288444 -0.14770451
-0.146915 -0.42489058 -0.24343279 -0.20016445 -0.19998682 -0.10463519 0.39174846 0.01748288
0.018813012 0.47830927 0.40930855 -0.33644852 0.67389524 0.49408287 -0.43732604 0.14770535
0.39143547 -0.067570284 0.62624377 0.3004595 0.048005395 0.38447595 0.084815785 -0.2393077
-0.40083402 -0.23858233 -0.04663531 -0.18725708 -0.08923912 0.13354936 0.18168734 0.02756117
-0.4205328 0.22335963 -0.3859315 -0.20447567 -0.1373635 0.44047034 -0.19774699 0.09977919
0.14336473 -0.086838044 -0.043682452 -0.13142662 -0.19597529 -0.17630735 -0.14505586 -0.16107617
-0.29137 -0.22799927 -0.517603 -0.44257888 -0.59189814 -0.6051353 -0.5320956 -0.22599795
-0.051917553 -0.28269583 -0.17709431 -0.8780713 -0.55574137 -0.3777101 -0.21235123 -0.05636682
-0.18925597 0.040624034 -0.38371056 0.060637817 -0.12712643 -0.11797848 -0.1684567 0.21946055
0.69623166 0.6688476 0.6602222 0.48875946 0.6005103 0.17628358 0.5177323 0.1627163
-0.10963716 0.037283663 0.1052546 -0.57448757 -0.4798881 -0.31324595 0.38634038 1.0913489
0.7775558 0.29838285 -0.21356604 -0.1844499 -0.24856214 -0.77086943 -0.7178027 0.17956322
0.62800014 -1.9202793 -0.59055585 1.0242482 -0.08339458 0.29917613 -0.54770434 0.023057053
-0.2942617 -0.18237863 0.17567107 -0.18795106 0.104616635 0.36048985 -0.21420269 -0.07348831
-0.23994046 0.055360388 -0.270274 -0.12709959 -0.013518662 -0.5116513 -0.4856566 -0.22454205
-0.13457604 -0.11053922 -0.45465216 -0.17824244 -0.5119672 0.05519946 -0.3578482 -0.4647411
0.18578105 -0.52162236 -0.7523684 -0.39739352 0.06873536 -0.0007491687 0.12738857 0.3629074
-0.20234323 -0.07856553 0.20812811 -0.022510333 -0.21998045 -0.10003327 -0.007530577 -0.28236768
00000000: 26d2 bebe 008d 65bb e831 8fbd 80c8 863e
00000010: a80c cf3e 3dcf 733c 14bc 1bbe adba 1f3f
00000020: ac20 6c3f 5457 19bd 2cbb 20be 5fbd 86be
00000030: 8fb6 e03d efd1 bdbe a298 8bbe 7031 e1bd
00000040: ebff 92bd 6e66 fe3d 4c53 d3bc 242e 18bd
00000050: b311 1f3c 783b 333d 2743 59be 2097 80b9
00000060: 7e26 b0bd ca58 87be 9582 1bbe 3476 9b3f
00000070: fbfc a4bf dd79 15c0 8fda a93f 1f07 ad3e
00000080: 6dd4 8dbe 87cb fc3e 71c8 8c3f e659 0bbf
00000090: 4706 febe 46c6 d4be 5917 0f3e 3292 da3d
000000a0: 7fb6 af3d ab2c 0abd 143f 1d3e 3dab 313e
000000b0: 3873 603e acdf 31bd 3372 d1bd 39a1 65be
000000c0: 2310 edbc 8075 82be 217b 52be 40e3 05be
000000d0: 601c 45be 447d 48bc c32e 7f3e b706 a9be
000000e0: 8191 363e 8e3a 003b 741b 18bf 6468 e5be
000000f0: 6588 ea3c dd55 bcbe 84ca eabe 1829 1f3e
00000100: cbec fe3e e8d3 793d 075a 34be a72d d03e
00000110: 34f8 0d3d 51a0 15be 9d8e 503e d851 00be
00000120: e1a3 853f 7d54 b6bf 6fc7 0ebf 8a77 0a3e
00000130: b2cb b9bf 7c62 26be 7260 fcbd ddee ab3e
00000140: d793 8a3e f11b 3c3e 9677 01be 1089 b7be
00000150: 9ee2 063f c41c 0d3f caa3 15be c840 25bc
00000160: 242e 923e 70e4 3a3f be8e 673e eacd ac3e
00000170: d550 a43e 52e3 d03d b730 ba3e 447f 0b3f
00000180: 840b 8fbe c499 503d 09a6 0a3e 0d9f 113e
00000190: 7146 e7bd 6718 a73e daa3 bb3d ef95 b43d
000001a0: e2ea 743e 74a5 403e 8526 28be 1838 11be
000001b0: 2169 75bd ba09 20bd adff 913d da3f 17be
000001c0: e370 16be 428b d9be 7246 79be e9f7 4cbe
000001d0: 58c9 4cbe f94a d6bd 4193 c83e 4238 8f3c
000001e0: bf1d 9a3c f4e4 f43e e490 d13e fb42 acbe
000001f0: 6684 2c3f 6ef8 fc3e 33e9 dfbe 1240 173e
00000200: 3b6a c83e 4a62 8abd 8351 203f d4d5 993e
00000210: 4ea1 443d 08da c43e e6b3 ad3d 140d 75be
00000220: 1e3a cdbe ed4e 74be ab04 3fbd 52c0 3fbe
00000230: 00c3 b6bd 2ac1 083e 3f0c 3a3e f6c7 e13c
00000240: 1350 d7be 63b8 643e d098 c5be 1262 51be
00000250: 04a9 0cbe 5485 e13e 307e 4abe 0859 cc3d
00000260: 34ce 123e 25d8 b1bd 5fec 32bd b394 06be
00000270: bfad 48be ea89 34be 8689 14be 27f1 24be
00000280: 732e 95be a478 69be a181 04bf b399 e2be
00000290: a386 17bf 26ea 1abf 6b37 08bf 026c 67be
000002a0: 80a7 54bd 82bd 90be 3658 35be 48c9 60bf
000002b0: 1145 0ebf 3863 c1be 9a72 59be e5e0 66bd
000002c0: 51cc 41be 6365 263d b675 c4be 5c5f 783d
000002d0: 6e2d 02be b49e f1bd ea7f 2cbe 44ba 603e
000002e0: 3d3c 323f 9939 2b3f 5204 293f ae3e fa3e
000002f0: 0bbb 193f af83 343e 1b8a 043f 1a9f 263e
00000300: 7389 e0bd c1b6 183d b98f d73d 9e11 13bf
00000310: e5b3 f5be c661 a0be 68ce c53e 52b1 8b3f
00000320: e60d 473f a3c5 983e 0eb1 5abe 6fe0 3cbe
00000330: 1387 7ebe b357 45bf ebc1 37bf 6cdf 373e
00000340: 9ec4 203f b6cb f5bf ab2e 17bf 911a 833f
00000350: c7ca aabd 9d2d 993e 5a36 0cbf 25e2 bc3c
00000360: 78a9 96be 77c1 3abe 1ee3 333e 3e76 40be
00000370: 3f41 d63d 2092 b83e f357 5bbe 0a81 96bd
00000380: f4b2 75be 93c1 623d 5b61 8abe 6526 02be
00000390: 617d 5dbc 94fb 02bf fba7 f8be 5aee 65be
000003a0: 4dce 09be 6362 e2bd 2bc8 e8be 3085 36be
000003b0: 4810 03bf d418 623d e137 b7be 8cf2 edbe
000003c0: 633d 3e3e 0b89 05bf 379b 40bf 2a77 cbbe
000003d0: 20c5 8c3d dc63 44ba 2672 023e 00cf b93e
000003e0: 1033 4fbe f7e6 a0bd 891f 553e 9767 b8bc
000003f0: 8e42 61be 3ede ccbd 0fc3 f6bb 7f92 90be

onnx::Conv_375 f4 [96]
-0.46113357 1.6066877 -0.311454 0.17401405 0.5352092 1.0332977 1.3573129 -0.13217011
1.0720648 -0.53772897 -0.17902362 -0.029764563 2.3096838 -0.59810483 -0.23806554 0.38211477
-0.6135459 0.75877476 2.4065433 1.2477272 -1.945394 0.40415692 -0.15383793 0.58537906
-0.23013456 1.739187 0.6917764 -0.4851812 1.3966367 -2.2556427 -0.22586843 4.999835
-0.83267546 5.2811327 0.48357064 -0.37700266 -0.24152735 -0.450946 -1.198895 1.9838452
-2.5708935 0.36563075 0.21959016 -0.48670995 -0.41104817 2.3889585 1.92974 0.005112648
-0.005727425 -2.680163 1.4936837 -0.11472477 -0.5163783 -0.5880734 -0.0545773 1.3213816
0.29048768 -1.7139523 0.7751215 1.3896688 0.9445411 3.7264996 0.34883603 -0.26986536
-0.6772252 -0.10722615 -1.7293214 -0.12755203 -0.3157158 -0.022564128 0.22146842 1.6786385
2.1396475 1.1493119 -0.55612457 -0.46716267 -1.0415593 -0.74439853 -0.3289156 -0.15656751
-0.27288485 1.855476 -2.034258 -0.20178354 0.38730556 1.9769611 -0.7244731 0.26820576
-0.21788953 -0.36817098 -0.61316895 -0.23722377 -0.6107627 -0.6089835 -0.21719864 -1.903034
00000000: b319 ecbe f1a7 cd3f e676 9fbe bd30 323e
00000010: 7803 093f 1943 843f 6ebc ad3f 9a57 07be
00000020: 6b39 893f 9ba8 09bf f851 37be d0d4 f3bc
00000030: dcd1 1340 661d 19bf 74c7 73be 8ca4 c33e
00000040: 5811 1dbf 103f 423f ce04 1a40 86b5 9f3f
00000050: ac02 f9bf a8ed ce3e b187 1dbe 67db 153f
00000060: 65a8 6bbe ae9d de3f 4218 313f ac69 f8be
00000070: fec4 b23f 735c 10c0 0e4a 67be a6fe 9f40
00000080: 382a 55bf 0aff a840 9296 f73e 7e06 c1be
00000090: f252 77be 65e2 e6be 6475 99bf a4ee fd3f
000000a0: 8589 24c0 f433 bb3e 3edc 603e 0c32 f9be
000000b0: e874 d2be b2e4 1840 b801 f73f 0088 a73b
000000c0: 20ad bbbb ca87 2bc0 0731 bf3f d2f4 eabd
000000d0: 5e31 04bf fa8b 16bf 728c 5fbd 0823 a93f
000000e0: cdba 943e ca62 dbbf 5d6e 463f abe0 b13f
000000f0: 72cd 713f f87e 6e40 a39a b23e cb2b 8abe
00000100: a15e 2dbf 6299 dbbd 675a ddbf 009d 02be
00000110: 80a5 a1be 68d8 b8bc 9ec8 623e a0dd d63f
00000120: fcef 0840 a71c 933f 2e5e 0ebf f22f efbe
00000130: d151 85bf e790 3ebf a067 a8be 3c53 20be
00000140: 90b7 8bbe 3d80 ed3f 4831 02c0 58a0 4ebe
00000150: ea4c c63e 100d fd3f 1277 39bf 4452 893e
00000160: 6f1e 5fbe e880 bcbe a4f8 1cbf caea 72be
00000170: f25a 1cbf 58e6 1bbf 5269 5ebe 9e96 f3bf
