model_checkpoints/experiments/overall/fastscnn_128a0.25t6r3pp0.pt (torch, 443563 bytes, 196 tensors)

learning_to_down_sample.conv.conv.weight f4 [8, 3, 3, 3]
-0.06677684 0.12016303 0.052889057 0.18403073 0.0008005047 -0.095955506 -0.42999867 -0.21982898
-0.7163176 -0.57084197 0.20432858 0.0058450797 -0.6529843 0.0847862 -0.52243364 -0.5910482
-0.57766104 -1.49793 -0.05756361 0.5003297 0.15874244 0.24021716 0.5496109 -0.07739064
-0.23491761 -0.03708972 -0.81008 -0.2544457 -0.3065227 0.2899148 -0.014785754 0.26681024
0.7479391 0.1600784 -0.22090273 -0.5423581 -0.5745988 -0.60259014 -0.20158996 0.1976816
0.91075444 1.2476774 0.21480955 -0.43717203 -0.25068507 -0.3126381 -0.5676773 -0.069274284
-0.21825068 0.6580888 1.0567739 0.27113423 -0.47099894 -0.34607458 0.11400194 -0.09010542
0.03957957 0.35163906 0.23129833 -0.21145457 0.095412545 -0.09780442 -0.30596265 0.3353099
0.004789997 -0.6073227 1.3433634 0.111066304 -0.23875506 0.93027484 -0.14800334 -0.70511836
-0.14693534 -0.07309432 -0.32787398 0.7444644 0.1855253 -0.13680977 0.48260492 -0.3861104
-0.5078958 0.29443267 0.49710348 0.16860786 0.2011822 0.05378606 0.17001559 -0.17685136
0.034428354 -0.06865558 0.6651044 0.76614434 0.51003814 0.48412785 0.6681699 0.3506784
0.43650484 0.25302103 0.16889355 0.079305515 0.06846007 0.12308046 -0.26634994 0.013327874
0.144034 -0.9942799 -0.4301717 -0.04686208 0.2109401 -0.057739995 0.18794943 0.36769018
-0.060753804 -0.2113601 0.4025705 0.12845343 -0.104817204 0.30603242 0.83321977 0.9806399
0.22475171 1.6380126 1.7015907 -0.50921386 1.0905313 1.2635914 -0.6919602 -0.6373618
-0.08151493 -0.53379864 -0.34805775 -0.06375474 -0.73474157 -0.34912577 -0.050492566 -0.30582327
-0.33650696 -0.21103446 -0.034173626 -0.23146787 0.0018691368 0.31589147 0.35971195 0.46642828
-0.023408098 -0.6843862 -0.5019692 -0.060440235 -0.21152505 0.19227387 0.7628192 0.2423004
0.6210744 -0.24251546 -0.53402066 -0.52933383 -0.005167101 -0.3369621 0.07943969 0.39980543
0.3524407 0.53837943 0.32464007 0.07540314 -0.16518444 0.027744152 -0.14016661 -0.18198411
0.05832691 0.0664988 -0.1723587 -0.30522034 -0.67480206 -0.76270634 -0.40965998 -1.0954005
-1.2387952 -0.35036775 -0.9248509 -0.9320645 0.14321811 0.25141034 0.04840195 0.4547552
0.29326898 0.37132138 0.5839084 0.5477602 0.3435416 0.106921025 -0.1366139 -0.06658735
-0.0329842 0.1414725 0.55222046 -0.12742624 -0.033092223 0.59656894 -0.49510345 -0.27706704
0.32815534 -0.6892918 -0.31657514 0.47602132 -0.78717923 -0.1477456 0.76353073 -0.066074505
0.030323409 0.30021974 -0.26438263 -0.09708058 0.4359145 -0.5775706 -0.04449156 0.48883155
00000000: 4cc2 88bd 0918 f63d 32a2 583d 8d72 3c3e
00000010: f6d8 513a 5284 c4bd c928 dcbe d91a 61be
00000020: 9760 37bf b322 12bf 833b 513e 1588 bf3b
00000030: fb29 27bf 63a4 ad3d 36be 05bf ef4e 17bf
00000040: 98e1 13bf 2cbc bfbf d2c7 6bbd 9b15 003f
00000050: 618d 223e 7dfb 753e 4db3 0c3f fc7e 9ebd
00000060: 3e8e 70be 64eb 17bd 6761 4fbf b546 82be
00000070: 8bf0 9cbe b66f 943e f23f 72bc 5a9b 883e
00000080: f078 3f3f 98eb 233e 5334 62be fbd7 0abf
00000090: e818 13bf 5943 1abf 996d 4ebe 0c6d 4a3e
000000a0: 3427 693f e5b3 9f3f 09f7 5b3e 03d5 dfbe
000000b0: cb59 80be 1a12 a0be 4d53 11bf addf 8dbd
000000c0: 1b7d 5fbe 8278 283f 5e44 873f 1bd2 8a3e
000000d0: c626 f1be b030 b1be d979 e93d 3189 b8bd
000000e0: 301e 223d 090a b43e 78d9 6c3e 8c87 58be
000000f0: a767 c33d af4d c8bd 23a7 9cbe bdad ab3e
00000100: 68f5 9c3b 8079 1bbf 55f3 ab3f bb76 e33d
00000110: 357c 74be 7e26 6e3f 308e 17be a382 34bf
00000120: 3876 16be 7ab2 95bd 19df a7be 3895 3e3f
00000130: 58fa 3d3e dc17 0cbe fe17 f73e 43b0 c5be
00000140: 7605 02bf e1bf 963e 5984 fe3e 8aa7 2c3e
00000150: b502 4e3e c64e 5c3d 9118 2e3e 8618 35be
00000160: bf04 0d3d 4c9b 8cbd 4844 2a3f 0922 443f
00000170: dc91 023f 9bdf f73e 2f0d 2b3f 1f8c b33e
00000180: 907d df3e f98b 813e 6ef2 2c3e ee6a a23d
00000190: cb34 8c3d 9c11 fc3d 055f 88be 285d 5a3c
000001a0: a67d 133e 2189 7ebf 773f dcbe 74f2 3fbd
000001b0: ae00 583e c680 6cbd d175 403e e341 bc3e
000001c0: fbd8 78bd c86e 58be b81d ce3e 4c89 033e
000001d0: 67aa d6bd 48b0 9c3e e44d 553f 370b 7b3f
000001e0: 5025 663e 66aa d13f b9cd d93f d75b 02bf
000001f0: 8896 8b3f 5dbd a13f 4e24 31bf 252a 23bf
00000200: 4df1 a6bd 07a7 08bf a034 b2be d891 82bd
00000210: 0618 3cbf 9dc0 b2be 4bd1 4ebd de94 9cbe
00000220: a44a acbe 6b19 58be a5f9 0bbd ea05 6dbe
00000230: d3fd f43a 87bc a13e 2a2c b83e b0cf ee3e
00000240: 57c2 bfbc ef33 2fbf 0e81 00bf 2e90 77bd
00000250: 069a 58be 71e3 443e 1e48 433f 991d 783e
00000260: bbfe 1e3f f955 78be 94b5 08bf 6c82 07bf
00000270: c950 a9bb 4c86 acbe 47b1 a23d 4cb3 cc3e
00000280: 1c73 b43e 3cd3 093f 3937 a63e f66c 9a3d
00000290: 1c26 29be b447 e33c d687 0fbe 0b5a 3abe
000002a0: 33e8 6e3d 8630 883d cd7e 30be d745 9cbe
000002b0: d4bf 2cbf b940 43bf f4be d1be 1536 8cbf
000002c0: d790 9ebf 6763 b3be 07c3 6cbf c79b 6ebf
000002d0: c5a7 123e dbb8 803e 2041 463d acd5 e83e
000002e0: 5a27 963e d61d be3e 057b 153f 033a 0c3f
000002f0: afe4 af3e 69f9 da3d 84e4 0bbe f35e 88bd
00000300: 711a 07bd 2bde 103e 525e 0d3f 067c 02be
00000310: b68b 07bd beb8 183f 337e fdbe bbdb 8dbe
00000320: fa03 a83e 6d75 30bf 2316 a2be 11b9 f33e
00000330: 9484 49bf 9f4a 17be c076 433f 1252 87bd
00000340: cc68 f83c 67b6 993e 295d 87be 2fd2 c6bd
00000350: 2f30 df3e abdb 13bf c83c 36bd 2148 fa3e

learning_to_down_sample.conv.bn.weight f4 [8]
0.27920583 0.5663606 1.1760286 0.6270552 2.4118793 1.9641285 2.339124 1.6966718
00000000: 11f4 8e3e 02fd 103f 1b88 963f b186 203f
00000010: 3b5c 1a40 9068 fb3f 35b4 1540 8b2c d93f

learning_to_down_sample.conv.bn.bias f4 [8]
0.7824198 0.8128155 0.40502813 0.8382179 0.024061205 -0.061901867 -0.03862692 -0.3290091
00000000: aa4c 483f ad14 503f d95f cf3e 7395 563f
00000010: 011c c53c d08c 7dbd 4337 1ebd e173 a8be

learning_to_down_sample.conv.bn.running_mean f4 [8]
-1.3123779 0.20697288 0.22057581 0.58064675 0.08183522 -0.07389592 -0.056363 -0.14243896
00000000: 00fc a7bf b3f0 533e a0de 613e 44a5 143f
00000010: 3999 a73d be56 97bd e4dc 66bd 85db 11be

learning_to_down_sample.conv.bn.running_var f4 [8]
11.469726 2.3498552 4.5646214 7.894343 12.371579 3.8496947 7.543443 3.5761693
00000000: ff83 3741 0764 1640 6111 9240 759e fc40
00000010: fdf1 4541 6661 7640 e363 f140 f5df 6440

learning_to_down_sample.dsconv1.0.weight f4 [8, 1, 3, 3]
-0.19188343 -0.3514545 -0.15305139 -0.47793666 0.19326414 0.4777245 -0.508927 0.39084378
1.2834147 -0.11031407 -0.023801932 0.14156777 -0.23977435 -0.8992459 -0.5980085 0.35640264
0.573347 0.30597988 0.3593198 -0.29756343 -0.5278406 0.56388646 0.59654325 0.31061897
0.652861 -0.03507216 -0.7317125 -0.4160323 -0.60450816 -0.30390018 -0.561274 -0.13200209
0.7112814 -0.14581844 0.052969452 1.0149959 -0.17330402 -0.5508652 -0.44547078 -0.33427092
-1.0932065 -0.7923788 -0.20317046 -0.77978927 -0.6317525 -0.047010735 -0.33600563 -0.15746513
-0.100652054 -0.8395991 -0.7260164 -0.009084209 -0.76388335 -0.72817534 0.03786529 -0.47262254
-0.40326604 -0.019659858 -1.1962507 -0.83057106 0.043292414 -0.41400298 -0.37059194 -0.27425656
-0.43002117 -0.020060038 -0.4557331 -0.2082779 0.66671926 -0.4000134 -0.1330921 0.8120698
00000000: 177d 44be d8f1 b3be 81b9 1cbe 1db4 f4be
00000010: 09e7 453e 4e98 f43e 0a49 02bf ad1c c83e
00000020: ef46 a43f 58ec e1bd 45fc c2bc 24f7 103e
00000030: 6887 75be fb34 66bf 1617 19bf 687a b63e
00000040: dec6 123f 65a9 9c3e c4f8 b73e 3c5a 98be
00000050: 9020 07bf dd5a 103f 0fb7 183f 7309 9f3e
00000060: e621 273f d3a7 0fbd 8351 3bbf 3002 d5be
00000070: 0cc1 1abf ce98 9bbe a7af 0fbf 8e2b 07be
00000080: 8a16 363f 6e51 15be 7ff6 583d 63eb 813f
00000090: 9c76 31be 8005 0dbf bf14 e4be 8f25 abbe
000000a0: 31ee 8bbf 56d9 4abf eb0b 50be 45a0 47bf
000000b0: 88ba 21bf 548e 40bd ee08 acbe 8a3e 21be
000000c0: aa22 cebd f7ef 56bf 36dc 39bf efd5 14bc
000000d0: dc8d 43bf b369 3abf a218 1b3d 95fb f1be
000000e0: e378 cebe b60d a1bc be1e 99bf 4ea0 54bf
000000f0: 6353 313d 33f8 d3be 3abe bdbe 5b6b 8cbe
00000100: bc2b dcbe f354 a4bc d955 e9be cd46 55be
00000110: 1dae 2a3f 8ece ccbe 4c49 08be cee3 4f3f

learning_to_down_sample.dsconv1.1.weight f4 [8]
0.98643523 1.4518548 0.92896414 1.1546692 1.3117319 1.2712436 0.810372 0.91125613
00000000: 0587 7c3f 61d6 b93f 98d0 6d3f 33cc 933f
00000010: d5e6 a73f 1cb8 a23f 8a74 4f3f 1548 693f

learning_to_down_sample.dsconv1.1.bias f4 [8]
-0.08991973 -0.1508317 0.082281716 0.03466695 -0.005127692 -0.055371016 -0.025298657 -0.082315736
00000000: d627 b8bd a073 1abe 5183 a83d effe 0d3d
00000010: 3306 a8bb b8cc 62bd 213f cfbc 2795 a8bd

learning_to_down_sample.dsconv1.1.running_mean f4 [8]
0.5611603 -0.45315915 0.5603108 -0.2810788 -4.555428 -1.9864091 -3.076844 -0.13238744
00000000: 34a8 0f3f 7a04 e8be 8770 0f3f 8fe9 8fbe
00000010: 11c6 91c0 a742 febf 03eb 44c0 9390 07be

learning_to_down_sample.dsconv1.1.running_var f4 [8]
0.20405206 0.73356384 1.572788 0.5645457 36.17015 7.0170665 17.713982 3.8869228
00000000: 06f3 503e d7ca 3b3f 1e51 c93f 1186 103f
00000010: 3cae 1042 cf8b e040 3cb6 8d41 58c3 7840

learning_to_down_sample.dsconv1.2.weight f4 [12, 8, 1, 1]
-0.8759794 -0.057250753 -0.38937446 0.7361397 -0.505022 0.35091537 0.10926044 0.27274454
0.27801168 0.072777405 0.14096145 -0.31712767 -2.0504518 -0.4006215 0.793976 0.035434958
-0.04874525 -0.10749276 -0.398875 0.22697008 0.54824966 0.19551043 -1.3841634 -0.063581616
0.14286245 0.03633123 -0.000120030265 -0.12970397 -1.637838 -0.45293045 0.59247184 0.08615332
-0.53736866 -0.14489461 -0.48342848 -0.037528317 0.10640142 1.2342731 0.7885347 0.035735097
-0.6524959 -0.15757684 -0.71177065 0.4445233 -0.6048837 0.9126339 0.4195679 -0.22384925
-0.0012757685 1.0143676 -0.6562424 -0.3190873 0.05590061 -0.890623 -0.02769279 0.7765306
0.116543025 -1.192317 0.9444227 -0.3814388 0.23213296 -0.2932299 -0.23599938 0.2082333
0.87311226 0.088204056 0.5963198 -0.65024924 0.09480239 -0.49684572 -0.5706115 -0.34670213
-0.7611805 -0.042161368 -0.16729389 1.3267328 0.01551933 -0.28652963 0.09163113 -0.43774498
0.53328717 -0.03290637 0.091087095 -0.15558985 -1.1577001 -0.3213404 -0.25781894 0.08003989
-0.63504475 0.07265405 0.0013665238 0.15708974 -0.08211342 0.62563163 0.030401899 -1.3364125
00000000: 3040 60bf c47f 6abd 175c c7be a773 3c3f
00000010: 1f49 01bf 2eab b33e f0c3 df3d 2ca5 8b3e
00000020: 8c57 8e3e 520c 953d 3358 103e 8f5e a2be
00000030: 9a3a 03c0 431e cdbe 0342 4b3f 3f24 113d
00000040: 19a9 47bd 2a25 dcbd 5839 ccbe d86a 683e
00000050: 175a 0c3f e333 483e 442c b1bf 1437 82bd
00000060: 894a 123e 0ed0 143d c2b8 fbb8 1ed1 04be
00000070: ada4 d1bf 80e6 e7be 3cac 173f 2771 b03d
00000080: fe90 09bf 415f 14be f083 f7be 4bb7 19bd
00000090: fde8 d93d a9fc 9d3f 69dd 493f f75e 123d
000000a0: f909 27bf d35b 21be 9a36 36bf 8f98 e33e
000000b0: a8d9 1abf 60a2 693f 9bd1 d63e bd38 65be
000000c0: b037 a7ba ccd6 813f 80ff 27bf 695f a3be
000000d0: 0af8 643d deff 63bf fddb e2bc b6ca 463f
000000e0: 1cae ee3d d89d 98bf b0c5 713f f24b c3be
000000f0: 43b4 6d3e 3b22 96be d2a9 71be 1c3b 553e
00000100: 4984 5f3f 54a4 b43d 6aa8 183f bc76 26bf
00000110: c127 c23d 9062 febe 9813 12bf f182 b1be
00000120: badc 42bf 66b1 2cbd 174f 2bbe 61d2 a93f
00000130: ca44 7e3c 03b4 92be 1aa9 bb3d 1c20 e0be
00000140: 8285 083f d4c8 06bd df8b ba3d f252 1fbe
00000150: 842f 94bf bb86 a4be d800 84be f4eb a33d
00000160: 4b92 22bf a6cb 943d ee1c b33a 22dc 203e
00000170: 152b a8bd 6529 203f 670d f93c 910f abbf

learning_to_down_sample.dsconv1.3.weight f4 [12]
1.04589 0.56500703 2.084686 0.49059474 0.576693 0.8587046 1.9576918 1.4645597
0.7841968 2.142329 1.1032661 2.0803227
00000000: b9df 853f 4da4 103f 7f6b 0540 3c2f fb3e
00000010: 27a2 133f 11d4 5b3f a595 fa3f b176 bb3f
00000020: 1fc1 483f eb1b 0940 d337 8d3f 0224 0540

learning_to_down_sample.dsconv1.3.bias f4 [12]
0.5775529 0.8045665 0.34151524 0.86661243 0.73358625 0.5600455 0.36018613 0.25779712
0.6944591 0.19748391 0.6228738 0.05912063
00000000: 82da 133f 12f8 4d3f 16db ae3e 50da 5d3f
00000010: 4fcc 3b3f 245f 0f3f 516a b83e fcfd 833e
00000020: 12c8 313f 3939 4a3e a874 1f3f 7928 723d

learning_to_down_sample.dsconv1.3.running_mean f4 [12]
0.03856757 -0.025952917 0.022425802 -0.011654074 -0.06276342 -0.0005835956 -0.23219699 0.23769423
0.004506417 0.15652953 -0.017100384 0.12677845
00000000: 07f9 1d3d 369b d4bc 51b6 b73c bbf0 3ebc
00000010: 1c8a 80bd 70fc 18ba 0cc5 6dbe 1e66 733e
00000020: 91aa 933b 4749 203e 1b16 8cbc 36d2 013e

learning_to_down_sample.dsconv1.3.running_var f4 [12]
2.2149754 8.303359 2.2317853 5.153904 3.9267042 4.250677 5.7574425 4.628526
2.1380863 4.385334 2.0370207 3.1973896
00000000: 28c2 0d40 8fda 0441 92d5 0e40 c8ec a440
00000010: 1f4f 7b40 8c05 8840 f83c b840 e31c 9440
00000020: 68d6 0840 a854 8c40 8c5e 0240 08a2 4c40

learning_to_down_sample.dsconv2.0.weight f4 [12, 1, 3, 3]
0.6091816 0.1323162 -0.23138513 0.5000737 0.40459162 -0.50276643 -0.044352747 -0.32084736
-0.95755917 0.45888776 0.5006006 -0.063781396 -0.053115025 -1.2607267 -1.4461718 0.33443987
-0.041418042 0.3378735 0.17055991 0.57749754 1.1811887 -0.28349528 -0.33172998 0.13514543
-0.28443643 -0.5694504 -0.45749554 0.273019 0.28342065 0.6630184 0.014173364 -0.09898014
0.46794978 -0.45650804 -1.1299673 -0.45387486 0.0879612 -0.70990205 -0.69985676 0.22759533
-0.098107345 -0.528309 0.29026675 0.6929689 0.70632774 0.07845607 0.17573075 0.18563525
0.032099918 -0.5675314 -1.1177275 0.51605546 0.65188515 -0.3387392 0.20677964 0.17354922
0.22971985 0.2584913 0.81166124 0.7771299 0.16037561 0.7660127 0.6099305 -0.24508679
-0.21930325 -0.3258962 -0.30994555 -1.0337223 -0.76401114 -0.22137976 -0.6332153 -0.50145066
0.33616492 0.58078736 0.1103514 0.7742977 1.2039292 0.32848245 0.07353154 -0.035006855
-0.28365117 0.22862333 0.41778547 0.42657396 0.56134886 0.78562105 0.87029666 0.2594347
0.68250394 0.5862723 -0.03639096 0.78345406 1.2722797 -0.5405425 -0.089756615 0.39978996
-0.12057575 -0.20798518 -0.14101109 0.28953895 -0.14829727 -0.32876468 0.5567126 -0.6758478
-0.37551326 0.32536665 -0.81245923 -0.08191871
00000000: 53f3 1b3f e67d 073e 39f0 6cbe d404 003f
00000010: a226 cf3e 4db5 00bf 3aab 35bd 1b46 a4be
00000020: 9922 75bf 56f3 ea3e 5c27 003f d29f 82bd
00000030: 248f 59bd 7e5f a1bf 281c b9bf b43b ab3e
00000040: f7a5 29bd c1fd ac3e 42a7 2e3e e1d6 133f
00000050: 3131 973f 4b26 91be 83d8 a9be 9063 0a3e
00000060: a7a1 91be 80c7 11bf db3c eabe 25c9 8b3e
00000070: 831c 913e 93bb 293f 6637 683c 1ab6 cabd
00000080: 1d97 ef3e 6cbb e9be c5a2 90bf 4962 e8be
00000090: 0025 b43d 24bc 35bf d029 33bf c00e 693e
000000a0: 81ec c8bd 423f 07bf d89d 943e 6966 313f
000000b0: e5d1 343f 93ad a03d c3f2 333e 2b17 3e3e
000000c0: 347b 033d bd49 11bf b211 8fbf 361c 043f
000000d0: f2e1 263f 396f adbe 0bbe 533e e3b6 313e
000000e0: ae3b 6b3e f958 843e 08c9 4f3f fcf1 463f
000000f0: 8139 243e 6919 443f 6824 1c3f 08f8 7abe
00000100: 0891 60be dedb a6be 2fb1 9ebe 0351 84bf
00000110: 3c96 43bf 60b1 62be 661a 22bf 125f 00bf
00000120: cf1d ac3e 7bae 143f eaff e13d 6038 463f
00000130: 5a1a 9a3f da2e a83e b497 963d 5963 0fbd
00000140: ba3a 91be 3c1c 6a3e fae7 d53e e767 da3e
00000150: 8fb4 0f3f 761e 493f c3cb 5e3f a0d4 843e
00000160: 94b8 2e3f f115 163f b00e 15bd 7290 483f
00000170: 10da a23f fe60 0abf 51d2 b7bd 45b1 cc3e
00000180: 6bf0 f6bd 11fa 54be 3665 10be 733e 943e
00000190: 3ddb 17be d853 a8be b884 0e3f 5d04 2dbf
000001a0: 4643 c0be 7596 a63e 54fd 4fbf ffc4 a7bd

learning_to_down_sample.dsconv2.1.weight f4 [12]
1.0359958 1.53149 0.8478244 1.5895423 1.1222523 1.1047848 1.2877929 1.1692289
0.9589985 1.1110084 1.0090543 0.9770386
00000000: 839b 843f dd07 c43f 050b 593f 1f76 cb3f
00000010: f7a5 8f3f 9769 8d3f 66d6 a43f 4ba9 953f
00000020: ed80 753f 8635 8e3f b128 813f 341f 7a3f

learning_to_down_sample.dsconv2.1.bias f4 [12]
-0.008598438 -0.044495452 -0.034831945 -0.034395292 0.02068766 -0.020678489 -0.003948772 0.062853985
0.006970877 0.010913647 -0.0013697605 -0.03567805
00000000: 77e0 0cbc dd40 36bd f1ab 0ebd 14e2 0cbd
00000010: 2b79 a93c ef65 a9bc b364 81bb 97b9 803d
00000020: f46b e43b 27cf 323c 8989 b3ba 2623 12bd

learning_to_down_sample.dsconv2.1.running_mean f4 [12]
-0.38526183 -1.0736464 0.037994713 -0.42474788 0.022619814 -0.27646297 3.36834 -2.7019897
2.1429753 4.1305585 0.91454256 -0.9294713
00000000: 0a41 c5be 3f6d 89bf 58a0 1b3d 8e78 d9be
00000010: 304d b93c 8e8c 8dbe e292 5740 66ed 2cc0
00000020: 8226 0940 892d 8440 761f 6a3f d5f1 6dbf

learning_to_down_sample.dsconv2.1.running_var f4 [12]
1.2921203 0.7763344 4.4541764 0.41191122 0.6506372 0.68820155 8.8681345 6.477004
2.3092191 9.0833 2.6834562 5.9854555
00000000: 3364 a53f dabd 463f 9d88 8e40 07e6 d23e
00000010: 2990 263f fa2d 303f e1e3 0d41 9e43 cf40
00000020: 3fca 1340 3255 1141 bfbd 2b40 da88 bf40

learning_to_down_sample.dsconv2.2.weight f4 [16, 12, 1, 1]
0.65674376 0.65435416 -0.10292597 -0.01210051 0.5917254 -0.13642392 0.43211198 -0.48803183
1.5284948 -0.1086071 -0.34448615 -0.5491272 -0.14987493 0.019198086 0.025500169 -0.3143738
0.23278221 -0.2887739 -0.21938072 0.19731334 -0.75881934 -1.8561565 -0.27186805 0.20183325
-1.0483359 0.27307117 0.3216334 -0.410708 -0.9256763 -0.8106667 0.1202628 -0.021662813
-0.09279245 -0.31625253 -0.4585597 0.5360681 -0.18883166 0.1787418 -0.98501366 1.172922
-0.4312163 -0.015614182 -0.14969905 0.1824542 0.19807664 -0.24174601 0.514739 -0.07042082
-0.6512546 0.13283718 -0.2508853 -1.4371859 0.3335577 0.9748226 -0.13982578 0.19347826
-0.1097963 -0.14152521 -0.30926344 0.3004362 0.9969831 -0.66774535 -0.36324248 0.620896
-0.13833718 -0.7060715 0.07249335 -0.14611958 -0.28159878 0.3168802 -0.5221719 -0.48023376
-0.49054343 1.0463258 0.23272479 -0.14258702 0.365194 0.3358706 -0.53260946 0.5630616
0.30888525 -0.22052121 -1.060873 0.19353133 0.10497761 0.5507207 0.96086216 -0.9047032
-0.68333167 -0.06846729 0.056546476 0.06661241 0.25284562 0.34482694 0.16589388 -0.47795227
-0.21714279 0.7404911 0.22016117 -0.25382963 -0.7730632 0.3060072 0.34567827 -0.42234063
-0.26495704 -0.15221103 0.37093517 1.4582214 -0.026982678 -1.1567503 -0.4406156 -0.035981562
-0.41080183 0.17757066 0.58416325 -0.8393939 0.4661949 0.05643363 0.89738715 0.19996515
0.30538264 -0.6175684 0.737589 -0.25360447 0.4682031 -0.59589636 0.3025276 -0.24495113
0.44224793 0.15224317 -1.0572194 0.3735684 -0.31591532 0.3762881 -0.053338047 0.115311325
0.016412139 0.09664863 -1.3598602 1.1978228 -0.31019014 -0.5195641 -0.2281588 -0.16389021
0.07828275 -0.6443194 0.32264507 -1.2810601 0.28333127 -0.056459744 -0.051065147 0.025799809
-0.33079562 0.71818906 0.07155262 -0.5431051 0.699253 0.043962587 -0.35023126 0.13558733
-0.7820732 0.7426249 -0.64464706 0.54032004 -0.13076185 -0.43467045 0.7020565 -0.2945997
-0.21096583 -0.4493267 0.061631013 8.9580644e-05 0.4333608 -0.39709598 -1.000038 1.1461971
-0.2513546 0.0917099 0.48047578 0.1266113 -0.46142167 0.15633085 -0.12999462 0.25427952
0.6516825 0.8717288 0.42152727 -0.12660293 0.106465094 0.9556498 0.47336167 -0.10586298
00000000: 5c20 283f c183 273f daca d2bd 3841 46bc
00000010: 517b 173f b6b2 0bbe c83d dd3e 4fdf f9be
00000020: b8a5 c33f 666d debd 7d60 b0be 9a93 0cbf
00000030: d078 19be 4e45 9d3c bbe5 d03c 9af5 a0be
00000040: 765e 6e3e 2cda 93be 57a5 60be 820c 4a3e
00000050: fc41 42bf 8996 edbf 4a32 8bbe 60ad 4e3e
00000060: df2f 86bf fccf 8b3e 22ad a43e 5248 d2be
00000070: 1ff9 6cbf da87 4fbf 584c f63d 3676 b1bc
00000080: f809 bebd daeb a1be 56c8 eabe c23b 093f
00000090: 165d 41be 1708 373e db29 7cbf 4f22 963f
000000a0: 62c8 dcbe a0d2 7fbc b54a 19be 46d5 3a3e
000000b0: 9ad4 4a3e 448c 77be efc5 033f ca38 90bd
000000c0: 9fb8 26bf 7806 083e 0a74 80be b5f5 b7bf
000000d0: 13c8 aa3e f98d 793f 7d2e 0fbe 2a1f 463e
000000e0: e2dc e0bd fceb 10be c757 9ebe c6d2 993e
000000f0: 493a 7f3f 5cf1 2abf ebfa b9be 0af3 1e3f
00000100: 43a8 0dbe 1ac1 34bf 6577 943d 5fa0 15be
00000110: b72d 90be 1f3e a23e 0fad 05bf 33e1 f5be
00000120: 8228 fbbe 01ee 853f 684f 6e3e 5502 12be
00000130: b5fa ba3e 3bf7 ab3e 1859 08bf ce24 103f
00000140: 3526 9e3e 50d0 61be b0ca 87bf 142d 463e
00000150: 80fe d63d 08fc 0c3f 10fb 753f a19a 67bf
00000160: d3ee 2ebf 9438 8cbd 479d 673d 166c 883d
00000170: fb74 813e 288d b03e 16e0 293e 29b6 f4be
00000180: ae5a 5ebe d390 3d3f ee71 613e f5f5 81be
00000190: 78e7 45bf faac 9c3e befc b03e 083d d8be
000001a0: 73a8 87be 35dd 1bbe 37eb bd3e 00a7 ba3f
000001b0: c70a ddbc 6510 94bf 5e98 e1be 6761 13bd
000001c0: 9e54 d2be 15d5 353e b98b 153f 85e2 56bf
000001d0: 19b1 ee3e f326 673d 2abb 653f aac3 4c3e
000001e0: 1d5b 9c3e f618 1ebf a2d2 3c3f 72d8 81be
000001f0: 51b8 ef3e aa8c 18bf e6e4 9a3e 78d4 7abe
00000200: 526e e23e a2e5 1b3e f752 87bf 5b44 bf3e
00000210: a7bf a1be d5a8 c03e ff78 5abd 5828 ec3d
00000220: c072 863c b8ef c53d e60f aebf 4252 993f
00000230: 3ed1 9ebe 2702 05bf 76a2 69be d6d2 27be
00000240: b552 a03d 1ef2 24bf bc31 a53e c7f9 a3bf
00000250: cc10 913e 5542 67bd b029 51bd 1f5a d33c
00000260: 0b5e a9be 3ddb 373f 2e8a 923d f008 0bbf
00000270: 3f02 333f 1d12 343d 8351 b3be 68d7 0a3e
00000280: f335 48bf aa1c 3e3f 9707 25bf 6a52 0a3f
00000290: 6fe6 05be 208d debe fab9 333f c6d5 96be
000002a0: 6d07 58be 260e e6be cd70 7c3d 3edd bb38
000002b0: 77e1 dd3e 2a50 cbbe 3f01 80bf 96b6 923f
000002c0: 8db1 80be 66d2 bb3d ec00 f63e 65a6 013e
000002d0: 763f ecbe 3215 203e 4f1d 05be ed30 823e
000002e0: aad4 263f 9e29 5f3f 6cd2 d73e 33a4 01be
000002f0: 5f0a da3d 77a5 743f 765c f23e b1ce d8bd

learning_to_down_sample.dsconv2.3.weight f4 [16]
1.2864852 1.5679399 0.9674538 2.1475067 1.2935331 1.1875058 1.2963647 1.1267629
1.317303 1.0397296 1.311647 1.3573002 0.9237469 1.3693364 1.5423876 0.99270165
00000000: 8cab a43f 41b2 c83f 0dab 773f c070 0940
00000010: 7e92 a53f 3100 983f 47ef a53f c439 903f
00000020: 629d a83f dc15 853f 0de4 a73f 03bc ad3f
00000030: ad7a 6c3f 6a46 af3f f56c c53f b221 7e3f

learning_to_down_sample.dsconv2.3.bias f4 [16]
0.6982829 -0.12380662 0.38758713 -0.5541196 0.33268884 0.5191038 -0.45881477 0.12932265
0.25853366 0.39265677 0.21406843 -0.6422128 1.0890151 0.005702455 0.14935087 0.34544733
00000000: abc2 323f 538e fdbd d271 c63e c8da 0dbf
00000010: 3156 aa3e fde3 043f c5e9 eabe 286d 043e
00000020: 865e 843e 4f0a c93e c134 5b3e 0f68 24bf
00000030: d964 8b3f a9db ba3b 6fef 183e 79de b03e

learning_to_down_sample.dsconv2.3.running_mean f4 [16]
-0.018571198 0.0020517074 -0.02700452 -0.008365578 0.044713184 0.034026723 -0.013072245 -0.014190253
-0.13632442 -0.0033772376 0.0062758415 0.06127478 0.09450525 0.008465419 0.106893 -0.006924159
00000000: a022 98bc f075 063b 9538 ddbc c70f 09bc
00000010: 2c25 373d 9b5f 0b3d f82c 56bc 3c7e 68bc
00000020: a198 0bbe a554 5dbb 93a5 cd3b 44fb 7a3d
00000030: f88b c13d 8ab2 0a3c b8ea da3d 0ee4 e2bb

learning_to_down_sample.dsconv2.3.running_var f4 [16]
6.7709165 5.806285 3.7486784 7.8297215 8.623247 3.838353 6.025903 3.5177727
5.260465 5.4474196 2.94811 5.9039774 10.001063 4.9022775 6.9941163 3.8682113
00000000: 59ab d840 16cd b940 59ea 6f40 148d fa40
00000010: d2f8 0941 93a7 7540 33d4 c040 3023 6140
00000020: bb55 a840 4351 ae40 d6ad 3c40 62ed bc40
00000030: 5b04 2041 75df 9c40 cdcf df40 c690 7740

global_feature_extractor.first_block.0.conv.0.weight f4 [96, 16, 1, 1]
-0.14332865 0.01676615 -0.2833905 0.04903204 0.31997272 0.11247833 -0.25773576 -0.028463697
0.25663716 -0.071977265 -0.09561513 -0.11275908 0.08677898 -0.2526813 -0.41280657 -0.043353077
0.25429195 -0.230942 -0.5390836 0.39148018 0.4869795 -0.11233819 -0.091722034 0.19474354
-0.2535442 0.05859459 0.08307116 -0.3019873 0.4639013 0.38080478 0.34487137 0.3656196
0.05627193 -0.10161002 -0.3797261 0.22270891 0.0798465 0.5076988 0.32383618 0.17381607
-0.08012938 -0.10780166 0.19936779 -0.12988725 0.04752538 -0.22491036 0.10549526 0.17609686
0.06588179 0.28608462 0.328046 0.35012397 -0.624266 0.18036152 0.07149971 -0.5060979
0.012857796 -0.17645214 -0.1870984 0.6492327 -0.30218348 1.0888197 0.19113232 -0.24412142
-0.38984525 0.54534024 -0.14494409 -0.39098638 -0.14569418 -0.05075332 -0.42781022 -0.36342597
-0.3712836 -0.23144856 -0.2373159 0.2763786 -0.19420923 -0.18471843 -0.036138915 -0.26817623
0.3055352 0.10144325 -0.3164219 -0.19682863 0.084289655 -0.6448893 -0.4554596 0.24073544
0.11687101 0.2605822 -0.32148677 -0.06799609 -0.15611188 -0.5723688 -0.7561661 0.1356868
-0.18927798 -0.16463478 0.2675229 -0.40640622 0.01003799 -0.36451164 0.26723638 -0.00087528507
0.36985925 -0.46391588 -0.5014333 0.05540721 -0.21890661 -0.23096132 -0.12432198 0.16929466
-0.7359668 0.4576197 0.00034526977 0.42506912 -0.2720438 0.24340633 -0.011463134 -0.22475612
-0.3188378 0.25039282 0.3503563 0.30305377 0.19130464 0.2728881 0.31908676 -0.1902815
-0.44102255 0.14938697 -0.3392826 0.6398706 0.125397 0.12578686 -0.582168 -0.26802692
-0.54278094 0.20352942 -0.13259332 0.036564518 0.38065696 0.7875636 0.81764996 -0.08355569
0.81148964 -0.21409647 0.0060162763 -0.018132122 0.1472612 -0.14879397 0.08379606 0.027907342
-0.16130096 -0.3891665 0.13868234 -0.32366946 -0.54243565 -0.26041427 -0.23527275 0.7774798
0.18556477 0.026767941 0.45465958 0.5229686 -0.28629243 -0.06517435 0.07651812 0.04930057
-0.5853113 0.13630639 0.31965804 0.3981207 0.21734229 0.3912118 0.8940684 -0.09953923
0.24105906 -0.1840476 0.24406575 -0.01801682 -0.26048753 0.13141632 -0.036176343 -0.14482547
-0.04021236 -0.12415768 -0.3420177 -0.038573522 -0.15031639 -0.05884809 0.0071136146 0.10372713
0.4777957 -0.5543466 -0.14720346 0.7658159 0.36891562 -0.2612774 0.37120983 0.84871024
0.18310094 -0.28133625 0.23418991 -0.6543526 0.35565665 -0.37764204 -0.046492927 0.5816119
0.28206638 -0.3711572 0.07869481 -0.18414795 -0.42520076 -0.26959366 0.19412528 -0.1141482
0.08659412 -0.2813778 -0.36131793 0.09480744 -0.5978264 -0.037966773 -1.3148123 0.12695292
-0.020141039 0.52302146 -0.6911391 0.3128769 0.54117566 -0.254726 0.4283866 0.65362877
0.54255635 0.48657835 0.43973142 -0.27860004 0.39173678 0.25771728 0.46041158 -0.6509164
-0.79901415 -0.10999696 -0.2895839 -0.50189906 -0.27721527 0.4727697 -0.7048855 -0.17517902
-0.35628307 0.08274488 0.65693456 0.22859661 0.4141465 -0.40331608 0.14958835 0.34375164
00000000: bfc4 12be 2a59 893c 8f18 91be d2d5 483d
00000010: 77d3 a33e 0a5b e63d f1f5 83be b32c e9bc
00000020: f265 833e d168 93bd ded1 c3bd 3cee e6bd
00000030: 2eb9 b13d 715f 81be 625b d3be ff92 31bd
00000040: 8e32 823e 0f7c 6cbe 6201 0abf 1770 c83e
00000050: 6155 f93e 9111 e6bd c3d8 bbbd da6a 473e
00000060: 8cd0 81be e100 703d 3621 aa3d 149e 9abe
00000070: 7984 ed3e d8f8 c23e fb92 b03e 7e32 bb3e
00000080: 657d 663d ea18 d0bd 766b c2be ce0d 643e
00000090: 9086 a33d 8cf8 013f dbcd a53e d7fc 313e
000000a0: df1a a4bd 1ec7 dcbd 1227 4c3e 2a01 05be
000000b0: f9a9 423d e74e 66be e60d d83d bc52 343e
000000c0: 08ed 863d af79 923e a5f5 a73e 7343 b33e
000000d0: e6cf 1fbf b1b0 383e 716e 923d a28f 01bf
000000e0: 81a9 523c dfaf 34be b996 3fbe 1d34 263f
000000f0: cbb7 9abe 725e 8b3f 31b8 433e f7fa 79be
00000100: cc99 c7be 6b9b 0b3f 396c 14be 5e2f c8be
00000110: db30 15be b7e2 4fbd f109 dbbe f812 babe
00000120: e218 bebe da00 6dbe f002 73be 7f81 8d3e
00000130: c9de 46be d426 3dbe 6606 14bd 654e 89be
00000140: 1c6f 9c3e 7bc1 cf3d 0d02 a2be 728d 49be
00000150: 0ea0 ac3d 7717 25bf 0032 e9be 5a83 763e
00000160: 115a ef3d 086b 853e ea99 a4be 8941 8bbd
00000170: cbdb 1fbe c386 12bf 1a94 41bf 7bf1 0a3e
00000180: 16d2 41be 0596 28be c3f8 883e 7a14 d0be
00000190: 6276 243c 45a1 babe 35d3 883e 6373 65ba
000001a0: 315e bd3e 6286 edbe ef5d 00bf acf2 623d
000001b0: 0e29 60be 2081 6cbe 869c febd 945b 2d3e
000001c0: 5268 3cbf 214d ea3e 5305 b539 a9a2 d93e
000001d0: 5349 8bbe 823f 793e decf 3bbc 7826 66be
000001e0: b53e a3be 7d33 803e e761 b33e dd29 9b3e
000001f0: 5de5 433e fdb7 8b3e 575f a33e 27d9 42be
00000200: b5cd e1be e6f8 183e 73b6 adbe 8fce 233f
00000210: 1268 003e 45ce 003e f608 15bf d33a 89be
00000220: b1f3 0abf 046a 503e 8bc6 07be adc4 153d
00000230: 78e5 c23e c59d 493f 8251 513f 3f1f abbd
00000240: c9bd 4f3f 1b3c 5bbe 2f24 c53b d189 94bc
00000250: a4cb 163e 725d 18be 459d ab3d f09d e43c
00000260: 142c 25be d540 c7be be02 0e3e 01b8 a5be
00000270: 10dd 0abf 0555 85be 57eb 70be eb08 473f
00000280: b104 3e3e 7148 db3c 24c9 e83e 45e1 053f
00000290: ec94 92be 217a 85bd 88b5 9c3d 65ef 493d
000002a0: f6d6 15bf e793 0b3e 38aa a33e 7ad6 cb3e
000002b0: fa8e 5e3e ea4c c83e abe1 643f 39db cbbd
000002c0: 30d8 763e f976 3cbe 5fec 793e 0398 93bc
000002d0: 9f5e 85be 0092 063e a52d 14bd 214d 14be
000002e0: b7b5 24bd 6246 febd f21c afbe 45ff 1dbd
000002f0: 8aec 19be b20a 71bd 5319 e93b e46e d43d
00000300: a3a1 f43e a9e9 0dbf 81bc 16be 830c 443f
00000310: 82e2 bc3e 27c6 85be 370f be3e 1345 593f
00000320: d07e 3b3e 4e0b 90be 7bcf 6f3e a783 27bf
00000330: a118 b63e 4c5a c1be 5e6f 3ebd 84e4 143f
00000340: 016b 903e 5108 bebe bf2a a13d 4891 3cbe
00000350: eab3 d9be 2e08 8abe c7c8 463e 88c6 e9bd
00000360: 4258 b13d c010 90be aafe b8be 672a c23d
00000370: 270b 19bf 0c83 1bbd c54b a8bf f2ff 013e
00000380: d2fe a4bc bce4 053f 7eee 30bf 6731 a03e
00000390: 7d8a 0a3f 726b 82be 7d55 db3e 3754 273f
000003a0: f9e4 0a3f cc20 f93e 7a24 e13e aaa4 8ebe
000003b0: b991 c83e 85f3 833e 11bb eb3e 75a2 26bf
000003c0: 318c 4cbf 1646 e1bd 5744 94be 757c 00bf
000003d0: 29ef 8dbe df0e f23e 6073 34bf 2162 33be
000003e0: bc6a b6be 2676 a93d dd2c 283f 3b15 6a3e
000003f0: 030b d43e 727f cebe b02d 193e 3700 b03e

global_feature_extractor.first_block.0.conv.1.weight f4 [96]
1.1551273 1.9796858 1.0148005 1.455647 0.26532197 1.6968223 1.1408426 1.2460871
1.032281 1.0318955 1.6925257 -0.007594099 1.8276201 0.59980637 1.7078885 -0.6347367
1.3561474 1.4046513 1.4335482 0.62662846 1.1199487 0.8069635 1.6946131 1.0540121
1.4300154 1.4600205 1.5740361 1.4423325 1.4265932 1.5000787 0.16214433 1.7354664
1.134407 0.54559344 0.78859705 0.86513704 1.3678344 1.0008782 0.86394304 1.1375661
1.1258008 1.5005875 1.0978898 2.271077 0.6431798 1.5825487 1.5695335 1.2530415
1.1626016 1.6730388 1.2818576 0.963197 1.0006689 0.07233395 1.0875175 0.7936085
0.65164983 0.87655973 1.074296 0.8977956 1.2282616 1.0471482 0.9651469 1.2279831
0.23808864 0.593969 0.5918199 0.64650637 1.2658659 1.5275148 1.4157176 0.54044944
0.73555267 1.0401846 0.6668495 1.137078 1.168034 1.6997579 0.9664492 1.3175238
0.9886205 1.1929544 0.94758135 1.4093482 1.2822288 1.7163858 1.1406964 1.3464271
1.8264457 0.78328764 0.51893455 0.8480869 1.8552192 1.3672497 1.0479648 2.0434089
00000000: 36db 933f 5866 fd3f fce4 813f a452 ba3f
00000010: 48d8 873e 7931 d93f 2107 923f c87f 9f3f
00000020: c921 843f 2715 843f afa4 d83f ebd7 f8bb
00000030: 75ef e93f e98c 193f 179c da3f 1b7e 22bf
00000040: 3d96 ad3f 9dcb b33f 827e b73f b96a 203f
00000050: 7b5a 8f3f 2995 4e3f 15e9 d83f dee9 863f
00000060: bf0a b73f f4e1 ba3f 047a c93f 5a9e b83f
00000070: 9b9a b63f 9402 c03f 2a09 263e c323 de3f
00000080: 4034 913f 03ac 0b3f 7fe1 493f 9f79 5d3f
00000090: 3315 af3f c71c 803f 5f2b 5d3f c49b 913f
000000a0: 3e1a 903f 4013 c03f a787 8c3f 5359 1140
000000b0: 6ea7 243f f590 ca3f 79e6 c83f aa63 a03f
000000c0: 21d0 943f 2326 d63f e913 a43f 1494 763f
000000d0: eb15 803f d223 943d c633 8b3f ed29 4b3f
000000e0: 86d2 263f 3866 603f 8882 893f efd5 653f
000000f0: ad37 9d3f f408 863f de13 773f 8d2e 9d3f
00000100: 82cd 733e 5a0e 183f 8281 173f 7181 253f
00000110: e507 a23f 9b85 c33f 3c36 b53f e55a 0a3f
00000120: 2e4d 3c3f c524 853f a6b6 2a3f c68b 913f
00000130: 2382 953f ab91 d93f 3769 773f 9fa4 a83f
00000140: 3c16 7d3f bbb2 983f b194 723f 8665 b43f
00000150: 1320 a43f 88b2 db3f 5702 923f b957 ac3f
00000160: f9c8 e93f 8a85 483f e5d8 043f 391c 593f
00000170: d377 ed3f 0a02 af3f b623 863f 36c7 0240

global_feature_extractor.first_block.0.conv.1.bias f4 [96]
0.04202639 -0.13047278 -0.015899165 -0.43117484 -0.8319273 -0.17196459 0.2871537 0.18838759
-0.34435236 -0.12260622 -0.035610527 -0.48680243 0.025531143 0.63474756 0.17213197 0.27249658
0.1943273 -0.022225838 0.22871713 0.54828405 -0.40931004 0.47477138 -0.0032175595 0.2574167
0.418897 -0.2848066 0.07516192 0.029212728 -0.19957446 -0.22388 0.9986626 -0.13603526
-0.2875957 -0.6018254 0.48992908 -0.45432428 -0.17843245 -0.20854165 -0.8245 0.0036306242
-0.35258064 -0.04802683 -0.34790292 -0.098659016 0.5101946 -0.13044496 -0.009863774 0.035482902
0.18775843 -0.16887748 0.30351427 0.36912706 0.4497386 -0.859358 -0.43559253 0.26378748
0.43262798 0.5558506 0.4091547 -0.2263765 -0.21166247 0.5494317 -0.033367258 -0.25465596
0.964773 0.62077904 0.60090905 0.61534613 -0.1497543 -0.026635304 0.035076536 0.60520315
-0.50584245 -0.19550344 0.598973 0.1004896 0.16612571 0.32561618 -0.54145956 0.015444052
-0.51272076 -0.32307807 0.38325796 -0.11032083 0.15103465 0.04012595 -0.16421174 0.24014817
0.058551915 0.2334822 0.63223046 0.110633016 -0.06003868 -0.20875123 -0.13512193 -0.33817288
00000000: dd23 2c3d a89a 05be f73e 82bc f3c2 dcbe
00000010: 30f9 54bf 7c17 30be cf05 933e ade8 403e
00000020: f44e b0be f818 fbbd 58dc 11bd 2b3e f9be
00000030: b026 d13c d17e 223f 5d43 303e ac84 8b3e
00000040: bcfd 463e f612 b6bc d334 6a3e 585c 0c3f
00000050: 1691 d1be 3c15 f33e b1dd 52bb 1fcc 833e
00000060: ab79 d63e 2cd2 91be 7eee 993d 884f ef3c
00000070: 3f5d 4cbe cc40 65be 5aa8 7f3f d44c 0bbe
00000080: be3f 93be 3b11 1abf fcd7 fa3e 319d e8be
00000090: ffb6 36be f18b 55be 6f12 53bf c4ef 6d3b
000000a0: 7385 b4be c8b7 44bd 5520 b2be bd0d cabd
000000b0: 1d9c 023f 5d93 05be ab9b 21bc 8556 113d
000000c0: bf43 403e 38ee 2cbe 3966 9b3e 39fe bc3e
000000d0: 2344 e63e e3fe 5bbf fc05 dfbe 270f 873e
000000e0: 6a81 dd3e 3a4c 0e3f ba7c d13e 3ecf 67be
000000f0: 0cbe 58be 8ea7 0c3f 1bac 08bd 4462 82be
00000100: 5dfb 763f 60eb 1e3f 2dd5 193f 5387 1d3f
00000110: 3159 19be 4832 dabc 6aac 0f3d 98ee 1a3f
00000120: e47e 01bf 0e32 48be 4b56 193f 7ecd cd3d
00000130: dc1c 2a3e 2ab7 a63e 189d 0abf 0d09 7d3c
00000140: ab41 03bf 7d6a a5be 633a c43e e3ef e1bd
00000150: d4a8 1a3e 1c5b 243d 1f27 28be 67e9 753e
00000160: 22d4 6f3d f515 6f3e dbd9 213f 9093 e23d
00000170: 1eeb 75bd e2c2 55be 675d 0abe ff24 adbe

global_feature_extractor.first_block.0.conv.1.running_mean f4 [96]
-0.36304623 1.2608467 0.52380806 0.326395 -1.6926624 -1.248567 -1.1729481 0.36256155
0.72405666 -0.15156625 1.5041174 -0.32108164 1.3586706 -2.2364602 1.9056398 -0.5194393
-0.37586734 1.7524118 0.3013195 -2.3579803 1.7165688 -1.9847643 1.7914827 0.46532747
1.5170624 0.4350631 0.08224293 0.2338669 -1.5976001 0.1250362 -0.85299647 1.3851575
0.50118905 0.23078285 -2.8945143 1.2221259 2.0818827 1.6209712 -1.125091 0.16440625
2.7994022 0.8109169 0.41013876 0.9701429 0.18412036 -1.2667634 1.0320067 -0.6759096
-0.82372886 0.3658896 0.8424295 0.8702321 -0.31270754 0.7811414 1.1799132 0.59689873
-1.8235795 -1.8293123 -1.4277183 -0.30407926 1.3523469 -1.122766 1.7742696 0.8970566
-0.7390634 -0.9251506 -1.0185529 -0.21670489 0.5975838 -0.6162323 -0.09225007 -2.0725255
1.3635824 0.18423873 -0.21296905 0.49824235 -0.60824937 0.59813774 0.025742125 0.8390023
0.72638583 -1.5828395 0.18485413 -0.42879367 -1.1108998 0.048349444 -0.22026983 -0.7392799
-1.9891651 0.040419824 -1.4373394 0.10468936 0.19566189 1.4999886 -0.42606226 0.47399852
00000000: 32e1 b9be 6d63 a13f 4918 063f 3f1d a73e
00000010: 29a9 d8bf 0bd1 9fbf 2a23 96bf aba1 b93e
00000020: c75b 393f 2f34 1bbe eb86 c03f d064 a4be
00000030: ebe8 ad3f 2a22 0fc0 01ec f33f f9f9 04bf
00000040: af71 c0be 084f e03f 8d46 9a3e 26e9 16c0
00000050: 87b8 db3f c20c febf 4e4f e53f 673f ee3e
00000060: 1a2f c23f 97c0 de3e fb6e a83d ce7a 6f3e
00000070: 297e ccbf 7d09 003e fa5d 5abf d74c b13f
00000080: ed4d 003f 5752 6c3e b93f 39c0 9f6e 9c3f
00000090: 913d 0540 fc7b cf3f fb02 90bf 1d5a 283e
000000a0: 6829 3340 4098 4f3f b5fd d13e 495b 783f
000000b0: 0c8a 3c3e 4e25 a2bf cc18 843f 6908 2dbf
000000c0: e5df 52bf e255 bb3e 76a9 573f 88c7 5e3f
000000d0: 341b a0be e2f8 473f 6507 973f 5bce 183f
000000e0: 0e6b e9bf e826 eabf 79bf b6bf 47b0 9bbe
000000f0: b419 ad3f ccb6 8fbf 441b e33f 80a5 653f
00000100: 4233 3dbf abd6 6cbf f15f 82bf e3e7 5dbe
00000110: 40fb 183f 66c1 1dbf 9bed bcbd 42a4 04c0
00000120: de89 ae3f 14a9 3c3e 8f14 5abe 9f19 ff3e
00000130: 3bb6 1bbf 8e1f 193f 26e1 d23c dbc8 563f
00000140: 6cf4 393f 7c9a cabf 674a 3d3e d88a dbbe
00000150: f731 8ebf 110a 463d 6a8e 61be 7341 3dbf
00000160: f69c febf 428f 253d bdfa b7bf 6067 d63d
00000170: 975b 483e a0ff bf3f d524 dabe efaf f23e

global_feature_extractor.first_block.0.conv.1.running_var f4 [96]
0.33708858 1.61117 0.45734867 4.5643854 1.5705283 2.3582458 1.4837375 3.1935549
5.428508 3.1878202 2.2800832 0.5610066 4.569403 5.2269487 2.772551 3.0490859
0.9892649 2.9128742 2.7239172 4.6907153 2.7348027 4.2942157 1.0730196 2.0717173
5.242064 4.4204116 2.9247208 1.6930151 1.740492 1.838327 5.870542 3.052942
0.7646245 2.1193614 4.988 3.6483362 2.2462308 1.6797416 5.0375886 3.89825
2.558602 1.2197369 1.1946708 2.0340304 3.7012544 2.515579 1.6639757 2.134415
0.6559744 3.4375935 4.0790353 2.1389282 5.1573515 0.68165076 3.2157125 1.9820863
1.3217174 2.8364236 4.562496 1.7252235 5.8013186 2.2740986 1.2214164 3.121813
6.9462447 3.77594 4.3042607 2.1065478 0.9150953 2.0712814 4.1744976 2.235461
1.742167 0.98941314 4.425196 2.862065 5.167813 4.668387 3.2535791 1.4468038
1.2156833 6.2144437 3.477994 3.8586004 3.563017 1.540461 1.4550254 2.22008
6.921746 2.3391907 3.9714515 2.6526651 5.6763415 2.7250726 1.7348149 2.630997
00000000: e096 ac3e d23a ce3f 9b29 ea3e 720f 9240
00000010: 1207 c93f 80ed 1640 1ceb bd3f 3463 4c40
00000020: 56b6 ad40 3f05 4c40 e2ec 1140 219e 0f3f
00000030: 8d38 9240 2a43 a740 7a71 3140 3924 4340
00000040: 7740 7d3f 886c 3a40 a954 2e40 571a 9640
00000050: 0207 2f40 376a 8940 b558 893f 0497 0440
00000060: fdbe a740 0374 8d40 a02e 3b40 b8b4 d83f
00000070: 71c8 de3f 4d4e eb3f 7bdb bb40 6763 4340
00000080: 6ebe 433f 9ea3 0740 b29d 9f40 577e 6940
00000090: 3fc2 0f40 c601 d73f ed33 a140 ee7c 7940
000000a0: 23c0 2340 5720 9c3f f9ea 983f 8e2d 0240
000000b0: 5ae1 6c40 3fff 2040 28fd d43f 419a 0840
000000c0: f0ed 273f 8801 5c40 7587 8240 33e4 0840
000000d0: 0609 a540 aa80 2e3f 3cce 4d40 01b5 fd3f
000000e0: 092e a93f f787 3540 f8ff 9140 20d4 dc3f
000000f0: 67a4 b940 d58a 1140 5f57 9c3f c9cb 4740
00000100: a347 de40 00a9 7140 81bc 8940 aed1 0640
00000110: b043 6a3f e08f 0440 7c95 8540 cb11 0f40
00000120: 54ff de3f 2e4a 7d3f 359b 8d40 132c 3740
00000130: b95e a540 6d63 9540 a43a 5040 de30 b93f
00000140: 839b 9b3f b9dc c640 7497 5e40 4ff3 7640
00000150: 7808 6440 d32d c53f 463e ba3f ca15 0e40
00000160: f17e dd40 4db5 1540 432c 7e40 44c5 2940
00000170: 97a4 b540 9767 2e40 6a0e de3f 4162 2840

global_feature_extractor.first_block.0.conv.3.weight f4 [96, 1, 3, 3]
-0.057891615 -0.4218029 0.48352304 0.078071766 0.18929489 0.081401914 0.3521136 -0.030144587
0.14316987 -0.17457782 -0.48780563 -0.21189098 -0.45461884 -0.5835667 -0.4093894 -0.445598
-0.13976689 -0.14734341 -0.26378044 -0.49001372 -0.29025984 0.25090575 -0.42925796 0.042797767
0.26502797 0.12750399 0.2647915 0.08753914 0.5112907 0.4238233 0.24093503 0.7355943
0.8203318 0.021693913 0.27393907 -0.047489844 -0.2376543 0.13617949 -0.08945445 0.12586181
0.5202947 0.6668975 0.026337003 -0.29094854 0.31613755 0.49681473 0.38881314 0.24149977
-0.055795807 -0.5882995 -0.24855807 -0.11131601 -0.22039242 -0.2858667 -0.16698392 0.028853681
-0.32144058 -0.4040852 -0.5072107 -0.6937606 0.03511433 -0.45115778 -0.3211382 -0.44139513
-0.33586335 -0.26468414 -0.17534323 -0.20975843 0.06177054 0.64548385 -0.58259124 -0.31550646
0.18939963 0.5473514 0.7305445 -0.08102781 0.34390444 0.9477288 0.26249832 0.027927518
0.15826115 -0.01141602 0.34779644 0.42517215 0.294109 0.43541276 -0.18261051 -0.47499093
0.48868287 -0.32080764 0.30280083 0.19732079 0.5698862 0.39024222 -0.14084381 0.94789714
0.273966 -0.04317401 0.32350084 -0.33956546 -0.24796659 0.13481589 0.12562658 -0.16802825
0.0345635 0.27983263 -0.12863992 -0.42645112 -0.3315703 -0.1354175 0.3757597 -0.7318517
-0.4197502 -0.6948589 -0.64311373 -0.6790633 -0.6659497 -0.4943513 -1.1703714 -0.31899965
-0.5344601 -0.26968974 -0.19763488 -0.20323813 0.22384517 0.4515279 -0.57432175 0.83219784
0.32309237 -0.45601544 0.7097635 -0.031914793 -0.15645842 0.4222878 -0.23510073 -0.28220838
0.2006129 0.037331782 -0.54480803 -0.20915703 0.2128661 0.07468646 1.1403306 0.68049526
0.07903446 0.5077286 -0.059432592 -0.31285876 0.07109906 0.027372388 -0.42871106 0.41342437
-0.2719339 0.050737914 0.24307182 0.2097068 0.3681605 0.21451427 0.21208933 0.21117848
0.948403 0.8459836 0.11413833 0.29936254 -0.78064466 0.61889756 -0.24662755 -0.48836106
-0.17935212 0.36213923 0.44152907 0.4754461 -0.48000646 -0.24908257 -0.7153067 -0.6427167
-0.2999627 -0.034748144 -0.23760174 0.16910745 -0.75726366 0.5466885 0.07684001 -0.6714091
0.28671473 0.15632933 -0.6136635 0.072045684 -0.06366785 -0.35615334 0.18702121 0.3661975
-0.48248735 -0.79382503 -0.08261275 0.82012135 -0.23109111 -0.58678716 0.18148774 0.6044012
0.58026797 -0.3242472 -0.42114952 -0.41905022 -0.024430783 -0.31002533 -0.00020973543 -0.3291606
-0.61736196 -0.09964454 -0.17327014 0.24071757 0.034380317 0.35267654 0.7079953 0.10309179
-0.4234144 0.43597537 0.20045424 -0.08087494 1.0957364 0.7321805 -0.45640984 -0.23918381
-0.26763096 -0.1171706 0.33659223 -0.018251894 0.20569564 0.6939708 0.5307369 0.35684434
0.7408953 0.4288746 -0.6342677 -0.4472611 0.018035816 -0.08189043 -0.17072783 -0.09318308
0.36967662 -0.36664733 -0.12272268 0.19637476 0.9071247 0.2296656 -0.21775042 -0.07558045
-0.043214984 -0.024271157 -0.26642182 -0.27385318 -0.56098455 -0.2942828 0.28135616 -0.40909463
00000000: c21f 6dbd 8df6 d7be 5590 f73e 17e4 9f3d
00000010: 85d6 413e 0cb6 a63d 3c48 b43e c8f1 f6bc
00000020: 1f9b 123e 87c4 32be a9c1 f9be f3f9 58be
00000030: cdc3 e8be a164 15bf 7d9b d1be 6c25 e4be
00000040: 0d1f 0fbe 31e1 16be 3b0e 87be 14e3 fabe
00000050: f09c 94be b876 803e b3c7 dbbe b64c 2f3d
00000060: bfb1 873e 6890 023e c092 873e b847 b33d
00000070: f3e3 023f 5eff d83e acb7 763e e84f 3c3f
00000080: 4401 523f 6fb7 b13c be41 8c3e b684 42bd
00000090: a65b 73be a372 0b3e e533 b7bd ebe1 003e
000000a0: 0932 053f cbb9 2a3f b3c0 d73c 35f7 94be
000000b0: c8dc a13e 805e fe3e 8412 c73e b74b 773e
000000c0: 258a 64bd cc9a 16bf 0286 7ebe a6f9 e3bd
000000d0: 8dae 61be 1f5d 92be d5fd 2abe 8e5e ec3c
000000e0: dc93 a4be 41e4 cebe 8fd8 01bf 4b9a 31bf
000000f0: 0bd4 0f3d 27fe e6be 3a6c a4be 8bfe e1be
00000100: 48f6 abbe ae84 87be 2d8d 33be eaca 56be
00000110: 1b03 7d3d 6e3e 253f b324 15bf 108a a1be
00000120: faf1 413e 391f 0c3f f704 3b3f e9f1 a5bd
00000130: 3e14 b03e 5b9e 723f 2e66 863e 40c8 e43c
00000140: 360f 223e 420a 3bbc 6012 b23e 2ab0 d93e
00000150: 7495 963e 6cee de3e 40fe 3abe 0332 f3be
00000160: a434 fa3e e640 a4be b608 9b3e 760e 4a3e
00000170: 10e4 113f d4cd c73e 5c39 10be 63a9 723f
00000180: 4645 8c3e 3bd7 30bd e7a1 a53e 86db adbe
00000190: f4ea 7dbe 2d0d 0a3e 41a4 003e 990f 2cbe
000001a0: 7592 0d3d 3946 8f3e 2fba 03be cd57 dabe
000001b0: 95c3 a9be e3aa 0abe 9363 c03e a25a 3bbf
000001c0: 80e9 d6be 46e2 31bf 1aa3 24bf 18d7 2dbf
000001d0: ae7b 2abf 9d1b fdbe bbce 95bf ec53 a3be
000001e0: 61d2 08bf c614 8abe cc60 4abe a81d 50be
000001f0: ab37 653e aa2e e73e c006 13bf eb0a 553f
00000200: 5d6c a53e db7a e9be 10b3 353f 16b9 02bd
00000210: a336 20be 1b36 d83e 3fbe 70be 9e7d 90be
00000220: 786d 4d3e 36e9 183d 8a78 0bbf 432d 56be
00000230: 92f9 593e 37f5 983d 5af6 913f f034 2e3f
00000240: d2dc a13d 80fa 013f 976f 73bd 062f a0be
00000250: 629c 913d 0f3c e03c 0480 dbbe 5cac d33e
00000260: ec3a 8bbe 8fd2 4f3d d2e7 783e 61bd 563e
00000270: 887f bc3e a1a9 5b3e f22d 593e 2c3f 583e
00000280: 8aca 723f 6292 583f 5bc1 e93d 0c46 993e
00000290: 54d8 47bf 1270 1e3f ef8b 7cbe 760a fabe
000002a0: 15a8 37be 506a b93e 1910 e23e ac6d f33e
000002b0: 68c3 f5be 800f 7fbe 571e 37bf 1589 24bf
000002c0: b694 99be 1254 0ebd df4d 73be 812a 2d3e
000002d0: 08dc 41bf c7f3 0b3f 4c5e 9d3d 77e1 2bbf
000002e0: 46cc 923e cc14 203e 0d19 1dbf b08c 933d
000002f0: 4a64 82bd bb59 b6be 7d82 3f3e 3d7e bb3e
00000300: 9508 f7be 1e38 4bbf e030 a9bd 79f3 513f
00000310: 26a3 6cbe af37 16bf ecd7 393e 09ba 1a3f
00000320: 718c 143f bb03 a6be e9a0 d7be c08d d6be
00000330: 1123 c8bc a4bb 9ebe 6dec 5bb9 bd87 a8be
00000340: 6f0b 1ebf 7012 ccbd ba6d 31be ab7e 763e
00000350: 60d2 0c3d 0592 b43e 2e3f 353f ca21 d33d
00000360: c6c9 d8be 2a38 df3e e043 4d3e c3a1 a5bd
00000370: 1741 8c3f 2e70 3b3f 8dae e9be 9aec 74be
00000380: ed06 89be 24f7 efbd d155 ac3e ff84 95bc
00000390: e1a1 523e 12a8 313f 60de 073f 4db4 b63e
000003a0: 50ab 3d3f 7495 db3e 5e5f 22bf 68ff e4be
000003b0: d9bf 933c 2bb6 a7bd 47d3 2ebe c5d6 bebd
000003c0: 4146 bd3e 33b9 bbbe 0756 fbbd 7716 493e
000003d0: 5339 683f 762d 6b3e f7f9 5ebe ecc9 9abd
000003e0: 3202 31bd 4ed4 c6bc 7168 88be 7c36 8cbe
000003f0: af9c 0fbf 3cac 96be ea0d 903e da74 d1be

global_feature_extractor.first_block.0.conv.4.weight f4 [96]
0.18212329 1.032163 0.52559316 1.2085943 0.833379 0.9467052 0.8706784 1.0667835
1.3746114 0.73792034 1.0947394 0.73893946 1.6763002 1.3377477 1.4346898 1.311166
0.6081841 1.3060479 1.1056145 1.1536531 1.322342 1.4367728 0.9759873 0.8542721
1.5405183 1.1915065 0.91075695 0.7600838 0.8011134 0.7528627 0.8965609 1.0908462
0.5773258 0.95439225 1.6051028 0.9602755 0.9002056 0.98913366 1.1750994 1.1643865
1.4217142 0.5861237 0.8194059 0.98224354 1.2967994 1.4412892 0.6586473 1.0799682
0.21982965 1.2626162 1.5425737 0.9547306 1.320008 0.7075205 1.3785506 0.7689182
0.73047686 1.0698982 1.3851278 1.0792437 1.7766708 1.4573805 0.50155705 1.478884
1.8737044 0.51672316 1.3540683 1.2274073 0.6021263 0.89774936 1.0543778 1.2523427
0.68675804 0.32866716 1.5973098 1.0500696 1.4721535 1.4026725 1.1563551 0.8255574
1.3160871 1.3805796 1.3291228 1.0050182 1.243643 0.5026573 0.28026858 1.187744
0.9485778 1.1809565 1.3962173 1.043232 1.643411 1.0991172 0.61998916 1.9531776
00000000: 877e 3a3e eb1d 843f 468d 063f 38b3 9a3f
00000010: 5358 553f 465b 723f c8e4 5e3f 5d8c 883f
00000020: 44f3 af3f 59e8 3c3f 6c20 8c3f 232b 3d3f
00000030: 0191 d63f 513b ab3f eaa3 b73f 4ad4 a73f
00000040: f4b1 1b3f 942c a73f c784 8d3f e8aa 933f
00000050: 8142 a93f 2ce8 b73f 4eda 793f 94b1 5a3f
00000060: b42f c53f 4983 983f 5e27 693f da94 423f
00000070: c515 4d3f 9cbb 403f 0485 653f d9a0 8b3f
00000080: a0cb 133f 0d53 743f 0274 cd3f 9dd4 753f
00000090: e073 663f dd37 7d3f a869 963f 9e0a 953f
000000a0: bbfa b53f 340c 163f 96c4 513f 5074 7b3f
000000b0: 86fd a53f 2a7c b83f 1c9d 283f 663c 8a3f
000000c0: 061b 613e 689d a13f 0e73 c53f 3969 743f
000000d0: 06f6 a83f 1020 353f 5974 b03f d3d7 443f
000000e0: 8800 3b3f 6df2 883f de4b b13f a824 8a3f
000000f0: f369 e33f 728b ba3f 0b66 003f 124c bd3f
00000100: 8cd5 ef3f f847 043f 1c52 ad3f af1b 9d3f
00000110: f324 1a3f e7d2 653f daf5 863f c44c a03f
00000120: 60cf 2f3f 1047 a83e a674 cc3f ae68 863f
00000130: 876f bc3f c68a b33f 7203 943f bb57 533f
00000140: 8b75 a83f d5b6 b03f b220 aa3f 70a4 803f
00000150: b22f 9f3f 26ae 003f 5d7f 8f3e ff07 983f
00000160: ffd5 723f 9529 973f 40b7 b23f a088 853f
00000170: 4b5b d23f dfaf 8c3f 9cb7 1e3f b901 fa3f

global_feature_extractor.first_block.0.conv.4.bias f4 [96]
-0.68002903 0.15728158 -0.48034608 -0.0154282395 -0.26238108 -0.60541296 -0.14180827 -0.017861843
0.7993349 0.051391687 -0.064490624 -0.17603743 0.32925513 0.15666755 0.47986957 0.11718136
-0.33688286 0.2741349 -0.1433893 -0.37436888 0.3439009 0.26658815 -0.26021373 -0.1621554
0.8330537 0.83889097 -0.03424853 -0.0070594884 -0.3850576 -0.56404316 0.6922011 0.9453821
-0.008432349 -0.2090719 0.15714182 0.6536709 -0.42060494 -0.022679744 0.25209045 -0.031277765
-0.011658428 -0.2099853 -0.71984977 -0.39471486 0.22003731 0.37003303 -0.05692544 0.088737175
-0.50459003 0.41086826 0.04719811 -0.018753152 0.0745579 -0.23409641 0.50486785 0.30865833
-0.48133835 -0.14181888 -0.036858022 -0.66936415 0.7527126 0.09779185 -0.2090117 0.36612123
1.0526985 -0.08586585 -0.22962222 -0.091213316 -0.63173085 -0.1852146 0.26546136 -0.25532106
-0.95073503 -0.5060804 -0.16508465 -0.5805315 1.0593402 -0.039336868 -0.043645825 -0.33189172
0.4909718 0.10264141 -0.032700095 -0.10805639 -0.18381996 -0.55603755 0.049452957 0.21670945
-0.03280224 0.08854057 -0.2624659 -0.051190037 0.19671382 -0.29968655 -0.5640458 0.27048168
00000000: 6216 2ebf 6c0e 213e ecef f5be bac6 7cbc
00000010: d056 86be 58fc 1abf 3036 11be 0053 92bc
00000020: 36a1 4c3f 1780 523d a913 84bd 2843 34be
00000030: 2194 a83e 756d 203e 77b1 f53e c8fc ef3d
00000040: e97b acbe 695b 8c3e a5d4 12be 47ad bfbe
00000050: c713 b03e 3e7e 883e bc3a 85be 110c 26be
00000060: 0243 553f 8fc1 563f 3048 0cbd 4853 e7bb
00000070: 4526 c5be 2265 10bf 1734 313f 9004 723f
00000080: d627 0abc f216 56be c9e9 203e fa56 273f
00000090: 8859 d7be dfca b9bc 0012 813e 1d1d 00bd
000000a0: fe02 3fbc 6306 57be 1348 38bf 1118 cabe
000000b0: 7651 613e f874 bd3e a62a 69bd d6bb b53d
000000c0: d02c 01bf 535d d23e ce52 413d 36a0 99bc
000000d0: d0b1 983d f8b6 6fbe 053f 013f 7708 9e3e
000000e0: fb71 f6be f838 11be 70f8 16bd 735b 2bbf
000000f0: c6b1 403f 1847 c83d 2a07 56be 3e74 bb3e
00000100: d3be 863f 6fda afbd 1622 6bbe 0cce babd
00000110: 1db9 21bf e5a8 3dbe 8dea 873e 71b9 82be
00000120: 5f63 73bf 7c8e 01bf f30b 29be b69d 14bf
00000130: 7698 873f b21f 21bd f7c5 32bd b6ed a9be
00000140: a860 fb3e a935 d23d 89f0 05bd ab4c ddbd
00000150: 4d3b 3cbe 7a58 0ebf 2f8f 4a3d 15e9 5d3e
00000160: a45b 06bd c254 b53d ee61 86be a5ac 51bd
00000170: 596f 493e 8470 99be 4e65 10bf 937c 8a3e

global_feature_extractor.first_block.0.conv.4.running_mean f4 [96]
0.36796117 -2.0659091 -0.16425939 1.0474223 6e-45 -0.32818165 -1.6439611 -0.92954385
0.7836891 0.29008177 1.5403806 6e-45 -2.6691225 -1.4963361 0.61847126 0.61565506
-0.04125967 1.5816664 0.025116865 -1.224176 -0.17942308 -0.80236703 -0.09764016 0.19031198
0.9556184 1.3818389 -0.93512815 0.18846206 -1.0293957 -0.19096358 2.4886234 1.8365911
-0.30813766 0.11090014 -1.7133582 -0.4619614 1.0002888 -0.57903016 0.17218685 -0.908843
0.8017423 0.008343617 0.11331794 -0.04519824 0.6814982 -1.4641315 -0.923896 -1.2648208
0.47354072 -1.2826314 0.32646343 0.49466637 2.1371279 -6e-45 0.8796792 0.18493447
0.05847614 -1.5572226 -1.3799639 0.024964828 -1.1467192 -1.5795316 0.7070679 -0.79270536
3.1902616 1.4726063 -2.161013 -1.5906761 -0.20787619 1.141008 -0.7824964 -1.4426658
0.16672158 -0.29293758 -0.99857855 -0.18173908 1.7407879 -1.629281 0.1712208 -0.37837777
-0.44655827 -1.0290536 -0.99648064 0.90296054 -1.284078 -0.64510936 -0.55271924 -0.77911484
1.59792 -1.1485013 -1.3477342 0.7195474 -0.94784206 0.0036761605 0.33846024 -1.6155939
00000000: 6865 bc3e db37 04c0 9d33 28be ef11 863f
00000010: 0400 0000 6d07 a8be 516d d2bf 96f6 6dbf
00000020: d99f 483f 9985 943e 312b c53f 0400 0000
00000030: e7d2 2ac0 f187 bfbf 2254 1e3f 929b 1d3f
00000040: e6ff 28bd 0b74 ca3f e2c1 cd3c cdb1 9cbf
00000050: afba 37be ed67 4dbf 90f7 c7bd 25e1 423e
00000060: 68a3 743f 19e0 b03f 8f64 6fbf 33fc 403e
00000070: 3dc3 83bf f58b 43be 9b45 1f40 6b15 eb3f
00000080: 38c4 9dbe 9d1f e33d 524f dbbf 3486 ecbe
00000090: 7709 803f 523b 14bf c051 303e efa9 68bf
000000a0: fc3e 4d3f abb3 083c 3c13 e83d ca21 39bd
000000b0: ab76 2e3f a968 bbbf 7384 6cbf a6e5 a1bf
000000c0: ee73 f23e 442d a4bf 3726 a73e e944 fd3e
000000d0: b4c6 0840 0400 0080 a832 613f 765f 3d3e
000000e0: ad84 6f3d 1253 c7bf a8a2 b0bf 0a83 cc3c
000000f0: b2c7 92bf 172e cabf 6702 353f bdee 4abf
00000100: 3f2d 4c40 5d7e bc3f 094e 0ac0 469b cbbf
00000110: 7fdd 54be 8d0c 923f af51 48bf 46a9 b8bf
00000120: 10b9 2a3e eafb 95be d8a2 7fbf cf19 3abe
00000130: 23d2 de3f 488c d0bf 8154 2f3e bbba c1be
00000140: 49a3 e4be 07b8 83bf 5b19 7fbf 6c28 673f
00000150: ab5c a4bf e325 25bf 027f 0dbf 1274 47bf
00000160: a488 cc3f 1702 93bf 8e82 acbf 4234 383f
00000170: c7a5 72bf bdeb 703b a94a ad3e c8cb cebf
