model_checkpoints/experiments/overall/fastscnn_128a0.25t6r3pp0_noinit.onnx (onnx, 325011 bytes, 81 tensors)

feature_fusion.conv_high_res.weight f4 [32, 16, 1, 1]
0	0x3e74f6d0	0.23922276
1	0x3d65d3e4	0.056110278
2	0xbd9ca66e	-0.076489314
3	0xbedc8e5d	-0.43077365
4	0xbf4e0601	-0.8047791
5	0x3ec7373d	0.3890933
6	0xbe40cddf	-0.18828534
7	0xbe8e283c	-0.2776507
8	0x3d819eb7	0.063291006
9	0x3ed7ee73	0.4217411
10	0xbf2fc641	-0.68661886
11	0x3f9b205a	1.2119248
12	0xbf21e987	-0.6324696
13	0x3ddde545	0.10834745
14	0x3ede50da	0.4342106
15	0xbc907d58	-0.017637894
16	0xbe941527	-0.28922388
17	0xbd8d4f8a	-0.068999365
18	0x3e2cd06a	0.16876379
19	0x3f5dc87d	0.86634046
20	0xbe7fd739	-0.24984445
21	0x3ea2a245	0.31764427
22	0xbfac3c36	-1.3455875
23	0xbfae5c9d	-1.3622013
24	0xbe494855	-0.19656499
25	0x3e648fb4	0.22320443
26	0xbf6cecdb	-0.9254891
27	0x3ec8d022	0.39221293
28	0xbeb06827	-0.34454462
29	0x3ebb8514	0.36624968
30	0x3f474967	0.7784638
31	0x3f109450	0.56476307
32	0xbf7df4a6	-0.9920143
33	0x3e76e453	0.24110536
34	0x3f15b4aa	0.58478796
35	0x3eac85a6	0.33695716
36	0xbed15275	-0.40883222
37	0x3f01c469	0.50690323
38	0xbf5472d9	-0.82987744
39	0xbe99edc4	-0.30064213
40	0xbee70a0e	-0.4512486
41	0x3f37f4d7	0.7185797
42	0xbf05cc2c	-0.52264667
43	0x3f7321cb	0.9497344
44	0x3f186f5a	0.5954491
45	0xbdbe2a8b	-0.09285458
46	0x3f2f58ab	0.6849467
47	0x3f63a589	0.8892446
48	0x3e045562	0.12923196
49	0xbf597df9	-0.84957844
50	0x3ef9fe0a	0.4882663
51	0x3fafa50a	1.3722241
52	0x3eceddc4	0.4040357
53	0x3f0d2d04	0.55146813
54	0xbf9f3651	-1.2438451
55	0xbebe08e2	-0.37116152
56	0x3ecde35b	0.4021252
57	0x3ec12935	0.3772675
58	0x3f079562	0.52962315
59	0xbf20693f	-0.6266059
60	0x3e8b8011	0.27246144
61	0x3ef87e16	0.48533696
62	0xbe0078a9	-0.12546028
63	0x3f79e0b1	0.97608477
64	0xbf2f732b	-0.6853511
65	0x3f3d6289	0.7397848
66	0xbf6cd9c7	-0.925198
67	0xbf4ec3a6	-0.80767286
68	0xbd7cb197	-0.0616928
69	0xbf963c46	-1.1737144
70	0x3e946140	0.28980446
71	0xbf8180cc	-1.0117431
72	0xbfa2c310	-1.2715778
73	0x3c62501c	0.013813045
74	0xbed7b51e	-0.4213037
75	0x3f12eff8	0.57397413
76	0xbe2f1181	-0.17096521
77	0xbd5dba1c	-0.054132566
78	0x3f0bfcfd	0.54682904
79	0xbe998a22	-0.299882
80	0x3ea3a096	0.31958455
81	0xbe0be7bd	-0.1366262
82	0x3f20eb4c	0.62859035
83	0x3ece38d5	0.40277734
84	0x3f934db7	1.1508092
85	0xbe0cec71	-0.1376207
86	0x3fa42078	1.2822409
87	0x3f1dbd77	0.61617225
88	0x3efc13a6	0.4923374
89	0xbf73ff3b	-0.95311326
90	0xbf7771a5	-0.9665778
91	0x3e19871c	0.14992946
92	0xbe413aa5	-0.18870027
93	0x3f166671	0.58750063
94	0xbf2dec3d	-0.67938596
95	0x3ed0ff32	0.408197
96	0x3f758a28	0.95913935
97	0xbf7608af	-0.96107
98	0xbe51a31a	-0.20472375
99	0x3f312c1a	0.6920792
100	0xbfa53299	-1.2906066
101	0xbf094e95	-0.5363553
102	0x3f440991	0.765771
103	0xbd4e84fc	-0.050419793
104	0x3ea9dea9	0.3317769
105	0xbf704b4c	-0.93864894
106	0xbda462af	-0.08026635
107	0xbedbec7a	-0.42953855
108	0xbf50120d	-0.81277543
109	0x3dca44b1	0.09876383
110	0xbdd2406b	-0.10266193
111	0xbebed3b8	-0.37270904
112	0xbe9bb06a	-0.3040803
113	0x3fa4f475	1.2887102
114	0xbe37688a	-0.17910972
115	0x3e053fc6	0.13012609
116	0xbd932312	-0.071844235
117	0xbe2288d0	-0.15872502
118	0x3f927cc8	1.144433
119	0x3d5f691c	0.0545436
120	0xbefac65c	-0.4897946
121	0x3e8df978	0.27729392
122	0xbf1911da	-0.59792864
123	0x3f5da8c1	0.86585623
124	0x3e188321	0.14893772
125	0x3d553f82	0.05206252
126	0x3f0fde76	0.56198823
127	0xbf565731	-0.83726794
128	0x3e9b1319	0.30288008
129	0x3edd69f3	0.43244895
130	0xbf0cb931	-0.5497008
131	0x3ef9d918	0.48798442
132	0x3ecea7c1	0.4036236
133	0x3db82899	0.089921184
134	0x3f6f1f9e	0.9340762
135	0x3eb94264	0.36183465
136	0x3ea14367	0.31496736
137	0xbe8aed35	-0.271341
138	0x3f954191	1.1660634
139	0x3e4fe369	0.20301594
140	0x3f16a7eb	0.5884997
141	0xbe71f9b1	-0.23630406
142	0x3db58115	0.08862511
143	0xbf10cc2a	-0.5656153
144	0xbf6c21e5	-0.9223922
145	0x3e083af2	0.13303736
146	0x3f99f90e	1.202913
147	0x3d902eec	0.070402
148	0xbf26080b	-0.6485602
149	0x3d9957e9	0.07487471
150	0xbf43c326	-0.7646965
151	0xbf230fdd	-0.6369608
152	0xbfae2874	-1.3606095
153	0x3eebab5e	0.4602918
154	0xbf814ef5	-1.0102221
155	0xbf50efde	-0.8161601
156	0x3e3bf9bf	0.1835699
157	0x3c05b2fd	0.00816035
158	0x3f598ea7	0.84983295
159	0x3f7a8463	0.97858256
160	0xbfa5287d	-1.2902981
161	0x3fad16f6	1.3522632
162	0x3f0f1c0f	0.5590219
163	0xbe9362f8	-0.28786445
164	0xbeb40908	-0.3516314
165	0x3f8ddac5	1.1082388
166	0xbf5ab97f	-0.85439295
167	0x3ddb8172	0.10718049
168	0x3bfb3002	0.007665635
169	0x3f1748b2	0.590953
170	0xbf9514b3	-1.1646942
171	0x3f011ca8	0.5043435
172	0xbf21d10c	-0.63209605
173	0x3e48d800	0.19613647
174	0x3f0b3089	0.54370934
175	0xbf513de0	-0.8173504
176	0xbbf9c820	-0.0076227337
177	0xbed5adbf	-0.4173412
178	0x3f17f367	0.5935578
179	0xbea23f6b	-0.3168901
180	0x3f20574f	0.6263322
181	0x3e4d60f1	0.20056511
182	0x3f6e12a9	0.92997223
183	0x3f309f19	0.68992764
184	0x3e1aad56	0.15105185
185	0xbeccfd2f	-0.40036914
186	0x3e63a093	0.22229223
187	0x3d3716ca	0.044699468
188	0x3f741523	0.9534475
189	0xbecdf94c	-0.4022926
190	0x3e8dbf2f	0.27684924
191	0x3eebb058	0.46032977
192	0x3c62b2a7	0.013836539
193	0xbf61f6d9	-0.88267285
194	0x3e4725c8	0.19448006
195	0xbf4b0f87	-0.7932057
196	0x3efd0ae1	0.49422362
197	0xbec7f2ed	-0.39052525
198	0xbe47a101	-0.19495012
199	0x3fd26edc	1.6440082
200	0x3e0cdbdd	0.13755746
201	0xbf406fdc	-0.75170684
202	0x3f2be0e0	0.67140007
203	0xbd85bcec	-0.065301746
204	0x3ed3e562	0.41385943
205	0xbe41f2d8	-0.18940294
206	0x3ee1ec2b	0.44125494
207	0x3f43b74f	0.7645158
208	0xbebef762	-0.37298113
209	0x3f2f3b4f	0.6844987
210	0xbf15b29a	-0.5847565
211	0xbfe73332	-1.8062499
212	0x3f3f0c86	0.74628484
213	0xbfae5d4a	-1.362222
214	0x3f7c9046	0.98657644
215	0xbfc863fa	-1.565551
216	0xbf3ca1e7	-0.73684543
217	0xbcec0c8d	-0.028814578
218	0xbfadb555	-1.3570963
219	0x3ed0faf5	0.40816465
220	0xbde7ba9f	-0.11314892
221	0xbe95c3a9	-0.2925084
222	0x3eaa5b1b	0.33272633
223	0xbf9780dc	-1.18362
224	0xbd92b418	-0.071632564
225	0x3e6a6fdf	0.22894238
226	0xbefed80d	-0.4977421
227	0xbf41bab5	-0.7567552
228	0x3f656e06	0.8962101
229	0x3ebb6892	0.36603218
230	0xbecb104a	-0.39660865
231	0xbd1ead42	-0.03873945
232	0xbe2923ed	-0.16517611
233	0x3ee051a3	0.43812284
234	0x3eefb4e7	0.46817705
235	0x3ef2336f	0.47304866
236	0x400e6958	2.2251797
237	0x3f81256d	1.0089546
238	0xbf377598	-0.7166381
239	0xbe912a33	-0.28352508
240	0xbf3c40c8	-0.7353635
241	0x3f10494e	0.56361854
242	0xbd14f271	-0.036364023
243	0x3ec8e773	0.39239082
244	0x3e41dcae	0.18931839
245	0x3e48ded4	0.19616252
246	0xbd196151	-0.037446324
247	0xbd8c3c52	-0.06847443
248	0xbf6a05b1	-0.91414934
249	0x3f7e5a0b	0.99356145
250	0x3f014117	0.50489944
251	0x3e8860cb	0.26636347
252	0x3f128edc	0.57249236
253	0x3e92c4ae	0.2866568
254	0x3f10656d	0.56404763
255	0xbe405ea3	-0.18786101

feature_fusion.conv_high_res.bias f4 [32]
0	0x3f555c5f	0.8334407
1	0x3f3b8497	0.7324919
2	0xbe505563	-0.20345072
3	0x3f9ff54d	1.2496735
4	0xbdbe03ff	-0.09278106
5	0x3cfa8c54	0.030584492
6	0x3f528e26	0.8224815
7	0x3e8a7ba1	0.27047446
8	0x3f857625	1.042668
9	0xbec0029b	-0.37501988
10	0x3f32948a	0.697579
11	0xbec5cb24	-0.38631546
12	0x3f3f76e8	0.7479081
13	0x3e36b9c5	0.17844303
14	0x3f0cd68a	0.5501486
15	0xbecc7075	-0.39929548
16	0x3f147559	0.5799156
17	0xbf17a704	-0.5923922
18	0xbe22d7b8	-0.15902603
19	0xbee78b7d	-0.4522361
20	0x3f280537	0.6563296
21	0x3f1fc91f	0.6241626
22	0x3f64e83e	0.89416873
23	0x3d0eb6ba	0.03484223
24	0x3e188aba	0.1489667
25	0xbeab0728	-0.33403897
26	0xbeb59e2d	-0.3547224
27	0x3f2656e8	0.6497636
28	0x3f101b1e	0.5629138
29	0xbd934637	-0.07191127
30	0x3f728605	0.9473575
31	0x3f080703	0.531357

feature_fusion.conv_low_res.weight f4 [32, 32, 1, 1]
0	0x3e186f97	0.14886318
1	0xbfc8c9fc	-1.5686641
2	0x3e3f6c15	0.18693574
3	0xbe0da99e	-0.13834235
4	0x3d0761f2	0.033052392
5	0x3e0ed07f	0.13946722
6	0x3f37376b	0.71568936
7	0xbc1665b9	-0.009179526
8	0x3eb26241	0.34840587
9	0xbea22437	-0.31668255
10	0xbec64c13	-0.38729915
11	0xbcf5f217	-0.030022664
12	0xbe5ad5da	-0.2137064
13	0xbd03d6c6	-0.032187246
14	0x3dc06103	0.093935035
15	0x3f0358b2	0.51307213
16	0xbe0cc7b8	-0.13748062
17	0x3fb5e320	1.4209938
18	0xbe5c7931	-0.21530606
19	0xbf0cd0b0	-0.5500593
20	0xbe088483	-0.13331799
21	0x3fb2eec3	1.3979114
22	0x3f5d3266	0.86405027
23	0xbf80f2fa	-1.007415
24	0x3e8248fe	0.25446314
25	0x3e466e0c	0.19377917
26	0xbe32dec7	-0.17467795
27	0x3ec6b8f6	0.3881299
28	0x3e9963fd	0.29959098
29	0x3edf0259	0.4355648
30	0xbe61130b	-0.2197992
31	0xbe525672	-0.20540789
32	0x3d8c7118	0.068575084
33	0xbc2dc2f4	-0.0106055625
34	0xbc307997	-0.010771177
35	0x3d4d6215	0.050142366
36	0x3e2527e6	0.16128501
37	0xbe3fbc8d	-0.1872427
38	0xbd4da123	-0.0502025
39	0x3f1ad351	0.60478693
40	0x3ebcbaf3	0.3686138
41	0xbe0eebf8	-0.13957202
42	0xbf1eca78	-0.6202769
43	0x3e4319f3	0.19052868
44	0x3e832660	0.25615215
45	0xbe090bce	-0.1338341
46	0xbf6f4454	-0.93463635
47	0xbfa76b0a	-1.3079541
48	0x3fcbcf9c	1.5922732
49	0xbea620f2	-0.3244701
50	0x3fc86ee6	1.5658844
51	0xbf3186d7	-0.69346374
52	0x3fa7f7f6	1.3122547
53	0x3f079a3f	0.52969736
54	0xbe15beac	-0.14623517
55	0x3f685ef2	0.90769875
56	0xbe5305c0	-0.20607662
57	0x3f416a73	0.75553054
58	0x3edbc78c	0.4292568
59	0xbe8a5a08	-0.27021813
60	0x3f2a375c	0.6649072
61	0xbfb11a48	-1.3836145
62	0x3e663bb0	0.22483706
63	0x3eb9fa69	0.3632386
64	0xbe220e03	-0.15825658
65	0xbf52418b	-0.8213126
66	0x3edc5937	0.43036816
67	0xbefc4852	-0.49273926
68	0x3e555a69	0.2083527
69	0xbf549f47	-0.8305554
70	0x3d517c61	0.051144008
71	0xbf97c214	-1.1856103
72	0x3f6fd671	0.93686587
73	0x3eacca18	0.33747935
74	0xbe92ab5c	-0.28646362
75	0x3c42c16f	0.0118869385
76	0x3e5ee194	0.21765739
77	0xbf033c1a	-0.5126358
78	0x3b340d6e	0.0027473825
79	0xbe2dcc6a	-0.16972509
80	0x3ee63d8c	0.44968832
81	0xbe17cc60	-0.14824057
82	0xc013da54	-2.3102007
83	0x3f6c48e8	0.92298746
84	0xbdc3a0a6	-0.09552126
85	0x3f5b1b22	0.85588276
86	0xbf49fc2a	-0.78900397
87	0x3f6328fa	0.887344
88	0x3eae1857	0.34002945
89	0x3f83fecf	1.0312136
90	0x3f12d4c8	0.5735593
91	0xbe727e69	-0.23681034
92	0x3df02e08	0.1172753
93	0xbd6787e8	-0.056526095
94	0xbeb89b3b	-0.3605593
95	0x3ecc88ca	0.39948112
96	0x3d953c81	0.07286931
97	0x3f127298	0.57206106
98	0xbe1c4fe0	-0.15264845
99	0xbc1dfd04	-0.009642843
100	0xbf2edd19	-0.6830612
101	0xbf08595f	-0.5326137
102	0x3efa95be	0.4894237
103	0x3e801c73	0.25021705
104	0xbe4202ae	-0.18946335
105	0xbd74c005	-0.059753437
106	0xbe59456c	-0.21217889
107	0x3f2d1368	0.67607737
108	0xbeb1f7f3	-0.34759483
109	0x3da45a05	0.08024982
110	0xbf355169	-0.7082735
111	0xbeb1b487	-0.34708044
112	0x3f0fe53d	0.56209165
113	0xbec32b06	-0.38118762
114	0xbf273b99	-0.65325314
115	0x3e79c5a9	0.24391808
116	0x3f4e8579	0.80672413
117	0xbd80f97b	-0.062975846
118	0x3c1d6f04	0.009608988
119	0x3f464a89	0.7745748
120	0x3ecba0d3	0.39771137
121	0xbdd82d0e	-0.105554685
122	0x3eb56f83	0.3543664
123	0xbf33b3af	-0.7019605
124	0x3e3a1d00	0.18175125
125	0xbe9767f6	-0.29571503
126	0xbe091b02	-0.13389209
127	0xbf4ec6f2	-0.80772316
128	0xbba149d8	-0.004922133
129	0x3f07175b	0.5277001
130	0x3e7041dd	0.23462625
131	0xbf1741ca	-0.5908476
132	0xbf423160	-0.7585659
133	0xbe29ea20	-0.16593218
134	0xbe145ff0	-0.14489722
135	0x3eeb6578	0.45975852
136	0x3e67baf2	0.22629908
137	0xbe54daec	-0.20786637
138	0x3e8c722a	0.2743085
139	0xbf1c6260	-0.6108761
140	0xbdd5cfdb	-0.10440036
141	0xbf1d32bd	-0.61405545
142	0x3ed3e6a0	0.4138689
143	0xbf59698f	-0.84926695
144	0xbeb6558d	-0.35612145
145	0x3e825a57	0.2545955
146	0x3e4ab1f8	0.19794452
147	0x3eae6d95	0.3406798
148	0xbeb6e1e1	-0.35719207
149	0xbea734ea	-0.32657558
150	0x3d3701ef	0.04467958
151	0xbef1929c	-0.47182167
152	0xbed437b2	-0.41448742
153	0x3e90decd	0.28294984
154	0xbf0b06cd	-0.5430725
155	0xbf14d20f	-0.58133024
156	0xbf0ca0f2	-0.54933083
157	0xbeb18f32	-0.34679562
158	0xbd12be59	-0.03582606
159	0xbeb56753	-0.35430393
160	0x3dedd52d	0.11612926
161	0x3f647767	0.89244694
162	0xbea30e44	-0.3184682
163	0xbe0e7e49	-0.13915361
164	0x3e8c6ce0	0.27426815
165	0x3ed654ec	0.41861665
166	0x3f4e6003	0.8061525
167	0xbedc03ea	-0.42971736
168	0xbe6c0d41	-0.23051931
169	0xbf22eb2e	-0.63640106
170	0xbd794ac6	-0.060862325
171	0xbeb1853c	-0.34671962
172	0x3ddd2476	0.1079797
173	0xbe10d95a	-0.14145413
174	0xbf84c25f	-1.0371817
175	0x3e893226	0.26796073
176	0x3e5177d6	0.2045587
177	0xbeaf3af4	-0.34224665
178	0x3f20a6e8	0.6275468
179	0xbec25991	-0.3795896
180	0x3e46461a	0.19362679
181	0x3ee41676	0.44548386
182	0xbf980913	-1.1877769
183	0x3e91f8c0	0.28510094
184	0x3dc8007c	0.097657174
185	0xbf88463a	-1.0646431
186	0xbebc0874	-0.367252
187	0x3e24a032	0.16076735
188	0x3e8d88ad	0.27643338
189	0x3ef33812	0.47503716
190	0xbd1a2319	-0.037631128
191	0xbe9f99ae	-0.31171936
192	0x3e5e6feb	0.21722381
193	0x3f0933df	0.53594774
194	0x3e5cf71b	0.21578638
195	0x3e927911	0.2860799
196	0xbf435b09	-0.76310784
197	0x3f7c92b6	0.98661363
198	0x3d14905e	0.03627049
199	0x3f389c0c	0.7211311
200	0xbf2eca11	-0.6827708
201	0xbefd9049	-0.49524143
202	0xbf8dccb1	-1.1078092
203	0x3dc38745	0.09547285
204	0xbf10b87a	-0.5653149
205	0xbf598706	-0.84971654
206	0xbd211c0c	-0.03933339
207	0xbebb83b4	-0.3662392
208	0xbf760df1	-0.9611502
209	0x3f224d2d	0.6339901
210	0xbe337600	-0.17525482
211	0x3e115fca	0.14196697
212	0xbf640c71	-0.89081484
213	0x3e43f16c	0.19135064
214	0x3f04bf2f	0.51854223
215	0x3e57c79a	0.21072236
216	0xbf56d419	-0.83917385
217	0xbe888ec8	-0.26671433
218	0xbf17ae3b	-0.5925023
219	0x3edc5470	0.4303317
220	0x3f0ddba1	0.5541325
221	0xbeaa1e74	-0.3322636
222	0x3f874b32	1.0569823
223	0xbf0dd37e	-0.55400836
224	0xbd0b0ab9	-0.033945773
225	0xbe87d400	-0.2652893
226	0x3eb129db	0.34602246
227	0xbe8c8b0f	-0.27449843
228	0xbf4cfcf8	-0.800735
229	0xbe9a65bf	-0.3015575
230	0x3f061cd3	0.5238773
231	0x3e9637a4	0.29339325
232	0x3e209d46	0.15684995
233	0xbfa3a7fb	-1.2785639
234	0x3f3bddcd	0.73385316
235	0x3dc97626	0.09836988
236	0x3f59e033	0.85107726
237	0xbf8f75ff	-1.1207885
238	0x3c809336	0.015695196
239	0x3d07fb61	0.033198718
240	0xbd7996db	-0.060934883
241	0xbe2e27e7	-0.17007409
242	0x3eba6754	0.36406958
243	0x3eb54231	0.35402063
244	0xbf64d7a6	-0.89391553
245	0x3e89480c	0.2681278
246	0xbeccdfa4	-0.40014374
247	0xbf17a24c	-0.5923202
248	0x3d853ec7	0.065061145
249	0xbf30abcb	-0.69012135
250	0xbf8d32d8	-1.1031141
251	0xbfc6597d	-1.549606
252	0x3e537d99	0.2065338
253	0xbf10cc44	-0.56561685
254	0x3d85ab71	0.065268405
255	0xbe11ced0	-0.14239049

feature_fusion.conv_low_res.bias f4 [32]
0	0x3f6f13b1	0.9338942
1	0x3f4ef73b	0.80845994
2	0x3d71663b	0.058935385
3	0x3fb95d7f	1.4481658
4	0x3e38b616	0.1803821
5	0x3e531fce	0.20617601
6	0x3f2c807c	0.6738355
7	0x3ee6288f	0.4495282
8	0x3f966ef2	1.1752608
9	0xbe0b23a3	-0.13587813
10	0x3f47e6b0	0.78086376
11	0xbf03afcf	-0.5144014
12	0x3efc7b7f	0.4931297
13	0x3d1c6464	0.038181677
14	0x3f0cace3	0.54951304
15	0xbe6f7737	-0.2338532
16	0x3eda275f	0.42608163
17	0xbf2d23d1	-0.67632776
18	0xbcdde5f0	-0.027087182
19	0xbea34d41	-0.31894878
20	0x3f1b0591	0.6055537
21	0x3f382db5	0.71944743
22	0x3f8a85bb	1.0822061
23	0xbea0ada9	-0.31382492
24	0x3e895c71	0.2682834
25	0xbf1b7d78	-0.60738325
26	0xbee2fe12	-0.44334465
27	0x3f792378	0.97319746
28	0x3f2edb47	0.6830334
29	0xbed146ad	-0.40874234
30	0x3f280183	0.65627307
31	0x3ef6305c	0.4808377

classifier.conv.weight f4 [1, 32, 1, 1]
0	0x3f1138d6	0.5672735
1	0xbeee170d	-0.4650196
2	0xbeee9d81	-0.4660454
3	0x3eef5e16	0.4675147
4	0xbf4e8b8e	-0.80681694
5	0xbf09975d	-0.5374659
6	0xbf0a6c80	-0.5407181
7	0xbf23d067	-0.6398987
8	0xbf407c43	-0.7518961
9	0xbeec76c4	-0.4618436
10	0xbed99a47	-0.42500517
11	0xbf667c2f	-0.9003324
12	0xbf772f2b	-0.9655635
13	0xbf2c3839	-0.6727329
14	0x3f0046df	0.5010814
15	0x3f4b97af	0.79528326
16	0xbefc7cf9	-0.49314097
17	0x3ee8bb2a	0.45455295
18	0x3f3dc8e4	0.7413466
19	0xbee8fbe5	-0.4550468
20	0x3fa6c559	1.3028976
21	0xbf06d0bf	-0.5266227
22	0xbed7ada2	-0.4212466
23	0xbec0aaf2	-0.3763042
24	0x3f0593ea	0.52178824
25	0xbf291f19	-0.66063076
26	0x3ee9ab58	0.45638537
27	0xbf89e82d	-1.077398
28	0x3f0e238f	0.5552301
29	0xbf474942	-0.7784616
30	0xbed93b10	-0.42427874
31	0xbf200088	-0.6250081

onnx::Conv_356 f4 [8, 3, 3, 3]
0	0xbbb46506	-0.005505207
1	0x3c224eb8	0.009906463
2	0x3b8ee09d	0.004360272
3	0x3c78934a	0.015171835
4	0x388a66d9	6.59951e-05
5	0xbc019c17	-0.00791075
6	0xbd1133e7	-0.03544989
7	0xbc9476ea	-0.018123109
8	0xbd71e330	-0.059054554
9	0xbd40c352	-0.047061272
10	0x3c89ff01	0.016845228
11	0x39fca4bc	0.00048187922
12	0xbd5c803f	-0.053833243
13	0x3be50bcc	0.0069899317
14	0xbd306a97	-0.043070402
15	0xbd479614	-0.04872711
16	0xbd4310ce	-0.047623448
17	0xbdfce972	-0.12349214
18	0xbb9b8168	-0.004745651
19	0x3d28f3c7	0.04124811
20	0x3c566af3	0.013087022
21	0x3ca23be4	0.019803949
22	0x3d3997f8	0.045310944
23	0xbbd1113c	-0.0063802283
24	0xbc9ea7a3	-0.019367045
25	0xbb486475	-0.0030577455
26	0xbd88c650	-0.0667845
27	0xbdc0877a	-0.0940084
28	0xbde7ef11	-0.11324895
29	0x3ddb5e06	0.10711293
30	0xbbb30142	-0.0054627964
31	0x3dc9e28d	0.09857664
32	0x3e8d7bf0	0.2763362
33	0x3d724011	0.05914313
34	0xbda72606	-0.08161549
35	0xbe4d30d0	-0.20038152
36	0xbe596369	-0.21229328
37	0xbe63fa72	-0.22263506
38	0xbd98890a	-0.07448013
39	0x3d9593f9	0.07303614
40	0x3eac487d	0.33649054
41	0x3eec046d	0.46097127
42	0x3da289bf	0.07936429
43	0xbe256544	-0.16151911
44	0xbdbdaf05	-0.09261898
45	0xbdec8fa7	-0.11550837
46	0xbe56c50c	-0.20973605
47	0xbcd1ab2e	-0.02559432
48	0xbda5244f	-0.08063566
49	0x3e78f9a3	0.24313979
50	0x3ec7e7ac	0.3904394
51	0x3dcd2822	0.1001742
52	0xbe32317e	-0.17401692
53	0xbe02ee3d	-0.12786193
54	0x3d808419	0.06275196
55	0xbd4b277d	-0.049598206
56	0x3cb27975	0.02178643
57	0x3e463430	0.19355845
58	0x3e025f79	0.12731732
59	0xbdee6031	-0.11639441
60	0x3d571eae	0.052519493
61	0xbd5c833b	-0.05383609
62	0xbe2c7541	-0.16841604
63	0x3e3cfff3	0.18457012
64	0x3b2ccb6c	0.0026366366
65	0xbeab292f	-0.33429858
66	0x3f3d4c91	0.73944956
67	0x3d7a69ca	0.061136045
68	0xbe069374	-0.13142186
69	0x3f0316c9	0.5120664
70	0xbda6d8a5	-0.081467904
71	0xbec6b8f5	-0.38812986
72	0xbda5a46e	-0.08088003
73	0xbd24ccf0	-0.040234506
74	0xbe38cefa	-0.18047705
75	0x3ed1cfb3	0.40978774
76	0x3dd12533	0.10212173
77	0xbd9a3a44	-0.075306445
78	0x3e880308	0.26564813
79	0xbe59a245	-0.21253307
80	0xbe8f23b9	-0.27956942
81	0x3d869321	0.06571031
82	0x3de33556	0.110941574
83	0x3d1a211c	0.03762923
84	0x3d37e80f	0.044899043
85	0x3c44ab6a	0.012003759
86	0x3d1b6a8a	0.0379434
87	0xbd21aa3a	-0.03946898
88	0x3bfbc691	0.007683583
89	0xbc7b0a4c	-0.015322279
90	0x3e17ff70	0.14843535
91	0x3e2f16b4	0.17098504
92	0x3de91ecd	0.11382828
93	0x3ddd4714	0.10804573
94	0x3e18b2c8	0.1491195
95	0x3da0485c	0.078263015
96	0x3dc782c8	0.097417414
97	0x3d674b3a	0.056468226
98	0x3d1a63f7	0.03769299
99	0x3c90fdae	0.017699089
100	0x3c7a5349	0.015278646
101	0x3ce105d8	0.027468607
102	0xbd737a6b	-0.05944292
103	0x3b42ef31	0.002974462
104	0x3d03aa68	0.032144934
105	0xbe63399b	-0.22189943
106	0xbdc49dc0	-0.09600401
107	0xbc2b5a19	-0.010458493
108	0x3e141db1	0.14464451
109	0xbd222c62	-0.039593108
110	0x3e03f8fd	0.1288795
111	0x3e811735	0.25213018
112	0xbd2aa361	-0.041659717
113	0xbe146930	-0.14493251
114	0x3e8d562d	0.2760481
115	0x3db4647c	0.088082284
116	0xbd9332fd	-0.071874596
117	0x3e56e315	0.20985062
118	0x3f124402	0.5713502
119	0x3f2c24e9	0.6724382
120	0x3e1dd069	0.15411533
121	0x3f8fc545	1.1232077
122	0x3f9559d6	1.1668041
123	0xbeb2c70e	-0.34917492
124	0x3f3f6f51	0.7477923
125	0x3f5dd073	0.86646193
126	0xbef2efe9	-0.47448662
127	0xbedfc4b9	-0.43704775
128	0xbd64f31b	-0.055895906
129	0xbebb68af	-0.36603305
130	0xbe746560	-0.23866796
131	0xbd33111e	-0.043717496
132	0xbf00fa81	-0.5038224
133	0xbe75255c	-0.23940033
134	0xbd0dd150	-0.034623444
135	0xbe9cbeff	-0.30614468
136	0xbeac78ff	-0.33686063
137	0xbe58538f	-0.21125625
138	0xbd0c1f4e	-0.034209542
139	0xbe6d45af	-0.23171113
140	0x3af53fbd	0.0018711012
141	0x3ea1e80b	0.31622347
142	0x3eb85db7	0.36009
143	0x3eef0ff0	0.46691847
144	0xbcbff5ee	-0.023432698
145	0xbf2f6312	-0.68510544
146	0xbf00a3a1	-0.5024968
147	0xbd77d2c9	-0.060503755
148	0xbe58d44c	-0.21174735
149	0x3e45186a	0.19247594
150	0x3f437ca8	0.76362085
151	0x3e78605a	0.24255505
152	0x3f1f2982	0.6217271
153	0xbe7898c9	-0.24277033
154	0xbf08da5c	-0.5345819
155	0xbf07a6e1	-0.5298901
156	0xbba97e57	-0.0051725316
157	0xbeacb4b7	-0.33731624
158	0x3da2dd0c	0.079523176
159	0x3eccea5f	0.4002256
160	0x3eb4a3a8	0.3528111
161	0x3f09f851	0.53894526
162	0x3e8d8f55	0.27648416
163	0x3d8384ca	0.06421812
164	0xbe100ed6	-0.1406816
165	0x3cc190f3	0.023628687
166	0xbdf47ac8	-0.11937481
167	0xbe1eb581	-0.15498926
168	0x3d4b77ec	0.049674913
169	0x3d67f9b3	0.056634616
170	0xbe16508d	-0.14679165
171	0xbe851786	-0.2599451
172	0xbf131fd4	-0.5747044
173	0xbf264a2d	-0.64956933
174	0xbeb2a20b	-0.34889254
175	0xbf6ed360	-0.9329128
176	0xbf870b73	-1.0550369
177	0xbe98c74c	-0.2983955
178	0xbf49a436	-0.7876619
179	0xbf4b36d6	-0.7938055
180	0x3df9cd55	0.12197367
181	0x3e5b4181	0.21411707
182	0x3d28d898	0.041222185
183	0x3ec64bfd	0.3872985
184	0x3e7fc2cd	0.24976654
185	0x3ea1ea55	0.31624094
186	0x3efe9d43	0.49729356
187	0x3eeeda11	0.46650746
188	0x3e95cd4c	0.29258192
189	0x3dc47696	0.09592931
190	0xbdfb05d3	-0.1225697
191	0xbd74b40f	-0.05974203
192	0xbcf26dc3	-0.029593354
193	0x3e01f9a1	0.12692882
194	0x3efdabc1	0.495451
195	0xbdea2409	-0.114326544
196	0xbcf33903	-0.029690271
197	0x3f090583	0.53524035
198	0xbee36eef	-0.44420573
199	0xbe7e8cca	-0.24858394
200	0x3e96be41	0.29442027
201	0xbf1e5180	-0.6184311
202	0xbe916c73	-0.28403053
203	0x3edaaaed	0.4270853
204	0xbf34cd29	-0.7062555
205	0xbe07bd08	-0.13255703
206	0x3f2f5ea9	0.68503815
207	0xbd72d195	-0.059281904
208	0x3cdedf52	0.027206097
209	0x3e89e919	0.26935652
210	0xbe72e57b	-0.23720352
211	0xbdb261be	-0.08710049
212	0x3ec83e76	0.39110154
213	0xbf04a86f	-0.5181951
214	0xbd2380c6	-0.03991773
215	0x3ee08d60	0.4385786

onnx::Conv_357 f4 [8]
0	0x3f63ff53	0.8906147
1	0x3f3c8135	0.73634654
2	0x3e9135b8	0.28361297
3	0x3f3568e0	0.7086315
4	0xbd034b66	-0.032054327
5	0x3c45c868	0.012071706
6	0x3c199b48	0.009375401
7	0xbe4e0ad2	-0.20121315

onnx::Conv_359 f4 [8, 1, 3, 3]
0	0xbed6888c	-0.41901052
1	0xbf44785a	-0.7674614
2	0xbeab1e1b	-0.33421406
3	0xbf85968d	-1.043657
4	0x3ed813bb	0.42202553
5	0x3f85875f	1.0431937
6	0xbf8e400d	-1.1113297
7	0x3f5a7d51	0.8534747
8	0x40335d18	2.802557
9	0xbe3f7bdd	-0.18699594
10	0xbd25431d	-0.040347207
11	0x3e75bbf5	0.23997481
12	0xbed019d4	-0.40644705
13	0xbfc31d55	-1.5243326
14	0xbf81c0dc	-1.0136981
15	0x3f1aa956	0.60414636
16	0x3f78ce07	0.9718937
17	0x3f04c7cb	0.5186736
18	0x3e884630	0.2661605
19	0xbe61b495	-0.22041543
20	0xbec82fcb	-0.39098963
21	0x3ed5db78	0.41769004
22	0x3ee23e1a	0.44188005
23	0x3e6b9bb2	0.23008612
24	0x3ef799f7	0.48359653
25	0xbcd4d23a	-0.02597915
26	0xbf0ac0cf	-0.5420045
27	0xbf23abb9	-0.639339
28	0xbf6dd1a1	-0.92897993
29	0xbeef1d32	-0.46701962
30	0xbf5ccf66	-0.86253965
31	0xbe4fb920	-0.20285463
32	0x3f8be986	1.0930641
33	0xbe65770e	-0.22408697
34	0x3da6b58f	0.08140098
35	0x3fc7a779	1.5597984
36	0xbd1ad2f6	-0.037798844
37	0xbdf60ff5	-0.12014762
38	0xbdc6fc02	-0.097160354
39	0xbd955033	-0.072906874
40	0xbe74289b	-0.23843615
41	0xbe30f8a2	-0.17282346
42	0xbd358179	-0.044312928
43	0xbe2e28d3	-0.1700776
44	0xbe0d18c0	-0.13778973
45	0xbcb8d0af	-0.022560446
46	0xbe251e79	-0.16124906
47	0xbd9ac322	-0.0755675
48	0xbd45d945	-0.048302907
49	0xbece4bfd	-0.4029235
50	0xbeb2637a	-0.3484152
51	0xbb8eda3a	-0.0043595107
52	0xbebbb15c	-0.36658752
53	0xbeb2eb47	-0.34945127
54	0x3beee693	0.00729067
55	0xbdba5e20	-0.09099984
56	0xbd9f04c0	-0.07764578
57	0xbb7813b6	-0.0037853546
58	0xbe6bdb55	-0.23032887
59	0xbe23c216	-0.15992007
60	0x3c089222	0.008335622
61	0xbda3409e	-0.07971309
62	0xbd922260	-0.07135463
63	0xbe01ce46	-0.12676343
64	0xbe4b877a	-0.19875899
65	0xbc17e92a	-0.009271899
66	0xbe57b2dc	-0.21064323
67	0xbdc527f2	-0.096267596
68	0x3e9dc77e	0.30816263
69	0xbe3d5396	-0.18488917
70	0xbd7bf860	-0.061516166
71	0x3ec02d2f	0.37534472

onnx::Conv_360 f4 [8]
0	0xbfa85c13	-1.3153099
1	0x3f1e0944	0.6173289
2	0xbeaa5f7b	-0.3327597
3	0x3eeee841	0.4666157
4	0x3f7d0aa5	0.9884437
5	0x3f65dd32	0.8979064
6	0x3f112f0a	0.567124
7	0xbcad0ee8	-0.021125272

onnx::Conv_362 f4 [12, 8, 1, 1]
0	0xbf1d9794	-0.61559415
1	0xbd24cb4c	-0.04023294
2	0xbe8c1997	-0.27363274
3	0x3f046f34	0.5173218
4	0xbeb5b5f9	-0.35490397
5	0x3e7c862f	0.24660562
6	0x3d9d4043	0.076782726
7	0x3e44456e	0.1916711
8	0x3d5f47a9	0.0545117
9	0x3c69cc9f	0.014269977
10	0x3ce26bd1	0.027639301
11	0xbd7eb1fa	-0.06218145
12	0xbecdd909	-0.40204647
13	0xbda0e039	-0.07855267
14	0x3e1f6ab2	0.15568045
15	0x3be3abe3	0.0069479807
16	0xbd8b4ed2	-0.06802143
17	0xbe1999ba	-0.15000048
18	0xbf0e7def	-0.5566091
19	0x3ea229c1	0.3167248
20	0x3f43da8d	0.7650536
21	0x3e8bafa8	0.27282453
22	0xbff73c48	-1.9315271
23	0xbdb5b559	-0.0887248
24	0x3cfce86a	0.030872542
25	0x3c00a232	0.00785117
26	0xb7d99688	-2.5938512e-05
27	0xbce59d12	-0.028028999
28	0xbeb53727	-0.3539364
29	0xbdc87459	-0.097878166
30	0x3e031b17	0.12803303
31	0x3c98842c	0.018617712
32	0xbe202414	-0.15638763
33	0xbd2cb848	-0.04216793
34	0xbe1010f5	-0.14068969
35	0xbc32f0d0	-0.010921672
36	0x3cfdab45	0.030965457
37	0x3eb7e99a	0.3592041
38	0x3e6afda4	0.22948319
39	0x3c2a63ed	0.010399801
40	0xbe8b24a9	-0.27176407
41	0xbd86695b	-0.06563064
42	0xbe97c88d	-0.29645196
43	0x3e3d964a	0.18514362
44	0xbe80fd71	-0.2519336
45	0x3ec29df4	0.38011134
46	0x3e32f197	0.17474972
47	0xbdbef0f8	-0.09323305
48	0xba886e2a	-0.0010408808
49	0x3f53de19	0.8276077
50	0xbf091131	-0.53541857
51	0xbe854b1c	-0.26033866
52	0x3d3acff8	0.04560849
53	0xbf3a057d	-0.72664624
54	0xbcb91759	-0.02259414
55	0x3f2230fc	0.63355994
56	0x3da27b07	0.07933622
57	0xbf4fc94c	-0.8116653
58	0x3f2495e4	0.64291215
59	0xbe84f28d	-0.25966302
60	0x3e21d0f2	0.15802363
61	0xbe4c67ea	-0.19961515
62	0xbe2482ec	-0.16065568
63	0x3e1127f8	0.14175403
64	0x3eefbefd	0.468254
65	0x3d41c215	0.04730423
66	0x3ea3be00	0.31980896
67	0xbeb28cf2	-0.34873158
68	0x3d5040b1	0.050842945
69	0xbe886d86	-0.2664606
70	0xbe9caed9	-0.30602148
71	0xbe3e6681	-0.1859379
72	0xbf475919	-0.7787033
73	0xbd30ab1f	-0.043131944
74	0xbe2f40a8	-0.17114508
75	0x3fadbb2e	1.3572748
76	0x3c820fa1	0.015876593
77	0xbe961492	-0.2931257
78	0x3dbffb08	0.09374052
79	0xbee548f0	-0.4478221
80	0x3ed31030	0.41223288
81	0xbcd060b6	-0.02543674
82	0x3d903376	0.070410654
83	0xbdf650e9	-0.12027151
84	0xbf651894	-0.8949063
85	0xbe7e5bdc	-0.24839729
86	0xbe4c13fa	-0.19929495
87	0x3d7d6c92	0.06187112
88	0xbf3d2314	-0.7388165
89	0x3dad1c26	0.084526345
90	0x3ad061b0	0.0015898254
91	0x3e3b2551	0.18275954
92	0xbdc3a5ff	-0.095531456
93	0x3f3a555f	0.72786516
94	0x3d10dff4	0.03536983
95	0xbfc7037b	-1.5547937

onnx::Conv_363 f4 [12]
0	0x3f0cea43	0.55044955
1	0x3f4f4591	0.80965525
2	0x3e9ed551	0.31022123
3	0x3f5e7f5c	0.86913085
4	0x3f40795f	0.751852
5	0x3f0f6f12	0.56028855
6	0x3f0cb4b3	0.54963225
7	0x3dc49530	0.09598768
8	0x3f3129af	0.6920423
9	0x3d18fd5c	0.037350997
10	0x3f22d6f4	0.6360924
11	0xbdb4fdb2	-0.08837451

onnx::Conv_365 f4 [12, 1, 3, 3]
0	0x3f0e21c5	0.5552028
1	0x3df6f8d9	0.12059183
2	0xbe57f18d	-0.21088238
3	0x3ee959bd	0.45576277
4	0x3ebccba8	0.36874127
5	0xbeea9b69	-0.45821694
6	0xbd259248	-0.040422708
7	0xbe95b7be	-0.29241747
8	0xbf5f69fe	-0.87271106
9	0x3f4c3082	0.7976152
10	0x3f5ec012	0.87011826
11	0xbde30b61	-0.11086155
12	0xbdbd1338	-0.09232181
13	0xc00c3ec2	-2.1913304
14	0xc020dfd5	-2.5136616
15	0x3f14d07c	0.5813062
16	0xbd936fde	-0.07199071
17	0x3f16579d	0.5872744
18	0x3d8c52ab	0.06851705
19	0x3e6d8f26	0.23199138
20	0x3ef2f259	0.47450522
21	0xbde93cad	-0.11388526
22	0xbe0875d7	-0.13326202
23	0x3d5e5f9d	0.054290403
24	0xbdea02e6	-0.11426334
25	0xbe6a3fb7	-0.22875868
26	0xbe3c31f8	-0.18378437
27	0x3f2d19ad	0.67617303
28	0x3f33b1f8	0.70193434
29	0x3fd22f38	1.642066
30	0x3d0fc7a2	0.035102494
31	0xbe7b05d2	-0.24513939
32	0x3f94586f	1.1589488
33	0xbf90b7e2	-1.1306117
34	0xc0331b37	-2.798536
35	0xbf8fe230	-1.1240902
36	0x3dfaa221	0.12237955
37	0xbf7cd895	-0.9876798
38	0xbf7944a8	-0.97370386
39	0x3ea22019	0.31665114
40	0xbe0bc58d	-0.13649578
41	0xbf3c2b00	-0.7350311
42	0x3ecec4cf	0.40384528
43	0x3f76d0a0	0.96412086
44	0x3f7b92ad	0.98270684
45	0x3dd5fae2	0.10448243
46	0x3e6fa491	0.23402621
47	0x3e7d2648	0.24721634
48	0x3d2f1907	0.042748477
49	0xbf417c14	-0.75579953
50	0xbfbe8799	-1.4885131
51	0x3f2fef72	0.6872474
52	0x3f5e3e2b	0.8681361
53	0xbee6f7da	-0.4511097
54	0x3db72222	0.08942057
55	0x3d99b3f7	0.07505029
56	0x3dcb7341	0.09934092
57	0x3de4ee77	0.11178296
58	0x3eb3b5fe	0.35099787
59	0x3eac10b6	0.336065
60	0x3d8e092d	0.06935344
61	0x3ea99a94	0.33125746
62	0x3e870ba3	0.26376066
63	0xbde699f7	-0.11259835
64	0xbdce577e	-0.100752816
65	0xbe195140	-0.149724
66	0xbe11d03c	-0.14239591
67	0xbef32813	-0.47491512
68	0xbeb3b6c5	-0.3510038
69	0xbdd04ba9	-0.10170681
70	0xbe94f295	-0.29091325
71	0xbe6be81e	-0.23037764
72	0x3e593d0d	0.21214695
73	0x3ebba8f0	0.36652327
74	0x3d8e9fb5	0.069640554
75	0x3efa2f84	0.48864377
76	0x3f4280a7	0.7597756
77	0x3e54461c	0.2072987
78	0x3d3e126a	0.04640428
79	0xbcb4fa8b	-0.022092124
80	0xbe374d80	-0.17900658
81	0x3dac9a1c	0.084278315
82	0x3e1db4c5	0.1540099
83	0x3e21060c	0.15724963
84	0x3e53e60b	0.20693223
85	0x3e944750	0.28960657
86	0x3ea442a2	0.32082087
87	0x3dc3dd09	0.095636435
88	0x3e80d0f1	0.2515941
89	0x3e5d4e86	0.21611986
90	0xbcb7a1f6	-0.022416096
91	0x3ef71648	0.48259187
92	0x3f48a079	0.7836986
93	0xbeaa7a29	-0.33296326
94	0xbd6275f2	-0.055288263
95	0x3e7c2c3f	0.24626254
96	0xbd981c09	-0.07427222
97	0xbe03307e	-0.12811467
98	0xbdb1e3a5	-0.08685998
99	0x3deccf51	0.1156298
100	0xbd72949b	-0.059223752
101	0xbe06722d	-0.13129492
102	0x3e63a9e9	0.22232784
103	0xbe8a310d	-0.26990548
104	0xbe199042	-0.14996436
105	0x3e050e70	0.12993789
106	0xbea61fef	-0.32446238
107	0xbd060015	-0.032714922

onnx::Conv_366 f4 [12]
0	0x3eaf5f8b	0.3425258
1	0x3fe92c36	1.8216617
2	0xbd4d308a	-0.05009512
3	0x3f823f52	1.0175574
4	0xbc30ab72	-0.010783063
5	0x3eb1eaff	0.347496
6	0xbfbaf3d8	-1.4605665
7	0x3fa6f04d	1.3042084
8	0xbfac36a8	-1.345418
9	0xbfc18109	-1.5117503
10	0xbf1090cd	-0.5647095
11	0x3eabc880	0.33551407

onnx::Conv_368 f4 [16, 12, 1, 1]
0	0x3ea63e88	0.32469583
1	0x3ea5a3ae	0.3235144
2	0xbd506ebf	-0.050886866
3	0xbbc4090c	-0.005982524
4	0x3e95c930	0.29255056
5	0xbd8a225b	-0.06744834
6	0x3e5ac3bb	0.21363728
7	0xbe771335	-0.2412842
8	0x3f417505	0.7556918
9	0xbd5beff3	-0.05369563
10	0xbe2e6704	-0.17031485
11	0xbe8b00ba	-0.27148992
12	0xbdc7ba59	-0.0975234
13	0x3c4cabf2	0.012492167
14	0x3c87ede2	0.016592924
15	0xbe5178da	-0.20456257
16	0x3e1b1b3a	0.15147105
17	0xbe406a1a	-0.18790475
18	0xbe122d3e	-0.14275071
19	0x3e037910	0.1283915
20	0xbefcce75	-0.49376264
21	0xbf9a9923	-1.2077984
22	0xbe35265c	-0.17690414
23	0x3e067c0e	0.1313326
24	0xbf0619c6	-0.5238308
25	0x3e0bb8f5	0.13644774
26	0x3e249203	0.16071324
27	0xbe5225b0	-0.20522189
28	0xbeecd218	-0.4625404
29	0xbecf65ac	-0.40507257
30	0x3d7623c8	0.060092717
31	0xbc3158fc	-0.010824438
32	0xbd3deaac	-0.04636638
33	0xbe21d12f	-0.15802453
34	0xbe6aa1ac	-0.22913235
35	0x3e892528	0.2678616
36	0xbe146692	-0.14492252
37	0x3e0c789e	0.13717887
38	0xbf41871c	-0.75596786
39	0x3f667250	0.9001818
40	0xbea971aa	-0.3309453
41	0xbc44560d	-0.011983407
42	0xbdeb4b27	-0.114889435
43	0x3e0f6381	0.14002801
44	0x3e1baa8b	0.15201776
45	0xbe3dfc46	-0.18553266
46	0x3eca4386	0.3950464
47	0xbd5d5f27	-0.054045822
48	0xbe92e147	-0.28687498
49	0x3d6fac9f	0.058514234
50	0xbde25523	-0.11051395
51	0xbf22112c	-0.6330745
52	0x3e167507	0.1469308
53	0x3edbdb05	0.42940536
54	0xbd7c489c	-0.061592683
55	0x3dae8b2b	0.08522638
56	0xbd461a31	-0.04836482
57	0xbd7f5991	-0.062341277
58	0xbe0b7fb0	-0.13622928
59	0x3e078461	0.13234092
60	0x3f1ab338	0.60429716
61	0xbecf39c7	-0.40473768
62	0xbe617469	-0.22017063
63	0x3ec0afc6	0.37634104
64	0xbdabb968	-0.08384973
65	0xbedb1ea4	-0.42796814
66	0x3d33fa86	0.04394009
67	0xbdb56288	-0.08856684
68	0xbe2ec7dc	-0.17068428
69	0x3e44adcd	0.19206925
70	0xbea20c88	-0.31650186
71	0xbe9508b5	-0.29108205
72	0xbe84a2f4	-0.25905573
73	0x3f0d74d7	0.5525641
74	0x3dfbb3f5	0.122901835
75	0xbd9a36f5	-0.075300135
76	0x3e457cc4	0.19285876
77	0x3e35a14a	0.17737308
78	0xbe9002b9	-0.28127077
79	0x3e983e97	0.29735252
80	0x3e27097d	0.16312213
81	0xbdee8114	-0.116457134
82	0xbf0f6c50	-0.56024647
83	0x3dd15039	0.102203794
84	0x3d8128b4	0.06306592
85	0x3ea96500	0.3308487
86	0x3f13c63c	0.57724357
87	0xbf0b2332	-0.5435058
88	0xbed22f17	-0.41051552
89	0xbd287a29	-0.041132126
90	0x3d0b24c9	0.033970628
91	0x3d23e9b3	0.040017795
92	0x3e1b8b47	0.15189849
93	0x3e5420ea	0.2071568
94	0x3dcc1b72	0.09966172
95	0xbe93030c	-0.28713262
96	0xbdff6a8f	-0.12471496
97	0x3ed9c09d	0.42529765
98	0x3e017bbb	0.12644856
99	0xbe1548e5	-0.14578588
100	0xbee354a9	-0.44400528
101	0x3e33f8d0	0.17575383
102	0x3e4b4dbc	0.19853872
103	0xbe78641d	-0.2425694
104	0xbe1bd440	-0.15217686
105	0xbdb30a26	-0.0874217
106	0x3e5a2872	0.21304491
107	0x3f5667e5	0.8375228
108	0xbc44f023	-0.012020144
109	0xbf03eb05	-0.51530486
110	0xbe48fe9f	-0.1962838
111	0xbc834f1c	-0.016028933
112	0xbe3b6500	-0.18300247
113	0x3da20106	0.079103515
114	0x3e853cfb	0.26023087
115	0xbebf73c4	-0.3739301
116	0x3e54a9bf	0.20767878
117	0x3ccdf213	0.025139844
118	0x3eccadf5	0.3997647
119	0x3db66f6f	0.08907973
120	0x3e6ee289	0.23328604
121	0xbef18bb6	-0.47176903
122	0x3f103e8d	0.56345445
123	0xbe4661ad	-0.19373198
124	0x3eb7201c	0.35766685
125	0xbee911be	-0.4552135
126	0x3e6ca6cc	0.23110503
127	0xbe3f9ccc	-0.18712157
128	0x3eacf947	0.33783934
129	0x3dee2f0b	0.116300665
130	0xbf4ec07c	-0.8076246
131	0x3e921c8d	0.28537408
132	0xbe34b4df	-0.17647122
133	0x3e573d86	0.21019563
134	0xbcf41434	-0.02979479
135	0x3d83eb17	0.06441324
136	0x3c1634d4	0.009167869
137	0x3d5d22be	0.05398821
138	0xbf427694	-0.75962186
139	0x3f2b4a9e	0.6691073
140	0xbe316e82	-0.17327312
141	0xbe949908	-0.29023004
142	0xbe02824c	-0.12745017
143	0xbdbb7e55	-0.09154955
144	0x3cbb5218	0.022866294
145	0xbe40b8c9	-0.1882049
146	0x3dc1031e	0.09424423
147	0xbebf96a0	-0.37419605
148	0x3da97e73	0.082760714
149	0xbc8719db	-0.016491821
150	0xbc746284	-0.014916066
151	0x3bf6f153	0.0075360923
152	0xbdc5e353	-0.09662499
153	0x3e56d121	0.20978214
154	0x3cab3762	0.020900432
155	0xbe22729d	-0.15864034
156	0x3edd6b49	0.43245915
157	0x3cdebb90	0.027189046
158	0xbe5dcd55	-0.21660359
159	0x3dabbc43	0.083855174
160	0xbef7a4e8	-0.48368
161	0x3eeb271f	0.45928285
162	0xbecc20c8	-0.3986876
163	0x3eab17c3	0.33416566
164	0xbda59f98	-0.08087081
165	0xbe89a387	-0.26882574
166	0x3ede4e8c	0.43419302
167	0xbe3a920d	-0.18219776
168	0xbdfbfb4b	-0.1230379
169	0xbe862bcd	-0.26205292
170	0x3d1339fd	0.035943974
171	0x385b2127	5.2244544e-05
172	0x3e816752	0.2527414
173	0xbe6d2646	-0.23159131
174	0xbf154edd	-0.5832346
175	0x3f2b2145	0.6684764
176	0xbe161c83	-0.14659314
177	0x3d5b1481	0.05348635
178	0x3e8f78ed	0.28021947
179	0x3d973a1a	0.07384129
180	0xbe6e7c26	-0.23289546
181	0x3da19941	0.07890559
182	0xbd865ffe	-0.06561278
183	0x3e036c86	0.12834367
184	0x3ea86914	0.32892668
185	0x3ee14696	0.43999165
186	0x3e59dd99	0.21275939
187	0xbd82de77	-0.06390088
188	0x3d5c1aec	0.053736612
189	0x3ef6f683	0.4823495
190	0x3e74a7f8	0.238922
191	0xbd5adc41	-0.053432707

onnx::Conv_369 f4 [16]
0	0x3f351c66	0.7074646
1	0xbe002523	-0.12514167
2	0x3ecd5a73	0.4010807
3	0xbf0c3605	-0.5476993
4	0x3ea0409a	0.31299287
5	0x3eff38b0	0.49847937
6	0xbee760ec	-0.45191133
7	0x3e0d27e7	0.13784753
8	0x3eac751c	0.33683097
9	0x3ec9cf81	0.39416125
10	0x3e564bfc	0.20927423
11	0xbf2d2b3e	-0.6764411
12	0x3f87dc4b	1.0614103
13	0x39f4d000	0.0004669428
14	0x3db2320e	0.087009534
15	0x3eb2a88d	0.3489422

onnx::Conv_371 f4 [96, 16, 1, 1]
0	0xbe920021	-0.28515723
1	0x3d08a12b	0.033356827
2	0xbf10562e	-0.563815
3	0x3dc7c8c6	0.09755091
4	0x3f22f7ff	0.6365966
5	0x3e652672	0.22377947
6	0xbf034529	-0.51277405
7	0xbd67f454	-0.056629494
8	0x3f02b5eb	0.51058835
9	0xbe12a357	-0.14320122
10	0xbe42cb8a	-0.19022956
11	0xbe65b8df	-0.22433804
12	0x3e30cb18	0.17264974
13	0xbf00b221	-0.50271803
14	0xbf52403d	-0.8212927
15	0xbdb0a51c	-0.08625242
16	0x3ecb0fa7	0.3966038
17	0xbeb86a56	-0.36018628
18	0xbf573d1b	-0.84077615
19	0x3f1c4e2f	0.610568
20	0x3f426f6a	0.75951254
21	0xbe33697d	-0.1752071
22	0xbe127c91	-0.14305331
23	0x3e9b8277	0.30372974
24	0xbeca76cc	-0.3954376
25	0x3dbb28d0	0.09138644
26	0x3e04aba8	0.12956107
27	0xbef125c7	-0.47099134
28	0x3f393888	0.72351885
29	0x3f180b06	0.5939182
30	0x3f09b22e	0.53787506
31	0x3f11fae8	0.5702348
32	0x3dacee73	0.08443918
33	0xbe1c217f	-0.15247153
34	0xbf11de6f	-0.5698003
35	0x3eab1a95	0.33418718
36	0x3df5611e	0.11981414
37	0x3f430752	0.76183045
38	0x3ef8cc62	0.48593432
39	0x3e858a4c	0.26082075
40	0xbdf63faa	-0.12023862
41	0xbe25a50d	-0.16176243
42	0x3e992bd5	0.29916254
43	0xbe4794ad	-0.19490309
44	0x3d920d55	0.07131449
45	0xbeaccb91	-0.3374906
46	0x3e2219cd	0.15830155
47	0x3e874ae2	0.2642432
48	0x3d37dc6f	0.044887956
49	0x3e479969	0.19492115
50	0x3e64e01b	0.22351114
51	0x3e744771	0.23855378
52	0xbed9c5e6	-0.42533797
53	0x3dfbac89	0.12288768
54	0x3d478a17	0.048715677
55	0xbeb08cee	-0.3448252
56	0x3c0f8860	0.008760542
57	0xbdf63808	-0.12022406
58	0xbe028989	-0.12747778
59	0x3ee27b8a	0.44234878
60	0xbe52d4d1	-0.20588996
61	0x3f3dea5e	0.7418574
62	0x3e055a09	0.13022627
63	0xbe2a5263	-0.1663299
64	0xbda9086a	-0.08253558
65	0x3dec7432	0.115456
66	0xbcfb6291	-0.030686649
67	0xbda98714	-0.08277717
68	0xbcfcaf9b	-0.030845454
69	0xbc300c86	-0.010745173
70	0xbdb97e7d	-0.09057329
71	0xbd9d93e7	-0.07694226
72	0xbda0fc17	-0.07860582
73	0xbd48b519	-0.049000833
74	0xbd4dcba2	-0.050243028
75	0x3d6fab79	0.05851314
76	0xbd286a0b	-0.041116755
77	0xbd202f1b	-0.039107423
78	0xbbfab61b	-0.007651103
79	0xbd688e90	-0.056776583
80	0x3eacd9e1	0.33759978
81	0x3de58f11	0.112089284
82	0xbeb30293	-0.349629
83	0xbe5eb460	-0.21748495
84	0x3dbebdd2	0.09313549
85	0xbf366ad5	-0.7125676
86	0xbf00d586	-0.5032581
87	0x3e883119	0.2659996
88	0x3e043c42	0.12913612
89	0x3e936b74	0.28792918
90	0xbeb5e01b	-0.3552254
91	0xbd99decd	-0.07513199
92	0xbe30a291	-0.17249514
93	0xbf21e75a	-0.6324364
94	0xbf55e4cd	-0.8355225
95	0x3e198658	0.14992654
96	0xbe358765	-0.1772743
97	0xbe1de504	-0.15419394
98	0x3e804904	0.25055707
99	0xbec2e249	-0.38063267
100	0x3c1a0853	0.009401399
101	0xbeaecb52	-0.34139496
102	0x3e8025d8	0.25028872
103	0xba56e63d	-0.00081977603
104	0x3eb15bcb	0.34640345
105	0xbede7627	-0.43449518
106	0xbef073c7	-0.4696333
107	0x3d548e28	0.051893383
108	0xbe51f1cc	-0.20502394
109	0xbe5d8176	-0.21631417
110	0xbdee76e4	-0.1164377
111	0x3e225d1b	0.1585583
112	0xbf035fb1	-0.5131789
113	0x3ea35ff6	0.3190915
114	0x397c7241	0.00024075156
115	0x3e97c104	0.29639447
116	0xbe423ea9	-0.18969215
117	0x3e2dcc0a	0.16972366
118	0xbc02f563	-0.007993075
119	0xbe207afc	-0.15671915
120	0xbe63a819	-0.22232093
121	0x3e32c919	0.17459525
122	0x3e7a2957	0.24429832
123	0x3e5862f2	0.21131495
124	0x3e08986b	0.13339393
125	0x3e42d8fd	0.19028087
126	0x3e63d59b	0.22249453
127	0xbe07dd66	-0.1326805
128	0xbe48162d	-0.1953971
129	0x3d878cd7	0.0661866
130	0xbe19edae	-0.15032074
131	0x3e91269b	0.28349766
132	0x3d63907f	0.055557724
133	0x3d64459e	0.055730455
134	0xbe840fb2	-0.25793225
135	0xbdf33381	-0.11875058
136	0xbe7640d1	-0.24048163
137	0x3db8ad7e	0.09017466
138	0xbd709fbd	-0.05874609
139	0x3c84b608	0.01620008
140	0x3e2cb312	0.16865185
141	0x3eb2a772	0.34893376
142	0x3eb97a9f	0.36226365
143	0xbd17a203	-0.03701974
144	0x3ef02085	0.4689981
145	0xbdfd6988	-0.12373644
146	0x3b63dfe2	0.0034770896
147	0xbc2bb1d3	-0.010479408
148	0x3dae4dba	0.08510919
149	0xbdb01e2c	-0.08599505
150	0x3d465e37	0.048429694
151	0x3c8420e6	0.016128968
152	0xbdbeebed	-0.09322343
153	0xbe6650d1	-0.22491767
154	0x3da4263d	0.08015106
155	0xbe3f8daa	-0.18706384
156	0xbea082f5	-0.31349912
157	0xbe1a1e29	-0.15050568
158	0xbe0b3d16	-0.13597521
159	0x3ee61030	0.44934225
160	0x3e54fcd8	0.20799577
161	0x3cf5ca32	0.03000364
162	0x3f02765f	0.5096187
163	0x3f161036	0.58618486
164	0xbea44cec	-0.32089937
165	0xbd959c9a	-0.0730526
166	0x3dafa6ed	0.085767604
167	0x3d625851	0.055260006
168	0xbf27f3c7	-0.6560635
169	0x3e1c732a	0.15278307
170	0x3eb772dc	0.35829818
171	0x3ee47a47	0.4462454
172	0x3e797617	0.24361454
173	0x3ee08340	0.43850136
174	0x3f80463a	1.0021431
175	0xbde47f99	-0.1115715
176	0xbb202c85	-0.0024440598
177	0x3af49590	0.0018660296
178	0xbb222bf6	-0.002474544
179	0x393f8b06	0.0001826697
180	0x3b2d1555	0.002641042
181	0xbaaea43d	-0.0013324093
182	0x39c04d37	0.00036678623
183	0x3ac07613	0.0014683626
184	0x39d5c17a	0.00040770677
185	0x3aa4fed4	0.0012588152
186	0x3b6341be	0.0034676637
187	0x39cd0b54	0.00039109087
188	0x3ac7c21a	0.0015240342
189	0x3a1c689b	0.0005966515
190	0xb897412e	-7.212382e-05
191	0xba89d84b	-0.0010516731
192	0x3ed127a4	0.40850556
193	0xbef2aa3c	-0.47395504
194	0xbe00e062	-0.12585595
195	0x3f279e27	0.65475696
196	0x3ea17e1e	0.31541532
197	0xbe64bf86	-0.22338685
198	0x3ea27f37	0.31737682
199	0x3f39c2e2	0.7256299
200	0x3e204e01	0.15654756
201	0xbe764f44	-0.24053675
202	0x3e4d0876	0.20022759
203	0xbf0f38a6	-0.55945814
204	0x3e9bb044	0.30407917
205	0xbea55008	-0.32287621
206	0xbd22d16c	-0.0397505
207	0x3efe99af	0.49726626
208	0x3d978ddc	0.074001044
209	0xbdc76c30	-0.09737432
210	0x3ca92179	0.020645844
211	0xbd45e29e	-0.048311822
212	0xbde475ce	-0.11155282
213	0xbd90da41	-0.07072879
214	0x3d509b5b	0.05092941
215	0xbcf553bd	-0.029947156
216	0x3cba1ba1	0.022718253
217	0xbd972f25	-0.07382039
218	0xbdc222cf	-0.094792955
219	0x3ccbc28e	0.024873044
220	0xbe209b1f	-0.15684174
221	0xbc23323d	-0.009960708
222	0xbeb09cad	-0.34494534
223	0x3d086c6a	0.033306517
224	0xbca93c37	-0.020658595
225	0x3f095588	0.53646135
226	0xbf357a69	-0.7088991
227	0x3ea44f35	0.3209168
228	0x3f0e19dc	0.5550821
229	0xbe85c564	-0.2612716
230	0x3ee0f857	0.43939468
231	0x3f2ba0f6	0.6704248
232	0x3f0e76ab	0.5564982
233	0x3eff87a5	0.49908176
234	0x3ee6ed8a	0.45103103
235	0xbe924f05	-0.28575912
236	0x3ecdb923	0.4018031
237	0x3e87578a	0.26433975
238	0x3ef1c9c8	0.4722426
239	0xbf2aeaa3	-0.6676428
240	0x3e94b517	0.2904441
241	0x3d23c682	0.039984234
242	0x3dd794fc	0.105264634
243	0x3e3ad209	0.18244185
244	0x3dce5fc5	0.1007686
245	0xbe2ffa4c	-0.17185324
246	0x3e833052	0.25622803
247	0x3d8269ab	0.06367811
248	0x3e049e44	0.12950999
249	0xbcf6662d	-0.030078018
250	0xbe748764	-0.23879772
251	0xbdaa2e03	-0.08309557
252	0xbe1a2815	-0.15054353
253	0x3e16200d	0.14660664
254	0xbd5eb92f	-0.054375824
255	0xbdffe84a	-0.124954775

onnx::Conv_372 f4 [96]
0	0x3f43aa6d	0.76431924
1	0xc0063440	-2.096939
2	0xbf4d497c	-0.80190253
3	0xbf274fc8	-0.6535611
4	0xbef27770	-0.4735675
5	0x3f9a93c0	1.207634
6	0x3fb15f21	1.3857156
7	0xbd83ef4e	-0.06442128
8	0xbf2a4736	-0.6651491
9	0xbd0f6588	-0.035008937
10	0xbfdc5b97	-1.7215451
11	0xbefae8dc	-0.49005783
12	0xbf916bdf	-1.1361045
13	0x3f9c59cb	1.2214903
14	0xbfe4282f	-1.7824763
15	0x3dab5fcc	0.08367881
16	0x3f34f1ca	0.7068144
17	0xbfbb7439	-1.4644843
18	0xbd07311c	-0.03300582
19	0x3f9d8175	1.2305132
20	0xbfc9314c	-1.5718169
21	0x3f9fb387	1.2476662
22	0xc03bc5f7	-2.9339578
23	0xbdaaab84	-0.08333495
24	0xbf075470	-0.52863216
25	0xbf1640d1	-0.5869265
26	0xba0be280	-0.00053361803
27	0xbe6b8c57	-0.23002754
28	0x3fc394bf	1.5279769
29	0xbeb97476	-0.36221665
30	0x3f8722af	1.055746
31	0xbfc183d2	-1.5118353
32	0xbf70130b	-0.9377906
33	0xbf30357b	-0.68831605
34	0x3fc18826	1.5119674
35	0xbf8101db	-1.0078691
36	0xc005059d	-2.0784676
37	0xbfbaec62	-1.4603388
38	0xbec86925	-0.3914272
39	0xbdba8f1c	-0.09109327
40	0xc014a981	-2.3228457
41	0xbf932d87	-1.1498269
42	0xbf4286e8	-0.759871
43	0xbfd25eac	-1.6435142
44	0x3ee5b42b	0.4486402
45	0x3f9116f7	1.1335133
46	0xbfa1fd46	-1.2655418
47	0x3f1d7d87	0.61519665
48	0x3faf61b6	1.3701694
49	0xbeff8237	-0.49904034
50	0xbe6cb6c2	-0.23116592
51	0xbe50e572	-0.20400026
52	0x3f166838	0.58752775
53	0xbf6d83f1	-0.9277945
54	0xbf935904	-1.151154
55	0xbd94d9dc	-0.07268116
56	0x3fbbae92	1.466265
57	0x3fc10490	1.5079517
58	0x3f9048ca	1.1272213
59	0xbc97ce98	-0.018531129
60	0xbf66bb02	-0.901291
61	0x3faa1ee3	1.3290676
62	0xbfca99f9	-1.5828239
63	0xbf60cc29	-0.87811524
64	0x3f84096b	1.0315374
65	0x3f675042	0.9035684
66	0x3f6436c5	0.8914607
67	0x3f363d68	0.7118745
68	0xbf70c64b	-0.9405257
69	0x3f209e17	0.62741226
70	0x3dcabf00	0.098997116
71	0x3fad5b8a	1.354356
72	0xbfa2036c	-1.2657294
73	0xbec6bddf	-0.38816735
74	0x3f2a9eba	0.6664845
75	0xbe700447	-0.23439132
76	0x3ef51191	0.47864965
77	0xbe146922	-0.1449323
78	0xbf0e24ff	-0.555252
79	0xbf674f69	-0.90355545
80	0xbf94fed2	-1.1640265
81	0x3ede6735	0.43438116
82	0x3e942377	0.28933308
83	0x3e4a0f98	0.19732511
84	0x3f67d946	0.9056591
85	0xbcdb05a8	-0.026736096
86	0x3d349568	0.044087797
87	0x3f687f6d	0.90819436
88	0x3fb840b6	1.4394748
89	0x3e59e36e	0.21278164
90	0x3f80d556	1.0065105
91	0x3d65ddff	0.056119915
92	0xbe597ea8	-0.21239722
93	0xbfb9bddf	-1.4511069
94	0x3e50c3d3	0.20387201
95	0xbf6f703a	-0.9353062
