model_checkpoints/experiments/overall/fastscnn_96a0.125t4r2pp0_noinit.onnx (onnx, 52352 bytes, 63 tensors)

feature_fusion.conv_high_res.weight f4 [16, 8, 1, 1]
0.75128996 0.24294132 0.30714452 -1.02454 -0.4246069 -0.0929659 -0.15317258 -1.090467
-0.77850205 0.7523459 -0.24394202 0.19680507 0.17997958 0.95825315 -0.56162095 0.875211
0.061615363 0.3240567 1.3657519 0.2621562 1.0270616 -0.35613677 0.95034456 -0.39635798
0.35546225 0.15857247 -0.35981226 0.21142083 -0.5470331 -0.5964477 0.2146026 -0.77727205
-0.5977885 1.8276286 1.8620319 -0.89034414 1.1006678 -0.40709862 0.5946512 -0.083143726
0.98308116 -0.28730416 -0.21972404 -0.084763035 -0.56486773 -0.5698749 0.17890649 -0.49302232
1.0616285 -0.019955613 -0.80498856 -0.91548955 -0.37476015 -1.1912273 -0.21685256 -0.112406075
0.07380938 -0.07345681 -0.13125329 0.06690817 -0.34550178 -0.40622425 0.20159735 -0.340097
0.41525742 0.8331212 0.17294784 -0.8681307 -1.3998563 0.46146795 -1.4434997 0.1677656
-0.47181615 0.17885472 0.9990383 -0.052005906 1.0495567 0.48947766 -0.07108585 0.6298676
-0.17639723 0.3141791 -0.59738547 2.0171695 0.63306665 0.18882321 1.1017251 -0.18601786
-0.90410435 -0.80205774 -0.08719262 0.62238795 0.6320446 0.85991764 -0.16060373 0.9176142
0.23960476 -0.20995322 1.6364444 0.07710521 0.53388566 0.1577208 1.6320769 0.10531203
0.79190725 0.4097648 0.26846725 -0.5901569 0.16345781 -0.5371108 0.2063212 -1.4638537
-0.19591293 0.29779798 0.08862683 0.17426653 0.0048832274 -0.46389046 0.64815164 -1.4936115
-0.1786349 -0.16756369 -0.09496477 0.79090255 -0.017705657 0.32992312 -0.27672133 1.7251477
00000000: 8a54 403f 9cc5 783e 0c42 9d3e 2024 83bf
00000010: 1366 d9be e864 bebd 46d9 1cbe 6c94 8bbf
00000020: e94b 47bf be99 403f f0cb 79be 4587 493e
00000030: 914c 383e 1450 753f 64c6 0fbf d40d 603f
00000040: 6460 7c3d c3ea a53e f5d0 ae3f 5639 863e
00000050: c176 833f 8f57 b6be c849 733f 6fef cabe
00000060: 26ff b53e d260 223e 5039 b8be b47e 583e
00000070: 5c0a 0cbf ccb0 18bf c9c0 5b3e 4dfb 46bf
00000080: ab08 19bf bcef e93f 1057 ee3f 98ed 63bf
00000090: afe2 8c3f 3b6f d0be 103b 183f 4247 aabd
000000a0: 35ab 7b3f 8819 93be 57ff 60be 3e98 adbd
000000b0: 2c9b 10bf 52e3 11bf 4333 373e 6c6d fcbe
000000c0: 71e3 873f f479 a3bc bb13 4ebf 865d 6abf
000000d0: 90e0 bfbe 237a 98bf 990e 5ebe 2835 e6bd
000000e0: 5f29 973d 8670 96bd 4367 06be 2707 893d
000000f0: 9ce5 b0be a0fc cfbe 896f 4e3e 3221 aebe
00000100: 9f9c d43e 6e47 553f 3d19 313e d03d 5ebf
00000110: 7e2e b3bf 8745 ec3e 99c4 b8bf bfca 2b3e
00000120: e391 f1be b125 373e f9c0 7f3f 2504 55bd
00000130: e057 863f d19c fa3e 7595 91bd 013f 213f
00000140: 7aa1 34be 15dc a03e 41ee 18bf 4e19 0140
00000150: a810 223f df5a 413e 5405 8d3f 777b 3ebe
00000160: 6273 67bf a853 4dbf 0b92 b2bd d154 1f3f
00000170: adcd 213f 9023 5c3f 4e75 24be c4e8 6a3f
00000180: f35a 753e fafd 56be 0377 d13f 56e9 9d3d
00000190: bbac 083f 9081 213e e5e7 d03f d5ad d73d
000001a0: 6fba 4a3f b1cc d13e 8a74 893e 8614 17bf
000001b0: 7c61 273e 1880 09bf dd45 533e 8f5f bbbf
000001c0: 669d 48be fa78 983e fc81 b53d ed72 323e
000001d0: 7b03 a03b 0d83 edbe 44ed 253f a92e bfbf
000001e0: 11ec 36be d195 2bbe e47c c2bd 9778 4a3f
000001f0: 740b 91bc afeb a83e 6bae 8dbe a4d1 dc3f

feature_fusion.conv_high_res.bias f4 [16]
0.9979451 0.121898755 -1.0185636 0.7919717 -0.515945 0.26768318 0.24992584 -0.39534277
-0.402644 -0.09437153 -0.6694778 0.15494397 -0.11551914 0.92889315 0.6878431 0.68513346
00000000: 5479 7f3f 0ea6 f93d 4b60 82bf a8be 4a3f
00000010: f914 04bf c50d 893e 8fec 7f3e 5e6a cabe
00000020: 5b27 cebe dc45 c1bd e662 2bbf a2a9 1e3e
00000030: 4d95 ecbd f1cb 6d3f 7c16 303f e864 2f3f

feature_fusion.conv_low_res.weight f4 [16, 16, 1, 1]
-0.124346465 -0.6565479 0.28804207 -0.43727255 0.46670943 0.50757176 0.4591752 0.61770654
-0.16585405 0.06082767 0.23218133 -0.3157229 0.8690104 0.8034794 -0.6325343 -0.654628
0.018224424 0.44795924 0.3378139 -1.4456422 -0.46946606 0.26503348 -0.20219879 -0.0041402625
-0.25312972 0.8705082 -0.6369262 -0.29420567 0.21854603 -1.141667 0.31432983 -1.3104746
-0.78330404 -0.2833269 -0.32027775 0.17691348 -0.27005538 -0.0075074593 -0.632845 -1.0832937
0.7646941 -0.9138386 -0.3009433 -0.99401724 0.7267326 0.037144143 -0.060285393 -0.15820979
-0.06063293 0.7265413 0.36579913 1.4131697 0.3141009 0.7494241 0.233696 -0.7034364
-0.6481633 0.24632375 -1.3006303 0.19701824 -1.0741829 0.38029718 -0.15820864 0.25413397
-0.07247661 -0.2823402 0.2939597 0.10747012 -0.5060651 0.058198422 0.016515596 -0.4844645
-0.37092122 -0.70745957 -0.18469979 0.38850734 0.36340868 -0.21061227 -0.019916479 0.7273293
1.3973365 -0.5349906 -0.42924464 1.152871 -0.1055833 -1.8512375 -0.11721091 0.1085009
-0.17339982 -0.9506077 0.62185395 -0.20250262 0.526569 0.22529203 0.14471306 -0.44045895
1.3154454 -0.08722804 -1.0908394 0.019350702 0.40062806 1.137516 0.57687616 0.4455524
0.5656373 -0.018044038 0.16748725 0.9678562 0.26529995 0.58463484 -0.10840779 -0.14048764
-0.18854253 -0.0029391022 0.033347 -0.10891197 -0.23412274 0.027780171 -0.3068187 -0.3078052
-0.026023295 -0.00031607164 -0.06619251 -0.18802409 -0.2316739 -0.23549712 -0.1098323 0.17260274
0.89127547 -0.42980987 -0.8941214 0.25668904 -0.2756025 0.6232048 1.4596608 -0.08805729
-0.15036905 -0.267421 0.25294393 0.93078977 -0.064375274 0.055694394 0.32772055 0.00817285
-0.20811538 -1.2043254 0.3797428 -0.5726795 -0.92038894 -0.037152514 0.25037158 -0.78642035
0.10578142 0.1434106 -0.6138725 -0.44922057 -0.47570747 -0.5493421 0.4594445 -0.09702465
0.03247585 -1.7128109 -0.22527862 0.08512892 -0.41839743 0.10782827 -0.7548001 -1.1547054
-0.31990588 -0.25327355 -0.5656055 -0.3908807 -0.062323008 0.19350778 0.17362727 0.5069371
0.09557516 -1.4213505 -0.52866507 -0.59554946 -0.588508 0.16143465 0.060071804 -0.7411244
-0.68299836 -0.078003116 -0.5973171 -0.0640658 -0.62182856 -0.8752717 0.59339553 -0.77864045
0.61654645 -0.4676883 -0.4458467 0.0015555271 0.13249606 0.48534146 -0.7712522 -0.059724912
-0.5507884 -0.6634962 -0.5230268 0.5717984 -0.43386272 -0.04337973 0.038569707 -0.63287675
0.13205846 -0.9471485 0.081990615 0.9944156 1.56582 0.14649704 0.05519448 -0.0704691
-0.7286807 0.05187306 0.3741636 -0.5797918 0.4112328 0.23594233 0.201653 -0.11659329
0.006191742 -0.053543255 -0.0893804 0.5489987 0.6935599 0.25346804 0.37196591 0.17490482
-0.37645477 0.6371279 0.25392738 0.08278832 0.82495207 0.7811307 -0.3867918 -0.44467625
-0.33328822 0.040153716 0.8613758 -0.2450015 -0.37783197 0.1924668 -0.3480317 0.025990395
0.08846035 -0.15015641 -0.620476 -0.6667454 -0.5319002 -1.1753122 0.6763133 -0.56586593
00000000: 5ca9 febd 8613 28bf 407a 933e 30e2 dfbe
00000010: 8af4 ee3e 39f0 013f 0319 eb3e 0422 1e3f
00000020: a5d5 29be 6f26 793d f1c0 6d3e 6fa6 a1be
00000030: 7777 5e3f d3b0 4d3f c5ed 21bf b395 27bf
00000040: 634b 953c ea5a e53e f2f5 ac3e ce0a b9bf
00000050: db5d f0be 78b2 873e 330d 4fbe 0aab 87bb
00000060: 389a 81be a0d9 5e3f 980d 23bf 20a2 96be
00000070: 88ca 5f3e 2522 92bf d7ef a03e a2bd a7bf
00000080: 9d86 48bf 3910 91be 72fb a3be cf28 353e
00000090: b344 8abe 2201 f6bb 2102 22bf 5ea9 8abf
000000a0: fec2 433f 54f1 69bf 3d15 9abe ea77 7ebf
000000b0: 260b 3a3f 7524 183d d1ed 76bd bf01 22be
000000c0: 3c5a 78bd 9cfe 393f 064a bb3e bfe2 b43f
000000d0: d5d1 a03e 42da 3f3f 014e 6f3e 6814 34bf
000000e0: 08ee 25bf 4b3c 7c3e 0e7b a6bf 26bf 493e
000000f0: d37e 89bf 50b6 c23e 7201 22be d91d 823e
00000100: 9e6e 94bd e58e 90be e381 963e 4b19 dc3d
00000110: 7b8d 01bf 7861 6e3d b74b 873c bb0b f8be
00000120: 63e9 bdbe 121c 35bf f121 3dbe 6fea c63e
00000130: b410 ba3e beaa 57be e227 a3bc 4132 3a3f
00000140: ecdb b23f 25f5 08bf f4c5 dbbe 4791 933f
00000150: 0f3c d8bd 5af5 ecbf 460c f0bd b835 de3d
00000160: b98f 31be 075b 73bf d231 1f3f d95c 4fbe
00000170: 3acd 063f f4b2 663e a92f 143e d683 e1be
00000180: 8460 a83f 9da4 b2bd a0a0 8bbf 5d85 9e3c
00000190: 1f1f cd3e 209a 913f 28ae 133f 721f e43e
000001a0: 9bcd 103f 17d1 93bc c781 2b3e 6dc5 773f
000001b0: 65d5 873e a1aa 153f e704 debd fedb 0fbe
000001c0: 4b11 41be f49d 40bb dd96 083d 3d0d dfbd
000001d0: dfbd 6fbe 3e93 e33c 5717 9dbe a598 9dbe
000001e0: ce2e d5bc 6bb6 a5b9 f08f 87bd 6389 40be
000001f0: ec3b 6dbe 2826 71be c2ef e0bd c6be 303e
00000200: a12a 643f 0a10 dcbe 24e5 64bf bf6c 833e
00000210: c51b 8dbe 5a8a 1f3f 2ad6 ba3f 6157 b4bd
00000220: 58fa 19be 68eb 88be de81 813e 3d48 6e3f
00000230: 2fd7 83bd ce1f 643d fdca a73e 6be7 053c
00000240: 331c 55be 5627 9abf a66d c23e 209b 12bf
00000250: 9c9e 6bbf 3c2d 18bd b430 803e d852 49bf
00000260: eea3 d83d 3ada 123e c026 1dbf 3d00 e6be
00000270: ee8f f3be afa1 0cbf 4f3c eb3e dcb4 c6bd
00000280: 6605 053d 633d dbbf 70af 66be 1258 ae3d
00000290: 3038 d6be 11d5 dc3d 943a 41bf 63cd 93bf
000002a0: b4ca a3be 12ad 81be 86cb 10bf 8421 c8be
000002b0: 6946 7fbd e726 463e 59cb 313e a1c6 013f
000002c0: e9bc c33d d0ee b5bf 9856 07bf ee75 18bf
000002d0: 76a8 16bf 204f 253e da0d 763d 54ba 3dbf
000002e0: fbd8 2ebf 19c0 9fbd c6e9 18bf ee34 83bd
000002f0: 2830 1fbf ce11 60bf c5e8 173f fb54 47bf
00000300: fdd5 1d3f d774 efbe 0546 e4be d4e2 cb3a
00000310: 0cad 073e ad7e f83e c970 45bf 1ca2 74bd
00000320: 7800 0dbf e3da 29bf 16e5 05bf 6161 123f
00000330: 4123 debe f2ae 31bd 45fb 1d3d 3604 22bf
00000340: 553a 073e 5378 72bf b2ea a73d 0592 7e3f
00000350: ca6c c83f 5203 163e 9b13 623d 1a52 90bd
00000360: d18a 3abf d978 543d 5f92 bf3e 3c6d 14bf
00000370: 1b8d d23e de9a 713e 207e 4e3e 76c8 eebd
00000380: 19e4 ca3b 2c50 5bbd 120d b7bd 2e8b 0c3f
00000390: 248d 313f 90c6 813e 5172 be3e 401a 333e
000003a0: aebe c0be d01a 233f c502 823e ec8c a93d
000003b0: 0f30 533f 2ef8 473f 9309 c6be 9bac e3be
000003c0: c1a4 aabe 3978 243d 2083 5c3f ace1 7abe
000003d0: 3173 c1be 0416 453e 3631 b2be cfe9 d43c
000003e0: b32a b53d 9ac2 19be 84d7 1ebf d4af 2abf
000003f0: 9d2a 08bf a170 96bf de22 2d3f 97dc 10bf

feature_fusion.conv_low_res.bias f4 [16]
1.1488702 0.04459389 -0.6053883 0.38591507 -0.14974402 0.3979671 0.09144611 -0.28089115
-0.15999582 -0.45702872 -0.6628573 -0.101393856 -0.27621162 1.0044857 0.39831227 0.72723097
00000000: 2e0e 933f 15a8 363d bafa 1abf a996 c53e
00000010: 7f56 19be 58c2 cb3e 1948 bb3d f7d0 8fbe
00000020: f2d5 23be abff e9be 04b1 29bf 95a7 cfbd
00000030: 9c6b 8dbe fd92 803f 96ef cb3e cf2b 3a3f

classifier.conv.weight f4 [1, 16, 1, 1]
-0.91557634 -0.8808241 -1.2897593 0.8769622 -0.6195447 -0.56333786 -0.602766 -1.1618453
-1.0254889 -0.59236217 0.8000479 1.0880035 -0.7871985 -0.61569893 -0.6592903 -0.6390406
00000000: 3663 6abf b07d 61bf d516 a5bf 9880 603f
00000010: 7b9a 1ebf e936 10bf df4e 1abf 59b7 94bf
00000020: 3843 83bf 0ca5 17bf f0cf 4c3f b343 8b3f
00000030: d785 49bf 729e 1dbf 40c7 28bf 2a98 23bf

onnx::Conv_275 f4 [4, 3, 3, 3]
0.7551288 0.22095053 -0.3941354 0.1975648 -0.015267837 -0.12086356 -0.07112839 -0.23946624
-0.4700614 0.80447453 0.51804763 -0.17385796 0.39053592 0.39374304 -0.036160287 -0.08441762
-0.50952697 -0.73280525 0.6886218 0.48287943 -0.54536575 0.09273587 0.31009594 -0.03384754
-0.22354068 -0.5344021 -0.7260095 0.0322814 0.02598893 -0.012360644 0.013218603 -0.019878207
-0.004465409 0.015813677 -0.01824158 -0.019078834 -0.06655707 -0.13423575 -0.08735639 -0.01867606
-0.07264575 -0.07923123 -0.014778528 -0.07119761 -0.108624846 -0.03424854 -0.026731882 -0.045565255
0.0060376315 0.035459142 0.034172036 0.019035384 0.033610485 0.019749671 -0.03993005 -0.0072414693
-0.005200208 0.03498085 0.04412306 0.019049857 0.0355915 0.05931696 0.062302504 0.3197094
0.23781769 0.09364078 0.18396032 0.27253926 0.19515862 -0.054520994 0.15015456 0.19465034
-0.12073194 -0.15698257 -0.112130545 -0.13175687 -0.096579924 -0.026025278 -0.09526184 -0.04708675
0.022383125 -0.38538662 -0.03971499 -0.054257337 -0.029808832 0.107431486 0.12944143 0.20418896
0.08075223 -0.22411932 -0.1225085 -0.65482897 -0.88744473 0.23775727 -0.05877529 -0.28970993
1.4235803 0.7980441 -0.053029723 0.22255662 -0.15813272 -0.0816333 -0.03468719 -0.059586845
-0.15645349 0.8070597 0.09049633 -0.5126001
00000000: 1f50 413f db40 623e 1dcc c9be 6d4e 4a3e
00000010: f325 7abc 5087 f7bd c3ab 91bd a336 75be
00000020: e3ab f0be 0bf2 4d3f c59e 043f d207 32be
00000030: 53f4 c73e b098 c93e cf1c 14bd 25e3 acbd
00000040: 5c70 02bf 2099 3bbf 8549 303f f93b f73e
00000050: 179d 0bbf 4eec bd3d e5c4 9e3e b8a3 0abd
00000060: d9e7 64be 93ce 08bf c2db 39bf 8039 043d
00000070: bde6 d43c 4c84 4abc d792 583c 9fd7 a2bc
00000080: 9152 92bb af8b 813c 5e6f 95bc 374b 9cbc
00000090: 134f 88bd 1975 09be e8e7 b2bd 89fe 98bc
000000a0: 4cc7 94bd fc43 a2bd a421 72bc 0dd0 91bd
000000b0: b476 debd 3248 0cbd d2fc dabc a2a2 3abd
000000c0: 53d7 c53b 9b3d 113d faf7 0b3d 18f0 9b3c
000000d0: 26ab 093d 10ca a13c b18d 23bd d949 edbb
000000e0: 8266 aabb 1448 0f3d 62ba 343d 720e 9c3c
000000f0: 65c8 113d 57f6 723d e930 7f3d f3b0 a33e
00000100: 7b86 733e bdc6 bf3d 1860 3c3e 448a 8b3e
00000110: a9d7 473e 6851 5fbd 1ec2 193e 6b52 473e
00000120: 4f42 f7bd 0ac0 20be b3a4 e5bd 46eb 06be
00000130: b2cb c5bd f732 d5bc a418 c3bd 09de 40bd
00000140: d15c b73c 6551 c5be 2fac 22bd f13c 5ebd
00000150: a731 f4bc 0a05 dc3d 4b8c 043e e916 513e
00000160: 6d61 a53d 897f 65be bde5 fabd dfa2 27bf
00000170: 942f 63bf a476 733e 5cbe 70bd dc54 94be
00000180: e137 b63f 9e4c 4c3f b235 59bd e2e5 633e
00000190: 8bed 21be 5c2f a7bd 2814 0ebd 5611 74bd
000001a0: 5835 20be 779b 4e3f 2456 b93d c339 03bf

onnx::Conv_276 f4 [4]
0.18027928 1.2824191 0.8727626 -0.13106333
00000000: 229b 383e 4f26 a43f 5f6d 5f3f 7735 06be

onnx::Conv_278 f4 [4, 1, 3, 3]
0.079568654 0.4407554 0.32600537 -0.064160876 -0.12138738 -0.1412024 -0.095402695 -0.15306015
-0.05446579 0.17904158 -1.6633427 -1.0880924 -0.7466191 -1.6391314 -0.020350026 0.47225407
1.308124 3.7409623 -0.1418688 -0.19952631 -0.19363908 -0.15485764 -0.14697565 -0.2575282
-0.17451125 -0.07445243 -0.13346645 0.07081808 0.37075254 0.26297846 0.3507952 0.52269137
0.07711941 0.023539875 -0.18643501 -0.5589154
00000000: e4f4 a23d b1aa e13e 2dea a63e c766 83bd
00000010: f299 f8bd 5d97 10be 7d62 c3bd cdbb 1cbe
00000020: 8517 5fbd ad56 373e 6ae8 d4bf 9d46 8bbf
00000030: 6e22 3fbf 0fcf d1bf 19b5 a6bc 49cb f13e
00000040: 9b70 a73f ed6b 6f40 0e46 11be a050 4cbe
00000050: 5349 46be 0093 1ebe c980 16be bcda 83be
00000060: 14b3 32be 847a 98bd 6eab 08be 1209 913d
00000070: 47d3 bd3e 1da5 863e 6e9b b33e 1acf 053f
00000080: c8f0 9d3d b2d6 c03c d2e8 3ebe 1415 0fbf

onnx::Conv_279 f4 [4]
-0.19431353 -0.7818833 1.1999009 -0.58480144
00000000: 20fa 46be 8129 48bf 5a96 993f 8cb5 15bf

onnx::Conv_281 f4 [6, 4, 1, 1]
0.050664656 -1.1136848 0.18528078 -0.26656297 -0.2404749 -1.228211 0.23405789 -1.176009
0.25343394 0.7896067 0.00016386004 0.043468915 0.0070723225 -0.013006989 -0.66634804 0.017796392
1.4456247 1.446188 0.004023504 0.033980772 -1.3269992 0.21748768 0.16993873 1.3712333
00000000: be85 4f3d 398d 8ebf 3fba 3d3e f17a 88be
00000010: 0d3f 76be 0536 9dbf dfac 6f3e 7787 96bf
00000020: 18c2 813e aa23 4a3f d8d1 2b39 760c 323d
00000030: f1be e73b 441b 55bc c995 2abf bdc9 913c
00000040: 3b0a b93f b01c b93f 99d7 833b 6c2f 0b3d
00000050: 1cdb a9bf 17b5 5e3e 6b04 2e3e 9384 af3f

onnx::Conv_282 f4 [6]
-0.36557978 -0.79796714 0.5332668 0.9366546 0.3640076 0.321486
00000000: 462d bbbe 9347 4cbf 2c84 083f 99c8 6f3f
00000010: 345f ba3e d099 a43e

onnx::Conv_284 f4 [6, 1, 3, 3]
0.018594619 0.047539145 0.14780241 -0.0786933 -0.08358714 0.11192332 -0.29585376 -0.8858138
-0.7090362 0.07032506 -0.06679369 0.039610352 -0.085608885 -0.6746597 -0.6250264 -0.136464
-0.8458585 -0.9123034 0.0676269 0.78257793 0.38441095 -0.19145857 0.29517096 0.10512435
-0.18184268 -0.5170141 -0.42145884 0.03801434 -0.87969476 -1.49618 0.4309328 -0.6785904
-0.9185888 0.2077656 0.3864664 0.5905504 -0.038661547 -0.13657707 -0.09519338 -0.14776848
-0.34930304 -0.235264 -0.07129325 -0.27219227 -0.18240029 0.09198687 0.13925467 0.09895562
0.21368596 0.48317996 0.3442798 0.11378134 0.30166832 0.18910024
00000000: be53 983c 68b8 423d 8459 173e f429 a1bd
00000010: bc2f abbd 0e38 e53d 257a 97be b1c4 62bf
00000020: 6583 35bf 9606 903d 21cb 88bd 773e 223d
00000030: b653 afbd 80b6 2cbf bb01 20bf 38bd 0bbe
00000040: 2f8a 58bf b78c 69bf f97f 8a3d 0757 483f
00000050: 83d1 c43e b70d 44be a620 973e 6f4b d73d
00000060: f834 3abe 095b 04bf 74c9 d7be edb4 1b3d
00000070: ad33 61bf d482 bfbf 39a3 dc3e 1ab8 2dbf
00000080: a328 6bbf 81c0 543e edde c53e 502e 173f
00000090: 925b 1ebd dcda 0bbe bff4 c2bd 9f50 17be
000000a0: d9d7 b2be 0ce9 70be 3202 92bd c95c 8bbe
000000b0: 24c7 3abe 9d63 bc3d c798 0e3e 3ea9 ca3d
000000c0: 7ed0 5a3e 5d63 f73e 7145 b03e 3106 e93d
000000d0: 4574 9a3e 7ea3 413e

onnx::Conv_285 f4 [6]
0.6325256 0.72111934 -0.20451303 2.1319597 1.3054969 -1.642794
00000000: 33ed 213f 479b 383f dd6b 51be 0772 0840
00000010: 861a a73f 1347 d2bf

onnx::Conv_287 f4 [8, 6, 1, 1]
-0.5161428 -0.14490882 0.010002219 0.61874074 0.023882983 -0.16991626 -0.5165484 -0.08933318
-0.32030043 -0.042319942 0.35980144 -0.26802146 -0.20925309 0.64642614 0.46777585 0.060119368
0.4331322 -0.9447495 0.41494763 0.6788067 -0.71362156 -0.04214547 0.123751156 -0.02649748
0.09404521 0.49744895 -0.13972414 -0.45077175 0.633355 -0.5949561 -0.086592756 -0.026160704
0.06857833 -0.56085986 -0.11376949 0.23248367 0.342241 0.39426848 -0.05115493 0.2156666
0.3919987 0.04868298 0.07415463 0.08965271 0.2600844 -0.8111603 -0.04858908 -0.09112607
00000000: ef21 04bf fa62 14be 59e0 233c cb65 1e3f
00000010: 3fa6 c33c 87fe 2dbe 843c 04bf 50f4 b6bd
00000020: 6bfe a3be ad57 2dbd e537 b83e 1c3a 89be
00000030: 7146 56be 2f7c 253f 5180 ef3e ba3f 763d
00000040: 81c3 dd3e 1adb 71bf 0474 d43e 47c6 2d3f
00000050: e7af 36bf baa0 2cbd 3f71 fd3d 3e11 d9bc
00000060: c69a c03d a1b1 fe3e d813 0fbe 8ecb e6be
00000070: 8e23 223f 0b4f 18bf 8b57 b1bd f94e d6bc
00000080: cc72 8c3d 8394 0fbf faff e8bd 3310 6e3e
00000090: 363a af3e 8fdd c93e d587 51bd b5d7 5c3e
000000a0: 0eb4 c83e ce67 473d 62de 973d d79b b73d
000000b0: c829 853e 34a8 4fbf 5805 47bd 4ea0 babd

onnx::Conv_288 f4 [8]
-0.3041593 0.56133664 -1.1029642 -0.82052183 0.3646232 0.7057319 0.66015065 1.7944667
00000000: c5ba 9bbe c2b3 0f3f ee2d 8dbf b80d 52bf
00000010: e4af ba3e d9aa 343f a2ff 283f 16b1 e53f

onnx::Conv_290 f4 [32, 8, 1, 1]
0.08090553 0.86826587 0.83210015 0.69702476 -0.12489111 0.22414857 -0.2042657 0.8792568
0.26698664 0.07888406 0.033279087 0.112244636 0.016909761 -0.31838337 0.07690923 -0.9508448
-0.66704196 -0.14483891 1.0757328 0.8338438 0.31122175 -0.9030281 0.8228834 -0.047656924
0.41694832 -0.21516179 -0.65736955 0.14039145 -0.2685854 -0.43452665 0.29164404 -0.78849113
0.0016916273 -0.55343133 -0.2633801 -0.29586008 -0.91001207 0.029147629 0.45999843 -0.9001822
0.16492325 -0.07448311 1.2982308 -0.42778164 0.9017938 0.11500606 0.5304363 0.11157532
-0.29242614 -0.13725337 0.038739905 0.27194542 0.1723005 0.562772 -0.28710306 0.6741877
0.199545 -0.19522752 -0.038709354 -0.01004219 -0.35837784 -0.16917506 0.07972516 -0.56351554
-0.57606107 0.027205128 0.1634845 0.31400183 0.91874665 0.355888 0.12956776 0.50435895
0.114355594 0.05826095 0.09109068 -0.5109566 -0.2517582 -0.06400716 0.01647627 -0.94225293
-0.077960975 -0.066254385 0.167563 -0.07181066 0.46304846 -0.06841724 0.07598888 -0.06281072
-0.09371129 0.07375956 0.072842956 -0.06258669 0.03538097 0.046273027 0.0015513627 0.06932435
-0.2555341 0.16428569 1.0032982 -3.264276 1.5006155 -1.1072663 1.4224508 -0.100215316
-0.3244692 0.072113305 -0.016505904 -0.31419167 -0.17850092 -0.14639579 0.07869616 -0.9838376
-0.12536502 0.08691083 0.03883798 -0.01089242 0.14665051 0.18319805 -0.0062641576 0.23395404
-1.3653374 0.15479444 -1.3776386 1.3987776 -0.45624655 0.25419924 0.4453138 0.78538734
-0.13867252 -0.78688407 0.06459547 -0.035121147 0.20758957 0.58112884 -0.429004 1.344958
-0.711426 0.15050156 0.0859089 -0.073813416 1.1117265 -0.1686257 -0.12412044 0.13271081
1.0243819 -0.1370869 -0.11351128 0.22505262 -0.989214 -0.808693 -0.37219694 -0.4148411
-1.2665267 -0.6357028 -0.13652101 -0.370647 -0.064921856 0.79946816 -0.8107231 1.4413701
0.22301398 -0.16387916 0.25065643 0.08691927 -0.41960704 -0.0386548 -0.20177436 -0.5411436
0.15056789 -0.13789874 -0.23789367 0.09639742 -0.66118824 -0.3820587 0.4536328 -0.5692589
0.09226402 -0.08949198 -0.23815115 -0.20263931 -0.26673788 -0.12905142 -0.17361948 -0.50627905
0.13115558 -0.12072412 0.8606621 1.9657682 0.8511433 -0.1682619 0.45032692 0.654942
-0.10043873 -0.060776353 -0.62097305 -0.7153267 0.14322655 -0.61370033 -0.277757 -0.6692537
-0.15001398 1.1571683 0.19143623 -0.1967741 1.2857819 0.47659132 0.045629796 0.6735736
-0.2608489 0.046079975 -0.039012883 0.13848521 0.10011554 0.32902357 0.032949362 0.66310287
-0.22412527 -0.36789593 -0.5001244 1.6713005 0.44837537 0.23946255 0.85982025 0.65031695
-0.11999685 -0.007277157 0.24526715 -0.19729403 0.16822623 -0.09056759 0.003695089 0.119420454
0.8229149 0.8168662 -0.53663534 1.3922958 0.5785253 0.5809618 0.10315324 0.9629052
-0.11823071 -0.5012794 -0.18986203 0.21613427 0.28392014 0.43279997 0.16821109 0.6890393
-0.79145247 -0.7381453 -0.38757685 -0.4377045 0.2885547 0.11586002 0.24167825 0.37054375
00000000: ccb1 a53d ac46 5e3f 8404 553f 3770 323f
00000010: e9c6 ffbd 3487 653e 072b 51be f916 613f
00000020: 79b2 883e f78d a13d a74f 083d 84e0 e53d
00000030: 5786 8a3c 2503 a3be 9682 9d3d 916a 73bf
00000040: 43c3 2abf a750 14be 9db1 893f ca76 553f
00000050: 7558 9f3e d92c 67bf 7da8 523f e833 43bd
00000060: 407a d53e 5f53 5cbe 5f49 28bf c7c2 0f3e
00000070: 0784 89be 477a debe 5e52 953e 8eda 49bf
00000080: 98b9 dd3a adad 0dbf c2d9 86be f97a 97be
00000090: 8df6 68bf 02c7 ee3c ea84 eb3e 5772 66bf
000000a0: a4e1 283e 9a8a 98bd 6d2c a63f 3206 dbbe
000000b0: f5db 663f 4c88 eb3d acca 073f 9a81 e43d
000000c0: e1b8 95be 268c 0cbe bcad 1e3d 6e3c 8b3e
000000d0: 8b6f 303e d311 103f 2cff 92be 9197 2c3f
000000e0: 8655 4c3e b9e9 47be b38d 1ebd ff87 24bc
000000f0: 4d7d b7be 3a3c 2dbe f246 a33d 8e42 10bf
00000100: bd78 13bf 4add de3c 7b68 273e d9c4 a03e
00000110: fb32 6b3f f436 b63e 69ad 043e ab1d 013f
00000120: 4433 ea3d 09a3 6e3d c08d ba3d 0dce 02bf
00000130: 73e6 80be 3016 83bd 3ef9 863c 7d37 71bf
00000140: 01aa 9fbd 61b0 87bd a395 2b3e 7811 93bd
00000150: b014 ed3e 571e 8cbd 0fa0 9b3d e8a2 80bd
00000160: b4eb bfbd 410f 973d b02e 953d 732d 80bd
00000170: a3eb 103d c988 3d3d 1857 cb3a edf9 8d3d
00000180: 5ed5 82be 823a 283e 136c 803f e6e9 50c0
00000190: 2b14 c03f e7ba 8dbf de12 b63f b03d cdbd
000001a0: d420 a6be 24b0 933d 6437 87bc bbdd a0be
000001b0: f2c8 36be c7e8 15be 742b a13d c8dc 7bbf
000001c0: b05f 00be 4efe b13d 9314 1f3d 1f76 32bc
000001d0: 8d2b 163e 4598 3b3e 9043 cdbb a691 6f3e
000001e0: 60c3 aebf 6f82 1e3e 7656 b0bf 250b b33f
000001f0: 2699 e9be 6726 823e 2c00 e43e 250f 493f
00000200: 2b00 0ebe 3c71 49bf a14a 843d 31db 0fbd
00000210: 5c92 543e dcc4 143f 6aa6 dbbe 9527 ac3f
00000220: 0420 36bf 151d 1a3e 01f1 af3d 7d2b 97bd
00000230: 0e4d 8e3f 37ac 2cbe db32 febd 58e5 073e
00000240: f21e 833f 8260 0cbe 9a78 e8bd 3274 663e
00000250: 213d 7dbf 8106 4fbf 9990 bebe 0d66 d4be
00000260: 8c1d a2bf 6bbd 22bf 2acc 0bbe 72c5 bdbe
00000270: c0f5 84bd f2a9 4c3f 8d8b 4fbf d17e b83f
00000280: c75d 643e f0cf 27be 0a56 803e bb02 b23d
00000290: bcd6 d6be 7f54 1ebd f09d 4ebe 6388 0abf
000002a0: 782e 1a3e 5435 0dbe 669a 73be 036c c53d
000002b0: a243 29bf 339d c3be 8f42 e83e f4ba 11bf
000002c0: ebf4 bc3d 9247 b7bd e5dd 73be ae80 4fbe
000002d0: de91 88be 0e26 04be 4ec9 31be 819b 01bf
000002e0: a64d 063e 353e f7bd 5a54 5c3f 4b9e fb3f
000002f0: 87e4 593f d94c 2cbe 4091 e63e 47aa 273f
00000300: d2b2 cdbd a0f0 78bd 17f8 1ebf a71f 37bf
00000310: fba9 123e 771b 1dbf 2a36 8ebe 3654 2bbf
00000320: 449d 19be 171e 943f dc07 443e 267f 49be
00000330: 8094 a43f c703 f43e 4fe6 3a3d 526f 2c3f
00000340: fd8d 85be 5bbe 3c3d f9cb 1fbd 11cf 0d3e
00000350: 6009 cd3d c775 a83e e9f5 063d 1cc1 293f
00000360: 1881 65be db5c bcbe 2708 00bf 2ded d53f
00000370: 7591 e53e ac35 753e 2e1d 5c3f 2c7b 263f
00000380: e9c0 f5bd 3875 eebb 5027 7b3e 7207 4abe
00000390: 7f43 2c3e 807b b9bd 4e29 723b b692 f43d
000003a0: 8daa 523f 251e 513f ef60 09bf c036 b23f
000003b0: 3c1a 143f eab9 143f 0242 d33d f580 763f
000003c0: f122 f2bd d953 00bf 316b 42be 4d52 5d3e
000003d0: fb5d 913e f597 dd3e 873f 2c3e e164 303f
000003e0: a19c 4abf 17f7 3cbf 7970 c6be ce1a e0be
000003f0: 71bd 933e 0548 ed3d 817a 773e e9b7 bd3e

onnx::Conv_291 f4 [32]
-2.3516946 1.8002836 0.046668112 2.049786 2.6077342 -1.5677307 -1.0309529 0.65926874
-1.9964806 1.4138072 0.65170336 -1.0097158 -1.085249 1.586472 0.19085228 -1.0162699
-2.0243955 -0.44921315 2.1511488 -1.4052134 1.1685821 1.865601 1.0274607 -2.5423703
2.2521489 -3.1552427 -0.99415207 -2.3581274 0.590258 -3.6991756 -1.9708159 -0.13510284
00000000: 2a82 16c0 b16f e63f 1027 3f3d b22f 0340
00000010: 1ee5 2640 66ab c8bf 44f6 83bf d6c5 283f
00000020: ad8c ffbf a2f7 b43f 08d6 263f 5e3e 81bf
00000030: 70e9 8abf 8411 cb3f c86e 433e 2215 82bf
00000040: b28f 01c0 44ff e5be 6cac 0940 08de b3bf
00000050: 1994 953f 03cc ee3f d583 833f 32b6 22c0
00000060: 3523 1040 7fef 49c0 c080 7ebf 8feb 16c0
00000070: 261b 173f 4bbf 6cc0 b243 fcbf 6658 0abe

onnx::Conv_293 f4 [32, 1, 3, 3]
0.04184511 -0.012334276 0.023745667 0.15495972 0.48730785 0.20890628 0.121614225 0.15589625
-0.22499223 -0.5047435 -0.4655409 0.53851795 0.55341715 0.019980986 -1.2856625 -0.18445522
0.39254814 0.6696389 -0.014465405 0.09203218 -0.06992192 0.1850729 0.19674869 0.46584123
-0.39820307 -0.29301813 -0.38992095 -0.38554913 -0.19494072 -0.122214936 -0.07383817 0.29862595
0.35563624 0.24233723 0.39134136 0.25708923 -0.116880074 -0.015671937 0.079045966 0.32849646
0.38071626 0.2414743 0.10914294 0.3953911 0.11816857 0.04655423 0.01761743 0.23671736
0.33904833 -0.10720155 -0.16734947 0.4862984 0.5175257 0.10297478 -0.22094795 0.11716549
0.673006 -0.08507243 0.5399742 0.6656589 -0.06508255 0.07540879 -0.034692504 0.05129941
0.8381324 0.8718401 0.7763346 2.5537174 1.5036948 0.19025894 1.9557041 1.3871784
-0.1207835 -0.21983533 -0.112533934 0.23948747 -0.20120312 -0.12028295 -0.3825559 0.1821812
-0.096095726 -0.0630095 0.15817288 -0.23248112 0.042279378 0.6409363 1.2507893 0.20739332
0.3334577 0.41982636 -0.57122356 0.43125108 1.5297257 -0.9286834 0.005288655 0.29725868
-0.54468536 -0.86580753 -1.4745426 -35.862244 97.33064 117.935844 61.50788 24.960697
75.47051 95.6346 49.56122 70.58264 -0.27719277 0.2757198 0.3547625 -0.092431515
0.3341406 0.06307105 -0.10651124 -0.1729363 -0.28615016 0.2636483 -0.7050125 -1.3149205
-1.4935102 0.0135532785 0.5422662 -0.021003505 1.1259552 1.0112941 -1.0727376 0.30575153
0.76489663 -0.7682661 -0.104690015 1.7240683 -0.9502283 -0.1820894 0.9156664 0.00937248
-0.11681757 -0.058918364 0.059257578 0.13913296 0.06160079 0.016811056 0.26474577 0.69807553
-0.60967696 0.24954157 -0.44990727 0.018048873 0.6550281 -0.44781572 0.2929626 0.7417326
-0.29086128 0.12407839 -0.05509733 -0.01963136 0.19242497 0.20112479 0.1970005 0.050198086
0.106575385 0.21894279 -0.20836909 -0.32107833 0.056159306 -0.27941418 -0.4074265 -0.17019695
-0.050008055 -0.3586994 -0.13501659 -0.03683104 0.13691661 0.46179253 -0.24823564 0.09225828
0.36159623 -0.15291083 0.058963213 0.09357895 -0.62990075 0.076597355 -0.46352684 -0.2555857
-0.7621025 -0.3152251 0.3585882 0.88251054 0.14724223 -0.59862024 -0.26637685 0.26154956
-0.32603067 -0.6096031 0.12070575 -0.67509675 -0.53682745 0.016233245 -1.6036924 -1.2064157
0.074657306 -1.1882823 -0.90807176 -0.40217102 1.4709804 1.4107238 0.18404703 -0.10092275
-0.23131569 -0.24102569 0.0014545713 -0.00034462 -0.105970345 -0.0020408349 -0.33989984 -0.1386362
-0.043718822 -0.40700474 -0.36774805 0.30126303 0.36166933 0.090041615 0.08159402 -0.35876137
-0.33692184 0.13235079 0.12897004 -0.14621334 0.17421088 0.22175127 0.13699247 0.018905742
0.12834132 0.21825017 -0.058454365 0.33936042 0.116122276 0.06978474 0.22712862 0.15943404
0.19170752 0.26116502 0.32721552 -0.28344882 -0.03254808 -0.10506932 -0.66130036 -0.047565907
0.25167847 0.087972686 0.32969296 0.46779418 0.28178063 0.6334534 -0.6434915 -0.5434326
00000000: c765 2b3d b415 4abc 4686 c23c c3ad 1e3e
00000010: 6a80 f93e 87eb 553e e110 f93d 44a3 1f3e
00000020: 5d64 66be df36 01bf 605b eebe 50dc 093f
00000030: bfac 0d3f 2aaf a33c 9790 a4bf d4e1 3cbe
00000040: 12fc c83e 746d 2b3f 4e00 6dbc 5e7b bc3d
00000050: 3933 8fbd c083 3d3e 7d78 493e be82 ee3e
00000060: 46e1 cbbe 7906 96be b8a3 c7be b266 c5be
00000070: 8a9e 47be d34b fabd 7738 97bd 80e5 983e
00000080: f415 b63e 4027 783e e55d c83e 33a1 833e
00000090: d25e efbd 6f62 80bc dae2 a13d b030 a83e
000000a0: 3eed c23e 0a45 773e 5586 df3d b470 ca3e
000000b0: 5d02 f23d a6af 3e3d 6e52 903c 0966 723e
000000c0: be97 ad3e 7c8c dbbd a95d 2bbe 1bfc f83e
000000d0: 907c 043f 71e4 d23d 2e40 62be 76f4 ef3d
000000e0: 1f4a 2c3f 743a aebd c03b 0a3f 9f68 2a3f
000000f0: 004a 85bd ec6f 9a3d ba19 0ebd 551f 523d
00000100: d88f 563f ea30 5f3f ddbd 463f 1b70 2340
00000110: 1279 c03f 3dd3 423e 8354 fa3f 108f b13f
00000120: 575d f7bd 831c 61be 3178 e6bd 343c 753e
00000130: 3108 4ebe e856 f6bd 5ede c3be b58d 3a3e
00000140: d6cd c4bd 200b 81bd 12f8 213e 880f 6ebe
00000150: 242d 2d3d 6714 243f dd19 a03f ea5e 543e
00000160: f8ba aa3e 7bf3 d63e b53b 12bf f1cc dc3e
00000170: 0dce c33f 32be 6dbf 744c ad3b 4a32 983e
00000180: 8070 0bbf 90a5 5dbf d0bd bcbf f072 0fc2
00000190: 4aa9 c242 27df eb42 1208 7642 82af c741
000001a0: e7f0 9642 ea44 bf42 b03e 4642 502a 8d42
000001b0: 36ec 8dbe 252b 8d3e 6ea3 b53e bc4c bdbd
000001c0: 7a14 ab3e 652b 813d 9122 dabd 3716 31be
000001d0: 4682 92be e9fc 863e b37b 34bf 514f a8bf
000001e0: 582b bfbf 920e 5e3c f5d1 0a3f 8b0f acbc
000001f0: 4d1f 903f 1672 813f 774f 89bf 778b 9c3e
00000200: 44d0 433f 16ad 44bf b867 d6bd 45ae dc3f
00000210: 2942 73bf a575 3abe 1d69 6a3f 088f 193c
00000220: 0d3e efbd 6254 71bd 13b8 723d df78 0e3e
00000230: 1c51 7c3d 57b7 893c c28c 873e 14b5 323f
00000240: ca13 1cbf d387 7f3e 3f5a e6be 3bdb 933c
00000250: ecaf 273f 1a48 e5be 32ff 953e 30e2 3d3f
00000260: c5eb 94be d01c fe3d bdad 61bd f2d1 a0bc
00000270: 0d0b 453e a8f3 4d3e 80ba 493e 829c 4d3d
00000280: 3244 da3d 8a32 603e b55e 55be 6164 a4be
00000290: 4d07 663d 600f 8fbe 359a d0be 1c48 2ebe
000002a0: 3fd5 4cbd 73a7 b7be ca41 0abe 25dc 16bd
000002b0: de33 0c3e 1270 ec3e 7c31 7ebe e9f1 bc3d
000002c0: 2423 b93e a894 1cbe 6983 713d 52a6 bf3d
000002d0: 2d41 21bf 13df 9c3d 6453 edbe 21dc 82be
000002e0: 2619 43bf 2f65 a1be df98 b73e 36ec 613f
000002f0: abc6 163e 2d3f 19bf 8c62 88be d3e9 853e
00000300: 7eed a6be f30e 1cbf 9434 f73d 24d3 2cbf
00000310: 866d 09bf 95fb 843c cb45 cdbf d46b 9abf
00000320: eee5 983d a219 98bf 6477 68bf 5ce9 cdbe
00000330: 1649 bc3f 9992 b43f d376 3c3e 96b0 cebd
00000340: 05de 6cbe 70cf 76be 50a7 be3a 1dae b4b9
00000350: fb06 d9bd 87bf 05bb 5a07 aebe a6f6 0dbe
00000360: 8212 33bd ed62 d0be 7949 bcbe 263f 9a3e
00000370: b92c b93e bd67 b83d c41a a73d 92af b7be
00000380: 0581 acbe f786 073e b910 043e f3b8 15be
00000390: 5664 323e c412 633e c147 0c3e 37e0 9a3c
000003a0: e86b 033e f97c 5f3e d86d 6fbd a6c0 ad3e
000003b0: 84d1 ed3d 4deb 8e3d 6894 683e ad42 233e
000003c0: fa4e 443e 6cb7 853e cb88 a73e 3420 91be
000003d0: 2351 05bd 952e d7bd fb4a 29bf 78d4 42bd
000003e0: 00dc 803e 062b b43d 84cd a83e b882 ef3e
000003f0: 8d45 903e 012a 223f dcbb 24bf 661e 0bbf

onnx::Conv_294 f4 [32]
-0.8546154 0.039824396 -0.0971401 0.05711633 -1.0261114 -0.4109457 0.22269154 -0.25243104
0.32645506 -1.1116531 1.8156087 -0.20734529 0.5261213 -0.012890443 -0.741204 0.030347764
-0.5574431 -0.3654604 1.576333 -0.018643498 -0.09257898 2.221158 -0.09577665 1.1086414
-0.47003335 -0.5361811 -0.35101634 -0.011717498 -2.8858762 0.6409653 -0.67798346 -0.6974789
00000000: 13c8 5abf e81e 233d 64f1 c6bd d0f2 693d
00000010: 9e57 83bf 7a67 d2be 4009 643e a43e 81be
00000020: 1e25 a73e a64a 8ebf de65 e83f 5352 54be
00000030: e3af 063f 7032 53bc 8cbf 3dbf e09b f83c
00000040: 97b4 0ebf a01d bbbe 48c5 c93f 40ba 98bc
00000050: 0c9a bdbd 7427 0e40 8c26 c4bd f6e7 8d3f
00000060: 36a8 f0be 2a43 09bf 6ab8 b3be c0fa 3fbc
00000070: 32b2 38c0 4d16 243f 5390 2dbf fa8d 32bf

onnx::Conv_296 f4 [8, 32, 1, 1]
-0.06804285 -0.055911094 -0.23216075 -0.2930877 -0.17643072 0.22330552 -0.05863062 -0.22268246
0.06177492 0.16354081 -0.2788144 0.105842665 -0.09446623 8.055023e-05 0.016180398 -0.026718639
-0.026135884 0.13984099 0.26693764 0.04390737 0.033410713 0.16993982 -0.06962622 0.12694974
0.085290566 0.18305826 0.032107458 0.07762202 0.119326405 0.05159686 -0.023100547 0.12815635
0.038476635 0.022765916 0.026515145 0.068685375 0.14549644 -0.017682888 0.020209398 0.23982471
0.07705032 0.09651109 -0.028714713 0.0042788195 -0.0055482797 -0.015318463 -0.06317893 -0.11558342
-0.021026816 0.07100226 -0.009609345 -0.04767146 -0.011786136 -0.17898369 0.029391525 0.040748052
0.04362626 0.034138966 -0.11718939 -0.059907824 0.07135452 0.097687215 0.009325006 -0.10350247
0.07534214 0.11560498 0.043924134 -0.04281036 -0.1528229 -0.022091618 0.36531952 -0.1666781
-0.07488362 -0.11094346 0.03421924 0.0946568 -0.18876472 0.022495847 0.2118931 0.010651303
0.2286926 0.061651353 0.078823 0.3018575 0.0719403 0.08125376 0.034903504 -0.035126705
-0.063654654 0.21210355 0.24191429 0.053536605 0.016727686 -0.15884411 0.2135406 0.084082544
-0.0011767669 0.40912843 -0.13811617 0.32258648 -0.00616046 -0.1702489 0.19408739 0.2705055
-0.09035822 0.16302064 0.0048692957 -0.13468742 -0.21598016 0.30698872 -0.14861651 0.18684743
-0.2867905 -0.29168183 -0.30112374 -0.043130074 0.2989696 -0.17329718 0.3615221 -0.34866163
-0.17500564 -0.2224051 -0.13810034 -0.11056369 -0.55450684 -0.20811944 0.045253206 -0.11038053
0.14793019 0.022178045 0.05250401 -0.044421937 -0.05554848 -0.039557517 0.16397896 -0.1447725
-0.03996296 -0.12286305 0.18869083 0.013990111 0.056085687 0.03481816 0.14085034 0.085173264
0.04084726 0.094062895 0.06389884 0.07174578 0.014526705 0.1688239 -0.0452233 -0.021778932
0.03932172 0.060304902 -0.042392552 0.008411338 0.021548193 -0.002667304 -0.04490258 0.008607483
0.19255444 -0.043096848 0.20941406 -0.061431788 -0.032967903 -0.31396222 0.1506757 -0.13490365
6.677922e-05 0.061816778 0.19704115 0.029906267 0.30064747 -0.0011947254 0.041851748 0.33710122
0.043847755 -0.072375484 0.07366582 0.099782504 -0.03110282 0.10623187 -0.08661784 -0.087654434
0.06436553 -0.12789 0.06350467 0.19600776 0.03245385 0.030664157 -0.06203331 -0.048021495
-0.044054333 -0.0005695667 -0.034099866 0.008446975 0.030714769 0.013469015 -0.099691294 0.17590694
0.036384862 0.15681916 -0.18173404 -0.022589246 -0.092672415 -0.025392486 -0.14256729 -0.012688127
-0.10000108 0.023927331 -0.04348939 -0.04077908 -0.040307317 -0.11336897 -0.04278467 0.12453853
-0.04275094 -0.010674767 -0.0464553 -0.0017696923 -0.023607645 0.047415353 0.021195715 -0.04820295
0.067874335 0.058767498 0.0029056065 -0.02687873 -0.11678691 0.029886352 0.16011019 -0.19573964
-0.046822503 -0.066085525 0.12095217 0.073075436 0.0033907108 0.028604953 0.11948761 0.124437876
0.1855838 0.0018579738 -0.07488483 0.15295058 0.07357252 0.10431432 0.026912745 -0.045500103
0.0345042 0.11345438 0.116730206 0.123713575 -0.009878956 -0.07847219 0.0020258522 0.019756192
00000000: 0d5a 8bbd 0803 65bd 8cbb 6dbe 970f 96be
00000010: 41aa 34be 34aa 643e a926 70bd df06 64be
00000020: b307 7d3d 3e77 273e c3c0 8ebe 0ac4 d83d
00000030: 8377 c1bd 13ed a838 c18c 843c 0ce1 dabc
00000040: ec1a d6bc 7a32 0f3e 0dac 883e 37d8 333d
00000050: acd9 083d b404 2e3e 3198 8ebd 1dff 013e
00000060: d2ac ae3d a073 3b3e 1c83 033d 4bf8 9e3d
00000070: 6761 f43d 3b57 533d 5c3d bdbc 6b3b 033e
00000080: ad99 1d3d 967f ba3c 4a36 d93c ebaa 8c3d
00000090: 05fd 143e b4db 90bc 2e8e a53c 9c94 753e
000000a0: 8fcc 9d3d 9ba7 c53d 1e3b ebbc 5735 8c3b
000000b0: 58ce b5bb 4afa 7abc f463 81bd 00b7 ecbd
000000c0: 6e40 acbc a269 913d 8470 1dbc 2643 43bd
000000d0: a31a 41bc 8047 37be 7fc6 f03c 6ee7 263d
000000e0: 73b1 323d 4dd5 0b3d fe00 f0bd e861 75bd
000000f0: 5222 923d 3c10 c83d e9c7 183c 1af9 d3bd
00000100: fb4c 9a3d 4ec2 ec3d cbe9 333d eb59 2fbd
00000110: 9b7d 1cbe 7bf9 b4bc 290b bb3e aaad 2abe
00000120: 955c 99bd 5336 e3bd 7929 0c3d 6ddb c13d
00000130: 8a4b 41be 3649 b83c 81fa 583e ce82 2e3c
00000140: 652e 6a3e 2186 7c3d f46d a13d 118d 9a3e
00000150: 7055 933d 5f68 a63d faf6 0e3d 05e1 0fbd
00000160: 5f5d 82bd ac31 593e 61b8 773e 3349 5b3d
00000170: 8008 893c 08a8 22be 63aa 5a3e 7833 ac3d
00000180: bf3d 9aba 4879 d13e 536e 0dbe 0e2a a53e
00000190: afdd c9bb ba55 2ebe d8be 463e b27f 8a3e
000001a0: bb0d b9bd e2ee 263e 9d8e 9f3b 80eb 09be
000001b0: e729 5dbe a02d 9d3e ed2e 18be ef54 3f3e
000001c0: 34d6 92be 5257 95be e42c 9abe 29a9 30bd
000001d0: 8b12 993e d174 31be 6d19 b93e c783 b2be
000001e0: ae34 33be 2abe 63be 2d6a 0dbe 376f e2bd
000001f0: 29f4 0dbf 431d 55be 6d5b 393d 300f e2bd
00000200: 037b 173e bbae b53c 720e 573d c7f3 35bd
00000210: ce86 63bd 1007 22bd 1aea 273e 3e3f 14be
00000220: 33b0 23bd 9f9f fbbd 2b38 413e c736 653c
00000230: 1bba 653d 7d9d 0e3d 123b 103e 526f ae3d
00000240: 754f 273d 0ca4 c03d 65dd 823d 74ef 923d
00000250: 6b01 6e3c 2ce0 2c3e 113c 39bd bb69 b2bc
00000260: d00f 213d 4602 773d d0a3 2dbd b5cf 093c
00000270: d685 b03c efcd 2ebb c5eb 37bd 6606 0d3c
00000280: fe2c 453e 5286 30bd a470 563e e69f 7bbd
00000290: 5a09 07bd a8bf a0be bb4a 1a3e 2f24 0abe
000002a0: d20b 8c38 9733 7d3d 28c5 493e fdfd f43c
000002b0: 77ee 993e 5598 9cba bd6c 2b3d 8898 ac3e
000002c0: b499 333d 9939 94bd 1bde 963d c55a cc3d
000002d0: 57cb febc 1890 d93d b264 b1bd 2b84 b3bd
000002e0: 13d2 833d 99f5 02be bd0e 823d 42b6 483e
000002f0: 54ee 043d 6633 fb3c a416 7ebd 30b2 44bd
00000300: 5172 34bd f94e 15ba 4dac 0bbd 2e65 0a3c
00000310: 8a9d fb3c 25ad 5c3c f32a ccbd f320 343e
00000320: 4b08 153d 3495 203e 7d18 3abe 150d b9bc
00000330: 09cb bdbd e703 d0bc 29fd 11be dde1 4fbc
00000340: 5ecd ccbd 4003 c43c ee21 32bd f707 27bd
00000350: 4919 25bd fe2d e8bd fa3e 2fbd 0f0e ff3d
00000360: 9c1b 2fbd 38e5 2ebc ea47 3ebd 05f5 e7ba
00000370: d264 c1bc 9a36 423d a3a2 ad3c 7570 45bd
00000380: b301 8b3d 30b6 703d fd6b 3e3b c830 dcbc
00000390: fa2d efbd 39d4 f43c edf3 233e f96f 48be
000003a0: f4c8 3fbd d957 87bd c5b5 f73d 93a8 953d
000003b0: b036 5e3b ef54 ea3c ecb5 f43d 49d9 fe3d
000003c0: ae09 3e3e 4187 f33a 385d 99bd 149f 1c3e
000003d0: 30ad 963d bfa2 d53d 1e78 dc3c 515e 3abd
000003e0: 4754 0d3d c55a e83d 3f10 ef3d 8b5d fd3d
000003f0: 58db 21bc 07b6 a0bd 29c4 043b bdd7 a13c

onnx::Conv_297 f4 [8]
0.06683807 -0.10563089 -0.9665309 0.5826111 -0.5729237 -0.8816714 0.31567344 -0.5608634
00000000: 66e2 883d 0255 d8bd 926e 77bf 0026 153f
00000010: 21ab 12bf 38b5 61bf f39f a13e be94 0fbf

onnx::Conv_299 f4 [32, 8, 1, 1]
-0.07262565 -0.05494457 -0.032067128 0.030465147 -0.21768112 -0.06509576 0.019389866 -0.17553465
-0.05803697 0.1545849 -0.1012363 0.2096346 0.006778545 -0.018063683 -0.08309893 -0.053366095
1.0121881 -0.025666418 0.378566 -0.19460364 0.25095853 -0.968965 0.06715683 -0.1752293
-0.060808472 -0.090265825 0.29196537 -0.083676964 0.14796194 -0.08406067 -0.11821347 0.3723587
0.059085358 -0.10455197 0.69188017 -0.13012627 -0.08563013 -0.023444097 -0.250253 0.11705653
-0.110321 0.020638257 -0.056688406 0.058507554 -0.0389472 -0.029349072 0.00046707937 0.02238042
0.09931307 0.3394386 0.2042818 -0.092224255 -0.061524387 -0.51712877 0.5672919 -0.48843697
0.785643 0.20674019 0.39356297 0.81481236 -0.49633613 -0.90933293 0.36116505 0.13640265
0.0064826435 0.3541466 -0.3233252 -0.20521513 -0.033053193 -0.11306713 0.3561221 -0.3878447
0.18621638 -0.14213662 -0.011875757 -0.06894721 -0.05928929 -0.06948739 -0.005346971 -0.05246513
0.5651669 -0.0060336627 -0.0750775 0.5608518 0.040874094 -0.48245236 0.18355659 -0.32864034
-0.2357223 0.24527743 0.57309043 -0.1422735 0.21783279 0.36931193 -0.22852884 0.5516403
0.18204975 0.11020036 0.14441188 -0.02526497 0.021913387 -0.16584027 0.044882722 0.053983096
0.569448 0.32979357 -0.46381763 -0.003543536 -0.19329926 0.32684386 0.07822354 -0.709638
-0.63665783 -0.5629853 0.111812524 0.7485998 0.2851995 0.36425224 -0.5814076 0.034841657
-0.011021847 0.7782053 -0.83399075 -0.13366857 0.47717214 2.0942862 0.40834114 0.45014346
-0.34267488 -0.39135933 0.82256866 0.61215454 0.6336051 -0.58499396 0.16454792 0.71182394
0.17632869 -0.008184947 0.16785619 -0.25281695 0.26401493 0.013114422 0.024890147 0.17570011
0.0765856 0.19222517 0.23356485 -0.054531105 0.3143681 -0.020129776 0.11254948 0.23980519
-0.7060889 -0.1797511 0.35991627 0.621507 0.18806386 0.46209484 0.018101297 0.054798376
-0.13889123 0.23502314 0.06689277 0.5297982 -0.22969918 -0.2695067 0.36137757 0.03011903
-0.0460301 -0.04770887 0.7183776 0.6887196 0.12889832 -0.646808 -0.25522238 0.58132493
-0.54101765 0.18976419 0.76037276 0.18594939 0.6533425 0.64776653 -0.012839476 0.25989822
0.13619788 -0.2770246 0.46780083 0.039325148 0.33902803 0.2794267 -0.17760071 0.089324646
-0.21556383 0.0053413846 -0.14975178 0.41416848 -0.091861546 -0.13993269 0.7616163 0.9053216
-0.18688996 0.26351216 -0.11205281 0.08528803 0.0096551785 0.12617718 0.13240892 -0.10854804
-0.019820718 0.0831232 0.23706502 0.07226969 0.10345599 0.035248622 -0.10819893 0.11262745
-0.11453554 0.08055768 -0.1297421 -0.06272166 0.055659097 0.12619299 0.30487195 -0.24770188
-0.10965053 -0.04381451 0.08447027 -0.045602586 0.2362198 0.4205972 0.02777336 0.06927649
-0.10147974 -0.06242083 0.6814553 0.17696847 0.062075004 -0.010352676 0.05921738 0.32298645
0.16914281 0.17086236 0.27113098 -0.22417633 -0.03700291 -0.09100855 0.071572125 0.047646206
0.20564227 -0.14440669 0.08523467 -0.2157797 -0.093465455 0.22680886 -0.1640389 0.18317008
00000000: c2bc 94bd 8f0d 61bd d258 03bd 0b92 f93c
00000010: cde7 5ebe ed50 85bd 7fd7 9e3c 5bbf 33be
00000020: 2db8 6dbd 814b 1e3e fa54 cfbd 74aa 563e
00000030: 8f1e de3b 4afa 93bc c62f aabd 6896 5abd
00000040: 618f 813f 6142 d2bc 67d3 c13e 2d46 47be
00000050: a37d 803e 170e 78bf 8589 893d 4f6f 33be
00000060: 4e12 79bd 4add b8bd 7c7c 953e d45e abbd
00000070: 5683 173e 0028 acbd e719 f2bd cda5 be3e
00000080: 7d03 723d 581f d6bd 0f1f 313f d23f 05be
00000090: d95e afbd d60d c0bc 2921 80be 56bb ef3d
000000a0: faef e1bd 9011 a93c 1a32 68bd 9ea5 6f3d
000000b0: 1987 1fbd 776d f0bc 55e2 f439 2457 b73c
000000c0: a764 cb3d e5ca ad3e 402f 513e 12e0 bcbd
000000d0: ff00 7cbd 8d62 04bf 0b3a 113f 6914 fabe
000000e0: e61f 493f b3b3 533e 1681 c93e 8b97 503f
000000f0: c51f febe 0bca 68bf a0ea b83e 23ad 0b3e
00000100: 5b6c d43b b452 b53e e18a a5be ea23 52be
00000110: c962 07bd bd8f e7bd a355 b63e 9593 c6be
00000120: 82af 3e3e 438c 11be 8992 42bc 3234 8dbd
00000130: 54d9 72bd 684f 8ebd a535 afbb ade5 56bd
00000140: c7ae 103f 08b6 c5bb 3bc2 99bd fc93 0f3f
00000150: 986b 273d ff03 f7be 42f6 3b3e 8c43 a8be
00000160: 3061 71be 022a 7b3e 0eb6 123f 25b0 11be
00000170: 8f0f 5f3e 7416 bd3e 7703 6abe 4c38 0d3f
00000180: 406b 3a3e bab0 e13d b5e0 133e 7bf8 cebc
00000190: b483 b33c 08d2 29be f2d6 373d 611d 5d3d
000001a0: 58c7 113f b4da a83e 8179 edbe ab3a 68bb
000001b0: 3ef0 45be 1458 a73e aa33 a03d d6aa 35bf
000001c0: 02fc 22bf ce1f 10bf f7fd e43d 3da4 3f3f
000001d0: ab05 923e 457f ba3e 21d7 14bf 20b6 0e3d
000001e0: fa94 34bc 7638 473f 6b80 55bf 6ae0 08be
000001f0: e84f f43e c908 0640 1712 d13e 3479 e63e
00000200: 1573 afbe 4060 c8be dc93 523f 29b6 1c3f
00000210: f233 223f 2ac2 15bf 407f 283e 183a 363f
00000220: 828f 343e 281a 06bc 7ee2 2b3e 3971 81be
00000230: f72c 873e dfdd 563c 6ce6 cb3c bbea 333e
00000240: e9d8 9c3d add6 443e a02b 6f3e 025c 5fbd
00000250: dbf4 a03e 33e7 a4bc 5780 e63d 7e8f 753e
00000260: 3ec2 34bf ac10 38be f246 b83e 151b 1f3f
00000270: d093 403e b297 ec3e 2c49 943c 4374 603d
00000280: 8139 0ebe e8a9 703e 14ff 883d dba0 073f
00000290: 4336 6bbe c8fc 89be 7b06 b93e 2fbc f63c
000002a0: 0f8a 3cbd 606a 43bd 98e7 373f ed4f 303f
000002b0: ecfd 033e 3695 25bf 82ac 82be b6d1 143f
000002c0: 2280 0abf 8b51 423e caa7 423f 8469 3e3e
000002d0: 7441 273f 07d4 253f aa5c 52bc 6111 853e
000002e0: 7577 0b3e 2bd6 8dbe 9783 ef3e 6813 213d
000002f0: 1595 ad3e 0411 8f3e f6dc 35be d7ef b63d
00000300: c4bc 5cbe c806 af3b 8858 19be e40d d43e
00000310: e821 bcbd 844a 0fbe 49f9 423f 28c3 673f
00000320: 1560 3fbe 11eb 863e f27b e5bd 7eab ae3d
00000330: c130 1e3c 9734 013e 3496 073e 6f4e debd
00000340: 0f5f a2bc 7f3c aa3d 2cc1 723e 2202 943d
00000350: bce0 d33d dc60 103d 6797 ddbd 38a9 e63d
00000360: 9c91 eabd 6dfb a43d 1ddb 04be 3774 80bd
00000370: cbfa 633d bc38 013e 2d18 9c3e 90a5 7dbe
00000380: 7590 e0bd d876 33bd c0fe ac3d c7c9 3abd
00000390: 9ae3 713e 8458 d73e f584 e33c d5e0 8d3d
000003a0: 9cd4 cfbd fcac 7fbd db73 2e3f 3937 353e
000003b0: 5c42 7e3d 459e 29bc ec8d 723d 7b5e a53e
000003c0: c633 2d3e 8bf6 2e3e aed1 8a3e 7b8e 65be
000003d0: 5d90 17bd b162 babd 6894 923d ab28 433d
000003e0: e393 523e 59df 13be 848f ae3d 5bf5 5cbe
000003f0: d16a bfbd 9540 683e d0f9 27be f090 3b3e

onnx::Conv_300 f4 [32]
0.42471853 -0.29497552 0.02563193 0.3980629 0.38633093 -0.91906726 -0.17527741 -0.11991523
-0.04086599 0.8220805 -0.4174773 -0.082036644 -0.85971457 0.0033484465 0.25727084 -0.09838164
-0.11776565 0.0750913 0.07848712 0.27479178 0.09285494 -0.16167516 0.037632264 -0.018325754
-0.19501375 -0.5980883 0.90384305 0.64658767 -0.4902596 0.55986 0.45639202 0.32410166
00000000: b574 d93e 0807 97be 0efa d13c e7ce cb3e
00000010: 2bcd c53e fe47 6bbf ec7b 33be 1e96 f5bd
00000020: 1963 27bd de73 523f 96bf d5be d402 a8bd
00000030: 4116 5cbf 9c71 5b3b 01b9 833e 507c c9bd
00000040: 1e2f f1bd 78c9 993d dbbd a03d 82b1 8c3e
00000050: bb2a be3d 2c8e 25be 4a24 1a3d e41f 96bc
00000060: afb1 47be 511c 19bf 4262 673f c586 253f
00000070: 4e03 fbbe fc52 0f3f 37ac e93e a7f0 a53e
