model_checkpoints/experiments/overall/fastscnn_512a0.125t2r2pp0_noinit.onnx (onnx, 34288 bytes, 63 tensors)

feature_fusion.conv_high_res.weight f4 [16, 8, 1, 1]
0	0x3f1154f5	0.5677026
1	0x3e9fd99a	0.31220704
2	0xbfeb7d68	-1.8397646
3	0xbe3abef3	-0.18236904
4	0xbe724bfe	-0.23661801
5	0xbd445cb4	-0.04793997
6	0x3e1ac5cb	0.15114515
7	0x3f291a9f	0.66056246
8	0x3eb3e4b2	0.35135418
9	0x3ec52920	0.38507938
10	0x3e1c98bd	0.1529264
11	0xbf004179	-0.50099903
12	0xbfc53448	-1.540658
13	0xbe7089bb	-0.2349004
14	0xbf8717ec	-1.0554175
15	0x3f2ee732	0.68321526
16	0xbf529314	-0.82255673
17	0x3f7c5fb8	0.98583555
18	0xbf4940c4	-0.7861445
19	0xbf70a291	-0.93998057
20	0xbeb88853	-0.36041507
21	0xbeb1e33d	-0.34743682
22	0x3f233ab2	0.63761437
23	0x3f49a80c	0.78772044
24	0x3eb80553	0.35941562
25	0x3f85c9ad	1.0452172
26	0x3e65433c	0.22388929
27	0xbf6ef5ae	-0.9334363
28	0x3d85097f	0.06495952
29	0xbf6d9f3e	-0.9282111
30	0xbebd858b	-0.37015948
31	0xbf20ff70	-0.62889767
32	0xbe48fed8	-0.19628465
33	0x3f32668a	0.6968771
34	0xbec0a43b	-0.37625298
35	0x3ee38a39	0.44441393
36	0xbcc61711	-0.02418092
37	0xbf014e11	-0.50509745
38	0x3dcc14d6	0.09964912
39	0xbd91336a	-0.070898846
40	0x3eab2392	0.33425575
41	0xbf211e70	-0.6293707
42	0x3f519bff	0.81878656
43	0x3f834b5c	1.0257373
44	0x3f944b07	1.1585397
45	0x3f774fad	0.9660595
46	0x3d9326ee	0.071851596
47	0xbf03ec6d	-0.5153263
48	0x3e34632a	0.17615953
49	0x3f1b225a	0.6059929
50	0x3e90da85	0.28291717
51	0xbf177df7	-0.5917658
52	0xbeebe353	-0.46071872
53	0xbf860ed6	-1.0473278
54	0xbf8bb9c9	-1.0916072
55	0x3e441416	0.19148287
56	0xbf1afcab	-0.6054179
57	0x3f72e26b	0.94876736
58	0xbd012362	-0.031527884
59	0xbe41a942	-0.18912223
60	0x3ee71fd7	0.4514148
61	0x3f33f916	0.7030195
62	0xbd39d3ef	-0.04536813
63	0x3e764f69	0.2405373
64	0x3e6d49fe	0.23172757
65	0x3c28ca4a	0.010302136
66	0xbf8caa17	-1.0989407
67	0xbf4e42e4	-0.80570817
68	0x3fd9b100	1.7007141
69	0x3d85d4c8	0.065347254
70	0xbe38056f	-0.17970823
71	0xbeb879a6	-0.3603031
72	0x3f73eedb	0.9528634
73	0x3f25b708	0.6473241
74	0xbf1caa15	-0.61197025
75	0xbe878e2e	-0.26475662
76	0x3df73e5e	0.120724425
77	0x3f47f7f7	0.7811274
78	0xbf202fbc	-0.62572837
79	0x3c46e24e	0.012138916
80	0x3f4eee69	0.80832535
81	0x3f0f7bbe	0.5604819
82	0x3f8d0891	1.1018239
83	0xbee1697d	-0.44025794
84	0xbe92f10a	-0.28699523
85	0xbf79c1f3	-0.9756157
86	0xbfa2f7a2	-1.2731822
87	0xbf185d1d	-0.5951708
88	0xbd9048b1	-0.07045115
89	0xbf26c3bd	-0.6514242
90	0xbf801e9e	-1.0009344
91	0x3f2d7603	0.67758197
92	0x3e213b79	0.15745343
93	0xbf6f6cc7	-0.93525356
94	0x3ed55291	0.41664556
95	0x3ef3c176	0.47608536
96	0xc03599cd	-2.8375123
97	0xbe7e40f6	-0.24829468
98	0xbf1b6a4f	-0.6070909
99	0xbeef620a	-0.46754485
100	0x3e955963	0.2916976
101	0x3e968f3b	0.2940615
102	0x3f2fc24b	0.6865584
103	0xbe584f03	-0.2112389
104	0xbf860bc5	-1.0472342
105	0xbee24386	-0.4419214
106	0xbcbe685a	-0.023243118
107	0x3f829522	1.0201762
108	0x3dbe9d78	0.093073785
109	0x3f0cbc0b	0.5497443
110	0x3eebf389	0.4608424
111	0xbe7315cd	-0.23738785
112	0xbdf285d4	-0.11841932
113	0x3e338a3b	0.175332
114	0xc0566058	-3.3496304
115	0xbf09715b	-0.5368859
116	0x3d846b30	0.06465757
117	0x3ddf7a11	0.10911954
118	0x3ea24f6f	0.31701228
119	0x3f4025a3	0.7505743
120	0xbf292bad	-0.6608227
121	0x3cc32e54	0.023825802
122	0x3f18be49	0.5966535
123	0xbd9e4d89	-0.077296324
124	0x3f4da650	0.803319
125	0x3e9df39e	0.30849928
126	0xbe71de6f	-0.23620008
127	0xc026a841	-2.6040194

feature_fusion.conv_high_res.bias f4 [16]
0	0xbd581247	-0.052751806
1	0xbd845d0f	-0.06463062
2	0x3ee6ed0b	0.45102724
3	0x3e0412ea	0.1289784
4	0x3f3c124b	0.7346541
5	0xbf198353	-0.5996601
6	0xbeaafe6b	-0.3339723
7	0xbdb90264	-0.09033659
8	0x3e2311a4	0.15924698
9	0xbf94c9c7	-1.1624078
10	0xbe528e31	-0.20562054
11	0x3e7f8682	0.24953654
12	0x3faf1dc7	1.3680962
13	0xbea8109e	-0.32825178
14	0xbe33e0ac	-0.17566174
15	0xbd2e6c52	-0.04258377

feature_fusion.conv_low_res.weight f4 [16, 16, 1, 1]
0	0xbff3f209	-1.9058238
1	0xbfc377db	-1.5270952
2	0x3ddd4f58	0.10806149
3	0x3d17ffa8	0.037109047
4	0xbf1c4149	-0.6103712
5	0xbf0fc253	-0.5615589
6	0xbf374146	-0.71583974
7	0xbf559491	-0.8342982
8	0xbec66b6e	-0.38753837
9	0x3e0a5583	0.13509183
10	0xbd825fc4	-0.06365922
11	0xbec2ca96	-0.38045186
12	0xbc3cc77e	-0.011522172
13	0xbeae7295	-0.34071794
14	0x3f072ea5	0.5280555
15	0xbdebb3d7	-0.11508911
16	0x3cf897b0	0.030345768
17	0xbec49e5c	-0.3840207
18	0x3f12d2e5	0.5735305
19	0xbf239600	-0.63900757
20	0xbd5e7964	-0.054314986
21	0x3c2fb2a3	0.010723743
22	0x3e82bdcc	0.2553543
23	0x3f427cff	0.7597198
24	0xbf29ee8f	-0.66379637
25	0x38031c43	3.1259155e-05
26	0xbedb993d	-0.4289035
27	0xbf28ad0e	-0.6588906
28	0x3eea7a6d	0.45796528
29	0xbf141d69	-0.57857376
30	0x3f186318	0.59526205
31	0x3e4d65f4	0.20058423
32	0x3f30cce7	0.69062656
33	0xbd33564a	-0.043783464
34	0x3e733899	0.23752059
35	0xbf1e48c1	-0.61829764
36	0xbf0af06f	-0.5427312
37	0xbe6cca2e	-0.23124
38	0xbe53da43	-0.20688729
39	0x3e42bf36	0.19018254
40	0x3d0a83a5	0.033816952
41	0x3e54fdfd	0.20800014
42	0x3f148a28	0.5802331
43	0xbf566f6d	-0.8376377
44	0x3f363ce0	0.7118664
45	0xbf037bf0	-0.5136099
46	0x3e5cdb92	0.21568134
47	0xbf304d9b	-0.68868417
48	0x3ea89b53	0.32931003
49	0xbeb04ac7	-0.3443205
50	0x3f151511	0.5823527
51	0xbf50b4a7	-0.81525654
52	0xbf2b2aac	-0.6686199
53	0xbed15e39	-0.408922
54	0xbfae002c	-1.3593802
55	0x3ec5b7d3	0.3861681
56	0xbf11a176	-0.56886995
57	0xbf0e50f4	-0.55592275
58	0x3f16e052	0.58936036
59	0xbf418e84	-0.75608087
60	0x3e8a79fa	0.27046186
61	0x3e6d0805	0.2314759
62	0x3f2634e2	0.6492444
63	0xbe919238	-0.2843187
64	0x3efed3b5	0.49770895
65	0xbfb72ada	-1.4309952
66	0x3f85f681	1.0465852
67	0xbdef55b4	-0.116862684
68	0xbf9dda15	-1.2332178
69	0x3eb56339	0.35427263
70	0xbf0e0408	-0.554749
71	0x3f2d3754	0.6766255
72	0x3ebda153	0.37037143
73	0x3e95e9c5	0.29279914
74	0xbe1ab854	-0.15109378
75	0xbf58406e	-0.8447331
76	0xbed0218f	-0.40650603
77	0x3f3f3063	0.7468321
78	0xbde272c3	-0.11057045
79	0x3f845d50	1.0340977
80	0xbe8bc2f1	-0.27297166
81	0x3e78cb59	0.24296321
82	0xbe86d24b	-0.26332316
83	0xbe99994e	-0.29999775
84	0xbfbfeb81	-1.4993745
85	0xbdb5091f	-0.0883963
86	0xbfec38db	-1.8454851
87	0xbee2dd9d	-0.44309703
88	0x3da6f131	0.08151472
89	0x3ef998e0	0.48749447
90	0xbe753c9b	-0.239489
91	0xbd970f99	-0.07376022
92	0xbee18e24	-0.44053757
93	0xbd498965	-0.049203295
94	0xbf00ba22	-0.50284016
95	0x3f181885	0.59412414
96	0x3f246475	0.64215785
97	0x3e05504d	0.13018914
98	0x3d9ccf33	0.076567076
99	0x3b9f652a	0.0048643546
100	0xbe9d221f	-0.30690095
101	0x3ddbc538	0.10730976
102	0xbf030194	-0.51174283
103	0x3f4ca067	0.79932255
104	0xbf4df081	-0.80445105
105	0xbe3b02c1	-0.1826277
106	0xbdf75512	-0.12076773
107	0xbd9e5b94	-0.07732311
108	0x3edea412	0.4348455
109	0xbeb4bec3	-0.3530179
110	0x3f071712	0.5276958
111	0x3c169dc9	0.009192892
112	0xbf68f1c0	-0.9099388
113	0xbe445992	-0.19174793
114	0xbf567082	-0.83765423
115	0xbe234163	-0.15942912
116	0x3d29884e	0.041389756
117	0x3f9aa1a4	1.2080579
118	0xbf4efe09	-0.80856377
119	0xbe9a2849	-0.3010886
120	0xbe6973f1	-0.22798134
121	0x3e81e146	0.25367182
122	0x3ece0ca4	0.4024402
123	0xbf451ae1	-0.7699414
124	0x3faa6cec	1.331449
125	0x3ebbe2a1	0.36696342
126	0x3e8ffb4e	0.28121418
127	0xbf1ea653	-0.6197254
128	0xbedae5b7	-0.42753384
129	0x3ef663ef	0.48123118
130	0x3e28959a	0.16463318
131	0xbf36d91d	-0.7142504
132	0xbf1c0b11	-0.60954386
133	0x3e1e1135	0.15436251
134	0x3c46ac9e	0.012126116
135	0x3f36b32b	0.7136714
136	0x3e8038b8	0.25043273
137	0xbf35c1fe	-0.70999134
138	0x3d892d18	0.06698054
139	0x3e653f11	0.22387339
140	0xbed3219c	-0.4123658
141	0xbfa4dbec	-1.2879615
142	0xbf4e11fb	-0.80496186
143	0xbd9050d3	-0.07046666
144	0x3eb567f1	0.35430863
145	0xbeb01db4	-0.34397662
146	0xbf6f2d76	-0.9342874
147	0xbe8c5a4c	-0.2741264
148	0xbf85f34d	-1.0464875
149	0x3cbf5f24	0.023360796
150	0xbf989815	-1.1921412
151	0xbd4206b8	-0.04736969
152	0x3e9dac6b	0.30795607
153	0x3d5b0d9a	0.05347977
154	0x3ef183a9	0.4717076
155	0xbf3f4139	-0.74708897
156	0x3fa8766c	1.316114
157	0xbe87caa0	-0.26521778
158	0xbe6f795d	-0.2338614
159	0x3da4c352	0.08045067
160	0xbf5ad4d1	-0.8548098
161	0xbf42ad92	-0.760461
162	0x3f2bb8c3	0.670788
163	0xbf0dd76c	-0.5540683
164	0xbf55b523	-0.8347952
165	0xbe4dfe3b	-0.20116512
166	0xbf7c052e	-0.98445404
167	0x3efc3ee9	0.49266747
168	0xbf04f2c5	-0.51932937
169	0xbcc3c003	-0.02389527
170	0x3ec89504	0.3917619
171	0x3df86b6a	0.121298626
172	0x3f0626ec	0.5240314
173	0x3f1a5a06	0.60293615
174	0x3f3a9a29	0.7289148
175	0x3e6226f8	0.22085178
176	0xbf1d6aa1	-0.6149083
177	0x3f2c8ac4	0.6739924
178	0xbeb2ecaf	-0.349462
179	0x3f1dce8f	0.6164331
180	0xbd371329	-0.044696007
181	0x3f88cd92	1.0687735
182	0x3f0bcb9b	0.5460755
183	0xbcc76f1a	-0.02434497
184	0x3eb517eb	0.3536981
185	0x3fb2c649	1.3966762
186	0xbe5941f5	-0.21216567
187	0x3ecc54dd	0.39908496
188	0x3d1675c9	0.036733422
189	0x3eb31b86	0.34981936
190	0xbe81c90d	-0.25348702
191	0xbd987dd5	-0.074458756
192	0xbe7bde04	-0.24596411
193	0xbe6d251d	-0.23158689
194	0x3e810e58	0.25206256
195	0xbdb8eb96	-0.090293095
196	0xbb9a6aff	-0.004712462
197	0x3dc5342a	0.0962909
198	0x3e4ea3b7	0.2017964
199	0xbe2a3639	-0.16622247
200	0xbe329ec4	-0.17443377
201	0x3ead3977	0.33832905
202	0xbf00756e	-0.50179183
203	0x3ef05322	0.46938425
204	0xbfacf4d8	-1.351222
205	0xbf52e9fe	-0.82388294
206	0x3e91042c	0.28323495
207	0x3f05fedd	0.52342016
208	0xbe08c093	-0.13354711
209	0xbe10ea75	-0.14151938
210	0x3e5419cf	0.2071297
211	0x3f2a5d52	0.66548645
212	0xbb899135	-0.004198218
213	0x3f63f738	0.890491
214	0xbe8dd9c8	-0.27705216
215	0x3e48c567	0.19606553
216	0x3f4df959	0.804586
217	0x3ec134fb	0.37735733
218	0xbfe2af75	-1.7709795
219	0xbede7398	-0.43447566
220	0x3e6e3f97	0.23266445
221	0xbfb5105c	-1.4145617
222	0xbf5cf463	-0.86310405
223	0x3facfeb1	1.3515226
224	0xbf089fc0	-0.5336876
225	0x3f1e545b	0.61847466
226	0x3f067bb6	0.5253252
227	0xbd669810	-0.05629736
228	0xbf08bba6	-0.5341133
229	0xbe2c1ea7	-0.16808568
230	0x3f2f274f	0.68419355
231	0x3e8e0978	0.277416
232	0x3d95415f	0.07287859
233	0xbfa450fb	-1.2837213
234	0xbe0a76ad	-0.13521834
235	0x3f3104ef	0.69148153
236	0x3e73847c	0.23781008
237	0x3f1dbee5	0.61619407
238	0x3e205b8e	0.15659925
239	0x3dd5bb70	0.104361415
240	0x3f128114	0.5722821
241	0xbee34c60	-0.44394207
242	0x3e158b92	0.14604023
243	0xbea18c30	-0.31552267
244	0x3f0fdd8b	0.5619742
245	0xbe04b37d	-0.12959094
246	0x3ef82ba3	0.48470792
247	0xbecd6c05	-0.40121475
248	0x3ec64f7b	0.38732514
249	0xbf94077e	-1.1564786
250	0xbf43c1bd	-0.76467496
251	0x3ba7afd0	0.005117394
252	0xbe784484	-0.24244887
253	0xbfd40c32	-1.6566222
254	0x3f33c10f	0.7021646
255	0xbee7feb8	-0.45311522

feature_fusion.conv_low_res.bias f4 [16]
0	0xbe25c62c	-0.16188878
1	0x3eb24397	0.34817192
2	0x3d9891a7	0.07449656
3	0xbed55f76	-0.41674393
4	0x3f14d96f	0.5814428
5	0xbdb07eda	-0.08617945
6	0x3b061de9	0.0020464605
7	0xbe632c0d	-0.22184773
8	0x3f028f94	0.5100033
9	0xbf9f232d	-1.243261
10	0x3d935d9d	0.0719559
11	0x3e953ccd	0.2914795
12	0x3fb34014	1.400393
13	0x3dffe61a	0.1249506
14	0xbf0d5a03	-0.5521547
15	0x3ebb162b	0.3654035

classifier.conv.weight f4 [1, 16, 1, 1]
0	0xbf223b27	-0.6337151
1	0xbf8b5f4a	-1.0888455
2	0x3f96bd24	1.1776471
3	0xbf54a536	-0.8306459
4	0xbf49ce6d	-0.78830606
5	0xbf3830db	-0.7194955
6	0xbf187db9	-0.5956684
7	0xbf715e18	-0.942842
8	0x3f6c8ade	0.92399395
9	0xbf4f5bef	-0.80999655
10	0xbf014a97	-0.5050444
11	0xbf2adba1	-0.6674138
12	0xbfac9c94	-1.3485284
13	0xbf193fd3	-0.59863013
14	0x3f51f056	0.8200735
15	0xbf915041	-1.1352617

onnx::Conv_275 f4 [4, 3, 3, 3]
0	0xbd392488	-0.045200855
1	0x3b99b7d5	0.004691104
2	0x3c788c33	0.015170145
3	0x3ce2c3f8	0.027681336
4	0x3c44ce73	0.012012112
5	0xbd8d09fd	-0.06886671
6	0x3e08da43	0.1336451
7	0xbc3a8ae3	-0.011385652
8	0xbd93f01f	-0.07223534
9	0xbe0193d6	-0.12654051
10	0x3dd669a4	0.10469368
11	0x3f0da738	0.5533328
12	0xbd2a07a2	-0.041511185
13	0x3e584e1e	0.2112355
14	0x3eb4f8aa	0.35345966
15	0xbc729894	-0.014806885
16	0x3af9c69d	0.0019056384
17	0x3dad97ec	0.084762424
18	0xbe04d77c	-0.12972826
19	0xbdb13ce3	-0.08654191
20	0x3e0d3882	0.13791087
21	0xbde4a051	-0.111633904
22	0xbb09bd53	-0.0021017387
23	0x3d6bf757	0.05760893
24	0x3d1580af	0.036499675
25	0xbd977c75	-0.07396785
26	0xbe026629	-0.12734284
27	0xbd436067	-0.04769936
28	0x3e1e11be	0.15436456
29	0x3d0c343c	0.034229502
30	0xbe21bed5	-0.15795453
31	0x3ddf4da0	0.10903478
32	0xbcb91e00	-0.022597313
33	0xbe581528	-0.2110182
34	0x3b83e2bf	0.004024833
35	0x3c25b28d	0.010113371
36	0xbf2b2d4b	-0.66865987
37	0xbe95420b	-0.2915195
38	0xbeceb68d	-0.4037365
39	0xbeb2e907	-0.3494341
40	0xbe0fe47c	-0.14052004
41	0xbe1467f9	-0.14492787
42	0xbf117d6e	-0.56832016
43	0xbe545833	-0.2073677
44	0xbf0aaaca	-0.54166853
45	0x3d705b2f	0.05868071
46	0x3e3c8715	0.18410905
47	0x3e2df620	0.1698842
48	0x3e0446ab	0.12917583
49	0x3e51274d	0.20425148
50	0x3e685919	0.22690238
51	0x3c35e991	0.01110305
52	0x3d309230	0.043108165
53	0x3dbb4ff0	0.09146106
54	0x3ebaab55	0.3645884
55	0xbd6b1e03	-0.05740167
56	0xbed2cedf	-0.41173455
57	0x3df74c83	0.1207514
58	0x3e68bcfb	0.2272834
59	0xbe3efd78	-0.18651378
60	0x3e6f29ec	0.23355836
61	0xbd6e0fbd	-0.058120478
62	0xbe3dfccc	-0.18553466
63	0xbf4f2b12	-0.80925095
64	0xbe2b3060	-0.16717672
65	0x3f280380	0.6563034
66	0xbfa001c7	-1.2500542
67	0x3f7a94e1	0.9788342
68	0x40170eaf	2.3602712
69	0xbf891268	-1.0708742
70	0x3e95e5cb	0.2927688
71	0x4005069c	2.0785284
72	0xbe3802f9	-0.17969884
73	0xbe584416	-0.21119723
74	0xbd3a18e2	-0.045433886
75	0xbf1830e2	-0.5944959
76	0x3e4d6852	0.20059326
77	0x3f0f3fb5	0.55956584
78	0xbf57bf95	-0.84276706
79	0xbd0a376d	-0.033744264
80	0x3e91f4f5	0.285072
81	0xbc8f38b5	-0.017483095
82	0xbd5c9ff5	-0.053863484
83	0xbdc30218	-0.09521884
84	0xbd61f540	-0.05516553
85	0x3dc019b0	0.093798995
86	0x3d5d5388	0.05403474
87	0x3da80318	0.08203715
88	0x3c8b36e9	0.016993957
89	0x3daebc76	0.0853204
90	0xbed83da9	-0.42234543
91	0xbf0a9649	-0.54135567
92	0xbf020b70	-0.507987
93	0xbdb0ab04	-0.08626369
94	0xbe10b124	-0.14130074
95	0xbe11962d	-0.14217444
96	0xbe1fbff7	-0.15600573
97	0xbdc7efe0	-0.097625494
98	0xbe975f8d	-0.29565087
99	0xbda8c93b	-0.08241507
100	0xbe04d7f6	-0.12973008
101	0xbdf14e56	-0.117825195
102	0x3d3d0155	0.04614385
103	0x3d98f198	0.07467955
104	0x3dff4249	0.12463815
105	0x3d4e232b	0.050326508
106	0x3e3ef4c2	0.18648055
107	0x3df8c80d	0.12147532

onnx::Conv_276 f4 [4]
0	0x3f271f90	0.65282536
1	0x3ea42345	0.3205816
2	0xbecf716e	-0.40516227
3	0x3f1aeb16	0.6051496

onnx::Conv_278 f4 [4, 1, 3, 3]
0	0x3f0fae11	0.5612498
1	0x3fc05c0c	1.502809
2	0x3fd3f86d	1.6560189
3	0x3e4fae1b	0.2028126
4	0x3f2bee05	0.67160064
5	0x3f311ae3	0.6918165
6	0xbf8d8127	-1.1055039
7	0xbfb1c322	-1.3887675
8	0xbf34b57a	-0.7058941
9	0x3b8e3adb	0.004340512
10	0xbc7639e7	-0.015028453
11	0xbcb0c9a8	-0.021580532
12	0x3da43a86	0.08018975
13	0x3c1f32fc	0.0097167455
14	0x3ca2547c	0.019815676
15	0x3e18b322	0.14912084
16	0x3e22131c	0.15827602
17	0x3e74b680	0.23897743
18	0xbdadcb11	-0.084859975
19	0xbdf2b5a5	-0.11851052
20	0xbdabafef	-0.08383166
21	0xbe1be7e1	-0.15225174
22	0xbe925445	-0.28579918
23	0xbe0abfd9	-0.13549747
24	0xbe2d6c90	-0.16935945
25	0xbe814a69	-0.25252083
26	0xbe01557a	-0.12630263
27	0xbd36e967	-0.044656184
28	0x3e3d1fa1	0.18469097
29	0x3e33ddb7	0.17565046
30	0xbbad5a70	-0.005290322
31	0x3e578f04	0.2105065
32	0x3dce5354	0.10074487
33	0x3d82dbb6	0.06389563
34	0x3de92e2c	0.1138576
35	0x3dac7904	0.084215194

onnx::Conv_279 f4 [4]
0	0xbfea6cd1	-1.8314458
1	0xbe8366f8	-0.25664496
2	0x3f6e94ca	0.93195784
3	0xbe4d7c52	-0.20066956

onnx::Conv_281 f4 [6, 4, 1, 1]
0	0xbde69cc8	-0.112603724
1	0xbe735ab5	-0.2376507
2	0x3f24231f	0.6411609
3	0xbeb30bb5	-0.3496987
4	0x3e5a3a4b	0.213113
5	0xbe0fe71f	-0.1405301
6	0xbe6760c3	-0.22595505
7	0x3cde23a8	0.027116612
8	0xbfd24fa3	-1.6430553
9	0xbfb0ccff	-1.381256
10	0xbf56a5c2	-0.83846676
11	0xbf3381b1	-0.7011977
12	0xbe4bd806	-0.19906625
13	0xbdc0d42a	-0.09415467
14	0x3e89fb82	0.26949698
15	0x3f0da2b1	0.5532637
16	0x3f9f4d5c	1.2445483
17	0x3efd6084	0.49487698
18	0x3f33b4d5	0.701978
19	0x3f44d935	0.7689393
20	0x3d8c901c	0.06863424
21	0xbe4e9bbc	-0.20176595
22	0xbe8abc06	-0.27096575
23	0xbddb3e7a	-0.10705276

onnx::Conv_282 f4 [6]
0	0x3f0785be	0.5293845
1	0x3f636198	0.8882079
2	0x3e7c0d34	0.24614412
3	0x3f0f7efd	0.56053144
4	0xbe68bdbf	-0.22728632
5	0x3f59b509	0.8504186

onnx::Conv_284 f4 [6, 1, 3, 3]
0	0xbda2fe59	-0.07958669
1	0x3e4ea633	0.20180587
2	0xbead38bf	-0.33832356
3	0xbec59e7e	-0.38597482
4	0x3ed96a38	0.4246385
5	0x3e6ebf15	0.2331508
6	0xbf3bec62	-0.73407567
7	0xbe765892	-0.24057224
8	0x3e536c5c	0.20646805
9	0x3c441f6b	0.011970381
10	0x3f47f741	0.78111655
11	0x3fa50bd0	1.289423
12	0xbc9938d5	-0.018703857
13	0x3eb73aba	0.35786992
14	0x3f1f6513	0.622636
15	0xbea28635	-0.31743017
16	0xbea8026c	-0.32814348
17	0xbdfec165	-0.12439231
18	0xbd2a21ab	-0.041536015
19	0xbe7ee21f	-0.24890946
20	0xbea91f36	-0.33031625
21	0x3d28b3ab	0.04118697
22	0x3db05cd3	0.08611455
23	0xbde37dd1	-0.11107982
24	0x3e469611	0.19393183
25	0x3ec32021	0.3811045
26	0x3de41068	0.11135942
27	0xbdfef2e8	-0.124486744
28	0xbf8684a4	-1.0509229
29	0xbf0eb99e	-0.5575198
30	0xbe90e58c	-0.2830013
31	0x3dd1baea	0.10240729
32	0x3f429cc1	0.7602044
33	0xbea7923f	-0.32728764
34	0x3f0860ee	0.532729
35	0x3f730a0c	0.94937205
36	0x3acd1d2a	0.001564895
37	0x3e764b0e	0.24052069
38	0x3e610f21	0.21978427
39	0xbd4800bc	-0.048828825
40	0x3e87b664	0.2650634
41	0x3eda3c13	0.42623958
42	0xbd981595	-0.074259914
43	0x3e62dd17	0.22154652
44	0x3ed9f2e1	0.42568114
45	0x3f6cc31e	0.92485225
46	0x3f6a4391	0.9150935
47	0x3f7d254a	0.98885024
48	0xbf08c75e	-0.5342921
49	0xbf6ec2e5	-0.93266135
50	0x3ce20c00	0.027593613
51	0xbfb48241	-1.410225
52	0xbfdfa9c7	-1.7473687
53	0xbe74769c	-0.23873371

onnx::Conv_285 f4 [6]
0	0x3ec844f8	0.3911512
1	0xc003cee4	-2.0595026
2	0xbdbb6057	-0.09149235
3	0x3cf800ce	0.030273821
4	0xbf0ffbc6	-0.5624355
5	0x3fe778b4	1.8083711

onnx::Conv_287 f4 [8, 6, 1, 1]
0	0xbe0a8667	-0.13527833
1	0xbb74c198	-0.0037346836
2	0xbe8dea5d	-0.27717867
3	0xbdff08ee	-0.12452875
4	0xbf0db960	-0.55360985
5	0xbe6f7248	-0.23383439
6	0xbf427af0	-0.7596884
7	0x3f007bd0	0.5018892
8	0x3dc4a18d	0.09601126
9	0x3e9001ff	0.28126523
10	0x3f247183	0.64235705
11	0xbf6912da	-0.9104439
12	0x3d4e8184	0.050416484
13	0xbf07b3dd	-0.53008825
14	0x3f44ee65	0.7692626
15	0xbe49002c	-0.19628972
16	0xbee213d1	-0.44155744
17	0xbf24f36e	-0.64433944
18	0x3db52bdc	0.08846256
19	0xbee78325	-0.45217243
20	0x3d9f1871	0.07768334
21	0xbf6746bb	-0.903423
22	0x3ebaf967	0.36518404
23	0x3f09816d	0.53713113
24	0xbe6618e2	-0.2247043
25	0xbf422430	-0.7583647
26	0xbdb5f68f	-0.08884918
27	0x3f0ec48b	0.5576865
28	0x3ea37db2	0.31931835
29	0xbf4edd09	-0.8080602
30	0x3d176dac	0.036969826
31	0xbf430202	-0.7617494
32	0x3f77b829	0.9676538
33	0xbf22ee5b	-0.6364495
34	0x3e7b4999	0.24539794
35	0xbf2df3ee	-0.6795033
36	0xbe69106d	-0.22760172
37	0xbe98dae2	-0.29854494
38	0x3dfd84bc	0.12378833
39	0x3f0d64a8	0.55231714
40	0x3f45f9a0	0.7733402
41	0x3eb49595	0.35270372
42	0xbf1cc6ad	-0.61240655
43	0x3f4ca2f8	0.7993617
44	0xbe0d1f99	-0.13781585
45	0xbe307702	-0.17232898
46	0xbc00bce0	-0.007857531
47	0x3f4853eb	0.7825305

onnx::Conv_288 f4 [8]
0	0x3d63af66	0.055587195
1	0xbe4b37d9	-0.19845523
2	0x3f91146a	1.1334355
3	0x3f22789c	0.63465285
4	0x3f1680a3	0.58790034
5	0x3e1acef7	0.15118013
6	0x3ece5ca3	0.4030505
7	0x3eaefadf	0.34175774

onnx::Conv_290 f4 [16, 8, 1, 1]
0	0x3f07c6be	0.5303763
1	0x3b92f523	0.004484789
2	0x3ebca5aa	0.36845142
3	0x3ddc9f14	0.10772529
4	0x3f34f7c8	0.70690584
5	0x3f2e51d5	0.68093616
6	0x3df06492	0.11737932
7	0xbf1efaa9	-0.6210123
8	0xbe0e955b	-0.13924162
9	0x3db89fc8	0.09014851
10	0xbd8ed427	-0.069740586
11	0x3ea828fe	0.32843775
12	0x3ec13d3e	0.37742037
13	0xbe89bace	-0.26900333
14	0x3f663598	0.8992553
15	0x3eea3d20	0.4574976
16	0x3f06dd4e	0.52681434
17	0x3f27d459	0.6555839
18	0x3f0fcda9	0.5617319
19	0x3de94a12	0.11391081
20	0xbce6d0f4	-0.028175808
21	0xbe717ae8	-0.23582041
22	0xbf19408e	-0.5986413
23	0xbf1a0148	-0.60158205
24	0xbe16e0d3	-0.14734201
25	0x3e3391b5	0.17536052
26	0x3e94e871	0.2908359
27	0xbe4d148a	-0.20027366
28	0x3e89545a	0.26822168
29	0x3db687a9	0.08912594
30	0xbe4369da	-0.19083348
31	0xbee1ca41	-0.4409962
32	0x3e45b120	0.19305849
33	0xbea51e88	-0.32249856
34	0xbf0c682c	-0.54846454
35	0x3d258b03	0.040415775
36	0xbe2f6ff3	-0.17132549
37	0xbf2866e0	-0.65781975
38	0xbe111ea2	-0.14171842
39	0x3e25731a	0.16157189
40	0xbe6dff04	-0.23241812
41	0x3e174d33	0.14775543
42	0xbf855fb5	-1.0419832
43	0x3d2581e0	0.04040706
44	0x3e0f7212	0.14008358
45	0xbe85b204	-0.26112378
46	0x3eaa757b	0.33292755
47	0x3f2f4270	0.6846075
48	0x3d49f29d	0.04930364
49	0x3e021b7b	0.12705795
50	0xbbde112c	-0.0067769494
51	0xbded1028	-0.11575347
52	0xbdeb2bda	-0.114829734
53	0xbd8b123f	-0.067905895
54	0xbd3a9c85	-0.045559425
55	0xbb842f2e	-0.0040339446
56	0x3e105293	0.14094
57	0xbe3754c7	-0.17903434
58	0xbf8b46fb	-1.0881037
59	0x3eef115b	0.4669293
60	0xbf0f08fe	-0.55873096
61	0xbebc531b	-0.36782154
62	0xbf392f1d	-0.72337514
63	0x3e11cc11	0.14238001
64	0x3de7a26c	0.113102764
65	0x3e86cfea	0.263305
66	0x3e8a2534	0.2698151
67	0x3cf83ba8	0.030301884
68	0x3e638567	0.22218858
69	0x3e213ce8	0.1574589
70	0xbe4f1015	-0.20220979
71	0xbeb079ef	-0.34468028
72	0x3d33ebbb	0.043925982
73	0x3f0117c3	0.5042688
74	0x3df8e6d1	0.121534
75	0xbeb7238e	-0.35769314
76	0x3d14bddb	0.036313873
77	0xbdd1b249	-0.10239083
78	0xbe887e71	-0.26658967
79	0xbe0c6022	-0.13708547
80	0xbf27672a	-0.6539179
81	0xbeadf60d	-0.33976784
82	0xbe643b99	-0.2228836
83	0x3f99fa2a	1.2029469
84	0x3f03a056	0.5141653
85	0xbe20d142	-0.15704826
86	0x3ec997f8	0.39373755
87	0xbdcb4339	-0.09924931
88	0xbe8c6966	-0.27424163
89	0xbe305b23	-0.17222266
90	0x3d86f58b	0.06589802
91	0x3faa0e43	1.3285602
92	0xbe8c0a15	-0.27351442
93	0x3d5c9bfc	0.053859696
94	0xbf820b66	-1.0159729
95	0x3e5edbfd	0.21763606
96	0xbddfb59d	-0.10923312
97	0x3caa8a3c	0.020817868
98	0xbf6ca2b3	-0.9243576
99	0xbe914bb1	-0.2837806
100	0xbd6b2460	-0.057407737
101	0xbece1d41	-0.40256694
102	0xbe74192f	-0.23837732
103	0x3f818e97	1.012164
104	0xbd59ce38	-0.05317518
105	0x3ed5b01c	0.41735923
106	0xbe3339a1	-0.17502452
107	0x3cf0e7fc	0.029407494
108	0xbe2cf89d	-0.16891713
109	0xbeb9e075	-0.3630406
110	0x3d3bacc9	0.045819078
111	0xbd5e8e0b	-0.05433468
112	0x3e004d75	0.12529548
113	0x3e2cc8f2	0.1687353
114	0x3e90fe6b	0.28319106
115	0x3ecfe9c1	0.40608028
116	0x3ecb09b5	0.39655843
117	0x3ebaadbd	0.36460677
118	0xbee6da63	-0.4508849
119	0xbf367a13	-0.7128002
120	0xbe457108	-0.19281399
121	0xbd9d5ec3	-0.0768409
122	0x3dc2500e	0.094879255
123	0x3e6a0b7a	0.2285594
124	0x3c40bc76	0.011763683
125	0x3e3fd89b	0.18734972
126	0xbea7372f	-0.3265929
127	0xbe3d67c0	-0.18496609

onnx::Conv_291 f4 [16]
0	0xbf7bb45a	-0.9832207
1	0xbfc8de6c	-1.5692878
2	0xbdb019b3	-0.08598652
3	0x3f43ff09	0.7656103
4	0x3fb54974	1.4163041
5	0x3f1df7a5	0.61706
6	0x3f956c72	1.167372
7	0x3ffbbde9	1.9667331
8	0xbb8a7440	-0.004225284
9	0x3f8d906e	1.1059701
10	0xbf9c6b25	-1.2220198
11	0x3cc0b128	0.023521975
12	0x3f7f0a70	0.996253
13	0x3f5261a4	0.8218024
14	0xbe8999e6	-0.26875228
15	0x3f31cf6a	0.69457114

onnx::Conv_293 f4 [16, 1, 3, 3]
0	0x3db3a4f7	0.08771699
1	0x3e520c4a	0.205125
2	0x3e1dea47	0.15421401
3	0x3e969168	0.2940781
4	0x3ea1edee	0.31626838
5	0x3dd71139	0.10501332
6	0x3e33c5ab	0.17555873
7	0x3df3618a	0.118838385
8	0xbdeacc7a	-0.11464782
9	0xbe0a58c6	-0.13510427
10	0x3f588d4b	0.84590596
11	0x3e673ca9	0.22581734
12	0xbeb2e1d7	-0.34937927
13	0x3f049074	0.5178292
14	0x3e160443	0.14650063
15	0xbe0d61e0	-0.13806868
16	0x3d3282b9	0.043581698
17	0xbda26efd	-0.079313256
18	0x3adb5672	0.0016734137
19	0x3ee6f89a	0.45111543
20	0x3e8038c2	0.25043303
21	0xbee1cf11	-0.44103292
22	0xbb170667	-0.0023044588
23	0xbeaa115b	-0.33216366
24	0xbece63f7	-0.40310642
25	0x3e1b1f01	0.15148546
26	0xbeab5b9b	-0.33468327
27	0xbed01145	-0.40638176
28	0xbe80e5b3	-0.25175247
29	0xbe1b1cc3	-0.1514769
30	0x3ddc9ed2	0.1077248
31	0x3e8774eb	0.2645639
32	0x3f35041b	0.7070939
33	0x3e43a392	0.19105366
34	0xbf16d0d1	-0.5891238
35	0x3d6dc21c	0.058046445
36	0xbd5cb650	-0.053884804
37	0x3e637909	0.2221414
38	0xbd3f13c4	-0.04664971
39	0x3f7793ee	0.967101
40	0x3f83784c	1.0271087
41	0xbd074cc2	-0.033032186
42	0x3d4acfaa	0.04951445
43	0xbed2cd86	-0.41172427
44	0xbfa485aa	-1.2853291
45	0x3e19e7c5	0.1502982
46	0xbeb41310	-0.35170794
47	0x3e2ca9c8	0.16861641
48	0x3dd7460e	0.10511409
49	0x3ed3a008	0.41333032
50	0x3f06e56f	0.5269384
51	0xbd8af9a1	-0.06785894
52	0x3d6f2e4a	0.058393754
53	0x3e83311a	0.256234
54	0x3febd7d1	1.8425237
55	0x3fa20dbb	1.266044
56	0xbf258fb4	-0.646724
57	0x3f7853cd	0.9700287
58	0x3e94b9c2	0.29047972
59	0xbe96130b	-0.29311404
60	0xbe8429c5	-0.25813118
61	0xbf5746db	-0.8409249
62	0xbfab9461	-1.3404657
63	0x3cf6cafa	0.030126084
64	0x3dc14838	0.09437603
65	0x3e0a5c0c	0.13511676
66	0xbf7fc8a8	-0.9991555
67	0xbf6ad3bc	-0.9172933
68	0x3e8a8d04	0.2706071
69	0x3dd471f0	0.10373294
70	0xbd77e503	-0.060521137
71	0x3f2fad9c	0.6862428
72	0xbee13378	-0.4398458
73	0xbeb354a5	-0.35025516
74	0xbf261edf	-0.64890856
75	0xbf0430cd	-0.51636964
76	0x3e511756	0.20419058
77	0xbdd63611	-0.10459531
78	0x3d2c8fe3	0.04212941
79	0x3f7e02cd	0.99223024
80	0x3f812fc9	1.0092708
81	0x3e9f3ed2	0.31102616
82	0x3f3b5834	0.7318146
83	0x3eeb1047	0.45910856
84	0x3ea9eb75	0.33187452
85	0x3eb22ddf	0.34800622
86	0xb8eb5bd4	-0.000112227775
87	0xbdeacb75	-0.114645876
88	0xbe359c76	-0.17735466
89	0xbeae4c2f	-0.34042498
90	0x3ec07aae	0.37593597
91	0x3e1803ff	0.14845274
92	0x3e5af52b	0.21382587
93	0x3e67131e	0.22565886
94	0x3d74e72f	0.059790786
95	0xbc6c1291	-0.014408723
96	0x3cc74caf	0.024328558
97	0xbe016972	-0.1263788
98	0xbe40809b	-0.18799059
99	0xbe0355d3	-0.12825708
100	0x3e87b708	0.2650683
101	0xbe13c320	-0.14429903
102	0x3d9bcb56	0.076071426
103	0x3f0d146c	0.55109286
104	0x3e3c3af5	0.18381865
105	0xbe6993a7	-0.22810231
106	0xbdf56bc3	-0.119834445
107	0xbf0b6832	-0.54455864
108	0x3c54fa45	0.012999122
109	0x3e485d91	0.19566943
110	0x3d85ff39	0.065428205
111	0xbe429072	-0.19000414
112	0xbe4b1a2c	-0.19834203
113	0xbde16ac7	-0.11006694
114	0xbe973e4a	-0.2953971
115	0xbecc7eca	-0.39940482
116	0xbd5b260d	-0.053503085
117	0x3d780cc6	0.060559057
118	0x3aea87fa	0.0017893307
119	0xbd169e5d	-0.03677212
120	0xbd07b3dd	-0.033130515
121	0xbd23d3ea	-0.03999702
122	0xbd5f94c6	-0.05458524
123	0xbd746883	-0.059669983
124	0xbddee66b	-0.108837925
125	0xbe03002a	-0.12793031
126	0xbe449b10	-0.19199777
127	0xbe87b0dd	-0.26502123
128	0xbeebaf8c	-0.4603237
129	0xbd605516	-0.054768644
130	0xbeb44b93	-0.3521391
131	0xbed26bc9	-0.4109786
132	0x3dbc022d	0.091801025
133	0xbd782b64	-0.060588256
134	0xbd38a05e	-0.045074813
135	0x3ed3cbe6	0.413665
136	0xbfadb589	-1.3571025
137	0xbe0e6172	-0.1390436
138	0x3fa59c11	1.2938253
139	0xbf3fd628	-0.7493615
140	0xbf38ea8d	-0.72232896
141	0x3fa9761d	1.323917
142	0x3f04737b	0.5173871
143	0xbbd5cc8d	-0.0065246285

onnx::Conv_294 f4 [16]
0	0x3d0e5240	0.03474641
1	0xbf29d86d	-0.66345865
2	0xbabfbf00	-0.0014629066
3	0x3dae7703	0.085187934
4	0xbec05d27	-0.3757107
5	0xbf0c93c8	-0.54912996
6	0xbda887e0	-0.08229041
7	0x3e9ad141	0.30237773
8	0xbe016912	-0.12637737
9	0xbe9e6b18	-0.3094108
10	0xbe111593	-0.14168386
11	0xbd98b087	-0.07455545
12	0x3fe2e3bb	1.7725748
13	0xbd9a222c	-0.07526049
14	0x3f83c852	1.0295508
15	0xbeada58c	-0.33915365

onnx::Conv_296 f4 [8, 16, 1, 1]
0	0xbd7282a3	-0.059206616
1	0x3ea6f084	0.32605374
2	0x3dd5e9b7	0.10444968
3	0x3d9f55df	0.077800505
4	0x3e95a5da	0.29228097
5	0x3f0afd97	0.542932
6	0xbcd080b7	-0.025452001
7	0x3ee87666	0.4540283
8	0xbd4c3bd9	-0.049861763
9	0xbf3c012c	-0.7343929
10	0x3da1a183	0.07892134
11	0x3e892bc1	0.26791194
12	0x3c03e4ff	0.008050202
13	0xbdbcf7a4	-0.09226921
14	0xbe9dcb26	-0.30819052
15	0x3e496048	0.19665635
16	0xbe5a1043	-0.21295266
17	0x3e1d00bf	0.15332316
18	0xbe1323d0	-0.1436913
19	0xbe126a5e	-0.14298388
20	0x3d68ac17	0.056804743
21	0x3e15c511	0.14625956
22	0x3e3c082a	0.1836249
23	0xbd9de7b0	-0.077102065
24	0x3e0b60bb	0.13611118
25	0x3c9933c1	0.018701436
26	0x3c6ff56a	0.014645914
27	0xbc95474c	-0.018222474
28	0x3e78b247	0.24286757
29	0x3d80a707	0.06281858
30	0x3e7797f5	0.24179061
31	0x3e0689a3	0.13138442
32	0xbf40e7d0	-0.7535372
33	0xbd77cded	-0.06049912
34	0xbe6e5e7e	-0.23278233
35	0xbe9b83c7	-0.30373976
36	0xbead7c83	-0.33884057
37	0xbe83895c	-0.25690734
38	0x3dcf5156	0.101229355
39	0xbde60652	-0.11231674
40	0xbeefb374	-0.468166
41	0xbe1c48d5	-0.15262158
42	0xbe2daac2	-0.1695967
43	0xbe8d2721	-0.27568915
44	0x3e371e2f	0.17882608
45	0xbd2d9d39	-0.042386267
46	0x3e10b832	0.14132765
47	0xbec71eb9	-0.38890627
48	0xbee5fce2	-0.44919497
49	0xbec5b5a8	-0.38615155
50	0x3db56b0f	0.088583104
51	0x3cf1181c	0.029430442
52	0x3e5b3cec	0.21409959
53	0x3cbda254	0.023148693
54	0x3e590324	0.21192604
55	0xbb7dfca4	-0.0038755322
56	0x3d0392e4	0.032122508
57	0xbe095885	-0.13412674
58	0xbd8bedf9	-0.06832499
59	0x3e04abab	0.12956111
60	0x3d92c46f	0.07166373
61	0x3e005afa	0.12534705
62	0x3da2fabe	0.079579815
63	0x3e91ede7	0.28501818
64	0x3e306b86	0.17228517
65	0x3ec61943	0.38691148
66	0x3dd2299e	0.10261844
67	0x3e151a7d	0.14560886
68	0x3e40ecda	0.18840352
69	0x3ddee6c5	0.108838595
70	0x3d02a713	0.031897616
71	0x3e60e149	0.2196094
72	0x3e97d0b4	0.29651415
73	0xbdabafe2	-0.08383156
74	0x3e1dfbb3	0.15428047
75	0x3e4483cf	0.19190906
76	0x3e49ce6f	0.19707654
77	0xbcaeef5b	-0.021354368
78	0xbe859a0e	-0.26094097
79	0x3e2b21e4	0.16712147
80	0x3e4c7701	0.19967271
81	0xbdadb9ac	-0.0848268
82	0xbdc59a20	-0.09648538
83	0xbe9ec271	-0.31007722
84	0xbec9b0cd	-0.393927
85	0xbec5a954	-0.3860575
86	0xbf48674c	-0.7828262
87	0xbeeb739f	-0.4598665
88	0x3e304b4c	0.17216223
89	0xbf349df8	-0.7055354
90	0x3ebb27d3	0.3655382
91	0xbdba219a	-0.0908844
92	0x3e30ba16	0.17258486
93	0xbdfba3c6	-0.12287097
94	0xbecea6fe	-0.4036178
95	0x3bcd703e	0.006269484
96	0xbeb6d7e6	-0.35711592
97	0x3eeb37e1	0.4594107
98	0xbd023ffc	-0.0317993
99	0xbe7b25a6	-0.2452608
100	0xbc91a4bd	-0.017778749
101	0x3eea5e42	0.45775038
102	0xbe3df42f	-0.1855018
103	0xbe1835dc	-0.14864296
104	0xbf18cf95	-0.59691745
105	0x3d4f5c0b	0.05062489
106	0x3dcfbfb8	0.10143989
107	0x3de8ac53	0.11360993
108	0xbeeb83ad	-0.45998898
109	0xbc81814c	-0.015808724
110	0x3e993f56	0.29931134
111	0xbc1b6f95	-0.009487052
112	0xbb2ff394	-0.0026848065
113	0xbe2ea03b	-0.1705331
114	0x3e06c829	0.13162293
115	0x3ec6ece9	0.38852623
116	0x3e27978d	0.16366406
117	0x3e04e70b	0.12978761
118	0xbe92784c	-0.28607404
119	0x3e763220	0.24042559
120	0x3e692d37	0.22771154
121	0xbdde23c3	-0.10846665
122	0xbd4b0fd6	-0.04957565
123	0x3db696a1	0.08915449
124	0xbf190799	-0.5977722
125	0xbe088a1a	-0.13333932
126	0xbf091276	-0.53543794
127	0xbddd64ce	-0.108102426

onnx::Conv_297 f4 [8]
0	0x3d4ab392	0.049487658
1	0xbf0cd5be	-0.55013645
2	0x3fd1e436	1.639777
3	0x3e4bc937	0.19900976
4	0xbf8459ce	-1.0339906
5	0x3fe9b5c7	1.8258599
6	0x3f78776b	0.9705722
7	0x3f65aaa6	0.89713514

onnx::Conv_299 f4 [16, 8, 1, 1]
0	0x3d590cc0	0.052990675
1	0xbc82ef1d	-0.015983159
2	0xbde092e9	-0.10965521
3	0xbd5ff6a9	-0.054678593
4	0x3e4f345f	0.20234822
5	0x3de2f924	0.11082676
6	0xbd88c8e1	-0.066789396
7	0x3d4a996f	0.049462732
8	0x3da806dc	0.08204433
9	0xbda53424	-0.08066586
10	0xbddb8e46	-0.10720496
11	0xbdf71803	-0.12065127
12	0x3e2ce620	0.1688466
13	0x3e69ab60	0.2281928
14	0xbe8d8985	-0.27643982
15	0x3c342bc0	0.010996759
16	0xbedd855d	-0.4326581
17	0xbe1f1ca8	-0.15538275
18	0x3e6f11ac	0.23346585
19	0xbe7e92ce	-0.24860689
20	0xbf66285c	-0.89905334
21	0xbeca496d	-0.39509144
22	0x3f857b1f	1.0428199
23	0xbd35f83b	-0.044426184
24	0xbdb9ab59	-0.09065885
25	0xbd87ea33	-0.06636467
26	0x3f210b21	0.62907606
27	0x3e0d27fc	0.13784784
28	0xbdf717ce	-0.12065087
29	0x3e2c717f	0.1684017
30	0x3da85d3b	0.08220907
31	0x3e091407	0.13386546
32	0x3f069589	0.5257192
33	0xbea7f648	-0.32805085
34	0x3e1dce49	0.15410723
35	0xbee21a1b	-0.44160542
36	0x3f0a3c14	0.5399792
37	0x3ebe1350	0.3712411
38	0x3f162b12	0.5865947
39	0xbe46191b	-0.19345514
40	0xbeacd632	-0.33757168
41	0x3f133894	0.57508206
42	0xbed31976	-0.41230363
43	0xbc980307	-0.018556131
44	0x3cd7e632	0.026354883
45	0x3f1864d7	0.5952887
46	0xbfa934b8	-1.3219213
47	0xbd57af9e	-0.052657716
48	0x3dd769b3	0.105182074
49	0xbf238fd3	-0.63891333
50	0x3eefc2de	0.4682836
51	0xbee81bbe	-0.45333666
52	0x3e0fed4b	0.14055364
53	0xbe9fb052	-0.3118921
54	0x3eadb6c5	0.33928505
55	0x3f6582cd	0.8965271
56	0x3e4e61af	0.20154451
57	0xbf5cb3a2	-0.862116
58	0xbde87dc1	-0.11352111
59	0x3e41871c	0.18899196
60	0xbe9acdb6	-0.3023507
61	0x3cd7e912	0.026356254
62	0xbefce317	-0.49392006
63	0x3fa6b37b	1.3023523
64	0xbd1e8f0c	-0.03871064
65	0xbe538746	-0.20657071
66	0xbefccc5d	-0.49374667
67	0xbed0cc8b	-0.40781054
68	0xbe0a8b48	-0.13529694
69	0x3c01aa92	0.007914202
70	0xbd4e1731	-0.050315086
71	0x3e22d7d8	0.1590265
72	0x3e4476b6	0.1918591
73	0xbfc8e5e5	-1.5695158
74	0xbc9bf6f6	-0.019038659
75	0xbf7f336e	-0.9968785
76	0x3cae090f	0.021244554
77	0x3dc9c8ac	0.09852728
78	0xbe80b873	-0.25140724
79	0x3ea27a4c	0.3173393
80	0xbadc36d9	-0.0016801014
81	0xbb6110cb	-0.0034342285
82	0x3b95e3d1	0.004574277
83	0x3b13415d	0.002246938
84	0xbba49ef6	-0.0050238324
85	0xb8f2d411	-0.0001157896
86	0xba7825c4	-0.0009466077
87	0x3af4d629	0.0018679547
88	0xbe8596b6	-0.26091546
89	0xbe8cb3ea	-0.27481014
90	0x3b052b28	0.0020319913
91	0xbdf10825	-0.117691316
92	0x3dd6598c	0.104662985
93	0x3ea2e291	0.3181348
94	0xbf4a56f3	-0.79038924
95	0x3ef88012	0.4853521
96	0xbe0fbf56	-0.14037833
97	0x3e53b04c	0.2067272
98	0x3ee4012f	0.44532153
99	0xbe0bd1db	-0.13654272
100	0xbd981256	-0.07425372
101	0xbf4ee409	-0.80816704
102	0xbe70da25	-0.23520716
103	0xbe961852	-0.2931543
104	0x3ec4c0f8	0.38428473
105	0xbe8437eb	-0.25823912
106	0x3dae366a	0.085064724
107	0x3e97bee2	0.2963782
108	0xbd118256	-0.03552469
109	0x3d1e942f	0.038715538
110	0x3f898d65	1.0746275
111	0x3f45b9a9	0.7723642
112	0xbd520476	-0.051273786
113	0x3e582d9e	0.21111152
114	0x3f0b7f03	0.5449068
115	0xbe4240af	-0.18969987
116	0x3ee2b946	0.44281977
117	0xbead3e1b	-0.33836445
118	0x3f26d601	0.65170294
119	0xbf455fdc	-0.77099395
120	0xbf5f7eb1	-0.8730269
121	0xbe73be06	-0.23802957
122	0x3e8040c7	0.2504942
123	0xbec27e9e	-0.37987226
124	0xbe26c812	-0.16287258
125	0x3eb95672	0.36198765
126	0xbc9d89a0	-0.019230664
127	0xbebc6001	-0.36791995

onnx::Conv_300 f4 [16]
0	0x3f44f7b4	0.76940465
1	0x3f1233dc	0.5711038
2	0x3de62ece	0.11239396
3	0x3e6310e7	0.22174416
4	0xbe32a3b3	-0.17445259
5	0xbe8fce46	-0.28087062
6	0x3edb328e	0.42812008
7	0x3ea93b72	0.33053166
8	0x3f2bcf97	0.6711363
9	0x3c0a982c	0.008459132
10	0xbf0462f0	-0.51713467
11	0x3ce62620	0.028094351
12	0x3eb781cc	0.35841215
13	0x3eb9a5eb	0.36259398
14	0x3cdf4af9	0.02725743
15	0xbeee01e2	-0.4648581

onnx::Conv_302 f4 [16, 1, 3, 3]
0	0xbe710363	-0.23536448
1	0x3fae5840	1.3620682
2	0x3f05f0c5	0.5232051
3	0xbf91357b	-1.1344446
4	0x3f5d01b7	0.8633074
5	0xbfb5cc58	-1.4202986
6	0xbe64678f	-0.2230513
7	0x3f882533	1.0636352
8	0xbf70225c	-0.9380243
9	0x3d559274	0.05214162
10	0x3ed8cefb	0.42345414
11	0x3de4a46c	0.111641735
12	0xbec06ee0	-0.3758459
13	0x3e3b971f	0.18319367
14	0x3e179e1b	0.14806406
15	0xbf43112d	-0.76198083
16	0xbf1c2a2d	-0.61001855
17	0xbf3b7499	-0.7322479
18	0x3ef16fa1	0.4715548
19	0x3e5a8e70	0.21343398
20	0xbcdca20e	-0.026932742
21	0x3e786091	0.24255587
22	0x3d836992	0.0641662
23	0x3d1218bb	0.035668116
24	0x3ce5387c	0.027981035
25	0xbf1b1a98	-0.60587454
26	0xbeea834d	-0.458033
27	0x3eb8ab9a	0.36068422
28	0xbd246694	-0.04013689
29	0xbd449e2a	-0.0480024
30	0xbde71e28	-0.11285049
31	0xbd5e6080	-0.05429125
32	0x3e6f2037	0.23352133
33	0x3f27bd1f	0.6552295
34	0x3f2ba8a6	0.6705421
35	0x3f05b230	0.5222502
36	0x3e95c849	0.29254368
37	0x3f0b6d8b	0.54464024
38	0xbd4a2b06	-0.049357437
39	0xbe732111	-0.23743083
40	0xbe861cfd	-0.2619399
41	0x3cd1b0b9	0.025596963
42	0xbe040582	-0.12892726
43	0x3dee88a5	0.116471566
44	0xbd93b236	-0.072117254
45	0xbdd6031b	-0.10449811
46	0x3c8b79d2	0.017025862
47	0xbe27a0a8	-0.16369879
48	0x3ec37a31	0.38179162
49	0xbe9fb221	-0.3119059
50	0xbee0650e	-0.438271
51	0x3e852732	0.26006466
52	0x3ed3f896	0.41400594
53	0x3e6d5e0e	0.2318041
54	0x3e7a1111	0.24420573
55	0xbf607815	-0.8768323
56	0xbe36e121	-0.17859317
57	0x3ced9e6a	0.029006202
58	0x3e80016f	0.25001094
59	0x3f886bf1	1.0657941
60	0xbe5a351d	-0.21309324
61	0xbec3922a	-0.38197452
62	0x3e96e134	0.2946869
63	0xbde358d0	-0.11100924
64	0x3e9170f0	0.28406477
65	0x3e2927f1	0.16519143
66	0xbe5d59e8	-0.21616328
67	0xbf20b1c5	-0.62771255
68	0xbe93ad62	-0.28843218
69	0x3e264b50	0.16239667
70	0x3f16db65	0.5892852
71	0x3ea67d00	0.32517242
72	0xbe43594f	-0.19077037
73	0x3f0756b8	0.528667
74	0x3f26b353	0.6511738
75	0x3e9429e1	0.289382
76	0xbef8246c	-0.48465288
77	0xbea0d7ba	-0.31414586
78	0xbde33a6e	-0.11095129
79	0xbea8f28d	-0.32997552
80	0xbed79c24	-0.42111313
81	0x3e064350	0.13111615
82	0xbd97b7a4	-0.074080735
83	0x3e041042	0.12896827
84	0xbe8c799e	-0.27436537
85	0xbeaa3072	-0.33240086
86	0xbe1e64b0	-0.15468097
87	0xbe56adda	-0.20964757
88	0xbe8e6636	-0.27812356
89	0xbdeca1fb	-0.11554333
90	0xc121d2d7	-10.113975
91	0xc2b15573	-88.66689
92	0x4287d9b0	67.92517
93	0x42618337	56.37814
94	0xc30f7000	-143.4375
95	0x41e80596	29.002728
96	0xc269289b	-58.289654
97	0x41e8a049	29.078264
98	0x42811f75	64.56144
99	0x3e67a70a	0.22622314
100	0x3ebee1c2	0.37281615
101	0x3eb8163d	0.35954466
102	0xbe1c5a82	-0.15268901
103	0xbe7d39b6	-0.24729046
104	0xbe25eae8	-0.16202891
105	0xbddc05de	-0.107433066
106	0x3dacca4a	0.08437021
107	0x3db5742e	0.0886005
108	0x3d60666a	0.05478517
109	0x3d104b2c	0.03522794
110	0xbda44f96	-0.08022992
111	0x3f64d74f	0.89391035
112	0xbf9f1693	-1.2428764
113	0x3e87c104	0.26514447
114	0x3f5c8fe2	0.8615705
115	0xbf9dd44c	-1.2330413
116	0x3dc9f04f	0.09860288
117	0xbea60d7f	-0.32432172
118	0xbf115632	-0.5677215
119	0xbe1c5c9f	-0.15269707
120	0x3e24cd79	0.16094007
121	0x3eb0c13b	0.34522423
122	0x3dbda969	0.09260828
123	0xbd9f8f17	-0.07790964
124	0x3e709cb5	0.23497279
125	0x3ec29a0e	0.3800816
126	0xbeadbcd4	-0.33933127
127	0xbed6aa06	-0.41926593
128	0xbf02aae7	-0.51042026
129	0xbdde7b9e	-0.10863422
130	0xbd0d168d	-0.034445334
131	0xbe0cd2de	-0.13752314
132	0xbdba6006	-0.09100346
133	0xbdbac0a2	-0.09118773
134	0xbca332ac	-0.019921623
135	0x3ed3c291	0.4135938
136	0xbf360952	-0.7110797
137	0xbf3946a0	-0.7237339
138	0x3da176a3	0.07883956
139	0xbee0fbef	-0.4394221
140	0xbe401aa7	-0.18760167
141	0x3f14c2d8	0.5810981
142	0xbec34d7a	-0.38145047
143	0xbfaf75ba	-1.3707802

onnx::Conv_303 f4 [16]
0	0xbe06e5a6	-0.13173541
1	0x3f8f725f	1.1206778
2	0x3ee02ebb	0.43785653
3	0xbfe30609	-1.7736217
4	0xbefc6d91	-0.49302343
5	0x3cead474	0.028665759
6	0x3cb326c0	0.021869063
7	0xbdd0abf3	-0.10189047
8	0xbd91b446	-0.071144626
9	0x3f81b6c0	1.0133896
10	0xbca589d6	-0.020207327
11	0x3df82bce	0.1211773
12	0xbe608ad8	-0.21927965
13	0xbccc3f04	-0.024932392
14	0x3f9cd3d2	1.2252142
15	0x3fa876b1	1.3161222

onnx::Conv_305 f4 [8, 16, 1, 1]
0	0x3d6f64ea	0.05844585
1	0xbe834710	-0.25640154
2	0x3e2b0ad5	0.16703351
3	0xbda1a5b5	-0.07892934
4	0x3d571dc7	0.052518632
5	0x3debea60	0.11519313
6	0x3d768407	0.060184505
7	0x3dd54b20	0.104147196
8	0xbdfdc604	-0.12391284
9	0xbcc0747b	-0.023493042
10	0x3d502974	0.050820783
11	0xbe133f9a	-0.14379731
12	0x3deb5148	0.114901125
13	0x3d3b66ef	0.045752462
14	0xbe00c5b1	-0.12575413
15	0x3e521fdb	0.20519964
16	0x3e8459de	0.25849813
17	0x3df076ba	0.11741395
18	0x3f8b0e62	1.0863764
19	0xbd351587	-0.044209983
20	0x3d1b3749	0.03789452
21	0xbed5f415	-0.41787782
22	0xbdbc990a	-0.092088774
23	0xbe9ac94a	-0.30231696
24	0xbe700e67	-0.23442994
25	0x3bb80b8d	0.0056166113
26	0xbe31f057	-0.17376839
27	0xbe74838a	-0.23878303
28	0xbe06f211	-0.13178279
29	0x3e9acfe5	0.30236736
30	0xbecaca3a	-0.39607412
31	0xbf06fe01	-0.5273133
32	0xbf09237f	-0.5356979
33	0xbe3fa1e0	-0.18714094
34	0xbd54c9ee	-0.051950388
35	0x3ddaa103	0.10675242
36	0xbe67cd28	-0.22636855
37	0xbecf90b0	-0.40540075
38	0xbdfcc687	-0.123425536
39	0xbee13716	-0.4398734
40	0xbee5e078	-0.4489782
41	0x3ef23555	0.47306314
42	0xbddc69f5	-0.10762397
43	0xbec0af7f	-0.37633893
44	0xbe4912d2	-0.19636086
45	0xbcd1f580	-0.025629759
46	0x3dd53b98	0.10411757
47	0xbd5efd12	-0.054440565
48	0xbce65a8c	-0.028119348
49	0xbf0d1c95	-0.5512174
50	0x3db8fea5	0.090329446
51	0xbe4d5f4c	-0.20055884
52	0x3d673fd2	0.05645735
53	0x3e2ecc34	0.17070085
54	0x3ef7906d	0.48352376
55	0x3ecbecbe	0.39829057
56	0xbe0cdf3e	-0.13757035
57	0x3d8c545c	0.06852028
58	0xbe41a141	-0.1890917
59	0xbdb0680e	-0.08613597
60	0x3e536a75	0.20646079
61	0x3ee35535	0.44400945
62	0xba7f7cc9	-0.00097460725
63	0x3e358060	0.17724752
64	0x3ed7caa7	0.421468
65	0xbe62db2d	-0.22153921
66	0x3e288f45	0.16460903
67	0xbecb3071	-0.39685395
68	0x3ceb4e26	0.028723788
69	0x3ed86266	0.42262572
70	0x3ef034f8	0.46915412
71	0x3ed62c1f	0.41830537
72	0x3edfb8a0	0.43695545
73	0xbef5f8cb	-0.48041376
74	0x3e259ac6	0.16172323
75	0xbe8ab2f8	-0.27089667
76	0x3f8519b6	1.0398471
77	0x3e06243f	0.13099764
78	0xbf0a34da	-0.53986895
79	0x3ee1d179	0.44105127
80	0x3e465420	0.19368029
81	0x3e8d1a3b	0.27559075
82	0xbe193127	-0.14960156
83	0xbe67bf2f	-0.22631525
84	0x3e518fce	0.20465013
85	0x3d7527de	0.059852473
86	0xbeb76440	-0.35818672
87	0x3dad416e	0.08459745
88	0xbe6ab0b4	-0.2291897
89	0xbe8af1d5	-0.27137628
90	0xbd3e1f45	-0.04641654
91	0xbda3fc7a	-0.080071405
92	0x3eb67a22	0.35640055
93	0xbeeedab9	-0.46651247
94	0xbe5508e6	-0.20804176
95	0xbeb066e9	-0.34453514
96	0xbdbfe951	-0.093706734
97	0xbecc7638	-0.39933944
98	0xbe620611	-0.22072627
99	0xbef3db61	-0.4762831
100	0x3ecd7b5e	0.40133184
101	0x3ed8c931	0.42340997
102	0xbe34505d	-0.17608781
103	0xbca872c1	-0.020562531
104	0xbec6db8b	-0.38839373
105	0x3e88346e	0.266025
106	0xbd94969d	-0.0725529
107	0xbf14a307	-0.5806126
108	0xbda1477c	-0.07874963
109	0x3ce57630	0.028010458
110	0x3c8d4caa	0.01724847
111	0x3e417f80	0.18896294
112	0x3e67f953	0.22653703
113	0x3e38dac9	0.1805221
114	0x3d28f515	0.041249353
115	0xbe8a321f	-0.26991364
116	0x3df34cb2	0.11879863
117	0x3ca18f3d	0.019721622
118	0xbda0a756	-0.07844417
119	0x3e4884a3	0.19581847
120	0xbd13af9e	-0.036056153
121	0x3e06353c	0.13106245
122	0xbe14804e	-0.1450207
123	0xbdfdbb41	-0.123892315
124	0x3f3429c5	0.70376235
125	0x3dc8c796	0.09803693
126	0xbe8cf58d	-0.2753109
127	0xbe7ece87	-0.24883471

onnx::Conv_306 f4 [8]
0	0xbe0a6636	-0.13515553
1	0x3d30ec2f	0.043193992
2	0x3f7c7fa2	0.9863225
3	0xbf09a595	-0.53768283
4	0xbf7ec077	-0.9951243
5	0x3f2c47e6	0.6729721
6	0x3f098e34	0.5373261
7	0xbe9645d6	-0.29350156

onnx::Conv_308 f4 [16, 8, 1, 1]
0	0x3d20abe1	0.039226416
1	0x3c899fb5	0.016799787
2	0x3d00108f	0.03126579
3	0x3d2a799e	0.04161989
4	0x3dc68bbd	0.09694622
5	0x3b196191	0.0023404101
6	0x3cfcf9ae	0.030880775
7	0x3d25110a	0.040299453
8	0x3f1b98c5	0.6077998
9	0x3f034234	0.5127289
10	0xbe1455d1	-0.14485861
11	0xbf08a19d	-0.533716
12	0x3e2de744	0.16982752
13	0xbbbadbbd	-0.0057024644
14	0x3ef96d28	0.48716092
15	0xbd81581d	-0.063156344
16	0xbf097cd8	-0.5370612
17	0xbe180524	-0.14845711
18	0xbe6ad0a2	-0.2293115
19	0xbdf779b0	-0.12083757
20	0xbe73109a	-0.23736802
21	0xbe8e74d9	-0.27823523
22	0x3cd38067	0.025818063
23	0xbdab27fa	-0.08357234
24	0xbd2a31f7	-0.041551556
25	0x3f2d61be	0.6772727
26	0x3e957b8c	0.2919582
27	0x3e5c4d99	0.21513976
28	0xbed4b6c7	-0.41545698
29	0xbe7034b6	-0.23457608
30	0x3d2e09ac	0.042489693
31	0x3dc60ce3	0.09670427
32	0xbe16b6a8	-0.14718115
33	0x3d8db4dc	0.06919262
34	0x3edb651b	0.42850575
35	0xbd601d0e	-0.05471521
36	0xbe906ddb	-0.28208813
37	0xbd60aab3	-0.05485029
38	0xbde38733	-0.111097716
39	0xbcddee6e	-0.027091231
40	0x3e497a3b	0.19675533
41	0x3ed8b504	0.42325604
42	0x3ea52f19	0.32262495
43	0x3e00245b	0.12513869
44	0x3c80adff	0.015707968
45	0xbe513a6e	-0.20432445
46	0x3e7b1722	0.24520543
47	0xbdeb31b0	-0.114840865
48	0xbb9d742c	-0.0048051085
49	0x3d8d92ac	0.06912741
50	0xbe761b41	-0.24033834
51	0xbe5fb20f	-0.21845268
52	0x3e6d36ca	0.23165432
53	0x3f2b60fd	0.6694487
54	0xbd3c2fc9	-0.04594401
55	0x3e919c7c	0.284397
56	0x3dbecf84	0.09316924
57	0xbd4fbfce	-0.05072003
58	0x3daeee99	0.08541603
59	0x3d8eb234	0.06967583
60	0xbd67c5e5	-0.05658521
61	0x3de3bba5	0.11119775
62	0x3db45e22	0.08807017
63	0xbc86fc1a	-0.016477633
64	0x3d9bb2e4	0.0760248
65	0x3ccd6a9b	0.025075248
66	0x3d866aed	0.06563363
67	0x3b73913a	0.003716542
68	0xbbf0f56e	-0.0073534762
69	0x3dcf63c9	0.101264544
70	0x3d43d7af	0.047813114
71	0xbcdbf9e6	-0.02685256
72	0x3dba8d1a	0.09108944
73	0x3dfa1a72	0.12212075
74	0xbec7b4d2	-0.39005142
75	0xbe78ca8f	-0.2429602
76	0x3d83d152	0.06436409
77	0x3db15cdd	0.086602904
78	0x3dd08f7a	0.10183616
79	0x3c8e3574	0.017359473
80	0xbea20282	-0.31642538
81	0xbdbe7a59	-0.0930068
82	0xbe76ab36	-0.2408875
83	0x3bf3f9a3	0.0074455305
84	0xbddf0930	-0.10890424
85	0xbe2c512a	-0.16827837
86	0x3e1b71c2	0.15180114
87	0x3cb93c05	0.022611627
88	0xbe3eee13	-0.18645506
89	0xbdb991a0	-0.09060979
90	0x3dab8e60	0.08376765
91	0xbdb6d88d	-0.089280225
92	0xbe9b1904	-0.30292523
93	0x3d89a9c4	0.06721833
94	0xbcda4525	-0.026644299
95	0x3d668d0c	0.056286857
96	0xbdcb1cbf	-0.09917592
97	0x3c426807	0.011865622
98	0x3eade6a9	0.33965042
99	0xbd2a8cc2	-0.041638143
100	0xbe91eb6d	-0.28499928
101	0x3e1636ce	0.14669344
102	0x3d552b93	0.05204351
103	0xbcdecc8f	-0.02719715
104	0xbea765ce	-0.32694858
105	0x3dd62fb4	0.104583174
106	0xbe0251de	-0.12726542
107	0xbf26e7a4	-0.65197206
108	0xbe98c494	-0.29837477
109	0x3e7a804d	0.24463005
110	0xbe7ee8a2	-0.2489343
111	0xbec46392	-0.38357216
112	0x3c99bb3e	0.018766042
113	0x3e72c6ff	0.23708723
114	0xbc3c138b	-0.011479269
115	0x3ea4d7d2	0.32195908
116	0x3dde8870	0.10865867
117	0xbd1f4ec9	-0.038893495
118	0x3de5f492	0.11228289
119	0xbb45ac06	-0.0030162348
120	0xbe16bfc0	-0.14721584
121	0xbd7031a8	-0.058641106
122	0x3f0fa04f	0.56103987
123	0x3c2689a8	0.010164656
124	0xbdfca54a	-0.12336214
125	0xbec8c542	-0.39212996
126	0xbbcb9f64	-0.006214069
127	0x3e1d13c3	0.1533957

onnx::Conv_309 f4 [16]
0	0x3fa2bdba	1.271415
1	0xbf0909f1	-0.53530794
2	0x3f12096a	0.57045615
3	0x3e46d693	0.19417791
4	0xbe04cec7	-0.12969504
5	0x3e644c29	0.22294678
6	0xbe1c1f48	-0.15246308
7	0x3f9b8304	1.2149358
8	0x3fa55e6d	1.2919441
9	0x3ef1df71	0.47240785
10	0x3f7072b7	0.9392504
11	0xbef34267	-0.47511598
12	0xbed317b3	-0.4122902
13	0xbf0d948a	-0.5530478
14	0x3f133ea4	0.57517457
15	0x3d2a46d5	0.041571457

onnx::Conv_311 f4 [16, 1, 3, 3]
0	0xbf0101da	-0.5039345
1	0xbe865677	-0.26237842
2	0xbbb7a870	-0.005604796
3	0xbf5c0bfb	-0.8595578
4	0xbefb8d1c	-0.49131095
5	0xbe04f68e	-0.12984678
6	0xbeada116	-0.3391196
7	0xbd3e8b79	-0.04651973
8	0xbd258eb5	-0.0404193
9	0xbd102df9	-0.035200093
10	0xbe4122f5	-0.18860991
11	0xbe1c52a3	-0.15265898
12	0xbdc72b7d	-0.097250916
13	0xbe9af45b	-0.30264553
14	0xbe6e72ba	-0.23285952
15	0xbc99ec83	-0.018789535
16	0xbe52f9a7	-0.20603047
17	0xbe0d9503	-0.13826375
18	0xbde12397	-0.10993116
19	0x3df46af4	0.11934462
20	0x3e94fd47	0.29099485
21	0xbd2373e6	-0.03990545
22	0x3e93de66	0.28880614
23	0x3ea9abae	0.33138794
24	0x3e08a4cb	0.13344114
25	0x3dfad3c8	0.12247425
26	0x3dc8ee33	0.09811058
27	0x3dbb1bc5	0.09136156
28	0x3e673bcd	0.22581406
29	0x3e79b851	0.24386717
30	0x3da4de8d	0.08050261
31	0x3e49eed9	0.1972002
32	0x3e51a080	0.20471382
33	0x3d2dff6f	0.04247993
34	0x3d3a0317	0.045413103
35	0x3d567ddd	0.052366126
36	0x3ebbe5f0	0.36698866
37	0x3ef45cae	0.4772696
38	0xbd589dd0	-0.052884877
39	0x3e931407	0.28726217
40	0x3f022bdd	0.5084818
41	0xbdc7088b	-0.09718426
42	0x3d96d0fa	0.07364078
43	0x3ecb5b4b	0.39718089
44	0x3d3be148	0.04586914
45	0xbebdb61d	-0.37053004
46	0xbec594fd	-0.38590232
47	0xbe55bc5d	-0.20872636
48	0xbcd5b6cd	-0.026088143
49	0xbdcc6c5a	-0.09981604
50	0x3dc77141	0.09738398
51	0x3ee6fe2f	0.45115802
52	0x3eb75cf7	0.35813114
53	0x3db53623	0.088482164
54	0xbe4a8b2e	-0.19779655
55	0xbea5b779	-0.3236654
56	0xbe41d68d	-0.18929501
57	0xbe99d1d1	-0.3004289
58	0xbedf235b	-0.43581662
59	0xbeafd14c	-0.34339368
60	0xbe1baf26	-0.15203533
61	0xbe1916bb	-0.14950077
62	0xbe73a46b	-0.23793189
63	0xbe4d9b02	-0.20078662
64	0xbebcb2d2	-0.3685518
65	0xbe5c0c20	-0.21489
66	0xbe5417b8	-0.20712173
67	0xbf1c64e3	-0.6109144
68	0xbf096046	-0.53662527
69	0x3deb8e2c	0.115017265
70	0xbee01463	-0.43765554
71	0xbeef94dd	-0.4679326
72	0x3f2e0dc6	0.67989767
73	0x3fab43bd	1.3380047
74	0x3f097e01	0.5370789
75	0x3e4661e3	0.19373278
76	0xbee787dd	-0.45220843
77	0xbe205e79	-0.15661038
78	0xbf167e5b	-0.58786553
79	0xbf5f11c0	-0.8713646
80	0xbf70eb54	-0.9410908
81	0xbe6eeb85	-0.23332031
82	0xbf2348f2	-0.6378318
83	0xbe547c1b	-0.20750467
84	0x3ddee437	0.10883372
85	0xbe6b13d0	-0.22956777
86	0xbec43b44	-0.38326466
87	0x3d9b2797	0.075759105
88	0x3e4184d6	0.18898329
89	0x3cc8bbe8	0.024503663
90	0xbe234969	-0.15945973
91	0xbe4a586a	-0.1976029
92	0xbeb2c08f	-0.34912536
93	0xbeecc96c	-0.46247423
94	0xbf043f7b	-0.51659364
95	0xbee91cfb	-0.45529923
96	0xbe314c2f	-0.17314218
97	0xbedf5110	-0.43616533
98	0xbeb6d29d	-0.3570756
99	0x3e436d40	0.19084644
100	0xbef16953	-0.47150669
101	0xbf940c90	-1.1566334
102	0x3f042a81	0.51627356
103	0xbdc7d49c	-0.09757349
104	0xbf556a94	-0.8336575
105	0xbdea769b	-0.114484034
106	0xbf65de41	-0.8979226
107	0xbfac9182	-1.3481905
108	0x3dc3691b	0.09541532
109	0x3d9aeb9b	0.075644694
110	0x3e1bd237	0.1521691
111	0x3e025ff0	0.1273191
112	0x3ece0d1e	0.40244383
113	0x3f54e210	0.83157444
114	0x3e626681	0.22109415
115	0x3ed49f10	0.41527605
116	0x3edaba6c	0.42720354
117	0x3cac5008	0.021034256
118	0xbcecfba2	-0.028928582
119	0xbd7b0d46	-0.061291955
120	0x3e1dcd4f	0.1541035
121	0x3e830106	0.25586718
122	0x3e0ad773	0.1355875
123	0x3df1cac6	0.11806254
124	0x3eca9e64	0.39573967
125	0x3eab3212	0.33436638
126	0x3a4a6087	0.0007720072
127	0x3c92d49a	0.017923642
128	0xbe1198f4	-0.14218503
129	0xbe9669cf	-0.293776
130	0xbed27031	-0.4110122
131	0xbe36e6cb	-0.17861478
132	0xbefcf890	-0.49408388
133	0xbf1b9b5f	-0.6078395
134	0xbcc1091e	-0.023563918
135	0xbd8e77cb	-0.069564424
136	0x3ce284b1	0.027651163
137	0x3e4ad4ed	0.19807787
138	0xbe11b6dd	-0.14229913
139	0xbe8c1dcd	-0.27366486
140	0xbe4572b6	-0.1928204
141	0xbcde930b	-0.027169725
142	0xbef79f6a	-0.4836381
143	0xbef6a7c2	-0.48174864

onnx::Conv_312 f4 [16]
0	0x404ac240	3.168106
1	0x3fd75e6b	1.6825689
2	0xbd0ddb40	-0.03463292
3	0xbf4680ce	-0.7754029
4	0xbf8ae110	-1.0849934
5	0xbe0901a8	-0.13379538
6	0x400f064c	2.2347593
7	0x409d3dc6	4.9137907
8	0x3f6e1154	0.9299519
9	0x3f876824	1.0578656
10	0x4023cad9	2.5592558
11	0x3f9cba7d	1.2244412
12	0xbe951218	-0.29115367
13	0x3f1d5d8e	0.6147088
14	0x3f6bc3c8	0.92095613
15	0x3f9c3de0	1.2206383
