model_checkpoints/experiments/overall/fastscnn_128a0.25t2r3pp0.pt (torch, 230443 bytes, 196 tensors)

learning_to_down_sample.conv.conv.weight f4 [8, 3, 3, 3]
000000 1d cd 25 be fb 87 ac be 8e 8f 6e be b9 47 bd 3d
       -0.16191526 -0.33697495 -0.2329695 0.09242196
000010 ef f6 71 be f9 19 46 be 4d 8d 12 be 75 6e e0 bd
       -0.23629354 -0.19345845 -0.14311714 -0.10958568
000020 74 95 b0 be c2 40 99 be 72 46 04 bf 36 e9 c4 be
       -0.34489024 -0.2993222 -0.5166999 -0.38459176
000030 90 37 a9 be 1b 38 28 bf bd 95 1c bf 39 65 60 be
       -0.33050203 -0.6571061 -0.6116598 -0.21913613
000040 ac 49 16 bf 4b 6a 86 be d1 33 5e 3d e3 84 04 3d
       -0.58706164 -0.2625297 0.054248635 0.032353293
000050 cb f4 78 3e 37 75 c0 3e 6e 91 53 3e 53 81 24 3e
       0.24312131 0.37589428 0.20660946 0.16064958
000060 ca 63 fe 3d 64 bf 19 bd 4c 6a 7a bd 6d fb c2 3e
       0.12421377 -0.03753604 -0.06113653 0.38082448
000070 7e db 62 bb 4b 3d aa 3e 03 21 62 3d da b3 b2 be
       -0.003461569 0.33249888 0.055207264 -0.3490284
000080 c5 ed 93 3e 39 6f 49 3e 68 a1 2b 3d cd ee d7 3d
       0.2889234 0.19671334 0.041901976 0.105435945
000090 f2 03 09 3e 14 62 60 3e dc cd fb 3e 5a 76 11 3f
       0.13380411 0.21912414 0.49180496 0.56821215
0000a0 fd 62 3a 3e 32 0f ac 3f 4a 75 75 bd 72 99 0c 3f
       0.18201824 1.3442137 -0.05992631 0.5492164
0000b0 bc 4a 3b 3f 6b e7 35 bf a0 62 0b bf 34 b5 02 3e
       0.7316091 -0.7105624 -0.54447365 0.12764436
0000c0 6b 87 35 bf d2 6b d6 be 15 9d ae 3e 97 6a 0f bf
       -0.70909756 -0.41879135 0.3410422 -0.5602202
0000d0 be 60 07 3e f8 23 35 3d 54 a9 5a 3e 6c 73 fa 3b
       0.13220498 0.044223756 0.21353656 0.007643154
0000e0 cc 80 6e bd a2 f7 e7 3e ee 83 ef 3b f9 6a 54 be
       -0.0582283 0.45306116 0.0073094284 -0.20743932
0000f0 ac 6c b4 3e 01 07 15 be 57 d9 1a be 6a 49 0a 3f
       0.3523916 -0.14553453 -0.15121971 0.5401827
000100 8f 78 8f 3e 7b 74 85 be d5 36 aa 3e 53 c4 73 be
       0.28021666 -0.2606543 0.3324496 -0.2380536
000110 f8 02 33 bf f5 6f 12 3f 9e 61 c2 be 7c 76 fb be
       -0.69926405 0.5720208 -0.379651 -0.49113834
000120 45 87 bf 3e 7e 7f 5d bd 05 ac 0f be ae 0b e3 3e
       0.3740789 -0.054076664 -0.14030464 0.44344848
000130 c5 a4 7f be 2e f3 bf be df 89 cc 3e e5 8c 1f be
       -0.24965198 -0.3749022 0.39948937 -0.15581091
000140 d4 00 06 bf b4 11 c9 3e f1 f3 2e 3e cd c6 0d 3e
       -0.52345014 0.3927132 0.17085244 0.13845368
000150 3b 3d 47 be 94 c4 b0 be 95 25 09 bf ae 77 66 3d
       -0.19456951 -0.34524977 -0.5357297 0.05626648
000160 4b 3e 4f 3d bc e5 a1 3e a7 8f 0e 3f e4 40 0c 3f
       0.050596517 0.31620586 0.55687946 0.54786515
000170 3e 8d 52 3f db cb ef be 55 30 22 bf 84 04 ac be
       0.8224677 -0.46835217 -0.63355 -0.33597195
000180 6d 4c 88 be 65 dd 0c bf ec 14 18 3e af 81 1e 3f
       -0.26620808 -0.5502532 0.14851731 0.6191663
000190 0b 72 05 3f 15 98 ee 3e b3 31 c0 be 32 90 24 bf
       0.5212714 0.46600404 -0.37537917 -0.64282525
0001a0 cf 44 c5 be cf 3f 55 be ba 06 44 be d2 97 e0 3d
       -0.3852906 -0.20825122 -0.19143191 0.109664574
0001b0 41 d4 55 3c 31 bf 98 be 4e af 36 bf ac 29 9e 3e
       0.013051094 -0.29833367 -0.71361244 0.30891168
0001c0 d5 99 2d bf c1 71 fc be 72 b4 8f 3e 0e b6 4b be
       -0.67812854 -0.49305537 0.28067356 -0.19893667
0001d0 7f fc 03 3a e5 b6 62 3e e7 d9 46 3f 56 e3 1d 3d
       0.0005034878 0.22140081 0.7767624 0.038546883
0001e0 b8 4b 10 3f f7 79 8e 3e ca 47 bb 3e 8c 9a 1d bf
       0.5636554 0.27827427 0.36578208 -0.61563945
0001f0 a4 af 8d 3e 48 c3 47 3f 3f 3d 5a be 4b fe 4c 3e
       0.27673066 0.7803235 -0.21312426 0.2001888
000200 8a c1 fc be 02 87 ba 3e 74 4a ee be 0f c5 80 3b
       -0.4936641 0.36431128 -0.46541178 0.003929741
000210 d1 bf 84 be 2f a5 2e be 0c 5c a6 3e a5 2f c5 3d
       -0.25927594 -0.170552 0.324921 0.09628228
000220 a8 b4 1a 3e e2 d3 4d 3e 32 10 23 3d 09 2f 1b 3f
       0.15107977 0.20100358 0.039810367 0.60618645
000230 95 c2 fe bd 86 60 88 3e e5 47 11 3e b1 32 7a bd
       -0.12439457 0.26636142 0.14187582 -0.0610835
000240 fc 8e b4 3e 8f 23 fa 3e 3f c9 15 3f b6 f9 8c 3d
       0.35265338 0.48855254 0.585102 0.06883566
000250 8a 9c c4 3f 99 04 01 3d ea 42 8b 3e 3c bb 52 3e
       1.5360272 0.031498525 0.2719949 0.20579237
000260 8a 18 5d bd 99 06 e2 be 67 d7 d4 be 6b b5 b3 be
       -0.05397848 -0.4414566 -0.4157059 -0.35099348
000270 c7 4d 3c bf 4f ea 33 3f 21 ce b6 be dd cb 00 bd
       -0.7355618 0.702794 -0.3570414 -0.03144442
000280 68 df 0d bd ee 97 3f be 1e d4 d0 bc 7a 02 b1 be
       -0.034636885 -0.187103 -0.02549177 -0.34572202
000290 e4 53 af be 85 46 0a bd 33 5d 27 bf 10 08 fe be
       -0.3424369 -0.03375866 -0.65376586 -0.49615526
0002a0 d0 02 39 bc 72 46 56 be 88 7b 51 bd 02 45 61 be
       -0.011292174 -0.2092531 -0.0511432 -0.2199898
0002b0 8e 04 95 be 5d 5d 9b bb b4 88 19 be 72 c6 6c bf
       -0.29105037 -0.0047413544 -0.14993554 -0.92490304
0002c0 43 c3 10 bf 3e ce 0b bf 30 50 72 bf d3 21 5c bf
       -0.56547946 -0.54611576 -0.94653606 -0.8598911
0002d0 2b 82 c1 be d8 08 67 3e 7d 58 48 3e eb b2 04 3e
       -0.37794623 0.22561967 0.19565006 0.12958877
0002e0 5b 68 3e 3e 7d 5e 2c 3f 34 ca 45 3d f1 a2 3f 3f
       0.18594496 0.6733168 0.04828854 0.74858004
0002f0 14 6f 4f 3f f5 93 8d be 15 d8 1d bd c1 bf 03 3e
       0.81028867 -0.27651945 -0.03853615 0.12866117
000300 b8 bf 93 3e ea 90 e2 3e d7 9e b1 3e 1e 35 8f be
       0.28857207 0.44251186 0.34691498 -0.27970213
000310 36 77 81 be 2e 8d b8 be da 3c 92 be f4 54 b7 3e
       -0.25286263 -0.36045212 -0.2856205 0.35807002
000320 af b2 06 3f 04 76 56 3e a7 21 b7 3e bf b0 61 3f
       0.526164 0.20943457 0.35767862 0.8816032
000330 84 22 58 bf d8 1b 12 bf 6f 4e 1d bf aa b5 9e bd
       -0.84427667 -0.57073736 -0.61447805 -0.077494934
000340 6a 1e f6 bd d3 d9 d3 3e b6 2b a1 3e 1b e5 de 3e
       -0.1201752 0.41377124 0.3147866 0.4353417
000350 bc b2 2a 3f e8 cb 7e be 9f c2 53 bf 53 c1 21 bf
       0.66678977 -0.24882472 -0.82718843 -0.63185614

learning_to_down_sample.conv.bn.weight f4 [8]
000000 f1 0f f3 3e f7 db ae 3f a2 6d 9a 3f 16 d1 e9 3f
       0.474731 1.3660878 1.2064707 1.8266933
000010 3a b2 87 3f ac 67 a9 3f 7f 15 a2 3f 34 6e 07 40
       1.0601265 1.3234763 1.266281 2.1161013

learning_to_down_sample.conv.bn.bias f4 [8]
000000 8e 05 68 3f 92 0c f9 3e 6e 77 d3 be 93 7d 8c be
       0.90633476 0.48642403 -0.41302055 -0.27439556
000010 1e 50 cf be 03 b8 33 bf b3 69 2a 3f 31 42 40 be
       -0.40490812 -0.70202655 0.66567534 -0.1877525

learning_to_down_sample.conv.bn.running_mean f4 [8]
000000 62 98 fb be d2 6b 95 be f7 15 9e be 33 9e 15 be
       -0.49139696 -0.29183823 -0.30876133 -0.1461113
000010 98 70 61 3e 62 79 2c be e7 13 ce 3e ae 3e 2a bd
       0.22015607 -0.16843179 0.4024956 -0.041563682

learning_to_down_sample.conv.bn.running_var f4 [8]
000000 b5 6c e5 40 f9 44 94 40 a3 8a 40 40 e9 45 21 40
       7.16952 4.6334195 3.0084617 2.519892
000010 18 0d 41 3f 64 5d 80 40 95 f0 c0 40 68 b2 43 40
       0.75410604 4.0114 6.029368 3.057764

learning_to_down_sample.dsconv1.0.weight f4 [8, 1, 3, 3]
000000 ae 8e 01 bf 2b 3a f8 be 29 68 ad be c4 10 cc bd
       -0.50608337 -0.4848188 -0.3386853 -0.09964135
000010 9b 04 1d be cd 1b a4 3e f7 58 a3 3e 12 13 e4 3e
       -0.15333788 0.3205246 0.31903812 0.445458
000020 e5 d2 6e 3f 56 a0 15 be a6 89 c8 be d8 d8 ce be
       0.9329055 -0.14611945 -0.39167517 -0.40399814
000030 bd e3 9d be 67 a0 2f bf 91 74 07 bf e7 04 84 be
       -0.30837813 -0.6860413 -0.5291224 -0.2578499
000040 37 df d5 be 5b 64 93 be e6 c1 87 bd bb e8 25 be
       -0.41771862 -0.28787503 -0.0662878 -0.16202061
000050 0d c7 81 3e d1 be a9 be 7f 4d 7a be 60 e2 e5 3e
       0.25347176 -0.33153394 -0.24443625 0.44899273
000060 c9 48 9e be d9 19 97 bd 87 2c 35 3f 42 1c 33 be
       -0.30914906 -0.07377977 0.7077107 -0.17491248
000070 96 7d e2 be d7 e6 ca be 63 90 75 be 42 32 2d bf
       -0.4423644 -0.39629242 -0.2398086 -0.6765481
000080 9b 87 48 bf 46 8a e7 bb 9c ef f9 be 87 be f3 be
       -0.7833192 -0.007066044 -0.4881562 -0.47606298
000090 4d 96 85 be 0c 9f 1f bf c0 31 ea be 9a 33 36 be
       -0.26091233 -0.6235206 -0.4574108 -0.17793122
0000a0 62 f5 31 bf c1 9b 2e bf 91 5a 96 bc 7c cd bb be
       -0.6951505 -0.6820641 -0.018353732 -0.3668021
0000b0 29 82 f7 be a5 5d ae 3e a2 38 21 3f 61 c3 d7 3e
       -0.48341492 0.3405582 0.6297704 0.4214125
0000c0 b8 1d 9b 3e 46 53 50 3f 4e 33 10 3f ab 40 23 3e
       0.3029611 0.81377065 0.56328285 0.15942638
0000d0 66 c6 f5 3e 17 1e 89 3e 2d 1c 4b 3d 01 de 4a 3f
       0.48002928 0.2678077 0.049587417 0.79245
0000e0 4e b9 0b 3f 13 f8 e4 3e 16 d6 8a 3f 44 be 32 3f
       0.5457963 0.44720516 1.0846584 0.6982157
0000f0 7a c4 e9 3d e3 b4 d2 3e 1b 25 ac bd 64 4d 8d be
       0.11414428 0.4115363 -0.08405515 -0.27598107
000100 95 e8 e9 be 40 58 46 bf d7 67 58 be e6 0f 27 bf
       -0.45685259 -0.7747841 -0.21133362 -0.65258634
000110 a0 49 7a bf 7d 7f 9e 3d bd 21 9c be 96 25 fa be
       -0.9776859 0.0773916 -0.3049449 -0.488568

learning_to_down_sample.dsconv1.1.weight f4 [8]
000000 e7 88 84 3f 1f ce 93 3f e3 eb 44 3f 06 3d 9a 3f
       1.0354279 1.1547278 0.76922435 1.2049873
000010 40 49 99 3f 34 72 9f 3f ce 50 82 3f e4 ce 94 3f
       1.1975479 1.2456727 1.018091 1.1625638

learning_to_down_sample.dsconv1.1.bias f4 [8]
000000 81 12 bb bb 13 be d3 bd 6d 1b ec 3c a9 dc b6 bd
       -0.005708993 -0.10338988 0.028821671 -0.08928806
000010 40 26 04 bd de b7 86 3d 22 ea 13 3d b4 88 9d bc
       -0.03226304 0.06578039 0.03611196 -0.019230224

learning_to_down_sample.dsconv1.1.running_mean f4 [8]
000000 d5 82 e2 3e 44 3a 31 c0 d5 02 40 3d 8a 82 c3 bf
       0.44240442 -2.7691813 0.0468777 -1.5274212
000010 8b cf 3f bf 32 e9 46 3f d6 45 5f 40 87 ae 0a c0
       -0.7492606 0.7769958 3.4886374 -2.1669023

learning_to_down_sample.dsconv1.1.running_var f4 [8]
000000 66 1d de 3e 18 59 c7 40 4d 03 90 3f e2 5f 9a 40
       0.43381804 6.2296257 1.1251007 4.8242044
000010 5d 10 dc 40 b8 ce 2a 40 3e c1 36 41 ed cc 08 41
       6.8769975 2.668867 11.422178 8.550031

learning_to_down_sample.dsconv1.2.weight f4 [12, 8, 1, 1]
000000 3f 5d d5 be 5d 25 52 3e 3a 2b 8b 3e db 6a c0 be
       -0.41672704 0.20522065 0.27181417 -0.37581524
000010 57 39 5d bf 3a 64 f5 3c 65 da 29 3f 87 94 9d be
       -0.8641562 0.029955018 0.6634887 -0.3077738
000020 5d a0 12 be 48 f8 66 bf b2 48 61 3d e1 e3 2f be
       -0.14318986 -0.902226 0.05500097 -0.17176773
000030 a9 bb af be 37 78 46 3f 39 04 ce 3b cd 5a 64 be
       -0.3432286 0.77527183 0.0062871245 -0.22300263
000040 63 0f 41 3f 2f 76 74 3e 4b f8 b3 3d 68 bd 16 3e
       0.75414103 0.23873208 0.087875925 0.1472069
000050 16 0b 8e 3e b8 6a bb 3d b3 ba 71 3f 9a 2f 4f 3e
       0.27742833 0.09151214 0.94425505 0.20233002
000060 9a 5b 97 bf c5 6f 28 bc d5 03 8a bf d1 60 9d 3d
       -1.182483 -0.010280554 -1.078242 0.07684482
000070 40 ae 07 3b de ea 15 be 40 df 9f 3e 20 18 7c bd
       0.0020703226 -0.14640376 0.31225014 -0.061546445
000080 23 0d 88 3e 06 d6 15 3e 9f a2 1e 3f fa 08 0d bf
       0.26572523 0.14632425 0.6196689 -0.5509182
000090 9d 5c c8 be e8 9c 53 bd 52 0b f1 3e 13 7f 2e bf
       -0.39133158 -0.05166331 0.4707895 -0.6816265
0000a0 8f 1e 9a 3e e9 54 fa 3d f8 6f 6a 3c 34 f9 84 bd
       0.3010144 0.122232266 0.014308922 -0.06492844
0000b0 8d 14 c0 bf 48 fa 6f be 67 30 3e 3e 1e 1d d5 bd
       -1.5006272 -0.23435318 0.18573152 -0.10405944
0000c0 be fd 05 bf b8 c6 5d bf a7 77 01 3e aa 3b dc be
       -0.52340305 -0.86631346 0.126433 -0.4301427
0000d0 1d 91 86 be c6 3d 4f 3f a9 dc 07 bf bc 0c dd be
       -0.26282588 0.80953634 -0.53071076 -0.43173778
0000e0 59 76 93 be 3a 33 0a 3e e1 0f 05 be 0a 8b ee be
       -0.2880123 0.13496104 -0.12994339 -0.46590453
0000f0 aa 9a df 3e d8 79 2f be 4c d6 60 3f 26 df da be
       0.43672687 -0.17136323 0.8782699 -0.42748374
000100 56 4f b4 3e 03 9e 93 be 62 f2 a6 be 72 c0 9a 3f
       0.3521678 -0.2883149 -0.32606798 1.208998
000110 68 b9 fe bb 52 4b 8a 3e 14 a1 ae be d9 3f 9e 3f
       -0.007773567 0.2701059 -0.34107268 1.2363235
000120 c7 6d 9f be de 06 72 bf 6c c7 97 3d da 36 8d be
       -0.3113844 -0.9454173 0.074110836 -0.2758091
000130 be 68 cb be 8a 4d 5a 3f b6 ba 28 bf 46 09 94 be
       -0.3972835 0.85274565 -0.659099 -0.28913325
000140 ef c6 48 be 1a 1f 69 bf c9 06 d9 3d 1f d7 93 be
       -0.19607137 -0.9106308 0.10596997 -0.28875062
000150 67 09 0f bf f0 04 51 3f 33 e7 0b bf a8 de ac be
       -0.5587372 0.8164816 -0.54649657 -0.33763623
000160 b5 b5 25 3e b0 a6 7f be 92 dc d2 be 15 65 41 bf
       0.16182597 -0.2496593 -0.41183907 -0.75544864
000170 62 47 4b 3f e0 4b bd be 19 ec d7 3e 63 49 1d bf
       0.79405797 -0.3697195 0.42172316 -0.61440104

learning_to_down_sample.dsconv1.3.weight f4 [12]
000000 cb dd f5 3e cc c4 44 3f 16 e8 8f 3f a8 6a d0 3f
       0.48020777 0.7686279 1.1242702 1.6282549
000010 ca 97 e9 3e 0d f0 04 40 43 64 18 3f 11 c0 1a 3f
       0.45623618 2.0771515 0.5952799 0.6044932
000020 5d 50 b7 3f 88 90 0f 3f 0f ce 14 3f e5 1e a1 3f
       1.43214 0.5607991 0.5812692 1.2587553

learning_to_down_sample.dsconv1.3.bias f4 [12]
000000 a1 ce 46 3f 96 72 4b 3f ab 42 bf be 14 84 5e be
       0.7765904 0.7947172 -0.3735555 -0.21730071
000010 b3 b7 4d 3f 99 37 23 3e af c1 51 3f 69 88 41 3f
       0.8035843 0.15939178 0.8193616 0.7559877
000020 b8 b5 9a bd 52 a5 5e 3f f5 8c 58 3f ef ef 29 3f
       -0.07554191 0.8697101 0.84590083 0.66381735

learning_to_down_sample.dsconv1.3.running_mean f4 [12]
000000 99 56 a8 3d 5e df 35 3e b5 24 4a bc 41 66 e0 bc
       0.08219642 0.17760989 -0.012337853 -0.027392508
000010 ae ae b7 3d ee a0 09 3d e5 e7 3d 3e cb 1c 24 3d
       0.089688644 0.03360074 0.18545492 0.04006652
000020 9b 3a dc bd cd 3b 35 3e cd 01 3b 3e ab 7f 6b 3d
       -0.107533656 0.17698593 0.18262406 0.0574948

learning_to_down_sample.dsconv1.3.running_var f4 [12]
000000 fc f3 fa 3f b9 b8 86 40 b2 d6 e3 3f 53 5c 2d 40
       1.9605708 4.210049 1.7799895 2.70876
000010 fa 56 3d 40 b3 6d 4a 40 d2 f2 b0 40 e4 1e 56 40
       2.9584336 3.1629455 5.529641 3.3456354
000020 a4 37 e5 40 65 e9 db 40 d1 0f cd 40 22 90 95 40
       7.163042 6.8722405 6.4081807 4.6738443

learning_to_down_sample.dsconv2.0.weight f4 [12, 1, 3, 3]
000000 74 55 06 bd 40 ae 5b be 7d 7f c4 bf a9 f8 37 3e
       -0.03279634 -0.2145319 -1.5351406 0.1796595
000010 98 b6 ad 3e 04 94 06 bf 4e 65 bb bc e2 37 1a 3f
       0.3392837 -0.52569604 -0.022875454 0.6024152
000020 d6 d7 09 3f 5c 61 9f bd d3 29 b0 be d8 67 f0 be
       0.53844965 -0.07782242 -0.3440691 -0.46954226
000030 56 ee e0 3c 6d 65 2d 3f 99 53 40 3f 58 01 da be
       0.027457397 0.6773289 0.7512756 -0.4257915
000040 e1 61 10 bf 41 0c 99 bd 98 88 51 bd 45 1d a3 3e
       -0.5639935 -0.0747304 -0.051155657 0.31858268
000050 c5 ca 2e 3f da 79 1d be e0 42 1e 3e 57 eb 01 3f
       0.6827815 -0.15378514 0.15455198 0.50749725
000060 e2 c1 3a bf c3 73 fa be 36 b6 ae be 25 06 a2 3e
       -0.7295209 -0.48916444 -0.3412339 0.31645313
000070 e6 e9 a9 3e 40 4f 77 3e cf 75 f4 3e dd bb 3a 3f
       0.33186263 0.24151325 0.4774613 0.72942907
000080 66 17 3e 3f f9 45 09 3e 2c 4a 9e 3e 36 ff af 3e
       0.74254453 0.13405599 0.30915964 0.34374398
000090 60 30 d3 bd 17 19 c1 3b 50 94 15 3f d0 3d 96 bd
       -0.10311961 0.0058928835 0.5842943 -0.073360085
0000a0 b0 10 84 3e 4d 75 66 3f 70 60 3f be 86 51 26 bf
       0.25793982 0.90022737 -0.18689132 -0.64968145
0000b0 0c 95 fd be 01 f0 0e bf 67 25 ee be 6a a2 6d be
       -0.49527776 -0.55834967 -0.4651291 -0.23206487
0000c0 bd 4e b0 3b 01 af d0 be 9e 69 be be 7f 5a 50 3e
       0.00538048 -0.40758517 -0.37189955 0.20347022
0000d0 0e 42 ca be 9b b7 28 bf 8d e0 4d 3e d2 c1 07 3f
       -0.3950352 -0.6590516 0.2010519 0.5303012
0000e0 9a ae 25 be 3f 7e 38 3f 18 59 13 3f 53 e4 76 be
       -0.16179886 0.72067636 0.5755782 -0.24110536
0000f0 31 36 8e 3d ea 27 50 bf a3 48 79 bf 71 42 c6 3d
       0.0694393 -0.81310904 -0.9737646 0.096806414
000100 cc fe 87 3e 02 9a 38 3f c0 49 17 bf b1 f1 db be
       0.26561582 0.7211 -0.5909691 -0.42957833
000110 bc ce d7 be bf 8c 0a bf 80 6a f8 3e ec c9 0e 3f
       -0.42149913 -0.5412101 0.48518753 0.5577686
000120 c4 77 dd bc 87 0a a8 be ac a4 8c be 99 a7 4a be
       -0.027034648 -0.32820532 -0.27469385 -0.19790496
000130 32 21 01 bf 92 c9 46 bf 60 dc 8c be 15 d2 3e bf
       -0.5044128 -0.7765132 -0.27511883 -0.7453931
000140 ef 8c 26 bf 7a ef 95 3e 05 b9 63 3e c3 18 41 3f
       -0.650588 0.2928427 0.22238548 0.7542841
000150 9b e9 bb be a4 51 34 bf 6f 58 3d 3e d1 a5 56 be
       -0.36701664 -0.70437074 0.18490766 -0.20961691
000160 98 41 73 bf 06 96 2f bc 34 28 e2 be f1 3e 48 3e
       -0.95021963 -0.010716921 -0.44171298 0.1955526
000170 7d 99 89 3f 6a 88 62 be d1 e9 27 3f bc 39 69 3f
       1.0749966 -0.2212235 0.6559115 0.9110372
000180 64 f4 92 bd 9b 2f 28 be bf 39 0c bf 97 dc 0f 3e
       -0.0717552 -0.1642441 -0.54775614 0.14048992
000190 a1 cc 21 3f e0 70 84 3d 15 a4 50 3e 2e 5e 82 3f
       0.63202864 0.06466842 0.20375092 1.0184991
0001a0 a3 cf f8 3e c4 7a 9e 3e 49 10 1b 3f 92 ba 9e 3e
       0.48595914 0.30953038 0.60571724 0.31001717

learning_to_down_sample.dsconv2.1.weight f4 [12]
000000 79 8d 8a 3f c8 54 46 3f a2 60 de 3e 01 06 48 3f
       1.0824424 0.77473116 0.434331 0.7813416
000010 01 d0 79 3f 12 45 7d 3f 4e 94 90 3f 1a cb 3f 3f
       0.97583014 0.9893352 1.1295259 0.74919283
000020 5c 72 a3 3f 6a 07 be 3f 09 1f c1 3f ea 86 47 3f
       1.2769275 1.4846013 1.5087596 0.7794024

learning_to_down_sample.dsconv2.1.bias f4 [12]
000000 19 e9 c3 3c 50 cf 9e bc f4 25 5e 3b 0b 9b 09 3d
       0.02391486 -0.019385964 0.0033897134 0.033595126
000010 13 46 1b 3c 51 32 58 bc 4c b9 a2 3d e2 d4 3c 3d
       0.009477156 -0.01319559 0.07945499 0.04610146
000020 bb 3f d7 3d 27 5d 74 3c 09 99 69 bd 87 bf c1 3c
       0.105102025 0.014914787 -0.05703071 0.023650898

learning_to_down_sample.dsconv2.1.running_mean f4 [12]
000000 95 11 eb be 19 cc b6 be 09 d5 92 bc e6 25 c4 3f
       -0.45911852 -0.3570259 -0.017923849 1.5324066
000010 8c 99 37 3e 2b 68 d5 bf d0 26 2c be b7 1b 0c 3e
       0.17929667 -1.6672415 -0.16811681 0.13682447
000020 ab 3b ec bf 46 7d 3a bf 20 a3 95 3f 5c 43 45 40
       -1.8455709 -0.728474 1.1690407 3.0822363

learning_to_down_sample.dsconv2.1.running_var f4 [12]
000000 31 82 58 3f eb 96 80 3e 7b b6 05 3f 8c fa 0e 40
       0.84573656 0.2511514 0.5223157 2.2340422
000010 71 4d 07 3f e7 55 a5 41 22 2f d6 3e 11 eb f3 3e
       0.5285254 20.666945 0.41832834 0.4764028
000020 57 0b 50 40 9e 3e 03 3f ad 86 65 3f fb 63 91 40
       3.2506921 0.5126742 0.89658624 4.5434546

learning_to_down_sample.dsconv2.2.weight f4 [16, 12, 1, 1]
000000 75 c5 fc 3e 33 fa 80 3e 17 b7 45 be ef e3 84 3e
       0.49369398 0.25190887 -0.19308124 0.2595515
000010 67 27 8f be 23 76 39 bf 70 53 31 3e 88 bb 93 3e
       -0.2795975 -0.7244589 0.17316985 0.28854012
000020 ba 63 3e 3e 21 ef 80 bf 7a 29 bd 3e 29 6b d5 be
       0.1859273 -1.0072976 0.36945707 -0.4168332
000030 0e 11 a6 be 04 64 1e 3f 88 7e 06 3f 21 14 11 3f
       -0.32434887 0.6187136 0.5253682 0.5667134
000040 c2 9f e2 bd d4 b0 c3 bc ba 83 83 3e 43 e8 95 3f
       -0.11065628 -0.02388803 0.25686437 1.1711506
000050 0b a0 b5 bd 40 cf 3e bf 00 31 51 be 64 56 0c 3f
       -0.088684164 -0.7453499 -0.20428848 0.5481932
000060 53 ce e6 3d 71 53 58 bd 73 53 4d 3d b3 93 0a 3f
       0.11269822 -0.05281395 0.05012841 0.5413162
000070 3b 59 97 be e2 43 30 3d 18 28 fc bf 8c b2 a5 3d
       -0.29560265 0.043033488 -1.9699736 0.08090696
000080 41 95 85 be 6c f3 9d 3e 3a 4f 5f be a0 85 83 3e
       -0.26090434 0.3084978 -0.21807566 0.25687885
000090 7d 0f 4d 3e 72 e6 93 bf 70 61 68 3e f4 82 71 3e
       0.2002544 -1.1554701 0.2269342 0.23585111
0000a0 ae e1 f6 3d f4 37 7f 3e 85 80 aa be 01 44 f7 3d
       0.12054764 0.24923688 -0.33301178 0.120735176
0000b0 a9 c8 c3 3c 3c 09 9b bd 77 f1 65 bf b6 66 41 3f
       0.023899393 -0.07570121 -0.8982157 0.7554735
0000c0 71 a7 48 be ac 8b 31 3d 3c f2 bd bd ad 74 8d bd
       -0.19595124 0.043346092 -0.09274718 -0.0690702
0000d0 fd 6b b1 be 85 7a 2d 3f b3 d8 c8 bd 47 eb b6 bd
       -0.346527 0.67765075 -0.09806957 -0.08931594
0000e0 b3 7b 89 3f 54 27 27 bf e0 ea f2 3e d6 46 b8 be
       1.0740875 -0.65294385 0.4744482 -0.35991544
0000f0 d0 30 7b bf 64 48 06 bf 1c 27 23 be 1c 8c ad 3e
       -0.98121357 -0.5245421 -0.15932888 0.33895957
000100 b8 03 07 3e e2 78 16 bf d4 94 bc 3d b5 8a 9a bb
       0.13185012 -0.587782 0.09208074 -0.004716242
000110 f8 10 17 3e 11 62 18 3e 5b 58 57 3f 31 e8 a2 be
       0.14752567 0.1488116 0.84119195 -0.31817773
000120 e2 94 ab bd 03 75 64 be 92 d3 47 3f a7 47 29 3e
       -0.083780065 -0.22310261 0.78057206 0.1653124
000130 15 9e 84 3f 69 b9 f2 bd 49 36 1e bf 34 fc 90 bf
       1.0360743 -0.118517704 -0.6180158 -1.1326966
000140 4f 0c 29 3e 80 9e 0a bf 2c 5c ee be 80 05 a2 3d
       0.16508602 -0.541481 -0.46554697 0.07911205
000150 d0 6f 53 3e 36 af 96 be 4c 4d 04 3d 70 1d 59 3e
       0.20648122 -0.2943055 0.03230028 0.21202636
000160 4a 76 0e 3f 1e 3d 2a 3e 2b 82 b1 bd 5e eb 09 3c
       0.55649245 0.16624877 -0.08667406 0.008417932
000170 64 f3 60 bf 68 0a 17 bf e9 d5 58 3f 1c 29 c2 3e
       -0.87871385 -0.59000254 0.847014 0.3792199
000180 22 4d 8e 3e 25 79 5d 3d f8 fe 27 be 8a 59 e3 be
       0.27793223 0.05407061 -0.16405857 -0.4440425
000190 9c ed 96 bf d2 c4 27 3f 8d a1 3e 3e f0 5b d0 3e
       -1.1791263 0.655347 0.18616314 0.40695143
0001a0 94 6f 13 bf e5 35 e4 3e 47 87 2d be 0e 68 64 bc
       -0.5759213 0.44572368 -0.16946135 -0.013940824
0001b0 3c 07 4b 3e 0f a0 68 bd ff d2 c4 be 2f 9c a8 3e
       0.19826978 -0.05679327 -0.38442227 0.3293166
0001c0 77 ab aa 3e a7 a4 54 3d 38 37 a8 3f 35 f0 5a be
       0.33333942 0.051914837 1.3141851 -0.21380694
0001d0 80 fb b9 3e 69 cf 8d 3e 2f bd 20 3f 4a 27 95 3e
       0.36324692 0.27697304 0.6278867 0.29131538
0001e0 42 12 43 3f 61 fb b4 3d e3 d5 91 be 70 88 c3 3d
       0.76199734 0.08837009 -0.28483495 0.09547508
0001f0 22 72 21 3e 1a 1f 5f be bb 6d ea be c9 59 df be
       0.15766194 -0.21789208 -0.45786843 -0.43623188
000200 e0 13 32 be cf 9c 8b 3f 17 c4 e3 3e 57 76 a0 3e
       -0.17390394 1.0907229 0.44485542 0.31340286
000210 4c a7 18 bf f4 79 03 3f 86 c0 67 3f de 6d 85 3e
       -0.59630275 0.5135796 0.9052814 0.26060385
000220 78 3c ab 3e 9b cd 40 be 58 1c 12 be ba 42 a9 be
       0.33444571 -0.18828432 -0.14268625 -0.3305872
000230 7a 4c 4e 3f 3f 33 99 3d e8 be 9b be 94 53 28 3e
       0.80585444 0.074804775 -0.30419087 0.16438133
000240 d4 10 18 3f 5c b9 b7 3e 56 67 42 3e d7 62 3f be
       0.5940068 0.35883605 0.18984732 -0.18690048
000250 af bd bd be 4b 4a 74 bd b2 5b 4a be 84 0d 8d 3e
       -0.3705878 -0.059641164 -0.19761541 0.27549374
000260 25 c6 11 3f 68 e9 41 3e e5 57 68 3f fa 01 33 3e
       0.5694297 0.18936694 0.90759116 0.17481223
000270 7c 7c 09 bd 16 f0 7e 3e d9 c9 44 3e 7c 15 88 bf
       -0.033565983 0.24896273 0.19217624 -1.0631557
000280 61 5e 01 bf 55 f0 ad 3d 42 71 af be 5d d5 43 be
       -0.50534636 0.08493105 -0.34266096 -0.1912436
000290 8e b9 46 bf a5 d7 d9 3e 18 f4 87 3e 1d f7 21 bf
       -0.77626884 0.42547336 0.26553416 -0.6326769
0002a0 a6 cd a2 be 34 2b c8 3d df 51 87 be 4a 66 1c bf
       -0.31797522 0.09773865 -0.2642965 -0.6109358
0002b0 be 09 dd bd b9 60 76 be c8 23 94 bc cc ad a3 3e
       -0.10792874 -0.24060334 -0.018083468 0.31968534
0002c0 8c 17 53 3f 7c 71 0a 3f e1 71 31 bf 8b 50 24 3f
       0.82457805 0.54079413 -0.6931439 0.641854
0002d0 7a d4 ef bd 09 7e 21 3f 24 c9 e8 bd 57 d0 2c bd
       -0.117104486 0.6308294 -0.113664895 -0.042190876
0002e0 db 68 a1 be f4 66 d1 bf 38 d2 8c 3d ba 29 10 be
       -0.3152531 -1.6359544 0.068760335 -0.14078417
0002f0 af ee 25 3e 56 4c ce be 8e de 14 3c f9 6b dd be
       0.16204332 -0.40292615 0.009086264 -0.4324644

learning_to_down_sample.dsconv2.3.weight f4 [16]
000000 3b 5a 6c 3f 95 6e 96 3f 69 98 89 3f 80 db b7 3f
       0.9232518 1.1752497 1.0749637 1.4363861
000010 00 36 4f 3f 30 4d a6 3f 82 a7 a3 3f 3a 40 98 3f
       0.8094177 1.2992306 1.2785494 1.18946
000020 be 89 a4 3f e4 5a a5 3f 5f 7b c0 3f b4 d9 5a 3f
       1.2854536 1.2918363 1.503765 0.8548844
000030 74 47 8b 3f 7c 73 aa 3f e7 3b db 3f 1e e7 77 3f
       1.0881181 1.3316493 1.7127656 0.9683703

learning_to_down_sample.dsconv2.3.bias f4 [16]
000000 9a f6 92 3f 25 dc 20 3f 36 fa 81 3e 56 fa b3 3e
       1.1481507 0.62835914 0.25386208 0.3515193
000010 68 89 37 3f f4 96 39 3f c1 1b 99 3b 4b 16 3c 3f
       0.7169404 0.7249596 0.004672498 0.73471516
000020 a6 86 c5 be 39 54 0a 3f bf 0c 1b 3e b2 1e f2 3e
       -0.3857929 0.54034764 0.15141581 0.47289044
000030 27 e7 85 3f f5 38 28 3f b7 9e e7 be 44 73 cb 3e
       1.0461167 0.6571191 -0.45238277 0.39736378

learning_to_down_sample.dsconv2.3.running_mean f4 [16]
000000 85 de b8 3c 6e a3 a1 3d ba b9 0d be f0 c7 aa 3d
       0.022567043 0.078925 -0.1384038 0.08338916
000010 9a 90 10 3d c8 d7 c4 bc 7b d3 2a bd d4 07 01 be
       0.035294153 -0.024028674 -0.04170559 -0.12600642
000020 b3 cb 26 bd 48 10 01 3e be 4e 5a bd 32 02 97 3d
       -0.040721606 0.12603867 -0.05329775 0.073734656
000030 e5 0f 33 3c 4e 7b 40 be c4 27 09 3e 94 3b 89 3a
       0.0109290825 -0.18797037 0.13394076 0.0010470026

learning_to_down_sample.dsconv2.3.running_var f4 [16]
000000 a6 e7 79 40 f2 30 23 40 c5 a7 b3 40 ab 7c 5d 40
       3.9047637 2.5498624 5.6142297 3.4607341
000010 fc 18 95 3f 49 b0 96 40 d7 1d 8d 40 16 2c cc 40
       1.164825 4.709019 4.4098926 6.3803816
000020 74 7d 40 40 44 bd 98 40 77 e4 5d 40 0b 2f 83 40
       3.007657 4.7731037 3.4670694 4.0994925
000030 ba 86 19 40 09 57 4e 40 34 ab dc 40 98 f4 4e 40
       2.398848 3.2240622 6.895899 3.2336788

global_feature_extractor.first_block.0.conv.0.weight f4 [32, 16, 1, 1]
000000 a8 94 07 3f b8 f5 7f 3e c5 14 2d 3d fd 21 7e be
       0.52961206 0.24996078 0.042256135 -0.24817653
000010 59 cc c7 3e bc 6b 8b bd 89 7b b7 be d4 50 cf 3e
       0.39023092 -0.06807658 -0.35836437 0.40491354
000020 45 69 bb be 39 b7 88 3e 11 61 43 be ed f8 1f be
       -0.36603752 0.26702288 -0.19079997 -0.15622301
000030 6b c6 03 3f 80 1f e6 3e 28 40 99 be 7d a3 1a 3e
       0.51474637 0.44945908 -0.2993176 0.15101428
000040 52 aa f3 bd 7e 06 66 be 5e 59 34 be ac eb 30 3e
       -0.118977204 -0.22463414 -0.17612216 0.17277402
000050 03 bd dc 3d 2a 77 f3 be 91 ee 2d 3e 8b a6 e1 bd
       0.107782386 -0.47551852 0.16985537 -0.11018094
000060 66 c7 48 bd 38 05 f5 3e 2f d6 1b be 94 f5 29 3e
       -0.049018286 0.47855544 -0.15218423 0.16597587
000070 10 53 8b 3e 04 35 3f be 06 15 14 3f a2 b2 65 be
       0.2721181 -0.18672568 0.5784458 -0.22431424
000080 71 69 c5 be 74 66 39 bf 16 0c 28 bc 22 34 f0 be
       -0.38557008 -0.72421956 -0.010256788 -0.46914774
000090 20 61 df bc d4 fa 5c be aa eb 4f be a1 85 b6 bd
       -0.027267992 -0.21580058 -0.20304742 -0.089122064
0000a0 88 ec 46 3f 5d 8f 87 3e be f9 8e be 42 e4 9b be
       0.7770467 0.26476565 -0.27924913 -0.30447584
0000b0 28 a1 48 3e 0a 5a a4 3e 68 3a 53 3f c5 1f fb be
       0.19592726 0.32099944 0.82510996 -0.49047676
0000c0 ba 27 ad be 3a 87 49 be 8b a3 2d be de dd 39 3d
       -0.3381937 -0.19680491 -0.16956918 0.045377605
0000d0 3a 6e a7 3e c7 5a a7 bd 0c 34 99 3e 6c 47 23 3d
       0.32701284 -0.08171611 0.2992252 0.039863035
0000e0 4d ae c2 3e 92 74 a7 3f 67 12 a5 bc e0 ee 2a bd
       0.38023606 1.308245 -0.020150376 -0.041731715
0000f0 be 0a 5d 3e 4b 80 d6 be fd 4e 23 3f 4f 07 3d bf
       0.21586129 -0.41894755 0.637924 -0.7383928
000100 35 8f 54 3e 2a 8b 01 be d7 f8 fa 3d 7d f4 3a 3e
       0.20757754 -0.12650743 0.12254494 0.18257327
000110 a0 74 74 be c9 f2 81 3e 6f de 64 3f e3 3a d1 3c
       -0.23872614 0.25380543 0.89401907 0.025540775
000120 bd 5c 9f bd f5 43 bd be c1 f8 a4 bd 8c 17 4f bd
       -0.0778136 -0.3696591 -0.080552585 -0.050559565
000130 49 93 1b bf 5a 06 95 3e f2 3c 32 bf 94 cd 5d 3f
       -0.60771614 0.29106408 -0.69624245 0.8664181
000140 98 a7 e5 3d b5 1f 2b 3d d4 65 c5 bc 7b a5 c4 be
       0.112136066 0.041778285 -0.024096407 -0.38407502
000150 33 80 00 bb ad d2 c0 3e ff e1 b5 3e 89 49 72 be
       -0.0019607663 0.37660733 0.35523984 -0.23660864
000160 0b ad 2f be 11 75 4e 3c 97 ce a5 3e 65 6a db 3d
       -0.17155854 0.012601153 0.32384178 0.107136525
000170 95 3c 30 be 9e 8b 59 3d 6e 05 37 3e 36 d8 24 3f
       -0.1721061 0.053111665 0.17873165 0.6439241
000180 ee 76 5d 3c 14 80 8e 3e b6 9e f6 3e 38 64 e8 3e
       0.013517125 0.2783209 0.48167962 0.4538896
000190 82 d5 20 be 25 96 9b be 5c 90 9e 3e 8e 91 c6 be
       -0.15706447 -0.3038799 0.30969512 -0.38782924
0001a0 95 99 3c 3e 83 fc 9e 3c 58 f8 55 3d 92 85 bf 3d
       0.18417962 0.019407516 0.052238792 0.093516484
0001b0 11 26 54 3e 32 65 b2 be 00 9b 91 3e b9 86 16 3e
       0.20717646 -0.3484283 0.28438568 0.1469983
0001c0 b4 84 ba 3e 9b ab 61 3d 3d f5 02 bc 00 da b3 be
       0.3642937 0.055095296 -0.00799304 -0.35127258
0001d0 f9 06 66 3e 6d f7 9a 3e 25 d2 e5 3c eb b2 0b 3f
       0.22463597 0.30266896 0.028054306 0.5456988
0001e0 36 06 e9 bd e4 94 c2 3e a8 93 dd 3e 69 32 f1 3c
       -0.11378138 0.3800422 0.43276715 0.029442983
0001f0 4b 0d e7 3e d9 3f f1 3e 96 3f 22 3c 13 52 20 3e
       0.4512733 0.47119024 0.009902855 0.15656309
000200 76 4e 69 bd a4 16 43 3d 52 f4 34 3e 53 26 c8 3e
       -0.05695959 0.047629014 0.17671326 0.3909174
000210 6f fb c1 be e8 6b dd 3d 21 c7 6a bd 5f bd ae be
       -0.3788714 0.10811597 -0.05731881 -0.34128854
000220 99 86 d4 be 1b 1e 0b 3f 53 a2 c0 3e a7 0e 9b 3e
       -0.4150894 0.5434281 0.37623844 0.30284616
000230 00 89 87 bd 1e 3d e1 be 3d 46 26 3f ca 00 d7 3c
       -0.066179276 -0.4399194 0.64950925 0.026245493
000240 7b e7 13 3f d0 5d af 3d 18 ab 42 be 20 14 08 be
       0.57775086 0.08562815 -0.1901058 -0.13288927
000250 90 5d 5d 3e 74 fa ce 3e 07 e3 17 3d f9 2a 1a 3f
       0.21617723 0.40425456 0.037081745 0.6022182
000260 9a 3c 3a be 4d e8 35 be db 97 bf 3d e5 05 8e bd
       -0.1818718 -0.17764397 0.09355136 -0.06934718
000270 20 23 7f 3e 0d ff fa 3e 59 b5 ae be fd ab f7 3d
       0.24915743 0.49022713 -0.34122732 0.12093351
000280 69 4d a9 be 84 0f 62 3e c1 b1 aa bd 10 ba 44 3e
       -0.33066872 0.22076231 -0.08334685 0.19211602
000290 f5 89 86 3e de 25 20 3b ed d6 49 be 0f dc 6e 3d
       0.26277128 0.0024436633 -0.19710894 0.058315333
0002a0 30 be 66 bf 3f e9 8d be 04 75 07 bf cd e5 c3 bd
       -0.90133953 -0.27717015 -0.52912927 -0.095653154
0002b0 17 e4 27 bf 0b e4 24 bd de 9d 6a be f7 d4 65 bf
       -0.6558241 -0.04025654 -0.22911784 -0.89778084
0002c0 0e a4 4c bf 89 72 08 bf 2b 32 32 be 0a 86 13 bf
       -0.7993783 -0.53299767 -0.1740195 -0.576264
0002d0 cd d9 9f 3e 25 d5 d5 3e 0d e7 d9 be b3 12 a1 be
       0.31220856 0.4176418 -0.4255909 -0.3145958
0002e0 b7 0b d1 be e9 f7 13 bf 0e a9 f7 3d 51 24 d6 3d
       -0.4082925 -0.57800156 0.120927915 0.104561456
0002f0 33 cd 7a be ee 01 f0 3e f2 5a ab 3d 81 18 d7 3d
       -0.2449234 0.46876472 0.08366956 0.105027206
000300 67 f3 fc bd bf e2 a3 3e 3f 74 1a 3f b0 43 35 3f
       -0.12351113 0.3200893 0.6033363 0.7080641
000310 c0 10 14 be a1 6a 73 be 82 d3 df 3e 64 77 39 3e
       -0.14459515 -0.23771144 0.43716055 0.1811195
000320 95 62 7d be ff 41 f6 be 7b 01 dd bd 88 be 9e 3e
       -0.24744637 -0.48097226 -0.10791298 0.3100474
000330 4c ff 2e bf d4 c2 47 3e 62 a0 d5 3d b7 49 2b be
       -0.683583 0.19507915 0.10430981 -0.16727339
000340 b4 22 f0 bd 27 93 55 bf e7 e4 ae 3e 42 2f 0a bf
       -0.11725369 -0.8342766 0.34159014 -0.5397836
000350 e4 fd 53 3e 89 7d 44 be 5e eb a9 be 21 0f af be
       0.2070232 -0.19188513 -0.33187383 -0.3419123
000360 21 84 63 3e 19 42 58 bf a4 90 0b 3d e0 80 3b bd
       0.22218372 -0.84475857 0.034073487 -0.0457772
000370 97 c9 8d 3e bf d7 bf be 40 58 3d be 1a fa 8c 3e
       0.27692863 -0.3746929 -0.18490696 0.27534562
000380 3b 2d 32 be 93 48 80 be 6a 10 7a 3d b8 9b 17 bf
       -0.17400067 -0.2505537 0.06105081 -0.5922198
000390 44 5c c8 be a1 ad 26 3f 91 d3 6e be 90 c0 9b be
       -0.39132893 0.65108687 -0.23322894 -0.3042035
0003a0 08 65 71 bf 91 4f 28 bf e2 1c 94 3e 57 d7 72 bd
       -0.94294786 -0.6574641 0.28928286 -0.059287395
0003b0 70 02 96 3d 6d e8 a3 3d 07 19 9a 3e 04 1e 06 3f
       0.07324684 0.08003316 0.3009722 0.5238955
0003c0 ce ad a0 be c2 73 a8 3c 39 2b eb be 6f 96 f7 bd
       -0.31382602 0.02056301 -0.45931414 -0.1208924
0003d0 5f 08 f9 be ec f3 39 3e 40 49 c2 3e 34 8f 44 be
       -0.486392 0.18159455 0.3794651 -0.19195253
0003e0 eb 30 81 be 41 7a 58 3c 57 e2 d1 3c 99 f4 5a 3e
       -0.25232634 0.013212741 0.025620623 0.21382369
0003f0 f1 68 0a bf 3c 6c a9 3e ba 59 34 be 51 a5 b3 3e
       -0.5406638 0.3309039 -0.17612353 0.35087064

global_feature_extractor.first_block.0.conv.1.weight f4 [32]
000000 a7 9a bc 3e 24 78 c8 3b fb cb b2 3f 84 0a 85 3f
       0.3683674 0.0061178375 1.39685 1.0393834
000010 b6 24 85 3f cd a8 b0 3f 7d c2 0a 3f 81 3b ce 3f
       1.0401828 1.3801514 0.54203016 1.6111909
000020 b6 e9 c6 3f e2 43 c5 3f 3d 62 6b 3f eb 63 d8 3f
       1.5540073 1.5411341 0.91946775 1.6905493
000030 04 9d d9 3f 01 54 78 3f 09 46 18 40 61 47 cc 3f
       1.7001042 0.9700318 2.3792746 1.5959283
000040 ff 65 8d 3f c6 ae 41 3f bd 57 b0 3f 01 29 81 3f
       1.1046752 0.7565731 1.3776776 1.0090638
000050 07 c4 86 3f 4c ff 54 3e 60 b1 b4 3f d1 b8 b3 3f
       1.0528573 0.20800513 1.411663 1.4040776
000060 d7 78 9c 3f e6 50 91 3f ea 6b a7 3f a4 29 b1 3f
       1.2224377 1.1352813 1.3079808 1.3840833
000070 b8 b1 60 3f 9e 7f 09 40 70 4b 37 3f fc 86 ac 3f
       0.8777118 2.1484141 0.71599483 1.3478694

global_feature_extractor.first_block.0.conv.1.bias f4 [32]
000000 1f c9 3d 3f b5 8e 54 bf ec e9 40 be 7c 82 e6 3d
       0.7413501 -0.83030254 -0.18839234 0.11255357
000010 11 ef ca 3e 3a fd b9 3d 5c 59 d3 3e cc ef e9 bd
       0.39635518 0.09081502 0.41279113 -0.11422691
000020 26 ed fd 3c 72 7d 6a 3e 08 e8 b9 3e 8e 02 12 3d
       0.03099687 0.22899416 0.36309838 0.035646968
000030 bd b6 b6 be 26 1b da 3e a0 9c 1d bd e5 61 48 bd
       -0.35686293 0.42598838 -0.038479447 -0.048921485
000040 34 5f 32 3e 4d fd f3 be 1f 17 52 3a 4e 52 ab 3e
       0.1741913 -0.4765419 0.00080143096 0.3346123
000050 d0 0e c2 3c 06 bf 6b 3f 46 73 9b 3e 06 e3 5e 3d
       0.023688704 0.92088354 0.30361384 0.054415725
000060 79 54 26 bc 80 7f 2c 3e 67 e3 f9 bd b0 cf 1f 3e
       -0.010151976 0.16845512 -0.12201577 0.1560657
000070 5b be d3 3e 35 2d 9e 3d a3 49 1c 3f 40 ed ac be
       0.41356167 0.07723466 0.6104986 -0.33774757

global_feature_extractor.first_block.0.conv.1.running_mean f4 [32]
000000 bd 06 f2 3f 0f 2f 2e 3c 3d 2d 89 bf b6 2b 25 3f
       1.8908306 0.010631337 -1.0716931 0.6451982
000010 11 e4 b9 3d 45 64 20 3f d0 d6 03 3f 26 d6 2b 40
       0.09076703 0.62653 0.5149965 2.6849456
000020 ab 8e bb 3e 33 9e 02 40 f9 e6 06 c0 aa 00 f5 bf
       0.36632285 2.0409057 -2.1078475 -1.9140828
000030 1f 9c 9f 3b 74 fc 01 c0 3c e2 84 bf 4d 5d 82 bf
       0.004870906 -2.0310335 -1.0381541 -1.0184723
000040 fc 4f cc bf 7e c2 be 3e bf ff 98 bf 0e 74 38 3f
       -1.5961909 0.3725776 -1.1953048 0.72052085
000050 62 3d a4 be b9 d2 27 c0 1d 08 d9 bf 70 c0 a6 bf
       -0.3207808 -2.6222365 -1.6955601 -1.3027477
000060 8c 52 07 c0 be d4 81 be a9 6b 93 3f 20 e4 06 40
       -2.1144133 -0.25357622 1.151723 2.1076736
000070 e7 e8 f2 3e 2b f8 97 3e be 16 09 c0 d7 ac f9 be
       0.47443315 0.29681525 -2.142013 -0.4876468

global_feature_extractor.first_block.0.conv.1.running_var f4 [32]
000000 6c 54 42 40 9a ee d5 3f 62 68 4a 40 8c bd 7c 40
       3.0364027 1.671344 3.162621 3.949069
000010 47 27 73 40 71 96 76 3f fe 21 06 40 bb 6a 6c 40
       3.7992723 0.96323305 2.0958247 3.6940143
000020 95 31 1b 40 9d 5a 83 40 3f 53 4e 40 db 91 02 40
       2.4249012 4.104811 3.223831 2.0401523
000030 50 fc 80 40 02 45 d6 3f f4 bf f1 3f d6 36 a1 3f
       4.0308 1.673981 1.8886704 1.259486
000040 25 0d eb 3f f2 5a d9 3f d5 a2 c0 40 9d bc 30 40
       1.8363386 1.6980879 6.019877 2.761512
000050 58 5a 4e 40 6b 99 5e 40 25 59 33 40 e9 c6 92 3f
       3.2242641 3.478114 2.802316 1.1466953
000060 f3 56 19 40 55 65 90 40 cf ce 33 40 5a 39 37 40
       2.395932 4.5123696 2.8094976 2.8628755
000070 45 11 39 40 7a 20 c8 40 ce a2 7d 40 01 4b 3e 40
       2.891679 6.2539644 3.9630618 2.9733279

global_feature_extractor.first_block.0.conv.3.weight f4 [32, 1, 3, 3]
000000 53 11 6d be e5 9a a5 be 81 0c d4 be a5 61 7d 3e
       -0.2315114 -0.32344738 -0.4141579 0.2474428
000010 38 30 d1 bd 25 8a 11 3e b7 f3 8b bc 25 3e 41 3e
       -0.10214275 0.14212854 -0.017083986 0.18871363
000020 8f f5 40 3f c9 a4 dd be a2 68 dc bc 92 04 57 bc
       0.7537469 -0.43289784 -0.026905362 -0.013123648
000030 86 0a 51 be 3d 68 d2 be 34 cc 50 3e 1d 1d d1 bd
       -0.2041417 -0.41095152 0.20390397 -0.10210631
000040 c4 63 08 bf 44 4c 9a be 52 5e 03 bc b8 ce a1 bd
       -0.5327723 -0.3013631 -0.008018093 -0.079007566
000050 c9 66 ac 3d 9d ae d3 3e 3e 3b 95 3e b3 01 64 3e
       0.08418042 0.41344157 0.2914676 0.22266273
000060 74 f8 44 3f 2a 2f 3b 3f 8e e7 10 3f cc 24 1f bf
       0.7694161 0.7311884 0.56603324 -0.6216552
000070 b6 38 f4 be 7f 43 0b bf cc 5e 72 bd a2 8a bc be
       -0.47699517 -0.54399866 -0.059172437 -0.36824518
000080 f5 37 76 bf 96 c0 9a 3e 43 4f 6a be 10 8f d7 be
       -0.96179134 0.30225056 -0.22881798 -0.42101336
000090 29 ea fd 3e de 90 91 bd 73 af d1 be c0 40 6a be
       0.49592713 -0.07107709 -0.4095417 -0.22876263
0000a0 11 cb 61 bf ee cf 37 bf d0 a6 84 3e 98 5b 92 be
       -0.8820048 -0.7180165 0.25908518 -0.28585505
0000b0 52 2d ea bd 67 e2 9a be 04 04 da 3d 33 aa ab 3e
       -0.114344254 -0.30250856 0.10645297 0.3352829
0000c0 4a 01 a9 bd 31 2c 44 be 5c 8e 2f 3f 08 0e d0 be
       -0.08252199 -0.19157483 0.685766 -0.40635705
0000d0 c4 ab 3e bd 5c 6b e5 3e 95 a1 c4 be 82 1d d1 38
       -0.046550527 0.4480847 -0.38404527 9.971393e-05
0000e0 df bb d8 3d 8c 3b d8 be 97 92 72 bd af 25 c6 bd
       0.105827086 -0.4223293 -0.05922183 -0.09675156
0000f0 8a c1 3b 3e b6 11 da 3e 06 f8 fd 3e d7 3e 7a 3b
       0.18335548 0.42591637 0.4960329 0.0038184428
000100 8f 82 12 3f ca 60 79 3e 52 31 98 3e ec 48 bc 3e
       0.57230467 0.24353328 0.29725128 0.36774385
000110 29 60 65 3f 37 29 a0 be 8d 49 30 be 53 8d 80 bd
       0.89599854 -0.31281444 -0.17215557 -0.062769555
000120 f1 3b b8 be 86 de eb 3d 50 0f d1 3e c3 d3 2e 3e
       -0.35983232 0.11517052 0.40831995 0.17072968
000130 7c 18 3c 3f 78 ca 01 3f a8 bd a8 3e 6d 35 e7 3d
       0.7347486 0.5069957 0.32957196 0.11289487
000140 d3 2e 78 3e 17 5d 28 be 56 c5 2c be e6 e2 b4 3e
       0.24236612 -0.16441761 -0.16872153 0.3532936
000150 00 28 ce bc 2a 14 ec 3e 78 3a 2d 3f 1e 56 29 be
       -0.025165558 0.46109134 0.6766734 -0.16536757
000160 60 e5 3a 3f cc 81 ad 3c 24 35 0f 3f c2 8a b2 3d
       0.7300625 0.021180056 0.5594046 0.08717872
000170 10 08 d3 be 18 46 12 3f e0 a7 11 3d 2b 45 c1 be
       -0.4121709 0.57138205 0.03556049 -0.37748083
000180 b6 7f c1 be f2 5c 00 bf d7 69 25 bf fb 02 cf be
       -0.37792748 -0.50141823 -0.64614624 -0.4043196
000190 8f 7a 14 bf 14 a2 35 be 7b 54 34 3f bf dd 20 3e
       -0.5799951 -0.17737609 0.70441407 0.1570959
0001a0 11 8f 55 bd d9 10 a3 3d ef ed 5a 3f 0f cf c2 3e
       -0.052138392 0.07962198 0.8551931 0.38048598
0001b0 73 e2 50 bd 29 88 0e 3e 01 b7 8d bd 4b dc 3b 3e
       -0.05099721 0.13919128 -0.06919671 0.18345754
0001c0 d5 62 68 3f b0 10 08 3f 78 7d 15 bf d6 1d 78 3e
       0.90775806 0.53150463 -0.58394575 0.24230132
0001d0 42 f8 cb 3e c7 b6 92 be 9b a0 2a be 81 db 1c bf
       0.39837843 -0.28655073 -0.16662829 -0.61272436
0001e0 ed be 1a bf 8f 21 a1 bd 51 6c f7 bd 1f 85 a2 be
       -0.6044758 -0.07867729 -0.120812066 -0.31742188
0001f0 c0 55 57 be e3 51 b9 3e 9b 01 0e 3e 32 90 6d 3f
       -0.21028805 0.36195287 0.138678 0.9279815
000200 08 53 32 3f 3a 27 89 3e 98 a9 99 3e 53 e3 cf 3d
       0.69657946 0.2678774 0.30012202 0.101507805
000210 c0 cb 93 3e 48 4b 55 bd 6d ec 89 be d9 37 b9 3e
       0.28866386 -0.052073747 -0.2693819 0.3617542
000220 6a 52 48 be 38 ba 85 3d 4f a6 22 3f 91 46 dc bd
       -0.19562688 0.06529659 0.63535017 -0.10755647
000230 e1 33 c4 be 5a 5b 84 3e 00 71 9a 3e c1 d3 76 be
       -0.3832083 0.25850946 0.30164337 -0.24104215
000240 6a 4a 70 be e5 58 99 3e d7 2c aa 3e b6 ea 9d 3e
       -0.23465887 0.29950634 0.33237335 0.30843133
000250 1c d5 ec 3e 77 ec 82 3e 80 ac 9f 3e 0b 58 34 bd
       0.4625634 0.25571033 0.31186295 -0.044029277
000260 af 2b ab 3d 01 78 80 3e 3c cd ff 3e c7 aa 8e bd
       0.08357941 0.25091556 0.4996127 -0.06966167
000270 6f 82 4a be 9d 8f e2 be 9d b6 c3 be c1 b0 bc be
       -0.19776319 -0.44250193 -0.3822526 -0.36853603
000280 99 75 5f be fb 07 0f 3e d1 9d 6c be 29 99 50 3f
       -0.21822204 0.13967888 -0.23107077 0.81483704
000290 aa c4 10 3f 69 c4 43 3e 3c 3c a8 bc e7 2e 36 3f
       0.56550086 0.19117893 -0.020536534 0.7116532
0002a0 a0 12 bb 3e 73 c1 0d bf a3 9f c7 bd 10 69 d8 3c
       0.36537647 -0.55373305 -0.09747245 0.026417285
0002b0 63 00 5e bf 5c 3a 49 bf 91 42 c4 be 66 d7 0e bf
       -0.8671934 -0.78604674 -0.38332036 -0.5579742
0002c0 16 af 6e be ad 4b 22 3d 7f dc e0 bd 6b 86 ba be
       -0.23308977 0.03962295 -0.10979556 -0.36430678
0002d0 1a ab 02 3f ae 33 bc 3e d6 6c 28 3f 93 38 8c 3e
       0.5104233 0.36758178 0.6579107 0.27386913
0002e0 2c fc 0f 3f b5 49 b0 3d 6a 4d cb be ac d6 f7 be
       0.5624416 0.086078085 -0.397075 -0.4840597
0002f0 f5 1f 56 be ce fc 49 be 35 d5 e1 be fe f4 20 3e
       -0.20910628 -0.19725344 -0.44107977 0.15718457
000300 53 4d 14 be 8b 43 8e bf 7b 0a 08 bf 26 df 3f be
       -0.14482622 -1.1114362 -0.5314099 -0.18737468
000310 3d 2d 06 bf 17 6c 94 bc 60 67 99 3e ca bf 5c 3f
       -0.5241278 -0.018117948 0.2996168 0.86230147
000320 0e fa 20 3f 40 4a 48 3e 6f e3 dc 3e 46 f1 e6 3e
       0.62881553 0.19559574 0.43142268 0.45105952
000330 c2 c5 19 be 9a 66 aa 3e bd 7c 0c be 54 b5 9c be
       -0.15016845 0.33281404 -0.13719459 -0.30607092
000340 93 11 8f be 60 ec bb 3e 69 d9 82 bd 48 29 12 bf
       -0.27943096 0.36703777 -0.06389124 -0.5709424
000350 1b 32 8c be b5 48 0b 3f 5c 87 5a bd 7c e5 1a 3e
       -0.27381977 0.5440782 -0.053351745 0.15126604
000360 df fc f1 bc 48 29 e6 be fe 78 ac 3d 98 2b 67 3d
       -0.029539524 -0.4495337 0.08421515 0.05643806
000370 3a 16 62 3e 23 eb bc 3c 02 1d 56 be ca 3d 17 3f
       0.22078791 0.02306134 -0.20909503 0.5907866
000380 ab e1 2c 3f 43 fb 89 3e 6e f7 87 bf 27 8c 33 be
       0.6753184 0.2694951 -1.0622385 -0.17533933
000390 aa 0e 84 be a5 fa 1a bf 2b a7 fa bd 8e 56 a9 3d
       -0.25792438 -0.60538703 -0.12238916 0.08268462
0003a0 be 3f a3 be 63 0d 15 bf b1 60 0c 3e 4e 6f 14 3f
       -0.3188457 -0.5822355 0.1370876 0.5798234
0003b0 d0 46 ec 3e 65 64 59 3e f2 41 0a 3f 09 60 09 3f
       0.46147776 0.21229704 0.54006875 0.53662163
0003c0 88 c2 36 be 0e 74 a8 3d 36 7b 03 3f 60 5c 19 bf
       -0.17847645 0.08225261 0.5135988 -0.5990658
0003d0 51 95 1d bf 87 11 ea be a1 ff 98 be a9 ac 5c be
       -0.61555964 -0.45716497 -0.2988253 -0.2155024
0003e0 58 ce b7 bd 45 5a 98 be 33 92 1d bf 54 13 1c bf
       -0.08974904 -0.2975637 -0.6155121 -0.6096699
0003f0 0a 22 06 bf 60 0e e2 be b4 78 79 be e8 dd 00 be
       -0.5239569 -0.44151592 -0.24362451 -0.1258465

global_feature_extractor.first_block.0.conv.4.weight f4 [32]
000000 2b c8 7a 3f 90 72 89 3f 11 47 9d 3f a8 ba 64 3f
       0.9796168 1.0738087 1.2287313 0.89347315
000010 c7 9b a2 3f b8 78 37 3f 10 dc db 3e 77 5c 86 3f
       1.270379 0.7166858 0.42941332 1.0496968
000020 a6 78 3a 3f b0 d0 59 3f c6 7c 95 3f d5 8e a9 3f
       0.72840345 0.85084057 1.1678703 1.3246714
000030 2a 6f 2d 3f f4 cc 7e 3f a1 fd bb 3f 89 e1 3a 3f
       0.6774775 0.99531484 1.4686776 0.7300039
000040 8e 34 01 3f fc 9e 4a 3f bb 64 6f 3f 5d b8 84 3f
       0.5047082 0.7914884 0.9351308 1.0368763
000050 6c 75 6e 3f 74 c9 9c 3f 9a 71 92 3f 0c 2c 1d 3f
       0.9314792 1.2248979 1.1440918 0.61395335
000060 40 d9 24 3f 00 c2 9b 3f bd 39 77 3f 6a 94 c1 3f
       0.64394 1.2168579 0.96572477 1.5123417
000070 69 c1 93 3f 8b 9d e0 3f 95 58 8f 3f 07 96 7e 3f
       1.1543399 1.7548078 1.1198908 0.99447674

global_feature_extractor.first_block.0.conv.4.bias f4 [32]
000000 e3 02 fe 3e 50 9d b7 3e 6b 7e d9 bd 12 db eb 3f
       0.49611577 0.35862207 -0.106198154 1.842623
000010 76 27 a7 3e 28 c6 1d be 49 ef 60 be b8 60 2e 3e
       0.32647294 -0.15407622 -0.2196628 0.17029083
000020 49 9d 19 be 07 18 2d 3f de 6c 61 be b1 d9 9e be
       -0.15001406 0.6761479 -0.22014186 -0.3102546
000030 bd 76 2b 3f db 4f f3 3c 70 eb 5e 3f d1 ab 5f 3d
       0.66978055 0.029701164 0.87078 0.054607216
000040 f1 fa 0a bf 2a 22 dc be d3 16 91 bd 91 02 92 3f
       -0.54289156 -0.42994815 -0.070844315 1.1407033
000050 f2 24 46 3e d0 2c 95 3e 39 2d 50 bb 8b 2b 28 3e
       0.19350031 0.29135752 -0.0031765236 0.1642286
000060 c9 2c 42 3e 5b d2 f9 3e 46 ef 23 3f 13 bf 37 3f
       0.18962397 0.487933 0.6403698 0.7177593
000070 ef ba 9e be 54 12 da 3e 14 b0 f8 3e 2f fe 54 3e
       -0.31001994 0.42592108 0.48571837 0.20800088

global_feature_extractor.first_block.0.conv.4.running_mean f4 [32]
000000 ca 02 81 3e 04 00 00 80 4b f1 a4 3f d5 72 b6 bf
       0.2519744 -6e-45 1.2886137 -1.4253794
000010 22 37 a5 bf 46 c6 8b 3e 02 3b 17 3e 5e 3e 68 3f
       -1.290745 0.27299708 0.14768603 0.90720165
000020 a7 29 b2 3f 03 f5 92 3f 7c a2 31 bf 5e 86 2b 3f
       1.3918961 1.1481022 -0.69388556 0.67001903
000030 a4 4b 5d 3f 54 28 90 bf 78 39 d0 3f 29 4b a0 3e
       0.86443543 -1.1262307 1.6267538 0.31307343
000040 e9 38 53 3f fb e6 a1 bd 9d 8e 4b 3f c6 57 b6 bf
       0.82508713 -0.07905384 0.79514486 -1.4245536
000050 96 75 02 3f fa fa 28 c0 dc 65 e8 3f a4 a9 82 be
       0.5096067 -2.6403184 1.8156085 -0.2552005
000060 70 c9 f2 3e 6e 56 b0 bf 73 73 8a 3f 68 ce e3 bf
       0.4741931 -1.3776376 1.0816482 -1.7797365
000070 6d b2 ac 3d 9d 55 1e 40 df 0e c2 bf b7 4a 19 bf
       0.084324695 2.4739754 -1.5160788 -0.5987963

global_feature_extractor.first_block.0.conv.4.running_var f4 [32]
000000 e8 b9 31 3e 04 00 00 00 78 29 b8 3f 44 b6 de 3f
       0.17356074 6e-45 1.4387655 1.7399373
000010 be 58 16 40 77 59 0f 40 54 20 28 3e 5d c8 82 40
       2.3491664 2.2398355 0.16418582 4.0869584
000020 e1 02 ec 3f 4d 65 89 40 bc b3 cf 3e dc 21 cd 3f
       1.8438379 4.293616 0.40566814 1.6025958
000030 95 51 20 40 d2 a9 14 3f 6c 9f 28 41 85 34 42 3f
       2.5049794 0.58071625 10.538921 0.7586139
000040 04 19 98 3e 41 2d 69 3e cc 18 99 3f 9f 5a a3 40
       0.29706585 0.22771169 1.1960692 5.104812
000050 ea 32 70 3f b9 df 94 3e 8e ba 36 40 61 64 15 3f
       0.9382769 0.29076937 2.8551364 0.5835629
000060 a4 b3 1b 3f f0 02 96 3f 5b c1 08 40 49 8b 03 41
       0.60820985 1.1719646 2.1368015 8.221505
000070 91 d4 3a 3f 37 f1 7c 41 1a 5f a5 3f 1c 58 30 3f
       0.729806 15.80889 1.2919648 0.68884444
