model_checkpoints/experiments/overall/fastscnn_512a0.25t6r3pp0.pt (torch, 443563 bytes, 196 tensors)

learning_to_down_sample.conv.conv.weight f4 [8, 3, 3, 3]
00000000: 2bb7 0f3c b992 333d fad9 b23e 6a95 1a3e
00000010: 5838 eabd 3b73 913e d86c 1e3e d9be c0bd
00000020: b5fe a93d c36e 8c3f dd3b 263f c44b 1f3f
00000030: bd8c 7f3f 97e5 253e 60ba 953e 9844 7d3f
00000040: 7a33 88bd e811 a0be 68db 44be 6177 1dbe
00000050: 378e 9e3e 703d 1cbd 55c8 bcbe 9128 77be
00000060: f70d 3c3e 7d86 8cbe f94d b4bc efae b4bb
00000070: 9074 ce3d 06a7 f93d 8053 4c3d c7fa 9fbc
00000080: 9d51 67bd 773f 8f3d 27bf 773e 2312 ebbc
00000090: c702 1b3d 47bd 313f 0212 923f f3bb 45bd
000000a0: 7445 2d3f 4c4b 7e3f 20e4 b1bd 3cf8 803f
000000b0: 96c7 b23f 4754 dfbe 902f 3fbd b50c c4bd
000000c0: 41bc 3abf b551 70be 437c 28be d586 06bf
000000d0: 2be8 0d3e 0fbc a03e 8c7a 34bf 7a24 00bf
000000e0: c0d8 2abf 2f8f 58be 653c de3d 87a3 d8bd
000000f0: cb22 923e b1d6 af3e e88d 48be 3ee6 3dbe
00000100: cc16 5abd 9d81 00bb 83dc e8be 95b9 563c
00000110: 06a2 0dbf e46b 13bf 551d 0ebf c120 94bf
00000120: 3813 193d 127f 0f3e a2dc 4fbe 5b60 d53e
00000130: 0167 eb3e 6d3c 77bd 2b2b c33e 9aa7 013f
00000140: 3b7d b63c 9b12 943e d6aa dc3e 2967 9dbe
00000150: 79bd 983e dc7e e63e 416c c9be 1c60 f43e
00000160: abf4 003f fb5f bebe f0a7 bb3e e081 7f3e
00000170: 0c44 15bf 4253 633f 4fb4 953f 21d6 1fbd
00000180: 35f5 323f 4c8b 343f d977 71be 5d1a ffbd
00000190: 2190 eebc 9737 f9be d119 56bd b76b a73e
000001a0: 7820 0ebf fdcc 0b3b 33be 713e f7c4 fcbe
000001b0: 1583 413f eced eb3e 4b36 92bf bb0b 22be
000001c0: a1b2 9ebd b658 f8be 30c8 25bf 224a 7dbf
000001d0: 1c62 813e 52a9 003f 07ae 2f3f dc9c b2be
000001e0: 76a6 b33e 6379 803e 440e 59be 87f1 e5bd
000001f0: a51b 0fbe 08bc a23e bbf3 0c3e 74ad 1c3f
00000200: 55f9 e8be 6b11 1a3d 15c5 543e 8114 83be
00000210: d2b0 983d 0358 92be 7a36 053f c53f 98bd
00000220: 50d2 2f3e d002 183e be7b 13be 420f a23d
00000230: d35c b83e 40b2 0ebe 4dfd 0ebd f922 1cbe
00000240: b4b1 d6bd 9ed8 d7bd bfb6 a13e 3cc3 b4be
00000250: 71d5 2fbe 488f c6bd 99ad 10bf 40f2 1abf
00000260: e674 e6be bd15 26be b7a0 ff3d 9cba 493e
00000270: f51e b0bb aa17 14bb ab7f a03e 1d5f debe
00000280: 5bf9 59be 7ddd c9bd 9d38 0dbd f55d 6c3e
00000290: 323e 75bd fe57 81bd cd7d 0d3d 436d a9be
000002a0: fafa 38be b699 05be 6b46 92be edd2 5bbf
000002b0: f7be 59bf f426 27bf 1f96 4cbf 1c68 07bf
000002c0: 64f0 7cbf b6ac d2be 9267 65be fd55 6dbf
000002d0: 460a 433e 0b9f 813e 3e03 2a3e 5949 093e
000002e0: e793 f73e c626 a53e 9959 1c3d 615d c93e
000002f0: 7bee 2b3e 79e0 5c3e 709d 0cbf c5e4 cabe
00000300: 6f3d 673d d3a9 e7be 9f84 06bf 2e12 173e
00000310: 24e2 0abf 0130 26bf 72e0 113f 7fce 1c3e
00000320: 9b3f 263e bc20 103f 0920 ac3e fadd 543e
00000330: 7e12 3b3f f167 a83d 8aae d13d 100b 0d3e
00000340: 47aa 36be 048a 843d 87ba 7d3e a4d5 02be
00000350: 91e8 dcbd ab22 d93e 3840 d2be b0d6 8fbe
0.008771698 0.043841098 0.34931928 0.1509606 -0.11436528 0.28408226 0.15471208 -0.09411401
0.08300535 1.0971302 0.64935094 0.62224984 0.99824125 0.16200863 0.29243755 0.9893279
-0.066504434 -0.3126366 -0.19224322 -0.1537757 0.30967876 -0.03814453 -0.3687159 -0.24136569
0.18364702 -0.27446356 -0.022009837 -0.005514018 0.10080826 0.1219006 0.04988432 -0.01952876
-0.056474317 0.06994527 0.24194013 -0.028695172 0.037844446 0.6942944 1.1411746 -0.048274945
0.676841 0.99333644 -0.086860895 1.0075755 1.3967159 -0.43618986 -0.04667622 -0.09572736
-0.729435 -0.23468669 -0.16453652 -0.5254949 0.13858096 0.31393477 -0.7049949 -0.5005566
-0.66736984 -0.2114837 0.10851363 -0.10578065 0.2854217 0.34343484 -0.19585383 -0.18544862
-0.053244397 -0.0019608506 -0.45480737 0.01310577 -0.55325353 -0.57586503 -0.5551351 -1.1572496
0.037371844 0.14013317 -0.20299008 0.41675076 0.45977023 -0.06036036 0.38118872 0.50646365
0.022276511 0.28920445 0.43099087 -0.30742767 0.29832056 0.4501866 -0.39340404 0.47729576
0.50373334 -0.37182602 0.36651564 0.24951887 -0.58306956 0.88798916 1.1695651 -0.03902257
0.69905406 0.7052505 -0.23580875 -0.124562 -0.02912146 -0.48675224 -0.052270714 0.32699367
-0.55518293 0.00213319 0.23607711 -0.49369022 0.7559064 0.46079957 -1.1422819 -0.15824787
-0.077489145 -0.4850518 -0.64758587 -0.9894124 0.25270164 0.5025836 0.6862492 -0.348853
0.35087937 0.2509261 -0.21196848 -0.11227708 -0.1397539 0.3178408 0.13764851 0.6120217
-0.45502725 0.037614267 0.20778306 -0.2560158 0.07455601 -0.28582773 0.5203625 -0.07434038
0.17170072 0.14844823 -0.14402673 0.079130664 0.3600832 -0.13935184 -0.034909535 -0.15247716
-0.10483113 -0.10539363 0.31584737 -0.35305202 -0.17171265 -0.096952975 -0.5651489 -0.60525894
-0.4501106 -0.1621923 0.12481826 0.19700092 -0.005374784 -0.0022597113 0.31347403 -0.4343194
-0.21286528 -0.09856699 -0.03447782 0.23082717 -0.059873767 -0.06315611 0.0345438 -0.33091173
-0.1806449 -0.13046917 -0.2856935 -0.8586872 -0.85057014 -0.6529381 -0.79916567 -0.52893233
-0.98804307 -0.41147393 -0.2240279 -0.9270933 0.19046888 0.25316653 0.166028 0.13406886
0.48355028 0.32256144 0.038171384 0.39329055 0.16790192 0.21570005 -0.5492773 -0.39627662
0.056455072 -0.45246753 -0.52546114 0.14753029 -0.54251313 -0.64917 0.569831 0.15313147
0.16235201 0.5629995 0.3361819 0.20787802 0.7307509 0.0822295 0.10238369 0.13773751
-0.17838393 0.06471637 0.24778186 -0.1277681 -0.10786546 0.42409262 -0.4106462 -0.2809348

learning_to_down_sample.conv.bn.weight f4 [8]
00000000: 528c d83e 3cb5 7f3f ede2 c23f 3042 c63f
00000010: 7cd2 8e3e 6e3a d73f 8906 743f 7cb0 963f
0.42294556 0.99885917 1.5225502 1.5488949 0.27894962 1.6814706 0.9532247 1.1772609

learning_to_down_sample.conv.bn.bias f4 [8]
00000000: 2b45 573f 2efd f13e 97e2 06be b118 543e
00000010: 86d5 483f 9dd3 f5bc 2d84 e9be 8202 f5be
0.84089917 0.47263473 -0.13172375 0.20712544 0.7845081 -0.030008132 -0.45608655 -0.47853476

learning_to_down_sample.conv.bn.running_mean f4 [8]
00000000: 9094 6a3f bf6b 283f 7b5a bdbc e5ab 913e
00000010: ff4c 3d3f 56d8 62bf 1ba7 0bbf 833b 253f
0.9163294 0.6578941 -0.023114434 0.28451458 0.7394561 -0.8861135 -0.5455186 0.6454393

learning_to_down_sample.conv.bn.running_var f4 [8]
00000000: 4760 1441 b44f 2841 ed64 a940 43f9 ca40
00000010: 197e 223f 58c6 2a40 9b07 3641 b801 b43f
9.273505 10.519459 5.29357 6.3429275 0.6347366 2.668356 11.376857 1.4063025

learning_to_down_sample.dsconv1.0.weight f4 [8, 1, 3, 3]
00000000: 43d0 0dbf 6d32 1fbf 8fa3 98be 0a0a 6bbe
00000010: 7660 1b3e 9f79 0b3f 19e8 fcbe 4920 94bd
00000020: b539 263f a9dc f6be 0789 4cbf 347c 0ebf
00000030: 6df5 78bd 7088 7d3e 35fb 523e c2a9 453f
00000040: 91d0 4f3f ccb1 283f 517d bfbe 6379 49bf
00000050: 17c0 54bf 502a f1bd c2d6 c8be a760 85be
00000060: a0e3 c53e 3924 033f 2f29 e83c 0c82 863e
00000070: ffea 2f3f ce03 0e3f 1185 d03e e669 0e3f
00000080: 319c fe3e e71d 83be 2353 bcbe 406c 8cbe
00000090: bdac 53bf 5a50 283f 7075 a13d 0130 5b3e
000000a0: b8a5 a83e 28c9 5cbf 0c3f 033f 4108 57bf
000000b0: 805e f23e cd4f 91be 4184 c7be 41e1 25be
000000c0: f8e0 a5be c8eb 19be 4518 63be c4d8 5f3f
000000d0: 48d5 9c3e f478 f5bc e527 783e ad9e 133f
000000e0: f37c 403f 6de9 a93d f1b6 2cbe d6ff 26be
000000f0: 7933 fdbe cf65 3dbf ae72 44bf c091 18bf
00000100: ca6c 3bbf 4abc c03d ee3d 80bf f022 65bf
00000110: f224 cbbe 485c d33e dfe2 953e ebda 8dbe
-0.5539591 -0.6218632 -0.29812285 -0.22953048 0.15173516 0.54482454 -0.49395826 -0.072327204
0.64931804 -0.48215225 -0.7989659 -0.5565827 -0.06078093 0.24759078 0.2060364 0.77212155
0.8117762 0.65896297 -0.37400296 -0.78700846 -0.83105606 -0.117756486 -0.39226347 -0.26050302
0.38650227 0.51227146 0.02833995 0.26271093 0.6871795 0.55474555 0.40726522 0.5563034
0.4972854 -0.2560875 -0.36782178 -0.27426338 -0.8268545 0.65747607 0.078837276 0.21405031
0.32938933 -0.8624444 0.51268077 -0.8399697 0.47337723 -0.28381196 -0.3896809 -0.16199209
-0.323982 -0.1503135 -0.22177227 0.87440133 0.3063147 -0.029964902 0.24233969 0.57663995
0.7519066 0.082964756 -0.16866662 -0.16308531 -0.49453333 -0.7398347 -0.7673749 -0.59597397
-0.73212874 0.09410913 -1.00189 -0.89506435 -0.39676625 0.41281343 0.2927465 -0.27706084

learning_to_down_sample.dsconv1.1.weight f4 [8]
00000000: b352 713f 1a0b cb3f 2a40 803f a2fb a13f
00000010: d1b4 583f 4a37 173f fadc 8a3f d253 953f
0.94266814 1.5862763 1.0019581 1.2654917 0.84650904 0.5906874 1.0848687 1.1666205

learning_to_down_sample.dsconv1.1.bias f4 [8]
00000000: 06c9 803d dbc2 903b 68b3 44bd 255f e2bc
00000010: a4b1 783d 7ccb a73d 146b b8bb a3a7 b3bd
0.06288342 0.00441776 -0.048022658 -0.02763326 0.060716286 0.081931084 -0.005627999 -0.087722085

learning_to_down_sample.dsconv1.1.running_mean f4 [8]
00000000: 9a36 45bf 901f 0f3f 768e 72bf da65 b73f
00000010: 4878 53be dc30 6bbe 6dcb 12be 0d73 2abf
-0.7703644 0.55907536 -0.9474863 1.4327958 -0.20651352 -0.22967857 -0.14335413 -0.66581804

learning_to_down_sample.dsconv1.1.running_var f4 [8]
00000000: 7247 563e 9e90 243f eb11 6e40 6ceb 2740
00000010: cd84 0e3d 8f2f 6e3f f3d6 d63e d167 c740
0.20925692 0.6428317 3.7198436 2.623744 0.034794617 0.9304132 0.41960868 6.231423

learning_to_down_sample.dsconv1.2.weight f4 [12, 8, 1, 1]
00000000: 0697 f13d ca68 653f 9e04 d2be 8402 1dbf
00000010: c897 9cbb 2b49 aabe 2ce0 223f 4373 753c
00000020: 0aae 333e 3225 1e3f 6b0d 6c3f 7886 f13e
00000030: a3ba babc 29e6 fd3e d83e dc3e 221c f9be
00000040: aead 2a3e 10b0 0f3f 0a96 393f 44f6 543f
00000050: 4d32 f9bd 0989 78be 421d 093f cacd c1be
00000060: 0066 b4be 75f8 5ebf 1e0a 143f 117e cb3e
00000070: b74c 62bd 4043 78bd d4dc 2abf a6ae bbbe
00000080: 4eb1 d8bf 4936 5ebd 81a8 243d 9a28 363f
00000090: b80d 813d 38c4 853e bf3a 9bbd 2162 60be
000000a0: ff64 51be c11d 05bf 72f0 24bf 9bb8 713e
000000b0: 2197 8d3d 6670 c3be 0a96 35bf 7eaf 05bf
000000c0: 1e10 e23e 09d7 c73d 0050 013e df3e cf3d
000000d0: c822 38bf 81d3 9d3e 2e32 9b3e 9ec1 79bf
000000e0: f6a9 03bc c0f7 173f 69bc 83be 3bbc 09bf
000000f0: e7b0 63bd 69e6 c4be ed31 043f 7fd9 a23e
00000100: 9d2f 58bf 54fd c6bd 8dd0 1d3d 24e8 7fbd
00000110: 1164 e1be 2799 2bbf 1892 6cbe c713 533f
00000120: fc25 b5bd ac4b 32bf 7451 2d3f 6fb8 723e
00000130: 57dd bb3a b935 743e 3502 17bf c103 313e
00000140: 0362 023e 5853 efbd 4e2b a33e 1dc3 183f
00000150: 39a6 913f 8005 a5be cd3f 8c3e c537 533e
00000160: 79e3 5b3e 9281 d73e a479 533f fbf2 933f
00000170: f3a3 993c 4a20 473e 7f08 b93e ef05 d3be
0.117963836 0.8961302 -0.41019148 -0.61331964 -0.004778836 -0.33258948 0.6362331 0.014981094
0.1754686 0.61775506 0.92207974 0.47172904 -0.022794073 0.4958966 0.43016696 -0.48654276
0.16667816 0.56128025 0.72494566 0.8318827 -0.12167797 -0.24271025 0.5356027 -0.37852317
-0.3523407 -0.87097865 0.5782794 0.3974462 -0.055248942 -0.06061101 -0.66743207 -0.36656684
-1.6929109 -0.05425099 0.04019976 0.71155703 0.06301445 0.26126266 -0.07579564 -0.21912433
-0.20448683 -0.51998526 -0.6442939 0.23605578 0.06913591 -0.3817169 -0.70932066 -0.52220905
0.4415292 0.097578116 0.12628174 0.101194136 -0.7192807 0.30825427 0.30311722 -0.9756106
-0.008036127 0.5936241 -0.25729683 -0.5380284 -0.05558863 -0.3845704 0.5163868 0.3180656
-0.8444765 -0.09716287 0.038528968 -0.062477246 -0.44021657 -0.67030567 -0.23102605 0.8245205
-0.088451356 -0.69646716 0.6770241 0.23703168 0.0014332932 0.23848619 -0.5898774 0.17286588
0.12732701 -0.116858184 0.31868976 0.5967272 1.1378852 -0.3223076 0.27392426 0.20626743
0.21473493 0.42091042 0.82607484 1.1558527 0.018754935 0.19445911 0.36139295 -0.41215464

learning_to_down_sample.dsconv1.3.weight f4 [12]
00000000: c5d2 0840 7c6f f63e c685 a23f a9ce 1f40
00000010: 73c7 383f e58f e83f c62f c03f f54f 5b3f
00000020: 0725 2f3f 3f79 b83f a631 9b3f a566 093f
2.1378644 0.4813193 1.2697074 2.4969885 0.72179335 1.8168913 1.5014579 0.8566888
0.68415874 1.4412001 1.2124527 0.5367225

learning_to_down_sample.dsconv1.3.bias f4 [12]
00000000: 89a4 89bd 2c5e 683f dada 133f c327 a73b
00000010: a711 353f 03aa d63d 440c 80bd 1fce e23e
00000020: 343c 2c3f 4ef4 1e3f ecd4 f6be bf2b 543f
-0.06720836 0.90768695 0.57755816 0.0051011755 0.7073006 0.10481646 -0.062523395 0.44297883
0.6727936 0.6209153 -0.48209321 0.8287925

learning_to_down_sample.dsconv1.3.running_mean f4 [12]
00000000: 0fe5 7e3c 8745 133d 31a2 2bbd 8d30 18bd
00000010: 01cc aabd 4f2c 033d a1be ad3d a2f1 14bd
00000020: ec42 53be ba6f 23bd 0931 a6ba 6d88 a6bb
0.0155575415 0.03595498 -0.041902725 -0.037155677 -0.08339692 0.032024678 0.08483625 -0.03636325
-0.20630997 -0.039901473 -0.0012679409 -0.005082181

learning_to_down_sample.dsconv1.3.running_var f4 [12]
00000000: b210 5f40 37bf 9340 602a 9440 4a6b 6840
00000010: b5bd b940 1af7 1640 976f 0a40 af8c f03f
00000020: 21ed a93f 461d 2e40 8a66 d33f 6b58 b540
3.485394 4.6170917 4.6301727 3.6315484 5.8044076 2.358832 2.163061 1.8792933
1.3275491 2.7205367 1.6515667 5.667043

learning_to_down_sample.dsconv2.0.weight f4 [12, 1, 3, 3]
00000000: 0478 de3d 8c45 0bbf 6be5 c9be 2791 453e
00000010: ff7a eebe 39ce 68bf 6623 e43d f98d 28bf
00000020: 8976 a1bf 4368 40be f876 3ebe 729d c0bd
00000030: e75d c73e 0123 dabd 7c3c a1bf 4af0 d73e
00000040: a305 8abe b8b8 b5bf 84bf 17bf 7b79 e6be
00000050: 00c2 643e f593 dcbe e173 bd3e fc3e 883f
00000060: d408 b3be 2ef8 543e e59c 663f 5653 42bd
00000070: d241 8f3e f435 843f f361 bfbe af9c 833e
00000080: 909d 923f 95af 67be 6461 24be 0b27 ee3e
00000090: 3754 f33e 208b 553e 59b9 bb3d 6d7c 463f
000000a0: 572f 553d d81a 40bf 8bc9 013f 96be 5bbe
000000b0: 60ba 51bf 72e7 f6be 5387 e73b c2ba ebbe
000000c0: 3360 43be 0823 003f f3b4 c53e a9b7 493c
000000d0: 9ec5 ac3f 86fb db3e a64c 8bbe 79fe 5ebf
000000e0: 9a66 0abf c42c 30be cb46 4dbf 1de8 89bf
000000f0: db90 0b3e 40ed 17bd cbbb 49be a0ad 7cbd
00000100: 8534 013e 0f3e da3e 7353 74be c5b7 4a3f
00000110: dba9 553f 14f7 6fbe 86d5 67bf f9c6 acbe
00000120: c614 eabc 4273 15be 5d7a ba3d 68a4 99be
00000130: d373 683f b1ae 2abf cb88 e33e 70f1 86bf
00000140: 936b 213f bd06 0cbe e55d c13d a960 973e
00000150: 6367 25be 8865 9ebf b906 9cbe 1a4f 9fbe
00000160: d3be c43e 7523 013f 80f5 833d b134 7e3e
00000170: a245 c43e 9fa0 de3e 947c 513f 866f 373f
00000180: b4bc a23e 8fb5 253f b468 143f a7da 1bbd
00000190: c2ca 4abf 249d 813e d587 9cbd 9b9d 63bf
000001a0: 5845 7cbe bb72 be3e 8ec6 c23d 3266 493f
0.10862735 -0.54402995 -0.39432845 0.19293652 -0.46578214 -0.9093967 0.11139564 -0.65841633
-1.2614299 -0.18789773 -0.1860007 -0.0940503 0.3893883 -0.10651208 -1.2596583 0.42175514
-0.26957425 -1.4196997 -0.59276605 -0.45014557 0.2233963 -0.43081632 0.3700247 1.0644221
-0.34967673 0.20797798 0.9008315 -0.047442757 0.27979904 1.0328965 -0.37379417 0.25705478
1.1454334 -0.22625573 -0.16052777 0.46514162 0.47525188 0.20853853 0.09166212 0.7753361
0.0520471 -0.7504096 0.50698155 -0.21459422 -0.8192501 -0.48223454 0.0070656925 -0.46040922
-0.19079666 0.50053453 0.38614616 0.012311854 1.3497808 0.42965335 -0.27206916 -0.87107044
-0.5406281 -0.17204577 -0.80186146 -1.077396 0.13629477 -0.037091494 -0.19700544 -0.06168902
0.12617691 0.42625472 -0.23859958 0.7918666 0.83462304 -0.23434097 -0.90560186 -0.33745554
-0.028574359 -0.14594749 0.0910537 -0.30008245 0.90801734 -0.6667281 0.44440302 -1.0542431
0.6305477 -0.13674445 0.09441737 0.29565933 -0.1615272 -1.2374735 -0.3047388 -0.31115037
0.38426837 0.5044473 0.0644331 0.24824788 0.38334376 0.4348192 0.81830716 0.71654546
0.31784594 0.6473016 0.57972264 -0.03805032 -0.79215634 0.253152 -0.076430954 -0.8891236
-0.24635828 0.37196907 0.095105276 0.7867156

learning_to_down_sample.dsconv2.1.weight f4 [12]
00000000: 8889 b33f 5c20 993f 3e5b 613f a6dc 963f
00000010: 02c8 9b3f 6d25 663f c3dc 9b3f 23a8 a53f
00000020: 79bc a13f 1908 463f c748 2b3f 0b41 b53f
1.4026346 1.1963 0.8802985 1.1786087 1.2170413 0.8990086 1.2176746 1.2941936
1.2635642 0.77356106 0.66907924 1.4160475

learning_to_down_sample.dsconv2.1.bias f4 [12]
00000000: cf3a 623c 9107 1f3c f930 dd3b 54b7 e73b
00000010: ec9f 473d 0cbf e73c 7730 8abb 5fba b1bc
00000020: 45dc ea3b 4129 fc3b f4e6 55bc f76f 0a3c
0.013807966 0.009706394 0.0067502228 0.007071415 0.048736498 0.02828934 -0.0042172032 -0.021695314
0.0071673715 0.0076953475 -0.013055552 0.008449546

learning_to_down_sample.dsconv2.1.running_mean f4 [12]
00000000: e498 08c0 1e6c 1fc0 0c72 513f 97c3 d93f
00000010: c2e1 663e 08e9 8d3f da5d b6bf d38a 7e3e
00000020: 3e1c b7bd 863f 3ebf c847 6a3f 18a5 e5be
-2.1343317 -2.490974 0.81814647 1.7012814 0.22547057 1.108674 -1.4247391 0.24857645
-0.08940934 -0.7431568 0.9151578 -0.4485252

learning_to_down_sample.dsconv2.1.running_var f4 [12]
00000000: 07fe 2f41 4103 b73f 71f9 c63f c804 0341
00000010: e118 0c3f 45f2 ea40 7aa6 ac41 b355 c83f
00000020: 09da 183e fc35 3640 1d84 1f40 e0f4 763e
10.999518 1.4297868 1.5544873 8.188667 0.5472546 7.342074 21.581287 1.5651153
0.14926924 2.847045 2.4924386 0.2411685

learning_to_down_sample.dsconv2.2.weight f4 [16, 12, 1, 1]
00000000: 49b0 88bd ff37 2cbe cfc3 cabe 5dfb 2abd
00000010: e058 6cbe 4442 8c3f 72ec 4abf 0de3 dc3d
00000020: 230a f03b 021c d63d 60a4 8dbd 8842 8bbf
00000030: 7f9c 2e3f c3db 45bf da0c a13e 2eb1 81bf
00000040: 6a3f ce3a 735a f43e 8ed8 92be f14f 67be
00000050: 9031 443b eed3 d4bd 6f48 dabe ec9b f53e
00000060: 62f4 6dbe 3c16 10bf 49bc 713f 7352 fc3e
00000070: 2957 b73e be9d 013d e24a eebd d9bb 31be
00000080: b5ec 4ebd 6885 37be ff0a 923f ef11 78be
00000090: d3a6 413f 6499 da3e 3b40 7dbd 9e8f 753f
000000a0: 22a9 cdbe ee85 873e 2058 d23e 24fc d2bd
000000b0: a50a 25be 0562 12bf 8c06 dabc 5e93 19bf
000000c0: 7313 0abf 678e 7a3e 1762 c0bc c878 36bd
000000d0: 619b 3d3d 3702 793e 1a94 963e 5697 a9bf
000000e0: 5db3 163e 1f7e 9bbf 1abf b4be 5801 02bf
000000f0: ce1a 76bf cc7e e7be 053b bc3e 03e5 79bd
00000100: d1c0 b0bd 17df ac3d 95dd ec3e 7573 793f
00000110: 6130 633d 0dcf 623e 0568 afbd baf3 1d3f
00000120: f832 af3e c0b6 02be 28ec d2be 3b81 613f
00000130: c503 933e 597b 71be f3b2 38bf 71d9 02be
00000140: 9b97 4c3f 59ed ccbe cc5c 4f3d 3dc3 1ebd
00000150: 2c71 c5be df12 dcbe ec2f 9abd 2f5b 45bf
00000160: 6534 343e 1a6a 49be 86d8 5c3f b60b 22bf
00000170: 91bd d13b 3835 173f d4d0 8ebe 09ae 653f
00000180: d48d 663f 0ad6 a03c 0f03 223e 4f63 aebd
00000190: 02ad a3bf d333 d0bd 3854 2c3e c5a3 a93d
000001a0: a524 8dbd e583 28be 9ecf c43d a602 60bf
000001b0: da19 663e 97ee 00be 8f17 0d3e 9ffd 143e
000001c0: 8420 bdbe 4bc4 ddbc 1a7d 1fbf ba9b d2be
000001d0: a31e 9e3f b64e 28bd 36d5 c93e 02a5 1b3e
000001e0: 4d73 eb3e 4caa 2f3f dccd 82be a814 5e3f
000001f0: 35f7 2e3f 000b 4b3f 7987 31be cd5d 83bd
00000200: d365 13bd d05b c0bd 3387 cb3e 1a62 abbd
00000210: fea7 273e 756e bbbd a8d9 60bd b0d3 703e
00000220: dc63 afbe ac25 4a3c 153a 3cbf 66a8 10be
00000230: f08c a1bf 471f f13d 651e c53d 014d 623d
00000240: 3ae8 8abe 1046 9cbe 8300 993f d46e 76be
00000250: ca66 78bf 4c1f 85be b90e c7bd c1b4 5b3e
00000260: 27e6 96bd 4b3a 0fbd b1e5 7c3e 2600 f3be
00000270: ddde 843e 1ba1 823e fedf 68bf a34b a7bd
00000280: 7fa7 b73f 258f 08bf 8576 a3be e0e4 873e
00000290: e94f 1ebd 006f c63d 557a 233d ff24 79bd
000002a0: 0904 edbe c734 6dbc 2b2b b63e 96df 183f
000002b0: a8f4 debe f425 97be 7b13 9bbf 8b72 02bf
000002c0: 6566 20bd f207 d43e abc2 26be 743f 1d3f
000002d0: e883 adbe d0eb a33f 8316 f2bd 6477 bd3e
000002e0: 0f54 a63e 3627 8d3e c636 ba3e 11fd 273e
000002f0: d5a9 083d c315 153f 7389 c1be c620 c03e
-0.06674249 -0.16818236 -0.39602515 -0.041743625 -0.23080778 1.0957723 -0.79267037 0.10785494
0.007325427 0.10454561 -0.06916118 -1.0879679 0.68207544 -0.77288455 0.31455117 -1.0132196
0.0015735452 0.47725257 -0.28680843 -0.22589089 0.0029936768 -0.10391985 -0.42633387 0.4797052
-0.23237756 -0.56283927 0.94427925 0.49281654 0.35808685 0.031644575 -0.116353765 -0.17356814
-0.05051871 -0.17921984 1.1409606 -0.24225591 0.7564518 0.42695153 -0.061828833 0.9592227
-0.401681 0.26469368 0.4108286 -0.10301998 -0.16117342 -0.57180816 -0.02661445 -0.5999049
-0.5393593 0.24468385 -0.023484273 -0.04454878 0.04629076 0.24317251 0.29409868 -1.3249309
0.14716859 -1.2147864 -0.3530205 -0.507833 -0.9613465 -0.45213926 0.36763778 -0.06100942
-0.08630527 0.084409885 0.46262804 0.974418 0.05546606 0.22149296 -0.08564762 0.6170002
0.34218574 -0.12765026 -0.41195798 0.88087815 0.28713813 -0.2358221 -0.72148055 -0.1277826
0.7991883 -0.40024832 0.050625607 -0.038760412 -0.38562906 -0.42983148 -0.075286716 -0.7709226
0.17598112 -0.19669381 0.8626789 -0.6329912 0.006400772 0.5906558 -0.27893698 0.8971868
0.9006016 0.019633312 0.1582148 -0.08515035 -1.2787173 -0.10166135 0.16829002 0.0828319
-0.06891755 -0.16456564 0.09609912 -0.8750404 0.22470799 -0.12591015 0.13778518 0.14549874
-0.3693887 -0.027071139 -0.62300265 -0.41134435 1.23531 -0.04109069 0.3942048 0.15199664
0.45986405 0.6861923 -0.25547683 0.8675027 0.6834596 0.7931366 -0.17336835 -0.064143755
-0.03598578 -0.09392512 0.39751586 -0.08368321 0.16372678 -0.091519274 -0.054895073 0.23518252
-0.34255874 0.012338083 -0.73526126 -0.14126739 -1.2621136 0.11773544 0.09624938 0.055249218
-0.271303 -0.30522203 1.1953281 -0.24065715 -0.97031844 -0.2600044 -0.09719605 0.21455671
-0.07368117 -0.034967702 0.24696995 -0.4746105 0.2595128 0.2551354 -0.90966785 -0.081687234
1.4347991 -0.5334342 -0.3192636 0.26541805 -0.038650427 0.0968914 0.039911587 -0.060826298
-0.4629214 -0.014477915 0.3557981 0.59716165 -0.43546033 -0.29521143 -1.211532 -0.5095603
-0.03916015 0.41412312 -0.16285197 0.61424947 -0.338897 1.2806339 -0.118207 0.3700515
0.32486007 0.27568978 0.36369914 0.16405131 0.03336509 0.5823633 -0.37800178 0.37525004

learning_to_down_sample.dsconv2.3.weight f4 [16]
00000000: 7a50 963f f5c2 a93f 57aa aa3f e877 a03f
00000010: ec23 fb3f 5c4a f93f 8dff 4e3f 630e ec3f
00000020: bc44 b83f fbb7 833f e914 ab3f b510 a13f
00000030: b5d1 573f 2da4 b23f b8e7 703f 6b1e c93f
1.174331 1.3262621 1.3333234 1.2536592 1.9620337 1.9475818 0.8085869 1.844189
1.4395976 1.0290521 1.3365756 1.2583224 0.8430436 1.3956352 0.94103575 1.5712408

learning_to_down_sample.dsconv2.3.bias f4 [16]
00000000: 09f9 a83e 8ecd 6f3e e1e5 0b3e 1db2 173e
00000010: cb4c 7a3e 34d5 273f cfdf 593e 22ae 3abe
00000020: ae1d b23e e27e 1b3e e33f 683f 99b3 173e
00000030: 2b4c 1cbf ab13 87be ba7a 073f 9235 063f
0.330025 0.23418257 0.1366191 0.14814039 0.24443357 0.655597 0.21276782 -0.18230489
0.3478827 0.1518512 0.90722483 0.14814605 -0.61053723 -0.26382193 0.5292164 0.5242549

learning_to_down_sample.dsconv2.3.running_mean f4 [16]
00000000: b748 003c 4f54 d03c 253c a83b 2ce7 72ba
00000010: bd40 bd3c 1f76 03bd dc18 b23c 269f 5c3c
00000020: 5825 85bd 0e70 ad3a 0a1e 8c3d c179 86bc
00000030: cfc7 89bd f370 493d e8d2 49bb f291 273d
0.007829837 0.025430826 0.005134123 -0.00092660147 0.023102159 -0.03209507 0.02174037 0.013465678
-0.065012634 0.0013232247 0.06841667 -0.016415479 -0.067275636 0.049179982 -0.0030795876 0.04091067

learning_to_down_sample.dsconv2.3.running_var f4 [16]
00000000: 0d4f b740 3283 5f40 26e1 8840 3ff4 ca40
00000010: e2df d540 0600 d940 1fbc 8840 809d c440
00000020: f5d3 ed40 4dca 6440 c087 d540 cbaf 6240
00000030: 3740 d040 5dfa 8540 8f66 a040 029a c140
5.7283998 3.4923825 4.277484 6.342315 6.6835794 6.781253 4.272964 6.144226
7.4321237 3.5748475 6.672821 3.5419796 6.5078387 4.186812 5.0125194 6.05005

global_feature_extractor.first_block.0.conv.0.weight f4 [96, 16, 1, 1]
00000000: babd 8dbf ddbe b9be d60c fc3d 36ca 66bf
00000010: 488c ef3d d87b b33e 6a5f 19bf 5b3a ee3e
00000020: 510c 03bf cbff cfbd 89cc 54bf 2b3f b9be
00000030: 4620 78be 64ac 1dbe 2f19 973e ddda 0abf
00000040: c1ed f4be 4fea 18bf 0c94 ce3d f3e8 153f
00000050: 3364 f03e bf8f 233d 86fd 37bf 6865 60bf
00000060: 1d24 17bc c865 8abe 50af 64be 9eca 9f3f
00000070: 8d76 72bd ab91 2cbf 1a60 943c a911 c1bd
00000080: f419 9f3e 0851 e63e 9857 8d3e 9f6f 2bbe
00000090: 1a97 5f3d 0f3c 18bf c296 9ebe dda1 acbe
000000a0: ba17 01bf e0dd 7ebe caaa 1dbe 1df2 913c
000000b0: c83f c1be 64bd 7b3d 3408 5d3e c62e 06bf
000000c0: 0954 193f dfd6 81be 3973 bfbe 8e87 ff3d
000000d0: 0fe9 f9bd 10e9 94be 367a 993e 087c debe
000000e0: 9f40 213f bc18 36be e9b3 973e 2cae 93bd
000000f0: 0169 c2be f57b ff3e 424c e13d c9b8 873e
00000100: 6e28 9a3c 73de 9b3b 8f30 a73e 520d 71be
00000110: e695 223f 375d 05bf 8994 bbbe c8fb 753f
00000120: 79cf 3a3e c6a7 a0be ead4 38bf fcc5 f23d
00000130: 988a 8d3e f75c d83e 8403 9d3e 358a 23bf
00000140: a334 aebe 5163 7a3e 2ffb 413f 1169 a3be
00000150: d1a3 75be a19e 05bf f8a3 dd3e a34d e8be
00000160: 0f98 4c3e 1235 273f 9656 8ebe a9c4 193f
00000170: cfef 67be ea22 94be 4477 55bf 5075 e6be
00000180: 91ac 2fbe c499 3dbf 39c5 553e 136c 9b3e
00000190: fedf 9b3e 5d7c 84be dc03 fa3d 506a 03bf
000001a0: 5889 b8be 4899 ee3c ad6a 373f f8c2 b63e
000001b0: 547e 383e 18f5 183f 064d 2ebe 7615 743e
000001c0: 2dee b5be e97d 083f bde6 adbe 7817 623d
000001d0: 9ec7 8bbe 2109 d43e 46e3 dd3d 7ff0 173f
000001e0: 8959 393e 5e73 e93d 7f2b bc3d ff29 36bc
000001f0: fa88 a3bd 44c3 233f 20a2 e7be e5ee cbbd
00000200: a3f8 0a3e e3ba 98bd b759 ebbc 04bd bdbe
00000210: c8c6 7ebf 02d4 8cbe cbd9 6c3e ab1a 24bf
00000220: c874 ef3d 28d6 723f d896 43bf 75ee cb3e
00000230: 175b 233d 6edb f5be 6a87 e4bc 0680 06bf
00000240: 878b 173f 8201 c8bb 25ce 7bbe 8363 5fbd
00000250: 5e5a 16be 27fd dc3e 32aa 1fbf 37ad e6be
00000260: c01e e1bd 38a0 483e 1c11 923d 7b7b 47be
00000270: e872 893e 3593 dcbd 926c 4e3f 058b 26bf
00000280: 53e0 163f 335d 09bf 6dc8 b03e c9df 803f
00000290: 0b24 9d3e 28f9 783e 95e8 943e 0e68 6bbe
000002a0: a57c 433f 637c 4dbe 3a83 993e ef0d f2bc
000002b0: 75f3 4c3f a593 e83e 7903 a1be d7c7 3d3f
000002c0: d905 bdbe 4b0f 5e3f dcdb af3e bdb1 00bf
000002d0: 6607 20be 4fad e13c 6a6d 3cbe 81aa d5be
000002e0: 2e14 77be 3f7c 133f e808 14bf c6e9 40be
000002f0: 9897 c9b9 fb17 a93d f4be 893d 0612 c2bd
00000300: b4b8 623e c7ca d13e 0efe 713e 4a37 a23e
00000310: 36be 8ebd dd6a 323e 1b05 213e e57d 603d
00000320: 842b 4ebe 0da1 b33e d094 c63f 66bf 8ebe
00000330: e4a1 09bf 53de cc3e 8ee9 b5be 8939 613f
00000340: 5052 a2be f79d 8c3b d348 e43e 2140 20bc
00000350: c2b3 0f3f a758 473f 4dab 89be cbbe 2e3f
00000360: 3415 173e e1b0 1f3d ef22 44be da44 60be
00000370: 6584 033f 8c1d 84bd 22b4 b03e 5a47 ffbd
00000380: ad5e 25bd a954 c03e 01d9 563d 9473 943e
00000390: df42 c4ba 5a44 8e3d ebfb 093f e5d5 7d3e
000003a0: db84 81be a363 9a3f 7fd1 ec3e 0fcf ae3f
000003b0: 9f18 01bf 4da2 5e3f d2b9 d1bd a1a9 083e
000003c0: 6aca 22be 8083 533d b335 9fbc 805d e7be
000003d0: d473 a9bf a1bc 1cbd 941f b4be ec9c a8bf
000003e0: 75db 2a3f 8975 123e 1c0e 14bf 63e0 e93c
000003f0: 891f acbd 2ae5 f4bc 3639 513e 7091 9b3e
-1.1073525 -0.3627843 0.12307136 -0.901523 0.116966784 0.35055423 -0.59911215 0.46528897
-0.5119067 -0.101562105 -0.83124596 -0.36181006 -0.24231061 -0.15397793 0.295114 -0.5424021
-0.47837642 -0.59732527 0.100868315 0.5855858 0.46951446 0.03993201 -0.7187122 -0.87654734
-0.009224919 -0.27030778 -0.22332501 1.2483709 -0.05919509 -0.6740977 0.018112231 -0.094271965
0.31074488 0.44983697 0.2760589 -0.16741799 0.05458746 -0.5946664 -0.30974394 -0.33717242
-0.5042683 -0.24889326 -0.15397182 0.017815644 -0.37743974 0.061459914 0.2158516 -0.5241512
0.5989385 -0.25359246 -0.37392595 0.12477027 -0.122026555 -0.29084063 0.29976052 -0.43454003
0.6298923 -0.17782873 0.29629448 -0.07210955 -0.37970737 0.4989926 0.11000873 0.26508167
0.018818107 0.0047567426 0.32654235 -0.23540238 0.63509977 -0.5209536 -0.3663676 0.9608731
0.18243207 -0.31378 -0.7219988 0.11854169 0.276448 0.42258427 0.30666745 -0.6388276
-0.34024534 0.24451949 0.757739 -0.31916097 -0.23988272 -0.52195174 0.4328916 -0.45371732
0.19979881 0.65315354 -0.27800435 0.60065705 -0.22650073 -0.28932887 -0.8338511 -0.45011377
-0.17155673 -0.7406275 0.20876016 0.30355892 0.3044433 -0.25876132 0.12207767 -0.51334095
-0.36042285 0.029125825 0.7164715 0.35695624 0.1801694 0.59748983 -0.1702157 0.23836312
-0.35533276 0.53317124 -0.33965102 0.055198163 -0.27300733 0.41413215 0.108343646 0.5935134
0.18100561 0.11398958 0.09187984 -0.011118411 -0.079851106 0.63969827 -0.4524088 -0.09957675
0.1357141 -0.07457521 -0.028729303 -0.3705827 -0.99522066 -0.275055 0.23129956 -0.6410319
0.11692196 0.94858027 -0.76402044 0.39830366 0.039881792 -0.48018974 -0.027896602 -0.525391
0.59197277 -0.0061036954 -0.24590357 -0.05453826 -0.1468291 0.4316189 -0.6236907 -0.45054027
-0.10992193 0.19592369 0.071321696 -0.19480698 0.2684548 -0.10770265 0.80634415 -0.65055877
0.5893604 -0.53657836 0.34527913 1.0068294 0.3069156 0.24313796 0.29083696 -0.22988912
0.7636207 -0.20066981 0.2998293 -0.02954766 0.80058986 0.45425144 -0.31447962 0.74133056
-0.36918524 0.86742085 0.34347427 -0.5027121 -0.15627822 0.02754846 -0.18401113 -0.41731647
-0.24128792 0.5761146 -0.5782609 -0.18839177 -0.00038450654 0.08256527 0.067258745 -0.09476094
0.22140771 0.4097502 0.2363207 0.31682807 -0.069698736 0.17423578 0.15724604 0.054807562
-0.20133787 0.3508381 1.5514164 -0.278804 -0.5376265 0.4001337 -0.3552975 0.87978417
-0.31703424 0.004291292 0.4458681 -0.0097809145 0.56133664 0.7786965 -0.26888505 0.68259877
0.14754182 0.038987044 -0.19153951 -0.21901265 0.51373893 -0.06450948 0.3451243 -0.12464781
-0.040373493 0.3756459 0.052453045 0.2899443 -0.0014973542 0.06946631 0.5390002 0.24788626
-0.25296673 1.2061657 0.46253583 1.3656939 -0.50428194 0.869664 -0.102405205 0.13345958
-0.15897527 0.05163908 -0.019434785 -0.45188522 -1.3238473 -0.038265828 -0.35180342 -1.3172889
0.66741115 0.14302649 -0.5783403 0.028549379 -0.08404452 -0.02989443 0.2043198 0.30384398

global_feature_extractor.first_block.0.conv.1.weight f4 [96]
00000000: 508d af3f 75ba 933f ca10 803f 3dab cf3f
00000010: 6830 fe3f 1fe5 e63f d603 c13f a7cc 8b3f
00000020: 7bb4 da3e a45f b23f 8436 c33f 41c8 af3f
00000030: da44 933f fcaf 1640 e55a b73f eebb d73f
00000040: 1d17 0e3f 9b09 2a3f 180b 273f 297c e43f
00000050: af4e 853f 483d 8b3f 43b7 c93f 4d7a 0a40
00000060: d2a8 913f ee23 af3f cca3 a03f 61f9 873f
00000070: a679 ff3f 2b76 f53f 8d99 0a40 0322 653f
00000080: 2afc c63f 2ac1 1640 20e9 133f b024 b63f
00000090: 8935 8d3f 9435 073f 42bc 9b3f b7eb db3f
000000a0: e0f4 9c3f 2e0b d73f a9ca ea3f c4b3 b93f
000000b0: 0824 ed3f 0d62 843f f6df e83f e4d6 fd3f
000000c0: 50ee 163f 0357 c53f 5938 843f ad31 bb3f
000000d0: 77f9 b73f 3aa9 a43f 5757 853f 8ede ea3f
000000e0: 98ad 0440 6f50 0040 1d9c 913f 3f04 fd3f
000000f0: d7f7 863f 34f2 633f e26d ac3f 8a70 753f
00000100: d8a3 c13e 8a3a 0040 2328 653f f14d 803f
00000110: 407c e73e 13b4 c53f 847d c73f 1c12 a33f
00000120: 3599 84be f369 d43f 3869 0b3f 43d0 9c3f
00000130: 1f77 ad3f 0dd5 fc3f 2d81 993f 2298 f03f
00000140: 17a0 bc3f 4452 073f 9c0e 0f40 c08e 3b3f
00000150: 4d44 8f3f 5fad af3f d8df 6f3f 1c88 b23f
00000160: 5366 1640 08ac 0640 c468 8d3f fae9 e03f
00000170: 49b3 e73f 48bb 613e 713c 173f d103 7b3f
1.3715 1.1541277 1.0005124 1.6224133 1.9858522 1.8038672 1.5079296 1.092183
0.4271582 1.3935437 1.5251012 1.3732988 1.1505387 2.3544912 1.4324614 1.6854227
0.5550402 0.66420907 0.652513 1.7850391 1.0414637 1.0878077 1.5759052 2.1637146
1.1379645 1.368284 1.2549987 1.0622979 1.9958999 1.9176687 2.165622 0.8950502
1.5545704 2.3555398 0.57777596 1.4229946 1.1031963 0.5281613 1.2166827 1.718131
1.226223 1.6800287 1.8343097 1.4507985 1.8526621 1.0342423 1.8193347 1.9831204
0.58957386 1.5417179 1.0329696 1.4624535 1.4373006 1.2864144 1.0417279 1.8349168
2.0730953 2.0049093 1.1375767 1.9766921 1.0544385 0.8904145 1.3471034 0.95874846
0.37820315 2.003573 0.8951437 1.0023786 0.45211983 1.5445579 1.5585179 1.2739902
-0.25898138 1.6594833 0.54457426 1.2251056 1.3551978 1.9752518 1.1992546 1.8796427
1.4736356 0.528599 2.2352667 0.73264694 1.1192719 1.3724784 0.93700933 1.3947787
2.3499954 2.10425 1.1047597 1.7571404 1.8101588 0.22044098 0.590766 0.980527

global_feature_extractor.first_block.0.conv.1.bias f4 [96]
00000000: 8c60 a73e 16f0 14bf b41a 9c3e 56e1 68bd
00000010: d839 9ebe 9759 d0bd 5e02 f43d 0683 7c3e
00000020: 08fd 4c3f e318 a4be 84e9 2abe c05b bc3d
00000030: bad6 0abf 3efa cdbc f1af 013f 0f27 0bbe
00000040: de70 2fbf a6d3 f03d 8803 2d3f eca2 ce3e
00000050: b320 0a3f 22ec 2fbe e1fc 21be e9f5 fd3d
00000060: 4767 b13e be86 ef3e 957d 01be 3c47 bcbe
00000070: cc89 53bd ac60 273e 91be 923d 9fed 983e
00000080: dd77 153d d393 753d b631 3d3f fd37 9f3e
00000090: 8a1d c93e 156e 0e3f f18c 493e 520c fabd
000000a0: 8435 31bd d0af ac3d 6387 353c 9e3e aa3e
000000b0: 3e9f 95bc ab0d c93e 8c64 f23b 77f4 373e
000000c0: dfd9 0cbf a2ac c53e a1e0 20bf 39e9 91be
000000d0: eae1 013e 8e03 35be 7306 293f 3a4d 333e
000000e0: 50bd e93c 7592 06bd cbea 16be d626 b0bc
000000f0: c061 773e 1812 9fbe 461a a93d f332 d1be
00000100: c817 483f 771e ab3e fdd0 893e ed13 2f3e
00000110: 93cb 323f 329d 943e 4099 e13d b14c 9ebe
00000120: 75a9 6d3f 3d43 2b3e 4b37 2ebf bce7 4dbe
00000130: cff0 8bbe c8e5 403e 320f b83e 40b1 90bd
00000140: e2e2 263e e4f5 42bf eb20 46bd 1f8f 033f
00000150: 0a8a c8be 8e9d 87be 75dd f03e 41d4 a4be
00000160: 1216 fd3b 0095 673e 1550 0bbe 2142 073e
00000170: c84b 46be 2e5b 64bf 72ee 0e3f 847a fe3e
0.32690847 -0.5817884 0.30489123 -0.056855522 -0.30903506 -0.10173338 0.11914514 0.24659356
0.80073595 -0.32050237 -0.16690642 0.091971874 -0.54233897 -0.025143739 0.5065909 -0.13589118
-0.68531597 0.11759119 0.67583513 0.40358675 0.53956145 -0.17179921 -0.15819122 0.12400419
0.34649107 0.46782488 -0.12645562 -0.36773098 -0.051645085 0.16345471 0.07165254 0.2986879
0.036491264 0.05995543 0.7390398 0.31097403 0.3928035 0.5563672 0.19682671 -0.12209381
-0.043263927 0.08431971 0.011079642 0.33250898 -0.01826441 0.3926824 0.00739724 0.1796435
-0.55019945 0.3860827 -0.62842757 -0.28498247 0.12683836 -0.17677137 0.66025466 0.17509928
0.028532654 -0.032854516 -0.14738004 -0.021502893 0.24158382 -0.31068492 0.082569644 -0.40859184
0.7816129 0.3342168 0.26917258 0.17097445 0.6984188 0.2902618 0.11015558 -0.30917886
0.92836696 0.16724868 -0.6805312 -0.20107931 -0.2733216 0.18837655 0.35949093 -0.07065058
0.16297486 -0.7615645 -0.048371237 0.5139026 -0.39167815 -0.26487392 0.47043958 -0.32193187
0.0077235783 0.22615433 -0.13604768 0.1320882 -0.19364846 -0.8920163 0.5583259 0.49702847

global_feature_extractor.first_block.0.conv.1.running_mean f4 [96]
00000000: 801e 28c0 cc22 36bf 62fc 9fbf 5291 243f
00000010: 5f05 01bf 85be 8fbf f663 db3e 6f3a 203f
00000020: bc47 0bc0 5219 eebd 07b5 2640 40c9 33bf
00000030: 94d6 3e40 1df4 b43f 2e9c 1c40 8a16 ddbf
00000040: 92ec 92bf f771 68bf 1c52 dcbf af90 19c0
00000050: 770d 17bf 8877 693e 0ced 20c0 b748 2740
00000060: 8ffa 153e 21e7 6fc0 7abb 603f f373 3140
00000070: 8b9e 0840 c68a 2a3f 0db9 44c0 09a5 11c0
00000080: d1e6 073e de58 b93f d30f 0240 bea9 c7be
00000090: 3158 71bf 36c0 bbbf 3b45 393d 5ea4 b2be
000000a0: 952d 92bf d43a 9abf 77ff 2fbf 82ef bd3e
000000b0: 9b32 c63f 786b 58bf 076e babd 8556 2fc0
000000c0: 3e19 023f 7aaf 2f40 3095 54c0 e92e 363f
000000d0: baf7 283f ba9d d43f 1e16 ebbf 3766 8a3f
000000e0: ae8c f9bf 5b89 843f 6946 43bf 43a7 00bf
000000f0: e3ba 0d3f 7d75 8e3e 7d58 58bf f2a6 0040
00000100: 84f6 bfbf 379c 8abe e3b6 0b3f 97fb 953f
00000110: d4e1 52c0 eff3 8dbf 554c 983f 7f57 ac3b
00000120: b004 69bf 5f1d f63f 87f5 fbbe 08fe dd3f
00000130: 8a3f 84bf d131 65bf d816 8ebf 6041 f1be
00000140: f056 85be 77c8 743d 1f7e 573f 78b8 fdbf
00000150: 5706 3a40 7ca4 1640 3590 d7be d027 6e3f
00000160: 2a36 71bf e4d3 a83f ff9b 443f 1b7d 46bf
00000170: 0831 013f 6759 d5bf 77cc 8f3f 61dc 03c0
-2.6268616 -0.71146846 -1.2498896 0.6428424 -0.5039882 -1.1230017 0.42849702 0.6258916
-2.1762533 -0.11625923 2.604799 -0.7022896 2.9818468 1.4136997 2.4470325 -1.7272503
-1.1478446 -0.90798897 -1.7212558 -2.3994558 -0.5900492 0.22799504 -2.5144682 2.6138132
0.14646362 -3.748482 0.87786067 2.772702 2.1346767 0.66618 -3.0737946 -2.275698
0.13271643 1.4480245 2.0322158 -0.3899669 -0.94275194 -1.4668033 0.04523204 -0.34891027
-1.142016 -1.2049203 -0.68749183 0.37096792 1.5484194 -0.84538984 -0.09103017 -2.7396557
0.50819767 2.7450852 -3.3216057 0.7116533 0.66003 1.6610634 -1.8366125 1.0812443
-1.9496057 1.0354418 -0.7627931 -0.5025522 0.5536329 0.2782401 -0.8451002 2.0101895
-1.4997106 -0.27072307 0.5457594 1.1717404 -3.2950335 -1.1090068 1.1898295 0.005259454
-0.9102278 1.9227713 -0.4921076 1.7343149 -1.033189 -0.8952914 -1.1100721 -0.4712019
-0.2604289 0.05976149 0.8417682 -1.982192 2.906637 2.3537893 -0.4210221 0.930295
-0.9422327 1.3189664 0.7680053 -0.77534646 0.5046544 -1.6667908 1.1234273 -2.0603259

global_feature_extractor.first_block.0.conv.1.running_var f4 [96]
00000000: 0e86 2741 c34a 3c40 0cad 1340 4887 3140
00000010: 8f1b 5d40 4efc b040 283d a340 069c d83f
00000020: d32e 0d41 34b0 e83f 523c be40 c716 4f40
00000030: 934a ff40 8ce1 a240 a1a1 b840 009d 1c41
00000040: bc2d 8c3f 43b4 9640 21ba ce40 58fa d740
00000050: 5076 9940 edc5 3e40 3a43 e340 7fe3 1f41
00000060: cd39 1540 5dfd 2a41 661d 6d40 85c9 e840
00000070: 27e9 da40 6a1c 8140 dfad 3741 4237 ab40
00000080: 8f54 2240 d0aa a040 2248 9540 45dd aa40
00000090: 31a3 3740 fa7c fe3f 32d9 f240 cb5a 9640
000000a0: 9487 8f40 c6c7 d940 9fc5 f540 fd1d 1340
000000b0: e175 3140 7219 9f40 31e5 4e40 2bf9 0241
000000c0: fe63 de40 8736 0241 0c8b 0641 efcf f53f
000000d0: 11d1 b540 a677 8640 898d 3c41 17d8 9740
000000e0: 86f6 b840 e965 e540 204e 2340 cd76 f540
000000f0: 392d 6b40 d16b 5040 57ec d53f d72a aa40
00000100: e09b 6940 af07 a640 f1c7 f33f 1695 e140
00000110: 474d c140 73f9 d340 1316 4f40 5275 cd40
00000120: 40cf bc40 008a c540 d110 b13f ebca 3c40
00000130: 54aa 5540 7cab eb40 b3b4 ae40 f2d9 6340
00000140: 84d3 0741 9bb6 ee3f a0a3 9e40 fc57 6740
00000150: 1507 a740 84f9 b740 8608 9040 6b1d 5c40
00000160: 59e0 9640 efe6 1241 249f 613f 65f5 5d40
00000170: 5e5d 6840 94ab db40 4014 bd40 87ac f640
10.470228 2.942063 2.307437 2.773882 3.454807 5.530799 5.1012154 1.6922615
8.823932 1.8178773 5.9448633 3.2357652 7.9778533 5.0900326 5.76973 9.78833
1.0951457 4.7095046 6.460221 6.7493095 4.7956924 2.9808304 7.1019564 9.993041
2.3316529 10.686856 3.7049193 7.2745996 6.840961 4.0347185 11.479949 5.3504953
2.536411 5.020851 4.6650553 5.3395104 2.8693354 1.988189 7.589013 4.698583
4.4853 6.8056364 7.6803737 2.2987053 2.7728198 4.971856 3.2327387 8.185832
6.949706 8.138312 8.408947 1.9204081 5.681771 4.2021055 11.7845545 4.745128
5.780093 7.16869 2.5516434 7.670752 3.6746352 3.2565806 1.671275 5.3177295
3.6501389 5.188438 1.9045392 7.049449 6.0406833 6.6242003 3.2357223 6.4205713
5.900299 6.1730957 1.3833257 2.9498851 3.338521 7.364683 5.459558 3.5601773
8.48914 1.8649477 4.9574738 3.6147451 5.2196145 5.7492085 4.5010405 3.4392955
4.714886 9.18138 0.88133454 3.4681027 3.6306987 6.8646946 5.908722 7.7085605

global_feature_extractor.first_block.0.conv.3.weight f4 [96, 1, 3, 3]
00000000: 7d1e 30be 582a 9ebe 9ec4 ccbe 8712 563d
00000010: 2b21 36bd 9e33 5bbe 9038 483f 6044 873f
00000020: 15c5 d63e 751d 243e aa5a 0f3e 0ad3 103f
00000030: 1283 f53e df9c 833f 92fb 15be 7e22 52bb
00000040: 06d9 74be 3801 11bf 5227 b93e 0f54 88be
00000050: d05b 533d 7e01 39be 1471 5d3f 17e3 433e
00000060: 1a39 c33e 273f 313e cebd 0dbb 69a0 99bd
00000070: 0b16 663e c369 a03c 1bd2 f8be e2e7 c8be
00000080: 91ae 7fbe e6c0 013f de30 dd3e 5531 d33e
00000090: d35a 25bf f595 acbe aa48 32be 35be 0ebf
000000a0: f13f 813e 39a3 163f 124a 983d 3a7b 173f
000000b0: 143b 303f 5cb6 053f 4331 df3e ee8d afbd
000000c0: b5fb 7e3f 195e 623e ee7e 0a3f 01d9 ce3e
000000d0: b220 813e 56c8 b93e 0225 2abe bcb5 b33d
000000e0: 41c0 0d3f 6649 8a3e eb22 b93e 245b 8b3f
000000f0: a28e d73d 9e44 8e3e 4b87 0abf d74e 86be
00000100: c4ae 033f e09e 76be b911 a1be af81 133f
00000110: 3e0f 22bf 8fc6 dcbe b84e a33e b3b0 c6bd
00000120: 661b 933d 5e51 663f f863 233f 0b1b 8a3e
00000130: 3342 103f 8c56 8d3e 057d 83be 9c1e f13e
00000140: bf8c 483e 9e00 f03e ce0c 823f 2d1d bbbd
00000150: 46b0 3b3e 10ba ff3e c5c0 033f d9e8 623d
00000160: 4613 323f f80f de3d 8fef 50bf 58fb 07bf
00000170: 08e1 58bf e0ea 0dbf 35fb 32bf a9b9 c3be
00000180: 7808 91bd 5a91 8c3e 5748 843d 32f4 753e
00000190: f5f9 dc3e 665d e83e 2ce7 80be 5ab3 ea3d
000001a0: df58 123f 4ef5 093d 23c2 41bf 76f8 22bf
000001b0: e462 c13e f03c 833f ae46 09bf 2a8d e43d
000001c0: 50d6 7e3f 5cfb e7bd bcd8 adbe dd01 863e
000001d0: 748a e03d ded3 68be 52e2 ab3e 2dd3 2d3f
000001e0: 5f55 0d3f 4ed7 a33e bd08 4a3e 71be 4fbf
000001f0: 4e47 2cbf cd17 693e 2b83 89be 330e 16bf
00000200: 2fd6 1abf 768b 74be 4f69 f2be 1565 68bf
00000210: dae9 98bd 8a23 8dbe 19b3 46bf 0927 59be
00000220: 4d66 8dbe 2f48 38bf e8e6 463f 7d9c fb3e
00000230: 2c37 05be 4feb 283e f5d1 a5bc 3dea 43bf
00000240: 5f25 d23e 6a61 42be 63a7 e03e 3e52 083f
00000250: 03a8 24bf d539 7ebe 8569 17bf eb00 cb3e
00000260: 56d5 233d b7aa c03d 0d6e 773e 59cd 043f
00000270: fd33 c13e 21d6 a53e 5120 903e 9c8d e93e
00000280: 9f5e 583e 7c77 a93e 2777 3ebe 0b33 fcbe
00000290: 3892 613d 6fe3 a8be c992 03bf 44ed 12be
000002a0: 95b1 e23e b3b3 033f 1b49 fb3e 9938 0a3f
000002b0: 79e2 c03e 5ef5 0f3f 829f 0f3f 0c09 283f
000002c0: 0568 a33e 0cc1 c0bd e851 a63e cd4b a13e
000002d0: d0ad 833e a519 0f3d 0c4d e23d 8723 03bc
000002e0: 6ca7 09be d3ae 60be ddbf 91bd 3211 63bf
000002f0: 228d 7ebf bcfd 753e 1175 043f 1047 ba3e
00000300: 328b 52bd 028e d33e 6b90 8b3e fd5c 98be
00000310: 5b2c 8d3e dd46 86be 3db4 d33e 3745 5b3e
00000320: 6ec1 843e 7174 e73e 1350 3b3f 3888 293f
00000330: 72d9 ac3e 4547 0a3f 6887 fb3e b82a f9be
00000340: 9659 51bf 16b4 89be 2c5e 97be d909 8cbe
00000350: f2e2 90be 22d4 da3d dcdf 09bf 38ec 50bf
00000360: 1a31 95bd 1ca4 df3d f95d 363f 9414 a13e
00000370: 4533 47be 60c2 193e e5e9 5c3d b3da 3abf
00000380: 6e03 cbbe a42c fd3d 08bc 743e 7917 a73e
00000390: 018d 3d3e 13ff dd3d f0a0 b83e cf81 44bf
000003a0: 6d7e 6fbf 1443 d4be f896 4e3e 867a a6be
000003b0: aa17 e53d 0052 e9be 9fb6 06bf a9cb ef3d
000003c0: e9d1 97be c06e e1bc 46b9 f33e 8a45 01bf
000003d0: 58b5 a1be 5932 21bf aaa7 28bd e76a 00bf
000003e0: 647c f5be 07ba 86be 073d 88be d414 4cbf
000003f0: 9a21 0bbe 4a4a 113f 14f7 08be ac42 5bbe
-0.1719913 -0.3089168 -0.39993757 0.052263763 -0.044465225 -0.21406409 0.7821131 1.0567741
0.41947237 0.16026862 0.1399943 0.5657202 0.4795156 1.0282248 -0.14646748 -0.0032064016
-0.23910913 -0.56642485 0.36162812 -0.26626632 0.05160123 -0.18066975 0.8650067 0.19129597
0.38129503 0.17309247 -0.0021628025 -0.07501299 0.22469346 0.019581681 -0.48597798 -0.39239413
-0.24968936 0.50684965 0.43201345 0.41248575 -0.6459171 -0.33708158 -0.17410532 -0.5575898
0.25244096 0.5884281 0.07436003 0.59172404 0.68840146 0.52231383 0.4359227 -0.08571993
0.99602824 0.22106208 0.5409993 0.40399936 0.25220257 0.36285657 -0.1661568 0.087748975
0.5537148 0.27009124 0.36159453 1.0887189 0.10525252 0.27786726 -0.5411269 -0.26232025
0.51438546 -0.24084044 -0.31458834 0.57619756 -0.6330451 -0.43120238 0.31895995 -0.097016715
0.0718296 0.89967906 0.63824415 0.26973757 0.5635101 0.27605093 -0.2568132 0.47093666
0.1958494 0.4687547 1.0160158 -0.09136424 0.18328962 0.49946642 0.5146602 0.055397842
0.6956066 0.108428895 -0.8161554 -0.53117895 -0.8471837 -0.55436516 -0.6991456 -0.38227585
-0.070816934 0.27454644 0.0645911 0.24018934 0.43159452 0.45383757 -0.2517637 0.1145999
0.57166857 0.033681206 -0.75686854 -0.6366037 0.3777076 1.0252972 -0.53623474 0.111597374
0.99545765 -0.1132724 -0.33954418 0.26173297 0.10963908 -0.22737071 0.33571106 0.67900354
0.5520839 0.32000202 0.19729896 -0.81149966 -0.672963 0.22762986 -0.26857886 -0.58615416
-0.6048307 -0.23881325 -0.4734597 -0.9077924 -0.07466479 -0.27566177 -0.7761703 -0.21206297
-0.27617112 -0.71985143 0.77696085 0.4914283 -0.13009328 0.16496013 -0.020241717 -0.76529294
0.41044137 -0.18982473 0.43877706 0.5325049 -0.64318866 -0.24826749 -0.59145385 0.39649138
0.039998375 0.09407561 0.24163075 0.51875836 0.37734976 0.3238993 0.28149655 0.45615852
0.21129845 0.33098972 -0.1860014 -0.49257693 0.055071086 -0.32986018 -0.5139585 -0.14348322
0.4427611 0.51446074 0.49079213 0.5399261 0.37672785 0.56233776 0.56102765 0.65638804
0.31915298 -0.09411821 0.32484365 0.31503144 0.25718546 0.034936566 0.11049852 -0.008004076
-0.13442773 -0.2194169 -0.07116673 -0.8869811 -0.994341 0.24022573 0.5174113 0.3638234
-0.05140228 0.4131928 0.2725862 -0.29758444 0.27572903 -0.2622594 0.41348448 0.21413122
0.25928825 0.45206025 0.7316906 0.6622348 0.33759648 0.54015 0.49126744 -0.48665404
-0.8177732 -0.26895207 -0.29564035 -0.27351263 -0.28298146 0.106849924 -0.5385721 -0.8161044
-0.07284756 0.10919973 0.7123714 0.31461012 -0.19453152 0.15015554 0.053933997 -0.7298996
-0.39651054 0.1236203 0.23899853 0.32635096 0.1851082 0.10839667 0.36060286 -0.7676057
-0.93552285 -0.41457427 0.20174778 -0.32515353 0.11186154 -0.45570374 -0.5262241 0.11708767
-0.29652336 -0.02751863 0.4760229 -0.50496733 -0.31583667 -0.6296745 -0.041175522 -0.5016312
-0.47946465 -0.26313803 -0.2660906 -0.7971928 -0.13587037 0.5675398 -0.13375503 -0.21412152

global_feature_extractor.first_block.0.conv.4.weight f4 [96]
00000000: 502f d43f a78b 533f fd64 373f 9e7a 623f
00000010: 7c37 b63f 8d05 863f fc82 7f3f a50c 653f
00000020: f2a9 673f 48b5 7b3f dc03 b33f 6e41 703f
00000030: 1bd4 cd3f b1b4 ae3f 4a5a 0840 cc97 8a3f
00000040: 0483 e53e f758 223f 384b b73f 8629 863f
00000050: 0513 433f 624f f73e 002e 553f ecee b13f
00000060: d479 6c3f e822 a83f 6558 6e3f 7368 e93f
00000070: dd2e 9e3f daf2 af3f fa93 bf3f ddf5 2d3f
00000080: 4700 723f c32a a63f df84 3d3f 6fc2 db3f
00000090: 973a 323f 3f7c ea3c a089 f23f 762e 903f
000000a0: 12e0 853f c809 833f 5b0f 7d3f 0612 253f
000000b0: 1383 853f 407c a03f 053d 863f 9499 b23f
000000c0: a8e0 613f 7b09 d23f 21a3 cb3f e7c6 123f
000000d0: bc98 8a3f c47d 153f 4b1e c33f 49e7 7d3f
000000e0: 4df3 b73f da3b ae3f b423 863f 3fb4 a53f
000000f0: 90a6 2b3f 71a4 a93f 8ca5 a93e 4ffc b73f
00000100: 9150 b63f 1093 b13f a96f 3f3e 3865 8a3f
00000110: d7dd 6d3f edfb 5e3f 9670 773f 4821 b83f
00000120: 9ff8 4c3f c5bf 883f c9ee 543f c1af fe3f
00000130: caa6 353f 8fc0 b83f df81 a13f 8449 713f
00000140: 1742 b13f 8741 233f 8c33 693f bc0d ff3e
00000150: 717e bd3f 043d 4f3f 81d2 5f3f 2c56 673f
00000160: e3c8 0b3f cfc4 853f 09f5 f53e a839 323f
00000170: 6289 a93f 8406 343f 06b8 9e3f 0ada 853f
1.6576939 0.8263497 0.7163847 0.8846835 1.4235682 1.0470444 0.9980924 0.8947242
0.9049369 0.9832349 1.3985553 0.9384984 1.6080354 1.3648893 2.1305108 1.0827575
0.4482652 0.63417 1.431983 1.0481422 0.76200897 0.48302752 0.83273315 1.3901038
0.92373395 1.3135653 0.9310363 1.8235 1.2358052 1.3745987 1.4967034 0.6795328
0.94531673 1.29818 0.7403087 1.7168711 0.6962065 0.028623698 1.894825 1.1264179
1.0459006 1.023736 0.98851556 0.64480627 1.0430626 1.2537918 1.0487372 1.3953118
0.88233423 1.6409143 1.5909158 0.5733475 1.0827861 0.5839503 1.524362 0.9918104
1.4371125 1.3612015 1.0479646 1.2945632 0.6705103 1.3253309 0.33134115 1.4373873
1.4243337 1.3873005 0.18694939 1.081214 0.92916626 0.8710316 0.9665617 1.4385157
0.80066866 1.0683523 0.8317686 1.9897386 0.70957625 1.4433764 1.2617759 0.942528
1.3848294 0.6377186 0.9109428 0.49815166 1.4804212 0.8095248 0.8743058 0.9036586
0.54603404 1.0450686 0.4803851 0.69619226 1.3245051 0.7032244 1.239991 1.0457165

global_feature_extractor.first_block.0.conv.4.bias f4 [96]
00000000: e657 2dbe 3e24 9fbe 9e77 d1be d526 23bf
00000010: 0197 203d 18ed c03d 39dd 803e 741d f8be
00000020: 21cc c03e 68e0 babe 05f7 573f 6ac1 afbe
00000030: 62f3 263e 60b3 803d b534 1a3f dbb2 a8be
00000040: a9fe 65be 31b1 e8be 070c febc 1c6c 36bc
00000050: 1159 18be 47b8 19bf 0958 41bf b727 a13e
00000060: c01b 2fbd 1430 023f 7b05 2cbe 1c24 0a3f
00000070: 2774 0d3f 15c3 c2bd 1238 c83e 38d0 fdbe
00000080: e07b 19be 16e5 c43e b15c 20bf c03b 183e
00000090: a5ab f43d 3fcc 69be dd5a 4a3e e30d 203e
000000a0: ea96 31be 93d8 2bbe 7ced 8dbe 00a1 e93e
000000b0: e563 3c3f cbea 5c3f 7760 ea3e c5a2 153f
000000c0: 463a 7abe b829 1f3f 6881 433e 768d 7cbe
000000d0: 1f8d 80be 7521 cbbd 7351 893c 2f28 243f
000000e0: c457 ba3d 5062 4c3f bf2a d3be 8f15 b83e
000000f0: f49a 34be f964 223f 52bd d5be a835 743e
00000100: cab3 e3bb dba0 1b3f 68f9 07bf 7799 c2bd
00000110: c057 203e 7cc0 35bd 4eb4 40bd 5fde 6abe
00000120: 43da 04be ca5a b13e aba4 ddbd 64bd cfbe
00000130: 5c01 fe3c 45e6 a7ba 663d 4a3f 7e5e 8abe
00000140: 5cac 743e f6f2 70be f119 c7bd f9a7 a0be
00000150: 0aa7 1d3e bc15 b6be 9f6e 013f 20b9 ae3d
00000160: de9b 98be 5b71 823e f9f4 28bf 9b96 01be
00000170: 0749 943e 9b04 bebe 9fab 503e b136 293d
-0.16928062 -0.31082338 -0.40911573 -0.6373113 0.03920651 0.09420222 0.2516878 -0.4845997
0.37655738 -0.36499333 0.84361297 -0.3432725 0.1630378 0.06284213 0.60236675 -0.32948956
-0.22460426 -0.45447686 -0.031011594 -0.011134174 -0.14877726 -0.6004681 -0.75524956 0.31475613
-0.042751074 0.5085461 -0.16798966 0.5396135 0.5525536 -0.09509865 0.39105278 -0.4957292
-0.14988661 0.3845603 -0.62641436 0.14866543 0.11946801 -0.2283182 0.19761224 0.15630297
-0.17342725 -0.16781835 -0.2772025 0.45630646 0.73589927 0.86295766 0.45776722 0.5845149
-0.24436292 0.6217303 0.19092333 -0.24663338 -0.25107667 -0.09918491 0.01676247 0.64123815
0.09098771 0.7983751 -0.4124355 0.35953948 -0.17637235 0.6343532 -0.41746002 0.23848593
-0.0069489228 0.6079232 -0.5311494 -0.09501927 0.15658474 -0.04437302 -0.047046952 -0.2293639
-0.12973885 0.3463958 -0.108224235 -0.4057418 0.031006508 -0.0012809715 0.78999937 -0.27025217
0.23893875 -0.23530182 -0.09721745 -0.31378153 0.15395752 -0.35563457 0.5055942 0.085314035
-0.29806417 0.25477108 -0.659988 -0.12655108 0.28961965 -0.3711289 0.20377968 0.041311923

global_feature_extractor.first_block.0.conv.4.running_mean f4 [96]
00000000: c19e 543f 423a 843e b544 5c3f 989c 663e
00000010: 000b 8e3e 8498 0a40 5d4b 9b3f 0d54 93be
00000020: 70e0 2140 74cc 9c3f 17c1 ddbf fac6 c73d
00000030: cbc5 ff3e e279 013f 3c99 3dc0 c4e7 9fbe
00000040: 57e9 a03b bf4d 643f d0d1 e5bd 3ff5 5540
00000050: 6577 babf 4a80 db3e eb81 0340 1a4d 3fc0
00000060: 07f7 40bd b604 2ebf 75f5 99be 8e0e 8bbf
00000070: 2460 a43f 0e5e 403f be12 6bc0 3ee3 5cbd
00000080: 3ccb b13e 2f58 483f 8a09 a2bf ad55 25bf
00000090: 78a1 78bf c6e6 a73e 4920 c83d 33b9 4b3d
000000a0: bb09 8ebc 5500 1b3f fda6 1abf 7d23 f43f
000000b0: 0b84 b73f 4e0c ac3f ec41 9e3f 83c6 b43f
000000c0: 343d 713b 07cf 963f a5b8 7a3e 62cd f0be
000000d0: eddb 03c0 0920 b13c 2601 5ebf f729 d93f
000000e0: fcc8 7d3c a2be fa3f 8db2 4d3f e6eb 8b3f
000000f0: 1a5e e8bd c796 11bf f441 4f3f 0b84 323f
00000100: 7592 22be 5757 1b40 a9ee bf3d 1b31 0b3e
00000110: 10d8 fe3f cc4d 01bf ddb3 d03e 6ee8 bbbd
00000120: 7054 28c0 9130 ad3f 2e55 8a3a 0bc1 393e
00000130: 85cb 6bbf 1b9f 653d 92a2 0340 b086 4ebf
00000140: 1e27 373f b5b8 87bc 8643 d0bf 9e01 acbf
00000150: 2eb7 393f 52ce 103d dea7 0f3f 2096 debe
00000160: 9bca 7e3e 1358 f33e 9ce1 04bf ab9f 60bf
00000170: 6b00 2b3f 0400 0000 ae4c dfbf e6d1 b53d
0.8305474 0.25825697 0.8604234 0.22520673 0.27742767 2.1655588 1.2132374 -0.28775063
2.5293236 1.2249894 -1.7324551 0.09754749 0.49955592 0.50576603 -2.9624777 -0.3123151
0.004910629 0.8918113 -0.11221659 3.3430936 -1.4567686 0.42871314 2.0548046 -2.989081
-0.047110584 -0.6797594 -0.3007008 -1.0863817 1.284184 0.75143516 -3.673019 -0.053927653
0.34725368 0.7825956 -1.2659161 -0.64583856 -0.9712138 0.32793254 0.09771783 0.049737167
-0.017338624 0.6054738 -0.60411054 1.907333 1.4337171 1.3441255 1.2363868 1.4123081
0.0036810162 1.178193 0.24484499 -0.47031695 -2.0602982 0.02162172 -0.867205 1.6965932
0.015489813 1.9589427 0.8035057 1.0931365 -0.113460734 -0.5687069 0.8096001 0.6973273
-0.15876181 2.4272058 0.09371693 0.13592951 1.9909687 -0.50509334 0.40762225 -0.09175192
-2.6301537 1.3530446 0.001055395 0.18140046 -0.9210742 0.056059938 2.0567975 -0.80674267
0.71544063 -0.016567567 -1.6270607 -1.3437994 0.72545135 0.035353012 0.5611552 -0.4347391
0.24881975 0.47528133 -0.5190675 -0.87743634 0.6679751 6e-45 -1.7445276 0.088779256
