model_checkpoints/experiments/stage_1_2/fastscnn_a0.25t4r3pp1_noinit.onnx (onnx, 241456 bytes, 88 tensors)

global_feature_extractor.ppm.conv.0.weight f4 [8, 32, 1, 1]
00000000: 8b68 7fbe 47ab 23bd 4ba8 6d3d 64b7 13be
00000010: 55ed 913e ae7c 02be 9e83 8c3e fb75 acbb
00000020: 8748 9f3b 3ef0 5bbe 6078 bebe f153 d03c
00000030: 236f b83e 7deb 61bf fb94 bf3c fb0f 67be
00000040: 3c0d 613d ac04 99bd 9484 51bd 932f 86bd
00000050: 99d7 6bbe c0da 7b3f 4e50 c03e 4934 943e
00000060: b589 133f 85ef b13d e9ee a03e 49d6 32bd
00000070: af2e 28bf 57d9 bcbe 10f5 4bbe 9d6a aabe
00000080: 67f3 13bf 505f d5be d453 66be eef5 50be
00000090: d42d 5c3e 1a23 f7be 8f4a 93bd 04c6 513e
000000a0: 6301 09bf 844a d4bc f858 11bf cc8d e3be
000000b0: 43c5 c2bd c041 693f c2f4 8dbd 03a7 d03d
000000c0: 3dc1 cd3e 2569 a53d 7a74 a53e dc0a 0dbf
000000d0: 8e5a 80be 819d 52be 210d 893e b37d da3e
000000e0: deb3 48bf 9304 1ebd 9e20 463e 67a5 593d
000000f0: 9dd0 453e 0375 a43e 6e7a 5fbc c8c9 bfbc
00000100: af3a 19bf a03c 5f3e edd7 30bf 011c 753f
00000110: ec85 213f 4a98 3c3f 53b9 f5bd 4481 aabe
00000120: a2f2 d2be c2ee 773e f12e 20bf b64b 6d3d
00000130: 97d7 bf3e e631 4d3f 3015 e0bd da8c b6bd
00000140: 03bf 1cbf b3ce 88be b023 f0be 3e8a 81bf
00000150: 8435 713f 3f9b fa3e be82 d03e 602d b2be
00000160: 36cb d73d a280 c43e 468b ca3c e08c 893f
00000170: f26a 2c3e 4e40 973e 0b63 9dbd 4e06 1cbf
00000180: 460f 083f 5eb4 853e fef4 393d b3a8 85be
00000190: e52a b73c 6224 9b3f bfd9 ecbd 3995 503f
000001a0: c778 8bbd d6a1 94be 15c5 873e 76dd 253f
000001b0: 1124 33be 7830 61bf 95f6 2bbe 3253 51bf
000001c0: 08bd 0abf 8788 423e 4536 3abf 58ec 003e
000001d0: e5bf df3e 8085 b03e 55e8 06bf 3ed1 983d
000001e0: f4e0 1a3f b3c9 ecbe 26e3 b8be 4a62 0c3e
000001f0: df3c bf3e cf9b 09bf 2601 6b3e 6835 9f3e
00000200: b6c6 f73d 36bb 923e 2020 433e 567e 62be
00000210: 79f1 e03d 8b41 c53e 4a22 343f b709 b13e
00000220: 6d15 103f 1400 6b3e a8f0 d03d 1da1 083f
00000230: 8f48 2d3f 9c4c cabd dab3 803e 2bca d33e
00000240: 62ac 9f3c 9536 ecbe 0aa9 00be 2da1 9d3d
00000250: d90f 363f b271 1b3f d311 3e3f 0177 71bd
00000260: 6373 843c e971 d9bd 0f15 fabe 0f84 17be
00000270: c537 2fbf 2e2b 18bf eade 29be 0f4a 72bf
00000280: 5e2a bf3d 41ef 523f e1c1 853d b830 023f
00000290: 2a1b 81be 6043 423c b565 44bc 54f4 753e
000002a0: 0b63 8cbe 8718 08bf 07a0 563e 2f9e 353f
000002b0: fd1d 973e ae6f adbe a950 3a3a c800 19be
000002c0: 82ea 95be 470b 93be 96bb 46bf b487 9ebe
000002d0: e7b6 303f 3e75 453f ebf2 193e ceaa 2cbe
000002e0: c9cf 843f 8f01 8f3e 8175 acbd d305 193e
000002f0: 27fb c4be 1848 08bf c11e 32be 9547 3cbf
00000300: c634 08be b995 60be 761d 25bf 2856 7ebb
00000310: cc8b 293d c894 cd3e 1905 46bf 48b7 7c3f
00000320: e6b0 2cbf aa0a cb3e 3f45 84be c1db 25bd
00000330: ff06 4dbf 9d72 e7bd 329e 08bf c92e 7ebf
00000340: d812 26bf 9951 523f 65d5 07bd 501a c43d
00000350: 24f8 ddbe df62 20bc 2b9a 32bf e5a5 69bd
00000360: 5ab4 52bd 28b0 e4be a37c 2a3e 68db 093f
00000370: bb07 743f e700 ca3e cd8c d63e a4c5 853f
00000380: c676 433f cf61 293f 3a44 273e 0f3a e5be
00000390: 7ef5 febe 0fdd 103e 6a24 963e 66e8 9c3e
000003a0: b051 973e 120d a13e 585f f83e 95ba 803f
000003b0: fee7 14bd d160 97bf 8f75 f83c ef68 0bbf
000003c0: eac3 e6be bca8 173e 60e2 dbbe 17d2 533d
000003d0: 3d67 893e 1634 10be 5e30 b6be 0c26 4cbf
000003e0: 6a50 3e3f 5165 ccbc 5fdf c73b e269 36bf
000003f0: 81de 2d3d 1d10 c7bd 4adf a63e 7af0 9bbe
-0.24942224 -0.039958265 0.058021825 -0.14425427 0.28501382 -0.12742874 0.27444166 -0.005263088
0.004860941 -0.21478364 -0.37201214 0.025430651 0.3602229 -0.8824995 0.02338647 -0.2256469
0.054944262 -0.07471594 -0.051151827 -0.06552043 -0.23031463 0.9838066 0.37561268 0.2894614
0.57632 0.08688263 0.31432274 -0.04366139 -0.65696234 -0.36884567 -0.19917703 -0.33284464
-0.5779328 -0.4167428 -0.22492915 -0.20406315 0.21501857 -0.48268968 -0.07191955 0.20485693
-0.5351774 -0.025914438 -0.5677638 -0.4444412 -0.09510281 0.9111595 -0.069314495 0.10188105
0.40186492 0.08076695 0.32315427 -0.55094695 -0.25069088 -0.20567895 0.2676783 0.42674026
-0.78399456 -0.03857858 0.1934838 0.053136256 0.19317861 0.32120523 -0.013640029 -0.023411646
-0.5985517 0.2180047 -0.69079477 0.95745856 0.63094974 0.73669875 -0.119982384 -0.33301747
-0.4120074 0.24212173 -0.62571627 0.05793353 0.3746917 0.80154264 -0.10941541 -0.08913584
-0.6122896 -0.267202 -0.46902227 -1.0120313 0.94222283 0.48946568 0.40724748 -0.34800243
0.10536806 0.3837939 0.024724614 1.0746117 0.16837671 0.29541248 -0.076849066 -0.6094712
0.53148305 0.26114172 0.04539966 -0.2610527 0.02235932 1.2120478 -0.11564969 0.81477696
-0.06810146 -0.2902972 0.2651755 0.6479105 -0.17494227 -0.8796458 -0.16793282 -0.8176757
-0.5419469 0.18997394 -0.7273906 0.12590158 0.4370109 0.34476852 -0.5269826 0.07461785
0.604995 -0.46247634 -0.361108 0.1370937 0.37351128 -0.5375337 0.22949657 0.31095433
0.12098448 0.28658456 0.19055223 -0.22118506 0.10983557 0.38526568 0.7036482 0.34577724
0.56282693 0.22949249 0.102021515 0.5337084 0.6768884 -0.09877893 0.25137216 0.4136518
0.019491378 -0.46135393 -0.12564483 0.076967575 0.7111793 0.6072036 0.7424595 -0.05895138
0.016168302 -0.1061743 -0.4884419 -0.1479647 -0.6844447 -0.59440887 -0.16588941 -0.94644254
0.09334253 0.8239632 0.0653112 0.5085559 -0.25216037 0.011856884 -0.0119871395 0.24018985
-0.27419314 -0.53162426 0.20959483 0.70944494 0.29515067 -0.33874267 0.0007107356 -0.14941704
-0.29280478 -0.2871954 -0.77629983 -0.30962908 0.69029087 0.7713202 0.15034072 -0.16862032
1.0375911 0.27930877 -0.084208496 0.14943628 -0.38472864 -0.53235006 -0.17394544 -0.73546726
-0.13301381 -0.21932115 -0.6449808 -0.0038808677 0.041393086 0.40152574 -0.7735153 0.98717165
-0.67457426 0.39656574 -0.2583408 -0.040492777 -0.800888 -0.113011576 -0.53366387 -0.9929014
-0.64872503 0.8215576 -0.033162493 0.09575331 -0.4335338 -0.009789198 -0.6976649 -0.057042975
-0.051441528 -0.44665647 0.16649108 0.5385041 0.95324296 0.39453813 0.41904297 1.045094
0.7635311 0.6616487 0.1633462 -0.44770858 -0.4979667 0.14146827 0.29324657 0.30646056
0.2955451 0.31455284 0.48510242 1.005694 -0.036354057 -1.1826421 0.030329494 -0.5445699
-0.45071346 0.14810461 -0.42946148 0.05171403 0.26836577 -0.14082369 -0.35583776 -0.79745555
0.7434145 -0.024950655 0.006099626 -0.71255314 0.042448524 -0.0971987 0.3259223 -0.30456907

feature_fusion.conv_high_res.weight f4 [32, 16, 1, 1]
00000000: 303b 1cbe 7466 31bf 8d23 50be 6fff 0dbf
00000010: 2ef0 20bf e8ce 48bf 7dbe 893f 45c1 dd3d
00000020: 7319 2f3d 261c a43f 11b7 25bf f181 efbe
00000030: c440 173f 0dc2 963e 7436 893f 3289 273e
00000040: 76d2 7bbe d9e4 873f de15 d93d 9795 d0bb
00000050: c429 c33e b73f 99be 1cce 62bd a791 2b3f
00000060: 07f9 953e d0c5 923f 6c56 ba3e e649 f53d
00000070: fe34 6bbf d980 a0bf c9e0 0cbf 36d4 f5bf
00000080: ca18 cbbe c664 97bd 6547 f2bd 1813 893f
00000090: d327 f53e 8ab7 4c3e 9285 bc3e be80 0a3f
000000a0: 76e6 3abe 77f2 2f3f a285 c0be 232f 83be
000000b0: 59b5 8ebf d2a6 44bf 3a37 063f 7698 9cbe
000000c0: 64db b5bd 5e88 c2bd f110 9f3e dbd2 8ebe
000000d0: 58e3 be3f d118 7c3e f7e6 7a3e cab5 f53e
000000e0: 2d5f dbbe 9f6a 933e 8c18 b6be 3a7a 753e
000000f0: 2f45 653e fd10 a2be 4e1f f93e 2cea 2a3f
00000100: 3131 363f 702e 95be 2f27 1e3f f260 3c3e
00000110: e4e7 1bbf 6682 303f 4547 6b3e 15f0 b6be
00000120: 146d 983e 757c 18bf dda2 143f 237f 833f
00000130: 7c9b b73e 8d98 8dbe fd57 b4be a58e 0d3f
00000140: 7b4f 8e3e 3bd8 833f a228 903f caf8 40be
00000150: c569 c2be 9abc 8ebf 2cef 263f 4b41 1e3d
00000160: 16ed 59be e423 9f3e 892f 913e dce5 0c3f
00000170: cac4 96be b64e 9bbe d610 3a3f e924 84c0
00000180: fae9 e53e fe9b a2be b1fd 88be fd90 0b3e
00000190: 1e78 ac3f 27ca b73e b997 fd3e adb4 273f
000001a0: b9b0 523f fd8e fcbd d613 7bbf de0c eb3e
000001b0: 36e2 27bf 24e6 96bf 26c3 b63e 4595 c53e
000001c0: 8dfa 05be fa94 d9bd 98a1 21bf 4a0c d03d
000001d0: 23dc 313f 1473 81be acd0 85be 196e 5d3f
000001e0: cbd6 82bf b4b6 5e3f d714 97be 02c4 d2be
000001f0: af7c 00be d7d1 1fbe 214d 393f 443a e2bc
00000200: eb01 06bc 33da 2d3e a06d 843e af31 13bf
00000210: 7117 35bf d001 fabf cefb 3cbf 3f8b 3abf
00000220: 283e 06bf 3a7c 1cbf 97dd 5e3f ede9 0dbf
00000230: 5935 0bbf 0c3b d23e 9e29 38bf 4c68 803d
00000240: 11e0 f83e 2cff 20be 8c44 f5be 9f08 c83a
00000250: c14a cc3e 9112 503d c781 eb3e 2f58 1b3f
00000260: d35f e0bd 8a4d dd3e 3d30 e9be 2366 2b3e
00000270: 53ca 80bf 5c33 e7be 3f53 833e 3f28 d23d
00000280: 4684 523d 06b0 473f 7584 9ebe 8b91 4b3f
00000290: eb38 d63e 8280 34be 1da4 373f c7a5 483f
000002a0: b6cf 2f3f 0461 263f 80da 95bd 7591 d83e
000002b0: 582d c8be aa26 96bd cb82 7f3f 274d a2bd
000002c0: 385a c9bf 8c26 43be d11c a7be 973b f0be
000002d0: 77e5 22be fe00 d5bf 385a b9bf 167c 8abd
000002e0: 88ed d6bf a52b 2b3e 081b 33bf c499 2bbf
000002f0: 0298 47be 9f7a d43e 96df e33e ddeb 4abf
00000300: a514 16bf d5ab c1be 3850 883f 2a15 743f
00000310: 47ff 3abf 3aa6 903d 6c68 713f 5a0a 66bf
00000320: 4e03 a83e 3d89 82bf 3674 f43e 3c54 cd3e
00000330: aa95 fa3d bf61 03bf e17d 403f 1478 4f3f
00000340: aa57 ef3e b20a 8a3e b792 c5bc 8cac 773d
00000350: c52b 05bd 3bda fb3e f2dd 2f3f e476 acbf
00000360: 23b5 cd3d 395a c7bf 1a78 a0bd 756d 4c3f
00000370: c023 a93e 4031 c0be 56b4 8f3f 0aba 08bf
00000380: a39b f1bd 105c 593f 9153 00be e375 873e
00000390: 7324 aa3e e7a3 af3f 53b4 203e 7104 82bd
000003a0: 43c4 4d3d 362b 9dbe f249 9abe fc34 5f3f
000003b0: a3c5 353f 3b30 79bc 6ea5 433e 853f 913f
000003c0: 0457 64bd 705e 6fbe 60a8 853e 2a10 d6bd
000003d0: 7b3c 413e c0f1 bf3c c36c 9d3e b4f0 be3e
000003e0: dc27 31be 0095 083e 2426 edbd 71ca 273e
000003f0: 653e a6bd 4aab 45bf a3be a9be 8d1e f4bd
-0.15256953 -0.69296956 -0.20326062 -0.55467886 -0.62866485 -0.78440714 1.0761257 0.10827879
0.04274888 1.282109 -0.6473246 -0.46778825 0.590832 0.29444924 1.0719743 0.1636093
-0.24592003 1.0616714 0.10599874 -0.0063654887 0.38117802 -0.29931423 -0.055372342 0.6701912
0.29291555 1.1466618 0.3639406 0.11976986 -0.91877735 -1.2539321 -0.55030495 -1.9205387
-0.3966735 -0.07392268 -0.11830024 1.0708952 0.47881946 0.1999189 0.36820656 0.54102695
-0.18251976 0.68729347 -0.37601954 -0.256219 -1.1149093 -0.7681705 0.5242802 -0.30585068
-0.08879736 -0.09498666 0.31067613 -0.27895245 1.491313 0.24618842 0.24502169 0.47990257
-0.4284605 0.28792283 -0.35565603 0.23972407 0.22389673 -0.31653586 0.48656696 0.6676357
0.7116881 -0.29136992 0.6177854 0.18396357 -0.6090071 0.6894897 0.22976406 -0.35730043
0.2977072 -0.59564906 0.5806101 1.0273174 0.35860813 -0.2765545 -0.3522338 0.55295783
0.27795014 1.0300363 1.12624 -0.18844905 -0.3797132 -1.1151307 0.652087 0.038636487
-0.21281847 0.3108207 0.2835658 0.5503824 -0.29447013 -0.3033349 0.7268194 -4.1295056
0.44905072 -0.31759638 -0.2675605 0.13629527 1.3474157 0.35896417 0.49529818 0.65510064
0.8230091 -0.1233196 -0.9807714 0.45908254 -0.65579545 -1.1788983 0.3569576 0.38590446
-0.13083859 -0.10624118 -0.631372 0.10158594 0.69476527 -0.2528311 -0.26135767 0.8649612
-1.02218 0.8699753 -0.29508087 -0.41165167 -0.12547563 -0.15607391 0.72383314 -0.027615674
-0.008179168 0.16977768 0.25864887 -0.57497686 -0.70738894 -1.9531803 -0.73821723 -0.7286872
-0.5243859 -0.61127055 0.8705687 -0.5543507 -0.5437828 0.41060674 -0.719385 0.06269893
0.4860845 -0.1572234 -0.4790386 0.0015261358 0.39900783 0.050798956 0.4599745 0.6068143
-0.10955777 0.4322322 -0.45544615 0.16738181 -1.0061744 -0.45156372 0.2564945 0.102615826
0.051395677 0.78002965 -0.30960432 0.79518956 0.418403 -0.17627147 0.7173479 0.78377956
0.68676317 0.64991784 -0.07317066 0.42298475 -0.39097095 -0.07331593 0.9980895 -0.07924872
-1.5730658 -0.19057673 -0.32639173 -0.46920463 -0.15907846 -1.6640928 -1.4480658 -0.06761949
-1.6791239 0.16715868 -0.6996312 -0.670315 -0.1949158 0.41499802 0.4450652 -0.7926615
-0.5862525 -0.3782641 1.0649481 0.95344794 -0.7304577 0.07062955 0.9429996 -0.89859545
0.3281502 -1.0198132 0.47744912 0.40103328 0.122355774 -0.51321024 0.75192076 0.810426
0.4674657 0.26961285 -0.02411781 0.060467288 -0.032512445 0.49189934 0.68698037 -1.3473783
0.10044315 -1.5574409 -0.078354076 0.7985452 0.33035088 -0.37537575 1.1226909 -0.53408873
-0.117972635 0.849061 -0.12531878 0.26457128 0.33230934 1.3721894 0.15693788 -0.063485034
0.050235998 -0.3069703 -0.3013454 0.8719022 0.71004695 -0.015209253 0.19106075 1.134751
-0.055747047 -0.23375869 0.26105022 -0.10452302 0.18870728 0.023430705 0.3074704 0.37293017
-0.17300361 0.13338089 -0.1157954 0.16385819 -0.081173696 -0.7721449 -0.33153257 -0.119198896

feature_fusion.conv_high_res.bias f4 [32]
00000000: 28cf e83d f060 c3bd dfc2 da3d 74e8 50bf
00000010: d2d3 e2bd d019 953d 3258 c3be ffcd b63c
00000020: a675 f73d 9c6c 00bf b8dd 633e a2b3 793e
00000030: 3041 643f af26 babe f022 30be 64a7 c0be
00000040: 98f2 adbe e8e1 53be 85e7 45bd eafd 953d
00000050: 5a22 e13d ef7e fdbe 414d a23e 3623 953e
00000060: 4d1b 323f b592 973d afcb a6bc 7008 21bf
00000070: 9632 fbbd bc2b aa3e fc1c eb3d 16d4 80be
0.11367637 -0.09539974 0.106817 -0.81604695 -0.11075558 0.07280314 -0.38153225 0.022315023
0.120829865 -0.50165725 0.22252548 0.2438493 0.8916197 -0.36357638 -0.17200828 -0.3762771
-0.33974147 -0.20691645 -0.048316497 0.07323821 0.1099288 -0.49510905 0.31699565 0.29128426
0.6957291 0.07401029 -0.020360796 -0.629035 -0.12265508 0.33236492 0.11480138 -0.2516181

feature_fusion.conv_low_res.weight f4 [32, 32, 1, 1]
00000000: 8542 52be 20cc b9be 4edf a8bd c907 aebf
00000010: da96 20bf 427b 71bf af9f 8e3e 73a5 623f
00000020: bb84 86be 5b18 59be 2fe5 21bf e072 a63e
00000030: fa65 21bf ec2e 40bf b482 5abf b0c0 9ebf
00000040: 95ee 7cbf b758 363e d4de a4be 6c89 553f
00000050: fab0 de3e e8c5 023f 1e3d ae3d 777b 8e3e
00000060: 0b2c 993e 3fee c73e 46e6 193f a37b 213f
00000070: c5f4 24be 7b6f b5be 5ad9 28bd 44c9 d4be
00000080: 117a a63e f93d b43f 59d1 84bf 99ee 153f
00000090: 8b19 2f3e 0cbd 2abe 9751 d0be 6895 bebd
000000a0: fba7 933b 0ab4 2dbe 5258 eebe 5d88 4fbf
000000b0: b00b f9bd 1598 b73e da47 423f 403e e23e
000000c0: 6cc7 0e3e 96e4 24bf a2a5 86bf b7d6 80bf
000000d0: a01d 813d 0f3c afbe d55e 873c 2577 a23c
000000e0: dda2 a23f cb5e 213e 0ea0 9f3c 18a9 b63e
000000f0: 2d5a bbbd 8f80 3a3f 09f9 44bd c464 b2bd
00000100: 8e01 f1be ec40 0f3f 9278 62be 5931 503e
00000110: fcd3 4bbd ebdc 283e 90e1 5b3e 0955 1abf
00000120: 3284 963e 9b45 0f3f a82f 343f 2e29 82be
00000130: 7ae1 d1be f0fd babe 7dfc d839 af3e a33d
00000140: 2f7d bfbe 6e7c ca3e 19bb 063f 213b f7be
00000150: 2899 d9be 80d2 dd3d a332 c63e ec0c c0be
00000160: 2809 36bd 6c70 613e 4696 2fbf dcc1 e9be
00000170: 25ad 403e 55ef 503f 7ba6 75bf 64b3 f33d
00000180: 8db6 3abf c70f 1cbf 36de 3ebf 9f5a 70bd
00000190: a3db 1a3f 7a7f 103f 6b94 70bf 4517 adbf
000001a0: 251e 613f 7f77 79bf 40a9 313e 51c2 073f
000001b0: a1fe 93be 640a 6abe 0604 0e3d eff8 ab3d
000001c0: 8d15 00c0 c1d1 83be 6766 1c3f a314 de3e
000001d0: aa65 b0bf ecb1 df3e a4c0 a3be c2c4 78bf
000001e0: ae7e a33d 0696 d0be 4522 19bf 58ef 54bf
000001f0: fe47 2ebe 553f 54be d4bb b9be 3916 aabe
00000200: 7d38 103e fcbd f03e f3da 0bbd e2dd c3bf
00000210: beed e7bf 07ba 2a3f 5e3d 923e 7495 013f
00000220: c086 d23c e11c cdbe 43a4 f8be c667 cb3e
00000230: 0d9e 533e 9dbb 46bd a7e8 163d cf16 c9bf
00000240: 9d7f bb3d f1d8 9f3e dcfb d8be fec8 a53d
00000250: 8edf 36be 78f8 b33c 6a2c 2bbf e39e b2be
00000260: f1f8 203f 6e75 363f 7bf4 833f 8c87 45bf
00000270: d0bc 6d3e ef38 10bf 379c 44bf 3413 3e3f
00000280: 2fed f1bd b807 4d3f af44 24bf bc5f 223f
00000290: 51ef ea3d 8cd0 043f d29f 22be a4b5 b1bd
000002a0: 8451 76bd e266 b33e 1a60 cbbe a522 15bf
000002b0: 5759 2b3f 2004 be3e 1ac2 ac3e cb30 d23e
000002c0: a0a8 a7be 0129 a3bf c8d1 50bf a0e4 8a3e
000002d0: 8b07 3c3e 274e 20bf abba 09bf 6a7f 11bf
000002e0: ca90 153f 1562 8dbf 2544 4c3f 520a bdbe
000002f0: d9d0 bd3e 39a5 e3bd 11b0 3ebf d122 113d
00000300: f102 2bbf 5147 023e 0faf 8dbf 9e53 0f3f
00000310: 1e6d 823d bd69 7dbe a433 11be d684 74bf
00000320: 8fb3 123f 5106 273e 1e11 14bf e972 b93e
00000330: 1ef6 51be ce9a febe 77ab 9abe 06a0 de3d
00000340: c648 11bf 16eb 653e 7029 0abe 55bd 333f
00000350: b7e9 1dbf a7e4 043f dd88 1e3f 8677 f5be
00000360: 3913 983e d336 5d3e c6fc b83d 556d 58bf
00000370: 336a e83e 3567 80be 15d9 a2be 9936 ffbe
00000380: 8d4d 14bf 9321 07bf 1c46 24bf cfe3 50be
00000390: 74e9 88be 98b3 033f 5718 473e e73c febe
000003a0: 3cbe de3e fea4 4e3e 3661 3a3f ebfe 7e3f
000003b0: 2f22 033e 049a 393e 1706 e03d e4ee 553e
000003c0: 998a 19bf cf6b b0bd ac73 753e 1869 ccbe
000003d0: a935 673d ed71 463e 1811 f83e 45f1 c9bd
000003e0: 9617 023f c9c3 9abe aab1 07bd adc4 43be
000003f0: 8825 71be 68ae 2f3e 00ca d9bd 2276 053f
-0.20533188 -0.36288548 -0.08245717 -1.3596126 -0.6273018 -0.943287 0.27856204 0.88533705
-0.2627314 -0.21200697 -0.6324033 0.32509518 -0.6304623 -0.750716 -0.8535569 -1.2402554
-0.9880155 0.1780728 -0.32201254 0.83412814 0.43494397 0.5108323 0.08507751 0.2782857
0.29916415 0.39048955 0.60116994 0.6307928 -0.16108997 -0.35436615 -0.041222908 -0.41559803
0.32515004 1.4081413 -1.0376388 0.58567196 0.17099588 -0.16673678 -0.40687248 -0.09305841
0.004506109 -0.1696321 -0.46551758 -0.8106745 -0.12160432 0.35858217 0.75890887 0.44188118
0.13943261 -0.64411294 -1.0519297 -1.0065526 0.06304479 -0.3422551 0.016524712 0.019832203
1.2705952 0.15758817 0.0194855 0.35675883 -0.09148059 0.72852415 -0.04808906 -0.08710626
-0.470715 0.5595844 -0.22116306 0.20331325 -0.04976271 0.16490524 0.21472764 -0.60286003
0.29397732 0.55965585 0.7038522 -0.25422043 -0.40992337 -0.36521864 0.0004138685 0.0797094
-0.37400195 0.39548057 0.5262924 -0.482873 -0.4249966 0.10831165 0.38710508 -0.3750986
-0.044442326 0.22015542 -0.68588674 -0.45655715 0.1881605 0.8161519 -0.95957154 0.118994504
-0.729348 -0.60961574 -0.74557817 -0.058680173 0.6049139 0.56444514 -0.9397647 -1.3522726
0.8793662 -0.9744796 0.1734972 0.5303088 -0.28905204 -0.22855526 0.034671806 0.0839709
-2.0013154 -0.25745967 0.61093754 0.4337512 -1.3781025 0.4369043 -0.3198291 -0.9717523
0.079831466 -0.4073946 -0.59817916 -0.8317771 -0.1701965 -0.20727284 -0.36276114 -0.3322008
0.14084049 0.47019947 -0.034144353 -1.5302088 -1.8119428 0.66690105 0.28562444 0.5061867
0.02569902 -0.40061095 -0.48562822 0.3972761 0.2066576 -0.048518766 0.03684297 -1.5710086
0.091552 0.312202 -0.42379653 0.08094977 -0.17858717 0.021969065 -0.66864645 -0.34886846
0.62879854 0.71272933 1.0308985 -0.77159953 0.23216558 -0.56336874 -0.76800865 0.7424805
-0.11812817 0.800899 -0.641673 0.6342733 0.11471427 0.5188072 -0.15881279 -0.08677223
-0.060136333 0.3503943 -0.39721757 -0.5825599 0.66933197 0.37112522 0.33741838 0.4105285
-0.32745838 -1.2746888 -0.815701 0.27127552 0.18362252 -0.6261925 -0.5380046 -0.56835043
0.58424056 -1.1045557 0.7979148 -0.36921936 0.370734 -0.11115498 -0.74487406 0.035433594
-0.66801363 0.12722518 -1.1069049 0.55986965 0.06368469 -0.24747367 -0.14179856 -0.9551519
0.57305235 0.16311003 -0.5783862 0.36220482 -0.20504043 -0.49727482 -0.30208942 0.10870366
-0.5675167 0.2245296 -0.1349237 0.7021077 -0.61684746 0.51911396 0.61927587 -0.47942752
0.29702166 0.21602945 0.09032588 -0.8454183 0.45393524 -0.2507874 -0.31806245 -0.49846342
-0.57930833 -0.52785605 -0.6416948 -0.20399402 -0.2674061 0.51445913 0.19442879 -0.4965584
0.43504512 0.20180127 0.7280458 0.99607724 0.12806009 0.18125159 0.109386615 0.20891911
-0.5997711 -0.08614313 0.23969907 -0.3992393 0.05644766 0.19379397 0.48450541 -0.09860472
0.5081724 -0.30227497 -0.033128418 -0.19117995 -0.23549473 0.17156374 -0.106342316 0.5213338

feature_fusion.conv_low_res.bias f4 [32]
00000000: 1526 eb3e 76d1 2abe 4201 e2bd 4cea 24bf
00000010: 6e52 9abd 1193 81be d0ce 8ebe f349 143c
00000020: bf2a 0a3e a807 80be 09b9 2b3e c981 923d
00000030: bea8 913f 343c 03be 05d8 02bf 4040 27bf
00000040: 4142 2fbf 58d2 0a3e aedf 2abe f5eb e33e
00000050: 75a2 883c e4a2 a9be 1bae 823e 38e4 063f
00000060: bdf8 263f 2bbd cd3e 8697 c7bd 0a39 09bf
00000070: 97bf 423e 52c7 963e b2fb c33d d1ce 86be
0.45927492 -0.16681466 -0.11035396 -0.6442001 -0.075352535 -0.25307515 -0.2789216 0.009050834
0.13492869 -0.2500584 0.16769804 0.07153661 1.1379621 -0.12815934 -0.5111087 -0.6533241
-0.6846047 0.13556802 -0.1668689 0.44515958 0.016679028 -0.33132088 0.25523457 0.52691984
0.65223294 0.40183386 -0.09745698 -0.5360266 0.19018398 0.29448944 0.095694914 -0.26329663

classifier.conv.weight f4 [1, 32, 1, 1]
00000000: 0594 c9be 89ee 303f 4309 12bf 0ff7 dbbe
00000010: 430f d0be 0ffc 20bf bd03 f8be e633 f5be
00000020: 237f 2bbf 1003 3abf e347 e8be 8dd4 53bf
00000030: b4aa 79bf b3f9 17bf 3561 3bbf 98a7 5b3f
00000040: 03cf f9be fe72 49bf af45 113f b696 bcbe
00000050: acd4 053f 0e77 dbbe 83cb 223f 1697 143f
00000060: 3584 05bf 8b25 2abf a1d2 013f 6fef fabe
00000070: 6f6b 083f 1fdb d2be ca7e 05bf 8770 44bf
-0.39370742 0.69113976 -0.5704538 -0.42961928 -0.40636644 -0.6288461 -0.48440352 -0.47891158
-0.6699087 -0.72660923 -0.45367345 -0.827462 -0.975261 -0.59365386 -0.731952 0.858026
-0.4879075 -0.7869109 0.56746954 -0.36833733 0.52277637 -0.4286427 0.63591784 0.5804304
-0.52154857 -0.66463536 0.5071202 -0.49010798 0.5328893 -0.411828 -0.5214659 -0.76734203

onnx::Conv_400 f4 [8, 3, 3, 3]
00000000: 438a 643c b601 c63d f355 df3d 61a9 ac3d
00000010: 0bbf 76bc edde 63bb 781a 19bd 0214 cdbc
00000020: 6ab9 02be c6a3 83be 480c aabe b315 4dbe
00000030: 6c88 9cbe e3b4 b5be 3255 acbe 047f 68be
00000040: c973 89be 8939 adbe 94cc e33d 6dc8 6a3c
00000050: b8e8 54bb 551a d73c dcc7 aa3d 819c 97bd
00000060: 779d 8fbd adff 4dbd 8842 90bd b93e a1be
00000070: b810 cd3e f43a 7abe 0ef7 6bbe 2c26 893e
00000080: 73a5 4fbe bc14 34be d17d a83e abc7 9fbe
00000090: 993b 18bd c5e7 b53e e713 3ebe 9ae7 38be
000000a0: eb71 9f3d aee0 4cbe 30b8 c2be 13bd 033e
000000b0: 9ef6 a0be e28e 8d3c 3e8d 153f 22f0 453b
000000c0: c84a b0be f5e5 0b3f f01b 62be 3604 83be
000000d0: 4ae9 f33d a229 8ebe 1152 12bc f807 bf3e
000000e0: 8a2f 323c e1a6 43bc fe37 8f3e 63be 24be
000000f0: 9368 403e 0d1c 7e3d 5f97 23be ac57 ae3d
00000100: a496 7f3f 21f9 103f 7252 66be 2330 333f
00000110: 36bf 273e 9fb8 2abe 8d73 db3d 91dd 46be
00000120: 2e1d a6be e841 e73e be9a d93c 8af0 a8be
00000130: f93d 233e 20bb b0bc d4f3 25be 3c10 d13d
00000140: dd12 9dbe b702 04bf 049b 663e aca3 b33e
00000150: 2982 27bf cd7f db3e a8eb 553f c408 87bf
00000160: 04a7 12bd 8f8d 4a3f 2f77 e2be eddc 8f3e
00000170: 2647 d43e 6c6b 30bf f6dc 013f c96b 9d3f
00000180: 4c60 a8bf 8cd4 d1be a827 363f 896b 21bf
00000190: 818f 72be ab98 51bd b476 0fbf 51f9 c83e
000001a0: 1350 7e3f 0274 67bf 4871 61bd e9c7 353f
000001b0: 9729 e8bd 8c0e cbbd 271e 0fbe 00d5 3639
000001c0: a928 17bd a2e1 00be b740 193c dbe0 b4bd
000001d0: 5b2e c4bd 7b08 69be 54ac b1be 6f13 17be
000001e0: 20b9 6bbe eef8 a1be 8e24 45be 27f0 4cbe
000001f0: 6b02 0bbe 1b7e 53be b626 ecbd e4db 79bd
00000200: 0dcd f9bb 93be 933d 5d2e 7b3b 9f5a 273d
00000210: a39e 2b3d 0472 a13d 07d7 c93d cfa0 e0bd
00000220: 5358 a8bd 1458 c6bc f1c6 c63c ff56 293d
00000230: 8d44 edbd a821 33bc c578 923d bb04 aabc
00000240: aca1 41bc 5f3e 8f3e d5ce b13e 5b83 fc3d
00000250: 3a1b 9f3e 67de a63e a6b6 893e 6f96 ec3e
00000260: 1aff 183f 7439 98bd af0e a3bd f297 6dbc
00000270: 0849 50be 1748 ea3c e575 cebd 53bf afbd
00000280: 969a f03d 88e6 ea3d bdfa d33e 4536 cfbe
00000290: 40ba 2b3e 53b0 fdbd 34b7 c1bf 658d b9bd
000002a0: 31f3 9c3d 8ead 8abf bbf0 bf3e 0597 043f
000002b0: b1c2 ffbd 91fa ad3e 257c 2b3f d520 41bf
000002c0: 270b e13d 4b34 373f b17f 8ebe 7967 2f3f
000002d0: 13eb b23e dc7b f1be 5ab9 cb3d 5c5b a53e
000002e0: 35a9 8abf 6a2a c83e d752 a53e 1737 b6be
000002f0: e84b 323f 4149 863e 5590 503d 88aa 02be
00000300: f819 8d3d 8958 dabd 35a4 b1be 7441 2c3e
00000310: 42de c5bd f9b0 27be 3260 6b3f b660 383f
00000320: c0b8 ed3e 2a38 b63d d12b 253d 40df b9bd
00000330: 28b0 64be 7846 bebe fd21 19bf 19b7 1d3f
00000340: 2065 0c3f 6e3d 1bbc 39ce f53c 7dfd f1bd
00000350: db71 78be 4c0a 96be d8ef 9dbe b09b b6be
0.01394898 0.09668295 0.109050654 0.08430744 -0.015060197 -0.0034770325 -0.03737876 -0.025033955
-0.12766042 -0.25710887 -0.33212495 -0.20027809 -0.30572832 -0.35489568 -0.3365875 -0.22704703
-0.2684615 -0.33832958 0.111230046 0.014330012 -0.0032487344 0.026257673 0.083389014 -0.074028976
-0.07012456 -0.05029266 -0.0704394 -0.31493166 0.40051818 -0.24436551 -0.23043463 0.26786935
-0.20277958 -0.17586035 0.3290849 -0.31207022 -0.03716621 0.3552839 -0.1856228 -0.18057099
0.077854 -0.20007583 -0.3803115 0.12865095 -0.31438154 0.017280046 0.58418643 0.0030202945
-0.34432054 0.5464776 -0.2208097 -0.2558915 0.11909731 -0.27766138 -0.008930699 0.37310767
0.010875592 -0.0119416425 0.27972406 -0.16088252 0.18789892 0.06203847 -0.15975712 0.08512816
0.99839234 0.5663014 -0.22492388 0.69995326 0.16381535 -0.1667199 0.10715399 -0.19420458
-0.32444137 0.4516747 0.026563045 -0.32996017 0.1594161 -0.021573603 -0.16206294 0.102081746
-0.30678454 -0.5156664 0.22520071 0.3508581 -0.65432984 0.42870942 0.8356271 -1.054955
-0.03580381 0.7912225 -0.44231555 0.2809824 0.41460532 -0.6891391 0.50727785 1.2298518
-1.3154387 -0.40982473 0.7115426 -0.6305471 -0.23687555 -0.051170986 -0.560405 0.39252713
0.99340934 -0.9041139 -0.055039674 0.71008164 -0.11336058 -0.09914884 -0.13976346 0.00017436221
-0.03690401 -0.12586072 0.009353808 -0.0883195 -0.09579154 -0.22757141 -0.34701788 -0.14753507
-0.23019838 -0.3163523 -0.19252226 -0.20013486 -0.13575141 -0.20653574 -0.11530821 -0.06100072
-0.007623321 0.072140835 0.0038327195 0.040857907 0.041899335 0.07883075 0.09855466 -0.10968172
-0.082199715 -0.02421192 0.024264785 0.04134273 -0.11585341 -0.010933317 0.07151941 -0.020754209
-0.011818331 0.27977273 0.34728113 0.123297416 0.3107546 0.32591555 0.26897162 0.46208522
0.59764254 -0.07432833 -0.07961785 -0.014501559 -0.20340359 0.028598828 -0.1008108 -0.08581414
0.11748235 0.114697516 0.41402236 -0.40471092 0.16770267 -0.12387147 -1.5134034 -0.09060172
0.076635726 -1.0834215 0.3748835 0.5179294 -0.12488306 0.3398023 0.66986305 -0.7544072
0.10988455 0.7156417 -0.27831796 0.6851726 0.34944972 -0.4716481 0.099474624 0.32296264
-1.0832888 0.3909486 0.32289764 -0.35588905 0.69647074 0.26227763 0.050918896 -0.12760365
0.06889719 -0.10661418 -0.34695593 0.16821843 -0.09661533 -0.16376103 0.9194366 0.7202257
0.46430016 0.08897431 0.04032499 -0.09075785 -0.22332823 -0.37163138 -0.59817487 0.6160751
0.54841805 -0.009475095 0.030005561 -0.11815927 -0.24262182 -0.2930473 -0.3084705 -0.35665655

onnx::Conv_401 f4 [8]
00000000: 30ab 083f 3cdb 333f c038 93be 0afb 033e
00000010: 9a67 253f ade6 9fbe 1086 88bf 0f82 533e
0.5338621 0.702564 -0.28754234 0.12888733 0.6461121 -0.3123068 -1.0665913 0.20655082

onnx::Conv_403 f4 [8, 1, 3, 3]
00000000: e36f 773e 80dd 183e a26f 983e 89a3 f73d
00000010: 8dff 90be 95d1 5cbd 83d1 89be 3b87 a7be
00000020: f41d 5abf 8dd8 c23e fffd efbd 3e23 9cbe
00000030: 202e e73b b2a6 61be 28e5 00bf a919 aa3d
00000040: 5343 723c cb74 45bd 080c 9fbd 98d1 2cbe
00000050: ea53 0d3c bffa 94be 4693 c0be b3d2 47bd
00000060: cc60 6ebe afe5 aabe cfae 07be adc8 c3bd
00000070: 6969 c5bb ced9 9b3c c09c 35be 5e13 e7be
00000080: 5c04 89be 329b b2bd 296f 3abe 11c3 16be
00000090: 2c64 c7bd 6c3c 9cbe 5035 03be 3093 f5bd
000000a0: 97d9 7fbe 660c 11be 29b8 b9bc 7ecb a73d
000000b0: 8415 73bd 74e1 003f 26a8 fb3e 2228 773e
000000c0: ca86 d33e 1345 0fbe cf1c dbbe 4c4e 0fbe
000000d0: 94e1 3ebf 9246 92bf b3a1 3cbe 89a8 d0be
000000e0: 84fb acbd f222 903c 0caf cdbe 69a6 03bf
000000f0: e94b 253e be4a 933d 17b0 87be 1ff8 b03e
00000100: 397e df3e 98d7 b43e 21c2 bc3e 7cf9 c53e
00000110: d8f0 a83b 60ac 3bbc a73b c5be d56a 03bf
0.24163775 0.14928246 0.2977267 0.12091739 -0.2831997 -0.05391081 -0.26917657 -0.3272036
-0.85201955 0.3805584 -0.11718368 -0.30495638 0.007055059 -0.22036245 -0.50349665 0.083056755
0.014786559 -0.048207086 -0.07765967 -0.16876829 0.008625964 -0.29097554 -0.3761236 -0.048784923
-0.23279113 -0.3337836 -0.13250278 -0.0955976 -0.0060245288 0.019024756 -0.17735577 -0.45131963
-0.26761138 -0.087210074 -0.18206467 -0.1472285 -0.09735903 -0.30514848 -0.12813306 -0.119909644
-0.24985348 -0.14164886 -0.022670822 0.0819311 -0.05934669 0.50344014 0.49151725 0.24136403
0.41313773 -0.13991193 -0.42795417 -0.13994712 -0.74562955 -1.1427786 -0.18421058 -0.40753582
-0.0844641 0.017594788 -0.40172613 -0.51425797 0.16142239 0.0719199 -0.26501533 0.345643
0.43650988 0.35320735 0.3686686 0.38666904 0.005155664 -0.011454672 -0.38522074 -0.5133489

onnx::Conv_404 f4 [8]
00000000: 38e7 113f 02b5 ee3e fac1 933f 6619 e33e
00000010: 3031 323f d33f 4f3f 2e43 6b3e e674 0ebf
0.56993437 0.46622473 1.1543572 0.44355315 0.69606304 0.80956763 0.22974846 -0.5564712

onnx::Conv_406 f4 [12, 8, 1, 1]
00000000: e01b 823d 0938 28bd a3a3 68be dd8f 4abd
00000010: d274 193e 9468 b5bd 7062 b5bd 0cc8 93bb
00000020: 94a4 f7be bbd0 9a3e 91d3 b93e 3472 9a3d
00000030: 8ef7 d7bc 92e5 79bf 9dfa 393e 9b3a f6bd
00000040: 0899 353e 9ff9 d9be d746 0dbf 10c9 28be
00000050: b7de 6c3d 4ba7 293e c1e5 e8be cf15 193e
00000060: 461c 82bf 55b5 273e 26a7 b2bd 991c 92be
00000070: c16e 0b3d bbce 603f 2c36 3fbe 47cc 873e
00000080: c493 33be 72db ae3e 2e30 283f 921b e93e
00000090: 338c 49bf abc4 ea3c 680d b03e fe8b 823e
000000a0: e2a7 233e ea03 86ba 6cf7 8cbc 68ef 093d
000000b0: a352 ea3c 20d5 95bd 34d8 053e 8080 dcbc
000000c0: 6650 493e c946 ac3d f457 313e 26da 813f
000000d0: 9a04 4bbe 7ae0 bcbe 1954 b63e 14a8 4a3e
000000e0: fb0f cdbd c35c ae3c a491 203e da29 8f3e
000000f0: 10f1 3fbd 28eb 35bc f3a0 813e 7395 60bd
00000100: abc8 d53d a443 22be d1e4 203e 5880 8c3e
00000110: 0761 a9be c539 40bd 5d7d f23c 3008 ca3e
00000120: 1ec8 d93e c40e 54bd cfdb 193e 9d78 29be
00000130: e5c2 9bbe 9bda d6be f586 97bd 7ae5 f3be
00000140: 9eb8 813c c1cb b13c 98f6 db3d 3496 1abe
00000150: a4b5 e33d 8d4f abbe 55a2 0abd 357d 53be
00000160: 8246 17bf eeb9 e5bd 1087 36be 4769 8bbd
00000170: c20a 3fbf d1c5 f4bd f3c1 023c 25cc f23d
0.06352973 -0.041069064 -0.22718672 -0.049453605 0.1498597 -0.08857837 -0.08856666 -0.0045099314
-0.4836775 0.30237374 0.36294225 0.07541314 -0.02636316 -0.9761592 0.18162008 -0.12022897
0.17734158 -0.42573258 -0.5518622 -0.1648295 0.057829585 0.16567723 -0.45487788 0.14949726
-1.0164878 0.16377766 -0.08723287 -0.28537443 0.03404117 0.87815446 -0.18673009 0.2652304
-0.17536837 0.34151798 0.65698516 0.45528847 -0.7872955 0.028658232 0.34385228 0.2549743
0.15982011 -0.0010224555 -0.017207824 0.03367558 0.028603857 -0.07316041 0.13070756 -0.026916742
0.19659576 0.08411939 0.17318708 1.0144699 -0.19825974 -0.36890012 0.35611036 0.19790679
-0.10012814 0.021284467 0.15680557 0.27961618 -0.046860754 -0.011103429 0.25318107 -0.054830026
0.10438665 -0.15846115 0.15712287 0.2744167 -0.33081838 -0.046930093 0.029600793 0.39459372
0.4253549 -0.051771894 0.15025257 -0.16549917 -0.3042213 -0.41963658 -0.07398788 -0.47636014
0.015835103 0.021703603 0.107403934 -0.1509636 0.111186296 -0.3345913 -0.03384622 -0.20653231
-0.5909196 -0.11217104 -0.1782496 -0.068071894 -0.7462579 -0.11951793 0.007980811 0.11855344

onnx::Conv_407 f4 [12]
00000000: c9fc 443f 837c 11bf 5dd7 183f 2699 97bb
00000010: ffdf 1c3e 5f67 4f3f 08eb eb3e 6abc 243f
00000020: e399 073f 8a78 0e3f e4cb 593f d86b 90bd
0.7694822 -0.56830615 0.5970362 -0.004626411 0.15319823 0.81017107 0.46077752 0.6435
0.5296919 0.5565268 0.8507674 -0.070518196

onnx::Conv_409 f4 [12, 1, 3, 3]
00000000: 633e 81bf e1d8 c9bf a3dc f3bf 1dbf 583f
00000010: b377 7dbe 4698 ddbf c0f1 3340 2a6c 2340
00000020: aeb7 94be fbd1 823e aad3 af3e d4af 4e3e
00000030: 5179 593e 51a3 203f fcff ae3e ba05 2f3d
00000040: 8745 cd3e 5f2b 6e3d e8df 823d 4e50 b9bd
00000050: a390 89be ed91 b63d 30c4 bbbe 6d7a b5be
00000060: 32ce e8bd 5f34 edbe 27eb 55be 4195 cf3c
00000070: 7f69 cebe f8e7 92be 6257 7f3d 05a5 b2be
00000080: f0e2 57be 2231 7abd 7ee2 313d 11ed 783e
00000090: 43bd 1a3e b631 663e 67b9 133e 6d86 e53d
000000a0: 2b21 863d 40bd ddbc 6532 7a3d 9d15 063e
000000b0: ac5e 9abd c3b0 86bf 3b0c 9dbf 7d93 3abf
000000c0: c5e7 8f3d 5d00 4d3f 97b4 b93e fc61 37bf
000000d0: 3c0e 6d3f 9894 2c3f 464d 26be f6d5 3cbf
000000e0: 9b97 b1be e66f 803d 23f4 32bf 1fd4 13bf
000000f0: c04f cf3e bcbc cebd da3a 8fbe bd0c 1c3f
00000100: 323a d33f 4fea e7bb e7e8 22bf 8d26 63bf
00000110: 5cbe 8dbe 2198 043f b4be 8ebf 36f8 20bf
00000120: 8919 a8be 93fe 9dbf 4f3d 24bf 2440 b93e
00000130: 311e a73f 3520 d53e ee66 603e bc77 743f
00000140: 36b8 af3e 4bde 49bd 41b8 abbd 52a9 a6bd
00000150: caeb 4bbe 8372 55bf af7b e7be 8037 9c3e
00000160: ff88 a63f ebf5 653f b3a4 d2be 091b 86bf
00000170: 0b0e 273f f0ef 1abf f7a2 32bf 0278 493f
00000180: b0d8 27be f8e2 a03e e893 d03f fe49 aabe
00000190: 289f 9abc 78a1 1e3d cb10 77be 4303 903d
000001a0: 5fa1 9d3e 4c76 d13d a1f7 8d3e 8e2d e43e
-1.0097164 -1.5769311 -1.9051708 0.84666616 -0.24752693 -1.7312095 2.8116302 2.5534768
-0.29046386 0.25550827 0.34341174 0.2018426 0.21237685 0.627492 0.34179676 0.04273007
0.40092108 0.05814683 0.06390363 -0.0904852 -0.26868162 0.08914552 -0.36673117 -0.35444966
-0.11367454 -0.46329018 -0.20890485 0.025339724 -0.40314862 -0.28692603 0.062339194 -0.34891525
-0.21082664 -0.061082013 0.04342889 0.24309184 0.1511126 0.224799 0.14426194 0.1120728
0.06549295 -0.02706778 0.061083216 0.13094182 -0.075375885 -1.0522693 -1.2269357 -0.728813
0.070266284 0.8007868 0.36270592 -0.7163389 0.92599845 0.67414236 -0.16240415 -0.7376398
-0.34685978 0.06271343 -0.69903773 -0.57745546 0.40490532 -0.10094592 -0.27974588 0.6095694
1.6502135 -0.0070774923 -0.6363663 -0.887307 -0.27684295 0.5179463 -1.1151948 -0.6287874
-0.32831982 -1.2343315 -0.6415605 0.36181748 1.3056089 0.41626135 0.21914265 0.954952
0.3432023 -0.04928426 -0.08384753 -0.08137764 -0.19914165 -0.83377856 -0.4521155 0.30511093
1.3010558 0.89828366 -0.4114128 -1.0477 0.652558 -0.60522366 -0.69779915 0.7869874
-0.16391253 0.31423163 1.6295137 -0.33259577 -0.01887472 0.038728207 -0.241275 0.07031872
0.3078718 0.102276415 0.27727988 0.44566005

onnx::Conv_410 f4 [12]
00000000: 1b80 ef3e ef38 9ebe 5904 923f 0768 1c3f
00000010: 6673 08bf 06fd 323f 9954 c83f 4817 023f
00000020: d42c 54bf 238c 03bf 8478 edbe 2359 9abe
0.46777424 -0.30902812 1.1407577 0.61096233 -0.53301084 0.69917333 1.5650817 0.50816774
-0.828809 -0.51385707 -0.4638101 -0.3014613

onnx::Conv_412 f4 [16, 12, 1, 1]
00000000: 061e c53d 7e68 153e ce82 203e be33 94bd
00000010: a90e 0b3f 0825 d5bb 1c93 54be b3fc c83e
00000020: 753b 72bf 399e 8dbd 7cd9 f7bc f14f 593e
00000030: 1b69 31bf 54bf 003e b3b5 2e3e c88b 763e
00000040: 2ad3 803e 3cf9 323e 6a09 093e 8c47 7abe
00000050: f810 0c3e 01da ce3e 9734 b7bd 9356 76bd
00000060: f7a3 2ebd 5bf1 e73e bf55 8f3e 28f6 2b3d
00000070: 537c 4e3f e385 e73d c9fd a03c 2a17 903d
00000080: 4897 e8be 5d26 e23e c0a5 b93e 8223 09bf
00000090: 88e2 14be 0c5d 273e 0253 d83e 6188 453d
000000a0: 08b8 423d 6ec6 ffbe 3e16 633f f861 963c
000000b0: e888 bbbe f52f cf3e aa29 c53e 174e a73e
000000c0: efe7 ff3b 6e18 de3e 2dbd 5cbf 9e9a 183e
000000d0: 9fc2 06be f697 99bd 4f14 b73d f21b 713d
000000e0: 349b d53d 8bd2 1abc 8506 033e a53d c1bd
000000f0: 385c f73e 8712 d23e 0899 c83b 138d 33be
00000100: 6007 f9bd 66c5 093e b458 f0bd 43ce a73d
00000110: 6e8d 273e 6b60 623e 7a38 903e 83e7 06bf
00000120: 9fe7 a2be c579 053f 5a44 9dbb cac9 b53d
00000130: a0f1 503d 22ed 0dbf fbb5 053e 619c 10be
00000140: e2c2 b53e a40e 1dbf b47b 2abe abae 303d
00000150: 860e 29be 1e93 26bc ab66 2ebe 79fa 6b3e
00000160: 871c b4be 0209 30be 4998 6e3e 465c 893e
00000170: 3259 99be c462 173e c2a5 97be 84e0 79bd
00000180: 17ac f2be ace6 d8bd dce6 943d d850 88be
00000190: db1f 2ebe 9ad8 e7be 401e 7e3d 1847 a6be
000001a0: 7898 263f abbf 913d d62c 1ebe 420a dc3d
000001b0: adc7 24be 687c 663e 0b09 e03d 293f a33e
000001c0: 8be5 063e 3566 6f3d 749b 873c 6ac8 103e
000001d0: 84c0 cdbc cba3 a3be 5bb7 14bf 9a58 ccbc
000001e0: 7202 d03c 4808 0c3e a84e c03e d7b7 1cbf
000001f0: a720 85bd 95e1 503e a551 2cbe 44db 80bd
00000200: 35cb 973e 9e05 103d 9319 c63e 6e66 a33e
00000210: 8d89 243e bdc8 a93b a839 803c 949c 7c3d
00000220: 064b 073d bd8e 053e 08ea 84bd 3a5f 6f3e
00000230: 58e8 b53e 4dbb 96bf 3ddd 283e 0270 55be
00000240: 36a5 d73e 862b 4d3d 0537 903e 8b02 793e
00000250: 3d3f 633e 2369 183e c604 d0be f6bf 2d3d
00000260: a709 9e3d 22b2 d63e e38e 2b3d 76bf 01be
00000270: 3d18 0c3e 7479 d1bd 99c6 a33e 3f21 f2bc
00000280: 955d a83e b55a 34be 9e49 fcbe 6b7e fc3d
00000290: 3441 953d c482 a4be cbb9 b1be 392a fb3e
000002a0: 7c35 b2bd b485 2b3e e5be 613d 86bc 693f
000002b0: 2ec6 29bd 0c13 5bbc 1027 983e 0c8d 923e
000002c0: 8965 33ba 36e4 47bd 29ef dc3e c441 793e
000002d0: 9c11 813f bd1e 92bc 646b e5bd e9e7 5e3e
000002e0: 31cc 39be 3ff2 89be 5823 ed3c ca21 c93b
000002f0: 672d 47bb 44c5 79b9 d4eb 8fbe 9aaf 313d
0.09624867 0.14590642 0.15674898 -0.072364315 0.54319245 -0.0065046586 -0.20759243 0.39255294
-0.94621974 -0.06914944 -0.030255072 0.21221901 -0.69301003 0.12572986 0.170615 0.2407676
0.25161105 0.17477888 0.13382497 -0.24441355 0.13678348 0.404007 -0.089455776 -0.060141157
-0.042636838 0.45301327 0.27995107 0.0419828 0.80658454 0.11304834 0.019652264 0.07035668
-0.45427918 0.44169894 0.3625927 -0.53569806 -0.1453954 0.16344088 0.4225083 0.048225764
0.047538787 -0.49956077 0.88705814 0.018357262 -0.3662789 0.40466276 0.3850835 0.32676765
0.007809631 0.43378013 -0.8622616 0.14902732 -0.1316018 -0.074996874 0.089394204 0.05886454
0.10429993 -0.009449611 0.12795456 -0.09435586 0.48312545 0.4102976 0.0061217584 -0.17534284
-0.1215961 0.13454208 -0.11735669 0.08193638 0.16362545 0.22107093 0.28168088 -0.5269701
-0.31817338 0.5213893 -0.004799408 0.08876379 0.05101168 -0.5543996 0.13057701 -0.14122154
0.35500246 -0.61350465 -0.16648751 0.043135326 -0.16509447 -0.010166911 -0.17031352 0.23044766
-0.35178015 -0.17190936 0.2330028 0.26828212 -0.29950863 0.1478377 -0.2961865 -0.06100513
-0.4739692 -0.10590872 0.072705954 -0.2662418 -0.1700434 -0.4528244 0.062040567 -0.32476115
0.650764 0.07116636 -0.15446791 0.10744144 -0.16091795 0.22508395 0.10939225 0.31884125
0.13173501 0.05844708 0.016553618 0.14138952 -0.025116213 -0.31960902 -0.5809228 -0.024944592
0.025391791 0.13675034 0.3756001 -0.6121802 -0.065003686 0.20398553 -0.1682802 -0.062918216
0.29647222 0.035161607 0.38691387 0.31914085 0.16068096 0.0051814006 0.015652493 0.061672762
0.033030532 0.13042732 -0.064899504 0.2337617 0.35528827 -1.177591 0.16490646 -0.20843509
0.42118233 0.050090335 0.28166977 0.24317376 0.22192092 0.14883856 -0.40628642 0.042419396
0.07716685 0.4193278 0.041884314 -0.12670693 0.13681121 -0.102282435 0.31987455 -0.029556869
0.32883897 -0.17612727 -0.49274915 0.123288 0.07287827 -0.32131016 -0.3471206 0.4905565
-0.087016076 0.16750222 0.05511369 0.9130329 -0.041448765 -0.01337124 0.29717302 0.28623235
-0.0006843438 -0.048801623 0.43151215 0.24341494 1.0083499 -0.017836923 -0.11202124 0.21768154
-0.18144299 -0.26942632 0.028947517 0.006138061 -0.0030392052 -0.00023819978 -0.2810961 0.043380357

onnx::Conv_413 f4 [16]
00000000: 5d09 89bd cf15 843e df7a 1c3e 8058 2bbe
00000010: 7e93 853e 1425 06bb e36b 083e e56d 043f
00000020: d863 ba3d b090 303f be8e d93c ebff 13be
00000030: 91cb 7bbd 3c4e c33e d446 b13d f751 ae3e
-0.06691239 0.2579789 0.15281247 -0.16732979 0.2608909 -0.0020468878 0.13322406 0.51730186
0.09101075 0.68970776 0.026557323 -0.14453094 -0.061473433 0.38145626 0.086560875 0.3404691

onnx::Conv_415 f4 [64, 16, 1, 1]
00000000: 5cae 893e ed03 6b3d b3c0 703e 4f21 583e
00000010: c4cb ae3e b9ed d23e df3f bf3e 6b8e 7f3e
00000020: 48fd f13c dbc9 ef3e aa36 a53e 8e1f 8c3e
00000030: 5036 f23a 251c db3e 6905 0e3d 98fa 733e
00000040: f76d 933e 8d4d 843e 6ffb 653e d65b 0b3e
00000050: d3fa 4ebe 8fd8 573e 34cc 533e 9b1b a7bd
00000060: 182a bd3e 7789 11bc 8d82 bb3e 8f3d fdbd
00000070: 68fa be3d 7e52 41bd a5ab 333b 517a 573e
00000080: 4f88 2d3b d783 c4bd 0bee b7bc 78df 13be
00000090: 6477 5c3d dfd3 413d 533d 6abe 5f27 6ebd
000000a0: 9d24 eabd 4ea2 29be eb8c cfbd 510e abbd
000000b0: 8f61 ae3d c6ab 863c b19f 7bbd 275b 26bd
000000c0: 814f adbe 1598 2c3e 7899 d0bd 0f7c 39be
000000d0: 125f 163c 4e9e 7bbe 105b d2bd 655e c2bd
000000e0: d6a0 6fbd 0f99 2fbc 64f1 48bd 7f4c 59be
000000f0: 451d 0cbe 8d59 15bd f969 23bd 9fd2 89be
00000100: 18b4 973d c9c8 d7be 6d23 94bd 7588 193d
00000110: 628f 84be 9d3f 253e 346f 81be 864f 8dbd
00000120: 64a1 6ebc 1243 1dbe 8218 e4bc 6337 fcbd
00000130: 2c3d 523e a20f cb3d a3ec 39be c5c9 203f
00000140: 066e 2abf 7646 56be 09e6 2d3e 8b56 a23d
00000150: 52bd 57be 842c d73e 6890 10bf 8e9c b1be
00000160: 9929 80bd 983a e5be 0abc 083e c44b 923d
00000170: 8685 9b3e b13c 57be ff86 a53e e2f4 b53c
00000180: 2446 a63d c6e9 dfbd f288 cabc 21ab 07bd
00000190: 6eff 243b 4b16 2cbe 9309 80be 47e0 6ebd
000001a0: 0b1b 8fbe 825f a6be e392 9cbd 71b6 19be
000001b0: 20f1 0d3d 2220 a0bd ac78 5abd 99d7 123c
000001c0: c764 22be 613e b13d 5b6e 26be 43d4 a8bd
000001d0: 98aa 853d 4286 17be 6cee 02bd b097 20bc
000001e0: ef14 cf3a 735a 81bc 8c6d 80bd 5dac 27be
000001f0: 99e2 01be 604b e93c d1d3 c13c 9b12 4bbe
00000200: 45be e4bd d30c 833e 4744 ad3e e008 903c
00000210: a8b3 1cbe 110f 853d 268e 083b 2888 083e
00000220: 9405 81bd 214b 753d b433 58bd b370 1fbe
00000230: 98bd d03d fbd5 b7be 0894 983d c747 76bd
00000240: c8cf 85be e02d 03bf a917 8bbe 3843 1bbf
00000250: b647 aa3e b2f7 a8be 81be d2bb fd4d 6dbe
00000260: 03df 0dbf 3e7c c13e 163d 23be e1d3 613d
00000270: fe46 0dbe 40f2 ec3e f3f1 f9be 9d8f 45bd
00000280: 7de0 a4bd 3719 8dbe a2cd 84be 328a e03d
00000290: a024 bd3c ba6b 5dbd 7e76 913d 9ce4 c63e
000002a0: 3613 763d 977a f03d aba6 b0bd cf02 1dbe
000002b0: 52fc 8dbe a1cd 8bbe d81d 073c 0fc6 d8bd
000002c0: 52c4 ccbe ec3b f9bb 70ce d13e 8182 313c
000002d0: 6800 743e ba86 b43e d38b 913e 4f57 c93e
000002e0: f931 143e 8111 cf3d 779c 853e 398d 233e
000002f0: 3c1b 44bd 7336 46be 1c01 93bc 7672 1fbe
00000300: 6340 16bc 240b 02be 0599 1f3d ef41 9cbe
00000310: 68a0 d0bd 749c 6ebd dacf 80be 73af 8ebe
00000320: 69c5 09be 946d 46be 956e 40bd a837 5abe
00000330: 6a7c ec3d 0799 ae3d b5b2 46be 173c 673c
00000340: 1eb2 173e fc7e dabe 527c 51be 5a1e 0f3e
00000350: 1cb0 0bbf 5f46 d83d ad95 09bd 4d58 413e
00000360: aa32 75bc 4266 22be 27b1 313f 7792 3cbe
00000370: fb76 113e 3f99 4a3f bce7 93be 5db4 9cbe
00000380: e154 143f d825 cebe 8b48 303f e8aa 0ebd
00000390: 4d40 55bd 32d7 383d 801a a5be 53da 1cbe
000003a0: ed75 a53d 1f6f 1cbf f23f 5f3e e772 07be
000003b0: be10 ba3e 988f 6dbf 4f90 2a3e 766b 503f
000003c0: c010 0fbe 50c0 a4bd 45cb 85be 886a bfbd
000003d0: 45b3 c2be 9e87 81be a11a 2a3e 0a4f 26bf
000003e0: a976 ae3d be7c e83d 08aa 063e 6e95 9bbb
000003f0: c865 38be 9bae 263f 99b5 ccbe a255 bc3c
0.26890838 0.05737679 0.23511009 0.21106456 0.34139836 0.41196993 0.37353417 0.24956672
0.02953972 0.4683369 0.32268268 0.27367824 0.0018479321 0.4279491 0.03467313 0.23826063
0.28794834 0.25840417 0.22459196 0.13609251 -0.2021287 0.21078704 0.20683366 -0.08159562
0.36946177 -0.008882872 0.3662304 -0.12365257 0.09325105 -0.04719781 0.002741554 0.21042754
0.0026478951 -0.09595459 -0.022452375 -0.14440715 0.053824797 0.047321197 -0.22874956 -0.058143016
-0.11432765 -0.1656582 -0.101343 -0.0835234 0.085147016 0.01643933 -0.06143159 -0.040614273
-0.3384972 0.1685489 -0.10185522 -0.18113731 0.00917794 -0.24572107 -0.10271275 -0.094906606
-0.058502994 -0.010717644 -0.049058333 -0.21220587 -0.1368304 -0.036462355 -0.039895985 -0.26918504
0.07407397 -0.42145374 -0.072333194 0.03748365 -0.25890642 0.16137548 -0.25280154 -0.068999335
-0.014564846 -0.15357617 -0.027843717 -0.12315252 0.20531148 0.09915091 -0.18156676 0.62807876
-0.6657413 -0.20925316 0.16982283 0.07926663 -0.21068314 0.4202615 -0.56470346 -0.34689754
-0.06257934 -0.44771266 0.13352981 0.071433574 0.30375308 -0.21019246 0.32329556 0.022211496
0.08118847 -0.109332606 -0.024723504 -0.033122186 0.0025176662 -0.16805379 -0.25007305 -0.058319356
-0.2795032 -0.32494742 -0.07645204 -0.15011002 0.034653783 -0.07818629 -0.053337738 0.008962535
-0.15858756 0.08654476 -0.16253035 -0.08243611 0.06526679 -0.14797309 -0.031965658 -0.00980179
0.0015799085 -0.0157902 -0.062708944 -0.16374345 -0.12684096 0.028478324 0.023660572 -0.19831316
-0.111691035 0.25595722 0.33841154 0.017582357 -0.15302908 0.06497014 0.002083668 0.1333319
-0.06299892 0.0598861 -0.052783683 -0.15570335 0.10192412 -0.35905442 0.0745011 -0.060127046
-0.26135087 -0.51241875 -0.2716649 -0.6064944 0.33257836 -0.33001477 -0.0064314012 -0.23174281
-0.55418414 0.37790102 -0.15941271 0.055133704 -0.13796613 0.46278572 -0.48817405 -0.048232663
-0.0805063 -0.275583 -0.25938135 0.10963859 0.023088753 -0.054057814 0.07102679 0.3884629
0.060076915 0.11742132 -0.086255394 -0.15333103 -0.27731568 -0.2730532 0.008246861 -0.10584652
-0.3999353 -0.00760602 0.40977812 0.010834337 0.2382828 0.35259038 0.2842699 0.39324424
0.14472188 0.101107605 0.26095936 0.15971841 -0.047877535 -0.19356708 -0.017944865 -0.15571007
-0.009170624 -0.12699562 0.03896429 -0.30519053 -0.10186845 -0.058254674 -0.25158578 -0.27868232
-0.13454212 -0.19377738 -0.04698046 -0.21310294 0.115471676 0.085252814 -0.19404109 0.014113448
0.1481404 -0.42675006 -0.2045758 0.13976422 -0.54565597 0.10560297 -0.033590008 0.1888134
-0.014965693 -0.15859321 0.6941094 -0.18415247 0.14205544 0.79140085 -0.28887737 -0.30606356
0.57942015 -0.40263247 0.6886069 -0.034830958 -0.052063275 0.0451271 -0.3224678 -0.15317659
0.08079133 -0.6110706 0.21801737 -0.13227426 0.36340898 -0.9279723 0.16656612 0.8141397
-0.13971233 -0.08044493 -0.26131645 -0.09346491 -0.38027397 -0.2529878 0.1661172 -0.64964354
0.085187264 0.11351918 0.131508 -0.004748038 -0.18007576 0.65110177 -0.39982298 0.022990052

onnx::Conv_416 f4 [64]
00000000: c47f 0ec0 b81d b1bf fd46 933f 468f 973f
00000010: c03c 5ebe 4d99 983f eeee ca3f f05f 943f
00000020: d463 0d3f 0e96 aa3f 5c40 843f 873b 96bf
00000030: 287b d83f beee 8bbe 50c5 2f3d c8b0 cc3e
00000040: d3d1 83bf 7fa5 bf3e a2b2 313f b094 7bbd
00000050: 0459 9abf a392 043f 6481 053f 56f3 aabf
00000060: 24f7 8e3f 54f8 55be 3545 b03f 024b 933f
00000070: 3654 b7bf cc44 79bf 55a9 943e 6f1f 913f
00000080: eed4 a23f 6046 6f3f fc50 503f 09dd 9d3f
00000090: 4041 c93e fc51 20be 6282 25bf b82f fcbe
000000a0: 3644 02bf 919f 8cbf 3891 183f 32e8 3a3f
000000b0: b8df ac3f 7e38 1f3f b3ef 13c0 f815 43bf
000000c0: deff 343f 6895 2abf 915b de3f 93c5 2abf
000000d0: 3741 063f 8c31 a43e da41 f83d 669b 743d
000000e0: 98d4 c1bf 020d 993f ed7c 28c0 d31d db3e
000000f0: 158d cbbe 9505 9d3e ed66 313f a822 7ebf
-2.2265482 -1.3837194 1.1506039 1.1840599 -0.21702862 1.1921784 1.5854166 1.1591778
0.5523045 1.3327043 1.0332141 -1.1736916 1.6912584 -0.27330583 0.04291278 0.39978623
-1.0298408 0.3743095 0.694132 -0.061421096 -1.2058415 0.5178625 0.5215056 -1.335551
1.1169171 -0.20895511 1.377112 1.1507266 -1.4322574 -0.973706 0.2903544 1.1337718
1.2721231 0.9346676 0.8137357 1.233308 0.39307594 -0.15656275 -0.64652073 -0.49255157
-0.5088533 -1.0986196 0.59596586 0.7301055 1.3505774 0.62195575 -2.311505 -0.76205397
0.7070292 -0.66634226 1.7371694 -0.66707724 0.5244326 0.3206905 0.12121935 0.059718512
-1.5143003 1.1957095 -2.6326249 0.42796192 -0.39756075 0.3066832 0.6929768 -0.9927163
