model_checkpoints/experiments/stage_1_2/fastscnn_a0.125t4r3pp1_noinit.onnx (onnx, 82602 bytes, 88 tensors)

global_feature_extractor.ppm.conv.0.weight f4 [4, 16, 1, 1]
00000000: 3d62 c4bd d513 aebe 4ca6 0d3f 95b7 7c3e
00000010: 2db7 f8be 33d4 273e 9b25 79be a26c ad3d
00000020: 459b 4d3c dd85 39be c826 893e f33e e2be
00000030: 2429 1fbf 772a 953d da4c 003f 2b19 abbe
00000040: 5c5d a93e d785 353e 7424 dfbd 1406 60be
00000050: 80fc f33e 0580 76be 5933 003e 3a21 89bc
00000060: 5772 5ebe 12f4 f43e 0658 b7be 4926 d3be
00000070: fd37 1e3f bd04 673f 2e02 ba3e c8a7 24bf
00000080: 2b18 f4be 49a2 9e3e 1940 fabe 7a2d 87bf
00000090: ee02 5e3e f2cb 23bf 85da 1d3d 74be 213f
000000a0: 1087 2d3f d40e 653f 7ad7 46be 67b0 98be
000000b0: dcc9 6e3e d614 c33e cd21 0d3f 2e45 ebbe
000000c0: 0821 883c e74f 9abd 23de 913e 5740 373f
000000d0: 8b0c 10bf 7de5 f23e 5a63 a9be 3d86 06bf
000000e0: 817b d4bd 4f9b 50bf 4edf ae3e 35f2 bf3e
000000f0: f747 fcbe 6372 8abf fc2c 4bbf 8775 243f
-0.0958905 -0.33999506 0.55331874 0.24679406 -0.48577252 0.16389541 -0.24330752 0.08467986
0.012549226 -0.18117471 0.267874 -0.4418865 -0.6217215 0.0728349 0.50117266 -0.3341764
0.3307904 0.17726837 -0.10895625 -0.21877319 0.4765358 -0.24072273 0.12519588 -0.016739476
-0.21723305 0.4784246 -0.35809344 -0.41240147 0.6180418 0.90241605 0.36329788 -0.64318514
-0.4767469 0.3098319 -0.48877028 -1.0560753 0.21680805 -0.6398307 0.038538475 0.63181233
0.67784214 0.8947575 -0.19418135 -0.29822084 0.2331919 0.38101834 0.551297 -0.45951217
0.016617313 -0.075347714 0.2848979 0.7158255 -0.5626914 0.4744071 -0.33083612 -0.5254858
-0.10375119 -0.8148698 0.34154743 0.37489477 -0.49273655 -1.0816158 -0.79365516 0.6424183

feature_fusion.conv_high_res.weight f4 [16, 8, 1, 1]
00000000: 16dc b5be bc9a 14be 2110 f8be a5b7 14bf
00000010: c6c8 4a3f ae66 0e3e 318f ab3e a3a9 6b3e
00000020: e004 103f 575f 64bf 660f 343f 7d6c 793d
00000030: 68e8 21bf 4655 0bbf 9bd1 7a3e a8ba bbbe
00000040: 5524 11be f40e 59be 007f 4e3f 0bf7 93bf
00000050: 3f2e 2ebf 696d f3be a631 3bbf 5b88 c4bd
00000060: 1e83 babe 7d3c 5d3f c376 87bd ed7d 483c
00000070: 242d c73e 7126 8cbd 1864 863f bcd5 62bf
00000080: 6cdd 623d 517e 383f 0c02 7bbe f473 d9bc
00000090: 8fd3 103f 8d30 b73e 99b7 8c3f 63cc f3be
000000a0: a589 473f 1cda 7ebf 0461 fa3d 653f 073f
000000b0: ebc4 2abf 2437 0cbc ca61 8cbf d5a1 613f
000000c0: d2fb fd3e 7430 7c3e a75e 46bd 7722 e0be
000000d0: 0012 1b3e c8ee 3ebe 967c ce3e b015 a2bd
000000e0: efc6 2dbf 5a51 c63e 4067 b7bc b3e9 023c
000000f0: 2f73 d03e 7c27 8c3f 1e68 ecbd 6ccc f9bd
00000100: 0dcb 8c3f ea74 093f 105d f33e cd84 8a3e
00000110: a419 cf3e 0b21 833e d995 093f 5b24 56be
00000120: 7317 043f 8fbe 3ebf 0c55 433f 9e99 ce3d
00000130: 624a 07bf 8879 56bf 6ee4 edbe a123 f9be
00000140: e916 553f 4ff4 80bf 1b01 2d3d 5ca6 40bf
00000150: 3788 47bf a887 d8be 06c4 44bf 1eed d13e
00000160: 84c7 223f d039 d2be 2088 133f 9833 0ebe
00000170: 7c05 83bf 9387 58bf a824 2dbf dfe4 dcbe
00000180: 3632 c9bd feaf 973d 2646 4bbf 8339 46bf
00000190: 0141 d93e 29b6 473f b588 c83e f467 14bf
000001a0: 2521 7cbf 6a0a f53e cdf8 b43e 13d7 263f
000001b0: 1d79 493f a5fc 38bf dabf 80be 54db 51bc
000001c0: 3555 95bd e0e1 b8bd 7ec1 08bf b534 9cbe
000001d0: 9491 05bd cf79 86be c7ed a0be 649e 70be
000001e0: efc3 32bf 4aad b33e 2b63 01bf 7d30 46be
000001f0: c376 6c3f 0f5f 973e 14f8 9fbe 1459 7d3d
-0.35519475 -0.14512151 -0.48449805 -0.5809272 0.79212606 0.13906357 0.33507684 0.2301393
0.5625744 -0.8920798 0.70335996 0.060894478 -0.6324525 -0.5442699 0.2449402 -0.36665845
-0.14174016 -0.2119711 0.80662537 -1.1559767 -0.68039316 -0.4754441 -0.7312263 -0.0959632
-0.3642816 0.8642042 -0.06614449 0.012237054 0.38901627 -0.068432696 1.0499296 -0.8860738
0.055386946 0.72067744 -0.245125 -0.026544549 0.5657281 0.3577923 1.099353 -0.47616872
0.77944404 -0.9955156 0.122255355 0.5283111 -0.6670672 -0.008558068 -1.0967343 0.8813756
0.49606186 0.24627858 -0.04843011 -0.43776295 0.15143585 -0.18645775 0.40329427 -0.07914293
-0.67881674 0.3873394 -0.0223881 0.007990289 0.40712878 1.094955 -0.11543296 -0.121971935
1.0999466 0.5369402 0.4753194 0.27054444 0.4044925 0.25611147 0.53744274 -0.20912306
0.5159828 -0.7450952 0.76301646 0.10087894 -0.52847874 -0.8377919 -0.4646334 -0.48659995
0.83238083 -1.0074557 0.042237382 -0.75253844 -0.7794222 -0.42290998 -0.7686161 0.4100122
0.63585687 -0.41059732 0.57629585 -0.13886869 -1.0236049 -0.8458187 -0.6763406 -0.43143365
-0.0982403 0.07406615 -0.79403913 -0.77431506 0.42432407 0.7801233 0.391668 -0.5797112
-0.98488075 0.47859508 0.3534607 0.6517193 0.7870043 -0.72260505 -0.2514637 -0.01280864
-0.072916426 -0.09027457 -0.53420246 -0.30508962 -0.032609537 -0.26264808 -0.3143141 -0.23497921
-0.6983022 0.35093147 -0.50541943 -0.19354434 0.92368716 0.2956471 -0.31243956 0.06185253

feature_fusion.conv_high_res.bias f4 [16]
00000000: 8375 573f 8dbf a3be 2af3 4f3d 9488 233f
00000010: 298d 193f c3bc d2bd e834 2abf d031 c53f
00000020: 5fb3 703d fd20 07be 41b1 7dbe 4839 af3d
00000030: deaf 8d3f 3001 11bf 226a 4c40 a263 ee3f
0.84163684 -0.3198208 0.05076901 0.63880277 0.5998102 -0.1028991 -0.6648698 1.5405827
0.05876481 -0.13196178 -0.24774648 0.085558474 1.1069295 -0.56642437 3.1939778 1.8624156

feature_fusion.conv_low_res.weight f4 [16, 16, 1, 1]
00000000: dddb 12bf aae5 dcbf 09e6 523e 5ae4 103f
00000010: a40d 4ebd 33e7 90bf 960f 45bd 8ddb 003d
00000020: ee26 723d 10ad aabe 84fb 2a3e b0ea 4bbf
00000030: 1b09 a43e abf6 e1be 11ca 76bd cbac b93d
00000040: 4f4b e33e 182c da3c 27e7 7fbf 7e9f 86be
00000050: 3ab3 a43e 2d61 b5be cb86 16bf c7bc 81be
00000060: fb21 4d3e 60de 76be 895c dcbe 572b 053f
00000070: 3993 e13d 807e 6ebf fc4d 5b3f b145 043e
00000080: 7133 8bbe e4c0 633e 5806 de3e b336 9e3c
00000090: c443 4c3f 0216 e2bd 094a f23e ee64 283f
000000a0: ee5b 683d 0566 99be 5316 a93c c9b6 2a3f
000000b0: 0334 c73d 0f49 ce3e 24d3 803f 0b21 8abd
000000c0: b241 93bd 3a74 f53e ee1f 7fbf 8cca 2a3d
000000d0: bee6 813e c8b4 62be 225b a0bf 9f6c 53bf
000000e0: bf8a 253c d41f 4d3f b5ed 2d3d 5cb7 f0be
000000f0: 454b 4d3e 8d0b d13e 5475 3ebf a1c9 503d
00000100: 361f 56bf 7df8 4e3d b96a 7ebf 152a 1a3f
00000110: 1a4e b53e 3003 073f 0740 3bbf 5ae9 aa3e
00000120: a3fd 2c3e ec2d 1d3f cbfa 48bd cc90 ffbe
00000130: 46f4 71be 5d7a 9ebc e482 e1be 4e30 cdbc
00000140: d203 8d3c b5d2 23be 6412 8ebd 3c9f 3fbf
00000150: 40ba cd3e f866 6d3f f2b2 4bbe 9e60 dcbe
00000160: 94dd 8b3e ab65 b53d c484 4ebe 7f7d 173d
00000170: addf c33e e23d fdbe 7a99 353f 536b be3d
00000180: ef94 83be 71ec 29be 3754 b03f 41e3 ddbe
00000190: 41f1 ecbd c4eb 84be 3795 8d3f b139 ec3d
000001a0: 1cf4 7d3e 98d6 5e3d 0490 c0be 73ed 0fbf
000001b0: 5585 7dbe b8d0 59be 6122 a5bf 9284 9b3e
000001c0: 71de 84be 4afa d83e d3c7 793f 23f3 ccbe
000001d0: cf8b 49be 4747 40ba cf6b f83e 7c2d 843e
000001e0: 669c 8d3d 52e1 253e a5c3 a2be 95bc 03bf
000001f0: 0363 24bc c709 773e 2907 4ebf b0bf ca3d
00000200: 9a19 1c3f 2c7b ffbe 2eb2 39bf 0385 9ebe
00000210: 2483 443f 2035 87bf 1e9e 57be 68fe 32bf
00000220: 80e0 943d b06e babe a770 c33c 1f75 21bf
00000230: 1fa5 f1be 8c49 6f3e d48a d0be d61a ca3d
00000240: 53aa fa3e 176b a3bd 22e2 60bf ae8d dfbe
00000250: 36e9 07bc 2e4a 1ebf e46a 91bf 9447 08bf
00000260: 1bda f1bd e3e8 13bf ab59 8dbe 3dab 473f
00000270: 4af5 373e b0ef 14be ef04 173f ab36 ac3d
00000280: a569 c3bd 0176 413f 5479 7abe a556 15bf
00000290: ce1f c7bd 6b30 71bf 5bbb fbbe ccf1 24be
000002a0: c458 613e 2287 8bbd 5a3f 21bf 262a 6e3f
000002b0: 27b7 8c3c a979 56bf 8ecc 51be acf6 84be
000002c0: 3f38 013f 24b5 fb3d f88f 6cbe 57d6 02bf
000002d0: dbcd b0be 71e3 d4b9 066f 61bf 1928 7fbe
000002e0: 0cec 91bc e07c af3e e217 b4be 9138 073f
000002f0: 5fa3 bd3d bbeb cebe 7122 6b3f c70f 90bc
00000300: 35ba 3cbf f910 823e 88f8 7c3e a97b f7bd
00000310: aedd 7fbe 607d 633f d595 41be 3de1 2e3f
00000320: be5b 5a3e b08d a73e 9e07 f53e 501a e6be
00000330: 598a 683e 8368 12be 1d5c cbbe 5980 453e
00000340: 5a6d 85be 00e0 333e 0e8b bdbe 834e ae3f
00000350: 72db 73bf d0ad 193e dd44 30bf 77b1 96bd
00000360: 5963 f23a 7de3 c3be 5da1 103f c005 c0bc
00000370: 2105 80bd 3d37 76bf 3e34 383d cfe6 e4bc
00000380: 8f8e 5abf dcd3 37be 1d83 343b 8bcb 913e
00000390: 49b5 183f ba24 013f 79fa 423e bd40 aebe
000003a0: a15b 823c 8c81 9b3f b262 f63e 6b12 2b3e
000003b0: 9d2a 1fbf c2f8 423f c042 803e a4da 49be
000003c0: 5ea1 fbbe 1ab1 8a3e 6e0c dd3d 256a c73f
000003d0: cb57 f33d 154a 3ebd 65e3 893e ea4b dbbe
000003e0: d9f0 55be cd9a 20bf 6848 643e 7397 2ebe
000003f0: 2050 24bd 9fd2 833e 0ae2 8f3c 6174 2f3d
-0.57366735 -1.7257588 0.20595564 0.56598437 -0.050305977 -1.1320556 -0.048110567 0.03145938
0.059119157 -0.3333516 0.16697508 -0.7965498 0.32038197 -0.44133505 -0.0602513 0.09066161
0.44393393 0.026632354 -0.99962085 -0.26293558 0.3216799 -0.35425702 -0.5879943 -0.25339338
0.20032494 -0.24108267 -0.4303935 0.52019256 0.110144086 -0.93161774 0.8566587 0.1291721
-0.27187684 0.2224155 0.43364215 0.019313192 0.797909 -0.11039354 0.4732211 0.65779006
0.056728296 -0.29960647 0.020640528 0.6668516 0.09726717 0.40290114 1.0064435 -0.06744584
-0.07190265 0.47940236 -0.99658096 0.04169707 0.25371355 -0.22139275 -1.2527812 -0.8258762
0.01010388 0.8012669 0.042463023 -0.47014892 0.20048244 0.40829125 -0.7439778 0.05097354
-0.83641374 0.050529946 -0.99381596 0.6022046 0.3541115 0.5273924 -0.7314457 0.33381158
0.1689363 0.61398196 -0.0490673 -0.4991516 -0.23628339 -0.019345457 -0.44045174 -0.025047448
0.017213736 -0.15998347 -0.069371015 -0.7485235 0.4018116 0.9273524 -0.19892481 -0.43042463
0.27317488 0.08857282 -0.20167834 0.036984917 0.3825659 -0.49461275 0.7093731 0.09297814
-0.25699565 -0.16594101 1.37757 -0.43337443 -0.11569453 -0.25961125 1.1061162 0.11534441
0.24800152 0.05440387 -0.37609875 -0.56221694 -0.24757893 -0.21271026 -1.2901117 0.3037458
-0.2595096 0.42378455 0.9757053 -0.4002925 -0.19682239 -0.000733484 0.4851975 0.25815952
0.06914596 0.16199234 -0.3178989 -0.5145963 -0.010033372 0.24124824 -0.80479676 0.09899843
0.60976565 -0.4989866 -0.72537506 -0.30960855 0.76762605 -1.0563087 -0.2105641 -0.69919443
0.072693825 -0.36412573 0.023857428 -0.6306934 -0.4719629 0.233679 -0.40730917 0.098684
0.48958072 -0.0797941 -0.8784505 -0.4366278 -0.008295348 -0.6183194 -1.1360745 -0.5323422
-0.118091784 -0.5777723 -0.27607474 0.77995664 0.17964664 -0.14544559 0.58991903 0.084088646
-0.095416345 0.75570685 -0.24460346 -0.58335334 -0.09722863 -0.94214505 -0.49166378 -0.16107863
0.22006518 -0.06812884 -0.6298729 0.93033063 0.017177178 -0.8377939 -0.20488188 -0.25969446
0.5047645 0.12290409 -0.23101795 -0.51108307 -0.34532055 -0.00040605248 -0.88060033 -0.2491764
-0.017812751 0.3427496 -0.3517447 0.5282069 0.09259676 -0.40414223 0.9184943 -0.017585648
-0.7372163 0.25403574 0.24704182 -0.12084133 -0.24986908 0.8886318 -0.18904813 0.68312436
0.2132406 0.32725286 0.47857374 -0.4494195 0.22709025 -0.1429768 -0.39718714 0.19287242
-0.2605999 0.17565918 -0.37020153 1.361771 -0.9525672 0.1500771 -0.6885508 -0.073580675
0.0018492743 -0.38259497 0.5649622 -0.023440242 -0.06250978 -0.96178037 0.044971697 -0.02794209
-0.8537378 -0.17951912 0.002754397 0.28475603 0.5965162 0.50446665 0.1904086 -0.34033766
0.015912833 1.214891 0.48122174 0.16706245 -0.621744 0.76160824 0.25050926 -0.19712311
-0.4914655 0.27088243 0.107933864 1.5579268 0.118819796 -0.04645737 0.269313 -0.42831355
-0.20892657 -0.6273621 0.22293246 -0.17049961 -0.040115476 0.2574663 0.017563839 0.042835597

feature_fusion.conv_low_res.bias f4 [16]
00000000: e3e2 843f eb78 65be 7c22 bfbe 4782 fb3e
00000010: 8c68 8d3e 9180 f43d 5c41 0abf d7ca 883f
00000020: a325 e23e e8c2 853d 988d 12bf bea8 a6bd
00000030: a632 863f 559d c8be 602f 4540 fb7f e83f
1.038174 -0.22409408 -0.37330997 0.4912283 0.27618825 0.119385846 -0.5400598 1.0686902
0.4416934 0.06531316 -0.57247305 -0.08137654 1.0484207 -0.39182535 3.0810165 1.8164057

classifier.conv.weight f4 [1, 16, 1, 1]
00000000: 4769 9f3f 6099 60bf 46e1 4dbf dcf9 4a3f
00000010: 5055 44bf 6b01 7ebf 0511 7c3f cd00 33bf
00000020: aef5 27bf ae09 25bf 4502 b1bf b453 74bf
00000030: d31c 5b3f a714 0dbf 8086 edbe 5f7a 9ebf
1.2454003 -0.8773403 -0.80421865 0.79287505 -0.76692677 -0.99220914 0.9846347 -0.69923097
-0.6560925 -0.64467895 -1.3828818 -0.9544022 0.8559086 -0.5510964 -0.46391678 -1.2381095

onnx::Conv_400 f4 [4, 3, 3, 3]
00000000: ea02 3cbf 6758 9dbd 346a cdbe c7a5 b8be
00000010: b6b5 dd3d c583 223d fc8b a2be 0d4f bd3d
00000020: 883c 83be a486 59bf 56ba 0c3f 24c3 483f
00000030: 1906 17bf ca12 4c3f c975 5e3f 28d1 42bf
00000040: 96c3 be3e 7e62 0d3f 394d 4cbf 53c9 c53e
00000050: b18f a53e 3392 22bf 14bf d13e 7105 e53e
00000060: 23ef eebe b4b5 3f3e e187 463e e1eb 8dbd
00000070: cd36 a7bc 9d30 8239 49eb 6abd 79e6 8b3c
00000080: d6d4 af3c 1bb1 8fbd 1012 5fbc f3e6 4a3b
00000090: cdf3 aebd 5cf8 8abd 47df 79bd c80a 2fbd
000000a0: 3561 bfbc 0bda 52bd 2d9b b8bd 53ab a3bd
000000b0: 9c87 b8bd 140a 8b3a 9f61 db3c cc99 463c
000000c0: 953a 393d 5de6 823d 5a2e 833d eaa7 e83b
000000d0: f265 113d 1c9e c83c 4047 0dbd 3425 eabd
000000e0: 8eec 87be 0f4e 273d dac5 7e3d a154 6dbe
000000f0: 902a 833e 802c 143e eebf 42be 1295 52be
00000100: 5a68 503d 8b9a 463d afbf b3be b0b3 82be
00000110: b6eb 0bbe 00e4 83be 763c 3dbd 85ab b8be
00000120: 17c3 1e3c 1cf1 04bd 4c56 3fbe 5008 833d
00000130: aab4 633d d143 9ebd 6b46 1d3e 64de 553e
00000140: 7300 b13d a2c8 3ebd ac46 9f3d 8681 6abe
00000150: 9b56 3cbc 050a 1b3e 158f 77be bd20 0c3e
00000160: fb8c f13d 2853 a6be c10d 5c3d 4e89 8c3e
00000170: 831f 6ebe a732 723c d729 893e 0432 2cbe
00000180: 6cbe 933d aca7 273e ac84 4ebe 089c dd3d
00000190: c5c8 3a3e e760 7abe 5803 1d3e c471 1b3e
000001a0: c0cf 9cbe f8c0 773d d37c 593e 16dc 79be
-0.73441947 -0.07682877 -0.4012009 -0.36063978 0.10825674 0.039676446 -0.31747425 0.09243593
-0.2563212 -0.8497107 0.54971826 0.7842276 -0.5899368 0.7971617 0.86898476 -0.761004
0.37258595 0.5522841 -0.7980533 0.3863016 0.3233619 -0.6350433 0.40966094 0.44730714
-0.46666822 0.18721658 0.19387771 -0.06929756 -0.020411873 0.00024831752 -0.05735329 0.017077671
0.021463793 -0.07016202 -0.013615146 0.003096041 -0.08542595 -0.06785652 -0.06100395 -0.04273489
-0.023361782 -0.051477473 -0.090139724 -0.07991662 -0.090102404 0.0010607862 0.026779948 0.012121629
0.045221884 0.063915946 0.06405325 0.007100095 0.035497613 0.024489455 -0.034491777 -0.11432877
-0.26547664 0.040845927 0.062200405 -0.23176815 0.2561841 0.144701 -0.19018528 -0.20564678
0.050880767 0.048487227 -0.3510718 -0.25527716 -0.13664135 -0.25759888 -0.04620024 -0.3606836
0.009690068 -0.032456502 -0.18685263 0.0639807 0.055592217 -0.07727779 0.15358894 0.20885617
0.08642664 -0.046578057 0.077771515 -0.22900972 -0.011495258 0.15140541 -0.24175675 0.13684364
0.11794468 -0.32485318 0.053724054 0.27448505 -0.23254208 0.014782584 0.26789734 -0.16815954
0.072140545 0.16372555 -0.20167798 0.10820776 0.1824065 -0.24451028 0.15333307 0.15180117
-0.3062725 0.060486764 0.21239023 -0.24400362

onnx::Conv_401 f4 [4]
00000000: 9757 25bf 068f 813f b0be 5fbd dec8 2d3f
-0.64586776 1.0121772 -0.054625213 0.67884624

onnx::Conv_403 f4 [4, 1, 3, 3]
00000000: 1ce0 8cbd 549e 7abe 2cde 1dbe 0e5c 15be
00000010: 42f5 31be 52bf 6fbe 3ff9 3f3e 9475 b53d
00000020: ebfb 1cbe a1be 3d3e 0c61 8b3f 6100 ba3f
00000030: ede8 ad3d bd68 c23f aef4 b33f 57f2 c0be
00000040: 3620 dabe be0f c2be 060e be3d c0f4 b4be
00000050: 46af bcbe 8e43 0a3d 6751 87be 8b85 42be
00000060: 9d77 163e 78ea db3c 525e eb3d 7374 26bf
00000070: aa34 6f3f d8d6 083f d730 83bf eae7 ed3f
00000080: e99a 72bf 7ef3 0a3f 0122 2e3f 84e6 8fbf
-0.06878683 -0.2447446 -0.15416783 -0.14585897 -0.17378715 -0.23412827 0.18747424 0.08860317
-0.15330474 0.1852975 1.0888991 1.4531366 0.08491693 1.5188214 1.4059045 -0.3768489
-0.426027 -0.37902635 0.092800185 -0.3534298 -0.36852473 0.03375583 -0.26429293 -0.18996255
0.14694066 0.026845202 0.114925995 -0.6502144 0.93439734 0.53452826 -1.024928 1.85864
-0.94767624 0.5427779 0.68020636 -1.1242223

onnx::Conv_404 f4 [4]
00000000: aaab 733e 35dc 8dc0 d41b 8d3d 3dfb 03bf
0.23795953 -4.4331307 0.068900734 -0.51555234

onnx::Conv_406 f4 [6, 4, 1, 1]
00000000: ebd8 99be f6c5 e23c 4932 e93d 5f1e a43f
00000010: 9bdf c5be 4fc5 65bf c00a f83c 6e6b 53be
00000020: e780 bc3e fdd2 40bd 5676 aabe 5e58 163e
00000030: c7c3 713e b560 1f3f db9e 7bbf 67b0 8abc
00000040: 2d64 363f 4f48 c33f 81ab 39bf 8d74 063f
00000050: 7089 72be 1db2 17bf 8248 d6bb ce8a f3bc
-0.30048308 0.027682286 0.11386544 1.2821769 -0.3864716 -0.89754194 0.030278563 -0.2064645
0.36817095 -0.047076214 -0.33293408 0.14682147 0.2360984 0.6225694 -0.9828927 -0.016929818
0.71246606 1.5256442 -0.7252732 0.5252159 -0.23685241 -0.59256154 -0.0065394053 -0.029729273

onnx::Conv_407 f4 [6]
00000000: 4767 b1be ea36 023f 8877 5dbf a4d4 0ebf
00000010: 2401 31bf e1e1 193f
-0.34649107 0.5086504 -0.86510515 -0.55793214 -0.69142365 0.6011029

onnx::Conv_409 f4 [6, 1, 3, 3]
00000000: 4874 e03c f985 b0bd 31a5 b1bd fb72 b7bb
00000010: efbc 3abe a4ca 9ebe 1941 213c adf7 7bbe
00000020: a47c e1be 9b61 03be 3468 42bd 7cff afbd
00000030: 2d1e 063c ea54 713e 19cb b53e af8f 7fbe
00000040: b5d1 fd3e d256 723f 45ce 7dbd 6b2d a53e
00000050: c804 8ebf 3c6c f0be 9cbc 3ec0 e312 e2bf
00000060: 145d 0fbe b9ba 55c0 b64f 5ac0 4934 b4bc
00000070: 7d6c bf3e 2752 a8bd e84c 083e 7dcc d93e
00000080: fcf5 b93e 1300 d8bc 2413 1abd c44e b0be
00000090: dcf7 1bbd be47 02bc 0777 12bd c875 66bc
000000a0: 6766 143d d471 073e 26b6 17bd d45d 1d3e
000000b0: 9bd0 a33e 8be9 9bbe 02a3 f93e 52a0 d8be
000000c0: 8203 a63e b390 d83f b774 a53f 1773 94be
000000d0: b98f 66be c718 7cbf
0.027399197 -0.08619303 -0.08674086 -0.0055984235 -0.18236135 -0.31013978 0.009842181 -0.246062
-0.44040406 -0.12830202 -0.047462657 -0.08593652 0.008185905 0.23567548 0.35506514 -0.24957155
0.49574056 0.9466373 -0.061964292 0.32261214 -1.1095209 -0.46957576 -2.9802618 -1.7662014
-0.1400035 -3.3395216 -3.4111152 -0.021997588 0.37387457 -0.08218794 0.13310587 0.42538825
0.36320484 -0.026367223 -0.03761591 -0.34435093 -0.038078174 -0.007951675 -0.035758045 -0.014066167
0.03623047 0.13227016 -0.037038945 0.15367824 0.3199509 -0.30451617 0.48757178 -0.42309815
0.3242455 1.6919159 1.2926244 -0.28994057 -0.22515763 -0.9847531

onnx::Conv_410 f4 [6]
00000000: b661 963e 750c 92bf 3c50 f23c c872 bfbe
00000010: 4af7 07bf a894 92bf
0.29371423 -1.1410052 0.029579274 -0.3739226 -0.5311171 -1.1451616

onnx::Conv_412 f4 [8, 6, 1, 1]
00000000: beb7 abbd 0986 183f 58ce 8bbd 3595 a13e
00000010: f625 0f3d 5fd5 e63e 6ea4 353c 0ce5 a5be
00000020: ead7 053d 170a 523e 7dfb 423f 280a 983d
00000030: 16bd 8ebe 89c9 073f 4d2e b33e 90f4 55be
00000040: e2b9 55be 5ed6 f3bc 12a4 38be 5866 fe3e
00000050: 645c b13d 7109 023f 0bdf 1abf 090b 40bf
00000060: 9f5b 693e 3bba 13bf 95dc 89bd 615b 923e
00000070: d784 633e da40 eebe 5853 353f 0798 05bf
00000080: f37d e5be 3481 3bbf a444 273f a9a0 333f
00000090: 4fe1 af3d 35b0 303f 5061 68bd ec95 dd3e
000000a0: 7bd6 1bbe 5528 71bf c789 b13f ddae 73bd
000000b0: fd6e 6ebf 1514 a1be 24c8 d13e 0763 5e3e
-0.083846554 0.5957952 -0.06826466 0.31559148 0.03494831 0.45084664 0.011086566 -0.3240131
0.032676615 0.20511661 0.7616499 0.07423812 -0.27878636 0.53041893 0.34996262 -0.20894074
-0.2087169 -0.029765304 -0.18031338 0.49687457 0.086602 0.50795656 -0.60496587 -0.7501684
0.22788857 -0.5770604 -0.06731526 0.28585342 0.22218643 -0.46533853 0.708303 -0.521851
-0.44822654 -0.73244023 0.6533911 0.7016702 0.08587896 0.6901887 -0.05673343 0.43278444
-0.15218537 -0.94202167 1.3870171 -0.059492934 -0.93138105 -0.31460634 0.40973008 0.21717463

onnx::Conv_413 f4 [8]
00000000: 662c c53c 5acd 0d3d 2c3c 173f c76b 2d3f
00000010: c8e4 633e ee52 3dbe 4968 853d 6201 073f
0.024069022 0.034619667 0.5907619 0.6774258 0.22255242 -0.18488666 0.065140314 0.52736485

onnx::Conv_415 f4 [32, 8, 1, 1]
00000000: b8e5 25be 5314 fc3d e0cc be3c 21d0 ba3e
00000010: ddef 1ebd 7370 27be d5de 0b3e 655a 9ebe
00000020: 99c1 cabd 87ac 003f 5bc3 3abe 14b5 dbbf
00000030: 0cf7 d6bd 44c7 3e3f 0cb2 943e 6979 2c3f
00000040: 0aca 403f a860 13bf 9542 babd ea4c 36bf
00000050: 0d6e 35be d540 563e dd87 c9be e858 713b
00000060: ce70 45bc 13f7 043f e8b0 a7be 85f9 723d
00000070: b325 7d3e b8c1 833e 824b f13d 54b1 29be
00000080: aaa3 12be be21 afbe e275 5fbf 15d8 1d3f
00000090: 9384 1a3e da53 a9be aca2 713f 5bdb 073e
000000a0: 4080 21bf 84ae d63d 9baa 14bf 57fd c83d
000000b0: b38e 193f 3e0d 3dbe 7b61 df3d 2a46 a8be
000000c0: bf37 873d 7e90 a33e 1a3c 0cbe 4193 e0bc
000000d0: f1a8 c4be 3dcc 043f 3f56 2fbe 161a bf3e
000000e0: 309e 5d3f 6d3a b4be 97da 333e e97c d5bd
000000f0: d77e 0fbf 7e8b 86bd e7c0 65be 41ba a53c
00000100: 9f46 573d e666 833f 206e 723e 1756 323f
00000110: 2112 043f 1c68 033f 8b7d de3f 28d1 b3be
00000120: d459 463e 53e7 633f cbf4 69bf e9b7 2abd
00000130: 640e 633f c7c8 b3be e6d1 8a3e 9a07 f8be
00000140: a23b 373c f43b 833d bd84 973b f4ed fabe
00000150: 3c66 273c 6a08 fd3d ffc8 68be fdba d93b
00000160: 7455 183e 26b3 c7bd c6cb 3a3e 2b2b 0b3f
00000170: 6126 15be 8a48 8fbe aba9 ce3d 7190 1bbf
00000180: 91db 46bf 7af6 a9bd c821 3f3f 7ba1 983f
00000190: 7e99 093d a3d2 99be 39ef 13bf 0837 01c0
000001a0: bcb9 6f3f 9514 2d3f c442 fe3e e50c 25bd
000001b0: 1ca3 bcbd 165d 343f a0b2 05bf b2a0 963e
000001c0: a274 deb9 843b 273e 1fce 333e 8725 0ebe
000001d0: e7aa b93e 9147 ce3d 6487 d73c 8ad7 c9bd
000001e0: af45 483c 54db 94bb 6e85 38bc acc9 b8bc
000001f0: a75d 52bc 4a5b 783c 1c63 b8bb c7d8 eebb
00000200: 5fc3 43bc 6912 ca3e c094 fabe 9efa 98be
00000210: fa8d 403f 4d44 8a3e 1cc1 053f 5bc8 463e
00000220: 438a c83e 2b01 a13d 9ff5 2cbe 29ad 4bbf
00000230: b349 893c 1dea d33e 1331 99be 6063 0ebe
00000240: 6153 d5bf 0951 6c3f 9991 213f 9cb5 273f
00000250: 4c41 cf3e 96b0 69bf 3344 9cbf b08b 74c0
00000260: 99a5 6dbf c78d ec3d 266f 35be 5c6c 973e
00000270: 6ab1 d9bf 7517 d53e 3b2b d0bd 9679 153f
00000280: f3d4 213f f268 a5be 5823 4c3f b382 b23e
00000290: 5018 51bf ff52 353e 2fbd f23e 2dc8 0cbf
000002a0: c9c8 99bf 82d0 f1be 4635 f4be f1e2 613f
000002b0: cfe9 08bd a2aa 1ebf 2fc1 2c3f 6dc0 c5be
000002c0: f375 143e 2939 64bf 061b 7f3f ce18 c53d
000002d0: 28cb 2d3e b72c 1dbf d373 72bd e57b 66bf
000002e0: 88ed 743f 3e0c 8bbe 1c02 073f 9540 2ebf
000002f0: ddaa febc 3980 c2be bfd1 f13d e455 dc3e
00000300: 1e18 ae3e 4281 f1be 5434 5a3e 688c 95bd
00000310: b534 98be 2739 1dbe fd23 a7bd 4066 5cbd
00000320: 611d 233f db9e 4abf 0f2c 0b3f 8d87 bb3e
00000330: ec79 b7be 9588 4fbe b4ed 153f 469e 353f
00000340: 0c3b 8abd c150 10be 2c93 26be c262 463e
00000350: 3f7a 59be 325c 03bf 0d08 923e 61a9 88be
00000360: 9d16 bfbc 7a7d 3f3d d93f 85bc a088 1e3f
00000370: 38a0 f03b ea2d b8bd 11da 123f 71ac 17bf
00000380: 1ac7 b5bb 2e5b b73d 5144 4cbf 6f62 e7bf
00000390: 0ce9 353e 9554 f0be df86 c3be f231 c43f
000003a0: 49b8 9ebd bf5e 5f3f adc2 3abe 6ffc bd3d
000003b0: e667 313f 74f2 c73d 696d ef3e ea40 893e
000003c0: e4d8 af3e 26ab c1be af86 f33e f38e 4cbe
000003d0: 2461 5cbf 8913 70be aa0b 443d 73ec b33e
000003e0: 4929 963e 1037 c3bd 3c6d 17bf 85eb cbbf
000003f0: 5f8f c03d c6b9 d23d afce 61bf 1c32 623f
-0.16200912 0.12308564 0.023291051 0.36486915 -0.03880297 -0.1635149 0.13659222 -0.3092834
-0.09900207 0.50263256 -0.18238585 -1.7164636 -0.10496339 0.74522805 0.2904209 0.6737276
0.7530829 -0.5756936 -0.09094731 -0.7121111 -0.17717762 0.20923169 -0.39361468 0.0036826674
-0.0120508205 0.51939505 -0.32752156 0.05931999 0.24721412 0.25733733 0.1178198 -0.16571552
-0.14320245 -0.3420543 -0.8728925 0.6165784 0.15089636 -0.33071786 0.9438884 0.13267271
-0.6308632 0.10482505 -0.58072823 0.09813946 0.59983367 -0.18462083 0.10907265 -0.3286603
0.066024296 0.31946176 -0.13694802 -0.027413966 -0.38410142 0.5187414 -0.17122744 0.3732459
0.865695 -0.35200825 0.17563854 -0.10424215 -0.5605292 -0.06569575 -0.22436868 0.020230414
0.052557584 1.0265777 0.23674822 0.6966261 0.5159016 0.51330733 1.7382063 -0.3512051
0.19370204 0.8902485 -0.9138915 -0.041679297 0.88693833 -0.35114118 0.27113265 -0.484433
0.011183651 0.064079195 0.004623978 -0.4900967 0.010217246 0.123551205 -0.22732924 0.006644605
0.14876348 -0.09750967 0.18241796 0.54362744 -0.14565422 -0.2798503 0.10090955 -0.60767275
-0.7767878 -0.08298965 0.7466092 1.192428 0.033593647 -0.30043516 -0.577869 -2.0189838
0.93642783 0.6760953 0.49660313 -0.0402955 -0.09210798 0.7045454 -0.52225685 0.29419476
-0.00042430038 0.16331297 0.17559098 -0.13881503 0.362632 0.10072244 0.026309676 -0.09855564
0.012223645 -0.0045427475 -0.011262281 -0.022557102 -0.012839711 0.015158484 -0.005627049 -0.0072890255
-0.011948436 0.3946717 -0.48941612 -0.29878706 0.7521664 0.27005234 0.52247787 0.19412367
0.39167985 0.07861551 -0.16890572 -0.79561096 0.016758775 0.41389552 -0.29920253 -0.13905096
-1.666607 0.9231115 0.6311279 0.6551149 0.40479505 -0.91285074 -1.2208313 -3.8210258
-0.92830807 0.115504794 -0.17718181 0.2957486 -1.7007267 0.4161946 -0.101644956 0.5838865
0.6321556 -0.3230663 0.7974143 0.3486534 -0.8167772 0.17707442 0.4740996 -0.54992944
-1.20144 -0.4722939 -0.47696894 0.8823691 -0.033426102 -0.61979115 0.67482275 -0.38623372
0.14498119 -0.8914972 0.9965061 0.09623872 0.16972029 -0.61396354 -0.05919249 -0.900328
0.95674944 -0.27157778 0.52737594 -0.68067294 -0.031087333 -0.3798845 0.11807584 0.4303428
0.34002775 -0.47168928 0.21309024 -0.07302171 -0.29727712 -0.15353833 -0.08161161 -0.05380845
0.63716704 -0.79148644 0.54364103 0.36626855 -0.35835207 -0.20266946 0.5856583 0.7094463
-0.067495435 -0.14093305 -0.16267079 0.1937361 -0.2123804 -0.51312554 0.28521767 -0.26691726
-0.023326213 0.046750523 -0.016265796 0.61927223 0.0073433183 -0.089931324 0.5736399 -0.592475
-0.0055474164 0.08952938 -0.7979174 -1.8076915 0.17764682 -0.4693953 -0.38188836 1.5327742
-0.07749993 0.87253946 -0.18238325 0.092766635 0.6929916 0.09763041 0.4676316 0.26807338
0.34345162 -0.37825888 0.47563693 -0.19976406 -0.86085725 -0.23444952 0.047862686 0.35141334
0.29328373 -0.09531987 -0.59151053 -1.593125 0.09402346 0.1028934 -0.88206 0.8835771

onnx::Conv_416 f4 [32]
00000000: 251a 6a3f 1470 693f a4f5 953f 3b95 0a3f
00000010: b88e 1bbd 4267 583f 4651 3fbf 576e ca3e
00000020: 5fcd 08c0 61eb aa3e 286b 8f3f 4666 003f
00000030: a2f9 973e 1e35 b1bf d2b9 2dbf d0a2 5ebf
00000040: 9e25 39bf 1c20 6e3f ce5c 1640 dabf 083f
00000050: 56c2 3bbe 33b2 233f c5cc 163f 218a 31bf
00000060: 4ccd 583f 6ee9 34bf 86ea 833f ec2b 093e
00000070: 1265 b73f 5596 ccbf 47a1 083f a5cf 923f
0.91446143 0.9118664 1.1715589 0.5413396 -0.037977904 0.8453256 -0.7473339 0.39537308
-2.1375349 0.33382705 1.1204576 0.50156057 0.29682642 -1.3844335 -0.67861664 -0.8696718
-0.72323024 0.93017745 2.3494143 0.5341774 -0.18335852 0.63943785 0.58906204 -0.69351393
0.8468826 -0.70668685 1.0305946 0.13395661 1.4327719 -1.5983378 0.5337109 1.1469618

onnx::Conv_418 f4 [32, 1, 3, 3]
00000000: 85e8 1e3f b57a 02be 149d 92bf 8cf6 c43f
00000010: bfc9 923f eb25 cdbf 3380 bebd 6984 043f
00000020: 253f c8bf 73e2 efbe 026f ee3d 47e6 633e
00000030: 359b 3c3d 0781 b03e b488 7c3e cf2d dcbd
00000040: fe76 b93c 26a1 a43d 5e80 eebe 9080 45bf
00000050: 4230 b5bd 3e4e e2be db3d 22be 5d5e 95bd
00000060: 9af5 5dbe 0fd0 963f b2c1 b83f 6ce0 513c
00000070: e956 5a3f af14 083f 52a8 5dbe 5a55 9d3e
00000080: ff64 043f 174e 3abe d0fe 18bf 16cc 65be
00000090: fa4f c03e 916c d23e 62d0 ae3e b498 1abe
000000a0: c0ef a5be 552c c7bd 46b6 7abe d0f3 52be
000000b0: e268 343e d4f1 8dbe a7a4 83be 91cf 1438
000000c0: 2f97 743e 1ef8 be3e 9613 363f a8a6 d2bd
000000d0: 0821 4d3d 78a5 cd3e c5f8 0a3f e796 f3be
000000e0: cc9e cebe ee60 48bf 2c12 61bf 725e 04bf
000000f0: 1dae 68bf bc13 78bf baad b8bf aa04 8bbf
00000100: a798 23bf d9b1 eebe 2020 aabe e084 103f
00000110: 1c7b 2b3f 6c65 1b3e 126e 133f b57d b23e
00000120: 825f e9bd a5a7 583e 6fcc 2a3e c7ce 85bd
00000130: f1be 6d3e 9bfd 413e 4c68 51be 4674 5dbd
00000140: 15a7 513d 5e7c aebd ee43 dc3d 9e96 c43e
00000150: 7fe7 91bd 279b 333e 5ce2 b1bd 0245 d0be
00000160: 1e2b 74be 319b f5bd a6e9 7c3e 6a37 013f
00000170: 27af 5bbf 86d6 933f 5e05 9e3f 447a 7ebf
00000180: a614 fbbe 40ce 513f 1741 bdbf 006d 94ba
00000190: d8ac 42bf 5d4c 08bf 94cc 2b3f 43e1 4f3f
000001a0: 0d19 2c3f 3a8b 4c3c 53ec 0ebf 6011 b6be
000001b0: f35a 8fbd 42e2 d1bd 893a 0bbe 0226 003e
000001c0: 9d91 abbe 08ff 0bbe 6124 5fbe dacc 2dbf
000001d0: a50c 13bf 475a 8cbd d8ff 61be da72 35be
000001e0: be0e 35be f501 833e bef5 813e e12b 6ebe
000001f0: 8773 00bf 9b76 a3be f10f f8be ad4c edbe
00000200: 8971 38be d20c b73d 6f81 edbf 94e0 f6bf
00000210: 4d36 2dbd 2ae5 48bf c6cf cb3d b40b 02c3
00000220: b759 e4c2 f676 82c2 2238 0141 f674 4342
00000230: 2701 ca42 4de6 9742 a019 2e43 fce8 e242
00000240: e4ea 693e 95db c83d 79a2 b73e c6d2 303e
00000250: 2044 843e 42dd 3b3e 9322 033e c6f4 ecbd
00000260: 81e1 84be 86bc aebe 04d2 3dbf 202a fdbe
00000270: decd 8c3d bdd7 773f c8fe 523f d947 d1be
00000280: 32ec ab3c 3d08 423e 458a fd3d cb6b 133e
00000290: ac88 543d d0c3 8c3d a01d c03e 5052 7e3e
000002a0: c62b 0abd 364b 0b3e e156 153e 6ff3 ffbd
000002b0: 9730 dfbd f66b 09bd cd51 71be 5284 55be
000002c0: 6c2d 5cbe 7b20 8ebe aa2e 98bd 472f 9fbe
000002d0: 82fb 85be 8a97 1d3d ff2a af3e 9de3 83be
000002e0: 31bb c73e 075a 9f3e 988f debd fab4 173e
000002f0: c0c2 503e 9cc4 0f3e d066 343e 4f0b 5e3d
00000300: 8f8f 673e 835a 0a3e 6f71 383d a073 8fbc
00000310: 1036 07bd f9d2 ad3c c017 973e 1e71 413f
00000320: a293 b63e 0e07 743e 8b66 933e 0b2f a63e
00000330: 143a 54be 3dc1 17be dbaf 4dbe 3740 02bd
00000340: 8c56 ae39 1724 023d 4d68 2b3e 3955 3f3f
00000350: 5052 833e 0add 16be b66d 263e 9883 403e
00000360: af36 0ebe c3cc 493d 6db4 e53f fcb0 3cbf
00000370: 6cc7 e3bf 1d49 913e b26a ee3d 3336 fcbe
00000380: 4d0f d73e 3ed2 f3be 04ac 96be cd7d 07bf
00000390: b463 f6bc f333 38be 995e d4be 1ac5 053f
000003a0: fb32 493f 2470 2c3f 1c3b 70bf 8434 60bf
000003b0: c11e 6dbf c843 ffbb ea5b 6c3f ae39 be3f
000003c0: 6d10 00bf ccc9 d3bd 5a0a 3a3f 7482 36be
000003d0: 2363 2e3f 7ace 8fbe 1b92 5bbf 1ce0 e03e
000003e0: 68c9 79bf 2ac9 96bd 30b4 3d3f d0cf 80bd
000003f0: 9c0c ec3d abee 9abd a84d c43d 6a3e 87be
0.62073547 -0.12742122 -1.1454186 1.538774 1.1467818 -1.6027197 -0.09301796 0.5176454
-1.564427 -0.46852455 0.11642267 0.22255813 0.046046454 0.3447344 0.24661523 -0.10750925
0.022639748 0.08038549 -0.4658231 -0.77149296 -0.08847095 -0.4420032 -0.15843908 -0.07293389
-0.21675721 1.1782244 1.4434111 0.012809854 0.85288864 0.5315656 -0.2164624 0.3072918
0.5171661 -0.18193851 -0.59763813 -0.22441134 0.37561017 0.41098455 0.34143358 -0.15097314
-0.32409477 -0.097252525 -0.24483594 -0.2060082 0.17618135 -0.27723563 -0.25711557 3.547926e-05
0.23885797 0.37298673 0.71123636 -0.102856934 0.05008033 0.40165305 0.5428584 -0.47576067
-0.40355527 -0.782729 -0.87918353 -0.5170661 -0.90890676 -0.9690511 -1.4428017 -1.0860798
-0.63904804 -0.46620062 -0.33227634 0.5645275 0.66984725 0.15175408 0.5758983 0.34861532
-0.1139517 0.21157701 0.16679548 -0.0653358 0.2321737 0.18944399 -0.20449942 -0.054065965
0.051184732 -0.08519815 0.10755144 0.38396162 -0.071242325 0.17539655 -0.08685753 -0.4067765
-0.23844573 -0.11992491 0.24698505 0.5047518 -0.85814136 1.1549842 1.2345388 -0.9940531
-0.4903919 0.8195534 -1.4785489 -0.0011323988 -0.7604499 -0.5324152 0.67109036 0.812031
0.67225724 0.012484366 -0.5582935 -0.3556013 -0.06999769 -0.102482334 -0.13596548 0.12514499
-0.33509532 -0.13671505 -0.21791221 -0.67890704 -0.5744117 -0.068531565 -0.22070253 -0.17719594
-0.17681405 0.2558743 0.253828 -0.23258926 -0.5017628 -0.31926426 -0.48449662 -0.4634756
-0.1801206 0.08937992 -1.8555125 -1.9287286 -0.042288113 -0.78474677 0.09951739 -130.04572
-114.175224 -65.232346 8.076204 48.86422 101.00225 75.94981 174.1001 113.45505
0.2284351 0.09807507 0.35866144 0.17267904 0.25833225 0.18346122 0.12806158 -0.11570124
-0.25953296 -0.34128207 -0.74148583 -0.494462 0.068752035 0.96813565 0.82420015 -0.40875128
0.02098665 0.18948455 0.123798884 0.14396589 0.051888153 0.06873286 0.37522602 0.24836087
-0.03373315 0.1360291 0.14583923 -0.12497603 -0.1089794 -0.033550225 -0.23566361 -0.20851257
-0.21501702 -0.27759156 -0.074307755 -0.31090757 -0.26168448 0.038474597 0.3421249 -0.25759593
0.39010003 0.31123373 -0.10867232 0.14815131 0.20386791 0.14039844 0.17617345 0.054210003
0.22613357 0.1351109 0.045030054 -0.017511189 -0.033010542 0.021218764 0.29510307 0.7556323
0.3565951 0.23830816 0.28789172 0.32457766 -0.2072528 -0.14819808 -0.20086615 -0.03179952
0.0003325235 0.0317727 0.16739006 0.74739414 0.25648737 -0.14732757 0.16252789 0.18800199
-0.13888048 0.04926754 1.7945687 -0.73707557 -1.7795234 0.28376094 0.11641444 -0.492601
0.4200386 -0.4762134 -0.29428113 -0.5292633 -0.030076839 -0.17988567 -0.41478422 0.5225388
0.78593415 0.67358613 -0.93840194 -0.8758013 -0.9262505 -0.0077900626 0.9232775 1.4861352
-0.50025064 -0.10341224 0.72672045 -0.17823201 0.6812002 -0.28087217 -0.85769814 0.43920982
-0.97572947 -0.07362588 0.7410307 -0.06289637 0.115258425 -0.075650536 0.09585124 -0.26414806

onnx::Conv_419 f4 [32]
00000000: 972c 0d3f 74c1 b0bd 5ef8 d7be 9c6b bd3e
00000010: 77c2 33be e007 aa3c 001b 663f 444b febd
00000020: 300a 133d 563b 613f 63db 97be 2c55 fabd
00000030: b8a8 e13f 7eb8 f13e c9ea 27be f5da c43e
00000040: a02a 0fbf 4b8e 51be 0015 08bf 6c64 3abe
00000050: 6ced 5fbe fce2 99bf 4ab7 ecbe 9889 8dbf
00000060: 12a8 c83e 786f cdbd 6c14 1e3e 2e7e 8bbe
00000070: 0895 6cbe 44f3 87be 0026 8dbe d8f8 52bd
0.55146164 -0.08630648 -0.42181677 0.36996162 -0.17554651 0.020755708 0.8988495 -0.124166995
0.035898387 0.87981164 -0.29659566 -0.122232765 1.7629614 0.4721107 -0.16398157 0.384483
-0.55924416 -0.20464437 -0.53157043 -0.1820237 -0.21867913 -1.2022395 -0.46233588 -1.1057615
0.39190727 -0.100310266 0.15437478 -0.27244705 -0.23103726 -0.26552784 -0.27568054 -0.051506847

onnx::Conv_421 f4 [8, 32, 1, 1]
00000000: 5e8e 05be 86c4 183e a881 b2bd 7004 a0be
00000010: c7ba 22be 8e1d 993d 698a 8abe 38ca a6bd
00000020: ed8c 1abe 61c4 63bc e548 2ebe a190 61be
00000030: 8a9c 533e 18ce 90bd e2ab a7bc c81f b9bd
00000040: 9fd4 c5bd ed61 efbd 0c9a c6be 7aac f73d
00000050: 1aac 933c 2258 9bbd 43c5 ed3d ecdb 193e
00000060: 5e1a 233a 6f43 e13c cc43 1dbe d5a3 43bd
00000070: a6ad 23be a1ed bfbc d664 823d 50d7 22bd
00000080: 1ad0 1b3c 10ee c83d 56cd b83d e251 68bc
00000090: e0d5 733e d710 98bd 7a0a 11be e90f 013e
000000a0: 08a5 983d c6ed e5bd d7cf 1fbe 91cc 583d
000000b0: 7507 a93e fb28 1dbd 722c 17bd 1929 983d
000000c0: dabb 9a3d 3940 b43d 80dd a3be 0421 a0ba
000000d0: 2814 9ebe 171c 5e3e 7ced 36bf fd41 b3bd
000000e0: 3936 1ebe 672b 0e3e e0e8 343d 1d3b 153c
000000f0: 8a78 7b3e e3a6 cb3e bf11 4bbd d837 5e3e
00000100: 1cbc 77be 77ed 20be 18cb b6bd 9c11 81bd
00000110: 6fe1 52be a542 f0bc 8119 3fbe bbe2 c6bd
00000120: 4984 1ebe 0894 e4bd d044 92be 3c3e 49be
00000130: 0405 aa3e 11a5 b03d a25f 873c 0699 1c3d
00000140: 091b dc3d 65c9 0c3e 9f12 36be e496 173e
00000150: 402b 12be acdb 07bc 1af9 0fbc 551d 883e
00000160: ed05 86be 8a65 b1be 7d66 b8be 6c22 7bbe
00000170: 1dfb 00be 3b3a 323e 5ba7 043a b362 53be
00000180: 4a13 273d 6258 a13e 4dbe f03d 44be 4d3e
00000190: c166 323c daec e03d 8706 7a3d 080d ec3d
000001a0: 4182 5c3e 46f7 393e adcb f03c 2e51 073e
000001b0: c42b 08bd dd0e b43d 6a1d 513d 3a52 c2bc
000001c0: b1dc 443e 6215 913e d6ae 0bbe bea5 65bd
000001d0: d7f0 f43c 6ba8 90bd 27c3 98bd df4f 2fbe
000001e0: 3593 4b3e ebdf 443e 5f3e 333e 14d5 2a3e
000001f0: 05b8 2e3e ac47 8b3c 2b0d b13d 96ee 9a3e
00000200: 4f1b 88be 97af 7ebe 187c 34be d38f 9c3e
00000210: 76b6 4dbe d063 8dbc 320e c63c c67e 853e
00000220: 3033 623e be7a a33e d0e0 18be 2aaa d6bd
00000230: 3475 fe3d 7975 48be 7959 ddbc 2e43 a4be
00000240: f20a 14bd 863f 29be f042 b1bd 315e 7d3d
00000250: 3d39 b03d bbb3 c03d 75f1 77be 374e 7e3d
00000260: 0951 82bd b058 273e 7bdc b3be 9fd6 6ebe
00000270: 28a9 22bf 2ac8 08be 4cef 08bf f3f5 21bf
00000280: 4476 52bd 1615 5ebe c401 a43e 2285 8bbd
00000290: 5b6a a63e 0115 d6be 0709 9e3e 7ce8 2e3e
000002a0: 8e8a 4bbd e190 873e 5372 1ebe ada9 ed3e
000002b0: ffdd 2d3e f6de a73e b92f a0bc 857c ce3d
000002c0: 66c1 55be 6d86 a13e 4516 71be 9df4 4fbd
000002d0: c22b 113e b760 213e 1db4 253c 5828 083f
000002e0: ce30 e8be 4cdc 1d3e 9f70 2a3d 322d 84be
000002f0: 97b5 353e f1d0 f7be 8664 9abe 2c75 893d
00000300: feb0 83be 7d52 3e3e 00cc 2c3d 35cf 093f
00000310: e635 fc3a 5999 963e 9bf5 cbbe 6757 85be
00000320: fc4a 6f3e 06ee 313e 859e e23d 4e80 04be
00000330: 529b 093e 329e 95bb 3cc6 513c 71a8 cfbd
00000340: 7db8 6d3e 3fcf 03be f366 94bd 9178 8bbb
00000350: 9fb7 9bbe 401d 6f3d dd28 56be 9196 93be
00000360: 07d5 2f3d e3c9 1f3e ea8e b33d 3068 15be
00000370: 6cc6 543e 93e1 c8bd e007 29be 69f8 173d
00000380: b28b 98be 6b0a 003e 827e f0be aa67 2ebe
00000390: b9e5 57bd 4103 cd3e e1c1 b5bd 63c8 98be
000003a0: 8294 a7bc 7c11 14be 86d4 6dbd 9581 f3bd
000003b0: f193 5a3e f524 383e 60d9 15bd ed71 103e
000003c0: f059 31be d3bf 7d3c 6aa8 cd3d cd7e acbd
000003d0: caca 91be 351f 4a3e 50d7 9e3e 3e09 8bbc
000003e0: f5f7 d1bd 2299 f7be 1cee 6dbe 8195 01bf
000003f0: 8c38 f9bc 9f4c 853e 7890 d9bd dc92 22be
-0.1304259 0.14918718 -0.08716136 -0.31253386 -0.15891562 0.0747634 -0.27058724 -0.08144039
-0.15092821 -0.013901801 -0.17019995 -0.22027828 0.20665184 -0.07070559 -0.020467702 -0.09039265
-0.09659695 -0.116886 -0.38789403 0.12093444 0.0180264 -0.075851694 0.1160989 0.150253
0.00062218856 0.027497975 -0.15357894 -0.047763664 -0.1598421 -0.02342874 0.06366889 -0.03975612
0.0095100645 0.09811032 0.0902354 -0.014179679 0.23812056 -0.07425087 -0.14164153 0.12603725
0.07453352 -0.11226992 -0.15606628 0.052929465 0.33013502 -0.03836916 -0.03690762 0.07429714
0.07555361 0.08801312 -0.3200493 -0.0012216871 -0.30874753 0.21690403 -0.7145612 -0.08752821
-0.15450372 0.13883744 0.0441674 0.009108332 0.24557701 0.39775762 -0.04957747 0.2170099
-0.24192852 -0.15715586 -0.08925456 -0.06302187 -0.20593809 -0.029328654 -0.18662073 -0.09711214
-0.1548015 -0.11161047 -0.28568125 -0.19652647 0.33206952 0.08625234 0.016525093 0.038231872
0.10747344 0.13748701 -0.17780541 0.14803654 -0.14274311 -0.00829212 -0.008787418 0.2658488
-0.26176396 -0.3464778 -0.36015692 -0.2452485 -0.12595792 0.17405026 0.00050603383 -0.2064312
0.04078988 0.31512743 0.11755047 0.20092112 0.010888756 0.10982676 0.06104138 0.11525923
0.21534063 0.18160734 0.029393995 0.13214561 -0.033244863 0.087918974 0.051053442 -0.02372085
0.19224812 0.28336626 -0.13640913 -0.056066267 0.029899998 -0.07063373 -0.07459097 -0.17120312
0.19880374 0.19226043 0.17504261 0.16682845 0.17062385 0.01700195 0.0864509 0.30260152
-0.26583335 -0.2487167 -0.17625463 0.3057848 -0.20089135 -0.017259508 0.02417669 0.26073283
0.22089839 0.31929582 -0.14929509 -0.10481675 0.124246985 -0.19576062 -0.027020203 -0.32082504
-0.03614325 -0.16528139 -0.086553454 0.061857406 0.08604667 0.09409281 -0.24213202 0.06208631
-0.063631125 0.16342425 -0.3512915 -0.23324059 -0.6353936 -0.13357607 -0.5349014 -0.63265914
-0.05138232 -0.21687731 0.32032597 -0.068125024 0.32503018 -0.418129 0.30866262 0.17080873
-0.049692683 0.2647772 -0.15473299 0.46418515 0.16979216 0.32787293 -0.019554006 0.10082344
-0.20874557 0.3154787 -0.23543651 -0.05077039 0.14176849 0.1575955 0.010113743 0.5318656
-0.45349735 0.15416068 0.04161131 -0.2581573 0.17745052 -0.48401597 -0.30154818 0.06711802
-0.25720972 0.18586154 0.042186737 0.538318 0.0019242137 0.2941387 -0.3983582 -0.26043245
0.23368448 0.17375955 0.110653915 -0.1293957 0.13438156 -0.0045659775 0.01280361 -0.101395495
0.23214908 -0.12872027 -0.072461985 -0.004256316 -0.3041353 0.058377504 -0.20914026 -0.2882581
0.042927768 0.15604357 0.08767493 -0.14590526 0.20778817 -0.0980865 -0.1650691 0.037102137
-0.2979408 0.12503974 -0.46971518 -0.17031732 -0.052709315 0.40041545 -0.0887487 -0.29840383
-0.020456556 -0.14459795 -0.058064006 -0.1188995 0.21345498 0.17982848 -0.036584258 0.14105959
-0.17319465 0.015487629 0.10041888 -0.08422623 -0.28475028 0.19738467 0.31023645 -0.01697218
-0.10252372 -0.4835902 -0.23235363 -0.5061875 -0.030422471 0.2603502 -0.10623258 -0.15876335

onnx::Conv_422 f4 [8]
00000000: b861 713f 4270 b93e 467d 893f 316c b8bf
00000010: e870 953f 2d58 b4be 61e1 cebe dbda c83e
0.9428973 0.36218458 1.0741355 -1.4408017 1.1675081 -0.35223523 -0.40406325 0.39229473

onnx::Conv_424 f4 [32, 8, 1, 1]
00000000: 8d2b c0be 06a3 a5be b722 2fbe 0daa 85be
00000010: 82c9 ccbe 3a13 e03e 00ee 0bbf 4d67 b3bd
00000020: 5abd 86bd ca88 29bf d7e7 bebd 858e e5be
00000030: ad50 9cbd 632f 78be 7b88 01be bbb9 083f
00000040: b870 e43d 555e 25be e8b0 6dbd 0aca d93d
00000050: a3fa e43d 9f8d 47be 6910 463e 0b91 11bd
00000060: c86a 64bd 59b0 323d df35 adbb 4fa0 853d
00000070: e1b9 513d 4eac b73e b6f6 18be 9976 bebd
00000080: a25b 1ebd 5816 77bc 1a4a 793e f913 213d
00000090: 68de 9e3e 1b5b 0fbf d1b7 be3e 876e 3d3d
000000a0: f5a3 763e e537 373e 074c 5e3c 2cee 30be
000000b0: 809e 143f c897 7dbe d0ea 3a3e 1e6b 1f3e
000000c0: 2c07 9f3e fa35 a7bd c5e4 583e f4e7 16be
000000d0: a67c 16bd c5bc f6bd c43c 79bd e769 d03d
000000e0: 1c11 713f 0af7 d13e 9451 5c3f 6622 36bd
000000f0: bf7d ddbd 0654 523e 8e50 c9be ec20 c03e
00000100: 4630 84be b85f 4abd 5766 433d 701e c6be
00000110: 2218 c7be 02f3 89be b9de dc3e 5543 703f
00000120: 1f2e afbe 6227 b5bc 0fa4 963e a337 08be
00000130: 7034 613e aae9 733c 6fd2 493f e887 7ebd
00000140: 7247 18bf 6f32 4dbe 1385 1abe 5db1 87bd
00000150: 2ba4 873e 78c4 aabd 8915 97bd 8c29 fbbe
00000160: 4d4e 1c3f bda0 f53d dfc3 ab3e fb6d 03bf
00000170: 7aee 8f3e 30bf 083f 4971 623e 7202 44be
00000180: 5fdd 403e a4e9 1abb df29 9b3d 0b2a 18be
00000190: 0e47 25be 8e37 2bbe 1bcd ecbd 3795 943d
000001a0: 6bef 20be 9407 8e3e 5dfe 263e 09b4 d93e
000001b0: 7fc3 a4bd 21e3 f9be 8f50 d83d 3241 723e
000001c0: 0ca8 8abd 6421 7e3e 0774 a23e 2985 c2bd
000001d0: efd5 783e fe0b ce3d f0ff 34be ca6b c43b
000001e0: 4569 863e f5d6 46be d89c cf3d 7bb0 71be
000001f0: 06ac ea3e b0e5 6c3e 8cb7 60bc f0a5 5b3e
00000200: 0fe6 023f 7304 213f 0ccb 693e 380b 91bc
00000210: e372 aabe 4fbc 79be f1d1 bcbe ea9c 11be
00000220: cec0 c03b dcff 0ebe 1b3c 3c3e fc19 32be
00000230: 52dc f4bd bba5 7b3d 4eb5 e8bd a577 d43d
00000240: b857 42be 31a7 163f d18f 853d d304 ce3d
00000250: 2391 a43e a94e 5a3e 6d02 54bd 9d6e 95be
00000260: a8cf 92bd 6ec3 523e d5f3 88bd 0e88 803e
00000270: 2b26 11bf fbcb 173e e4b4 023e 9ce0 3dbe
00000280: 0953 a43e 2381 0a3e 6967 3b3f d2e8 cdbe
00000290: 8750 fe3e 2d3a 55bd c35c 0d3e 9eb9 5c3e
000002a0: 25e2 79be 7c91 413d f1d1 ebbd 80bf f23e
000002b0: 1148 0f3e f66c a83d 3e72 7abc aedc a9be
000002c0: d2b7 763e 9afa 443d e856 d03e cab0 36be
000002d0: 8294 1d3e e78d 90b9 1ef1 343f 6ad3 0e3f
000002e0: 702e 54be fbcc a73d eff7 6cbc adf2 913e
000002f0: bec6 9d3d 7f47 d0bd 7793 a23e b077 53bd
00000300: 0a03 c0bd ccef 413e 8ab4 87bd f948 cabd
00000310: 3cca 693e 9f1b 803e 308a 26bd 1555 01be
00000320: 8b4c 423e 93ca a53e ebb2 1d3e f9bb 50bd
00000330: 3e85 80be 7bcf c4bd 4e7a 10bd 0e27 963e
00000340: fbe3 09be 5d6f 01be b4b5 8d3d 49cb 363e
00000350: ab0f 973e 1394 1bbe 4ca0 2f3f b04c cebd
00000360: 361d 25be 0479 5bbc 95db 47be 918c f53d
00000370: a8bd a33c 3d75 5abd f015 2a3e 033c 28be
00000380: 8ff4 133d 5b6e a33c ede6 7dbd dfc8 1ebe
00000390: 4aac 743d 0dbf 193e bba0 00be 6b65 72bd
000003a0: 57b4 d03e 00c1 543e 6310 cc3e 1c98 1a3f
000003b0: 3b62 a9be 8a80 f0be 4378 44bf 3e68 c23c
000003c0: 058a 773e 3369 973e 4464 483d 92fb 4cbc
000003d0: 142f 6f3e c9e2 1d3e f195 aa3e 068f 7dbd
000003e0: 4b25 24be ea7b 133e 9648 95bd f94f 6a3e
000003f0: 7597 66bd e52a 3a3e f3cc dcbd 27f0 11bf
-0.37533227 -0.3235094 -0.17103086 -0.261063 -0.39997488 0.4376467 -0.54660034 -0.087599374
-0.06579085 -0.6622435 -0.09321564 -0.44835296 -0.07632575 -0.24236827 -0.1264972 0.534084
0.11154312 -0.16149266 -0.05803004 0.10634239 0.11180618 -0.19487618 0.19342197 -0.035538714
-0.055765897 0.04362521 -0.005285963 0.06524717 0.05120266 0.35873646 -0.14937863 -0.092999645
-0.038661607 -0.015081011 0.24344674 0.039325688 0.31029058 -0.5599839 0.37249616 0.046247985
0.24085982 0.17892416 0.013567931 -0.17278355 0.5805435 -0.24764931 0.18253636 0.15568206
0.3106016 -0.08164592 0.21181019 -0.1473692 -0.036739968 -0.12047724 -0.060848966 0.10176449
0.9416673 0.41008788 0.8606198 -0.0444664 -0.10815 0.20539865 -0.3931927 0.37525117
-0.2581808 -0.04940769 0.04770502 -0.38695097 -0.388856 -0.26943213 0.43138674 0.9385274
-0.34214875 -0.022113506 0.29422042 -0.13302474 0.2199266 0.014887253 0.7883672 -0.06214133
-0.59484017 -0.2003877 -0.15089826 -0.06625626 0.26492438 -0.08338255 -0.073771544 -0.49055135
0.6105698 0.11993549 0.33547875 -0.5133969 0.2811163 0.5341673 0.22113527 -0.19141558
0.18834446 -0.0023637796 0.07576346 -0.14859788 -0.16140386 -0.16720411 -0.11562558 0.07255023
-0.1571633 0.27740157 0.1630797 0.42520168 -0.080451004 -0.48806098 0.1056224 0.23657683
-0.06770334 0.24817425 0.31729147 -0.094980545 0.24300359 0.10060881 -0.17675757 0.005994295
0.2625219 -0.19417937 0.101373374 -0.23602478 0.45834368 0.23134494 -0.013715636 0.21450019
0.5113229 0.62897414 0.22831362 -0.017705545 -0.33290777 -0.2438824 -0.36878923 -0.14220014
0.005882359 -0.1396479 0.18382303 -0.17392725 -0.11956085 0.06143735 -0.11362706 0.10374383
-0.18978775 0.58848864 0.065215714 0.10059514 0.3214198 0.21319069 -0.051760126 -0.29185954
-0.071685135 0.20582363 -0.06687132 0.251038 -0.56698865 0.14823906 0.12764317 -0.18542713
0.320946 0.13525824 0.73204666 -0.4021669 0.49670812 -0.052057434 0.13804917 0.21555182
-0.24402674 0.047257885 -0.115146525 0.47411728 0.13992335 0.08223908 -0.0152860265 -0.33176178
0.2409356 0.048090555 0.40691304 -0.17840877 0.15388682 -0.00027571546 0.70680416 0.5579134
-0.2072084 0.08193394 -0.014463409 0.2850546 0.07703923 -0.10169887 0.31753132 -0.051627815
-0.0937558 0.18939131 -0.06626232 -0.098772 0.22831053 0.25021073 -0.04065913 -0.12630112
0.18974511 0.32381114 0.15400283 -0.050960515 -0.25101656 -0.09609886 -0.03527289 0.2932667
-0.13465874 -0.12640138 0.06919423 0.17850985 0.2950414 -0.15193205 0.6860397 -0.10073221
-0.16124424 -0.013395552 -0.19517358 0.119897015 0.019987896 -0.053334463 0.16609931 -0.16429143
0.0361219 0.019950083 -0.061987806 -0.15506314 0.05973462 0.15014286 -0.12561314 -0.05917875
0.40762588 0.20776749 0.39856252 0.6038835 -0.33082756 -0.46973068 -0.76746005 0.023731347
0.24173744 0.29572448 0.048923746 -0.012511151 0.23357803 0.15418543 0.3331752 -0.061903976
-0.16029851 0.14402738 -0.07289235 0.2288207 -0.056296784 0.18180425 -0.107812785 -0.5700707

onnx::Conv_425 f4 [32]
00000000: f4b9 b03b 034b 383e 1871 2f3f ef44 fc3e
00000010: f89c b63e c159 c73e a260 873e 3a15 bd3c
00000020: 22cf 893e 02f0 0f3e 0e95 523e 4c5b 803e
00000030: e1da 013f 0dd2 bc3d f3c3 563f 095c e7be
00000040: c2d5 a0be 1336 2d3f ef5e e43e 2cb9 2b3e
00000050: b964 07be 9b58 d3be 7e7b 64be c196 5ebe
00000060: 57c2 243f 2aa2 153e 9b24 6cbe 74bf 0e3f
00000070: 459c 313f 0588 b53d 3aba 1b3f 4947 bb3d
0.005393261 0.17997365 0.6853194 0.49271342 0.35666633 0.38935664 0.26440912 0.02308141
0.26915842 0.140564 0.20564672 0.25069654 0.5072461 0.092197515 0.83892745 -0.45187405
-0.31413084 0.67660636 0.4460368 0.16769856 -0.13222016 -0.41278538 -0.22312734 -0.21737196
0.6435904 0.14612642 -0.23060839 0.55760884 0.69379073 0.08863834 0.60831034 0.09144456
