model_checkpoints/experiments/overall/onnx/fastscnn_256a0.125t2r1pp0_noinit.onnx (onnx, 21089 bytes, 45 tensors)

feature_fusion.conv_high_res.weight f4 [16, 8, 1, 1]
000000 60 af 64 3e f2 65 0a be eb 3f 04 be ad 6b c3 be
       0.22332525 -0.13515452 -0.12915008 -0.38168088
000010 58 03 d6 bf 94 81 4a bd a3 ce 04 bf 39 8e 8f 3e
       -1.671977 -0.04943998 -0.518778 0.28038195
000020 45 64 93 bf c7 6c 4c bf de ca aa bf 48 84 d0 be
       -1.1514975 -0.7985348 -1.334316 -0.40725923
000030 97 e5 ba bf f1 82 17 bf 3f b4 81 bf 1e 57 a8 bf
       -1.4601315 -0.59184176 -1.0133132 -1.3151586
000040 80 74 4d bd 24 2f 72 be 54 94 77 be 32 ad c3 bd
       -0.05015993 -0.23650795 -0.24177676 -0.09554519
000050 07 7e a9 bf ef 0e 1e 3f 0c 23 6c 3e b3 08 d7 3e
       -1.3241585 0.61741537 0.23060244 0.41998824
000060 26 df dd bf 8c 17 f5 bf 0a db de bf 5b c1 a5 bf
       -1.7333724 -1.9147811 -1.7410595 -1.2949632
000070 d3 30 49 bf 3c fc 73 bf 90 7c 82 bf a5 42 5d bf
       -0.78590125 -0.95306754 -1.0194263 -0.86429816
000080 52 d7 b1 3e bc 60 83 3f d8 18 bb 3f 3f 87 13 3f
       0.3473459 1.0263896 1.4616957 0.57628244
000090 5e af f8 be 35 ea 26 3f 0b 21 98 3d c4 3c 51 3e
       -0.48571295 0.6520112 0.074281774 0.20433336
0000a0 be 11 d4 3c d4 f5 78 bb 5f c0 9a 3e cc 1e 53 3f
       0.025887366 -0.0037988322 0.30224892 0.8246887
0000b0 88 16 1d 3f 43 c9 2a 3f 44 29 96 be 7f 9f 02 c0
       0.61362505 0.6671335 -0.29328358 -2.0409849
0000c0 af ff eb 3e 4b da 88 3d 44 d2 c0 3e 19 a8 09 be
       0.4609351 0.06682261 0.3766042 -0.1344303
0000d0 29 e3 ba 3f f4 8e 80 3e ed a5 3e bf 79 c3 25 bf
       1.4600574 0.25109065 -0.7447193 -0.6475139
0000e0 13 e1 74 be 01 dd 1c bf 47 fe 72 bf 06 ec 37 bf
       -0.23913984 -0.61274725 -0.94919246 -0.7184452
0000f0 85 a1 d5 3e cf 4c bb bd 53 f7 03 bf 8d dc b8 3e
       0.41724792 -0.091455095 -0.5154926 0.36105767
000100 53 31 30 c0 29 19 1f bf 27 43 29 be 68 ea 83 bf
       -2.7530105 -0.62147766 -0.16529523 -1.030591
000110 6d 8e 08 3f a7 49 b8 bf 3e 8e 06 3e 26 63 99 bf
       0.53342324 -1.4397477 0.13140199 -1.1983383
000120 f8 15 80 3b 95 7e 94 be 58 0f c9 bd 1d ba 0e 3e
       0.003908869 -0.29002824 -0.0981738 0.13938184
000130 be 41 89 3f cf c2 2e 3f 55 f6 da bf e1 d6 74 bf
       1.0723188 0.68266004 -1.7106425 -0.9564038
000140 38 ea 2f 3f 5d 7c 7c bf 80 a1 21 bf 25 d6 a7 bd
       0.68716764 -0.98627263 -0.63137054 -0.08195142
000150 4b b1 b5 3e 9e 54 e8 3f 88 20 a5 3e a9 31 4c 3f
       0.35486826 1.8150823 0.32251382 0.79763275
000160 94 cb 06 3f 60 a2 71 3f 5b 52 c5 3f a0 0b 24 3f
       0.52654386 0.9438839 1.5415758 0.6408024
000170 30 39 b7 be a5 1c 01 3f 8b 00 bc 3f 18 c0 81 3f
       -0.35785818 0.50434333 1.4687666 1.0136747
000180 44 89 02 be 04 17 b0 3e 97 97 72 3f 34 1c a3 3e
       -0.12747675 0.3439256 0.9476256 0.31857455
000190 f4 af cd 3d 2b 01 fb 3e 17 9e e3 3e e7 fa 02 bf
       0.10043326 0.4902433 0.4445655 -0.51164097
0001a0 9a fe db be 14 d6 9d bf e9 31 db bf ac 5f 72 bf
       -0.42967683 -1.2330956 -1.7124606 -0.94677234
0001b0 e5 47 6b bf 4a 60 17 bf 38 3c 21 bf dc 38 9e 3e
       -0.9190658 -0.591313 -0.6298251 0.30902755
0001c0 cb 42 b1 be 26 13 e3 be a0 31 c0 be 9c 13 d6 be
       -0.34621271 -0.44350547 -0.3753786 -0.41811836
0001d0 4a 9b 62 bf a2 40 f4 bf 3a e4 28 3f e1 9c ca 3f
       -0.885182 -1.9082224 0.65973246 1.5829126
0001e0 60 cf b4 be b6 a5 17 3f 19 fe 04 3f 48 3f a0 be
       -0.35314465 0.5923723 0.5195022 -0.3129828
0001f0 e5 72 4b be f1 36 20 bf 6d 4b 63 3c ff 62 0f be
       -0.19868048 -0.62583834 0.013872963 -0.14002608

feature_fusion.conv_high_res.bias f4 [16]
000000 b6 85 0e 3f 0a 4a bc 3d 2b 06 0b 3e 9b 19 cd 3e
       0.55672777 0.09193809 0.13576572 0.40058598
000010 3e f9 f9 bc 5f 1d 9e 3f a4 2b d1 3f 94 88 7c 3b
       -0.030514356 1.2352713 1.6341443 0.0038533555
000020 8e 9f 8d 3e 00 b6 bd be 6f a4 87 bf 77 8e 26 3f
       0.27660793 -0.37052917 -1.0597056 0.65061134
000030 01 c2 36 40 52 11 67 bc f2 e0 b4 be 87 8a b2 3f
       2.855591 -0.014103251 -0.3532787 1.3948525

feature_fusion.conv_low_res.weight f4 [16, 16, 1, 1]
000000 e3 4b 0a 3f bd 56 09 40 ca 0b f9 be a5 1f bc 3f
       0.54022044 2.145919 -0.48641807 1.4697157
000010 03 6e ad bf d3 d3 12 3f 5b 5d 2e 3d 5a 28 2e 3e
       -1.3549198 0.5735447 0.0425695 0.1700758
000020 38 3f 15 3e db 1b 20 bf b7 37 24 3e 8e 6f 2d bf
       0.14574897 -0.62542504 0.16036879 -0.67748344
000030 86 ca 90 bd 6a 3e 05 be 1f 2b f7 3d 6b d6 31 3e
       -0.07069878 -0.1301209 0.120687716 0.1736695
000040 f0 dd 94 be ee 2c 44 3f bd df 0d 3f b6 b3 bc 3e
       -0.29075575 0.7663106 0.5541952 0.3685586
000050 b1 9b a7 be b0 12 e1 bc 60 66 ac 3e 76 9f 7d 3f
       -0.3273597 -0.027474731 0.33671856 0.99071443
000060 59 ca 3e 3f 97 a9 18 be 99 bb 8f 3e 45 3a d2 3e
       0.7452751 -0.14908443 0.28072813 0.4106008
000070 8c 41 c5 bd 34 9a 9a 3e 2d eb b0 3e 1a 91 e2 3d
       -0.09631643 0.30195773 0.34554425 0.11062832
000080 60 1f a3 3e f3 37 6d bf 56 2d a5 be 88 4b 3e 3f
       0.31859875 -0.92663497 -0.3226115 0.74334
000090 71 4d 27 3f 70 7a 5e 3e e7 9a ea 3f d3 3d 49 bd
       0.6535254 0.21726394 1.8328522 -0.049131226
0000a0 c2 46 82 3f 01 a0 a3 bf 96 b3 f1 bd c0 54 fe be
       1.0177844 -1.2783204 -0.118018314 -0.49674034
0000b0 34 ae a4 bf 37 dd 22 bf e8 c0 f6 3e b1 e4 85 3f
       -1.2865663 -0.636188 0.4819405 1.0460416
0000c0 b6 5e 87 bf 51 3f 22 3e ee 54 14 be 3c 96 82 3d
       -1.0575778 0.15844466 -0.14485523 0.06376311
0000d0 39 b6 de 3c bf b3 c6 bd b2 42 87 3d 4b 5c 7d be
       0.0271865 -0.097022526 0.06604518 -0.24742238
0000e0 2d 9c 8f 3e f9 93 25 bf 53 90 0a 3f 34 d0 c1 be
       0.2804884 -0.64678913 0.5412647 -0.3785416
0000f0 40 4d d1 be dc f5 e1 3d 48 12 9c 3e 13 ae 84 3e
       -0.4087925 0.11033222 0.30482697 0.25914058
000100 82 88 11 bf 05 b7 ce 3d 46 3b 8b bf e7 c8 c5 bd
       -0.5684892 0.10093502 -1.0877464 -0.0965746
000110 86 75 93 3e 28 46 18 bf 18 c8 77 3e 7d 04 9f be
       0.288006 -0.5948205 0.24197423 -0.31058112
000120 e3 c1 be bd c9 d4 0e bf eb 81 23 3e 7f e8 09 be
       -0.09314325 -0.55793434 0.15967529 -0.13467596
000130 89 51 17 bf 6b ff 44 bf 29 e2 49 3f b1 3b a3 3e
       -0.5910879 -0.76952237 0.7886072 0.31881478
000140 e7 ea 57 be 9a a9 3a be 0d 9c ef 3e 33 d8 a4 be
       -0.21085702 -0.1822876 0.46798745 -0.32196197
000150 1d 11 9a 3f a3 de b5 3e 74 94 5a 3e 70 08 42 be
       1.2036473 0.3552142 0.21345693 -0.18948531
000160 f1 56 22 3e c6 53 d6 be e7 a6 8e 3d b5 a3 8a be
       0.15853478 -0.4186079 0.06965428 -0.27078024
000170 43 54 56 bf e8 7d 71 3f f1 1a ef 3e df 2d 4f 3f
       -0.83722323 0.9433274 0.46700242 0.8092937
000180 62 02 ab 3e 5d a8 10 3f 12 39 a4 be 78 3a cf 3e
       0.33400255 0.565069 -0.3207479 0.40474296
000190 a3 27 27 bf 54 34 79 3c 51 ad 74 bf 94 28 fb be
       -0.65294856 0.01521023 -0.9557696 -0.49054396
0001a0 b2 54 21 be 59 8f 03 3e af f7 8b 3e a7 21 a0 3b
       -0.15754965 0.12847652 0.27337405 0.004886824
0001b0 03 e2 2c 3f 87 d4 34 bf 6e 8f 18 3f 89 e8 17 bf
       0.67532367 -0.7063679 0.59593856 -0.59339195
0001c0 84 84 32 bf 2a 6a d0 3e 26 ec af 3f d5 bb 82 be
       -0.6973345 0.40705997 1.3743942 -0.2553393
0001d0 cd 51 59 3f a2 e1 e5 be fc 53 fd be ae 93 1f 3f
       0.84890443 -0.44898707 -0.49478137 0.62334716
0001e0 89 63 79 3e ac ea af bf 95 8f 49 3f 71 90 b9 3e
       0.24354376 -1.3743491 0.78734714 0.36243013
0001f0 df e7 28 bf 05 fd 05 3f 5f 38 5b 3e c4 9b 20 3e
       -0.6597881 0.523392 0.21408223 0.1568442
000200 00 6c a1 be 0b 54 ae be 4d 84 af 3e 8b 0e 82 bf
       -0.3152771 -0.34048495 0.34280625 -1.0160688
000210 f7 50 4f 3f f9 21 5c bf 37 a3 70 3f b6 3e 00 3e
       0.8098292 -0.8598934 0.93999046 0.12523922
000220 f9 26 a6 3e 9a b9 8b be 33 f0 df be f0 30 8c 3f
       0.3245161 -0.2729004 -0.43737945 1.0952435
000230 42 02 e4 bf 60 60 35 3f 86 50 21 3e da dc 9c 3e
       -1.7813189 0.7085018 0.15753374 0.30637246
000240 a6 0e 80 be ce d4 ef bd 68 a9 9a 3e ac 87 ed be
       -0.25011176 -0.11710511 0.30207372 -0.46392572
000250 f8 77 af 3e 81 bb 32 be 6f 5e 90 be 44 b5 60 3f
       0.34271216 -0.1745434 -0.28197047 0.8777659
000260 02 34 fb 3e c8 c2 37 bf eb d2 2f 3f 55 b8 02 bd
       0.49063116 -0.7178159 0.6868121 -0.031914074
000270 ee ff b4 3c 4a 00 9c bf fa 06 3e 3f 62 e0 10 3f
       0.022094693 -1.2187588 0.74229395 0.5659238
000280 e5 8c a2 3e 94 d4 52 bc 5b 32 ab bd a2 0b 1a c0
       0.3174812 -0.012868065 -0.08359214 -2.40696
000290 90 c1 47 3e ee e4 e9 3e d6 6f a3 be f7 d3 8f 3d
       0.19507432 0.45682472 -0.31921262 0.07022851
0002a0 e3 88 3d 3f a9 1e f5 be 24 24 b3 be 5b 33 c7 3e
       0.74037 -0.47874954 -0.3498851 0.3890637
0002b0 1a 1e 62 3e b3 8c d4 3d a3 6c ff 3c f9 1d bc bf
       0.22081795 0.10378399 0.031179732 -1.4696647
0002c0 23 24 fb 3e 42 e6 8d 3d aa 4f 60 be cf 56 44 bf
       0.49051008 0.06928684 -0.2190539 -0.7669496
0002d0 ef 5c ca 3b 56 10 46 bf 18 e3 31 3d bb 87 47 bf
       0.0061756293 -0.77368677 0.043429464 -0.77941483
0002e0 51 46 02 3f a1 4c 9f 3e 93 2b c3 3e 7d f7 06 bf
       0.50888544 0.3111315 0.38119182 -0.5272139
0002f0 0c 7f 33 bf 16 05 e7 be cc 29 4c 3f 62 52 37 3f
       -0.70115733 -0.45121068 0.79751277 0.7161008
000300 98 16 03 3e 70 9d 30 3f 9d 2d d4 3e 41 8b 8e be
       0.12801588 0.6899023 0.4144105 -0.27840617
000310 7b 82 13 3e 3e 96 5f 3f ca 6f 13 bf 66 f8 90 bd
       0.14405243 0.87338626 -0.5759245 -0.07078628
000320 2a d0 61 3f a0 68 58 bd 45 91 3c 3e 45 3d 9f bf
       0.8820826 -0.052834153 0.18414791 -1.2440573
000330 9f 97 99 3f 35 bb 29 3f ab be 17 bf 68 8c c9 be
       1.1999396 0.6630128 -0.5927531 -0.39364934
000340 65 f2 b6 bf c9 f5 93 3e 54 64 0c 3e c9 a8 db 3e
       -1.4292723 0.28898457 0.13710147 0.4290221
000350 0d 01 80 3e 00 e5 4d be 7b 2c 59 be 6e 09 70 3e
       0.25000802 -0.20106888 -0.21208374 0.23441097
000360 40 67 a0 3f 57 7f a4 bf b2 a2 6b 3e c2 49 87 be
       1.2531509 -1.2851361 0.23011282 -0.2642346
000370 c4 08 12 bf 54 8f fd 3e 58 12 68 be 51 7f 00 3f
       -0.57044625 0.49523413 -0.22663248 0.5019427
000380 3a b4 24 be 4f cb 00 be cd bc 04 3d 68 e4 2c bf
       -0.16084376 -0.12577556 0.032406617 -0.6753602
000390 cf ef 4d 3c 0a b3 57 bd a4 e9 fd bc fb 12 e4 be
       0.012569382 -0.05266098 -0.030995198 -0.4454573
0003a0 ac eb c7 3e 54 2c 0b bd 36 f2 37 3f 43 70 27 be
       0.3904699 -0.03397782 0.7185396 -0.16351418
0003b0 4c 81 2a 3f 19 2b 4b 3f 75 97 29 3f 09 54 b3 bf
       0.6660354 0.79362637 0.6624673 -1.401002
0003c0 05 54 17 3f 89 06 be bf 27 b9 f4 3e d9 24 82 3e
       0.5911258 -1.4845744 0.4779751 0.25418738
0003d0 23 d0 01 3f 46 56 91 3f 39 99 36 3f c1 ce d6 be
       0.50708216 1.1354454 0.7132755 -0.41954616
0003e0 98 22 5a bf 72 a4 16 3f ea df b2 3e ef 2a 33 bc
       -0.85209036 0.58844674 0.34936458 -0.010935529
0003f0 d2 20 dd bf c6 35 36 3e 40 58 46 bc db 5b b8 be
       -1.7275641 0.1779395 -0.012106001 -0.3600758

feature_fusion.conv_low_res.bias f4 [16]
000000 f9 0c 0a 3f 03 91 c4 3d c1 43 04 be 6f 68 f6 3d
       0.53926045 0.09597971 -0.12916471 0.12031638
000010 23 1f 96 be 81 3d 87 3f 90 f7 e8 3f 31 81 01 bf
       -0.2932063 1.0565645 1.820055 -0.50587755
000020 5e ab f7 3d 02 a9 08 bf 18 ef 5f bf 71 ae 0a 3f
       0.120932326 -0.53382885 -0.87474203 0.54172426
000030 bc 1d 1b 40 2c b4 6d 3c 85 dd cb be e2 5f a5 3f
       2.4236898 0.014508288 -0.39817443 1.2919886

classifier.conv.weight f4 [1, 16, 1, 1]
000000 22 12 83 3f fb ba 7f bf 22 a6 32 bf 69 93 97 bf
       1.0239909 -0.99894685 -0.6978475 -1.1841861
000010 5a 14 85 bf 8d 0f 47 3f 73 86 3f bf 58 8a 57 bf
       -1.0396836 0.77758104 -0.7481453 -0.8419547
000020 56 f2 09 bf 88 b6 2f bf a4 68 27 bf c3 be 7f bf
       -0.538854 -0.68637896 -0.65394044 -0.99900454
000030 a2 97 08 bf 6a d4 0a bf b3 f5 50 3f 19 ed 4d 3f
       -0.53356373 -0.5423037 0.8162491 0.8043991

onnx::Conv_194 f4 [4, 3, 3, 3]
000000 38 e5 65 3f 34 9a 35 bf e2 4e 27 bf 55 55 77 3e
       0.89802885 -0.7093842 -0.6535474 0.24153645
000010 45 f0 2e 3e cd cc 12 3d 36 32 4c bf f0 46 ee 3d
       0.17083843 0.035839844 -0.79764116 0.11634624
000020 3e a5 d5 3e ee 29 f4 3f cc e9 3c bf 80 5b e9 bf
       0.41727632 1.9075296 -0.73794246 -1.8231049
000030 4d 5e cb 3f a1 59 1f 3e aa 66 46 bf 85 09 11 3d
       1.5888153 0.15561534 -0.775004 0.03540947
000040 d8 c0 26 3e 97 19 c9 be 19 c4 df 3f d8 53 1a bf
       0.16284502 -0.39277336 1.7481719 -0.60284185
000050 fc fe 83 bf 6e e9 75 3f 5f 52 06 3d 8e 5a 01 bf
       -1.031219 0.9605931 0.0327934 -0.505288
000060 e0 99 3f be d4 56 26 3e b9 2b 3a 3d a5 6b ea ba
       -0.18711042 0.1624406 0.045451853 -0.0017884864
000070 af 61 4f bc 08 ab d3 bc 26 6e d0 3b a1 3a de 3b
       -0.012657567 -0.02583839 0.006360787 0.0067818915
000080 3c 13 87 3c 75 95 71 bc f2 65 d2 3b ce 5a cd 3c
       0.016488664 -0.014745106 0.0064208442 0.025067713
000090 b8 6e 98 bc cb 11 aa bc 6f f3 52 bd cd 29 c4 bc
       -0.018607482 -0.020760437 -0.051501688 -0.023945713
0000a0 26 0d 18 bd c1 d5 ab bd 2b c2 8c bd 90 c9 b9 bd
       -0.037121914 -0.0839038 -0.06872972 -0.09071648
0000b0 5e 68 0c be db 32 26 3d 87 ad ec bb 49 8d 65 bd
       -0.13711688 0.040575843 -0.0072228345 -0.056042943
0000c0 41 48 3b 3d 17 91 54 3c f2 4f cb bc b7 c8 3e 3d
       0.045723204 0.012974045 -0.024818394 0.046578135
0000d0 a9 da 1f 3c b0 79 c1 bc ca 70 36 bb 2b 42 63 bc
       0.0097567225 -0.023617595 -0.0027838224 -0.013870756
0000e0 5f 9b 78 3c 4a 6d c1 bb a3 4d fa bb bb 08 89 3c
       0.015173762 -0.005902921 -0.0076386495 0.016727796
0000f0 44 8f 20 bd 3b 05 2f 3b 0b c1 60 bb aa 91 f2 bd
       -0.03919913 0.0026705998 -0.003429475 -0.118441895
000100 a7 4e cb bd 7d 3d 36 bd bf 00 1e be 9e 8d 1a bd
       -0.09927111 -0.044492234 -0.15429972 -0.037732713
000110 5c b8 4d bc e3 d0 f3 bd 73 cd 16 bc fb ea 95 3c
       -0.012556162 -0.11905076 -0.009204256 0.018300524
000120 63 7f f8 bc 1f f9 cf bc 76 0d a8 bb 85 91 16 bb
       -0.03033418 -0.025387345 -0.005128558 -0.002297492
000130 3d 3a 6d 3c 33 64 19 3d b0 83 4d bc 2f 5f 15 3d
       0.014479217 0.037449073 -0.012543604 0.036467727
000140 83 3d 80 3d 31 8e 0e 3e e2 45 ab 3e 39 25 6d 3d
       0.062617324 0.13921429 0.33451754 0.057896826
000150 6f f2 6c 3c b0 4b 0c be 42 f9 b4 bc d9 aa 4c 3e
       0.014462098 -0.13700747 -0.022091512 0.19987048
000160 e4 9d 3e 3c d2 bf f5 3d 32 c4 a7 3e 7a 8c ad 3e
       0.011634324 0.119994774 0.32766873 0.33896238
000170 e3 e7 96 bd aa 53 0d 3e 9c bc 25 be 06 83 72 be
       -0.07368448 0.13801447 -0.1618523 -0.23682794
000180 4e 0e 40 3d 46 db ab be f2 79 ca be 86 18 e1 3e
       0.046888642 -0.3356573 -0.39546162 0.43964022
000190 99 14 be 3e f7 58 5d 3e 1c 8b 85 3d 86 ce 2f be
       0.3712509 0.21615969 0.06520674 -0.17168626
0001a0 bd df 79 be ae 88 b4 3c f9 06 8d be 8b 0b e3 be
       -0.24401756 0.02203783 -0.27544382 -0.44344744

onnx::Conv_195 f4 [4]
000000 6d 3c 31 bf ba f3 92 3f 0b 79 86 3f 1a fb 23 3f
       -0.6923283 1.148063 1.0505689 0.64055026

onnx::Conv_197 f4 [4, 1, 3, 3]
000000 50 77 44 3d 7f 82 2c 3e 57 37 95 3d 41 b5 ff bd
       0.047965348 0.16846655 0.07285946 -0.12485743
000010 81 f6 11 be e4 c3 b8 bd 2f dc 6f be 5b 03 af be
       -0.1425419 -0.09021738 -0.23423837 -0.34182248
000020 af d3 71 be 38 20 15 3f fe 4c af be 3c d5 58 bf
       -0.23615907 0.58252287 -0.34238428 -0.8470037
000030 98 87 4a bd 79 23 5f 3f aa 28 93 3f e2 0f 82 3d
       -0.04944572 0.871635 1.1496785 0.06350686
000040 a8 fb ad 3f db c5 23 40 23 60 d9 be bb a4 f5 be
       1.3592424 2.5589511 -0.4245616 -0.47977242
000050 5b a8 e2 be f6 30 2b bf 40 2b 12 bf 02 b6 b2 be
       -0.4426907 -0.66871583 -0.57097244 -0.34904486
000060 74 a0 5c bf 27 5a b1 bd 1d 7b 26 3f bc 63 34 3e
       -0.8618233 -0.08659773 0.65031606 0.1761617
000070 f1 49 ca 3e 31 36 f1 3e 04 74 85 3e 56 3e b0 bd
       0.39509538 0.47111657 0.26065075 -0.0860564
000080 b7 c2 ca bd f3 bb 05 3e cd 21 0a bf 65 90 31 bf
       -0.0990042 0.13059978 -0.53957826 -0.69360954

onnx::Conv_198 f4 [4]
000000 a8 e2 85 3e 2c 49 aa c0 86 29 3f 40 19 fe 84 bd
       0.26149487 -5.321432 2.9869094 -0.06493778

onnx::Conv_200 f4 [6, 4, 1, 1]
000000 fe b1 b7 bd f5 96 7c bf fa 6b c5 bf 0d 63 9f 3e
       -0.08969496 -0.9866784 -1.5423577 0.31130257
000010 57 28 26 3d bc 0a 82 3e 20 a4 17 3e 20 25 ce bd
       0.040565815 0.25398815 0.14808702 -0.10065675
000020 ec a1 1f 3e be 3a 3d 3e 1a b8 e8 bd 93 97 d4 3d
       0.15589112 0.1847944 -0.113632396 0.10380473
000030 ba 34 c7 be c9 96 87 3f 8e 16 b3 3f b1 af f9 bd
       -0.38907415 1.0592891 1.3991258 -0.121917136
000040 ca 53 13 be b4 ae b2 be 2f e7 8a bb ca 75 96 bd
       -0.14387432 -0.34898913 -0.004238985 -0.07346685
000050 f8 fc d8 3f 65 99 91 3f 21 a5 b7 3f 84 8a 9e 3f
       1.69522 1.1374937 1.4347268 1.2386022

onnx::Conv_201 f4 [6]
000000 53 97 17 3f df a4 8b 3f 53 b5 97 3f e8 da df 3d
       0.5921528 1.090969 1.1852211 0.10930425
000010 39 13 65 3f b4 87 83 bd
       0.89482456 -0.06422368

onnx::Conv_203 f4 [6, 1, 3, 3]
000000 6a 0c af 3d 13 d0 87 bd a6 5f c7 be 82 5a cd 3e
       0.0854729 -0.06631484 -0.3894016 0.40108114
000010 5d 23 06 3f 75 7d c8 bd 73 2b 91 3b 00 f2 c2 bd
       0.5239771 -0.09789554 0.0044302284 -0.09518814
000020 92 2a e3 be 79 1f f1 bd e9 18 9c 3f 62 cd 9a 3f
       -0.44368416 -0.11773581 1.2195102 1.2093928
000030 f5 c5 46 bf 78 07 fd be 15 2d be 3e ec ea 43 bf
       -0.7764581 -0.4941976 0.3714377 -0.7653034
000040 85 50 20 bf 36 2a 04 be 56 91 95 bf f0 72 e4 bf
       -0.62622863 -0.12906727 -1.1684978 -1.7847576
000050 6c 1a 2b bf a9 7f db be b7 d0 8f 3e ac c6 93 3f
       -0.6683719 -0.42870834 0.28088924 1.1545005
000060 c7 1f 41 3e 12 d4 82 3f 0e 6f b3 3f e2 2a 48 bd
       0.18859778 1.0220969 1.4018266 -0.04886902
000070 7c bf 95 3e b7 b0 8c 3e cd d8 a7 be 7c 5a 4f 3e
       0.29247653 0.27478573 -0.32782593 0.20249361
000080 b1 c6 ba 3e 3f 30 c9 be b1 99 1e be c4 b8 25 3d
       0.36479715 -0.3929462 -0.15488316 0.04045941
000090 25 d0 9a be 73 2f e3 3e b8 cf 29 3f 05 ae 51 bf
       -0.30236927 0.44372138 0.6633258 -0.8190616
0000a0 16 32 0f 3f 75 58 c2 3f bf 3d 8d bf e9 ae 2b bf
       0.559358 1.5183245 -1.1034468 -0.67063767
0000b0 f4 05 85 ba 1a 3b 6c be 92 34 9e be e4 59 f8 bd
       -0.0010148869 -0.2306942 -0.30899483 -0.1212652
0000c0 62 cb a2 3e ea 07 f6 3e ee 81 81 3e 12 c5 9e 3c
       0.31795794 0.48052913 0.2529444 0.01938108
0000d0 ab 72 75 be f8 92 7a be
       -0.23969524 -0.24470127

onnx::Conv_204 f4 [6]
000000 c0 a5 00 3d c3 4f 44 3e 8e 98 71 be 35 24 4e be
       0.03140807 0.19171052 -0.23593351 -0.20131
000010 42 fb 9e be b0 26 3b 3d
       -0.3105107 0.045691192

onnx::Conv_206 f4 [8, 6, 1, 1]
000000 e7 16 97 3f 38 88 df 3e 7e 11 2c bf 83 cb 82 be
       1.1803864 0.43658614 -0.6721419 -0.25545892
000010 10 cd 21 be d6 e9 cd 3d 00 24 4a be c4 90 a8 3d
       -0.15800881 0.10054366 -0.19740295 0.08230737
000020 4a 54 dd 3e 61 e8 66 3f 10 e2 43 3e 26 65 b4 bf
       0.4322837 0.9019833 0.19129205 -1.4093368
000030 07 5d 49 be ca 00 91 3d 5e ad 80 3f d4 09 b0 3e
       -0.19664393 0.070802286 1.0052907 0.34382498
000040 b5 f6 16 3e 09 37 84 3f 06 12 4c bf b1 38 9e bf
       0.14742549 1.0329295 -0.79715 -1.2361051
000050 39 df 82 bf 52 4a 83 3e 4e ee 91 3e 43 4d d1 bd
       -1.0224372 0.2564264 0.28502125 -0.10219815
000060 65 f2 90 3e b6 74 59 bf 49 9b 9d be 30 0a c0 3e
       0.28309932 -0.8494371 -0.30782536 0.37507772
000070 d2 51 bd 3f 19 fa 9a 3d e0 44 03 bf a9 0e 2f 3f
       1.4790595 0.075672336 -0.5127697 0.68381745
000080 32 0c 93 bf a2 28 a3 3e 31 d1 e5 3d e0 da 17 3f
       -1.1488097 0.31866938 0.11221541 0.5931835
000090 c7 fe d0 3e 25 44 65 3f 1a 6b 24 3e cc f9 c5 bf
       0.4081938 0.89557105 0.16056481 -1.5466857
0000a0 fa 4e 2f bf e2 5b ff be 30 8e f2 be c2 40 8b 3e
       -0.68479884 -0.4987479 -0.47374105 0.27197844
0000b0 5d 28 22 3e 9d 31 bf be a4 61 d0 bf 02 c8 3c 3d
       0.1583571 -0.3734254 -1.6279798 0.04608918

onnx::Conv_207 f4 [8]
000000 66 0a 6b be 1a a0 57 3e 58 45 2d 3e 28 c9 05 be
       -0.22953185 0.21057168 0.16920984 -0.13065016
000010 13 63 66 3e e7 07 b0 be 69 87 86 be f4 7d a2 3b
       0.22498731 -0.3438103 -0.26275185 0.0049588624

onnx::Conv_209 f4 [16, 8, 1, 1]
000000 51 5f db bd 84 e4 ea 3e 01 10 a0 3e ca f7 df 3e
       -0.107115395 0.4587747 0.3126221 0.43743736
000010 f7 7d 16 3e 44 fe 9d be f5 a9 9d 3e 58 3e 94 be
       0.1469649 -0.30858052 0.3079373 -0.28953815
000020 0d 9e c1 be 87 d8 c1 be 3a 60 b3 be e4 b4 91 be
       -0.37815896 -0.3786051 -0.35034353 -0.2845832
000030 c9 d6 70 bb d7 9e ee bd 45 51 56 bd 39 a0 01 be
       -0.0036749116 -0.1165139 -0.0523236 -0.12658776
000040 b7 67 93 3e 27 44 0c be 50 a4 39 be 46 ee 84 bd
       0.28790066 -0.13697873 -0.18129086 -0.064907596
000050 2d 09 22 bf cf 7b c8 3f 62 e2 02 3d 2f 83 97 3e
       -0.6329525 1.5662783 0.031954177 0.29592273
000060 95 53 6d bb 5f 69 17 3f 98 3f f0 3c 1b 18 e4 bd
       -0.003621315 0.5914516 0.029327199 -0.1113741
000070 0e 58 2b bf 04 de ac 3e fe f2 ae be 82 6e 4b 3e
       -0.66931236 0.33763134 -0.34169763 0.19866374
000080 68 13 9c bc ae 2a 89 3e 15 e1 34 3d 3a 12 50 bb
       -0.019052222 0.26790375 0.044159967 -0.0031749145
000090 0c ee 0d bf 24 8e 41 3f 7c 65 07 3e 2c 7a a8 3e
       -0.55441356 0.75607514 0.13222307 0.3290571
0000a0 c9 ef 37 3e f2 9d aa be 93 34 2b 3f 48 03 8e 3e
       0.17962565 -0.33323628 0.66877097 0.27736878
0000b0 fb b1 e2 be b8 a6 f4 be ca 90 1d 3f af 5c f8 be
       -0.44276413 -0.47783446 0.61549056 -0.48508212
0000c0 44 e0 84 3d c4 43 93 be ea 08 a3 3d 0b 49 09 3e
       0.06488088 -0.2876264 0.079606846 0.1340677
0000d0 a0 1e e8 be 25 89 39 bf 2a 45 1f be 9a 98 2e bd
       -0.45335865 -0.7247489 -0.15553728 -0.042626
0000e0 16 c3 c7 3d a7 51 30 bf 88 3c 3d 3f c2 d7 ba 3e
       0.097540066 -0.6887459 0.7392049 0.36492735
0000f0 c4 7a 68 bf 7c 82 f1 bd 57 25 af be a2 2a b0 be
       -0.90812325 -0.11792466 -0.34208176 -0.34407526
000100 eb 64 b6 be 70 87 93 be 2a cb ab be 4a 97 07 be
       -0.3562387 -0.28814268 -0.3355344 -0.13241306
000110 e5 28 4e 3d 6b 8f c4 bd c1 88 ca 3d a7 34 d7 bd
       0.05033197 -0.09597667 0.09889365 -0.105080895
000120 c2 61 00 3f 5a 55 a9 be 4d 67 e8 be a1 76 54 3e
       0.50149167 -0.3307293 -0.45391312 0.20748378
000130 5f 96 01 3f 4a 78 26 3f e7 8f 8a 3e 29 66 9e 3e
       0.50620073 0.65027297 0.27062914 0.30937317
000140 86 ea ab be 46 9c 36 3e 0d 95 b9 3e 61 dd 91 3e
       -0.33577365 0.17833051 0.3624653 0.2848921
000150 48 7c 1e be c7 74 31 bf da 35 e5 3d a0 90 21 3e
       -0.15477097 -0.69318813 0.11191912 0.15777826
000160 77 da 47 3e 29 d0 c7 3d 36 8d c7 3d 46 c2 b9 3c
       0.19516931 0.097565 0.09743731 0.022675645
000170 13 cf d2 bd 61 88 e7 3c 86 95 8e 3e a9 0b 4d 3e
       -0.102934025 0.028263273 0.27848452 0.20023979
000180 6c b8 43 bf 28 e8 5f be 23 ea b1 3d 6a 30 d4 be
       -0.7645328 -0.21865904 0.08687236 -0.41443187
000190 b3 a0 8f be 5c e6 9a be ad 02 1f 3e f0 6c 88 bd
       -0.2805229 -0.30253875 0.15528364 -0.06661403
0001a0 22 d4 4c be d9 95 ca be f3 90 ad 3e 1d 36 d3 3d
       -0.20002797 -0.3956745 0.3389965 0.10313056
0001b0 6a 66 b5 be ea 29 c6 be 2d 8c f8 be b9 e2 9d be
       -0.35429698 -0.38703853 -0.48544446 -0.30837038
0001c0 2a 94 76 3d 85 f0 46 3e 68 d1 00 bf bd ae 0c 3e
       0.060199894 0.19427688 -0.5031953 0.13738532
0001d0 44 ed 2e 3d d0 c8 63 be c6 07 2f 3e 4e df 23 bf
       0.042706743 -0.22244573 0.17092809 -0.6401261
0001e0 b0 e0 d8 be 8a 9e 09 3d f3 5f 39 be 71 90 68 be
       -0.42358923 0.03359846 -0.18103008 -0.2271135
0001f0 ca 58 99 3e 06 23 e7 be 30 90 c0 be 17 d0 de be
       0.29950553 -0.45143908 -0.37610006 -0.43518135

onnx::Conv_210 f4 [16]
000000 a0 0f 0b 3d 66 a9 e6 3e 7c e6 bb be 58 67 bf 3e
       0.033950448 0.45051116 -0.36699283 0.37383533
000010 08 4b 02 be 28 7f a1 3d 99 16 a9 3f ec e1 32 3f
       -0.12723935 0.07885581 1.3210021 0.6987598
000020 1c 7d 5b 3e dd 80 63 bf a6 f8 a8 3e 0a ee da 3e
       0.21434444 -0.88868505 0.33002204 0.42759734
000030 bc 25 ca 3f a6 70 e9 3e a6 5d 61 3f 78 30 96 3f
       1.5792766 0.45593756 0.8803352 1.1733541

onnx::Conv_212 f4 [16, 1, 3, 3]
000000 0b dc 37 be 6c fe 86 bd d5 22 6f 3d 9f 74 a1 be
       -0.17955033 -0.06591496 0.058382828 -0.31534287
000010 9e d5 bd be 86 aa cc be 06 29 ab be d8 18 ca be
       -0.3707704 -0.3997385 -0.33429736 -0.3947208
000020 d4 de 20 bf 35 83 4a bf 21 53 9b bf c7 c2 f1 bd
       -0.6284001 -0.79106456 -1.2134744 -0.11804729
000030 22 c7 ac bf f7 f4 f9 bf 7f 61 f9 bf d3 5f cc bf
       -1.349827 -1.9527882 -1.9482878 -1.5966743
000040 3f a6 cf bf 15 f2 02 c0 77 72 a2 bc 8b 42 b7 3b
       -1.6222609 -2.0460255 -0.019829972 0.0055926493
000050 03 74 8d bd 4c 88 7d bd 66 47 18 3e 6b 0f c3 3e
       -0.06906893 -0.06189756 0.14870986 0.380977
000060 84 eb 12 bc 15 1a 4e 3e d5 b1 96 3e f8 90 0f 3e
       -0.008967284 0.20127137 0.2943255 0.14020145
000070 0c 0a 04 3e 27 b7 8d 3e a2 ad ef 3d 2f cc b8 3e
       0.12894458 0.27678797 0.1170304 0.3609328
000080 01 0c f8 3e be db 4e 3d ce 9f d9 3e 60 67 5f 3e
       0.48446658 0.05050253 0.42504734 0.21816778
000090 9e 7f 45 3e 35 96 1c 3c 2b 2e b2 be f9 c3 a8 3e
       0.19286963 0.0095572965 -0.34800848 0.32962015
0000a0 10 7b 08 3f 44 f8 1a be 0c 74 88 3c e3 f8 3d be
       0.5331278 -0.15133768 0.016656898 -0.18551974
0000b0 8c 2e 8d 3d ea 40 87 bd 5b d7 2e 3e 95 ec 81 3e
       0.06893644 -0.06604178 0.17074339 0.2537581
0000c0 49 b8 ae 3d 26 29 26 3f 82 24 29 bd 6f f8 b5 be
       0.08531243 0.6490654 -0.041294582 -0.35541102
0000d0 90 e0 32 3e 63 7f ae bc df 03 8b 3e c8 c8 a9 be
       0.17468476 -0.021300977 0.2715139 -0.33160996
0000e0 fe e4 ca bf 79 46 0a 3f 10 23 a7 be 2c 09 ac be
       -1.5851133 0.5401378 -0.32643938 -0.33600748
0000f0 11 59 cb 3e d0 4c 66 3e 24 a7 25 be 36 4d 3c be
       0.3971639 0.22490239 -0.1617704 -0.18388829
000100 f1 82 cf 3d 8a 86 27 3f 63 ca c3 be 8f de 92 bd
       0.10132397 0.65439665 -0.38240346 -0.07171356
000110 7e cb 41 3f b2 00 75 bd b1 02 75 be 42 0b b3 3d
       0.7570113 -0.059815116 -0.23926808 0.08742382
000120 0a 43 ab 3e 3e 99 d6 3e aa 7a ab c0 be 98 70 be
       0.33449584 0.4191379 -5.3587236 -0.23495767
000130 3e da 89 be 7c c5 e1 bf 30 d4 a6 3f 2a b2 1c c0
       -0.26924318 -1.7638392 1.3033504 -2.4483743
000140 b0 19 81 c0 a8 ef 84 3e 17 63 ad 3e 48 97 38 3e
       -4.0343857 0.25964093 0.33864662 0.18026459
000150 fa de d3 3e 33 35 8c 3e 4d 1d 2e 3e 80 ce 1d be
       0.41381055 0.27384338 0.17003365 -0.15410805
000160 56 a8 00 3d 7f 21 a7 3e 76 55 71 be 3a 69 0d 3f
       0.031410538 0.32642743 -0.23567757 0.5523869
000170 8d e5 15 bd 51 81 f3 be 73 3c 36 3f 6f 18 77 bd
       -0.03659587 -0.47559598 0.7118599 -0.060326036
000180 13 f7 b1 be cf 2d 18 3f 38 f2 ce be 4d 8a 97 3c
       -0.34758815 0.594449 -0.40419173 0.018498564
000190 6c 9b 0b bf 49 5b ad be b0 14 3a bf 6f 27 8b bf
       -0.5453403 -0.33858708 -0.72687817 -1.0871409
0001a0 92 ba 49 bf eb 71 8e bf 06 00 9c bf 26 7d 4f bf
       -0.7880031 -1.1128515 -1.2187507 -0.81050336
0001b0 da 25 3a be c0 0b a9 be 35 d8 14 be 2b 28 c1 3e
       -0.18178502 -0.33016777 -0.14535601 0.37725958
0001c0 16 5d 3e bc d6 3c c6 be 8a 33 d8 3d bc 76 4a be
       -0.011618873 -0.3871829 0.10556705 -0.19771856
0001d0 b4 5e de be 64 b8 57 3f 03 ae 54 3f f4 58 fa 3e
       -0.43431628 0.8426573 0.8307802 0.4889599
0001e0 49 e6 c9 3e c5 65 2d 3f 75 76 72 bf b4 c1 00 bf
       0.39433506 0.67733413 -0.94712 -0.5029557
0001f0 2b 82 76 be b2 6e 02 bf c9 79 4b 3e 3f d1 77 be
       -0.24073093 -0.5095016 0.19870676 -0.24200915
000200 41 37 cb 3d d3 36 04 3e a5 94 2c 3f f8 a8 c4 3e
       0.09922648 0.12911539 0.67414314 0.38410163
000210 71 6f c6 be b2 28 b7 be 13 dc ea be 22 74 63 be
       -0.38756898 -0.35773236 -0.45871028 -0.2221227
000220 f3 a1 d4 be 5c bf 20 be db 64 68 3e 46 06 b1 be
       -0.41529807 -0.15697998 0.22694723 -0.345751
000230 c7 d2 5f bf cd 71 42 3e 86 77 09 3e ea f6 04 bf
       -0.87430996 0.18988724 0.13424501 -0.5193926

onnx::Conv_213 f4 [16]
000000 47 f7 86 3f cb 82 27 40 b0 c9 36 3d 84 cb 9d be
       1.0544213 2.617358 0.044625938 -0.30819333
000010 a0 b4 45 bc dc 36 cb be f0 8b 8d 3f 88 69 e3 be
       -0.01206699 -0.39690292 1.105833 -0.4441645
000020 a8 37 81 3f 98 3c 94 bd b2 28 f2 be 5c 1f b3 40
       1.009511 -0.0723812 -0.47296673 5.597578
000030 94 74 cc 3f 72 af 2c 3e f6 fe bd bd 80 ee e3 3f
       1.5973077 0.16863802 -0.092771456 1.780716

onnx::Conv_215 f4 [8, 16, 1, 1]
000000 c0 1f 00 3d 79 ff 6f be 3c f4 03 bf ba 95 08 3f
       0.03128028 -0.23437299 -0.5154455 0.53353465
000010 fa 20 77 be 9f 72 b3 bb c0 75 c4 be 68 32 03 bf
       -0.24133673 -0.0054763104 -0.38371086 -0.5124879
000020 88 07 5f 3d cd 39 0d bf 1e 79 c4 3e a6 4e 86 bd
       0.05445054 -0.5516632 0.38373655 -0.0655797
000030 dd 5c bf be 27 aa ca be 3a 5d 3d be 74 76 9f 3e
       -0.37375537 -0.3958294 -0.18492594 0.3114506
000040 b1 a3 af be b1 10 68 3e 28 b0 b5 3c cb 0f e4 3c
       -0.34304574 0.22662617 0.022178724 0.027839562
000050 cd 78 05 3c 1d 55 ae 3e e5 dc 70 3e 23 59 3b 3e
       0.008146477 0.3404931 0.23521765 0.18295722
000060 ad 91 71 3e b0 99 8a be d7 11 ed 3d 52 ed d0 bd
       0.23590727 -0.2707038 0.11575668 -0.10201515
000070 a7 0e c4 3c 2d 94 42 3e 2f 19 98 3e 2d e5 72 be
       0.023932768 0.19001837 0.29706714 -0.23720236
000080 02 c9 87 3d 27 5f 89 be 52 4d bf bd ae 38 1f 3e
       0.06630136 -0.26830408 -0.093409196 0.15548965
000090 c5 07 1d be c8 a3 57 bd 33 e8 3b be be 25 61 bd
       -0.15334995 -0.05264643 -0.18350296 -0.054967634
0000a0 a7 9d 12 be e7 e1 ce be f5 92 e5 3d c7 18 b6 3e
       -0.14317952 -0.40406725 0.112096705 0.3556578
0000b0 f0 70 7a be 26 d9 6c be ab 11 c7 bb 3d 4c 91 be
       -0.24457145 -0.2312971 -0.0060751042 -0.28378478
0000c0 18 24 a2 3e 61 20 2f 3e e1 fc e8 be db 50 37 be
       0.31668162 0.17102195 -0.4550543 -0.17901938
0000d0 46 f7 64 be 6c fd f1 bc 73 99 39 be 6a e1 40 be
       -0.22359952 -0.029539786 -0.18124942 -0.18835989
0000e0 14 2c 62 be 4c 5c a9 be d5 d6 cc 3d e5 69 55 3e
       -0.22087127 -0.3307823 0.100019135 0.20841177
0000f0 f1 53 d4 bd 93 ee 89 3d 94 4f 19 be bf 8e 1f be
       -0.10367573 0.067349575 -0.14971763 -0.15581797
000100 65 9b da 3d e7 68 de 3d a6 23 a6 3c c5 0d 49 be
       0.106741704 0.10859852 0.02028067 -0.19634159
000110 e4 11 12 be 3d 35 a5 bd 5b 99 a1 3d cf 01 fb bc
       -0.14264637 -0.08066795 0.07890578 -0.03064051
000120 04 12 27 3e 9c 84 ce 3d cd 2a 34 be 3b 24 06 3f
       0.16315466 0.10083887 -0.17594452 0.52399033
000130 b7 6b 2e be 54 d5 14 be 6f 52 1a 3e 23 94 7d be
       -0.17033277 -0.14534503 0.15070508 -0.24763541
000140 48 eb 82 bd 68 96 b9 3f 14 4d 9a bc 32 61 a6 bd
       -0.063925326 1.4499025 -0.018835582 -0.08124007
000150 aa c5 34 3e fd 72 e9 3d 67 01 8d 3e 15 dd 1a 3e
       0.17653528 0.113988854 0.27540132 0.15123399
000160 74 f9 62 3e f8 5b 13 be 5c 49 fe bd f9 d1 17 bd
       0.22165471 -0.14390552 -0.12416336 -0.03706548
000170 e4 04 8e bc 98 c4 29 3d 30 26 c6 3d 0b 17 8b bd
       -0.017336316 0.041447252 0.096752524 -0.067915045
000180 ed 5e ce bc 0e ea 82 be 02 db 99 bd 98 4e d5 3e
       -0.025191749 -0.25569195 -0.075124756 0.41661525
000190 df ff d4 bd 30 56 48 3e 15 1e a5 3d 49 90 2f 3d
       -0.10400366 0.19564128 0.08062378 0.04286221
0001a0 5c af 72 3e b0 ad 98 3d f2 d0 0f 3e 33 61 28 be
       0.23699707 0.07455003 0.1404455 -0.16443329
0001b0 12 f2 1a bd 11 35 3d be 46 ab 54 3e 0f 97 78 3e
       -0.037828512 -0.18477274 0.2076846 0.24276374
0001c0 0a 18 8b bf c7 1c 82 bd e7 e5 c0 3e 68 91 d1 3e
       -1.0866711 -0.06353145 0.37675402 0.4093125
0001d0 cd 44 ca 3e 0b b9 7f 3e 65 93 86 3e d0 f3 b5 3e
       0.39505616 0.24972932 0.26284328 0.35537577
0001e0 4e a9 45 be 58 58 21 be 71 32 11 3f f8 c9 7b bf
       -0.19302866 -0.15756357 0.5671759 -0.98355055
0001f0 8b ae 90 3e b6 61 79 3e b1 2e 54 3e 0e b7 69 3e
       0.28258166 0.2435368 0.20720936 0.22823736

onnx::Conv_216 f4 [8]
000000 d9 2a a1 3f 67 6a 1b bf 32 85 a1 3f 17 3b 68 3f
       1.2591201 -0.6070923 1.2618773 0.90715164
000010 70 eb 50 bd e8 44 31 c0 38 79 9c be 7d bd 67 bf
       -0.05100578 -2.7698307 -0.30561233 -0.9052351

onnx::Conv_218 f4 [16, 8, 1, 1]
000000 82 7e 22 3e d0 00 09 3c e3 fb ac bd f3 a5 4f bb
       0.15868571 0.00836201 -0.08446481 -0.0031684607
000010 73 c1 2f be a5 c3 85 b9 d3 40 61 3d 62 db 21 3e
       -0.17163639 -0.00025513503 0.05499346 0.15806344
000020 77 8f b3 3c 74 87 f6 3d 81 c3 5f 3c 06 8d 32 3d
       0.021918995 0.120375544 0.013657452 0.04359152
000030 aa e1 2d bd 04 0a ae 3c 99 57 c5 3c df cf f4 3d
       -0.04245154 0.02124501 0.024089621 0.11953711
000040 0f 11 0a be ec a1 85 bb 2c d4 df bd 2a 0c 77 be
       -0.1348307 -0.0040781405 -0.109291404 -0.24125734
000050 c4 a3 68 3c 94 a5 8f bd 8c e5 00 3e f3 6b 04 3c
       0.014199201 -0.070140034 0.12587565 0.008082378
000060 ce 36 01 3f 00 78 ab 3a 3f 73 56 3e 6c 03 e0 bc
       0.5047425 0.0013082027 0.209424 -0.027345382
000070 0c d8 06 be 96 34 b7 3b 5e e1 8b 3d 82 d4 1a 3f
       -0.13168353 0.0055909855 0.06830095 0.6048051
000080 c2 89 79 3e 5c 1e 11 3e e6 0f 1e 3e 40 3d 09 3e
       0.24368957 0.14171737 0.15435752 0.13402271
000090 74 a5 0c bd 80 b3 a4 bd ba f5 b8 3d 95 06 a0 3d
       -0.034337476 -0.080420494 0.090312436 0.078137554
0000a0 e5 db 98 3d e3 b7 b5 3d 00 26 07 3e 5b fb 80 3e
       0.074638166 0.08872964 0.1319809 0.2519177
0000b0 fe 16 1a 3e 09 dc c9 3d 8d 24 61 bd 5d 6b 4f be
       0.15047833 0.098564215 -0.0549665 -0.202558
0000c0 0c 0d bd 3e 11 dd fc 3e b9 b1 2f 3e 5c 00 7f 3e
       0.36924016 0.4938741 0.1715764 0.24902481
0000d0 d3 e6 e5 3d 29 eb 42 3f d0 68 9b 3e 13 28 8b 3e
       0.11225667 0.76140076 0.30353403 0.27179012
0000e0 c9 7f 11 3c fe e3 8a be 81 c6 a0 bd df 1a a2 be
       0.008880564 -0.2712707 -0.078503616 -0.31661126
0000f0 9b 52 2b be dd 15 81 3e b3 1d 20 bd 4a ce 77 3e
       -0.1673073 0.25211993 -0.039090823 0.24199787
000100 90 aa 97 3e 9a dc 1f bd 8f 6a 87 3e 4a a9 4f bd
       0.29622316 -0.03902874 0.26448485 -0.050698556
000110 7a fe c6 3c 9d 60 6a be 61 64 42 3e 03 e9 01 be
       0.024291266 -0.22888418 0.18983604 -0.12686543
000120 78 b9 cd 3e 7e de fd 3d 3d 7e 83 be 68 9a 43 be
       0.40180564 0.12395953 -0.2568225 -0.1910187
000130 6c 7b b9 be 89 9e c2 3e 2d bd b3 3e 17 a8 86 3d
       -0.36226976 0.38011578 0.35105267 0.06575029
000140 a9 9d 96 3d 1b a8 d0 be 27 ad 11 3e ba 41 ba bd
       0.0735429 -0.40753254 0.14226209 -0.090945676
000150 a6 25 0e be 1b 2c a4 bf 56 2a 5c 3e 45 ab 81 3d
       -0.13881549 -1.282596 0.21500525 0.06331495
000160 98 14 81 3c a1 92 b1 3c 00 00 9e 3c 69 bd 27 be
       0.01575689 0.021676363 0.01928711 -0.16380848
000170 63 4a ce 3b a9 de 28 3c 4a 97 fa 3d 8a 70 dd 3d
       0.0062954887 0.010306993 0.12235887 0.10812481
000180 e1 0c 0a bf c7 71 f1 bd 1c 7d 91 bd fb d3 73 3d
       -0.539259 -0.117892794 -0.07103941 0.059528332
000190 1b 85 70 3f 00 ee 6c 3d ac f3 c3 be 2e 35 04 bf
       0.939531 0.057844162 -0.38271844 -0.51643646
0001a0 8c 2e 16 3e 74 6b 96 3d 63 9f 3b 3b 8b aa 44 bd
       0.14666194 0.07344714 0.0028628937 -0.048014205
0001b0 86 f0 e7 be 50 cf e7 bd 4d 51 41 3e b8 10 11 3f
       -0.45300692 -0.113188386 0.1887867 0.56666136
0001c0 60 eb 1c bd 39 e9 b2 be 57 a7 ae 3e 88 56 5a 3e
       -0.03831041 -0.3494356 0.34112045 0.21322072
0001d0 78 f5 50 be 50 11 db be 38 f5 cd 3c de 44 e1 be
       -0.20406139 -0.42786646 0.025141343 -0.43997854
0001e0 95 b6 9a ba b4 ef 1e 3d ab 62 d1 3c 65 be 50 bd
       -0.0011803681 0.038802817 0.025559744 -0.050962824
0001f0 a6 18 05 bd 6b 34 78 bc 64 3d ac bb e3 9e 0f 3e
       -0.03249421 -0.015149216 -0.005256342 0.14025454

onnx::Conv_219 f4 [16]
000000 5e 50 93 3f ab 08 9d 3f 00 a1 69 3f 79 cf 6f 3e
       1.1508901 1.226827 0.9126129 0.23418988
000010 e8 d6 87 3f 04 d1 34 3f 9c 53 b0 3e 05 c2 11 3f
       1.0612459 0.7063143 0.3443879 0.56936675
000020 88 ae fa be d8 f4 90 3d d6 dd 03 bd 85 e0 5f 3f
       -0.48961282 0.0707795 -0.03219398 0.87451965
000030 63 fc ab 3c 17 87 b8 3e 2b eb 6c 3e 0b ae 99 3f
       0.02099437 0.36040565 0.23136584 1.2006239

onnx::Conv_221 f4 [16, 1, 3, 3]
000000 1c 57 8d 3e 05 f3 16 3f ee dd 50 3e 0a 51 cc 3e
       0.27605522 0.5896457 0.2039716 0.39905578
000010 a1 87 39 3f eb f5 20 3f c4 1f 05 3e 53 9b 0a 3d
       0.7247258 0.6287524 0.13000399 0.033839535
000020 fd 33 11 3e 92 75 06 bf 21 c4 9c bf 28 50 51 bf
       0.14179988 -0.5252315 -1.2247354 -0.81762934
000030 8c 00 07 bf ac 37 56 be 96 69 ff 3e 0d 14 5c be
       -0.5273521 -0.20919675 0.49885243 -0.21492024
000040 19 17 c9 3e 40 b2 6c 3f 84 4c 4c 3c 01 15 c0 3c
       0.39275435 0.9245949 0.012469415 0.023447515
000050 ea 7f 6d bf 8c d1 03 be 2b 6a 22 bf bf 74 93 bf
       -0.92773306 -0.12872905 -0.6344325 -1.1520003
000060 9b 32 be bd 0d f4 a9 be d9 4d e4 be cf 3f 2b 3b
       -0.09286996 -0.33194008 -0.44590643 0.0026130562
000070 9f 21 29 3c 7d a8 98 3c 29 cf 80 3c 67 07 6d bc
       0.010322957 0.018635029 0.015723782 -0.014467097
000080 ae ac 84 3c 7f 21 9e 3c c0 b7 49 3c 07 22 8d bc
       0.016195621 0.019303082 0.012311876 -0.01722814
000090 45 32 e9 be 62 3b d5 3d 56 6e 41 3e 07 90 6b bf
       -0.45546165 0.10411717 0.18889746 -0.92016643
0000a0 d3 26 1e 3f 03 1d c1 3e de 17 6c be 9d db 8d 3f
       0.6177799 0.37717447 -0.2305598 1.1082646
0000b0 49 23 e1 bd 27 46 bd be 34 f7 a8 be c8 84 a5 be
       -0.10993058 -0.36967584 -0.330011 -0.32327867
0000c0 f9 ef a0 be 87 cf 40 bd 3c 58 0f be 5b de 02 bf
       -0.31433085 -0.047072913 -0.13998502 -0.5112054
0000d0 43 90 83 be cc 9f a4 bc f6 b4 93 3e 49 9e 3f 3e
       -0.25696 -0.020095728 0.28849 0.18712725
0000e0 06 c5 3b be 1c 0a b0 3d 54 58 e0 3e 01 c2 c7 3d
       -0.18336877 0.08595678 0.4381739 0.097538
0000f0 22 f8 b3 3d 32 d3 0f 3e 6e 0b af bc ab ef 90 3d
       0.08787562 0.14045408 -0.021367755 0.07076963
000100 16 56 1c 3e 31 f0 a6 3c 26 9c 11 be 75 18 2c 3e
       0.15267214 0.020378204 -0.14219722 0.16806205
000110 15 c4 a5 3e 76 7c 04 bf 93 87 64 be de 58 15 3e
       0.3237616 -0.5175241 -0.22317342 0.14584681
000120 c1 4e 53 bd b7 3d 0d be 8f 49 f7 bb 77 e5 81 bd
       -0.051588777 -0.13793074 -0.0075466107 -0.06342595
000130 24 21 db be 1d bc a5 be 50 41 6c bd 52 88 ab be
       -0.42798722 -0.32370082 -0.057679474 -0.33502442
000140 f5 14 93 be 6c f4 29 3e df ff 86 bc 6c 59 35 3d
       -0.28726926 0.16597146 -0.01647943 0.044274732
000150 af f7 a3 be e2 7e ab 3e 2f 9a 1c bf ed 12 16 3f
       -0.32024905 0.3349524 -0.61172765 0.5862263
000160 62 56 0f 3e 8c 12 31 3e eb fe 97 3d 8b 98 ff bd
       0.13997796 0.17292231 0.074216686 -0.12480267
000170 7b 6c 7d be ad d8 b2 bb dd 3a b6 bd f3 23 c0 be
       -0.24748413 -0.0054579587 -0.08897946 -0.37527427
000180 9d 01 d7 bd 37 21 91 be 08 ba 0b be d0 01 c4 be
       -0.104983546 -0.28345653 -0.13645184 -0.38282633
000190 b0 91 04 be 2a 86 e6 bd 87 04 a3 3e c9 fe 97 3f
       -0.129462 -0.112560585 0.31839392 1.1874629
0001a0 89 c8 82 3f 0a ef 9a bd 3e 25 c1 be f1 2c e6 be
       1.0217448 -0.07565124 -0.37723726 -0.44956163
0001b0 d5 6b 51 3e 60 c9 98 3d bc c5 1e be 59 9d e9 3e
       0.20451291 0.07460284 -0.15505117 0.4562786
0001c0 f4 7b 5b 3e b5 07 e5 bd dd 5b 93 3e 99 81 df 3a
       0.21434003 -0.111831106 0.28781024 0.0017052173
0001d0 40 81 93 bc 6d 38 1a bd 80 ac 9e 3e 8b 66 a1 3e
       -0.018005967 -0.037651468 0.30990982 0.31523547
0001e0 b9 b1 df bd b1 6c 47 bd 69 67 5c be ce de 81 be
       -0.1092257 -0.04868764 -0.21523823 -0.253653
0001f0 7a e2 cb be ac 08 e5 be 88 88 8f bd cf 71 39 3e
       -0.39821225 -0.4473318 -0.07008463 0.18109821
000200 d1 8a e9 3e ef 34 43 be 5b 84 44 bc 77 d2 72 3e
       0.4561372 -0.19063161 -0.011994447 0.23713098
000210 95 17 93 be 60 35 a1 be 64 46 53 be 18 20 1e 3e
       -0.2872893 -0.31486034 -0.2063232 0.1544193
000220 fc 54 6a bd 45 1e 96 bd 91 b7 15 be db 91 98 bf
       -0.057209954 -0.07329992 -0.14620806 -1.1919512
000230 20 0d a2 bf f9 c1 13 bf 27 16 f3 bf cb 3e a2 bf
       -1.2660255 -0.57717854 -1.8991135 -1.2675413

onnx::Conv_222 f4 [16]
000000 3a 77 07 c0 96 cf de 3f 69 6f 5d 40 8c 8b 59 be
       -2.116652 1.74071 3.459925 -0.21244639
000010 7e f6 c6 bf 9a 1a f9 3f 65 94 3b bf 58 75 a2 bc
       -1.5543973 1.9461243 -0.7327331 -0.019831344
000020 1b f3 51 40 c2 2b af be 57 73 b2 3f 1c 62 66 bf
       3.280463 -0.34213072 1.3941449 -0.89993453
000030 9e cd 52 bf 0c d8 22 3f ce 60 63 3f 0d 88 f9 40
       -0.82344997 0.6361091 0.8881959 7.7978578

onnx::Conv_224 f4 [12, 16, 1, 1]
000000 e4 3e 66 be 8a 8a 44 bd 19 d3 1f 3f 43 76 50 be
       -0.22484928 -0.047983684 0.62431484 -0.20357613
000010 bc 2b ea 3e 15 5a 1c bf 32 24 0b 3e 90 75 29 be
       0.45736492 -0.61074954 0.13588026 -0.16548753
000020 72 25 52 3e cb 2d f8 3d 4c bb 7d bd c5 bf c7 be
       0.20522097 0.12118109 -0.0619462 -0.39013496
000030 1a 0f 50 be ca 8d 05 3e e4 34 fb 3e 98 93 37 3e
       -0.20318261 0.1304237 0.4906379 0.17927396
000040 2a f1 c9 3e 9a 55 96 bd 46 da 0a 3e 35 4c cc 3d
       0.39441806 -0.07340546 0.13559827 0.09975473
000050 27 e0 9f 3e 1c 78 ec 3d e0 8d 28 be 17 b1 0e 3e
       0.31225702 0.115463465 -0.16460371 0.13934742
000060 cd de a7 bf 59 8f 53 be 36 c8 94 bf f6 bf d2 3c
       -1.3114868 -0.20660152 -1.16236 0.0257263
000070 2f c8 7e 3e 42 bf 7a 3e 78 f1 98 bd 96 8b 9a bd
       0.24881051 0.24487022 -0.074679315 -0.07546155
000080 7b 00 00 3f 28 46 1b bf 45 07 35 bf bd da 81 bb
       0.50000733 -0.60653925 -0.7071422 -0.003962843
000090 38 09 20 bf 8d 8f 33 be b5 f4 9a bd a3 8b 80 3d
       -0.62514067 -0.17535229 -0.075662054 0.062766336
0000a0 5b e0 96 3e 5d f2 0d be d8 26 75 3e 99 f8 95 3e
       0.29468045 -0.13861986 0.23940599 0.29291227
0000b0 82 6b ed 3e b5 e1 08 3e 48 1c fc 3e 9b f3 c4 be
       0.46371084 0.1336735 0.49240327 -0.38467106
0000c0 c6 c1 57 be 7d 1d d2 3e 32 33 9a be 67 b7 f8 3d
       -0.21070012 0.41038123 -0.30117184 0.12144356
0000d0 39 13 5b 3e a4 1c dc 3e c0 7f 13 3f c6 c4 a1 3d
       0.21394052 0.429906 0.57616806 0.0789886
0000e0 9d 2c c2 3e 23 2e 95 bb 40 64 47 3d e4 7b f2 3d
       0.37924662 -0.004552619 0.04867959 0.118400365
0000f0 c4 10 89 bd 00 31 92 3e af 97 bb 3d be d0 19 be
       -0.06692651 0.2855301 0.09159791 -0.15021035
000100 9a 09 4b 3e f3 ae a3 bd 14 8f 09 3e dc d8 82 bd
       0.19827881 -0.07992353 0.13433486 -0.06389019
000110 2b 48 43 3e 19 d5 b1 be 88 17 b4 be 6f 7b 97 bd
       0.19070499 -0.34732893 -0.35174203 -0.0739659
000120 28 21 12 c0 d9 fb 9b 3e cc 66 47 be db 45 e0 be
       -2.2832737 0.30465582 -0.19472808 -0.43803295
000130 30 27 14 3e 42 c2 0c bf 7a ca 49 3e 7e c2 94 3e
       0.14468074 -0.54983914 0.19706145 0.29054636
000140 8b a2 dd be e9 d1 c0 bd 3f bd 9c 3c 61 c9 07 3d
       -0.43288073 -0.09415037 0.019133208 0.033151034
000150 8f 16 17 bf 0b 50 f5 3c 97 df 7f be fd 04 1c 3d
       -0.59018797 0.029945394 -0.24987637 0.038090695
000160 b9 22 ac 3e b4 4f 2c be 9e 44 ef 3d 97 65 b3 bd
       0.3362024 -0.1682728 0.116830096 -0.08759611
000170 46 0e b4 3e f6 65 8d 3e d0 37 3a bf dd 80 26 3f
       0.3516714 0.27616853 -0.72741413 0.6504038
000180 b1 6e 80 3d dd 99 3d bd 0f 2f df be e7 2d 16 3e
       0.06271113 -0.046289314 -0.4359059 0.14665948
000190 96 6a d6 be f7 9c 53 3e ca f0 d7 bb 4f 65 21 3f
       -0.41878194 0.20665346 -0.0065899836 0.6304521
0001a0 9f aa 09 3e 9c 79 46 3e ea 8a f3 3e c8 78 4c 3e
       0.13443993 0.19382328 0.4756692 0.1996795
0001b0 1c 7f f4 3d 4f 21 55 3e 7c da 1b 3f a7 99 60 3f
       0.11938307 0.20813487 0.60880256 0.87734455
0001c0 09 7f 8c 3d 90 fd 00 bd 64 1b 86 bc 1b 1c a4 3c
       0.068601675 -0.031491816 -0.016370483 0.020032933
0001d0 04 99 2f bc 84 de 65 3c 4d 6c 38 3d 8f 7f c2 bc
       -0.010717634 0.014030103 0.04502516 -0.023742465
0001e0 d4 03 6d 3d 4e ab d2 3b e5 4d 26 3b 7b 6e 71 3c
       0.05786498 0.0064291125 0.0025376019 0.014735813
0001f0 74 2e 21 bd db 84 9a bc c2 a6 37 bc f6 ca 6b bd
       -0.03935094 -0.018862179 -0.011209192 -0.057566606
000200 a6 64 13 bf 91 be 19 3e 6a 23 5f 3e 57 a4 7b 3d
       -0.5757545 0.15014102 0.21790853 0.061436024
000210 f7 20 58 bd 2b dd 9f be b0 80 62 bd 6f 97 5a bd
       -0.052765813 -0.31223425 -0.055298507 -0.053367075
000220 0e ba 62 be c5 ce 8b 3c 16 4c 88 bd ed 53 92 3d
       -0.22141287 0.017066369 -0.06655137 0.07144914
000230 a1 f0 1d 3e a1 2d 95 bd 8d ea b2 3d 29 06 15 3e
       0.15423824 -0.07284094 0.08736143 0.14553131
000240 a4 d3 de bd 29 98 c9 3e 55 f1 4c bd 24 63 1c bb
       -0.10880211 0.393739 -0.05003484 -0.0023862803
000250 e1 9c 2f 3e 6f ab 8c 3e df 97 e0 3d fe a7 6d 3e
       0.17149688 0.27474543 0.10966467 0.23208615
000260 5e cf a5 3e 66 ef 4e bd ea c4 a3 3d 12 29 1b 3e
       0.3238477 -0.050521277 0.07996543 0.15152386
000270 d5 06 dd 3c ab 26 43 3e 98 0f 27 3e bf 3d 02 be
       0.026980797 0.1905772 0.16314542 -0.12718867
000280 2e 1c 32 3c 53 0b c2 3e 62 c9 ae be 46 b1 a0 bc
       0.010870976 0.37899265 -0.34138018 -0.01961578
000290 9d 48 f9 bd 20 ab ce 3d 5d ca 85 bd dc 34 79 3e
       -0.12172053 0.10091233 -0.06532738 0.2433657
0002a0 2b 6a 87 be b5 d2 09 3e 4f 13 70 3d 00 c9 7b bd
       -0.26448187 0.13459285 0.058612164 -0.061470985
0002b0 61 5e 1e 3f e2 9c f2 bd 5e cd a6 3b a5 95 9b 3e
       0.6186276 -0.11846329 0.0050903996 0.30387607
0002c0 9f d2 2c bf 3f c7 4f 3f 0c 63 a5 3c 17 7f 64 bd
       -0.6750888 0.811634 0.02018883 -0.055785265
0002d0 10 cc 92 3d 97 8a 16 3d 90 39 cd 3d 33 0d 76 3e
       0.07167828 0.036753263 0.10020745 0.24028473
0002e0 47 25 82 bf 1a 85 75 be 3f 01 23 be 10 c9 01 3f
       -1.0167626 -0.23976555 -0.15918444 0.5069742
0002f0 47 a1 b6 3e a4 ca 17 3e 58 df cb bc cf d4 a1 be
       0.3566992 0.14823395 -0.024886772 -0.31607673

onnx::Conv_225 f4 [12]
000000 12 41 45 bf 41 47 83 40 95 67 8b bf dc 6a c3 bf
       -0.77052414 4.102448 -1.0890986 -1.5266986
000010 fb c8 da 40 98 5c 88 be 1e 94 03 c0 9a 1b 45 be
       6.8370337 -0.26633143 -2.0559154 -0.1924881
000020 67 18 9f 3f db a8 c3 bf e9 f2 a6 3e d3 7c 5b 40
       1.2429322 -1.5285906 0.326072 3.4294937
