model_checkpoints/experiments/overall/onnx/fastscnn_256a0.125t2r2pp0_noinit.onnx (onnx, 34288 bytes, 63 tensors)

feature_fusion.conv_high_res.weight f4 [16, 8, 1, 1]
000000 d3 34 6d 3f f4 50 59 3e 6e ab 4d bd f6 1c 4e bc
       0.9265873 0.21222287 -0.050212316 -0.012580147
000010 ff 37 21 bf b4 9f 3b bf 4f 2e e0 bf 56 a4 f3 3b
       -0.6297607 -0.7329056 -1.7514132 0.007435362
000020 58 b3 55 bf 49 da 98 3e d3 ea 97 3d dd b4 ca bd
       -0.8347678 0.29854038 0.07417836 -0.09897778
000030 b2 0f e8 3e 80 33 4d 3f 37 85 3b 3f ab 03 09 bf
       0.45324475 0.8015671 0.73250145 -0.5352122
000040 39 7b 14 3e cc b2 bc 3e c6 96 05 bf 63 03 d9 ba
       0.1450013 0.3685516 -0.52183187 -0.0016556795
000050 77 55 2e bf 0f b8 f6 be 00 1c 92 be 72 fa eb 3e
       -0.6809916 -0.481873 -0.28536987 0.46089512
000060 7d 9c b2 3e bf e9 23 bf f9 28 5b 3f 85 69 b0 be
       0.34885016 -0.64028543 0.85609394 -0.34455505
000070 a9 18 16 3f 05 5c d9 3e fa 94 48 3e c2 21 89 bf
       0.5863138 0.42453018 0.1958808 -1.0713427
000080 d3 9c 7e 3e 47 89 cc be b9 ea 3f 3f da 94 c0 bf
       0.24864511 -0.39948484 0.74967533 -1.5045426
000090 25 07 59 3f 48 42 ef 3d ba fd 8d be 14 a7 6a bf
       0.84776527 0.11682564 -0.2773264 -0.9166119
0000a0 d1 0f 7a bf 39 be 04 be 77 87 53 3f b7 fe c5 3e
       -0.97680384 -0.12963189 0.8262858 0.38670895
0000b0 c0 3b 90 be ee e1 7c 3f 4f f7 99 bc 62 25 85 be
       -0.28170586 0.9878224 -0.018794684 -0.26005083
0000c0 5f 48 19 be b6 a4 8a 3e be 0e c6 bd 9a 70 cd 3f
       -0.14969014 0.2707879 -0.096707806 1.6049988
0000d0 f5 da 0b bf af 40 ea be 9c f1 45 bf 83 53 41 3e
       -0.54630977 -0.45752475 -0.7732179 0.18879513
0000e0 1e a4 4c bf f1 dd a2 3f d5 6b 61 be 11 01 47 3f
       -0.7993792 1.2723981 -0.22013791 0.77736
0000f0 a7 69 dd bf 57 9f d0 3e a6 ac 25 bf 1e 0c 14 3f
       -1.7297868 0.40746567 -0.64716566 0.5783099
000100 64 df 53 bf 6b 80 b8 be 39 3a 18 3f 7c 27 19 bf
       -0.8276274 -0.36035475 0.5946384 -0.59825873
000110 c4 a7 d0 3e df 1f 82 3f 2f f3 59 be c2 6f 46 bf
       0.40752995 1.0165976 -0.21284173 -0.7751428
000120 55 9a b4 3f 7a 98 cd 3e de 9e a0 bd 2f 3f fa ba
       1.4109598 0.40155393 -0.078428015 -0.0019092317
000130 cd 7b cc 3d f1 70 8a bf 12 b0 13 bf 4d 8f f3 be
       0.099845506 -1.0815717 -0.57690537 -0.47570267
000140 ae 75 77 3f 30 9c 96 bd 95 a0 96 3e cc 1d 25 3f
       0.9666394 -0.07354009 0.2941939 0.6449859
000150 21 7c 3d 3e 3b 0c 95 bf 6d ae 93 bc f6 0c b5 3e
       0.18504383 -1.1644357 -0.018027509 0.3536145
000160 52 c2 86 bf 94 ae 8b 3f 5d ae 92 be f5 7d c6 be
       -1.0528052 1.0912652 -0.28648654 -0.38767973
000170 03 97 d0 be 40 86 54 3f 4b 8f 36 3f 30 15 a7 be
       -0.40740213 0.8301735 0.713124 -0.32633352
000180 0f 40 ab 3e 57 62 98 3e 0c 34 14 be 7b 4c 7b bd
       0.3344731 0.29762527 -0.1447298 -0.061352234
000190 b9 e7 ce bf 5a cd 07 bf 2e 70 67 3f fe 64 38 3c
       -1.6164466 -0.53047717 0.9040555 0.011254547
0001a0 f2 15 99 3e 91 90 94 bf 1a 15 5a 3e da 00 77 3f
       0.29899555 -1.1606618 0.21297112 0.96485674
0001b0 53 5d 19 bf 7a 00 c6 be 54 22 2e bf 2b dd 32 3e
       -0.59908026 -0.3867224 -0.6802113 0.17467181
0001c0 d1 48 11 3e 9d 3a bb 3c cb bf 0d 3f 74 3c 06 c0
       0.14187934 0.022855097 0.5537078 -2.0974398
0001d0 37 95 91 3f 79 90 29 3f d0 8e 46 3f a6 64 7d bf
       1.1373662 0.6623607 0.77561665 -0.989817
0001e0 6b da 75 be 3e 68 aa 3e 68 28 83 bf 42 11 a8 be
       -0.24009101 0.33282655 -1.0246706 -0.32825667
0001f0 5b de 32 bf 29 c4 ba be 7e 0a 27 bf b2 62 45 3f
       -0.6987054 -0.36477783 -0.65250385 0.7710372

feature_fusion.conv_high_res.bias f4 [16]
000000 61 6e 2b 3f 34 83 f9 be f9 47 97 3f 1d 56 57 3e
       0.669653 -0.48732913 1.1818839 0.21028943
000010 aa e3 07 be ba c6 9e 3d b8 8a af be 46 48 82 bf
       -0.1327044 0.07752748 -0.34285522 -1.0178306
000020 ed 67 64 3f a8 b9 8e 3e a9 fa 5a 3f 39 94 1a bd
       0.8922108 0.2787602 0.8553873 -0.037739012
000030 72 af f9 3f a7 0a af be 81 66 bf 3e 6d 82 4f 3f
       1.9506667 -0.34187815 0.37382892 0.8105839

feature_fusion.conv_low_res.weight f4 [16, 16, 1, 1]
000000 7a fd 62 3e dc f0 99 3e 37 51 fe be e4 38 89 be
       0.22167006 0.30066574 -0.49671337 -0.26801217
000010 7c c5 ab 3f 11 21 02 be 7a 8f 82 3d 31 70 c7 be
       1.3419642 -0.12707926 0.06375022 -0.38952783
000020 8e d6 09 3f 57 0a 14 3e 3f 6f 1a 3f 65 b5 bd 3e
       0.5384301 0.1445707 0.60326 0.37052456
000030 01 dc 8d be 5b 57 2c bf 43 66 58 3f 26 f4 1f bf
       -0.27706912 -0.67320794 0.8453104 -0.62481916
000040 5d 55 24 3e 3f e1 6d bf 2e 56 ec 3e a0 73 ba be
       0.16048189 -0.92921823 0.461595 -0.3641634
000050 a7 b0 27 bf 53 92 52 bf 45 de f1 3e 3b 8b 2d bf
       -0.65503925 -0.82254523 0.4723989 -0.67790574
000060 25 df bd be 36 b4 a0 bd 92 a8 d8 be b9 b9 0d be
       -0.37084308 -0.078468725 -0.4231611 -0.13840379
000070 ef 02 80 3f af 85 4c 3f 91 7b 21 bf 83 21 4c 3f
       1.0000895 0.79891485 -0.6307917 0.79738635
000080 17 d6 03 bf 7d bf 2b be 77 b8 d3 be 07 2a ab bd
       -0.5149855 -0.16772266 -0.41351673 -0.083576255
000090 83 d4 85 3d 37 ea d1 3f f9 01 de be e3 5b 68 3f
       0.06534674 1.6399602 -0.4336088 0.9076521
0000a0 64 bb 83 bf e0 94 3c 3f 58 91 21 3e 9b b9 d8 3d
       -1.0291562 0.73664665 0.157781 0.105822764
0000b0 24 e3 80 3d 15 06 4f bf 33 a4 99 3f 1d d9 db 3e
       0.06293324 -0.80868655 1.2003235 0.42939082
0000c0 f9 72 1a 3f 4e 48 99 3e 73 32 dd be 3b ba eb 3d
       0.60331684 0.29937977 -0.43202552 0.1151013
0000d0 75 a1 05 be c8 b0 bf be 4e 28 d1 3e 0b d8 9f bf
       -0.13049872 -0.3743956 0.40851063 -1.2487806
0000e0 5c e0 b4 bf 95 f5 0d bf e5 f6 1a bd 4e f6 06 bf
       -1.4130969 -0.55452853 -0.037833113 -0.5271958
0000f0 51 bc 0b 3f d4 34 18 3f 71 86 fd be 9a fb ea 3e
       0.54584223 0.5945561 -0.49516633 0.45895082
000100 a0 43 c3 3e 75 23 ad 3c 91 a8 df 3c fd 2f d5 3d
       0.3813753 0.021135071 0.027302058 0.10409544
000110 53 ed 9c be 86 bd 87 be 71 5f 8c 3f 23 99 00 be
       -0.30649814 -0.26511782 1.0966626 -0.12558417
000120 fc b7 a7 bf a0 92 9d be 6b c2 59 be 43 44 05 bf
       -1.3103023 -0.30775928 -0.21265571 -0.52057284
000130 32 38 8d 3e ea ae de 3e a7 e5 cb bc 20 8b 5d 3f
       0.27581936 0.43492824 -0.02488978 0.8654041
000140 80 30 8d bf d0 56 84 bd c6 aa eb be 7f a8 7c 3e
       -1.1030426 -0.06461871 -0.46028727 0.24673651
000150 dd 0d f1 be 8d 27 d6 3d 07 14 39 be 02 79 60 bf
       -0.4708089 0.104567625 -0.18074046 -0.87684643
000160 dc 26 06 3f 74 c4 d0 be 9f d8 e6 3e c1 4b d8 be
       0.52403045 -0.40774882 0.45087144 -0.42245296
000170 90 e4 1c 3f f5 bd ab 3e 35 7d 0d bf e4 05 91 be
       0.6128626 0.33543363 -0.55269176 -0.28324807
000180 67 cb b5 3e 41 04 7f 3f 07 1a 2d 3f 67 a9 8d 3c
       0.35506746 0.99615866 0.6761784 0.017292691
000190 3b 34 6c 3f fd 8a fd 3e ce 61 3a bf c7 25 c8 3d
       0.922672 0.49520102 -0.7280549 0.097728305
0001a0 3a fa 08 bf 2a b0 8b 3e e8 07 00 bf 64 09 79 bd
       -0.53506815 0.2728284 -0.50012064 -0.06079997
0001b0 1b c8 78 be 30 09 9e be e7 97 b8 3e ed c8 1e bf
       -0.24295084 -0.30866385 0.36053392 -0.6202534
0001c0 26 5e 58 3f 28 55 52 be 97 06 10 bf e6 8e 24 bf
       0.8451866 -0.20540297 -0.56260055 -0.64280546
0001d0 30 39 fb 3e 3e 01 44 3e 69 ac bf 3e 22 14 18 3e
       0.49067068 0.19141099 0.37436226 0.1485143
0001e0 e9 40 bf bd 6d e8 40 3f 49 11 2b 3d 0c 95 51 3e
       -0.093385525 0.75354654 0.04176453 0.20467013
0001f0 06 41 a5 bd fd 1f c6 3e e4 b5 e2 3c 68 23 ac 3e
       -0.08069043 0.3869628 0.027674623 0.33620763
000200 d1 bc 0b be 64 65 30 3f 6c 74 9c bf 50 00 c6 3f
       -0.13646246 0.6890471 -1.2223029 1.5468845
000210 38 f4 8c bf 6e fb 12 3d fa 8b b6 3e 08 33 03 bf
       -1.101203 0.035884313 0.3565367 -0.5124974
000220 e3 78 4a bf e2 f4 df 3e 28 10 18 3e 52 39 55 be
       -0.7909071 0.43741518 0.14849913 -0.20822647
000230 57 68 b2 bd 2f 98 1c 3f f0 9f 9b be 49 a0 89 3d
       -0.087113075 0.61169714 -0.3039546 0.06720025
000240 45 88 9d be 0a 37 c9 bd a7 68 7f bf 1c f2 f7 be
       -0.30768028 -0.09824951 -0.9976906 -0.48426902
000250 7a 08 ba 3e 1f f1 59 be 70 2a 93 bd f8 ad 32 3d
       0.36334592 -0.21283387 -0.07185829 0.04362294
000260 19 be 4d be 79 88 3a 3e f3 be b7 be 0f 15 b8 bf
       -0.20092048 0.18216123 -0.3588787 -1.4381427
000270 57 aa ca 3d 46 05 7b bf e9 ad e5 3f ee 1a 94 3e
       0.09895771 -0.9805492 1.7943698 0.28926796
000280 10 54 79 bd b5 37 fb bd 4b af cb 3e a3 df 56 bf
       -0.060871184 -0.12266485 0.39782175 -0.8393499
000290 69 f9 a6 3e 57 d1 46 bf 7a 68 f3 be 99 93 0c bf
       0.3261216 -0.7766318 -0.47540647 -0.54912716
0002a0 cd fd 92 be 30 02 b8 bd e8 35 51 3e 1e 18 2c 3f
       -0.2870926 -0.08984792 0.2043072 0.672243
0002b0 d2 d7 43 bf c1 aa 1d bf db 9a ea 3e 85 7b c7 3d
       -0.7650119 -0.61588675 0.4582127 0.09740356
0002c0 47 7f c9 be ca 95 26 3f 0b 29 e8 be ca ba b8 be
       -0.39354917 0.6507231 -0.45343813 -0.3608001
0002d0 f4 df f5 be 6a 47 12 bf ba df a4 be 72 1c 89 bf
       -0.48022425 -0.5714022 -0.3220194 -1.0711806
0002e0 f1 9a e5 bd 6d 6c 76 be 42 7c 88 3f f9 91 41 bf
       -0.11211193 -0.24064799 1.066292 -0.7561336
0002f0 a4 d9 3c 3f 5b 78 f9 3e 0e a8 bc be ed 3c cf be
       0.73769593 0.48724636 -0.36846966 -0.4047617
000300 6c f4 0b 3f 6f f7 21 bf 56 49 19 bf c8 21 f6 3e
       0.54669833 -0.6326818 -0.59877527 0.48072648
000310 2e fb ec 3e 6b ad 90 3e d0 7b 47 3e 77 02 23 bf
       0.46285385 0.28257307 0.19480824 -0.63675636
000320 d5 1b 70 bf 96 ae 4f bf 6c 29 5e bf 60 13 11 3f
       -0.9379247 -0.8112577 -0.86781955 0.5667019
000330 46 82 11 3f 4f c5 60 3f fb b1 40 be 8a a0 c6 3d
       0.56839406 0.8780107 -0.18817894 0.09698589
000340 df 5a 78 3f f7 58 5b 3c 05 e8 1d bf 0a f7 95 be
       0.9701366 0.01338791 -0.6168216 -0.29290038
000350 94 e9 cb 3e 27 0a 96 3f ea a8 9c be 6d 32 1e 3f
       0.39826643 1.1721848 -0.3059762 0.61795694
000360 f5 17 44 3f ef 11 17 3e 74 27 f9 be 85 f8 34 3f
       0.76599056 0.14752935 -0.48662913 0.7069171
000370 5f f3 e0 bd 14 75 fc bd 3a 93 76 3e 15 4c 0d 3d
       -0.10983919 -0.123270184 0.240796 0.034496386
000380 c4 68 ce 3e 4b a7 f2 be 82 fa 03 3f 50 60 bf bf
       0.40314305 -0.4739326 0.5155412 -1.4951267
000390 39 7b 9e bf 6d 5c 80 3e 50 8c cc 3e ba 03 7a 3e
       -1.2381355 0.25070515 0.399508 0.24415484
0003a0 40 49 85 be 8b 47 19 bf 64 dd 53 3f 93 41 fb bd
       -0.26032448 -0.5987479 0.8275969 -0.12268367
0003b0 e6 cc 1a bf 8b 1a 34 3f 91 10 f2 be b7 84 b9 3e
       -0.604689 0.70353 -0.47278264 0.36234066
0003c0 2a 59 c5 3e c5 01 66 be 9e b0 01 bf 7c 87 60 3f
       0.3854459 -0.22461613 -0.5066012 0.8770673
0003d0 02 90 c2 3f 1f c7 ef 3e 37 70 61 be a7 00 ef bd
       1.5200198 0.46831605 -0.22015463 -0.11670046
0003e0 1f a7 07 be 81 b5 b5 bd d6 f0 53 bf 6f 41 4b be
       -0.13247345 -0.0887251 -0.8278936 -0.1984918
0003f0 d4 11 35 3f de 9a f0 bd 43 08 af be 26 d1 9e 3e
       0.7073033 -0.117482886 -0.3418599 0.31018943

feature_fusion.conv_low_res.bias f4 [16]
000000 f8 63 1b 3f 07 41 aa be d5 f3 92 3f ad 65 3a be
       0.60699415 -0.33252737 1.1480662 -0.18202849
000010 69 54 e1 be 3b bd 3a be 1c 2d e4 be 93 81 12 bf
       -0.44009712 -0.18236248 -0.44565666 -0.57228965
000020 e4 d1 7d 3f 27 d9 ff 3e 2a af d2 3e b8 cb 87 3e
       0.9914839 0.49970362 0.41149265 0.26522613
000030 96 2d 03 40 11 7c ad be a3 9b dc bc 75 d8 92 3f
       2.0496573 -0.33883718 -0.026929682 1.1472307

classifier.conv.weight f4 [1, 16, 1, 1]
000000 ca b0 4c bf 76 1e 5d 3f 64 61 17 3f 92 0f 9d bf
       -0.7995726 0.86374605 0.5913298 -1.2270377
000010 75 01 88 bf 69 a0 4a 3f 87 2c 47 bf 70 dd 76 3f
       -1.0625445 0.79151016 -0.7780232 0.96431637
000020 a4 5d 35 3f f5 73 2e bf 43 11 80 bf 41 8f 1b 3f
       0.7084601 -0.68145686 -1.0005268 0.60765463
000030 e6 fb 31 3f 63 71 83 bf a9 12 4b bf e9 6c 96 bf
       0.6952499 -1.0268978 -0.7932535 -1.1751987

onnx::Conv_275 f4 [4, 3, 3, 3]
000000 6b 1e 80 3d 23 9c 54 3d 85 46 48 3d 10 46 ea 3d
       0.06255802 0.051906716 0.048895378 0.114391446
000010 4d 92 c7 3b 1b 6b fd 3b cf b3 97 3d c9 3b 58 3d
       0.0060904385 0.007733715 0.07407343 0.05279139
000020 77 8b 9f 3d c9 7a e9 3d 8d d4 27 3e e1 ca 09 3e
       0.07790273 0.114003725 0.16389675 0.13456298
000030 db f3 31 3e 52 f5 01 3e ad 04 c9 3d 84 40 f2 3d
       0.1737818 0.12691239 0.09815345 0.11828712
000040 7c a4 cb 3d 2a 1d 9d 3d 90 66 ed bd 76 6b f3 bd
       0.09943482 0.07671578 -0.11591828 -0.11885731
000050 83 43 e0 bd 0d 5c 6d bd 80 7b 01 be 31 b0 af bd
       -0.10950377 -0.057949115 -0.12644768 -0.08578528
000060 6a 55 b7 bc 69 4a 99 bd eb ff 5c bd 1b 29 b4 3e
       -0.022379596 -0.07484896 -0.053955 0.3518761
000070 67 da c8 3e fd 56 37 3f 74 22 a9 bd b9 a7 51 be
       0.39229128 0.7161711 -0.082585245 -0.20474137
000080 68 cf 99 be 1a b3 03 bf 74 cd c5 be 45 fc 24 be
       -0.3004105 -0.5144516 -0.3863331 -0.16111858
000090 6f cf 56 3f 6e 58 17 3f c2 7e 4e 3f 0b 31 91 3e
       0.8391027 0.5911931 0.8066217 0.2835773
0000a0 37 63 0e be 50 a4 ef be ec 0c f6 be db 90 0e bf
       -0.13905035 -0.46805048 -0.48056734 -0.5568978
0000b0 d7 86 34 bf 50 d3 f4 3e 63 a7 1d 3f 50 97 33 3f
       -0.7051825 0.4781747 0.61583537 0.7015276
0000c0 d9 a8 14 3e 0a eb 01 be 28 9f b5 be d8 85 e0 be
       0.14517535 -0.12687317 -0.3547299 -0.43852115
0000d0 a7 aa ca be f9 28 39 bf a3 9e 52 bf d9 42 b8 3e
       -0.39583322 -0.72328144 -0.8227331 0.359885
0000e0 f1 bf 91 3f 40 3c 7b bf 2a 71 cd 3e 84 9c 90 3f
       1.1386701 -0.9813881 0.401254 1.1297765
0000f0 85 db 00 be 78 9c 2b 3e 6e 5c 03 3d db f5 17 bf
       -0.1258374 0.16758907 0.03207057 -0.5935952
000100 f7 c2 12 3d b3 6e 97 3f 88 78 3c bf ac 61 94 3e
       0.035830464 1.1830658 -0.73621416 0.28980768
000110 5b ad 85 3f e8 aa 08 be 3c 1f 94 3d 0c 4c 82 3d
       1.0443529 -0.13346446 0.0723252 0.06362161
000120 ee 00 2b bf bc 68 ac bc 73 df 02 3f fb 00 74 bf
       -0.66798294 -0.021046035 0.51122206 -0.95313996
000130 99 92 90 be fa 1f 35 3f 50 52 a9 3b 7e 5c 39 be
       -0.28236845 0.7075192 0.005167283 -0.18101689
000140 66 bc e9 be b2 aa f1 bd 01 b8 66 be c9 20 96 be
       -0.4565155 -0.11800136 -0.2253113 -0.29321888
000150 16 88 59 be f9 ca b0 be ac 72 b0 be dc 44 03 be
       -0.21243319 -0.34529856 -0.34462488 -0.12819237
000160 5b 98 93 be b9 c7 12 be f5 c0 a5 3e 85 8f 84 3e
       -0.28827175 -0.14334 0.32373777 0.25890747
000170 9e eb 81 3e 7d 32 9c 3e 2f 62 a5 3e 1a f1 ae 3e
       0.25375074 0.3050727 0.3230147 0.3416832
000180 71 d3 8b 3d 60 d4 34 3e 00 dc 0a 3e 20 cc a4 bd
       0.068274386 0.1765914 0.13560486 -0.08046746
000190 13 c0 87 3d 89 9a c3 bc 72 18 45 bd 14 df 41 3d
       0.06628432 -0.023877399 -0.048119016 0.047331885
0001a0 c8 b2 38 3d f9 a6 65 bd a4 3d df 3a fd ba bd bd
       0.045092374 -0.05606744 0.001703192 -0.09264181

onnx::Conv_276 f4 [4]
000000 c8 7c 95 3f 1d a1 5f bd a7 3d f0 3e a8 68 9a bf
       1.1678705 -0.05459701 0.46922037 -1.2063189

onnx::Conv_278 f4 [4, 1, 3, 3]
000000 50 42 f9 3e b9 5f d7 3e 42 3f c1 3e b9 cb 1e bf
       0.48683405 0.42065218 0.37743574 -0.62029606
000010 56 e3 ee be fc 4f 90 bd 80 ea 74 bf 8f 2b 7d bf
       -0.4665782 -0.07046506 -0.9567032 -0.9889459
000020 32 b8 12 bf 74 3e 57 3d da 3f 89 3e 33 cf 5e 3e
       -0.5731231 0.052549794 0.26806527 0.21758728
000030 95 9f 04 3d b1 c7 9c 3e 6b 6c a9 3e dd 37 09 3c
       0.03237875 0.30621102 0.3309053 0.008375135
000040 2b 13 ea 3d 24 c5 12 3e 0e 3e 87 bd 5c dd c3 bd
       0.11429437 0.14333016 -0.06603633 -0.09563705
000050 cd bc 4d bd f6 6b ef 3d 86 f2 62 3e f7 8b 1e 3e
       -0.050228883 0.11690514 0.22162828 0.1548308
000060 4a 1d 05 3e d9 0a 90 3e a3 c8 41 3e af 8b 88 bd
       0.12999454 0.28133276 0.18924193 -0.066672675
000070 58 1d 42 3e 6a a4 c9 3e 2f 4b 3e bd 26 ef 8a 3e
       0.18956506 0.3938325 -0.04645842 0.2713558
000080 01 9e 58 3f a0 7f f0 bd 2a 52 99 3e da e3 0d 3f
       0.84616095 -0.117430925 0.299455 0.554258

onnx::Conv_279 f4 [4]
000000 1d 47 1e 40 5c d0 18 bf 62 9b ea be a3 17 1f be
       2.4730904 -0.5969293 -0.45821673 -0.1553636

onnx::Conv_281 f4 [6, 4, 1, 1]
000000 7d 7b 55 be 42 94 86 3d 43 ef f4 bc b3 33 03 3f
       -0.20847888 0.06571247 -0.029899245 0.5125076
000010 76 be be 3d 7e 69 52 be ae 79 a1 be 09 56 ae be
       0.09313671 -0.20548055 -0.31538147 -0.34050015
000020 93 ac 7c be 72 55 13 be 8e ef 29 3e bc f6 b8 be
       -0.24675207 -0.14388064 0.16595289 -0.36125743
000030 39 e0 d3 3d 0e 88 31 be a2 2f 8a bd 1a 86 ca 3f
       0.103455015 -0.17337057 -0.067473665 1.5822175
000040 53 a2 ba be 20 d3 fd bd 29 c0 e6 3d 5f a3 66 3d
       -0.3645197 -0.123937845 0.112671204 0.056308147
000050 27 7c a3 be f3 b4 2f 3f b0 63 7c be 9c 5d be bd
       -0.31930658 0.6863548 -0.24647403 -0.09295198

onnx::Conv_282 f4 [6]
000000 3e d7 36 3f ad 35 81 3f 6d 43 5b 3f f8 5c 22 bd
       0.71422184 1.0094506 0.8564976 -0.039639443
000010 cd bf 7e 3f 07 e4 3f 3f
       0.99511415 0.7495732

onnx::Conv_284 f4 [6, 1, 3, 3]
000000 41 ec b9 3d 1d 31 78 bd c0 71 01 bf 34 49 27 3e
       0.09078265 -0.060593713 -0.50564194 0.16336519
000010 99 77 d0 3e fc b5 af 3e 65 b2 d6 3c a3 2b e9 3e
       0.40716246 0.3431853 0.026208112 0.45541105
000020 31 54 29 3f b3 12 28 be 9b 89 ab bd 0d 07 88 3d
       0.6614409 -0.16413383 -0.083758555 0.0664197
000030 08 17 88 bd 6a 1d 31 bf ec 0f 7b bf 79 0e d1 3d
       -0.06645018 -0.6918551 -0.9807117 0.102078386
000040 5e c8 0e bf 06 73 82 bf 32 85 e3 3c 77 fe 4a 3f
       -0.55774486 -1.0191352 0.027773473 0.7929453
000050 1e 43 1c 3f 71 f3 c9 3e b3 ab 03 3f 9b aa 00 3e
       0.6103991 0.39443544 0.5143387 0.12565081
000060 57 11 df 3c ee 9a b0 bb 54 57 01 bf cd b9 f7 bd
       0.027229948 -0.005389563 -0.5052388 -0.120959856
000070 e3 12 83 3e ed 6b 2a 3e 2c a5 80 3d 5b 7b 52 3e
       0.25600347 0.16642733 0.06281504 0.20554869
000080 1b 04 10 3e e2 b4 73 3b 02 18 02 bd e5 39 ff bd
       0.14064066 0.0037186672 -0.031761177 -0.124622144
000090 38 7c f2 bd f2 67 fa 3e c4 3a fb 3e 37 fc 9c be
       -0.11840099 0.4890743 0.49068272 -0.30661175
0000a0 97 ab 46 3f 54 80 84 3f 06 65 43 be e3 e3 ea 3e
       0.77605575 1.0351663 -0.19081506 0.4587699
0000b0 c5 51 4e 3f d3 9a 01 be 52 61 d4 be 05 ef 73 be
       0.8059352 -0.12656717 -0.414805 -0.23821647
0000c0 7e bc 11 3d a3 6a 12 bf 12 f0 06 bf cd 72 8b 3d
       0.03558015 -0.57193965 -0.5271007 0.06809006
0000d0 40 ff 73 be 1f f4 40 be
       -0.23827839 -0.18843125

onnx::Conv_285 f4 [6]
000000 f0 92 92 bf aa 1d 56 40 92 00 dc bf 1f c4 1a be
       -1.1451092 3.3455606 -1.7187674 -0.15113877
000010 2e b7 5b c0 a7 a8 e0 3f
       -3.4330554 1.7551469

onnx::Conv_287 f4 [8, 6, 1, 1]
000000 04 8c a4 be a3 1f 16 be 0a 20 dc 3c 59 50 17 bf
       -0.32138073 -0.14660506 0.026870746 -0.59106976
000010 3e 89 2a bf d9 79 92 3e e6 3e 6c 3e d5 6e ce 3d
       -0.66615665 0.28608587 0.23070869 0.10079733
000020 d6 83 a7 be 2d 9e f1 3e cb a6 15 be 32 23 bb 3d
       -0.3271777 0.4719099 -0.14614408 0.09137572
000030 eb 0b 0b bf 55 ed 4e bd 15 45 2d 3f ad 94 9a bd
       -0.5431506 -0.050519306 0.67683536 -0.07547889
000040 6c f4 a7 3d 66 93 d7 bc df e8 47 bf c3 df f1 3e
       0.08200917 -0.026315402 -0.7808971 0.4724103
000050 a6 fd d8 3e 25 19 99 be d2 1a 0e bf 82 b3 e2 be
       0.42381018 -0.29901996 -0.55509675 -0.4427758
000060 b9 e9 16 3e 4b 1d 43 bf 42 09 48 3f c9 37 08 3e
       0.14737596 -0.7621657 0.78139126 0.1330253
000070 41 47 68 3e ed e0 71 3f 76 fd ca 3d cd a3 58 3e
       0.22683431 0.94483835 0.09911625 0.21156235
000080 f2 31 05 be c7 b9 7e 3e c3 8d 66 3f 1f 8d fb be
       -0.13007334 0.24875556 0.9006006 -0.49131104
000090 4d e7 76 3e 4b c5 34 3f 30 1a 1c 3e 7f fc 58 be
       0.24111672 0.70613545 0.15244365 -0.2119007
0000a0 4c 33 b5 3d 09 55 96 3d 66 17 21 3d 26 8a 0f 3e
       0.08847675 0.07340438 0.039328955 0.14017543
0000b0 ee 87 08 be 07 fe 7d 3e 32 32 3f bf 65 3c e1 be
       -0.13333103 0.24803935 -0.74685967 -0.4399139

onnx::Conv_288 f4 [8]
000000 81 b6 62 3e e6 ed 89 3e aa 5c ce 3e f7 43 72 3f
       0.22139932 0.26939315 0.40305072 0.94634956
000010 4a cc 28 bf c1 bd 92 be 6c 28 b1 3f 91 90 63 3f
       -0.6593672 -0.28660396 1.3840461 0.88892466

onnx::Conv_290 f4 [16, 8, 1, 1]
000000 cb a3 ab bf 6c 06 99 bf 7a 95 af 3e 10 e9 3a 3e
       -1.3409361 -1.1955085 0.3429373 0.18252969
000010 25 04 f0 3c 69 df 94 bd 2a a0 80 3e 06 07 6e 3c
       0.029298851 -0.072691746 0.25122195 0.014528042
000020 82 cd 11 3e 9c d5 02 3e 2a 59 a2 3d 25 e3 f3 3c
       0.14238551 0.12776798 0.07927163 0.029771397
000030 01 40 6a be 5e 24 04 be 27 ef b7 bd ff b3 45 3e
       -0.22875978 -0.12904498 -0.089811616 0.19306944
000040 07 9c 33 bd 7e 7c 09 bf 81 30 5b 3e da 4b 17 bd
       -0.04384997 -0.53705585 0.21405222 -0.036937572
000050 24 f6 a5 3c a2 4f 11 bd ed 74 04 3c 5f 98 c2 bd
       0.02025897 -0.035476334 0.008084518 -0.09501719
000060 43 71 c1 be e6 35 49 3f 55 ca a9 be 50 e7 b5 be
       -0.37781724 0.7859787 -0.3316218 -0.3552804
000070 c8 13 bc bd 9e 66 b0 3d 21 db a4 bd 22 fa 5b bd
       -0.091834605 0.08613323 -0.08049608 -0.053705342
000080 c2 93 4b bd 51 09 48 bf bc 86 71 3d b6 7f 82 3e
       -0.04970146 -0.78139216 0.058966383 0.2548806
000090 5e f9 27 bf f4 82 e1 bd 13 ff 70 3e af 96 55 be
       -0.6561488 -0.110113055 0.23534803 -0.20858262
0000a0 8d 1e 0f 3f a5 bf 13 be 24 6d fb 3d 2a 51 63 3d
       0.5590599 -0.14428575 0.12276676 0.055497326
0000b0 15 07 e3 3d ea a0 b6 be 63 e5 a0 3d 42 02 c1 3d
       0.11085335 -0.35669643 0.07856252 0.09424259
0000c0 08 7b 99 3f 12 55 04 3f f1 5e 8d 3e 60 0e d8 3e
       1.1990671 0.51692307 0.27611497 0.42198467
0000d0 14 f7 8d 3e 40 7a 2b bf 15 e4 a3 be 4c 44 52 3f
       0.27727568 -0.66983414 -0.3200995 0.8213546
0000e0 56 05 0f be a4 0e a8 be d0 ca 51 be 1b 0b 11 bf
       -0.13966879 -0.3282367 -0.20487523 -0.5665757
0000f0 c6 b0 f4 3d 4d 35 1c 3f 7a 6c 14 3f 2c b0 d1 be
       0.11947779 0.6101883 0.5797802 -0.4095472
000100 67 27 45 3f 63 bc b6 be 6e 53 6e 3f 4b b9 bd 3e
       0.7701325 -0.35690603 0.93096054 0.3705543
000110 29 5b 42 3f 07 df 8b be 9c 62 90 3e 8d 3f 10 3f
       0.7592035 -0.27318594 0.28200233 0.5634697
000120 60 4f 0b bf 97 e3 aa 3d e6 0e b1 be 49 7b 2c bd
       -0.5441799 0.083441906 -0.3458168 -0.04210976
000130 52 93 48 bf 7c a1 08 be 09 50 9a 3e ff 4d 8d 3e
       -0.7834979 -0.13342851 0.30139187 0.2759857
000140 62 db 8b bf fb d6 12 3f 0e f2 24 c0 1d 05 d4 bf
       -1.0926325 0.57359284 -2.5772738 -1.656406
000150 99 f1 19 c0 68 75 8d 3c 90 0a 8b 3f 5a ef c9 3f
       -2.405371 0.017267898 1.0862598 1.5776169
000160 ec 29 8b bd cc 7e 52 3f 49 68 b6 be 14 d0 6f 3e
       -0.06795105 0.82224727 -0.35626438 0.2341922
000170 e0 51 e5 3f e8 ce 85 be ba bf 49 bf 94 91 5a 3f
       1.7915611 -0.2613442 -0.78808177 0.85378385
000180 28 6f 98 3e 30 d3 93 bd bc c3 f3 3d f2 ef 82 3e
       0.29772305 -0.07218015 0.11902568 0.2557369
000190 c7 be 9f 3c 4e 7d 87 be 3a 8f 99 bc 40 62 0c 3e
       0.01950015 -0.26462787 -0.018745054 0.13709354
0001a0 32 68 5c bc 61 24 8b 3e 2f 11 21 3d 47 2b 00 3f
       -0.0134525765 0.27176192 0.03932303 0.50066036
0001b0 47 62 40 3e 95 1d 98 bd 83 39 e9 3d d1 ce e3 3f
       0.1878749 -0.07427517 0.113879226 1.779749
0001c0 ca 27 9c be 2f 4a 97 be 2d 9f 95 bd 37 d8 15 bf
       -0.30499107 -0.29548785 -0.07305751 -0.5853304
0001d0 4c 3a 07 bf ec 74 5d be fe eb 15 bf 12 6d 0c bf
       -0.5282333 -0.21626633 -0.5856322 -0.5485393
0001e0 67 ac 8c 3c 03 f0 f2 bd c8 d1 10 3e 52 4f c7 be
       0.017172052 -0.11862185 0.14142525 -0.38927704
0001f0 37 b7 90 3d 30 07 21 3f eb 99 8f 3e 6d 61 b4 be
       0.070661955 0.6290159 0.28047118 -0.3523058

onnx::Conv_291 f4 [16]
000000 e7 0a 87 3f 74 34 24 3f 3c 02 82 3f 6c 2f 6f 3e
       1.0550202 0.6414254 1.0156932 0.23357934
000010 c0 55 42 3f d4 d1 0d 3e a7 4f eb bf 56 fb 0f 3f
       0.75912094 0.13849574 -1.8383683 0.56242883
000020 84 1c 1f c0 28 13 65 3f 89 e7 8a 3f 5f bb c1 be
       -2.4861155 0.89482355 1.0851909 -0.37838265
000030 0c 26 4e 3e 6c cf 21 c0 84 78 2e 40 09 cb 18 3f
       0.20131701 -2.528285 2.7261057 0.5968481

onnx::Conv_293 f4 [16, 1, 3, 3]
000000 cc a5 b4 be 01 cc fc bd 12 fa 01 bf 5e c1 bb be
       -0.35282743 -0.12343598 -0.507722 -0.36670965
000010 d0 8f a6 3b ef 9d b0 3e a9 f8 56 bf c6 77 2a bd
       0.0050830618 0.34495494 -0.83973175 -0.04161813
000020 78 6a 13 3f 6b ab c4 3e f1 0d a9 bd 37 9a 1d be
       0.57584333 0.38412032 -0.08254612 -0.1539086
000030 d0 0d 47 3f 03 fc 7b 3e 31 be 9b 3f ad 05 87 3e
       0.7775545 0.24607854 1.2167417 0.26371518
000040 12 91 c1 be 2e c4 6e 3f 0d c5 e7 3d b6 0e b1 3e
       -0.37805992 0.93268096 0.11316881 0.34581536
000050 a1 c9 24 3f b8 4b d4 be 14 47 a7 be 40 07 d0 3e
       0.6437016 -0.4146402 -0.32671416 0.4063053
000060 07 e8 79 bf 56 e1 8e bf 45 d0 a9 be 4d 3b 44 3f
       -0.9761967 -1.1162517 -0.3316671 0.76652986
000070 2b 6f 35 3f 85 cd 0f be 1c 31 35 3f 52 9f d0 be
       0.70872754 -0.14043243 0.7077806 -0.40746552
000080 13 b5 a3 be d0 0e b5 3e 02 f7 25 bf 52 0f 83 be
       -0.31974086 0.35362864 -0.6483003 -0.25597626
000090 d6 53 15 3e 6f 34 dc bd c8 7c 68 bf 30 65 3d bd
       0.14582762 -0.107521884 -0.908154 -0.046239078
0000a0 bf 0e 48 bf 8b 4a 25 bd 1b a6 8f 3d 9c 63 96 3e
       -0.781475 -0.040354293 0.07014104 0.2937287
0000b0 63 7c b3 3c 4a 70 39 bf 1f b9 29 3e e2 23 e3 bd
       0.021909898 -0.72436965 0.16574524 -0.110908285
0000c0 3c a8 09 3e 0b b9 00 3f 0d b2 16 bd cf e2 0b bc
       0.13443083 0.50282353 -0.036790896 -0.008537962
0000d0 40 a0 41 3f 35 33 58 3f 2b 46 54 3e 33 01 7d 3e
       0.7563515 0.84453136 0.20729892 0.24707489
0000e0 da df 40 3d 6b 00 cd bd 88 63 ba 3e 90 0b 88 3e
       0.04708848 -0.10009845 0.3640406 0.2657132
0000f0 01 b6 ad be a7 73 d9 3e 87 7f a9 3d bb b8 90 3d
       -0.3392792 0.42471048 0.08276277 0.070664845
000100 7a de 99 3e 35 73 dc 3d 09 ca 01 3d 1e c4 de 3e
       0.3005255 0.107641615 0.031686816 0.43509
000110 df 22 0a 3f d6 be 75 be 60 5d c1 bd a5 81 83 bc
       0.5395946 -0.2399858 -0.09441638 -0.01605303
000120 89 87 16 3f 30 e9 29 be d0 ae a2 3e 62 75 36 3f
       0.5880056 -0.1659286 0.31773996 0.7127286
000130 eb c0 70 3b 05 3d 77 3e 4b 16 19 3f 28 b7 18 bd
       0.0036736082 0.24144371 0.5979964 -0.037284046
000140 c5 5e 2f 3c 9e 6a 82 3d b4 4d 80 3f 16 6c 4c 3f
       0.010703747 0.06367992 1.0023713 0.79852426
000150 53 e3 73 bc 98 25 ec 3e 57 2b f5 3d d0 2c 0a bf
       -0.014885741 0.46122432 0.11971157 -0.5397463
000160 aa 0f bf be 53 1d e5 be a1 f5 13 bd aa 94 15 3e
       -0.37316638 -0.44748935 -0.03612292 0.14607492
000170 96 26 db 3d f9 47 86 bd fa c4 91 3e 98 a6 74 3e
       0.10700719 -0.065566964 0.28470594 0.23891675
000180 c7 c1 bc bc d0 e1 00 3e 49 d8 42 3e 00 ed d6 3e
       -0.023041619 0.1258614 0.19027819 0.41977692
000190 bb fa 03 3e 5f 9d f5 bd eb 6b 1e 3f 0c 95 5e 3d
       0.12888615 -0.11992907 0.6188342 0.05434136
0001a0 a2 c0 22 be 6e 25 27 be a7 22 47 be 34 17 1f bf
       -0.15893796 -0.16322872 -0.19446813 -0.6214478
0001b0 ae 47 2b bf 80 3b 9f 3e 9d 2d 7d 3d d5 28 2b 3f
       -0.6690625 0.31100082 0.06181108 0.6685918
0001c0 c6 9a 20 be 3f 2b 84 3f 1c f0 90 3f e4 c1 00 bf
       -0.15684041 1.0325698 1.1323276 -0.50295854
0001d0 93 32 9d 3d e8 a2 1c 3e 53 59 8f 3e 1e 17 f4 3d
       0.07675662 0.15296519 0.27997836 0.11918472
0001e0 91 6c 0f 3e 7f 6a 61 3e 47 d3 bb 3d 37 c1 3c bd
       0.14006259 0.22013281 0.09171157 -0.0460827
0001f0 dc 09 a6 3d cb 1e d0 bd 1d 05 c9 be 5e 64 50 be
       0.08107349 -0.10162123 -0.39261714 -0.20350787
000200 7e 57 ed be 00 50 64 bf 7b e4 8c 3d 9d c0 b0 be
       -0.46355814 -0.8918457 0.06879517 -0.34521952
000210 ef 77 94 be 53 9d 0f 3f c9 f9 17 3d 3e c4 02 be
       -0.28997752 0.5609943 0.037103448 -0.12770173
000220 a0 2d 9e be 76 59 3f be 0e 74 44 3c 6b 53 6e 3e
       -0.30894184 -0.1868647 0.01199056 0.23274009
000230 6d 7b 6e 3e 48 8c 2c 3e 64 78 19 3f 8a 40 2e 3f
       0.2328927 0.16850388 0.59949327 0.6806723

onnx::Conv_294 f4 [16]
000000 fc c8 61 3f 00 37 20 c0 eb bd 6e 3f ec 45 13 be
       0.881973 -2.503357 0.9325854 -0.14382142
000010 64 50 c5 3f 88 65 45 bf dd f9 7e bf b8 09 df 3d
       1.5415158 -0.7710805 -0.9960001 0.108905256
000020 9b 2b b2 bf c3 c2 d8 be 84 67 46 3e b9 30 50 3e
       -1.3919557 -0.4233609 0.19375426 0.20331086
000030 4b 6c c7 bf 80 b0 41 bc ad d8 6d 3f b8 02 52 3e
       -1.5579923 -0.011821866 0.92908746 0.2050885

onnx::Conv_296 f4 [8, 16, 1, 1]
000000 57 49 62 bd 73 fa a5 3e 26 14 99 3b f5 c1 a3 3e
       -0.055245724 0.3241764 0.0046715913 0.31983915
000010 fa 7c 7f 3d 76 ad 78 ba 62 da 01 3d 98 68 83 be
       0.062375046 -0.0009486297 0.031702407 -0.25665736
000020 97 14 de bd 85 96 d0 3e 6f e0 89 3d 68 4e 67 be
       -0.10843771 0.40739837 0.067322604 -0.22588503
000030 c0 ec 6e bd f5 cd 87 3e bc 1f 10 bd 73 4d e6 be
       -0.05833125 0.2652432 -0.035186514 -0.44980964
000040 a4 88 ec 3d 3c 46 b4 3a 30 e7 aa 3e ac a4 90 be
       0.115495 0.0013753842 0.33379507 -0.28250635
000050 4e 3e 07 3f 45 4c 3b bd 47 04 46 3e 18 b3 83 bd
       0.52829444 -0.045727033 0.19337569 -0.06430644
000060 1b be f6 bd ee 10 f4 3b 77 c3 44 3f 5d e6 bc 3c
       -0.120479785 0.0074483072 0.76860756 0.023059065
000070 0f cd 09 3e 06 9c c6 3e d9 52 14 3e c0 7e ba bc
       0.1345713 0.3879091 0.14484729 -0.022765517
000080 7d 80 5b 3c 8e 29 79 be a5 f0 51 3e 76 09 8a bd
       0.013397333 -0.24332258 0.20501955 -0.06740086
000090 f3 94 41 bc ca 01 7c bc 52 34 0e be b6 d4 e7 3e
       -0.011815297 -0.015381286 -0.13887146 0.45279473
0000a0 b9 35 95 be 07 f7 ee 3c 3b a8 8b 3e 43 73 5a bd
       -0.2914255 0.029170526 0.27276787 -0.05333258
0000b0 f2 eb 66 be ff df 03 be 2f 5d e0 3d e7 a8 8a 3d
       -0.22550943 -0.12878416 0.10955273 0.06770497
0000c0 e4 b6 8d 3d 18 ac bd be 25 75 c6 be 5b aa 3f 3e
       0.06919649 -0.3704536 -0.3876125 0.18717329
0000d0 e7 9e 60 be c0 51 07 bf bd 33 88 be 96 3a 0e bd
       -0.21935616 -0.52859116 -0.26601973 -0.03472384
0000e0 73 86 81 bd b7 4b 00 3d dd 73 08 be 5e 5c 9a 3e
       -0.06324472 0.031322207 -0.13325448 0.30148596
0000f0 c1 74 69 bd dc 60 2a be 26 54 90 be 12 db 48 3f
       -0.05699611 -0.16638511 -0.281892 0.78459275
000100 18 f9 1f be 7d 97 2b be 6b 0f c4 bd 00 30 f4 bd
       -0.15622365 -0.16757007 -0.09573253 -0.11923218
000110 5e dc 49 be a1 99 01 be 5b 63 85 be 35 5f bc 3e
       -0.1971297 -0.12656261 -0.26052365 0.36791387
000120 7b 43 c2 be 07 76 ce 3d 86 12 82 3e a4 00 ba 3c
       -0.3794211 0.10081106 0.25404757 0.022705384
000130 32 bd 92 be 8c 2e 84 be 03 b2 43 be 4a e8 17 3f
       -0.2865997 -0.25816762 -0.19110875 0.5933882
000140 c7 3a 6b bf e6 2d e2 bd f3 08 90 3e b5 dc 95 be
       -0.9188656 -0.11043911 0.28131828 -0.2926995
000150 ed 79 9d 3e 0b 6b df 3e 53 21 25 3e 4a 6b f5 3e
       0.30757084 0.43636355 0.16125993 0.47933418
000160 14 5d 68 3e df 7f 14 3e 3a 86 94 be 4a a2 00 bf
       0.22691756 0.14501904 -0.29008657 -0.50247633
000170 5b 77 64 3d 39 f8 ee 3e 2b 32 99 3e 8a c1 be 3b
       0.05577789 0.46673754 0.29921088 0.0058214115
000180 60 0b 0d bd 07 b7 b3 bd 0f c0 09 3e 20 e8 34 3e
       -0.034434676 -0.08775144 0.13452171 0.17666674
000190 ad c3 a7 bd fb b5 a6 bc 85 c6 bb be 20 79 fe 3e
       -0.08191619 -0.020350447 -0.36674896 0.49701786
0001a0 a1 6f dc be f9 c3 fa 3e a5 20 ff 3e ca 5c 4f be
       -0.43053916 0.4897764 0.49829593 -0.2025024
0001b0 a4 d6 9a be 57 99 74 be ce 80 59 3e e7 91 c5 bd
       -0.30241883 -0.2388662 0.21240541 -0.09646969
0001c0 8b c9 2e 3e c1 fa 14 be 22 e8 de bd b3 67 59 3e
       0.1706907 -0.1454878 -0.108841196 0.21230964
0001d0 c9 63 d9 bd cd 49 ef bd d7 dd 73 be 08 1a 66 3e
       -0.10614736 -0.11683998 -0.23815094 0.22470868
0001e0 45 92 35 3c 04 de cc 3d 26 62 6a 3e 21 de f6 3b
       0.011082237 0.100032836 0.22889003 0.007533804
0001f0 d1 74 28 3b 91 70 d6 be f4 7f a1 bc dd cb 48 bd
       0.0025704394 -0.41882756 -0.019714333 -0.049022544

onnx::Conv_297 f4 [8]
000000 76 ff 3a 3e 19 4d cf bf 81 7d ec be 26 43 a7 3d
       0.18261513 -1.6195403 -0.46189502 0.081671044
000010 b1 47 06 bf d6 3c 42 bf ea fe 10 bf 1b c0 d6 3d
       -0.5245314 -0.7587408 -0.5663897 0.1048586

onnx::Conv_299 f4 [16, 8, 1, 1]
000000 4d d8 10 3c 78 1f bb 3b 12 8d 7a bb 9b bf 27 3b
       0.008840633 0.0057105385 -0.0038231057 0.0025596383
000010 06 a5 80 b9 d0 89 30 3c db cb 16 bc ff 11 c6 bb
       -0.00024537015 0.010775045 -0.009203876 -0.006044626
000020 0e fd 07 be 02 f8 df bc a5 84 ae be 34 3f f4 bc
       -0.13280126 -0.027339939 -0.34085575 -0.029815294
000030 44 65 a1 bd 50 45 ce 3d fc 5e cf be b7 1e 9e be
       -0.07880643 0.10071814 -0.40502155 -0.3088281
000040 e9 a0 f3 3d 47 d2 4a 3d 12 59 15 bd 75 51 0c be
       0.118959256 0.049516942 -0.036461897 -0.13702948
000050 ba ac e3 bd f1 97 fc bd 17 d1 c7 3d 67 b4 10 bd
       -0.11116929 -0.12333668 0.097566776 -0.035328295
000060 1a ea de bc 57 3d d7 bd 14 eb 93 bd 5b 75 59 3e
       -0.027211238 -0.105097465 -0.07222572 0.21236174
000070 00 c6 c3 bc 22 2c a0 be f7 bd 7a bd 9f fe 6e 3d
       -0.023898125 -0.3128367 -0.06121632 0.058348294
000080 48 6c 29 bd 73 2c 23 3d e0 9b 14 bd 63 25 a7 bc
       -0.04136303 0.039837312 -0.036281466 -0.02040357
000090 9a 46 6a be fd 4f 0b 3c 9a ae 5b be 48 42 b6 bd
       -0.22878495 0.008502957 -0.21453324 -0.08899361
0000a0 56 82 8d 3f f6 0e 33 bf c2 0f 98 be 8c 5e cf 3e
       1.10554 -0.69944704 -0.29699522 0.4050182
0000b0 7e 7e 9f be f1 6b ae be e9 b3 a6 3e cb 9a af 3e
       -0.31151193 -0.34066728 0.32559136 0.34297785
0000c0 9c 7a 02 3f 97 ac e7 3d 7f 51 9a bd f7 48 d6 be
       0.5096834 0.11312216 -0.075350754 -0.41852543
0000d0 96 6c 0b be 7a 4d 9b bd f7 e2 f1 bd 81 80 87 be
       -0.13615641 -0.07583137 -0.11810868 -0.26465228
0000e0 e6 4a 15 bd 99 2c 3e 3c d5 48 bf bd 37 85 47 be
       -0.03644838 0.011607313 -0.093400635 -0.19484411
0000f0 0e 1d 83 be 75 e7 00 3c cb a6 17 be 08 8a d4 bb
       -0.25608104 0.007867684 -0.1480972 -0.006486181
000100 72 36 4b 3d f0 8c 00 3f e3 84 24 3e 99 20 1c bd
       0.04961247 0.50215054 0.16066317 -0.038117025
000110 83 51 06 3e 9e f5 02 be 0b df 9e 3e b6 b1 cb bd
       0.13117032 -0.12789008 0.31029543 -0.09946005
000120 da 8a d4 3c e8 e0 82 be 6b 31 46 be 1e ee 0b bd
       0.025945116 -0.25562215 -0.19354789 -0.034162633
000130 55 67 8b bd 33 13 79 3d 21 ac 34 be 34 c9 a8 bc
       -0.068068184 0.060809325 -0.17643787 -0.020603754
000140 d8 94 b1 3d 1d fe ef 3c 9b 9e 01 3c fb f1 84 be
       0.08670968 0.029295975 0.00791135 -0.25965866
000150 fe 27 a1 bd 5f 80 28 3d 4c d4 9e bb 30 af 5f bd
       -0.07868956 0.04113805 -0.004847085 -0.05461043
000160 50 54 1c 3d df 88 87 3d 7d f5 08 3e a4 d2 95 bc
       0.038166344 0.06617903 0.13374896 -0.018288918
000170 73 f8 2e 3d ed a8 e5 3d 26 9a ac 3e 52 df da 3d
       0.04271741 0.11213861 0.33711356 0.10687126
000180 03 d8 ae bc a1 d3 f5 3d f5 87 0d 3e 29 90 8b 3e
       -0.021343237 0.12003256 0.13821395 0.27258423
000190 a9 86 9e 3d c1 ce 49 bf ed b2 fb bd 97 38 78 3e
       0.07740528 -0.78831106 -0.12289987 0.24240337
0001a0 36 2a 15 3d 5f fd e6 be c3 1e 70 3e fd d3 01 3f
       0.03641721 -0.45115182 0.23449235 0.50714093
0001b0 85 9d cd 3e fb ef ae 3e 06 ab 8a bb c3 0b 39 3e
       0.4015924 0.34167466 -0.0042318134 0.18070893
0001c0 37 3e 68 3d c1 d7 6b bf c0 02 8b bd 94 16 e4 3e
       0.056699958 -0.9212609 -0.06787634 0.44548476
0001d0 6d c8 08 be d8 9d 40 3d c1 c1 80 bd 65 a6 b3 bd
       -0.13357706 0.04702553 -0.062869556 -0.087719716
0001e0 69 c7 0d 3f 95 b3 90 3e d8 d0 ad 3b ef a1 91 be
       0.553824 0.2826201 0.005304437 -0.28443858
0001f0 bf ea 7e be e0 3e 3e be 6e d8 06 3f 68 89 24 3f
       -0.24894236 -0.18578672 0.52673995 0.64272165

onnx::Conv_300 f4 [16]
000000 cc dc 53 bf af c9 34 be d0 ae 1f 3f 3d 18 48 3f
       -0.82758784 -0.17655061 0.6237612 0.78161985
000010 0c 56 d4 3e 8e 4e 94 be 7f 2c d3 3e 61 69 9e be
       0.414719 -0.28966182 0.41244885 -0.30939773
000020 6e 3d 9e 3e da 17 0a 3f 3d 9b 70 3f 59 e7 41 3f
       0.30906242 0.53942645 0.93986875 0.75743634
000030 da e4 52 3d f9 af 6e 3e 1a ed 9b bb 74 d5 08 3e
       0.05148778 0.23309316 -0.0047584893 0.13362676

onnx::Conv_302 f4 [16, 1, 3, 3]
000000 a7 fb 35 43 4e fa 56 43 36 f7 13 c2 1b 56 90 c2
       181.98302 214.97775 -36.991417 -72.168175
000010 81 7c bc 42 26 7f 1b 41 3f c4 b4 c2 b6 5e d3 c1
       94.24317 9.718542 -90.38329 -26.421246
000020 2c 87 25 43 a7 b6 56 bf 2f 01 bb 3d e4 6f da 3d
       165.52802 -0.83872455 0.09131085 0.10665873
000030 85 08 7f be f4 30 e7 bd 72 73 7e 3f 81 ca b8 be
       -0.24905594 -0.11288634 0.99394906 -0.36091998
000040 fa 38 b9 be 97 15 01 3d bb 0e 84 bf be f4 ab 3e
       -0.36176282 0.03151473 -1.0316995 0.3358516
000050 5d a8 81 3f d1 49 3f bf bc f0 8b 3f 2c 02 92 3f
       1.0129505 -0.7472201 1.0932841 1.1406913
000060 74 16 c5 bd b0 65 d3 bb 86 7e a0 3b d8 87 40 3f
       -0.09623423 -0.006451331 0.0048978953 0.7520728
000070 81 a5 87 3f c5 01 26 be b4 9a 21 3f cb d6 eb 3e
       1.0597383 -0.16211613 0.63126683 0.46062312
000080 14 11 8d be a3 ae c3 3e 68 ce ad 3d 14 cf 25 bf
       -0.27552092 0.38219175 0.084866345 -0.647691
000090 7b 24 06 3d 3a ca e5 bb 6f f4 ad 3d 20 b4 25 3d
       0.032749634 -0.0070126327 0.08493888 0.040454984
0000a0 fc 1c ca bd 54 4c 93 be 84 f9 21 3f 8c ef f2 3e
       -0.098688096 -0.2876917 0.63271356 0.47448385
0000b0 24 38 3f 3e f0 74 b7 be a7 5d 41 3e 3c cb ea 3e
       0.1867376 -0.35831404 0.18883382 0.4585818
0000c0 74 74 5b be e7 1e c0 be a6 b0 91 be fd 1a 07 bf
       -0.21431142 -0.37523577 -0.28455085 -0.52775556
0000d0 42 d1 3a bf d8 d0 f8 3e 42 0d 70 be 20 de b1 be
       -0.7297555 0.48596835 -0.23442557 -0.3473978
0000e0 04 8c e3 3c e2 28 f4 bd d0 a5 df be fa cd a2 be
       0.027776726 -0.1192186 -0.43681192 -0.31797773
0000f0 68 2b ad 3e dc d9 ad 3e 4f 0c 2f be 3c 1a 12 3f
       0.3382218 0.33955276 -0.17094539 0.5707128
000100 b1 8f 02 3c 56 cd aa 3f 47 00 28 3f bb 22 3d 3f
       0.007968829 1.3343914 0.65625423 0.7388112
000110 f5 eb 94 be e2 f0 3d 3e 4b d0 d0 bf 2b f0 1e bf
       -0.2908627 0.18548921 -1.6313566 -0.6208522
000120 9a 6a 14 3e e2 3e b3 3c 16 7b fe bc 9c d4 9a 3d
       0.1449379 0.02188057 -0.031064551 0.07560083
000130 ce 1b c3 bd 10 25 b0 bd c6 55 e4 3c 36 da 62 3d
       -0.09526788 -0.08600819 0.027872931 0.055383883
000140 e8 7c f4 bc 7f 6c 6c 3e fe a4 d4 3a 48 b1 fa be
       -0.029844716 0.23088263 0.0016223488 -0.4896338
000150 54 dc 27 bf 7b 91 10 be 38 2f 1e 3f e7 c6 30 bf
       -0.6557057 -0.14117996 0.617908 -0.690535
000160 65 c3 1b bd f1 74 61 3f 04 8d 31 3c e4 0a ef be
       -0.03802814 0.88069063 0.010836843 -0.46687996
000170 c7 b1 3f bc ef 37 a3 3e 22 49 82 bf 00 ce 98 bf
       -0.0117001 0.3187861 -1.0178568 -1.1937866
000180 56 35 9b 3f f4 30 ad 3f 26 02 8b 3f af 37 50 bf
       1.2125652 1.3530564 1.0860031 -0.81334966
000190 cc 57 30 bf 6a 4d ed be 4e 63 8d be b2 92 78 be
       -0.6888397 -0.46348125 -0.27614826 -0.2427471
0001a0 a6 a7 d6 be c0 20 6b 3e 22 88 9e 3f 65 d8 41 3f
       -0.4192478 0.22961712 1.2385294 0.75720817
0001b0 f7 9d 26 3f ba 1c 57 3f bf c5 73 3d b6 8e 9a 3c
       0.65084785 0.8402821 0.059514757 0.018866878
0001c0 e8 c8 8a bf d5 d3 f3 be 74 2e a0 3e d9 5f 0f be
       -1.0842562 -0.47622553 0.3128544 -0.14001407
0001d0 66 eb 60 be 3a c1 bb be d8 ba 00 bf eb d9 52 3e
       -0.21964797 -0.36670858 -0.502851 0.20590942
0001e0 ac d2 2c be e4 39 1e bf fc 75 50 bd 31 46 12 3f
       -0.1687724 -0.61807084 -0.05089377 0.57138354
0001f0 dd f8 40 3f d4 c3 2d 3d bf 29 c9 3e fd 25 84 3e
       0.75379735 0.042423084 0.39289662 0.25810233
000200 ae d5 0b 3c 9f 69 45 bd 9c 27 74 3e 98 a1 7b be
       0.008534832 -0.04819643 0.23843235 -0.24573362
000210 be 1a a1 bd be c8 90 be 07 d5 17 bf 0e 99 0c be
       -0.07866429 -0.28278154 -0.5930943 -0.1373026
000220 b6 3a 34 3e 5c 9a 0b 3f 9c 5b 77 3e 45 71 e2 3e
       0.17600521 0.5453241 0.2415604 0.44227043
000230 91 35 e6 be 1e 16 ae be 4e ed 23 bf fc 62 c1 be
       -0.44962743 -0.3400125 -0.64033973 -0.37770832

onnx::Conv_303 f4 [16]
000000 15 62 cd be 0c ca 2d be 44 08 9b bf a5 80 ec bf
       -0.40113893 -0.16971606 -1.2111897 -1.8476759
000010 e2 a4 65 bf 36 3b 35 3f 71 56 b3 3f d0 a6 14 bc
       -0.89704716 0.70793474 1.4010755 -0.009072974
000020 a7 b7 06 3f c0 e3 23 bc 28 5c 2d bf 1c ce 98 3f
       0.5262398 -0.01000303 -0.67718744 1.19379
000030 d7 ee 9c be 4c 16 20 bd 0b 4a 45 3f 07 4e 1a be
       -0.3065097 -0.039083764 0.77066106 -0.15068828

onnx::Conv_305 f4 [8, 16, 1, 1]
000000 b2 75 19 be d8 d6 bc be 68 7d d7 bd 8c 79 c8 bd
       -0.14986303 -0.36882663 -0.10521966 -0.09788808
000010 55 f0 65 bd 5f 20 f9 3d c7 98 39 3e d5 f0 9d bd
       -0.0561374 0.121643774 0.18124686 -0.07711951
000020 fe 4c 02 3d 68 9c 26 bc 26 0a bf be 8e 0f 5b be
       0.031811707 -0.010169126 -0.3731243 -0.21392652
000030 8d 0f f6 bc f5 d1 ca 3d ef d0 09 be 51 b0 e9 3e
       -0.030036712 0.099033274 -0.13458608 0.4564233
000040 dc 32 e3 bd ef 68 27 3e 0d c9 d3 3e 2b 9a 81 3c
       -0.11093685 0.16348623 0.41364327 0.015820583
000050 b2 fa 12 be 9a 56 7f be 7c 14 51 be ec 8e cb 3e
       -0.14353445 -0.2493538 -0.2041797 0.39757478
000060 b9 04 43 be c7 db 78 3e 62 3b 59 be 12 16 e0 3e
       -0.1904477 0.24302588 -0.21214059 0.43766838
000070 68 6b ab bc d6 72 a3 3e c6 9a 3c bd 48 7c 73 3e
       -0.020925239 0.3192355 -0.04604604 0.23777878
000080 5d 96 15 3d 92 97 0e bd 11 fa 27 3e 34 f8 cf 3d
       0.03652035 -0.034812517 0.16403987 0.10154763
000090 0f c3 2c 3e 36 ac a7 bd af 13 39 3e 4a d8 3a be
       0.16871284 -0.081871435 0.18073915 -0.1824657
0000a0 11 d7 9f bd ff 16 33 bd ff 8d df 3e 4d 76 d0 ba
       -0.078046925 -0.043723103 0.43663022 -0.0015904397
0000b0 f0 db d0 3c f2 c1 1a be 36 05 23 3e 14 ef d7 3d
       0.0254955 -0.15113047 0.15919957 0.105436474
0000c0 2c 0e 73 3c d6 eb c2 3d 2a b7 06 be a4 c7 36 be
       0.014834922 0.095176384 -0.13155809 -0.17849594
0000d0 5e f3 9d be fe eb d6 3d c3 45 fa be 7a 04 11 3e
       -0.30849737 0.10494231 -0.4888135 0.14161864
0000e0 a6 99 22 3e bf d2 57 3b e2 14 06 bf 3c de 6f bd
       0.15878925 0.003293201 -0.52375615 -0.05856155
0000f0 93 cb 90 3e bf 8e c7 3e 32 80 93 be 27 f3 6d bd
       0.28280315 0.38976094 -0.28808743 -0.058093216
000100 40 46 83 be 24 e8 bb 3d 6b 31 b0 3d b5 83 39 3e
       -0.25639534 0.09175137 0.08603176 0.18116648
000110 10 05 39 3e 18 6c 4b be b8 0a f3 3d c9 23 1c 3e
       0.18068337 -0.19865453 0.11867279 0.15248026
000120 8c 41 53 bd fa e9 7b 3d ca 6e c3 3b cd 21 13 3f
       -0.051576182 0.061502434 0.005964135 0.5747345
000130 26 03 42 3e 9a d0 e5 3d f3 cb 86 bd a9 22 77 3e
       0.18946514 0.11221428 -0.06581869 0.24134316
000140 61 dc 0c bd f9 95 e3 bd 98 62 2e be a5 fa 89 3e
       -0.034389857 -0.111125894 -0.17029798 0.2694904
000150 ae 30 e2 3c 41 0c bc bd 9e 20 c3 3c f3 13 db 3d
       0.027611103 -0.09182025 0.023819264 0.106971644
000160 39 aa de bd 17 d7 d3 bd 7d 56 2e 3e 44 3d 10 3d
       -0.10872311 -0.103437595 0.1702518 0.035214677
000170 af 12 17 be 3a 8c db 3e 81 10 20 3e 32 16 41 3d
       -0.14753221 0.42880422 0.15631296 0.047140308
000180 57 13 06 3d 8f f0 04 3c 1e 16 84 3d d0 ce 4f 3e
       0.032733288 0.008113994 0.06449531 0.20293736
000190 fa 44 0b be 4f 46 51 be f7 d6 5d bd 32 e8 95 be
       -0.13600531 -0.20436977 -0.054160085 -0.29278713
0001a0 3a bf 44 bc 4d a7 12 3d 40 da a9 3e 1f 56 24 3c
       -0.012008483 0.03580408 0.33174324 0.0100302985
0001b0 80 58 88 3e 60 d8 3c be f9 ba 02 3d 86 d9 54 3e
       0.2663002 -0.18441916 0.031916592 0.20786104
0001c0 b5 b1 e0 bd ba f7 83 3d 33 b3 0c 3e 78 ac 8c bc
       -0.10971395 0.064437345 0.13740234 -0.017172083
0001d0 be 44 16 3d db 35 89 3d 4a 27 91 bd 85 ab c3 3d
       0.03668665 0.06699725 -0.07087572 0.09554199
0001e0 18 c8 e2 3d 45 ed 1e 3e 34 78 65 bd 66 91 c3 bd
       0.11073321 0.15520199 -0.056022838 -0.09549217
0001f0 fc 1a 10 3e 37 d2 5f be 0b 45 6d be 0a 7e 87 3d
       0.14072794 -0.21857534 -0.23170869 0.06615837

onnx::Conv_306 f4 [8]
000000 07 33 e5 3e 35 3a a3 be 2c 3b 10 bf 22 08 63 3f
       0.44765493 -0.31880346 -0.5634029 0.88684285
000010 40 6a 59 bf 6f 91 db be b5 64 1b be 3a 20 32 3e
       -0.8492775 -0.42884395 -0.15175135 0.17395106

onnx::Conv_308 f4 [16, 8, 1, 1]
000000 bd cc 42 bc 7d f1 3a 3d d9 d7 3d bd 14 4c 7a be
       -0.011889634 0.045640457 -0.046348426 -0.24443084
000010 df 07 8f be 77 05 c3 bc f3 ea 22 bb c3 5d c2 bd
       -0.27935693 -0.023806317 -0.002485928 -0.0949054
000020 cf a5 98 be 5f 49 9c 3e 0f 78 6c 3d 0e b8 05 bd
       -0.29814002 0.30524728 0.057731684 -0.03264623
000030 27 59 e8 3e f3 6a 04 3e 95 6c 20 bd 43 aa e9 bd
       0.45380518 0.12931423 -0.039166052 -0.11409428
000040 b8 ca 14 3e a0 f0 c5 3e 49 d6 7a 3e 56 4b 6b bd
       0.14530456 0.38660145 0.24495806 -0.057444893
000050 95 d3 12 3d 61 be e8 bd a2 42 ca 3e 42 7d 79 3e
       0.03584631 -0.11364437 0.39503962 0.24364188
000060 89 23 05 3b 99 aa 42 3d fc 8c 15 bd 97 1d 36 be
       0.002031537 0.047525976 -0.036511406 -0.17784725
000070 90 78 a5 be 73 5e 43 3e 05 e6 1d be 89 a8 2e be
       -0.32318544 0.19078998 -0.15419777 -0.17056479
000080 6e 05 0e bd 72 4c 10 3d d6 7d c5 bc d8 d1 b3 bc
       -0.034673147 0.035229154 -0.024107855 -0.021950647
000090 1b ef cc bb 22 ef 09 3d 8f 07 8c bd 55 47 25 be
       -0.0062540895 0.03367532 -0.06837379 -0.16140492
0000a0 6a cd c2 3c 93 39 c3 3d ec d1 78 bd f9 3f 42 bd
       0.02377959 0.09532466 -0.060747072 -0.04742429
0000b0 82 21 75 bd 31 52 05 3d b6 09 e5 bd 51 69 30 bc
       -0.05984641 0.032549087 -0.11183493 -0.010767297
0000c0 08 30 85 3e c4 9f 59 3e ba 20 94 3e 46 64 ce be
       0.26013207 0.21252352 0.28931218 -0.40310878
0000d0 c2 db 65 3e f0 73 97 bd 90 ff 9a 3e 88 d4 bf 3c
       0.22447112 -0.0739516 0.30273104 0.023416772
0000e0 b8 46 5d 3d 4d fd c8 39 4b 19 0a bb ff 60 6d bd
       0.05402252 0.00038335696 -0.0021072205 -0.05795383
0000f0 d2 db 87 bd d9 5e 9e 3c dc 85 b7 bc 4d 21 37 bd
       -0.06633724 0.019332336 -0.022402696 -0.044709492
000100 b8 21 04 3f 63 65 04 be f0 b3 cc bc 80 b5 db be
       0.5161395 -0.12929301 -0.024988145 -0.4291191
000110 7a f7 7c 3d a0 c0 2d bd 04 77 23 3f c7 60 18 3e
       0.06175945 -0.04242003 0.6385348 0.14880668
000120 15 31 a0 be 27 9b 66 be 17 5b 01 3f 9b eb 4c be
       -0.31287447 -0.22520123 0.5052962 -0.20011751
000130 65 f4 1c 3e 0e 2d 1a 3e 52 e0 4b 3e 3a de bd bc
       0.15327604 0.1505625 0.1990979 -0.023177255
000140 c8 3f 8e be f1 e5 8d 3e 2c 11 5c 3f 87 ff 10 be
       -0.27783036 0.27714494 0.859637 -0.14159976
000150 f5 21 a3 3e 0e 45 37 3e 16 c6 51 3e 2e b0 a4 3d
       0.31861845 0.17897436 0.2048572 0.08041416
000160 93 1f 1a be 23 76 ba be 03 5b 87 3e f1 e2 e8 3e
       -0.15051107 -0.36418256 0.26436624 0.45485643
000170 be 1f 10 3e fc 22 c4 3d 7a a4 fa 3d 52 d5 31 bc
       0.14074609 0.09576985 0.12238403 -0.010854082
000180 e5 dd c3 bd 62 e6 16 3f 33 e9 e3 bd 9b f8 a6 3d
       -0.095638074 0.58945286 -0.111284636 0.081528865
000190 5f 72 0f 3e cf 36 d6 bd c8 e3 2f be 3c 16 89 bb
       0.14008473 -0.10459673 -0.17176735 -0.0041835587
0001a0 92 eb 29 3e 39 e7 b5 3e 2c a3 b6 bc b4 52 b2 3e
       0.16593769 0.3552797 -0.022294603 0.34828722
0001b0 1f a8 dc 3e d5 13 11 be 08 80 1f 3e 57 be 47 3d
       0.43097016 -0.14167722 0.15576184 0.048765507
0001c0 b6 b9 56 bd 31 3b e6 3e e5 ad 9f be 47 98 80 3f
       -0.0524232 0.44967034 -0.31187358 1.0046471
0001d0 77 a9 3a 3f 36 e3 35 3f 87 af 82 be d6 4b e5 be
       0.7291483 0.7104982 -0.25524542 -0.4478442
0001e0 1a 40 b3 3a 15 9e c6 bb ce 31 f1 bb 0f 1a 92 bb
       0.001367572 -0.0060613253 -0.0073606735 -0.004458673
0001f0 5c ac f5 3b 91 22 45 3c 4e 75 83 bb 9d aa c5 bb
       0.0074973535 0.012032167 -0.0040117865 -0.0060323016

onnx::Conv_309 f4 [16]
000000 32 87 c0 3e 6d 36 8f be 95 1c 91 3e 8f 99 0b 3f
       0.37603146 -0.2797121 0.2834212 0.54531187
000010 7e 28 8f 3f 19 be 5e 3f 95 4b 0e bd c7 3e a0 3f
       1.1184232 0.87008816 -0.03474005 1.2519158
000020 a6 f3 3a 3b 3d 52 72 3e f7 bd 12 bd 05 4f b5 3d
       0.0028526573 0.23664184 -0.035825696 0.088529624
000030 4f 77 99 3e b1 0a 15 3f 7a 01 0b 3e 4c cf 85 bf
       0.29973838 0.5821944 0.13574782 -1.0453887
