model_checkpoints/experiments/overall/onnx/fastscnn_192a0.125t2r2pp0_noinit.onnx (onnx, 34288 bytes, 63 tensors)

feature_fusion.conv_high_res.weight f4 [16, 8, 1, 1]
0	0xbeccbaec	-0.3998636
1	0x3eccdc03	0.40011606
2	0x3f1f211b	0.6215989
3	0xbcdee893	-0.02721051
4	0x3fb615df	1.4225425
5	0xbf201e09	-0.6254583
6	0xbe402b1e	-0.18766448
7	0xbe8ee90d	-0.2791218
8	0xc02661ca	-2.5997186
9	0x3e1774f4	0.14790708
10	0x3f275ea7	0.65378803
11	0xbe1b2181	-0.151495
12	0x3e82d69e	0.25554365
13	0xbe810c86	-0.25204867
14	0xbdddf7e9	-0.10838301
15	0xbe8dc46c	-0.2768892
16	0x3f61053e	0.87898624
17	0xbf2376ef	-0.63853353
18	0xbf9d0a72	-1.2268813
19	0xbe732187	-0.23743258
20	0x3e18088c	0.1484701
21	0x3f14a774	0.58068013
22	0xbdf990dc	-0.12185833
23	0x3f8ad575	1.0846392
24	0xbea214af	-0.31656405
25	0xbe4578b9	-0.19284333
26	0xbede1148	-0.4337256
27	0x3e1ec54d	0.15504952
28	0xbf5f0ef6	-0.87132204
29	0x3dd9e7ba	0.106399015
30	0x3f06fd24	0.5273001
31	0x3d57ea85	0.05271389
32	0x3f567f7a	0.83788264
33	0x3fc62464	1.5479856
34	0x3f2ad0f1	0.6672507
35	0x3ec606d7	0.38677093
36	0x3d6739da	0.056451656
37	0xbf57aef1	-0.84251314
38	0x3efe6f64	0.4969436
39	0xbfc867f6	-1.5656726
40	0xbed9a82d	-0.4251112
41	0xbee38648	-0.44438386
42	0x3dec0285	0.11523918
43	0x3f5544da	0.83308184
44	0x3d9c637a	0.07636161
45	0xbee889b8	-0.4541757
46	0x3fd208db	1.6408952
47	0xbe0bcac5	-0.13651569
48	0xbfb7de49	-1.4364711
49	0xbf135b0f	-0.5756082
50	0xbef384a4	-0.47562134
51	0xbe54ed67	-0.20793687
52	0xbf59da69	-0.8509889
53	0x3eaaa262	0.33327013
54	0xbe83d64a	-0.25749427
55	0x3f04bd5a	0.5185143
56	0x3ec342bc	0.38136852
57	0x3eb95075	0.36194196
58	0x3ece76eb	0.40325102
59	0xc013067b	-2.2972705
60	0xbeddf65a	-0.43352014
61	0x3e66eb23	0.22550635
62	0xbfdf769b	-1.745807
63	0xbf504c3c	-0.81366324
64	0xbea3a9e5	-0.31965557
65	0x3f85acc7	1.0443352
66	0x3f385ea7	0.7201943
67	0x3e4f6215	0.20252259
68	0x3e96bddf	0.29441735
69	0xbf447cc8	-0.767529
70	0x3e83f4e1	0.25772765
71	0xbf7116e9	-0.94175583
72	0x3f16641a	0.5874649
73	0x3c806ecf	0.015677838
74	0xbe3b1eb5	-0.18273433
75	0xbfd67941	-1.6755754
76	0xbc6b778c	-0.014371764
77	0xbd51694a	-0.051125802
78	0xc01f7231	-2.4913447
79	0x3eca5d6e	0.39524406
80	0x3f3bc804	0.73352075
81	0x3ed5e086	0.4177286
82	0x3d03c715	0.03217228
83	0x3ef7f0e3	0.4842597
84	0xbc8058d7	-0.015667362
85	0x3e12c201	0.14331819
86	0x3f2900a9	0.6601663
87	0xbd760569	-0.060063753
88	0x3f0cd8d8	0.5501838
89	0x3e894bef	0.26815745
90	0x3e33bd59	0.17552699
91	0xc024628e	-2.5685153
92	0xbd2446ac	-0.04010646
93	0xbdddb978	-0.10826391
94	0xbfd56bea	-1.6673558
95	0xbeb65406	-0.3561098
96	0xbe81bb0a	-0.25338012
97	0x3edcd085	0.43127838
98	0x3f217b72	0.6307899
99	0x3f3fd10d	0.7492836
100	0xbdecb214	-0.11557403
101	0xbf60fa6b	-0.8788211
102	0x3ed41b35	0.41427007
103	0xbf02ae02	-0.51046765
104	0xbe735379	-0.23762311
105	0x3f6365f5	0.8882745
106	0x3f2b9ed9	0.6703926
107	0x3db4d253	0.08829179
108	0x3f4b2758	0.7935691
109	0xbebc7a19	-0.36811903
110	0xbc6389a3	-0.013887796
111	0xbf915616	-1.1354396
112	0x3c8d2306	0.017228615
113	0x3f4eda38	0.80801725
114	0x3d646a40	0.05576539
115	0xbd961d86	-0.0732985
116	0xbf8881f9	-1.0664665
117	0xbf10821a	-0.5644852
118	0xb9eda8b0	-0.00045329845
119	0xbf5735cc	-0.8406646
120	0x3e5d1704	0.21590811
121	0x3e4d3245	0.20038708
122	0x3f486187	0.78273815
123	0x3e1042ef	0.14088033
124	0x3f1b5608	0.6067815
125	0xbecc68b5	-0.39923635
126	0x3e31c169	0.17358936
127	0xbeb252bf	-0.34828755

feature_fusion.conv_high_res.bias f4 [16]
0	0x3e83c8aa	0.25739032
1	0x3fa901df	1.3203696
2	0xbe2f04b4	-0.17091638
3	0x3f8ebd06	1.1151435
4	0x3eacfa43	0.33784685
5	0x3fa61393	1.2974724
6	0x3f52ff97	0.8242125
7	0xbcda768c	-0.026667856
8	0xbe574209	-0.21021284
9	0xbf10c4d8	-0.5655036
10	0x4008a96a	2.1353402
11	0xbe3b0368	-0.18263018
12	0xbe4a230d	-0.19739933
13	0xbe49842a	-0.19679323
14	0x3f30cdc6	0.69063985
15	0x3eb21ec6	0.34789103

feature_fusion.conv_low_res.weight f4 [16, 16, 1, 1]
0	0x3ebe6054	0.37182868
1	0x3e79dd7b	0.24400894
2	0xbf906bed	-1.1282936
3	0x3f080494	0.53131986
4	0x3f1ce822	0.61291707
5	0x3e85556c	0.26041734
6	0x3c0519ae	0.008123798
7	0x3f146324	0.57963777
8	0xbf7ef0f4	-0.99586415
9	0x3ec748dd	0.38922778
10	0x3ee7eca8	0.45297742
11	0xbf48587f	-0.78260034
12	0x3f139408	0.5764775
13	0xbe4b398f	-0.19846176
14	0xbf16aa30	-0.58853436
15	0x3eb5b62c	0.3549055
16	0xbe7afa69	-0.24509586
17	0xbeb05ef7	-0.34447452
18	0x3f03ee86	0.5153583
19	0x3e0165dc	0.12636513
20	0xbf2efd6a	-0.6835543
21	0xbf14a20b	-0.5805976
22	0x3e780925	0.24222238
23	0x3eb2c658	0.3491695
24	0x3e34007a	0.17578307
25	0x3e1ac778	0.15115154
26	0xbf1561fc	-0.5835264
27	0xbe0d1ef8	-0.13781345
28	0x3f9cb2d4	1.2242074
29	0x3f373e07	0.7157902
30	0xbf1e8eda	-0.61936724
31	0xbeb3f6e5	-0.35149303
32	0x3e799aea	0.24375501
33	0xbf6c07da	-0.9219948
34	0x3f40159b	0.7503297
35	0xbf32b9e5	-0.698149
36	0xbd2c44e0	-0.04205787
37	0x3f8cfc2a	1.1014454
38	0xbde87a06	-0.11351399
39	0x3ec93e91	0.39305547
40	0x3f0f73bf	0.5603599
41	0x3d06cf19	0.032912347
42	0xbf8749e8	-1.0569429
43	0x3e824c03	0.25448617
44	0xbdaa8ae3	-0.08327272
45	0xbf64e3f3	-0.8941032
46	0x3f61452c	0.8799617
47	0x3eee6ee9	0.46568993
48	0xbd8fd830	-0.07023656
49	0x3ece687f	0.403141
50	0xbd89ca95	-0.067280926
51	0x3e06b8c3	0.13156419
52	0x3f1ad89a	0.6048676
53	0x3e96f69d	0.29485026
54	0xbe96bff7	-0.29443333
55	0x3f1afad8	0.6053901
56	0x3f4f960a	0.81088316
57	0x3ef77434	0.48330843
58	0x3ef29d95	0.4738585
59	0xbef535b9	-0.4789255
60	0xbe7018cf	-0.23446964
61	0x3f010de1	0.504118
62	0x3e9c3447	0.30508634
63	0xbfb1ed5b	-1.390056
64	0xbf0c166e	-0.54721725
65	0x3e4110f6	0.18854126
66	0x3f334b70	0.70036983
67	0x3f4e2fca	0.8054167
68	0x3ea9792c	0.3310026
69	0xbe4012e9	-0.18757214
70	0xbcbb9ef4	-0.022902943
71	0xbed14322	-0.4087153
72	0xbe059357	-0.13044487
73	0xbe95ddfa	-0.29270917
74	0xbea1ff18	-0.31639934
75	0xbe61b59f	-0.22041939
76	0xbe5db367	-0.21650468
77	0xba943578	-0.0011307439
78	0xbfcc0895	-1.5940119
79	0x3eb4718d	0.35242882
80	0x3f8b3b06	1.0877388
81	0xbf4086da	-0.7520577
82	0xbed7e30f	-0.4216542
83	0x3de72dd8	0.11288041
84	0x3ea8cdba	0.32969457
85	0xbd8a8d91	-0.06765283
86	0xbf78bd8b	-0.9716422
87	0x3ec51821	0.3849497
88	0x3f131b33	0.5746338
89	0x3e7f1db4	0.24913675
90	0x3d3f29ed	0.046670843
91	0x3e5c82b0	0.21534228
92	0x3d4f7a67	0.05065384
93	0xbd3c2446	-0.04593303
94	0x3dcfac13	0.101402424
95	0x3e5acdba	0.21367541
96	0xbe66e3e8	-0.22547877
97	0x3f5bc872	0.8585273
98	0x3e74a125	0.23889597
99	0xbf22cc1f	-0.63592714
100	0xbea1b14e	-0.31580585
101	0xbf1f954e	-0.62337196
102	0x3d280db4	0.041028693
103	0x3e8658f2	0.26239735
104	0x3ebf3002	0.37341315
105	0xbf3f7387	-0.74785656
106	0x3ecebfc4	0.4038068
107	0xbd84f66c	-0.06492314
108	0xbd511818	-0.05104837
109	0x3f36a4f8	0.7134547
110	0x3e73d4b4	0.23811609
111	0x3e4881df	0.19580792
112	0xbeefc338	-0.46828628
113	0xbd732f90	-0.05937153
114	0x3f5c3729	0.8602167
115	0x3f109561	0.56477934
116	0xbde080b2	-0.10962047
117	0xbe704bbf	-0.23466395
118	0x3e9ce4d2	0.30643326
119	0xbf2c4912	-0.67298996
120	0xbe37e00e	-0.17956564
121	0xbf7f4fb3	-0.99730986
122	0xbe1f08ff	-0.15530775
123	0x3f40f1b5	0.75368816
124	0x3e93306b	0.28747877
125	0xbd9af4fb	-0.075662576
126	0x391cc001	0.00014948846
127	0x3ebcc51f	0.3686914
128	0xbf1c6c7d	-0.6110304
129	0xbddc76fe	-0.107648835
130	0x3f043cd1	0.516553
131	0x3f32ce18	0.69845724
132	0x3edddaa1	0.43330863
133	0x3bd3f5a9	0.006468494
134	0x3e47eec9	0.19524683
135	0xbe2a8bf2	-0.16654947
136	0xbf22c27e	-0.6357802
137	0xbf38dbed	-0.7221058
138	0xbeca6b13	-0.39534816
139	0xbf69a3e7	-0.9126572
140	0x3eec8829	0.46197632
141	0xbf73b21b	-0.9519364
142	0xbf5b4f7e	-0.8566817
143	0xbf31aa45	-0.69400436
144	0xbeeab10f	-0.4583821
145	0x3eda1cfa	0.42600232
146	0x3e397145	0.18109615
147	0x3ee06f87	0.4383509
148	0xbf5e212d	-0.8676937
149	0xbf08d265	-0.53446037
150	0x3dda31e5	0.10654048
151	0xbf0f8135	-0.5605653
152	0x3d97b546	0.07407622
153	0xbfbe91ed	-1.4888283
154	0xbec19d05	-0.3781511
155	0xbe212583	-0.15736966
156	0x3e121226	0.14264736
157	0xbf07778c	-0.5291679
158	0x3f2ac235	0.66702586
159	0x3f074153	0.5283405
160	0x3d9f7f87	0.07787996
161	0x3f72d583	0.94857043
162	0x3ec9e67a	0.39433652
163	0xbe2b7ba7	-0.16746388
164	0x3d311839	0.04323599
165	0xbfb1fb54	-1.3904824
166	0x3e31969c	0.17342609
167	0x3ed26160	0.41089916
168	0x3d37ec80	0.04490328
169	0x3f9b70ab	1.2143759
170	0x3edabdb0	0.42722845
171	0xbf16791d	-0.58778554
172	0xbf18dc62	-0.5971128
173	0x3d6d8436	0.057987414
174	0xbe1cfdda	-0.15331212
175	0x3e13821f	0.14405106
176	0xbf4c11e8	-0.7971482
177	0xbdcdd607	-0.10050588
178	0x3e58f19f	0.21185921
179	0x3efb343d	0.49063292
180	0xbf4b9235	-0.7951997
181	0x3eac31ec	0.33631837
182	0x3f1349f8	0.5753474
183	0xbf4f82f4	-0.81059194
184	0xbeacce78	-0.33751273
185	0xbf08ca43	-0.53433627
186	0xbe8b356a	-0.2718919
187	0x3f18a9bd	0.59634
188	0xbf35582a	-0.7083765
189	0xbecaff47	-0.39647886
190	0xbe1461f5	-0.14490493
191	0x3f26c798	0.65148306
192	0xbf73aaaf	-0.9518232
193	0xbf142eea	-0.57884085
194	0xbf1a70ae	-0.60328186
195	0x3f00c0c3	0.5029413
196	0xbf49403a	-0.78613627
197	0x3f654eac	0.8957317
198	0x3fa05910	1.252718
199	0x3f4ea3ca	0.8071867
200	0xbe8f9c1e	-0.28048795
201	0x3e2c2f86	0.16815004
202	0xbf261d4f	-0.6488847
203	0x3f063a1e	0.5243243
204	0xbec038d8	-0.37543368
205	0x3eb785f5	0.3584439
206	0xbe9b85e0	-0.30375576
207	0x3f42431f	0.7588367
208	0xbed56b27	-0.41683313
209	0xbe21c968	-0.15799487
210	0x3d60b46d	0.054859567
211	0x3f69a441	0.91266257
212	0x3f1a1da7	0.60201496
213	0xbe768ff2	-0.24078348
214	0xbe6fc963	-0.23416667
215	0xbea12545	-0.31473747
216	0xbf2a795b	-0.66591424
217	0xbf84aec6	-1.0365837
218	0xbf4c0e32	-0.7970916
219	0xbe9dc67b	-0.3081549
220	0x3eead77b	0.45867524
221	0xbf551833	-0.8324005
222	0xbf2d2698	-0.67637014
223	0xbe5ab1e2	-0.2135692
224	0xbea00f62	-0.31261736
225	0xbead1524	-0.33805192
226	0x3f3ac7be	0.7296103
227	0x3ee9bfc0	0.45654106
228	0xbcd9d3b1	-0.0265902
229	0xbf0c092e	-0.5470151
230	0x3c9454b0	0.018106788
231	0x3e9bf1ce	0.3045792
232	0x3d3dce23	0.046339165
233	0x3ecf31f5	0.40467802
234	0x3f28620d	0.65774614
235	0xbd537700	-0.05162716
236	0xbe8a66d3	-0.27031574
237	0xbe3b0d2a	-0.1826674
238	0xbf08ab94	-0.5338681
239	0xbf9bc41d	-1.2169224
240	0x3dd3294d	0.10310612
241	0x3e1a9e99	0.15099563
242	0xbd9eaa39	-0.07747311
243	0xbea2227d	-0.31666937
244	0x3f4e976c	0.806998
245	0x3c0e634c	0.008690666
246	0x3e8bcace	0.27303165
247	0x3df3e132	0.11908187
248	0xbfc31b08	-1.5242624
249	0x3f1fe31e	0.6245593
250	0xbe85930f	-0.2608876
251	0xbf185351	-0.5950213
252	0x3f485fda	0.7827126
253	0x3e366e4b	0.17815511
254	0xbccf13e9	-0.025278049
255	0x3f8957e1	1.0729944

feature_fusion.conv_low_res.bias f4 [16]
0	0xbd122368	-0.035678297
1	0x3f8bb7ac	1.0915427
2	0xbea814a4	-0.32828248
3	0x3f7fbae3	0.9989454
4	0x3f0aa473	0.5415718
5	0x3f85b397	1.0445431
6	0x3f9ac474	1.2091203
7	0x3e4c7bf7	0.19969164
8	0xbe137968	-0.14401782
9	0xbe9b0096	-0.30273885
10	0x402d61bf	2.709091
11	0xbea77d2c	-0.32712686
12	0xbf100c80	-0.56269073
13	0xbdd0a2da	-0.101873115
14	0x3f72a32a	0.9478022
15	0x3f3b222b	0.7309901

classifier.conv.weight f4 [1, 16, 1, 1]
0	0xbf0d0ccb	-0.55097646
1	0x3f8d92d5	1.1060435
2	0xbf02059c	-0.5078981
3	0xbefb1205	-0.49037185
4	0xbf906988	-1.1282206
5	0xbf3126c9	-0.69199806
6	0xbf8cd9ce	-1.1003969
7	0xbf0bb4fd	-0.5457304
8	0xbef6ab46	-0.48177546
9	0x3fbbb3e3	1.4664272
10	0xbfa35d57	-1.276286
11	0xbfaa325e	-1.3296621
12	0xbf5791be	-0.8420676
13	0xbf8cb580	-1.099289
14	0xbf52ddd6	-0.82369745
15	0xbf03c7b0	-0.51476574

onnx::Conv_275 f4 [4, 3, 3, 3]
0	0x3d2c7b4c	0.042109773
1	0xbcca53ba	-0.024698127
2	0x3d3b97f6	0.045799218
3	0xbb9d5ee1	-0.00480257
4	0x3c3a447b	0.011368866
5	0x3de83c48	0.11339623
6	0xbcd82239	-0.026383506
7	0x3da1638c	0.07880315
8	0x3e88aaea	0.26692897
9	0xbe100c39	-0.14067163
10	0xbc69bb28	-0.014265813
11	0x3dad05e1	0.08448387
12	0xbe8b598f	-0.27216765
13	0xbda816cf	-0.082074754
14	0x3e41a022	0.18908742
15	0xbe2ac4d2	-0.16676643
16	0x3e82a507	0.2551653
17	0x3f27242f	0.65289587
18	0xbe51cb07	-0.20487605
19	0xbcfe1c6d	-0.031019414
20	0xbd4c4550	-0.04987079
21	0xbe4ea0f7	-0.2017859
22	0xbe1676b6	-0.14693722
23	0x3c84e7b2	0.016223762
24	0xbe2dcabd	-0.1697187
25	0x3d2b2197	0.04178008
26	0x3eaa3140	0.332407
27	0x3e00868a	0.12551323
28	0xbce3ac8e	-0.027792241
29	0x3df55c09	0.11980445
30	0x3dce73ce	0.10080682
31	0xbd8e86b6	-0.06959288
32	0xbe4120a3	-0.18860106
33	0x3e245738	0.16048896
34	0x3c170f61	0.009219975
35	0x3d80dadf	0.06291746
36	0x3d965ec3	0.07342293
37	0x3e9bf643	0.3046132
38	0x3f5a849f	0.85358614
39	0xbe1139b0	-0.14182162
40	0x3f385949	0.7201124
41	0x3f84f28c	1.038652
42	0xbf1f9550	-0.6233721
43	0x3e9fa39b	0.3117951
44	0x3f7e20cd	0.992688
45	0xbec6edb8	-0.3885324
46	0xbef30174	-0.47462046
47	0xbdceb13c	-0.100923985
48	0xbe3a2869	-0.18179478
49	0x3db8fcc2	0.09032585
50	0x3d0e5aff	0.03475475
51	0xbedacdb9	-0.4273508
52	0xbe03f966	-0.12888107
53	0x3e3a810f	0.18213294
54	0x3e2de6bf	0.16982554
55	0xbdf67eb0	-0.120358825
56	0xbe3d0f68	-0.18462908
57	0x3db961c7	0.09051853
58	0xbe2ab947	-0.1667224
59	0xbcc10eca	-0.023566622
60	0x3e088134	0.13330537
61	0x3cbf33db	0.023340156
62	0xbd5287d6	-0.051399074
63	0x3d80c7ed	0.06288133
64	0xbe66e79f	-0.22549294
65	0xbedea8ff	-0.4348831
66	0x3d0df066	0.03465309
67	0xbec74995	-0.38923326
68	0xbf39befe	-0.72557056
69	0xbdb01412	-0.08597578
70	0xbeec60dc	-0.46167648
71	0xbf31c116	-0.6943525
72	0x3e923505	0.28556076
73	0x3c328986	0.010897046
74	0xbe184098	-0.1486839
75	0x3e06fe6c	0.13182992
76	0x3dcf8686	0.1013308
77	0xbce27ed6	-0.02764837
78	0x3e99cca7	0.3003895
79	0x3de86bb5	0.113486685
80	0x3db23450	0.08701384
81	0x3d35ea4b	0.044412892
82	0xbd5a719b	-0.053331
83	0xbdd75efb	-0.10516163
84	0x3dc00bb6	0.09377234
85	0x3dabb2d2	0.08383717
86	0x3c44462b	0.01197962
87	0x3b327839	0.0027232303
88	0x3cc9ce71	0.024634572
89	0x3cf964cb	0.03044357
90	0xbe452442	-0.19252113
91	0xbd80db8f	-0.062918775
92	0x3ddc7f88	0.10766512
93	0xbe48801f	-0.19580124
94	0xbcd8ebcc	-0.026479624
95	0x3e2d3d52	0.16917923
96	0xbdb5210c	-0.08844194
97	0xbd3120e8	-0.043244272
98	0x3daffe50	0.08593428
99	0xbdb9f20a	-0.090793684
100	0xbe392a4b	-0.1808254
101	0xbdcbf80f	-0.09959423
102	0xbddd66b7	-0.10810607
103	0xbbd0630c	-0.0063594636
104	0x3de42f12	0.111417904
105	0xba5c48f3	-0.0008403204
106	0xba0c7e69	-0.0005359413
107	0x3d91bcc9	0.07116086

onnx::Conv_276 f4 [4]
0	0x3f3a7ce1	0.728468
1	0x3de50d2c	0.11184153
2	0x3de1f0d0	0.110322595
3	0x3f987280	1.1909943

onnx::Conv_278 f4 [4, 1, 3, 3]
0	0xbf438434	-0.763736
1	0xbfaa3ebb	-1.3300394
2	0xbf2dcdd9	-0.67892224
3	0x3edb5cb8	0.42844176
4	0xbd92fb26	-0.07176809
5	0xbefe9827	-0.49725458
6	0x3f33a4e4	0.7017348
7	0x3f9f1fa7	1.2431535
8	0x3f7368e8	0.9508195
9	0xbd0fc700	-0.03510189
10	0xbdcf2860	-0.10115123
11	0xbd9a11e2	-0.07522942
12	0x3d8b5c81	0.06804753
13	0x3e8b6e50	0.272326
14	0x3e3254a4	0.174151
15	0x3dd3d7d9	0.10343904
16	0x3ea9dea7	0.33177683
17	0x3e62932f	0.22126459
18	0xbd4af40d	-0.04954915
19	0xbd455ba0	-0.048183084
20	0xbd7ed6b8	-0.06221649
21	0x3e119b0f	0.14219306
22	0x3e0899fc	0.1333999
23	0x3d8b57e6	0.06803875
24	0x3ea54464	0.3227874
25	0x3e68a527	0.2271925
26	0x3dfb7fea	0.12280257
27	0xbf43195f	-0.7621059
28	0xbf950d78	-1.1644735
29	0xbf4b8ebd	-0.79514676
30	0x3f0c1340	0.54716873
31	0xbf3d2611	-0.7388621
32	0xbfc46067	-1.534192
33	0x400119ad	2.0171921
34	0x3ff57cf4	1.9178758
35	0x3f1c3443	0.61017245

onnx::Conv_279 f4 [4]
0	0xbdaee4f7	-0.08539765
1	0xbf3015a0	-0.68783
2	0xbf0559a7	-0.52089924
3	0xbd87fbf7	-0.06639855

onnx::Conv_281 f4 [6, 4, 1, 1]
0	0xbfb37cba	-1.4022439
1	0x3d68ed6d	0.056867052
2	0x3e94307f	0.2894325
3	0x3e7d2005	0.24719246
4	0x3ec0a99d	0.37629405
5	0x3c6ea423	0.0145655
6	0x3e5c7f7a	0.21533003
7	0x3fe56a69	1.7923099
8	0xbeabb523	-0.33536634
9	0x3c194cb3	0.009356665
10	0x3f947a26	1.1599777
11	0x3e10d649	0.14144243
12	0x3fb13608	1.3844614
13	0xbe4fdcd5	-0.20299084
14	0x3ebe9809	0.3722537
15	0xc00cc2ce	-2.19939
16	0xbc8c6e5a	-0.017142463
17	0xbe8ed878	-0.27899528
18	0x3eb38bd3	0.35067615
19	0x3bb9e5a6	0.005673128
20	0x3cb091c2	0.021553878
21	0x3edb56aa	0.42839557
22	0xbe169b51	-0.14707686
23	0xbbefac94	-0.007314274

onnx::Conv_282 f4 [6]
0	0xbe4ec65e	-0.20192859
1	0x3dec609e	0.11541866
2	0x3f1f4a81	0.6222306
3	0x3e996798	0.29961848
4	0x3f8f52f2	1.1197188
5	0x3f58ffb8	0.84765196

onnx::Conv_284 f4 [6, 1, 3, 3]
0	0xbe18e49b	-0.14930956
1	0xbe8a4966	-0.27009124
2	0xbd91c962	-0.07118489
3	0xbe69e22d	-0.22840185
4	0xbee2be73	-0.44285926
5	0xbe36b230	-0.1784141
6	0xbcc3bfe3	-0.02389521
7	0xbe6fca55	-0.23417027
8	0xbe64c533	-0.2234085
9	0x3cc019eb	0.023449859
10	0x3da8b77a	0.082381204
11	0x3dad3e7a	0.08459182
12	0x3d6e7f71	0.058227006
13	0x3e43299e	0.19058844
14	0x3e668869	0.22512974
15	0x3d2e1633	0.04250164
16	0x3d8cd990	0.06877434
17	0x3e3e638d	0.18592663
18	0x3e85cc82	0.2613259
19	0x3c987bdb	0.018613746
20	0xbecaf15f	-0.39637277
21	0x3eca751e	0.39542478
22	0x3dc327c8	0.09529072
23	0xbf5ec8b0	-0.87024975
24	0x3dde59b7	0.108569555
25	0x3eca4c54	0.3951136
26	0xbebbb8f0	-0.36664534
27	0x3d52dfbd	0.051482905
28	0x3dba978e	0.09110938
29	0x3d80745e	0.06272195
30	0x3ded2e79	0.115811296
31	0x3e3f24d8	0.18666399
32	0x3dc8e7c9	0.098098345
33	0x3d710c9f	0.058849927
34	0x3e46083a	0.19339076
35	0x3dd68963	0.10475423
36	0x3f86cb29	1.053075
37	0x3fd7b122	1.6850932
38	0x3dc93062	0.098236814
39	0x3f26660c	0.6499946
40	0x3f3a55b2	0.7278701
41	0xbf53444d	-0.82526094
42	0xbd9f7887	-0.07786661
43	0xbf332d1e	-0.6999072
44	0xbfb6f552	-1.4293616
45	0x3db7c102	0.0897236
46	0x3ea68b26	0.32528037
47	0x3e5248db	0.20535605
48	0x3ec166e7	0.3777382
49	0x3f5b6eaa	0.85715735
50	0x3f3e078b	0.7423026
51	0x3e59b1a0	0.21259165
52	0x3f1a7be1	0.60345274
53	0x3f310484	0.69147515

onnx::Conv_285 f4 [6]
0	0x3f7a2b84	0.9772265
1	0xbf5d741c	-0.86505294
2	0x3e62bc16	0.22142062
3	0xbf79f1dd	-0.9763468
4	0xbf83a3dc	-1.0284381
5	0xc0653528	-3.5813694

onnx::Conv_287 f4 [8, 6, 1, 1]
0	0x3f2ec520	0.6826954
1	0xbf1ff4dd	-0.62483007
2	0xbbbdf3f3	-0.0057969033
3	0xbf3a3278	-0.7273326
4	0xbdb971ba	-0.09054895
5	0xbe1a7044	-0.15081888
6	0x3e602e3e	0.2189264
7	0xbdd75e7e	-0.1051607
8	0x3d8ee78b	0.06977757
9	0xbdcee582	-0.10102369
10	0xbd9a6c82	-0.075402275
11	0x3f65a95b	0.8971154
12	0xbed11a66	-0.40840453
13	0x3e932f5f	0.2874708
14	0xbe961789	-0.2931483
15	0x3e6dcd12	0.2322276
16	0x3df9a7f1	0.121902354
17	0x3efe1765	0.49627224
18	0x3cf88465	0.030336568
19	0x3e412948	0.18863404
20	0xbf1e1d05	-0.6176303
21	0x3e10e9c2	0.14151672
22	0xbf6a6351	-0.91557795
23	0xbe48ffcd	-0.1962883
24	0xbd25d05b	-0.040481906
25	0xbe2f5bbd	-0.17124839
26	0x3e888f47	0.26671812
27	0xbe540153	-0.2070363
28	0xbf26e792	-0.651971
29	0xbd543ea5	-0.051817555
30	0x3e4c304d	0.199403
31	0x3de9a52d	0.11408458
32	0xbe1ea40d	-0.15492268
33	0xbe0e655a	-0.1390585
34	0xbe185301	-0.14875413
35	0xbedf1bf7	-0.43576023
36	0xbeaacdad	-0.33360043
37	0x3f0214f0	0.508132
38	0x3f0ad0b0	0.5422468
39	0x3eb6cb90	0.3570218
40	0x3ed0c50e	0.4077534
41	0x3d9437d8	0.07237214
42	0xbe68f410	-0.22749352
43	0x3dbf8473	0.093514346
44	0xbd480553	-0.048833203
45	0x3e10fd1a	0.1415905
46	0x3db35860	0.087570906
47	0xbf8fb024	-1.1225629

onnx::Conv_288 f4 [8]
0	0xbddb9cea	-0.10723288
1	0x3e9d9a41	0.3078175
2	0x3e96a268	0.2942078
3	0x3f001fb2	0.50048363
4	0x3f897008	1.0737314
5	0x3d902c42	0.070396915
6	0x3f3658b4	0.712291
7	0xbec91e54	-0.3928095

onnx::Conv_290 f4 [16, 8, 1, 1]
0	0x3e26298a	0.16226783
1	0x3e6c949c	0.23103565
2	0x3e229484	0.15876967
3	0xbe774cf1	-0.24150445
4	0x3ebfe0f5	0.37476316
5	0xbe64c3f1	-0.2234037
6	0x3e64562e	0.222985
7	0xbdd1f8c6	-0.10252528
8	0xbcdb4aa9	-0.026769
9	0xbec61c78	-0.38693595
10	0xbf314ddb	-0.69259423
11	0x3eac20b4	0.336187
12	0x3e248565	0.16066511
13	0x3fbcf6f0	1.4762859
14	0xbe41364d	-0.1886837
15	0x3f8b29e5	1.087216
16	0xbdccd58b	-0.100016676
17	0x3d345a0c	0.044031188
18	0x3e1af809	0.1513368
19	0x3b9c0b1b	0.004762066
20	0x3e7ba389	0.24574102
21	0xbe0a8bc7	-0.13529883
22	0x3ce99ed8	0.028518125
23	0xbea9ad6f	-0.33140132
24	0xbe5de45f	-0.21669148
25	0x3e03bbd8	0.12864625
26	0xbe787d52	-0.24266556
27	0x3e480892	0.1953452
28	0x3e252a5f	0.16129445
29	0x3e606fb6	0.21917614
30	0x3da7c447	0.08191734
31	0x3e81c08b	0.2534221
32	0x3f3c71cd	0.73611146
33	0x3f72518f	0.946557
34	0x3dbcb431	0.09214056
35	0xbe21e51a	-0.15810052
36	0x3f11a35b	0.56889886
37	0x3e7eef21	0.24895908
38	0xbecf6aeb	-0.4051126
39	0xbe9bcd89	-0.30430248
40	0xbf0877d3	-0.5330784
41	0x3ec49cd1	0.3840089
42	0x3ddff475	0.10935298
43	0x3e901f73	0.28148994
44	0x3e2cfffe	0.16894528
45	0xbe84ed29	-0.2596219
46	0xbd777e90	-0.060423434
47	0xbebf41ee	-0.37354988
48	0xbcdd7e32	-0.027037714
49	0xbc5f4268	-0.013626672
50	0x3c5e0ecf	0.013553335
51	0x3d8f49be	0.06996487
52	0xbcd5576e	-0.026042666
53	0x3c36243f	0.01111704
54	0xbcbe1967	-0.023205472
55	0xbbeb2ca8	-0.0071769543
56	0xbef81418	-0.4845283
57	0x3f6d80e6	0.9277481
58	0x3e001b77	0.12510477
59	0xbd8adb38	-0.06780094
60	0x3eaf82ce	0.34279484
61	0xbf0e554b	-0.55598897
62	0x3db8a19b	0.09015199
63	0xbe879e8e	-0.26488155
64	0xbde6c837	-0.11268657
65	0xbed51a06	-0.41621417
66	0xbd37e474	-0.044895604
67	0x3c76307c	0.015026208
68	0xbe8a9fbc	-0.27074993
69	0xbe38ffab	-0.1806628
70	0x3ca897c0	0.020580173
71	0x3eb9b921	0.36274055
72	0x3e32a2ca	0.17444912
73	0xbde2835c	-0.11060211
74	0xbf0ba2d5	-0.54545337
75	0xbe504b28	-0.2034117
76	0xbf4204ef	-0.7578878
77	0xbee33fd1	-0.44384626
78	0x3ec31850	0.38104486
79	0xbf36ae0b	-0.7135932
80	0x3e1072e5	0.14106329
81	0x3e5b963f	0.21444033
82	0xbefacb1a	-0.4898308
83	0xbf417ebb	-0.75584
84	0xbf0efcc2	-0.5585443
85	0xbdce2b4c	-0.10066852
86	0x3e391569	0.18074574
87	0x3ec6c5e9	0.38822868
88	0xbc8a7abd	-0.01690423
89	0xbe4b76e3	-0.1986957
90	0xbdb234f9	-0.0870151
91	0xbe579316	-0.21052203
92	0xbeb78902	-0.35846716
93	0x380f4a8e	3.416329e-05
94	0xbe774b34	-0.24149781
95	0x3e34d20e	0.17658255
96	0xbf519162	-0.8186246
97	0xbf03ccb5	-0.51484233
98	0x3f105217	0.5637526
99	0x3eac3a92	0.33638436
100	0x3d502311	0.050814692
101	0x3eacc095	0.33740678
102	0x3e73ff50	0.23827863
103	0x3fa685cb	1.300958
104	0xbe56de2d	-0.20983191
105	0x3efebfed	0.49755803
106	0x3f8fac28	1.1224413
107	0x3e9ee9e3	0.31037816
108	0xbe20e661	-0.15712883
109	0xbf9b1928	-1.2117052
110	0x3eeceb20	0.46273136
111	0xbee46a43	-0.4461232
112	0x3e6b0587	0.22951327
113	0x3f9ab8de	1.2087667
114	0x3f13a140	0.5766792
115	0x3e74dbcd	0.23911972
116	0x3ecea74b	0.4036201
117	0xbeec9e3b	-0.4621447
118	0x3e9b8b0b	0.3037952
119	0x3cbc5b82	0.022992853
120	0x3efdbcb8	0.49558043
121	0x3cafb629	0.021449165
122	0x3ea33423	0.31875715
123	0xbe72a785	-0.23696716
124	0x3fe6d872	1.8034804
125	0xbe1b07e9	-0.15139736
126	0xbecc1eec	-0.39867342
127	0xbea0cabe	-0.3140468

onnx::Conv_291 f4 [16]
0	0x3e306f78	0.17230022
1	0xbf03659e	-0.5132693
2	0x3f496612	0.7867137
3	0xbfae15f9	-1.3600456
4	0xbf97e5c7	-1.1866997
5	0xbf379533	-0.71712035
6	0xbf8a1745	-1.0788351
7	0xbf1ec5ad	-0.6202038
8	0x3fa81b95	1.3133417
9	0x3fc33b50	1.5252476
10	0x3f672d4e	0.90303504
11	0x3fcdb69e	1.6071355
12	0xbf6b9066	-0.9201721
13	0xbf3e5893	-0.74353904
14	0xbff69784	-1.9264989
15	0xbfee4898	-1.8615904

onnx::Conv_293 f4 [16, 1, 3, 3]
0	0xbc8ffb93	-0.017576015
1	0x3f41a359	0.75639874
2	0x3f785725	0.9700797
3	0xbeaf275b	-0.34209713
4	0xbd4cbfc6	-0.049987577
5	0x3ea6d5d8	0.32585025
6	0xbf2b194c	-0.66835475
7	0xbfa147e7	-1.2600068
8	0xbf394af5	-0.7238
9	0x3d4d8da9	0.050183926
10	0xbb2f1a10	-0.0026718415
11	0xbb182ae2	-0.002321892
12	0xbcf2deda	-0.02964728
13	0xbd815131	-0.06314314
14	0xbd878447	-0.06617027
15	0x3bd2c09c	0.0064316522
16	0xbc5ec7cf	-0.013597443
17	0xbe0811cb	-0.13288037
18	0x3e22b49f	0.15889214
19	0xbc72b8a9	-0.014814534
20	0x3dc772d6	0.097387
21	0xbf070ffb	-0.5275876
22	0xbf93b6e1	-1.1540185
23	0xbf857dfe	-1.0429075
24	0xbf185973	-0.5951149
25	0xbf8ca43a	-1.0987618
26	0xbeee3fa8	-0.4653294
27	0xc05e67e4	-3.475091
28	0x405ac6a8	3.418375
29	0xbf74f632	-0.95688164
30	0xbf0d676d	-0.5523594
31	0x3fbb7f67	1.4648255
32	0x407a680c	3.9126005
33	0x408e1a87	4.440738
34	0xc0413357	-3.0187585
35	0xbf62d8d6	-0.88612115
36	0x3e2db944	0.16965204
37	0xbcf06951	-0.029347094
38	0xbe1c8f55	-0.15289052
39	0x3e5f6d5f	0.21819066
40	0x3e975d5c	0.29563415
41	0x3cad95ec	0.021189652
42	0x3e15e0ea	0.14636579
43	0x3ec9c3d4	0.39407218
44	0x3eaa8200	0.33302307
45	0x3f01a69b	0.50644845
46	0x3f75c272	0.95999825
47	0x3f388d5e	0.7209071
48	0xbe0aadaa	-0.1354281
49	0xbed37b2f	-0.4130492
50	0xbeae65d8	-0.34062076
51	0xbc3ebf70	-0.011642322
52	0xbf1366c1	-0.57578665
53	0x3e8f2760	0.27959728
54	0xc23106f8	-44.256805
55	0xc15afacb	-13.686229
56	0xc2deafe8	-111.34357
57	0xc2647de7	-57.12295
58	0xc30f4752	-143.2786
59	0xc2ee2ba3	-119.08523
60	0xc230f631	-44.24042
61	0xc1d2b6d0	-26.339264
62	0xc30e502d	-142.31319
63	0xbca17c96	-0.019712728
64	0xbe6a2cd2	-0.2286866
65	0xbece3f67	-0.40282747
66	0x3be4fb4c	0.0069879647
67	0xbd474d6b	-0.048657816
68	0xbda1b525	-0.07895879
69	0xbdf655ce	-0.12028085
70	0xbe00b37a	-0.12568465
71	0xbdd84d95	-0.105616726
72	0xbe2cbac0	-0.16868114
73	0x3f11b532	0.5691711
74	0x3ec2a9d9	0.38020208
75	0xbddc3132	-0.10751571
76	0x3f535356	0.82549036
77	0x3f6035ca	0.87582076
78	0x3c9d7d39	0.01922475
79	0x3e4b4016	0.19848666
80	0x3eaee3e3	0.3415824
81	0xbcb39efb	-0.021926394
82	0xbe1af5b4	-0.15132791
83	0xbd21b6a8	-0.039480835
84	0xbdfc3eb3	-0.123166464
85	0x3e0532fe	0.13007733
86	0x3a30bd51	0.00067420775
87	0x3de89f28	0.11358482
88	0xbe3fed97	-0.18742977
89	0xbea7a9b8	-0.32746673
90	0xbea35824	-0.31903183
91	0xbd0f1d59	-0.034940097
92	0xbedbed2d	-0.42954388
93	0xbedff2a1	-0.437398
94	0x3f05baa0	0.5223789
95	0xbf36e929	-0.71449524
96	0x3f24c95e	0.6436976
97	0xbef81940	-0.48456764
98	0x3caa5d3d	0.020796413
99	0x3d925f24	0.07147053
100	0x3f407260	0.7517452
101	0x3f15e512	0.5855266
102	0xbeccc9b5	-0.3999764
103	0x3ee7c63e	0.45268434
104	0x3f865c0b	1.0496839
105	0xbea7c14f	-0.3276467
106	0x3d4a862c	0.049444363
107	0x3ebcc383	0.36867914
108	0x3e5fb204	0.21845251
109	0x3c8c9144	0.017159112
110	0x3d7fd047	0.062454488
111	0x3cc310aa	0.023811657
112	0x3ea29feb	0.31762633
113	0x3dd22485	0.10260872
114	0xbde1a1e3	-0.110172056
115	0x3e4ac9a3	0.19803481
116	0x3ecc1e68	0.39866948
117	0xbe7ec40a	-0.2487947
118	0xbdb2ca36	-0.08729975
119	0xbdc6b2b3	-0.09702053
120	0xbd66b7d7	-0.056327667
121	0xbc9a3cba	-0.018827785
122	0x3e8c14a3	0.27359495
123	0xbd59997f	-0.0531249
124	0x3e82c5a9	0.25541428
125	0x3f082508	0.53181505
126	0xbe279676	-0.1636599
127	0x3e8f1527	0.27945825
128	0x3e00eb51	0.12589766
129	0x3dab514e	0.08365117
130	0x3eb50018	0.35351634
131	0x3edf09e7	0.43562242
132	0xbd10eaf4	-0.03538032
133	0xbe070bed	-0.13188143
134	0xbb6d0734	-0.0036167623
135	0x3f11e478	0.5698924
136	0xbf276fdb	-0.6540505
137	0xbd909594	-0.0705978
138	0xbd7ce46f	-0.06174129
139	0xbeb899df	-0.36054894
140	0xbecfe4e6	-0.40604323
141	0x3caad2b8	0.020852432
142	0xbdf83c99	-0.12120933
143	0xbe0002cc	-0.12501067

onnx::Conv_294 f4 [16]
0	0x3ed62c4e	0.41830677
1	0x3fb32868	1.3996706
2	0x40803f12	4.007699
3	0xbdfe53ea	-0.12418349
4	0x3e0ef38c	0.13960093
5	0xbef5fc28	-0.48043942
6	0x3f502941	0.8131295
7	0x3f7d402b	0.9892604
8	0xbfcf0fba	-1.6176674
9	0xbeb63c12	-0.35592705
10	0x3e446c3e	0.19181916
11	0xbffd8f14	-1.9809289
12	0xbeeb7c55	-0.45993295
13	0xbf1dde18	-0.61667013
14	0xbed719f5	-0.4201199
15	0x3f5c031a	0.8594223

onnx::Conv_296 f4 [8, 16, 1, 1]
0	0xbe3aa41e	-0.18226668
1	0x3d9e58d8	0.07731789
2	0xbe938492	-0.2881208
3	0x3e2b2226	0.16712245
4	0xbf0632d0	-0.52421284
5	0xbdb500de	-0.08838056
6	0xbd1f08a9	-0.03882662
7	0xbdd3eff7	-0.10348504
8	0x3e7df3db	0.24800055
9	0xbd2933e7	-0.041309264
10	0x3d68fd83	0.056882393
11	0x3e241fe2	0.16027787
12	0x3d1396a4	0.036032334
13	0x3e8e4426	0.27786368
14	0xbdea7caf	-0.11449563
15	0x3e388e93	0.18023138
16	0xbe9bfcca	-0.304663
17	0x3d3e92fb	0.04652689
18	0x3d21a262	0.0394615
19	0x3dd7a6b0	0.1052984
20	0x3ee0abc9	0.43881062
21	0x3dd9725c	0.106175154
22	0xbe254af0	-0.16141868
23	0xbcf527c8	-0.029926196
24	0x3da66683	0.08125021
25	0xbe27d0d8	-0.16388261
26	0x3e11b936	0.14230809
27	0xbc0b3bbf	-0.008498131
28	0xbdeb10af	-0.114777915
29	0xbd82f2f0	-0.06393993
30	0xbea95b0a	-0.3307727
31	0xbd0292e3	-0.031878363
32	0x3f459f53	0.77196234
33	0xbf04b045	-0.51831466
34	0x3f13b9bf	0.577053
35	0x3db07714	0.08616462
36	0xbd9ce6d9	-0.07661218
37	0x3e9e37eb	0.30902037
38	0x3eba5150	0.36390162
39	0xbea13173	-0.3148304
40	0xbf13ed55	-0.57784015
41	0xbcd9959b	-0.026560595
42	0x3deb627c	0.11493394
43	0xbf0261a2	-0.50930226
44	0xbe2fa903	-0.17154317
45	0x3bbcb1c1	0.0057584946
46	0xbd6599fe	-0.05605506
47	0xbf0620b1	-0.52393633
48	0xbee9bffb	-0.45654282
49	0xbddb6dde	-0.10714315
50	0x3ea3b06c	0.31970537
51	0x3e5acad6	0.21366438
52	0xbf25a4fc	-0.6470487
53	0xbe6256a7	-0.22103368
54	0xbec9a746	-0.39385432
55	0xbeb96871	-0.36212495
56	0x3f332ffa	0.6999508
57	0xbdfd8f5d	-0.1238086
58	0x3e3069b4	0.17227823
59	0xbdf9432d	-0.12171016
60	0x3eef0e71	0.46690705
61	0xbddea972	-0.10872163
62	0xbd6491c5	-0.05580308
63	0x3c227a32	0.009916829
64	0x3e914db9	0.2837961
65	0xbdd356d5	-0.10319296
66	0x3e06b11a	0.13153496
67	0xbe3c1c72	-0.18370226
68	0x3ec23e22	0.3793803
69	0x397d88d7	0.00024178937
70	0xbd2e5323	-0.042559754
71	0xbd7a056a	-0.06104032
72	0xbede32a7	-0.4339802
73	0xbdc79c4f	-0.097466104
74	0xbddeb1a6	-0.108737275
75	0x3ba1129a	0.0049155476
76	0xbee6528c	-0.44984853
77	0xbe7c26da	-0.24624196
78	0x3ea58292	0.3232618
79	0xbe567864	-0.20944363
80	0xbe3ead88	-0.18620884
81	0x3ef6f417	0.482331
82	0xbf421751	-0.7581683
83	0xbdf7e2c8	-0.12103802
84	0x3f178400	0.5918579
85	0x3e3d3f91	0.1848128
86	0xbe160589	-0.14650549
87	0xbefd1146	-0.4942724
88	0xbe974c0b	-0.29550204
89	0x3d1c63fb	0.038181286
90	0xbd91701f	-0.071014635
91	0x3d5ae10d	0.05343728
92	0x3d315a2e	0.043298893
93	0x3e949d91	0.29026464
94	0x3ea5e06a	0.32397777
95	0x3eaa0cb9	0.33212832
96	0xbe45b9d7	-0.19309174
97	0xbf10c1c5	-0.5654567
98	0x3f142594	0.5786984
99	0x3ebab1c5	0.36463752
100	0xbd6b86a9	-0.05750147
101	0xbe28390c	-0.16428012
102	0xbec64237	-0.38722393
103	0x3eb19c27	0.34689447
104	0x3e6f2d3b	0.23357098
105	0xbd91afc7	-0.07113605
106	0x3eb5ecb2	0.35532147
107	0x3eee8c59	0.46591452
108	0x3eb7b5fa	0.35881025
109	0xbec426c2	-0.3831082
110	0xbf2a6fab	-0.6657664
111	0xbe836f9c	-0.2567109
112	0xbe79691c	-0.24356502
113	0x3cff2af7	0.031148417
114	0x3e911ce6	0.2834236
115	0xbd8e4868	-0.06947404
116	0xbe8b8dfc	-0.27256763
117	0xbe9af5fa	-0.3026579
118	0xbdf6ad64	-0.120447904
119	0x3e2b186c	0.16708535
120	0xbd4423fe	-0.047885887
121	0x3dae892e	0.08522259
122	0x3d8d146a	0.06888659
123	0x3efce920	0.4939661
124	0xbe150f79	-0.14556684
125	0xbe43fddc	-0.19139808
126	0xbede2770	-0.43389463
127	0x3e579850	0.21054196

onnx::Conv_297 f4 [8]
0	0x3ea86aed	0.32894078
1	0xbe435631	-0.19075848
2	0x3fa384cd	1.2774903
3	0x3efac35c	0.48977172
4	0x3eacdb7c	0.33761203
5	0xbf08e30f	-0.53471464
6	0x3f0a5064	0.54028916
7	0x3ec69267	0.3878357

onnx::Conv_299 f4 [16, 8, 1, 1]
0	0xbbd1996c	-0.006396463
1	0x3bc77b0f	0.006087668
2	0xbdf7c729	-0.12098534
3	0x3eb698e6	0.35663527
4	0xbc97e555	-0.018541971
5	0xbd5fb741	-0.054618124
6	0x3e904f9e	0.28185743
7	0x3db9833f	0.09058236
8	0xbdfe9fc5	-0.12432817
9	0xbd3bf1a2	-0.045884736
10	0xbd66046f	-0.056156572
11	0xbd2b5259	-0.04182658
12	0x3db680d8	0.08911294
13	0x3d591a5c	0.053003654
14	0xbd23ca2a	-0.03998772
15	0x3d06ff6a	0.032958426
16	0xbdb967f8	-0.090530336
17	0xbe75a1ff	-0.23987578
18	0x3d836314	0.06415382
19	0x3cfbac6a	0.030721862
20	0xbf0189f9	-0.50601155
21	0xbe663852	-0.22482422
22	0x3eaf091c	0.34186637
23	0x3bd04cb0	0.006356798
24	0x3c16c93d	0.009203252
25	0x3ede178a	0.43377334
26	0xbf23b14c	-0.6394241
27	0x3d82dfb7	0.063903265
28	0xbdff1a4e	-0.12456189
29	0xbe04b54c	-0.12959784
30	0xbe822200	-0.25416565
31	0x3f11d1f1	0.5696097
32	0xbf0f133b	-0.5588872
33	0x3e1c32ac	0.15253705
34	0x3f0c3598	0.5476928
35	0x3e8d57e4	0.27606118
36	0x3e898fec	0.26867616
37	0xbf5d14a0	-0.86359596
38	0x3f0d0e10	0.5509958
39	0xbe20d6ef	-0.1570699
40	0xbe309464	-0.17244107
41	0xbeed6326	-0.46364707
42	0x3f97d17d	1.1860806
43	0x3e49444d	0.19654961
44	0xbc6ec113	-0.0145724
45	0xbf2a1e71	-0.664527
46	0xbd34a19c	-0.044099435
47	0xbe2434d1	-0.16035773
48	0x3e13e395	0.14442284
49	0xbe89f7ae	-0.26946777
50	0x3cb62713	0.022235429
51	0xbe61d57f	-0.22054099
52	0x3c492613	0.012277144
53	0x3e26d34a	0.16291538
54	0xbe904534	-0.28177798
55	0x3d6ceceb	0.05784313
56	0xbd9a80dc	-0.07544109
57	0xbca75f6e	-0.020431247
58	0xbb22f57f	-0.0024865565
59	0xbe175c16	-0.14781222
60	0x3f2af5c4	0.6678126
61	0x3e926db9	0.28599337
62	0xbede1a60	-0.43379498
63	0xbe34c629	-0.17653717
64	0xbec72364	-0.38894188
65	0xbe7b0f62	-0.24517587
66	0x3ed89eed	0.4230875
67	0x3e740f03	0.23833852
68	0x3eec01c0	0.46095085
69	0xbded537a	-0.115881875
70	0xbe34df93	-0.17663412
71	0xbf34c974	-0.70619893
72	0x3ca5fa34	0.020260908
73	0x3e12e4b4	0.14345056
74	0xbdcc3f0f	-0.09972965
75	0xbc13cdcc	-0.009021234
76	0xbd7a36a6	-0.061087273
77	0xbda023f0	-0.078193545
78	0x3e25508d	0.16144009
79	0x3e396c5b	0.1810774
80	0xbeb045c0	-0.34428215
81	0x40091d1b	2.1424015
82	0x3f310eef	0.6916341
83	0xbf412c2c	-0.75458026
84	0x3dbff8d8	0.09373635
85	0x3f00be7f	0.50290674
86	0x3f19a596	0.6001829
87	0x3f69dca1	0.9135228
88	0x3d23d4b5	0.039997775
89	0xbeb62560	-0.3557539
90	0xbec6acd1	-0.38803723
91	0x3dff4877	0.124649934
92	0x3d3678ab	0.04454867
93	0xbd4025c8	-0.04691103
94	0xbf5dd6b5	-0.8665574
95	0xbf6d3a82	-0.926674
96	0xbc06fa36	-0.008238366
97	0xbc351f5c	-0.01105484
98	0xbc55c51b	-0.013047482
99	0x3b7a5f60	0.003820382
100	0xbc9ab8f6	-0.018887024
101	0xbcace5c7	-0.02110566
102	0x3d131ef4	0.03591819
103	0x3cc9ab27	0.024617745
104	0xbf6a7678	-0.9158702
105	0x3d2dbd7a	0.042417027
106	0x3f92fe95	1.1483942
107	0xbe588e2d	-0.21147986
108	0x3ed43a7f	0.4145088
109	0xbf0e7df6	-0.5566095
110	0x3e535a15	0.20639832
111	0xbecd7c62	-0.4013396
112	0xbd8e6953	-0.06953683
113	0xbe0e4ced	-0.13896532
114	0xbccee55a	-0.025255848
115	0x3e5ef961	0.21774818
116	0xbea0472c	-0.313043
117	0xbcec4821	-0.028842987
118	0x3dd4b133	0.103853606
119	0x3c298d6e	0.010348661
120	0x3e4dd853	0.20102052
121	0xbdfdf511	-0.12400258
122	0xbe4256d7	-0.1897844
123	0xbdf5ccca	-0.12001951
124	0x3da72104	0.08160594
125	0x3edd370e	0.43206066
126	0xbcb85b7d	-0.022504563
127	0x3e203b64	0.15647656

onnx::Conv_300 f4 [16]
0	0x3e5a998d	0.21347637
1	0x3f7bb190	0.98317814
2	0x3d633d48	0.055478364
3	0x3e51b382	0.20478633
4	0x3e15f7b4	0.14645272
5	0x3c436b73	0.011927473
6	0x3e52a83e	0.20571992
7	0x3e1b21fc	0.15149683
8	0xbe08d868	-0.13363802
9	0x3f17c2f3	0.59281844
10	0x3deda07d	0.11602876
11	0xbe328404	-0.17433172
12	0x3f9ce731	1.2258054
13	0x3df51c48	0.11968285
14	0xbec3ecd6	-0.3826663
15	0x3f4353b3	0.7629959

onnx::Conv_302 f4 [16, 1, 3, 3]
0	0x3ec0b1bd	0.37635604
1	0x3f04d882	0.51892865
2	0x3f12e805	0.57385284
3	0x3c178f91	0.0092505375
4	0x3d8721c9	0.06598241
5	0x3ebc24b0	0.3674674
6	0xbeffe9f8	-0.49983191
7	0xbf8b98cb	-1.0906004
8	0xbe503347	-0.20332061
9	0xbe7b33de	-0.24531505
10	0xbdee21b5	-0.11627523
11	0x3e1b6223	0.15174155
12	0x3e48aae8	0.19596446
13	0xbcba5f47	-0.02275051
14	0xbdb589c5	-0.08864168
15	0x3ee7b144	0.4525243
16	0x3f87368e	1.0563524
17	0x3f1d5097	0.61451095
18	0xbdd9828e	-0.106206045
19	0xbea5166d	-0.32243672
20	0xbda0adf3	-0.07845678
21	0xbf0cc58d	-0.5498894
22	0x3dcd1be0	0.10015082
23	0x3f333e16	0.7001661
24	0xbd2eb121	-0.042649392
25	0xbe1febfe	-0.15617368
26	0xbef60d64	-0.4805709
27	0x3e8dabcb	0.2767013
28	0x3ef9b2f9	0.48769358
29	0x3e51cb02	0.20487598
30	0x3f0ff392	0.56231034
31	0xbe7ac076	-0.2448748
32	0x3f2dac6d	0.67841226
33	0xbe0d2788	-0.13784611
34	0xbf516b7e	-0.81804645
35	0x3f0cc591	0.5498896
36	0xbe3c6b54	-0.18400317
37	0xbe1787f2	-0.14797953
38	0xbe0ccb26	-0.1374937
39	0xbcbe65cf	-0.023241905
40	0xbe90980d	-0.28241006
41	0xbda6ae09	-0.08138663
42	0x3e36d102	0.17853168
43	0x3f287ad5	0.65812427
44	0x3e951a51	0.2912164
45	0xbf45904e	-0.77173316
46	0x3ed392fb	0.41323075
47	0x3e466315	0.19373734
48	0xbdf09022	-0.11746241
49	0x3dc04b36	0.09389345
50	0xbf284ddb	-0.657438
51	0x3ea32d7f	0.31870648
52	0xbf280431	-0.65631396
53	0xbe922b7b	-0.28548798
54	0x3e12e7fb	0.14346306
55	0xbde854c2	-0.11344291
56	0xbb24a2c0	-0.002512142
57	0xbd8c4a74	-0.06850138
58	0xbdadfe03	-0.084957145
59	0x3d911c16	0.07085435
60	0xbe862d38	-0.26206374
61	0x3c449bb3	0.012000012
62	0x3ccabffb	0.024749747
63	0xbeb6e26f	-0.3571963
64	0x3e740d3c	0.23833174
65	0xbefd7bfa	-0.4950865
66	0xbf350c46	-0.7072185
67	0x3e9812d0	0.29701853
68	0xbe85566d	-0.260425
69	0xba28928f	-0.00064305303
70	0x3f1e805a	0.619146
71	0x3e1fc6ac	0.15603131
72	0x3e6b1ede	0.22960994
73	0xbe02439a	-0.127211
74	0xbf022e99	-0.5085235
75	0xbc14ed48	-0.009089775
76	0x3e600eaa	0.21880594
77	0x3dd76c27	0.10518675
78	0xbd18f609	-0.037344012
79	0x3cd3f71c	0.025874667
80	0x3d3e17e9	0.04640952
81	0xbd149675	-0.0362763
82	0xbf4c86eb	-0.7989337
83	0xbf636a52	-0.88834107
84	0x3f3e28dd	0.742811
85	0xbf87d5c8	-1.0612116
86	0xbf8339fb	-1.0252069
87	0x3fbaf1cb	1.4605039
88	0x3f9883e6	1.1915252
89	0x3e2cf30b	0.16889589
90	0xbde1f242	-0.11032535
91	0x3e5829a3	0.21109633
92	0xbd807efa	-0.06274219
93	0xbe2e6237	-0.17029653
94	0x3e578d35	0.2104996
95	0x3ebad0e4	0.36487496
96	0x3db64fb9	0.08901925
97	0x3e19afe2	0.150085
98	0xbdf5bae7	-0.119985394
99	0xbea41951	-0.32050565
100	0x3ee30722	0.4434138
101	0xbf212712	-0.6295024
102	0xbe2de092	-0.16980198
103	0x3f0dca0a	0.5538641
104	0x3ef215eb	0.47282347
105	0xbe3ffc05	-0.18748482
106	0xbeb3fc96	-0.35153645
107	0xbef3714b	-0.47547373
108	0xbefbe29b	-0.49196324
109	0xbf3f750d	-0.7478798
110	0x3f9c7e22	1.2225993
111	0x3f8941fe	1.0723264
112	0x3e004769	0.12527241
113	0x3f6edd2d	0.9330624
114	0xbeb36193	-0.3503538
115	0xbf8f9813	-1.1218284
116	0xbfcc4f35	-1.5961672
117	0xbd82ad07	-0.063806586
118	0xbd8de7e4	-0.06928995
119	0xbec639e4	-0.38716042
120	0xbea28bf5	-0.31747404
121	0xbe8e77b0	-0.2782569
122	0xbe05cfa7	-0.13067494
123	0x3e764e59	0.24053325
124	0x3f21f0af	0.6325788
125	0x3e62cb55	0.22147878
126	0xbf4d448c	-0.8018272
127	0xbec1f2e8	-0.37880635
128	0xbe861b33	-0.26192626
129	0x3e2a3732	0.16622618
130	0xbefa79f3	-0.48921165
131	0x3e961262	0.293109
132	0x3e6a34ae	0.22871658
133	0x4002d87b	2.044463
134	0xbdb8f727	-0.090315156
135	0xbecd8ec9	-0.40148
136	0xbee8c3a6	-0.45461768
137	0xbebc6bdc	-0.3680104
138	0xbe817b23	-0.25289258
139	0xbf09f84e	-0.5389451
140	0xbeac6341	-0.33669475
141	0x3e494571	0.19655396
142	0x3e80b74d	0.25139847
143	0x3e22552c	0.15852803

onnx::Conv_303 f4 [16]
0	0xbed1381f	-0.4086313
1	0xbf307cfa	-0.689407
2	0xbe462c94	-0.19352943
3	0xbf9ae59e	-1.2101324
4	0x3e2d5e0a	0.16930404
5	0x3f52056a	0.8203951
6	0xbeb393b0	-0.35073614
7	0xbe036858	-0.12832773
8	0x3e7b4a33	0.24540024
9	0x3e15213a	0.14563456
10	0xbe7c4bab	-0.2463824
11	0xbd60f600	-0.054922104
12	0x3e97f23c	0.29676998
13	0xbdfe76a4	-0.12424973
14	0xbf5f840b	-0.87310857
15	0x3f9bc280	1.2168732

onnx::Conv_305 f4 [8, 16, 1, 1]
0	0xbe78d1f4	-0.24298841
1	0x3ead5dae	0.33860534
2	0xbd06dfaa	-0.032928146
3	0x3df34f09	0.11880309
4	0xbeedd85e	-0.46454138
5	0x3e9d18e6	0.30683059
6	0xbe0cabef	-0.13737462
7	0xbe8308d8	-0.25592685
8	0xbce01a98	-0.02735643
9	0xbe5f18ae	-0.21786758
10	0xbe266d89	-0.16252722
11	0xbe95215f	-0.29127023
12	0x3d952c93	0.072838925
13	0xbe8b643d	-0.27224913
14	0xbd9b898e	-0.07594596
15	0x39c4db94	0.00037547632
16	0x3e21b66a	0.15792242
17	0x3f253a8f	0.6454248
18	0x3d6a9200	0.057268143
19	0xbdba52a3	-0.09097793
20	0xbeae872f	-0.34087512
21	0x3dcf1b18	0.101125896
22	0xbc78c04a	-0.015182564
23	0x3eb63ac8	0.35591722
24	0x3ca9fc59	0.020750212
25	0xbe6596ff	-0.22420882
26	0x3de7be4f	0.11315595
27	0xbebae135	-0.36499944
28	0xbe92c10f	-0.28662917
29	0xbe10fb78	-0.14158428
30	0xbe83292b	-0.25617346
31	0x3f14f731	0.58189684
32	0xbf16d3cd	-0.5891693
33	0xbebc21dc	-0.36744583
34	0x3c455183	0.01204336
35	0xbee8c604	-0.45463574
36	0xbd3f2d70	-0.046674192
37	0xbd8e6074	-0.06951991
38	0xbc4b9dd1	-0.012427763
39	0xbe493c5b	-0.1965193
40	0xbdb40aa7	-0.08791094
41	0x3ea0a6cb	0.31377253
42	0xbe83fc50	-0.25778437
43	0xbc6e4104	-0.014541868
44	0x3dbc9f3a	0.092100576
45	0xbe20877a	-0.1567668
46	0x3ed7caae	0.4214682
47	0xbe75aef2	-0.23992518
48	0xbe92142c	-0.28531015
49	0x3e16e798	0.14736784
50	0x3e95d250	0.29262018
51	0xbde1dd0c	-0.110284895
52	0xbe160a21	-0.14652301
53	0x3ed94579	0.42435816
54	0xbb583e56	-0.003299614
55	0xbe5a2e85	-0.21306808
56	0xbe0eb103	-0.13934712
57	0xbef182eb	-0.47170195
58	0xbc7710b3	-0.015079665
59	0xbd0666b3	-0.032812785
60	0x3ef388da	0.47565347
61	0xbee8ce54	-0.45469916
62	0x3d7ff0d7	0.062485542
63	0xbe7bede3	-0.24602465
64	0x3e0b5b46	0.13609037
65	0xbe217490	-0.15767121
66	0x3d025010	0.031814635
67	0xbda6719f	-0.0812714
68	0x3ebef16e	0.3729357
69	0xbdd7c184	-0.10534957
70	0x3c18c5c3	0.009324494
71	0x3df7e19e	0.1210358
72	0xbc13fad1	-0.009031967
73	0x3e1b2550	0.15150952
74	0x3c562025	0.013069187
75	0x3dc829d5	0.09773604
76	0xbdc5c7a0	-0.09657216
77	0x3e3e23cb	0.18568341
78	0x3cc575c4	0.024104007
79	0x3d8690fc	0.06570622
80	0x3e3ad48d	0.18245144
81	0x3e5d60e3	0.2161899
82	0xbba8934b	-0.005144512
83	0xbdd928a0	-0.10603452
84	0xbc93b88e	-0.018032338
85	0xbd8e1e30	-0.069393516
86	0xbd71ece1	-0.059063796
87	0x3ec04fd1	0.37560895
88	0x3dfdb342	0.12387706
89	0x3e2a3db8	0.16625106
90	0x3e85b2d7	0.26113006
91	0x3e7fa270	0.24964309
92	0xbe0b8bc6	-0.13627538
93	0x3e170a94	0.14750129
94	0xbde73fba	-0.11291452
95	0x3e4aefe3	0.19818072
96	0x3df830c5	0.12118677
97	0x3ad52c88	0.0016263882
98	0x3e27c613	0.16384153
99	0x3e1fa523	0.15590338
100	0x3cdc61f6	0.02690218
101	0x3c8e371e	0.017360266
102	0xbd0ece89	-0.034864936
103	0xbe2b446a	-0.16725317
104	0xbd9b616d	-0.07586942
105	0xbe76a0a8	-0.24084723
106	0xbcde3820	-0.027126372
107	0xbe16c5e9	-0.14723934
108	0x3dd79dc0	0.10528135
109	0xbdd483a1	-0.10376669
110	0x3dfbe3c8	0.12299305
111	0xbcf0cb5b	-0.029393842
112	0xbea7eede	-0.3279943
113	0xbdf37505	-0.11887554
114	0xbcf48e4d	-0.02985301
115	0xbe906726	-0.28203696
116	0x3d87279f	0.06599354
117	0x3d8bfd76	0.06835453
118	0x3df3a106	0.11895947
119	0xbf3ada9f	-0.7298984
120	0x3e0f4ad2	0.13993385
121	0x3e606ae9	0.21915783
122	0xbe037a60	-0.12839651
123	0xbe9358e3	-0.28778753
124	0x3e63c5ad	0.22243376
125	0xbd305558	-0.04305014
126	0x3e76e8f1	0.24112298
127	0xbd325b07	-0.04354384

onnx::Conv_306 f4 [8]
0	0x3df8dd41	0.12151576
1	0xbf206fa6	-0.6267036
2	0x3f501150	0.81276417
3	0x3e81ecd6	0.25376004
4	0xbe34d57b	-0.17659561
5	0xbf20f057	-0.6286673
6	0x3df6c057	0.12048405
7	0x3e8e8135	0.27832952

onnx::Conv_308 f4 [16, 8, 1, 1]
0	0x3d0b5705	0.034018535
1	0x3d6a50af	0.057205852
2	0xbc98da87	-0.01865889
3	0xbcc7e64b	-0.024401804
4	0xbcba49d5	-0.022740284
5	0x3d831e79	0.064022966
6	0xbd5a8931	-0.053353492
7	0xbd8ecaaa	-0.06972249
8	0xbd0c1c8f	-0.034206923
9	0x3c9e635a	0.019334484
10	0x3bec0f87	0.0072039994
11	0xbbaea979	-0.0053302613
12	0x3cffcf24	0.031226702
13	0x3e0fefa7	0.14056264
14	0xbd6b1777	-0.057395425
15	0xbd877d07	-0.06615644
16	0x3b09873b	0.0020985145
17	0xb7baa158	-2.224806e-05
18	0x3c228edb	0.009921755
19	0xbccdfa51	-0.025143774
20	0x3ad03aaf	0.001588663
21	0x3bed7ef6	0.007247801
22	0xbc69fb66	-0.014281129
23	0xbc2b2171	-0.010444985
24	0x3e4f4cc4	0.20244128
25	0xbd313a0f	-0.04326826
26	0xbe010a46	-0.12601575
27	0x3e584e54	0.2112363
28	0xbe6964d7	-0.22792374
29	0xbcf9e0da	-0.030502725
30	0x3c8abc3e	0.016935464
31	0xbd53b93c	-0.051690325
32	0xbe851ad8	-0.25997043
33	0xbe4387fc	-0.19094843
34	0xbed82d26	-0.42221946
35	0xbef4cdbe	-0.4781322
36	0x3edd796d	0.43256703
37	0x3d8862f8	0.06659502
38	0xbd44ff6a	-0.048095144
39	0xbdb21243	-0.086948894
40	0xbe881825	-0.2658092
41	0xbf2c7f66	-0.67381895
42	0x3ed24d0a	0.410744
43	0xbe2841bb	-0.16431324
44	0x3e85aeee	0.26110023
45	0xbe2cccea	-0.16875044
46	0xbedd2437	-0.43191692
47	0x3dfb133f	0.1225953
48	0x3e00c806	0.12576303
49	0x3e94b7f8	0.29046607
50	0xbe3bdf59	-0.18346919
51	0x3c74e648	0.014947481
52	0x3d67c1a9	0.056581173
53	0x3eba6a0b	0.3640903
54	0xbe459b9e	-0.19297644
55	0xbe855846	-0.2604391
56	0xbd1c29c7	-0.03812578
57	0x3cf751b7	0.030190332
58	0xbc080aae	-0.0083033275
59	0x3eae30d0	0.34021616
60	0xbe05d455	-0.1306928
61	0xbe2c8d48	-0.1685077
62	0x3e1ba382	0.15199092
63	0xbd1bd162	-0.03804148
64	0xbe5a2411	-0.2130282
65	0xbda503a1	-0.08057333
66	0x3d43ce34	0.047804072
67	0xbe8fa225	-0.28053394
68	0x3e2b1a32	0.16709211
69	0x3e25a9f4	0.16178113
70	0xbe89a126	-0.2688076
71	0xba850fa8	-0.0010151761
72	0x3de6cb93	0.112692975
73	0x3db81adf	0.089895
74	0x3d7ffc48	0.062496454
75	0xbd203940	-0.039117098
76	0xbce3cdbf	-0.027808068
77	0x3d2d65ed	0.042333532
78	0x3e3351c0	0.17511654
79	0x3cc5e5b0	0.024157375
80	0x3ba9142c	0.0051598754
81	0x3eb0a68d	0.34502068
82	0xbf290154	-0.6601765
83	0xbd9648ba	-0.0733809
84	0xbdefd45b	-0.117104255
85	0x3e773c82	0.24144176
86	0x3e589a5c	0.21152633
87	0xbe0f8a0f	-0.14017509
88	0xbbe10709	-0.0068672937
89	0x3d71db87	0.05904725
90	0xbd0ec995	-0.034860212
91	0x3d8c558c	0.06852254
92	0xbcef4d46	-0.029211652
93	0xbd849efa	-0.06475635
94	0x3e84432c	0.25832498
95	0x3c7e4096	0.015518328
96	0x3e226348	0.15858185
97	0xbd8e76b5	-0.06956235
98	0xbdeb0707	-0.1147595
99	0x3ec786d2	0.38970047
100	0xbeaea586	-0.3411066
101	0xbd8b2ef8	-0.06796068
102	0x3d506520	0.05087769
103	0xbe1a30c3	-0.15057664
104	0x3e9c9fd8	0.305907
105	0x3db9bd72	0.09069337
106	0xbc9ebb4c	-0.01937642
107	0x3dfcd6d6	0.12345664
108	0xbe85399d	-0.26020518
109	0xbd6ca847	-0.05777767
110	0xbd10a363	-0.035312068
111	0xbddd3ec0	-0.10802984
112	0xbe56abcd	-0.20963974
113	0xbd6d0c06	-0.057872795
114	0xbebdb6cb	-0.37053522
115	0x3d9773ef	0.073951595
116	0x3d1e3c39	0.03863165
117	0x3ee759e5	0.45185772
118	0xbd257804	-0.04039766
119	0xbf51c7cd	-0.81945497
120	0xbe501617	-0.20320927
121	0x3ae636e6	0.0017563968
122	0xbde07ca2	-0.10961272
123	0xbe977c7c	-0.29587162
124	0x3df7b540	0.120951176
125	0x3e017f47	0.12646209
126	0x3d87c846	0.06629996
127	0xbdda35b7	-0.106547765

onnx::Conv_309 f4 [16]
0	0x3f810aee	1.008146
1	0x3f81f694	1.0153375
2	0xbf54de56	-0.8315176
3	0x3f043dd5	0.5165685
4	0x3ea64b18	0.32479167
5	0xbd53a647	-0.051672246
6	0x3e75ac6f	0.2399156
7	0x3ec920a9	0.3928273
8	0x3e667974	0.22507268
9	0x3f6c4b89	0.9230276
10	0x3d9a112b	0.07522806
11	0x3f212d7e	0.6296004
12	0x3e48d72a	0.19613329
13	0x3f08101d	0.53149587
14	0xbdbd454e	-0.092417344
15	0x3ece3504	0.40274823

onnx::Conv_311 f4 [16, 1, 3, 3]
0	0x3ec7e213	0.39039668
1	0x3faf9544	1.3717427
2	0x3ecc933e	0.39956087
3	0xbe41e69c	-0.18935627
4	0x3ed5ca1a	0.41755754
5	0xbdbb86ab	-0.09156545
6	0xbf7b0e13	-0.9806835
7	0xbfb51229	-1.4146167
8	0xbf8d6306	-1.1045845
9	0xbe4fe399	-0.20301665
10	0xbe57e41b	-0.21083109
11	0x3e3e9744	0.18612391
12	0xbe8e59e9	-0.2780297
13	0x3e9b81d3	0.30372486
14	0x3f79f016	0.9763197
15	0xbe6cdec6	-0.23131856
16	0x3f14091b	0.57826394
17	0x3f856685	1.0421911
18	0xc155a672	-13.353136
19	0x42663475	57.551228
20	0x423aaf84	46.671402
21	0xc1456c2c	-12.338909
22	0x42ba483e	93.1411
23	0xc1977fd6	-18.93742
24	0x41b1c5a1	22.221498
25	0x42c92a56	100.58269
26	0x4097c374	4.742609
27	0x3e16ba7c	0.14719576
28	0x3e8aaee1	0.27086547
29	0x3ee9ab1e	0.45638365
30	0xbdaeb42b	-0.08530458
31	0x3e106805	0.1410218
32	0x3edd09c6	0.4317152
33	0x3daede7a	0.08538528
34	0x3e12caec	0.14335221
35	0x3dadd771	0.08488358
36	0xbe151817	-0.14559971
37	0xbe5d1f16	-0.2159389
38	0xbd8ab495	-0.067727245
39	0xbe60cbbc	-0.21952718
40	0xbe55b535	-0.20869906
41	0xbdcc01b5	-0.09961263
42	0xbe164263	-0.14673762
43	0xbe49be01	-0.19701387
44	0xbcb20371	-0.021730157
45	0x3dd8f7d9	0.10594148
46	0xbd6f90b4	-0.05848761
47	0xbe8437c9	-0.2582381
48	0x3d6c8606	0.057745002
49	0xbdd91d51	-0.10601295
50	0xbe8edcb9	-0.27902773
51	0xbd1d5886	-0.0384145
52	0xbdb311ba	-0.087436154
53	0xbd2bb548	-0.04192093
54	0xbe2874f0	-0.16450858
55	0xbd845d84	-0.06463149
56	0xbe7e93ba	-0.2486104
57	0xbc943d1c	-0.018095545
58	0xbca40826	-0.020023417
59	0x3de6cadf	0.11269163
60	0xbe38015f	-0.17969273
61	0xbe2d4dbf	-0.16924189
62	0xbe57b394	-0.21064597
63	0xbe385d5a	-0.18004361
64	0xbeac3951	-0.3363748
65	0xbe27d885	-0.1639119
66	0x3e02a4f6	0.1275824
67	0x3e039c35	0.12852557
68	0x3e8d9426	0.2765209
69	0x3ead999a	0.3390625
70	0x3e708258	0.23487222
71	0x3ec535c8	0.38517594
72	0xbea53ad4	-0.32271445
73	0xbd6b9389	-0.057513747
74	0x3f3dbd5e	0.74117076
75	0xbeee8263	-0.46583852
76	0xbdece5c5	-0.115672626
77	0x3f1d947a	0.6155468
78	0xbdd88cd0	-0.10573733
79	0xbdb5008f	-0.08837997
80	0xbd8e0276	-0.06934063
81	0xbf3d3693	-0.739114
82	0xbdbb14ae	-0.09134804
83	0xbee1bc49	-0.44088963
84	0xbf51f7d8	-0.82018805
85	0xbe241e7a	-0.16027251
86	0xbf4bff72	-0.79686654
87	0xbe910eb2	-0.28331524
88	0x3f31b4e6	0.69416654
89	0xbe2b08fe	-0.16702649
90	0x3ddf091b	0.108904086
91	0x3e1eaa4a	0.15494648
92	0x3dbbac75	0.09163753
93	0x3d9988bd	0.07496784
94	0x3e0b025c	0.13575119
95	0x3e876df9	0.2645109
96	0xbd8b04ed	-0.06788049
97	0xbdf33719	-0.118757434
98	0xbdfa952d	-0.12235484
99	0x3cb2cf0b	0.021827241
100	0x3f940bf4	1.1566148
101	0x3f3f5b39	0.7474857
102	0xbc8fde9d	-0.017562205
103	0xbe0f14b3	-0.1397274
104	0x3e86aadb	0.26302227
105	0xbe1abc6f	-0.15110944
106	0xbf597b8f	-0.8495416
107	0xbf1301e6	-0.5742477
108	0xbdfe3641	-0.12412692
109	0x3e6444a9	0.22291817
110	0x3dc14581	0.09437085
111	0x3e3e47a9	0.18582024
112	0x3f21f307	0.63261455
113	0x3eb466dd	0.35234728
114	0xbd791876	-0.060814343
115	0xbe0e17c9	-0.13876261
116	0x3cf5209a	0.029922772
117	0x3f139b18	0.5765853
118	0x3e142d6e	0.14470455
119	0x3e99f196	0.30067128
120	0xbe98c717	-0.29839393
121	0xbe1c891b	-0.15286677
122	0xbe592d92	-0.2120879
123	0xbed6301e	-0.41833586
124	0x3f7a151d	0.97688466
125	0xbd9bc4fd	-0.07605932
126	0x3c8986bd	0.016787881
127	0x3dd57b93	0.104239605
128	0xbd31b6d1	-0.043387238
129	0x3e267822	0.16256765
130	0x3e7e7c01	0.24851991
131	0x3d322f70	0.04350227
132	0x3dd9878d	0.106215574
133	0x3d350390	0.04419285
134	0x3c89cb3b	0.01682054
135	0x3e9b5df1	0.3034511
136	0x3f009620	0.5022907
137	0xbd8c0821	-0.06837488
138	0x3e9c97cd	0.30584565
139	0x3eb428b6	0.3518731
140	0x3dbd6f9d	0.09249804
141	0xbe0e22b6	-0.13880429
142	0xbc71a3b7	-0.014748505
143	0xbe19b2ce	-0.15009615

onnx::Conv_312 f4 [16]
0	0x3ff8b407	1.942994
1	0xbe26f550	-0.16304517
2	0xbf1dd0e5	-0.6164687
3	0xbfc1ddd6	-1.5145824
4	0x3fc6550e	1.5494707
5	0x3fc18c3e	1.5120924
6	0x3ee7500f	0.45178267
7	0xbe84b503	-0.2591935
8	0xbf11e916	-0.56996286
9	0x3ff66f44	1.9252706
10	0xbf2e7bd4	-0.68157697
11	0xbc6783a6	-0.0141305085
12	0xbebe468a	-0.37163192
13	0xbf833dd2	-1.0253241
14	0x3e06d6e8	0.13167918
15	0xbea1b0d3	-0.3158022
