model_checkpoints/experiments/overall/onnx/fastscnn_160a0.25t6r3pp0_noinit.onnx (onnx, 325011 bytes, 81 tensors)

feature_fusion.conv_high_res.weight f4 [32, 16, 1, 1]
000000 83 f0 10 3e ee e9 4c 3f fe a6 83 3e 8c 60 32 bf
       0.14154248 0.8004445 0.25713342 -0.6967857
000010 83 ce d5 bd 7e c1 0c be e9 37 e2 3e 5c 9b a4 3f
       -0.104397796 -0.13745686 0.4418328 1.2859912
000020 55 fc 08 3f 22 dc 92 bf 80 d0 95 be 85 fb c3 be
       0.5351003 -1.1473429 -0.29260635 -0.38277832
000030 4b cd 88 be ac f1 53 bf a7 8f 07 3f ba ef 7c 3f
       -0.26719126 -0.82790637 0.5295357 0.98803294
000040 e2 76 f7 3e 1b 0e 78 be bf c5 c2 3c 58 fa c7 be
       0.48332888 -0.24224131 0.023775933 -0.39058185
000050 89 7c 3f bf 82 05 d1 3e 2c 33 1c bd 58 23 20 c0
       -0.747994 0.40824515 -0.03813474 -2.5021572
000060 54 32 10 bf 9f 50 5d 3d 68 ad 8d bd 67 08 d3 be
       -0.56326795 0.054031964 -0.0691784 -0.41217348
000070 7a 7e 01 be f0 d3 1d 3f 5e 4b d7 3e 80 30 c7 be
       -0.12645903 0.61651516 0.42049688 -0.3890419
000080 eb aa 27 3e b4 80 17 3e e5 ca b6 3e 85 d1 66 3d
       0.16373794 0.1479519 0.3570167 0.056352157
000090 a7 99 81 3f 65 b0 35 3f 0b c5 35 3f ce 81 fb be
       1.0125016 0.7097228 0.7100379 -0.4912247
0000a0 82 8e 06 bf 4e 0b 84 3e fc 3c fd 3e 2c 2b 35 bf
       -0.525612 0.25789875 0.4946059 -0.70769
0000b0 0a 2c f4 be 33 f3 8a 3f 78 5a c3 be 71 84 92 3e
       -0.4768985 1.0855469 -0.3815496 0.2861667
0000c0 dd fb 28 be 0d 26 f0 3d cf 7c 93 bd ee f3 ed be
       -0.16502328 0.117260076 -0.0720154 -0.46475166
0000d0 5f 73 50 bf 58 02 2e bf a7 3c d0 be 09 cb 86 be
       -0.8142604 -0.67972326 -0.40671274 -0.2632678
0000e0 25 92 03 3f 6b a6 39 3f a3 32 09 be 53 c2 c7 3e
       0.51394874 0.7251956 -0.13398223 0.39015445
0000f0 37 a6 ef be 5f dc f4 3e d1 2d 4a 3f 3b 7f c0 bf
       -0.468065 0.4782438 0.7897616 -1.5038828
000100 f5 59 eb 3e 08 65 23 3f fa 7f 1d bf da c7 8a bf
       0.4596707 0.63826036 -0.615234 -1.084224
000110 e4 a2 92 3e 9f 87 f8 be e6 3f 46 3e 1d 14 3e 3f
       0.286399 -0.4854097 0.19360313 0.7424944
000120 2f 09 0a 3f 5d 21 96 bf fd 4b 90 bd ae 1e 23 bf
       0.53920263 -1.1728932 -0.070457436 -0.6371869
000130 57 d3 ab be d5 2c 25 3d 7a a0 80 3f b4 f8 70 3f
       -0.33559677 0.04032596 1.0048974 0.9412949
000140 22 c3 24 be 2d 90 4f bf 65 39 0a bf 1d fe 62 bf
       -0.16090062 -0.8107937 -0.5399383 -0.88668996
000150 67 4f 0c 3e 99 51 0d bd 2f a9 b3 bd 13 ee 4e be
       0.13702165 -0.034501646 -0.087725036 -0.20208006
000160 01 1e 54 3e 6f 42 b1 be 49 be 5c 3e 5e ae ee 3c
       0.2071457 -0.34620997 0.21556963 0.02913588
000170 5f a5 f3 3e 6a 66 14 3f 94 69 71 3f eb 7e f6 be
       0.47587106 0.5796877 0.94301724 -0.48143706
000180 f5 87 fe 3d ed c1 f3 be 8e 2d 80 bf 4e f6 31 3f
       0.124282755 -0.4760889 -1.0013902 0.69516456
000190 b7 06 34 3f 2e 2a 22 bf 72 14 9a bc fa c2 87 3d
       0.70322746 -0.6334561 -0.018808577 0.06628986
0001a0 e0 e7 b2 be 21 a2 6d bf 35 e0 41 be c5 00 8c be
       -0.34942532 -0.92825514 -0.18933184 -0.27344337
0001b0 18 9c 9f 3f 84 b2 c0 3e 22 68 37 bf 7e 67 2b be
       1.2469511 0.37636197 -0.7164327 -0.16738698
0001c0 9a 34 12 be 5e 01 36 bf 73 36 17 bf 74 37 17 bf
       -0.14277878 -0.71095836 -0.5906746 -0.5906899
0001d0 53 46 86 3e ca b5 31 3e c9 57 fc 3e 4a d2 22 bf
       0.26225528 0.17354503 0.49285725 -0.63602126
0001e0 2b 01 41 3f 5e 43 4b 3e dd e0 44 bf 6f fd 32 be
       0.7539241 0.19849917 -0.76905614 -0.1747949
0001f0 ac 85 48 3f 55 16 98 3e cb 75 0f 3f 0c 16 03 bf
       0.7832897 0.29704538 0.5603911 -0.51205516
000200 3a 34 4a bf de b0 dd be 1f b5 fd 3e 87 41 b7 be
       -0.7898594 -0.43299 0.49552247 -0.3579218
000210 4f f5 12 be ad cf 91 3d 73 14 29 be 4f a3 6b 3d
       -0.1435139 0.07119689 -0.16511707 0.05752879
000220 f4 75 7f bd 7b 37 f1 be 27 08 8f bf 83 8c 07 3f
       -0.06236835 -0.4711264 -1.1174363 0.5294878
000230 ac 11 4c 3f 99 33 5e 3c 9a bb 1c 3e 95 3d 10 be
       0.79714465 0.0135621065 0.1530594 -0.14085992
000240 d5 eb 8c bf 08 65 e1 3d 60 42 4c 3e 4a 24 6f bf
       -1.100947 0.11005598 0.19947195 -0.9341475
000250 8d 04 a8 bb 56 4f 53 3e 62 e1 59 3e 2b 91 c0 3e
       -0.0051274956 0.20635733 0.21277383 0.37610754
000260 78 d0 25 3f cc cd c0 3e c2 70 17 bf b1 35 12 3f
       0.64771223 0.3765701 -0.5915643 0.57113177
000270 0c da 33 bf 44 fd 69 be 16 05 91 3f d9 a5 b8 bd
       -0.7025459 -0.2285052 1.1329677 -0.09016008
000280 9f c7 2d bf 1d 2e 4a bf 47 9e e3 be 11 82 17 bf
       -0.6788272 -0.78976613 -0.44456694 -0.5918284
000290 c7 3f 02 3f 95 5d 89 bd 13 7a 81 be 4e 30 f2 3e
       0.50878567 -0.067073025 -0.25288448 0.4730248
0002a0 12 4b f5 3e ca 59 4e be 1d 92 da bf 26 1a af 3e
       0.47908837 -0.2015144 -1.707584 0.34199637
0002b0 7f 4d 67 3f e6 88 77 3e 74 3c 05 3f 65 6a e4 be
       0.90352625 0.24173316 0.5204537 -0.44612423
0002c0 19 46 da be e5 74 20 3e 93 04 7a be c1 04 b2 bf
       -0.42631605 0.15669592 -0.24415807 -1.3907701
0002d0 76 c9 01 3e a2 57 2e 3e 1d d7 9b 3e 94 1d 7a bf
       0.12674507 0.17025617 0.30437556 -0.9770138
0002e0 7e 53 2f 3f f8 3b 0f 3c 6f 1e 02 bf 3a 48 08 3f
       0.68486774 0.008742325 -0.5082769 0.5323521
0002f0 54 d8 74 be 1a 54 3f be 2e b7 d3 3f be 9d 84 be
       -0.23910648 -0.18684426 1.6540277 -0.25901598
000300 95 ea ce bd 75 00 09 bf d4 63 01 bf 05 4a f1 be
       -0.10103337 -0.5351632 -0.5054295 -0.47126785
000310 79 de 0b 3e 78 f0 7a bd f6 52 8f 3e 61 9d ab bf
       0.13659085 -0.061264485 0.27992982 -1.3407403
000320 fb 6e ea 3e 93 0c 71 bf 69 9f ab be 1d d1 51 be
       0.45787796 -0.9415981 -0.33520058 -0.20489927
000330 e3 b1 26 3f fa 73 54 3f 09 9c 0e 3f 97 43 c4 3c
       0.65115184 0.82989466 0.5570684 0.02395801
000340 ba bf 15 3f c1 72 80 3f 9c 27 25 3e 75 45 23 bf
       0.58495677 1.003502 0.16128391 -0.6377786
000350 29 dc 4a 3f 3e 31 12 bf 10 c8 7c be 90 af 86 be
       0.7924219 -0.5710639 -0.24685693 -0.2630582
000360 c1 b5 e2 be c7 42 9b be b1 df f6 3e 9f a4 3d bd
       -0.44279292 -0.30324385 0.48217538 -0.046299573
000370 64 4b 5a bf 8f e8 a4 3f 6a e5 13 3f 56 3e 50 bf
       -0.85271287 1.2883471 0.57771933 -0.8134512
000380 71 1f b4 3f 2a dd 18 3e 6f fb 11 bf 6a 26 a6 3f
       1.4072095 0.14928117 -0.5702428 1.2980473
000390 ea 30 a0 be 7e 15 ce 3d df d1 95 3e c7 6b bc bd
       -0.31287318 0.10062693 0.2926168 -0.092002444
0003a0 f7 de a7 bf d7 66 d4 3e 82 85 c9 3e ea 81 64 bf
       -1.3114918 0.4148471 0.3935967 -0.89260733
0003b0 a3 4b a6 be 73 d5 a3 be 52 35 05 bf 1d f2 e8 bd
       -0.3247958 -0.31998786 -0.52034485 -0.113743044
0003c0 38 b3 6e bf ff 15 b6 3e fe d7 18 bf 39 56 67 bf
       -0.93242216 0.35563657 -0.5970458 -0.9036594
0003d0 99 5a c6 be 01 db f6 bf ba 93 e3 bf f5 1f f6 3e
       -0.38740996 -1.9285585 -1.7779458 0.48071256
0003e0 d4 8f dc 3e 8e a9 2b 3f 73 49 94 3e 33 fa 60 3e
       0.43078482 0.67055595 0.28962287 0.21970443
0003f0 a8 83 81 be 24 9d 93 bc 78 6c 28 3f e8 41 29 bf
       -0.25295758 -0.018019266 0.6579051 -0.6611619

feature_fusion.conv_high_res.bias f4 [32]
000000 ac 80 5e be 8e 69 9a 3f 79 0c c5 3f 4d 36 df bc
       -0.21728772 1.2063463 1.5394431 -0.027247572
000010 77 be db bd 63 71 f3 3e 43 9c 40 3f b6 9d 12 be
       -0.10729688 0.47547445 0.75238436 -0.14317974
000020 bc 4c 2e 3e cf b3 40 3f 74 4a 1a 3e 42 1b b8 3d
       0.1702146 0.75274366 0.15067464 0.08989574
000030 b8 61 50 be 83 36 a9 3f b2 75 11 3f 41 4d ad be
       -0.20349777 1.3219761 0.56820214 -0.33848003
000040 5e 7f 52 3e c0 83 32 3f 0b 2c ec be 6d ed 9d 3f
       0.20556399 0.69732285 -0.46127352 1.2338082
000050 1a fb a6 3e bb 0c 09 3e 90 eb 15 3e 9c 36 c1 3e
       0.3261345 0.13383763 0.14640641 0.37736976
000060 c8 50 ee be ec 1a 86 3e 3f b2 bd 3d e4 e6 97 bd
       -0.46546006 0.26192415 0.09262513 -0.07417086
000070 7c c0 af be 21 bd 10 bf ea e5 dd 3d 00 8e 5a bf
       -0.3432654 -0.5653859 0.10834868 -0.85372925

feature_fusion.conv_low_res.weight f4 [32, 32, 1, 1]
000000 33 2b 66 3e 0a dc ca 3e ad 84 e0 3e 39 e4 16 be
       0.22477417 0.39621 0.43851224 -0.14735498
000010 a6 21 48 3b b7 dd b1 bf a8 c3 36 bf 80 b4 fa bd
       0.0030537634 -1.3895787 -0.713923 -0.12241459
000020 e5 c3 01 3f 32 af 06 3e 9f e3 4e 3f 23 3d ce 3e
       0.50689536 0.13152769 0.8081607 0.4028102
000030 26 48 81 b9 f3 98 0c 3f 30 1e 51 bf 3c 3e 95 3e
       -0.00024658552 0.5492088 -0.8168669 0.29149044
000040 32 b0 86 be d1 20 22 3e a9 a2 db be 7e e7 4f bf
       -0.263063 0.15832831 -0.42897537 -0.81212604
000050 1d 73 75 bf 28 48 d0 3d ac a8 ac 3e 84 60 13 3e
       -0.95878774 0.10170013 0.33722436 0.14392287
000060 6b ef 84 3e 0f 73 3c 3d 80 bd 8d be 50 02 ef 3e
       0.2596391 0.046008166 -0.2768364 0.46681452
000070 59 77 fd be 02 ef 48 bf 45 b3 bb 3d ec 90 5d be
       -0.49505118 -0.78489697 0.09165052 -0.21637315
000080 5c 72 4f 3e 12 bf 0f be 5a 4b 32 3f 68 04 87 3d
       0.20258468 -0.14037731 0.6964623 0.06592637
000090 78 0f 8f 3e 5d 0f 76 bf 7b e6 c4 be 49 6f 80 bb
       0.2794149 -0.9611719 -0.38457093 -0.003919516
0000a0 3c 90 9d be cf 12 a3 be ba 2e 49 3f 70 b4 ef 3d
       -0.30774105 -0.31850287 0.78586924 0.117043376
0000b0 dd 4f 84 bd 70 19 13 3f ed 87 01 3e 70 72 98 3e
       -0.06460545 0.5746069 0.12649508 0.2977481
0000c0 a8 36 1e 3e af b1 5d 3e 13 b7 d0 3c 4f c7 d6 3d
       0.15450537 0.21649812 0.025477922 0.10487234
0000d0 68 88 81 bf 25 8b 92 3f 56 5a 88 bf 83 6a 1a bd
       -1.0119753 1.1448714 -1.0652568 -0.037699234
0000e0 ff bf bc be 60 42 1b 3e d4 ad 1b bd c5 87 e5 3e
       -0.3686523 0.15162039 -0.038007572 0.44830146
0000f0 a0 74 80 be 4b 97 cf be 27 33 74 be 8e 32 e5 3c
       -0.25088978 -0.40545115 -0.23847638 0.027978208
000100 76 b1 1c 3f 81 e4 97 be b5 8d 78 3f 25 7f f5 3e
       0.61208284 -0.29666522 0.9709123 0.47948566
000110 02 7a 55 3d e2 6f b6 3e 53 fd 9f bd 3f 0d 03 3f
       0.05211831 0.35632235 -0.0781199 0.51192087
000120 73 d6 46 3f cf 90 ec 3b 48 9c f3 bd f4 e4 aa be
       0.77670974 0.007219411 -0.11895043 -0.33377802
000130 1e f9 f5 be d5 84 a8 3c e3 13 8e 3e 84 bc 45 3f
       -0.48041624 0.020571152 0.27749547 0.77240777
000140 c4 b1 d7 be a4 cf 19 3e a7 6d 10 3f 9b 3e 8c 3c
       -0.42127812 0.15020615 0.56417316 0.017119696
000150 6a 30 0b bf 12 85 1d 3e 39 da 19 bf b5 1f cb bc
       -0.5437075 0.15382794 -0.60098606 -0.024795393
000160 29 ee ac 3e e1 cb f3 3d e7 34 97 be c3 62 da 3e
       0.33775452 0.11904121 -0.2953255 0.42653474
000170 cd aa d6 3e f7 86 f7 3d 04 00 2c 3f 6b c8 3b 3e
       0.41927186 0.120862894 0.67187524 0.18338172
000180 5f 8f 1d 3f d9 3e 2f be 13 12 d9 3e 62 af 38 3e
       0.6154689 -0.17113818 0.42396602 0.18035653
000190 1e e1 59 3e cc f2 ed 3e 98 ad c8 3d ba 1a 33 bf
       0.21277282 0.46474302 0.097987354 -0.69962656
0001a0 c0 eb 8c 3b 7a dc 06 3e 90 02 38 3e d8 1e ef 3e
       0.0043005645 0.13170043 0.17969728 0.4670322
0001b0 85 82 34 3e f0 11 73 bf 03 49 05 3f 87 cd 95 3e
       0.17627914 -0.94949245 0.5206453 0.29258367
0001c0 b9 c9 0d 3e ea ac 57 bf a9 e1 cd 3e d2 9f ad bf
       0.13846482 -0.8424822 0.40211228 -1.3564398
0001d0 43 f7 2e bf e6 10 db be db 75 25 bf fc df 36 be
       -0.6834604 -0.4278633 -0.6463296 -0.17858881
0001e0 a3 ef aa 3e fc 3e 2f 3f 70 0c 96 3e f3 43 07 3f
       0.33385953 0.6845548 0.29306364 0.5283806
0001f0 18 0e 91 3e 57 6d 23 bf 6b fa 4f 3e 2c f8 d2 3e
       0.28331065 -0.63838714 0.2031037 0.41204965
000200 b7 9f a7 bf aa 40 d0 be a4 e3 dd bd b5 20 dd be
       -1.3095616 -0.40674335 -0.10834435 -0.43189016
000210 cb 3c 4d 3f 0a 99 40 bf 3f 42 1c be 35 e2 34 bf
       0.8017089 -0.7523352 -0.15259646 -0.70657665
000220 bf 2f 54 be 8b 1e 20 3e 07 a0 dc 3e 56 90 bc 3d
       -0.20721339 0.15636651 0.4309084 0.092072174
000230 c3 6d 64 3d 8a 7d 43 3f 8c 2d 05 3f e6 fe de 3e
       0.05576874 0.7636343 0.52022624 0.43553847
000240 63 2a f5 bd 19 81 da 3d 1b 94 b2 3f 1f 84 cf be
       -0.11970975 0.10669155 1.3951448 -0.40530488
000250 3d 24 7c 3d 42 02 06 bf e7 c7 9b 3e 1f bd f7 be
       0.061557997 -0.52347195 0.3042595 -0.48386475
000260 cc 15 5f bf dd a3 15 3f e5 32 4a 3e 6f 08 8c 3e
       -0.87142634 0.5845316 0.19745977 0.27350184
000270 74 a4 27 3e f9 78 21 3f eb 8c 47 be 64 6a 84 be
       0.16371328 0.63075215 -0.1948735 -0.2586242
000280 f2 40 b8 3d 0a 49 bf 3e 1e 85 9b be 81 da 48 3f
       0.08996762 0.37360412 -0.30374998 0.7845841
000290 54 3c 7c 3e 67 75 48 3e 6e 79 72 3d 3f f9 0a bf
       0.24632388 0.19576035 0.059197836 -0.5428657
0002a0 ae 9d 1b 3f a3 2d 43 be fa 6c 33 3f 9b 6a 22 3f
       0.60787475 -0.19060378 0.7008816 0.6344392
0002b0 59 9d c0 3e 29 22 a8 be 9b 1d 3e bf 6c 6a 37 3e
       0.37620047 -0.32838562 -0.74263924 0.1791169
0002c0 de 65 f6 bd ef 37 a4 be 20 08 8b bf ff 6f 1b bf
       -0.120311484 -0.32073924 -1.0861855 -0.6071777
0002d0 7e 0e a2 be 95 72 89 bd 61 9d b5 be 0f f9 24 3e
       -0.31651682 -0.06711308 -0.35471633 0.16110633
0002e0 76 ed 60 3f 7a b1 11 3f 9d ab 42 3f 58 3b b9 bc
       0.87862337 0.5691143 0.7604311 -0.022611305
0002f0 c9 6c bd be 04 63 9d bf 3b 84 7f 3e 0a 27 75 3d
       -0.3699706 -1.2295842 0.24952786 0.059851684
000300 46 34 8e 3e 1d dc a5 3e 87 b8 72 3d d3 e4 49 3f
       0.27774256 0.32394496 0.05925801 0.78864783
000310 bb 1b 7e be da 1d 44 3d 61 41 a2 be 48 a0 85 3e
       -0.24815266 0.04788003 -0.31690505 0.26098847
000320 5d 40 cb be 78 b6 03 bf 05 e1 28 3f c3 2e ad 3e
       -0.39697543 -0.514503 0.6596835 0.3382474
000330 ee 39 62 be 3f 89 21 be 83 23 0f bf 58 54 6c 3d
       -0.22092411 -0.15775011 -0.5591356 0.057697624
000340 cb c7 a8 3d 66 0c 14 bf 3d 3c 50 be b1 10 0e 3f
       0.082412325 -0.5783142 -0.20335479 0.5549422
000350 96 eb f2 3d d8 21 c9 3e 55 30 e1 3e 8e fc 29 3e
       0.11861341 0.39283633 0.43982187 0.16600248
000360 0d c4 1f be 25 d4 3a 3f 56 f4 99 bf 6c 76 36 3e
       -0.15602131 0.72979957 -1.202769 0.17818612
000370 3c 04 97 be bf ae 90 3e 33 a9 35 bf ff 99 be 3b
       -0.29495418 0.2825832 -0.709613 0.0058166976
000380 4e 9f 0f be dc a5 2e 3f b9 70 3d 3e 81 52 a5 bf
       -0.14025614 0.6822183 0.18500032 -1.2915803
000390 64 02 00 3f 82 c8 a3 bc 0a 7a 69 bf 47 ea e1 be
       0.5000365 -0.01999307 -0.9120184 -0.44124052
0003a0 ec af 8a bc 49 aa c0 3e 8a da 97 3f b1 1b 18 3f
       -0.01692959 0.37629917 1.1863568 0.59417254
0003b0 af ea 20 3f 60 dc 3d 3e e6 cc 95 be 68 7b 31 bf
       0.628581 0.18541098 -0.29257888 -0.6932893
0003c0 d8 70 b6 bd 35 88 38 3e 0c c7 72 3f a0 71 7a bf
       -0.08908242 0.18020709 0.9483497 -0.9782963
0003d0 f5 32 78 bf ad 7a 43 3d 49 99 ab 3c 65 b5 55 3e
       -0.96952754 0.047724415 0.020947115 0.20869978
0003e0 c2 70 14 bf 9d 4d e5 be 6a e3 da bd cd 96 13 3f
       -0.57984555 -0.44785777 -0.10687907 0.5765198
0003f0 27 08 94 3e 15 89 2a bf 3a 55 ad bf 05 3d 53 bf
       0.2891247 -0.6661542 -1.3541634 -0.82514983

feature_fusion.conv_low_res.bias f4 [32]
000000 5d d7 47 be a4 ef 90 3f 9c 2a ae 3f c8 10 05 3e
       -0.19515748 1.1323133 1.3606753 0.12994683
000010 63 8e 90 be a4 48 a2 3e 07 75 2b 3f 9f 76 78 3d
       -0.28233632 0.31696045 0.66975445 0.06066
000020 01 44 98 bb b8 36 f9 3e 8e 49 1a 3e 22 0c a2 3e
       -0.0046467786 0.4867456 0.15067121 0.31649882
000030 8d 02 d4 3d 11 e0 a8 3f 1a f0 23 3f ee 81 16 bd
       0.10352049 1.319338 0.6403824 -0.036745004
000040 f6 83 9e 3d 9d d7 01 3f 74 b5 b0 be 6a d0 94 3f
       0.07740013 0.50719625 -0.34513438 1.1626103
000050 b3 fb 27 3f 7e c2 e7 3e ee f1 04 3f 1b 37 c1 3e
       0.6561844 0.45265573 0.51931655 0.37737355
000060 54 ad ec be 59 5f 02 3f cd ad 6e 3d fc 42 c7 be
       -0.4622599 0.5092674 0.058271218 -0.38918293
000070 80 89 fc be b2 de ef be 1f f6 c2 bb 11 c7 43 bf
       -0.49323654 -0.4684959 -0.00594975 -0.76475626

classifier.conv.weight f4 [1, 32, 1, 1]
000000 a9 d6 07 3f 01 e1 ee be fe 20 dc be ca c1 34 bf
       0.5306192 -0.4665604 -0.4299392 -0.706082
000010 05 c5 e0 be 33 c6 7f bf 1a b5 50 bf 0d 52 5f 3f
       -0.43900314 -0.99911803 -0.8152634 0.87234575
000020 3e a4 f5 be 34 45 15 bf 3c 27 8b bf c6 dc 05 3f
       -0.4797687 -0.5830872 -1.0871348 0.5229
000030 78 70 08 3f d4 d7 e2 be d9 e1 ef be fc 63 51 3f
       0.53296614 -0.4430529 -0.46851996 0.8179319
000040 d2 f7 07 bf b7 db b1 be 8d 08 b1 3f e4 86 b8 be
       -0.5311252 -0.34737942 1.3830734 -0.36040413
000050 4e b1 07 bf a1 b7 9a bf 2f a8 df be 7f 7c 9a bf
       -0.5300492 -1.2087289 -0.43683 -1.2069243
000060 ec ae e1 be 71 e6 fd be 9f b4 6d bf c1 df 37 bf
       -0.44078767 -0.49589875 -0.9285373 -0.71825796
000070 e1 24 2d 3f a0 06 71 bf 3d ec 1b 3f 1f 37 1e bf
       0.676344 -0.94150734 0.60907346 -0.6180286

onnx::Conv_356 f4 [8, 3, 3, 3]
000000 5a d7 33 3d df c4 4d 3d 9d 9b 98 3d 47 05 5c 3d
       0.043906547 0.05023658 0.07451556 0.05371597
000010 bd 6e 44 3d df 33 1a bb 2f 7f af 3d 21 8b 19 3d
       0.04795717 -0.0023529453 0.0856918 0.0374862
000020 b5 4b a6 3c 27 2d ec 3d e0 6c ac 3e fa 1b 43 3e
       0.020299772 0.115320496 0.33676815 0.19053641
000030 48 c8 7f 3e 6b 2a e0 3e dc 92 3b 3e bf ab 84 3d
       0.24978745 0.43782362 0.18317741 0.064780705
000040 a4 d0 ae 3c 5b 34 13 3e 83 46 62 be ef 6c 22 bd
       0.021339722 0.14375441 -0.2209721 -0.03965467
000050 d0 52 6f bd c3 f8 dc bd 27 10 df bc 32 1c 14 be
       -0.058428586 -0.10789635 -0.027229382 -0.1446388
000060 ca ed 8f bd 72 5f 08 be 15 d9 f2 bc 02 ec cf 3d
       -0.070277765 -0.1331766 -0.029644528 0.10152437
000070 ff 9c 0d be 44 23 fc bd ce 5d 14 bd 52 4b d0 bd
       -0.1382942 -0.12311414 -0.03622227 -0.10170616
000080 98 b4 60 bd 81 64 94 bd dd 7a 2b 3e 52 19 89 3c
       -0.054859728 -0.07245732 0.16746087 0.016735706
000090 45 ad 58 be 01 71 38 be 0b 66 e6 bd fd ec 44 be
       -0.21159847 -0.18011858 -0.11249932 -0.19231029
0000a0 90 1e 0e be d5 56 15 bd 49 b8 82 3e 35 75 2f 3f
       -0.13878846 -0.036459763 0.25531223 0.6853822
0000b0 58 df 08 3f f5 20 a0 bd 15 71 3a be 17 54 68 be
       0.53465796 -0.07818786 -0.182072 -0.22688328
0000c0 39 ba 65 be d6 3e 41 be da e9 94 bc d1 b9 27 3e
       -0.2243432 -0.18871626 -0.018177915 0.16379477
0000d0 3c 30 eb 3e a5 b4 5a 3e dc 46 f8 3c 85 d8 3f 3d
       0.45935237 0.21357973 0.030307226 0.04683735
0000e0 17 76 ed bc 2b 3f ab 3c 52 1e a2 bc 87 fd 9f bd
       -0.028986974 0.020904144 -0.019789848 -0.078120284
0000f0 5d ca 99 3b c2 ae 91 bd 97 d1 0c 3c 36 cd 71 3e
       0.004693313 -0.071134105 0.008594892 0.23613438
000100 0b b6 0e 3e dc d8 91 3d f1 8b 23 3e ba 27 9d 3c
       0.13936631 0.07121441 0.15971352 0.019183982
000110 36 7d 02 be ce 4d d6 3c 0e 51 d5 bd 4d e1 07 be
       -0.12743077 0.026160147 -0.104158506 -0.13269539
000120 c5 2b 82 3d 77 9d ae 3d d4 77 42 3d 49 59 df 3d
       0.063560046 0.08526128 0.04747756 0.10905702
000130 6a ec 98 bc b6 32 e1 bd e8 21 32 3d 03 98 cb bd
       -0.018667419 -0.109960005 0.043489367 -0.09941103
000140 86 c7 e0 bd be 5b a9 bd 2f 4e 80 bd 52 2a 9b 3d
       -0.10975556 -0.082694516 -0.06264912 0.07576431
000150 9c 46 a1 bb 67 18 c2 bd 43 fb b5 bd 37 4a 8d 3d
       -0.0049217474 -0.09477311 -0.08885815 0.06898921
000160 b6 11 74 3d 7e c2 72 bc 13 74 39 be d8 37 5a be
       0.059587203 -0.014816878 -0.18110685 -0.21310365
000170 ad 41 f0 bd b0 74 d3 bd 57 4f c2 be bf 56 ae be
       -0.11731277 -0.10324991 -0.37951156 -0.34050557
000180 1c 4e e9 bd b3 df 22 be b8 34 7d be 0d 6c f0 bc
       -0.11391851 -0.15905647 -0.24727142 -0.029348398
000190 b2 0f fa bc 22 e8 0b 3d e0 ae 12 3e 7c e8 05 bc
       -0.030525062 0.034156926 0.14324522 -0.008173104
0001a0 f4 f3 81 bd 55 de 4e 3e e0 ff 58 3e 1e c9 03 3e
       -0.063453585 0.20202 0.21191359 0.12869689
0001b0 4d 27 8b 3f 8a 31 ad bf fd f3 46 bf 82 8f 8d be
       1.0871369 -1.3530743 -0.77716047 -0.2764855
0001c0 81 db 0a bf 65 13 76 3e 5a fb a6 be 9d 98 7a 3f
       -0.54241186 0.24030836 -0.3261364 0.9788912
0001d0 82 74 47 bf a4 2d 9e 3f 9a 3b c3 bd e8 1c b3 be
       -0.7791215 1.2357678 -0.095328525 -0.3498299
0001e0 32 75 63 be 1e c2 a0 3e 84 60 c2 3f 3f 25 91 bf
       -0.22212675 0.313981 1.5185704 -1.1339492
0001f0 ee ff c1 3f eb 12 8d be 05 2a 57 3f ee 3c 8a bf
       1.5156229 -0.27553496 0.8404849 -1.0799844
000200 b5 7f d0 be ff 01 e7 be 37 db c0 be af 58 4f 3f
       -0.40722433 -0.4511871 -0.37667248 0.80994695
000210 43 9f 71 bf e2 06 aa 3f 0a df 1c be 51 4d d3 bd
       -0.9438364 1.328335 -0.15319458 -0.10317481
000220 27 4c aa bd ec 4e c6 3d 5f 8e 19 3e be 50 9c 3e
       -0.08315306 0.09683022 0.14995717 0.3053035
000230 5d d3 94 3d 0e 46 9d bd 02 56 3b be 48 71 5d bd
       0.07266877 -0.076793775 -0.18294528 -0.05406311
000240 2c 0a b4 3d 61 14 5f be 4a 02 3b be ca da 40 3f
       0.08791003 -0.21785118 -0.18262592 0.75333846
000250 c7 56 00 3f f8 f9 d1 3c 3a 73 a0 3e 9d 3d 88 bc
       0.5013241 0.02563189 0.3133791 -0.016630942
000260 c2 b7 a6 be 09 ed 3c bd c1 40 4c be 01 2a 3b be
       -0.3256207 -0.04612449 -0.19946577 -0.18277742
000270 9a 4d e9 3e 83 c5 a5 3e 27 9e 79 bd d3 1c 83 3d
       0.45567018 0.32377252 -0.06094184 0.06401982
000280 82 76 1a be 17 c7 82 be bd 48 83 bc 08 45 c2 3a
       -0.1508427 -0.25542518 -0.016025895 0.0014821598
000290 4d 70 a4 bc c6 56 ad 3b c5 27 f3 3b 0b 0d 53 bc
       -0.02007308 0.005289885 0.0074205124 -0.012881528
0002a0 00 10 88 b8 c2 a8 1c 3b c1 12 21 3c ed 99 80 bc
       -6.4879656e-05 0.0023904298 0.009831131 -0.015698398
0002b0 5a 60 91 bc 74 49 85 bd ec b6 08 bd 99 3c 48 bd
       -0.01774614 -0.06508151 -0.033377573 -0.048885915
0002c0 c9 73 73 bd 90 0a a3 bd 3f 62 15 be a3 c2 b4 bd
       -0.059436593 -0.07960999 -0.14588259 -0.088261865
0002d0 7e 37 04 3d 32 73 f0 39 0f 6c 76 bd 91 51 88 3d
       0.032279484 0.00045862194 -0.060161646 0.066561826
0002e0 b0 88 b6 bc e7 90 02 bd 2d 60 a6 3b 37 19 87 ba
       -0.022281975 -0.03187647 0.005077383 -0.0010307197
0002f0 9c de d7 bc b5 b6 75 be 6e fd 6f 3d cb 3b be 3e
       -0.026351266 -0.23995478 0.0585913 0.37154993
000300 f3 64 03 3d e0 a9 93 be d5 ba 92 3e 85 f5 88 3e
       0.032078695 -0.28840542 0.28658167 0.26749817
000310 79 19 a9 be fc ce 40 3e 95 b9 e9 be f9 b3 91 3d
       -0.33027247 0.18828958 -0.456494 0.07114405
000320 1d f0 4b 3f e2 39 35 bf 4f e5 be be 7d 9d 58 3f
       0.7966326 -0.7079145 -0.37284324 0.8461531
000330 81 fd 71 be 72 aa 98 be 81 ad 0e 3f f7 e4 ce be
       -0.2363186 -0.2981754 0.55733496 -0.4040906
000340 35 15 bb bd e5 1d f7 3e fb 93 ff be fb 16 8a be
       -0.09134904 0.48264995 -0.49917588 -0.26970658
000350 ef 5b 9d 3e fb 1b a2 bc 19 9f 6a be 13 42 c5 3e
       0.30734202 -0.019788733 -0.22912253 0.38526973

onnx::Conv_357 f4 [8]
000000 b1 ff 2d 3f 4d 0d c2 3e 71 5c 3f 3f 9a 95 b3 be
       0.6796828 0.37900773 0.7475043 -0.35075074
000010 3a 38 40 bf de 68 1b 3e 14 a8 8e 3f 7c 08 ca 3d
       -0.75085795 0.15176722 1.1145043 0.098648995

onnx::Conv_359 f4 [8, 1, 3, 3]
000000 e0 dd dd 3d 3d 06 c5 bd 59 db 0e be 80 b2 44 3e
       0.10833335 -0.096203305 -0.13950862 0.19208717
000010 cc 97 13 bf de 76 2c bf f7 45 12 3e 2c cf 06 bf
       -0.576535 -0.67368877 0.14284502 -0.5265987
000020 90 8a 0a bf da 33 4b bc 09 08 14 3f 4c c8 70 3f
       -0.5411768 -0.012402499 0.5782476 0.9405563
000030 28 e5 a4 be 9a b7 ff be 9e c2 0a 3e ed ab d7 be
       -0.32206082 -0.49944764 0.13550803 -0.42123356
000040 c3 e1 33 bf a9 85 df be ba 2c be bd c3 67 4c 3f
       -0.7026636 -0.43656662 -0.09285875 0.7984583
000050 81 9d 19 3f bf cf 8f bf 01 26 c9 bf 98 95 93 bf
       0.60005957 -1.1235274 -1.5714723 -1.1530027
000060 3b 8e 1c bf 37 30 97 3e 43 d9 92 3f 37 d8 35 bd
       -0.61154526 0.29528973 1.1472553 -0.04439565
000070 fc c3 58 be 5f 2a c9 bd 4f 30 bc 3d 6a 14 fa be
       -0.21168512 -0.09822535 0.09188902 -0.488437
000080 94 65 2c bf e7 04 7c 3d 85 5e a6 bd 8a 3c 13 be
       -0.67342496 0.061528113 -0.08123497 -0.14378563
000090 c2 53 26 bd 4f bd a9 bd d5 a8 b0 bc 53 2e 08 bd
       -0.04060722 -0.08288061 -0.02156488 -0.033247303
0000a0 a1 d0 84 be fb 25 71 be 24 bb da 3b d6 0e 76 be
       -0.2594042 -0.23549645 0.006675141 -0.24029097
0000b0 7f 7a 91 be 41 45 83 bd a6 17 51 bf 20 a6 3a bf
       -0.2841377 -0.064096935 -0.8167671 -0.72909737
0000c0 29 6a da 3e 62 c9 40 3c da e4 04 be 91 e6 14 3f
       0.4265912 0.011766763 -0.12977925 0.58164316
0000d0 c9 e4 27 3f 0c 56 2b 3e a0 79 85 3f eb e9 4c 3f
       0.65583473 0.16732043 1.0427742 0.8004443
0000e0 2e 6c 46 3f a5 60 6d 3f 8a 93 e1 bd 7d 6d 88 be
       0.7750882 0.9272559 -0.11014469 -0.26646033
0000f0 da 54 7f bc 77 d1 8c bf 8f a9 0f c0 bf 68 c5 bd
       -0.015584195 -1.1001424 -2.244724 -0.09639119
000100 f1 a5 7a bd e8 10 89 3d 62 8f 57 bc 7c 6a a3 be
       -0.06119341 0.06692678 -0.013156744 -0.3191718
000110 18 fc ae be 58 a0 a8 bc 76 69 81 be a1 d2 a2 be
       -0.34176707 -0.02058427 -0.25275773 -0.31801322

onnx::Conv_360 f4 [8]
000000 09 1d e6 3f 97 f9 d9 3e 3c aa c0 3f 9f 7b 7c 3e
       1.7977611 0.42573234 1.5051951 0.24656533
000010 a6 44 ab 3e 1b f3 d9 bd 4d ed b6 3e 0c 77 11 3f
       0.33450812 -0.10642072 0.3572792 0.56822276

onnx::Conv_362 f4 [12, 8, 1, 1]
000000 64 7f c4 3d 3f 60 44 be 17 a3 9a bf fb 34 5e be
       0.0959461 -0.1917734 -1.2081021 -0.21699898
000010 37 ee 75 3e 66 ee b5 bf c6 4a e0 be 4b 6e 9c 3e
       0.24016653 -1.4213378 -0.43807048 0.30552897
000020 4f e8 2b bd 3a 0f 9b 3f d1 4a 1b 3e c8 e4 c6 3d
       -0.041969594 1.2114022 0.15165259 0.09711605
000030 77 0e 31 3e 06 fd 4f 3f f0 28 2a 3f 05 ae 1d bf
       0.17290674 0.8124546 0.66468716 -0.6159366
000040 95 3f f0 be d2 03 63 3f 69 ad bb bd e2 f4 92 be
       -0.4692351 0.88677704 -0.09163935 -0.28702456
000050 63 87 0e be ab db be be b1 bc 0f be ce 35 f8 bd
       -0.13918833 -0.37276968 -0.14036824 -0.121196374
000060 19 f8 0d 3e d9 8e b3 bd 4e 3f 0c 3b 2d a8 f2 be
       0.13864173 -0.087674804 0.0021400037 -0.47393933
000070 1d c4 64 be 8f c2 ea 3d 1c 42 0b bf 23 44 fd be
       -0.22340436 0.1146289 -0.5439775 -0.49466047
000080 b8 e8 33 bd 50 1c 31 bf 14 34 52 3f 44 5c d0 3d
       -0.04392311 -0.69183826 0.82110715 0.10173848
000090 9a b7 88 3d f0 e1 d0 3d dd 75 c5 3e 3b 40 0e 3f
       0.06675644 0.10199344 0.38566485 0.5556676
0000a0 7a b0 da bd 77 6a 93 bd ce bc 84 3f b4 3e 99 be
       -0.106781915 -0.07198041 1.0370119 -0.2993065
0000b0 f7 98 87 bd aa e3 2e 3e 92 c4 1b 3f 8a 2a 03 3f
       -0.066209726 0.17079034 0.6084682 0.51236784
0000c0 17 ef 35 be f5 04 c7 bd d8 06 83 bc 90 44 17 3d
       -0.17766987 -0.09717742 -0.015994474 0.03693062
0000d0 7d 10 af be 66 ad 2d 3d 0b 5c 41 bd 85 29 96 bd
       -0.34192267 0.042401694 -0.04720692 -0.07332138
0000e0 45 1c ab be a6 e9 0c bd aa 23 0a 3b d5 26 a3 3d
       -0.33420005 -0.034402512 0.0021078386 0.07966391
0000f0 a6 25 14 be 21 29 aa 3b 9f 54 d5 bc 84 8c b3 bd
       -0.14467487 0.005192891 -0.026041327 -0.087670356
000100 d6 be ee 3e a1 85 5c be a6 4b 88 bd 4c d2 06 bf
       0.4662997 -0.2153535 -0.06655054 -0.5266464
000110 ca 00 a3 3a bd b0 12 3e f2 7c 40 be 31 da 5f bd
       0.0012436148 0.14325233 -0.18797663 -0.054651443
000120 80 a4 32 bf 92 1a 8a 3d 8f b6 2d 3d 36 41 6b be
       -0.6978226 0.06743349 0.04241043 -0.22974095
000130 2f 49 e6 bd de 94 a4 bd 28 5c 65 bc bb 22 1f be
       -0.112444274 -0.08036207 -0.013999023 -0.15540592
000140 45 b8 47 be 3d 67 d5 3e 4b cb cb 3e a2 64 36 bd
       -0.19503887 0.41680327 0.39803538 -0.044529565
000150 1b 7d c3 be 9f 22 2b 3d 2c 57 2b be 8c c8 11 bf
       -0.38181385 0.041781064 -0.16732472 -0.56946635
000160 c0 4e bf 3c 7b 06 f5 be 71 76 8e be 10 15 5e be
       0.02335298 -0.47856507 -0.2782474 -0.21687722
000170 dd a6 05 bb e1 37 86 3e fa 23 a6 bf f2 6e a8 be
       -0.0020393648 0.26214507 -1.2979729 -0.32897145

onnx::Conv_363 f4 [12]
000000 19 69 0f be bb 23 b3 3d ba 19 8e 3e 0a 6d 26 3f
       -0.14004935 0.087470494 0.27754003 0.6501013
000010 d0 14 c2 be 38 b4 aa be a2 b6 50 3f 1f 50 7a 3f
       -0.37906504 -0.3334062 0.81528676 0.97778505
000020 39 6c e6 3e ba e3 1e 3f ad 43 f6 3e 6c 5f fa 3e
       0.45004442 0.62066233 0.48098508 0.48900926

onnx::Conv_365 f4 [12, 1, 3, 3]
000000 24 f0 27 bd 9e 60 c3 bd fb 53 c7 bd 62 ef 14 bd
       -0.0410005 -0.09539913 -0.09732815 -0.036361106
000010 c5 b7 84 be 24 33 83 be 92 8b 6e bc 03 66 5c be
       -0.25921455 -0.25624955 -0.014559643 -0.2152329
000020 41 fc 73 be d5 1c 4b bd be 4c 12 be 89 82 d6 bd
       -0.23826696 -0.049588043 -0.14287087 -0.10474116
000030 1b be dd bd 94 78 96 be 85 d0 7a be 0c d4 3f bd
       -0.10827275 -0.2938887 -0.24493606 -0.046833083
000040 e8 a1 53 be 0b 3e 65 be 62 46 76 3d d7 0f b4 3d
       -0.20667231 -0.22386949 0.060125716 0.08792084
000050 f6 19 d0 3c 4a f8 48 3c c0 b9 92 3e 78 d1 a4 3e
       0.025403004 0.012266228 0.2865734 0.32191062
000060 3f aa ab bd 24 eb 69 be 0a fe 34 be 89 98 95 be
       -0.08382081 -0.22843605 -0.17675033 -0.29217938
000070 6b 11 a7 be c8 99 d7 bd d5 b4 fc be 4f 56 bb 3d
       -0.32630476 -0.10527378 -0.49356714 0.091473214
000080 10 d5 44 3f ea 14 ba be 7a 81 42 be 54 c8 15 3f
       0.7688761 -0.3634408 -0.18994704 0.585088
000090 bb 1a 97 bd c8 1f 16 be 5d 23 3b be bb 96 b7 bd
       -0.07378145 -0.14660561 -0.18275209 -0.089642964
0000a0 16 77 b7 be 34 77 da be 8a 1f 10 bd 82 f4 89 be
       -0.35833043 -0.4266907 -0.035186328 -0.26944357
0000b0 99 d0 c6 be f2 5a 8f bd 2a f9 41 be 98 21 bb bd
       -0.38831022 -0.06999768 -0.18942705 -0.09137267
0000c0 fe 61 15 bd 9b db 84 be 2e d9 98 be 13 50 4d 3d
       -0.036470406 -0.25948796 -0.29853195 0.050125193
0000d0 eb 0e 41 3e 2c a4 89 3e 76 3a 49 3d 26 db e7 bd
       0.18853347 0.26883066 0.04912802 -0.11321096
0000e0 21 af ff be 03 98 a6 3e 17 c7 b6 3e 34 f8 00 be
       -0.499383 0.3253785 0.35698768 -0.12594682
0000f0 5c 74 97 3e 3e d5 b8 3f 63 8d 8f 3f f1 bd 25 be
       0.29580963 1.4440076 1.1215023 -0.16185738
000100 45 20 cc be 45 4c 0a bf e4 35 9b be e2 22 8f bf
       -0.3986837 -0.5402263 -0.30314553 -1.118252
000110 74 5b b3 bf 20 96 95 3d 2e 87 0e 3f a8 da b8 3d
       -1.4012284 0.07304025 0.5567502 0.0902608
000120 0d ce f3 3d 79 2e 90 3d 76 f8 3d be 97 38 75 3e
       0.119045354 0.07040114 -0.18551812 0.23947369
000130 74 1f d0 3e c6 55 32 3d bb ed 20 3e f7 4f 1e 3f
       0.40648997 0.04353883 0.15715687 0.61840767
000140 8f 98 d7 3e 3a 65 ce bc 78 93 0e 3c 32 8f 97 3d
       0.4210858 -0.025194753 0.0087021515 0.07400359
000150 6e b6 57 be ad fd bc be 9f 40 d1 bd 70 6f 98 be
       -0.21065685 -0.3691229 -0.102174036 -0.2977252
000160 75 19 1d bf b5 5d e6 be be 8e d8 bd f8 72 71 be
       -0.6136697 -0.44993368 -0.10574101 -0.23579013
000170 f8 44 e0 be 29 93 90 bc f9 82 01 3f 6f a0 3e 3e
       -0.4380262 -0.017648296 0.50590473 0.18615888
000180 94 de 8d bd 87 4a 6a 3e 77 18 50 3e cc 78 f4 3d
       -0.06927219 0.22879992 0.20321833 0.11937103
000190 96 0a b6 3e de eb a8 3e 75 70 ae 3d 4c 59 c2 3e
       0.3555495 0.32992452 0.08517543 0.37958753
0001a0 fd 80 47 3e 38 88 f1 bb 06 0b 6d bc dc 95 03 be
       0.19482799 -0.007370975 -0.01446796 -0.12850136

onnx::Conv_366 f4 [12]
000000 1a 2e 70 3f 54 ea 84 3f 62 3f 31 be de fa d4 3d
       0.93820345 1.0384011 -0.17309335 0.103994116
000010 10 24 85 3f 32 a5 4f 3e d9 be 11 c0 2f 9b 3f 40
       1.040163 0.20277861 -2.2772734 2.9938467
000020 9a 5c a2 bf 46 36 b3 3f 3a 76 2b be 9f 82 80 bf
       -1.268451 1.4000938 -0.16744319 -1.0039862

onnx::Conv_368 f4 [16, 12, 1, 1]
000000 a8 c5 af bd a1 8e 72 bc 88 61 e6 3d 7b c1 3b 3d
       -0.08582622 -0.014804513 0.11249071 0.045838814
000010 4c ae 0d 3c c2 9d 84 be aa a3 38 bd 34 6a 41 be
       0.008647513 -0.2590161 -0.045077957 -0.1888817
000020 f1 4a 40 bd b0 44 a3 be d6 37 b2 bc 9e 3c cd 3c
       -0.04694647 -0.31888342 -0.02175514 0.025053319
000030 6c a4 a2 3d 3e 93 32 3e af f5 39 3d a5 d1 02 3e
       0.07941517 0.17438981 0.045400318 0.12775286
000040 7d b4 23 3e b7 a2 a7 3e 97 e0 96 be 73 21 51 bf
       0.1598682 0.3274133 -0.29468223 -0.81691664
000050 bb 53 3c 3e 79 f7 6a 3e 17 c7 e4 bc f4 48 8e be
       0.18391316 0.22945966 -0.027926965 -0.27790034
000060 3d 51 9d bd 36 d5 20 be c8 df be bd 6d 01 3c be
       -0.076815106 -0.15706334 -0.09320027 -0.18359919
000070 43 aa c5 bd c7 3f a4 3c 47 0a 9a be a3 0a 8d be
       -0.096516155 0.020049943 -0.30085966 -0.27547178
000080 1c 5c 95 3e 69 19 56 3d 28 1d cb bc 34 f1 81 bd
       0.29171836 0.052270327 -0.024794176 -0.06344834
000090 5e 50 56 be db 71 11 be d1 b7 63 bd 64 6c 1d 3d
       -0.20929095 -0.14203589 -0.055595223 0.038433447
0000a0 ee c7 80 be 7f 03 d7 3d 3a 03 a6 3e 30 8c 0a be
       -0.25152534 0.10498714 0.32424337 -0.1353004
0000b0 8b 62 f2 3d d1 ed 71 bf ff 90 a6 bb db 47 03 3e
       0.11835202 -0.94503504 -0.005083203 0.1282038
0000c0 c6 79 6a be cc 18 3b be ae 4c 8b be 57 18 07 3f
       -0.22898015 -0.18271178 -0.2720694 0.52771515
0000d0 ca 5d 6a be 98 34 c3 3e 37 85 4f be da b5 d9 bc
       -0.2288734 0.38126063 -0.20265661 -0.026575971
0000e0 63 dc 45 3d 1c 6e 99 bd c8 0c 1e 3e 62 26 3f be
       0.04830588 -0.07491705 0.15434563 -0.18666986
0000f0 ba 76 f8 bd 6a 6f a7 bc c7 eb 7c 3e 5a 41 25 3f
       -0.1213202 -0.020438869 0.24699317 0.64552844
000100 1c b3 74 3d 9d 31 26 be 0a a8 93 3c b6 1d 76 3d
       0.059741125 -0.16229863 0.018024463 0.06008693
000110 b4 1a 18 3d 33 5c cc bd 49 e7 cd be 3e 10 4f 3e
       0.03713484 -0.09978523 -0.4021552 0.2022104
000120 e7 96 95 3b 97 a2 ff bd 8f f2 a6 bd 6b 98 1b bf
       0.004565108 -0.124821834 -0.08151733 -0.60779446
000130 43 b8 bd bd fe 23 65 be d1 35 cb bd 5e 3d 84 bd
       -0.09263661 -0.22377011 -0.09922374 -0.06457017
000140 db e3 90 3c ce 7f 11 bd 85 be 9f 3e ee 79 22 3e
       0.017686775 -0.035522275 0.31200042 0.15866825
000150 94 db 91 3e 65 02 1a 3f 87 e7 1a bf 34 3e a4 bd
       0.28487837 0.60159904 -0.6050953 -0.08019677
000160 e1 9c ff 3e 7f 6e 1a 3f fc c4 09 3f 66 ed 3f be
       0.49924377 0.60324854 0.538162 -0.18742904
000170 e4 03 b2 3e ca 88 36 3e aa 44 dc 3e 27 2d 3f bf
       0.34768593 0.17825618 0.43021137 -0.7467827
000180 35 f1 8b 3d d4 94 fc 3c 89 cb 47 be 4d 45 08 3e
       0.06833116 0.030832686 -0.19511236 0.13307686
000190 85 03 8f 3b 2a 65 27 bc 2d 84 0c be 40 bf 94 3e
       0.004364433 -0.0102169905 -0.13722296 0.29052162
0001a0 5a a0 e4 3e 50 50 21 3e 3b 5a 2a 3e a3 1a 93 3e
       0.4465359 0.15753293 0.16635983 0.2873126
0001b0 77 0a 5f 3f 41 91 62 3f 67 b2 26 3e 85 b8 00 be
       0.87125343 0.8850289 0.16278993 -0.12570389
0001c0 8e 03 6f 3f 8a cf a4 3c 40 75 b8 be 96 c1 70 3e
       0.933648 0.020118494 -0.36026955 0.23511347
0001d0 23 65 05 bf 3c 07 91 be f2 2a fb be 68 32 81 be
       -0.5210745 -0.28325832 -0.49056202 -0.2523377
0001e0 33 17 05 3d 2a b8 93 3b bc f2 af 3d f5 b4 0c bd
       0.032492828 0.004508038 0.0859122 -0.03435226
0001f0 f7 a1 40 3e a7 06 f5 bd 26 08 49 3d d0 b2 a0 be
       0.18811785 -0.119641595 0.049080037 -0.31386423
000200 fe c5 fa be 3e c6 69 3e f4 a2 09 3e 09 7b a2 be
       -0.4897918 0.2282953 0.13441068 -0.31734493
000210 49 47 26 bd 8b 29 eb bd 6b ca 16 3e 72 2a e0 bc
       -0.040595327 -0.11482533 0.14725654 -0.02736399
000220 2e 06 31 be 19 92 c6 3d 22 b4 92 3e af 84 dc 3e
       -0.17287514 0.09695835 0.28653055 0.4306998
000230 61 63 c2 3e 4c b1 ea bd 98 d8 0f be 76 6d 49 3e
       0.37966445 -0.11459598 -0.14047468 0.19670662
000240 69 b7 49 bd ad 6a 03 be 7f 63 1c bf c4 c0 2f be
       -0.04924718 -0.12833662 -0.6108932 -0.17163378
000250 27 17 86 be b1 c2 5a 3e d9 a4 83 3e 4a ab 6f 3f
       -0.2618954 0.21363331 0.25711706 0.9362074
000260 34 24 1e be c4 48 fd be e9 04 31 be 55 b9 89 bd
       -0.15443498 -0.49469578 -0.1728703 -0.067248024
000270 24 23 c1 be 0a 0e 3a be bb a6 66 3e 18 fa 01 be
       -0.37722123 -0.18169418 0.2252454 -0.1269306
000280 be 48 bb be 2e 35 02 be bd fe 63 be 5f 63 80 3e
       -0.36578935 -0.12715599 -0.22265144 0.25075814
000290 8f 7c fe bd 81 75 00 3d 71 6c 47 bd 24 a0 e2 3d
       -0.124261014 0.03136206 -0.048687402 0.11065701
0002a0 58 ea 07 3e 44 3e 1a 3e 4c f1 97 3d 96 e4 a9 3c
       0.13272989 0.15062815 0.074190706 0.020738881
0002b0 f8 b0 5f 3e ee 61 a2 bd ee 52 03 bf a2 73 72 3e
       0.21844852 -0.07928835 -0.51298416 0.23676923
0002c0 ed 3f 89 3e a2 20 12 3f f0 f1 c5 bb e3 a4 ed bd
       0.26806584 0.57081044 -0.006040804 -0.11603715
0002d0 30 53 e1 3d bf a9 ff bd a0 2b aa 3d 12 35 5d 3d
       0.11002195 -0.124835484 0.08309102 0.05400569
0002e0 7a d7 2e be 5e f6 0a bb 1b 4c 86 be 2c f3 06 bf
       -0.17074385 -0.0021203975 -0.2622994 -0.527148
0002f0 08 2f 90 3e e9 f3 74 3e aa 84 5f be c4 b6 29 3f
       0.28160882 0.2392117 -0.21827951 0.66294503

onnx::Conv_369 f4 [16]
000000 fd cc 71 3f ec 1e 8f 3e a1 3b 3f 3e 3a 9e 53 3e
       0.9445341 0.2795328 0.1867509 0.20665827
000010 6b f6 46 3f e4 29 59 3e 59 b4 9f 3e 83 70 0d bf
       0.77719754 0.21207386 0.31192282 -0.55249804
000020 9e 3a 0e bf 23 8f ef be 76 e4 d1 3d fc cf 66 be
       -0.5555819 -0.46788892 0.102486536 -0.22540277
000030 55 cc 56 be 06 58 15 3f 3e e6 97 3d 40 6f 0b 3f
       -0.20976384 0.5833744 0.07416962 0.5446663

onnx::Conv_371 f4 [96, 16, 1, 1]
000000 6f f1 18 3e 09 19 a9 3e cd 11 f4 bd 6f 58 01 be
       0.1493585 0.33026913 -0.11917458 -0.12631391
000010 76 f6 51 be 13 7e 79 be 58 bd db 3d 60 1c 70 3f
       -0.20504174 -0.243645 0.10729474 0.93793297
000020 91 32 48 3f 3d 91 41 3f c8 83 a5 3e f7 bd 2b 3e
       0.7820216 0.7561224 0.32327104 0.16771685
000030 37 e5 37 3a ac 13 c0 be f8 f0 15 3f eb 67 97 be
       0.00070150517 -0.37515008 0.58570814 -0.2957147
000040 3c 3b 7c be 9f 1c ff 3d 5b 82 66 be 2d 1b 48 3e
       -0.24631971 0.12456631 -0.22510664 0.19541617
000050 89 5b ae bf 7f 45 dd be 11 4d d7 3e c4 c3 fc 3e
       -1.3621684 -0.43217084 0.42050985 0.49368107
000060 79 b9 d8 be a1 0e ff 3d 9e 08 9e be 45 3d 6e 3e
       -0.42329004 0.12453962 -0.3086595 0.2326556
000070 8d 8a 07 3d da a9 6b be 7e ec 9b be e2 17 8e 3e
       0.033091117 -0.23014012 -0.30453867 0.27752596
000080 e2 4a 09 be e1 f1 95 be 40 70 0e 3d 31 e8 78 be
       -0.13407472 -0.292861 0.03477502 -0.24307324
000090 8a ce a5 bd 90 fc db bd dd e0 aa be e7 10 a8 3e
       -0.08096035 -0.10741532 -0.33374682 0.32825395
0000a0 c6 c9 04 be 49 04 21 3f c9 e9 92 3d eb a1 5e 3e
       -0.12967595 0.62897164 0.07173497 0.21741454
0000b0 1e 88 11 be 2b cc e0 3d 3f 6a 46 3e 2b 60 ad be
       -0.14212081 0.10976442 0.19376467 -0.33862433
0000c0 f6 4c c6 3d bb c8 ae 3e 87 6a 0f 3d 32 d2 01 be
       0.09682648 0.3413752 0.0350137 -0.1267784
0000d0 4e 91 a9 bd 3b a1 9c bd de e1 9c 3d ab 05 9c 3d
       -0.08279668 -0.0764794 0.07660268 0.076182686
0000e0 d5 db 22 3d 37 14 06 3e d1 f8 e8 3e 32 e5 f1 3d
       0.03976043 0.13093649 0.45502332 0.11811294
0000f0 62 e1 28 3e 61 36 1a 3d 03 89 fd bc 89 6e 95 3c
       0.16492227 0.037649516 -0.030949121 0.018241184
000100 15 fa 0e 3c 3e f3 68 3e 7a f0 16 be 51 06 7a be
       0.008726616 0.2274904 -0.14740172 -0.24416472
000110 c9 dc b1 bd c3 94 85 3d 98 49 cd bd e6 8f 10 bb
       -0.086846896 0.06522515 -0.100238025 -0.0022058426
000120 63 ca 78 3d 77 46 40 3f 73 42 b2 3e 61 20 ac be
       0.060739886 0.7510752 0.34816322 -0.33618453
000130 c7 bc 2c be 7a a2 c8 be ea f2 06 3e cb bd 20 be
       -0.16868888 -0.3918646 0.13178602 -0.156974
000140 8b 36 5c 3d 59 78 9c 3d 62 f6 7a 3e 34 ed b4 be
       0.053762954 0.07640142 0.2450805 -0.35337222
000150 7f ee 1b 3e 7f f8 d7 3d fe 12 1b 3e d7 19 68 3e
       0.15227698 0.10545444 0.15143964 0.22666107
000160 04 74 40 3e 09 76 9d be 0b c4 8b 3d 37 1e 77 3e
       0.18794256 -0.30754116 0.068245016 0.2413262
000170 e1 ae b5 bd 2c ae 15 3f ab 21 88 3e a2 aa 6a 3e
       -0.08871246 0.5846889 0.26588187 0.22916654
000180 76 dd e7 be b1 9d fc be 40 db a4 be f7 69 29 be
       -0.4528615 -0.4933906 -0.32198524 -0.16544329
000190 be aa 74 3e 7a 71 4e 3e 42 3b 8e 3f fe c3 bc bd
       0.23893258 0.20160475 1.1111834 -0.0921707
0001a0 e5 ed 93 3d ce 1e 65 be 90 90 4a 3e fa 4e 7b 3f
       0.07223109 -0.22375032 0.19781709 0.98167384
0001b0 46 97 2a 3f 6d 2d 23 be 31 45 45 bf 98 04 63 3e
       0.66637075 -0.15935297 -0.770587 0.22169721
0001c0 99 d8 d5 3e 9a 2b f0 3e c2 34 a7 3d bd 44 fb 3e
       0.41766813 0.46908265 0.0816436 0.4907588
0001d0 87 6a 11 bf 82 0c 7a bc c5 cc 78 bc e9 1a 96 be
       -0.5680317 -0.015261771 -0.01518554 -0.29317406
0001e0 b6 1f 23 3e 43 d6 cd 3e 04 6d 93 3e 5f 91 34 3d
       0.15930066 0.4020253 0.2879411 0.04408395
0001f0 84 d0 15 3e f3 1b e2 be 72 cd ae 3e 60 27 92 3e
       0.14630324 -0.4416195 0.34141117 0.28545666
000200 d5 14 27 bd e6 4d ad be ca a5 8b be 53 56 4c 3e
       -0.04079135 -0.33848494 -0.27274925 0.19954805
000210 13 a2 8e 3e b2 bc c8 3d 6d 88 3c bf c9 a3 3d be
       0.27858028 0.09801616 -0.7364567 -0.1851951
000220 12 b1 c7 3e d0 fe ee 3e a3 2d 32 3e 34 a7 0d be
       0.3900228 0.46678782 0.17400222 -0.13833314
000230 39 80 89 3e 99 2a fb be 53 94 3f 3f 7c b0 6c bf
       0.2685564 -0.49055937 0.748357 -0.92456794
000240 59 f7 4b be 36 82 40 bd 39 ae 8a bc 75 b2 ca bc
       -0.19918574 -0.04699918 -0.016928779 -0.024743298
000250 98 89 d0 3d ec 33 ce 3c dd 27 d0 bd 69 86 0a be
       0.10182494 0.025171243 -0.10163853 -0.13527836
000260 06 78 57 3e 03 f3 67 be 6d b9 15 be 30 8b 20 3d
       0.21041879 -0.22651295 -0.14621516 0.03919524
000270 c8 8c 87 bd f8 90 3d 3d 4f c8 31 bc c6 98 94 3e
       -0.06618649 0.04628083 -0.01085098 0.29022807
000280 ca ce 6a be 4d ba 0a bd c1 fb a3 be 01 d7 e2 bd
       -0.22930446 -0.033869077 -0.3202801 -0.11076165
000290 e3 c1 6e be 41 dc ae be 61 f0 e0 be 92 30 ed 3d
       -0.2331615 -0.34152415 -0.43933395 0.1158153
0002a0 0e 71 95 bd 70 75 e8 bd a9 ca bf bd e7 29 36 3d
       -0.07296954 -0.113505244 -0.09364826 0.044473555
0002b0 4d 94 48 3c 5b ef c7 bd c9 35 e8 bc b6 99 3d bf
       0.012242389 -0.0976245 -0.02834596 -0.7406267
0002c0 44 05 c6 3e 91 4b 3e 3e 12 9d d0 be ba 71 ed 3e
       0.38675892 0.18583514 -0.40744835 0.4637583
0002d0 a2 6d ab 3e df 64 8c 3f 6f 53 d8 be 94 a4 df 3d
       0.3348208 1.0968283 -0.42251155 0.10920063
0002e0 92 05 8d be f9 6c 9e bf fc c2 96 3d 95 53 8a be
       -0.27543312 -1.2377006 0.07361409 -0.27016893
0002f0 b1 83 17 bf 13 82 d4 be 1c 73 0b be a0 00 b1 3e
       -0.5918532 -0.4150549 -0.1361813 0.3457079
000300 21 60 9d be 3c 88 58 be 54 36 2b bd c6 4e bc be
       -0.30737403 -0.2114572 -0.04179986 -0.3677885
000310 3f c7 2c 3e 1a 79 77 3e a3 40 e7 bd 33 df 84 bd
       0.16872881 0.2416729 -0.11291625 -0.06487884
000320 66 9d 8b 3e 64 a2 37 3e ca 0d 51 be 40 e9 a2 be
       0.27268523 0.17933041 -0.20415416 -0.3181858
000330 57 a5 22 be 5f 5d a2 3a 41 56 7a 3e 2b 8a b6 3e
       -0.15883385 0.0012387446 0.24446966 0.3565229
000340 e0 79 8d be 8f ca a9 3d 10 f8 0a 3f da e2 15 bf
       -0.27632046 0.08290588 0.54284763 -0.58549273
000350 bd 70 02 3e d7 6d 5a be b8 62 6f 3e e6 75 01 3f
       0.12738319 -0.21330963 0.23377502 0.50570524
000360 9a d3 53 bd 94 a4 8d bf 8d 70 80 3e 1d 62 8c bd
       -0.05171547 -1.106585 0.2508587 -0.06854651
000370 ec be 8b be 45 3b 3b 3e 44 c7 2a 3e da 27 bf 3e
       -0.272941 0.18284328 0.16677576 0.37335092
000380 1d 26 a3 3e 93 14 6f be 52 bf b0 be 22 87 0d be
       0.31865016 -0.23347692 -0.34520966 -0.1382108
000390 3f 53 e6 3e 37 d5 91 3e 2a 0d 38 3d fc 06 45 be
       0.44985387 0.28482983 0.04493443 -0.19240946
0003a0 91 90 bb 3e f2 1f ed be 04 7a 33 3e 11 a6 df 3d
       0.36633733 -0.46313435 0.17527014 0.109203465
0003b0 fa f6 01 be 48 d0 ba 3e 04 ba ab bd 3f 12 29 3f
       -0.1269187 0.3648703 -0.08385089 0.66043466
0003c0 77 c5 a8 3d 68 db c9 be 72 f6 0e bf 92 db d3 be
       0.082407884 -0.39425206 -0.55844796 -0.41378456
0003d0 68 d6 81 3d 1d 42 e5 3e 76 8e 8f be 16 d0 11 3f
       0.06339723 0.44777003 -0.28038377 0.5695814
0003e0 26 9b d3 3e ba 52 98 be fb ed e6 be 2a 74 55 3b
       0.41329306 -0.29750615 -0.4510344 0.003257046
0003f0 b9 19 f3 bd 1d 02 6b be 02 2a ac 3e e3 43 82 3e
       -0.118701406 -0.22950025 0.336258 0.25442418

onnx::Conv_372 f4 [96]
000000 fa 09 7d bf 4f 43 c8 3f d4 2b 81 be 1a 70 aa bf
       -0.9884335 1.5645541 -0.2522875 -1.3315461
000010 32 31 d5 3d 86 02 e1 be 78 97 e7 bc b6 00 a2 bf
       0.10409774 -0.43947238 -0.028270468 -1.2656467
000020 36 81 83 3e 5e b5 f5 be 66 a5 10 40 67 c0 c5 bc
       0.25684518 -0.47989935 2.2600951 -0.024139596
000030 92 aa 96 3e 15 1f fd 3e 0b c8 88 bf b8 8c fd 3e
       0.2942701 0.49437776 -1.0686048 0.49521422
000040 6a 20 b5 bf a1 13 cf be a6 0b 86 3f 2e 1b a7 bf
       -1.4150517 -0.40444663 1.0472305 -1.305517
000050 a4 6e 97 3d c5 f3 ab be aa cc 2b bf 5f b8 4c 3e
       0.0739415 -0.3358442 -0.6710917 0.19992207
000060 83 9c 6d 3f 14 ae e0 3f 94 0d bd bf 0e 47 d1 be
       0.9281694 1.7553124 -1.4769769 -0.40874523
000070 e2 21 74 bd 6f 46 38 3f 1d 12 f8 3f 04 ab 16 3f
       -0.059602626 0.71982473 1.9380528 0.588547
000080 5b 90 20 3f 7b c1 03 3f 6a ec 8c bf 7b ff b5 3f
       0.6272027 0.514671 -1.1009648 1.4218591
000090 10 63 20 3f 69 62 0c 3f b2 23 6c 3f 8d 5d 32 40
       0.6265116 0.5483766 0.92241967 2.78696
0000a0 ab 84 b7 bf 31 1d c4 be 36 99 94 bf 66 65 c2 be
       -1.4337362 -0.3830352 -1.1609256 -0.37967986
0000b0 a0 a8 f9 3b de 6c b4 3d ee 50 8b 3f 58 1b 73 3f
       0.0076189786 0.08809827 1.0884073 0.949636
0000c0 0c 0b b5 3e c3 96 f7 bf 93 57 54 bf 70 0d 76 be
       0.3535999 -1.9342884 -0.8294613 -0.24028563
0000d0 8a a0 19 c0 16 55 77 bf 79 f9 dd bf 69 4a 62 3f
       -2.4004235 -0.96614206 -1.7341758 0.8839479
0000e0 b6 18 97 bf 90 66 22 3f 76 b0 9f be ad bf dd 3f
       -1.1804416 0.6343775 -0.31189317 1.732412
0000f0 25 84 b7 bf fa 33 f4 3f 5a 67 be be 22 b1 61 3f
       -1.4337202 1.9078362 -0.37188226 0.8816091
000100 e2 9f 88 bf e8 cd 99 3e fa 33 68 be a1 ee 9a bf
       -1.0673792 0.30039907 -0.22676077 -1.2104074
000110 5f 9f 83 3f 13 4a 14 c0 c6 20 6f 3f 1e 25 aa bf
       1.0283011 -2.3170211 0.93409383 -1.3292577
000120 42 57 23 3f 7e 16 34 3f f3 0a 9d bf 90 2f 81 bf
       0.6380502 0.7034682 -1.2268966 -1.009264
000130 95 1e 69 bf 58 82 d9 bd b3 08 3f bf 2f 8c 3e bf
       -0.9106229 -0.10620564 -0.7462265 -0.74432653
000140 77 5b 0d 3f 53 a4 08 3f 43 53 6d 3e b4 9f 27 3f
       0.5521769 0.5337574 0.23176293 0.6547806
000150 43 bd 8d bf 75 52 00 40 c8 79 d7 be fc 73 9b bf
       -1.1073383 2.0050328 -0.420851 -1.2144771
000160 5b f6 01 c0 ae b5 ff bf a5 37 59 3f 36 f6 1c bf
       -2.0306613 -1.9977319 0.8485053 -0.6131319
000170 db 61 87 bf f2 45 83 bf 82 29 a0 3e 0c bf c0 bf
       -1.0576738 -1.0255721 0.31281668 -1.5058303
