model_checkpoints/experiments/overall/onnx/fastscnn_160a0.125t6r2pp0_noinit.onnx (onnx, 70404 bytes, 63 tensors)

feature_fusion.conv_high_res.weight f4 [16, 8, 1, 1]
00000000: 051c 103f 3476 403e 132b 9fbe 0b59 d23d
00000010: bc2e 283e f0fa b0bf 383b a83f 85b7 83bf
00000020: e4ae 13bf 07af aabf 1d9f 8ebe 79fa a23e
00000030: bbba 3b3f ad4c fabe cd4a 5b3f a388 87be
00000040: aecb 1d3f 0edb 80bc dcd3 86be b4c2 85bf
00000050: 4d1f f8bf f00e 06be 492b 963e 4bd5 203d
00000060: bc11 4d3f 826a 95bf 9477 803e f19b 4a3d
00000070: 9f22 39bf 8d5e ef3d 7f6b 74be f10c d93d
00000080: 30ee 8abe d878 8dbe db2c 06bf 9ac3 7c3e
00000090: 4542 b23d cf9a ab3d 3155 803b 2c25 013f
000000a0: 7d13 3abe 4c74 1ebf 96fa e9be 3ac4 7abf
000000b0: 97e9 4fbf 035e 633f 217a 6dbf 6565 a4ba
000000c0: 68c9 53bf b887 aabe b6c1 ad3e 5156 65bf
000000d0: 2a16 c53d 9701 753f 2245 5fbf c98f 713f
000000e0: 3632 babf c91e c1bf d8f8 a03e 5893 563f
000000f0: 04f0 5c3f 921a 12bf 446d 133f 7867 99be
00000100: b407 df3d 4f17 7cbf f480 a1be bf76 d43e
00000110: e111 5bbe 57f7 babf bddc 873f f199 2cbe
00000120: d273 3abd 9c62 f3be 69ef ce3e fc88 7cbe
00000130: 1d3c 1dbe bacb 9a3f 6e36 9dbf 855a d63e
00000140: 221d bfbf 8f33 df3e 4e93 fc3e 22e0 a8be
00000150: fad9 383f 76d8 343f 2f1f 04bf a0dc 193f
00000160: 27db 443f f130 0abe a689 9fbf da2d b9be
00000170: 4076 c7bf 613b c33e b87e 09bf fb52 c63e
00000180: 5532 353f 3e24 763e 8883 8e3f 185e fb3d
00000190: 8e01 abbf 1a6d ffbe 9ce3 23bb a480 273f
000001a0: 8642 50bf 7620 84be ecd9 8fbb a122 2dbf
000001b0: c00e ac3e c273 303f e117 2bbf 2201 203f
000001c0: ac81 7cbf 8529 f23e 06e0 c83f ec52 19bf
000001d0: 3e28 24bf 6352 263f fa06 0fbf ec92 e43d
000001e0: d52c 8ebf 7c1e 993f a22e f13e 7a38 633e
000001f0: f048 033f c897 dcbe 51d3 293f 99d2 7abf
0.56292754 0.18795091 -0.3108755 0.1027089 0.16424078 -1.382658 1.3143072 -1.0290381
-0.57688737 -1.3334664 -0.2785577 0.3183172 0.73331803 -0.48886624 0.8566101 -0.26471433
0.61638916 -0.015729453 -0.2633351 -1.0450044 -1.9384552 -0.13091636 0.293299 0.039265912
0.80105186 -1.1673129 0.2509123 0.049465124 -0.7231845 0.11687956 -0.23869132 0.105981715
-0.27134848 -0.2763126 -0.52412194 0.24683991 0.08704046 0.08379137 0.0039164056 0.50447345
-0.18171497 -0.61896205 -0.45698994 -0.9795567 -0.81215805 0.88815325 -0.9276448 -0.0012542425
-0.82729197 -0.3330667 0.33936852 -0.89584833 0.09623368 0.9570555 -0.87214863 0.94360024
-1.4546573 -1.508752 0.31439853 0.8381858 0.86303735 -0.57071793 0.575886 -0.29961753
0.10890141 -0.98473066 -0.31543696 0.41496846 -0.21393539 -1.4606732 1.0614239 -0.16855599
-0.04552061 -0.4753617 0.4041703 -0.2466163 -0.15354963 1.2093422 -1.2282236 0.41865936
-1.4930766 0.43594024 0.49331135 -0.329835 0.72207606 0.70642793 -0.5161008 0.6010227
0.768969 -0.13495232 -1.2463882 -0.36167794 -1.5582962 0.3813124 -0.5370898 0.38735184
0.70779926 0.24037263 1.113389 0.12273806 -1.335985 -0.49887925 -0.0025007492 0.65430665
-0.81351507 -0.25806016 -0.004389992 -0.67630965 0.33605003 0.6892663 -0.6683331 0.6250173
-0.98635364 0.47297302 1.5693367 -0.59892154 -0.64123905 0.6496946 -0.5587002 0.111608356
-1.1107432 1.1962428 0.4710589 0.22189513 0.5128317 -0.4308455 0.6633807 -0.97977597

feature_fusion.conv_high_res.bias f4 [16]
00000000: 18e9 0c3f d8e7 883e ce86 9b3d e9da e43e
00000010: b59f 0240 8a03 2cbf abbb 4c3f 3be6 453d
00000020: b7bb e13e 046f 763f efb7 7e3f 75ab 393f
00000030: a7cf d43f aa97 aa3d 1beb 2c3e 1300 8e3f
0.5504317 0.26739383 0.07594071 0.44698265 2.0409977 -0.671929 0.7997386 0.048315268
0.44088528 0.96263146 0.9949941 0.7252725 1.662587 0.08329709 0.1688656 1.1093773

feature_fusion.conv_low_res.weight f4 [16, 16, 1, 1]
00000000: d495 95be 9da2 813d 9d9e 8bbf 8d50 bbbd
00000010: 8dde a2be 3431 af3e db78 3bbe 401b b7bb
00000020: 86ef a33f 745a 04be 57c6 19be 151a cfbe
00000030: b68f 8d3e ca58 60bf 48d5 29bf d611 bebe
00000040: a0e3 2fbf 8709 6fbc 4999 fdbe 88b2 423e
00000050: f81e 8fbd af17 bd3d c8fe c93c 5aa5 503e
00000060: 63be b43e 0ade b7be fb1e c5be 04f2 463f
00000070: b67c 443e 2545 34be 92b3 82bf 0894 a5bf
00000080: 7950 013e dd68 cbbf dbaa 06bf d250 89be
00000090: 91f3 a7bd 8d3e a53f b946 5fbf 9178 413e
000000a0: 16b3 593e f32d 5fbf 31ee 1e3e f483 d83e
000000b0: 64d4 81bf 456f 793f 6f7b 83be 3a23 003e
000000c0: 9886 683e 98c6 e13d 7eb7 78bc a7ca 363e
000000d0: d7b3 a73f fc71 b9be c90d 413f ab0f 3e3f
000000e0: f853 06be ff7b 6bbe 108f 043f bb11 01bf
000000f0: 7a77 ef3e cf79 03bc d306 1a3f 0864 91be
00000100: 0bed 9ebe 5c3c a53e f79d 9fbd 4a5c f83e
00000110: 3062 f2be aa83 2ebe 9430 8e3d a1c5 0840
00000120: 21af 3a3e a630 0d3e 1d1c e7bf 67af 723e
00000130: c743 a1bf 5fea b93e cabe ee3e 891a c03e
00000140: b1b7 783e 43b2 c7bf 2ec3 893f 225f acbd
00000150: 98a7 13bf edc2 af3e 1662 013f f74b dbbf
00000160: 0175 2dbe 2b2a b33e d7c0 b43e 0f8e 0ebf
00000170: 242d dfbd cb60 da3e 208c 903e ec3e e03e
00000180: 807b 0a3f a919 023e 1cf3 5b3f 1266 f4be
00000190: 9982 55bf 0282 dfbe 9286 2ebf bf87 363f
000001a0: 09e4 55bf 73fc 49bf 45bf f5be 6260 a33b
000001b0: 2759 e53d 0af6 5f3f 450d 75bd d0da 16bc
000001c0: 5e2d 0ebf df8c 0dbd c9a8 a23c 3c0e 54be
000001d0: 55e2 01bd b642 b53d 6caf a0be 0c7e 0b3d
000001e0: c914 f23e fc45 c23e 9353 d7be d9ba 3f3f
000001f0: 235d 7cbf eb0d 20bf c0ca c5be bda8 6cbf
00000200: 0888 bfbc 0ced 0a3f c2c7 87bf 315b 803e
00000210: fc84 93be 4f99 f33e 13a2 a9be f6be 31bf
00000220: 5896 9a3f eda5 863e 9f7e 913e dcd2 923e
00000230: d996 cdbe d090 18be a5fb c9bf be5d c4be
00000240: a79d 11bf 9dec 11be 7507 863f 20ca a93f
00000250: 1356 023f c9af bebd df11 9bbf 6871 97bd
00000260: 107e 93bf d742 4d3c 81ef 10bf d68b 323e
00000270: 4af3 223f 07e4 2c3f d129 0dbf d76b 9a3e
00000280: aa54 3a3f 24e1 12be 0596 1b3e 96ac 443f
00000290: 5ec3 7f3c bc29 593f f2ac b5bf f180 8ebf
000002a0: a5e0 4dbf 1f80 3f3f 69b3 a7bd 7612 16be
000002b0: 8708 6c3e cc91 863f bdec bebe d0a6 52be
000002c0: 923a f23e 1a11 b6bf 0382 04be 13ab 4b3f
000002d0: f4b8 643e c8eb 773f e427 a1be 4c00 1f3f
000002e0: 3528 3bbe 74c0 29bf 9861 84bf deae 8f3d
000002f0: ce9d ecbf a712 bc3e 60c4 b5bd be0e 1c3f
00000300: 9cc6 743e 91ed 103f 6118 88be e7e2 983e
00000310: a37b 083f f592 db3e 9d79 dfbe a098 bfbe
00000320: eda6 2ebe 7fe5 4cbd 1f05 d1be 49bf 20bf
00000330: 9358 8abe 9c05 b4be 1e52 173f 2fce 583f
00000340: 68b7 a6be 510f db3e cc0d 1b3f 6023 733f
00000350: e61d 933f 150e 72be 90d5 023d 81d1 e1bd
00000360: 8c16 18bf 25d2 533f dfe4 fb3e fc81 83be
00000370: 5577 d7be f97d e53e 5eb4 00bf c743 38be
00000380: d4ad c0bd 6df4 723e e28e 443f 3aa3 813f
00000390: 74a6 423f 2a8b df3d 3ea8 1c3c 8570 7d3e
000003a0: da36 f13c 3169 88be 56ae 8fbe 56d5 2cbf
000003b0: 7fd7 093f 75e4 253f 615a 85bf 04eb c43e
000003c0: ef99 563e 9a6b 163e 4775 abbe 5a69 513e
000003d0: 622b 073e 20df 523e 4dad 18bf 1e07 80be
000003e0: 0bd3 0c3f 2a2e eebe 765d 86bf 6224 d73d
000003f0: 0e10 f73e f051 babd 788f 22bf 0bc1 89bd
-0.29215872 0.06329844 -1.090778 -0.09146223 -0.31810418 0.34217227 -0.18307821 -0.0055879653
1.2807472 -0.1292513 -0.15017067 -0.40449587 0.27648705 -0.8763548 -0.66341066 -0.37122983
-0.68706703 -0.014589674 -0.4953101 0.19013417 -0.06988329 0.09233033 0.024657622 0.20375577
0.35301504 -0.3591159 -0.385002 0.77713037 0.19188198 -0.17604502 -1.021105 -1.29358
0.12628354 -1.5891377 -0.52604455 -0.26819474 -0.082007535 1.2909714 -0.8721729 0.18893649
0.21259722 -0.8717949 0.1552055 0.42288172 -1.0142941 0.9743541 -0.2568011 0.12513438
0.22707593 0.11024207 -0.015180467 0.17850743 1.3101758 -0.36219776 0.7541166 0.7424266
-0.13117969 -0.2299652 0.51780796 -0.5041768 0.4677084 -0.008024647 0.6016666 -0.2839663
-0.31040224 0.32272613 -0.07793801 0.4850791 -0.47340536 -0.17042413 0.06942859 2.1370623
0.18230869 0.13788089 -1.8055454 0.23699723 -1.2598809 0.36311623 0.46629936 0.37520245
0.24288823 -1.5601276 1.0762689 -0.08416583 -0.576776 0.34328404 0.5054029 -1.7132558
-0.16939165 0.3499311 0.35303375 -0.55685514 -0.10897282 0.42651972 0.28231907 0.43798006
0.54094696 0.12705101 0.8591783 -0.47734123 -0.834024 -0.43653876 -0.6817409 0.7130088
-0.8355108 -0.7890083 -0.4799749 0.004985855 0.11198645 0.874848 -0.059827108 -0.009207442
-0.55537975 -0.034558173 0.019855874 -0.20708555 -0.031709988 0.08850615 -0.31383836 0.034055755
0.47281483 0.3794402 -0.4205595 0.7489448 -0.98579615 -0.6252124 -0.38631248 -0.92444974
-0.023380294 0.54267955 -1.0607836 0.25069574 -0.28812397 0.47577903 -0.33131465 -0.6943201
1.2077131 0.26298466 0.28416917 0.28676498 -0.4015415 -0.14898992 -1.5779921 -0.3835277
-0.56881183 -0.14250417 1.0471026 1.3264809 0.5091259 -0.09310872 -1.2114829 -0.073946774
-1.1522846 0.012528143 -0.56615454 0.17436156 0.6365248 0.6753544 -0.5514193 0.301604
0.7278544 -0.14343697 0.15193947 0.76825845 0.015610544 0.84829307 -1.4193404 -1.11331
-0.80420905 0.7480487 -0.08188517 -0.1465548 0.23050128 1.0513244 -0.37289992 -0.20571446
0.4731031 -1.4223969 -0.1294022 0.79557914 0.22336179 0.9684415 -0.31475747 0.6210983
-0.18277057 -0.66309285 -1.0342283 0.07015775 -1.8485658 0.3673298 -0.08875346 0.60959995
0.23903888 0.566125 -0.265811 0.29860613 0.53313655 0.42885557 -0.4364747 -0.3742113
-0.17055865 -0.050023552 -0.4082422 -0.6279188 -0.27020702 -0.3516053 0.59109676 0.8468961
-0.32561803 0.42785123 0.6056793 0.9497585 1.1493499 -0.23638184 0.03194195 -0.11026288
-0.59409404 0.8274253 0.49198052 -0.25685108 -0.4208323 0.44822672 -0.5027522 -0.17994605
-0.09408155 0.23726054 0.7678052 1.0127938 0.7603524 0.10915215 0.009561596 0.24749954
0.0294451 -0.26642755 -0.28062695 -0.67513025 0.53844446 0.6480172 -1.0418206 0.38460553
0.20957159 0.14689484 -0.33487913 0.20450345 0.13200143 0.20592928 -0.59639436 -0.2500543
0.55009526 -0.46519595 -1.0497272 0.10504986 0.48254436 -0.090976596 -0.63500166 -0.06726273

feature_fusion.conv_low_res.bias f4 [16]
00000000: 1f4e 8c3f 807d e73d f956 a23e ef71 1c3f
00000010: 614e f73f c3dc 20bf 9427 2e3f 62b0 0abe
00000020: 62bb f83e 79c1 0a3f 2fa8 523f 2d2f 3d3f
00000030: f73e c33f d6e8 613d 7087 dc3c 5411 653f
1.0961341 0.11303234 0.3170698 0.6111135 1.9320794 -0.62836856 0.6802914 -0.13543847
0.48580462 0.54201466 0.8228788 0.7390011 1.525359 0.05515369 0.02692005 0.89479566

classifier.conv.weight f4 [1, 16, 1, 1]
00000000: b3ee 48bf 80c5 10bf 7635 89bf 6036 bcbf
00000010: 4cc3 1bbf 3933 07bf f058 44bf d1a3 84bf
00000020: ea8d 7e3f b316 753f bb6e 62bf 86be 58bf
00000030: bf81 29bf 6141 6fbf 2d80 a6bf 9e8c b13f
-0.78489226 -0.5655136 -1.071944 -1.4704094 -0.60844874 -0.52812535 -0.7669821 -1.0362493
0.99435294 0.9573776 -0.8845021 -0.84665716 -0.662136 -0.93459135 -1.3007866 1.3871038

onnx::Conv_275 f4 [4, 3, 3, 3]
00000000: d768 423e 8975 14bc 56d7 9abb 4e21 a7bd
00000010: 0f5f 523d da3c 693e a5e0 7e3e b710 eab9
00000020: 9cdf 32be ee1d 31be 8a29 373c dcef 943e
00000030: f529 b8be 036b 1f3e 1131 8f3f 3753 c4bd
00000040: a6c9 743e 8c99 0a3f 1b3e 40be d025 44be
00000050: 2e9d 3abd 2764 c6be a17c 10be 808c 033f
00000060: 0552 fdbd b818 03be 721c 1b3d 3718 363e
00000070: 0297 92bd b7cb 67be f213 f13b 0e48 a1bd
00000080: 0ff4 47be bb57 b83d 669c 513d 4d0c a6bd
00000090: 8e85 17bf f369 56bf cf0a f5be f78b e5be
000000a0: 3035 10bf 8844 0cbf 9d0b 8abe af55 99be
000000b0: 0c42 81be 1536 f0bc ee3d 023e 9c3e a93c
000000c0: e021 ad3d 8ff5 243e 5d9b 943e df95 613e
000000d0: 7c80 ff3e 01ff e23e 8504 f33c b4c8 f93d
000000e0: da3f 1d3e 7934 e9bc b1cb ba3d ccde a2bd
000000f0: 49e5 f33d c0d5 653d 3395 0abd 585b 4d3e
00000100: 574e cd3e d6a2 813e c465 f13e 8d3b a93f
00000110: 218a d33d 6ff9 8f3e b0cd 2e3f d8a6 9c3d
00000120: a658 c0be ee8d 5bbe 5609 81bd 7636 b9be
00000130: e3a8 d73d 9d36 9ebe 4683 39be 4da1 94bd
00000140: 1ef4 cbbd ac8d 4c3e d1da 5dbe 9190 d8be
00000150: ac9f 74bd 16d7 27bc 23f8 72bd 2468 c03d
00000160: de9f 073e 71b7 263d ec91 a63e a8b9 a9be
00000170: 9d7c cebe a320 06be e5b2 01bf 9915 a2be
00000180: 7a85 b03d a87b e7bd ceac a2be 10d1 d23e
00000190: b5a3 75be fd8a d6be 2ea2 e93c 9a40 2ebe
000001a0: ec18 71bd ee80 4e3e 0b0c 423d 3071 923d
0.18985306 -0.009061226 -0.004725377 -0.08160649 0.051360186 0.2277712 0.24890383 -0.00044644412
-0.17468113 -0.17296574 0.011179337 0.29089248 -0.3596951 0.15568165 1.1186849 -0.095861845
0.23905048 0.54140544 -0.18773691 -0.1915505 -0.045560054 -0.38748285 -0.14110042 0.5138626
-0.123691596 -0.12802398 0.037868924 0.17782675 -0.07157709 -0.22636305 0.007357114 -0.078750715
-0.19526695 0.09001108 0.051174544 -0.08107815 -0.59188163 -0.83755416 -0.4785981 -0.44833347
-0.5633116 -0.5479207 -0.26961985 -0.29948184 -0.25245702 -0.029322663 0.12718937 0.020659737
0.08453727 0.16109298 0.29024783 0.22029828 0.49902713 0.44335178 0.029665241 0.12196484
0.15356389 -0.028467404 0.09120882 -0.079526514 0.11908967 0.05611205 -0.033833694 0.20054376
0.4009883 0.25319546 0.47147954 1.3221298 0.103290804 0.2811999 0.68282604 0.076490104
-0.37567633 -0.2144086 -0.06300609 -0.36174363 0.105302595 -0.30901042 -0.18116483 -0.07257328
-0.09958671 0.19975919 -0.21665503 -0.42297795 -0.059722587 -0.010244152 -0.059318673 0.09394863
0.13244578 0.040702287 0.32533205 -0.33149457 -0.40329447 -0.13098387 -0.50663596 -0.31657103
0.08619209 -0.113028824 -0.31772465 0.41175127 -0.2398823 -0.41902915 0.028519716 -0.17016831
-0.058861658 0.2016637 0.047374766 0.07150495

onnx::Conv_276 f4 [4]
00000000: 3159 a43e d675 593e bef0 a0bd 8eaa d13e
0.32099298 0.21236357 -0.07858418 0.40950435

onnx::Conv_278 f4 [4, 1, 3, 3]
00000000: 9ef2 6abf 287b 83bf 7886 fdbe 2395 93be
00000010: 37a7 55be 5287 703b 4071 e13e 59f6 9a3f
00000020: 146b a63f 766e aa3d 3aca 9a3c 49ab a8bd
00000030: a18b 523d cfec 343e f539 133e 0d6e b8bc
00000040: e7b6 0f3e 0d65 363e ff81 edbd 05ca 03be
00000050: 75b3 2ebd 980c 32be f0c9 90be b8df 52be
00000060: e110 47bd 09aa 9fbd 62c2 52bd 4f17 673d
00000070: 39f9 3c3f bb0d 553f 6ec0 88be 767c 3dbe
00000080: 58a4 f2ba 13bb 9abe c497 f5be 3f75 38be
-0.91776454 -1.0271959 -0.49516654 -0.2882472 -0.20864569 0.003670175 0.44031715 1.2106429
1.3001428 0.0832185 0.018895257 -0.08235795 0.05140269 0.1766846 0.14377578 -0.022513414
0.14034615 0.17811985 -0.115970604 -0.12870033 -0.042651612 -0.17387617 -0.28279066 -0.20593154
-0.04860008 -0.077961035 -0.05145491 0.056418713 0.73817784 0.83224076 -0.26709312 -0.1850451
-0.0018512113 -0.3022085 -0.4796735 -0.18013476

onnx::Conv_279 f4 [4]
00000000: c0f8 063b 6a30 03bf 16c1 633f bb93 3ebd
0.0020595044 -0.5124575 0.889665 -0.046527606

onnx::Conv_281 f4 [6, 4, 1, 1]
00000000: e0d2 a0bd 2e63 5a3f 1105 523f 3a16 223c
00000010: 1bf0 bb3a 6f12 f73d 7531 593e 6511 3e3c
00000020: 32b6 c4be 7b8a 5a3c 4b61 d63d 69c9 22bf
00000030: ba7a 3dbf 7a8c 793e 093c 26bd 64a6 a3bf
00000040: 0508 6d3e 341c 363f 81f7 e3bf 0bc5 9d3d
00000050: 0c2d 0140 6550 703e c340 8f3d 7bf8 b33e
-0.07852721 0.85307586 0.8203898 0.009892995 0.0014338525 0.12064063 0.21210273 0.011600827
-0.38420254 0.01333868 0.10467776 -0.6358858 -0.7401539 0.24369994 -0.040584598 -1.2785153
0.2314759 0.71136785 -1.7809907 0.077035986 2.0183744 0.23468168 0.06994774 0.35150513

onnx::Conv_282 f4 [6]
00000000: 988a bf3e 3037 9a3f 2383 f9be 70c5 18bc
00000010: c346 dc3e c56b 1cbe
0.37410426 1.2048092 -0.48732862 -0.0093244165 0.43022737 -0.15275486

onnx::Conv_284 f4 [6, 1, 3, 3]
00000000: a108 1abd 4e35 d6be da87 bfbd b4be 073d
00000010: cd4b cbbe d9c3 92be 34b0 be3d 6340 63bd
00000020: c6c7 adbd 6fee 37bf 99a0 4bc0 ab90 38be
00000030: 0881 17be 0b6f 93bf 628a b83f 9a6c 8a3e
00000040: 85c1 0a3d 9b07 3040 a9ad 87be 09f7 2cbf
00000050: abf6 7dbe 617d 26be 0f6c dcbe 8374 1fbe
00000060: 4239 63bd d030 fa3e 7488 b93e 1cf2 91bb
00000070: 1946 1f3e 3cb7 063e 3e50 6ebc f7a5 b73e
00000080: 7504 c33e d60f 0f3d 62bd a83e 5b96 d73e
00000090: fff5 453d 0bd5 4e3e 80ab a73d 01b9 8bbc
000000a0: 957c 8c3e b6d9 a33e 6252 10be 8234 fb3c
000000b0: 7cc7 8f3d e4e5 553c d072 873d 93ba a73c
000000c0: 50cb af3d cd54 203e 6ca5 143e 7278 f23d
000000d0: e5bf 5e3e 12d1 433e
-0.037605885 -0.41837543 -0.093520835 0.033140853 -0.3970627 -0.28665045 0.09310952 -0.055481326
-0.084853694 -0.71848196 -3.181677 -0.18023936 -0.14795315 -1.1518263 1.4417231 0.2703598
0.03387596 2.7504642 -0.2649968 -0.67564446 -0.24801128 -0.16258766 -0.43051192 -0.1557179
-0.055474527 0.48865366 0.36236918 -0.0044539105 0.15554084 0.13155836 -0.014545498 0.3586881
0.38089338 0.03492721 0.32956988 0.421069 0.048330303 0.20198457 0.08187008 -0.01705599
0.274388 0.32002038 -0.14093927 0.030664686 0.070204705 0.0130552985 0.066136956 0.020474708
0.08583701 0.15657349 0.14516228 0.11839379 0.2175289 0.19122723

onnx::Conv_285 f4 [6]
00000000: ad0c 603f 118a 463f 1382 3e3e 7de2 a4bf
00000010: 2e4f 1fbf f9ce 8cbf
0.8751934 0.7755442 0.18604307 -1.2881619 -0.62230194 -1.1000663

onnx::Conv_287 f4 [8, 6, 1, 1]
00000000: 90f6 d2bd f3c7 2b3f d00b adbe 7337 f53d
00000010: 6e13 053e 3dff 3fbc 6faf 6e3d 434f b8bf
00000020: e9f3 a6bc a8a8 813e eca2 323e a9a9 593e
00000030: e8b4 edbd c649 c53c 7028 a73e 3760 bebd
00000040: e7d9 1fbf a7a8 423f 80cc 823e cc97 6e3d
00000050: 169c 063f 9586 a8be 60dc 773e 5cae f0be
00000060: 287d d63d 09b4 43be 175b 8a3e 2f94 76bf
00000070: f5b5 3f3c 085f 1cbf 6f68 84bf 3f2e 643e
00000080: 9a31 a03d 88f2 86be 0c95 75bf 89a8 e2bd
00000090: bca3 503f f9c1 8fbd 6171 02be 6f87 453e
000000a0: 7e87 4f3f bbfc 033e fc62 61be 764c 8abd
000000b0: 5123 0bbe cdc9 6e3e 94a5 f9be 1284 883d
-0.10300934 0.67101973 -0.33798075 0.11973467 0.12995693 -0.011718568 0.058272775 -1.4399189
-0.020379977 0.25323987 0.17444962 0.21256126 -0.11606771 0.02408303 0.3264804 -0.09295695
-0.6244187 0.76038593 0.25546646 0.058250234 0.5258192 -0.32915178 0.2420516 -0.47008026
0.104730904 -0.19111647 0.2702262 -0.9631986 0.011701097 -0.61082506 -1.0344371 0.22283266
0.07821961 -0.26356912 -0.9593055 -0.11067302 0.8149984 -0.07019419 -0.12738563 0.19289945
0.8106612 0.12889378 -0.22010416 -0.06752865 -0.13587691 0.23319168 -0.4875914 0.066658154

onnx::Conv_288 f4 [8]
00000000: fd56 853f 0e3e 75be fdc9 5ebe 8015 9d3e
00000010: 577a e5bd c46f 9ebd ce69 013e 14a4 b83d
1.0417172 -0.23949453 -0.2175674 0.30680466 -0.11204975 -0.07736161 0.12638018 0.090156704

onnx::Conv_290 f4 [48, 8, 1, 1]
00000000: 1b1a 1fbf 9fde 303f 58f8 143f cd84 dabe
00000010: 6c18 f3be 4c55 21bc ee20 c5bd aecc 233e
00000020: 2053 223f 5838 91bf 8769 fbbe 25cc 2bbf
00000030: ad6a b0be 3eea ae3f 9525 a4be 1aba 193f
00000040: b091 03be 11a2 013f 7db6 bfbe 63c8 2d3e
00000050: d080 173e 6860 cebd ba1c be3e 5663 9b3c
00000060: ede4 043e 424e 10be 2b5b 13bf 280e bbbe
00000070: 2a58 2cbe 1672 bf3f 6076 cabd de64 d13e
00000080: c39c c63e 46b3 a0be 8496 cc3d 5ca5 503f
00000090: e231 08bd bcc1 03be a450 323f cedc 73bf
000000a0: b063 ad3e 4ce3 c93e b830 79be 151a 6a3f
000000b0: 7650 ae3e f1b5 93be dc6d 763f 913c b43c
000000c0: 0315 213e bd66 8e3f b828 803f 463d 5bbf
000000d0: d1f6 4b3b 3fec e83e 3f76 b43e ae1a 543f
000000e0: 4544 713f 4d0e 8f3d 9b84 433f a91f 4bbf
000000f0: 0243 ddbe ae1c 5a3e 3273 43bd 4a6d 0a3f
00000100: ae18 4abe b630 453f 840a 2b3f 1c52 c7be
00000110: 82ae d5be 62e6 38bd 6fa3 e03d 4927 8f3e
00000120: 1e20 7cbd 4f28 bcbc 7267 54bc a8da 053d
00000130: 6e97 413d 1910 7cbe af01 803e a268 b2bd
00000140: a619 e93e 92bf 713f 3ac1 37bf fb58 0040
00000150: b2e6 f33e 049a 2ebe 50a4 eb3e 24c3 26bf
00000160: 334b df3e 4eb7 3c3e a057 db3e 8cf7 7dbd
00000170: 1057 97be f5c2 763f 6819 c7bd b68c 013f
00000180: b1cb 553f c564 ad3d d22c 9cbd 6b4c 6cbe
00000190: 9aa6 6fbf 4eba 7c3d b21d 7cbe 2f0c 9a3f
000001a0: 9251 adbd d81c 1abe c800 4fbe 4eaf 1abd
000001b0: 14ab dc3e b29e 8abe f00a cd3c 6683 05be
000001c0: 0141 e4bd c111 b43c 45d6 df3d dab2 39be
000001d0: 7751 973d b9fe 803d b48c 77bd c61a 373d
000001e0: 568b 313f c244 85bf 8f94 42bf d068 15be
000001f0: cebd 393e 1aa2 9e3f 899d a63d 3a41 cfbe
00000200: ed16 4b3d 2b3b 813b 69c7 3fbe 3ba0 213d
00000210: 3214 af3c a443 4a3f be78 22bf 27da ee3e
00000220: ca08 b13e 3265 863e 5dbb b33e a2fc 803c
00000230: 0477 8e3d 1523 9abe 4326 833f 8ce6 f8bd
00000240: 9c23 463f 6e9c 30be c965 593f 2f78 f93f
00000250: 96db 1b3f e6e3 83bd aa08 06be 1e27 fd3e
00000260: 65e4 553f 5f15 33bf 67a5 7cbe a121 91bf
00000270: a2e9 a4be 359a 7b3f 6d66 adbe bbdd 763f
00000280: 2119 6b3f 46b3 cf3e 744a e7bd c487 3e3f
00000290: d8f3 e5be 9b19 a9be 9bc6 813f 4180 983e
000002a0: 13a4 ebbe 83bc 183e b988 1e3e 4e30 5d3e
000002b0: 5422 2b3d 25ce 80bf ee19 5b3f 9e95 a8be
000002c0: 308b aabd e92e 0a3f 19c8 5c3f 75ce 4d3d
000002d0: 8154 f0bc 1029 953f cb8c b53d 6a67 bebd
000002e0: 4fba 0b3f 59e1 a5bf 40e7 17bf e0fb d7be
000002f0: 0d29 203f d1b8 e53f 31cb f6be 6a49 e33e
00000300: c18e c13d 6826 ce3e 0df1 503e 3e8f 0fbc
00000310: 9c21 b13b 25a4 febd 1331 8c3e c864 67be
00000320: b942 0abd 52bf 7c3e 173b 353e 6e84 6e3e
00000330: 9d25 c6bb 6369 67be 663b 873e ac99 05be
00000340: 0baa a1bf 897f e83e 526f 643f 4e21 803f
00000350: 3f4a 1d3f f0d4 ab3f 4d6c 0d3f 2ab2 cb3e
00000360: 42e2 7b3f b259 0f3f 360f 21bf 5e98 aa3f
00000370: 8f44 02bf 77f1 e23e 6474 0dbf 9853 983d
00000380: 195a 11bb cc63 243f 58e8 21bf 6450 68bf
00000390: 1f4c f5be 073d 953e 960c 14bf b4c9 9a3e
000003a0: 6ca9 53be 2f25 9cbe 8810 413d d4a3 de3d
000003b0: 4b49 b13e 1b3e 28be a4dd 3d3d 9cfb ffbe
000003c0: 9df8 693b a452 423f 9603 57bf ad75 2d3d
000003d0: 0329 f4bf e1ce 62bf f750 713f 3182 97be
000003e0: a938 52bd 609a 6cbf 13b6 7ebe b922 90bd
000003f0: 5d1d 883d de23 5ebc f066 9fbc 076f 95bc
-0.6214921 0.6908969 0.5819144 -0.42679444 -0.4747957 -0.0098469965 -0.096254215 0.15996048
0.6340809 -1.134532 -0.49103948 -0.67108375 -0.34456387 1.3665235 -0.32059923 0.60049593
-0.12848544 0.5063792 -0.37443915 0.16970973 0.14795232 -0.10076982 0.37131292 0.018968266
0.12977953 -0.14092353 -0.57560986 -0.36534238 -0.16830507 1.4956691 -0.098858595 0.40897268
0.38791475 -0.31386775 0.09989646 0.8150232 -0.033250697 -0.12866873 0.696543 -0.95258796
0.33865118 0.39431226 -0.24334991 0.9144605 0.34045762 -0.28849748 0.9626138 0.022001537
0.15730672 1.1125103 1.0012426 -0.8564037 0.0031122456 0.4549274 0.35246465 0.8285321
0.94244796 0.069851495 0.76374215 -0.79345185 -0.43215185 0.21300003 -0.04771728 0.5407301
-0.19735977 0.7702745 0.6681292 -0.38929832 -0.417347 -0.045141585 0.109686725 0.2795966
-0.061554067 -0.02296844 -0.012964116 0.03267923 0.047263555 -0.24615516 0.25001284 -0.087113634
0.4552738 0.9443294 -0.71779215 2.005431 0.47636944 -0.1705094 0.46023798 -0.6514151
0.4361206 0.184293 0.4284029 -0.062003657 -0.2955861 0.9639123 -0.09721643 0.5060533
0.83513933 0.08466486 -0.07625736 -0.23076026 -0.9361359 0.06170111 -0.24620703 1.2034968
-0.08462824 -0.15050066 -0.20215142 -0.03776484 0.43099272 -0.270742 0.02502963 -0.13038406
-0.11145211 0.021981122 0.109295405 -0.18134633 0.07388585 0.062985845 -0.06043692 0.044703268
0.69353235 -1.0411608 -0.7600793 -0.14590764 0.18138811 1.239322 0.08135516 -0.4047945
0.04958241 0.003943821 -0.18728413 0.03945945 0.021371935 0.7900946 -0.6346549 0.46650812
0.34577018 0.2624908 0.35103884 0.015745465 0.06956294 -0.3010489 1.0246052 -0.12153348
0.77398086 -0.17247173 0.84920937 1.9489802 0.60881937 -0.064399526 -0.13089243 0.49443907
0.8355163 -0.69954485 -0.24672471 -1.1338388 -0.32209498 0.98282176 -0.33867207 0.96432084
0.9183522 0.40566462 -0.11293498 0.7442591 -0.449126 -0.33027348 1.0138735 0.2978535
-0.46023616 0.14915662 0.15481843 0.21600458 0.041780785 -1.006291 0.8558644 -0.3292665
-0.08327329 0.5397783 0.86242825 0.05024572 -0.02933717 1.1653156 0.08864745 -0.092970684
0.5458116 -1.2959396 -0.59337234 -0.42184353 0.6256264 1.7947026 -0.48201898 0.44391948
0.09451056 0.40263677 0.20404454 -0.008762179 0.005405618 -0.12433652 0.2738119 -0.22597039
-0.033755038 0.24682358 0.17698322 0.23292705 -0.0060469643 -0.22598796 0.26412505 -0.13046902
-1.2630018 0.45409802 0.8923236 1.0010164 0.61441416 1.3424358 0.5524338 0.39784366
0.9839212 0.5599624 -0.62913835 1.3327749 -0.5088586 0.44324848 -0.55255723 0.07437819
-0.0022178947 0.6421478 -0.63245153 -0.90747666 -0.47909638 0.29148123 -0.57831705 0.30232012
-0.20670098 -0.3049712 0.047134906 0.108710915 0.3462623 -0.16429941 0.04635395 -0.4999665
0.0035701164 0.7590735 -0.83989847 0.042348552 -1.9075016 -0.8859692 0.9426417 -0.29591516
-0.051323567 -0.9242306 -0.24874143 -0.07037873 0.066462256 -0.013558356 -0.019458264 -0.018241419

onnx::Conv_291 f4 [48]
00000000: bdc4 973f a3a7 a6be caa3 4ebf e338 3abf
00000010: ce84 a8be 25c5 d7bf 3770 9dbf 7fc9 86bf
00000020: daa4 b73e 9370 883f 20d0 f7bf b420 dfbf
00000030: 652c c1be fc22 603f 361b 613f 7763 64bf
00000040: 502b 883e f812 9cbf 034d 3ec0 1662 bebe
00000050: 4f87 09c0 443d 333f b0aa d7bf 9acb 85bf
00000060: 9014 d63e c4bf 1a3f ed43 c9bf 39fc 15c0
00000070: 3c82 693f 3ec5 843f d8eb 973f c4eb b13f
00000080: aeb5 443e 9a67 88bf d400 e13e 9b19 4ec0
00000090: 8589 6bbf 9aaf 26c0 b557 d7bf 021c b73f
000000a0: 6cde 9d3f b3e0 aa3f 314f 0bbf dc85 503f
000000b0: 98bb 60be 4fc2 9b3f 3cbf 603f aa3e 7e3f
1.1856915 -0.32549772 -0.8071867 -0.7274305 -0.32913822 -1.6857039 -1.229987 -1.0530242
0.3586796 1.0659355 -1.936039 -1.7431855 -0.37729183 0.8755338 0.87932146 -0.8921427
0.26595545 -1.2193289 -2.9734504 -0.3718421 -2.1488836 0.7001536 -1.6848965 -1.0452759
0.41812563 0.6044886 -1.5723854 -2.3435194 0.91214347 1.0372694 1.1868849 1.3900075
0.1920993 -1.0656617 0.43945944 -3.2203128 -0.92006713 -2.6044679 -1.6823641 1.4305422
1.2333503 1.3349823 -0.5441771 0.81454253 -0.21946561 1.2168673 0.877918 0.9931437

onnx::Conv_293 f4 [48, 1, 3, 3]
00000000: db3d bb3c c41a 1abe 9072 86be 0e7b afbe
00000010: 7a9d 35bf 0334 efbe a2f0 88be d050 d2be
00000020: 23cb b4be 8fdf 883b c8d0 85be c924 fbbc
00000030: 128a b4bd e82f 953e f90e fd3e 5e9c 963e
00000040: 4b59 f43d b237 5d3e 39d9 04bf b507 7fbf
00000050: 472c a4be 17f3 803f 1661 6b3f 3d36 d23f
00000060: ed40 48bf 0f13 b1bf 97dd 1cbf 10bb a23d
00000070: caf6 9bbe 0592 a2be 33d4 4bba 8026 713e
00000080: deef d3be bda6 46bb d170 923f 9537 c73e
00000090: 0c15 00be 8db9 c23d aae6 95bd b876 193d
000000a0: 8b4c c83d 7be9 fa3d 8f60 803e b4e6 a63e
000000b0: 1441 3c3e a1ee ebbd edb0 79be c40b 9fbe
000000c0: 987d 5d3e a7ca 5a3c 49d5 30be 0810 e4bd
000000d0: 6303 1abe f192 3fbd c52c a6bd 5414 69bd
000000e0: 28f3 9fbe 1935 84be 3fd2 023f 39d5 c73e
000000f0: ce7f cf3e 1c20 a4bd 3cc2 cfbd 0cbd a4bd
00000100: 2878 9c3d 3dc7 56be 6b5e ddbe 26d7 edbe
00000110: 1578 22be 907e dbbe a825 a2be 7dbb c7bd
00000120: 1dbc debe 2a23 eabe d46a 1fbe 0c96 2ebe
00000130: cbd5 13bf 9a70 37be d3c1 85be 9268 543d
00000140: 0200 7c3e cf30 853e 8fe4 5bbe 2795 31bf
00000150: adf4 23be ab42 a2bf 4f83 c6bf 1629 5a3f
00000160: cf33 663c bb58 2abf ad03 2bbc 4dca 1e3d
00000170: ddcc 653c 68dc 893d 8eb3 b43d 0a52 033d
00000180: 4e58 d43d 6e49 da3d 30a9 a73d 94cd 903b
00000190: 236d fa3d c8b2 453d e75c 273e 2d31 a83e
000001a0: aaa1 953e 5c82 ce3d 28f9 2d3f c5bb 563e
000001b0: f4df dbbe 8bb0 32bd 09ea 2a3d edb1 4fbe
000001c0: 4173 4cbe 1a2a d6be 7535 86bd b12d d1be
000001d0: b1cf d2be 73be afbe 6bd8 02bf 3946 8dbe
000001e0: 8d44 91be b6ef 26be 5e24 a2be f81d a6bb
000001f0: 474e 30bd 8c69 2d3d 4f5b 6c3e f2f1 85bf
00000200: 2772 5bbf b90e 133e fd4e c23e 2760 d13e
00000210: 6dfe 063f 7703 40be ffb9 f93d 9c17 af3c
00000220: b89e 5d3e d81c 503e 01b3 c03e d214 243d
00000230: 0213 553e f387 b73e 1a85 e2bd 1fbf eb3d
00000240: 20b3 913e a795 3f3f 274c 853f 2b4c 1bbd
00000250: 2d19 8e3d 92e0 393e ed1c 45bf c542 6abf
00000260: 9ce8 48bd 6347 54be 3429 563c 56f6 cbbe
00000270: d1ae 203e fb60 983e 0304 d63e 7899 c9bb
00000280: 4d65 56bc 8ba2 293f 1bb2 26be 475c 6d3e
00000290: e522 6d3d a736 a23e 23be f23e 233c 603e
000002a0: d027 c23e 2073 513e 30fa 2b3d 37a0 c53d
000002b0: 00ce 89be 43ce 37be 01e3 bdbc b27e b8be
000002c0: 2b8f af3b 4dd1 39be db17 c1bd 46d8 60bd
000002d0: a669 38be 2e59 db3e 8d9d 023f afd1 90bd
000002e0: bce1 fc3d 3041 783e de68 863d b5a1 57bd
000002f0: b9a6 a5be 8795 ad3d c20c 61be c006 9fbe
00000300: 2bd7 8bbe 61e1 9ebe 28b8 7fbe 0f90 38be
00000310: 291b 2fbe b7f2 953c 974d 0abe 3273 053f
00000320: 1db4 4b3f 6928 e53e aae1 053f e742 933f
00000330: 8ed3 123e 13a7 f13d 36f3 e3bd bbdf 72be
00000340: 6cd3 d13d 3915 3e3e 6f82 4f3e 0fc4 053f
00000350: f5e1 a03e f33e c2bd e172 1abd 3958 953c
00000360: 13bc dcbe 7008 2a3f ca10 a63f cd73 b8be
00000370: 8fa5 c93e f091 4c3f aebf 643d 5172 45be
00000380: 89b7 493e ad69 3f3d c5f8 943e d0f6 64bd
00000390: f86b a93d dfce e83e 2bfe e13e a6c9 4a3e
000003a0: 4897 583e 2bcf 123e 1790 1e3e aba4 5a3d
000003b0: 31f9 c03d b1d9 2cbe 4953 e0bd ba58 33be
000003c0: 2b03 d1bd b69b 87be beaf 433c 1c21 513e
000003d0: 377c 8c3f cd1d 7c3f 2a20 163e 2e6d 7e3f
000003e0: c8f0 313e 6c10 eebd 94f8 a4be 996e 79bd
000003f0: 2c34 8dbd c05d bd3d 3f8f 21bd 5ba7 a43e
0.022856643 -0.15049273 -0.2625928 -0.3427357 -0.70943415 -0.4671937 -0.26746088 -0.4107728
-0.3531123 0.004177041 -0.2613585 -0.030657189 -0.08815397 0.29138112 0.49425486 0.29416174
0.11931094 0.21603277 -0.51893955 -0.99621135 -0.3206503 1.0074185 0.91945016 1.6422802
-0.7822407 -1.3833941 -0.6127562 0.079458356 -0.30461723 -0.3175203 -0.00077754556 0.23549843
-0.41393942 -0.0030311786 1.1440679 0.38909593 -0.12508029 0.09508047 -0.07319386 0.037466735
0.097802244 0.12251564 0.25073668 0.32597888 0.183842 -0.11520124 -0.24383898 -0.31063664
0.21629941 0.01335398 -0.17268862 -0.1113587 -0.15040354 -0.046770994 -0.08114008 -0.056904152
-0.312402 -0.2582176 0.5110206 0.39029863 0.40527195 -0.08013937 -0.10144469 -0.0804387
0.076401055 -0.20974441 -0.43236098 -0.46453208 -0.1586612 -0.42869997 -0.31669354 -0.097525574
-0.43502894 -0.45729953 -0.15568095 -0.17049426 -0.577481 -0.17914048 -0.2612444 0.05185754
0.24609378 0.260138 -0.21473907 -0.69368213 -0.16011305 -1.2676595 -1.5508822 0.8521894
0.014050438 -0.6654164 -0.010437888 0.038767148 0.014025894 0.06731492 0.0882331 0.03206066
0.10368405 0.10658537 0.08186567 0.004419038 0.122278474 0.048266202 0.16344033 0.32850018
0.29224902 0.10083458 0.6795831 0.20970066 -0.429443 -0.043625396 0.0417271 -0.20282717
-0.19965841 -0.41828996 -0.06553165 -0.40855172 -0.4117408 -0.3432499 -0.5111148 -0.27592638
-0.28372613 -0.1630238 -0.3166837 -0.0050694905 -0.0430434 0.042336985 0.23081706 -1.0464461
-0.8572106 0.14361085 0.37950888 0.4089367 0.5273197 -0.18751322 0.12193679 0.021373563
0.21642578 0.20323503 0.3763657 0.04005892 0.20808032 0.3584591 -0.11060543 0.11511063
0.28456974 0.74837726 1.0413865 -0.037914436 0.06938396 0.18152073 -0.7699726 -0.9150813
-0.04904996 -0.20730357 0.013071347 -0.39836377 0.15691687 0.2976149 0.41799936 -0.006152328
-0.013085675 0.66263646 -0.1627888 0.23179732 0.057894606 0.3168232 0.47410688 0.2189794
0.37921 0.20454073 0.041986644 0.09649699 -0.26914978 -0.17949776 -0.023179533 -0.3603416
0.005357643 -0.18146248 -0.09428378 -0.054893754 -0.18009052 0.42841476 0.51021653 -0.07071244
0.12347743 0.24243617 0.065629706 -0.05264445 -0.32353762 0.08475786 -0.21977523 -0.31059837
-0.27312598 -0.31031325 -0.24972594 -0.18023704 -0.17100205 0.018304212 -0.1350616 0.521289
0.79571706 0.44757393 0.5229746 1.1504792 0.14338514 0.11799445 -0.11130373 -0.23718159
0.10245404 0.18562783 0.202646 0.52252287 0.31422392 -0.09484663 -0.037707213 0.018230544
-0.4311224 0.66419125 1.2973874 -0.3602585 0.39384124 0.7991018 0.055846862 -0.1928189
0.1969892 0.04673164 0.29096046 -0.05589944 0.082725465 0.4547033 0.44139227 0.19803485
0.21151459 0.14336841 0.15484653 0.053379696 0.094225295 -0.16879918 -0.109533854 -0.17514315
-0.10205682 -0.26485986 0.011943756 0.20422786 1.0975407 0.9848297 0.14660707 0.99385345
0.17377007 -0.11624226 -0.322209 -0.06089649 -0.068947166 0.09246397 -0.03944325 0.32158932

onnx::Conv_294 f4 [48]
00000000: 2603 0940 a232 4dbf 1ac3 c4bd 60d8 84be
00000010: 24a8 413e 928a 303f 46bb f0be 7d2a b03f
00000020: 866c a73f 26e0 5d40 57ad 9ebe f854 a2bf
00000030: 897a c03f c7c4 583f 08b4 903c 1d3f 9bbf
00000040: 643c 4e3f 1705 adbe 10c1 133d 1c9d 903f
00000050: f609 dfbe 7510 ed3f 5454 ddbf 1558 6dbf
00000060: f8f9 47be f0db 3ebf 32cb cc3e 0862 f6bd
00000070: 5a60 f5be 2686 f83f 408d 163d 393a 0e40
00000080: e75c 7fbf 220d c4bf b59f d6be 7b70 5cbf
00000090: 806d 7e3d ec21 293e 505c b7bf eaff 9840
000000a0: 5e9e a13e 40d1 01be fc05 713f c0df 7e3c
000000b0: e03b b2bc 56ce 98bf 271f 063e ec16 f83e
2.1408172 -0.80155385 -0.09607525 -0.2594633 0.18911797 0.6896144 -0.47017878 1.3762966
1.3079994 3.466806 -0.30991623 -1.268218 1.5037395 0.8467526 0.01766397 -1.2128636
0.805609 -0.33792946 0.03607279 1.1297946 -0.43562287 1.8520647 -1.729136 -0.9271253
-0.1952895 -0.7455435 0.39998776 -0.12030417 -0.47925073 1.9415939 0.0367558 2.2223036
-0.9975113 -1.5316508 -0.41918722 -0.8610913 0.062116146 0.16516846 -1.4325047 4.7812395
0.31566137 -0.12677479 0.94149756 0.015556276 -0.021757066 -1.1937969 0.13097821 0.48454988

onnx::Conv_296 f4 [8, 48, 1, 1]
00000000: f6bc 23be 334a 84bd 6bc5 7e3d d6f2 0fbd
00000010: d081 f53d 2198 d8bd f17e 423c be42 a63c
00000020: 8c64 dfbd 11d9 32be 048d ae3d 90d0 6bbd
00000030: 8d04 af3d 096a 27bd 346f 88bd 8466 e5bd
00000040: ad73 93bc 1054 333e 21b2 ab3d 9036 be3c
00000050: cd5d 8d3c b1bf 5fbe 3597 18bd e26c 08be
00000060: 00db 233e f491 1b3e 23ff a73d ad95 393d
00000070: 6437 ecbc ac2e a5bd 555a e73c f00e 2a3d
00000080: 2328 cbbc de2a a1bd c7ef 673d 1141 e93c
00000090: dd45 373e 7c0e 733c 4a03 16bc fb29 6bbe
000000a0: 258a acbd 8eb4 06bd 2909 d339 baa8 d83d
000000b0: 1c85 4d3d 9ab6 40bd 4e5d 6ebd cec1 3dbd
000000c0: 3ca9 f4bd d882 243d 6294 3f3e 5769 0dbe
000000d0: a409 b83d 4b93 b03c 08b1 943d ce26 49bc
000000e0: 2c53 05be f185 a83d 525b bf3b 97f9 8e3d
000000f0: 1e6f 0c3e 6a8b 8a3d fe05 dbbd f5d4 213d
00000100: bf9a c43e dc30 bc3d cb3b 2dbe 44fd 9cbc
00000110: e2b0 fdbd 75bd c5bc 8374 2c3e 2dab c63d
00000120: e8ce cdbc 1a36 bc3d 5480 eeba 4222 f5bd
00000130: e49e 273d 0739 033e 92d5 b83d 414f 9b3a
00000140: 6a25 fdbc 7a40 9c3d 26e5 b33a 1fc2 d3bd
00000150: b1a8 6ebd 31e8 ebbc bdf7 8f3b 616c e9ba
00000160: 6c18 64bc 1f1b 90bc 65f6 2b3d 6c6b 023e
00000170: df95 a1bc ca95 fb3c ac1f 12bd eeda a83d
00000180: 0d28 003e 6395 873d e9cd d0bd 10d4 9d3c
00000190: 7611 e9bc 0b23 943d 31c3 ea3d 43dc bebd
000001a0: 9b98 923d 7834 af3d 1a23 39bd db42 6d3d
000001b0: 3fe0 fbbc 34a5 cc3c 3013 3b3d 8be5 df3d
000001c0: 41ee 8a3c 9bba 4ebd d4c0 83bd 7884 f43c
000001d0: 9c62 213d c9f9 883d 7aba f93d 3ebe 803d
000001e0: c5dd b3bd ff4a 35bd 2419 ebbc d0ed 1d3c
000001f0: 6d21 a4bc bd23 053e 8500 4fbd 2b66 8dbc
00000200: 684b 633d f926 333d 9bfc c1bd be24 9bbd
00000210: 29cc cfbd 2a96 33bc 99ed 213e 16a7 a93d
00000220: c58d 893c 9ab5 273e 4e0f a63d 6397 e0bd
00000230: 99d9 45bb a915 c03d dab3 253d cd84 91bc
00000240: c993 36be 0a65 abbc 2bf7 da3d 7b0c 143e
00000250: 4f40 c9bd 9bd7 44be b675 e03d 3e32 33be
00000260: b718 0cbe 53d4 96be f94a 8fbd 9d92 e6bd
00000270: 37dc 2ebe 0669 07bd a097 17bd b923 18be
00000280: 88a8 54be 9890 8a3d 1bed 6abc 2c6e 1ebe
00000290: 7a7e a23e c8b9 3bbe 3ee5 41bc 921e 1ebe
000002a0: fcee 0d3f cc55 0e3e 2651 c13d 15c0 363e
000002b0: 8ac0 8b3a adf4 92bd 5707 4bbd 33ed a4bd
000002c0: c221 f43d 3785 07bd a32b f13d f972 693c
000002d0: b324 4b3e 4354 6bbe 6b50 553d 7c36 76be
000002e0: 566b b6bb a269 a8bd 0b1c eabc 2e4c 1bbd
000002f0: b517 3d3e a4a1 ef3d 41e1 0a3e da7d 08bb
00000300: 6ffb e7bd 879b 14be a9a8 183d fbad 34be
00000310: baff 123e 00dc 87bd a5f3 133e 34c4 8fbc
00000320: 38a3 d9bd 02a2 b7bd fb1b 933d 39e9 a1bd
00000330: 9a12 e13d 46dc 35bd beef b3bd 949b 86bd
00000340: 19b9 4e3e 5077 2d3e 3896 a63d 5c55 0c3d
00000350: 2431 843d 6ba7 91be ef76 15b9 4b5c e5bd
00000360: 8499 d83d a123 6f3e a44e 3e3d 6eb8 ee3d
00000370: f954 34bd cb5d cbbd c44e 423b eb8f ea3d
00000380: 425c 85bd 6730 fcbd 3647 9cbd d501 e63c
00000390: d52d dc3d 3f2c 253e 94a0 0e3c 783f 3bbe
000003a0: 03da 59bd 2b77 c8bd 8efa 07be d87f cc3d
000003b0: b3be bbbc a729 7abd 0f4f c83c 7146 d3bc
000003c0: 3d6b a8bd 299a 0cbe 8d37 4d3c 8e4f 09be
000003d0: eaf3 643e 55e0 823b 55dd f0bd beaa e03d
000003e0: aa47 d0bd dca3 51bd 10d2 0b3c 89d0 80bd
000003f0: 93b0 623e 5bb1 8ebd 360a ba3c 7c44 7fbd
-0.15990052 -0.06459465 0.06219999 -0.035143696 0.119876504 -0.10575891 0.0118710855 0.020295497
-0.1090785 -0.17465617 0.0852299 -0.057571948 0.0854579 -0.040872607 -0.06661835 -0.11201194
-0.017999494 0.17512536 0.08383585 0.023219377 0.017256642 -0.21850468 -0.037253577 -0.13322785
0.1600151 0.15192395 0.0820296 0.045308758 -0.028835006 -0.080655426 0.028241316 0.04151815
-0.024799412 -0.078695044 0.056625154 0.028473409 0.17897744 0.014834996 -0.009156058 -0.22965233
-0.084247865 -0.032887034 0.0004025188 0.10579057 0.05017577 -0.047049142 -0.05819445 -0.046327405
-0.119463414 0.040163845 0.18708947 -0.13809715 0.08986214 0.02155461 0.072603285 -0.012277318
-0.13020009 0.08228672 0.0058397437 0.06981199 0.13714263 0.06764872 -0.10694502 0.039509732
0.38399312 0.09189007 -0.1691734 -0.019163735 -0.12387253 -0.024138192 0.1684132 0.09700618
-0.025123075 0.091900066 -0.0018196204 -0.11969425 0.040923014 0.12814723 0.0902511 0.0011849181
-0.03090163 0.076294854 0.0013724908 -0.1033976 -0.058266345 -0.02879724 0.0043935464 -0.0017808789
-0.013921838 -0.017591057 0.041983027 0.1273629 -0.019724784 0.030711073 -0.035674736 0.082448825
0.12515278 0.0662029 -0.10195524 0.019266158 -0.028450709 0.072332464 0.11463011 -0.09319355
0.071580134 0.085549295 -0.04519949 0.057925086 -0.030746577 0.024981119 0.045672596 0.10932454
0.016959311 -0.05047093 -0.064332634 0.029848322 0.03940068 0.06688268 0.12193771 0.06286286
-0.087825336 -0.044260975 -0.028698511 0.009639218 -0.02003547 0.13001914 -0.050537605 -0.017260632
0.055491835 0.04373834 -0.09472009 -0.075753674 -0.10146362 -0.010961095 0.15813293 0.08283822
0.016791234 0.16377869 0.08108388 -0.10966375 -0.0030189513 0.09379131 0.040454723 -0.01776352
-0.17829813 -0.020922203 0.10691675 0.14457886 -0.09826719 -0.19222872 0.109599516 -0.17499635
-0.13681303 -0.29458866 -0.06996722 -0.11258433 -0.17076193 -0.033059143 -0.037009835 -0.14857377
-0.20767415 0.0676586 -0.014338757 -0.15471715 0.3173712 -0.18332589 -0.011834441 -0.15441349
0.55442786 0.13899916 0.09439306 0.17846711 0.001066224 -0.071755745 -0.049567547 -0.08053055
0.11920501 -0.033086028 0.11775901 0.014248603 0.19838218 -0.22981362 0.052078646 -0.24044222
-0.0055669947 -0.08223273 -0.028577825 -0.037914447 0.18466075 0.117007524 0.1356249 -0.0020826967
-0.11327254 -0.14512454 0.03727022 -0.17644493 0.14355364 -0.066337585 0.14448412 -0.017549612
-0.10626835 -0.089664474 0.07183071 -0.07905812 0.10989876 -0.044399522 -0.087859616 -0.06572643
0.20187797 0.16940045 0.08134121 0.034261093 0.06454685 -0.28448042 -0.00014254054 -0.11199244
0.10576156 0.23353435 0.046461716 0.11656271 -0.04402635 -0.09929999 0.0029648999 0.114532314
-0.065117374 -0.123139195 -0.0763077 0.028077045 0.10750929 0.1613016 0.008705277 -0.1828593
-0.053186428 -0.097883545 -0.13279173 0.09985322 -0.02291808 -0.06107488 0.02445176 -0.025790425
-0.08223579 -0.13730682 0.012525451 -0.13409254 0.22358671 0.0039940276 -0.11760966 0.109700665
-0.10169919 -0.05118166 0.0085339695 -0.06289775 0.2213767 -0.069674216 0.022709947 -0.06232117

onnx::Conv_297 f4 [8]
00000000: a0c0 aebd 9fce d0be 5d8a 5bbe 9312 453e
00000010: 7595 a9be deed cb3e 192d 183f c02f 7fbe
-0.08532834 -0.4078264 -0.214395 0.19245367 -0.3312184 0.39829916 0.59443814 -0.24920559

onnx::Conv_299 f4 [48, 8, 1, 1]
00000000: 4354 4c3c ad75 563d 0271 78bd 6845 8d3c
00000010: 1320 de3d fae2 9fbb 3f63 a8bc 0e5b c43c
00000020: f85a 023d 988a 71bd fbb3 9fbb 2f27 efbc
00000030: 9b50 f43c 6fa9 903c a7a0 20be abeb 1a3c
00000040: cecf 27be a5e9 ca3c e1a1 2b3e 0647 b53d
00000050: d711 65be c028 64bc 5341 ed3d fc22 3abe
00000060: c6b9 f6bb ee0c 893c 5fec f2bb 5055 803b
00000070: f5c9 323c deaa aebb 262b dc3c 7dd0 c3bc
00000080: 226f a4be 98a9 e93e b8f8 a4ba 05aa 373f
00000090: 6e75 e03e 4ebd 213e d71a 613f 0215 a4be
000000a0: fd89 533b 56c0 853d 30e8 803e 700a 9d3c
000000b0: d3e9 333d 2508 f4be 948d 40bb a3eb a83d
000000c0: a6a2 90bd ae4a 0abd b5d4 913d 38dd 71bb
000000d0: 8fac 4abe 762b 63be 512a 1fbe b690 583d
000000e0: d00a 313d 5e24 cb3b ac00 223a 4b5d 4dbe
000000f0: 9c0d 1ebe 37a4 47be 0111 963d 444e 72be
00000100: 5e8d 473d ee51 ee3d 25a4 5b3e 49e6 7c3e
00000110: 1d7e babc d538 12bf e0fb db3e 4157 e2bd
00000120: cd8f 01bd b199 ca3d b300 ca3d 1a60 b9bd
00000130: 26c4 92bd 33c2 9dbc 56ae 5fbb cf21 45bd
00000140: bd7e 063e 7f55 41be b3fe 7bbe d92c 833f
00000150: 2bea 2dbe afee 34be dd81 9a3e c637 10be
00000160: 0fa8 22bc 57c6 f3b9 f8f6 b7bb 2158 ff3c
00000170: 8408 f6bc 5ae5 33bd d2d7 9f3b 579f cabc
00000180: ccd7 d63d cfb1 debc 30b1 6a3e c108 a83e
00000190: 776b bc3d c0f3 17bf 849f ad3e a1e4 72be
000001a0: 6600 6fbd d740 093d 3b1f 63be 2a57 eebd
000001b0: 598d 1e3e 5213 a83e 0c44 a4be df7c 82bc
000001c0: 67f0 a9be 5132 633e 5ba6 893c ff0c 78bc
000001d0: 274d 14bd ed99 dbbd 0e08 8f3e 1202 54be
000001e0: 86d4 f3bd 82ac 33bf 7d1a 903e 096b 8bbe
000001f0: 222a 59be 1a4a 9abe bea9 9cbe 16fc 8fbe
00000200: 5a8f 13be caed 033d 7f7d f83e c8a5 2abe
00000210: 9d7e 33be 2764 45be 98ba 2dbd 521a e2ba
00000220: 2ca9 5dbe 5df1 df3e 5263 003f dc0f 58be
00000230: e88b 003f aea2 26be 76fa 143e 7a68 bdbd
00000240: 2cc3 b73e 4c84 773e 1559 fcbe 6c3f 353f
00000250: 4bf1 593d 0557 d7bc bb61 3c3d d218 8e3d
00000260: 1dc3 383e e1be 0bbf 794f e8be 353b cb3e
00000270: ba50 77bc 739f 0ebc fd61 11bd 9dc4 f7bd
00000280: 9ffd 0d3f 0c35 9cbe 6e19 6ebe 3abe 533e
00000290: f955 cc3d 84b0 82be cbd2 d2bd c1c7 26bc
000002a0: cdc4 a63e b854 be3b 9edc e43d ef56 183f
000002b0: 0d7f c93e 6f55 2cbe cd36 a63e 52ee 4dbe
000002c0: c9cc 10be 7b63 023e e008 093d 7f3a a6be
000002d0: 8a53 9ebc cfc7 573e b91b f3bd c660 893d
000002e0: 9ba9 6dbc e68f 903c 312c 983c a935 f63a
000002f0: d40d ef39 aee0 81bc a402 923c 5fe6 38bb
00000300: 1329 2fbe b70e 94be 921e 6ebd e9c3 9cbe
00000310: 319c a2be e229 38be 438f afbe 219f 683c
00000320: b5aa e33d ec35 1e3c 945e 61bd 8f50 c03d
00000330: 0ac4 b93d d123 733c 34da 2b3d e819 81bc
00000340: 3e46 b2be 4f15 abbd 6213 b23e e20b 1abe
00000350: 3d28 b3be 071a a93b 6c7f f9bd 794b 40be
00000360: 407e 81bc 2e7d 85be 00da 10bd 5735 e53d
00000370: d5a8 acbd ed35 a1bc ba34 e6bd 869a 4dbd
00000380: 666d ddbd 3c03 49be 8746 293e 9d59 d3bd
00000390: d00e babe 0ef1 30bc 93c0 7d3d 2994 c73d
000003a0: 12e6 d93e a3ad 393e fdf6 82be c420 b8bc
000003b0: 0e1f 3f3e 79a4 8e3e 3747 013e e108 8c3e
000003c0: 1919 5abd ef23 3d3e a9f6 893e 76e9 f0bd
000003d0: 8eb3 51bb c96f f9bd 9cc7 993e 5fdc 86be
000003e0: 03d9 4f3a 4a7d 4ab9 9dd3 5b3a 3fd4 0c3a
000003f0: eeca a1ba 57dd f2b9 d7cf 4638 796f 0eba
0.012471261 0.052358318 -0.060654648 0.01724501 0.108459614 -0.0048793526 -0.020555137 0.0239692
0.031825036 -0.058970064 -0.0048737503 -0.029193489 0.029823592 0.017658917 -0.15686284 0.009455602
-0.16387865 0.024769614 0.1676097 0.08851437 -0.22370087 -0.013925731 0.11584725 -0.18177408
-0.00752947 0.016729798 -0.0074134315 0.00391642 0.010912408 -0.0053304275 0.026876044 -0.023903126
-0.32116038 0.45637202 -0.0012586331 0.71743804 0.43839592 0.1579487 0.8793158 -0.32047278
0.0032278292 0.06530826 0.25177145 0.019170016 0.043924164 -0.47662464 -0.0029381262 0.08248069
-0.07062273 -0.033762626 0.07120649 -0.0036905538 -0.19792388 -0.22184548 -0.15543486 0.052872382
0.043223202 0.0061994037 0.00061799097 -0.2005512 -0.15434879 -0.19496237 0.07327462 -0.23662668
0.048718803 0.116367206 0.21449335 0.24697222 -0.022765214 -0.5711797 0.42965603 -0.110517986
-0.03163128 0.098925956 0.098634146 -0.09051533 -0.071663186 -0.01925764 -0.0034131012 -0.048127946
0.13134284 -0.1888027 -0.24608879 1.0248061 -0.16983859 -0.17669176 0.30177203 -0.14083776
-0.009927764 -0.00046496346 -0.0056141578 0.031169953 -0.030033357 -0.0439199 0.0048780227 -0.024734182
0.10490379 -0.027184395 0.22919154 0.3281918 0.09200185 -0.5935631 0.33910763 -0.23720028
-0.05834999 0.0335091 -0.22179882 -0.11637719 0.15483607 0.3282724 -0.32083166 -0.015928684
-0.33191225 0.22187163 0.016802957 -0.015139817 -0.03620639 -0.107227184 0.27935833 -0.20703915
-0.1190577 -0.701851 0.2814521 -0.272301 -0.21207479 -0.3013466 -0.30598253 -0.28122014
-0.14410153 0.032209195 0.48533246 -0.16664803 -0.17528768 -0.19276486 -0.042414278 -0.0017250276
-0.21646565 0.43738833 0.5015155 -0.210998 0.5021348 -0.16272995 0.14548668 -0.09248443
0.35891092 0.24171561 -0.49286714 0.707999 0.05320863 -0.026286611 0.04599164 0.06938328
0.1804318 -0.54588133 -0.45373133 0.3969361 -0.01509493 -0.008705008 -0.03549384 -0.12098048
0.5546512 -0.30509222 -0.23251888 0.20678034 0.099773355 -0.25525296 -0.10294112 -0.010179461
0.32572022 0.005808439 0.11174892 0.5950765 0.39354745 -0.16829465 0.32463685 -0.20110443
-0.1414062 0.12733261 0.03345573 -0.32466504 -0.019326944 0.21072315 -0.11870522 0.06707911
-0.014505769 0.017646741 0.01857576 0.0018784303 0.00045595935 -0.015854206 0.017823525 -0.0028213484
-0.17105512 -0.28917477 -0.058134623 -0.30618218 -0.3175979 -0.17984727 -0.34288988 0.014198096
0.11116544 0.009656411 -0.055021837 0.09390365 0.090705946 0.014840082 0.04195614 -0.015759423
-0.34819216 -0.08353674 0.34780413 -0.15043595 -0.34991637 0.0051605734 -0.12182507 -0.1877879
-0.015807271 -0.26072067 -0.03536415 0.111918144 -0.0843064 -0.019679034 -0.112405255 -0.050196193
-0.10811882 -0.1963014 0.1653081 -0.10319827 -0.36339426 -0.010799659 0.06195123 0.09745056
0.42558342 0.18132643 -0.25579062 -0.022476561 0.1866419 0.27859858 0.12624823 0.27350524
-0.05324659 0.18470739 0.26946 -0.11763279 -0.0031997892 -0.121795245 0.30035102 -0.26340005
0.00079287606 -0.00019310895 0.000838572 0.00053722033 -0.0012343803 -0.00046322748 4.7400445e-05 -0.0005433481

onnx::Conv_300 f4 [48]
00000000: 80a2 6c3f 9a22 7b3f b97d 9cbe 4dc2 45bf
00000010: 50ab 8ebb e32a 42bf b0b0 e5be 7b8d 13be
00000020: 42a3 8d3e 0b3c 2f3f d35a 643d 6c69 4ebf
00000030: 5cb6 553e 45a9 193f 0a17 523e 2499 c1bc
00000040: ef00 003f 3b88 a0be 5a2a ae3d fab9 dd3e
00000050: ec0b 46bd d78f b43e fb0a 183f 139b 50bf
00000060: 8339 033f 4af3 833f 65f7 203d 0b28 603f
00000070: f090 a93e 957f 9b3e 1e31 473d da65 56bf
00000080: 669d 28bf e540 9f3f f555 acbe 5e68 e43e
00000090: 96f5 86bd a5b3 a33e c868 133f c9ce 16bf
000000a0: b34c adbe 9f0e 483f 035d 543f a5b0 063f
000000b0: 2e5d 51be a76b a43d 631c a43d df3f 3c3e
0.92435455 0.9809967 -0.3056467 -0.77249604 -0.004353918 -0.7584669 -0.44861364 -0.1440944
0.27663618 0.68450993 0.05575068 -0.8062961 0.20870346 0.6002391 0.20516601 -0.023632593
0.50001425 -0.31353936 0.08504172 0.4330595 -0.048351213 0.3526599 0.59391755 -0.81486624
0.5125963 1.0308621 0.039298434 0.875611 0.3311839 0.30370775 0.048630826 -0.83749163
-0.6586517 1.2441679 -0.3365933 0.44610876 -0.065898106 0.31972995 0.5758176 -0.5890928
-0.3384758 0.7814731 0.82954425 0.5261329 -0.20445701 0.080283456 0.08013227 0.1838374
