model_checkpoints/experiments/overall/onnx/fastscnn_512a0.25t2r3pp0_noinit.onnx (onnx, 131051 bytes, 81 tensors)

feature_fusion.conv_high_res.weight f4 [32, 16, 1, 1]
0	0xbeaf69dc	-0.34260452
1	0xbeef3acb	-0.46724543
2	0x3f095e48	0.53659487
3	0x3d8c8ce3	0.068628095
4	0xbf20b92c	-0.6278255
5	0xbf5bacee	-0.85810745
6	0xbe76091e	-0.24026915
7	0xbf13fd11	-0.57808024
8	0xbf7e6c4e	-0.9938401
9	0xbf72dd0d	-0.94868547
10	0xbd983c5c	-0.07433388
11	0x3eda9ceb	0.42697844
12	0xbf2bcdb1	-0.67110735
13	0xbf36107f	-0.7111892
14	0xbec05c5d	-0.37570468
15	0xbec1338b	-0.37734637
16	0xbe9da1ba	-0.3078745
17	0xbf1c60f7	-0.61085457
18	0x3f2a1f1d	0.66453725
19	0xbe9a3622	-0.30119425
20	0x3e68c475	0.22731192
21	0xbf2d5265	-0.6770385
22	0x3ed5bbda	0.41744882
23	0x3f0bfb7e	0.5468062
24	0xbf990e90	-1.1957569
25	0xbf70ed93	-0.9411251
26	0xbee9adb9	-0.45640352
27	0xbe549775	-0.20760901
28	0x3f97e568	1.1866884
29	0x3f0784c1	0.5293694
30	0xbff64ed2	-1.9242804
31	0x3eb1b804	0.34710705
32	0x3f64cf8e	0.89379203
33	0x3e4ea8f4	0.20181638
34	0xbb94c2dc	-0.0045398306
35	0x3b99caa4	0.004693346
36	0xbf093087	-0.5358967
37	0xbf8f059f	-1.117359
38	0xbe8c3913	-0.27387294
39	0xbf5e15c4	-0.8675196
40	0xbe8e9a9e	-0.2785234
41	0xbeafddf9	-0.3434904
42	0x3f6d5728	0.92711115
43	0x3f93f62c	1.1559501
44	0xbe8bcf06	-0.27306384
45	0xbdb405fc	-0.08790204
46	0xbd5361d4	-0.051606968
47	0xbf97c104	-1.1855779
48	0x3ed33b98	0.41256404
49	0xbc8a5b2e	-0.016889181
50	0x3f6e36fd	0.93052655
51	0x3f8e0fd3	1.1098579
52	0x3f1be2e2	0.6089307
53	0x3e2fce59	0.17168559
54	0x3e2b36a8	0.16720068
55	0x3f23e5b7	0.6402239
56	0xbd96f384	-0.07370666
57	0xbdb05a2d	-0.0861095
58	0x3e7fc5e4	0.24977833
59	0xbf520e58	-0.82053137
60	0x3f1ae8b0	0.605113
61	0x3f289108	0.658463
62	0xbf182329	-0.5942865
63	0x3d4f5ee1	0.050627593
64	0x3e279e0f	0.16368888
65	0xbf1ee9aa	-0.62075293
66	0x3f00f248	0.5036969
67	0xbd92752d	-0.07151256
68	0xbf133f74	-0.57518697
69	0xbf6010a3	-0.87525386
70	0x3f23e13a	0.64015543
71	0xbf3ed12e	-0.7453793
72	0xbf23b514	-0.6394818
73	0x3e8038a0	0.250432
74	0x3fb374ee	1.4020059
75	0xbdff9a56	-0.12480609
76	0xbf834370	-1.0254955
77	0xbe755f35	-0.239621
78	0x3f1e9cbe	0.6195792
79	0xbcfac0cc	-0.03060951
80	0xbede847e	-0.4346046
81	0x3fa23d2b	1.2674917
82	0x3eae43f7	0.34036228
83	0xbb083344	-0.002078251
84	0x3ebfd703	0.37468728
85	0xbd23d5ce	-0.039998822
86	0xbe789e7b	-0.24279206
87	0x3e924900	0.2857132
88	0x3e65c81c	0.22439617
89	0xbf095613	-0.53646964
90	0xc0899710	-4.2996902
91	0x3eb79c60	0.35861492
92	0xbebd8848	-0.37018037
93	0xbf04591e	-0.5169848
94	0xbeb65d1d	-0.35617915
95	0x3e2713b4	0.1631611
96	0xbee93b72	-0.45553166
97	0xbf44b3e9	-0.7683702
98	0x3fbf6378	1.495223
99	0x394a5f84	0.00019299804
100	0x3dba7aaa	0.091054276
101	0xbe9a591b	-0.30146107
102	0x3f0c1b8e	0.54729545
103	0x3e837e1f	0.2568216
104	0xbf2d0977	-0.6759257
105	0xbc636af3	-0.013880479
106	0x3ec040f0	0.37549543
107	0xbe22d13f	-0.15900134
108	0x3e2c8c80	0.16850471
109	0xbee70244	-0.45118916
110	0xbfc8365c	-1.5641589
111	0x3e55882a	0.20852724
112	0xbe876fd8	-0.26452518
113	0xbf89bdb6	-1.076102
114	0xbeae9fc4	-0.34106266
115	0xbed5ef0f	-0.4178395
116	0xbea9e38a	-0.3318141
117	0x3e6fa87c	0.23404115
118	0xbe5eb3a5	-0.21748216
119	0xbf242aa5	-0.6412757
120	0xbd5edeae	-0.054411583
121	0xbed28e80	-0.41124344
122	0xbeb3b818	-0.3510139
123	0x3f290208	0.66018724
124	0xbf1a6a34	-0.60318303
125	0xbf353b52	-0.7079364
126	0x3ef03712	0.46917015
127	0x3ece3ec7	0.4028227
128	0x3d18383f	0.037163015
129	0xbf60b919	-0.87782437
130	0x3f30cbd0	0.69060993
131	0xbe52f8fe	-0.20602795
132	0xbf034040	-0.5126991
133	0xbf441d8a	-0.76607573
134	0x3e3e1370	0.18562102
135	0x3e9228a3	0.28546628
136	0xbf752969	-0.9576631
137	0xbf205812	-0.62634385
138	0x3ed331b6	0.41248864
139	0x3f59d104	0.8508456
140	0x3d57fe65	0.052732844
141	0xbf98831d	-1.1915013
142	0xbe849305	-0.25893417
143	0x3f397ceb	0.72456235
144	0xbd98c89c	-0.07460138
145	0x3f1e36cf	0.6180238
146	0xbf70145f	-0.93781084
147	0xbc8341b2	-0.016022537
148	0x3f2b4c39	0.6691318
149	0xbe9e5af2	-0.3092876
150	0xbfa0a035	-1.2548891
151	0x3e69b34d	0.22822304
152	0x3eb646b9	0.35600832
153	0xbd95ebeb	-0.073203884
154	0xc012de55	-2.29482
155	0x3eb8e232	0.36110073
156	0x3e62ed36	0.22160801
157	0xbe264b35	-0.16239627
158	0xbed406ed	-0.41411534
159	0x3db7d9ff	0.08977126
160	0xbfc942a8	-1.5723467
161	0x3e804835	0.2505509
162	0xbe45c04a	-0.19311634
163	0x3eaf1875	0.34198347
164	0x3ecb330c	0.39687383
165	0x3ef79d79	0.4836233
166	0xbf7c7206	-0.98611486
167	0x3ee2581c	0.44207847
168	0x3f099757	0.5374655
169	0xbdd2cc23	-0.10292842
170	0xbf5c7609	-0.8611761
171	0xbf061b5f	-0.52385515
172	0x3e497e2b	0.19677036
173	0xbd7ead04	-0.06217672
174	0xbf0a98d0	-0.54139423
175	0x3ee1027f	0.43947217
176	0xbf842846	-1.032479
177	0xbf069bff	-0.5258178
178	0x3dfe732a	0.124243096
179	0x3d5a7ca5	0.053341527
180	0x3eddfc9a	0.43356782
181	0x3e9280dd	0.2861394
182	0xbfa3cce7	-1.2796906
183	0x3ef02ff5	0.46911588
184	0xbf8d4774	-1.1037431
185	0x3e4be5f5	0.1991194
186	0x3f428389	0.75981957
187	0xbefaf4b9	-0.49014834
188	0xbed1858b	-0.40922198
189	0xbe41cf70	-0.18926787
190	0xbfa6ecbf	-1.3040999
191	0xbe1cce7a	-0.1531314
192	0xbee389f6	-0.44441193
193	0x3e8c4ba0	0.27401447
194	0xbdf608e3	-0.12013414
195	0x3f2dd8ca	0.6790892
196	0x3f312ebe	0.6921195
197	0x3ece7558	0.403239
198	0xbf380023	-0.7187521
199	0x3f120f7e	0.5705489
200	0xbd842204	-0.064518005
201	0xbde2ee5a	-0.11080618
202	0xbee5b10d	-0.44861642
203	0xbf337285	-0.7009662
204	0x3eedf275	0.46474043
205	0x3e52381f	0.20529221
206	0xbf166fd4	-0.58764386
207	0x3f116368	0.56792307
208	0x3dbf47de	0.093398795
209	0x3d805c6a	0.062676266
210	0x3e8cbd46	0.27488154
211	0x3ea14d12	0.31504112
212	0x3ef20b0d	0.47274056
213	0x3e2f5751	0.17123152
214	0xbe09adc9	-0.134452
215	0x3f128214	0.57229733
216	0x3ea78325	0.32717243
217	0x3f029ba0	0.51018715
218	0xbb90eb81	-0.0044226055
219	0xbe1497c6	-0.14511022
220	0x3ee58272	0.44826084
221	0xbe364c88	-0.17802632
222	0xbf680d59	-0.90645367
223	0x3b8d1fd7	0.004306774
224	0x3ed05690	0.40691042
225	0x3f1486fe	0.5801848
226	0x3eeb4e1d	0.45958033
227	0x3d8a5b9a	0.06755753
228	0x3f041cc6	0.51606405
229	0x3e98f47e	0.29874033
230	0xbf404866	-0.7511047
231	0x3ecf412e	0.40479416
232	0x3f15bf62	0.5849515
233	0x3df6db52	0.12053551
234	0xbeca976d	-0.39568654
235	0xbf86578f	-1.0495471
236	0x3ee890ac	0.45422876
237	0xbeb8edab	-0.36118826
238	0xbf103162	-0.5632535
239	0xbf065ebd	-0.5248831
240	0x3f008775	0.5020669
241	0x3ef48836	0.4776017
242	0xbe69ee95	-0.22844918
243	0x3e833677	0.2562749
244	0xbea8f516	-0.32999486
245	0xbec30823	-0.38092145
246	0xbf41ed0e	-0.7575234
247	0x3f20af22	0.6276723
248	0xbce8d191	-0.028420242
249	0x3f4ae04b	0.79248494
250	0x3ed46122	0.41480356
251	0xbf32e498	-0.69880056
252	0xbe74661b	-0.23867075
253	0x3f4e26a9	0.8052774
254	0x3e616d09	0.2201425
255	0xbfe53bb6	-1.7908847

feature_fusion.conv_high_res.bias f4 [32]
0	0x3f08ef16	0.53489816
1	0xbf8ed169	-1.1157657
2	0x3f2ff97f	0.68740076
3	0xbd444684	-0.04791881
4	0x3c623eb2	0.013808893
5	0xbf260ae4	-0.6486037
6	0x3f226f3f	0.63451
7	0x3e87d387	0.2652857
8	0x3f23d638	0.63998747
9	0xbe71194e	-0.23544809
10	0xbe509383	-0.20368771
11	0xbec584a6	-0.38577765
12	0xbda773d4	-0.08176389
13	0xbefc253e	-0.49247164
14	0x3f51fd73	0.8202736
15	0xbf9dda75	-1.2332293
16	0x3e383679	0.1798953
17	0xbc938faa	-0.01801284
18	0xbe25d60d	-0.16194935
19	0x3f029b5a	0.510183
20	0xbc865cfd	-0.016401762
21	0xbdef547e	-0.116860375
22	0xbe2c40c4	-0.16821581
23	0x3f9d44ac	1.2286582
24	0x3cae6c4c	0.021291874
25	0xbf102892	-0.56311905
26	0xbe712d4d	-0.23552437
27	0x3f09fb47	0.53899044
28	0xbf062426	-0.5239891
29	0x3d38d6db	0.045126777
30	0xbeabed7a	-0.33579618
31	0x3f2aca29	0.6671472

feature_fusion.conv_low_res.weight f4 [32, 32, 1, 1]
0	0xbebfb724	-0.37444413
1	0xbf7b4024	-0.98144746
2	0x3f35b8d6	0.7098516
3	0xbeb7241d	-0.3576974
4	0xbe93157c	-0.2872733
5	0xbdc8daed	-0.09807382
6	0x3b396bc9	0.0028293005
7	0xbe4ef2eb	-0.20209853
8	0x3f879d01	1.0594789
9	0x3e1d9d5a	0.15392056
10	0xbe4e2e08	-0.20134747
11	0x3f94b334	1.1617188
12	0xbece7996	-0.40327138
13	0x3eccea4a	0.40022498
14	0x3e4e7ed9	0.20165576
15	0xbf895bea	-1.0731175
16	0xbece9f84	-0.40356076
17	0xbf159138	-0.5842471
18	0xbd637bf6	-0.05553814
19	0x3f197177	0.5993876
20	0x3e2dafac	0.16961545
21	0xbe41be09	-0.18920149
22	0x3e7b3325	0.24531229
23	0x3f08ca22	0.5343343
24	0xbf825868	-1.018323
25	0x3f0fe907	0.56214947
26	0xbdaf5e21	-0.085628755
27	0xbe05b595	-0.1305755
28	0x3f7c4774	0.9854653
29	0x3effbdf4	0.4994961
30	0xbddffbbf	-0.10936689
31	0xbc4d0c76	-0.012515178
32	0xbf473df4	-0.7782891
33	0x3cb2a674	0.021807887
34	0x3e51cad8	0.20487535
35	0x3eda84b8	0.4267938
36	0x3eea0bad	0.45712033
37	0xbe2e210c	-0.17004794
38	0xbf8d3f89	-1.1035014
39	0xbf23ef0a	-0.6403662
40	0x3ef24b61	0.47323135
41	0x3ea0f071	0.31433442
42	0x3f17d5ea	0.5931078
43	0xbf23d225	-0.6399253
44	0xbffc9bc1	-1.9735032
45	0xbde6064c	-0.1123167
46	0x3f08f909	0.53505
47	0x3f096295	0.5366605
48	0xbf97e6c1	-1.1867296
49	0xbe3b3c29	-0.18284668
50	0xbe6b78de	-0.22995326
51	0x3ea94fc8	0.3306868
52	0x3e593183	0.21210293
53	0xbf266eb4	-0.6501267
54	0x3ee5ea1f	0.44905183
55	0xbe60052a	-0.2187697
56	0xbeb8cc7d	-0.36093512
57	0x3e38c651	0.18044402
58	0xbc1da9ee	-0.009623034
59	0x3f282bf2	0.65692055
60	0x3b452acc	0.0030085323
61	0xbdb80b23	-0.08986499
62	0x3db794c2	0.0896392
63	0x3f0b7dc2	0.54488766
64	0xbd7f0649	-0.062261853
65	0x3cfc6591	0.03081015
66	0xbf1da6fc	-0.6158292
67	0xbee2cf90	-0.44298983
68	0xbeb4e521	-0.3533106
69	0x3e91c784	0.2847253
70	0x3e681431	0.22663952
71	0x3f93f374	1.1558671
72	0xbf675e88	-0.9037862
73	0x3e12850a	0.14308563
74	0xbd4a9fb7	-0.049468722
75	0x3ef99d0c	0.4875263
76	0x3fb55bcd	1.416864
77	0xbe3d5e80	-0.1849308
78	0xbdec982d	-0.11552463
79	0xbe586135	-0.21130832
80	0x3d89aef6	0.06722824
81	0x3ef6fde4	0.48240578
82	0xbe5074e8	-0.20357096
83	0xbeac1383	-0.33608636
84	0xbd89c3fb	-0.067268334
85	0x3f53847b	0.82624024
86	0x3db111c5	0.086459674
87	0xbf3389d1	-0.70132166
88	0x3f2ea9bc	0.68227744
89	0xbeff43c5	-0.49856392
90	0xbcfa98d9	-0.030590462
91	0x3f74ebac	0.95672107
92	0xbefcb180	-0.49354172
93	0xbf24fb77	-0.64446205
94	0xbdaa3989	-0.08311755
95	0xbff103fc	-1.8829341
96	0x3f0f49cb	0.55971974
97	0xbfaadb57	-1.3348187
98	0x3e14a9a5	0.14517839
99	0x3e38a15a	0.180303
100	0x3e064d6e	0.13115475
101	0xbea4492e	-0.32087082
102	0xbe847ce7	-0.25876543
103	0x3cd2befd	0.025725836
104	0xbf7731a4	-0.9656012
105	0x3dea59cb	0.11442908
106	0x3ea2fc83	0.31833276
107	0xbda5b101	-0.080904014
108	0xbecbeb9c	-0.39828193
109	0x3ed6f280	0.41981888
110	0xbf2d1751	-0.67613703
111	0xbf2a4943	-0.6651804
112	0x3e731a6d	0.2374055
113	0x3d8e74f1	0.069558986
114	0x3dbce655	0.0922362
115	0x3e990140	0.29883766
116	0x3e808337	0.2510011
117	0xbee0c9c5	-0.43903938
118	0xbe9c298a	-0.30500442
119	0xbed2b0e0	-0.4115057
120	0x3eb41550	0.3517251
121	0xbf229362	-0.6350614
122	0x3eba15ac	0.3634466
123	0xbeb93afd	-0.36177817
124	0x3daec8ba	0.08534379
125	0x3e508ecf	0.20366977
126	0x3eb0ab7a	0.34505826
127	0x3d2a31f6	0.041551553
128	0x3df25585	0.11832718
129	0x3ea4f7c6	0.32220286
130	0x3eec15f0	0.46110487
131	0xbea5be4a	-0.32371742
132	0x3ee44bf4	0.44589198
133	0x3ef69389	0.48159435
134	0xbe3e5479	-0.18586911
135	0xbebb75e3	-0.36613378
136	0x3f9205d3	1.1408027
137	0xbe143abf	-0.14475535
138	0x3f803d5a	1.0018723
139	0x3ef5898c	0.47956502
140	0xbf2751fc	-0.65359473
141	0xbef570a4	-0.479375
142	0xbf314c0d	-0.6925667
143	0x3e922142	0.28541
144	0xbeb26907	-0.34845755
145	0x3f203488	0.62580156
146	0x3e69af82	0.22820857
147	0xbf197079	-0.59937245
148	0xbc0503b2	-0.008118557
149	0xbe22a00c	-0.15881366
150	0xbefcc4fd	-0.4936904
151	0xbb7f06eb	-0.0038914036
152	0xbe95b893	-0.2924238
153	0xbd95afb9	-0.07308907
154	0xbec63de5	-0.38719097
155	0xbf47ad6f	-0.77999014
156	0x3e82ce66	0.25548095
157	0x3d5b94f8	0.053608865
158	0xbf3b7831	-0.7323027
159	0x3e27fa29	0.16404022
160	0x3f041185	0.5158923
161	0xbeec093c	-0.46100795
162	0x3ca682b3	0.020325994
163	0x3f44ab16	0.76823556
164	0x3ed33116	0.41248387
165	0xbe6fb9e4	-0.23410755
166	0xbe9a2500	-0.30106354
167	0xbf2fb6b6	-0.6863817
168	0xbeba65b1	-0.3640571
169	0xbda82566	-0.08210258
170	0x3e937dd9	0.28806952
171	0xbe81342c	-0.25235116
172	0xbf97af1c	-1.1850314
173	0x3d238337	0.039920058
174	0x3ec4607d	0.38354865
175	0xbecf0b92	-0.40438515
176	0x3e94b23b	0.2904223
177	0x3e1a09a5	0.15042742
178	0xbee8947c	-0.45425785
179	0x3e3c0db4	0.18364602
180	0xbdc60e76	-0.09670727
181	0xbe776e38	-0.24163139
182	0x3f05a7eb	0.5220935
183	0xbd9239d0	-0.07139933
184	0xbf306bb9	-0.6891437
185	0xbf7a194c	-0.9769485
186	0x3e9ec4c3	0.31009492
187	0x3f1cfd9e	0.6132449
188	0xbf098cd9	-0.5373054
189	0xbe2ca63a	-0.16860285
190	0x3e8f8c6f	0.2803683
191	0xbf40921e	-0.7522296
192	0xbec8fab5	-0.39253774
193	0xbe0e3101	-0.13885881
194	0x3e42592a	0.18979326
195	0x3e475b38	0.19468391
196	0xbe79503c	-0.24347013
197	0x3e615d29	0.22008194
198	0xbf30bd26	-0.6903862
199	0x3f25f170	0.6482153
200	0xbe9928cd	-0.2991394
201	0x3eedb7fe	0.46429437
202	0xbf3a3c3b	-0.72748154
203	0x3f71243e	0.94195926
204	0xbecf17b5	-0.40447775
205	0x3deb0d10	0.11477101
206	0xbe4b6de6	-0.19866142
207	0xbed3ca7a	-0.41365415
208	0x3d2ed341	0.042681936
209	0x3e04db65	0.12974317
210	0xbe879401	-0.26480106
211	0xbcd1c4f2	-0.025606606
212	0xbf84ff86	-1.039048
213	0x3eb7f029	0.35925415
214	0x3ecd7637	0.40129253
215	0x3e5d3795	0.21603234
216	0xbe39203d	-0.18078704
217	0x3d7b3567	0.061330225
218	0x3f05e08e	0.5229577
219	0x3eb9019b	0.36134037
220	0x3e302faf	0.1720569
221	0xbedd59b8	-0.43232512
222	0x3e691ff9	0.22766103
223	0xbf3c3bc7	-0.73528713
224	0x3e0d80e2	0.13818696
225	0x3e3c3517	0.18379627
226	0xbe6e60dd	-0.23279138
227	0xbe5a3302	-0.2130852
228	0x3ec6f538	0.38858962
229	0xbda05ca6	-0.07830171
230	0x3c4d39e3	0.012526008
231	0xbeaffba3	-0.3437167
232	0xbe0db5eb	-0.13838927
233	0x3e9baa47	0.3040335
234	0xbcfc28c0	-0.03078115
235	0x3e8cd870	0.2750888
236	0xbdef5c14	-0.116874844
237	0xbdaa3284	-0.08310416
238	0xbf534dea	-0.8254076
239	0xbe8cebed	-0.27523747
240	0x3ec5ad06	0.3860857
241	0x3eadb61c	0.33928
242	0xbf16c453	-0.58893317
243	0x3e2235e5	0.15840872
244	0xbe5e494c	-0.21707648
245	0x3d99d0a7	0.075105004
246	0xbecc3103	-0.39881143
247	0x3e138a0b	0.14408128
248	0xbf58136d	-0.8440464
249	0xbdd0b55e	-0.10190843
250	0x3f7faec0	0.9987602
251	0x3f33bd54	0.70210767
252	0xbea4ce82	-0.32188803
253	0xbf39a723	-0.72520655
254	0xbd8864e6	-0.0665987
255	0x4014becf	2.324146

feature_fusion.conv_low_res.bias f4 [32]
0	0x3ebfbb62	0.3744765
1	0xbfaa1d5b	-1.3290209
2	0x3f02b11b	0.5105149
3	0xbd2c5c4e	-0.042080216
4	0x3d9ad3cf	0.075599305
5	0xbf2e5248	-0.680943
6	0x3ed2c33c	0.41164577
7	0x3e50ca5e	0.20389697
8	0x3f6559f5	0.8959039
9	0x3c780923	0.015138897
10	0xbe450531	-0.19240262
11	0xbe75de71	-0.24010636
12	0xbedddb4a	-0.43331367
13	0xbed7651d	-0.4206933
14	0x3f12f6ef	0.5740804
15	0xbfbd5991	-1.4792958
16	0xbd9a7173	-0.0754117
17	0xbdd3d178	-0.10342687
18	0x3dadb703	0.08482172
19	0x3f1e9241	0.61941916
20	0xbd8045ad	-0.062632896
21	0x3d0680d1	0.032837693
22	0xbdbd7b55	-0.09252039
23	0x3f898598	1.0743895
24	0xbd037200	-0.03209114
25	0xbf220657	-0.63290924
26	0xbe59e859	-0.2128004
27	0x3eabada1	0.33530906
28	0xbee83465	-0.45352474
29	0x3e92c0b0	0.28662634
30	0xbe442778	-0.19155681
31	0x3ee55c91	0.44797185

classifier.conv.weight f4 [1, 32, 1, 1]
0	0xbec9e94e	-0.3943581
1	0xbf426806	-0.7593998
2	0xbf16ad1f	-0.5885791
3	0xbf0fd5a5	-0.5618537
4	0xbf2e81c6	-0.6816677
5	0xbf09e960	-0.53871727
6	0x3eb2863c	0.34868038
7	0x3ec0c20a	0.3764804
8	0xbf6d14cb	-0.9260985
9	0x3f1c0633	0.6094696
10	0xbf07eaa4	-0.5309241
11	0xbee31ba5	-0.4435703
12	0x3ed074c5	0.40714088
13	0xbf55a0b2	-0.83448327
14	0x3f0369d0	0.5133333
15	0x3f478026	0.77929914
16	0xbf4f1658	-0.8089347
17	0x3f02319d	0.50856954
18	0xbf345ffb	-0.70458955
19	0xbee6efc8	-0.45104814
20	0x3ec10975	0.37702528
21	0xbf133d58	-0.5751548
22	0xbf01dc95	-0.50727206
23	0xbea9298f	-0.3303952
24	0xbecee27a	-0.40407163
25	0xbf1766ad	-0.59141046
26	0x3f4c82bb	0.7988698
27	0x3f38b339	0.7214847
28	0x3ebc6bb2	0.36800915
29	0xbf02a621	-0.5103474
30	0x3ec91ec0	0.39281273
31	0xbf102454	-0.5630543

onnx::Conv_356 f4 [8, 3, 3, 3]
0	0xbe92bcbf	-0.28659627
1	0x3cf9d0fd	0.030495161
2	0x3eb42711	0.35186055
3	0xbf036f5d	-0.513418
4	0x3e833f3d	0.25634184
5	0x3f5435f9	0.82894856
6	0xbf42a320	-0.7603016
7	0xbe8bf135	-0.27332464
8	0x3f32c33f	0.6982917
9	0xbef4ba76	-0.47798508
10	0x3d52f8c2	0.051506765
11	0x3f060876	0.5235666
12	0xbf2adf02	-0.6674653
13	0x3d66c611	0.056341235
14	0x3f545e42	0.82956326
15	0xbf6e387f	-0.93054956
16	0xbe6620b4	-0.22473413
17	0x3f1f56a1	0.6224156
18	0xbe999581	-0.29996875
19	0xbe12e78d	-0.14346142
20	0x3efc2d94	0.49253523
21	0xbf07fa4d	-0.53116304
22	0xbd5bca35	-0.053659637
23	0x3f1a011f	0.6015796
24	0xbf05f654	-0.5232899
25	0xbdce246f	-0.10065543
26	0x3ee1230c	0.4397205
27	0xbf14cd2f	-0.58125585
28	0xbe9b243f	-0.3030109
29	0xbee529c4	-0.44758427
30	0xbf1df640	-0.6170387
31	0xbf0571d7	-0.5212683
32	0xbeee4f5e	-0.46544927
33	0xbf09a79c	-0.53771377
34	0xbecd25ae	-0.4006781
35	0xbe894662	-0.2681151
36	0x3e94283a	0.2893694
37	0x3dcb6348	0.09931046
38	0x3e8575c5	0.26066414
39	0x3ea77ea7	0.32713816
40	0x3eb73331	0.35781243
41	0x3e10cbd7	0.14140259
42	0x3e3aa928	0.1822859
43	0x3ed5ca61	0.41755965
44	0x3ee0b72a	0.43889743
45	0xbdd334b8	-0.1031279
46	0xbd7d8eef	-0.06190389
47	0x3db7c50c	0.089731306
48	0xbde61056	-0.112335846
49	0x3e761fab	0.24035518
50	0xbc081300	-0.008305311
51	0xbc6c9b79	-0.014441364
52	0x3e4a1278	0.19733608
53	0x3e96507a	0.29358274
54	0x3f924b32	1.1429198
55	0x3f626735	0.8843873
56	0xbee63ea5	-0.4496967
57	0x3e46fec0	0.19433117
58	0x3f3401ac	0.7031505
59	0xbf03cd90	-0.5148554
60	0xbdc8afb6	-0.09799139
61	0x3ba260d2	0.0049553895
62	0xbe5b3126	-0.21405467
63	0x3f27958b	0.6546256
64	0x3f4f5f21	0.8100453
65	0xbe2f3475	-0.17109855
66	0xbe38c50c	-0.18043917
67	0x3ed25429	0.41079834
68	0xbee904c6	-0.45511454
69	0xbef994e8	-0.4874642
70	0x3c9484ca	0.018129725
71	0xbef9c45f	-0.48782632
72	0x3edb56d8	0.42839694
73	0x3f037eba	0.51365244
74	0xbeb15cb5	-0.34641042
75	0xbe8aee0d	-0.27134743
76	0x3ec836bd	0.39104262
77	0xbf1780c2	-0.59180844
78	0xbee5f023	-0.44909772
79	0xbc1a8899	-0.0094319815
80	0xbef85b0f	-0.48506972
81	0x3d9f3e6f	0.0777558
82	0xbd6ee07e	-0.05831956
83	0xbca7c9c2	-0.020481948
84	0xbd4fd78f	-0.050742682
85	0xbe3c850f	-0.18410133
86	0xbe8093e2	-0.25112826
87	0x3b2040c2	0.002445266
88	0x3d59efc0	0.05320716
89	0x3c553e5d	0.013015357
90	0xbe3726c9	-0.17885889
91	0xbd4defd8	-0.05027756
92	0x3d072838	0.03299734
93	0xbda1033f	-0.07861947
94	0xbde1b6a7	-0.11021166
95	0xbdbd3128	-0.092378914
96	0xbe2518dd	-0.16122766
97	0xbe0ce98f	-0.1376097
98	0xbd2d530c	-0.042315528
99	0xbe00566d	-0.12532969
100	0xbc7cca97	-0.015429161
101	0x3e10e1b7	0.14148603
102	0xbe096836	-0.1341866
103	0xbc82bc77	-0.015959008
104	0x3ceb5de1	0.028731288
105	0xbe0071bf	-0.1254339
106	0x3e145044	0.14483744
107	0x3e284c12	0.16435269
108	0x3d2e4a8e	0.04255157
109	0x3e058acb	0.13041227
110	0x3e9b718a	0.3036006
111	0x3e0e58d0	0.13901067
112	0x3ea14214	0.31495726
113	0x3e361044	0.17779642
114	0xbdfcb0c7	-0.12338405
115	0x3ec97e21	0.3935404
116	0x3c9ccaa1	0.01913959
117	0xbf61643b	-0.88043565
118	0xbeff417a	-0.49854642
119	0xbf173d6b	-0.5907809
120	0xbf13771f	-0.5760364
121	0xbee76342	-0.45192915
122	0xbf21315b	-0.62965935
123	0xbf7645d3	-0.96200293
124	0xbf21c70b	-0.6319434
125	0xbf43f4fa	-0.7654568
126	0xbe867baa	-0.26266223
127	0xbd8e2c84	-0.069420844
128	0x3e01711a	0.12640801
129	0x3df1d702	0.118085876
130	0x3f049f3e	0.51805484
131	0x3ee04f2f	0.43810412
132	0x3d1f74bd	0.03892969
133	0x3e8e9def	0.2785487
134	0x3eeb2bff	0.45932004
135	0x3ebe59a2	0.3717776
136	0x3d70b2a1	0.058764104
137	0x3e86c5b5	0.26322713
138	0x3f12e295	0.57376987
139	0xbbbbabc9	-0.0057272655
140	0x3e29d22e	0.16584083
141	0x3f406e7c	0.75168586
142	0x3e5105dc	0.20412391
143	0x3ea38269	0.31935433
144	0xbca98283	-0.020692116
145	0xbd0fc423	-0.03509916
146	0xbd4c1811	-0.04982764
147	0x3e388ed9	0.18023242
148	0xbe084847	-0.13308822
149	0xbc9abc42	-0.018888596
150	0x3e8c5248	0.27406526
151	0xbdafa28c	-0.08575925
152	0x3e908498	0.2822616
153	0xbe859d33	-0.26096496
154	0xbead112f	-0.33802173
155	0xbe535b4a	-0.20640293
156	0xbdc99d16	-0.09844415
157	0xbe4aee68	-0.19817507
158	0xbda305ce	-0.079600915
159	0x3c39b9a8	0.011335768
160	0xbe69e7df	-0.22842358
161	0x3d5bd0fe	0.053666107
162	0xbd54728c	-0.051867053
163	0xbcaedbd2	-0.021345053
164	0xbb5df188	-0.0033865888
165	0xbd2bb49d	-0.041920293
166	0xbcb443e5	-0.02200503
167	0xbc1419a1	-0.0090393135
168	0xbda09aac	-0.07842001
169	0xbbec3e6a	-0.007209589
170	0xbd3f4910	-0.046700537
171	0xbc152b44	-0.009104554
172	0x3beba285	0.0071910047
173	0xbc21bf48	-0.009872265
174	0xbd112b90	-0.035441935
175	0xbcee5aaa	-0.029095966
176	0xbda77f07	-0.081785254
177	0xbd691e86	-0.056913875
178	0xbd7f9c8a	-0.062405147
179	0xbde6d5e2	-0.11271264
180	0x3be7c3e8	0.0070729144
181	0x3d329c21	0.043605927
182	0xbbdb1cea	-0.0066867964
183	0x3d5c140e	0.053730063
184	0x3da8e35f	0.082464926
185	0x3c5388ba	0.012911016
186	0xb9a01662	-0.00030534255
187	0x3d53ae00	0.05167961
188	0xbcb3e6d5	-0.021960655
189	0xbe908a9c	-0.2823075
190	0x3d1e270d	0.03861146
191	0xbee41d6b	-0.44553694
192	0x3e3504ac	0.17677563
193	0x3ba81135	0.0051290044
194	0xbf046f13	-0.51731986
195	0xbe56b6b1	-0.20968129
196	0xbdb2b3c1	-0.087256916
197	0xbee6d075	-0.45080915
198	0x3e0d62cc	0.1380722
199	0x3f7d90b2	0.9904891
200	0x3e2234a3	0.15840392
201	0x3f20782a	0.62683356
202	0x3fcfaa4c	1.6223845
203	0x3eeb2048	0.45923066
204	0x3e515d23	0.20445685
205	0x3f93e6bf	1.1554793
206	0x3dbe068e	0.09278594
207	0xbefde511	-0.49588826
208	0x3cc19c1a	0.023634005
209	0xbdd0a367	-0.101874165
210	0xbe0c98f3	-0.1373022
211	0x3eabb016	0.3353278
212	0xbe897de3	-0.26853856
213	0xbf08f8c2	-0.53504574
214	0x3c649b5c	0.013953056
215	0xbe60ab86	-0.21940431

onnx::Conv_357 f4 [8]
0	0xbdb64d12	-0.08901419
1	0xbf4a4d05	-0.7902377
2	0x3f57ba5a	0.84268725
3	0xbedb4426	-0.4282543
4	0x3f33e944	0.7027781
5	0x3f92a5da	1.1456864
6	0x3f706e6f	0.9391851
7	0xbf1eb0a8	-0.61988306

onnx::Conv_359 f4 [8, 1, 3, 3]
0	0xbe4a9e9d	-0.19787069
1	0xbe2e0e02	-0.16997531
2	0x3b55cef4	0.0032624574
3	0xbe8d4545	-0.2759191
4	0xbf1d9b76	-0.6156534
5	0xbea69fb3	-0.32543716
6	0xbd604e2e	-0.054762058
7	0xbec7b76f	-0.39007136
8	0xbecc6085	-0.3991739
9	0x3d1df45a	0.03856311
10	0x3ae69b3d	0.0017593872
11	0x3da88a72	0.08229531
12	0x3c2199ca	0.009863326
13	0xbd811e77	-0.06304639
14	0x3c80f41c	0.0157414
15	0x3df5984f	0.11991941
16	0x3e40e8e0	0.18838835
17	0x3dd15db8	0.102229536
18	0x3d46c7ce	0.048530392
19	0x3ceac4f4	0.028658368
20	0x3dcb6910	0.099321485
21	0x3da15d13	0.078790806
22	0xbe890cca	-0.2676757
23	0xbea12cf3	-0.31479606
24	0x3ad1d0e2	0.0016007686
25	0xbec072d2	-0.375876
26	0xbee22364	-0.44167626
27	0xbe794cbb	-0.24345677
28	0xbe340d4a	-0.17583194
29	0x3e5615f1	0.20906807
30	0xbf01c79e	-0.50695217
31	0xbebf082e	-0.37310928
32	0xbd7a1a7a	-0.061060406
33	0xbdfb6d05	-0.12276653
34	0xbe74ecb0	-0.23918414
35	0xbed15e6c	-0.4089235
36	0x3c0bba95	0.008528371
37	0xbcb85ff9	-0.0225067
38	0x3ad3d04d	0.0016160101
39	0xbdb2ee30	-0.08736837
40	0xbe740b90	-0.23832536
41	0xbdec9600	-0.11552048
42	0xbd3cf5e3	-0.046132933
43	0xbdec9968	-0.115526974
44	0xbdbbfd55	-0.091791786
45	0x3d113020	0.035446286
46	0xbb6a8220	-0.0035783127
47	0xbe2d165d	-0.16903062
48	0x3e26f83b	0.1630563
49	0xbdf91bd3	-0.1216351
50	0xbe64ea9c	-0.22355121
51	0x3d12813f	0.03576779
52	0xbed109b6	-0.4082772
53	0xbf1a0cbf	-0.601757
54	0xbbe5d250	-0.0070135966
55	0xba0c09e9	-0.0005342053
56	0x3f2690b8	0.65064573
57	0x3eca7ad6	0.3954684
58	0x3f2d4433	0.6768219
59	0x3f774062	0.96582615
60	0x3d4393ea	0.047748484
61	0x3f871068	1.0551882
62	0x3fa37a32	1.2771666
63	0xbd1f1eef	-0.03884786
64	0x3c5068c9	0.012720295
65	0x3b8db06c	0.0043240096
66	0x3cb3bb98	0.021940038
67	0xbe8e28a1	-0.27765372
68	0xbe97302d	-0.29528943
69	0x3d980e70	0.07424629
70	0xbe73574e	-0.23763773
71	0xbe9310f8	-0.28723884

onnx::Conv_360 f4 [8]
0	0x3f13dda9	0.577601
1	0xbe65ab14	-0.22428542
2	0x3f4997a9	0.7874704
3	0x3e98c9a6	0.29841346
4	0x3f1c5213	0.61062735
5	0x3f7309bc	0.9493673
6	0xc09bd533	-4.8697753
7	0x3f45632d	0.77104455

onnx::Conv_362 f4 [12, 8, 1, 1]
0	0x3d0e1ea4	0.03469719
1	0x3c911f0f	0.017715005
2	0xbd0e83c7	-0.03479364
3	0xbd1864a2	-0.037205346
4	0xbe30286c	-0.1720292
5	0x3e06dda9	0.13170494
6	0x3e370788	0.17873967
7	0x3e163a5b	0.14670698
8	0x3eebbe9b	0.46043858
9	0x3d8e3b90	0.069449544
10	0x3e0667d2	0.13125542
11	0x3d7918a3	0.06081451
12	0x3e1b6e67	0.15178834
13	0x3cade87b	0.02122902
14	0x3dc19da5	0.094538964
15	0xbdfe76b9	-0.12424988
16	0x3ef07cd5	0.4697024
17	0x3f0a4cf1	0.54023653
18	0x3f689ca1	0.90863997
19	0xbeebacc9	-0.46030262
20	0xbdaa3596	-0.08311002
21	0x3e249708	0.16073239
22	0x3f0337de	0.5125712
23	0x3d0b298e	0.033975177
24	0xbd913626	-0.07090406
25	0x3c69df1a	0.014274383
26	0xbefb48ad	-0.49078885
27	0xbeb7f427	-0.3592846
28	0xbd7f8f66	-0.062392615
29	0xbec08bc5	-0.37606636
30	0xbe06ed2f	-0.13176416
31	0xbe16419d	-0.14673467
32	0xbd15ff8b	-0.036620658
33	0x3db7f97d	0.08983133
34	0xbc2235c0	-0.00990051
35	0x3d0bbb8a	0.034114398
36	0xbc21b3d7	-0.009869537
37	0xbe131e4e	-0.14367029
38	0xbeac804b	-0.3369163
39	0xbe883d20	-0.26609135
40	0x3c5e564c	0.0135703795
41	0x3d1b60fc	0.03793429
42	0x3dc1abb8	0.09456581
43	0xbf1c7f62	-0.6113187
44	0xbef8f465	-0.48623958
45	0xbf01bcf2	-0.5067893
46	0x3f35931e	0.7092761
47	0x3f751d57	0.95747894
48	0x3c742ea0	0.014903694
49	0x3ec5b45f	0.38614175
50	0x3df03d59	0.11730451
51	0xbe737393	-0.23774557
52	0x3ee39004	0.44445813
53	0x3edc25fc	0.4299773
54	0x3e90fd18	0.28318095
55	0xbf008bfe	-0.5021361
56	0xbcae2444	-0.021257527
57	0xbe0fb807	-0.14035045
58	0xbd5eb284	-0.054369465
59	0x3eae6e42	0.34068495
60	0x3d99d816	0.07511918
61	0xbe192d78	-0.14958751
62	0xbf1ca319	-0.6118637
63	0xbee09ed5	-0.4387118
64	0x3f26eb77	0.6520304
65	0xbda1ff5b	-0.07910033
66	0x3dff401a	0.12463398
67	0x3cbaa061	0.022781553
68	0xbd17c144	-0.037049547
69	0xbcb71716	-0.022349875
70	0xbc936e5b	-0.017996958
71	0x3d84810e	0.06469928
72	0x3dea607e	0.11444186
73	0x3d177f31	0.036986534
74	0x3d9a5d2c	0.075373024
75	0x3bbef832	0.005827927
76	0xbe02a9e5	-0.12760122
77	0xbc096548	-0.008385964
78	0x3df77ae1	0.12083984
79	0x3daf5107	0.085603766
80	0x3db67baa	0.08910306
81	0xbdb5893a	-0.088640645
82	0x3bd6e288	0.0065577663
83	0x3dec41dc	0.11535999
84	0x3dd60ba9	0.10451443
85	0xbbfbffb5	-0.0076903948
86	0xbe6368e7	-0.22207986
87	0xbd452105	-0.048127193
88	0xbf6802cb	-0.9062926
89	0x3e5ce4aa	0.21571603
90	0xbeba0861	-0.36334518
91	0x3f94c7eb	1.162351
92	0x3f4bac12	0.79559433
93	0xbe9d03ac	-0.30666864
94	0xbebbb6be	-0.3666286
95	0xbe076135	-0.13220675

onnx::Conv_363 f4 [12]
0	0x3f300e8a	0.68772185
1	0x3e954fe1	0.29162505
2	0x3e914307	0.2837145
3	0xbf2b3a95	-0.66886264
4	0x3f5ef57f	0.8709335
5	0xbe09898a	-0.13431373
6	0xbede055c	-0.43363464
7	0x3f1ba798	0.608026
8	0x3e98b9c0	0.29829216
9	0x3f676ed2	0.90403473
10	0x3f40329f	0.7507724
11	0xbe95b6ae	-0.29240936

onnx::Conv_365 f4 [12, 1, 3, 3]
0	0x3f76e2a1	0.9643956
1	0x3ddc7545	0.10764555
2	0x3e1866e1	0.14882995
3	0x3f21d170	0.632102
4	0xbfe23c78	-1.7674704
5	0xc0079058	-2.118185
6	0x3e7c40a5	0.24634035
7	0xbecc566b	-0.39909682
8	0x3f24a2af	0.64310735
9	0x3ec87172	0.39149052
10	0x3fcd4440	1.6036453
11	0x3fac8a14	1.3479638
12	0xbf099571	-0.53743654
13	0x3ebed72b	0.37273535
14	0x3f747a32	0.95498955
15	0xbfaf6579	-1.3702842
16	0xbf963ea8	-1.1737871
17	0xbed07c36	-0.40719765
18	0x3e6b9c86	0.23008928
19	0x3d920033	0.07128944
20	0xbdb91de5	-0.09038905
21	0x3deb40e2	0.11486985
22	0xbe70f2ae	-0.23530075
23	0xbeb8203b	-0.3596209
24	0xbdac7308	-0.08420378
25	0xbeb9f688	-0.363209
26	0xbe058e8c	-0.13042659
27	0xbf2c976a	-0.6741854
28	0xbe93a43e	-0.28836244
29	0x3f075681	0.5286637
30	0x3d97bc0b	0.07408913
31	0x3f16405c	0.58691955
32	0x3f54f620	0.83188057
33	0x3eb7bc5e	0.358859
34	0x3f24e73e	0.6441535
35	0x3ee53e61	0.44774154
36	0x3e279d32	0.16368559
37	0x3eb9114b	0.36146006
38	0x3f5d5c20	0.86468697
39	0x3deb78d1	0.11497653
40	0x3f03f6d4	0.51548505
41	0x3fa0ba65	1.2556883
42	0xbfe05d3e	-1.7528455
43	0xc020e3fb	-2.5139148
44	0x3eaac798	0.33355403
45	0xbdc44d9a	-0.09585114
46	0xbcf99778	-0.030467734
47	0x3e48e181	0.19617273
48	0xbda504dc	-0.080575675
49	0xbe05ec15	-0.1307834
50	0x3e3420df	0.17590664
51	0xbdd55a7c	-0.10417649
52	0xbef96498	-0.4870956
53	0xbe3c4f34	-0.18389589
54	0xbea54bfa	-0.32284528
55	0xbee54305	-0.44777694
56	0x3e1ef6ca	0.1552383
57	0xbe86117b	-0.26185212
58	0x3f6cbc55	0.9247487
59	0x3f522bff	0.8209838
60	0xbdb23b5e	-0.0870273
61	0x3f0fa9d2	0.561185
62	0x3eae428d	0.3403515
63	0x3ebd2110	0.36939287
64	0xbc3024e9	-0.010750988
65	0x3cc4442e	0.023958292
66	0xbd7e6895	-0.062111456
67	0xbf3bac21	-0.7330952
68	0xbeb2788f	-0.34857604
69	0x3d15ab45	0.03654029
70	0xbe7cbd05	-0.2468148
71	0x3e04649b	0.12929003
72	0x3dc4212d	0.0957664
73	0x3f0a8c03	0.5411989
74	0x3f016970	0.5055151
75	0x3ef4e8ab	0.47833762
76	0x3f91710e	1.1362627
77	0x3f5f164c	0.871434
78	0x3f2e6895	0.6812833
79	0x3f3f07e5	0.7462142
80	0x3e905068	0.28186345
81	0xbf12dfd5	-0.5737279
82	0xbfd11eb8	-1.63375
83	0xbf914a3c	-1.135078
84	0xbf40187a	-0.7503735
85	0xbeaf3ce2	-0.34226137
86	0xbfe69965	-1.8015562
87	0x3f21d474	0.632148
88	0x404b3e3e	3.175674
89	0x3fbed3bb	1.4908365
90	0xbf90face	-1.132654
91	0xbe1d359e	-0.15352485
92	0x3d27fedc	0.041014537
93	0xbf9b3331	-1.2124997
94	0x3f088b37	0.53337425
95	0x3f1ee130	0.6206236
96	0xbec3e54b	-0.38260874
97	0xbba9afc5	-0.005178424
98	0x3e735d9b	0.23766176
99	0x3d03b7b8	0.03215763
100	0x3caf7631	0.021418663
101	0xbe08e963	-0.1337028
102	0xbe2fa39f	-0.1715226
103	0xbe921933	-0.2853485
104	0xbe53f3a3	-0.20698409
105	0xbd8b5af0	-0.06804454
106	0xbe0c3d47	-0.1369525
107	0x3d1cb56d	0.03825896

onnx::Conv_366 f4 [12]
0	0x3f96aaa7	1.1770829
1	0xbf0c4fc3	-0.54809207
2	0x3f3f24f8	0.74665785
3	0xbe5e3fee	-0.21704075
4	0x3f16b8bb	0.58875626
5	0x3f0a7a28	0.54092646
6	0xbe65b043	-0.2243052
7	0x3f4cb9a1	0.7997075
8	0xc040e190	-3.0137672
9	0x3f47be23	0.780245
10	0x3f9176a2	1.1364329
11	0x3f134549	0.57527596

onnx::Conv_368 f4 [16, 12, 1, 1]
0	0x3e4e6a5d	0.20157762
1	0x3e847f43	0.25878343
2	0xbcca96af	-0.024730055
3	0x3c905c61	0.017622175
4	0xbf209fa1	-0.62743574
5	0x3e1fb6b7	0.15597044
6	0x3d1d6d97	0.03843459
7	0xbe00c11e	-0.12573668
8	0x3ed0b105	0.40760055
9	0xbf6b265a	-0.91855395
10	0x3e22780d	0.15866108
11	0x3e87dce2	0.26535708
12	0x3e540a9b	0.2070717
13	0x3e8999fe	0.268753
14	0x3dcced14	0.100061566
15	0xbd9424c6	-0.072335765
16	0xbe9c1ea5	-0.3049213
17	0x3e1da612	0.15395382
18	0xbe80a84e	-0.25128406
19	0xbeb37870	-0.35052824
20	0x3eb009db	0.3438252
21	0x3de092d6	0.10965507
22	0x3d53d0d5	0.05171283
23	0x3e3919c8	0.18076241
24	0x3f008030	0.501956
25	0x3e939206	0.28822345
26	0x3e712037	0.23547445
27	0x3d18c255	0.037294704
28	0x3eccac6d	0.399753
29	0xbeb1ec9a	-0.34750825
30	0x3dfbec85	0.12300972
31	0xbdaa0674	-0.08302012
32	0xbd7d700e	-0.06187444
33	0xbe3e8457	-0.18605171
34	0x3e506021	0.2034917
35	0xbe72b368	-0.2370125
36	0x3c901cfb	0.017591944
37	0xbe546f9c	-0.207457
38	0xbe2025cd	-0.1563942
39	0xbe1ee8cc	-0.15518492
40	0xbd7e9a0f	-0.06215864
41	0x3d9f506c	0.07779011
42	0x3f0eb4e9	0.55744797
43	0x3cdbedf6	0.026846867
44	0xbdf1b093	-0.11801257
45	0xbe29d0e9	-0.16583599
46	0xbc1677be	-0.009183822
47	0xbd807384	-0.06272033
48	0xbe80c896	-0.25153035
49	0xbe09dd5d	-0.1346335
50	0x3dd58363	0.10425451
51	0x3eb04a2f	0.34431598
52	0x3c725528	0.014790811
53	0xbd244f51	-0.040114705
54	0x3d5d4363	0.054019343
55	0xbf44e979	-0.7691875
56	0xbe65da4f	-0.2244656
57	0xbd349903	-0.044091236
58	0xbbe6d1cd	-0.007044053
59	0xbeb05e5f	-0.34447
60	0x3c322850	0.010873869
61	0xbd668844	-0.056282297
62	0x3d7bc89e	0.06147062
63	0xbe813740	-0.25237465
64	0xbda9a78c	-0.0828391
65	0x3ec3f0c4	0.38269627
66	0x3c36f93d	0.0111678215
67	0xbe8794d7	-0.26480743
68	0xbf0119d2	-0.50430024
69	0xbdb55cce	-0.08855592
70	0xbf265b32	-0.64982903
71	0x3d2c86a6	0.0421206
72	0xbd2e4059	-0.042541835
73	0xbcf6fcdb	-0.030149868
74	0xbef06a7c	-0.4695624
75	0xbe3a1ecf	-0.18175815
76	0x3e8208e5	0.2539741
77	0xbf1d2e88	-0.61399126
78	0x3d92b548	0.07163483
79	0x3da3f614	0.0800592
80	0x3de85b4b	0.11345538
81	0x3ecd2e2a	0.40074283
82	0xbce2b352	-0.027673397
83	0x3b4c4aab	0.0031172435
84	0x3d8f47f6	0.06996147
85	0xbe026b76	-0.12736306
86	0xbd21dac5	-0.039515276
87	0x3e68b300	0.22724533
88	0x3e229ba2	0.15879682
89	0x3d10b593	0.035329413
90	0x3e29976a	0.16561666
91	0xbe684c61	-0.22685386
92	0xbe29e3d9	-0.16590823
93	0xba2731ae	-0.0006377947
94	0x3c94109b	0.018074324
95	0xbe8b5bb6	-0.27218407
96	0x3e4c1877	0.19931208
97	0xbd526b8a	-0.05137209
98	0xbe73ad8c	-0.23796672
99	0xbe632713	-0.22182874
100	0xbc227323	-0.009915146
101	0x3e9a6f1a	0.3016289
102	0x3ebd9b3e	0.37032503
103	0xbcdd8a27	-0.027043415
104	0x3f157c89	0.5839315
105	0xbc8e98e8	-0.017406896
106	0xbcb75a90	-0.02238205
107	0x3e701bf2	0.2344816
108	0x3eae9593	0.3409849
109	0xbc8d35db	-0.017237594
110	0xbda81ca1	-0.082085855
111	0x3e9be214	0.3044592
112	0xbf3064d8	-0.68903875
113	0xbed83c0a	-0.42233306
114	0x3e212e96	0.15740427
115	0x3d856a02	0.0651436
116	0x3cde72ec	0.027154408
117	0x3e395136	0.18097386
118	0x3de34522	0.110971704
119	0xbe946c22	-0.2898875
120	0xbf1953cb	-0.5989348
121	0xbdad10f7	-0.084505014
122	0xbe2873e8	-0.16450465
123	0xbe26b4b4	-0.1627987
124	0xbf1328e6	-0.5748428
125	0x3e269963	0.1626945
126	0xbe527b8b	-0.2055494
127	0x3ede32fc	0.43398273
128	0xbf369943	-0.7132761
129	0xbbd74e63	-0.0065706237
130	0xbf294949	-0.6612745
131	0x3d29c9fb	0.04145239
132	0xbe561656	-0.20906958
133	0x3d596ed2	0.053084202
134	0xbcc5fb41	-0.024167659
135	0xbeb12455	-0.34598032
136	0x3de036d5	0.109479584
137	0xbe5935a5	-0.2121187
138	0xbeb148ff	-0.34626004
139	0x3dc99d64	0.09844473
140	0x3df9bffa	0.1219482
141	0xbe64c550	-0.22340894
142	0x3e4503f9	0.19239797
143	0x3da1a33f	0.07892465
144	0x3e215a03	0.15756993
145	0x3e80c413	0.25149593
146	0xbe0345cb	-0.12819593
147	0x3e5fa24a	0.21839252
148	0x3d1d0278	0.038332433
149	0xbcf5b8f0	-0.029995412
150	0x3ed532b6	0.41640252
151	0xbebec207	-0.37257406
152	0x3dacfcfa	0.08446689
153	0xbe0282d0	-0.12745214
154	0x3e50db19	0.20396079
155	0x3e46d65e	0.19417712
156	0xbe5db512	-0.21651104
157	0xbeee2849	-0.4651511
158	0xbe154a9e	-0.14579245
159	0xbdef289b	-0.11677667
160	0xbe17fb61	-0.14841987
161	0xbd940088	-0.07226664
162	0x3ef277db	0.47357067
163	0xbc969a55	-0.018384138
164	0x3deed570	0.11661804
165	0x3dd6d937	0.10490649
166	0x3e19cba6	0.15019092
167	0xbe56238b	-0.20911996
168	0xbf010c15	-0.5040906
169	0xbe296a81	-0.16544534
170	0xbecbc836	-0.39801186
171	0x3c8c1feb	0.017105063
172	0xbe413287	-0.18866931
173	0x3e36c5a3	0.1784883
174	0x3d0cda59	0.03438792
175	0x3e2322d9	0.15931262
176	0x3e6ba2f7	0.23011385
177	0xbe8d9415	-0.2765204
178	0xbe91a949	-0.28449467
179	0x3e821d02	0.25412756
180	0x3e9162fe	0.28395838
181	0xbed8039a	-0.42190248
182	0x3dbf39f3	0.09337225
183	0x3e1b2a46	0.15152845
184	0x3f411d66	0.75435483
185	0x3c053f85	0.00813282
186	0x3e733831	0.23751904
187	0xbd702ff5	-0.058639485
188	0x3eaf1aba	0.34200078
189	0x3ec2456b	0.37943587
190	0xbdfe4297	-0.12415045
191	0x3e247116	0.16058764

onnx::Conv_369 f4 [16]
0	0x3e3a7b9d	0.18211217
1	0x3ef1dab0	0.47237158
2	0x3ed73928	0.42035794
3	0xbe7acf50	-0.24493146
4	0xbe7ee77a	-0.24892989
5	0x3d8b06f4	0.067884356
6	0x3f697bf1	0.91204745
7	0x3b8c8948	0.004288826
8	0x3e92bee0	0.2866125
9	0xbf24f713	-0.64439505
10	0x3f171fd6	0.5903295
11	0x3f1c0052	0.6093799
12	0xbe262282	-0.16224101
13	0xbe5100dd	-0.20410486
14	0x3f0438a4	0.51648927
15	0x3f285e2d	0.657687

onnx::Conv_371 f4 [32, 16, 1, 1]
0	0xbf010b5e	-0.5040797
1	0xbde0901a	-0.10964985
2	0x3e2e621d	0.17029615
3	0xbd37d661	-0.044882182
4	0xbe133116	-0.14374194
5	0xbe2e24f1	-0.1700628
6	0x3e202e30	0.15642619
7	0x3e40ad02	0.18815997
8	0xbd51281c	-0.051063642
9	0xbe37192f	-0.178807
10	0xbe0421d9	-0.12903537
11	0xbd4cdbff	-0.050014492
12	0xbdfc499e	-0.12318729
13	0xbdebbed3	-0.11511006
14	0xbe33279d	-0.1749558
15	0x3e9220af	0.2854056
16	0x3ceeb748	0.02914013
17	0x3f08755a	0.53304064
18	0x3b5897d3	0.0033049479
19	0xbda21b0f	-0.07915317
20	0x3e85db33	0.26143798
21	0x3c256877	0.010095707
22	0xbe348879	-0.17630185
23	0x3e03d597	0.12874447
24	0x3d312292	0.04324586
25	0x3e780538	0.24220741
26	0xbdad00cc	-0.084474176
27	0xbe80585f	-0.25067422
28	0xbcc09dd1	-0.023512753
29	0xbdde37e8	-0.10850507
30	0xbe8d53b3	-0.2760292
31	0xbbb828a1	-0.0056200777
32	0x3efa14fb	0.48844132
33	0x3e05bc72	0.13060167
34	0xbe12011b	-0.14258234
35	0xbdbf8621	-0.09351755
36	0xbd8a63f5	-0.067573465
37	0x3dd4ac66	0.10384445
38	0xbe490860	-0.19632101
39	0xbdfda46b	-0.12384876
40	0x3d29ba80	0.041437626
41	0x3de0d9dd	0.10979054
42	0x3da298d9	0.079393096
43	0x3d95f5e2	0.07322289
44	0x3dc7a1dd	0.0974767
45	0xbd82a5ed	-0.06379304
46	0x3d8f2f27	0.069914155
47	0x3d8bd656	0.06827991
48	0x3e9093b2	0.28237683
49	0x3e73c34a	0.23804966
50	0xbc84452a	-0.016146261
51	0xbb3d624f	-0.0028897708
52	0x3dcddd01	0.10051919
53	0x3da6f15c	0.081515044
54	0xbf0f9883	-0.5609209
55	0xbdc907db	-0.098159514
56	0x3d4c5aeb	0.049891394
57	0xbda9c11f	-0.08288788
58	0xbe393d90	-0.1808989
59	0x3e51e1af	0.20496248
60	0x3c62fac4	0.0138537325
61	0xbdc9a476	-0.098458216
62	0x3e627a7b	0.22117035
63	0xbf06e7b1	-0.52697283
64	0xbcafc79b	-0.021457484
65	0xbdee4bdc	-0.11635563
66	0x3d81a55f	0.0633037
67	0x3d8341d8	0.06409043
68	0xbe598de8	-0.21245539
69	0xbd2ae179	-0.041718934
70	0x3f49e132	0.78859246
71	0x3d3f09c3	0.04664017
72	0xbd1b9108	-0.03798011
73	0x3e223e6b	0.15844123
74	0x3dd5ad7d	0.10433481
75	0x3d1fc8c1	0.039009813
76	0x3dc9b5a6	0.098491
77	0x3e8bcbc3	0.27303895
78	0xbc739230	-0.014866397
79	0xbd2cec13	-0.042217325
80	0xbdf2a380	-0.118475914
81	0xbd53c9f0	-0.051706254
82	0xbd0a8598	-0.03381881
83	0xbe57ef92	-0.21087483
84	0x3d912f5f	0.070891134
85	0x3e848404	0.2588197
86	0x3c264813	0.01014902
87	0x3d853eec	0.06506142
88	0xbdc82709	-0.0977307
89	0xbddc572d	-0.10758815
90	0x3e301222	0.17194417
91	0x3dcb5493	0.099282406
92	0xbe469dee	-0.19396183
93	0xbe1de953	-0.15421037
94	0x3f22d681	0.63608557
95	0x3c4f1c8d	0.012641084
96	0x3c840fee	0.016120877
97	0x3e11a305	0.14222343
98	0x3e80c3df	0.25149438
99	0x3d561418	0.052265257
100	0x3ea50a40	0.32234383
101	0xbd1dcb4f	-0.03852397
102	0xbce2d54b	-0.027689597
103	0x3e628130	0.22119594
104	0xbd8afc0c	-0.067863554
105	0x3e22bdd2	0.15892723
106	0xbe30e105	-0.17273338
107	0xbd8c59ea	-0.06853087
108	0x3e4f31f2	0.20233896
109	0xbd2e0a09	-0.04249004
110	0xbea4956e	-0.32145256
111	0x3dcbdda1	0.09954382
112	0xbdeeaed7	-0.11654442
113	0xbd912359	-0.0708682
114	0x3d57d13d	0.05268978
115	0xbdbd380f	-0.09239208
116	0x3d86e8b7	0.065873556
117	0xbd68ceaf	-0.056837734
118	0xbcf0c848	-0.029392377
119	0x3da0bfc6	0.07849078
120	0x3dd872cb	0.1056877
121	0xbe6ff5b5	-0.23433574
122	0xbec051bd	-0.3756236
123	0x3d3b81f8	0.045778245
124	0xbe227de6	-0.15868339
125	0xbecd562f	-0.40104815
126	0xbc02d51f	-0.007985382
127	0x3e927c8f	0.28610656
128	0x3f247b45	0.64250594
129	0x3e15a4d1	0.14613654
130	0x3cb5f598	0.022211835
131	0xbde07fb8	-0.109618604
132	0x3ba96553	0.0051695495
133	0xbd7bf897	-0.06151637
134	0xbe90933a	-0.28237325
135	0xbe0af90d	-0.13571568
136	0x3d783c99	0.060604665
137	0x3d52f203	0.05150033
138	0x3e89dbba	0.2692545
139	0x3dad7a2c	0.08470568
140	0xbdd1eb95	-0.10250012
141	0x3d7e7cb5	0.06213065
142	0x3edcf4d2	0.43155533
143	0xbf130f36	-0.57445085
144	0x3cd7b067	0.026329232
145	0xbed21801	-0.4103394
146	0xbe058ae9	-0.13041271
147	0x3ef29e18	0.4738624
148	0x3e156c5c	0.14592117
149	0x3d856b12	0.06514563
150	0xbd8d2575	-0.0689191
151	0x3ea450d9	0.32092932
152	0x3f1b47b1	0.6065627
153	0x3e2c1ca4	0.168078
154	0xbd9e1cec	-0.0772036
155	0xbef8c122	-0.4858485
156	0x3f367b58	0.7128196
157	0x3e787b03	0.24265675
158	0x3ea81301	0.32827
159	0xbdc37045	-0.09542898
160	0xbd4b6776	-0.049659215
161	0xbd0fdd4f	-0.035123166
162	0xbd897ff8	-0.06713861
163	0xbb09ae67	-0.0021008493
164	0xbc9e2157	-0.019303007
165	0xbd052178	-0.03250262
166	0x3c232ac7	0.009958929
167	0xbcda2270	-0.02662775
168	0xbcf89655	-0.030345121
169	0xbd519c22	-0.05117429
170	0xbd1c1e3b	-0.038114768
171	0xbce54913	-0.027988946
172	0xbcdd9a9e	-0.027051266
173	0xbd0f8a63	-0.035044085
174	0xbbe449c6	-0.0069668023
175	0x3c24c101	0.010055781
176	0x3e79eb6c	0.24406213
177	0xbd8821cd	-0.06647072
178	0x3f5d5841	0.8646279
179	0xbc2b06b3	-0.010438609
180	0x3f41309a	0.75464785
181	0x3c48665f	0.012231438
182	0xbe573ef1	-0.21020104
183	0x3eedb401	0.46426395
184	0xbe99012d	-0.2988371
185	0xbb4d255a	-0.003130278
186	0xbd8231a7	-0.06357127
187	0xbdeb65ad	-0.114940025
188	0x3ebc6ad8	0.36800265
189	0x3dcf1afb	0.10112568
190	0xbefb7fe8	-0.49121022
191	0xbdbcecfb	-0.09224888
192	0x3afeb83d	0.0019433569
193	0x3c0e2d0a	0.00867773
194	0x3b0cf601	0.0021508934
195	0xbbe35fda	-0.0069389166
196	0x3c0fdbbc	0.008780416
197	0x3ac730c7	0.0015197032
198	0x39e0d4ed	0.0004288325
199	0x3bdf91aa	0.0068227844
200	0x3a036a1b	0.00050130644
201	0x3c0f43ca	0.0087441895
202	0x3b650706	0.0034946813
203	0xbba300c5	-0.004974457
204	0xbaa85c1d	-0.0012844835
205	0x3b3bb76e	0.0028643268
206	0x3b8b8ed3	0.0042589693
207	0xb9c226ea	-0.00037031557
208	0xbf0fe941	-0.5621529
209	0xbdcd8df0	-0.10036838
210	0xbd18f09c	-0.037338838
211	0xbcddcf8d	-0.027076507
212	0x3f1df427	0.6170067
213	0x3ed8efbd	0.42370406
214	0xbebc4509	-0.3677142
215	0x3e1223b6	0.14271435
216	0xbe18d33a	-0.14924327
217	0x3e8ceb44	0.27523243
218	0x3ca3db11	0.02000192
219	0xbe4dfd5b	-0.20116179
220	0x3e520486	0.20509538
221	0xbd9424c4	-0.07233575
222	0xbf0bba8e	-0.54581535
223	0xbe801765	-0.2501785
224	0x3e91d83e	0.28485292
225	0x3e1fa8cc	0.15591735
226	0xbe1d83b4	-0.15382272
227	0x3cc276cc	0.023738287
228	0x3c9db493	0.019251144
229	0xbdd36d84	-0.10323623
230	0xbe0b6720	-0.13613558
231	0xbdd89de0	-0.10576987
232	0x3d634a49	0.055490766
233	0x3e2c97b7	0.1685475
234	0xbc4935f3	-0.012280929
235	0x3d949dd8	0.07256669
236	0x3d3ffe9e	0.04687368
237	0xbc6d9c30	-0.01450257
238	0x3d304a44	0.043039575
239	0xbeaf90f6	-0.34290284
240	0xbe573208	-0.21015179
241	0x3e3a1990	0.18173814
242	0x3e050b31	0.1299255
243	0xbe17ae9b	-0.148127
244	0x3dab966a	0.083782986
245	0x3e5a8196	0.21338496
246	0xbeae835f	-0.34084603
247	0xbd673925	-0.05645098
248	0xbe1f8aa3	-0.1558023
249	0x3d4c1401	0.049823765
250	0xba346331	-0.0006881236
251	0xbe177e79	-0.14794339
252	0xbdcf30f4	-0.10116759
253	0xbe2e53dd	-0.17024179
254	0xbe4ed420	-0.20198107
255	0x3d97868a	0.07398708

onnx::Conv_372 f4 [32]
0	0x3f32f7da	0.6990944
1	0x3f0c3060	0.54761314
2	0xbdc0f95c	-0.094225615
3	0x3f33276e	0.6998204
4	0xbf90470a	-1.1271679
5	0xbf799992	-0.97499955
6	0x3e8a5852	0.27020508
7	0x3f2bb51e	0.6707324
8	0xbeda5e7a	-0.42650205
9	0xbe9bfc7a	-0.30466062
10	0xbf19be58	-0.60056067
11	0xbe3d0496	-0.1845878
12	0xbf1f3ab0	-0.62198925
13	0x3fbc1a3c	1.4695506
14	0x3f1c0b8a	0.6095511
15	0x3f954d0a	1.1664135
16	0x3f0860fb	0.5327298
17	0xbe1cb06c	-0.15301675
18	0x3dd409b2	0.10353412
19	0x3efebf4e	0.4975533
20	0x3f8bf13a	1.0932992
21	0x3e191308	0.14948666
22	0xbf10c152	-0.56544983
23	0x3f06e65d	0.52695256
24	0xbfe6c4a8	-1.8028765
25	0xbc9708f8	-0.018436894
26	0xbf8c5d23	-1.0965923
27	0x3fa17cf5	1.2616259
28	0xbe7880be	-0.24267861
29	0x3ee993fb	0.45620713
30	0x3fa5fe44	1.2968221
31	0x3e1fec36	0.15617451

onnx::Conv_374 f4 [32, 1, 3, 3]
0	0x3d9a3cc9	0.07531125
1	0x3e12220e	0.14270803
2	0x3f4448f3	0.7667381
3	0x3c448872	0.011995422
4	0x3f10a9f4	0.5650933
5	0x3f17ddff	0.59323114
6	0xbf183aa1	-0.5946446
7	0x3e6a4c49	0.22880663
8	0xbec190d4	-0.37805808
9	0x3e404235	0.18775256
10	0x3f1b7cab	0.60737103
11	0x3f256bfb	0.6461789
12	0xbe56737b	-0.2094249
13	0xbdb4322e	-0.087986335
14	0x3e2310fc	0.15924448
15	0xbf30dd2c	-0.6908748
16	0xbf4179db	-0.7557656
17	0x3db7107d	0.08938692
18	0x3ed16412	0.4089666
19	0xbf465c67	-0.77484745
20	0xbeb2025c	-0.34767425
21	0x3f1c09ed	0.60952646
22	0xbde38898	-0.111100376
23	0xbed1c458	-0.4097011
24	0x3f0364ce	0.5132569
25	0x3f2c8150	0.67384815
26	0x3dc37c42	0.09545185
27	0xbee7a7f7	-0.45245335
28	0xbd6d0852	-0.057869263
29	0xbe1e5fd4	-0.15466243
30	0x3ea39887	0.31952307
31	0x3f257790	0.6463556
32	0x3efcc20d	0.493668
33	0xbdd276d0	-0.10276568
34	0xbe09b8f8	-0.13449466
35	0xbe5bbc80	-0.21458626
36	0xbe780186	-0.24219331
37	0x3edad39a	0.42739564
38	0x3f0baad4	0.5455754
39	0xbe21b9cc	-0.15793532
40	0x3e9ca18d	0.30592003
41	0x3f07ec8b	0.5309531
42	0xbe59c2a7	-0.2126566
43	0x3da89cf1	0.08233059
44	0x3e18c2b2	0.1491802
45	0xbe021891	-0.12704684
46	0xbec84be9	-0.39120415
47	0x3f01cb8a	0.507012
48	0xbf36e9bc	-0.714504
49	0x3cd648c8	0.026157752
50	0x3fb01980	1.3757782
51	0xbe2313b5	-0.15925486
52	0x3ec77432	0.38955837
53	0x3f22020b	0.6328437
54	0xbec07b35	-0.37594
55	0xbf935b45	-1.1512228
56	0xbedae69f	-0.42754075
57	0xbf5a6729	-0.8531366
58	0xbf59f3a4	-0.8513739
59	0x3eeddae5	0.46456066
60	0x3e1fb22f	0.15595315
61	0x3f2e1811	0.6800547
62	0x3fad4502	1.3536685
63	0xbf7460c2	-0.9546014
64	0xbe388789	-0.18020453
65	0xbeaabf84	-0.3334924
66	0xbee00be9	-0.43759087
67	0xbe9fc737	-0.31206676
68	0xbf18f929	-0.5975519
69	0xbf306df4	-0.68917775
70	0xbe40bce9	-0.18822064
71	0xbee7d237	-0.4527757
72	0x3c6bf82e	0.014402432
73	0x3e5e3c9d	0.2170281
74	0xbe3662b7	-0.17811094
75	0xbe1af861	-0.15133812
76	0x3ed6c8de	0.41950125
77	0x3ef9757c	0.48722446
78	0xbe96277c	-0.29327
79	0x3e55da09	0.20883955
80	0x3ea4864c	0.3213371
81	0x3d8a129a	0.06741829
82	0x3efae09e	0.48999494
83	0x3e9e8ccd	0.30966797
84	0xbd7a70a6	-0.061142586
85	0x3e402d42	0.18767264
86	0x3e592cf7	0.21208559
87	0xbe053fed	-0.13012667
88	0xbd73dba9	-0.059535656
89	0xbd9e932f	-0.07742917
90	0x428e73ab	71.225914
91	0x426ade29	58.716953
92	0x418c8753	17.566076
93	0x42253391	41.300358
94	0x41cbcf86	25.47633
95	0x4279ad84	62.41945
96	0x421aaff4	38.67183
97	0x42210805	40.25783
98	0xc14dbcdf	-12.858611
99	0xbebf49e3	-0.3736106
100	0xbdf1549a	-0.117837146
101	0xbdac2ff2	-0.08407582
102	0xbe8a54ca	-0.27017814
103	0x3e6a0c1e	0.22856185
104	0x3e01e4a2	0.12684873
105	0xbd4f2817	-0.050575342
106	0x3eedf3db	0.4647511
107	0x3e87ec82	0.2654763
108	0xc212c28f	-36.69
109	0xc283b1d5	-65.84733
110	0x413c77d1	11.779252
111	0x410c70dc	8.777554
112	0xc32e6d7e	-174.4277
113	0xc2efac12	-119.836075
114	0xc1b8f4e2	-23.119572
115	0xc2a8ca40	-84.39502
116	0xc154170c	-13.255627
117	0x3e912438	0.28347945
118	0x3ee0ac5e	0.43881506
119	0x3e9e5d6f	0.3093066
120	0x3e250cf2	0.1611822
121	0x3e340fac	0.17584103
122	0x3e350b68	0.17680132
123	0xbd992963	-0.07478597
124	0x3cab9063	0.020942872
125	0xbe50f124	-0.20404488
126	0xbf7bb29b	-0.98319405
127	0xbe0c08e1	-0.13675262
128	0xbe31517b	-0.17316239
129	0xbe7ae79c	-0.24502414
130	0x3e2ac75e	0.16677615
131	0x3e699a8d	0.22812863
132	0x3f78324d	0.9695175
133	0x3f13249a	0.57477725
134	0xbf83735c	-1.026958
135	0xbf396147	-0.7241406
136	0xbedcf9cc	-0.4315933
137	0xbed52984	-0.41633236
138	0xbed16770	-0.4089923
139	0xbdc8db7d	-0.09807489
140	0xbe8e724d	-0.2782158
141	0xbcfd80df	-0.03094524
142	0x3dafdc24	0.0858691
143	0x3d4bcfca	0.04975871
144	0xbdcff02a	-0.101532295
145	0x3f696e6c	0.91184115
146	0x3f115d88	0.5678334
147	0x3c67985b	0.0141354455
148	0x3ee161f7	0.44020054
149	0x3ca42c2c	0.020040594
150	0xbebe7a80	-0.37202835
151	0xbeff8acc	-0.4991058
152	0xbf0bcdac	-0.54610705
153	0xbdc21a66	-0.09477691
154	0xbb3353f7	-0.002736328
155	0xbea91940	-0.33027077
156	0x3f6419ad	0.8910168
157	0x3f1b8c38	0.6076083
158	0x3e8a97c2	0.27068907
159	0xbe3a8c31	-0.18217541
160	0xbe978ded	-0.29600468
161	0xbe9d3dd7	-0.30711243
162	0x3da62e5d	0.08114312
163	0x3d401f87	0.046905067
164	0x3e73fbca	0.23826519
165	0x3c15e25c	0.009148207
166	0x3e2b21af	0.16712068
167	0x3d88bfd3	0.066772126
168	0x3d3a94de	0.045552127
169	0xbd50dda9	-0.05099264
170	0x3d1fdf93	0.039031576
171	0xbb8b4661	-0.004250333
172	0x3ecfee61	0.40611556
173	0x3ecf11e4	0.40443337
174	0xbe4b7c6b	-0.1987168
175	0x3ebc3cf0	0.36765242
176	0x3ef4011b	0.47657093
177	0xbe2afc5a	-0.16697827
178	0x3db1b378	0.08676809
179	0x3eb1435b	0.346217
180	0xbf320b79	-0.69548756
181	0xc039764f	-2.897846
182	0xbfd63544	-1.6735005
183	0x3e37e1ea	0.17957273
184	0xbfc3c73b	-1.5295175
185	0x3f9cda2e	1.2254083
186	0xbe907e35	-0.28221288
187	0x3f2b632b	0.66948193
188	0x4015bb89	2.3395712
189	0xbe745c27	-0.23863278
190	0xbedba599	-0.42899778
191	0xbcf1f03a	-0.029533494
192	0x3e2cdd34	0.16881257
193	0xbe931a76	-0.28731126
194	0xbedb4f0a	-0.4283374
195	0xbe3e108d	-0.18561001
196	0xbda667f3	-0.081252955
197	0xbe5c724f	-0.2152798
198	0xbea3b9b1	-0.3197761
199	0x3dc1b352	0.09458031
200	0xbe94004f	-0.28906485
201	0x3d4dbfa5	0.050231595
202	0x3f388670	0.72080135
203	0xbde891bc	-0.113559216
204	0xbd8dbbf4	-0.06920615
205	0xbebfcdc4	-0.37461674
206	0xbef82138	-0.48462844
207	0xbe6405d5	-0.2226785
208	0x3e976905	0.2957231
209	0x3f21c9fa	0.63198817
210	0xbf652bc5	-0.8951991
211	0xbebb2f15	-0.36559358
212	0xbdbf25f1	-0.093334086
213	0xbeed5603	-0.46354684
214	0xbe03cef7	-0.1287192
215	0x3f8a1248	1.0786829
216	0x3e9cfe05	0.30662552
217	0x3f05da86	0.52286565
218	0x3e2b0a75	0.16703208
219	0x3deabaa0	0.11461377
220	0x3eba51ec	0.36390626
221	0x3d1aab3b	0.037760954
222	0xbddac014	-0.10681167
223	0xbdf22b58	-0.118246734
224	0x3b908615	0.004410515
225	0xbeb6c148	-0.35694337
226	0xbe56e2fa	-0.20985022
227	0xbeef3994	-0.46723616
228	0x3ec5eca4	0.38657105
229	0x3f04c318	0.5186019
230	0xbe1dda9b	-0.15415423
231	0x3ee5e8a5	0.44904056
232	0x3ded635b	0.11591216
233	0xbd1038be	-0.035210364
234	0xbe695bf0	-0.22788978
235	0x400c9d4c	2.1971006
236	0xbf5eafd8	-0.86987066
237	0xbfd67e62	-1.6757319
238	0x3e287d74	0.16454107
239	0xc047d477	-3.1223428
240	0xbf2b9f3d	-0.67039853
241	0x40a56f98	5.1698723
242	0x402a3986	2.659761
243	0xbedfd218	-0.43714976
244	0xbf05b977	-0.5223612
245	0xbeb00607	-0.34379598
246	0xbea295db	-0.31754956
247	0x3f2674f0	0.6502218
248	0x3f4a57cc	0.7904022
249	0xbd12de65	-0.035856623
250	0x3f556818	0.8336196
251	0x3fb0e546	1.3819969
252	0xbe843833	-0.25824127
253	0x3eed827e	0.4638862
254	0x3e4b4632	0.19850996
255	0x3e7537e7	0.23947106

onnx::Conv_375 f4 [32]
0	0xbf1f3b00	-0.621994
1	0x3f270012	0.6523448
2	0xbe1d8a9d	-0.15384908
3	0xbebca8c7	-0.36847517
4	0xbb817080	-0.0039501786
5	0xbe861df5	-0.2619473
6	0x3c4bff40	0.012450993
7	0x400e9ffd	2.228515
8	0x3ddd9610	0.10819638
9	0x3d143dd8	0.03619179
10	0xbf22a45d	-0.6353205
11	0x3d6a6d88	0.057233363
12	0x3baccc68	0.0052733906
13	0xbf139196	-0.5764402
14	0x3eb4bfe8	0.35302663
15	0x3fce35c8	1.6110163
16	0x3cc95c50	0.02458015
17	0xbf0822d2	-0.5317813
18	0xbe43b2ca	-0.19111171
19	0xbe140620	-0.14455462
20	0x4045ceb1	3.0907404
21	0x3ff64a54	1.9241433
22	0x3ea75a7e	0.32686228
23	0x3cc389c8	0.02386941
24	0xbf04c174	-0.51857686
25	0x3eb21208	0.34779382
26	0xbf394e2f	-0.72384924
27	0xbf031108	-0.5119786
28	0xbeda7825	-0.42669788
29	0xbe00803d	-0.12548919
30	0x3f938d95	1.1527582
31	0x3dac5924	0.0841544
